Zero-DCE++/snapshots_Zero_DCE++/Epoch24.pth (torch, 51217 bytes, 28 tensors)

e_conv1.depth_conv.weight f4 [3, 1, 3, 3]
000000 1d 72 a2 be 41 96 08 be d5 f2 86 3d 5d b4 35 be
       -0.31727687 -0.13338567 0.06589285 -0.17744584
000010 d0 83 fd 3d 68 db d8 3d 17 d0 bb be 12 6b e9 bd
       0.12378657 0.105887234 -0.36682197 -0.11397375
000020 06 82 1f bd a2 4e 1a 3e 94 ba d0 3d 4c 2c 88 3e
       -0.03894236 0.15069059 0.10191837 0.26596296
000030 0c 27 3a 3e 9a df 8c bc 77 cb 55 3e 21 49 de 3d
       0.18178958 -0.017196465 0.20878397 0.10853792
000040 f2 5d 30 bd ed 8f 2c 3e 50 18 78 bd 64 c6 9a bd
       -0.043058343 0.16851778 -0.06057006 -0.07557371
000050 06 94 d2 bd ab d8 b9 bd ac 6d 0a be ba 71 10 be
       -0.102821395 -0.09074529 -0.13518399 -0.14105883
000060 b0 ff 80 bc a6 86 38 be 70 f2 ad be
       -0.015746921 -0.18020114 -0.33974028

e_conv1.depth_conv.bias f4 [3]
000000 e5 fe 93 3d 1c b3 a3 3e dd 8b 12 bd
       0.07226352 0.31972587 -0.035777915

e_conv1.point_conv.weight f4 [32, 3, 1, 1]
000000 2b d3 a9 3c 00 d2 90 3e a4 13 d1 3d fb cb ce 88
       0.020730576 0.28285217 0.10208824 -1.244613e-33
000010 6e b9 cf b7 ff 97 83 3a 7c e6 14 3c db 0f 8f bd
       -2.476267e-05 0.0010039805 0.009088155 -0.06985446
000020 7e ec dc bc 6b b2 af 3d 7a 42 0b bf 83 04 e7 3d
       -0.026968237 0.085789524 -0.5439831 0.112801574
000030 98 9a 4e 3d da ee ab bc 3a 65 4e 3b c6 61 58 be
       0.0504404 -0.020987917 0.0031493441 -0.21131048
000040 b5 aa 1c 3e e0 46 eb 3e 72 9f b3 3d bb 4d 6e 3e
       0.15299495 0.4595251 0.08770646 0.2327184
000050 81 d8 a7 be 40 bc 00 80 33 4f 00 00 ba 7d 00 80
       -0.32782367 -6.7531e-41 2.8411e-41 -4.5102e-41
000060 18 b9 18 3e 47 45 bd bd 78 d7 0b 3d 31 54 79 3d
       0.14914358 -0.09241729 0.034141034 0.060871307
000070 5f c9 4e bd 09 4d 0a be 7f c1 af 3e 8e 67 0d bf
       -0.05048501 -0.13505949 0.34327313 -0.55236137
000080 b7 15 d9 3e 73 91 0f 3d c3 45 c0 bd 79 5f 1c 3d
       0.4239938 0.03505082 -0.09388306 0.038176987
000090 9a 48 08 3e 6c e3 df be 69 a6 05 be 7f 10 a8 bd
       0.13308945 -0.43728197 -0.13051762 -0.082062714
0000a0 53 37 05 be 23 2d f1 3d d0 9a c1 3c 75 12 9b bb
       -0.13009386 0.11776187 0.02363339 -0.004732425
0000b0 0d 58 cc b4 86 5b a2 3c db b0 c3 3e d4 e7 c0 3e
       -3.8062026e-07 0.019819032 0.38220868 0.3767687
0000c0 06 c7 6f be 46 d6 9b 3e a4 ef e3 be df 61 d9 35
       -0.23415765 0.30436915 -0.4451877 1.6196244e-06
0000d0 4e d4 07 35 3d 73 21 3d 0e d3 c7 3d 03 67 d2 3c
       5.0600363e-07 0.03941654 0.09757052 0.025683885
0000e0 8a 82 31 be 0b ed 14 3d 41 00 ab b6 a0 11 f4 3a
       -0.17334953 0.036358874 -5.0962267e-06 0.0018620975
0000f0 d3 ab 0f bf 8d 1b ab bd 86 02 d4 be 30 30 22 3a
       -0.5612156 -0.08354864 -0.41408175 0.000618699
000100 9e 5e 00 80 33 42 d5 37 43 59 1a bc fa c5 62 3c
       -3.3942e-41 2.5422405e-05 -0.009420696 0.013841147
000110 8d 56 ef 3d 09 35 d4 25 3b 12 16 3d 5f c6 5e 31
       0.1168643 3.6812076e-16 0.03663848 3.2418013e-09
000120 0a 4a 29 38 ff 42 5b 00 f5 00 fd 3b 05 32 32 b7
       4.0361694e-05 8.381064e-39 0.0077210614 -1.0621273e-05
000130 ee 24 1f bd 52 44 81 3d e4 64 f7 30 4e 06 98 bd
       -0.03885358 0.06311859 1.800029e-09 -0.074230775
000140 12 1d 9f a6 06 ab b9 3e 26 0f 19 be fb 57 cc be
       -1.1040721e-15 0.36263293 -0.14947185 -0.39910874
000150 96 a1 71 3d 25 9e 04 bf 8f 86 35 be 88 78 00 80
       0.05899199 -0.5180381 -0.17727111 -4.3238e-41
000160 b4 af d4 b7 43 81 28 37 98 26 98 3e 3a fb c5 3c
       -2.5354188e-05 1.0043676e-05 0.29716945 0.024167646
000170 fb 80 be bc bf 76 93 be 08 12 b9 3e 77 d8 cf be
       -0.023254862 -0.28801534 0.3614657 -0.40594837

e_conv1.point_conv.bias f4 [32]
000000 ce 6e 2b be 56 b7 e0 b8 0e ab 2a bd d3 c9 10 3f
       -0.16741487 -0.00010715301 -0.041667037 0.5655796
000010 8b 3a 10 b9 6d bb 8a 3d 33 81 a2 3e c8 04 81 bc
       -0.00013754719 0.0677403 0.31739196 -0.01574935
000020 ec 81 fa 3c cc e7 10 bd 7d 3b d6 3e eb 32 f3 3e
       0.03057953 -0.03537731 0.4184226 0.47499785
000030 3f f4 a8 3e 27 82 9a 3e 99 6a 34 bd 1e a1 0b 3f
       0.32998845 0.30177423 -0.044046972 0.5454272
000040 d7 69 c5 bd b9 80 d4 b9 3d a4 27 be 70 58 44 bc
       -0.09639328 -0.00040531697 -0.16371246 -0.011983976
000050 3d 38 d3 3e 14 66 08 ba 04 9d c4 3e c8 44 8d bd
       0.41253844 -0.0005203199 0.38401043 -0.068978846
000060 22 bf 0f ba 21 e1 75 08 98 a8 91 bd bb a4 b2 3e
       -0.0005483498 7.3991643e-34 -0.07112235 0.34891304
000070 bc c2 22 3e 1f 04 7c bd 10 36 fd 3e 3c 63 c8 bd
       0.15894598 -0.061527368 0.4945531 -0.097845525

e_conv2.depth_conv.weight f4 [32, 1, 3, 3]
000000 b7 fe 65 bd 4c ff 3a bd af 54 50 bd 7b 5a f7 bc
       -0.056151118 -0.045653626 -0.05086201 -0.030194512
000010 13 ee 9b bc 68 d2 a0 bc e0 43 c9 bc e2 d8 61 bc
       -0.019034421 -0.01963158 -0.024568498 -0.013784619
000020 4d d6 b6 bc 24 1c e6 32 7b 3d 47 b1 72 e9 84 29
       -0.022318983 2.6788321e-08 -2.899326e-09 5.902474e-14
000030 f0 a8 2c b8 5b 18 00 80 08 8a 19 2e ea 13 00 00
       -4.116533e-05 -8.737e-42 3.491077e-11 7.144e-42
000040 fa 0a 00 80 9d 4f 8c 39 a8 59 04 31 91 c6 85 2e
       -3.938e-42 0.00026762197 1.9259492e-09 6.083412e-11
000050 4d 89 e7 b8 57 ba 56 3a 18 45 4e 39 2f e6 19 ab
       -0.000110405126 0.0008191219 0.0001967143 -5.4675963e-13
000060 80 bb 57 b4 66 2a 00 80 5a 6f 00 80 f6 78 98 be
       -2.0091647e-07 -1.521e-41 -3.9945e-41 -0.29779786
000070 66 37 94 be 44 c9 c6 bd b9 37 a6 bd 64 d8 30 3e
       -0.28948516 -0.09706357 -0.08116097 0.17270046
000080 c2 41 9c 3e 7a 17 8b 3e 28 7e 8d bc 3f 95 e1 3e
       0.3051892 0.2716635 -0.01727207 0.44059178
000090 52 b4 f1 36 03 c5 00 80 21 c2 5d 39 7e f4 60 9f
       7.2033517e-06 -7.0674e-41 0.00021148521 -4.7636084e-20
0000a0 48 37 00 00 7b bb bb 22 88 9e 7d 3a 83 c4 04 2a
       1.9831e-41 5.0884954e-18 0.0009674807 1.1792134e-13
0000b0 59 e5 1e 30 16 ed 6b bd 48 42 6b 3d 11 0a bb bd
       5.780599e-10 -0.05759915 0.057436258 -0.091327794
0000c0 f4 ae 66 3d 86 76 6e 3e d5 d9 a3 bd b6 41 54 bd
       0.056319192 0.232874 -0.080005325 -0.05182048
0000d0 0c f6 41 38 db 31 37 be f4 b6 be 3d 8f b8 92 39
       4.6243935e-05 -0.17890112 0.09312239 0.00027984797
0000e0 01 42 62 be 98 b2 4a 3d df d9 2b 3e aa 15 be bd
       -0.22095491 0.049486727 0.1678233 -0.09281476
0000f0 dd 84 47 bd 0f db 95 bb 4f 90 a0 be 40 14 b9 38
       -0.048710693 -0.004573233 -0.313601 8.825259e-05
000100 e8 c4 bf 36 08 85 53 b4 7d bf 69 37 8e 40 e3 0b
       5.7151665e-06 -1.9699303e-07 1.3932467e-05 8.753435e-32
000110 c2 5f 4c ba a4 e3 0f 36 78 a9 16 b8 3d b6 a5 b9
       -0.00077962514 2.1441165e-06 -3.5920617e-05 -0.0003160703
000120 71 06 a6 ba dd 36 c1 ba 8d 12 64 ba a6 0c 88 ba
       -0.0012666715 -0.0014741082 -0.0008700274 -0.0010379746
000130 0c 53 96 ba 18 86 bf b9 97 76 74 ba 2a cf 52 ba
       -0.0011468842 -0.00036530267 -0.00093255326 -0.0008041734
000140 4f 9c cb b8 77 01 36 bb 9f b0 67 3b dd 7f 08 bc
       -9.708909e-05 -0.002777187 0.0035353077 -0.008331266
000150 1a da 85 3a 20 85 d4 3b b3 e1 84 bb a3 f6 d4 ba
       0.0010212094 0.0064855963 -0.0040552258 -0.001624782
000160 43 2b 8f 3b 1f 9f d8 ba ab 9d a5 3e 8b 5d 9c 3e
       0.004369171 -0.0016526914 0.32346854 0.30540118
000170 9b ab 65 3e c7 27 a1 3e 77 b7 3a bc c5 8a b5 3e
       0.22428744 0.3147566 -0.0113962805 0.35457435
000180 6a c8 93 3e 55 d0 89 3d 5a ab 16 3d 77 19 62 3e
       0.2886384 0.06729189 0.036784507 0.22080027
000190 4b 60 72 be 3b e6 06 3e 1f 5f 90 3d a0 11 75 be
       -0.23669545 0.13173763 0.07049393 -0.23932505
0001a0 e8 69 26 be 9d 1f 87 3e 72 ee 5f 3d 7e 93 0b 3e
       -0.16251338 0.26391307 0.05467076 0.13630483
0001b0 99 2c aa 3e cb fa d0 3d 87 82 44 3e 0f 17 91 3e
       0.3323715 0.10204085 0.19190417 0.28337905
0001c0 01 21 5f 3e d8 c8 d6 3d f1 71 9a 3e 03 fd 50 3e
       0.21789934 0.10487527 0.30165055 0.20409016
0001d0 c1 ca 82 bd 5b 75 d5 bb 18 f0 aa 3c 49 c2 1c 3d
       -0.063863285 -0.006514234 0.020866439 0.038271222
0001e0 6a df df 3d fe 54 17 be 9b c4 4f 3e e4 f2 03 be
       0.10931285 -0.14778516 0.20289843 -0.12885624
0001f0 b6 e9 05 3d 60 99 be 3e 4e 44 53 b9 0d 76 83 b6
       0.032693587 0.3722639 -0.00020147974 -3.917847e-06
000200 75 38 3b 34 de 65 1b 20 2e 5c 1a 38 3a 58 34 91
       1.7436271e-07 1.3162716e-19 3.680231e-05 -1.4226683e-28
000210 83 0c 34 37 9c 8e b4 27 88 5b 2c 33 da 19 aa bd
       1.0731749e-05 5.0114654e-15 4.0130118e-08 -0.08305712
000220 c4 6b 2b 3e c2 af 39 be 8d 2e 07 3e 52 bb 67 3e
       0.16740328 -0.18133453 0.13201351 0.22630051
000230 f7 de 5f 3e af bb 24 be 67 9d 8d bd 93 13 85 bd
       0.21862398 -0.1608722 -0.06914788 -0.06497874
000240 f9 d9 05 3e f4 9c 92 3e d6 3b b2 3e fb cd 06 3e
       0.13071431 0.2863537 0.34811276 0.13164513
000250 94 ee 82 3d 9d ca ed 3d bd f4 44 be 4a 82 4b bd
       0.063931614 0.11610911 -0.19233985 -0.0496848
000260 be 0a 29 be 11 99 df 36 1f 4f 00 80 90 d3 00 80
       -0.16508004 6.663737e-06 -2.8383e-41 -7.5894e-41
000270 14 2d 86 a4 b1 21 7d 2b 3b a3 00 00 ad a2 7b 2c
       -5.81896e-17 8.993041e-13 5.8556e-41 3.5759549e-12
000280 83 9f 58 ad 00 8b f8 38 05 72 b9 36 40 67 31 ba
       -1.2313597e-11 0.00011851452 5.5267033e-06 -0.00067673996
000290 b0 38 dd 34 58 83 6e 36 65 6d 3d ba d8 54 eb 39
       4.1205703e-07 3.5541216e-06 -0.0007226079 0.00044885906
0002a0 9c 5c 7c 36 93 37 f9 38 a2 83 91 b9 38 17 21 8e
       3.7604832e-06 0.00011883597 -0.0002775463 -1.9855962e-30
0002b0 b6 a2 70 28 31 1c 00 80 e1 1b 00 00 0c 18 49 03
       1.3357959e-14 -1.0113e-41 1.0001e-41 5.9096196e-37
0002c0 fa 80 2a a8 f8 dd 2e 9e d1 5f a7 29 d8 62 07 1c
       -9.464863e-15 -9.257385e-21 7.432911e-14 4.4795506e-22
0002d0 9a fb 02 bd ed ea 88 3e f6 7e 57 be 95 72 a4 be
       -0.031978227 0.26741734 -0.21044526 -0.3211867
0002e0 25 50 89 bc 2e 83 80 3d 31 2f 85 be 68 cb 84 be
       -0.016761849 0.062750205 -0.26012567 -0.25936437
0002f0 86 05 92 be 95 ae 00 00 71 00 00 80 73 e8 4c ba
       -0.2851984 6.2628e-41 -1.58e-43 -0.000781662
000300 c0 2d 71 b3 4f ed de 30 f6 ef 11 3a 51 4e 00 00
       -5.6153795e-08 1.6220073e-09 0.0005567068 2.8095e-41
000310 de 60 58 b2 10 c9 40 a7 f0 8a 4a bd de e0 1a be
       -1.259488e-08 -2.6754349e-15 -0.049448907 -0.15124843
000320 65 d7 09 3e 43 cd e0 bd e8 49 15 be 75 f1 f2 3c
       0.13461073 -0.109766506 -0.14578974 0.029656151
000330 60 98 0f bd 91 72 0b be 99 11 5c ba 86 ec 00 80
       -0.035057425 -0.13617922 -0.0008394956 -8.4849e-41
000340 ea 22 00 80 71 71 00 80 4a 83 7f 8e d4 88 8b b6
       -1.2525e-41 -4.0695e-41 -3.149439e-30 -4.1584517e-06
000350 ae 24 00 80 33 6c c7 af b4 a8 bf 05 c6 09 01 80
       -1.3158e-41 -3.627477e-10 1.8023525e-35 -9.5342e-41
000360 a5 25 ad 0e f0 08 3c a5 6f a6 8f 32 09 bf 00 80
       4.2684043e-30 -1.6309429e-16 1.6723076e-08 -6.853e-41
000370 5a 24 63 ac e9 2d 00 80 88 ce 00 80 d7 1c 39 a5
       -3.227882e-12 -1.647e-41 -7.409e-41 -1.6055963e-16
000380 a0 b9 00 80 af 51 55 ba 79 2d 2c 13 49 96 00 00
       -6.659e-41 -0.0008137477 2.1731872e-27 5.3912e-41
000390 cf 84 51 b9 d5 25 00 80 6d 0a 4b ba 2b 8b 60 b0
       -0.00019981268 -1.3572e-41 -0.0007745389 -8.1688495e-10
0003a0 09 70 8c 90 44 bc 32 a9 5e 92 00 00 f6 23 26 b6
       -5.539288e-29 -3.9687234e-14 5.2507e-41 -2.475686e-06
0003b0 58 64 5c 39 f7 e9 fd b6 a7 ef 61 29 74 3d 00 00
       0.00021018216 -7.5672247e-06 5.01679e-14 2.2045e-41
0003c0 be 58 c3 b9 0b 4e 00 00 22 2d 00 00 2d 3b 9f 3e
       -0.00037259416 2.7997e-41 1.619e-41 0.31099835
0003d0 3d fe 1d bd dd ca e9 3b 40 07 f7 3b 9e 33 f9 3d
       -0.03857254 0.007134779 0.007538706 0.12168048
0003e0 04 5d b2 3d ea ba fd 3c 6d fc 38 bd 9c f6 7f b9
       0.087091476 0.030972917 -0.045162607 -0.00024410564
0003f0 f3 41 1a 39 49 fa 0d 39 1a 24 1b 38 61 9a 05 b8
       0.00014711152 0.00013540046 3.6988502e-05 -3.1853448e-05

e_conv2.depth_conv.bias f4 [32]
000000 67 ef d5 3d cc bb 27 be 16 1a c7 3c b4 1b 57 bd
       0.10446053 -0.16380233 0.024304431 -0.052516654
000010 45 a3 58 be ed 05 65 3e af b5 1d 3c fd 8b 26 3e
       -0.21156032 0.22365542 0.009625836 0.16264339
000020 2a c6 96 3e c3 82 86 be 6a d9 e2 3b dc fe b2 bd
       0.29448062 -0.26271638 0.0069228904 -0.08740017
000030 ab 39 70 be c0 ea 5f bd 59 2b 35 3e 5d bc 67 3e
       -0.23459499 -0.054667234 0.17692317 0.22630449
000040 71 4f 50 3e a6 b8 47 bd b8 17 07 b6 e2 33 47 3e
       0.20342804 -0.04876008 -2.0130374e-06 0.19453385
000050 20 19 8d 3e 2d dc 50 3e 9e 1b 00 be 3d 78 77 3e
       0.2755823 0.2039649 -0.12510535 0.24166961
000060 c8 31 cc bd 2b e9 2b bd 27 b1 cd 3d b6 3d 7a be
       -0.099704325 -0.041970413 0.10043555 -0.24437603
000070 61 07 fa bd 8c eb 3c be e7 3a a0 bd 09 c3 9b 3e
       -0.12208439 -0.18449229 -0.07823735 0.30422238

e_conv2.point_conv.weight f4 [32, 32, 1, 1]
000000 09 b1 f1 bc 3b e4 f1 bc a8 84 80 bb af 33 04 3e
       -0.029503362 -0.029527774 -0.003922064 0.1291034
000010 36 16 35 3c c9 a1 57 bd b0 52 34 3d 1c 5c 06 bd
       0.011052659 -0.052644525 0.04402417 -0.032802686
000020 cf 8d 83 bd 53 48 98 3b 7f 96 5c 3d dc 26 02 3e
       -0.06423532 0.0046472936 0.05385446 0.12710136
000030 53 f1 fe 3d 59 d0 0f 3c b3 6a fd bb e6 f0 ce bd
       0.12448373 0.008777701 -0.007733667 -0.101045415
000040 9f 6d 3f 3d a4 67 98 ba 40 36 f8 36 f0 e4 85 bd
       0.046735402 -0.0011627567 7.3972915e-06 -0.06537807
000050 df 3b 55 3e a2 cf 33 3d 7c 21 7e 3d 0e 9f 94 bd
       0.2082362 0.043899186 0.062043652 -0.072569
000060 6d a8 47 bc de c6 ed 3b eb 3a ac bc 64 b6 3d 3d
       -0.012186152 0.007256373 -0.021024188 0.04631652
000070 a4 37 dc 3c 54 8a 07 3d f0 f1 1c be a9 77 bc bd
       0.026882 0.033090904 -0.15326667 -0.09202511
000080 de b7 8d 3d 69 cc ef bd 62 8c 88 3c 41 04 5c be
       0.069198355 -0.1170891 0.016668502 -0.21485998
000090 6b f6 2b 3d bc 9f 0b 3e 27 66 d2 3c d6 f1 95 3c
       0.04198305 0.13635153 0.025683476 0.018303793
0000a0 8b b2 c5 3d 4c 47 d2 bd 52 64 84 3e 67 98 79 bd
       0.09653195 -0.10267505 0.25857788 -0.060936358
0000b0 94 c3 35 3e 12 9a 47 3d 7f e4 fd bc f6 ca 27 3e
       0.17750388 0.048730917 -0.030992744 0.16386017
0000c0 dc a3 9d 3d 8f df 7d bc 0d ef da 37 9f 4a ed bc
       0.07697269 -0.015495195 2.6098942e-05 -0.028966246
0000d0 ec 71 04 3e 49 83 5c 3d bc 9b 68 3d 56 47 0d 3e
       0.12934083 0.05383614 0.056789145 0.13796744
0000e0 3e 9d ff bb 27 9d d3 bc e5 33 68 bd 2d 0e bc 3d
       -0.007800727 -0.025831772 -0.056690115 0.09182391
0000f0 ef 38 0d be bf 6d d9 bc 7c 65 64 be 5f 8f 14 3e
       -0.1379125 -0.026541589 -0.22304338 0.14507817
000100 33 94 28 3b cd 5e 9a 3b 8c 9c 46 ba 10 8e 8d 3e
       0.00257231 0.004711008 -0.0007576428 0.27647448
000110 0a f4 bc 3c 05 6e 33 3d 56 4e c2 3c 88 23 ad bc
       0.023065586 0.043806095 0.023718994 -0.021135107
000120 d8 61 6c bd c0 de 80 bd a7 08 0e be 6f fa c1 3c
       -0.0577105 -0.06292486 -0.13870488 0.023678986
000130 5b d6 6e be c7 cc ce 3c ae c5 24 bd 7f 86 0c 3d
       -0.23323958 0.02524413 -0.040227585 0.034307953
000140 aa bf c1 3d 00 62 55 bc b5 c2 b1 b4 6b f9 d0 3c
       0.09460385 -0.013023853 -3.3110487e-07 0.025509557
000150 bd fc ea bd 42 aa 13 3c 63 86 df bb 8c 4e ba 3d
       -0.11473987 0.009012761 -0.00682144 0.09097013
000160 93 9a dd bb 72 37 cc 3a 51 ce e8 3c d3 b3 16 be
       -0.0067628114 0.0015580489 0.028418692 -0.14717035
000170 5d 04 b0 bc f4 bc 6e bd b7 5a a8 3d c9 1f 37 bd
       -0.021486456 -0.05828567 0.082204275 -0.044708047
000180 7e 25 00 00 91 58 00 00 fb 54 00 00 18 ad a3 28
       1.345e-41 3.1772e-41 3.0485e-41 1.8171703e-14
000190 a4 fa 00 80 7a 3e 00 10 db 53 00 00 59 54 01 80
       -8.9913e-41 2.529168e-29 3.0082e-41 -1.22094e-40
0001a0 10 fe 8a ae ec 2f 00 00 52 5d 00 80 5a e5 73 9c
       -6.320644e-11 1.7191e-41 -3.3477e-41 -8.0698385e-22
0001b0 b6 5a 93 27 c4 ed 02 80 1f 99 00 80 c7 a8 1b ac
       4.0899045e-15 -2.68965e-40 -5.493e-41 -2.2120515e-12
0001c0 80 41 00 00 1c c7 00 80 35 97 1b a5 a5 d2 00 00
       2.3497e-41 -7.1427e-41 -1.3495338e-16 7.5565e-41
0001d0 06 cf 5d ab b6 1b a3 05 7a 17 06 80 4b c7 00 00
       -7.8802275e-13 1.5338626e-35 -5.59435e-40 7.1493e-41
0001e0 6b ae 00 00 a9 82 00 00 2e cd 00 80 74 4e 2c 10
       6.257e-41 4.6872e-41 -7.3605e-41 3.3981457e-29
0001f0 d8 e9 c5 a1 65 a6 00 00 89 b4 00 80 dc 43 00 80
       -1.3411137e-18 5.9691e-41 -6.4764e-41 -2.4343e-41
000200 43 f7 2e 3c f3 8c d4 3c da 86 b2 3b c2 b9 d7 bd
       0.010679069 0.025946116 0.0054482045 -0.10533477
000210 5b 3f 40 3d 00 3c f0 3d 36 f3 2a be 05 9f df ba
       0.04693542 0.11730194 -0.1669434 -0.0017060941
000220 32 89 06 bd c5 29 19 bd 61 52 e9 bd ee c2 ea bc
       -0.032845683 -0.03739335 -0.11392666 -0.028657403
000230 f5 d6 b6 bd 55 4a 84 bd 0d cf 85 3c 63 9c 2e 3e
       -0.089277185 -0.0645949 0.016334081 0.17051844
000240 26 f9 70 bc 77 fb 8f bc 81 df b3 36 1a 3c 4a 3d
       -0.014707839 -0.017575962 5.360635e-06 0.049373724
000250 1f 67 37 bb 18 df b3 bc 45 c0 ce bb a7 21 12 bd
       -0.002798505 -0.021956965 -0.0063095414 -0.035676625
000260 a2 8d e5 bc 5f 7f 2d bc bc 2a ca 3c 17 20 94 3c
       -0.028021637 -0.01058945 0.02467858 0.018081708
000270 ce a6 7c bc 8c fd 3b bd 65 3e 4c 3d 6c 0b 42 bd
       -0.015420629 -0.045896098 0.04986419 -0.047374174
000280 ca a0 87 3c d6 4b 9b bc bf ca 95 3b 59 f5 56 be
       0.016556162 -0.01895706 0.0045712884 -0.2099203
000290 b6 6e b9 bc 64 9c 08 3d d6 f5 54 3d 82 e5 9f 3c
       -0.022635799 0.03335227 0.05199226 0.019518618
0002a0 1b 50 ce 3c 4c f8 d1 bc 1a b3 12 3e cc b5 0e bd
       0.025184682 -0.025631092 0.14326134 -0.034841344
0002b0 4c d4 ea 3d 99 5a ca bc de 95 a8 3c 1b e9 a8 3c
       0.11466274 -0.024701403 0.020579275 0.020618966
0002c0 8d 95 cb bc 90 bd 09 bc a8 88 46 35 6c 06 42 3c
       -0.024851585 -0.008407012 7.395961e-07 0.011842351
0002d0 5b 72 b8 3d 56 2d ce 3c 08 d6 dd bc 86 7e 88 3c
       0.090061866 0.025168102 -0.027079597 0.016661894
0002e0 be c6 65 bc 56 59 f1 bb 30 90 70 3c ad e2 4c 3d
       -0.014024435 -0.007365386 0.0146828145 0.050020862
0002f0 40 12 7b bc 67 4b ac bc 6c f8 35 bb c2 ea 0b 3e
       -0.015324175 -0.021032048 -0.002776648 0.13663772
000300 71 71 cc 3b b5 ec c7 3c b9 55 6f 3b 81 15 6f 3e
       0.006239109 0.024404863 0.00365196 0.23348047
000310 db 6b f3 bc 47 5e 3b be c8 63 22 3e ea 32 8d 3c
       -0.029714515 -0.18297683 0.15858376 0.017236192
000320 47 77 66 3b e8 15 4d bd 1d 33 c4 3e 9f 56 79 3e
       0.003516631 -0.05006972 0.38320246 0.2434945
000330 ad 34 27 3e d9 34 8c 3e 5c 83 b4 3c 15 a5 b3 bd
       0.16328688 0.2738407 0.022035293 -0.08771721
000340 05 04 0a 3e b5 01 92 bb 22 06 50 b6 35 0e 2a 3d
       0.13478096 -0.00445577 -3.0997985e-06 0.041517455
000350 d0 55 65 bd b2 ee 09 3d 8b 3b 3c 3d 1f 9a 9a 3c
       -0.05599004 0.033674903 0.045955222 0.018872319
000360 c4 24 cd 3a b9 26 9a bb fd 8b ad 3c f7 6d 4e 3d
       0.0015651216 -0.004704323 0.021184916 0.05039784
000370 bd 89 05 bc bc ca a7 3c e3 ad 30 be a4 67 3b 3e
       -0.008150515 0.020482413 -0.17253833 0.18301255
000380 5e 4c 0c 1d 56 74 76 29 ae 3f 83 9f 6e c5 1d 9b
       1.8568327e-21 5.4723878e-14 -5.558601e-20 -1.3050529e-22
000390 ed 5d b6 1d 7d b4 7b a9 31 8d 90 9d b9 cf 93 9b
       4.8272116e-21 -5.5889744e-14 -3.826247e-21 -2.4453348e-22
0003a0 d9 ef c2 aa 7c b0 09 9e 21 4a 1d ae b7 0a 45 1c
       -3.462775e-13 -7.289216e-21 -3.5763507e-11 6.519568e-22
0003b0 32 ab 72 27 7d 0f e7 1a 16 5e 51 aa 50 df 52 9d
       3.3677052e-15 9.5564383e-23 -1.8595572e-13 -2.7908718e-21
0003c0 3e e0 b4 1c b9 91 c6 1c 48 60 72 95 4e 7d d7 a6
       1.1969366e-21 1.3140209e-21 -4.8947463e-26 -1.4952586e-15
0003d0 fc 65 76 9d b4 5c 40 2d c6 13 b8 1d 65 31 71 2d
       -3.2610554e-21 1.0934521e-11 4.872484e-21 1.3710232e-11
0003e0 ee 00 3c 2d cc af 36 2b 50 3c 39 ae 48 34 11 1e
       1.0686769e-11 6.4903356e-13 -4.2117698e-11 7.6870476e-21
0003f0 67 7e 26 9f ce 32 f3 2b 2e c1 a1 2d c9 f4 a2 2a
       -3.5256425e-20 1.728029e-12 1.838937e-11 2.8946835e-13

e_conv2.point_conv.bias f4 [32]
000000 92 33 cf 3d 6e 87 67 3d f1 8b d0 3d 1b ba c2 98
       0.10117258 0.05652564 0.10182942 -5.0335743e-24
000010 d6 d6 21 3e ec 01 91 3d 94 6e cf bb 3a 5c 50 1c
       0.1580461 0.07080445 -0.0063303206 6.8940627e-22
000020 2b 45 44 3d 6a a1 02 3e 87 3a b3 39 fb 42 27 bd
       0.047917526 0.12756887 0.00034185147 -0.040835362
000030 a2 09 19 3c e4 ef 48 3e d6 ce 8c 3d 94 b3 00 00
       0.009340676 0.19622761 0.06875388 6.442e-41
000040 b7 2d a4 1d d1 07 d6 3c 7a e7 0b 3d 2a 8e 00 80
       4.3457707e-21 0.026126774 0.0341563 -5.0999e-41
000050 c7 82 9f bd bc c5 2e bc 90 6e e1 3c ad 39 38 bc
       -0.07788616 -0.010667261 0.02751854 -0.01124422
000060 e7 ab 45 3d cd b1 69 bc e9 a7 40 3d a5 43 e1 bd
       0.048259642 -0.014263582 0.04703513 -0.1099923
000070 60 35 00 80 fe 8d 24 3d b6 6f 59 3d e8 6f d0 3d
       -1.9147e-41 0.040174477 0.05308505 0.101775944

e_conv3.depth_conv.weight f4 [32, 1, 3, 3]
000000 c2 22 c2 2c 85 db 84 37 77 34 ae 35 d1 89 e9 39
       5.5176705e-12 1.5837848e-05 1.297928e-06 0.00044543904
000010 bc 30 29 ac dd 5c 7a 37 9c 89 f1 2c 57 52 99 2c
       -2.4043397e-12 1.4922783e-05 6.8649097e-12 4.357663e-12
000020 64 ca c2 2b d0 c5 1b b6 07 ca dc b3 ba b5 97 ad
       1.3840704e-12 -2.3211942e-06 -1.0281297e-07 -1.7247415e-11
000030 5b 0f cb ad f3 d7 9e ad 0d 3f 92 39 2a 6d 0c ad
       -2.3085247e-11 -1.8058421e-11 0.00027894267 -7.982318e-12
000040 65 93 27 ad d7 6c 18 b3 04 15 cf b7 8b a3 f5 30
       -9.525579e-12 -3.5489247e-08 -2.468611e-05 1.7872578e-09
000050 7a 6e 0a 2d 64 c5 b3 2c 98 ce f7 2c c1 5f 22 2d
       7.8689225e-12 5.1094007e-12 7.0430987e-12 9.2298955e-12
000060 76 02 5a ba 55 3b 05 b8 f3 26 bc 36 4e f7 3b 9a
       -0.0008316407 -3.176493e-05 5.607371e-06 -3.8870465e-23
000070 16 5d a0 33 9f 2c 4d 35 6d b3 e0 38 d5 02 3a 39
       7.467513e-08 7.6433383e-07 0.00010714573 0.00017739397
000080 cf 69 67 3a 88 22 59 32 0a 8c 9a 26 97 95 60 ba
       0.00088277174 1.2638914e-08 1.0723854e-15 -0.00085672125
000090 81 7e f7 aa fa 98 2c 36 70 06 4a ab 9c 97 08 ba
       -4.3963794e-13 2.5719041e-06 -7.177375e-13 -0.000521058
0000a0 dc 94 2d 2b 95 b5 24 3a ac d5 cb 32 45 d7 b8 aa
       6.166853e-13 0.00062831613 2.3729477e-08 -3.283434e-13
0000b0 a0 e9 20 ac ea 45 79 2c b8 81 13 ac 44 34 39 ad
       -2.2867055e-12 3.5423838e-12 -2.0961965e-12 -1.0527638e-11
0000c0 d7 6d 45 b9 2c e6 b3 ac 87 3a ff ac 01 71 2a 3a
       -0.00018828303 -5.11304e-12 -7.2540337e-12 0.0006501824
0000d0 86 1b 32 ac e7 7a a9 ac f0 8a 09 2d 08 06 8b 2d
       -2.53106e-12 -4.816914e-12 7.818399e-12 1.5805149e-11
0000e0 33 39 1a 2b e7 0c 02 ba 15 6a 52 b0 86 61 91 2d
       5.479117e-13 -0.0004961029 -7.6548307e-10 1.65279e-11
0000f0 70 11 0f 32 02 e5 96 2d 64 4a fc ae 82 6f 00 80
       8.32766e-09 1.7154726e-11 -1.1472848e-10 -4.0001e-41
000100 fa ee e8 b5 cc 6c 9f 2e 37 10 84 39 f7 68 4d 35
       -1.7354898e-06 7.249809e-11 0.00025189083 7.6521195e-07
000110 e2 d7 4d 38 e5 a2 00 80 93 8e 41 06 1d 45 47 34
       4.9076865e-05 -5.8436e-41 3.6404013e-35 1.8558463e-07
000120 c5 a3 0b ac ee e4 75 3a c4 86 e7 2e 59 fd a9 b5
       -1.9843998e-12 0.00093801215 1.0528603e-10 -1.2665215e-06
000130 02 7b ad 38 06 30 78 ae b7 75 ab af 7a 9e e8 2e
       8.272195e-05 -5.6431325e-11 -3.118836e-10 1.05782896e-10
000140 f4 bc ff 2e 6f 66 3c b0 15 d2 8c b9 94 e8 59 3a
       1.1629622e-10 -6.853957e-10 -0.00026859404 0.000831255
000150 32 11 01 ad f4 40 f0 2c 86 52 88 38 2c fe b7 32
       -7.336619e-12 6.8284215e-12 6.5003565e-05 2.1419588e-08
000160 d9 7c c2 38 50 5c dc 38 f9 c3 c9 2c 38 26 aa 27
       9.2738956e-05 0.00010507612 5.734521e-12 4.7225915e-15
000170 1e 96 93 27 e0 6e 7a 39 84 b3 b1 a8 a5 34 bf b2
       4.0963454e-15 0.00023883162 -1.97288e-14 -2.2259266e-08
000180 8b bd 67 b8 f6 8f 21 28 75 48 75 b9 b9 27 fb a4
       -5.5251217e-05 8.968512e-15 -0.00023392013 -1.0892119e-16
000190 5a 7c 28 a5 c1 d1 4a 29 02 79 b0 a4 d8 4e 99 23
       -1.4613809e-16 4.5034943e-14 -7.653283e-17 1.6621685e-17
0001a0 fc 5e 07 30 23 94 82 24 bc af f7 24 d0 6d 20 37
       4.9247695e-10 5.6629466e-17 1.0741688e-16 9.562311e-06
0001b0 5d a2 8c 2d df 39 3c 2e 3a f2 51 2d 2c b9 79 b7
       1.5988261e-11 4.279765e-11 1.193406e-11 -1.488467e-05
0001c0 eb 16 c6 2d ab ad 70 ba 53 c6 e7 2d d1 68 32 2e
       2.2520171e-11 -0.0009181152 2.6349733e-11 4.056561e-11
0001d0 9e 34 9e 30 25 8f aa b1 d5 c7 e9 b1 e5 82 05 37
       1.1510968e-09 -4.963925e-09 -6.8039108e-09 7.957894e-06
0001e0 08 32 85 37 ab 01 15 2f eb 71 ab 2f 69 43 a6 30
       1.5878133e-05 1.3552064e-10 3.1185662e-10 1.2097249e-09
0001f0 09 09 4d 30 01 84 b9 b1 80 99 87 2c 49 3a da b7
       7.4591405e-10 -5.3992157e-09 3.8539727e-12 -2.6014766e-05
000200 b6 86 07 b4 53 5e a1 39 ca 75 c8 2f af b8 1d 2f
       -1.2621862e-07 0.0003077859 3.6463482e-10 1.434468e-10
000210 52 9b 91 ad a8 9b ba ad 55 6a 1b b7 e9 9a 11 38
       -1.6553568e-11 -2.1214877e-11 -9.263477e-06 3.4714965e-05
000220 ed 4e 00 80 bd 0e 8a 36 a7 03 86 a6 bf d5 79 9e
       -2.8313e-41 4.1144363e-06 -9.299108e-16 -1.3226152e-20
000230 01 5e 16 b8 80 6d 01 80 d2 0b be b9 69 d2 68 39
       -3.5850335e-05 -1.31117e-40 -0.0003624843 0.00022203628
000240 bf e2 1e b1 bd d1 84 ba 31 37 55 39 51 79 80 ad
       -2.3120916e-09 -0.0010133308 0.00020333823 -1.460579e-11
000250 0f c6 32 30 0d c4 a2 39 e8 b8 14 af d7 d5 bd b7
       6.503748e-10 0.00031045117 -1.3526213e-10 -2.2630133e-05
000260 b5 e9 54 b5 3e 15 56 ac c2 f2 6b aa be b3 b2 aa
       -7.931624e-07 -3.042302e-12 -2.0956416e-13 -3.1743873e-13
000270 8e 61 cb af 34 6a f1 b7 95 e3 4e ac c7 71 5b 29
       -3.6994802e-10 -2.8778893e-05 -2.9400694e-12 4.8726455e-14
000280 23 14 56 a9 57 e2 2b b9 e3 89 02 36 53 62 85 ac
       -4.753501e-14 -0.00016392149 1.945177e-06 -3.7910035e-12
000290 98 b2 3a 2c f2 dc 82 ac bb 2d a1 39 3a d4 ba 2c
       2.653133e-12 -3.719352e-12 0.00030742385 5.31e-12
0002a0 28 e7 18 ac b0 ce cc b2 42 59 52 ac 3e 53 00 00
       -2.1728817e-12 -2.3842716e-08 -2.9892343e-12 2.9862e-41
0002b0 11 03 a3 a0 31 b7 00 80 20 c8 00 00 06 91 00 00
       -2.7615303e-19 -6.5717e-41 7.1791e-41 5.2025e-41
0002c0 3e ed 16 ba 1a 1a 00 00 47 70 04 27 f8 67 51 b2
       -0.0005757398 9.363e-42 1.8379546e-15 -1.2189041e-08
0002d0 3d 9c d0 b3 49 37 03 2e 5a e2 0e 2e 2a d3 82 ae
       -9.714174e-08 2.9835055e-11 3.2488102e-11 -5.949226e-11
0002e0 1c b2 fc 2c b4 63 84 b6 f0 85 92 36 77 e3 7c ba
       7.182045e-12 -3.9455135e-06 4.3667314e-06 -0.0009646932
0002f0 65 2d 1e 34 a8 f5 c6 b4 2d ca 7c 34 44 4a 39 a7
       1.4731411e-07 -3.7059112e-07 2.354288e-07 -2.5714167e-15
000300 5a 80 8c 2a bc 2a 94 2d 96 f6 43 a6 5c 55 3c 2c
       2.4958058e-13 1.684463e-11 -6.79884e-16 2.676379e-12
000310 78 81 6f 35 af 03 0f 28 c9 35 0b af 62 a8 16 b8
       8.922284e-07 7.938893e-15 -1.2661085e-10 -3.5919606e-05
000320 c2 28 a5 ae b2 31 6a 36 84 36 a6 2e b5 88 05 b9
       -7.510571e-11 3.4897644e-06 7.55849e-11 -0.00012734796
000330 42 b4 67 2e ec 11 91 39 b7 13 ab b6 53 1c cd b8
       5.268342e-11 0.00027669908 -5.0984922e-06 -9.7804375e-05
000340 b1 0d 49 b5 4c fc 56 33 60 44 62 3a 0d a9 ff b0
       -7.489826e-07 5.005522e-08 0.00086314045 -1.8601739e-09
000350 df 68 6f 38 a0 00 38 ae 78 78 12 2e 88 23 a6 2d
       5.707971e-05 -4.183731e-11 3.3303554e-11 1.8887794e-11
000360 69 f3 3c b0 b9 8e e9 b8 26 e7 8c 39 37 7e 20 ac
       -6.873991e-10 -0.0001113689 0.000268751 -2.280743e-12
000370 1f 3c 01 b9 77 e3 3f ac 31 12 85 af 19 43 23 2f
       -0.00012324796 -2.7269e-12 -2.4205485e-10 1.4848602e-10
000380 01 81 25 b4 c9 37 d4 b0 0a cf 48 32 22 ca 29 b6
       -1.5413754e-07 -1.5440885e-09 1.1688607e-08 -2.530062e-06
000390 59 ac dd 29 8c a8 96 2a 1f 03 26 39 4d e2 35 aa
       9.844269e-14 2.6762305e-13 0.00015832156 -1.6154543e-13
0003a0 15 2e 09 b4 55 19 22 ab 8d f6 a2 aa d2 45 c6 aa
       -1.2775884e-07 -5.7589117e-13 -2.894806e-13 -3.5220313e-13
0003b0 e9 31 12 ab 1e 9e a2 a9 e4 4d 70 aa e2 e1 26 2d
       -5.1938884e-13 -7.221674e-14 -2.1343306e-13 9.486164e-12
0003c0 7c c2 8b b5 7e 04 53 2a 52 f7 c7 b9 f0 64 22 b8
       -1.041291e-06 1.8742123e-13 -0.00038140506 -3.8717815e-05
0003d0 eb bc 91 2d 0e ca 9c 2d 16 89 f0 b7 05 09 f2 b5
       1.6568488e-11 1.7824877e-11 -2.8674065e-05 -1.803303e-06
0003e0 09 bb 19 3a 8a 75 0d ad 8e ed de 2c 53 45 e2 b9
       0.0005864357 -8.041021e-12 6.3359934e-12 -0.0004315773
0003f0 07 61 ef 39 59 04 00 00 67 1b ef b5 7b c4 e4 b5
       0.00045657923 1.56e-42 -1.7814863e-06 -1.7044507e-06

e_conv3.depth_conv.bias f4 [32]
000000 a4 6c 95 ac 2b a7 55 35 85 6b 17 2e f9 cb d2 b1
       -4.2468962e-12 7.9591945e-07 3.442892e-11 -6.1349934e-09
000010 bd 95 e9 b6 f4 1b cb ac 9f dc 6a 35 fd 38 d3 2d
       -6.961373e-06 -5.7727104e-12 8.749284e-07 2.401323e-11
000020 a8 37 30 af e1 ac 15 ae 79 e0 5e ab db e7 3d a7
       -1.602688e-10 -3.4032225e-11 -7.918176e-13 -2.6354708e-15
000030 ce 65 1f 2e ba 44 f4 af e4 b5 2f b9 ee be df 13
       3.6242835e-11 -4.4432175e-10 -0.0001675706 5.6481385e-27
000040 f7 a5 ac 1c 70 c9 57 2b 6f d3 48 ad 9d 81 05 30
       1.1424906e-21 7.6662895e-13 -1.14156315e-11 4.856931e-10
000050 f4 91 09 2f 3c 36 97 a8 a2 56 2e 3a 82 f5 f4 b9
       1.251193e-10 -1.6787888e-14 0.00066504825 -0.00046722224
000060 02 50 d6 b9 22 b4 c6 2b 85 29 88 36 ac d8 d5 ad
       -0.0004087687 1.4118743e-12 4.0579494e-06 -2.4311518e-11
000070 d9 f7 b6 ae 4f b4 aa ae 3c 09 1c 37 48 8a f0 35
       -8.3204284e-11 -7.762734e-11 9.300475e-06 1.7921639e-06

e_conv3.point_conv.weight f4 [32, 32, 1, 1]
000000 40 1b 27 ad 7c b4 0b ae 8e 09 c5 ad be 92 81 27
       -9.498902e-12 -3.1765243e-11 -2.240055e-11 3.596379e-15
000010 7f af e5 ac cb bc c0 ac aa 19 7e ae 79 71 66 21
       -6.5280554e-12 -5.4779284e-12 -5.7775708e-11 7.807721e-19
000020 a5 aa 05 ae 8a d0 a5 aa 14 f3 f5 aa 46 17 a5 a7
       -3.039226e-11 -2.945459e-13 -4.3689412e-13 -4.5821933e-15
000030 9f 34 42 ad 49 34 29 ad 91 e5 03 2d 24 5e ff 0b
       -1.10393075e-11 -9.618147e-12 7.497462e-12 9.8364074e-32
000040 12 08 00 93 43 49 9c 2b ac 1e 58 ad 02 6a 08 a6
       -1.615985e-27 1.1104801e-12 -1.2284989e-11 -4.7328146e-16
000050 c3 c4 12 ad e7 80 a1 a7 50 d9 78 2e 7d 14 25 2e
       -8.342829e-12 -4.4826233e-15 5.6581684e-11 3.7534854e-11
000060 51 b0 0b ae eb 05 8f ac 8e 31 90 ad b2 a8 41 2c
       -3.176154e-11 -4.0649615e-12 -1.6392911e-11 2.7520594e-12
000070 4d d6 70 24 55 e3 dc ab fe 89 95 2c 99 94 b6 ad
       5.2223224e-17 -1.5695038e-12 4.250155e-12 -2.0756995e-11
000080 14 75 26 82 3b cf 22 a6 cd 89 88 ae e7 b0 56 ac
       -1.2229354e-37 -5.648589e-16 -6.209042e-11 -3.050943e-12
000090 7b 6b 00 80 fc bd 00 80 61 e2 97 ad 8d 48 8f 27
       -3.8557e-41 -6.8154e-41 -1.7267245e-11 3.9769133e-15
0000a0 32 eb 39 9c c3 1d aa a9 6d 2a 00 80 81 34 eb 96
       -6.151535e-22 -7.5546794e-14 -1.522e-41 -3.7999432e-25
0000b0 8f 07 20 2b a5 9d 00 00 13 e1 00 00 aa 5b 3c 0b
       5.685391e-13 5.6552e-41 8.0741e-41 3.6276443e-32
0000c0 68 d0 00 80 80 f5 75 98 39 8a ad 21 08 35 00 00
       -7.4762e-41 -3.1789454e-24 1.1759523e-18 1.9024e-41
0000d0 02 84 01 00 f5 c9 94 a9 11 92 00 00 a5 99 8b 16
       1.39191e-40 -6.607554e-14 5.2399e-41 2.2553624e-25
0000e0 46 2a 00 00 61 06 00 80 fc a3 73 26 cd 8c 00 00
       1.5165e-41 -2.288e-42 8.45298e-16 5.051e-41
0000f0 d3 f3 0d ab 6d 91 00 00 c3 6a 02 00 c1 d7 00 00
       -5.0431637e-13 5.2169e-41 2.2197e-40 7.7398e-41
000100 22 3b 58 30 f8 e7 45 31 2c f2 66 b1 c9 5f 99 2a
       7.8664375e-10 2.8799132e-09 -3.3607064e-09 2.7244724e-13
000110 22 e1 b6 30 7f a8 3f 30 73 ec e9 b1 52 ed 84 26
       1.330623e-09 6.972484e-10 -6.8080737e-09 9.223666e-16
000120 c6 28 3b 32 da ea f0 31 bc 35 2b 2d 5e 75 17 2c
       1.0894103e-08 7.011619e-09 9.732156e-12 2.1523542e-12
000130 cc b1 bc b1 6a c0 68 af af 7f a6 b1 c1 7d d9 9b
       -5.4917333e-09 -2.1168636e-10 -4.845752e-09 -3.5980905e-22
000140 eb 4d df 95 70 e9 79 2f 90 a9 3f 31 a3 72 ff 28
       -9.0191916e-26 2.2729352e-10 2.7890543e-09 2.8360403e-14
000150 3c f7 b9 b1 48 91 9f 2b 9e 53 e2 32 7c a3 bb b1
       -5.412316e-09 1.1337953e-12 2.6347887e-08 -5.4610023e-09
000160 38 52 af b2 fc 07 63 b0 a0 82 25 b0 76 e8 69 b0
       -2.041007e-08 -8.2593465e-10 -6.021228e-10 -8.5095253e-10
000170 c0 51 d6 ad e8 7b 34 ae 36 4d 9d b3 65 33 01 b1
       -2.4365288e-11 -4.1037312e-11 -7.324927e-08 -1.8801185e-09
000180 ef 5f 32 27 59 ef 05 28 a1 70 d9 28 a7 4d d5 a1
       2.4754468e-15 7.434883e-15 2.4140685e-14 -1.4453996e-18
000190 90 28 7e 27 03 c2 13 28 eb 92 2b a8 ec 4a 0e ad
       3.527157e-15 8.202209e-15 -9.524265e-15 -8.0884015e-12
0001a0 ec 04 5c 29 c4 64 67 27 da a5 f2 28 97 a8 74 23
       4.8854082e-14 3.2112315e-15 2.6939324e-14 1.3262967e-17
0001b0 fd 1b d8 a6 42 f8 28 26 b7 48 76 a8 b1 ed 4f 87
       -1.4995597e-15 5.862316e-16 -1.3671511e-14 -1.56428e-34
0001c0 ca 75 40 0d 02 f9 15 a7 6f 49 53 a7 44 9b 01 ab
       5.930635e-31 -2.0812891e-15 -2.932194e-15 -4.604548e-13
0001d0 9e ac 5e 27 55 d4 69 a3 e4 c3 44 27 54 3d 8d a8
       3.0902265e-15 -1.2675918e-17 2.7306657e-15 -1.5680741e-14
0001e0 9d 2c 4e a8 83 ea 08 a5 81 ff 71 26 13 70 cc 28
       -1.1444971e-14 -1.1875575e-16 8.3959944e-16 2.2697154e-14
0001f0 5a 86 bf 9e ec 16 69 25 c7 08 be ab 05 f5 77 a8
       -2.0278478e-20 2.0217295e-16 -1.3502748e-12 -1.37643845e-14
000200 58 e3 65 2c ac e6 f2 2a bb 44 0e 2e cd 3a 00 22
       3.2669058e-12 4.3147896e-13 3.2348107e-11 1.7378364e-18
000210 0b f4 c5 a8 3e e9 6e 28 08 c9 5b a5 14 68 54 9e
       -2.197723e-14 1.326223e-14 -1.9063334e-16 -1.1244709e-20
000220 7a 07 84 aa 4e a7 03 aa b3 15 3f aa 9d cd c6 1e
       -2.3453098e-13 -1.1693183e-13 -1.6971736e-13 2.1049105e-20
000230 7c b9 14 2a 2e ba 89 a7 55 ae 27 29 16 a0 ed a4
       1.3209393e-13 -3.8226995e-15 3.7232658e-14 -1.0305356e-16
000240 64 1f a5 8d f7 be 0e 9c e4 c3 04 ab 9b 36 41 26
       -1.0176467e-30 -4.7230675e-22 -4.7167673e-13 6.703433e-16
000250 17 6c b3 25 ff ba e7 96 73 47 44 ab b8 28 f5 af
       3.1124795e-16 -3.7438074e-25 -6.9732344e-13 -4.4594173e-10
000260 a1 79 47 2b 8d ee 99 a8 6f 71 c2 a6 16 ee 28 aa
       7.0867796e-13 -1.7089867e-14 -1.34922e-15 -1.5004e-13
000270 d6 06 73 1f ff e0 3e a6 54 d8 0a aa cf 86 56 29
       5.1462906e-20 -6.622442e-16 -1.2331916e-13 4.7634473e-14
000280 91 30 55 32 8c 74 84 b2 98 d0 52 33 ac 6a 0f ac
       1.24092745e-08 -1.5419822e-08 4.908415e-08 -2.0380737e-12
000290 44 1d ea 32 30 63 a6 32 ff 48 61 b2 5b bc 4b a6
       2.7254494e-08 1.9370049e-08 -1.3113321e-08 -7.068504e-16
0002a0 b0 eb c2 33 6d b9 1a 33 a8 9f 9f b0 9d e7 52 ae
       9.0767e-08 3.6024563e-08 -1.161415e-09 -4.7954186e-11
0002b0 8d b9 be 32 83 25 61 34 a2 00 c0 b2 c6 6f 9b 91
       2.220329e-08 2.0968405e-07 -2.235203e-08 -2.4523574e-28
0002c0 a0 2a b5 17 15 58 16 31 1f 76 25 31 ed b6 bb 2e
       1.1707611e-24 2.1877942e-09 2.4077804e-09 8.5362696e-11
0002d0 e3 d1 ec b3 ec b3 af ae 9f 09 57 35 6f 30 1f b4
       -1.10277846e-07 -7.990039e-11 8.010774e-07 -1.4825649e-07
0002e0 7f df 37 b4 53 d5 03 b2 b0 c4 ac 30 d9 08 83 b3
       -1.712451e-07 -7.673708e-09 1.2570549e-09 -6.101772e-08
0002f0 6d 2c e9 a8 b3 c9 86 31 54 b7 a9 33 18 be fe b5
       -2.5887463e-14 3.922844e-09 7.903023e-08 -1.8979799e-06
000300 31 15 00 80 1e 58 76 07 8e 14 e4 1d b0 2b 00 00
       -7.602e-42 1.8532878e-34 6.037235e-21 1.5672e-41
000310 e8 59 00 00 17 85 55 23 8a a5 00 00 6d 8f 00 2b
       3.2252e-41 1.1574936e-17 5.9384e-41 4.567378e-13
000320 c3 67 9a a2 ce 75 53 9c e7 29 00 00 7a 52 0c ab
       -4.1851646e-18 -6.9966303e-22 1.5032e-41 -4.985245e-13
000330 d0 bd d4 88 93 64 53 a3 fc 1a 5c 83 4e f8 e0 2b
       -1.2803911e-33 -1.145963e-17 -6.4683166e-37 1.5985076e-12
000340 97 01 00 00 5e 4c 43 8f a2 8a 3b ab 60 4b 25 8b
       5.7e-43 -9.62895e-30 -6.662814e-13 -3.183455e-32
000350 b7 24 00 00 22 24 00 80 8d ac 3f ac c4 b4 00 00
       1.3171e-41 -1.2962e-41 -2.7238517e-12 6.4846e-41
000360 9c 77 ac 29 7a 75 00 80 89 6b 38 14 1c e4 00 80
       7.659083e-14 -4.2143e-41 9.3108336e-27 -8.183e-41
000370 0b 70 00 80 f2 9e e1 2d 8b e3 1c 26 e3 c1 00 80
       -4.0193e-41 2.5650124e-11 5.443175e-16 -6.9553e-41
000380 08 eb 00 00 a5 6e 00 80 cd c4 00 80 d4 35 00 00
       8.4313e-41 -3.9692e-41 -7.0599e-41 1.931e-41
000390 aa af 38 1e 38 24 00 00 5c e0 00 00 a2 41 a1 13
       9.777205e-21 1.2993e-41 8.0485e-41 4.0706833e-27
0003a0 44 a6 d5 08 20 b0 00 80 87 5f e6 18 67 fd 6c 2b
       1.285856e-33 -6.3182e-41 5.9550064e-24 8.419571e-13
0003b0 c6 65 b6 a6 03 a9 aa 2b 33 d4 24 2d e3 5b 42 ab
       -1.2656373e-15 1.2126137e-12 9.369438e-12 -6.9050164e-13
0003c0 19 ae 8f 07 b8 65 8c 20 4c 0b 01 80 9d 4a e3 ab
       2.1618574e-34 2.3784234e-19 -9.5888e-41 -1.6150029e-12
0003d0 e0 f9 00 80 c0 e0 01 2c b0 9d 00 80 8c 27 00 00
       -8.9638e-41 1.8456764e-12 -5.6568e-41 1.4187e-41
0003e0 97 e0 ba 2d df 1f 00 00 e2 1c b7 19 b0 a7 23 19
       2.124549e-11 1.1433e-41 1.8933422e-23 8.460767e-24
0003f0 2c 50 f1 06 d2 c0 00 80 2b f9 cf 86 ca a8 00 80
       9.0771926e-35 -6.9171e-41 -7.8230865e-35 -6.055e-41

e_conv3.point_conv.bias f4 [32]
000000 84 ef 80 b4 c0 40 e0 aa 70 d7 73 38 2f 51 81 33
       -2.4016128e-07 -3.9835323e-13 5.8136357e-05 6.021798e-08
000010 d5 9d 81 af c9 bb 20 3b 85 88 00 80 05 83 00 80
       -2.357711e-10 0.0024525991 -4.8974e-41 -4.7001e-41
000020 6a 78 18 ab 7f ac 29 39 23 93 9f 38 2d 6c 56 b4
       -5.4168356e-13 0.00016181356 7.609117e-05 -1.9969657e-07
000030 8d aa 24 39 31 5b 06 00 17 24 6b b5 9a d9 c9 b2
       0.00015703794 5.83726e-40 -8.759684e-07 -2.3498433e-08
000040 2a a9 68 9f b6 48 ae a6 79 c9 01 00 d5 e5 bc a6
       -4.926784e-20 -1.2093384e-15 1.6411e-40 -1.3107417e-15
000050 6e ad e8 3b cb 58 e7 a9 4d 7f 88 a9 41 df 91 b5
       0.0071007526 -1.0273864e-13 -6.0616964e-14 -1.0868317e-06
000060 0c c2 bc b6 3d c3 00 00 1b 20 73 af 0b 5f 37 34
       -5.6254266e-06 7.0038e-41 -2.2112127e-10 1.707778e-07
000070 73 9e 89 ab bc bb de b6 14 5e 2f b3 1d ab 00 80
       -9.778414e-13 -6.6379707e-06 -4.0830926e-08 -6.1384e-41

e_conv4.depth_conv.weight f4 [32, 1, 3, 3]
000000 d5 84 e0 38 75 d8 ab 26 bc 3e 0f 39 40 e5 3d ac
       0.00010705894 1.1924179e-15 0.00013660913 -2.6985775e-12
000010 f9 56 a0 39 fc a0 6d a6 a1 ec 1a b4 78 99 a0 b2
       0.00030582378 -8.2444067e-16 -1.4428453e-07 -1.8696241e-08
000020 46 c6 39 a6 a9 d4 05 99 99 8f c8 82 47 76 06 25
       -6.445348e-16 -6.918885e-24 -2.946978e-37 1.1662721e-16
000030 b4 0d 00 80 d7 77 00 80 b9 2d 00 31 7a 1f 1e 38
       -4.916e-42 -4.299e-41 1.8652442e-09 3.769945e-05
000040 55 f3 0b 03 80 10 00 00 be 72 4b 37 e3 3f 91 36
       4.112776e-37 5.919e-42 1.2126458e-05 4.328774e-06
000050 a5 f3 5d ac b8 d8 af aa 8e b5 48 ac b9 06 b1 38
       -3.1541239e-12 -3.1236624e-13 -2.8522493e-12 8.44127e-05
000060 42 6b 64 ab 64 7b 47 ac a9 06 01 ba 4e 58 91 33
       -8.115072e-13 -2.8348096e-12 -0.0004921952 6.768151e-08
000070 fe 44 7c b2 54 08 ad b8 38 ac 74 18 15 bf ab 34
       -1.4684018e-08 -8.250834e-05 3.162321e-24 3.1990263e-07
000080 86 41 6b b3 08 14 36 a4 c5 68 49 18 a7 7c 09 b6
       -5.4774794e-08 -3.9481926e-17 2.6031536e-24 -2.0487148e-06
000090 96 08 88 34 b4 7c a6 0a 41 ab b8 94 d7 a7 94 0b
       2.533822e-07 1.6032127e-32 -1.86468e-26 5.7260064e-32
0000a0 18 5a b8 33 d3 5a fe 35 fe a8 97 0b 9b 65 26 39
       8.5845556e-08 1.8950908e-06 5.8417356e-32 0.00015868845
0000b0 60 8c 71 0b 04 e8 d6 35 dc 56 9b ac a1 c0 f1 b2
       4.6520518e-32 1.6011768e-06 -4.4150083e-12 -2.814369e-08
0000c0 84 5b 39 ac 53 63 ba 2d f3 99 10 ac 7a 72 2d ad
       -2.6340883e-12 2.118986e-11 -2.054909e-12 -9.85933e-12
0000d0 25 0c 9c ad 34 1b 85 2d 28 7c 8c 38 e0 40 00 80
       -1.774054e-11 1.513243e-11 6.698846e-05 -2.3273e-41
0000e0 8f 0d 37 38 23 9b 00 00 04 85 9b a0 cb d0 7f 3a
       4.3643227e-05 5.5653e-41 -2.6346044e-19 0.00097585906
0000f0 6d b4 00 00 6d 5e 1d ac 9e 0a 00 80 e7 ea 82 a6
       6.4725e-41 -2.2363459e-12 -3.809e-42 -9.084232e-16
000100 90 6b c3 1c ac fe 00 00 7b e9 1b ba db c8 32 34
       1.2931822e-21 9.1359e-41 -0.0005947572 1.6650613e-07
000110 c9 70 28 13 83 a2 24 b3 ae 71 59 b1 43 8e 00 00
       2.1260189e-27 -3.833203e-08 -3.1642275e-09 5.1034e-41
000120 3b ff 00 80 fb 0a 0c 80 b4 0a 12 24 5a bd 15 3a
       -9.156e-41 -1.105965e-39 3.166777e-17 0.00057121145
000130 f8 30 04 00 25 a4 09 1d 60 13 ba ab 77 be 2c 23
       3.84909e-40 1.821666e-21 -1.3221473e-12 9.364471e-18
000140 fc be ce b9 a4 ad 07 b4 76 f8 84 b4 04 82 74 b5
       -0.00039433676 -1.2636025e-07 -2.4767695e-07 -9.108628e-07
000150 e4 07 c6 23 c3 0d 38 ba 78 c1 88 38 7e 9d 9d 35
       2.1470545e-17 -0.00070210936 6.521022e-05 1.1743248e-06
000160 98 65 d4 23 65 f0 88 24 32 97 fd b9 0e 21 4d 2c
       2.3028113e-17 5.938784e-17 -0.0004836857 2.9150601e-12
000170 2c a2 56 ac 5b e3 39 2c d5 e3 3b 2c 44 58 b8 ad
       -3.0501253e-12 2.6416289e-12 2.670077e-12 -2.0957576e-11
000180 75 0a 4a 2c 49 99 be 35 c0 fa 97 38 96 d2 e1 21
       2.8711731e-12 1.4200715e-06 7.246947e-05 1.5302335e-18
000190 8a 15 63 ba 15 e6 2c 2b b3 3b 1a a0 05 73 56 9f
       -0.00086625724 6.142598e-13 -1.306406e-19 -4.5411405e-20
0001a0 ec 4e 7e 34 0b 5c 99 1f 3d e3 e4 b0 bc b4 d7 2d
       2.3684305e-07 6.495029e-20 -1.6653768e-09 2.4522932e-11
0001b0 fd b3 81 23 6f b9 02 b9 c0 e9 47 31 6f cd 9b 37
       1.4062436e-17 -0.00012466846 2.9091183e-09 1.8573102e-05
0001c0 97 59 e3 b9 be ca db af ad c8 29 38 1f e3 99 23
       -0.00043363564 -3.9979925e-10 4.0479634e-05 1.6684483e-17
0001d0 d2 a5 61 b7 43 37 a5 38 f3 64 cf 17 4a fc bd b7
       -1.3449653e-05 7.8781064e-05 1.3402545e-24 -2.2648037e-05
0001e0 5a 7b bc 39 12 20 16 ab 9e 4c 81 31 d6 29 fa 39
       0.00035950058 -5.333521e-13 3.7631045e-09 0.00047714886
0001f0 a0 46 07 38 8f 76 00 00 98 d7 cf 8b a5 59 05 39
       3.2252283e-05 4.2531e-41 -8.005789e-32 0.00012717264
000200 3a 90 95 36 86 00 a5 0e 6c 88 7c 0e 97 15 8a 9c
       4.457336e-06 4.0676144e-30 3.1127083e-30 -9.137655e-22
000210 74 b7 7a 37 62 d8 61 0e 57 35 31 97 78 12 29 ba
       1.4943875e-05 2.7837576e-30 -5.725911e-25 -0.00064495904
000220 fd 67 b9 8e f8 dd 6f ad 6d bc e3 38 01 b3 b4 b4
       -4.570616e-30 -1.3634864e-11 0.000108593005 -3.3657855e-07
000230 45 72 49 24 70 94 0c 36 a4 00 f7 37 26 74 d8 b2
       4.3681717e-17 2.0948028e-06 2.9444993e-05 -2.5198528e-08
000240 e5 a4 fa b9 4b 31 68 2d aa ce 82 b6 81 54 2b b7
       -0.00047806572 1.3198618e-11 -3.898361e-06 -1.0212069e-05
000250 9c 30 00 80 5b 45 d3 1c c4 b9 96 99 c5 12 07 30
       -1.7438e-41 1.3980737e-21 -1.5584667e-23 4.9139387e-10
000260 13 5a 00 80 43 d1 e8 b6 71 a8 00 00 d8 cb 5b 37
       -3.2313e-41 -6.9385e-06 6.0425e-41 1.3100878e-05
000270 ea 0f 51 35 e3 ac 42 9a aa 34 00 80 66 13 00 00
       7.7881725e-07 -4.0257916e-23 -1.8892e-41 6.959e-42
000280 57 79 59 39 63 50 f4 99 be 51 00 80 50 3b bd 38
       0.00020739935 -2.5261477e-23 -2.9324e-41 9.02327e-05
000290 c7 26 84 18 6c b7 00 00 e9 6a 00 00 d0 a4 e1 38
       3.4160355e-24 6.58e-41 3.8352e-41 0.00010759535
0002a0 79 8a 00 00 67 0f 03 aa 0b 03 00 00 a9 fa b2 b3
       4.9675e-41 -1.1640481e-13 1.092e-42 -8.334366e-08
0002b0 32 ba 5c 37 87 94 03 37 95 9a 1b 80 f0 f1 e8 06
       1.3156374e-05 7.84279e-06 -2.535012e-39 8.7624196e-35
0002c0 4e 78 22 88 a9 5c 94 1f 88 15 4f 07 02 54 53 b3
       -4.889152e-34 6.283373e-20 1.5579277e-34 -4.920367e-08
0002d0 47 7c 3f b9 c7 a3 de 29 1b f1 53 b8 87 bd fc 29
       -0.00018261476 9.887191e-14 -5.0530867e-05 1.1223926e-13
0002e0 a2 2b cc b9 7f 8b 02 a9 8a 69 c3 b8 4f 1a cf 37
       -0.0003894242 -2.8986792e-14 -9.317983e-05 2.4688574e-05
0002f0 0c 31 8d 29 ec e5 db 8c 28 de 9c 1d 2f 55 64 b9
       6.270166e-14 -3.3880672e-31 4.152256e-21 -0.00021775508
000300 42 5a 39 ad 60 a0 1e a8 c5 c3 fc 35 1c 69 d0 9e
       -1.0536074e-11 -8.805538e-15 1.883244e-06 -2.2066329e-20
000310 be 81 f8 1d d6 20 0a a0 dd 23 46 b6 0b d8 eb af
       6.5779204e-21 -1.1699919e-19 -2.9525174e-06 -4.289976e-10
000320 f5 e9 e7 1c a1 ad ba 9d 08 02 00 80 a7 7c 8a 33
       1.5346774e-21 -4.941332e-21 -7.29e-43 6.4488e-08
000330 98 43 3f 2d ce 39 08 b4 67 26 01 80 e3 fe ab 36
       1.0872102e-11 -1.2687016e-07 -1.05612e-40 5.12587e-06
000340 35 d5 3b 32 f1 37 3e 37 29 8a 9f 9d e5 7a 48 26
       1.093331e-08 1.1337907e-05 -4.2229804e-21 6.955549e-16
000350 33 df e3 b7 37 45 df 28 57 83 fd b4 9f 24 2d 1e
       -2.7164444e-05 2.478799e-14 -4.7220485e-07 9.166117e-21
000360 9a f5 8a a1 5b 2f 8e a1 4c d9 0f a2 a6 8a 4f 31
       -9.416254e-19 -9.634829e-19 -1.949515e-18 3.0201277e-09
000370 8e ee 64 ba 1a 4f b7 37 eb 43 b0 2e 4d a6 45 21
       -0.0008733057 2.1852135e-05 8.015618e-11 6.6966293e-19
000380 28 42 7e a1 58 e4 60 b6 af e5 4b ab b0 6c 00 00
       -8.6146105e-19 -3.3511515e-06 -7.243884e-13 3.899e-41
000390 0d d9 00 00 38 cd 11 33 94 a5 07 00 fb f0 22 37
       7.7863e-41 3.394709e-08 7.02247e-40 9.71206e-06
0003a0 5d 72 85 a8 57 ef 43 98 1b 8d d9 b7 3a 9e 8d 38
       -1.4815563e-14 -2.5323995e-24 -2.5934123e-05 6.752876e-05
0003b0 04 2b af 35 99 67 d0 ae a3 22 d6 b3 eb 49 ec 36
       1.3051035e-06 -9.4771475e-11 -9.971452e-08 7.0419533e-06
0003c0 a0 5c c5 86 8b 51 0b 86 b1 92 dc 11 49 04 88 28
       -7.4239264e-35 -2.6202903e-35 3.4800285e-28 1.5100892e-14
0003d0 7e 70 8a 38 d9 9f 8e ad 38 57 b3 1a 06 45 2a b3
       6.601306e-05 -1.6214518e-11 7.4173574e-23 -3.9643986e-08
0003e0 46 b1 08 1b 0b 32 8a 99 e8 be 0d 1a da 1e a0 35
       1.1306936e-22 -1.4289078e-23 2.931233e-23 1.1929908e-06
0003f0 b2 d6 18 95 d2 3a af b9 85 a8 3d 36 8e 8d da a9
       -3.086552e-26 -0.00033422426 2.8261286e-06 -9.7057006e-14

e_conv4.depth_conv.bias f4 [32]
000000 28 51 16 b7 97 d0 02 37 bf f9 8d ba 47 7e 50 22
       -8.959592e-06 7.79717e-06 -0.0010831876 2.8256107e-18
000010 53 36 9c ac 68 77 e8 b8 f9 a6 39 ab ce ab 49 30
       -4.439818e-12 -0.00011084863 -6.5956924e-13 7.3367523e-10
000020 0a d0 65 2e 9f dd 22 2a 3a b0 19 b8 0f 2f 31 b5
       5.2253347e-11 1.446538e-13 -3.6642166e-05 -6.600612e-07
000030 64 a6 c2 29 9a 8c b5 b9 f5 e3 9e 32 63 3b 3a a7
       8.644195e-14 -0.00034627767 1.8497284e-08 -2.5844879e-15
000040 4c 4b 38 b6 2a 7f 81 a7 87 49 b9 23 d4 3a fb a3
       -2.7461965e-06 -3.5942564e-15 2.008888e-17 -2.723839e-17
000050 ba cf 87 2b 5e 8f 4f a9 2d 5f 19 28 c4 fd b0 ba
       9.649983e-13 -4.6087584e-14 8.513844e-15 -0.0013503362
000060 cc 21 f2 36 d4 5b c6 b5 14 4f c7 24 37 30 43 25
       7.2160965e-06 -1.4778875e-06 8.6436456e-17 1.692989e-16
000070 ef f3 4e ba 3f d8 59 a9 c8 18 96 38 59 ac ed a4
       -0.00078946253 -4.8371243e-14 7.157173e-05 -1.03074334e-16
