Zero-DCE++/snapshots_Zero_DCE++/Epoch81.pth (torch, 51217 bytes, 28 tensors)

e_conv1.depth_conv.weight f4 [3, 1, 3, 3]
000000 fc 29 b4 be 7c 9e 39 be 24 11 5d bb 7f 7c 29 be
       -0.35188282 -0.18126863 -0.003373214 -0.16551398
000010 0e ff cb 3d db 3b c8 3d db 2e d6 be d7 d9 35 be
       0.09960757 0.097770415 -0.41832623 -0.1775888
000020 04 33 47 bd 17 c3 4e 3e cc 06 31 3e e2 be b2 3e
       -0.048632637 0.20191608 0.17287749 0.34911257
000030 1c 6b 39 3e 5e 3e f9 3c e2 8f 6a 3e 92 7f ab 3d
       0.18107265 0.030425247 0.2290645 0.083739415
000040 c8 ab 1c 3d 60 4e 66 3e 30 4f 57 3d bf 9d 11 bd
       0.03824976 0.22490835 0.052565753 -0.03555083
000050 36 fa 03 be 5e ee 0d bd dd 29 7a bd 3f c8 e6 bd
       -0.12888417 -0.034651153 -0.06107508 -0.11268663
000060 aa 50 e1 bd 9d f2 2e be 0d e6 ab be
       -0.110017136 -0.17084737 -0.33573952

e_conv1.depth_conv.bias f4 [3]
000000 8e bc 9b 3d e9 8f 9b 3e cc b0 5a bd
       0.07604323 0.30383232 -0.053391263

e_conv1.point_conv.weight f4 [32, 3, 1, 1]
000000 af 17 57 3c 27 cb 14 3e 3e 3e 55 3d bc f1 1a 32
       0.013128205 0.14530621 0.052061312 9.018944e-09
000010 1e f7 8d b6 9e e7 f6 b1 a1 22 e7 ac 70 5c db b3
       -4.2308957e-06 -7.185874e-09 -6.5692595e-12 -1.02147965e-07
000020 bb 1a 11 2b e2 b2 c5 3d 62 cb 00 bf aa ca 25 3e
       5.1551444e-13 0.0965326 -0.5031034 0.16190591
000030 25 ee 31 3a 2a b6 86 ba 75 bf 54 38 16 2b c6 3c
       0.00067875005 -0.0010277678 5.0723047e-05 0.024190467
000040 6c 39 a7 3d 84 0a c4 3e 92 4a 01 3e f3 c9 9c 3e
       0.08165249 0.38289273 0.12626103 0.30622825
000050 94 55 0f be 89 25 b6 29 08 e7 71 b3 94 65 c5 28
       -0.13997489 8.088935e-14 -5.6322307e-08 2.1915446e-14
000060 d4 c1 6b 3d 81 ae f9 bb df c2 d0 3d 68 2e 43 3d
       0.057557896 -0.0076196794 0.10193419 0.04765168
000070 4f f3 53 bc 73 06 c8 bd e7 17 cc 3e 12 ad 0d bf
       -0.012936427 -0.09766855 0.39861986 -0.5534221
000080 53 2d 9f 3e 41 74 02 bc f5 54 13 bd 24 e7 42 3d
       0.31089267 -0.007962287 -0.035969693 0.047583714
000090 6e 7f 49 3e 53 8d c1 be 6c c1 2d be 42 55 82 bd
       0.19677517 -0.37803134 -0.16968316 -0.06363918
0000a0 72 9e 1c be ef 4c 05 3e c6 3b 00 80 f2 18 01 00
       -0.15294817 0.13017629 -2.1443e-41 1.00784e-40
0000b0 46 2d 00 00 fd ca 7b 3c 9b 83 98 3e 47 8c 73 3e
       1.6241e-41 0.01536822 0.29787907 0.2378398
0000c0 cd 67 81 be 39 43 b6 3e a2 91 83 be 3d fa cd 9c
       -0.25274506 0.35598162 -0.25697047 -1.3630447e-21
0000d0 d9 9f 7b ab 85 68 bc 9c 9e 50 2c bb b0 c9 2a 3a
       -8.9394947e-13 -1.2467814e-21 -0.0026293169 0.0006515039
0000e0 ea 33 90 ba 02 27 fc 27 99 89 8e b1 d9 07 0b 29
       -0.00110018 6.9986343e-15 -4.148387e-09 3.0871007e-14
0000f0 86 74 0c bf 13 74 54 bd d3 ae a8 be 06 fd 2f b6
       -0.548653 -0.05186851 -0.3294588 -2.622431e-06
000100 e1 9e 61 b8 5a 78 c8 b6 89 b8 19 bc 91 ed d5 3b
       -5.3792148e-05 -5.9744752e-06 -0.0093823755 0.0065285643
000110 93 6a 2f 3c f1 21 ed 24 8a 64 27 b1 cf 8c 7b 24
       0.010706562 1.02839865e-16 -2.4358848e-09 5.454622e-17
000120 a0 d7 90 39 d8 3c 35 ba cd eb b5 38 0e 21 aa b8
       0.00027626473 -0.00069136685 8.674674e-05 -8.1123886e-05
000130 0c a9 1b b8 4a 0d ae b8 35 09 74 2b cf e4 b7 ab
       -3.7112317e-05 -8.299442e-05 8.669899e-13 -1.3066439e-12
000140 8a 0c 6f 2b 24 1d 8d 3e 15 62 03 be 6a 42 84 be
       8.492726e-13 0.27561295 -0.12830384 -0.2583192
000150 34 74 3c 3d 0f 8e 96 bb 58 49 6b bb 6e 2e f5 14
       0.046009257 -0.0045945714 -0.003590187 2.4756991e-26
000160 c2 80 95 94 5e 76 25 14 22 8e 72 3e e2 ac 3a 3c
       -1.5095941e-26 8.353715e-27 0.23687032 0.011393758
000170 5b 99 8c bd 65 b0 66 be 16 79 e4 3e 69 ec 8f be
       -0.06865188 -0.22528227 0.4462363 -0.28110054

e_conv1.point_conv.bias f4 [32]
000000 37 77 dc bd 87 b9 24 b5 2b 50 b8 b5 7d cf 11 3f
       -0.10764926 -6.136474e-07 -1.37324e-06 0.56957227
000010 95 4d 9b ba 93 42 a5 3d ef 98 80 3e 30 3c ac b3
       -0.0011848683 0.08069339 0.2511668 -8.020322e-08
000020 7e dc 80 3d 2b b6 88 bc 6f 3d d0 3e 57 18 eb 3e
       0.062920555 -0.016688427 0.4067187 0.45917007
000030 6b 87 b9 3e 9f 43 9c 3e 13 b1 00 80 a1 56 ef 3e
       0.36236128 0.3052034 -6.3522e-41 0.4674578
000040 a9 44 5d bc fa 59 87 ab be 59 20 bb 19 b0 6e b2
       -0.013505139 -9.6173e-13 -0.0024467553 -1.3893463e-08
000050 c5 c5 d0 3e f5 5a 4c b8 92 29 9d 3e 79 e9 90 b1
       0.40775886 -4.87221e-05 0.30695778 -4.2174944e-09
000060 97 f4 98 ba b7 d2 f2 b8 b4 ad 68 ab a1 e3 98 3e
       -0.0011669573 -0.00011578708 -8.266402e-13 0.29861167
000070 d4 45 c7 3c 63 b1 81 94 dd 13 08 3f 2b c9 9a bd
       0.024325289 -1.3095638e-26 0.5315531 -0.07557901

e_conv2.depth_conv.weight f4 [32, 1, 3, 3]
000000 a0 9c b0 bb 7a 97 cf bb 62 63 94 bb cb 23 98 bc
       -0.005389765 -0.006335196 -0.004528449 -0.018571755
000010 56 48 b9 bc 1b 38 61 bc ae 40 d0 bc 1d 33 db bc
       -0.0226175 -0.013746287 -0.025421467 -0.026757771
000020 44 53 77 bc 15 17 12 00 b0 d5 0a 80 ae 7b 14 00
       -0.015095536 1.661319e-39 -9.95012e-40 1.881078e-39
000030 ca 54 0e 00 0b 35 17 00 b0 8e 03 80 02 7b 1c 00
       1.316114e-39 2.131245e-39 -3.26693e-40 2.615521e-39
000040 19 b4 00 80 12 cb 13 00 13 87 01 80 c2 92 01 80
       -6.4607e-41 1.817722e-39 -1.40291e-40 -1.44482e-40
000050 fa 26 01 80 32 5d 00 00 d1 c8 00 00 cc 8a 01 80
       -1.05818e-40 3.3432e-41 7.204e-41 -1.41626e-40
000060 6b b1 01 00 c0 e9 01 80 7b 3d 01 00 f0 af 8a be
       1.55481e-40 -1.75689e-40 1.1389e-40 -0.27087355
000070 32 50 70 be d7 b3 31 bd 4f 68 e9 bd 59 cb a2 3d
       -0.23468092 -0.0433844 -0.113968484 0.07948942
000080 18 83 5f 3e 61 95 86 3e b3 40 da 3b c1 8f f2 3e
       0.21827352 0.26285842 0.006660545 0.473753
000090 0c 24 55 b7 7e 0b 8c b7 6d 19 73 b7 01 88 4d b7
       -1.2704182e-05 -1.6694652e-05 -1.4489849e-05 -1.2250618e-05
0000a0 8c df 84 b7 d8 64 63 b7 6e d6 55 b7 c0 33 82 b7
       -1.5839723e-05 -1.3553734e-05 -1.2745715e-05 -1.5521306e-05
0000b0 cb 44 58 b7 1f ad 21 3d 72 bb 87 3d 04 96 e7 3c
       -1.289062e-05 0.03947174 0.06627549 0.028269775
0000c0 cc 89 2b 3d ad 8d ca 3d 24 91 19 3d 72 e8 6f bd
       0.04187946 0.09890304 0.037491933 -0.058571286
0000d0 3c 11 81 bc 50 c6 2b be d9 cc 86 3d a6 33 0d bd
       -0.015755288 -0.16774869 0.0658204 -0.034473084
0000e0 14 a4 89 be 92 d3 60 3d ab c2 06 3e cf b7 b5 bd
       -0.26882994 0.05488927 0.13160197 -0.08872949
0000f0 8c a0 c1 bc 15 bd 09 bc 07 50 95 be 18 18 2e 11
       -0.023636125 -0.008406897 -0.2916262 1.3733604e-28
000100 a7 ee 66 91 97 53 2a 91 7b 53 68 11 d7 38 8f 91
       -1.8217341e-28 -1.3436393e-28 1.8327297e-28 -2.2596452e-28
000110 0a aa 7c 10 8d 1e d2 10 39 65 f0 90 d9 63 5a 91
       4.982923e-29 8.2877466e-29 -9.4819267e-29 -1.7227936e-28
000120 3b 16 73 3c 44 d4 83 3b ae 09 8b 3a 17 af ef 3b
       0.014836843 0.004023107 0.0010607743 0.0073145735
000130 50 82 8b 3a 34 18 59 3b 2c 80 fd 3b dd 22 59 3c
       0.0010643695 0.0033125998 0.0077362265 0.013252941
000140 26 e4 f0 3c 18 ad 06 3c d7 0e 27 3b 43 bc 57 bb
       0.029405665 0.00821998 0.0025491023 -0.003291861
000150 30 66 02 3c cf 9a 1c ba d8 24 d5 bb 12 8e 83 3b
       0.007958934 -0.0005973996 -0.0065046363 0.004014739
000160 ae 49 8d bb 9a fd 9c bb c7 ce 9e 3e 75 92 62 3e
       -0.004311762 -0.004790974 0.31017134 0.22126181
000170 1f 38 7e 3e f0 5c 67 3e f4 6d 61 bd 26 2b 8b 3e
       0.24826096 0.22594047 -0.0550365 0.27181357
000180 0e ec 95 3e 21 0c cf 3d 14 c3 f5 3d 97 9b 78 3e
       0.29281658 0.10109735 0.12000099 0.24278103
000190 32 9b 0d be 15 b5 3c 3e c1 81 9b 3d 07 37 47 be
       -0.13828734 0.18428452 0.07593108 -0.19454585
0001a0 a1 58 c3 bd c8 cc 83 3e c7 fb 88 3d 00 9d 3b 3e
       -0.09538389 0.25742173 0.06688648 0.1832161
0001b0 d9 c0 c9 3e ce 4f 02 3e d1 1b 61 3e b4 df 8c 3e
       0.39404944 0.12725756 0.21983267 0.27514422
0001c0 c9 ab 2f 3e 3b 49 c4 3d 0d 0f 81 3e d9 8b f3 3d
       0.17155375 0.0958428 0.25206795 0.11891908
0001d0 52 68 90 bd 28 f9 ca 3c c0 e1 5b 3d 37 b7 bc 3d
       -0.070511475 0.02477701 0.05368209 0.09214633
0001e0 5c ba c2 3d b3 49 c1 bd 96 1b 37 3e 28 44 5c bd
       0.095082015 -0.09437885 0.17881617 -0.053775936
0001f0 4c 7b 87 3d 07 bd c1 3e 96 de 00 00 f3 e5 01 00
       0.06615314 0.3783953 7.9849e-41 1.74326e-40
000200 b4 19 00 80 57 a8 00 00 87 6f 01 00 17 21 01 00
       -9.22e-42 6.0389e-41 1.31844e-40 1.03706e-40
000210 36 3b 00 80 ad 93 01 80 1d e5 00 80 61 79 55 bd
       -2.1241e-41 -1.44812e-40 -8.219e-41 -0.05211771
000220 5c 1a 15 3e 4c 99 06 be 75 bf f2 3d 8c 51 48 3e
       0.14560837 -0.13144416 0.11852924 0.19562358
000230 f4 14 2c 3e d7 88 14 be e2 0e 8d bd 0c 2b bf bd
       0.16804868 -0.14505325 -0.06887604 -0.093343824
000240 59 37 ce 3d 55 36 5d 3e a5 3d b2 3e 15 da cf 3d
       0.100691505 0.21602757 0.34812656 0.10149018
000250 ce 04 03 3d 68 7a ef 3d fc 7d 11 be 7e 31 a8 bd
       0.031987004 0.11693269 -0.14208215 -0.08212565
000260 a1 84 5a be b2 46 01 00 a6 ed 00 80 f4 95 01 00
       -0.21339656 1.17196e-40 -8.5252e-41 1.45629e-40
000270 f1 58 00 80 c1 0f 01 00 28 ae 01 80 4f 22 00 00
       -3.1906e-41 9.7487e-41 -1.54311e-40 1.2308e-41
000280 58 68 01 80 ed 45 01 00 6e 3b bf b0 8b 3b 0a b0
       -1.29267e-40 1.1692e-40 -1.391397e-09 -5.0288723e-10
000290 e5 0b 49 b0 d5 a7 1a b1 98 9b 27 b0 9b 54 0b b0
       -7.3140277e-10 -2.250535e-09 -6.097536e-10 -5.0688137e-10
0002a0 3c 1b 82 b1 58 9e 14 b1 f7 3b 16 b1 70 06 57 9b
       -3.786594e-09 -2.1626843e-09 -2.186196e-09 -1.7786463e-22
0002b0 ca 5a 9f 1a 49 56 d1 9a 6f 99 1d 9b 09 5a 3f 1b
       6.5907536e-23 -8.6579775e-23 -1.3036313e-22 1.5828242e-22
0002c0 28 80 28 9b d3 a1 38 1a 7e 6a 2f 1b 99 cf 2e 9b
       -1.3938044e-22 3.818103e-23 1.451007e-22 -1.4460021e-22
0002d0 c6 80 a4 bd 1a 1e 5e 3e d5 51 47 be 2a 76 a0 be
       -0.08032374 0.2169117 -0.1946481 -0.31340152
0002e0 cd d2 1c bc bf ff 42 3d d2 db b2 be 4d dd 69 be
       -0.009571743 0.04760718 -0.34933335 -0.22838326
0002f0 1e 38 83 be d1 9e bb a4 80 9b 2c a5 0b 36 29 a5
       -0.25628752 -8.136737e-17 -1.4971307e-16 -1.4676724e-16
000300 eb 9c 39 23 82 48 95 a4 d1 2f 0b a5 3b 22 3c a5
       1.0062099e-17 -6.474128e-17 -1.2072529e-16 -1.6317998e-16
000310 dd 15 55 a5 c8 e6 3a a4 76 3b 8f bd 72 dd 9e bd
       -1.8482213e-16 -4.05278e-17 -0.06993763 -0.07757081
000320 c1 55 05 3d ce 6e af bd 46 d7 88 bd cd cb 50 ba
       0.032552484 -0.08566056 -0.06681685 -0.0007964939
000330 71 56 81 bd 30 a4 91 bd 5e 7a a9 bc 08 49 01 80
       -0.063153155 -0.071113944 -0.020688232 -1.18034e-40
000340 86 bd 00 80 3b 88 00 80 fe 85 00 00 68 00 01 00
       -6.7988e-41 -4.887e-41 4.8067e-41 9.1981e-41
000350 f1 48 01 00 26 fb 00 00 52 0c 00 80 78 49 00 00
       1.18002e-40 9.0095e-41 -4.42e-42 2.6356e-41
000360 f6 19 4f a5 23 0a 1b a5 53 da 1f a5 b7 8c e8 a4
       -1.7963184e-16 -1.3447541e-16 -1.3865023e-16 -1.0085234e-16
000370 a2 c2 74 a5 39 52 51 a5 8f 70 d4 23 e4 20 89 a4
       -2.122957e-16 -1.8155718e-16 2.3032756e-17 -5.947e-17
000380 de b8 57 a3 b0 17 d0 35 2d 7c 9c 36 dd 5f a3 36
       -1.16943205e-17 1.5504102e-06 4.6636183e-06 4.8689385e-06
000390 0b e3 22 36 f9 4c a1 36 1e ae ef 35 78 36 8f 36
       2.4272038e-06 4.8071347e-06 1.7857562e-06 4.268073e-06
0003a0 4b 52 9f 36 80 30 9d 36 6a 6f 60 a8 bb ba 1a a8
       4.7481494e-06 4.6846108e-06 -1.2458657e-14 -8.589208e-15
0003b0 08 8f 24 a7 a8 ea bd a7 72 3a 5a a8 8c 4f 83 a8
       -2.283711e-15 -5.2712453e-15 -1.2114104e-14 -1.457842e-14
0003c0 61 fc ef 27 97 47 4e a8 30 28 65 a8 f3 af a5 3e
       6.6609455e-15 -1.1450821e-14 -1.2720768e-14 0.323608
0003d0 2e 3e c8 bb 17 14 60 3d ef 06 ad bb 71 26 9b 3c
       -0.006110928 0.05470666 -0.0052803676 0.018939229
0003e0 59 69 5c 3d 5f 90 8b 3c ae 6c 0e bc ee 01 4a bd
       0.053811405 0.017036615 -0.008692903 -0.049318247
0003f0 5a 60 ab 3a c6 85 9d 3a 49 4e 02 ba 5e a0 0a 3b
       0.001307498 0.0012018017 -0.0004970772 0.0021152715

e_conv2.depth_conv.bias f4 [32]
000000 57 68 bf 3d fb 48 b8 bd 3a ca f3 36 0b 40 5e bd
       0.09346073 -0.08998295 7.2655066e-06 -0.054260295
000010 8e 6d 17 be c2 b0 3f 3e 35 19 b3 3c b3 e7 01 3e
       -0.14787886 0.18719772 0.021862606 0.12686042
000020 d4 02 7d 3e fc b6 73 be 42 c3 64 3c fd 2f bb bd
       0.2470811 -0.23800272 0.013962569 -0.091400124
000030 3d a2 60 be cf c3 51 bd b1 8b 04 3e e1 04 51 3e
       -0.21936889 -0.05121213 0.12943913 0.20412017
000040 9e 54 22 3e dd 31 14 bc c7 9d 66 b4 9e 34 21 3e
       0.15852591 -0.009045091 -2.1477818e-07 0.15742728
000050 72 a4 86 3e 9a 35 2c 3e 9e 4d cf bd 21 66 29 3e
       0.26297337 0.16817322 -0.10122226 0.16542865
000060 8d 2e 95 bd c9 37 df bc f8 a0 87 3d 90 d6 4e be
       -0.072842695 -0.02724828 0.06622499 -0.20199037
000070 99 d3 48 bd fa 96 23 be c5 42 a4 bd 31 e8 99 3e
       -0.04902992 -0.15975562 -0.08020548 0.3005996

e_conv2.point_conv.weight f4 [32, 32, 1, 1]
000000 5b 11 3b bc 25 6d c9 bb 0c 18 04 37 5c 2b 9a 3d
       -0.011417712 -0.0061470442 7.873412e-06 0.075278014
000010 ff 40 6d 3c 90 ea 91 bd c7 7a 8f 3c b8 b4 c3 bc
       0.014480828 -0.07124817 0.0175146 -0.023889884
000020 46 46 57 bd 42 0b 49 3c ac 70 76 3d 2f 94 06 3d
       -0.052557252 0.0122707505 0.060166046 0.032856163
000030 18 58 2c 3e fe f4 04 3d c9 12 42 bc 9c 90 00 be
       0.1683048 0.032460205 -0.011845299 -0.12555164
000040 23 9f 9b 3c b7 ae 06 3b d3 36 f1 b3 fe a5 36 bd
       0.01899678 0.0020550916 -1.12324095e-07 -0.044591896
000050 86 07 94 3e 92 82 86 3c 09 ef 4c 3d 25 a9 54 bd
       0.2891199 0.016419683 0.05003265 -0.05191912
000060 1e d8 e4 3a 85 02 7f 3b f6 62 44 bc b6 c3 3c 3d
       0.0017459427 0.0038911414 -0.011986485 0.046085082
000070 a5 ef 70 3c e0 27 d7 3c 15 82 16 be a1 d6 c6 3b
       0.014705573 0.026264131 -0.1469806 0.006068066
000080 86 eb 50 3d ce 14 80 bd 85 63 3c 36 b4 20 29 bd
       0.051005863 -0.06253968 2.807211e-06 -0.041290954
000090 84 0f 0e 3c f6 6d 2d 3d 42 61 90 3c 3d a2 b2 3c
       0.008670691 0.042341195 0.017624501 0.021805877
0000a0 36 ce ab 3d 79 5c ab bd 70 3a a3 3e d3 dc 67 3e
       0.08388941 -0.08367247 0.31880522 0.22642832
0000b0 e7 02 87 3e 1a 6c 0e 3e e2 cb f7 ba ad 38 d4 3d
       0.26369402 0.13908425 -0.0018905366 0.103623725
0000c0 57 bd 02 3e 34 d9 00 bb 96 d6 b0 b4 76 45 a4 ba
       0.1276754 -0.0019660713 -3.2938686e-07 -0.0012532908
0000d0 81 86 8c bc 56 0a 38 3d 9b 25 29 bc c6 66 c5 3d
       -0.01715398 0.044931732 -0.010323907 0.09638743
0000e0 32 90 43 bc d5 c1 9d bb d6 c7 d5 bb b1 ee 56 3e
       -0.011936234 -0.0048143663 -0.0065240664 0.20989491
0000f0 ef 51 53 bd fb 6b e8 bc 62 ea 8f be 79 27 eb 3d
       -0.05159181 -0.028371802 -0.28108507 0.11482138
000100 c9 d2 66 3c c6 f4 91 bc 1c c1 50 b6 20 71 ab 3e
       0.014088341 -0.017816912 -3.110682e-06 0.33484745
000110 fc 35 70 bc 1e 01 57 3d 5e 23 05 3d 43 13 82 3c
       -0.014661308 0.0524913 0.032504432 0.015878325
000120 1f 89 30 bb 45 03 58 bd 78 a9 00 be 10 bd e1 bd
       -0.00269372 -0.052737493 -0.12564647 -0.11022389
000130 a8 f0 8e be 38 d9 9d 3c 93 24 2b 3c 1d 2e 47 3d
       -0.2791798 0.019268617 0.010445732 0.04862796
000140 9a b5 33 3d 9d f6 6e bb fc 79 94 34 f9 cd fb 3c
       0.04387436 -0.003646291 2.7655904e-07 0.030737864
000150 a4 23 ce bb 07 45 d6 3c b1 32 af bb 8d 40 68 3d
       -0.00629087 0.026155962 -0.005346619 0.056702185
000160 a3 ff 8c bc 9d 0f 0b bc f1 d4 95 3c ad aa 7a be
       -0.01721174 -0.008487609 0.018290015 -0.2447917
000170 5f da 83 bc 4c bc 26 bd bf ee bc 3d eb dc 6d 3c
       -0.016095338 -0.040706918 0.09225225 0.014518003
000180 a1 4d 00 80 41 d9 00 00 8b 9b 01 80 18 6a 01 80
       -2.7848e-41 7.7936e-41 -1.47634e-40 -1.29895e-40
000190 7f 1a 01 00 f8 60 01 80 ec cf 00 80 52 07 01 80
       1.0134e-40 -1.26621e-40 -7.4588e-41 -9.4462e-41
0001a0 0e c1 00 00 29 20 01 00 40 1c 01 00 a3 31 01 80
       6.9255e-41 1.03372e-40 1.0197e-40 -1.09642e-40
0001b0 a7 c4 01 00 ae 1f 00 80 df e1 00 00 dd c6 00 80
       1.62381e-40 -1.1365e-41 8.1027e-41 -7.1339e-41
0001c0 6e 95 01 80 32 b2 01 00 2a 37 01 00 fb 66 00 80
       -1.45441e-40 1.5576e-40 1.11625e-40 -3.6942e-41
0001d0 e1 b0 00 80 24 cd 01 80 78 45 01 80 95 3a 00 80
       -6.3452e-41 -1.65426e-40 -1.16756e-40 -2.1015e-41
0001e0 fd 7e 01 00 32 e8 00 00 b9 37 01 80 57 07 00 80
       1.3739e-40 8.3296e-41 -1.11825e-40 -2.633e-42
0001f0 2f 08 01 00 91 72 01 80 dc 9f 00 00 1b b9 01 80
       9.4771e-41 -1.32934e-40 5.7347e-41 -1.58239e-40
000200 3a 43 9e 3a 68 56 a8 3a 71 ae a5 b6 46 c9 d2 bc
       0.0012074478 0.0012843134 -4.937691e-06 -0.02573074
000210 04 b8 4a 3c ee fc a0 3d a9 bd fc bd fd 1d f3 3b
       0.012372974 0.078607425 -0.12340862 0.0074193464
000220 30 8e 1d bc c7 94 fa bc aa ca 60 bd 65 37 a6 bc
       -0.00961642 -0.03058852 -0.054880776 -0.020290086
000230 9c 9a 62 bd 4c f6 31 bd a1 3b 6c 3c 2a be 0e 3e
       -0.05532323 -0.043447778 0.0144185135 0.1393973
000240 e5 b5 c0 3c 9f 99 ba ba bb 32 95 33 4d 59 f9 3c
       0.023524234 -0.0014236456 6.947581e-08 0.03043809
000250 51 98 0e 3c 9f 7b 95 ba 77 1e 1e bc fd f1 11 bc
       0.008703307 -0.001140464 -0.009650818 -0.008907792
000260 86 35 2e bc d2 84 43 bb 37 bb 22 3c 34 3b 26 bc
       -0.010632878 -0.0029833806 0.009932331 -0.010145951
000270 e9 04 08 bc 88 18 e8 bc 1b d9 e8 3c 39 f6 a5 bd
       -0.008301952 -0.02833201 0.028423836 -0.08103604
000280 6e dc 46 3c 3c ab 4b bc da a0 91 b6 60 69 46 3c
       0.0121375155 -0.012430962 -4.3400623e-06 0.012110084
000290 f8 93 9d bc 15 47 df 3c 0c 5d d6 3d 06 ab 7d 3c
       -0.019235596 0.027255574 0.10466966 0.01548267
0002a0 e1 0c ec 3c 0c c4 e1 bc 6c 02 68 3d 3c 08 40 bd
       0.028814735 -0.027559303 0.056642935 -0.046882853
0002b0 e0 75 f8 3c 56 60 3b bc ea 16 85 3c 93 c3 50 3d
       0.030329645 -0.0114365425 0.016246278 0.050967764
0002c0 2d c7 8f 3b 74 84 3a ba 5f 61 dd 31 22 c7 94 3c
       0.0043877573 -0.0007115074 6.4430163e-09 0.01816136
0002d0 2f 62 8f 3d 76 6c ab 3c 29 90 c2 bc 60 e0 a7 3c
       0.07001149 0.020925742 -0.023750382 0.020492733
0002e0 23 31 fd bb be 03 23 bb 9e ce f4 3b d9 28 37 bc
       -0.007726805 -0.0024874057 0.0074709198 -0.011179172
0002f0 e6 59 d8 bb f2 a2 9a bc 1b be a0 3c 10 94 16 3e
       -0.0066025136 -0.018876527 0.0196219 0.14704919
000300 81 19 e7 3b 7c be 51 3c d2 79 1c 37 45 4e 20 3e
       0.007052601 0.012801763 9.326688e-06 0.15654857
000310 10 42 bf bb 22 ed 43 be c4 0d 10 3e 59 31 8d b9
       -0.0058367327 -0.19133428 0.14067751 -0.00026930383
000320 dc 31 81 bb 2c a4 a5 bc 09 80 b0 3e 5e 91 0d 3e
       -0.0039427113 -0.020219885 0.34472683 0.13824984
000330 3d 73 37 3e d4 5c 4f 3e cf 2f de 3a 34 3e c2 bd
       0.17915054 0.20250255 0.0016951504 -0.094845206
000340 72 7f 2e 3e 1f c4 52 3a 90 f7 92 b4 c2 aa 2b 3c
       0.17040804 0.00080400886 -2.7374745e-07 0.010477724
000350 67 3a 33 bd f9 f4 fd 3b fb ce da 3c 5d ba 02 3b
       -0.04375687 0.0077501503 0.026710024 0.0019947507
000360 db 71 90 3b 69 3c f8 3a 2d 46 8d ba 18 ca f7 3d
       0.004408104 0.0018938902 -0.001077836 0.12099093
000370 ee 40 fd 3a 06 b6 74 3c c2 fc 2e be 99 71 ff 3d
       0.0019321719 0.014935976 -0.17088607 0.12472839
000380 d7 9e 5e 29 09 1e 36 a9 a3 35 86 22 5d 88 96 a9
       4.9431674e-14 -4.043817e-14 3.6377563e-18 -6.6849934e-14
000390 eb e2 69 a9 23 0e 79 29 20 28 02 aa 5a c8 74 29
       -5.1933213e-14 5.5301368e-14 -1.156024e-13 5.435266e-14
0003a0 3b e5 59 29 12 cd 7a a9 1b d1 b7 a9 3b b7 ca 29
       4.8382505e-14 -5.568902e-14 -8.1631066e-14 9.0023875e-14
0003b0 bb 69 3d aa 12 a8 cd a8 08 5c 6c 29 76 ad 77 29
       -1.6823255e-13 -2.2832461e-14 5.248235e-14 5.499547e-14
0003c0 84 01 0b 2a f6 74 ed a7 3a 1a 86 9d 11 11 7c 29
       1.2346206e-13 -6.5907524e-15 -3.5496622e-21 5.5970043e-14
0003d0 c3 87 31 aa 9e d2 77 29 20 28 57 a9 53 83 5b 29
       -1.576786e-13 5.50277e-14 -4.7774393e-14 4.8741674e-14
0003e0 9d 09 39 a9 4e e8 a5 a8 73 75 28 29 11 cd 9b a9
       -4.108659e-14 -1.8419426e-14 3.7405365e-14 -6.918956e-14
0003f0 c3 9b f3 a8 d1 06 84 a9 27 c5 a3 a8 c0 4f bd aa
       -2.704597e-14 -5.86316e-14 -1.8182137e-14 -3.3628482e-13

e_conv2.point_conv.bias f4 [32]
000000 87 d0 a3 3d 72 49 92 3d 2d 98 e6 3d ec 35 01 80
       0.07998758 0.07142915 0.11259494 -1.11179e-40
000010 63 13 18 3e ba 34 af 3d f2 48 74 bc 30 13 fd 28
       0.14851145 0.08554979 -0.01490997 2.8096964e-14
000020 6e 8a 95 3d aa 1a b3 3d 7d 30 f9 3b b0 09 7b bd
       0.07301794 0.0874532 0.007604657 -0.061288536
000030 b2 0e 84 3b 56 bb 11 3e 39 35 04 3e 26 d0 00 80
       0.004030072 0.14231619 0.12910928 -7.467e-41
000040 cc d7 1f 87 1d aa 5d 3c c6 9c d5 3c 46 80 55 37
       -1.2025248e-34 0.013529328 0.026075732 1.2725655e-05
000050 5b 39 88 bd c9 bb 43 bb c5 a6 44 3c 9e 1c 15 39
       -0.06651565 -0.0029866567 0.012002652 0.00014220408
000060 4d 42 5d 3d e5 43 ec b3 cd 97 2a 3d 47 86 c6 bd
       0.054018307 -1.1001956e-07 0.041648675 -0.0969358
000070 a3 6f 00 00 23 5f 00 00 12 9a 5f 3d 60 57 ad 3d
       4.0048e-41 3.4129e-41 0.054590292 0.08463931

e_conv3.depth_conv.weight f4 [32, 1, 3, 3]
000000 2c 26 01 80 5b a7 00 00 94 e7 00 00 eb 99 01 80
       -1.05529e-40 6.0036e-41 8.3075e-41 -1.47051e-40
000010 15 64 00 00 49 11 00 00 7b af 01 00 77 1f 00 80
       3.5903e-41 6.201e-42 1.54786e-40 -1.1287e-41
000020 9a 1e 01 00 40 0a 00 80 3a fb 00 00 7c 34 01 00
       1.02813e-40 -3.677e-42 9.0123e-41 1.10663e-40
000030 ad fd 00 80 fd 23 01 00 a9 61 01 00 9e 01 02 00
       -9.1002e-41 1.04746e-40 1.2687e-40 1.84251e-40
000040 b0 87 00 80 3a 6c 00 80 18 64 00 80 b6 64 01 80
       -4.8676e-41 -3.8824e-41 -3.5907e-41 -1.27964e-40
000050 ee 2c 00 00 27 5a 00 80 24 07 01 00 11 a0 00 00
       1.6118e-41 -3.234e-41 9.4397e-41 5.7421e-41
000060 16 d1 00 00 dd 24 01 00 74 33 00 00 de 06 01 00
       7.5006e-41 1.0506e-40 1.8458e-41 9.4299e-41
000070 4a 1a 01 80 43 d5 00 00 54 b5 01 00 50 bb 00 80
       -1.01266e-40 7.6504e-41 1.56884e-40 -6.7195e-41
000080 2a c7 00 80 61 9d 00 80 0f 05 02 00 94 07 00 00
       -7.1447e-41 -5.6457e-41 1.85486e-40 2.719e-42
000090 4f e0 00 80 ce 13 01 80 64 b6 01 00 43 b0 01 80
       -8.0467e-41 -9.894e-41 1.57265e-40 -1.55066e-40
0000a0 8c ba 00 80 62 db 00 80 71 dc 00 80 73 5e 01 00
       -6.692e-41 -7.87e-41 -7.908e-41 1.25717e-40
0000b0 2a d7 00 00 52 3d 01 80 80 b1 00 80 a3 2d 01 00
       7.7186e-41 -1.13833e-40 -6.3675e-41 1.08207e-40
0000c0 ef 51 00 00 fa c2 01 00 54 41 01 00 e0 91 00 80
       2.9392e-41 1.6178e-40 1.15271e-40 -5.233e-41
0000d0 4f 3c 01 00 d5 34 02 00 36 5a 01 80 e4 61 00 00
       1.1347e-40 2.02624e-40 -1.24197e-40 3.5117e-41
0000e0 fc 3b 01 00 55 b8 00 00 16 62 00 00 79 fe 00 00
       1.13354e-40 6.6126e-41 3.5187e-41 9.1288e-41
0000f0 fc 84 00 80 9a a5 00 00 3f 86 01 00 07 42 01 80
       -4.7706e-41 5.9407e-41 1.39994e-40 -1.15522e-40
000100 c7 19 00 80 66 7f 00 00 df a1 00 80 44 b1 01 80
       -9.247e-42 4.5702e-41 -5.8068e-41 -1.55426e-40
000110 5e 76 01 00 ca 15 02 00 41 ec 00 80 f9 63 00 80
       1.34298e-40 1.91487e-40 -8.4752e-41 -3.5863e-41
000120 e3 3a 01 00 3d 33 01 80 32 df 00 80 58 83 00 00
       1.1296e-40 -1.10216e-40 -8.0067e-41 4.7117e-41
000130 47 f4 01 00 8b 14 00 80 25 4f 01 00 8d af 01 80
       1.79466e-40 -7.37e-42 1.20227e-40 -1.54811e-40
000140 43 35 01 00 bc 9a 01 00 da 6e 01 80 18 05 01 00
       1.10942e-40 1.47344e-40 -1.31602e-40 9.3663e-41
000150 97 bc 00 80 b8 5c 00 80 86 17 00 80 e2 ea 00 80
       -6.7653e-41 -3.3261e-41 -8.439e-42 -8.426e-41
000160 28 e3 00 80 7f 16 00 80 46 a1 00 00 0b a3 01 80
       -8.1488e-41 -8.07e-42 5.7854e-41 -1.50324e-40
000170 f1 d4 01 00 fc e2 01 80 ca e5 01 00 4a 46 00 80
       1.68224e-40 -1.73262e-40 1.74268e-40 -2.5215e-41
000180 e9 f7 00 80 f4 18 02 80 19 85 00 80 f1 0d 02 00
       -8.8933e-41 -1.92622e-40 -4.7746e-41 1.88672e-40
000190 d5 4e 00 00 ee 18 01 80 e7 8f 01 00 d6 0d 01 00
       2.828e-41 -1.00779e-40 1.43458e-40 9.6799e-41
0001a0 29 02 01 00 70 04 02 80 0c fc 00 00 a3 34 00 00
       9.261e-41 -1.85263e-40 9.0417e-41 1.8882e-41
0001b0 8c 42 01 80 26 8a 01 80 cf 68 01 80 87 6b 00 80
       -1.15708e-40 -1.41394e-40 -1.29434e-40 -3.8574e-41
0001c0 6b 66 01 00 be 2f 00 00 74 b8 01 80 f1 6f 00 80
       1.28576e-40 1.7127e-41 -1.58005e-40 -4.0157e-41
0001d0 7f 14 01 80 ef 96 01 00 73 0e 02 00 80 63 01 00
       -9.9188e-41 1.4598e-40 1.88854e-40 1.2753e-40
0001e0 22 8e 00 80 06 13 00 00 4a a5 00 80 23 54 01 00
       -5.0988e-41 6.824e-42 -5.9295e-41 1.22018e-40
0001f0 16 85 00 80 4c 19 01 80 22 58 01 00 2c 15 01 80
       -4.7742e-41 -1.0091e-40 1.23452e-40 -9.943e-41
000200 d9 03 02 00 61 5e 01 00 df 26 01 00 73 fe 00 80
       1.85051e-40 1.25692e-40 1.0578e-40 -9.1279e-41
000210 a9 d8 00 80 e2 8c 00 80 6f ee 01 80 86 39 00 00
       -7.7723e-41 -5.0539e-41 -1.7737e-40 2.0636e-41
000220 a2 e6 00 80 7e 82 00 80 b9 20 00 00 ea c9 00 80
       -8.2735e-41 -4.6812e-41 1.1739e-41 -7.2433e-41
000230 8b 37 01 80 c2 00 00 00 69 95 00 80 5e 1e 01 00
       -1.1176e-40 2.72e-43 -5.3598e-41 1.02729e-40
000240 dc 09 00 80 f9 14 01 00 36 14 00 00 25 fa 00 80
       -3.537e-42 9.9359e-41 7.25e-42 -8.9735e-41
000250 b7 e9 01 80 ad 84 01 00 5d 06 00 00 08 1a 01 80
       -1.75677e-40 1.3943e-40 2.283e-42 -1.01174e-40
000260 96 d5 01 00 d7 7f 00 80 53 21 00 00 df 38 01 80
       1.68456e-40 -4.586e-41 1.1954e-41 -1.12237e-40
000270 87 a0 01 00 df 5f 00 00 ec 2d 00 80 6e b3 01 00
       1.49422e-40 3.4392e-41 -1.6474e-41 1.56203e-40
000280 7b 0b 02 80 4e 1b 01 00 97 d4 01 00 83 46 00 80
       -1.8779e-40 1.0163e-40 1.68098e-40 -2.5295e-41
000290 b4 18 00 00 d3 03 00 00 c9 a6 00 00 d5 53 01 80
       8.862e-42 1.372e-42 5.9831e-41 -1.21909e-40
0002a0 18 4d 00 80 8b db 01 00 8f 93 01 00 5e 9b 00 80
       -2.7656e-41 1.70593e-40 1.4477e-40 -5.5735e-41
0002b0 2d 0a 02 00 f0 eb 01 00 8b ff 01 80 ec 08 01 80
       1.87321e-40 1.76474e-40 -1.83507e-40 -9.5036e-41
0002c0 35 12 01 00 b7 1c 01 00 23 85 01 00 62 ed 00 00
       9.8367e-41 1.02136e-40 1.39596e-40 8.5157e-41
0002d0 23 c5 00 00 07 20 01 00 7f 93 01 00 27 9b 01 80
       7.072e-41 1.03325e-40 1.44747e-40 -1.47494e-40
0002e0 f7 1f 00 00 31 3f 00 00 dc ee 00 80 28 ed 00 80
       1.1467e-41 2.2669e-41 -8.5687e-41 -8.5076e-41
0002f0 f5 e2 00 80 ee dd 00 00 dc 36 00 00 23 14 00 80
       -8.1417e-41 7.9613e-41 1.968e-41 -7.224e-42
000300 03 b0 00 00 04 fb 01 80 92 8a 00 80 66 57 00 80
       6.3141e-41 -1.81883e-40 -4.971e-41 -3.1353e-41
000310 88 01 01 80 5b 19 00 80 3d 81 01 80 2e 53 01 80
       -9.2385e-41 -9.096e-42 -1.38197e-40 -1.21675e-40
000320 fe 27 02 80 a8 1b 01 80 24 1c 00 00 d2 75 00 00
       -1.98017e-40 -1.01757e-40 1.0095e-41 4.2266e-41
000330 a5 27 00 80 7e ef 00 80 82 d3 01 00 db 7e 00 80
       -1.4222e-41 -8.5914e-41 1.6771e-40 -4.5507e-41
000340 58 9d 00 80 23 88 00 80 cf 52 01 00 29 46 01 00
       -5.6444e-41 -4.8837e-41 1.21542e-40 1.17004e-40
000350 eb 3c 00 80 6b c9 01 80 e5 85 01 80 89 60 01 00
       -2.1853e-41 -1.6409e-40 -1.39868e-40 1.26466e-40
000360 a2 8e 00 00 47 a1 00 00 3c e4 00 00 69 c4 00 80
       5.1167e-41 5.7855e-41 8.1875e-41 -7.0459e-41
000370 ce b3 00 00 3c 18 01 80 a5 ed 00 80 43 2b 01 80
       6.4502e-41 -1.00529e-40 -8.5251e-41 -1.07355e-40
000380 a6 5c 01 80 9f d1 00 00 41 00 02 00 42 3a 01 80
       -1.25071e-40 7.5198e-41 1.83762e-40 -1.12734e-40
000390 0c 5c 00 00 af 05 01 80 10 16 00 00 d9 18 01 00
       3.302e-41 -9.3874e-41 7.915e-42 1.00749e-40
0003a0 c7 70 00 00 af aa 00 80 95 66 00 00 24 1e 01 80
       4.0457e-41 -6.123e-41 3.68e-41 -1.02648e-40
0003b0 87 74 00 00 2e 3b 00 80 bb 08 00 80 53 7a 00 80
       4.1802e-41 -2.123e-41 -3.132e-42 -4.3882e-41
0003c0 1f 5e 00 80 70 24 00 00 fd cd 00 00 2b d5 00 80
       -3.3764e-41 1.3071e-41 7.3895e-41 -7.647e-41
0003d0 3d 3a 01 00 55 a1 00 00 0f 8f 00 00 42 63 01 00
       1.12727e-40 5.7875e-41 5.132e-41 1.27442e-40
0003e0 40 35 00 80 0e 8a 00 00 95 64 00 00 a3 5e 00 80
       -1.9103e-41 4.9525e-41 3.6082e-41 -3.3949e-41
0003f0 14 48 00 80 24 47 01 00 5b b7 00 80 63 3b 01 80
       -2.5857e-41 1.17356e-40 -6.5776e-41 -1.1314e-40

e_conv3.depth_conv.bias f4 [32]
000000 e7 a8 01 80 94 4e 00 00 f8 5f 01 00 1f 7d 00 80
       -1.52426e-40 2.8189e-41 1.26263e-40 -4.4885e-41
000010 a0 1a 01 80 76 2c 01 80 f1 22 01 00 d7 bd 01 80
       -1.01387e-40 -1.07785e-40 1.0437e-40 -1.59937e-40
000020 ee a3 01 80 a6 ef 00 00 d2 1c 01 00 c8 35 01 80
       -1.50642e-40 8.597e-41 1.02174e-40 -1.11129e-40
000030 13 55 01 80 ea 85 00 80 98 2c 01 80 f7 3a 01 00
       -1.22354e-40 -4.804e-41 -1.07833e-40 1.12988e-40
000040 f9 13 00 00 bb ae 01 80 ad 96 01 00 51 c5 01 00
       7.165e-42 -1.54517e-40 1.45888e-40 1.62619e-40
000050 d4 f6 01 00 0e 01 01 80 3c 0f 00 00 48 24 00 80
       1.80381e-40 -9.2214e-41 5.465e-42 -1.3015e-41
000060 d2 e8 00 80 e0 3c 01 00 da 62 01 80 e6 28 01 80
       -8.352e-41 1.13673e-40 -1.27297e-40 -1.06507e-40
000070 02 7f 00 80 94 04 00 80 5b df 00 80 d4 72 00 00
       -4.5562e-41 -1.642e-42 -8.0125e-41 4.1193e-41

e_conv3.point_conv.weight f4 [32, 32, 1, 1]
000000 7f fa 00 80 8a 2c 00 00 ec ef 01 80 48 4b 01 00
       -8.9861e-41 1.5978e-41 -1.77903e-40 1.18841e-40
000010 b0 96 00 00 e1 6a 01 80 8e 88 00 00 51 1f 02 00
       5.4056e-41 -1.30176e-40 4.8987e-41 1.94905e-40
000020 16 0b 02 80 31 0a 00 80 46 4f 01 00 a9 51 01 00
       -1.87648e-40 -3.656e-42 1.20273e-40 1.2113e-40
000030 2e ec 00 80 ff e3 00 80 c5 10 01 00 ce 21 01 00
       -8.4725e-41 -8.179e-41 9.7851e-41 1.03962e-40
000040 4c 8e 00 80 23 5d 01 00 b7 65 00 80 fa 2a 01 00
       -5.1047e-41 1.25247e-40 -3.6488e-41 1.07253e-40
000050 69 61 01 00 03 1e 01 80 6f 38 01 00 a8 02 01 80
       1.2678e-40 -1.02602e-40 1.1208e-40 -9.2788e-41
000060 fa 42 00 80 d2 47 01 80 68 0a 01 00 24 fc 01 80
       -2.4027e-41 -1.176e-40 9.5569e-41 -1.82287e-40
000070 69 19 00 80 dc 55 00 80 8d f2 01 00 4b 8b 00 00
       -9.115e-42 -3.08e-41 1.78846e-40 4.9969e-41
000080 bd 14 02 00 81 dc 01 00 09 5c 00 00 c6 24 00 00
       1.9111e-40 1.70937e-40 3.3016e-41 1.3192e-41
000090 08 39 01 00 a8 16 00 00 e6 a0 01 00 da 4e 01 80
       1.12294e-40 8.128e-42 1.49555e-40 -1.20122e-40
0000a0 72 e0 01 00 1d 10 00 80 df 23 00 00 83 fd 00 80
       1.72351e-40 -5.78e-42 1.2868e-41 -9.0943e-41
0000b0 75 d2 00 00 ed b3 00 00 2f 65 01 00 52 dc 00 00
       7.5498e-41 6.4545e-41 1.28133e-40 7.9036e-41
0000c0 15 5b 00 00 a9 32 01 80 9b 0f 01 80 32 7c 00 80
       3.2674e-41 -1.10009e-40 -9.7434e-41 -4.4553e-41
0000d0 5b 9e 00 00 66 f0 01 80 4e ec 01 80 32 2b 00 00
       5.6807e-41 -1.78074e-40 -1.76606e-40 1.5496e-41
0000e0 bd 14 01 00 f8 9e 01 80 a0 95 01 00 c2 28 01 80
       9.9275e-41 -1.48863e-40 1.45511e-40 -1.06457e-40
0000f0 f0 b4 00 80 5d 72 01 00 24 73 00 80 b0 39 01 80
       -6.4908e-41 1.32861e-40 -4.1305e-41 -1.1253e-40
000100 2e 77 00 80 be 2c 00 80 3e 28 01 80 5b e8 01 80
       -4.2754e-41 -1.605e-41 -1.06272e-40 -1.75189e-40
000110 85 1b 01 80 36 1f 01 00 18 14 00 80 0e b6 01 00
       -1.01708e-40 1.03032e-40 -7.208e-42 1.57144e-40
000120 39 ea 00 00 25 32 01 00 70 a7 01 80 d5 9d 01 80
       8.4023e-41 1.09824e-40 -1.51901e-40 -1.48455e-40
000130 74 1a 01 80 74 85 01 00 35 22 00 80 be cd 00 80
       -1.01325e-40 1.3971e-40 -1.2271e-41 -7.3806e-41
000140 d5 74 01 80 98 ac 00 00 10 4b 00 00 62 6e 01 80
       -1.33747e-40 6.1915e-41 2.6927e-41 -1.31433e-40
000150 56 a1 01 00 ef 7c 00 80 b3 3a 01 00 9c 1b 01 80
       1.49712e-40 -4.4818e-41 1.12893e-40 -1.0174e-40
000160 d8 84 01 80 37 10 02 00 e3 01 00 80 11 b4 01 00
       -1.39491e-40 1.89488e-40 -6.77e-43 1.56431e-40
000170 3e 5c 00 00 f0 e5 00 00 a5 71 01 80 0d be 01 80
       3.309e-41 8.2486e-41 -1.32603e-40 -1.60013e-40
000180 02 4a 00 80 a3 dc 00 00 fd d1 00 80 b2 42 01 00
       -2.6549e-41 7.915e-41 -7.533e-41 1.15761e-40
000190 01 a9 01 80 32 5f 00 00 00 47 00 80 a6 3d 00 80
       -1.52463e-40 3.415e-41 -2.547e-41 -2.2115e-41
0001a0 4b f9 01 80 90 c0 00 80 23 05 00 80 f9 01 01 80
       -1.81265e-40 -6.9078e-41 -1.843e-42 -9.2543e-41
0001b0 82 3b 01 80 e2 18 02 80 e6 45 01 00 61 fa 01 80
       -1.13183e-40 -1.92597e-40 1.1691e-40 -1.81655e-40
0001c0 15 0c 01 80 fd 90 00 80 63 95 01 00 25 01 01 00
       -9.617e-41 -5.2012e-41 1.45425e-40 9.2246e-41
0001d0 56 8b 00 80 7e c2 00 80 86 3f 00 80 6b 9a 00 80
       -4.9984e-41 -6.977e-41 -2.2788e-41 -5.5395e-41
0001e0 72 49 01 80 03 65 00 80 d9 13 00 80 7b af 01 80
       -1.18183e-40 -3.6236e-41 -7.12e-42 -1.54786e-40
0001f0 0d b2 00 00 b5 7c 01 80 3b b5 01 00 13 02 00 80
       6.3873e-41 -1.36572e-40 1.56849e-40 -7.44e-43
000200 32 26 01 00 8c d8 01 00 6b aa 00 00 fd 0a 01 00
       1.05537e-40 1.69518e-40 6.1134e-41 9.5777e-41
000210 05 e8 01 00 75 33 00 00 1c 33 00 00 26 f0 00 80
       1.75068e-40 1.846e-41 1.8335e-41 -8.6149e-41
000220 52 ae 01 00 c6 53 00 80 48 d4 00 00 66 2b 01 80
       1.5437e-40 -3.0052e-41 7.6152e-41 -1.07404e-40
000230 8c f6 00 00 e2 69 00 80 e0 00 00 80 37 21 00 80
       8.8444e-41 -3.7984e-41 -3.14e-43 -1.1915e-41
000240 78 ad 00 00 24 0d 00 80 72 4a 01 80 28 9d 00 80
       6.2229e-41 -4.714e-42 -1.18541e-40 -5.6377e-41
000250 c9 f0 00 00 07 c9 01 80 d1 48 01 80 c6 1d 00 00
       8.6377e-41 -1.6395e-40 -1.17957e-40 1.068e-41
000260 d3 27 01 80 48 3d 01 00 42 1a 00 00 69 df 01 80
       -1.06122e-40 1.13819e-40 9.42e-42 -1.7198e-40
000270 cf 54 01 00 6e 54 01 80 6c 5f 01 80 b0 66 00 00
       1.22259e-40 -1.22123e-40 -1.26066e-40 3.6837e-41
000280 b7 80 00 80 28 ed 00 80 89 22 00 00 dd 5a 00 00
       -4.6174e-41 -8.5076e-41 1.2389e-41 3.2596e-41
000290 2d 4c 00 80 c1 74 00 00 10 7d 01 00 13 98 00 00
       -2.7327e-41 4.1883e-41 1.367e-40 5.4554e-41
0002a0 d6 3b 00 00 38 09 00 00 9c e9 01 00 9f 06 02 80
       2.1465e-41 3.307e-42 1.75639e-40 -1.86046e-40
0002b0 68 23 01 80 68 2a 01 00 fa 57 01 00 da 76 00 80
       -1.04537e-40 1.07048e-40 1.23396e-40 -4.2636e-41
0002c0 91 bb 01 00 82 51 00 80 e2 58 01 80 7f 24 00 00
       1.59122e-40 -2.924e-41 -1.2372e-40 1.3092e-41
0002d0 30 0a 00 80 71 d5 00 00 dc 48 00 80 79 d9 00 00
       -3.655e-42 7.6568e-41 -2.6137e-41 7.8014e-41
0002e0 70 5b 01 80 d3 0f 00 80 f4 07 01 80 65 81 01 80
       -1.24637e-40 -5.677e-42 -9.4689e-41 -1.38254e-40
0002f0 29 ca 00 00 51 97 00 00 4d 16 01 00 56 3c 01 00
       7.2521e-41 5.4282e-41 9.9836e-41 1.1348e-40
000300 79 72 00 00 48 51 01 80 5b f4 01 80 3a 68 00 00
       4.1065e-41 -1.20994e-40 -1.79494e-40 3.739e-41
000310 5f 2a 01 00 e9 2d 01 00 49 32 00 00 b8 97 01 80
       1.07035e-40 1.08305e-40 1.8039e-41 -1.46262e-40
000320 0e 90 01 00 7e 5d 01 80 96 05 01 00 f4 c5 00 80
       1.43513e-40 -1.25374e-40 9.384e-41 -7.1012e-41
000330 5a 15 01 00 84 07 00 80 31 f3 01 00 1f d3 01 80
       9.9495e-41 -2.696e-42 1.79076e-40 -1.67571e-40
000340 db ee 01 00 26 64 01 80 0f 1b 01 80 58 06 01 00
       1.7752e-40 -1.27762e-40 -1.01542e-40 9.4111e-41
000350 23 b8 01 00 af e2 01 80 c7 55 01 00 83 e4 01 80
       1.57891e-40 -1.73154e-40 1.22607e-40 -1.7381e-40
000360 bc 73 00 00 73 94 01 80 0c a7 01 00 f8 2f 00 00
       4.1518e-41 -1.45089e-40 1.5176e-40 1.7208e-41
000370 26 28 00 80 e7 42 00 00 d4 21 01 00 53 2e 01 80
       -1.4403e-41 2.4e-41 1.03971e-40 -1.08453e-40
000380 11 3b 01 00 94 98 01 00 1d 1f 00 80 0d 99 01 00
       1.13025e-40 1.4657e-40 -1.1161e-41 1.4674e-40
000390 43 00 01 80 48 80 01 80 c3 86 00 80 44 6c 00 00
       -9.193e-41 -1.37854e-40 -4.8343e-41 3.8838e-41
0003a0 56 f9 00 00 c5 7d 01 00 b6 b8 00 00 f9 4f 00 00
       8.9445e-41 1.36953e-40 6.6262e-41 2.8689e-41
0003b0 22 1b 00 00 f3 5d 00 00 08 31 01 80 88 75 01 00
       9.733e-42 3.3703e-41 -1.09425e-40 1.33998e-40
0003c0 a1 96 00 00 1a a8 01 80 3d de 01 80 45 7a 00 80
       5.4035e-41 -1.52139e-40 -1.7156e-40 -4.3862e-41
0003d0 95 1b 00 80 9a 04 02 00 45 fb 00 80 9a b8 00 00
       -9.895e-42 1.85322e-40 -9.0139e-41 6.6223e-41
0003e0 bc 9a 00 80 1c 00 00 00 eb 34 00 80 3e 72 00 80
       -5.5508e-41 3.9e-44 -1.8983e-41 -4.0982e-41
0003f0 e5 17 01 80 b3 96 00 80 12 ad 00 00 26 40 00 00
       -1.00407e-40 -5.406e-41 6.2086e-41 2.3012e-41

e_conv3.point_conv.bias f4 [32]
000000 fd 2f 01 00 a0 32 01 80 2c e4 00 00 31 30 00 80
       1.0905e-40 -1.09996e-40 8.1853e-41 -1.7288e-41
000010 00 31 00 00 9a 65 00 80 74 0b 01 80 9a ad 01 80
       1.7578e-41 -3.6448e-41 -9.5944e-41 -1.54112e-40
000020 0b c9 00 80 e7 2f 00 80 c1 75 00 00 a9 52 01 80
       -7.212e-41 -1.7184e-41 4.2242e-41 -1.21488e-40
000030 e6 b1 00 80 16 8f 00 00 7d 96 01 00 b5 f0 01 00
       -6.3818e-41 5.133e-41 1.4582e-40 1.78185e-40
000040 b8 b5 01 80 c1 5e 00 00 66 b7 00 80 b1 09 01 00
       -1.57024e-40 3.3991e-41 -6.5791e-41 9.5312e-41
000050 c4 32 01 80 03 0c 00 80 90 08 01 00 8b 6f 01 00
       -1.10047e-40 -4.309e-42 9.4907e-41 1.3185e-40
000060 34 3d 00 80 69 db 00 00 4f 09 00 80 e0 39 01 00
       -2.1956e-41 7.871e-41 -3.339e-42 1.12597e-40
000070 98 69 00 80 4c 3b 00 00 ee 6e 01 80 e0 7b 00 80
       -3.788e-41 2.1272e-41 -1.3163e-40 -4.4438e-41

e_conv4.depth_conv.weight f4 [32, 1, 3, 3]
000000 db 3a 01 80 64 3c 00 80 e5 3d 01 80 39 07 00 80
       -1.12949e-40 -2.1664e-41 -1.14039e-40 -2.591e-42
000010 77 ac 01 80 b6 02 02 00 c7 80 00 00 e0 8d 01 00
       -1.53704e-40 1.84643e-40 4.6197e-41 1.4273e-40
000020 26 8c 00 00 f9 1d 01 00 ab 4f 01 80 30 fd 00 80
       5.0276e-41 1.02588e-40 -1.20415e-40 -9.0827e-41
000030 4b d7 00 80 c1 9c 01 00 1e 60 00 80 db 2f 00 00
       -7.7233e-41 1.48068e-40 -3.448e-41 1.7167e-41
000040 83 5a 01 80 72 a9 01 80 91 4f 00 00 18 41 01 80
       -1.24305e-40 -1.52621e-40 2.8543e-41 -1.15187e-40
000050 d2 e1 01 80 52 ca 00 00 7e c5 00 00 e1 5f 01 80
       -1.72845e-40 7.2579e-41 7.0847e-41 -1.2623e-40
000060 ec fc 00 00 dd 29 00 00 45 19 01 80 4a 6e 01 00
       9.0731e-41 1.5018e-41 -1.009e-40 1.314e-40
000070 ae 4a 00 00 5d 98 01 80 2c bf 01 80 dd d6 00 00
       2.679e-41 -1.46493e-40 -1.60415e-40 7.7078e-41
000080 ad d5 00 00 a8 4a 00 00 fb 0b 01 00 d4 85 01 80
       7.6652e-41 2.6782e-41 9.6133e-41 -1.39844e-40
000090 a8 dc 01 80 60 02 01 00 34 0d 01 80 1a 1d 00 80
       -1.70992e-40 9.2687e-41 -9.6572e-41 -1.044e-41
0000a0 05 c5 00 80 95 60 00 80 2f 2b 01 80 f5 d5 00 80
       -7.0677e-41 -3.4647e-41 -1.07327e-40 -7.6753e-41
0000b0 35 11 02 80 96 91 00 00 05 64 00 00 d4 01 00 00
       -1.89844e-40 5.2226e-41 3.588e-41 6.56e-43
0000c0 57 5b 01 00 aa c0 00 00 03 79 01 00 88 72 00 00
       1.24602e-40 6.9115e-41 1.35246e-40 4.1086e-41
0000d0 e1 5e 01 00 82 cb 01 00 7c 46 00 00 e9 f8 00 00
       1.25872e-40 1.6484e-40 2.5285e-41 8.9292e-41
0000e0 00 44 01 80 f9 50 01 80 f2 6f 01 80 ce d4 01 00
       -1.1623e-40 -1.20883e-40 -1.31994e-40 1.68175e-40
0000f0 ef 3a 00 80 d0 62 00 00 37 c3 01 00 87 a1 00 80
       -2.1141e-41 3.5447e-41 1.61865e-40 -5.7945e-41
000100 91 4b 01 00 f6 e7 01 00 0b 9d 00 80 1d 51 00 80
       1.18944e-40 1.75047e-40 -5.6336e-41 -2.9098e-41
000110 fb 10 00 00 19 c2 01 80 ab 8c 00 80 9d 45 01 00
       6.091e-42 -1.61465e-40 -5.0462e-41 1.16808e-40
000120 91 d0 01 00 bb 35 01 00 56 04 00 00 a9 35 00 80
       1.66655e-40 1.1111e-40 1.555e-42 -1.925e-41
000130 0c 35 00 80 d6 6b 01 80 ba 18 01 00 98 d5 01 80
       -1.903e-41 -1.3052e-40 1.00706e-40 -1.68458e-40
000140 d9 10 01 00 fa 71 00 00 b6 4f 01 00 a5 33 01 00
       9.7879e-41 4.0887e-41 1.2043e-40 1.10362e-40
000150 37 6a 01 80 d4 83 01 00 fe 8c 00 00 4c 99 00 80
       -1.29938e-40 1.39127e-40 5.0578e-41 -5.4993e-41
000160 3b 7d 00 80 5f 38 01 00 e0 c7 00 80 87 35 01 00
       -4.4924e-41 1.12058e-40 -7.1702e-41 1.11037e-40
000170 0d 6d 00 80 5c cd 00 80 f3 2a 02 00 2b 66 01 80
       -3.912e-41 -7.3669e-41 1.99078e-40 -1.28486e-40
000180 8d 96 00 80 be 2c 01 80 e0 5c 00 00 6c ce 00 00
       -5.4007e-41 -1.07886e-40 3.3317e-41 7.405e-41
000190 13 41 01 00 0a 26 01 00 a7 aa 01 80 36 35 01 00
       1.1518e-40 1.05481e-40 -1.53054e-40 1.10924e-40
0001a0 2b 78 00 80 f0 0b 00 80 4b 1f 01 00 75 ca 00 80
       -4.3108e-41 -4.282e-42 1.03061e-40 -7.2628e-41
0001b0 63 d7 01 00 4c 8f 01 80 b3 60 01 80 a9 7f 00 80
       1.69102e-40 -1.43241e-40 -1.26525e-40 -4.5796e-41
0001c0 2a 20 01 00 bd f6 00 00 03 6f 00 00 b3 ed 00 80
       1.03374e-40 8.8513e-41 3.9824e-41 -8.527e-41
0001d0 db a0 00 00 3b 14 00 00 77 06 01 00 13 52 01 80
       5.7704e-41 7.257e-42 9.4155e-41 -1.21278e-40
0001e0 27 6c 00 80 f1 59 01 00 e0 76 01 00 7f 7b 00 80
       -3.8798e-41 1.241e-40 1.3448e-40 -4.4302e-41
0001f0 5d 3f 01 00 53 ba 01 80 cd fe 01 00 9e d5 00 80
       1.14566e-40 -1.58676e-40 1.83241e-40 -7.6631e-41
000200 e3 dc 00 00 3c 2f 00 00 aa 28 01 00 94 43 01 00
       7.9239e-41 1.6945e-41 1.06423e-40 1.16078e-40
000210 19 7f 00 80 97 42 00 00 4b 33 01 00 4c d7 00 80
       -4.5594e-41 2.3888e-41 1.10236e-40 -7.7234e-41
000220 83 62 01 00 a5 2c 00 00 4d e1 00 00 a1 2a 01 80
       1.27175e-40 1.6015e-41 8.0823e-41 -1.07128e-40
000230 e4 66 01 80 af 6c 01 80 90 13 00 00 9a 17 01 00
       -1.28746e-40 -1.30824e-40 7.018e-42 1.00302e-40
000240 76 bb 00 00 d9 91 00 00 d9 4a 01 00 73 22 00 00
       6.7248e-41 5.232e-41 1.18686e-40 1.2358e-41
000250 27 91 01 00 02 02 00 00 6c 92 00 00 1b 3a 00 00
       1.43906e-40 7.2e-43 5.2526e-41 2.0844e-41
000260 7e 93 01 80 7c 01 01 80 03 94 00 00 57 0c 01 00
       -1.44746e-40 -9.2368e-41 5.3097e-41 9.6262e-41
000270 35 56 01 00 78 4c 00 00 fb 32 01 00 ab 69 00 00
       1.22761e-40 2.7432e-41 1.10124e-40 3.7907e-41
000280 5c 04 01 00 b8 44 01 80 00 2d 00 00 24 29 01 80
       9.34e-41 -1.16487e-40 1.6143e-41 -1.06594e-40
000290 b3 32 01 00 66 8e 00 00 25 23 01 80 61 62 01 80
       1.10023e-40 5.1083e-41 -1.04443e-40 -1.27127e-40
0002a0 3b 7c 00 80 95 e7 01 80 39 0b 02 00 6d 4e 01 00
       -4.4565e-41 -1.74911e-40 1.87697e-40 1.1997e-40
0002b0 0c 12 00 80 64 0b 01 80 de 64 00 00 e8 97 01 80
       -6.474e-42 -9.5922e-41 3.6184e-41 -1.46329e-40
0002c0 b4 5a 00 00 58 b5 00 80 ce 7b 01 00 2e 91 00 80
       3.2538e-41 -6.5054e-41 1.36248e-40 -5.208e-41
0002d0 c0 b4 00 00 b0 f3 01 80 15 36 00 00 4d 21 01 80
       6.4841e-41 -1.79254e-40 1.9401e-41 -1.03782e-40
0002e0 bb 3a 01 00 c1 e7 00 00 04 bc 00 80 d7 e0 00 80
       1.12904e-40 8.3138e-41 -6.7447e-41 -8.0657e-41
0002f0 5f 19 00 80 dc 10 00 80 2a 07 01 00 d6 26 00 80
       -9.101e-42 -6.048e-42 9.4405e-41 -1.3932e-41
000300 45 50 01 80 b7 c2 00 00 45 76 01 80 8c 7d 01 00
       -1.20631e-40 6.985e-41 -1.34263e-40 1.36873e-40
000310 1a 46 00 00 40 02 01 80 a3 01 01 00 05 b0 00 00
       2.5148e-41 -9.2643e-41 9.2423e-41 6.3144e-41
000320 ce 34 00 00 38 1c 01 00 d4 ed 00 00 d5 37 01 00
       1.8943e-41 1.01958e-40 8.5317e-41 1.11864e-40
000330 1f 85 00 80 12 1b 00 00 ae e7 00 80 c6 5b 01 80
       -4.7755e-41 9.711e-42 -8.3111e-41 -1.24758e-40
000340 1a bd 00 00 7e 14 00 80 e5 58 00 00 c9 9c 01 80
       6.7837e-41 -7.351e-42 3.189e-41 -1.4808e-40
000350 ca a9 01 00 7c 6f 00 80 20 58 01 80 98 6d 00 80
       1.52744e-40 -3.9993e-41 -1.23449e-40 -3.9315e-41
000360 e0 05 00 80 e2 d0 01 00 5b 46 00 80 30 93 01 80
       -2.108e-42 1.66769e-40 -2.5239e-41 -1.44636e-40
000370 55 2b 01 00 b3 a6 00 00 2b e4 00 00 f8 51 01 00
       1.0738e-40 5.98e-41 8.1851e-41 1.2124e-40
000380 86 d7 01 80 f7 70 00 00 d5 7e 01 80 04 f8 01 80
       -1.69151e-40 4.0524e-41 -1.37334e-40 -1.80807e-40
000390 67 33 01 00 45 35 01 80 ed 66 01 80 b7 3e 01 00
       1.10275e-40 -1.10945e-40 -1.28758e-40 1.14333e-40
0003a0 5e fb 01 80 5a 00 00 00 5b 07 00 00 b8 9e 00 80
       -1.82009e-40 1.26e-43 2.639e-42 -5.6938e-41
0003b0 f3 53 00 80 5b 12 01 00 9e ea 00 80 b4 71 00 80
       -3.0115e-41 9.842e-41 -8.4165e-41 -4.0789e-41
0003c0 fe 9d 01 00 0f 04 01 80 22 d6 00 80 7c 85 01 80
       1.48512e-40 -9.3291e-41 -7.6816e-41 -1.3972e-40
0003d0 3f d2 00 00 e2 43 01 00 49 81 01 00 8e f4 00 00
       7.5422e-41 1.16187e-40 1.38214e-40 8.773e-41
0003e0 4b 5d 00 00 f7 25 00 80 af aa 01 00 88 53 00 00
       3.3467e-41 -1.3619e-41 1.53065e-40 2.9965e-41
0003f0 0f 81 00 00 54 9d 00 00 ac 87 01 00 c2 09 01 80
       4.6297e-41 5.6439e-41 1.40505e-40 -9.5336e-41

e_conv4.depth_conv.bias f4 [32]
000000 5e 1b 00 80 c8 24 01 00 7f 40 01 00 4b df 00 80
       -9.817e-42 1.0503e-40 1.14972e-40 -8.0102e-41
000010 6f 49 00 80 30 c8 00 00 3d 0c 01 80 e5 98 00 00
       -2.6343e-41 7.1814e-41 -9.6226e-41 5.4848e-41
000020 c3 cc 00 80 67 13 00 80 fe 7e 01 80 52 9e 01 80
       -7.3455e-41 -6.96e-42 -1.37392e-40 -1.4863e-40
000030 41 21 01 80 64 0d 01 80 8d 54 01 00 80 f7 01 00
       -1.03765e-40 -9.6639e-41 1.22167e-40 1.80622e-40
000040 90 69 00 80 7e 83 01 80 a4 23 00 80 5b af 00 00
       -3.7869e-41 -1.39006e-40 -1.2785e-41 6.2906e-41
000050 41 a4 01 00 79 ae 00 80 b0 33 01 00 34 9f 01 80
       1.50759e-40 -6.2589e-41 1.10377e-40 -1.48947e-40
000060 a9 49 01 80 98 31 00 80 b6 4f 01 00 8b 1b 00 00
       -1.1826e-40 -1.7791e-41 1.2043e-40 9.88e-42
000070 d6 a4 00 00 8b f1 00 80 24 75 00 80 7a e7 00 00
       5.9132e-41 -8.6649e-41 -4.2022e-41 8.3038e-41
