Zero-DCE++/snapshots_Zero_DCE++/Epoch49.pth (torch, 51217 bytes, 28 tensors)

e_conv1.depth_conv.weight f4 [3, 1, 3, 3]
-0.34380215 -0.15680575 0.025230924 -0.17151853 0.1195375 0.1106172 -0.40383765 -0.15578292
-0.05062354 0.19227587 0.14686956 0.31251922 0.17804137 0.011626019 0.22627981 0.09171502
-0.0065249316 0.1997512 0.008930046 -0.04868856 -0.156631 -0.039213356 -0.08857761 -0.124148086
-0.06978493 -0.18546374 -0.32724693
00000000: d606 b0be b091 20be 15b1 ce3c 8ea2 2fbe
00000010: 14d0 f43d 458b e23d cfc3 cebe 8f85 1fbe
00000020: a15a 4fbd f7e3 443e f964 163e 8502 a03e
00000030: 7a50 363e 0f7b 3e3c e5b5 673e 16d5 bb3d
00000040: 18cf d5bb 948b 4c3e 544f 123c a86d 47bd
00000050: e063 20be 2f9e 20bd 2e68 b5bd 5a41 febd
00000060: 67eb 8ebd 35ea 3dbe e98c a7be

e_conv1.depth_conv.bias f4 [3]
0.07383545 0.31100863 -0.043066163
00000000: 0a37 973d 863c 9f3e 2566 30bd

e_conv1.point_conv.weight f4 [32, 3, 1, 1]
0.00746356 0.22598295 0.092068925 -2.669427e-30 -3.2018217e-28 1.4704397e-28 -6.0669e-41 -9.427172e-15
-1.562684e-26 0.093336165 -0.52221864 0.1297065 2.851522e-13 -5.451408e-14 -9.407574e-16 -0.032857724
0.10598665 0.42817074 0.098704286 0.28671873 -0.2609368 1.05707306e-29 -1.9460425e-29 1.1950627e-29
0.03809865 -0.010342157 0.07492024 0.062104367 -0.032084208 -0.1219748 0.3782368 -0.5558826
0.3684752 0.00082256907 -0.05722123 0.058092386 0.17528018 -0.4072907 -0.15441446 -0.06601172
-0.14335746 0.12205288 1.4763342e-28 1.7761e-41 -4.3311e-41 0.03568402 0.3455213 0.3067265
-0.24340454 0.35455525 -0.34117788 -7.5587e-41 -6.8693e-41 2.202273e-21 -0.006163482 0.0049238633
-0.04917623 1.7452939e-20 -3.575727e-22 -1.00031924e-22 -0.5816167 -0.07965652 -0.3616297 3.6430615e-07
-4.6986239e-07 2.214593e-07 -0.012092647 0.005183378 0.04869409 -3.8576e-41 3.3263558e-22 4.305e-41
3.720073e-27 -6.7504515e-27 4.8817867e-27 -3.4018e-41 -1.4463528e-21 7.6587507e-16 -6.8609e-41 -4.0899176e-14
4.4054e-41 0.31672704 -0.13853948 -0.3157792 0.017825192 -0.14864689 -0.030548623 -1.30104e-40
2.8282e-41 -3.5223e-41 0.27748927 0.017061314 -0.05111379 -0.25588748 0.41276693 -0.35676113
00000000: e190 f43b 1368 673e a28e bc3d d491 588e
00000010: 87f0 ca91 7f66 3a11 1fa9 0080 28d3 29a8
00000020: bfc2 9a94 0827 bf3d 1fb0 05bf c8d1 043e
00000030: c386 a02a 7582 75a9 d293 87a6 d295 06bd
00000040: 870f d93d 3239 db3e 7925 ca3d cccc 923e
00000050: 8299 85be 5f66 560f 275a c58f 3463 720f
00000060: 540d 1c3d 2772 29bc c86f 993d 2661 7e3d
00000070: bb6a 03bd edcd f9bd 41a8 c13e 524e 0ebf
00000080: c8a8 bc3e ada1 573a cf60 6abd 48f2 6d3d
00000090: a67c 333e 6888 d0be d31e 1ebe 2731 87bd
000000a0: 4ccc 12be dcf6 f93d c925 3b11 8331 0000
000000b0: bc78 0080 6829 123d 2be8 b03e 410b 9d3e
000000c0: 0a3f 79be 4488 b53e deae aebe b5d2 0080
000000d0: 7dbf 0080 2866 261d 09f7 c9bb 5c58 a13b
000000e0: 046d 49bd 9ed6 a41e b223 d89b c3dc f19a
000000f0: d5e4 14bf f522 a3bd 8727 b9be db95 c334
00000100: 6541 fcb4 45ca 6d34 3d20 46bc 53d9 a93b
00000110: 7473 473d 896b 0080 dd10 c91b 0278 0000
00000120: 065e 9313 dbb4 0594 3363 c113 d45e 0080
00000130: 1091 da9c 9bbf 5c26 41bf 0080 8a31 38a9
00000140: ce7a 0000 0c2a a23e 4bdd 0dbe d0ad a1be
00000150: 2306 923c e436 18be 1b41 fabc ad6a 0180
00000160: d74e 0000 3062 0080 1313 8e3e 2bc4 8b3c
00000170: b25c 51bd af03 83be 3056 d33e 65a9 b6be

e_conv1.point_conv.bias f4 [32]
-0.1517684 -6.2663597e-28 -1.0859115e-20 0.57146853 6.144893e-15 0.07525949 0.2808132 -8.0648354e-30
0.05318306 -0.018069856 0.41215906 0.45651776 0.34609452 0.30141842 -5.301425e-20 0.511951
-0.06504091 3.5841e-41 -0.029791202 -3.1035703e-21 0.4111292 -5.055089e-07 0.35200965 -6.7894803e-15
-7.960242e-27 7.976e-41 -1.4614867e-14 0.31940937 0.08460703 -4.0169256e-16 0.51017624 -0.08997141
00000000: 2d69 1bbe c096 4692 751f 4d9e c34b 123f
00000010: a264 dd27 a621 9a3d bfc6 8f3e 0593 238f
00000020: 7bd6 593d 3c07 94bc 8306 d33e b2bc e93e
00000030: 4d33 b13e 8453 9a3e 4c5a 7a9f 390f 033f
00000040: 2b34 85bd e963 0000 ae0c f4bc c87f 6a9d
00000050: 877f d23e 4fb2 07b5 9c3a b43e e79d f4a7
00000060: 39ab 1d94 57de 0000 97a3 83a8 a089 a33e
00000070: 7346 ad3d 5c8f e7a5 e99a 023f ee42 b8bd

e_conv2.depth_conv.weight f4 [32, 1, 3, 3]
-0.031466875 -0.037456732 -0.030411368 -0.020486532 -0.03718103 -0.024651242 -0.032968324 -0.048251167
-0.034165107 2.6298375e-29 3.651733e-29 5.356004e-29 -1.8436125e-29 -4.1550888e-29 5.278782e-29 -6.606164e-29
9.295083e-29 -2.9993307e-29 -3.4744e-41 -5.4143e-41 -2.1566e-41 -6.7044e-41 1.6245e-41 5.4396e-41
1.6739e-41 -3.2451e-41 8.8943e-41 -0.29283115 -0.2631753 -0.06737472 -0.103225544 0.12353151
0.2600229 0.27299574 -0.0011475983 0.46255448 1.0077506e-16 2.5333345e-15 3.981261e-17 1.284256e-15
2.8541006e-15 5.1790104e-16 1.6876286e-16 2.0527257e-15 2.0564728e-16 -0.0018395475 0.051873807 -0.027505705
0.07383872 0.1623093 -0.00054933794 -0.04031646 0.0004005503 -0.19039598 0.09384481 -0.012889611
-0.24067684 0.056922648 0.15177889 -0.097027026 -0.036740325 -0.008897577 -0.3133669 -2.972785e-31
-3.1189164e-31 -1.8006004e-32 -4.120222e-31 -1.2273256e-30 -4.9108672e-32 -4.8053584e-31 -3.3029513e-31 -3.4444197e-32
0.023417972 0.0017751566 -0.004880812 0.010818989 -0.0005496194 0.0016670757 0.0058523347 0.010603986
0.026496787 0.010350398 0.0039576157 -0.009598606 0.016470645 0.0069925133 -0.0062188986 0.010358107
0.00075951836 -0.006479482 0.30231464 0.2744681 0.2373426 0.26859042 -0.02459604 0.3229388
0.28290954 0.088993475 0.07466769 0.21763054 -0.19683768 0.14452592 0.071069166 -0.21463858
-0.12935826 0.26041192 0.06507593 0.1615275 0.36191955 0.120896265 0.20573598 0.29007274
0.20108062 0.106623225 0.27229056 0.15403727 -0.071482666 0.013123541 0.039049063 0.066982694
0.103185005 -0.12235277 0.19351266 -0.091519795 0.047542386 0.37483826 -6.8786e-41 1.8524e-41
5.4561e-41 2.7149e-41 6.0959e-41 -9.078e-42 -4.2018e-41 1.096e-41 -1.282e-41 -0.07021133
0.16027984 -0.1439369 0.12190551 0.21468891 0.19491059 -0.16292937 -0.0728136 -0.08623121
0.0993974 0.23773412 0.3546217 0.12907922 0.06415953 0.13576926 -0.15931393 -0.06528256
-0.20085141 6.1846e-41 1.05818e-40 -7.5959e-41 -5.6715e-41 5.0709e-41 3.6026e-41 -6.1716e-41
-6.7625e-41 7.2154e-41 8.018464e-05 2.8844193e-05 -4.0182756e-05 -0.00013728286 4.8166545e-05 9.1914975e-05
-0.00012589197 0.00011698043 0.00013433132 7.0070627e-23 -8.862157e-23 2.851811e-23 -9.591163e-23 -5.777049e-24
-1.8578384e-23 5.954897e-23 -1.190645e-22 1.963339e-23 -0.053897582 0.24535654 -0.20893314 -0.32018122
-0.011170088 0.057820927 -0.31169453 -0.25184727 -0.27378353 -5.352711e-08 -7.0348264e-08 -7.325509e-10
-1.216462e-08 -2.0533166e-08 -4.757962e-09 -1.7700017e-07 -2.8534156e-08 7.1739054e-10 -0.061716456 -0.11630864
0.07801267 -0.10180137 -0.10967477 0.008203399 -0.054288045 -0.10982551 -0.018985176 1.39108e-40
7.9772e-41 -8.534e-41 -1.15349e-40 6.5322e-41 -9.4645e-41 2.33e-42 -9.025e-41 -8.803e-42
-6.4836566e-28 -8.395585e-28 -3.1683242e-28 4.128859e-28 -6.5843717e-28 -3.9221185e-28 6.953524e-28 -6.9103854e-28
-3.1561326e-28 4.4966e-41 7.557e-42 4.6016e-41 -7.1608e-41 7.0146e-41 3.0331e-41 1.9083e-41
1.0224e-40 -4.6645e-41 1.1353e-41 -2.006e-41 2.0776e-41 7.2321e-41 -4.8234e-41 -9.5946e-41
3.2046e-41 -6.0699e-41 -3.695e-42 0.30561224 -0.011385155 0.047441997 0.009076815 0.070700765
0.07398024 0.028618068 -0.04054888 -0.01626674 -0.011332375 -0.0075578126 -0.012098659 0.0009997657
00000000: 69e3 00bd 3b6c 19bd 4321 f9bc 5fd3 a7bc
00000010: 234b 18bd 67f1 c9bc cb09 07bd 04a3 45bd
00000020: b6f0 0bbd 3e59 0510 342a 3910 74ca 8710
00000030: ebf6 ba8f 23b0 5290 41d5 8510 757c a790
00000040: 8aa8 eb10 8a15 1890 da60 0080 ee96 0080
00000050: 1e3c 0080 e4ba 0080 492d 0000 a297 0000
00000060: a92e 0000 765a 0080 f0f7 0000 f7ed 95be
00000070: eabe 86be c2fb 89bd ea67 d3bd 17fe fc3d
00000080: b921 853e 19c6 8b3e 026b 96ba f1d3 ec3e
00000090: 195f e824 c68b 3627 6f9a 3724 af14 b926
000000a0: dda8 4d27 5a46 1526 0192 4225 1bea 1327
000000b0: 5d18 6d25 f91c f1ba a179 543d a553 e1bc
000000c0: c138 973d 6934 263e 7201 10ba df22 25bd
000000d0: f400 d239 2af7 42be b531 c03d f22e 53bc
000000e0: fd73 76be b927 693d ed6b 1b3e 1bb6 c6bd
000000f0: 067d 16bd 25c7 11bc a071 a0be ddf1 c08c
00000100: e36d ca8c 2bfc ba8a 77b5 058d 1c25 c78d
00000110: 9ffc 7e8b 5bf1 1b8d b15f d68c 31d8 328b
00000120: 0cd7 bf3c 5fac e83a 38ef 9fbb 2142 313c
00000130: 5514 10ba c781 da3a f1c4 bf3b 57bc 2d3c
00000140: ca0f d93c b794 293c e3ae 813b 7943 1dbc
00000150: 72ed 863c 7421 e53b e7c7 cbbb 0db5 293c
00000160: 6a1a 473a d651 d4bb fcc8 9a3e 1587 8c3e
00000170: f009 733e af84 893e a27d c9bc 3c58 a53e
00000180: 85d9 903e 3642 b63d 60eb 983d 8ada 5e3e
00000190: d18f 49be 9afe 133e b68c 913d 37ca 5bbe
000001a0: 7e76 04be b654 853e 8746 853d 7767 253e
000001b0: 854d b93e 7698 f73d 74ac 523e 6a84 943e
000001c0: 14e8 4d3e 475d da3d ab69 8b3e f2bb 1d3e
000001d0: 8165 92bd 1f04 573c e9f1 1f3d 392e 893d
000001e0: a952 d33d 1794 fabd 2f28 463e bb6e bbbd
000001f0: cebb 423d cdea bf3e bfbf 0080 a333 0000
00000200: 1898 0000 ae4b 0000 eea9 0000 4e19 0080
00000210: 2175 0080 8d1e 0000 bd23 0080 f5ca 8fbd
00000220: 6620 243e 3264 13be 99a9 f93d 69d7 5b3e
00000230: a496 473e f5d6 26be 4c1f 95bd fd99 b0bd
00000240: dd90 cb3d 9370 733e fa90 b53e 582d 043e
00000250: 1266 833d 1907 0b3e 3123 23be ddb2 85bd
00000260: feab 4dbe 67ac 0000 fa26 0100 bed3 0080
00000270: 199e 0080 5b8d 0000 6d64 0000 0aac 0080
00000280: 83bc 0080 23c9 0000 cd28 a838 6ff6 f137
00000290: e889 28b8 96f3 0fb9 6f06 4a38 7ac2 c038
000002a0: de01 04b9 6453 f538 4adb 0c39 9e6b a91a
000002b0: 1846 d69a b6e7 091a 6ce6 e79a 1f7d df98
000002c0: daad b399 07fb 8f1a aef0 0f9b ebe1 bd19
000002d0: b6c3 5cbd bf3e 7b3e 92f2 55be cbee a3be
000002e0: bf02 37bc a3d5 6c3d 6d96 9fbe 20f2 80be
000002f0: 5b2d 8cbe aee5 65b3 5e12 97b3 b05c 49b0
00000300: 91fc 50b2 e960 b0b2 7a7b a3b1 700d 3eb4
00000310: 461b f5b2 df31 4530 65ca 7cbd 3933 eebd
00000320: 1bc5 9f3d 3d7d d0bd 2a9d e0bd 8d67 063c
00000330: 245d 5ebd 32ec e0bd cd86 9bbc c783 0100
00000340: 5fde 0000 e5ed 0080 8c41 0180 17b6 0000
00000350: d507 0180 7f06 0000 95fb 0080 8a18 0080
00000360: ac79 4d92 8a08 8592 00d1 c891 49d9 0212
00000370: c5aa 5092 0398 f891 b05d 5c12 b5ff 5a92
00000380: 2e0b c891 597d 0000 1115 0000 4680 0000
00000390: 9dc7 0080 8ac3 0000 8d54 0000 3235 0000
000003a0: 011d 0100 0782 0080 a61f 0000 eb37 0080
000003b0: ea39 0000 9ac9 0000 7586 0080 750b 0180
000003c0: 5559 0000 34a9 0080 4d0a 0080 3579 9c3e
000003d0: cd88 3abc 8a52 423d ecb6 143c 90cb 903d
000003e0: f482 973d 7070 ea3c 9516 26bd d441 85bc
000003f0: 6dab 39bc 87a7 f7bb 7439 46bc 920a 833a

e_conv2.depth_conv.bias f4 [32]
0.1018288 -0.13692148 0.008203535 -0.05408741 -0.18319118 0.20699972 0.013048574 0.14835992
0.27731416 -0.25236747 0.009177949 -0.08670062 -0.22859907 -0.051702138 0.15644316 0.21355005
0.18597038 -0.036662117 0.00015520802 0.18073335 0.26802504 0.19031154 -0.116319016 0.20894949
-0.08917373 -0.039153494 0.08357564 -0.22565952 -0.10130724 -0.17304471 -0.08948964 0.30043828
00000000: 9e8b d03d 2535 0cbe 1f68 063c c38a 5dbd
00000010: 7896 3bbe bcf7 533e b0c9 553c aaeb 173e
00000020: 1ffc 8d3e 4f36 81be 1c5f 163c 1890 b1bd
00000030: e015 6abe 9fc5 53bd a332 203e ddac 5a3e
00000040: 056f 3e3e 042b 16bd 56bf 2239 2a12 393e
00000050: 943a 893e 07e1 423e aa38 eebd dbf6 553e
00000060: b7a0 b6bd 6a5f 20bd b529 ab3d 4a13 67be
00000070: 2c7a cfbd a232 31be 5846 b7bd 0cd3 993e

e_conv2.point_conv.weight f4 [32, 32, 1, 1]
-0.014458759 -0.013716602 -0.0011886834 0.087189816 0.01470195 -0.06701732 0.023978982 -0.028691163
-0.05892812 0.010529908 0.05000546 0.057779256 0.15616754 0.032238346 -0.01179438 -0.1267332
0.027785672 0.0036915 0.0012403235 -0.05406585 0.24710776 0.025699297 0.05443835 -0.062153738
-0.0013269894 0.005736058 -0.016516436 0.050497998 0.021821957 0.030152595 -0.15266272 -0.038404837
0.06797621 -0.100379415 0.005394439 -0.15804459 0.01997037 0.10261823 0.009897157 0.02691883
0.09723651 -0.10082942 0.28598458 0.13126741 0.23400702 0.07499709 -0.010434201 0.15047762
0.10418436 -0.014330408 0.00011363547 -0.009185631 0.03674406 0.0566128 0.022984067 0.12714319
-0.016859397 -0.01721322 -0.023536872 0.17040393 -0.10672969 -0.034152314 -0.24862123 0.11856074
-0.0009902678 0.00032269303 0.0013112951 0.33856967 0.012887259 0.03489194 0.047922064 -0.009918995
-0.04096943 -0.047397744 -0.12711444 -0.026440399 -0.25911182 0.056278106 -0.022103766 0.0169511
0.0872755 -0.004655096 2.786769e-05 0.018694073 -0.04128548 0.008273508 -0.007126327 0.06515114
-0.005334167 -0.0027435531 0.014242217 -0.19278719 -0.012618718 -0.038915068 0.07802224 -0.013403837
7.174951e-09 -1.37176155e-08 3.3766492e-09 -3.806277e-09 1.9807183e-08 -3.4083794e-08 4.19557e-08 3.0825426e-08
3.8112816e-08 -3.7722852e-08 1.4824695e-08 -1.5631999e-08 -1.1179133e-08 -3.5893433e-09 3.083821e-08 -3.627648e-08
-3.5359353e-08 -9.255471e-09 -1.9212458e-11 -1.4346372e-08 -4.4538023e-08 -3.1875185e-08 -3.8482e-08 -3.5146037e-08
-2.3704324e-08 3.7449714e-09 1.4301838e-08 2.0004732e-08 1.5352638e-08 -2.3488238e-09 7.903012e-05 2.2353131e-08
0.002917569 0.011764676 0.0011933568 -0.0346524 0.028370036 0.09916317 -0.14357863 0.0040478893
-0.020492878 -0.03431238 -0.078344226 -0.029105641 -0.06897329 -0.047441162 0.01613597 0.16198519
0.00868397 -0.007371501 -0.00033147313 0.039981943 0.0029417058 -0.0103111975 -0.007568543 -0.021432875
-0.018085867 -0.005577869 0.016568571 0.0068015177 -0.013325939 -0.0368942 0.038445503 -0.0661611
0.017609557 -0.019239072 0.0011864557 -0.08213621 -0.024345195 0.032356672 0.11548996 0.019907622
0.031047447 -0.029776376 0.10501328 -0.041452844 0.07755745 -0.029461807 0.021153955 0.04041335
-0.004985176 -0.005420827 -0.00044842652 0.020066626 0.08174325 0.025361871 -0.031210236 0.02363048
-0.011724758 -0.0054099155 0.011969587 0.030693509 -0.014676422 -0.022373363 0.005377251 0.14636755
0.0069183335 0.019149005 -0.00059034716 0.16239929 -0.01813399 -0.20148084 0.18629226 0.008149479
-0.00023420659 -0.035983156 0.36718813 0.19979998 0.19235095 0.22087154 0.011711284 -0.095095545
0.17513488 0.0010478243 -0.00028135782 0.026044482 -0.05128869 0.020872613 0.034599382 0.010830686
0.0034257455 0.0010568899 0.0077698287 0.090705454 -0.0022980443 0.017515576 -0.17237021 0.1409482
4.247775e-09 5.131699e-09 8.5712704e-10 1.8774986e-09 -4.520609e-09 -7.7364835e-09 -4.2521092e-10 -4.7530213e-10
1.1962673e-08 -2.1505269e-09 2.8467895e-10 -3.716466e-09 -2.7410456e-09 -1.0068101e-09 4.9396114e-09 -4.3419783e-09
-6.401668e-09 1.4671903e-09 -3.344311e-11 5.5018754e-09 -9.706122e-09 -1.3108267e-09 -1.182502e-08 -8.851513e-09
-3.894049e-09 1.8944193e-09 2.1911668e-09 1.3119398e-09 -5.746276e-09 -7.259992e-09 7.817051e-05 -1.8656925e-09
00000000: 6ee4 6cbc 99bb 60bc 99cd 9bba 9390 b23d
00000010: 73e0 703c 6040 89bd 926f c43c bb09 ebbc
00000020: 9d5e 71bd a385 2c3c 86d2 4c3d f1a9 6c3d
00000030: 62ea 1f3e 5b0c 043d 373d 41bc 59c6 01be
00000040: c79e e33c 18ed 713b 5a92 a23a 2774 5dbd
00000050: d109 7d3e 5587 d23c bffa 5e3d eb94 7ebd
00000060: 60ee adba 8bf5 bb3b 7a4d 87bc fdd6 4e3d
00000070: f6c3 b23c 9302 f73c 9e53 1cbe 644e 1dbd
00000080: 1c37 8b3d b993 cdbd d6c3 b03b 71d6 21be
00000090: e798 a33c 8229 d23d af27 223c e184 dc3c
000000a0: ef23 c73d a87f cebd 926c 923e f76a 063e
000000b0: 899f 6f3e 1398 993d 36f4 2abc ce16 1a3e
000000c0: 9c5e d53d 16ca 6abc 944f ee38 547f 16bc
000000d0: f180 163d d3e2 673d 1549 bc3c d331 023e
000000e0: b81c 8abc bd02 8dbc 66d0 c0bc 5e7e 2e3e
000000f0: 1995 dabd 4ce3 0bbd 9096 7ebe f9cf f23d
00000100: e0cb 81ba 202f a939 c3df ab3a 0159 ad3e
00000110: 1525 533c daea 0e3d ed49 443d 4883 22bc
00000120: 90cf 27bd 2324 42bd 4a2a 02be 8999 d8bc
00000130: 4eaa 84be df83 663d f512 b5bc 09dd 8a3c
00000140: 7fbd b23d c789 98bb 69c5 e937 5024 993c
00000150: f71a 29bd 9c8d 073c f783 e9bb f66d 853d
00000160: 3cca aebb 2fcd 33bb 3058 693c 016a 45be
00000170: bdbe 4ebc 6865 1fbd 20ca 9f3d c49b 5bbc
00000180: 8987 f631 b6aa 6bb2 a40a 6831 5ec8 82b1
00000190: 7524 aa32 8763 12b3 c832 3433 ea64 0433
000001a0: 7cb1 2333 b704 22b3 b3af 7e32 2147 86b2
000001b0: 590e 40b2 65a8 76b1 f872 0433 69ce 1bb3
000001c0: 05de 17b3 fe01 1fb2 9cfe a8ad 0378 76b2
000001d0: 134a 3fb3 23e7 08b3 6847 25b3 7af3 16b3
000001e0: 5c9e cbb2 1ead 8031 26b4 7532 dfd6 ab32
000001f0: cfe0 8332 f268 21b1 f9bc a538 0e03 c032
00000200: af34 3f3b a1c0 403c 696a 9c3a adef 0dbd
00000210: 4768 e83c 0f16 cb3d 4706 13be 28a4 843b
00000220: aee0 a7bc 238b 0cbd f072 a0bd f46e eebc
00000230: de41 8dbd aa51 42bd 952f 843c 72df 253e
00000240: 3647 0e3c a28c f1bb 92c9 adb9 1bc4 233d
00000250: a2c9 403b 4cf0 28bc 8a01 f8bb ff93 afbc
00000260: d028 94bc 8ec6 b6bb d0ba 873c 44df de3b
00000270: 0a55 5abc 5f1e 17bd 0879 1d3d 797f 87bd
00000280: eb41 903c 429b 9dbc d982 9b3a 0737 a8bd
00000290: 936f c7bc 6e88 043d 0086 ec3d 4f15 a33c
000002a0: 3757 fe3c 96ed f3bc 3411 d73d 75ca 29bd
000002b0: 71d6 9e3d e359 f1bc 0f4b ad3c 7888 253d
000002c0: b05a a3bb 31a1 b1bb ca1a ebb9 c462 a43c
000002d0: 0169 a73d b3c3 cf3c 9cac ffbc b594 c13c
000002e0: 3319 40bc a945 b1bb 161c 443c f470 fb3c
000002f0: 6075 70bc 5848 b7bc a733 b03b 60e1 153e
00000300: 30b3 e23b 60de 9c3c 87c1 1aba 004c 263e
00000310: bc8d 94bc fe50 4ebe 66c3 3e3e 6485 053c
00000320: 5a95 75b9 1363 13bd 1500 bc3e 5e98 4c3e
00000330: a6f7 443e 262c 623e afe0 3f3c 74c1 c2bd
00000340: 8f56 333e 2657 893a 3583 93b9 3d5b d53c
00000350: 1714 52bd 0bfd aa3c 15b8 0d3d 3173 313c
00000360: 7982 603b 5787 8a3a 0c9a fe3b c8c3 b93d
00000370: c99a 16bb d37c 8f3c d181 30be ba54 103e
00000380: d3f3 9131 e752 b031 f49a 6b30 4e05 0131
00000390: b353 9bb1 6ae9 04b2 1ec3 e9af 6aa6 02b0
000003a0: 6484 4d32 78c8 13b1 0081 9c2f c364 7fb1
000003b0: fc5c 3cb1 fb5f 8ab0 48b9 a931 7230 95b1
000003c0: abf5 dbb1 2ba6 c930 9815 13ae 020b bd31
000003d0: fabf 26b2 9d28 b4b0 fd26 4bb2 5e11 18b2
000003e0: 6bcc 85b1 fa2e 0231 6a93 1631 c74f b430
000003f0: c770 c5b1 9173 f9b1 79ef a338 9c35 00b1

e_conv2.point_conv.bias f4 [32]
0.08769922 0.06950688 0.09546605 -7.933498e-05 0.15376788 0.08155112 -0.009738393 -6.725104e-05
0.06549717 0.11914887 0.0054485635 -0.052687466 0.0063544097 0.16780047 0.0904649 0.00035850581
-2.5564377e-08 0.019365532 0.03440388 -6.0986e-41 -0.06424172 -0.0068045794 0.021006044 0.00219843
0.051257197 -0.028233705 0.042273164 -0.10348611 -1.5530639e-19 -0.0008036819 0.05741386 0.09488621
00000000: a69b b33d a059 8e3d b483 c33d a560 a6b8
00000010: 5475 1d3e 4604 a73d c88d 1fbc 2109 8db8
00000020: 6123 863d 5304 f43d dd89 b23b d0ce 57bd
00000030: a738 d03b e3d3 2b3e a945 b93d d6f5 bb39
00000040: a998 dbb2 77a4 9e3c 15eb 0c3d 01aa 0080
00000050: 2a91 83bd f3f8 debb de14 ac3c 8913 103b
00000060: 11f3 513d 5f4a e7bc a026 2d3d 87f0 d3bd
00000070: 7a5a 37a0 2eae 52ba cc2a 6b3d b453 c23d

e_conv3.depth_conv.weight f4 [32, 1, 3, 3]
6.313e-42 7.6978e-41 8.284e-42 6.1559e-41 6.1448e-41 -3.7021e-41 3.8638e-41 7.6893e-41
-9.2423e-41 6.7143e-41 -7.8415e-41 3.0177e-41 -5.7585e-41 6.8563e-41 1.0452e-41 4.3433e-41
2.2485e-41 -3.0216e-41 7.2157e-41 -9.232e-42 -1.23496e-40 9.4647e-41 -7.636e-41 -4.3529e-41
6.7701e-41 3.4737e-41 -6.6585e-41 -8.7151e-41 -7.3827e-41 1.8242e-41 -8.755e-42 -6.6356e-41
-1.6067e-41 -2.3665e-41 -8.6672e-41 3.0164e-41 -6.2306e-41 6.1618e-41 1.7372e-41 1.4177e-41
-5.525e-41 -4.6454e-41 -2.492e-42 -2.2778e-41 -9.7676e-41 -1.73718e-40 1.1335e-40 3.9348e-41
-7.46e-42 2.1232e-41 1.2122e-40 -6.6721e-41 9.2697e-41 1.84311e-40 -3.222e-41 4.7769e-41
1.75e-42 6.7852e-41 6.785e-42 -4.124e-41 -3.1313e-41 1.16615e-40 2.9474e-41 -1.59948e-40
-8.4e-43 2.6454e-41 3.8575e-41 1.5508e-41 4.5245e-41 1.22963e-40 4.71e-42 7.6385e-41
-7.9992e-41 6.8685e-41 -9.8642e-41 -3.0063e-41 6.104e-42 1.33036e-40 5.933e-42 1.28289e-40
1.66436e-40 -4.0044e-41 -3.8614e-41 -6.789e-41 -5.0004e-41 3.9693e-41 3.7612e-41 -4.7124e-41
1.6555e-41 -4.9208e-41 -2.294e-41 -9.228e-42 -9.4777e-41 -3.4501e-41 7.12e-41 -7.673e-41
6.477e-42 -5.267e-41 3.736e-41 1.12152e-40 -3.5121e-41 6.0214e-41 -6.7809e-41 7.5862e-41
-7.2079e-41 -1.07798e-40 1.7525e-41 -8.877e-42 2.4757e-41 7.0509e-41 -9.8849e-41 -4.193e-42
1.17604e-40 -4.7166e-41 1.09474e-40 5.5986e-41 7.055e-41 1.13893e-40 8.9651e-41 -7.088e-42
7.6365e-41 4.883e-41 -4.157e-41 -1.359e-41 1.6247e-41 -1.8357e-41 1.3597e-41 6.9296e-41
-5.4767e-41 -4.8858e-41 -5.9118e-41 -1.3076e-41 -3.924e-42 4.1714e-41 -5.4152e-41 -4.9616e-41
2.27e-43 -7.6413e-41 -8.291e-41 -1.01094e-40 5.6385e-41 -1.23765e-40 5.73e-42 -5.6275e-41
5.5176e-41 1.9622e-41 5.6659e-41 -2.6022e-41 2.1678e-41 -4.8719e-41 -5.9229e-41 1.1199e-41
3.4246e-41 4.2056e-41 -6.5422e-41 -7.5e-43 7.7317e-41 -6.992e-41 5.497e-42 6.8437e-41
-8.9958e-41 -5.4663e-41 7.79e-41 3.7598e-41 -1.5029e-41 9.8225e-41 -4.6802e-41 1.33751e-40
-9.319e-42 4.4305e-41 -1.3533e-40 7.477e-42 9.4501e-41 -3.4052e-41 1.10487e-40 7.7394e-41
-5.6517e-41 -3.6416e-41 1.6348e-41 4.1959e-41 8.1871e-41 3.2551e-41 2.8892e-41 8.8782e-41
-9.4735e-41 -6.3192e-41 -1.201e-42 -4.3388e-41 6.2459e-41 -7.2255e-41 -2.9881e-41 -8.1794e-41
8.8625e-41 8.5296e-41 7.4583e-41 8.156e-42 7.3085e-41 1.00997e-40 1.3864e-40 -2.651e-42
-1.34876e-40 7.2626e-41 -1.28578e-40 4.4089e-41 -1.754e-40 6.701e-42 -2.3704e-41 4.613e-41
7.5408e-41 1.1147e-41 -2.9349e-41 4.6412e-41 -3.6539e-41 1.42938e-40 2.3688e-41 -2.5843e-41
7.94e-41 -2.5825e-41 4.8161e-41 8.485e-41 -1.1901e-41 -9.2553e-41 3.5678e-41 7.542e-41
-4.4975e-41 2.41e-41 7.5531e-41 -6.1879e-41 -1.04094e-40 1.6582e-40 2.7287e-41 -7.7088e-41
-1.3754e-41 -1.47742e-40 3.397e-42 1.51e-41 -4.5147e-41 8.3566e-41 -5.999e-41 -4.5488e-41
-6.9104e-41 -8.4455e-41 5.2421e-41 -7.2142e-41 1.4641e-40 -3.4248e-41 -7.091e-41 5.091e-42
3.4944e-41 -1.00664e-40 1.32362e-40 -3.6687e-41 3.4842e-41 1.57135e-40 -4.0635e-41 1.0224e-41
00000000: 9911 0000 95d6 0000 1817 0000 9aab 0000
00000010: 4bab 0000 3367 0080 b56b 0000 59d6 0000
00000020: a301 0180 2bbb 0000 97da 0080 1f54 0000
00000030: 86a0 0080 20bf 0000 231d 0000 1379 0000
00000040: ae3e 0000 3b54 0080 25c9 0000 bc19 0080
00000050: 4258 0180 d607 0100 dcd4 0080 5779 0080
00000060: b9bc 0000 d560 0000 9db9 0080 f1f2 0080
00000070: cdcd 0080 da32 0000 6818 0080 f9b8 0080
00000080: ca2c 0080 f841 0080 9bf1 0080 1654 0000
00000090: afad 0080 c4ab 0000 6d30 0000 8527 0000
000000a0: 049a 0080 7f81 0080 f206 0080 7f3f 0080
000000b0: 4810 0180 41e4 0180 f93b 0100 b06d 0000
000000c0: cc14 0080 303b 0000 e951 0100 feb9 0080
000000d0: 6702 0100 c901 0200 d159 0080 2985 0000
000000e0: e104 0000 25bd 0000 ea12 0000 f672 0080
000000f0: 4a57 0080 1345 0100 2952 0000 dfbd 0180
00000100: 5702 0080 be49 0000 886b 0000 3b2b 0000
00000110: 207e 0000 c556 0100 210d 0000 eed4 0000
00000120: fcde 0080 77bf 0000 f912 0180 ce53 0080
00000130: 0411 0000 da72 0100 8a10 0000 9e65 0100
00000140: f5cf 0100 a06f 0080 a46b 0080 40bd 0080
00000150: 648b 0080 a66e 0000 d968 0000 5d83 0080
00000160: 262e 0000 2c89 0080 f33f 0080 b919 0080
00000170: 3308 0180 2d60 0080 7ac6 0000 e4d5 0080
00000180: 0e12 0000 d392 0080 2568 0000 a238 0100
00000190: e761 0080 daa7 0000 06bd 0080 79d3 0000
000001a0: edc8 0080 7f2c 0180 da30 0000 bf18 0080
000001b0: 0345 0000 8dc4 0000 8d13 0180 b00b 0080
000001c0: d547 0100 7b83 0080 2b31 0100 119c 0000
000001d0: aac4 0000 7d3d 0100 e9f9 0000 c213 0080
000001e0: e0d4 0000 1e88 0000 e173 0080 e225 0080
000001f0: 4a2d 0000 2c33 0080 e725 0000 2bc1 0000
00000200: ab98 0080 3288 0080 cca4 0080 7324 0080
00000210: f00a 0080 4874 0000 f496 0080 4f8a 0080
00000220: a200 0000 02d5 0080 1fe7 0080 cf19 0180
00000230: 2e9d 0000 0259 0180 f90f 0000 df9c 0080
00000240: cf99 0000 b336 0000 f19d 0000 8a48 0080
00000250: 6e3c 0000 cf87 0080 1ba5 0080 381f 0000
00000260: 775f 0000 3c75 0000 5fb6 0080 1702 0080
00000270: 87d7 0000 e9c2 0080 530f 0000 c6be 0000
00000280: c4fa 0080 6198 0080 27d9 0000 cf68 0000
00000290: e529 0080 d011 0100 7782 0080 d874 0100
000002a0: fa19 0080 817b 0000 3f79 0180 d814 0000
000002b0: 6e07 0100 ec5e 0080 fe33 0100 bed7 0000
000002c0: 8c9d 0080 8365 0080 922d 0000 f774 0000
000002d0: 39e4 0000 bd5a 0000 8a50 0000 7df7 0000
000002e0: 1508 0180 27b0 0080 5903 0080 f378 0080
000002f0: 1cae 0000 6bc9 0080 4c53 0080 02e4 0080
00000300: 0df7 0000 c5ed 0000 e8cf 0000 bc16 0000
00000310: bbcb 0000 8a19 0100 7982 0100 6407 0080
00000320: fb77 0180 74ca 0000 6c66 0180 e77a 0000
00000330: f2e8 0180 ae12 0000 1442 0080 9780 0000
00000340: 35d2 0000 131f 0000 d051 0080 6181 0000
00000350: db65 0080 748e 0100 0842 0000 0a48 0080
00000360: 56dd 0000 fd47 0080 4186 0000 87ec 0000
00000370: 2d21 0080 0002 0180 7563 0000 3ed2 0000
00000380: 5f7d 0080 2e43 0000 8dd2 0000 7eac 0080
00000390: 2c22 0180 3dce 0100 114c 0000 e4d6 0080
000003a0: 5726 0080 d89b 0180 7809 0000 182a 0000
000003b0: da7d 0080 f3e8 0000 3aa7 0080 cd7e 0080
000003c0: a2c0 0080 6deb 0080 2192 0000 1ac9 0080
000003d0: 2298 0100 785f 0080 abc5 0080 310e 0000
000003e0: 6961 0000 9c18 0180 f970 0100 4566 0080
000003f0: 2061 0000 07b6 0100 4671 0080 801c 0000

e_conv3.depth_conv.bias f4 [32]
5.1103e-41 -7.8923e-41 -3.1215e-41 -3.5785e-41 -8.615e-42 -7.587e-41 5.3391e-41 2.5882e-41
-6.8996e-41 -3.6431e-41 -8.3139e-41 -2.381e-41 4.7109e-41 5.1551e-41 3.1711e-41 8.1785e-41
9.9515e-41 -2.499e-42 7.2816e-41 6.1e-42 2.202e-41 -6.3507e-41 -2.9091e-41 1.2532e-41
-5.8941e-41 4.6796e-41 -7.7311e-41 -1.8525e-41 -8.7102e-41 2.6775e-41 5.3755e-41 7.363e-41
00000000: 748e 0000 01dc 0080 0457 0080 c163 0080
00000010: 0418 0080 7fd3 0080 d594 0000 2648 0000
00000020: 55c0 0080 8e65 0080 c2e7 0080 5f42 0080
00000030: 5283 0000 b48f 0000 6658 0000 fce3 0000
00000040: 6815 0100 f706 0080 fbca 0000 0111 0000
00000050: 623d 0000 08b1 0080 1851 0080 ef22 0000
00000060: 4ea4 0080 7382 0000 83d7 0080 a433 0080
00000070: cef2 0080 a34a 0000 d995 0000 40cd 0000

e_conv3.point_conv.weight f4 [32, 32, 1, 1]
-1.6217e-41 -7.9301e-41 6.0072e-41 -8.6955e-41 -1.042e-41 6.152e-42 -9.2015e-41 -8.2543e-41
-9.9997e-41 8.2538e-41 -5.751e-42 -4.516e-42 5.9566e-41 -2.5534e-41 -1.29423e-40 -1.7666e-41
-1.18567e-40 -2.4783e-41 5.8719e-41 -9.4256e-41 8.0954e-41 1.6998e-41 -7.7692e-41 -7.7375e-41
-5.685e-42 -1.26621e-40 3.8803e-41 -1.94038e-40 4.8502e-41 1.00452e-40 3.5e-43 -9.7627e-41
-2.6304e-41 9.4519e-41 6.2477e-41 -1.5678e-41 1.18135e-40 7.172e-42 8.6204e-41 -5.4771e-41
1.2703e-41 2.5414e-41 9.4498e-41 -1.3602e-41 -9.4717e-41 -1.1575e-41 3.8726e-41 8.9291e-41
7.027e-41 -6.1063e-41 -2.9378e-41 -4.2609e-41 1.53444e-40 8.1285e-41 -8.5607e-41 5.3293e-41
9.0853e-41 1.593e-42 -9.4386e-41 1.08807e-40 7.4195e-41 8.9752e-41 7.7398e-41 -1.097e-42
7.8047e-41 -1.9393e-41 -8.4217e-41 1.03775e-40 6.449e-41 3.104e-42 -1.2406e-40 -1.33e-40
-8.429e-41 -9.9821e-41 -8.6417e-41 -1.43196e-40 3.2046e-41 -9.7446e-41 -8.6058e-41 4.496e-41
1.40972e-40 -4.0598e-41 -2.5096e-41 1.14108e-40 2.96e-43 -9.0782e-41 2.5533e-41 7.859e-41
-5.591e-41 1.68267e-40 -8.7632e-41 -1.6197e-40 -8.2574e-41 -6.8071e-41 1.87816e-40 -1.73122e-40
9.8517e-41 9.7072e-41 1.4984e-41 1.28677e-40 -3.474e-41 -1.2686e-41 -9.2016e-41 3.3754e-41
-7.8516e-41 -8.8315e-41 6.244e-41 -4.5999e-41 -9.6806e-41 -1.065e-42 8.7089e-41 2.142e-41
-1.076e-40 5.1662e-41 6.2396e-41 4.5256e-41 6.345e-41 1.19315e-40 3.3055e-41 -8.5342e-41
-2.7587e-41 1.06849e-40 -1.20159e-40 -1.24916e-40 9.5025e-41 5.5639e-41 9.0696e-41 -4.61e-43
3.0537e-41 1.234e-41 -1.2082e-41 -8.1942e-41 1.56426e-40 -2.0176e-41 3.4131e-41 -4.5506e-41
-1.22958e-40 -7.9288e-41 5.9523e-41 1.462e-42 9.7278e-41 6.4626e-41 6.1806e-41 -4.6688e-41
-8.5081e-41 1.08365e-40 -3.0646e-41 -8.78e-41 3.1372e-41 6.2906e-41 -1.4341e-40 -8.0814e-41
8.0437e-41 -9.8258e-41 -1.4377e-41 -1.08812e-40 -8.4351e-41 -1.30642e-40 -4.807e-41 -2.9172e-41
1.10914e-40 -8.6771e-41 -1.1542e-41 -2.9003e-41 -7.6525e-41 1.6842e-41 6.4576e-41 -1.0548e-41
3.9405e-41 -5.2629e-41 7.6462e-41 4.8954e-41 1.3751e-41 4.905e-42 7.6229e-41 -3.0132e-41
1.1279e-40 7.5643e-41 -8.1701e-41 7.1898e-41 8.4009e-41 -5.2203e-41 1.0801e-41 -1.837e-41
7.5684e-41 1.42745e-40 -3.067e-42 6.2354e-41 -9.4096e-41 -7.8216e-41 8.3562e-41 7.7217e-41
1.23468e-40 -1.15754e-40 -9.1635e-41 -1.5552e-41 -7.524e-42 1.2315e-41 9.9038e-41 8.1051e-41
-7.5772e-41 -1.4798e-41 6.883e-41 -7.913e-41 -8.4184e-41 7.2371e-41 -8.9107e-41 6.3875e-41
1.42347e-40 2.004e-41 -6.6633e-41 -6.2527e-41 -1.59684e-40 -7.1124e-41 4.0852e-41 -1.23482e-40
5.0825e-41 2.9542e-41 -2.0043e-41 1.5119e-41 -1.133e-41 -1.7557e-41 5.9608e-41 2.641e-42
1.76627e-40 1.00922e-40 -1.49579e-40 1.58187e-40 -9.8838e-41 -1.1924e-41 -1.6344e-40 -1.1572e-41
-8.3072e-41 -1.00794e-40 8.342e-41 -6.6438e-41 -7.9291e-41 -7.7482e-41 5.8591e-41 7.4136e-41
2.299e-41 -3.6152e-41 1.14238e-40 2.7991e-41 -6.5232e-41 6.2927e-41 -1.49765e-40 1.3283e-41
-5.8733e-41 -5.9e-44 7.6323e-41 4.3985e-41 3.9145e-41 -8.8251e-41 -4.3856e-41 -1.05183e-40
00000000: 352d 0080 0fdd 0080 75a7 0000 65f2 0080
00000010: 0c1d 0080 2611 0000 8000 0180 19e6 0080
00000020: c016 0180 15e6 0000 0810 0080 970c 0080
00000030: 0ca6 0000 2e47 0080 c768 0180 3f31 0080
00000040: 844a 0180 1645 0080 afa3 0000 bf06 0180
00000050: abe1 0000 622f 0000 93d8 0080 b1d7 0080
00000060: d90f 0080 f860 0180 2b6c 0000 e61c 0280
00000070: 3487 0000 0518 0100 fa00 0000 2510 0180
00000080: 5349 0080 7b07 0100 29ae 0000 b42b 0080
00000090: 5049 0100 fe13 0000 4df0 0000 ae98 0080
000000a0: 6923 0000 d846 0000 6c07 0100 eb25 0080
000000b0: 0808 0180 4420 0080 f46b 0000 e8f8 0000
000000c0: e2c3 0000 38aa 0080 e551 0080 c776 0080
000000d0: bdab 0100 97e2 0000 a3ee 0080 8f94 0000
000000e0: 43fd 0000 7104 0000 1c07 0180 4f2f 0100
000000f0: d3ce 0000 31fa 0000 c1d7 0000 0f03 0080
00000100: 90d9 0000 0f36 0080 c3ea 0080 4821 0100
00000110: c6b3 0000 a708 0000 d459 0180 c072 0180
00000120: f7ea 0080 4316 0180 e5f0 0080 2c8f 0180
00000130: 5559 0000 a40f 0180 e5ef 0080 557d 0000
00000140: f988 0100 2c71 0080 f545 0080 163e 0100
00000150: d300 0000 10fd 0080 2d47 0000 14db 0000
00000160: db9b 0080 0fd5 0100 48f4 0080 82c3 0180
00000170: 2fe6 0080 c1bd 0080 8e0b 0200 98e2 0180
00000180: a012 0100 990e 0100 c529 0000 b366 0100
00000190: d760 0080 5d23 0080 8100 0180 185e 0000
000001a0: dfda 0080 30f6 0080 0fae 0000 3a80 0080
000001b0: db0d 0180 f802 0080 c5f2 0000 b63b 0000
000001c0: f22b 0180 0390 0000 efad 0000 287e 0000
000001d0: dfb0 0000 9a4c 0100 255c 0000 e6ed 0080
000001e0: e74c 0080 da29 0100 f44e 0180 375c 0180
000001f0: e408 0100 199b 0000 d3fc 0000 4901 0080
00000200: 2055 0000 6622 0000 ae21 0080 6ce4 0080
00000210: 0db4 0100 3e38 0080 255f 0000 da7e 0080
00000220: c256 0180 06dd 0080 eda5 0000 1304 0000
00000230: 2c0f 0100 27b4 0000 4aac 0000 2682 0080
00000240: 2ced 0080 142e 0100 6e55 0080 c0f4 0080
00000250: 7457 0000 5baf 0000 c58f 0180 47e1 0080
00000260: 3ae0 0000 e711 0180 1428 0080 532f 0180
00000270: 23eb 0080 2d6c 0180 0086 0080 5251 0080
00000280: 2f35 0100 e2f1 0080 2d20 0080 d950 0080
00000290: 52d5 0080 f32e 0000 03b4 0000 671d 0080
000002a0: d86d 0000 b592 0080 25d5 0000 7788 0000
000002b0: 5526 0000 ac0d 0000 7fd4 0000 ff53 0080
000002c0: 6a3a 0100 ddd2 0000 c0e3 0080 6cc8 0000
000002d0: 2fea 0000 8591 0080 1c1e 0000 3533 0080
000002e0: fad2 0000 ea8d 0100 8d08 0080 d1ad 0000
000002f0: 4d06 0180 09da 0080 f0e8 0000 40d7 0000
00000300: 2e58 0100 ad42 0180 71ff 0080 5a2b 0080
00000310: f914 0080 5422 0000 1414 0100 f0e1 0000
00000320: 39d3 0080 4029 0080 dfbf 0000 95dc 0080
00000330: acea 0080 bec9 0000 65f8 0080 0fb2 0000
00000340: ce8c 0100 dd37 0000 bfb9 0080 4dae 0080
00000350: 22bd 0180 44c6 0080 e171 0000 3858 0180
00000360: ae8d 0000 5a52 0000 df37 0080 252a 0000
00000370: 951f 0080 f130 0080 2aa6 0000 5d07 0000
00000380: 5dec 0100 5419 0100 f7a0 0180 f6b8 0100
00000390: 8513 0180 3d21 0080 9bc7 0180 4220 0080
000003a0: 92e7 0080 f918 0180 8be8 0000 34b9 0080
000003b0: 08dd 0080 fdd7 0080 54a3 0000 a9ce 0000
000003c0: 1640 0000 c764 0080 733e 0100 074e 0000
000003d0: d7b5 0080 6aaf 0000 7ca1 0180 0725 0000
000003e0: b9a3 0080 2a00 0080 c2d4 0000 9d7a 0000
000003f0: 1f6d 0000 02f6 0080 417a 0080 3525 0180

e_conv3.point_conv.bias f4 [32]
-1.17032e-40 -4.5464e-41 1.09551e-40 -2.92e-42 3.1665e-41 4.699232e-39 1.05456e-40 6.4165e-41
-3.7747e-41 2.905e-42 -2.8168e-41 8.938e-41 -5.2072e-41 4.507e-42 -5.5871e-41 -1.01887e-40
-3.566e-42 8.8301e-41 1.71688e-40 7.672e-41 1.0988555e-38 -1.7309e-41 -7.1088e-41 1.5577e-41
-1.1827e-41 9.7242e-41 -1.9592e-41 -3.3089e-41 7.4153e-41 1.6558e-41 -4.2602e-41 -1.6374e-40
00000000: 3d46 0180 bc7e 0080 6231 0100 2408 0080
00000010: 4558 0000 8c2b 3300 f825 0100 deb2 0000
00000020: 3969 0080 1908 0000 854e 0080 28f9 0000
00000030: 2891 0080 900c 0000 bf9b 0080 051c 0180
00000040: f109 0080 26f6 0000 99de 0100 ddd5 0000
00000050: 9fa7 7700 4030 0080 2ac6 0080 6c2b 0000
00000060: f820 0080 120f 0100 9d36 0080 3d5c 0080
00000070: b5ce 0000 282e 0000 c276 0080 71c8 0180

e_conv4.depth_conv.weight f4 [32, 1, 3, 3]
-4.435e-42 -7.1424e-41 -6.4178e-41 -4.3655e-41 -5.2622e-41 7.8386e-41 2.8466e-41 2.7229e-41
-4.35e-42 1.2636e-41 5.5871e-41 7.8e-43 3.545e-42 -7.655e-41 -4.306e-42 6.1893e-41
-7.2612e-41 -4.8775e-41 6.7835e-41 1.1652e-41 -5.2504e-41 1.8988e-41 4.302e-42 1.4059e-41
-3.402e-42 1.47027e-40 6.7896e-41 2.7875e-41 -7.7824e-41 -1.3262e-41 -1.2661e-40 -3.3911e-41
6.2892e-41 -5.929e-41 1.08165e-40 1.7204e-41 6.1835e-41 -1.309e-40 -3.5995e-41 1.14042e-40
2.8983e-41 6.8794e-41 3.918e-42 2.1502e-41 -1.2547e-40 -7.3808e-41 7.9713e-41 6.0766e-41
1.223e-42 -6.376e-42 -7.8665e-41 9.1007e-41 -6.1846e-41 -8.5269e-41 6.8779e-41 -1.4125e-41
-7.182e-41 -1.9063e-41 -9.8628e-41 3.4821e-41 1.22312e-40 -1.6042e-41 4.3226e-41 -4.6229e-41
5.953e-41 -1.16064e-40 -2.7531e-41 -1.2794e-41 9.8237e-41 2.6573e-41 -8.1351e-41 3.4581e-41
1.43869e-40 -5.413e-42 6.4252e-41 6.9387e-41 -1.1362e-41 2.9263e-41 8.4144e-41 9.617e-41
6.3165e-41 -7.7141e-41 -7.7493e-41 1.769e-41 1.7916e-41 -1.149e-41 -4.5431e-41 -7.6715e-41
-8.2618e-41 1.232e-42 3.0893e-41 3.5e-44 3.946e-42 -1.2747e-40 -1.19077e-40 4.4138e-41
3.7464e-41 3.9696e-41 -4.1808e-41 -1.5858e-41 3.1329e-41 -3.5083e-41 -1.14228e-40 4.95e-43
-4.832e-42 9.307e-41 5.6754e-41 7.9231e-41 -4.4976e-41 6.899e-42 7.0197e-41 -7.0058e-41
-6.1371e-41 -7.9166e-41 6.9387e-41 4.8094e-41 -5.6936e-41 -5.6345e-41 -5.674e-42 -3.1433e-41
8.75e-42 6.6145e-41 -8.6829e-41 -3.337e-41 -6.1659e-41 -1.05352e-40 -1.12789e-40 -5.793e-42
4.08e-43 -6.1366e-41 1.12639e-40 1.02995e-40 5.665e-42 8.2094e-41 7.55e-43 6.7809e-41
-7.5488e-41 3.198e-42 9.893e-42 -8.87e-43 -1.958e-42 -5.594e-42 5.2222e-41 6.4883e-41
1.3565e-41 8.2423e-41 2.9055e-41 6.8218e-41 -7.4871e-41 5.5746e-41 -1.08009e-40 1.1736e-41
1.2519e-41 -1.207e-42 9.1816e-41 -8.478e-42 -1.2287e-41 -4.3159e-41 3.4555e-41 -1.0853e-41
5.2941e-41 -5.1358e-41 -7.5948e-41 6.5282e-41 6.5296e-41 -1.17024e-40 1.5222e-41 -1.1771e-41
2.9723e-41 -7.4e-43 1.45998e-40 5.296e-42 -3.482e-41 1.9219e-41 8.0649e-41 2.4294e-41
8.6213e-41 -6.125e-41 1.0427e-41 5.0045e-41 3.2132e-41 -1.46431e-40 -6.2585e-41 8.8407e-41
7.0476e-41 -1.29906e-40 -3.8327e-41 -6.6263e-41 -6.1815e-41 -1.08353e-40 -3.1308e-41 1.6147e-41
-1.815e-41 -2.0525e-41 7.3491e-41 6.7125e-41 4.9443e-41 8.3618e-41 5.0496e-41 -7.5785e-41
-6.2976e-41 9.3235e-41 6.1151e-41 7.8658e-41 5.1607e-41 -6.799e-41 -1.02181e-40 1.8553e-41
-5.651e-42 2.9387e-41 -6.5535e-41 -6.8013e-41 -1.5992e-41 -9.6379e-41 5.9171e-41 1.5372e-41
-1.02085e-40 -6.857e-41 -3.2741e-41 7.3823e-41 1.05e-41 2.4158e-41 1.1691e-41 -6.1745e-41
-1.5645e-41 -5.673e-41 -4.2993e-41 9.3046e-41 6.5997e-41 -1.2058e-41 6.0147e-41 1.5011e-41
5.812e-41 -9.4376e-41 3.645e-41 7.2607e-41 6.2436e-41 6.4663e-41 -3.477e-42 -3.0414e-41
1.62043e-40 -8.7968e-41 6.0615e-41 -7.9511e-41 4.3802e-41 5.667e-42 5.776e-41 -7.4724e-41
-1.26354e-40 9.7972e-41 1.91814e-40 4.5895e-41 7.9496e-41 -5.7822e-41 -1.1918e-41 5.0441e-41
00000000: 5d0c 0080 1ac7 0080 e7b2 0080 b179 0080
00000010: b092 0080 82da 0000 5a4f 0000 e74b 0000
00000020: 200c 0080 3923 0000 bf9b 0000 2d02 0000
00000030: e209 0000 64d5 0080 010c 0080 88ac 0000
00000040: 6aca 0080 f787 0080 19bd 0000 7b20 0000
00000050: 5c92 0080 ee34 0000 fe0b 0000 3127 0000
00000060: 7c09 0080 da99 0100 44bd 0000 b44d 0000
00000070: f1d8 0080 f824 0080 f060 0180 885e 0080
00000080: 51af 0000 47a5 0080 852d 0100 f52f 0000
00000090: 5fac 0000 e56c 0180 5764 0080 e73d 0100
000000a0: cb50 0000 c5bf 0000 ec0a 0000 f03b 0000
000000b0: c25d 0180 bfcd 0080 35de 0000 64a9 0000
000000c0: 6903 0000 c611 0080 49db 0080 b1fd 0000
000000d0: 67ac 0080 b2ed 0080 babf 0000 6027 0080
000000e0: 34c8 0080 2435 0080 ef12 0180 1161 0000
000000f0: f554 0100 b82c 0080 7f78 0000 de80 0080
00000100: f2a5 0000 8a43 0180 bf4c 0080 aa23 0080
00000110: d811 0100 134a 0000 c6e2 0080 6660 0000
00000120: 0c91 0100 170f 0080 1cb3 0000 6cc1 0000
00000130: ac1f 0080 9351 0000 8fea 0000 150c 0100
00000140: 14b0 0000 0ad7 0080 05d8 0080 5031 0000
00000150: f131 0000 0820 0080 a57e 0080 dad5 0080
00000160: 4ee6 0080 6f03 0000 1e56 0000 1900 0000
00000170: 000b 0000 5663 0180 f04b 0180 0a7b 0000
00000180: 6f68 0000 a86e 0000 8b74 0080 352c 0080
00000190: 5557 0000 cc61 0080 6c3e 0180 6101 0000
000001a0: 780d 0080 7103 0100 359e 0000 dddc 0000
000001b0: 607d 0080 3b13 0000 aec3 0000 4bc3 0080
000001c0: 14ab 0080 afdc 0080 6cc1 0000 1186 0000
000001d0: b79e 0080 119d 0080 d10f 0080 9f57 0080
000001e0: 6418 0000 63b8 0000 0bf2 0080 065d 0080
000001f0: e1ab 0080 ae25 0180 693a 0180 2610 0080
00000200: 2301 0000 10ab 0080 fe39 0100 1c1f 0100
00000210: cb0f 0000 d8e4 0000 1b02 0000 06bd 0000
00000220: 6ed2 0080 ea08 0000 941b 0000 7902 0080
00000230: 7505 0080 980f 0080 9391 0000 deb4 0000
00000240: d025 0000 c3e5 0000 fe50 0000 2abe 0000
00000250: b6d0 0080 669b 0000 162d 0180 b720 0000
00000260: e622 0000 5d03 0080 f2ff 0000 a217 0080
00000270: 4022 0080 4f78 0080 5360 0000 411e 0080
00000280: 9493 0000 2a8f 0080 b6d3 0080 fbb5 0000
00000290: 05b6 0000 3746 0180 6f2a 0000 d020 0080
000002a0: db52 0000 1002 0080 fc96 0100 c30e 0000
000002b0: 1061 0080 9335 0000 d1e0 0000 b943 0000
000002c0: 54f0 0000 bdaa 0080 111d 0000 818b 0000
000002d0: 9259 0000 3198 0180 76ae 0080 71f6 0000
000002e0: 75c4 0000 206a 0180 d76a 0080 b7b8 0080
000002f0: 51ac 0080 0b2e 0180 4657 0080 032d 0000
00000300: 9832 0080 3739 0080 ddcc 0000 1ebb 0000
00000310: d489 0000 18e9 0000 c38c 0000 42d3 0080
00000320: 8daf 0080 e703 0100 77aa 0000 44db 0000
00000330: dc8f 0000 87bd 0080 d71c 0180 b833 0000
00000340: c10f 0080 eb51 0000 afb6 0080 98bd 0080
00000350: 942c 0080 aa0c 0180 f2a4 0000 da2a 0000
00000360: 921c 0180 25bf 0080 455b 0080 cacd 0000
00000370: 451d 0000 5843 0000 9720 0000 1fac 0080
00000380: 9d2b 0080 249e 0080 d977 0080 6003 0100
00000390: f9b7 0000 9d21 0080 aaa7 0000 d829 0000
000003a0: 04a2 0000 1507 0180 9c65 0000 66ca 0000
000003b0: 0cae 0000 41b4 0000 b109 0080 c854 0080
000003c0: b6c3 0100 38f5 0080 f8a8 0000 a5dd 0080
000003d0: 1a7a 0000 cc0f 0000 03a1 0000 4dd0 0080
000003e0: 3960 0180 1b11 0100 b316 0200 f07f 0000
000003f0: 9add 0000 2fa1 0080 3921 0080 9c8c 0000

e_conv4.depth_conv.bias f4 [32]
4.7494e-41 -2.895e-41 1.641e-41 -6.0535e-41 -1.5103e-41 -6.437e-41 6.7817e-41 -7.323e-41
-1.753e-42 7.5114e-41 -7.3655e-41 -1.0286e-41 -9.17e-41 -4.1051e-41 -9.18e-42 1.00762e-40
2.9098e-41 -5.246e-42 4.8045e-41 2.6515e-41 -2.1559e-41 4.8562e-41 2.2453e-41 5.9887e-41
-4.7416e-41 2.3148e-41 8.0795e-41 -8.3936e-41 2.5902e-41 1.5067e-41 -5.9913e-41 7.6027e-41
00000000: 6584 0000 b350 0080 bf2d 0000 bfa8 0080
00000010: 1a2a 0080 70b3 0080 0cbd 0000 23cc 0080
00000020: e304 0080 63d1 0000 52cd 0080 ac1c 0080
00000030: 9fff 0080 6f72 0080 9719 0080 e218 0100
00000040: 1d51 0000 a00e 0080 ee85 0000 ea49 0000
00000050: 193c 0080 5f87 0000 973e 0000 f1a6 0000
00000060: 2d84 0080 8740 0000 39e1 0000 fbe9 0080
00000070: 3448 0000 002a 0000 03a7 0080 efd3 0000

e_conv4.point_conv.weight f4 [32, 32, 1, 1]
5.1957e-41 -9.7064e-41 1.53951e-40 8.7388e-41 4.6974e-41 -9.9332e-41 4.3041e-41 -3.2346e-41
-1.6999e-41 1.21743e-40 3.612e-41 -5.2742e-41 -8.444e-41 2.2e-42 -7.8819e-41 1.29416e-40
1.0365e-40 2.7645e-41 -1.52188e-40 -3.8209e-41 -1.11679e-40 6.1422e-41 -1.05421e-40 -5.6652e-41
-1.14818e-40 -9.0497e-41 1.0019e-40 -9.6655e-41 -7.0035e-41 3.9493e-41 8.1037e-41 -4.702e-41
7.9863e-41 -1.02452e-40 -1.0711e-40 -4.6131e-41 8.8234e-41 6.7513e-41 4.4025e-41 3.1966e-41
8.9427e-41 -8.0101e-41 1.8659e-40 -1.35301e-40 9.32e-41 9.818e-41 -7.649e-41 -6.5563e-41
-1.55384e-40 -8.011e-41 -6.755e-41 5.2099e-41 4.19e-43 1.36048e-40 3.7438e-41 9.9924e-41
-1.58855e-40 -1.11768e-40 7.989e-42 -5.172e-41 8.3583e-41 -9.2431e-41 -5.2857e-41 9.1491e-41
-7.6196e-41 1.2913e-41 -1.754e-42 5.504e-42 6.962e-41 -3.2087e-41 -8.5977e-41 -1.1978e-41
-6.6162e-41 8.09e-42 6.7858e-41 -1.1128e-40 1.12442e-40 1.40316e-40 8.8226e-41 1.0632e-40
-9.6824e-41 4.4327e-41 -1.05208e-40 -1.48398e-40 -1.4153e-41 1.0261e-40 -8.0875e-41 -1.83588e-40
-3.0076e-41 8.0737e-41 1.756e-42 -1.3549e-41 1.1143e-41 6.2628e-41 9.7805e-41 -9.7124e-41
1.3658e-41 5.355e-41 3.814e-42 -3.4049e-41 -1.28125e-40 -4.9839e-41 7.267e-41 9.7023e-41
9.8943e-41 6.492e-42 9.5752e-41 7.7566e-41 8.011e-42 5.9789e-41 3.2297e-41 5.3524e-41
-5.3593e-41 2.2843e-41 -8.9197e-41 -7.965e-41 1.5452e-41 7.5367e-41 1.02844e-40 -2.836e-41
8.2155e-41 6.2054e-41 8.5514e-41 -2.1541e-41 4.7085e-41 2.9992e-41 -1.558e-41 1.36702e-40
6.0254e-41 6.0423e-41 -1.00581e-40 -4.353e-41 -3.2643e-41 -6.7753e-41 8.7662e-41 -3.181e-42
1.02878e-40 -7.2251e-41 -1.15698e-40 -1.7562e-41 -4.1191e-41 -5.2309e-41 1.4714e-41 -3.4583e-41
9.0692e-41 -7.4221e-41 1.19349e-40 1.2528e-40 -7.6615e-41 -5.8881e-41 -9.3467e-41 4.001e-41
-9.3688e-41 1.20606e-40 -9.9138e-41 1.20751e-40 4.6271e-41 -8.7479e-41 -5.7955e-41 -3.07e-42
4.3634e-41 2.9186e-41 -4.3991e-41 -1.0945e-40 -1.04704e-40 -5.6122e-41 4.501e-41 3.2761e-41
-8.885e-41 4.0618e-41 7.9768e-41 -9.7027e-41 -7.843e-41 9.7228e-41 3.9503e-41 -4.6603e-41
8.8209e-41 -9.2109e-41 -8.8663e-41 3.454e-42 1.08717e-40 -9.677e-42 6.185e-41 3.5942e-41
-1.14084e-40 7.7989e-41 5.2194e-41 -5.0399e-41 -5.7464e-41 7.5925e-41 -1.4767e-41 1.68594e-40
-7.1903e-41 -9.4376e-41 -1.3382e-41 -4.8296e-41 -5.6048e-41 6.4174e-41 8.467e-41 -1.31904e-40
-2.9637e-41 -1.27868e-40 3.687e-41 8.9163e-41 -4.9958e-41 -2.3235e-41 8.9588e-41 -1.21016e-40
-9.4565e-41 -7.4232e-41 1.28606e-40 3.075e-41 -5.755e-42 9.0999e-41 7.5024e-41 -4.9144e-41
5.6094e-41 -8.2179e-41 -5.2909e-41 -1.13858e-40 -3.0337e-41 3.5145e-41 1.1715e-41 1.34052e-40
-1.07826e-40 9.5825e-41 -3.0652e-41 -9.1541e-41 -1.19492e-40 -1.26555e-40 4.1219e-41 9.2327e-41
-2.7301e-41 -8.5947e-41 2.2834e-41 -8.7601e-41 -8.3837e-41 5.5636e-41 4.5985e-41 6.9538e-41
8.4278e-41 -5.5804e-41 -1.00446e-40 9.6933e-41 1.25108e-40 -4.0527e-41 9.1045e-41 1.71054e-40
1.2907e-41 -7.7371e-41 7.0333e-41 -9.3127e-41 8.7371e-41 -2.4451e-41 3.9826e-41 8.7096e-41
00000000: d690 0000 930e 0180 27ad 0100 9af3 0000
00000010: f282 0000 e614 0180 fb77 0000 2b5a 0080
00000020: 632f 0080 5f53 0100 b064 0000 0693 0080
00000030: 62eb 0080 2206 0000 b7db 0080 c268 0100
00000040: ef20 0100 104d 0000 3da8 0180 836a 0080
00000050: 5137 0180 38ab 0000 df25 0180 ec9d 0080
00000060: 1140 0180 45fc 0080 4a17 0100 6f0d 0180
00000070: 3bc3 0080 176e 0000 e6e1 0000 1383 0080
00000080: a0de 0000 981d 0180 942a 0180 9880 0080
00000090: f6f5 0000 33bc 0000 b97a 0000 1c59 0000
000000a0: 49f9 0000 4adf 0080 2308 0200 2a79 0180
000000b0: ce03 0100 b011 0100 39d5 0080 c3b6 0080
000000c0: 26b1 0180 50df 0080 4dbc 0080 3b91 0000
000000d0: 2b01 0000 3f7b 0100 5d68 0000 8c16 0100
000000e0: d3ba 0180 9037 0180 4516 0000 2d90 0080
000000f0: ffe8 0000 a901 0180 5893 0080 0aff 0000
00000100: 67d4 0080 ff23 0000 e404 0080 580f 0000
00000110: 12c2 0000 7259 0080 abef 0080 6421 0080
00000120: 6fb8 0080 8d16 0000 29bd 0000 3436 0180
00000130: 7139 0100 2587 0100 f0f5 0000 6028 0100
00000140: e80d 0180 917b 0000 4725 0180 ac9d 0180
00000150: 7427 0080 091e 0100 72e1 0080 c5ff 0180
00000160: d753 0080 10e1 0000 e504 0000 c525 0080
00000170: 101f 0000 95ae 0000 a410 0100 be0e 0180
00000180: 1326 0000 4795 0000 a20a 0000 ea5e 0080
00000190: 2965 0180 ee8a 0080 93ca 0000 760e 0100
000001a0: d013 0100 1912 0000 eb0a 0100 39d8 0000
000001b0: 5516 0000 aba6 0000 085a 0000 3495 0000
000001c0: 6595 0080 ad3f 0000 a5f8 0080 08de 0080
000001d0: 132b 0000 18d2 0000 b01e 0100 0e4f 0080
000001e0: 04e5 0000 fbac 0000 61ee 0000 0c3c 0080
000001f0: 4183 0000 9b53 0000 6e2b 0080 127d 0100
00000200: f7a7 0000 6fa8 0000 6118 0180 5879 0080
00000210: ff5a 0080 debc 0080 5ef4 0000 de08 0080
00000220: c81e 0100 68c9 0080 8542 0180 f530 0080
00000230: d372 0080 d191 0080 0429 0000 6760 0080
00000240: d0fc 0000 e6ce 0080 b24c 0100 3b5d 0100
00000250: 92d5 0080 23a4 0080 8c04 0180 886f 0000
00000260: 2a05 0180 3350 0100 5b14 0180 9b50 0100
00000270: fc80 0000 dbf3 0080 8ea1 0080 8f08 0080
00000280: a279 0000 5c51 0000 a17a 0080 1a31 0180
00000290: df23 0180 729c 0080 787d 0000 535b 0000
000002a0: adf7 0080 3a71 0000 5cde 0000 790e 0180
000002b0: a2da 0080 080f 0100 1e6e 0000 e981 0080
000002c0: e4f5 0000 c300 0180 28f7 0080 a109 0000
000002d0: 0f2f 0100 fa1a 0080 6aac 0000 3164 0000
000002e0: 053e 0180 67d9 0000 7f91 0000 7e8c 0080
000002f0: 30a0 0080 a6d3 0000 2a29 0080 f9d5 0100
00000300: 70c8 0080 1507 0180 4e25 0080 a186 0080
00000310: 3d9c 0080 e4b2 0000 07ec 0000 b26f 0180
00000320: 9e52 0080 7264 0180 c766 0000 8df8 0000
00000330: 438b 0080 c540 0080 bcf9 0000 5851 0180
00000340: 9c07 0180 eece 0080 8066 0100 b855 0000
00000350: 0b10 0080 abfd 0000 23d1 0000 fe88 0080
00000360: 5e9c 0000 15e5 0080 7d93 0080 643d 0180
00000370: 9154 0080 f861 0000 a820 0000 af75 0100
00000380: 932c 0180 1f0b 0100 7255 0080 2eff 0080
00000390: 184d 0180 c960 0180 e772 0000 5f01 0100
000003a0: 1b4c 0080 96ef 0080 a73f 0000 32f4 0080
000003b0: b4e9 0080 179b 0000 3080 0000 d8c1 0000
000003c0: efea 0000 8f9b 0080 0118 0180 360e 0100
000003d0: c05c 0100 f970 0080 ccfd 0000 d4dc 0100
000003e0: fb23 0000 aed7 0080 0fc4 0000 9a03 0180
000003f0: 8ef3 0000 2944 0080 056f 0000 caf2 0000

e_conv4.point_conv.bias f4 [32]
-9.0619e-41 -1.8943e-41 6.2192e-41 -5.8322e-41 7.8689e-41 4.399e-42 6.1681e-41 5.8018e-41
8.091e-42 1.01708e-40 1.44907e-40 3.428229e-17 8.268e-41 -9.0968e-41 3.1116e-41 4.4633e-41
1.25273e-40 6.0885e-41 -1.005e-42 5.5372e-41 -4.186e-42 4.2626e-41 7.081e-42 2.0522e-41
-6.5662e-41 -4.3537e-41 -7.728e-41 7.2278e-41 -1.03993e-40 8.7344e-41 5.8469e-41 9.8961e-41
00000000: 9cfc 0080 ce34 0080 5ead 0000 94a2 0080
00000010: 5adb 0000 430c 0000 f1ab 0000 bba1 0000
00000020: 8e16 0000 851b 0100 f193 0100 6219 1e24
00000030: 7ae6 0000 95fd 0080 bd56 0000 6b7c 0000
00000040: 365d 0100 b9a9 0000 cd02 0080 5b9a 0000
00000050: ab0b 0080 d376 0000 bd13 0000 3539 0000
00000060: 0ab7 0080 5d79 0080 6dd7 0080 7bc9 0000
00000070: e421 0180 7bf3 0000 fda2 0000 dd13 0100
