Zero-DCE++/snapshots_Zero_DCE++/Epoch48.pth (torch, 51217 bytes, 28 tensors)

e_conv1.depth_conv.weight f4 [3, 1, 3, 3]
-0.3426652 -0.15548475 0.026433665 -0.17124243 0.12024994 0.110664345 -0.4027487 -0.15459256
-0.050854314 0.19157599 0.14558473 0.311135 0.17811234 0.010744018 0.22604065 0.0925384
-0.00784563 0.19903007 0.0072090104 -0.048726954 -0.15558062 -0.0397242 -0.0890204 -0.12375211
-0.06820115 -0.18516557 -0.32695216
00000000: d071 afbe 6537 1fbe 6a8b d83c 2d5a 2fbe
00000010: 9a45 f63d fda3 e23d 1435 cebe 834d 1ebe
00000020: 9d4c 50bd 7f2c 443e 2a14 153e 164d 9f3e
00000030: 1563 363e ad07 303c 3377 673e c684 bd3d
00000040: f58a 00bc 8ace 4b3e 9039 ec3b ea95 47bd
00000050: 8750 1fbe d8b5 22bd 5450 b6bd bf71 fdbd
00000060: 0bad 8bbd 0b9c 3dbe 4666 a7be

e_conv1.depth_conv.bias f4 [3]
0.07375543 0.31138188 -0.042591557
00000000: 160d 973d 726d 9f3e 7c74 2ebd

e_conv1.point_conv.weight f4 [32, 3, 1, 1]
0.007896286 0.22751346 0.093345985 1.2622723e-32 -1.1155589e-32 1.467641e-32 1.2894159e-38 -4.714912e-13
-6.24967e-23 0.093699425 -0.5231286 0.12863478 1.065508e-12 -2.8379664e-14 1.7859939e-14 -0.036352083
0.10726023 0.42955005 0.09808779 0.2846423 -0.26286182 -8.5562e-41 -7.2349e-41 -3.7324e-41
0.037103415 -0.010860948 0.07315227 0.06291677 -0.032565974 -0.12279012 0.3777826 -0.5560511
0.37083608 0.0017929581 -0.057957582 0.057440888 0.17383376 -0.40880376 -0.15298954 -0.06690015
-0.1424475 0.12045501 1.5806049e-24 2.6549e-41 -7.3659e-41 0.03613934 0.34708887 0.3089096
-0.2414187 0.3525786 -0.3436311 7.1276e-41 -3.391e-41 1.0729914e-18 -0.007269514 0.0056230086
-0.05013952 7.320268e-18 -3.9203731e-19 3.7120496e-20 -0.58163774 -0.08006401 -0.36353874 -9.552444e-14
-3.5400452e-12 2.66196e-13 -0.011509161 0.0055220965 0.050132506 7.307e-41 2.2050647e-19 7.1592e-41
1.7790807e-34 9.33395e-34 3.1358608e-34 7.888e-42 -7.5439063e-19 5.4492733e-14 -7.7122e-41 -1.6698256e-12
7.7789e-41 0.31728253 -0.13863984 -0.3189878 0.0177073 -0.15719247 -0.032153185 1.62219e-40
6.1296e-41 5.4796e-41 0.27793145 0.017745351 -0.050786555 -0.25648203 0.41085863 -0.3586194
00000000: 6d5f 013c 4af9 683e 2e2c bf3d f414 830a
00000010: 49b1 678a 9768 980a ab67 8c00 85b6 04ab
00000020: 951b 979a 7ce5 bf3d c2eb 05bf d6b8 033e
00000030: f9f4 952b 0d9f ffa8 37de a028 ece5 14bd
00000040: 40ab db3d fced db3e 40e2 c83d a3bc 913e
00000050: d395 86be 83ee 0080 aec9 0080 0b68 0080
00000060: c0f9 173d 1ef2 31bc dbd0 953d 82da 803d
00000070: e663 05bd 6379 fbbd b96c c13e 5d59 0ebf
00000080: 3ade bd3e b101 eb3a ee64 6dbd 2347 6b3d
00000090: 7a01 323e ba4e d1be 4aa9 1cbe f202 89bd
000000a0: c2dd 11be 1eb1 f63d 3696 f417 024a 0000
000000b0: 55cd 0080 d806 143d a2b5 b13e 6629 9e3e
000000c0: 7736 77be 2f85 b43e 6af0 afbe b0c6 0000
000000d0: 875e 0080 7858 9e21 1a35 eebb 3741 b83b
000000e0: 195f 4dbd fd08 0723 016b e7a0 ed4b 2f1f
000000f0: 36e6 14bf 9af8 a3bd c021 babe 171a d7a9
00000100: c91b 79ac e3da 952a ec90 3cbc b4f2 b43b
00000110: be57 4d3d b0cb 0000 ff29 8220 92c7 0000
00000120: fb7a 6c07 3c16 9b08 e869 d007 fd15 0000
00000130: 25a8 5ea1 d869 7529 fcd6 0080 cf01 ebab
00000140: d8d8 0000 db72 a23e 9af7 0dbe 5e52 a3be
00000150: e60e 913c 10f7 20be 0fb3 03bd 33c4 0100
00000160: deaa 0000 c098 0000 084d 8e3e b35e 913c
00000170: 9005 50bd 9d51 83be 105c d23e f69c b7be

e_conv1.point_conv.bias f4 [32]
-0.15297121 -1.2575206e-32 -4.0987734e-18 0.57133234 1.9307605e-13 0.074950375 0.28220347 -5.295645e-30
0.05237847 -0.017415864 0.41231447 0.45668796 0.34522027 0.3014153 -1.5600166e-17 0.51353985
-0.067286864 5.5695e-41 -0.03035528 -6.4843324e-19 0.41106877 -6.349632e-13 0.3540396 -3.5548376e-13
-1.9092616e-33 5.2673e-41 -6.8778246e-13 0.3203102 0.08546494 -3.1327863e-14 0.5094462 -0.090622924
00000000: 7ca4 1cbe a296 828a d237 97a2 d642 123f
00000010: 6262 592a 957f 993d f97c 903e 1fd1 d68e
00000020: ce8a 563d b7ab 8ebc e21a d33e 01d3 e93e
00000030: b6c0 b03e 1b53 9a3e dae2 8fa3 5977 033f
00000040: b2cd 89bd 419b 0000 a3ab f8bc 3b62 3fa1
00000050: 9b77 d23e ecb9 32ab ae44 b53e 9c1e c8aa
00000060: 819d 1e89 d592 0000 f397 41ab b3ff a33e
00000070: 3e08 af3d 9116 0da9 116b 023f 8398 b9bd

e_conv2.depth_conv.weight f4 [32, 1, 3, 3]
-0.03237856 -0.038023915 -0.030477254 -0.020436723 -0.036746133 -0.023840556 -0.032461673 -0.04747532
-0.03328335 -1.6169821e-34 -2.3483055e-34 -2.9967174e-34 3.8105719e-35 -2.1773207e-34 -2.3072153e-34 -4.210222e-35
6.589686e-35 3.715054e-36 -5.8116e-41 8.7783e-41 4.4703e-41 1.9461e-41 5.012e-41 -6.5135e-41
7.962e-42 1.6303e-41 -8.8294e-41 -0.29299507 -0.26386937 -0.06827519 -0.10203434 0.12560555
0.26154926 0.27334756 -0.0016821999 0.4613582 4.5022742e-14 -8.4961165e-14 -7.958172e-15 4.0775533e-14
-3.4359593e-14 3.5822155e-14 3.4281863e-14 3.283061e-14 7.956526e-15 -0.0034748756 0.051310703 -0.028976474
0.07492676 0.16527222 -0.0015072537 -0.038835462 0.001967487 -0.18910451 0.09438749 -0.012128773
-0.23951052 0.056916054 0.1526485 -0.09676184 -0.037265345 -0.008751811 -0.31352273 -5.2863e-41
3.85e-43 -9.438e-42 -7.3015e-41 7.2299e-41 -4.7085e-41 1.607e-41 7.4419e-41 -2.604e-42
0.023224348 0.0013740915 -0.0055747936 0.010701201 -0.0009496838 0.00090705074 0.0057081818 0.009925674
0.025225308 0.009849558 0.0037899115 -0.009832332 0.015988266 0.0069330195 -0.006416097 0.009990582
0.00082604535 -0.006839582 0.30281064 0.27609405 0.23720212 0.27010313 -0.02411584 0.32452372
0.2826709 0.08795872 0.07327267 0.21700744 -0.19870478 0.14335154 0.07075196 -0.21559252
-0.13088429 0.26010036 0.064442754 0.16006829 0.36033782 0.12012791 0.20541194 0.2896146
0.20153017 0.106888704 0.27296692 0.15551503 -0.070981786 0.012639621 0.0384845 0.06593387
0.10339778 -0.12354252 0.19363213 -0.09320833 0.0463768 0.3740928 -1.3616e-41 3.2966e-41
5.5958e-41 -5.916e-41 -4.2122e-41 -4.8188e-41 -2.2026e-41 -8.6113e-41 7.6302e-41 -0.07054852
0.160938 -0.14436455 0.1223054 0.21554756 0.19611238 -0.16287452 -0.07236978 -0.085335
0.09922115 0.23861918 0.35467485 0.12952062 0.065135255 0.13656376 -0.16013852 -0.064192735
-0.19917622 6.914e-42 -1.11485e-40 -9.917e-41 -4.4587e-41 -7.8398e-41 7.2582e-41 2.36e-42
-6.9119e-41 -2.5862e-41 -7.918196e-05 -3.9554325e-05 1.306615e-05 -1.1935007e-05 -2.3960278e-05 -1.0001512e-05
-2.8736602e-05 -2.3909957e-05 -5.1464754e-06 7.760914e-20 -3.2274032e-20 1.0469059e-19 8.9718064e-20 4.000066e-20
-2.6770084e-22 4.287507e-20 -5.1826507e-20 2.9668597e-20 -0.052673344 0.2462873 -0.20926939 -0.31996372
-0.011296239 0.058005136 -0.3096216 -0.2524871 -0.2745557 -5.651967e-13 -6.0064405e-13 -4.326459e-14
-1.1805681e-13 -1.4078167e-13 -4.017125e-14 -4.5660063e-13 -9.532547e-14 -1.4185024e-13 -0.06086553 -0.117505796
0.07999711 -0.10174587 -0.11095121 0.00891422 -0.053322084 -0.11092096 -0.018544791 -1.34792e-40
-6.7676e-41 2.0669e-41 -1.01863e-40 -3.6856e-41 9.126e-41 -2.6288e-41 5.156e-41 -5.0046e-41
-1.7037771e-34 -1.1368115e-34 4.6392127e-35 5.0958403e-35 -8.5729354e-35 -1.473629e-34 2.1933297e-34 -1.1045145e-34
-1.5401458e-34 -4.8524e-41 -7.689e-42 -7.3212e-41 -2.9258e-41 -5.3535e-41 -2.1437e-41 4.4594e-41
9.9418e-41 -5.4886e-41 1.18677e-40 -6.798e-42 -2.2611e-41 2.0773e-41 -4.3477e-41 9.3312e-41
1.1138e-41 9.7686e-41 3.2736e-41 0.30407712 -0.013222765 0.046847526 0.008045123 0.0719291
0.075098366 0.027313001 -0.042078957 -0.015211779 -0.009837744 -0.0054018716 -0.009087328 0.0010895418
00000000: 629f 04bd f7be 1bbd 6fab f9bc ea6a a7bc
00000010: 1d83 16bd 454d c3bc 88f6 04bd 7b75 42bd
00000020: 1f54 08bd 0def 5687 5912 9c87 812a c787
00000030: d19a 4a06 31b5 9087 3c57 9987 93da 5f86
00000040: 142f af06 5b05 9e04 01a2 0080 b4f4 0000
00000050: 9d7c 0000 4036 0000 b78b 0000 92b5 0080
00000060: 3216 0000 722d 0000 21f6 0080 7303 96be
00000070: e319 87be ddd3 8bbd 61f7 d0bd be9e 003e
00000080: c9e9 853e 36f4 8b3e 437d dcba 2437 ec3e
00000090: b0c3 4a29 c750 bfa9 975c 0fa8 fda2 3729
000000a0: eabd 1aa9 2254 2129 4c64 1a29 1edb 1329
000000b0: 0055 0f28 bdba 63bb 2c2b 523d 1260 edbc
000000c0: 3373 993d 1f3d 293e 0b8f c5ba ef11 1fbd
000000d0: f4f0 003b 9da4 41be 3a4e c13d c3b7 46bc
000000e0: 3f42 75be cf20 693d e34f 1c3e 122b c6bd
000000f0: 8ca3 18bd c263 0fbc 0d86 a0be 5c93 0080
00000100: 1301 0000 4f1a 0080 89cb 0080 8ac9 0000
00000110: 4183 0080 cc2c 0000 73cf 0000 4207 0080
00000120: fd40 be3c dc1a b43a c2ac b6bb 1754 2f3c
00000130: 33f4 78ba 25c7 6d3a b30b bb3b 4b9f 223c
00000140: 4ea5 ce3c 0a60 213c 2a60 783b ca17 21bc
00000150: d3f9 823c 622e e33b 1f3e d2bb 8aaf 233c
00000160: f78a 583a 931e e0bb ff09 9b3e 335c 8d3e
00000170: 1de5 723e f54a 8a3e 958e c5bc f927 a63e
00000180: 3dba 903e b423 b43d fb0f 963d 3337 5e3e
00000190: 4479 4bbe bfca 123e 67e6 903d 49c4 5cbe
000001a0: 8806 06be e02b 853e 90fa 833d f1e8 233e
000001b0: 337e b83e 9f05 f63d 8257 523e 5d48 943e
000001c0: ed5d 4e3e 77e8 da3d 52c2 8b3e 553f 1f3e
000001d0: e65e 91bd 6a16 4f3c eca1 1d3d 5608 873d
000001e0: 37c2 d33d dc03 fdbd 8047 463e 02e4 bebd
000001f0: 99f5 3d3d 1789 bf3e f525 0080 e55b 0000
00000200: fd9b 0000 eaa4 0080 6b75 0080 5486 0080
00000210: 663d 0080 0cf0 0080 b3d4 0000 be7b 90bd
00000220: eecc 243e 4dd4 13be 417b fa3d 80b8 5c3e
00000230: afd1 483e 94c8 26be 9b36 94bd 1ec4 aebd
00000240: 7534 cb3d 9658 743e f197 b53e 0ea1 043e
00000250: a265 853d 5fd7 0b3e 5afb 23be 7b77 83bd
00000260: daf4 4bbe 4613 0000 c636 0180 7214 0180
00000270: 4a7c 0080 8bda 0080 54ca 0000 9406 0000
00000280: adc0 0080 1848 0080 7e0e a6b8 22e7 25b8
00000290: b036 5b37 773c 48b7 4efe c8b7 2bcc 27b7
000002a0: 620f f1b7 3e92 c8b7 e3af acb6 d93f b71f
000002b0: e968 189f 9431 f71f 3ed7 d31f d5e5 3c1f
000002c0: b3d0 a19b c778 4a1f 67be 749f 221b 0c1f
000002d0: 01c0 57bd bd32 7c3e b74a 56be 49d2 a3be
000002e0: dc13 39bc cb96 6d3d b986 9ebe fd45 81be
000002f0: 9192 8cbe b716 1fab f710 29ab add8 42a9
00000300: 8feb 04aa 8e81 1eaa 4cea 34a9 8b85 00ab
00000310: 64a7 d6a9 8cb5 1faa 224e 79bd e1a6 f0bd
00000320: 86d5 a33d 2460 d0bd 633a e3bd f30c 123c
00000330: 4268 5abd 872a e3bd 3feb 97bc bf77 0180
00000340: a7bc 0080 9e39 0000 f41b 0180 bd66 0080
00000350: 65fe 0000 4849 0080 ba8f 0000 828b 0080
00000360: 8878 6287 b11b 1787 b1a9 7606 7e78 8706
00000370: 60e8 e386 ffe0 4387 92c5 9107 aed0 1287
00000380: 72b8 4c87 4487 0080 6f15 0080 16cc 0080
00000390: 8f51 0080 3c95 0080 c23b 0080 4f7c 0000
000003a0: 2315 0100 0099 0080 d34a 0100 f312 0080
000003b0: 083f 0080 e839 0000 3279 0080 1e04 0100
000003c0: 0c1f 0000 4f10 0100 415b 0000 ffaf 9b3e
000003d0: 4ca4 58bc 31e3 3f3d b1cf 033c 904f 933d
000003e0: 2ccd 993d 84bf df3c fc5a 2cbd d33a 79bc
000003f0: 7d2e 21bc 2f02 b1bb 04e3 14bc f5ce 8e3a

e_conv2.depth_conv.bias f4 [32]
0.10204931 -0.13834706 0.009069599 -0.053973168 -0.18418488 0.20774125 0.012782515 0.1489756
0.27817237 -0.25282416 0.009127277 -0.08663362 -0.22876285 -0.05173876 0.1572092 0.21410277
0.18692079 -0.037461393 0.00013167759 0.18139122 0.26836577 0.19094689 -0.11657569 0.2103042
-0.08962511 -0.03949329 0.08401153 -0.22651361 -0.103315964 -0.17340738 -0.0894266 0.30061233
00000000: 3bff d03d daaa 0dbe a898 143c f812 5dbd
00000010: f69a 3cbe 1fba 543e c16d 513c 0f8d 183e
00000020: 9c6c 8e3e 2b72 81be 938a 153c f86c b1bd
00000030: cf40 6abe 06ec 53bd 73fb 203e c23d 5b3e
00000040: 2a68 3f3e 1e71 19bd ef12 0a39 9fbe 393e
00000050: 3d67 893e 9587 433e 3cbf eebd fc59 573e
00000060: 5f8d b7bd b7c3 21bd 3d0e ac3d 2ff3 67be
00000070: 5297 d3bd b491 31be 4b25 b7bd dce9 993e

e_conv2.point_conv.weight f4 [32, 32, 1, 1]
-0.0146476105 -0.014107229 -0.0012630587 0.08765994 0.014645442 -0.06674648 0.024808364 -0.028849756
-0.059143968 0.010401769 0.050489485 0.05921738 0.15520298 0.032075975 -0.011727336 -0.12639733
0.028473152 0.003635021 0.00025290743 -0.054431487 0.2452086 0.026173811 0.054630093 -0.06253193
-0.001532968 0.005754986 -0.016669955 0.05067272 0.02203754 0.030276801 -0.15278767 -0.04042692
0.06826705 -0.10167146 0.006173132 -0.16000141 0.020369792 0.10477274 0.0095139 0.027111879
0.09772297 -0.10145329 0.28349265 0.12623698 0.22997889 0.07308159 -0.010748343 0.15211913
0.1052134 -0.014921624 0.0002947979 -0.009470513 0.03886141 0.057042383 0.024079787 0.12819324
-0.01706486 -0.017941443 -0.024282357 0.16651812 -0.10853768 -0.034379456 -0.24742153 0.11696306
-0.0012876665 0.0010208768 0.0012052912 0.33484173 0.013842943 0.034448642 0.04822117 -0.010875364
-0.042216156 -0.047417942 -0.12668918 -0.024134904 -0.25670648 0.055657957 -0.023330873 0.016339466
0.086926766 -0.004416476 -0.00015376235 0.018382626 -0.04291196 0.007733489 -0.0068489485 0.06562203
-0.0048596016 -0.002265668 0.014174339 -0.18957357 -0.012444436 -0.03906177 0.0779303 -0.013735498
0.00024910044 -0.00029197315 3.4183548e-05 -8.314436e-05 -0.000385621 0.0003166488 -0.00060156453 0.00034171043
0.00025319197 -0.00045431362 -0.00036059887 6.5096945e-05 -0.000391864 2.5636837e-05 0.00033739134 0.00031696114
0.00082651 -0.00010683519 1.00932915e-08 0.0003838625 -0.00059924275 0.00031667764 -0.00041644002 0.00040564028
-0.00023051644 -9.915868e-05 0.00021684634 -0.00024433894 -0.00014282113 -0.00032016725 -0.0006618292 -0.0009091235
0.0030393857 0.01234135 0.0012294792 -0.034965068 0.029124467 0.099644154 -0.14378336 0.0037498171
-0.02103765 -0.034301326 -0.07998092 -0.028922083 -0.069757305 -0.04695576 0.016035104 0.16235325
0.0078108963 -0.0074942717 -0.0002587544 0.040184937 0.0029831037 -0.010816547 -0.0074131913 -0.022044363
-0.018262591 -0.0055546365 0.01670232 0.0074436665 -0.013311411 -0.037075743 0.03888424 -0.06495841
0.017545355 -0.01923216 0.0011444384 -0.08424941 -0.024280047 0.032207396 0.11566772 0.019847466
0.030901607 -0.029639816 0.105535 -0.040387347 0.07902308 -0.02945551 0.021100642 0.039843623
-0.0049260138 -0.005358703 -0.0003065047 0.019886142 0.08226258 0.025297731 -0.031274766 0.023499617
-0.011710097 -0.005272566 0.011932888 0.03259644 -0.014687678 -0.022289878 0.0049937153 0.14604825
0.0064927847 0.019664623 -0.0008520828 0.1607254 -0.018270053 -0.20128745 0.18716799 0.00816762
-0.00043581935 -0.03621066 0.36790323 0.20098074 0.19246028 0.2199451 0.011783692 -0.094899535
0.17429437 0.0012170305 -0.00015209365 0.026308041 -0.050955277 0.021039696 0.035463743 0.010823533
0.0036982556 0.0012288205 0.007902984 0.090897374 -0.002120028 0.017934913 -0.17196846 0.1414402
-0.0020478552 0.0018376971 -0.0004713864 -0.001701611 0.0016589826 -0.0016010995 0.0005755076 -0.0017737387
-0.0015143137 0.0014435399 -0.0017895036 -0.001777435 -0.00063695153 -0.002589624 -0.0018083581 -0.0011682285
-9.6730895e-05 0.0016458821 -3.2680096e-06 -0.0017285014 -0.0010784591 -0.0017719375 0.0013524548 -0.0017358569
0.0017208349 0.0012006076 -0.0016686927 0.0010850473 0.0018937066 0.0017863169 0.0011281898 -0.0015947383
00000000: 88fc 6fbc 0222 67bc 388d a5ba 0e87 b33d
00000010: 70f3 6f3c 61b2 88bd e93a cb3c 5356 ecbc
00000020: f240 72bd 2e6c 2a3c 10ce 4e3d ec8d 723d
00000030: 88ed 1e3e 1962 033d 0324 40bc 4d6e 01be
00000040: 8740 e93c 8839 6e3b a998 8439 8df3 5ebd
00000050: f717 7b3e 766a d63c cec3 5f3d be10 80bd
00000060: dfed c8ba 5294 bc3b 6e8f 88bc 338e 4f3d
00000070: 1288 b43c 0e07 f83c 5f74 1cbe b396 25bd
00000080: 98cf 8b3d 2039 d0bd fc47 ca3b 69d7 23be
00000090: 8dde a63c 1793 d63d 30e0 1b3c bb19 de3c
000000a0: fb22 c83d bec6 cfbd f325 913e 4444 013e
000000b0: 967f 6b3e cdab 953d d119 30bc 1ec5 1b3e
000000c0: 207a d73d d479 74bc 1b8f 9a39 362a 1bbc
000000d0: 242d 1f3d 46a5 693d f942 c53c 1745 033e
000000e0: 9bcb 8bbc eff9 92bc cbeb c6bc ba83 2a3e
000000f0: 0149 debd 79d1 0cbd 125c 7dbe 548a ef3d
00000100: ebc6 a8ba f1ce 853a ddfa 9d3a 6070 ab3e
00000110: 83cd 623c 051a 0d3d 9083 453d 952e 32bc
00000120: d9ea 2cbd 5139 42bd cfba 01be 90b6 c5bc
00000130: 086f 83be 99f9 633d 6320 bfbc 58da 853c
00000140: a906 b23d 16b8 90bb 443b 21b9 2997 963c
00000150: 74c4 2fbd 3569 fd3b 256d e0bb d864 863d
00000160: 4b3d 9fbb 9a7b 14bb 7d3b 683c 931f 42be
00000170: bfe3 4bbc 3cff 1fbd ec99 9f3d db0a 61bc
00000180: b299 8239 f913 99b9 4e60 0f38 ca5d aeb8
00000190: 2d2d cab9 e203 a639 50b2 1dba 9927 b339
000001a0: dabe 8439 f130 eeb9 c30e bdb9 a884 8838
000001b0: 1973 cdb9 b00e d737 e6e3 b039 ce2d a639
000001c0: 26aa 583a b50c e0b8 c466 2d32 2741 c939
000001d0: 8016 1dba c107 a639 a255 dab9 1eac d439
000001e0: c9b6 71b9 69f3 cfb8 3f61 6339 9e1a 80b9
000001f0: 41c2 15b9 1fdc a7b9 9b7e 2dba 3f52 6eba
00000200: 6e30 473b 6033 4a3c 7a26 a13a 8837 0fbd
00000210: 6f96 ee3c 3c12 cc3d f23b 13be 7ebf 753b
00000220: 2657 acbc 8c7f 0cbd 09cd a3bd 01ee ecbc
00000230: ebdc 8ebd af54 40bd 0d5c 833c ee3f 263e
00000240: 8cf2 ff3b 8292 f5bb 6da9 87b9 f698 243d
00000250: 2d80 433b e337 31bc 5bea f2bb 6196 b4bc
00000260: 6e9b 95bc ab03 b6bb 4ed3 883c 00ea f33b
00000270: 1b18 5abc bcdc 17bd 1545 1f3d ea08 85bd
00000280: 47bb 8f3c c38c 9dbc fb00 963a f48a acbd
00000290: f3e6 c6bc e7eb 033d 33e3 ec3d 2797 a23c
000002a0: 5e25 fd3c 33cf f2bc bc22 d83d 346d 25bd
000002b0: dad6 a13d af4c f1bc 41db ac3c 1133 233d
000002c0: 666a a1bb 0f98 afbb 5db2 a0b9 43e8 a23c
000002d0: 4979 a83d 303d cf3c f819 00bd 4582 c03c
000002e0: b5db 3fbc 7dc5 acbb 2982 433c d883 053d
000002f0: 96a4 70bc 4399 b6bc 52a2 a33b ac8d 153e
00000300: 6dc1 d43b b417 a13c 4f5e 5fba 3395 243e
00000310: 14ab 95bc 4c1e 4ebe f7a8 3f3e 7bd1 053c
00000320: af7e e4b9 a151 14bd d05d bc3e e5cd 4d3e
00000330: 4f14 453e 4a39 613e 6310 413c b05a c2bd
00000340: 397a 323e c484 9f3a 547b 1fb9 f683 d73c
00000350: 7bb6 50bd 715b ac3c 6e42 113d 3055 313c
00000360: 6f5e 723b 6010 a13a 847b 013c 6728 ba3d
00000370: 2bf0 0abb 3dec 923c 8018 30be b3d5 103e
00000380: 4f35 06bb e2de f03a 6924 f7b9 9708 dfba
00000390: 3872 d93a fcdb d1ba a9dd 163a cb7c e8ba
000003a0: f07b c6ba 2935 bd3a c78d eaba d2f8 e8ba
000003b0: 18f9 26ba aeb6 29bb 6e06 edba 3e1f 99ba
000003c0: 01dc cab8 a4ba d73a fa4f 5bb6 e28e e2ba
000003d0: 155b 8dba 5b40 e8ba da44 b13a b185 e3ba
000003e0: a38d e13a b55d 9d3a 09b8 daba 2538 8e3a
000003f0: 4036 f83a d922 ea3a c5df 933a 8a06 d1ba

e_conv2.point_conv.bias f4 [32]
0.088070035 0.06946816 0.09512752 0.0007242723 0.15380457 0.08123721 -0.009916705 -0.00037294909
0.06473737 0.1196058 0.0048691332 -0.052314866 0.0063608675 0.17098162 0.088710964 0.00052671495
-1.03626135e-05 0.020106478 0.034474358 1.18235e-40 -0.06427925 -0.0065937736 0.021344176 0.0011036375
0.050914448 -0.028689846 0.04250093 -0.10371493 -5.4514693e-15 -0.0010799761 0.057358097 0.0954212
00000000: 105e b43d 5345 8e3d 38d2 c23d 17dd 3d3a
00000010: f27e 1d3e b25f a63d ad79 22bc 6188 c3b9
00000020: 0795 843d e3f3 f43d 408d 9f3b 1d48 56bd
00000030: d36e d03b ce15 2f3e 18ae b53d 3e13 0a3a
00000040: 16db 2db7 57b6 a43c fc34 0d3d 9749 0100
00000050: d7a4 83bd 9510 d8bb fbd9 ae3c eea7 903a
00000060: ab8b 503d f806 ebbc 7515 2e3d 7e68 d4bd
00000070: ee68 c4a7 fc8d 8dba 53f0 6a3d 316c c33d

e_conv3.depth_conv.weight f4 [32, 1, 3, 3]
1.07091e-40 5.6104e-41 -1.2466e-41 6.1223e-41 3.54e-41 -1.8486e-41 8.6097e-41 -2.821e-42
-1.01321e-40 -7.2405e-41 -6.1513e-41 8.4455e-41 7.4123e-41 -1.02376e-40 -8.594e-42 1.278e-41
-3.742e-41 7.6798e-41 3.236e-42 3.6092e-41 1.13288e-40 -1.443e-41 -8.09e-42 -4.2496e-41
-1.8608e-41 -5.7502e-41 -2.7004e-41 5.301e-41 -4.255e-41 5.4135e-41 4.9666e-41 -2.1312e-41
-2.555e-41 -6.369e-41 8.4706e-41 1.3965e-41 -9.7694e-41 -2.617e-41 1.6705e-41 6.1566e-41
1.12037e-40 2.5753e-41 -3.4052e-41 -2.2138e-41 7.8082e-41 1.03047e-40 -1.02995e-40 -2.9395e-41
-5.6038e-41 -4.184e-41 -6.4373e-41 -1.5323e-41 -1.8507e-41 -1.84321e-40 -6.4e-41 -9.931e-42
-8.9141e-41 2.4497e-41 3.4113e-41 -8.2557e-41 8.0946e-41 -3.5852e-41 -7.766e-41 1.38396e-40
4.8737e-41 1.278e-42 6.6351e-41 5.1718e-41 -6.9695e-41 -1.33506e-40 -6.503e-42 7.5488e-41
3.4874e-41 -3.919e-41 -1.10139e-40 -4.99e-41 2.2803e-41 -9.0549e-41 -7.873e-41 -1.13441e-40
-1.02911e-40 -4.5219e-41 -1.6371e-41 2.7383e-41 -6.6059e-41 -4.9997e-41 -3.5021e-41 2.2747e-41
-4.3781e-41 7.1612e-41 -2.028e-41 9.7177e-41 9.8876e-41 2.18e-42 -1.27548e-40 5.4707e-41
-3.7651e-41 1.1008e-40 -7.144e-42 -1.63188e-40 -3.4026e-41 4.2105e-41 -1.495e-42 7.825e-41
-8.1501e-41 8.0627e-41 -8.4665e-41 -3.4061e-41 -4.054e-41 1.5627e-41 1.8895e-41 1.1356e-41
-5.6303e-41 6.8046e-41 -9.7813e-41 5.4823e-41 3.6484e-41 -1.19262e-40 2.8141e-41 4.1427e-41
6.0616e-41 -4.98e-41 8.3174e-41 8.209e-42 8.028e-42 -1.7188e-41 1.294e-41 3.4017e-41
-1.3188e-41 -4.003e-41 -7.9074e-41 -7.7172e-41 -7.6692e-41 4.0255e-41 -2.2208e-41 -2.0212e-41
5.2277e-41 1.8454e-41 -7.2052e-41 -9.6911e-41 2.6262e-41 -1.09741e-40 -5.335e-42 -5.7833e-41
-2.9238e-41 -4.662e-41 9.392e-42 1.8557e-41 1.0409e-41 -3.989e-41 -3.4046e-41 6.0963e-41
-7.2406e-41 8.8528e-41 -6.1524e-41 8.4065e-41 2.4897e-41 -9.069e-42 -5.1681e-41 6.3093e-41
-2.7531e-41 9.788e-42 -7.3652e-41 1.2039e-41 -1.02722e-40 -8.9721e-41 -3.1099e-41 -1.03395e-40
-8.8799e-41 -6.72e-42 1.04565e-40 6.819e-42 -1.6066e-41 9.6149e-41 -1.48602e-40 -5.3378e-41
-3.6871e-41 1.0302e-41 4.2322e-41 -2.7529e-41 4.8235e-41 -9.512e-41 9.6847e-41 -2.0672e-41
-5.4525e-41 1.1422e-41 4.0318e-41 3.646e-42 3.4828e-41 -1.508e-42 -4.7426e-41 9.3858e-41
6.2062e-41 -4.2024e-41 6.8215e-41 3.528e-41 6.8728e-41 9.9154e-41 -1.45383e-40 6.9821e-41
1.33537e-40 -2.8592e-41 1.81821e-40 1.5887e-41 1.61928e-40 -1.1939e-41 6.1612e-41 -1.587e-41
-1.8727e-41 -7.7007e-41 -1.3162e-41 -7.3e-41 6.345e-41 -1.08718e-40 -2.0284e-41 7.7596e-41
7.6155e-41 -1.5584e-41 2.4891e-41 8.0328e-41 6.1874e-41 -2.9733e-41 8.289e-41 -4.2684e-41
-3.3369e-41 -5.8552e-41 -7.6376e-41 2.5941e-41 3.4356e-41 -1.22454e-40 -5.722e-41 5.329e-42
4.1588e-41 4.6026e-41 8.9732e-41 -3.8544e-41 2.4408e-41 -8.3984e-41 1.00214e-40 2.3665e-41
7.6725e-41 -8.5545e-41 3.6215e-41 2.5017e-41 -1.26449e-40 -3.2778e-41 4.183e-42 -6.942e-42
5.6404e-41 8.2381e-41 -1.27988e-40 -8.772e-42 -6.2058e-41 -8.5367e-41 3.5082e-41 -3.308e-42
00000000: 872a 0100 659c 0000 c022 0080 aaaa 0000
00000010: ae62 0000 8833 0080 01f0 0000 dd07 0080
00000020: 711a 0180 d6c9 0080 79ab 0080 6deb 0000
00000030: a0ce 0000 621d 0180 f517 0080 a023 0000
00000040: 5068 0080 15d6 0000 0509 0000 9c64 0000
00000050: cd3b 0100 3a28 0080 8d16 0080 7676 0080
00000060: df33 0080 4ba0 0080 474b 0080 c593 0000
00000070: 9d76 0080 e896 0000 738a 0000 693b 0080
00000080: 3947 0080 8bb1 0080 20ec 0000 ee26 0000
00000090: 5510 0180 f448 0080 912e 0000 9fab 0000
000000a0: 5038 0100 ca47 0000 ec5e 0080 b63d 0080
000000b0: a9d9 0000 411f 0100 1c1f 0180 f151 0080
000000c0: 369c 0080 a274 0080 72b3 0080 b72a 0080
000000d0: 9733 0080 d001 0280 68b2 0080 af1b 0080
000000e0: 7df8 0080 4a44 0000 185f 0000 23e6 0080
000000f0: a5e1 0000 f163 0080 7cd8 0080 cb81 0100
00000100: dc87 0000 9003 0000 f6b8 0000 2b90 0000
00000110: 48c2 0080 2974 0180 2112 0080 6ed2 0000
00000120: 3761 0000 3f6d 0080 0633 0180 1a8b 0080
00000130: 913f 0000 6afc 0080 78db 0080 3a3c 0180
00000140: e01e 0180 0d7e 0080 a32d 0080 554c 0000
00000150: 25b8 0080 5f8b 0080 a061 0080 693f 0000
00000160: 0b7a 0080 a0c7 0000 8838 0080 e40e 0100
00000170: a013 0100 1406 0000 8d63 0180 8098 0000
00000180: f568 0080 dc32 0100 ea13 0080 e7c6 0180
00000190: da5e 0080 5f75 0000 2b04 0080 21da 0000
000001a0: 31e3 0080 c1e0 0000 03ec 0080 f35e 0080
000001b0: 0271 0080 902b 0000 ac34 0000 a81f 0000
000001c0: f39c 0080 afbd 0000 aa10 0180 d398 0000
000001d0: b465 0000 744c 0180 724e 0000 7b73 0000
000001e0: f9a8 0000 d28a 0080 dbe7 0000 e216 0000
000001f0: 6116 0000 ea2f 0080 1224 0000 d35e 0000
00000200: c324 0080 966f 0080 6ddc 0080 20d7 0080
00000210: c9d5 0080 3770 0000 e83d 0080 5838 0080
00000220: ba91 0000 7133 0000 dac8 0080 260e 0180
00000230: 3549 0000 ea31 0180 df0e 0080 37a1 0080
00000240: 8151 0080 f581 0080 2e1a 0000 bb33 0000
00000250: 041d 0000 326f 0080 e85e 0080 f1a9 0000
00000260: d7c9 0080 c8f6 0000 81ab 0080 57ea 0000
00000270: 6745 0000 4819 0080 1190 0080 e1af 0000
00000280: bf4c 0080 491b 0000 50cd 0080 8f21 0000
00000290: 591e 0180 1bfa 0080 b156 0080 3920 0180
000002a0: 89f7 0080 bc12 0080 7c23 0100 0213 0000
000002b0: c92c 0080 060c 0100 3e9e 0180 cc94 0080
000002c0: c866 0080 b81c 0000 fa75 0000 bd4c 0080
000002d0: 7686 0000 2809 0180 f80d 0100 a039 0080
000002e0: fe97 0080 d71f 0000 6470 0000 2a0a 0000
000002f0: 1661 0000 3404 0080 3484 0080 a305 0100
00000300: 01ad 0000 2575 0080 28be 0000 5962 0000
00000310: 96bf 0000 6714 0100 4595 0180 a2c2 0000
00000320: 3f74 0100 b44f 0080 d8fa 0100 492c 0000
00000330: 64c3 0100 4821 0080 c0ab 0000 3d2c 0080
00000340: 3434 0080 aad6 0080 b124 0080 7fcb 0080
00000350: dfb0 0000 102f 0180 8b38 0080 4ed8 0000
00000360: 4ad4 0000 712b 0080 6345 0000 ecdf 0000
00000370: 7bac 0000 e252 0080 10e7 0000 fc76 0080
00000380: 055d 0080 38a3 0080 e8d4 0080 5048 0000
00000390: c55f 0000 5a55 0180 829f 0080 db0e 0000
000003a0: ee73 0000 4d80 0000 23fa 0000 726b 0080
000003b0: 0a44 0000 1dea 0080 5b17 0100 f841 0000
000003c0: e1d5 0000 77ee 0080 f464 0000 bd45 0000
000003d0: 7d60 0180 5f5b 0080 a90b 0000 5a13 0080
000003e0: 3b9d 0000 a5e5 0000 c764 0180 7418 0080
000003f0: feac 0080 f8ed 0080 cb61 0000 3909 0080

e_conv3.depth_conv.bias f4 [32]
5.8654e-41 3.2433e-41 8.4158e-41 1.476e-42 5.1425e-41 9.0497e-41 -3.035e-42 -5.9543e-41
3.9327e-41 -4.833e-41 9.577e-41 -3.825e-41 5.9213e-41 -6.6221e-41 5.1771e-41 9.9227e-41
6.1883e-41 -9.068e-41 2.8697e-41 1.4649e-41 4.7626e-41 3.2783e-41 -4.4233e-41 -2.554e-41
5.227e-41 6.3222e-41 1.7547e-41 6.1408e-41 1.6172e-41 6.3864e-41 1.1516e-41 -1.2167e-41
00000000: 81a3 0000 695a 0000 99ea 0000 1d04 0000
00000010: 5a8f 0000 45fc 0000 7608 0080 fba5 0080
00000020: a16d 0000 b986 0080 f80a 0100 a06a 0080
00000030: 10a5 0000 99b8 0080 5190 0000 9b14 0100
00000040: 81ac 0000 c7fc 0080 ff4f 0000 d628 0000
00000050: c384 0000 635b 0000 4e7b 0080 3247 0080
00000060: b591 0000 3db0 0000 ea30 0000 2eab 0000
00000070: 152d 0000 07b2 0000 1a20 0000 eb21 0080

e_conv3.point_conv.weight f4 [32, 32, 1, 1]
-1.4487e-41 4.8352e-41 2.954e-42 1.18453e-40 8.8977e-41 -3.3061e-41 -6.609e-41 6.4453e-41
1.42965e-40 -9.6062e-41 3.4018e-41 3.0586e-41 -7.8327e-41 8.5537e-41 1.04755e-40 -1.7e-41
7.6979e-41 7.1807e-41 1.9463e-41 9.3806e-41 5.939e-41 -4.1872e-41 -3.867e-41 8.2552e-41
-4.6321e-41 6.4e-41 -7.0296e-41 1.79544e-40 -2.3627e-41 -1.6405e-41 -8.4497e-41 7.9804e-41
1.0186e-40 -8.0841e-41 3.6664e-41 -7.8236e-41 -1.01792e-40 -5.9126e-41 -8.5967e-41 -7.6281e-41
1.1544e-41 -7.8965e-41 1.1091e-41 -3.1808e-41 -3.303e-41 -1.13511e-40 7.3798e-41 7.2331e-41
-1.56906e-40 -1.9366e-41 1.9175e-41 9.3895e-41 -5.4694e-41 1.4799e-41 1.47852e-40 3.4384e-41
-7.7202e-41 -1.04908e-40 7.8034e-41 -2.6361e-41 8.506e-42 -2.2398e-41 -7.7415e-41 8.0952e-41
-1.341e-41 -3.0913e-41 -1.6563e-41 -8.0513e-41 5.9447e-41 8.2941e-41 9.4854e-41 1.258e-40
-1.54186e-40 1.06064e-40 -5.171e-42 1.1742e-40 8.3508e-41 1.3195e-41 -3.6947e-41 -1.05612e-40
-1.54615e-40 -3.9679e-41 -8.7276e-41 -9.8682e-41 6.6835e-41 4.7211e-41 -9.0719e-41 7.3756e-41
-5.2175e-41 -1.93708e-40 7.3577e-41 1.52608e-40 7.6829e-41 3.5524e-41 -1.58746e-40 1.22183e-40
-1.56441e-40 -1.3974e-41 -2.4371e-41 -6.8603e-41 9.0618e-41 4.435e-42 -7.4681e-41 -7.5021e-41
1.21364e-40 8.8545e-41 -7.6885e-41 8.8137e-41 7.6529e-41 1.08685e-40 3.313e-42 6.3434e-41
6.3075e-41 5.7172e-41 6.1496e-41 2.9228e-41 -9.0894e-41 -1.15761e-40 -5.7904e-41 -8.821e-41
-2.5487e-41 -1.15936e-40 1.26363e-40 8.9383e-41 -1.05275e-40 6.002e-42 3.0503e-41 7.6582e-41
-7.2503e-41 8.4774e-41 4.3362e-41 -8.0576e-41 -1.3264e-40 -1.9803e-41 -9.118e-41 -1.604e-42
7.9755e-41 5.4213e-41 6.6052e-41 6.043e-41 -3.2852e-41 -5.7749e-41 2.2552e-41 -1.4313e-41
8.9422e-41 7.4531e-41 -6.7662e-41 2.6351e-41 2.9238e-41 -9.7228e-41 7.5083e-41 -7.7677e-41
-4.11e-41 1.09636e-40 -4.6925e-41 4.986e-41 5.414e-41 1.26198e-40 8.024e-41 -9.8827e-41
-1.564e-42 -2.9873e-41 -5.8335e-41 -2.6612e-41 7.3581e-41 7.4053e-41 -8.349e-41 5.394e-42
-3.9511e-41 6.005e-41 -1.33418e-40 -1.16871e-40 3.5171e-41 1.1397e-41 -2.6658e-41 -2.8861e-41
1.04359e-40 8.7812e-41 -3.7859e-41 -1.5283e-41 2.5554e-41 7.2349e-41 -6.2924e-41 8.1085e-41
4.462e-42 -1.05032e-40 7.7354e-41 -2.1385e-41 3.2946e-41 9.4848e-41 -5.0298e-41 -6.8832e-41
9.9757e-41 -1.01848e-40 8.3262e-41 8.987e-42 1.085e-41 3.3826e-41 -1.1803e-40 7.9288e-41
-9.2253e-41 8.5712e-41 -5.2629e-41 -6.273e-41 -5.6991e-41 -8.251e-42 9.5384e-41 -8.1436e-41
-1.80187e-40 -1.455e-42 -6.0068e-41 -3.7406e-41 1.53226e-40 1.7085e-41 -6.3514e-41 5.5894e-41
3.4024e-41 -9.848e-42 5.8971e-41 -5.571e-41 3.2101e-41 -5.7862e-41 -8.62e-43 7.6107e-41
-1.0665e-40 1.0777e-41 1.36058e-40 -1.33904e-40 5.03e-41 -5.0347e-41 1.89968e-40 8.653e-42
4.5431e-41 1.0675e-41 -8.6668e-41 -5.9914e-41 -6.5298e-41 -3.8532e-41 -8.1722e-41 -3.4939e-41
9.6981e-41 -8.4728e-41 9.292e-42 7.0653e-41 1.42956e-40 -1.1308e-41 1.46678e-40 -2.858e-41
3.6295e-41 8.0907e-41 -1.288e-42 1.3594e-41 -6.171e-41 1.31719e-40 -5.6999e-41 9.5005e-41
00000000: 6228 0080 c986 0000 3c08 0000 334a 0100
00000010: 08f8 0000 295c 0080 3bb8 0080 abb3 0000
00000020: 878e 0100 c80b 0180 d45e 0000 4355 0000
00000030: 58da 0080 71ee 0000 0424 0100 642f 0080
00000040: 96d6 0000 2bc8 0000 4136 0000 7e05 0100
00000050: 8ea5 0000 b974 0080 cc6b 0080 1fe6 0000
00000060: 2081 0080 68b2 0000 f5c3 0080 7ff4 0100
00000070: dd41 0080 bb2d 0080 8beb 0080 76de 0000
00000080: f21b 0100 5ae1 0080 3466 0000 17da 0080
00000090: c11b 0180 d2a4 0080 a4ef 0080 a4d4 0080
000000a0: 2e20 0000 1fdc 0080 eb1e 0000 ab58 0080
000000b0: 135c 0080 6c3c 0180 b8cd 0000 a1c9 0000
000000c0: 64b5 0180 fc35 0080 7435 0000 be05 0100
000000d0: 7798 0080 4129 0000 279c 0100 d95f 0000
000000e0: 35d7 0080 7124 0180 87d9 0000 7c49 0080
000000f0: b617 0000 703e 0080 cdd7 0080 a9e1 0000
00000100: 6225 0080 2c56 0080 2c2e 0080 70e0 0080
00000110: b7a5 0000 35e7 0000 6a08 0100 ae5e 0100
00000120: cfad 0180 aa27 0100 6a0e 0080 5247 0100
00000130: c9e8 0000 c824 0000 fe66 0080 6726 0180
00000140: 01af 0180 9c6e 0080 4af3 0080 1613 0180
00000150: 4fba 0000 9b83 0000 e3fc 0080 9acd 0000
00000160: 7191 0080 fb1b 0280 1acd 0000 69a9 0100
00000170: 2bd6 0000 0763 0000 85ba 0180 9954 0100
00000180: 18b4 0180 f426 0080 f043 0080 3dbf 0080
00000190: 9bfc 0000 5d0c 0000 2ed0 0080 21d1 0080
000001a0: 5052 0100 d4f6 0000 53d6 0080 b1f5 0000
000001b0: 55d5 0000 f82e 0100 3c09 0000 d4b0 0000
000001c0: d4af 0000 5f9f 0000 6dab 0000 7a51 0000
000001d0: 60fd 0080 b242 0180 6aa1 0080 e5f5 0080
000001e0: 0c47 0080 2f43 0180 4060 0100 2af9 0000
000001f0: 7725 0180 bb10 0000 0855 0000 7bd5 0000
00000200: 1cca 0080 51ec 0000 e078 0000 9de0 0080
00000210: bf71 0180 3437 0080 2cfe 0080 7904 0080
00000220: 53de 0000 2097 0000 20b8 0000 74a8 0000
00000230: 945b 0080 fba0 0080 de3e 0000 e627 0080
00000240: 46f9 0000 c3cf 0000 9dbc 0080 7549 0000
00000250: 8151 0000 080f 0180 4dd1 0000 88d8 0080
00000260: 9272 0080 9f31 0100 cf82 0080 fd8a 0000
00000270: ec96 0000 ca5f 0100 addf 0000 7d13 0180
00000280: 5c04 0080 4653 0080 9da2 0080 2f4a 0080
00000290: 1dcd 0000 6ece 0000 bce8 0080 090f 0000
000002a0: 246e 0080 65a7 0000 ea73 0180 ca45 0180
000002b0: 0b62 0000 c51f 0000 504a 0080 7450 0080
000002c0: e922 0100 c9f4 0000 8969 0080 9a2a 0080
000002d0: 3c47 0000 aec9 0000 68af 0080 08e2 0000
000002e0: 700c 0000 c924 0180 a2d7 0000 9d3b 0080
000002f0: d75b 0000 6608 0100 368c 0080 e0bf 0080
00000300: 1516 0100 e91b 0180 1ae8 0000 0d19 0000
00000310: 3f1e 0000 4b5e 0000 0549 0180 06dd 0000
00000320: 2a01 0180 eeee 0000 b592 0080 deae 0080
00000330: de9e 0080 0017 0080 e409 0100 03e3 0080
00000340: 4af6 0180 0e04 0080 72a7 0080 4668 0080
00000350: 22ab 0100 a02f 0000 0db1 0080 cf9b 0000
00000360: d85e 0000 741b 0080 63a4 0000 4c9b 0080
00000370: 7c59 0000 4ca1 0080 6702 0080 28d4 0000
00000380: 4c29 0180 0b1e 0000 467b 0100 4575 0180
00000390: 378c 0000 598c 0080 8e11 0200 1f18 0000
000003a0: a57e 0000 c21d 0000 98f1 0080 04a7 0080
000003b0: 06b6 0080 696b 0080 cfe3 0080 6561 0080
000003c0: 580e 0100 30ec 0080 e719 0000 f4c4 0000
000003d0: 818e 0100 861f 0080 e198 0100 ab4f 0080
000003e0: 2d65 0000 89e1 0000 9703 0080 e525 0000
000003f0: 06ac 0080 2e6f 0100 e49e 0080 d608 0100

e_conv3.point_conv.bias f4 [32]
-4.8419e-41 2.3333e-41 -1.21366e-40 -2.4455e-41 4.7811e-41 4.7494817e-33 -9.675e-41 2.0557e-41
3.8677e-41 1.4449e-41 2.2574e-41 -1.6959e-41 -6.0975e-41 7.4388e-41 -3.9978e-41 2.2618e-41
-8.0411e-41 -9.0015e-41 -1.49088e-40 -1.07512e-40 9.0638615e-33 1.925e-42 2.5557e-41 3.8487e-41
3.0185e-41 -7.3603e-41 4.5474e-41 7.3616e-41 -7.7339e-41 1.0423e-40 -4.9483e-41 1.44512e-40
00000000: f986 0080 0b41 0000 5252 0180 2c44 0080
00000010: 4785 0000 2749 c509 b30d 0180 4e39 0000
00000020: d16b 0000 4728 0000 ed3e 0000 462f 0080
00000030: f9a9 0080 5dcf 0000 716f 0080 0d3f 0000
00000040: 27e0 0080 edfa 0080 999f 0180 b32b 0180
00000050: c13f 3c0a 5e05 0000 3e47 0000 496b 0000
00000060: 2554 0000 2dcd 0080 c37e 0000 36cd 0000
00000070: 97d7 0080 8d22 0100 f089 0080 d792 0100

e_conv4.depth_conv.weight f4 [32, 1, 3, 3]
4.5385e-41 1.21739e-40 3.3476e-41 -2.2607e-41 -4.333e-41 -1.11319e-40 4.6785e-41 -3.9339e-41
-3.704e-42 3.8838e-41 1.8015e-41 2.9562e-41 5.4246e-41 1.41744e-40 -7.681e-41 -3.1871e-41
7.7925e-41 1.3635e-40 5.5602e-41 7.358e-41 1.1798e-41 -7.4579e-41 -8.053e-42 -3.621e-42
-8.1218e-41 -1.27601e-40 2.4503e-41 -4.1714e-41 7.6797e-41 -1.2469e-41 1.31973e-40 -7.2465e-41
-2.5886e-41 -7.9569e-41 -7.9343e-41 -7.899e-42 3.4763e-41 2.5917e-41 6.24e-41 -7.3655e-41
8.1024e-41 -7.5786e-41 8.2262e-41 -4.6782e-41 1.69403e-40 6.8259e-41 4.8493e-41 -8.154e-41
-2.884e-42 -1.8024e-41 8.9187e-41 6.4901e-41 7.0529e-41 -3.123e-41 -7.3057e-41 5.7116e-41
3.6476e-41 1.16406e-40 -7.0277e-41 -5.279e-42 -1.32835e-40 -7.1065e-41 -7.2376e-41 5.906e-42
2.1165e-41 8.8615e-41 -6.2645e-41 -4.448e-42 -1.707e-41 -7.9528e-41 -8.203e-42 -8.6152e-41
-1.28498e-40 -7.7206e-41 -2.8606e-41 2.0895e-41 4.8503e-41 9.8728e-41 5.0396e-41 3.5297e-41
6.88e-41 -6.5783e-41 -6.7714e-41 4.0607e-41 8.0792e-41 6.6929e-41 -2.4136e-41 6.8931e-41
2.9885e-41 -6.5e-41 -1.5767e-41 -7.0548e-41 8.8279e-41 1.30063e-40 6.6436e-41 -4.4022e-41
3.5981e-41 -2.5855e-41 3.9028e-41 -2.2711e-41 2.1148e-41 -6.7014e-41 2.3867e-41 1.04833e-40
-2.4947e-41 -4.25e-42 6.523e-42 7.6907e-41 -7.17e-42 6.249e-41 -3.2457e-41 -6.3573e-41
-3.0753e-41 -8.085e-41 5.1838e-41 1.9478e-41 4.3795e-41 5.9842e-41 9.1222e-41 -7.3638e-41
1.8234e-41 8.0251e-41 1.2018e-41 3.9e-43 3.3487e-41 6.1014e-41 -8.1274e-41 -4.5549e-41
7.4579e-41 7.6802e-41 -7.3407e-41 1.00112e-40 -1.0016e-41 -5.6933e-41 4.2472e-41 1.1416e-41
-5.4583e-41 -5.06e-42 3.3808e-41 4.6253e-41 -4.5786e-41 -5.478e-42 2.7309e-41 -1.9513e-41
-2.4591e-41 -7.216e-41 3.7663e-41 7.1533e-41 1.4617e-41 1.7414e-41 5.2968e-41 1.0939e-41
1.2044e-41 5.8066e-41 -8.1055e-41 -1.26e-41 -2.5246e-41 -1.3249e-41 -4.4425e-41 4.0657e-41
-1.327e-42 -1.1042e-41 1.54003e-40 -7.2859e-41 -1.2934e-41 7.448e-41 1.4576e-41 4.6931e-41
-3.2956e-41 -6.1793e-41 -1.17485e-40 -6.1217e-41 -3.605e-41 -2.2163e-41 -1.05351e-40 1.18994e-40
8.4388e-41 -7.6316e-41 -2.608e-41 -7.3644e-41 -3.61e-41 1.3512e-40 6.3926e-41 -1.07845e-40
6.5022e-41 1.37438e-40 5.727e-41 3.231e-42 1.14482e-40 -1.05588e-40 -9.1587e-41 6.2928e-41
2.6206e-41 4.6307e-41 -7.5962e-41 -2.0557e-41 8.2887e-41 -8.3589e-41 -5.4e-43 -4.2562e-41
5.946e-42 -3.5897e-41 -7.0847e-41 9.543e-42 -6.0226e-41 -7.8962e-41 -1.13805e-40 -5.5157e-41
2.7094e-41 4.165e-41 -4.048e-41 -6.2418e-41 5.6587e-41 -3.691e-42 8.807e-42 1.4708e-41
5.1304e-41 5.0424e-41 -2.971e-41 -9.518e-42 3.284e-41 5.8213e-41 -7.2028e-41 7.815e-41
1.0752e-41 5.912e-42 5.7172e-41 -1.17004e-40 8.6051e-41 -5.7292e-41 -1.3158e-41 -1.763e-42
-9.5143e-41 9.6073e-41 6.0735e-41 -6.8557e-41 4.204e-41 -5.1006e-41 4.757e-41 -7.1622e-41
1.5674e-40 8.1841e-41 1.00896e-40 -7.225e-41 -5.536e-41 -3.758e-41 9.4365e-41 2.459e-41
1.46213e-40 2.3459e-41 -1.52215e-40 6.4154e-41 6.3688e-41 -5.4837e-41 -2.266e-41 3.3707e-41
00000000: 847e 0000 5c53 0100 515d 0000 053f 0080
00000010: c978 0080 5036 0180 6b82 0000 a96d 0080
00000020: 530a 0080 446c 0000 3832 0000 6852 0000
00000030: 3797 0000 208b 0100 1dd6 0080 d858 0080
00000040: 39d9 0000 177c 0100 ff9a 0000 1ccd 0000
00000050: e320 0000 e5cf 0080 7316 0080 180a 0080
00000060: 67e2 0080 b363 0180 4e44 0000 4874 0080
00000070: 14d6 0000 c222 0080 e36f 0100 01ca 0080
00000080: 2948 0080 cedd 0080 2ddd 0080 0516 0080
00000090: e860 0000 3f48 0000 f2ad 0000 52cd 0080
000000a0: dde1 0000 43d3 0080 50e5 0000 6982 0080
000000b0: 3ad8 0100 47be 0000 2e87 0000 4de3 0080
000000c0: 0a08 0080 3e32 0080 9ef8 0000 ebb4 0000
000000d0: 9bc4 0000 0e57 0080 a7cb 0080 379f 0000
000000e0: ae65 0000 7e44 0100 e7c3 0080 b70e 0080
000000f0: 4a72 0180 1ac6 0080 c1c9 0080 7710 0000
00000100: 003b 0000 06f7 0000 a1ae 0080 660c 0080
00000110: 962f 0080 b1dd 0080 de16 0080 28f0 0080
00000120: 3366 0180 38d7 0080 be4f 0080 3f3a 0000
00000130: 3587 0000 3713 0100 7c8c 0000 6562 0000
00000140: c9bf 0000 60b7 0080 c2bc 0080 3271 0000
00000150: 37e1 0000 92ba 0000 4843 0080 27c0 0000
00000160: 4f53 0000 32b5 0080 f42b 0080 a9c4 0080
00000170: 16f6 0000 906a 0100 32b9 0000 b77a 0080
00000180: 4d64 0000 1348 0080 cb6c 0000 4f3f 0080
00000190: f43a 0000 cfba 0080 8842 0000 3b24 0100
000001a0: 8b45 0080 d90b 0080 2f12 0000 63d6 0000
000001b0: fd13 0080 32ae 0000 7a5a 0080 37b1 0080
000001c0: ba55 0080 60e1 0080 8190 0000 4c36 0000
000001d0: 157a 0000 d1a6 0000 4afe 0000 46cd 0080
000001e0: d432 0000 b5df 0000 8021 0000 1601 0000
000001f0: 595d 0000 15aa 0000 8fe2 0080 f97e 0080
00000200: e5cf 0000 18d6 0000 a1cc 0080 1217 0100
00000210: ec1b 0080 b59e 0080 6576 0000 d31f 0000
00000220: 2898 0080 1b0e 0080 3e5e 0000 ef80 0000
00000230: a27f 0080 450f 0080 204c 0000 6536 0080
00000240: 8d44 0080 27c9 0080 fd68 0000 68c7 0000
00000250: bf28 0000 8b30 0000 a793 0000 7e1e 0000
00000260: 9321 0000 dda1 0000 f3e1 0080 2023 0080
00000270: 6046 0080 ef24 0080 d77b 0080 5671 0000
00000280: b303 0080 c81e 0080 4cad 0100 1acb 0080
00000290: 0e24 0080 9fcf 0000 a228 0000 d382 0000
000002a0: de5b 0080 41ac 0080 8047 0180 a6aa 0080
000002b0: 7e64 0080 c83d 0080 ad25 0180 b54b 0100
000002c0: 3deb 0000 bdd4 0080 b348 0080 4acd 0080
000002d0: a264 0080 a978 0100 33b2 0000 a12c 0180
000002e0: 41b5 0000 1f7f 0100 a59f 0000 0209 0000
000002f0: 213f 0100 5626 0180 4fff 0080 6baf 0000
00000300: 0d49 0000 1681 0000 c0d3 0080 4e39 0080
00000310: 0ee7 0000 03e9 0080 8101 0080 a576 0080
00000320: 9310 0000 1164 0080 7ec5 0080 9a1a 0000
00000330: e3a7 0080 1ddc 0080 3e3d 0180 c199 0080
00000340: 874b 0000 1a74 0000 d770 0080 ffad 0080
00000350: be9d 0000 4a0a 0080 8d18 0000 0029 0000
00000360: 048f 0000 908c 0000 d252 0080 881a 0080
00000370: 8b5b 0000 46a2 0000 c9c8 0080 dad9 0000
00000380: f91d 0000 7b10 0000 5f9f 0000 2946 0180
00000390: e0ef 0000 b59f 0080 ae24 0080 ea04 0080
000003a0: 3809 0180 d00b 0100 4ea9 0000 1cbf 0080
000003b0: 3175 0000 2f8e 0080 9b84 0000 a7c7 0080
000003c0: edb4 0100 24e4 0000 4219 0100 67c9 0080
000003d0: 529a 0080 c268 0080 0d07 0100 8c44 0000
000003e0: 9597 0100 6541 0000 50a8 0180 d6b2 0000
000003f0: 89b1 0000 dd98 0080 2b3f 0080 f65d 0000

e_conv4.depth_conv.bias f4 [32]
-2.7499e-41 1.1257e-41 -3.547e-42 2.4149e-41 2.909e-41 4.3063e-41 -6.3231e-41 3.69e-41
-6.2771e-41 -8.4533e-41 1.3286e-41 7.7366e-41 -1.6322e-41 -4.693e-41 6.9825e-41 -7.504e-41
3.414e-41 -2.4216e-41 1.1492e-41 3.68e-42 -7.563e-42 6.506e-42 5.8741e-41 -5.8344e-41
-6.4037e-41 6.1489e-41 9.8891e-41 8.0306e-41 -6.9474e-41 2.5581e-41 4.8135e-41 5.668e-42
00000000: a84c 0080 611f 0000 e309 0080 5143 0000
00000010: 1751 0000 0b78 0000 43b0 0080 dd66 0000
00000020: fbae 0080 a5eb 0080 0925 0000 aad7 0000
00000030: 802d 0080 d282 0080 a5c2 0000 2ed1 0080
00000040: 2b5f 0000 8143 0080 0920 0000 420a 0000
00000050: 1515 0080 2312 0000 bfa3 0000 a4a2 0080
00000060: 82b2 0080 68ab 0000 ab13 0100 dcdf 0000
00000070: aac1 0080 4f47 0000 2e86 0000 cd0f 0000

e_conv4.point_conv.weight f4 [32, 32, 1, 1]
8.653e-41 -9.4264e-41 -1.9629e-40 -8.19e-41 -4.2007e-41 9.456e-42 -1.43497e-40 -4.0947e-41
6.3002e-41 -1.16072e-40 -2.4803e-41 1.7673e-41 -1.3392e-41 -6.453e-41 1.05968e-40 -8.5364e-41
-1.81206e-40 -5.8032e-41 1.17415e-40 1.42945e-40 -2.58e-43 4.3719e-41 9.1136e-41 -5.4398e-41
-8.14e-43 1.21176e-40 -7.7824e-41 1.65443e-40 6.1488e-41 1.547e-42 -6.8239e-41 -4.595e-42
-1.13839e-40 7.0986e-41 1.02627e-40 2.47e-41 7.432e-41 6.204e-41 -7.8745e-41 -1.01282e-40
9.2013e-41 7.0478e-41 -1.33793e-40 1.38368e-40 -9.4721e-41 2.0773e-41 7.4415e-41 8.5454e-41
1.3983e-40 3.87e-43 7.6877e-41 2.915e-41 -1.00762e-40 -1.28315e-40 -7.0019e-41 -1.0464e-40
1.74956e-40 5.6911e-41 -3.8695e-41 8.3344e-41 -5.1545e-41 -8.7039e-41 -1.2055e-41 -5.4966e-41
6.0861e-41 2.7831e-41 -3.431e-41 6.0474e-41 -9.8623e-41 -7.8328e-41 -4.9457e-41 -1.1492e-41
-2.3535e-41 2.7793e-41 -2.2967e-41 1.0238e-40 1.04217e-40 -1.09509e-40 -1.3827e-41 -9.4586e-41
-6.9162e-41 -3.107e-42 6.135e-42 1.05864e-40 4.3089e-41 8.9959e-41 -4.2976e-41 1.42331e-40
-5.7299e-41 -8.5156e-41 -5.1582e-41 7.7993e-41 -1.1294e-41 -8.856e-41 1.7974e-41 -7.8823e-41
5.9569e-41 8.003e-42 5.0707e-41 -6.0711e-41 1.28126e-40 -6.6929e-41 -9.309e-42 -9.9527e-41
-2.9462e-41 1.6988e-41 1.0951e-41 -7.9559e-41 -5.0793e-41 3.4487e-41 2.9612e-41 -1.9191e-41
8.154e-41 -3.5676e-41 4.6359e-41 4.0433e-41 2.4018e-41 -2.466e-41 8.6155e-41 5.2163e-41
2.559e-42 -9.1523e-41 7.1625e-41 8.7044e-41 6.6514e-41 2.8797e-41 6.8797e-41 -5.2483e-41
-9.9417e-41 -8.5e-42 -3.857e-41 1.506e-41 -4.991e-41 -7.7534e-41 3.6435e-41 9.6877e-41
7.5618e-41 -1.497e-42 -9.082e-42 5.017e-42 -8.6534e-41 2.1929e-41 1.4216e-41 5.079e-41
-2.0507e-41 -3.5666e-41 -1.33079e-40 -7.438e-41 5.44e-42 -3.5844e-41 6.2841e-41 -5.4136e-41
-2.339e-42 7.8477e-41 -1.18589e-40 1.06731e-40 7.9526e-41 1.8276e-41 9.089e-41 -4.742e-41
-4.5692e-41 4.6911e-41 8.7016e-41 1.33318e-40 3.0536e-41 3.844e-41 -1.02952e-40 -5.9003e-41
9.2008e-41 1.06209e-40 7.2181e-41 -5.2779e-41 1.01911e-40 2.9828e-41 3.662e-41 7.9648e-41
2.1853e-41 -8.6718e-41 1.42048e-40 4.0786e-41 -7.5003e-41 -8.2316e-41 -1.9781e-41 -8.6567e-41
6.6825e-41 4.3297e-41 -2.7044e-41 -3.3326e-41 -1.7146e-41 -8.314e-42 -4.0792e-41 -1.49178e-40
2.284e-42 -4.9281e-41 -7.3012e-41 8.5412e-41 1.29282e-40 -6.2767e-41 -4.4152e-41 5.8776e-41
-1.649e-41 1.65569e-40 1.0668e-41 7.3738e-41 3.3955e-41 4.912e-41 -7.9333e-41 8.5787e-41
8.0708e-41 -3.4228e-41 -4.4364e-41 4.0719e-41 4.8751e-41 2.8652e-41 -1.1754e-40 8.4858e-41
3.2869e-41 7.4361e-41 8.1095e-41 8.9886e-41 -2.783e-41 4.4622e-41 -2.9328e-41 -5.7317e-41
7.1672e-41 -9.4338e-41 1.6314e-41 8.7997e-41 -1.05755e-40 8.2361e-41 -1.2906e-40 4.1321e-41
7.2126e-41 7.2729e-41 -4.506e-41 -6.1741e-41 7.7042e-41 1.3758e-41 -9.244e-41 7.4057e-41
-9.7299e-41 -2.0403e-41 5.8022e-41 -8.1146e-41 -4.7898e-41 -7.6176e-41 5.11e-41 -1.39663e-40
-5.2877e-41 8.5775e-41 1.258e-41 1.16353e-40 8.137e-41 -2.2603e-41 -7.7345e-41 9.8443e-41
00000000: 36f1 0000 c506 0180 2d23 0280 4ee4 0080
00000010: 1975 0080 5c1a 0000 0390 0180 2572 0080
00000020: a0af 0000 9043 0180 2445 0080 4431 0000
00000030: 5525 0080 e2b3 0080 6527 0100 f6ed 0080
00000040: 21f9 0180 c5a1 0080 4e47 0100 798e 0100
00000050: b800 0080 df79 0000 0dfe 0000 a497 0080
00000060: 4502 0080 ca51 0100 f1d8 0080 30cd 0100
00000070: 67ab 0000 5004 0000 39be 0080 cf0c 0080
00000080: 563d 0180 e1c5 0000 151e 0100 db44 0000
00000090: 2dcf 0000 f1ac 0000 82db 0080 551a 0180
000000a0: 7f00 0100 77c4 0000 f674 0180 b781 0100
000000b0: 0b08 0180 e839 0000 70cf 0000 36ee 0000
000000c0: ca85 0100 1401 0000 4dd6 0000 4251 0000
000000d0: e218 0180 b165 0180 2fc3 0080 b223 0180
000000e0: b5e7 0100 a59e 0000 de6b 0080 54e8 0000
000000f0: b08f 0080 a1f2 0080 9b21 0080 3999 0080
00000100: a8a9 0000 954d 0000 a45f 0080 94a8 0000
00000110: ec12 0180 59da 0080 de89 0080 0920 0080
00000120: 9b41 0080 7a4d 0000 0640 0080 651d 0100
00000130: 8422 0100 4431 0180 8b26 0080 ab07 0180
00000140: ccc0 0080 a908 0080 1a11 0000 1b27 0100
00000150: 1d78 0000 c5fa 0000 cd77 0080 c38c 0100
00000160: ba9f 0080 61ed 0080 ca8f 0080 6ad9 0000
00000170: 7c1f 0080 dff6 0080 1b32 0000 badb 0080
00000180: 0ea6 0000 4f16 0000 5a8d 0000 3da9 0080
00000190: 2a65 0100 92ba 0080 f319 0080 7115 0180
000001a0: 2152 0080 5b2f 0000 871e 0000 c7dd 0080
000001b0: 978d 0080 2360 0000 8c52 0000 7f35 0080
000001c0: 4de3 0000 7363 0080 3b81 0000 b670 0000
000001d0: f442 0000 be44 0080 2af0 0000 6991 0000
000001e0: 2207 0000 21ff 0080 a9c7 0000 a5f2 0000
000001f0: 6ab9 0000 4650 0000 c7bf 0000 4d92 0080
00000200: 2215 0180 b217 0080 846b 0080 fb29 0000
00000210: 218b 0080 22d8 0080 9165 0000 0e0e 0100
00000220: cbd2 0000 2c04 0080 5119 0080 fc0d 0000
00000230: 39f1 0080 213d 0000 a127 0000 958d 0000
00000240: 2a39 0080 6c63 0080 f872 0180 57cf 0080
00000250: 2a0f 0000 eb63 0080 2daf 0000 e996 0080
00000260: 8506 0080 c3da 0000 944a 0180 8629 0100
00000270: b0dd 0000 f232 0000 5dfd 0000 3084 0080
00000280: 5f7f 0080 c582 0000 91f2 0000 a373 0100
00000290: 1f55 0000 286b 0000 fd1e 0180 7aa4 0080
000002a0: 7b00 0100 1128 0100 36c9 0000 2093 0080
000002b0: 161c 0100 2653 0000 1566 0000 07de 0000
000002c0: eb3c 0000 bcf1 0080 f98b 0100 b271 0000
000002d0: 14d1 0080 77e5 0080 2437 0080 50f1 0080
000002e0: 48ba 0000 b278 0000 634b 0080 e65c 0080
000002f0: cc2f 0080 2d17 0080 b671 0080 d99f 0180
00000300: 5e06 0000 6089 0080 87cb 0080 18ee 0000
00000310: 6368 0100 f8ae 0080 147b 0080 d8a3 0000
00000320: f82d 0080 8acd 0100 bd1d 0000 8dcd 0000
00000330: a75e 0000 ed88 0000 26dd 0080 24ef 0000
00000340: fbe0 0000 6a5f 0080 ab7b 0080 8271 0000
00000350: e687 0000 df4f 0000 a747 0180 8dec 0000
00000360: a05b 0000 4acf 0000 0fe2 0000 91fa 0000
00000370: 944d 0080 637c 0000 c151 0080 c79f 0080
00000380: cbc7 0000 fa06 0180 7a2d 0000 4df5 0000
00000390: cd26 0180 97e5 0000 c467 0180 3073 0000
000003a0: 0fc9 0000 bdca 0000 9c7d 0080 1cac 0080
000003b0: c3d6 0000 5a26 0000 af01 0180 71ce 0000
000003c0: 3b0f 0180 e038 0080 bea1 0000 34e2 0080
000003d0: 8585 0080 59d4 0080 728e 0000 5385 0180
000003e0: 6693 0080 1bef 0000 1123 0000 5844 0100
000003f0: d4e2 0000 023f 0080 9bd7 0080 6b12 0100

e_conv4.point_conv.bias f4 [32]
5.1814e-41 6.8355e-41 -2.6874e-41 -5.534e-41 -9.7292e-41 3.6764e-41 -1.3049e-41 -8.8692e-41
-7.0306e-41 -1.0354e-40 -1.69337e-40 3.3798554e-15 1.7714e-41 9.1878e-41 8.5967e-41 3.087e-42
-1.3511e-40 -1.2812e-41 -4.8521e-41 -5.1349e-41 -4.434e-41 -8.4162e-41 -2.997e-41 -1.4097e-41
2.604e-41 -9.297e-41 -3.4357e-41 7.7432e-41 4.8053e-41 -8.731e-42 -1.35427e-40 8.1638e-41
00000000: 7090 0000 8cbe 0000 ea4a 0080 449a 0080
00000010: 360f 0180 7c66 0000 6024 0080 3df7 0080
00000020: fcc3 0080 a120 0180 0bd8 0180 548b 7327
00000030: 6131 0000 1e00 0100 a4ef 0000 9b08 0000
00000040: a278 0180 b723 0080 4287 0080 248f 0080
00000050: 9a7b 0080 9cea 0080 8b53 0080 4c27 0080
00000060: 9748 0000 2a03 0180 c65f 0080 d9d7 0000
00000070: f485 0000 5718 0080 8479 0180 93e3 0000
