Zero-DCE++/snapshots_Zero_DCE++/Epoch32.pth (torch, 51217 bytes, 28 tensors)

e_conv1.depth_conv.weight f4 [3, 1, 3, 3]
00000000: 260e a8be 6c9f 0fbe a1f5 473d 085c 31be
00000010: 8a2e 003e b02b de3d 4409 c5be 5800 07be
00000020: 2897 48bd e919 2c3e 7dea ef3d 2f68 913e
00000030: 5523 363e d27c 07bc 90aa 5e3e 3ee4 d23d
00000040: 3c39 04bd 4abe 3a3e 2915 09bd 6c65 7abd
00000050: 4ed3 07be dcd0 89bd 7541 e8bd af63 0cbe
00000060: ce65 35bd 6b86 3cbe c57e aebe
-0.32823294 -0.14025658 0.048818234 -0.17320263 0.12517753 0.108481765 -0.38483632 -0.13183725
-0.04897228 0.16806759 0.11714647 0.28399798 0.17786916 -0.008269506 0.21744752 0.1029744
-0.032281145 0.18236652 -0.033467446 -0.06113188 -0.132642 -0.0672929 -0.1134061 -0.13709901
-0.04428654 -0.18410651 -0.34081092

e_conv1.depth_conv.bias f4 [3]
00000000: 93b1 953d 39db a13e 26f1 18bd
0.0730926 0.31612566 -0.037339352

e_conv1.point_conv.weight f4 [32, 3, 1, 1]
00000000: d73d 4d3c 5e4c 863e 0e75 cd3d 7eb3 0000
00000010: f4d0 66ab 9f3e 5e33 ef16 f537 6e23 f5bb
00000020: d257 1fba 3fd6 b83d 16b9 08bf 2cac e73d
00000030: a53f 5c3b a7c2 02ba 1d97 2938 40c4 06be
00000040: ce4c 093e 42aa e83e 5941 a43d fd21 853e
00000050: 71ed 9fbe 8823 0080 387a 0000 e62b 0100
00000060: fec3 833d a8a1 27bd 00f9 b23c 1bc8 a03d
00000070: 482b 2ebd c7d2 04be 8bb6 b83e a00b 0ebf
00000080: 0040 d03e f607 cb3c a6e4 a4bd 4826 4e3d
00000090: 4e8e 173e ca55 dabe 5082 0fbe bd93 99bd
000000a0: 3028 0cbe 51ce e73d 5a7e dd39 25b3 98b6
000000b0: 4a74 d9a1 6531 0c3d 5522 bd3e cbc6 b33e
000000c0: 1550 61be 2c8a a83e 7a0e d3be 4fac 3a25
000000d0: fd6f 8a22 df69 de3a bb6d d03c dbc3 a13b
000000e0: e533 a5bd ce42 d73a fe4f 7db4 47c9 c635
000000f0: d26b 14bf 4de1 acbd cc47 c9be 34df 5732
00000100: cb0c 0000 e628 7a2b ee24 c6bb 8ae5 ce3b
00000110: adbf bd3d 5486 0080 f8ce b93a 3e23 e714
00000120: 3a0e 802c dc5e 0080 5bf5 9937 8315 88a9
00000130: b605 d6ba a1f9 bd3b fed4 2514 9288 0ebc
00000140: 31a2 0000 d41f b33e 00e2 18be 20d9 bbbe
00000150: f010 b23c 63b3 c6be 289c 0bbe d2fe 0080
00000160: 161b 78ab b3d2 6429 0494 953e 044c cb3c
00000170: 2321 21bd 7898 8dbe 0693 c33e dc45 c8be
0.012526951 0.2623014 0.10032092 6.439e-41 -8.2002395e-13 5.1745356e-08 2.9216955e-05 -0.00748103
-0.0006078455 0.09025239 -0.5340742 0.11312136 0.003360727 -0.0004988112 4.0433475e-05 -0.13160801
0.13408205 0.45442396 0.080202766 0.26002494 -0.3123584 -1.2746e-41 4.3844e-41 1.07583e-40
0.06433867 -0.04092565 0.021847248 0.07850667 -0.042521745 -0.1297103 0.3607677 -0.5548649
0.40673828 0.02478407 -0.08051424 0.050329477 0.14800379 -0.42643577 -0.14014554 -0.07498882
-0.13687205 0.113186486 0.00042246544 -4.550808e-06 -1.4735273e-18 0.034226794 0.36940256 0.35112604
-0.22003205 0.32917917 -0.41221982 1.6191309e-16 3.7523547e-18 0.0016968808 0.025442949 0.004936678
-0.08066539 0.0016423108 -2.3591562e-07 1.4810729e-06 -0.5797702 -0.0844141 -0.3931259 1.2565398e-08
4.589e-42 8.88746e-13 -0.006046883 0.0063139843 0.09265075 -4.8188e-41 0.0014176061 2.333894e-26
3.6395583e-12 -3.4029e-41 1.8353274e-05 -6.043345e-14 -0.0016328606 0.0057975804 8.3723765e-27 -0.008699553
5.8183e-41 0.3498522 -0.14929962 -0.3668909 0.021736592 -0.38808736 -0.13633788 -9.1412e-41
-8.814489e-13 5.0808922e-14 0.2921449 0.02481652 -0.039338242 -0.27655387 0.38198107 -0.39115798

e_conv1.point_conv.bias f4 [32]
00000000: 835f 25be ce95 98ae 7be0 00bb fae0 113f
00000010: 6475 3bb9 b927 8e3d 6871 9c3e be83 0fb9
00000020: a9bc 053d 9d0f 95bc 501a d53e 1ae7 ed3e
00000030: c8d7 ab3e 9511 9a3e fb6b 15bb 7def 083f
00000040: 5bbd babd 9300 79b1 9820 9dbd b8a8 86b9
00000050: 42ae d23e 56d8 01b2 184b bf3e 1a35 edbb
00000060: 2c7c 17b2 de41 0080 b432 00bc cf36 ac3e
00000070: a5a2 fd3d 1b0c b2bb 22e5 fe3e 51a8 c6bd
-0.16149716 -6.9387704e-11 -0.001966505 0.5698391 -0.00017877441 0.0694117 0.30555272 -0.0001368662
0.032650623 -0.018195922 0.41621637 0.4646538 0.33563066 0.3009154 -0.0022799957 0.5349043
-0.09118148 -3.6234595e-09 -0.076722324 -0.00025684177 0.41148573 -7.557977e-09 0.3736198 -0.007238996
-8.81759e-09 -2.3629e-41 -0.007824589 0.33635566 0.123845376 -0.005433572 0.4978419 -0.097000726

e_conv2.depth_conv.weight f4 [32, 1, 3, 3]
00000000: 8f5d 60bd cfe4 57bd 4d56 3dbd 2553 fbbc
00000010: c9fa 0dbd e383 bebc cf4d ffbc 6262 11bd
00000020: 37fe dfbc dd51 581b 0cca 8295 7342 0000
00000030: 2df6 87ac b06a 0000 0bb0 2287 5144 0080
00000040: 9bf0 0000 a205 9230 bd53 5814 c8d1 3d08
00000050: 38e5 a6ae 8976 f532 8326 ea2f ad43 0080
00000060: b302 51a0 49ab 0000 92d2 0000 3e7a 99be
00000070: 05c6 8fbe 331a aebd b131 b6bd e32c 203e
00000080: 0ea9 943e fbf6 8b3e 47c8 2fbc 61da e53e
00000090: 5fa5 1434 69f3 12b1 671e 46b5 76ab c7af
000000a0: 43b5 66b2 2389 82b1 75f5 0636 3482 b9b2
000000b0: 48d0 e1b0 650a 06bd 66e2 4f3d 6fbd 8cbd
000000c0: 8855 9c3d 87c4 593e 9eb3 3dbd 73dc 24bd
000000d0: efe2 b03b f3fd 3dbe e5b1 c83d 3f71 13bb
000000e0: db97 69be ba7b 653d 96b1 293e 9643 c2bd
000000f0: 95a5 2dbd 73b1 82bb 2432 a1be 3265 2a2e
00000100: fcd9 1d28 42dc 43a0 1b8f 1d2a 8f0f 0000
00000110: 7a69 d4b2 f98d e425 35a4 33ac 81f7 eeb0
00000120: 98b6 4f3b 2dee 25bb dd47 bcbb e559 84bb
00000130: 72d4 adbb dcd9 2cbb 6557 debb 9d56 50bb
00000140: c0f1 a43b f494 9c3b 4da9 d439 632b 88bc
00000150: 5de8 563c a16e d03b 5aa6 14bc be22 013c
00000160: b7fa 9f3a 3ef5 0cbc a586 a03e f1d0 983e
00000170: 9e27 713e 02f3 973e faff 7bbc ff7a b33e
00000180: 24bd 913e 86ef 993d f923 643d 2a28 5d3e
00000190: 5174 67be 34fc 063e f90d 8d3d fc0f 6ebe
000001a0: 4b7f 1ebe f563 853e bc0e 643d 441a 0f3e
000001b0: 1077 ae3e c4fb e03d 5a13 4a3e b4a5 913e
000001c0: 83b5 583e ec59 d83d c431 953e e524 3f3e
000001d0: eb18 86bd 16a7 a43a 4491 df3c 577a 4a3d
000001e0: 8f52 da3d 453a 11be db36 4c3e 5b95 f1bd
000001f0: c7f9 093d 8001 be3e 2574 fbaf ebd5 40a7
00000200: f637 0220 2109 0000 b068 412c 723f 0000
00000210: 5d85 8c29 d36e 0000 9a43 5e1c eec4 a8bd
00000220: 9d20 2a3e e595 25be ca4d ff3d 1b42 663e
00000230: da00 5b3e 8b58 29be 39cd 8bbd 332e 8fbd
00000240: efff e33d 628e 873e 057d b53e fc62 083e
00000250: 4e69 923d 5214 093e e176 37be 0912 57bd
00000260: 5131 35be 8e28 7f28 81c2 0080 a927 0180
00000270: 6b08 0000 4f93 0080 64d2 0000 4b02 9c00
00000280: daef 0704 5464 ce2e 80b2 feab 9349 88b2
00000290: 515e 522b c634 21ad 9abc a5b2 4270 a531
000002a0: aada 29ad 10d6 c42e fe8d a5b0 fa52 16b0
000002b0: c98f 832f e941 f52e f2a4 3732 9c17 ab32
000002c0: 1d94 e5af 625b f732 e218 6c33 bb47 d4ad
000002d0: 6fef 29bd 8695 843e 4442 57be a5ee a4be
000002e0: e0cc 6fbc 30b3 803d a627 8fbe adb2 84be
000002f0: fe56 90be 0336 0080 776b 0000 160b d6b2
00000300: e8bd 319d b070 dc13 ff5c 1e32 aa43 0000
00000310: a0cf 6b99 1743 0080 f3ce 5abd 5098 0fbe
00000320: daf1 e83d 52f9 dabd e883 09be 0886 ae3c
00000330: 2968 28bd 4a6c 03be 053c 07bc 8952 0080
00000340: 15a0 0080 d3d5 0080 88c0 0000 f1a8 68a7
00000350: cd23 0080 0b76 668f 1fa8 0080 c94d 0000
00000360: 4f03 0000 e33e 0000 fbf5 221a 9874 0000
00000370: b346 6780 fcb3 0080 682f 0000 e43e 0000
00000380: ef82 0000 9ac0 f0b2 3f98 0080 7d2a 0000
00000390: 7850 f5af 9ea3 0080 5663 d0b2 df89 e091
000003a0: 1b50 0000 25b1 0080 58b2 0080 4f87 34a6
000003b0: a192 0e30 cfb6 bda8 6373 0000 c7ba 0080
000003c0: e242 42b1 4f7a 0080 0f43 0100 28ab 9d3e
000003d0: e79d ebbc 1b5c c43c cb31 593c c508 df3d
000003e0: 0cd6 b23d 323b f63c 2c77 36bd f110 59bb
000003f0: 33e6 9039 26b1 7139 59ba 1fb8 9176 87b9
-0.054776724 -0.052708443 -0.04622488 -0.030679295 -0.034662995 -0.023256248 -0.031165032 -0.035494216
-0.027342899 1.7893553e-22 -5.2825356e-26 2.3837e-41 -3.8642618e-12 3.8272e-41 -1.223926e-34 -2.4507e-41
8.6313e-41 1.0624499e-09 1.0921728e-26 5.7121715e-34 -7.5895235e-11 2.8575657e-08 4.2591716e-10 -2.4277e-41
-1.7703882e-19 6.1446e-41 7.5538e-41 -0.29976076 -0.28080764 -0.08501091 -0.08896197 0.15642123
0.29035228 0.2733687 -0.010728902 0.44893172 1.3843736e-07 -2.1384159e-09 -7.380499e-07 -3.631972e-10
-1.3428976e-08 -3.7990886e-09 2.011043e-06 -2.1596044e-08 -1.6430102e-09 -0.032724757 0.05075302 -0.06872069
0.07633501 0.21266375 -0.046313874 -0.0402493 0.0053981463 -0.18553905 0.09799556 -0.002249792
-0.22811835 0.056026198 0.1657165 -0.09485547 -0.04239424 -0.0039884388 -0.31483567 3.8743404e-11
8.7625186e-15 -1.659002e-19 1.3994051e-13 5.581e-42 -2.4728013e-08 3.96479e-16 -2.5528583e-12 -1.7387124e-09
0.0031694528 -0.0025318966 -0.0057458715 -0.0040390366 -0.0053048665 -0.0026374971 -0.0067853206 -0.0031789907
0.0050337017 0.004778499 0.0004056193 -0.01662225 0.013116923 0.0063608442 -0.009072864 0.007881818
0.0012205456 -0.008603392 0.31352726 0.2984691 0.23550269 0.29677588 -0.015380854 0.35054776
0.28464615 0.075163886 0.05569837 0.21597353 -0.22602965 0.13182145 0.06887431 -0.23248285
-0.15478246 0.26052824 0.055678114 0.13974863 0.34075212 0.109855205 0.19733945 0.28446734
0.21162991 0.10564026 0.2913953 0.18666418 -0.065477215 0.0012562003 0.027290948 0.04943308
0.10660278 -0.14182384 0.199428 -0.117960654 0.03368547 0.3711052 -4.573916e-10 -2.6761318e-15
1.1029944e-19 3.275e-42 2.7485063e-12 2.276e-41 6.240384e-14 3.9756e-41 7.354101e-22 -0.08240686
0.16614003 -0.16170461 0.12466009 0.22486155 0.21387044 -0.16537683 -0.068262525 -0.06991234
0.111328 0.26475817 0.35446945 0.1331901 0.071489915 0.13386658 -0.17916442 -0.052507434
-0.17694594 1.41641375e-14 -6.9775e-41 -1.06063e-40 3.02e-42 -5.2844e-41 7.5474e-41 1.432716e-38
1.5979308e-36 9.385617e-11 -1.8097329e-12 -1.5865941e-08 7.473788e-13 -9.1635085e-12 -1.9294294e-08 4.8148943e-09
-9.655091e-12 8.951073e-11 -1.2045687e-09 -5.46876e-10 2.3930927e-10 1.1153018e-10 1.0689506e-08 1.9917756e-08
-4.1760098e-10 2.879614e-08 5.4970663e-08 -2.4133464e-11 -0.041488107 0.25895327 -0.21021372 -0.3221332
-0.014636248 0.06284177 -0.27959937 -0.2591757 -0.2819137 -1.9376e-41 3.8551e-41 -2.491792e-08
-2.3523934e-21 5.5646926e-27 9.217955e-09 2.4273e-41 -1.2191145e-23 -2.4067e-41 -0.05342002 -0.14022946
0.113742545 -0.10692085 -0.13429224 0.021304145 -0.04111496 -0.12834278 -0.008254056 -2.9608e-41
-5.7427e-41 -7.6706e-41 6.9067e-41 -3.228805e-15 -1.2843e-41 -1.136261e-29 -6.031e-41 2.7904e-41
1.187e-42 2.256e-41 3.3699516e-23 4.1826e-41 -9.484418e-39 -6.4566e-41 1.7006e-41 2.2561e-41
4.697e-41 -2.8027262e-08 -5.4616e-41 1.5242e-41 -4.4622417e-10 -5.8695e-41 -2.425956e-08 -3.5425938e-28
2.8736e-41 -6.3547e-41 -6.3978e-41 -6.263342e-16 5.186767e-10 -2.1062496e-14 4.1393e-41 -6.7003e-41
-2.8268734e-09 -4.3876e-41 1.15892e-40 0.30794644 -0.028761817 0.0239697 0.0132565005 0.108903445
0.087322325 0.030057523 -0.044547245 -0.003312167 0.00027637332 0.00023049544 -3.8082104e-05 -0.00025837545

e_conv2.depth_conv.bias f4 [32]
00000000: e0d6 d43d 71e7 20be b80e b13c 4e25 59bd
00000010: 51c1 4dbe 1809 603e 7211 293c acee 213e
00000020: 7037 943e 30ab 84be 72a2 f73b 6176 b2bd
00000030: 6061 6ebe 5b34 5bbd 59cb 2d3e 7e6f 633e
00000040: 1553 4a3e ec24 3ebd fe24 e8ae 6820 433e
00000050: 67a8 8b3e f45b 4c3e 9c73 fabd c744 6d3e
00000060: 8e93 c6bd e842 2bbd c376 bf3d ac23 75be
00000070: 10ee f8bd d42e 38be 6066 a8bd 1d34 9b3e
0.10392547 -0.15713288 0.021613464 -0.053014092 -0.20093276 0.21878469 0.010319101 0.15813702
0.28948545 -0.25911856 0.007557207 -0.08713985 -0.23279333 -0.053516727 0.16972102 0.222105
0.19758256 -0.04642193 -1.055671e-10 0.19055331 0.27276918 0.19956952 -0.12229082 0.23170768
-0.096961126 -0.041811854 0.09348824 -0.23939389 -0.12154782 -0.17986614 -0.082226515 0.30313197

e_conv2.point_conv.weight f4 [32, 32, 1, 1]
00000000: 257f c0bc 2bc9 bcbc 7422 6ebb 2eab e53d
00000010: 81e4 513c cbdf 74bd b37e 1c3d 8f74 01bd
00000020: 4438 80bd cd74 ea3b 166b 633d 24ed ff3d
00000030: 35b7 053e 8ddd 863c e0c0 1ebc 4cdb ebbd
00000040: 5f31 533d c8c1 033b dd6f 0e2e 758f 7bbd
00000050: d6b3 5c3e 250f 163d 4eee 6f3d b190 8dbd
00000060: 23a9 ebbb bbd7 e93b 4ee4 a1bc 6aeb 553d
00000070: 1c66 cf3c 6164 043d 948f 1ebe 2571 b7bd
00000080: 9f75 8e3d d3ed e8bd a582 653c 6459 4cbe
00000090: 7cc8 093d 6005 043e f817 8f3c 5ec7 b93c
000000a0: c533 c93d fd42 d4bd b89d 873e a2a8 14bb
000000b0: aca3 463e 1996 5f3d 9805 bcbc bc9a 283e
000000c0: 582d bb3d 6b56 8bbc 1b3c be2f eb78 adbc
000000d0: 73a6 d13d 48bc 663d ef31 413d 34bc 0b3e
000000e0: 2dab 4dbc 0c9b c4bc a636 35bd 2b8b f33d
000000f0: aa82 04be 273a fabc 2c43 6bbe d49e 063e
00000100: 1cf6 0fbb 03e7 d13b 2104 e7ba 4021 9e3e
00000110: e0b2 bb3c 03f9 0e3d 4f22 2e3d 07e4 a7bc
00000120: b057 63bd e6eb 5fbd 210e 0dbe 7cf1 e73c
00000130: 58d1 76be c1e0 3f3d e2e4 18bd e4a7 b03c
00000140: c661 be3d 32e1 c0bb a6dc 59ae 06e3 a33c
00000150: e32c b0bd c7dc b53b b769 d0bb 26db a23d
00000160: 7e09 41bb b4b0 2b3b 623a a43c baf7 1ebe
00000170: 4142 77bc 1ec2 46bd fa9b a43d fc31 febc
00000180: 3ccf 0080 2766 0080 fc56 0180 6d50 0080
00000190: efaa 0000 ef60 0000 d7f7 0000 cb89 0080
000001a0: 243f 8d88 67bd 0080 d1ce 0000 1958 0000
000001b0: 52ab 0000 25a7 0080 b097 0080 8d50 0f80
000001c0: 036b 0000 e8c8 0000 7389 0000 3dc3 0180
000001d0: 6964 0000 b940 0000 b115 0000 6df6 0000
000001e0: 5ebd 0000 c70d 0080 c7e0 0000 6b1d 0080
000001f0: 0908 0000 8ca7 0000 8279 0080 9d01 0080
00000200: 792d ea3b c579 a83c 7e2c 663b decd 97bd
00000210: 02b3 243d 4d03 e33d ab11 23be 2030 243a
00000220: c50c e8bc d58e 15bd 9af7 cfbd 7463 0dbd
00000230: b00b a4bd 83bf 55bd 3c47 873c 437f 2d3e
00000240: 15d5 b3bb 0921 57bc b8a9 bb2d a84c 3d3d
00000250: a687 dbba 8302 90bc cf00 dfbb e7c5 f9bc
00000260: 2c5e c7bc bc58 07bc 39f9 b23c 1a8c 6d3c
00000270: dbf6 74bc 6584 2fbd 6514 3b3d 83ed 5cbd
00000280: bb66 8f3c e364 a6bc 2675 4f3b aeb0 26be
00000290: 63e0 c9bc 8855 023d a2f5 bc3d 8349 a93c
000002a0: d0f8 ee3c f682 eabc 61ee 033e 0261 19bd
000002b0: 359d de3d 4c65 f8bc c3a1 b33c 9615 f33c
000002c0: ab21 2cbc 7d0d e9bb 02fe 9c2e f0c4 8e3c
000002d0: c311 bd3d adf2 d53c def8 fcbc 74af b03c
000002e0: 45e8 5dbc 864f cebb a92f 653c 6d68 5f3d
000002f0: 0c89 83bc 9d78 b9bc 591a 8fba fccc 0e3e
00000300: 4b6b 703b da88 c03c fea0 2739 0c51 513e
00000310: c13a cfbc 2c7d 43be 5461 443e d7a4 5c3c
00000320: df9d bb3a e157 37bd e640 c53e 8cf2 753e
00000330: 064c 353e 6698 7a3e 2cc3 923c 5e1e bcbd
00000340: d362 203e 3cad a3ba 4d5f 7630 a356 123d
00000350: 02b1 67bd 4bc3 eb3c a99f 363d 7d2f 7f3c
00000360: 7cd1 443b 30fa aaba 94e1 803c 66c4 953d
00000370: 488e a5bb 801a a63c 928b 2ebe 0052 233e
00000380: 62fb 442f f7f6 762f dfe5 f2ad 8c69 5bad
00000390: f75f 02b0 1f43 b6af 3007 522f 0f81 93ae
000003a0: 9571 e0af 5eb8 1cb0 2d9f 6faf 0814 1cad
000003b0: db70 c8ad 7204 852e 91cf 83af bc8d ef2f
000003c0: 661f 7caf 718c 3c2f 6630 4121 740a 93af
000003d0: 0bc6 02af 381c 82af 1291 f9af 3627 96af
000003e0: 51ab 022f c972 6c2e 1b90 f3ae 3b7e bd2f
000003f0: ecef 222f e38c 842f 2766 a030 9f35 942e
-0.023498127 -0.023045143 -0.0036336454 0.112142906 0.012810827 -0.059783738 0.038206767 -0.0316053
-0.06260732 0.007155037 0.055522047 0.12496403 0.13058169 0.016463066 -0.00968954 -0.11516437
0.051560756 0.0020104516 3.2386416e-11 -0.06141611 0.21552977 0.036635537 0.058576874 -0.06912363
-0.0071917935 0.007136313 -0.019762184 0.05222646 0.025317244 0.03232229 -0.15484458 -0.089571275
0.06956028 -0.11373486 0.014008199 -0.19955975 0.033638462 0.12892675 0.017467484 0.022678073
0.098243274 -0.103643395 0.26487517 -0.002268352 0.19398373 0.054586504 -0.022951886 0.16465276
0.09139508 -0.01700898 3.4603506e-10 -0.021175822 0.10236826 0.056331903 0.04716676 0.13646013
-0.0125530185 -0.023999713 -0.04424157 0.118917786 -0.1294047 -0.030545307 -0.22974843 0.13146526
-0.002196676 0.0064057126 -0.0017625132 0.30884743 0.022912443 0.034905445 0.042513188 -0.020494474
-0.055503547 -0.05466833 -0.13774921 0.02831339 -0.24103296 0.0468452 -0.037327655 0.021564431
0.092959926 -0.0058862204 -4.9536063e-11 0.020005714 -0.086023115 0.0055500004 -0.0063602584 0.079519555
-0.002945512 0.0026197853 0.02004737 -0.15524188 -0.01509148 -0.04852497 0.08037563 -0.031029694
-7.4342e-41 -3.6645e-41 -1.2304e-40 -2.8851e-41 6.132e-41 3.4773e-41 8.8908e-41 -4.9431e-41
-8.500973e-34 -6.7945e-41 7.4192e-41 3.1603e-41 6.1458e-41 -5.996e-41 -5.4415e-41 -1.406429e-39
3.8389e-41 7.2072e-41 4.9307e-41 -1.61874e-40 3.602e-41 2.3218e-41 7.781e-42 8.8401e-41
6.7932e-41 -4.942e-42 8.0635e-41 -1.0553e-41 2.882e-42 6.0104e-41 -4.3589e-41 -5.79e-43
0.007146534 0.020565877 0.0035121734 -0.07412313 0.040209778 0.11084614 -0.15924709 0.00062632747
-0.028326401 -0.03651317 -0.10154648 -0.034518674 -0.08010042 -0.052184593 0.01651346 0.16943078
-0.005488048 -0.013130435 2.1334809e-11 0.046215683 -0.00167488 -0.017579323 -0.0068055163 -0.030489875
-0.024336897 -0.008260902 0.021847354 0.014498735 -0.014951433 -0.04285087 0.045673747 -0.053937446
0.01750504 -0.020311778 0.003165552 -0.16278335 -0.024643129 0.03181985 0.09226538 0.020664936
0.029171377 -0.0286269 0.12883903 -0.03744603 0.108698286 -0.03032174 0.02192772 0.029673379
-0.010506074 -0.0071122036 7.1391795e-11 0.017427891 0.092319034 0.026116693 -0.030880388 0.021568038
-0.013544147 -0.006296101 0.013988414 0.054542948 -0.01605656 -0.02264052 -0.0010917886 0.13945383
0.0036685045 0.023502756 0.00015986335 0.20441073 -0.02529657 -0.19090718 0.19177753 0.013467035
0.0014314017 -0.044761542 0.38526076 0.24018306 0.17704782 0.24472198 0.01791533 -0.091854796
0.15662698 -0.0012487541 8.962971e-10 0.035727154 -0.056565292 0.028779646 0.044585858 0.015575287
0.003003209 -0.0013044532 0.015732564 0.07312851 -0.0050523616 0.020276308 -0.1704543 0.1594925
1.7915405e-10 2.2461309e-10 -2.7614298e-11 -1.2472145e-11 -4.74301e-10 -3.31533e-10 1.9101942e-10 -6.7077115e-11
-4.0826068e-10 -5.701447e-10 -2.1793474e-10 -8.872021e-12 -2.2787485e-11 6.0489294e-11 -2.3976246e-10 4.3574555e-10
-2.2930421e-10 1.7148395e-10 6.5455e-19 -2.6746572e-10 -1.189379e-10 -2.3666913e-10 -4.5395915e-10 -2.7312702e-10
1.1884295e-10 5.3762137e-11 -1.1075959e-10 3.4468592e-10 1.4819052e-10 2.4110766e-10 1.1670566e-09 6.739786e-11

e_conv2.point_conv.bias f4 [32]
00000000: ded7 c43d 68a0 7d3d 47ff c53d 1b9a 0080
00000010: b889 203e 47b9 9c3d 31d6 04bc 9cf1 eeaf
00000020: 9608 603d 54b6 003e 2b8f 9b3a 8c67 36bd
00000030: 79ff 053c 036d 443e 3f66 8f3d 4ed1 0000
00000040: 7302 d1b0 59d1 bb3c d5d9 0a3d e31a 0080
00000050: 1cfb 8fbd 107d 07bc 2fdd d43c 1989 9abb
00000060: f83e 4a3d 11d8 c2bc 28b1 343d 9e5b ddbd
00000070: 0bd0 92ad 2e5a 393c d9f1 633d 1976 cb3d
0.09611486 0.061920553 0.09667831 -5.5283e-41 0.15677536 0.07652526 -0.008107708 -4.3463622e-10
0.05469569 0.12569553 0.0011868229 -0.044532344 0.008178585 0.1918221 0.07001924 7.5084e-41
-1.5207448e-09 0.022926973 0.033899147 -9.645e-42 -0.07030317 -0.008269563 0.025984375 -0.0047160503
0.049376458 -0.02378467 0.044114262 -0.1080849 -1.6690668e-11 0.011313004 0.055650566 0.09934635

e_conv3.depth_conv.weight f4 [32, 1, 3, 3]
00000000: 9498 9818 6ed0 6a2a 98d1 b924 982b a431
00000010: 7375 b819 ff1c 432a b5dd 1f9a 0690 c599
00000020: f577 109a 702f 0ca6 ece1 ab9e 0ff5 2199
00000030: d6a6 351a 1a38 f199 ebff a530 3775 699b
00000040: ba60 909b 0da4 809c a174 64ab e35a f91c
00000050: 2065 731c 424a 4b9b 5427 ac1b b993 4b1c
00000060: 14d4 ffb2 f582 f7ab 9650 1428 528a 0000
00000070: 1567 ec1d c4c2 8423 ad8d 982e 9522 ac2f
00000080: 4cb2 1833 74ce 6e19 fe9a 0080 86e7 0bb3
00000090: 61e4 a91a 61b8 4926 0ac2 7119 33a8 02b2
000000a0: 647f 591b 4160 6132 0340 b09b ca3f 6f1b
000000b0: a710 241a 9ec7 959a fee3 439a 1010 869b
000000c0: 6df5 cdaf ed18 f119 b389 0c9a 2da4 7932
000000d0: ed51 4f1b 0931 821b a08a 871c e92b 591b
000000e0: 3841 951c fbc5 e0b1 3d5b 8a1b 4bf0 dd1b
000000f0: 5afe ba1a 7d29 801c c759 4b1b 3627 0000
00000100: e8d7 68a5 28a3 5d09 d809 7430 8242 8523
00000110: 01d0 e72c cf6f 0000 0579 0000 4e73 2020
00000120: 0e87 189e 8b33 3633 b423 e61b 6387 a7a4
00000130: 468c 0c2e 621f a51d 4ac7 499e 83f0 0a1d
00000140: dc4a 4e1d bb51 c69c e715 93b0 9c7b 0033
00000150: 8718 da9a 967e 699c 524f 882d 8643 179d
00000160: beb5 452e 7dc9 8f2e c6b8 5396 dc5a f915
00000170: 629c e295 d765 5030 3aa3 6715 3e55 e19a
00000180: 45f8 25ad 5cc5 6614 45e3 43b0 b5a3 f68e
00000190: 5eba 6b8e 1d79 058e 9242 940d 434b 880b
000001a0: 0008 4e10 09ed fa0d 0a47 370d cb8f 4429
000001b0: c1f9 531d 72b4 da9b 2cd2 8a9d 7488 40aa
000001c0: 646e a09c 2eea 29b3 f16a 399b be7b eb9d
000001d0: f9f6 121e 3f98 1022 4b98 f021 3b1e e828
000001e0: 0133 6c2a 6023 54a1 8309 43a1 9fa3 2d1f
000001f0: 2747 831f b085 0922 2b7d b71a f137 7bab
00000200: 26a9 f99e ecf5 e030 a657 e999 db49 541a
00000210: 9faa 711a 46f1 bb19 94a3 26a9 68e6 212c
00000220: f6c8 0080 11fc 6027 505e 0000 8c27 0000
00000230: b391 32ac 2033 0180 331c 33b1 fed1 2730
00000240: e35a db94 e454 64b3 2135 0130 252b b004
00000250: b7cf 2e11 2b9f e230 ca38 0c8c 552b 2fab
00000260: 15b6 95a3 36d7 b096 53d9 6898 00bd 6898
00000270: 6d0e 2418 4fba b6ab 8b12 d498 94a2 aa97
00000280: 3adb 0198 9f02 88af c4ec 9725 0547 891a
00000290: 75de 901a 8332 0799 27fd d730 038d 891a
000002a0: f7b5 129a 9885 3c9c 4515 cc1a 5872 0080
000002b0: 374a 0080 241a 0000 df2b 0080 2d80 0000
000002c0: 14ca 2eb2 d74c 0080 8b51 0080 6c8c 5199
000002d0: 8f2f 969d 6a26 ba1c d4b2 341c af4b 399b
000002e0: 6f5d 4d1d 5c43 48a7 9709 8827 d2ff 45b3
000002f0: 7ab8 9f1f b477 c7a1 d004 b320 b9d9 1e0d
00000300: 925e 398b 8ccb 268c 7f34 170c f827 788c
00000310: ce24 d623 94de 7a0d a551 7f1c 1be9 30ac
00000320: 5851 a41c 1209 0727 03cb b59b 60bf feae
00000330: 3fbe e41a 3ab6 a030 c5bf dea7 c4e0 69ae
00000340: c2d5 80a3 6fcc 311d a44e 0e33 5e02 b81b
00000350: 8eeb 332d 7679 eb1b 11f3 3b1b 46d1 701b
00000360: 8af0 5b1a ea46 acae c0a3 9230 85d7 2a1a
00000370: c16f e8ae bcc6 0b1a 0c93 1b1b 30d2 141b
00000380: 9387 ac9f a780 0718 e81b 7c19 c726 42a6
00000390: 5ead e216 e568 8b17 bb20 752f 2deb b897
000003a0: bdad 379f c160 6e98 c136 7099 c03f 7199
000003b0: 41b6 c799 4880 2799 1daa a498 7d95 0c9a
000003c0: 714d 34a4 bf33 a014 a91b 50b1 936f 5fac
000003d0: 0a67 2c9c c491 a19b 0d0c b3ab d924 81a5
000003e0: 0dd3 3932 f35c a99b cd7b 4e9c d74d 93b1
000003f0: b4d1 b031 41de 0080 bd24 7da5 8eca 5ba5
3.9445144e-24 2.0855689e-13 8.0586026e-17 4.7779842e-09 1.9072591e-23 1.7329539e-13 -3.3059523e-23 -2.0427493e-23
-2.9875403e-23 -4.8636547e-16 -1.8198768e-20 -8.372994e-24 3.7564692e-23 -2.4941475e-23 1.2078066e-09 -1.9311182e-22
-2.388531e-22 -8.512736e-22 -8.1163727e-13 1.6500931e-21 8.0532657e-22 -1.681576e-22 2.8480428e-22 6.7357993e-22
-2.9782349e-08 -1.7586753e-12 8.233125e-15 4.962e-41 6.2575264e-21 1.4393955e-17 6.9373264e-11 3.131119e-10
3.5552418e-08 1.23460045e-23 -5.5601e-41 -3.257403e-08 7.026573e-23 6.9985764e-16 1.2498594e-23 -7.60524e-09
1.7990981e-22 1.3118609e-08 -2.9158124e-22 1.9790228e-22 3.3927857e-23 -6.1947455e-23 -4.0509225e-23 -2.217882e-22
-3.7463668e-10 2.4928883e-23 -2.9062554e-23 1.4531037e-08 1.714911e-22 2.1538384e-22 8.969384e-22 1.7964007e-22
9.876852e-22 -6.541766e-09 2.2889146e-22 3.671667e-22 7.7338724e-23 8.481054e-22 1.6820775e-22 1.4066e-41
-2.0195944e-16 2.6678623e-33 8.878067e-10 1.4448056e-17 6.588508e-12 4.011e-41 4.3414e-41 1.3590678e-19
-8.074742e-21 4.2422055e-08 3.807338e-22 -7.265406e-17 3.1956902e-11 4.3707585e-21 -1.06820634e-20 1.838849e-21
2.7302574e-21 -1.3123668e-21 -1.0701883e-09 2.9914744e-08 -9.020231e-23 -7.725684e-22 1.5496635e-11 -2.0019592e-21
4.4954034e-11 6.5386786e-11 -1.7102748e-25 1.0071365e-25 -9.15274e-26 7.581468e-10 4.6778842e-26 -9.3195535e-23
-9.434291e-12 1.1650955e-26 -7.1263556e-10 -6.0801326e-30 -2.9055719e-30 -1.645183e-30 9.13723e-31 5.2498536e-32
4.06325e-29 1.5464504e-30 5.647674e-31 4.3645463e-14 2.8054737e-21 -3.6181685e-22 -3.674561e-21 -1.7100367e-13
-1.0616447e-21 -3.9561364e-08 -1.5337396e-22 -6.233193e-21 7.780248e-21 1.9596238e-18 1.6303344e-18 2.5770285e-14
2.0978706e-13 -7.187521e-19 -6.608116e-19 3.676952e-20 5.559837e-20 1.8637736e-18 7.5889246e-23 -8.925075e-13
-2.6433859e-20 1.636804e-09 -2.4127036e-23 4.3900232e-23 4.997546e-23 1.9432796e-23 -3.7001286e-14 2.3007377e-12
-7.2091e-41 3.122289e-15 3.3833e-41 1.4187e-41 -2.53762e-12 -1.10176e-40 -2.6063958e-09 6.1052663e-10
-2.2149197e-26 -5.3162594e-08 4.700543e-10 4.1417023e-36 1.3790187e-28 1.6488902e-09 -1.0802297e-31 -6.2232625e-13
-1.6231727e-17 -2.857015e-25 -3.0095018e-24 -3.0080718e-24 2.1203786e-24 -1.2983589e-12 -5.481944e-24 -1.1027033e-24
-1.678354e-24 -2.4740118e-10 2.6354763e-16 5.677661e-23 5.99164e-23 -6.989537e-24 1.5715259e-09 5.688969e-23
-3.0339082e-23 -6.237665e-22 8.4406785e-23 -4.1019e-41 -2.6623e-41 9.377e-42 -1.5738e-41 4.5981e-41
-1.017408e-08 -2.7565e-41 -2.9252e-41 -1.0833405e-23 -3.9753844e-21 1.2318377e-21 5.9788134e-22 -1.5327296e-22
2.7179828e-21 -2.7792091e-15 3.775798e-15 -4.6100304e-08 6.764431e-20 -1.351645e-18 3.0326964e-19 4.8949583e-31
-3.570085e-32 -1.2849427e-31 1.1648414e-31 -1.9117253e-31 2.3217514e-17 7.7305116e-31 8.4477946e-22 -2.5140504e-12
1.0873637e-21 1.873993e-15 -3.0075131e-22 -1.1584578e-10 9.460595e-23 1.1693324e-09 -6.1825295e-15 -5.31777e-11
-1.3968318e-17 2.3531445e-21 3.3133475e-08 3.0441776e-22 1.0227276e-11 3.895598e-22 1.5546816e-22 1.9919955e-22
4.5482444e-23 -7.834251e-11 1.0669439e-09 3.532927e-23 -1.056999e-10 2.8905063e-23 1.2868813e-22 1.2310188e-22
-7.306912e-20 1.7513294e-24 1.303373e-23 -6.7359824e-16 3.662168e-25 9.009144e-25 2.2294248e-10 -1.1950088e-24
-3.889547e-20 -3.0809627e-24 -1.2418767e-23 -1.2472282e-23 -2.064973e-23 -8.659604e-24 -4.2564777e-24 -2.9072077e-23
-3.9096874e-17 1.6176282e-26 -3.0283707e-09 -3.1752142e-12 -5.70432e-22 -2.6729415e-22 -1.272206e-12 -2.2402902e-16
1.0816405e-08 -2.8018772e-22 -6.831969e-22 -4.2871124e-09 5.1461146e-09 -7.973e-41 -2.19567e-16 -1.906385e-16

e_conv3.depth_conv.bias f4 [32]
00000000: 4b92 a49a ef71 a323 3214 2e1d 7db6 bb97
00000010: 282a 91a8 e594 401c c1d5 d223 9e22 5e09
00000020: 6d64 9a1e 2fcf 3a9c 6d9a 6698 5ecb 2191
00000030: 1229 9b1d 13b8 01a2 8490 91af e963 0000
00000040: f59f 5d0d fc33 bd19 f861 aa9b 47d8 ba10
00000050: 8525 079e efd5 628e 51e6 8932 6cb4 c1b1
00000060: eb53 7cb1 dfe6 3b17 f5af 5e27 e612 4c9c
00000070: a83d 108a 74d4 9298 160e 3229 02fb 8226
-6.806516e-23 1.7720748e-17 2.3039149e-21 -1.2130658e-24 -1.6116516e-14 6.3719913e-22 2.2858774e-17 2.6738555e-33
1.634692e-20 -6.1810016e-22 -2.9804768e-24 -1.2763328e-28 4.1070624e-21 -1.7580208e-18 -2.647803e-10 3.5841e-41
6.8293424e-31 1.9563138e-23 -2.8187452e-22 7.369729e-29 -7.154599e-21 -2.7959656e-30 1.6053635e-08 -5.637551e-09
-3.6718528e-09 6.071436e-25 3.0904075e-15 -6.7522364e-22 -6.944944e-33 -3.795464e-24 3.9536157e-14 9.088598e-16

e_conv3.point_conv.weight f4 [32, 32, 1, 1]
00000000: 3fb8 bd96 e5c2 9c16 1f72 6819 3356 0480
00000010: 5728 9698 6f4c d297 f93b 6718 22c2 0080
00000020: 4a28 5e1a e288 b499 037c fd93 87db 6d0d
00000030: a46b 0e1a de40 ed92 0836 5197 9cd3 0080
00000040: d096 ca06 c1b0 8894 0330 8f97 81ae 0080
00000050: d2f5 2e1a 2e4f 5409 f254 be99 bd7e fc18
00000060: 8e07 b018 bfba c894 6d98 9517 8fb2 1099
00000070: 8980 3983 1b01 1812 ee3f f599 6f69 a319
00000080: 71c4 2d91 47ad b312 372a 6c15 15dc 5380
00000090: 0c72 8592 61e1 6a14 4d39 d193 6db1 0000
000000a0: ca03 6594 dbbe 1b14 a60c d910 e7f3 7388
000000b0: 7539 db92 c3dc 8a8d 2d07 a093 c149 0080
000000c0: 0e2e 0080 d9de 6110 4601 b412 72c0 0080
000000d0: b382 0096 cbc3 b785 fdca 8595 0763 fe13
000000e0: 56d4 2094 4c23 2d90 ee8a bb11 2598 8213
000000f0: 164b 0080 a8c7 e08e 5d3d 6615 3e77 c394
00000100: 47d1 af20 2f7b 6220 0412 b4a2 af71 e109
00000110: fc72 1921 add0 3c21 6973 0322 f495 4091
00000120: 5f30 1ba3 c5e2 7d22 10a5 b11e c3c0 ce16
00000130: 3aa8 19a3 65c9 1d1c 33f0 ab9f 4060 0000
00000140: 3f27 3091 0aec 071f f025 af20 9769 4182
00000150: 7891 41a2 57df 8613 b222 d9a2 bd0e 2ba2
00000160: 7030 8a22 e35f 339f 0af9 08a0 b571 bf22
00000170: 1fd8 b790 77c3 929d 47a8 a6a4 7adb f223
00000180: fe00 0100 8ef1 0180 800f 0500 0104 0000
00000190: eb6c 0100 4f2a 0280 edc2 0280 aafe 8d00
000001a0: 28c8 3f00 eeab 0880 7660 0080 11d0 0080
000001b0: e2f5 1d80 5c8c 0000 5d52 0080 de9f 0000
000001c0: 025d 0000 3fbd 0080 5eb1 0180 526a 0080
000001d0: 4584 0300 418b 0080 1c3c 3400 b907 1880
000001e0: b7fa 0700 46ab 0000 59c3 0000 7a77 0080
000001f0: ad46 0080 c7c0 0000 4b6c 0d00 3eba 1e80
00000200: abfb ee96 ec91 4297 ab18 9298 7242 0180
00000210: a8b9 4318 9361 4d18 7697 7d17 2777 0080
00000220: cb6f 041a 3ddb 4a19 a910 ff93 db0f 4a0d
00000230: 2836 a396 fbb0 a191 703a 5716 699d 0000
00000240: 9adb 5108 5031 c494 ab58 3f15 66b0 0000
00000250: e049 6c19 dda7 2189 7b74 9f99 52b2 5e18
00000260: dc41 6e18 893d a814 e2cd 2c16 71b0 6f98
00000270: 201e 0080 1c63 dc12 374a 3019 a30e 4619
00000280: 09b2 4a25 cd0b 05a5 2b6e e826 86a1 840d
00000290: 26b2 95a5 0b98 c324 4a30 4225 db06 ea94
000002a0: e209 aa25 7038 c1a6 4cd7 4da2 62ce 8a9b
000002b0: 308b 4226 44c1 e820 77c9 a224 314f 0080
000002c0: af2f af18 84cc 94a2 7594 e4a4 d5f6 330a
000002d0: 7b28 2aa7 c41a 5a18 4692 6126 d7f0 2c26
000002e0: a6d8 fb24 ea2e 49a2 ee23 5424 3776 34a6
000002f0: a53e 4a15 6d3b 9b21 46e5 1226 7405 61a7
00000300: 2351 9199 5874 a897 c894 fa1b 4058 0800
00000310: a1b1 c699 025d 961a 9a1f ba1a de63 0000
00000320: 195e 7e9c ecc3 989b fbf1 f116 78f6 838c
00000330: bac0 241c bb85 1c94 f650 a419 1373 0000
00000340: f088 8486 aa7e ff95 95d6 0c9a 353e 0000
00000350: b50f b51b a569 558c 5d42 889c ec25 c719
00000360: ad17 5e1b 8850 d615 4cdc 0619 0985 639a
00000370: a8c8 7284 caa0 9796 746a 9d9c d627 3c9c
00000380: ad4a bd9c dd29 019a b668 a19d 2cb6 0482
00000390: 5508 4d9d 2dac e79d d6cc ab1d 772a 0b0c
000003a0: e1f1 9a9e a0ef 9c9c 22b0 0b97 311e 0211
000003b0: 160d ef1e 08d1 9296 1006 b31b 1620 0000
000003c0: 809d bc8f b371 bb97 2af9 b49d a696 0080
000003d0: 01ae 919e eedb d90e a965 f19d 49d6 489d
000003e0: 9c08 8c1d 51a7 2719 5c9e b31b 0c0b 821a
000003f0: fb16 3587 bee4 b417 fc48 a09e f044 531e
-3.0650872e-25 2.5326155e-25 1.20171655e-23 -3.98264e-40 -3.8814824e-24 -1.3590226e-24 2.9886329e-24 -6.9642e-41
4.594107e-23 -1.866685e-23 -6.3988464e-27 7.329551e-31 2.9451863e-23 -1.4972794e-27 -6.759974e-25 -7.5911e-41
7.6205554e-35 -1.3802208e-26 -9.253278e-25 -6.26e-41 3.618093e-23 2.5555802e-33 -1.9679849e-23 6.5268446e-24
4.5502562e-24 -2.0268498e-26 9.667377e-25 -7.480685e-24 -5.4514165e-37 4.7964106e-28 -2.5358227e-23 1.689639e-23
-1.3707827e-28 1.1339204e-27 4.7693122e-26 -7.701297e-39 -8.421595e-28 1.1858429e-26 -5.281552e-27 6.3648e-41
-1.1562293e-26 7.86314e-27 8.5610896e-29 -7.341186e-34 -1.3835007e-27 -8.558053e-31 -4.0396754e-27 -2.6458e-41
-1.6521e-41 4.4545102e-29 1.1359911e-27 -6.9036e-41 -1.0380999e-25 -1.728116e-35 -5.403853e-26 6.4216263e-27
-8.1198115e-27 -3.4145426e-29 2.958902e-28 3.296664e-27 -2.6936e-41 -5.5412525e-30 4.6496537e-26 -1.9737001e-26
2.978464e-19 1.9183703e-19 -4.8808173e-18 5.4273687e-33 5.1990597e-19 6.397306e-19 1.7814908e-18 -1.5192337e-28
-8.41281e-18 3.4407944e-18 1.8808872e-20 3.3402745e-25 -8.32977e-18 5.220724e-22 -7.2818693e-20 3.4528e-41
-1.3896046e-28 2.878261e-20 2.9671258e-19 -1.4209703e-37 -2.6233388e-18 3.4046586e-27 -5.8854703e-18 -2.3182624e-18
3.745626e-18 -3.798404e-20 -1.1602048e-19 5.1891046e-18 -7.251376e-29 -3.8847984e-21 -7.22761e-17 2.6330645e-17
9.2191e-41 -1.78489e-40 4.64738e-40 1.436e-42 1.30908e-40 -1.98848e-40 -2.53597e-40 1.3040161e-38
5.857439e-39 -7.96361e-40 -3.4604e-41 -7.464e-41 -2.751436e-39 5.0351e-41 -2.9546e-41 5.735e-41
3.3365e-41 -6.7889e-41 -1.55463e-40 -3.814e-41 3.22956e-40 -4.9955e-41 4.797009e-39 -2.206822e-39
7.32788e-40 6.1441e-41 7.0078e-41 -4.286e-41 -2.5354e-41 6.9155e-41 1.23271e-39 -2.821876e-39
-3.8609799e-25 -6.286896e-25 -3.7765024e-24 -1.15672e-40 2.5296892e-24 2.6544891e-24 8.193988e-25 -4.2744e-41
2.7387266e-23 1.048743e-23 -6.4387478e-27 6.226514e-31 -2.6368248e-25 -2.5510394e-28 1.7386001e-25 5.6468e-41
6.315179e-34 -1.9810393e-26 3.864209e-26 6.328e-41 1.2215833e-23 -1.9458599e-33 -1.648726e-23 2.8782856e-24
3.079403e-24 1.6987936e-26 1.3959015e-25 -3.0979106e-24 -1.0807e-41 1.3908384e-27 9.113974e-24 1.0239316e-23
1.7581028e-16 -1.153991e-16 1.6128095e-15 8.174013e-31 -2.5968098e-16 8.482534e-17 1.6843179e-16 -2.3630666e-26
2.9496996e-16 -1.3407363e-15 -2.7896658e-18 -2.2963557e-22 6.7495905e-16 3.943022e-19 7.0597595e-17 -2.8409e-41
4.5284588e-24 -4.033202e-18 -9.9130734e-17 8.6649604e-33 -2.3614184e-15 2.8189353e-24 7.8260794e-16 6.0000886e-16
1.09220915e-16 -2.7265416e-18 4.6000606e-17 -6.2610256e-16 4.0842993e-26 1.0518938e-18 5.096465e-16 -3.1227979e-15
-1.502542e-23 -1.0886115e-24 4.1455178e-22 7.66342e-40 -2.0544464e-23 6.218881e-23 7.697885e-23 3.5826e-41
-8.416317e-22 -2.5272902e-22 3.908836e-25 -2.0332084e-31 5.451214e-22 -7.902361e-27 1.6989902e-23 4.1281e-41
-4.9854093e-35 -1.0319352e-25 -2.912466e-23 2.2316e-41 2.9954089e-22 -1.6440714e-31 -9.01688e-22 2.0591434e-23
1.837106e-22 8.656097e-26 6.972126e-24 -4.7049965e-23 -2.85391e-36 -2.4496838e-25 -1.0416906e-21 -6.225547e-22
-1.2526274e-21 -2.6710392e-23 -4.2724614e-21 -9.750109e-38 -2.7135832e-21 -6.1323216e-21 4.547512e-21 1.0720949e-31
-1.6405423e-20 -1.0385156e-21 -4.5135633e-25 1.0264495e-28 2.5310522e-20 -2.371949e-25 2.9616984e-22 1.151e-41
-1.8598898e-29 -1.2113293e-24 -4.7903233e-21 -5.4042e-41 -1.5424438e-20 5.3706415e-30 -6.3897283e-21 -2.6580562e-21
3.7066593e-21 8.667487e-24 2.9715403e-22 5.378459e-23 -1.362368e-34 1.168997e-24 -1.6970845e-20 1.1184503e-20

e_conv3.point_conv.bias f4 [32]
00000000: 41ae 84a6 d536 6ba1 1de0 a8b0 af31 8f1d
00000010: 0e5e 34a6 fcb7 9937 e41a 79a8 ee0c 14ab
00000020: 3152 5fa1 616d ca32 ec44 c8a8 34c9 4628
00000030: 4e0e 0f34 c601 5ba3 cee5 13a9 79d0 6dac
00000040: 1a1e c4a9 6cbe 6ba3 2576 fd99 0af9 b298
00000050: e833 4938 47c1 a1a6 96e5 72a9 462c a8a8
00000060: 6df0 42ae 236a eba3 d723 9ca8 7ed6 c022
00000070: aab8 8e2b 2703 dc2f f012 5ea4 88d5 1caf
-9.206572e-16 -7.9693667e-19 -1.2287306e-09 3.7903156e-21 -6.2577513e-16 1.8324696e-05 -1.3828108e-14 -5.2598106e-13
-7.566412e-19 2.3565635e-08 -2.223435e-14 1.1034837e-14 1.3323117e-07 -1.1872389e-17 -3.283988e-14 -3.3795451e-12
-8.70937e-14 -1.2779699e-17 -2.6207305e-23 -4.6263387e-24 4.7970476e-05 -1.1224007e-15 -5.393393e-14 -1.8670947e-14
-4.4324034e-11 -2.5523702e-17 -1.7335022e-14 5.2268807e-18 1.0140961e-12 4.0020007e-10 -4.8154617e-17 -1.4263979e-10

e_conv4.depth_conv.weight f4 [32, 1, 3, 3]
00000000: f42e 982e 0e27 4806 4fdf 1d2f 2c13 d984
00000010: e3c6 d830 349a 7185 43ed 899f 147d 729a
00000020: 207e 4785 79b7 0080 418f 0000 69aa 0080
00000030: f2d0 0080 5f3b 0080 732a 3f14 4053 502c
00000040: 1008 0000 eb53 0080 9928 cd29 74fd 8327
00000050: 9f94 0e98 d264 8c98 ed5d ad97 ac0e 152e
00000060: 8423 8198 e75a 0519 598d dcb1 1e5d a81d
00000070: 6dc2 cd99 0e4a 0bae 660c 0000 8fb3 7421
00000080: 0fad 239d 4f84 0080 24b9 0000 88c1 c5a5
00000090: 78ae e220 9c1a 0000 d8bb 0080 2692 0080
000000a0: 6857 3e1e 1832 9a25 6eec 0080 fc06 772f
000000b0: 4409 0000 9a2a 3a25 9e46 1019 98d4 8a9b
000000c0: b554 2019 ab20 8699 5b0d b918 fbfa e718
000000d0: 83e2 6018 39b3 9a99 b786 942d 3385 0000
000000e0: 4f5e a22c 6acf 0080 ae4a 0080 0892 4c33
000000f0: 6f7a 0080 0b65 1080 e62d 0000 394f 0000
00000100: fd34 0000 7c2e 0180 3647 40b2 2d27 df1f
00000110: c8a4 0080 de81 3d9c 3b87 b695 7083 0080
00000120: b943 0080 268f 0000 07a1 0080 cbc8 2a32
00000130: 0d4a 0000 196a 0080 65fd 0000 4677 0080
00000140: 6da2 65b1 3858 309f 6ae4 d1a0 aa1b eaa3
00000150: 1e68 0808 6459 9cb2 80fe 882d f80c 8524
00000160: af68 3c08 dfe6 9008 3baa d1b1 c012 d186
00000170: d413 c207 bcc2 3d86 310e 4c86 fe72 9c8a
00000180: 9d19 bd06 6745 f724 9ae6 bc2d 058d 0180
00000190: d480 10b3 67d7 0100 df2f 0080 5bee 0000
000001a0: 7cf9 b420 aeb8 0d00 3c8a f493 7d27 5a86
000001b0: 21c7 150a 4231 f0ae 2d65 8415 0f03 bf2a
000001c0: 05eb 97b1 d176 af8f 4c34 812c 1f35 1c0a
000001d0: 2243 0daa ec2a f22d 3e28 0a06 a497 2fab
000001e0: d8ca 2e31 952b 9605 ac03 3016 f74d c931
000001f0: b75f 012c b656 bf06 8060 0080 7a5c ff2e
00000200: 106a 9127 ce0d 0080 5c70 0080 3ac4 0080
00000210: f50f 452a aedf 0080 82ba 0080 42d9 73b2
00000220: 7c13 0080 a103 7404 1bd1 9e2e a5fb 90a1
00000230: 494f 0080 db3a d425 2ef9 c32b 1265 2e9b
00000240: b170 cab1 e79f 4b84 d3d3 3da7 44f0 70a9
00000250: 5e08 0000 ef35 0000 b221 0000 1d19 5610
00000260: 37d2 0080 7ebc 90a8 8fa9 0080 0c47 022a
00000270: 0a19 8d23 4d75 0000 8ec2 0000 78bc 0080
00000280: 1709 0930 1f71 0000 fc1c 0100 4626 362e
00000290: 8831 0000 96a7 0000 ea0e 0080 b57b 9a2e
000002a0: 1663 0080 c2bc 0000 2728 0000 5edd 2b9e
000002b0: 92eb 032a c4fc d328 45d7 0080 288c 0000
000002c0: 8516 0100 507a 0080 b4ec 0080 4519 e19c
000002d0: c9a5 bbaf 6561 7112 9110 fdac 997c 3391
000002e0: 2164 5db1 dc6b 0c13 048b 48ae 339e 642b
000002f0: a15e 1d91 8362 0080 2f1d 0000 f35d 1eb0
00000300: 19a0 3f03 835d 0000 6630 9725 b596 0080
00000310: 6ca5 0080 3451 0000 3ac1 9da6 95be ee8f
00000320: a292 0000 a37c 0000 48c4 0000 c64c 8f1d
00000330: 5d2c 7183 ff2d 339f a6f6 0000 6598 de27
00000340: 1fb7 0d19 b7a1 a629 e1b7 0080 474d 0080
00000350: 7649 9aab 428c 0080 e7be 60a2 b9a5 0080
00000360: 4675 d387 61ec 3286 80bd de86 abd8 9815
00000370: b8f6 13b3 515a 1d2b 6cb9 da09 80d4 d587
00000380: 7f1b 5b07 df98 eba6 c350 0000 3edf 0080
00000390: 223e 0000 8cf5 f71b 2864 0000 fa01 4e29
000003a0: 233d 0080 65bc 0080 82fe 84ab 7535 982d
000003b0: 2117 bb24 170f a18a 436f 9e9e a6a8 9728
000003c0: 9e36 0000 90ed 0080 afb7 0080 fd98 0080
000003d0: b516 8e2d 43d5 1405 f1cc 0000 7309 559c
000003e0: d914 0000 c958 0080 53b8 0100 1f00 8c24
000003f0: a92c 8e13 74f0 0cb1 4019 8926 11ee d713
6.9205e-11 3.7644512e-35 1.4358402e-10 -5.103406e-36 1.5772595e-09 -1.1360088e-35 -5.8414273e-20 -5.0145464e-23
-9.3801005e-36 -6.5818e-41 5.139e-41 -6.1132e-41 -7.4955e-41 -2.1298e-41 9.651407e-27 2.960479e-12
2.892e-42 -3.0104e-41 9.1108714e-14 3.66346e-15 -1.8428104e-24 -3.6290954e-24 -1.1203573e-24 3.389171e-11
-3.338158e-24 6.8942964e-24 -6.418912e-09 4.456551e-21 -2.1275031e-23 -3.1670715e-11 4.448e-42 8.290806e-19
-2.166234e-21 -4.7463e-41 6.6416e-41 -3.4305194e-16 3.8401343e-19 9.546e-42 -6.7386e-41 -5.2428e-41
1.00765914e-20 2.6748686e-16 -8.4815e-41 2.2467e-10 3.324e-42 1.6147362e-16 7.4588865e-24 -2.296757e-22
8.2889126e-24 -1.386847e-23 4.7834865e-24 5.9965526e-24 2.906568e-24 -1.5995614e-23 1.6885477e-11 4.7783e-41
4.6147873e-12 -7.4406e-41 -2.679e-41 4.7630266e-08 -4.3921e-41 -1.505615e-39 1.6465e-41 2.842e-41
1.9009e-41 -1.08511e-40 -1.1192062e-08 9.4508985e-20 -5.9112e-41 -6.2702704e-22 -7.372257e-26 -4.7151e-41
-2.4294e-41 5.1352e-41 -5.7766e-41 9.940957e-09 2.6564e-41 -3.806e-41 9.0901e-41 -4.2787e-41
-3.3416214e-09 -3.7342423e-20 -3.555713e-19 -2.5382047e-17 4.10484e-34 -1.820144e-08 1.557443e-11 5.7701525e-17
5.6697247e-34 8.720962e-34 -6.1020535e-09 -7.864461e-35 2.920153e-34 -3.5690017e-35 -3.8378562e-35 -1.5065509e-32
7.1131534e-35 1.0723675e-16 2.1475533e-11 -1.42424e-40 -3.364478e-08 1.69107e-40 -1.7173e-41 8.5506e-41
3.065828e-19 1.260112e-39 -6.173057e-27 -4.1030254e-35 7.211541e-33 -1.09226864e-10 5.3474e-26 3.3930538e-13
-4.421397e-09 -1.7302099e-29 3.6722066e-12 7.521118e-33 -1.2546607e-13 2.7531276e-11 2.598448e-35 -6.2382933e-13
2.5435636e-09 1.4121942e-35 1.4218325e-25 5.8587335e-09 1.8385135e-12 7.1973625e-35 -3.4618e-41 1.16124846e-10
4.0360578e-15 -4.952e-42 -4.0307e-41 -7.0393e-41 1.7502651e-13 -8.0241e-41 -6.6906e-41 -1.419386e-08
-6.99e-42 2.8683728e-36 7.222153e-11 -9.824429e-19 -2.8442e-41 3.681602e-16 1.3924745e-12 -1.44256e-22
-5.8917853e-09 -2.3935959e-36 -2.634385e-15 -5.3499102e-14 3.002e-42 1.9348e-41 1.2088e-41 4.2223405e-29
-7.5411e-41 -1.6068957e-14 -6.0826e-41 1.1570969e-13 1.5297855e-17 4.208e-41 6.9793e-41 -6.761e-41
4.9853227e-10 4.058e-41 1.02233e-40 4.1416003e-11 1.7768e-41 6.0119e-41 -5.35e-42 7.025084e-11
-3.5545e-41 6.7714e-41 1.4404e-41 -9.098442e-21 1.1716867e-13 2.3535325e-14 -7.7224e-41 5.0279e-41
9.9914e-41 -4.3877e-41 -8.4913e-41 -1.4895783e-21 -3.41329e-10 7.616624e-28 -7.1925317e-12 -1.4159005e-28
-3.221665e-09 1.7723663e-27 -4.5598206e-11 8.122142e-13 -1.2414276e-28 -3.534e-41 1.0469e-41 -5.7613575e-10
5.631364e-37 3.3546e-41 2.622712e-16 -5.4063e-41 -5.9342e-41 2.913e-41 -1.0946438e-15 -2.3542021e-29
5.2602e-41 4.4711e-41 7.0412e-41 3.7931167e-21 -7.087446e-37 -3.794277e-20 8.8481e-41 6.1782604e-15
7.32651e-24 7.399934e-14 -6.5963e-41 -2.7722e-41 -1.0962748e-12 -5.0315e-41 -3.0458724e-18 -5.945e-41
-3.1816679e-34 -3.3651743e-35 -8.3785564e-35 6.173415e-26 -3.4450494e-08 5.5902944e-13 5.265596e-33 -3.2173574e-34
1.6483809e-34 -1.6347836e-15 2.8972e-41 -8.0084e-41 2.2289e-41 4.1021403e-22 3.5929e-41 4.5742903e-14
-2.1932e-41 -6.7583e-41 -9.449804e-13 1.7304139e-11 8.1137504e-17 -1.5509412e-32 -1.6774917e-20 1.6837507e-14
1.9593e-41 -8.5221e-41 -6.5893e-41 -5.4882e-41 1.6153615e-11 6.9980965e-36 7.3519e-41 -7.0488e-22
7.479e-42 -3.185e-41 1.57959e-40 6.071553e-17 3.5889878e-27 -2.0509363e-09 9.513129e-16 5.450838e-27

e_conv4.depth_conv.bias f4 [32]
00000000: e2eb 29a9 dc3c d628 6cac 8eb3 32e2 0080
00000010: 98ca be86 b729 bfae b7b7 6b8a d1a0 d311
00000020: 91cc ea06 7956 f314 993f 5dac 1d7e 2ba3
00000030: 0f1b 7915 86cd 1eb1 24ce ae1b f367 048f
00000040: 7094 a2a6 f9d6 c883 5517 0000 301e 0080
00000050: 9218 8119 f3d8 0409 0aa9 3780 6fd3 09b4
00000060: 2aef a828 9535 11a5 3e93 2a85 0cba 3f80
00000070: bd52 e0b2 ee07 1190 1a2e c52d 6dc3 358b
-3.7730134e-14 2.3785166e-14 -6.6437536e-08 -8.1144e-41 -7.176774e-35 -8.6930844e-11 -1.1349391e-32 3.338904e-28
8.83216e-35 2.4570837e-26 -3.1441293e-12 -9.296634e-18 5.0306495e-26 -2.3108853e-09 2.89191e-22 -6.528122e-30
-1.1281242e-15 -1.1804299e-36 8.37e-42 -1.0829e-41 1.3348211e-23 1.5990931e-33 -5.111592e-39 -1.2836038e-07
1.8755468e-14 -1.25949e-16 -8.020406e-36 -5.852377e-39 -2.6114657e-08 -2.8602317e-29 2.241678e-11 -3.5006354e-32

e_conv4.point_conv.weight f4 [32, 32, 1, 1]
00000000: 2db5 3d97 b8af 9416 fa95 fda1 d03e 0080
00000010: e386 9f83 eebb 4e9d e470 e108 c7ee 638b
00000020: d41a 0000 5e28 6714 8345 ef1a 502b 6191
00000030: 8a25 9314 036e 129f 3d24 6b09 fd55 4c8b
00000040: 6b6f 5595 716c 0080 74db 0000 eff3 0080
00000050: 6e74 0418 63f2 d685 9e25 0080 7918 8322
00000060: 17b8 8f96 4d9c 9c13 d2d5 0606 bf31 0100
00000070: 3a62 2c21 3cd2 d28c 1bc7 449a 0f3d 7e8a
00000080: 8862 0080 2d2c 0080 de4e 0180 018d 0000
00000090: b268 0000 1658 0080 248b 0080 4199 0080
000000a0: ef24 0000 89e2 a882 d28c 0000 d27b 0080
000000b0: 76a2 0080 8b6a 0080 bc7f 0080 d6bc 0080
000000c0: 05b4 0080 c6c2 0000 89ac 0000 44ae 0080
000000d0: b422 0080 a182 0080 7643 0087 fe35 0080
000000e0: f74a 0100 3c05 0000 1873 0000 0354 0080
000000f0: 96a0 0080 2b12 0000 c89d 0080 da5b 0000
00000100: 333d ef12 3345 0494 c1e6 131f b5a2 0080
00000110: dcaa 0000 1ceb 651a bad7 2100 c786 0f0a
00000120: 5697 0080 34e0 b910 2a4d 9a97 8fa4 b18e
00000130: fe3f 0f11 c0d8 0e9c dd69 3b86 4a43 2808
00000140: 9640 d811 3e76 0000 d882 0080 2be0 0000
00000150: 9126 5e95 bc84 0d02 8847 0000 f6bc 361f
00000160: fd6a cb93 1f50 2690 5764 0080 6f7e 9c89
00000170: 3271 171d 492b 320c a704 ce98 896f a886
00000180: 18f7 c91b 12a1 8a9b d25e 0026 feaf 0180
00000190: b102 6a0a 11b5 8121 4e41 720d a8e4 5810
000001a0: 922a 1408 5b56 d718 1710 271f 0584 3f16
000001b0: 90a9 9499 5582 9e23 9beb b18e a73c 3b10
000001c0: ac2a 7b19 3790 db86 9666 0f00 a8a8 0080
000001d0: a64f 0c1d 4f32 510c c117 fc00 5214 6326
000001e0: ff4b 989b 07aa 1318 568d 1a0a b76a 2403
000001f0: 1c16 6125 8b4d 4f95 4478 8aa0 c065 2d90
00000200: 44fc 3b88 c879 c789 588a 0514 20c8 0000
00000210: 9e5e 090a 8ed2 4e0f dd05 0000 4a9f 0000
00000220: 19a1 0000 aa2f bc86 7d0e 858d f1a4 7984
00000230: b3a2 5f06 1cb7 1391 c5fd 0000 cabf 0000
00000240: 99f8 0c07 f561 9286 e9dd 0080 a18e 0000
00000250: 1f89 160b 5f2c 0000 bf14 0000 87f7 9014
00000260: 1dfc 6189 eec5 0f05 73a6 0000 cc28 0100
00000270: f55e 5a13 13e1 0300 8946 270e b871 0000
00000280: 305d 8a16 b98d a295 b06b 9120 6a01 0000
00000290: 31ed fd00 30d7 451c 9bc8 0f07 9642 720b
000002a0: da6a c200 6860 9513 24cd c119 f629 6a90
000002b0: bf95 c313 57cd 341d 75bc 6287 8b96 848b
000002c0: 00a3 1b14 4212 0000 3731 0080 4b47 0100
000002d0: b8d7 f417 518b fb06 1dcd 1900 a4bd f020
000002e0: f2df 5896 afe5 e812 2bca 1f80 7f4f 0000
000002f0: eb43 fa1e f5ed 1f0e fec1 7699 8689 200a
00000300: 40c7 9300 6718 0000 f528 0000 3e2f 0000
00000310: 64d1 0080 1025 0000 c06a 0080 d0bb 0000
00000320: 58a1 0080 8071 0000 3383 3000 174d 0000
00000330: e15a 0000 fbbb 0000 e2be 0080 5975 0080
00000340: fc3d 0000 0d99 0180 2072 0000 620c 0080
00000350: b58e 0000 b220 0000 02dd 0080 1a7c 9f87
00000360: 1f31 0000 2947 0080 b822 0000 6eea 0080
00000370: 1577 1186 f624 0000 ed4e 0000 dfb9 0000
00000380: 63f7 1d97 94c4 9e96 961f a920 145a 0080
00000390: 6793 cc04 c303 671c f1b3 c786 293a 0b00
000003a0: 72a6 0080 f7f2 b913 a0e7 2c9a d4d7 5f11
000003b0: 07d5 3e14 9070 421e d2f5 b78a a196 268a
000003c0: 09d2 8993 f48d 0080 c51c 0000 04c1 0080
000003d0: 9168 0f18 b6e6 3008 ab49 0100 0de5 3121
000003e0: 1c9a a496 8dad 3013 34bd b601 82d1 0000
000003f0: 805b 8920 9825 0f90 cccc 819b 9f31 7509
-6.129787e-25 2.4021584e-25 -1.7183645e-18 -2.2533e-41 -9.376149e-37 -2.736103e-21 1.3568235e-33 -4.3898246e-32
9.624e-42 1.1670481e-26 9.8960385e-23 -1.7762717e-28 1.4858013e-26 -3.1007702e-20 2.8304135e-33 -3.935366e-32
-4.31029e-26 -3.8901e-41 7.8725e-41 -8.7507e-41 1.7119382e-24 -2.0213502e-35 -1.3495e-41 3.5533533e-18
-2.3219073e-25 3.953406e-27 2.535969e-35 1.09681e-40 5.840587e-19 -3.2482153e-31 -4.0692686e-23 -1.2241139e-32
-3.5346e-41 -1.5847e-41 -1.20128e-40 5.0583e-41 3.7558e-41 -3.1599e-41 -4.9914e-41 -5.4977e-41
1.3249e-41 -2.4815406e-37 5.0517e-41 -4.4418e-41 -5.828e-41 -3.822e-41 -4.5822e-41 -6.7742e-41
-6.4579e-41 6.9872e-41 6.1894e-41 -6.2515e-41 -1.2449e-41 -4.6861e-41 -9.649475e-35 -1.9369e-41
1.18728e-40 1.878e-42 4.1288e-41 -3.0138e-41 -5.7607e-41 6.517e-42 -5.6601e-41 3.295e-41
1.5098107e-27 -6.677944e-27 3.1319336e-20 -5.8368e-41 6.1293e-41 4.754601e-23 3.10796e-39 6.910548e-33
-5.4289e-41 7.3315073e-29 -9.971496e-25 -4.3792333e-30 1.130043e-28 -4.7264e-22 -3.5248567e-35 5.063476e-34
3.4118595e-28 4.2417e-41 -4.6938e-41 8.0416e-41 -4.4862966e-26 1.0397137e-37 2.566e-41 3.8696304e-20
-5.1349903e-27 -3.279945e-29 -3.5995e-41 -3.767453e-33 2.0043204e-21 1.3725647e-31 -5.325445e-24 -6.335846e-35
3.341234e-22 -2.2934274e-22 4.4537426e-16 -1.5497e-40 1.12671964e-32 8.789308e-19 7.4650615e-31 4.277464e-29
4.458717e-34 5.5663394e-24 3.5376935e-20 1.5470515e-25 -1.5371327e-23 1.7185592e-17 -4.386075e-30 3.6925972e-29
1.2985013e-23 -8.259055e-35 1.414333e-39 -6.0502e-41 1.8570023e-21 1.6115914e-31 2.3151066e-38 7.8783985e-16
-2.5195402e-22 1.9085147e-24 7.4414126e-33 4.831777e-37 1.952313e-16 -4.1864488e-26 -2.3457694e-19 -3.419662e-29
-5.6569802e-34 -4.802203e-33 6.7420675e-27 7.1791e-41 6.6141056e-33 1.01971355e-29 2.103e-42 5.7142e-41
5.7791e-41 -7.0787776e-35 -8.200246e-31 -2.9345547e-36 4.206117e-35 -1.165268e-28 9.1035e-41 6.8801e-41
1.0605486e-34 -5.506303e-35 -7.9606e-41 5.1166e-41 2.8992108e-32 1.5917e-41 7.442e-42 1.4637917e-26
-2.7201933e-33 6.7601816e-36 5.9711e-41 1.0647e-40 2.7562286e-27 3.56248e-40 2.06183e-30 4.0795e-41
2.2353912e-25 -6.565488e-26 2.4635217e-19 5.07e-43 2.3319469e-38 6.5459956e-22 1.0817077e-34 4.6657598e-32
1.7854417e-38 3.770795e-27 2.0038588e-23 -4.6180688e-29 4.937258e-27 2.392896e-21 -1.7057733e-34 -5.107106e-32
7.857646e-27 6.55e-42 -1.7655e-41 1.1741e-40 1.58225855e-24 9.4620413e-35 2.369468e-39 4.0783075e-19
-1.7519006e-25 1.469788e-27 -2.919425e-39 2.8518e-41 2.649787e-20 1.9712835e-30 -1.2757078e-23 7.729585e-33
1.3571295e-38 8.754e-42 1.4693e-41 1.6947e-41 -7.5115e-41 1.3296e-41 -3.8295e-41 6.7374e-41
-5.7879e-41 4.0716e-41 4.455169e-39 2.7655e-41 3.2601e-41 6.7435e-41 -6.8476e-41 -4.2096e-41
2.2236e-41 -1.4674e-40 4.094e-41 -4.442e-42 5.1194e-41 1.1729e-41 -7.9283e-41 -2.3996601e-34
1.7621e-41 -2.5527e-41 1.2455e-41 -8.4098e-41 -2.7358957e-35 1.3259e-41 2.8313e-41 6.6678e-41
-5.104168e-25 -2.5650335e-25 2.8650615e-19 -3.2314e-41 4.8095537e-36 7.643635e-22 -7.511988e-35 1.031054e-39
-5.971e-41 4.6940147e-27 -3.575587e-23 1.7658105e-28 9.634561e-27 1.0293552e-20 -1.7714726e-32 -8.0209394e-33
-3.4790773e-27 -5.0923e-41 1.032e-41 -6.9241e-41 1.853511e-24 5.3234273e-34 1.18263e-40 6.027308e-19
-2.6592886e-25 2.229989e-27 6.7127734e-38 7.5157e-41 2.3269252e-19 -2.823074e-29 -2.1473607e-22 2.9514134e-33

e_conv4.point_conv.bias f4 [32]
00000000: e8a1 abad 83f2 8489 3435 19aa f1f0 8636
00000010: 707b b19f abec 1d2d 2884 48a4 58bb 08ac
00000020: cd72 3ba3 632e a2ae 1321 32af 621a 043b
00000030: d171 bb9d 861d 43a8 05b1 f6ac aac4 292d
00000040: 4436 ad12 fa8f 0f30 f100 9332 5d0c 972e
00000050: b228 7631 7254 0a1e 110b 1fa4 2f14 0331
00000060: 830a 72a6 9c9e aba5 1f73 80ac 3c4a 3790
00000070: f987 9eac 9607 a790 3ec0 0a31 bd92 d7a8
-1.951235e-11 -3.20059e-33 -1.3607588e-13 4.0215605e-06 -7.5166626e-20 8.976968e-12 -4.3480028e-17 -1.943076e-12
-1.01616e-17 -7.375147e-11 -1.6200756e-10 0.0020157327 -4.961617e-21 -1.0831076e-14 -7.0113936e-12 9.650206e-12
1.0931212e-27 5.22277e-10 1.711348e-08 6.868881e-11 3.5820844e-09 7.323122e-21 -3.4487003e-17 1.9074482e-09
-8.397486e-16 -2.977125e-16 -3.65076e-12 -3.6147574e-29 -4.505726e-12 -6.5881574e-29 2.019092e-09 -2.3933433e-14
