Zero-DCE++/snapshots_Zero_DCE++/Epoch90.pth (torch, 51217 bytes, 28 tensors)

e_conv1.depth_conv.weight f4 [3, 1, 3, 3]
0	0xbeb43eab	-0.35204062
1	0xbe3c9763	-0.18417124
2	0xbc019dc6	-0.007911151
3	0xbe295a59	-0.16538371
4	0x3dbf62fe	0.09345053
5	0x3dbd7bab	0.092521034
6	0xbed90362	-0.42385393
7	0xbe3b6204	-0.18299109
8	0xbd4d7f0b	-0.050169986
9	0x3e4d2680	0.20034218
10	0x3e340393	0.17579488
11	0x3eb66543	0.35624132
12	0x3e398440	0.18116856
13	0x3d08a225	0.033357758
14	0x3e6b285f	0.22964619
15	0x3da996f3	0.082807444
16	0x3d482cd4	0.048870876
17	0x3e6cfd8e	0.23143598
18	0x3d7d3a96	0.06182345
19	0xbd010c7b	-0.031506043
20	0xbdeb0e18	-0.114772975
21	0xbd126374	-0.035739377
22	0xbd5a7a86	-0.053339504
23	0xbddb64f7	-0.10712617
24	0xbdf69203	-0.12039568
25	0xbe2aec7a	-0.16691771
26	0xbead96b2	-0.33904034

e_conv1.depth_conv.bias f4 [3]
0	0x3d9d0175	0.076662935
1	0x3e9a922c	0.30189645
2	0xbd60c3d2	-0.05487425

e_conv1.point_conv.weight f4 [32, 3, 1, 1]
0	0x3c749cb1	0.014929936
1	0x3dea4e73	0.11440744
2	0x3d0705a1	0.032964353
3	0x106cb700	4.668377e-29
4	0xa975c7fe	-5.4574394e-14
5	0x8fb9f683	-1.8337361e-29
6	0x00003f7b	2.2773e-41
7	0xa20d8f26	-1.9184845e-18
8	0x80005fdb	-3.4386e-41
9	0x3dc45e65	0.09588317
10	0xbefdfa57	-0.49605057
11	0x3e2aefb7	0.16693006
12	0x8d26a012	-5.1345377e-31
13	0x8f09fa8b	-6.802874e-30
14	0x0f09e4e7	6.7987065e-30
15	0x3ce790a4	0.028267212
16	0x3da35fe0	0.07977271
17	0x3ebe5486	0.3717386
18	0x3e0179ff	0.12644194
19	0x3e9d6ce6	0.30747145
20	0xbde8da0b	-0.113697134
21	0x039b1350	9.114515e-37
22	0x027cd1cf	1.8574248e-37
23	0x0340be80	5.664241e-37
24	0x3d71bc05	0.0590172
25	0xbbc689c6	-0.0060589043
26	0x3dcfe5b9	0.10151238
27	0x3d33f639	0.043935988
28	0xbc0710d1	-0.008243755
29	0xbdb7c324	-0.08972767
30	0x3eceeebb	0.40416512
31	0xbf0d7123	-0.5525076
32	0x3e987281	0.2977486
33	0xbc1e3593	-0.009656328
34	0xbd00774d	-0.031363774
35	0x3d334135	0.04376336
36	0x3e4b9d29	0.1988417
37	0xbebddec5	-0.37084022
38	0xbe2f1ebc	-0.17101568
39	0xbd84e2b8	-0.06488556
40	0xbe201ba5	-0.15635546
41	0x3e08f2a3	0.13373809
42	0x0001101a	9.7612e-41
43	0x00011363	9.879e-41
44	0x000183c0	1.39098e-40
45	0x3c3c1045	0.011478488
46	0x3e916ccc	0.28403318
47	0x3e609589	0.21932043
48	0xbe80fd72	-0.25193363
49	0x3eb44a7d	0.3521308
50	0xbe7856e3	-0.24251895
51	0x00093983	8.47151e-40
52	0x8004e8c6	-4.50845e-40
53	0x80063617	-5.70417e-40
54	0xb0ef9352	-1.743141e-09
55	0xb480cfaa	-2.3992953e-07
56	0xaddc9003	-2.5075058e-11
57	0x8000ba77	-6.6891e-41
58	0x055441a0	9.9802455e-36
59	0x80004b5e	-2.7037e-41
60	0xbf0a4280	-0.5400772
61	0xbd34ca8d	-0.04413848
62	0xbea5e87f	-0.32403943
63	0x9c225439	-5.371016e-22
64	0xaec571f9	-8.9787684e-11
65	0x9b90dc25	-2.3965067e-22
66	0xbc032483	-0.008004311
67	0x3bed5d03	0.007243754
68	0x3bafe8ca	0.005368327
69	0x80008129	-4.6334e-41
70	0x93830553	-3.30743e-27
71	0x00006784	3.7134e-41
72	0x341cadef	1.4591909e-07
73	0xb762b592	-1.3512925e-05
74	0x32a9bd50	1.9760279e-08
75	0x3c7b71bc	0.015346941
76	0x3b78dbef	0.0037972888
77	0xbbadca37	-0.005303647
78	0xbab05200	-0.0013452172
79	0x39a374bd	0.0003117676
80	0x375091ad	1.2431684e-05
81	0x3e91a5e2	0.2844687
82	0xbe0fb3c1	-0.14033414
83	0xbe6e7655	-0.23287328
84	0x3d6262cf	0.055270012
85	0x3a6b8096	0.00089836994
86	0xbbdad6c2	-0.006678433
87	0x335f35ed	5.197028e-08
88	0xb2c2fcbe	-2.2699506e-08
89	0x33017583	3.014203e-08
90	0x3e67b6eb	0.22628371
91	0x3c3ae39e	0.011406807
92	0xbd911a8f	-0.07085144
93	0xbe5e2724	-0.21694618
94	0x3ee73c8d	0.45163384
95	0xbe872d11	-0.2640157

e_conv1.point_conv.bias f4 [32]
0	0xbdb22e3c	-0.08700225
1	0xaa410d08	-1.7146365e-13
2	0xa88e1845	-1.5775692e-14
3	0x3f11ca10	0.5694895
4	0x0e3aab4a	2.3008743e-30
5	0x3da8437b	0.08215996
6	0x3e79de79	0.24401273
7	0x84067bd0	-1.5808476e-36
8	0x3d85459d	0.06507418
9	0xbc88036d	-0.016603196
10	0x3ecf861d	0.40532008
11	0x3eeb334a	0.45937568
12	0x3ebb6154	0.36597693
13	0x3e9c2fbe	0.30505174
14	0x80019e99	-1.4873e-40
15	0x3ee872b1	0.45400003
16	0xbb612ad1	-0.0034357796
17	0x82e4e155	-3.3630923e-37
18	0xb591d82f	-1.086626e-06
19	0x9bfed5fc	-4.215906e-22
20	0x3ed00775	0.4063069
21	0xb1016862	-1.8831305e-09
22	0x3e9649e9	0.29353264
23	0x96ac91c0	-2.788008e-25
24	0xb7e26b3d	-2.6991236e-05
25	0x3ac94360	0.0015355162
26	0xb9f272eb	-0.00046243457
27	0x3e93144d	0.28726426
28	0x3cb6b947	0.022305144
29	0xb2ff9611	-2.975415e-08
30	0x3f094b72	0.53630745
31	0xbd957c0e	-0.07299052

e_conv2.depth_conv.weight f4 [32, 1, 3, 3]
0	0xbb7622a3	-0.0037557266
1	0xbb837fe0	-0.0040130466
2	0xbaeb6808	-0.0017960081
3	0xbc66a312	-0.014076965
4	0xbc7926d0	-0.0152070075
5	0xbbfc0edb	-0.0076922006
6	0xbc8c3d97	-0.017119212
7	0xbc85c12d	-0.016327465
8	0xbbfe4979	-0.0077602235
9	0x00011e65	1.02739e-40
10	0x00014325	1.15922e-40
11	0x0000b9cc	6.6651e-41
12	0x00012284	1.04217e-40
13	0x00012109	1.03686e-40
14	0x80003f5e	-2.2732e-41
15	0x0000e19b	8.0932e-41
16	0x8000af11	-6.2802e-41
17	0x80011c03	-1.01884e-40
18	0x0001f309	1.7902e-40
19	0x800159b8	-1.2402e-40
20	0x80012742	-1.05919e-40
21	0x00016d7d	1.31112e-40
22	0x0000519e	2.9279e-41
23	0x80014ea2	-1.20044e-40
24	0x0001d054	1.6657e-40
25	0x000009e9	3.555e-42
26	0x0001415f	1.15286e-40
27	0xbe88b1c7	-0.26698133
28	0xbe6ac0d5	-0.22925122
29	0xbd1f85a5	-0.038945813
30	0xbdeb939f	-0.11502766
31	0x3d8fc294	0.07019535
32	0x3e55a7db	0.20864813
33	0x3e844f18	0.25841594
34	0x3bd8400d	0.0065994323
35	0x3ef2548a	0.47330123
36	0x0ba7671f	6.448122e-32
37	0x0cc74673	3.0703205e-31
38	0x0d0a96fc	4.2706274e-31
39	0x0b4505d8	3.7945216e-32
40	0x0cc73855	3.0694708e-31
41	0x0d0610e8	4.131229e-31
42	0x0cb21476	2.7437557e-31
43	0x0d07b448	4.1817092e-31
44	0x0cc1bb51	2.9849095e-31
45	0x3d412809	0.04715732
46	0x3d87e0a6	0.06634645
47	0x3d20592d	0.039147545
48	0x3d0945db	0.033513885
49	0x3dad006a	0.084473446
50	0x3d298226	0.041383885
51	0xbd7c4df2	-0.061597772
52	0xbca1dc39	-0.01975833
53	0xbe236e10	-0.15959954
54	0x3d75169f	0.059836026
55	0xbd1b957f	-0.037984367
56	0xbe8c0d41	-0.27353862
57	0x3d621306	0.055193923
58	0x3e02ba61	0.1276641
59	0xbdae3cc9	-0.085076876
60	0xbc9c2b4b	-0.019063612
61	0xbbdf1dcc	-0.006808972
62	0xbe90b7f6	-0.2826535
63	0x0208b82c	1.0044557e-37
64	0x01d00cdf	7.64256e-38
65	0x8125d5b5	-3.045904e-38
66	0x022c5d44	1.266333e-37
67	0x020b8f93	1.0253311e-37
68	0x801055b3	-1.500111e-39
69	0x0239c861	1.3649159e-37
70	0x02008359	9.44165e-38
71	0x80a0a34f	-1.4752263e-38
72	0x3c40e5e8	0.011773564
73	0x3b5a0df3	0.0033272475
74	0x3a445cfd	0.0007490663
75	0x3bb55647	0.0055339667
76	0x39643e21	0.00021766919
77	0x3b14ecfb	0.002272426
78	0x3bd3b853	0.006461182
79	0x3c367e4d	0.011138511
80	0x3cd9bf4f	0.02658048
81	0x3bb55503	0.005533816
82	0x3b13b22d	0.002253662
83	0xbb1fbcd1	-0.0024374018
84	0x3bb8f8b7	0.0056448835
85	0x37d1b38a	2.4998346e-05
86	0xbba07fdb	-0.004898054
87	0x3b52f378	0.0032188576
88	0xbb0c37d1	-0.0021395574
89	0xbb362f4a	-0.0027799183
90	0x3ea23214	0.31678832
91	0x3e565068	0.2092911
92	0x3e817585	0.25284973
93	0x3e5981fb	0.2124099
94	0xbd86b77e	-0.06577967
95	0x3e8350a1	0.25647452
96	0x3e9669a1	0.29377463
97	0x3dd057ec	0.1017302
98	0x3e07ddbe	0.13268182
99	0x3e7cc107	0.24683009
100	0xbe00031f	-0.1250119
101	0x3e456562	0.19276956
102	0x3d9ab18b	0.07553395
103	0xbe427fda	-0.18994084
104	0xbdb50d65	-0.088404454
105	0x3e827f1f	0.2548761
106	0x3d88a418	0.066719234
107	0x3e3eefcd	0.18646164
108	0x3eccd5ab	0.40006766
109	0x3e0247fd	0.12722774
110	0x3e6502ec	0.22364396
111	0x3e87e9a3	0.26545438
112	0x3e241f7f	0.1602764
113	0x3db87182	0.09006025
114	0x3e7e9f59	0.24865474
115	0x3de61529	0.11234505
116	0xbd8cb455	-0.06870333
117	0x3cdbc8f6	0.026829224
118	0x3d6add54	0.05733998
119	0x3dcac48c	0.099007696
120	0x3dbc9d16	0.09209649
121	0xbdb5e47a	-0.08881469
122	0x3e32a6a0	0.17446375
123	0xbd3eaaf4	-0.046549752
124	0x3d8c9efe	0.06866263
125	0x3ec181e3	0.37794408
126	0x80006d33	-3.9173e-41
127	0x80008e40	-5.103e-41
128	0x800019cd	-9.256e-42
129	0x00003935	2.0522e-41
130	0x80014844	-1.1776e-40
131	0x80014451	-1.16343e-40
132	0x000052cb	2.97e-41
133	0x800094da	-5.3398e-41
134	0x80005be4	-3.2964e-41
135	0xbd4b2a82	-0.049601085
136	0x3e0f37e6	0.13986167
137	0xbe053c5d	-0.13011308
138	0x3ded6f65	0.115935124
139	0x3e4275ae	0.18990204
140	0x3e24ec83	0.16105847
141	0xbe104065	-0.14087065
142	0xbd8a60b1	-0.06756724
143	0xbdc0bcf3	-0.09411039
144	0x3dcfb1af	0.10141312
145	0x3e5961b0	0.21228671
146	0x3eb12138	0.34595656
147	0x3dbf6767	0.09345894
148	0x3cca8eae	0.024726238
149	0x3de90d27	0.11379462
150	0xbe0f3028	-0.13983214
151	0xbdacd163	-0.08438375
152	0xbe582f95	-0.21111901
153	0x80001645	-7.989e-42
154	0x00001ce8	1.037e-41
155	0x0001167d	9.9903e-41
156	0x000051da	2.9363e-41
157	0x0000274a	1.4094e-41
158	0x0000bc00	6.7442e-41
159	0x00007821	4.3094e-41
160	0x0000b454	6.469e-41
161	0x8000831c	-4.7033e-41
162	0x80011fe9	-1.03283e-40
163	0x0000be42	6.8252e-41
164	0x000087a5	4.866e-41
165	0x80016015	-1.26303e-40
166	0x00017aad	1.35843e-40
167	0x0001b8a7	1.58076e-40
168	0x80005590	-3.0694e-41
169	0x00011c4f	1.01991e-40
170	0x000085e7	4.8035e-41
171	0x800037ff	-2.0088e-41
172	0x0000ec3a	8.4742e-41
173	0x800147e0	-1.1762e-40
174	0x8000796a	-4.3555e-41
175	0x00013685	1.11393e-40
176	0x8000082b	-2.93e-42
177	0x80014c1e	-1.19141e-40
178	0x8000b5df	-6.5243e-41
179	0x00008599	4.7926e-41
180	0xbdb0ae92	-0.08627047
181	0x3e568f29	0.20953049
182	0xbe415009	-0.18878187
183	0xbe9f2a95	-0.31087175
184	0xbc1fa8b7	-0.009744815
185	0x3d3bb38b	0.045825522
186	0xbeb6f0fd	-0.35730734
187	0xbe64b2ad	-0.22333784
188	0xbe811bcc	-0.2521652
189	0x80001f68	-1.1266e-41
190	0x000090b4	5.191e-41
191	0x0000db03	7.8567e-41
192	0x00009747	5.4268e-41
193	0x8000beac	-6.84e-41
194	0x0000e4cc	8.2077e-41
195	0x00004fb9	2.8599e-41
196	0x8000104f	-5.85e-42
197	0x80001b6c	-9.837e-42
198	0xbd8b4388	-0.0679999
199	0xbd8bf89b	-0.06834527
200	0x3cb0572e	0.021525946
201	0xbd9ebd03	-0.07750895
202	0xbd674668	-0.05646363
203	0xbb32d3ba	-0.0027286843
204	0xbd7afe95	-0.061277945
205	0xbd7e0d58	-0.062024444
206	0xbcadcd81	-0.021216156
207	0x00017631	1.34235e-40
208	0x00005d35	3.3436e-41
209	0x8000ca9e	-7.2685e-41
210	0x000052a4	2.9646e-41
211	0x80013cf0	-1.13696e-40
212	0x00015a90	1.24323e-40
213	0x8000537f	-2.9953e-41
214	0x00012f05	1.08703e-40
215	0x000120c2	1.03587e-40
216	0x8000639a	-3.573e-41
217	0x00000c5f	4.438e-42
218	0x000045b8	2.501e-41
219	0x00007724	4.274e-41
220	0x80005248	-2.9517e-41
221	0x00002e27	1.6556e-41
222	0x80008fe4	-5.1618e-41
223	0x0000cbab	7.3062e-41
224	0x0000b09f	6.336e-41
225	0x38a84915	8.024477e-05
226	0xb86574cd	-5.4706634e-05
227	0xb8b18f8d	-8.466756e-05
228	0xb8cb4706	-9.6930235e-05
229	0xb9219c37	-0.00015412351
230	0xb9017d68	-0.00012349116
231	0xb87aed64	-5.9825732e-05
232	0xb7975db4	-1.8044237e-05
233	0x389b30b7	7.40005e-05
234	0x38f7a259	0.000118081174
235	0x38ab86fb	8.1790575e-05
236	0x38c8bbaf	9.571702e-05
237	0x38982d2d	7.2563394e-05
238	0x38835b5f	6.263586e-05
239	0x389e82c0	7.558381e-05
240	0x38d85e79	0.000103172795
241	0x38f5a76d	0.00011713696
242	0x38cdf64c	9.821038e-05
243	0x3ea7f684	0.32805264
244	0xbc1077aa	-0.008817593
245	0x3d5f22cd	0.054476548
246	0x3b1e9ae2	0.0024201204
247	0x3c895834	0.016765691
248	0x3d617072	0.055038877
249	0x3c94e249	0.018174307
250	0xbb37966d	-0.0028013245
251	0xbd7817a9	-0.06056944
252	0x3ae69225	0.0017591162
253	0x3a93b1a5	0.0011268152
254	0xba1014a0	-0.00054962374
255	0x3b0d2d88	0.0021542031

e_conv2.depth_conv.bias f4 [32]
0	0x3dba24cd	0.090890504
1	0xbda1a713	-0.07893195
2	0x375d037b	1.3173437e-05
3	0xbd5cf1ac	-0.053941414
4	0xbe0e564b	-0.13900106
5	0x3e3ab44a	0.18232837
6	0x3cc29d07	0.023756517
7	0x3df7792e	0.1208366
8	0x3e753c0d	0.23948689
9	0xbe6f08d2	-0.23343208
10	0x3c736fbd	0.014858183
11	0xbdbcacf7	-0.09212678
12	0xbe5e6bfc	-0.2172088
13	0xbd5172f2	-0.05113501
14	0x3dfb4da7	0.122706704
15	0x3e4e682f	0.2015693
16	0x3e1b7453	0.15181093
17	0xbb105285	-0.0022021842
18	0x34b8fde2	3.4457395e-07
19	0x3e1ab8e0	0.15109587
20	0x3e859179	0.2608755
21	0x3e25aa7e	0.16178319
22	0xbdc6acdf	-0.09700941
23	0x3e1b39c4	0.15158755
24	0xbd8b2a32	-0.067951575
25	0xbcb5a66d	-0.022174085
26	0x3d77e5a9	0.060521755
27	0xbe48d8e6	-0.1961399
28	0xbd18833e	-0.037234537
29	0xbe1f35a3	-0.15547805
30	0xbd9ebb7e	-0.07750605
31	0x3e99a456	0.3000819

e_conv2.point_conv.weight f4 [32, 32, 1, 1]
0	0xbc3bbaa3	-0.011458072
1	0xbb882493	-0.0041547506
2	0xb80dd033	-3.381092e-05
3	0x3d952146	0.07281737
4	0x3c7238e1	0.014784069
5	0xbd94bc6d	-0.07262502
6	0x3c8e5dcb	0.017378708
7	0xbcbea0e3	-0.023270076
8	0xbd532d98	-0.051557153
9	0x3c56896f	0.01309429
10	0x3d81d404	0.06339267
11	0x3cf4afc8	0.029868975
12	0x3e299454	0.16560489
13	0x3cfd94e7	0.030954791
14	0xbc4852ff	-0.012226819
15	0xbdfe53ec	-0.124183506
16	0x3c9d2c1d	0.019186074
17	0x3aa0a230	0.0012255367
18	0xb5ee610d	-1.7760627e-06
19	0xbd2ff885	-0.042961616
20	0x3e978b90	0.29598665
21	0x3c65ca05	0.014025216
22	0x3d49563a	0.049154498
23	0xbd4c2f68	-0.049849898
24	0x3b2cdd06	0.0026376857
25	0x3b7c6aab	0.0038515728
26	0xbc3c097c	-0.011476871
27	0x3d409f27	0.04702678
28	0x3c54ec34	0.012995768
29	0x3cd420ba	0.025894511
30	0xbe1481f4	-0.14502698
31	0x3c17a848	0.00925643
32	0x3d3d4f09	0.046217952
33	0xbd5e6a8f	-0.05430084
34	0x377d18f4	1.5085785e-05
35	0xbcc0eb64	-0.023549743
36	0x3bcb8be5	0.006211745
37	0x3cfec37a	0.03109907
38	0x3c92bebc	0.017913215
39	0x3cab9d3d	0.020949
40	0x3da6382b	0.08116182
41	0xbda45d1a	-0.0802557
42	0x3ea4f13e	0.32215303
43	0x3e6f39b7	0.2336186
44	0x3e8755e2	0.2643271
45	0x3e1a9b53	0.15098314
46	0xb8a18cad	-7.703281e-05
47	0x3dc06181	0.093935974
48	0x3e045f31	0.12926938
49	0xba24766e	-0.0006273751
50	0x33adf74f	8.1009254e-08
51	0x3a00b620	0.0004909951
52	0xbca9c60b	-0.020724317
53	0x3d2ee674	0.042700246
54	0xbc81c7f6	-0.01584242
55	0x3db79088	0.08963114
56	0xbc39ce61	-0.0113407085
57	0xbb7d97d6	-0.0038695238
58	0xbb740412	-0.0037233871
59	0x3e582865	0.2110916
60	0xbd204713	-0.03913028
61	0xbce0cf8a	-0.027442712
62	0xbe92eb69	-0.2869523
63	0x3df17c31	0.11791266
64	0x3c89c1aa	0.016815979
65	0xbc9f966d	-0.019480908
66	0xb6409fc5	-2.8703228e-06
67	0x3ea2de0a	0.31810027
68	0xbca20dd8	-0.019781992
69	0x3d682d42	0.056683786
70	0x3cfc51e6	0.030800771
71	0x3ca54ca7	0.020178152
72	0x3bc86dd5	0.0061166086
73	0xbd5eac7b	-0.05436371
74	0xbdfe5947	-0.12419372
75	0xbdfbd20d	-0.122959234
76	0xbe8e1df8	-0.2775724
77	0x3c0ed9a2	0.00871888
78	0x3c839877	0.016063912
79	0x3d6daa8a	0.058023967
80	0x3cf958e1	0.030437889
81	0xba616a42	-0.00085989025
82	0x3468750a	2.1649262e-07
83	0x3d07427d	0.033022393
84	0xbb2da8b2	-0.0026498255
85	0x3cf3794d	0.029720927
86	0xbb984fd1	-0.0046481867
87	0x3d5e3327	0.054248
88	0xbc92e912	-0.017933402
89	0xbbe4c288	-0.0069811977
90	0x3c922cab	0.017843565
91	0xbe7e792c	-0.24850911
92	0xbc627520	-0.01382187
93	0xbd28dea2	-0.041227944
94	0x3dc7676c	0.09736523
95	0x3ca5880f	0.02020648
96	0x8000e96d	-8.3737e-41
97	0x8000cb5d	-7.2953e-41
98	0x8001517d	-1.21068e-40
99	0x800160ac	-1.26515e-40
100	0x0000d894	7.7694e-41
101	0x80009e07	-5.669e-41
102	0x0000b87f	6.6185e-41
103	0x00012572	1.05268e-40
104	0x0000eb01	8.4304e-41
105	0x0001103b	9.7658e-41
106	0x0001615c	1.26761e-40
107	0x00011cab	1.0212e-40
108	0x80012515	-1.05138e-40
109	0x80001f9b	-1.1338e-41
110	0x800102fa	-9.2903e-41
111	0x80013e9e	-1.14298e-40
112	0x000185d4	1.39844e-40
113	0x80018b28	-1.41755e-40
114	0x00018e8d	1.42973e-40
115	0x00006539	3.6312e-41
116	0x80012d7a	-1.0815e-40
117	0x00010c70	9.6297e-41
118	0x8000fc4d	-9.0508e-41
119	0x8000ae4b	-6.2525e-41
120	0x80002526	-1.3326e-41
121	0x8000b591	-6.5134e-41
122	0x0001583c	1.23488e-40
123	0x8001eaa2	-1.76006e-40
124	0x00016a50	1.29973e-40
125	0x8001a852	-1.52217e-40
126	0x000153f7	1.21956e-40
127	0x00013fa8	1.14671e-40
128	0x3ae25bbc	0.0017269771
129	0xb9976e23	-0.00028883023
130	0xb71d864d	-9.389199e-06
131	0xbcdb0ed3	-0.026740467
132	0x3c182ce4	0.0092880465
133	0x3d958f7c	0.07302758
134	0xbdefaa8c	-0.11702451
135	0x3bf975ef	0.0076129357
136	0xbbf41b5c	-0.0074495506
137	0xbcf01919	-0.029308842
138	0xbd5319ad	-0.05153816
139	0xbc9a26bf	-0.018817304
140	0xbd52e25c	-0.051485404
141	0xbd2d387a	-0.04229019
142	0x3c5d9a05	0.013525491
143	0x3e074dc0	0.13213253
144	0x3cd39339	0.025827037
145	0xb9eef720	-0.0004557902
146	0xb4d3f0fc	-3.9477152e-07
147	0x3ce42833	0.0278512
148	0x3c2af5f1	0.010434614
149	0x39d5432d	0.00040676576
150	0xbc1fd248	-0.009754725
151	0xbbd54e6a	-0.006509592
152	0xbc122ec9	-0.008922287
153	0xbb195c00	-0.0023400784
154	0x3c0962f9	0.008385413
155	0xbc57b313	-0.013165253
156	0xbbd1afe5	-0.006399142
157	0xbcd5b4f5	-0.026087264
158	0x3cd9202a	0.026504595
159	0xbdaa1ad5	-0.08305899
160	0x3c293104	0.010326628
161	0xbc2130cd	-0.009838295
162	0x362b0ee2	2.5489649e-06
163	0x3c8f8365	0.017518708
164	0xbc8ae179	-0.016953217
165	0x3ccab14b	0.024742743
166	0x3dbbad09	0.09163863
167	0x3c60de1e	0.013724832
168	0x3cdea0a1	0.027176203
169	0xbcd559ca	-0.026043791
170	0x3d344ff2	0.044021554
171	0xbd348741	-0.0440743
172	0x3cca9c70	0.024732798
173	0xbbe4e066	-0.006984758
174	0x3c6a3077	0.0142937815
175	0x3d514c14	0.051097944
176	0x3bb79544	0.0056025106
177	0xb9b94cf9	-0.000353433
178	0x3491a31a	2.7127027e-07
179	0x3c88eb3c	0.016713731
180	0x3d86a436	0.065742895
181	0x3c9b4b6c	0.018956862
182	0xbca81215	-0.020516435
183	0x3c963438	0.018335447
184	0xbbdaab0a	-0.0066732215
185	0xbb10a998	-0.0022073742
186	0x3bcfe879	0.0063448516
187	0xbc680a8b	-0.01416267
188	0xbb8f667c	-0.0043762308
189	0xbc8dc215	-0.01730446
190	0x3cb3f3cc	0.021966837
191	0x3e0f96b6	0.14022335
192	0x3b9c9378	0.004778322
193	0x3c33d36e	0.010975702
194	0xb6c04b30	-5.730799e-06
195	0x3e276e85	0.16350754
196	0xbb6a99ec	-0.003579731
197	0xbe3d0383	-0.18458371
198	0x3e051c13	0.1299899
199	0xbace3cee	-0.0015734711
200	0xbb95d9b2	-0.0045730704
201	0xbc8a941a	-0.016916323
202	0x3eb07dcd	0.34470978
203	0x3e036102	0.12829974
204	0x3e2f8b79	0.17143048
205	0x3e49d932	0.1971176
206	0x38275adc	3.9900522e-05
207	0xbdbed3a8	-0.09317714
208	0x3e2ae580	0.1668911
209	0x395090aa	0.00019890317
210	0xb5324e67	-6.642426e-07
211	0x3bf87386	0.007582131
212	0xbd271f7f	-0.04080152
213	0x3bae317d	0.005315958
214	0x3ccf89a7	0.025334192
215	0x39d21c8e	0.00040075596
216	0x3b8aed33	0.004239702
217	0x3ad724da	0.0016414181
218	0xbb000fb8	-0.001954062
219	0x3e02dca6	0.12779483
220	0x3b167b8e	0.0022961828
221	0x3c687cfc	0.014189955
222	0xbe2e641a	-0.17030373
223	0x3df5ec37	0.12007945
224	0x0fdba534	2.1658701e-29
225	0x8fbcbe89	-1.8611623e-29
226	0x098dba89	3.4119932e-33
227	0x0dfc2154	1.55387225e-30
228	0x8ff6781e	-2.430374e-29
229	0x100c2f8c	2.764676e-29
230	0x8f6b32a1	-1.1596145e-29
231	0x0ff37f22	2.401062e-29
232	0x10189807	3.0093832e-29
233	0x9016c70d	-2.9735627e-29
234	0x8f275ab5	-8.251205e-30
235	0x104247ff	3.8315218e-29
236	0x8e2af65e	-2.107274e-30
237	0x100f649d	2.8279287e-29
238	0x0ff32773	2.3976845e-29
239	0x1025f89f	3.2732043e-29
240	0x10559ce9	4.2127722e-29
241	0x8d137c1b	-4.544726e-31
242	0x047999ff	2.934052e-36
243	0x0ffecd53	2.5125422e-29
244	0x9092835c	-5.778924e-29
245	0x10025ecd	2.571101e-29
246	0x901350e6	-2.905296e-29
247	0x0ff6cc07	2.4336061e-29
248	0x8fa23f54	-1.5998826e-29
249	0x8eb4483f	-4.4442996e-30
250	0x0f8e2004	1.4014613e-29
251	0x8ff7eb7d	-2.4446787e-29
252	0x8f29a769	-8.364585e-30
253	0x90019656	-2.555658e-29
254	0x90a5385d	-6.5167866e-29
255	0x8faa6acb	-1.680443e-29

e_conv2.point_conv.bias f4 [32]
0	0x3d9f3dd6	0.07775466
1	0x3d93a8c8	0.07209927
2	0x3df1eca0	0.11812711
3	0x8000d511	-7.6434e-41
4	0x3e164630	0.14675212
5	0x3daffbb5	0.08592931
6	0xbc833de1	-0.016020717
7	0x10a8c6f8	6.6570876e-29
8	0x3d96cbcb	0.07363089
9	0x3d93f032	0.07223548
10	0x3b803499	0.00391252
11	0xbd7ba790	-0.061439097
12	0x3b6c2a3b	0.0036035914
13	0x3e0cdd24	0.13756233
14	0x3e0bf1e5	0.13666494
15	0x800070f7	-4.0524e-41
16	0x0000c564	7.081e-41
17	0x3c439a81	0.011938692
18	0x3cc6ec23	0.02428252
19	0x2cc3ca0f	5.5646663e-12
20	0xbd892c35	-0.06697885
21	0xbb27ee1e	-0.0025624107
22	0x3c26423f	0.01014763
23	0xb8a9b8dc	-8.092981e-05
24	0x3d5bbff7	0.05364987
25	0x9a214e15	-3.3357094e-23
26	0x3d26a7d9	0.040687416
27	0xbdc37aa9	-0.0954488
28	0x8000ce98	-7.4112e-41
29	0x0000a0e3	5.7715e-41
30	0x3d5da24a	0.05410985
31	0x3da81ede	0.082090124

e_conv3.depth_conv.weight f4 [32, 1, 3, 3]
0	0x00023454	2.02443e-40
1	0x80010561	-9.3765e-41
2	0x8001111f	-9.7977e-41
3	0x00013d3a	1.138e-40
4	0x00010058	9.1959e-41
5	0x00001146	6.197e-42
6	0x00019681	1.45826e-40
7	0x80001f73	-1.1282e-41
8	0x80014359	-1.15995e-40
9	0x80000a3f	-3.676e-42
10	0x80010586	-9.3817e-41
11	0x000137ca	1.11849e-40
12	0x00016d0d	1.30956e-40
13	0x80022bc2	-1.99368e-40
14	0x0001b8e0	1.58156e-40
15	0x8000a0e7	-5.7721e-41
16	0x0000a41c	5.8871e-41
17	0x00006fca	4.0102e-41
18	0x00006f2b	3.988e-41
19	0x000135cd	1.11136e-40
20	0x00002cff	1.6142e-41
21	0x00008d05	5.0588e-41
22	0x80010e6a	-9.7006e-41
23	0x80021d8b	-1.94269e-40
24	0x8001003a	-9.1917e-41
25	0x00001be6	1.0008e-41
26	0x80003788	-1.9921e-41
27	0x80010fef	-9.7551e-41
28	0x000177fd	1.34879e-40
29	0x8000dcbe	-7.9187e-41
30	0x00000f24	5.431e-42
31	0x80014357	-1.15992e-40
32	0x8001317f	-1.09591e-40
33	0x0000891d	4.9187e-41
34	0x8001379c	-1.11784e-40
35	0x0000076d	2.664e-42
36	0x0000e8c5	8.3502e-41
37	0x00012a6d	1.07055e-40
38	0x00016d4d	1.31045e-40
39	0x80001bd0	-9.977e-42
40	0x80001f47	-1.122e-41
41	0x8001499c	-1.18242e-40
42	0x0000dc55	7.904e-41
43	0x0000ea5e	8.4075e-41
44	0x8000f943	-8.9418e-41
45	0x80013d94	-1.13926e-40
46	0x00011db4	1.02491e-40
47	0x80012931	-1.06612e-40
48	0x80007bcd	-4.4411e-41
49	0x0001ed8f	1.77055e-40
50	0x00014378	1.16039e-40
51	0x00007722	4.2737e-41
52	0x800128e2	-1.06501e-40
53	0x80008a01	-4.9506e-41
54	0x000162d4	1.27288e-40
55	0x800038b4	-2.0341e-41
56	0x80021dab	-1.94314e-40
57	0x8000db50	-7.8675e-41
58	0x80007c87	-4.4672e-41
59	0x8000d1b7	-7.5232e-41
60	0x0000a1e6	5.8078e-41
61	0x0001b70f	1.57505e-40
62	0x000127c2	1.06098e-40
63	0x8000ce2d	-7.3962e-41
64	0x800019d8	-9.271e-42
65	0x8000aafe	-6.134e-41
66	0x800095ab	-5.3691e-41
67	0x00001298	6.67e-42
68	0x00009f24	5.7089e-41
69	0x8000a491	-5.9035e-41
70	0x80007bd4	-4.4421e-41
71	0x0000c371	7.0111e-41
72	0x800124a9	-1.04987e-40
73	0x80016b3b	-1.30303e-40
74	0x0000f50d	8.7908e-41
75	0x800054fb	-3.0485e-41
76	0x800161de	-1.26944e-40
77	0x80012501	-1.0511e-40
78	0x00015eee	1.2589e-40
79	0x80018914	-1.4101e-40
80	0x00013597	1.1106e-40
81	0x8001e1f3	-1.72891e-40
82	0x8001a621	-1.51431e-40
83	0x0000ea4f	8.4054e-41
84	0x00010fb3	9.7467e-41
85	0x00003911	2.0472e-41
86	0x0001c708	1.63234e-40
87	0x0000ce0f	7.392e-41
88	0x000101d6	9.2494e-41
89	0x80013d09	-1.13731e-40
90	0x800208fa	-1.86891e-40
91	0x80017c4a	-1.36422e-40
92	0x800126f1	-1.05805e-40
93	0x00002041	1.157e-41
94	0x8001be73	-1.60156e-40
95	0x0000962d	5.3873e-41
96	0x0000f061	8.6232e-41
97	0x00013561	1.10984e-40
98	0x800106ba	-9.4249e-41
99	0x80019ac5	-1.47356e-40
100	0x800099fc	-5.5239e-41
101	0x00014236	1.15588e-40
102	0x0001976d	1.46157e-40
103	0x800154d7	-1.2227e-40
104	0x800105c3	-9.3902e-41
105	0x0001962d	1.45708e-40
106	0x8000ce1f	-7.3942e-41
107	0x80005983	-3.2111e-41
108	0x000189f6	1.41327e-40
109	0x00013036	1.0913e-40
110	0x800121bd	-1.03939e-40
111	0x000068a1	3.7534e-41
112	0x800102de	-9.2864e-41
113	0x800033cb	-1.858e-41
114	0x0001e57f	1.74163e-40
115	0x00002bb7	1.5682e-41
116	0x00013c58	1.13483e-40
117	0x000174a2	1.33675e-40
118	0x800145a3	-1.16816e-40
119	0x00008391	4.7197e-41
120	0x80009dc8	-5.6601e-41
121	0x00001304	6.822e-42
122	0x800037d9	-2.0034e-41
123	0x8000b3e7	-6.4537e-41
124	0x0000a41c	5.8871e-41
125	0x0001523d	1.21337e-40
126	0x0001aa0e	1.5284e-40
127	0x00011df3	1.02579e-40
128	0x800080dd	-4.6227e-41
129	0x80008f0b	-5.1314e-41
130	0x0000c5a4	7.09e-41
131	0x0000c02f	6.8942e-41
132	0x80006770	-3.7106e-41
133	0x00022f2b	2.00592e-40
134	0x00011575	9.9533e-41
135	0x800052b5	-2.967e-41
136	0x0000eaf1	8.4281e-41
137	0x00005431	3.0202e-41
138	0x8000c4ce	-7.06e-41
139	0x8000354a	-1.9117e-41
140	0x80018058	-1.37877e-40
141	0x000000c3	2.73e-43
142	0x80003e1d	-2.2282e-41
143	0x0000d99a	7.8061e-41
144	0x800009c2	-3.5e-42
145	0x80013e09	-1.1409e-40
146	0x800132a8	-1.10008e-40
147	0x00015c57	1.24961e-40
148	0x0000a8c6	6.0545e-41
149	0x8000165a	-8.018e-42
150	0x00000667	2.297e-42
151	0x000119bd	1.01069e-40
152	0x8000a711	-5.9932e-41
153	0x00006123	3.4846e-41
154	0x8000c7d1	-7.168e-41
155	0x00022014	1.95178e-40
156	0x000168cb	1.29428e-40
157	0x800072ee	-4.1229e-41
158	0x8001608e	-1.26473e-40
159	0x0001e002	1.72194e-40
160	0x000148f1	1.18002e-40
161	0x0000f834	8.9039e-41
162	0x80018794	-1.40472e-40
163	0x00005378	2.9943e-41
164	0x000018c1	8.88e-42
165	0x000003d9	1.38e-42
166	0x00002cde	1.6095e-41
167	0x00011be0	1.01835e-40
168	0x8000e96f	-8.374e-41
169	0x80019371	-1.44728e-40
170	0x000148c2	1.17936e-40
171	0x00004cf8	2.7611e-41
172	0x80009db1	-5.6569e-41
173	0x0001cb77	1.64825e-40
174	0x8001db8e	-1.70597e-40
175	0x80006f3d	-3.9905e-41
176	0x00018793	1.4047e-40
177	0x8000b3d2	-6.4507e-41
178	0x0001922a	1.44269e-40
179	0x00016c51	1.30692e-40
180	0x8000f11d	-8.6495e-41
181	0x800146e4	-1.17266e-40
182	0x800194b1	-1.45176e-40
183	0x80014d2e	-1.19522e-40
184	0x00001fee	1.1454e-41
185	0x80004fdf	-2.8652e-41
186	0x0000bc78	6.761e-41
187	0x00012459	1.04875e-40
188	0x0000d285	7.552e-41
189	0x80011e34	-1.0267e-40
190	0x8000366b	-1.9521e-41
191	0x80001410	-7.197e-42
192	0x80011378	-9.882e-41
193	0x0001369b	1.11424e-40
194	0x0000a670	5.9707e-41
195	0x80008166	-4.642e-41
196	0x0000f83a	8.9047e-41
197	0x8000195d	-9.099e-42
198	0x0001397a	1.12454e-40
199	0x00008970	4.9303e-41
200	0x0000931d	5.2774e-41
201	0x00012126	1.03727e-40
202	0x80007fda	-4.5864e-41
203	0x80020c4d	-1.88084e-40
204	0x00007473	4.1774e-41
205	0x0001310b	1.09429e-40
206	0x0000183f	8.698e-42
207	0x80008e5a	-5.1066e-41
208	0x80011a8d	-1.0136e-40
209	0x000053a4	3.0005e-41
210	0x0001b0df	1.55285e-40
211	0x80010a32	-9.5493e-41
212	0x00004e87	2.817e-41
213	0x8001ca08	-1.6431e-40
214	0x00007eae	4.5444e-41
215	0x800159b9	-1.24022e-40
216	0x0001a0e8	1.49558e-40
217	0x000047ae	2.5714e-41
218	0x800216f2	-1.91902e-40
219	0x80003301	-1.8297e-41
220	0x00013b34	1.13074e-40
221	0x00014885	1.1785e-40
222	0x0000d0b3	7.4867e-41
223	0x00017328	1.33146e-40
224	0x00013384	1.10316e-40
225	0x00004568	2.4898e-41
226	0x8001232b	-1.04451e-40
227	0x8000e55e	-8.2281e-41
228	0x80008b4c	-4.997e-41
229	0x80006a76	-3.8191e-41
230	0x8001c52e	-1.6257e-40
231	0x0000adc7	6.234e-41
232	0x80001cf7	-1.039e-41
233	0x8001bc36	-1.59353e-40
234	0x80007e0e	-4.522e-41
235	0x0000b3dc	6.4521e-41
236	0x80007441	-4.1704e-41
237	0x00005f02	3.4082e-41
238	0x800008c3	-3.143e-42
239	0x0000662e	3.6655e-41
240	0x00007a65	4.3907e-41
241	0x0000e586	8.2337e-41
242	0x8000c632	-7.1099e-41
243	0x80015ad0	-1.24413e-40
244	0x0000c6ba	7.129e-41
245	0x80021ab1	-1.93246e-40
246	0x000030af	1.7464e-41
247	0x00007de8	4.5167e-41
248	0x8000a8f1	-6.0605e-41
249	0x00019be1	1.47754e-40
250	0x000100c3	9.2109e-41
251	0x00021927	1.92694e-40
252	0x0000190b	8.984e-42
253	0x000147fe	1.17661e-40
254	0x0000f856	8.9086e-41
255	0x8001a0f9	-1.49582e-40

e_conv3.depth_conv.bias f4 [32]
0	0x0001dfbe	1.72099e-40
1	0x80008a6b	-4.9655e-41
2	0x000035d9	1.9317e-41
3	0x0000603b	3.4521e-41
4	0x800182ca	-1.38754e-40
5	0x8001359a	-1.11064e-40
6	0x80011f27	-1.03011e-40
7	0x80011239	-9.8373e-41
8	0x80015b70	-1.24637e-40
9	0x8000dc64	-7.9061e-41
10	0x00016fd7	1.31956e-40
11	0x00017801	1.34885e-40
12	0x00015842	1.23496e-40
13	0x0000aa07	6.0994e-41
14	0x80010d01	-9.65e-41
15	0x80012cd1	-1.07913e-40
16	0x00020b14	1.87645e-40
17	0x0001e3fa	1.73618e-40
18	0x0001a722	1.51791e-40
19	0x0001dc18	1.7079e-40
20	0x0001d54a	1.68349e-40
21	0x0000cd82	7.3722e-41
22	0x80005a8d	-3.2483e-41
23	0x8000bb94	-6.729e-41
24	0x8000a05b	-5.7525e-41
25	0x00014283	1.15695e-40
26	0x8000805c	-4.6047e-41
27	0x00012f07	1.08706e-40
28	0x000060af	3.4684e-41
29	0x8000047f	-1.613e-42
30	0x0000caf8	7.2811e-41
31	0x800063fc	-3.5868e-41

e_conv3.point_conv.weight f4 [32, 32, 1, 1]
0	0x00011a9d	1.01383e-40
1	0x8000bc1d	-6.7482e-41
2	0x8000a761	-6.0044e-41
3	0x800121bc	-1.03937e-40
4	0x80004ef8	-2.8329e-41
5	0x00003474	1.8817e-41
6	0x8000616e	-3.4951e-41
7	0x80012b36	-1.07337e-40
8	0x00019c27	1.47852e-40
9	0x80000a30	-3.655e-42
10	0x80016f66	-1.31798e-40
11	0x80016bf4	-1.30562e-40
12	0x80007f77	-4.5726e-41
13	0x800047ca	-2.5753e-41
14	0x8000c2fd	-6.9949e-41
15	0x8001486f	-1.1782e-40
16	0x00005a75	3.245e-41
17	0x80015c60	-1.24973e-40
18	0x00008148	4.6377e-41
19	0x80017e71	-1.37194e-40
20	0x80010529	-9.3687e-41
21	0x0001407b	1.14967e-40
22	0x80012066	-1.03458e-40
23	0x0001646b	1.27859e-40
24	0x00005352	2.989e-41
25	0x800149ce	-1.18312e-40
26	0x00006e3c	3.9545e-41
27	0x8000006b	-1.5e-43
28	0x0000d016	7.4647e-41
29	0x00009253	5.2491e-41
30	0x00000260	8.52e-43
31	0x800057fc	-3.1563e-41
32	0x8001393c	-1.12367e-40
33	0x800007f6	-2.856e-42
34	0x80003928	-2.0504e-41
35	0x000024c9	1.3196e-41
36	0x80013145	-1.0951e-40
37	0x00001697	8.104e-42
38	0x8001e239	-1.72989e-40
39	0x0001596c	1.23914e-40
40	0x0001eaed	1.76111e-40
41	0x8000100c	-5.757e-42
42	0x0000c024	6.8927e-41
43	0x80017640	-1.34256e-40
44	0x8000f085	-8.6282e-41
45	0x80011db6	-1.02494e-40
46	0x800158b2	-1.23653e-40
47	0x00001ecf	1.1052e-41
48	0x0000f75f	8.874e-41
49	0x0002197d	1.92814e-40
50	0x80018992	-1.41186e-40
51	0x00006c44	3.8838e-41
52	0x0001afc7	1.54893e-40
53	0x0001489c	1.17883e-40
54	0x0001ba7d	1.58735e-40
55	0x00002b26	1.5479e-41
56	0x800155e7	-1.22651e-40
57	0x8000934b	-5.2839e-41
58	0x000095ef	5.3786e-41
59	0x00022b4e	1.99206e-40
60	0x00010e1c	9.6897e-41
61	0x800148c4	-1.17939e-40
62	0x00007460	4.1747e-41
63	0x00021ef4	1.94775e-40
64	0x80002e88	-1.6692e-41
65	0x80002cbc	-1.6048e-41
66	0x8000c11b	-6.9273e-41
67	0x8001c229	-1.61487e-40
68	0x80016f65	-1.31796e-40
69	0x8001881c	-1.40662e-40
70	0x0001e4d2	1.73921e-40
71	0x0001de4a	1.71578e-40
72	0x000028b1	1.4597e-41
73	0x80017e56	-1.37156e-40
74	0x80018d67	-1.42561e-40
75	0x80008e95	-5.1149e-41
76	0x0000c952	7.222e-41
77	0x00013769	1.11713e-40
78	0x8000222c	-1.2259e-41
79	0x0000fc36	9.0476e-41
80	0x8001c379	-1.61958e-40
81	0x8002113b	-1.89852e-40
82	0x0000e750	8.2979e-41
83	0x00010057	9.1957e-41
84	0x8001f25f	-1.78782e-40
85	0x80018f28	-1.4319e-40
86	0x800214bf	-1.91113e-40
87	0x00016235	1.27066e-40
88	0x000131b8	1.09671e-40
89	0x8000ae6a	-6.2568e-41
90	0x8001f33b	-1.7909e-40
91	0x0001db3b	1.7048e-40
92	0x0000f86e	8.912e-41
93	0x8000e09c	-8.0575e-41
94	0x0000feb3	9.1369e-41
95	0x8000addb	-6.2368e-41
96	0x8000e653	-8.2625e-41
97	0x00002076	1.1645e-41
98	0x0000f294	8.702e-41
99	0x00014470	1.16386e-40
100	0x0001f9f6	1.81505e-40
101	0x80003c05	-2.1531e-41
102	0x00009f92	5.7243e-41
103	0x00005812	3.1594e-41
104	0x0001ab35	1.53253e-40
105	0x0001093c	9.5148e-41
106	0x8000051d	-1.834e-42
107	0x00011c3d	1.01965e-40
108	0x00017621	1.34212e-40
109	0x00013063	1.09193e-40
110	0x800124d4	-1.05047e-40
111	0x00019f7f	1.49052e-40
112	0x0000c4f0	7.0648e-41
113	0x000051b6	2.9312e-41
114	0x0001bd58	1.59759e-40
115	0x80010d28	-9.6555e-41
116	0x00005cbe	3.327e-41
117	0x0001113b	9.8017e-41
118	0x00007ec6	4.5478e-41
119	0x00004b8c	2.7101e-41
120	0x0001661d	1.28467e-40
121	0x000084a0	4.7577e-41
122	0x0001e5e6	1.74308e-40
123	0x8000a223	-5.8164e-41
124	0x80011f80	-1.03136e-40
125	0x000137f5	1.11909e-40
126	0x0001ec30	1.76564e-40
127	0x8000020f	-7.38e-43
128	0x800131bb	-1.09675e-40
129	0x800006b9	-2.412e-42
130	0x000065f3	3.6572e-41
131	0x80015a90	-1.24323e-40
132	0x0001c3b1	1.62036e-40
133	0x00003367	1.844e-41
134	0x80004073	-2.312e-41
135	0x0000df6f	8.0153e-41
136	0x00018a8b	1.41535e-40
137	0x000094c6	5.337e-41
138	0x8000ef59	-8.5862e-41
139	0x00013e51	1.1419e-40
140	0x0000fa61	8.9819e-41
141	0x00007bf3	4.4465e-41
142	0x800000da	-3.05e-43
143	0x0000c48d	7.0509e-41
144	0x00012381	1.04572e-40
145	0x80000d1f	-4.707e-42
146	0x000173d5	1.33388e-40
147	0x00021239	1.90208e-40
148	0x8000da0b	-7.8219e-41
149	0x8001cb2c	-1.6472e-40
150	0x80014a2f	-1.18448e-40
151	0x800006b6	-2.407e-42
152	0x00017ca7	1.36552e-40
153	0x0000ca91	7.2667e-41
154	0x00001a43	9.421e-42
155	0x80019324	-1.4462e-40
156	0x80011724	-1.00137e-40
157	0x000164e4	1.28028e-40
158	0x00015932	1.23833e-40
159	0x80007e20	-4.5245e-41
160	0x0000d934	7.7918e-41
161	0x80007f16	-4.559e-41
162	0x8000c2fe	-6.995e-41
163	0x80008872	-4.8947e-41
164	0x00004895	2.6038e-41
165	0x80006ee7	-3.9784e-41
166	0x80012de2	-1.08295e-40
167	0x80009ae6	-5.5567e-41
168	0x8001906a	-1.43642e-40
169	0x0000092a	3.287e-42
170	0x8001bb80	-1.59098e-40
171	0x800171eb	-1.32702e-40
172	0x000143da	1.16176e-40
173	0x80011c2a	-1.01939e-40
174	0x00018eb5	1.43029e-40
175	0x80011323	-9.87e-41
176	0x00019cd5	1.48096e-40
177	0x000090b7	5.1914e-41
178	0x00015521	1.22374e-40
179	0x8000bead	-6.8402e-41
180	0x80000a23	-3.636e-42
181	0x8000fb33	-9.0113e-41
182	0x00004836	2.5904e-41
183	0x8000e1a4	-8.0945e-41
184	0x00013793	1.11772e-40
185	0x0001e9e7	1.75744e-40
186	0x0000b9e7	6.6689e-41
187	0x8001b320	-1.56093e-40
188	0x000082a8	4.687e-41
189	0x80004bb7	-2.7161e-41
190	0x80014107	-1.15163e-40
191	0x8000b55e	-6.5062e-41
192	0x00010ec3	9.7131e-41
193	0x00011581	9.955e-41
194	0x8001ffa9	-1.83549e-40
195	0x0000dd85	7.9466e-41
196	0x80018b13	-1.41726e-40
197	0x80013192	-1.09618e-40
198	0x0000ce8a	7.4092e-41
199	0x80009b88	-5.5794e-41
200	0x00004217	2.3709e-41
201	0x0001050b	9.3645e-41
202	0x8000cd06	-7.3549e-41
203	0x0000fd24	9.081e-41
204	0x80015132	-1.20963e-40
205	0x80000772	-2.671e-42
206	0x8001a70c	-1.5176e-40
207	0x00000adf	3.9e-42
208	0x0001efc9	1.77854e-40
209	0x0001018a	9.2388e-41
210	0x8000b457	-6.4694e-41
211	0x8000c654	-7.1147e-41
212	0x0001df4c	1.7194e-40
213	0x8001bd44	-1.59731e-40
214	0x000116b7	9.9984e-41
215	0x0001b997	1.58413e-40
216	0x00011007	9.7585e-41
217	0x000194ff	1.45285e-40
218	0x0000a0b7	5.7654e-41
219	0x00003003	1.7223e-41
220	0x0000c1c2	6.9507e-41
221	0x8000528d	-2.9614e-41
222	0x00012b7b	1.07433e-40
223	0x000228f2	1.9836e-40
224	0x00013b36	1.13076e-40
225	0x0001502b	1.20594e-40
226	0x00007c82	4.4665e-41
227	0x000088f0	4.9124e-41
228	0x00016198	1.26846e-40
229	0x00013e2a	1.14136e-40
230	0x8001230c	-1.04408e-40
231	0x0000e294	8.1281e-41
232	0x80012069	-1.03462e-40
233	0x00012fae	1.0894e-40
234	0x8001120f	-9.8314e-41
235	0x80009171	-5.2175e-41
236	0x0000dc8b	7.9116e-41
237	0x0000fa23	8.9732e-41
238	0x000125cf	1.05399e-40
239	0x80012ee0	-1.08651e-40
240	0x80004ff1	-2.8678e-41
241	0x0001ea43	1.75873e-40
242	0x80019082	-1.43675e-40
243	0x8000a57e	-5.9367e-41
244	0x000080a9	4.6155e-41
245	0x8001305c	-1.09184e-40
246	0x80017151	-1.32486e-40
247	0x8001170f	-1.00107e-40
248	0x00009040	5.1747e-41
249	0x00000019	3.5e-44
250	0x80011d81	-1.0242e-40
251	0x8000e8c7	-8.3505e-41
252	0x00014eef	1.20152e-40
253	0x8001a854	-1.5222e-40
254	0x00012434	1.04823e-40
255	0x8000a935	-6.07e-41

e_conv3.point_conv.bias f4 [32]
0	0x80018787	-1.40454e-40
1	0x00012416	1.0478e-40
2	0x00004a69	2.6693e-41
3	0x00003d85	2.2069e-41
4	0x000030ed	1.7551e-41
5	0x80002621	-1.3678e-41
6	0x80007363	-4.1393e-41
7	0x80016117	-1.26665e-40
8	0x800035af	-1.9258e-41
9	0x8000a31b	-5.8511e-41
10	0x80001a51	-9.44e-42
11	0x0001627a	1.27162e-40
12	0x0000be10	6.8182e-41
13	0x800057e2	-3.1526e-41
14	0x00019d88	1.48347e-40
15	0x8001a990	-1.52663e-40
16	0x0001dc0f	1.70778e-40
17	0x8000843b	-4.7435e-41
18	0x80012c9a	-1.07836e-40
19	0x8000c16f	-6.9391e-41
20	0x8001ef19	-1.77608e-40
21	0x80000c08	-4.316e-42
22	0x8001526d	-1.21404e-40
23	0x80014ecc	-1.20102e-40
24	0x0000aaa9	6.1221e-41
25	0x8000f593	-8.8095e-41
26	0x80000955	-3.348e-42
27	0x8001bf27	-1.60408e-40
28	0x000076e6	4.2653e-41
29	0x0000d797	7.7339e-41
30	0x80008d12	-5.0606e-41
31	0x80011812	-1.0047e-40

e_conv4.depth_conv.weight f4 [32, 1, 3, 3]
0	0x8000f3b7	-8.7428e-41
1	0x00005fba	3.434e-41
2	0x80008c00	-5.0223e-41
3	0x8000a062	-5.7535e-41
4	0x80001147	-6.198e-42
5	0x8001a0f9	-1.49582e-40
6	0x800059fe	-3.2283e-41
7	0x8001e68c	-1.7454e-40
8	0x00019dc8	1.48437e-40
9	0x800145a9	-1.16825e-40
10	0x000164b8	1.27967e-40
11	0x0000c9a9	7.2342e-41
12	0x0000fa61	8.9819e-41
13	0x00019eb0	1.48762e-40
14	0x00007ddf	4.5154e-41
15	0x80003954	-2.0565e-41
16	0x000159b5	1.24016e-40
17	0x0001fec1	1.83224e-40
18	0x80003e3b	-2.2324e-41
19	0x00014266	1.15655e-40
20	0x80000267	-8.62e-43
21	0x0000cd80	7.372e-41
22	0x8000fd93	-9.0965e-41
23	0x800165fa	-1.28418e-40
24	0x8001206a	-1.03463e-40
25	0x800071b1	-4.0785e-41
26	0x0001445c	1.16358e-40
27	0x000187c6	1.40542e-40
28	0x80009223	-5.2424e-41
29	0x0001a44e	1.50777e-40
30	0x800173cc	-1.33376e-40
31	0x000157c3	1.23318e-40
32	0x8000e1b3	-8.0966e-41
33	0x800098f7	-5.4873e-41
34	0x8000c502	-7.0673e-41
35	0x8001a9de	-1.52772e-40
36	0x0000a4d3	5.9128e-41
37	0x8000d09a	-7.4832e-41
38	0x800185ed	-1.39879e-40
39	0x80001d0e	-1.0423e-41
40	0x80014510	-1.1661e-40
41	0x00007746	4.2787e-41
42	0x00022cca	1.99738e-40
43	0x80015ef4	-1.25898e-40
44	0x00014828	1.1772e-40
45	0x800123c8	-1.04671e-40
46	0x800080c0	-4.6187e-41
47	0x000001d4	6.56e-43
48	0x8001521b	-1.2129e-40
49	0x0000c371	7.0111e-41
50	0x00010cc7	9.6419e-41
51	0x80007102	-4.054e-41
52	0x80014522	-1.16636e-40
53	0x000183de	1.3914e-40
54	0x0000e1b4	8.0967e-41
55	0x8000d8fa	-7.7837e-41
56	0x8000b00e	-6.3157e-41
57	0x0001656b	1.28217e-40
58	0x00013d09	1.13731e-40
59	0x80005e9c	-3.394e-41
60	0x8000d725	-7.718e-41
61	0x0000d96b	7.7995e-41
62	0x0001c818	1.63616e-40
63	0x00008d3c	5.0665e-41
64	0x80016322	-1.27398e-40
65	0x0001c10f	1.61092e-40
66	0x00008f0d	5.1317e-41
67	0x00008988	4.9337e-41
68	0x00020804	1.86546e-40
69	0x0001ab93	1.53385e-40
70	0x0002172a	1.9198e-40
71	0x800128bd	-1.0645e-40
72	0x0001acba	1.53798e-40
73	0x80017fbb	-1.37657e-40
74	0x00000457	1.557e-42
75	0x00002ef5	1.6845e-41
76	0x000065b3	3.6483e-41
77	0x0000a693	5.9756e-41
78	0x0000fe3b	9.1201e-41
79	0x8001bc16	-1.59308e-40
80	0x80010921	-9.511e-41
81	0x80008dd7	-5.0883e-41
82	0x80013eef	-1.14412e-40
83	0x0000dc93	7.9127e-41
84	0x80010219	-9.2588e-41
85	0x8000c0ea	-6.9205e-41
86	0x00003099	1.7434e-41
87	0x800035bc	-1.9276e-41
88	0x000066e9	3.6917e-41
89	0x80021da8	-1.9431e-40
90	0x80009d5f	-5.6454e-41
91	0x8002214d	-1.95617e-40
92	0x00002913	1.4735e-41
93	0x800033a9	-1.8532e-41
94	0x80008cc6	-5.05e-41
95	0x80012bd9	-1.07565e-40
96	0x00022550	1.97056e-40
97	0x80014435	-1.16304e-40
98	0x80002ce7	-1.6108e-41
99	0x8000fabe	-8.995e-41
100	0x8000e8af	-8.3471e-41
101	0x0000c058	6.9e-41
102	0x0001f33b	1.7909e-40
103	0x80021e6c	-1.94584e-40
104	0x0000aaee	6.1318e-41
105	0x0001ef6e	1.77727e-40
106	0x80017b39	-1.3604e-40
107	0x0000f5fc	8.8243e-41
108	0x0001e20d	1.72927e-40
109	0x8000c4e5	-7.0632e-41
110	0x00009db2	5.657e-41
111	0x00020dbc	1.88598e-40
112	0x0001060a	9.4002e-41
113	0x8000c736	-7.1463e-41
114	0x8000a90f	-6.0647e-41
115	0x0000de9b	7.9856e-41
116	0x80007a76	-4.3931e-41
117	0x00001462	7.312e-42
118	0x000070ca	4.0461e-41
119	0x800176de	-1.34477e-40
120	0x00020d6d	1.88487e-40
121	0x80014aad	-1.18624e-40
122	0x0001b39a	1.56264e-40
123	0x000091ce	5.2305e-41
124	0x8001385e	-1.12056e-40
125	0x80016db1	-1.31185e-40
126	0x0002019e	1.84251e-40
127	0x00010d2c	9.656e-41
128	0x8001179b	-1.00304e-40
129	0x8000b9bc	-6.6629e-41
130	0x00012ac8	1.07183e-40
131	0x8001215e	-1.03805e-40
132	0x00020f54	1.8917e-40
133	0x800058b0	-3.1815e-41
134	0x80021b5a	-1.93483e-40
135	0x800144af	-1.16475e-40
136	0x80010351	-9.3025e-41
137	0x00002ced	1.6116e-41
138	0x80004b8d	-2.7103e-41
139	0x8001400d	-1.14813e-40
140	0x000143e4	1.1619e-40
141	0x800087c7	-4.8708e-41
142	0x000013ba	7.077e-42
143	0x800133f5	-1.10474e-40
144	0x8000d89a	-7.7702e-41
145	0x80004ea9	-2.8218e-41
146	0x8001394b	-1.12388e-40
147	0x80004abc	-2.681e-41
148	0x0001b978	1.58369e-40
149	0x8001f3e1	-1.79323e-40
150	0x800221bd	-1.95774e-40
151	0x80005a76	-3.2451e-41
152	0x00012566	1.05252e-40
153	0x800164ae	-1.27953e-40
154	0x80005417	-3.0166e-41
155	0x80012a8c	-1.07098e-40
156	0x0000b59f	6.5153e-41
157	0x80004c4b	-2.7369e-41
158	0x80018383	-1.39013e-40
159	0x0000df61	8.0133e-41
160	0x80011cc8	-1.0216e-40
161	0x00011ea2	1.02824e-40
162	0x0000c934	7.2178e-41
163	0x000146b4	1.17199e-40
164	0x80013102	-1.09416e-40
165	0x80005b4c	-3.2751e-41
166	0x8000afa3	-6.3007e-41
167	0x00014e14	1.19845e-40
168	0x00006d5a	3.9228e-41
169	0x8000071e	-2.553e-42
170	0x00001324	6.866e-42
171	0x00018b6b	1.41849e-40
172	0x8001f525	-1.79777e-40
173	0x00015315	1.2164e-40
174	0x800083a7	-4.7228e-41
175	0x80017622	-1.34214e-40
176	0x80004129	-2.3375e-41
177	0x00002d27	1.6198e-41
178	0x8001422e	-1.15576e-40
179	0x000093e4	5.3053e-41
180	0x8000e6af	-8.2754e-41
181	0x0000051e	1.836e-42
182	0x800032cf	-1.8227e-41
183	0x80017176	-1.32538e-40
184	0x00014832	1.17734e-40
185	0x00015d33	1.25269e-40
186	0x0000e391	8.1635e-41
187	0x0000c59c	7.0889e-41
188	0x8000b5ad	-6.5173e-41
189	0x800010e3	-6.058e-42
190	0x80015ae7	-1.24445e-40
191	0x00003fcb	2.2885e-41
192	0x8000ec37	-8.4738e-41
193	0x80010275	-9.2717e-41
194	0x80014c33	-1.1917e-40
195	0x0001d370	1.67685e-40
196	0x8000527b	-2.9588e-41
197	0x00015ee5	1.25877e-40
198	0x00011a5a	1.01289e-40
199	0x80002b41	-1.5517e-41
200	0x00011d46	1.02337e-40
201	0x000123b4	1.04643e-40
202	0x00007ba0	4.4348e-41
203	0x0001018e	9.2393e-41
204	0x00005b66	3.2788e-41
205	0x80007b5a	-4.425e-41
206	0x0000ec94	8.4868e-41
207	0x80007811	-4.3072e-41
208	0x00003278	1.8105e-41
209	0x8000144c	-7.281e-42
210	0x800041d4	-2.3615e-41
211	0x0001f515	1.79754e-40
212	0x8000075f	-2.644e-42
213	0x8000e699	-8.2723e-41
214	0x00013463	1.10628e-40
215	0x00007a28	4.3821e-41
216	0x800005d3	-2.09e-42
217	0x00018767	1.40409e-40
218	0x00009d90	5.6523e-41
219	0x80009fde	-5.735e-41
220	0x0001816f	1.38268e-40
221	0x80006fd7	-4.012e-41
222	0x8000db48	-7.8663e-41
223	0x80011dab	-1.02478e-40
224	0x8001b6be	-1.57391e-40
225	0x8000ad9d	-6.2281e-41
226	0x0000fd18	9.0793e-41
227	0x8001fc95	-1.82445e-40
228	0x80013bce	-1.1329e-40
229	0x8000d8b0	-7.7733e-41
230	0x8000f7dc	-8.8915e-41
231	0x00018402	1.39191e-40
232	0x00013f13	1.14462e-40
233	0x8001f638	-1.80162e-40
234	0x00000776	2.676e-42
235	0x000099fa	5.5236e-41
236	0x00008444	4.7448e-41
237	0x80022714	-1.9769e-40
238	0x000114bd	9.9275e-41
239	0x0000ab37	6.142e-41
240	0x000151e1	1.21208e-40
241	0x0000cea0	7.4123e-41
242	0x0000f5bb	8.8151e-41
243	0x8001934d	-1.44677e-40
244	0x800114f1	-9.9348e-41
245	0x0000dffd	8.0352e-41
246	0x80013810	-1.11947e-40
247	0x80002a2f	-1.5133e-41
248	0x0000f987	8.9514e-41
249	0x0000c153	6.9352e-41
250	0x0000995b	5.5014e-41
251	0x800084f4	-4.7695e-41
252	0x00003672	1.9531e-41
253	0x80010320	-9.2957e-41
254	0x0000a3ca	5.8756e-41
255	0x0000ba3e	6.6811e-41

e_conv4.depth_conv.bias f4 [32]
0	0x00002d12	1.6168e-41
1	0x80015b9e	-1.24702e-40
2	0x8001dcad	-1.70999e-40
3	0x0000e97f	8.3763e-41
4	0x0000970f	5.419e-41
5	0x8000d604	-7.6774e-41
6	0x00010241	9.2644e-41
7	0x8000b6ae	-6.5533e-41
8	0x0000f322	8.722e-41
9	0x8000135e	-6.948e-42
10	0x0001cd63	1.65514e-40
11	0x80019a11	-1.47104e-40
12	0x00018617	1.39938e-40
13	0x00000e8e	5.221e-42
14	0x000190af	1.43738e-40
15	0x800147af	-1.17551e-40
16	0x00006d9e	3.9323e-41
17	0x80016acd	-1.30148e-40
18	0x800023a0	-1.278e-41
19	0x00001889	8.802e-42
20	0x00018ec0	1.43045e-40
21	0x8000b517	-6.4963e-41
22	0x80012846	-1.06283e-40
23	0x00009262	5.2512e-41
24	0x80011e7e	-1.02774e-40
25	0x00003a79	2.0976e-41
26	0x80011228	-9.8349e-41
27	0x00001b85	9.872e-42
28	0x0001086e	9.486e-41
29	0x0000d1f6	7.532e-41
30	0x00005b31	3.2713e-41
31	0x00007667	4.2475e-41

e_conv4.point_conv.weight f4 [32, 32, 1, 1]
0	0x80010c2c	-9.6202e-41
1	0x8000aba4	-6.1573e-41
2	0x800138ef	-1.1226e-40
3	0x0000c601	7.103e-41
4	0x8000cf1c	-7.4297e-41
5	0x00012e55	1.08456e-40
6	0x80014a48	-1.18483e-40
7	0x00004d1d	2.7663e-41
8	0x00013010	1.09077e-40
9	0x80008f4c	-5.1405e-41
10	0x0001746b	1.33598e-40
11	0x80004a41	-2.6637e-41
12	0x00011f25	1.03008e-40
13	0x00003b7c	2.1339e-41
14	0x00015a40	1.24211e-40
15	0x80013e5c	-1.14206e-40
16	0x8001bbf8	-1.59266e-40
17	0x8000fee2	-9.1435e-41
18	0x80009a1d	-5.5285e-41
19	0x80016359	-1.27475e-40
20	0x000099be	5.5152e-41
21	0x80005e63	-3.386e-41
22	0x00011e13	1.02624e-40
23	0x8000d72b	-7.7188e-41
24	0x000130a7	1.09289e-40
25	0x80006335	-3.5589e-41
26	0x8000fab5	-8.9937e-41
27	0x0001b8ad	1.58085e-40
28	0x0000a489	5.9024e-41
29	0x00013cbc	1.13623e-40
30	0x8000bcae	-6.7686e-41
31	0x000133b2	1.1038e-40
32	0x0001f57a	1.79896e-40
33	0x0002274a	1.97765e-40
34	0x0001e1db	1.72857e-40
35	0x80001fa9	-1.1358e-41
36	0x8000127a	-6.628e-42
37	0x80003da6	-2.2115e-41
38	0x8000625d	-3.5286e-41
39	0x8001f5ec	-1.80056e-40
40	0x80012465	-1.04891e-40
41	0x8000e043	-8.045e-41
42	0x0000adcf	6.2351e-41
43	0x8001aa8c	-1.53016e-40
44	0x8000ba05	-6.6731e-41
45	0x00013fce	1.14724e-40
46	0x80003a92	-2.1011e-41
47	0x00013009	1.09067e-40
48	0x80017810	-1.34906e-40
49	0x00004f0b	2.8355e-41
50	0x00015ee4	1.25876e-40
51	0x0001b0ae	1.55216e-40
52	0x8002216f	-1.95665e-40
53	0x000139cb	1.12568e-40
54	0x00012b15	1.0729e-40
55	0x00010135	9.2268e-41
56	0x0001c482	1.62329e-40
57	0x000076f3	4.2671e-41
58	0x800154fc	-1.22322e-40
59	0x00010afa	9.5773e-41
60	0x00016c76	1.30744e-40
61	0x0001a050	1.49345e-40
62	0x00004618	2.5145e-41
63	0x00015e41	1.25647e-40
64	0x00012750	1.05938e-40
65	0x80012f8a	-1.08889e-40
66	0x00015a3b	1.24204e-40
67	0x000058e2	3.1885e-41
68	0x8001ad60	-1.54031e-40
69	0x0000d369	7.584e-41
70	0x0001e194	1.72758e-40
71	0x00016913	1.29529e-40
72	0x80019b21	-1.47485e-40
73	0x8001c431	-1.62216e-40
74	0x00006ed3	3.9756e-41
75	0x800051dc	-2.9366e-41
76	0x0001d0be	1.66718e-40
77	0x8001cec9	-1.66016e-40
78	0x80020be6	-1.8794e-40
79	0x8001e1a1	-1.72776e-40
80	0x0001ceb0	1.65981e-40
81	0x8000a7f8	-6.0256e-41
82	0x8001eab5	-1.76033e-40
83	0x80020222	-1.84436e-40
84	0x8000d489	-7.6243e-41
85	0x8000406b	-2.3109e-41
86	0x00003498	1.8867e-41
87	0x00010aea	9.5751e-41
88	0x0001037f	9.309e-41
89	0x8000c3bf	-7.022e-41
90	0x800195d1	-1.4558e-40
91	0x00015b12	1.24505e-40
92	0x00010af1	9.576e-41
93	0x00014166	1.15296e-40
94	0x800126f1	-1.05805e-40
95	0x80014add	-1.18691e-40
96	0x00000ceb	4.634e-42
97	0x800159e3	-1.24081e-40
98	0x8001b7ef	-1.57818e-40
99	0x0000b3f4	6.4555e-41
100	0x80018202	-1.38474e-40
101	0x0000507b	2.8871e-41
102	0x00014e3c	1.19901e-40
103	0x8000b378	-6.4381e-41
104	0x000159ae	1.24007e-40
105	0x80018e74	-1.42938e-40
106	0x80012e2e	-1.08402e-40
107	0x800060fa	-3.4789e-41
108	0x8001d4d7	-1.68188e-40
109	0x000152b7	1.21508e-40
110	0x0001362a	1.11266e-40
111	0x80010f7e	-9.7393e-41
112	0x00018698	1.40119e-40
113	0x0001fc24	1.82287e-40
114	0x0000a400	5.8832e-41
115	0x8000f977	-8.9491e-41
116	0x00009f07	5.7048e-41
117	0x0001087b	9.4878e-41
118	0x8000f6b6	-8.8503e-41
119	0x00010e6c	9.7009e-41
120	0x0001717d	1.32547e-40
121	0x800015b6	-7.788e-42
122	0x0001829f	1.38694e-40
123	0x8000cb46	-7.2921e-41
124	0x00006ee3	3.9779e-41
125	0x8000c773	-7.1549e-41
126	0x0001f132	1.7836e-40
127	0x000208ac	1.86782e-40
128	0x8001e5c1	-1.74256e-40
129	0x80001d38	-1.0482e-41
130	0x800137fb	-1.11918e-40
131	0x8000e2f2	-8.1413e-41
132	0x80012b6e	-1.07415e-40
133	0x80011357	-9.8773e-41
134	0x80016f13	-1.31681e-40
135	0x000219c4	1.92914e-40
136	0x00006933	3.7738e-41
137	0x000069d3	3.7963e-41
138	0x8001a2a4	-1.5018e-40
139	0x8000e6a5	-8.274e-41
140	0x0000e9b3	8.3835e-41
141	0x00006442	3.5966e-41
142	0x80010630	-9.4055e-41
143	0x00003348	1.8396e-41
144	0x8000576c	-3.1361e-41
145	0x80001aa1	-9.553e-42
146	0x8000b49e	-6.4793e-41
147	0x00022ab5	1.98991e-40
148	0x8001e7f6	-1.75047e-40
149	0x00008334	4.7067e-41
150	0x800175e4	-1.34127e-40
151	0x00006998	3.788e-41
152	0x80020197	-1.84241e-40
153	0x80012f75	-1.0886e-40
154	0x8001253f	-1.05197e-40
155	0x800008b8	-3.128e-42
156	0x80006a5f	-3.8159e-41
157	0x8001b7f1	-1.57821e-40
158	0x0000015f	4.92e-43
159	0x8000961d	-5.385e-41
160	0x00021161	1.89905e-40
161	0x80006c8c	-3.8939e-41
162	0x00003bb0	2.1412e-41
163	0x0000ecea	8.4989e-41
164	0x8001b82e	-1.57907e-40
165	0x80016725	-1.28837e-40
166	0x80000cf6	-4.65e-42
167	0x00003934	2.052e-41
168	0x000002ad	9.6e-43
169	0x00007645	4.2427e-41
170	0x0000f1d2	8.6749e-41
171	0x0001071e	9.4389e-41
172	0x0000f712	8.8632e-41
173	0x8000d0a3	-7.4845e-41
174	0x8001acf9	-1.53886e-40
175	0x80005e5b	-3.3848e-41
176	0x000075d1	4.2265e-41
177	0x00004ae7	2.687e-41
178	0x0001af03	1.54618e-40
179	0x800155ba	-1.22588e-40
180	0x800199bc	-1.46985e-40
181	0x000010d4	6.037e-42
182	0x8000ec99	-8.4875e-41
183	0x0002098b	1.87094e-40
184	0x0002133d	1.90572e-40
185	0x8000b267	-6.3999e-41
186	0x0000a86c	6.0418e-41
187	0x0000a93f	6.0714e-41
188	0x8000912a	-5.2075e-41
189	0x8001f06b	-1.78081e-40
190	0x000132a0	1.09996e-40
191	0x8001ca9f	-1.64522e-40
192	0x8000324f	-1.8047e-41
193	0x00016eac	1.31537e-40
194	0x8000daac	-7.8445e-41
195	0x000104f5	9.3614e-41
196	0x0001bad8	1.58862e-40
197	0x0000dfb9	8.0257e-41
198	0x8000a23f	-5.8203e-41
199	0x00022b8f	1.99297e-40
200	0x8000d87d	-7.7661e-41
201	0x0000d2d9	7.5638e-41
202	0x00012dcc	1.08264e-40
203	0x80013f05	-1.14443e-40
204	0x80007546	-4.207e-41
205	0x0000917b	5.2189e-41
206	0x00000d3c	4.748e-42
207	0x000087a9	4.8666e-41
208	0x8000fff6	-9.1821e-41
209	0x8000dbc3	-7.8836e-41
210	0x0001aff1	1.54951e-40
211	0x00001ecf	1.1052e-41
212	0x8000392a	-2.0507e-41
213	0x00015834	1.23477e-40
214	0x8001ad58	-1.5402e-40
215	0x0001c9a1	1.64166e-40
216	0x0001ccb5	1.6527e-40
217	0x0000952a	5.351e-41
218	0x00013e89	1.14269e-40
219	0x00015f1c	1.25954e-40
220	0x800105ba	-9.389e-41
221	0x80010c77	-9.6307e-41
222	0x00010124	9.2245e-41
223	0x80007bec	-4.4455e-41
224	0x00014882	1.17846e-40
225	0x8001088e	-9.4904e-41
226	0x000022a5	1.2428e-41
227	0x0001299f	1.06766e-40
228	0x8001d4c2	-1.68159e-40
229	0x0001b419	1.56442e-40
230	0x8002093f	-1.86988e-40
231	0x0000f75e	8.8739e-41
232	0x80004a02	-2.6549e-41
233	0x00010fa6	9.7449e-41
234	0x000091c4	5.2291e-41
235	0x00001fe7	1.1444e-41
236	0x000023ea	1.2884e-41
237	0x000225fc	1.97297e-40
238	0x00018151	1.38225e-40
239	0x800033cf	-1.8585e-41
240	0x00013927	1.12338e-40
241	0x8000e50b	-8.2165e-41
242	0x00018b49	1.41802e-40
243	0x0001652a	1.28126e-40
244	0x0001a622	1.51433e-40
245	0x0000ad69	6.2208e-41
246	0x00010b2e	9.5846e-41
247	0x00012941	1.06635e-40
248	0x00013d42	1.1381e-40
249	0x0000bde5	6.8121e-41
250	0x00008ba2	5.0091e-41
251	0x00018906	1.4099e-40
252	0x80001f88	-1.1311e-41
253	0x800157dd	-1.23355e-40
254	0x000023d2	1.285e-41
255	0x00015ad0	1.24413e-40

e_conv4.point_conv.bias f4 [32]
0	0x0001d2be	1.67436e-40
1	0x0000c36d	7.0106e-41
2	0x8001bc22	-1.59325e-40
3	0x80019e60	-1.4865e-40
4	0x00019ad6	1.4738e-40
5	0x000127a6	1.06059e-40
6	0x80007c70	-4.464e-41
7	0x000145f2	1.16927e-40
8	0x00010c50	9.6252e-41
9	0x8000533a	-2.9856e-41
10	0x00019525	1.45338e-40
11	0x80010d6d	-9.6652e-41
12	0x00011af4	1.01504e-40
13	0x0000c0f1	6.9214e-41
14	0x8001096a	-9.5213e-41
15	0x00014af8	1.18729e-40
16	0x80011dcd	-1.02526e-40
17	0x0001ef07	1.77582e-40
18	0x0000baa6	6.6957e-41
19	0x00013aa2	1.12869e-40
20	0x00005e8d	3.3918e-41
21	0x00011394	9.8859e-41
22	0x0000092a	3.287e-42
23	0x0000a24d	5.8223e-41
24	0x8001ba3e	-1.58647e-40
25	0x80016b9f	-1.30443e-40
26	0x80002a39	-1.5147e-41
27	0x80012d54	-1.08096e-40
28	0x00001066	5.883e-42
29	0x800144c3	-1.16503e-40
30	0x8001e9db	-1.75727e-40
31	0x000134e6	1.10812e-40
