Zero-DCE++/snapshots_Zero_DCE++/Epoch61.pth (torch, 51217 bytes, 28 tensors)

e_conv1.depth_conv.weight f4 [3, 1, 3, 3]
-0.34980613 -0.16881031 0.012299331 -0.16914518 0.11284423 0.10800452 -0.40957305 -0.16521168
-0.04859813 0.19995913 0.16085094 0.32868677 0.1797188 0.02114614 0.22817625 0.0871158
0.010885849 0.20893568 0.028421607 -0.043645512 -0.1536319 -0.034093004 -0.07839986 -0.121537656
-0.08360891 -0.18073705 -0.326825
00000000: ca19 b3be 9cdc 2cbe 2283 493c 6534 2dbe
00000010: e01a e73d 7931 dd3d 8fb3 d1be 402d 29be
00000020: d50e 47bd 16c2 4c3e 1cb6 243e a249 a83e
00000030: 3508 383e ab3a ad3c 09a7 693e c569 b23d
00000040: 8f5a 323c 3cf3 553e 6ed4 e83c a3c5 32bd
00000050: ae51 1dbe 1ba5 0bbd 1b90 a0bd bce8 f8bd
00000060: 263b abbd 2213 39be 9b55 a7be

e_conv1.depth_conv.bias f4 [3]
0.07491723 0.3075613 -0.047025826
00000000: 346e 993d ad78 9d3e 279e 40bd

e_conv1.point_conv.weight f4 [32, 3, 1, 1]
0.0090286825 0.19941166 0.08232931 -0.0023665095 -0.00081723515 -0.0027812095 8.0726e-41 4.104e-42
-6.1032e-41 0.093739375 -0.51574 0.14345875 -2.9518972e-08 -3.5359213e-07 8.8038924e-08 -0.0021769993
0.093812816 0.40837273 0.11282872 0.2972897 -0.21401313 4.6807296e-29 -6.050936e-29 4.3972926e-29
0.047299575 -0.007882534 0.09107454 0.056115724 -0.02511106 -0.11315293 0.38422742 -0.5543187
0.3442394 -0.0044315564 -0.048641656 0.057062924 0.1856071 -0.39462787 -0.16287036 -0.063471094
-0.14728355 0.1267686 4.4905e-41 6.3704e-41 -5.5842e-41 0.027864292 0.32820696 0.279303
-0.25010285 0.35810748 -0.3032309 -0.00052433304 -0.00053735287 -0.00020793486 -0.0074405535 0.002087878
-0.030834695 4.592631e-15 -1.1828123e-14 -4.864056e-16 -0.57070243 -0.06996789 -0.34802878 -0.0009502835
0.00015673632 -0.0024380884 -0.011845084 0.0055285185 0.03011242 1.4507718e-22 -3.8444218e-23 1.0210491e-22
2.5895e-41 1.9910002e-29 -2.1957e-41 2.1077404e-30 -3.9400796e-12 -3.995578e-30 6.184e-41 2.5888e-41
1.26264e-40 0.29982904 -0.13375822 -0.2883033 0.018567864 -0.06511854 0.0037070974 5.4424e-41
-9.0045e-41 9.298e-41 0.26363146 0.012662914 -0.057923652 -0.24444939 0.4286145 -0.32832372
00000000: 0aed 133c 9232 4c3e 459c a83d 7117 1bbb
00000010: b93b 56ba f444 36bb 08e1 0000 710b 0000
00000020: 22aa 0080 6efa bf3d 8907 04bf dae6 123e
00000030: e890 fdb2 55d5 bdb4 e90f bd33 fdab 0ebb
00000040: ef20 c03d 3b16 d13e be12 e73d 5b36 983e
00000050: 4226 5bbe 5857 6d10 d268 9990 1ff8 5e10
00000060: 33bd 413d be25 01bc 4a85 ba3d 9ad9 653d
00000070: b6b5 cdbc b9bc e7bd 75b9 c43e d5e7 0dbf
00000080: 2640 b03e 9736 91bb 793c 47bd d0ba 693d
00000090: ca0f 3e3e aa0c cabe 7dc7 26be 22fd 81bd
000000a0: 80d1 16be a1cf 013e 2d7d 0000 95b1 0000
000000b0: aa9b 0080 a843 e43c be0a a83e ce00 8f3e
000000c0: 7b0d 80be dd59 b73e 1541 9bbe 6573 09ba
000000d0: 24dd 0cba 1709 5ab9 e3cf f3bb c8d4 083b
000000e0: 0b99 fcbc 8b77 a527 9713 55a8 6632 0ca6
000000f0: 8e19 12bf 534b 8fbd d430 b2be 721c 79ba
00000100: 9659 2439 56c8 1fbb e211 42bc 9328 b53b
00000110: 52ae f63c 3663 2f1b a3e7 399a e1df f61a
00000120: 2f48 0000 52e9 c90f 353d 0080 0e00 2b0e
00000130: 15a1 8aac 7414 a28e 62ac 0000 2a48 0000
00000140: f95f 0100 3183 993e eaf7 08be 7d9c 93be
00000150: a21b 983c de5c 85bd c6f2 723b b697 0000
00000160: 02fb 0080 3103 0100 b4fa 863e 1c78 4f3c
00000170: 5a41 6dbd f150 7abe 5c73 db3e 0c1a a8be

e_conv1.point_conv.bias f4 [32]
-0.14011583 -0.00046978562 -2.1033e-41 0.5708299 -6.241409e-07 0.078410976 0.26649618 -7.605533e-29
0.059067983 -0.017615149 0.41058898 0.4566747 0.35357586 0.30327117 2.9745e-41 0.4953941
-0.0457665 -0.0023485078 -0.019250358 -1.3319306e-14 0.4105474 0.002033718 0.3364804 -2.7720632e-23
-7.942226e-17 -5.795473e-10 -6.7678445e-38 0.31092596 0.059675604 8.3369e-41 0.5179951 -0.084284246
00000000: 867a 0fbe 8f4d f6b9 a23a 0080 e921 123f
00000010: a38a 27b5 ef95 a03d 3072 883e bbd2 c090
00000020: 45f1 713d a54d 90bc b838 d23e 44d1 e93e
00000030: e507 b53e 5c46 9b3e eb52 0000 4ca4 fd3e
00000040: a775 3bbd 6ce9 19bb edb2 9dbc 75f0 6fa8
00000050: 4533 d23e 2048 053b 2947 ac3e 7b0c 069a
00000060: a122 b7a4 044e 1fb0 fe3c b881 b031 9f3e
00000070: 686e 743d 66e8 0000 549b 043f 389d acbd

e_conv2.depth_conv.weight f4 [32, 1, 3, 3]
-0.019817814 -0.02445195 -0.021184757 -0.021232964 -0.034234896 -0.024060048 -0.036667377 -0.04668268
-0.032758735 -0.00017368958 -0.00017087073 -0.00030036434 -5.18199e-05 -4.3673044e-05 -0.00021251188 -0.0001205876
7.3630916e-05 -5.806727e-06 -7.465e-42 -2.3772e-41 4.3664e-41 -7.2345e-41 4.5441e-41 -9.6964e-41
-8.5259e-41 -1.33802e-40 -7.3343e-41 -0.28382027 -0.2510077 -0.056984667 -0.10945458 0.10423492
0.2422537 0.2704281 0.003510949 0.469272 1.9994896e-08 -2.1086781e-07 5.923947e-08 -1.7307325e-07
-2.0747908e-07 -1.4414272e-07 7.645054e-08 -1.1944708e-07 -6.75952e-08 0.01595929 0.05975947 -0.003000905
0.061808653 0.13444278 0.018269846 -0.04715838 -0.0057399753 -0.18350208 0.08389934 -0.021814864
-0.251193 0.05485425 0.14188562 -0.09593937 -0.03341673 -0.010981367 -0.30806556 -4.8869336e-30
-3.2574844e-30 -2.9411824e-30 -1.966825e-30 -2.0362387e-30 4.8240128e-32 -5.344882e-30 -2.0007354e-30 -1.3300141e-30
0.021565177 0.0028978682 -0.0021726443 0.010791401 0.00060329057 0.002992434 0.007874773 0.013298413
0.029770974 0.010107451 0.0023103734 -0.007218919 0.014456162 0.003336737 -0.006153093 0.00831643
-0.0027381037 -0.0060274587 0.3006976 0.2532836 0.23904052 0.25292656 -0.03271941 0.30402887
0.2870948 0.09745704 0.09203122 0.22653209 -0.17492028 0.15871431 0.07424522 -0.20570293
-0.11422328 0.26074186 0.06721113 0.17255594 0.3756382 0.1254994 0.21066245 0.28898293
0.19265756 0.10472835 0.26337355 0.13892886 -0.07165319 0.018501453 0.044667695 0.07662434
0.10083063 -0.11018407 0.18885538 -0.074645914 0.056828704 0.37791306 7.1571e-41 9.7827e-41
9.7436e-41 4.2119e-41 -1.7236e-41 2.7365e-41 7.2925e-41 -1.09688e-40 6.0165e-41 -0.06123605
0.15644707 -0.13663958 0.121869765 0.20797463 0.18430448 -0.1556323 -0.0714903 -0.09006035
0.0983692 0.22711985 0.35213676 0.119836114 0.052138906 0.12789136 -0.15027755 -0.07285216
-0.21035288 2.3039598e-36 -5.205695e-36 4.777802e-36 -4.442031e-36 7.13444e-36 -8.666147e-36 1.7963174e-35
6.4178024e-36 6.482501e-36 8.0965496e-05 1.9750414e-05 0.000112885544 9.9170196e-05 -2.8464276e-06 -1.0121447e-05
0.00010809593 3.2803408e-05 3.5722342e-06 9.118476e-16 1.0789585e-15 1.4346366e-15 1.0534079e-15 1.3147937e-15
1.1980514e-15 9.131122e-16 1.1409486e-15 1.2277658e-15 -0.064298175 0.2348613 -0.2051885 -0.31849915
-0.010248897 0.05309781 -0.32866257 -0.24336597 -0.2675802 0.00095177646 0.00075128523 0.0010401953
0.0002733315 -7.105096e-05 0.00042610875 0.0007630081 3.1613836e-05 -0.00011972226 -0.06726934 -0.10012351
0.059100978 -0.098097414 -0.09230064 0.0036242856 -0.06043474 -0.093903184 -0.02017311 -1.9115397e-24
-2.1506214e-24 -2.3941433e-24 -1.6049719e-24 -9.688673e-25 -2.3681312e-24 -9.382244e-25 -2.202783e-24 -2.9365016e-24
-1.14528e-40 -1.04982e-40 -7.3605e-41 6.4095e-41 -2.5949e-41 -3.1428e-41 6.7897e-41 -8.3174e-41
3.438e-41 1.1193208e-32 8.896181e-32 -9.144516e-32 -3.5739498e-32 4.4138673e-32 4.049411e-32 6.9598546e-32
4.792248e-32 7.376255e-32 -2.592318e-39 -1.564282e-39 -1.14308e-39 -1.479781e-39 -2.129685e-39 -2.758076e-39
-1.145134e-39 -2.604435e-39 -2.818105e-39 0.3152875 -8.464191e-05 0.055069897 0.0019463636 0.04455349
0.061061736 0.025285892 -0.030223826 -0.026452567 -0.0061662723 -0.0031607398 -0.008027845 0.001149931
00000000: f858 a2bc 754f c8bc a88b adbc c1f0 adbc
00000010: e439 0cbd 9419 c5bc 8830 16bd 5636 3fbd
00000020: 062e 06bd 7120 36b9 c32b 33b9 387a 9db9
00000030: 3259 59b8 932d 37b8 b9d5 5eb9 fae3 fcb8
00000040: 4c6a 9a38 68d7 c2b6 cf14 0080 4442 0080
00000050: b879 0000 abc9 0080 ac7e 0000 4c0e 0180
00000060: abed 0080 fc74 0180 73cc 0080 e450 91be
00000070: 1584 80be c168 69bd b929 e0bd 1e79 d53d
00000080: 5b11 783e 8d75 8a3e f317 663b 6b44 f03e
00000090: 3ec1 ab32 e76a 62b4 7c6e 7e33 03d6 39b4
000000a0: 6ac7 5eb4 a6c5 1ab4 212d a433 5d41 00b4
000000b0: db28 91b3 0fbd 823c 59c6 743d d5aa 44bb
000000c0: 122b 7d3d 5eab 093e a5aa 953c 2529 41bd
000000d0: 6716 bcbb f8e7 3bbe 6bd3 ab3d 16b5 b2bc
000000e0: 5e9c 80be daae 603d 774a 113e dc7b c4bd
000000f0: fbdf 08bd 31eb 33bc c5ba 9dbe d23c c68e
00000100: a723 848e f89d 6e8e 5b91 1f8e 0633 258e
00000110: 217a 7a0b 6ed0 d88e a651 228e a0ce d78d
00000120: 74a9 b03c 29ea 3d3b ec62 0ebb 6bce 303c
00000130: 2526 1e3a b61c 443b 3105 013c 96e1 593c
00000140: 42e2 f33c b999 253c a269 173b af8c ecbb
00000150: 8ad9 6c3c 28ad 5a3b e39f c9bb a341 083c
00000160: c271 33bb fd81 c5bb 09f5 993e 63ae 813e
00000170: 0ac7 743e 977f 813e ca04 06bd aca9 9b3e
00000180: 17fe 923e 8e97 c73d dd7a bc3d 07f8 673e
00000190: 4d1e 33be 0186 223e e10d 983d caa3 52be
000001a0: e5ed e9bd f57f 853e fda5 893d 81b2 303e
000001b0: a653 c03e ea82 003e e6b7 573e 92f5 933e
000001c0: 0648 453e d17b d63d e6d8 863e 5e43 0e3e
000001d0: e8be 92bd 5c90 973c 79f5 363d 39ed 9c3d
000001e0: 4a80 ce3d 30a8 e1bd 4e63 413e f5df 98bd
000001f0: 37c5 683d d27d c13e 83c7 0000 b410 0100
00000200: 9d0f 0100 6975 0000 0c30 0080 484c 0000
00000210: 49cb 0000 c431 0180 b7a7 0000 a7d2 7abd
00000220: a933 203e 3feb 0bbe db96 f93d 4df7 543e
00000230: 50ba 3c3e 135e 1fbe 8269 92bd 9071 b8bd
00000240: cb75 c93d 1b92 683e 454b b43e a36c f53d
00000250: 9b8f 553d f4f5 023e 5ce2 19be 8333 95bd
00000260: bf66 57be cdff 4304 006d dd84 a839 cb04
00000270: 6ff1 bc84 96bb 1705 fe4e 3885 6904 bf05
00000280: d77d 0805 18de 0905 05cc a938 b1ad a537
00000290: f7bc ec38 98f9 cf38 4105 3fb6 49cf 29b7
000002a0: 8fb1 e238 6496 0938 84ba 6f36 3d69 8326
000002b0: 8b7e 9b26 c0c0 ce26 e4cf 9726 537b bd26
000002c0: 4ca8 ac26 e597 8326 936d a426 90f0 b026
000002d0: c3ae 83bd 7b7f 703e ef1c 52be 5212 a3be
000002e0: fdea 27bc 177d 593d 7646 a8be ee34 79be
000002f0: 4600 89be a380 793a e6f1 443a 2a57 883a
00000300: ef4d 8f39 3201 95b8 5967 df39 9b04 483a
00000310: 1999 0438 6613 fbb8 82c4 89bd 8e0d cdbd
00000320: de13 723d 4ce7 c8bd 1e08 bdbd 6c85 6d3b
00000330: 6b8a 77bd 5050 c0bd 1442 a5bc f2e5 1398
00000340: 7265 2698 e53c 3998 7d5b f897 caec 9597
00000350: ac39 3798 e62e 9197 9d6e 2a98 6833 6398
00000360: 423f 0180 a624 0180 2ecd 0080 acb2 0000
00000370: 5648 0080 9c57 0080 45bd 0000 dbe7 0080
00000380: d65f 0000 4d79 680a 44f5 e60b bc67 ed8b
00000390: f191 398b 5c2e 650b e841 520b 2bb0 b40b
000003a0: e7d3 780b a07f bf0b 543a 1c80 9508 1180
000003b0: 7172 0c80 071d 1080 b230 1780 6508 1e80
000003c0: 2b78 0c80 1b5c 1c80 bbaf 1e80 5d6d a13e
000003d0: c881 b1b8 f990 613d 201d ff3a b87d 363d
000003e0: df1b 7a3d 5c24 cf3c f597 f7bc 0eb3 d8bc
000003f0: 710e cabb 6a24 4fbb 3987 03bc 48b9 963a

e_conv2.depth_conv.bias f4 [32]
0.09838152 -0.11797459 0.00021882057 -0.054831326 -0.16875455 0.19956574 0.01594824 0.1398067
0.26536107 -0.24683678 0.010906717 -0.08840101 -0.22501191 -0.05158524 0.14538474 0.20996861
0.17543921 -0.025404232 -9.686619e-05 0.1715742 0.26590127 0.18168525 -0.11054801 0.19255999
-0.08354699 -0.034989562 0.076531395 -0.21565191 -0.08087034 -0.16766885 -0.08717432 0.30025288
00000000: 407c c93d a99c f1bd 3373 6539 d096 60bd
00000010: fecd 2cbe f65a 4c3e e2a5 823c 7d29 0f3e
00000020: 68dd 873e c8c2 7cbe 16b2 323c 970b b5bd
00000030: 8669 66be 0b4b 53bd bddf 143e 0302 573e
00000040: 56a6 333e 891c d0bc a424 cbb8 26b1 2f3e
00000050: 3624 883e b30b 3a3e ff66 e2bd 722e 453e
00000060: af1a abbd 3751 0fbd 7ebc 9c3d dbd3 5cbe
00000070: 599f a5bd 62b1 2bbe 7388 b2bd bfba 993e

e_conv2.point_conv.weight f4 [32, 32, 1, 1]
-0.012532562 -0.01052906 -0.00031103278 0.08358173 0.014404484 -0.06842073 0.018823404 -0.026280034
-0.05587556 0.011029455 0.052492112 0.042700958 0.16599001 0.033421837 -0.011610135 -0.1270947
0.022831077 0.0031287775 -0.0005708091 -0.04955636 0.2672207 0.021760961 0.052345764 -0.057479568
-7.131605e-05 0.004627815 -0.014169673 0.046413627 0.018671433 0.028106498 -0.15068094 -0.015703922
0.06251615 -0.08598414 0.00032539986 -0.10903763 0.014388017 0.07831244 0.01324724 0.025621703
0.09257223 -0.09458404 0.3026446 0.18576558 0.25470445 0.10150974 -0.0059167943 0.13243988
0.113331616 -0.008805846 6.5738626e-05 -0.004965251 0.007523139 0.052590426 0.007789302 0.1156185
-0.015459183 -0.011048671 -0.014725273 0.19744295 -0.08598941 -0.03252324 -0.26300642 0.11558187
0.0037818444 -0.0066811256 0.00015662608 0.3421148 0.002816773 0.039809007 0.040365055 -0.00015740609
-0.027277656 -0.047263075 -0.123203725 -0.061426174 -0.27006552 0.04846631 -0.009432809 0.02554505
0.07612465 -0.0055422178 1.018083e-05 0.021924632 -0.023623815 0.013968569 -0.0067902543 0.059875246
-0.009711417 -0.0058815656 0.014733157 -0.21812114 -0.013797032 -0.037453968 0.08103625 -0.0033066857
-1.03311e-40 7.6305e-41 -1.28545e-40 4.381e-41 -4.7015e-41 -8.6449e-41 3.0328e-41 -7.5246e-41
3.0628e-41 3.3575e-41 8.998e-41 -1.7073e-41 4.7386e-41 -1.04322e-40 -3.2656e-41 1.1069e-41
-7.0277e-41 4.2549e-41 -1.20166e-40 -8.856e-41 -7.1124e-41 2.564e-41 -4.4938e-41 -8.477e-41
-1.02226e-40 8.5813e-41 1.13238e-40 -9.1551e-41 -6.2457e-41 -8.9054e-41 1.9037e-41 7.8086e-41
0.0018368091 0.0064884094 0.00017745147 -0.026710713 0.020996489 0.091758326 -0.13666603 0.0062752413
-0.015383856 -0.033469547 -0.06678288 -0.025319178 -0.06357446 -0.046993043 0.016210979 0.15475732
0.016284252 -0.005178014 -0.00013481734 0.036746986 0.004631249 -0.0057341033 -0.008919909 -0.01558206
-0.015378786 -0.004964912 0.014253001 -0.00063824654 -0.012266753 -0.03395901 0.033719078 -0.074215434
0.016790923 -0.017966725 0.0002511284 -0.035751257 -0.023594426 0.032001063 0.116580054 0.019241633
0.031348124 -0.03000929 0.08767739 -0.04477284 0.056170102 -0.023265481 0.020355921 0.045774773
-0.0018162185 -0.0041915295 -0.00010852467 0.020574424 0.07731409 0.024728749 -0.029878538 0.023759585
-0.010916875 -0.004988685 0.011021742 0.010430161 -0.012871669 -0.02202123 0.010163384 0.15056528
0.008922353 0.017155789 -0.00013050908 0.15412828 -0.012613945 -0.20163743 0.16721512 0.004071796
-0.0020991492 -0.029250838 0.354838 0.1749487 0.19131768 0.21734822 0.00700213 -0.09683113
0.1750056 0.0020097203 -0.00035248726 0.019103283 -0.051042344 0.014985096 0.030514656 0.0068050213
0.0043534795 0.0022170981 0.0029531936 0.10308348 -0.00046823587 0.016813686 -0.17266989 0.13512915
-1.11616e-40 -3.4972e-41 -7.1522e-41 5.1509e-41 -7.1929e-41 3.3833e-41 8.6837e-41 -8.891e-41
-2.56e-42 -5.7445e-41 7.5142e-41 -1.2601e-40 -3.89e-41 3.0178e-41 8.4685e-41 -1.5856e-41
7.3343e-41 5.9684e-41 5.247e-41 -6.8303e-41 -1.5738e-41 5.3916e-41 -1.0235e-41 -3.1603e-41
1.08543e-40 9.8731e-41 -9.7554e-41 -9.8663e-41 4.407e-41 -3.6177e-41 2.6314e-41 -7.5701e-41
00000000: 6055 4dbc 1482 2cbc 1d12 a3b9 e62c ab3d
00000010: c900 6c3c 2b20 8cbd 8a33 9a3c 3a49 d7bc
00000020: c5dd 64bd e3b4 343c f801 573d 33e7 2e3d
00000030: 49f9 293e 56e5 083d 7038 3ebc 1d25 02be
00000040: 3d08 bb3c 2d0c 4d3b 5aa2 15ba 9cfb 4abd
00000050: 27d1 883e 0b44 b23c 8368 563d b26f 6bbd
00000060: 838f 95b8 eda4 973b eb27 68bc 371c 3e3d
00000070: d5f4 983c 993f e63c 1b4c 1abe 83a5 80bc
00000080: 7808 803d 7418 b0bd 6e9a aa39 1f4f dfbd
00000090: b8bb 6b3c 4662 a03d f40a 593c 9be4 d13c
000000a0: 8296 bd3d 47b5 c1bd 3cf4 9a3e 5539 3e3e
000000b0: 9f68 823e 57e4 cf3d abe1 c1bb 529e 073e
000000c0: 681a e83d 6546 10bc 28dd 8938 8bb3 a2bb
000000d0: aa84 f63b 0f69 573d 673d ff3b 64c9 ec3d
000000e0: 8348 7dbc 7c05 35bc 4542 71bc 7c2e 4a3e
000000f0: 371b b0bd 1737 05bd c7a8 86be 30b6 ec3d
00000100: d2d8 773b 58ed dabb fe3b 2439 ac29 af3e
00000110: 9c99 383b c50e 233d d455 253d 600d 25b9
00000120: 6475 dfbc ed96 41bd 3c52 fcbd 039a 7bbd
00000130: 0746 8abe 9c84 463d 128c 1abc da43 d13c
00000140: 3ee7 9b3d 7e9b b5bb 55ce 2a37 499b b33c
00000150: bb86 c1bc 6ddc 643c c880 debb bf3f 753d
00000160: a31c 1fbc 26ba c0bb 5763 713c 265b 5fbe
00000170: f20c 62bc 5569 19bd 55f6 a53d fbb4 58bb
00000180: fd1f 0180 b5d4 0000 5566 0180 207a 0000
00000190: 0f83 0080 fcf0 0080 8b54 0000 c1d1 0080
000001a0: 6155 0000 985d 0000 d4fa 0000 982f 0080
000001b0: 1884 0000 cf22 0180 085b 0080 db1e 0000
000001c0: e7c3 0080 9c76 0000 f94e 0180 dff6 0080
000001d0: 44c6 0080 7947 0000 457d 0080 4eec 0080
000001e0: f71c 0180 36ef 0000 a93b 0100 35ff 0080
000001f0: 1bae 0080 3ff8 0080 1135 0000 acd9 0000
00000200: 16c1 f03a b99c d43b 4412 3a39 6dd0 dabc
00000210: d400 ac3c caeb bb3d 2ef2 0bbe 8aa0 cd3b
00000220: 920c 7cbc 5d17 09bd 76c5 88bd 2a6a cfbc
00000230: 5433 82bd c77b 40bd e3cc 843c b478 1e3e
00000240: 8d66 853c 54ac a9bb c15d 0db9 0284 163d
00000250: bbc1 973b 25e5 bbbb cf24 12bc e64b 7fbc
00000260: 4ef7 7bbc b3b0 a2bb 6b85 693c 0050 27ba
00000270: 7efa 48bc 9a18 0bbd 041d 0a3d 43fe 97bd
00000280: 1e8d 893c f42e 93bc e2a9 8339 e96f 12bd
00000290: 1949 c1bc 8c13 033d 86c1 ee3d a1a0 9d3c
000002a0: e466 003d 0bd6 f5bc 3490 b33d ba63 37bd
000002b0: 9f12 663d 4097 bebc 76c1 a63c 547e 3b3d
000002c0: 2e0e eeba 1959 89bb bd97 e3b8 b28b a83c
000002d0: da56 9e3d f293 ca3c d6c3 f4bc 76a3 c23c
000002e0: b1dc 32bc 1f78 a3bb 8994 343c 44e3 2a3c
000002f0: b1e3 52bc de65 b4bc 5284 263c c92d 1a3e
00000300: 102f 123c 4c8a 8c3c 44d9 08b9 ced3 1d3e
00000310: b8aa 4ebc 0b7a 4ebe 713a 2b3e b36c 853b
00000320: e191 09bb 749f efbc 54ad b53e c125 333e
00000330: c8e8 433e 8890 5e3e 2072 e53b 664f c6bd
00000340: ab34 333e 83b5 033b 0ace b8b9 7d7e 9c3c
00000350: c711 51bd 0c84 753c dff9 f93c a8fc de3b
00000360: a2a7 8e3b bc4c 113b 5e8a 413b 6e1d d33d
00000370: 8e7d f5b9 dbbc 893c 60d0 30be 4c5f 0a3e
00000380: 2437 0180 7d61 0080 60c7 0080 968f 0000
00000390: 82c8 0080 505e 0000 11f2 0000 d8f7 0080
000003a0: 2307 0080 22a0 0080 77d1 0000 445f 0180
000003b0: 706c 0080 2054 0000 11ec 0000 332c 0080
000003c0: 73cc 0000 60a6 0000 4492 0000 67be 0080
000003d0: df2b 0080 4c96 0000 881c 0080 1958 0080
000003e0: 932e 0100 3913 0100 f10f 0180 0813 0180
000003f0: d97a 0000 d964 0080 5a49 0000 06d3 0080

e_conv2.point_conv.bias f4 [32]
0.084627114 0.07108565 0.09950984 -4.8528e-41 0.15236382 0.08396799 -0.012039323 -5.6654e-41
0.07011265 0.110599466 0.0075088204 -0.056377187 0.005592109 0.1555241 0.10598383 1.16304865e-11
-2.6843848e-38 0.0174874 0.031702098 -5.6072e-41 -0.06438562 -0.0049860715 0.017086983 0.0015512882
0.053046957 -0.013897061 0.042229842 -0.10128907 -2.8709826e-09 -1.4327338e-09 0.056861546 0.0906352
00000000: fb50 ad3d 5a95 913d d1cb cb3d 4787 0080
00000010: 4305 1c3e 69f7 ab3d 9540 45bc ee9d 0080
00000020: 3997 8f3d f981 e23d 8d0c f63b c4eb 66bd
00000030: 033e b73b b641 1f3e 0d0e d93d 0e9b 4c2d
00000040: dd26 1281 bc41 8f3c 0fda 013d 4e9c 0080
00000050: 9cdc 83bd 3362 a3bb 00fa 8b3c 9854 cb3a
00000060: c447 593d 80b0 63bc 33f9 2c3d a570 cfbd
00000070: dc4a 45b1 d7e9 c4b0 a7e7 683d f39e b93d

e_conv3.depth_conv.weight f4 [32, 1, 3, 3]
1.1606e-40 2.3888e-41 2.547e-41 9.2961e-41 -1.33289e-40 -3.504e-41 1.41095e-40 8.5251e-41
-2.1897e-41 6.7143e-41 -8.442e-41 1.64609e-40 -5.4169e-41 -9.0845e-41 -7.02e-42 6.6839e-41
-8.2983e-41 -7.5687e-41 -1.3688e-41 -2.6162e-41 -6.392e-41 -1.15044e-40 7.6332e-41 -1.44712e-40
-7.6878e-41 4.3397e-41 -8.7762e-41 1.17974e-40 4.2302e-41 -1.0569e-41 -6.2042e-41 -8.7375e-41
-8.9948e-41 8.1621e-41 3.3457e-41 7.3045e-41 1.23653e-40 -5.2427e-41 1.33967e-40 7.4545e-41
-6.3117e-41 1.3161e-41 1.06699e-40 1.20125e-40 1.01715e-40 -1.95464e-40 1.1746e-40 -8.2853e-41
-3.5405e-41 1.42651e-40 1.78939e-40 -4.19e-41 -1.20594e-40 1.18013e-40 -7.825e-41 -1.6025e-41
-1.05477e-40 -9.2135e-41 -6.5127e-41 -1.33977e-40 -3.115e-41 1.85215e-40 -7.5182e-41 -1.09434e-40
-3.5416e-41 9.2545e-41 6.5812e-41 4.8432e-41 1.918e-42 9.894e-41 -8.7665e-41 6.5941e-41
3.231e-42 -3.7499e-41 3.838e-42 -2.8658e-41 -5.9435e-41 -1.64748e-40 -3.4719e-41 -1.51594e-40
1.91426e-40 -2.5214e-41 8.5245e-41 1.704e-42 7.1546e-41 -9.7358e-41 -9.1614e-41 8.6198e-41
8.5363e-41 -5.8642e-41 -5.8499e-41 -1.48704e-40 -8.234e-42 -4.8748e-41 -6.422e-42 -5.1845e-41
-5.3074e-41 -4.5209e-41 4.0018e-41 6.739e-42 1.3704e-40 -9.6807e-41 1.09582e-40 -3.6525e-41
-1.05259e-40 -7.323e-42 8.4267e-41 -8.3946e-41 1.343e-40 -1.27385e-40 -1.00138e-40 -8.0537e-41
-1.33605e-40 -8.2686e-41 3.8236e-41 -3.8579e-41 6.4456e-41 -1.22811e-40 4.4095e-41 -1.10002e-40
1.0134e-40 -8.3223e-41 -3.7748e-41 -1.03723e-40 1.6479e-41 9.564e-42 1.0246e-40 3.9618e-41
-9.7682e-41 -8.5698e-41 -1.19304e-40 -2.8522e-41 1.26341e-40 1.43074e-40 1.6095e-41 -2.7607e-41
-1.12014e-40 9.8347e-41 6.986e-41 1.28457e-40 -3.2569e-41 8.4032e-41 -4.8467e-41 -3.748e-41
1.00802e-40 -7.4106e-41 -9.35e-42 9.2591e-41 -1.16183e-40 -6.0249e-41 1.6077e-41 -2.8935e-41
6.2764e-41 -8.2385e-41 5.9159e-41 1.04716e-40 -3.9727e-41 -7.6465e-41 -9.739e-42 -6.236e-41
-4.3152e-41 3.013e-42 -3.8512e-41 -1.9848e-41 -7.0844e-41 7.97e-43 -5.2878e-41 -5.069e-41
1.44238e-40 -1.11524e-40 1.28342e-40 2.3155e-41 7.3666e-41 -1.02809e-40 1.85337e-40 -8.4445e-41
8.3111e-41 -5.5199e-41 9.043e-41 8.8188e-41 7.6123e-41 9.1637e-41 1.164e-40 -1.46723e-40
9.0773e-41 7.5681e-41 -8.048e-41 7.5387e-41 8.0943e-41 4.7334e-41 4.437e-41 -5.6405e-41
-1.40276e-40 -1.13041e-40 4.1509e-41 6.0025e-41 8.001e-41 -9.059e-41 1.12171e-40 -6.2962e-41
-1.0653e-40 -4.1918e-41 9.424e-42 -8.4505e-41 -1.3591e-41 -2.0756e-41 6.4231e-41 -7.607e-41
2.221e-42 -8.5677e-41 -1.8634e-41 6.8379e-41 -1.01259e-40 -1.60499e-40 -1.2991e-41 1.0118e-40
-1.27119e-40 -8.7794e-41 -3.2146e-41 -1.20653e-40 3.8429e-41 -5.1809e-41 3.8883e-41 -9.68e-41
1.3017e-41 -1.1152e-40 8.078e-41 1.0032e-41 1.39373e-40 -8.9179e-41 7.6075e-41 6.7523e-41
1.9185e-41 -1.97952e-40 5.4952e-41 5.7865e-41 1.2455e-41 -3.912e-41 -7.964e-41 -4.8683e-41
5.0824e-41 -1.12681e-40 6.5123e-41 7.7516e-41 1.04213e-40 -1.35653e-40 1.9311e-41 9.6523e-41
-7.2451e-41 1.43535e-40 3.4316e-41 5.9241e-41 -3.8915e-41 1.9343e-40 6.722e-41 9.005e-41
00000000: 8743 0100 9742 0000 0047 0000 2303 0100
00000010: 8e73 0180 ad61 0080 5189 0100 a5ed 0000
00000020: 0a3d 0080 2bbb 0000 54eb 0080 ddca 0100
00000030: 0097 0080 3dfd 0080 9213 0080 52ba 0000
00000040: 53e7 0080 fcd2 0080 2826 0080 ee48 0080
00000050: 2fb2 0080 b240 0180 c8d4 0000 6693 0180
00000060: 4ed6 0080 f978 0000 a5f4 0080 dd48 0100
00000070: ec75 0000 761d 0080 f3ac 0080 91f3 0080
00000080: bdfa 0080 87e3 0000 445d 0000 9fcb 0000
00000090: b258 0100 2592 0080 7275 0100 cdcf 0000
000000a0: f2af 0080 b024 0000 6f29 0100 dc4e 0100
000000b0: 8a1b 0100 e020 0280 6e47 0100 f6e6 0080
000000c0: b262 0080 a78d 0100 cff2 0100 cd74 0080
000000d0: 2b50 0180 f948 0100 21da 0080 ac2c 0080
000000e0: 0726 0180 d600 0180 8cb5 0080 7975 0180
000000f0: d556 0080 4e04 0200 94d1 0080 0f31 0180
00000100: ba62 0080 fa01 0100 75b7 0000 0287 0000
00000110: 5905 0000 ce13 0100 60f4 0080 d1b7 0000
00000120: 0209 0000 8868 0080 b30a 0000 e34f 0080
00000130: aea5 0080 40cb 0180 c860 0080 95a6 0180
00000140: 9e15 0200 4946 0080 a1ed 0000 c004 0000
00000150: 71c7 0000 650f 0180 62ff 0080 49f0 0000
00000160: f5ed 0000 78a3 0080 12a3 0080 879e 0180
00000170: f416 0080 e487 0080 e711 0080 8690 0080
00000180: f393 0080 067e 0080 8e6f 0000 c912 0000
00000190: 037e 0100 dc0d 0180 7831 0100 d165 0080
000001a0: 6b25 0180 6a14 0080 e7ea 0000 02ea 0080
000001b0: 6076 0100 1963 0180 2517 0180 81e0 0080
000001c0: 7074 0180 7fe6 0080 966a 0000 8b6b 0080
000001d0: adb3 0000 5956 0180 eb7a 0000 a432 0180
000001e0: 7f1a 0100 fee7 0080 3a69 0080 2321 0180
000001f0: f02d 0000 a91a 0000 9e1d 0100 706e 0000
00000200: 4c10 0180 e4ee 0080 924c 0180 824f 0080
00000210: 3060 0100 d58e 0100 de2c 0000 f54c 0080
00000220: 4038 0180 2712 0100 bec2 0000 1666 0100
00000230: ca5a 0080 3fea 0000 1b87 0080 7b68 0080
00000240: ff18 0100 94ce 0080 101a 0080 1b02 0100
00000250: df43 0180 f3a7 0080 d12c 0000 a950 0080
00000260: f6ae 0000 a8e5 0080 e9a4 0000 e823 0100
00000270: be6e 0080 27d5 0080 261b 0080 d6ad 0080
00000280: 4a78 0080 6608 0000 5b6b 0080 5437 0080
00000290: 7cc5 0080 3902 0000 6793 0080 4e8d 0080
000002a0: 1492 0100 e236 0180 c465 0100 8c40 0000
000002b0: 5acd 0000 971e 0180 a504 0200 66eb 0080
000002c0: aee7 0000 df99 0080 15fc 0000 d5f5 0000
000002d0: 33d4 0000 72ff 0000 7a44 0100 0199 0180
000002e0: 0afd 0000 f8d2 0000 58e0 0080 26d2 0000
000002f0: a3e1 0000 f383 0000 af7b 0000 3c9d 0080
00000300: 0887 0180 1d3b 0180 b673 0000 53a7 0000
00000310: 09df 0000 87fc 0080 b038 0100 83af 0080
00000320: f628 0180 da74 0080 451a 0000 91eb 0080
00000330: e325 0080 dc39 0080 0db3 0000 0dd4 0080
00000340: 3106 0000 d5ee 0080 f233 0080 9dbe 0000
00000350: 451a 0180 68bf 0180 3724 0080 0c1a 0100
00000360: 5b62 0180 bcf4 0080 9c59 0080 5550 0180
00000370: 206b 0000 6c90 0080 646c 0000 d70d 0180
00000380: 4924 0000 df36 0180 2fe1 0000 f71b 0000
00000390: 8484 0100 98f8 0080 11d4 0000 3abc 0000
000003a0: 7b35 0000 cf27 0280 2f99 0000 4ea1 0000
000003b0: b822 0000 0d6d 0080 01de 0080 b587 0080
000003c0: ad8d 0000 1c3a 0180 89b5 0000 15d8 0000
000003d0: 8122 0100 257a 0180 d535 0000 110d 0100
000003e0: f7c9 0080 1e90 0100 a95f 0000 24a5 0000
000003f0: 7b6c 0080 341b 0200 62bb 0000 06fb 0000

e_conv3.depth_conv.bias f4 [32]
-9.5731e-41 -3.96e-42 8.5544e-41 1.02739e-40 8.6414e-41 -1.26309e-40 1.11756e-40 8.9529e-41
-1.25067e-40 2.4157e-41 7.7387e-41 2.4306e-41 -2.8815e-41 8.6463e-41 -9.222e-42 1.34537e-40
1.40958e-40 3.1367e-41 1.26548e-40 1.16444e-40 1.39541e-40 9.2521e-41 -1.8347e-41 3.3924e-41
7.869e-41 1.50976e-40 2.3898e-41 -4.7585e-41 -4.7868e-41 -1.10642e-40 -1.695e-41 1.09367e-40
00000000: dc0a 0180 0a0b 0080 76ee 0000 651e 0100
00000010: e3f0 0000 1960 0180 8837 0100 92f9 0000
00000020: a35c 0180 5743 0000 b9d7 0000 c143 0000
00000030: 5350 0080 06f1 0000 b519 0080 0977 0100
00000040: ef88 0100 7057 0000 c460 0100 9944 0100
00000050: fc84 0100 e901 0100 2533 0080 915e 0000
00000060: 5bdb 0000 dca4 0100 9e42 0000 a684 0080
00000070: 7085 0080 6d34 0180 402f 0080 df30 0100

e_conv3.point_conv.weight f4 [32, 32, 1, 1]
5.9833e-41 1.06118e-40 -6.0598e-41 1.20583e-40 3.9682e-41 -9.4045e-41 1.16013e-40 4.6044e-41
-6.163e-42 1.17186e-40 1.05124e-40 1.03358e-40 6.079e-41 -8.168e-41 1.35141e-40 2.8554e-41
-1.0818e-40 9.8155e-41 7.035e-41 -2.3952e-41 1.28949e-40 -7.7489e-41 -1.9963e-41 1.40779e-40
1.7862e-41 -1.82598e-40 9.5082e-41 -1.5391e-40 -8.78e-42 8.1658e-41 1.20551e-40 -7.3687e-41
4.3527e-41 9.4012e-41 9.9722e-41 -1.5615e-41 1.06828e-40 -7.1676e-41 -2.698e-41 -9.4586e-41
-5.3817e-41 -1.03605e-40 1.1027e-41 -1.27344e-40 7.0302e-41 -5.4248e-41 8.3608e-41 -1.2466e-41
3.1235e-41 7.9004e-41 4.6813e-41 3.4416e-41 1.96563e-40 -1.42897e-40 4.776e-42 4.1917e-41
2.5031e-41 -1.50219e-40 1.1205e-40 9.839e-41 5.5526e-41 1.0906e-40 -1.13877e-40 1.03517e-40
2.3207e-41 7.6972e-41 1.325e-40 -1.7076e-40 -7.3805e-41 1.26693e-40 1.42158e-40 1.50268e-40
-8.8352e-41 1.01639e-40 -1.3848e-41 -1.65093e-40 -2.0774e-41 1.3927e-40 1.18258e-40 -8.3215e-41
-1.30541e-40 -1.41503e-40 5.5155e-41 -1.24039e-40 -3.7034e-41 -2.5477e-41 -8.2354e-41 -6.103e-41
2.099e-41 1.0452e-40 3.0457e-41 1.55752e-40 4.8904e-41 -8.6855e-41 1.58502e-40 -1.81671e-40
-2.4966e-41 -5.1156e-41 -6.3954e-41 1.82336e-40 4.9195e-41 8.0357e-41 9.7242e-41 -4.383e-41
-4.96e-43 7.728e-42 -1.02079e-40 -4.4074e-41 6.644e-42 -4.3402e-41 4.1797e-41 -3.949e-42
-4.8788e-41 4.4329e-41 1.3951e-40 4.8223e-41 9.7972e-41 1.3996e-41 -1.6301e-41 -1.0545e-41
1.10696e-40 -1.00788e-40 1.50054e-40 -1.63099e-40 -1.16948e-40 1.20502e-40 5.3455e-41 -1.12505e-40
1.17559e-40 1.18938e-40 5.793e-41 5.2701e-41 1.60534e-40 9.9711e-41 1.262e-41 -3.416e-42
-3.6966e-41 1.21493e-40 2.2695e-41 -1.00552e-40 8.1474e-41 -1.11014e-40 -2.9479e-41 9.8842e-41
5.5814e-41 1.4191e-40 -7.4796e-41 9.3317e-41 -5.6953e-41 -1.5232e-40 -1.89294e-40 2.7718e-41
-1.6496e-41 1.02089e-40 -9.033e-41 -1.74903e-40 -2.5358e-41 -9.4568e-41 -9.7103e-41 1.52543e-40
-8.6222e-41 -7.9026e-41 -7.8836e-41 1.01706e-40 4.2155e-41 1.0063e-40 9.729e-42 -2.0858e-41
1.5078e-41 1.722e-41 -5.26e-42 -7.473e-42 1.22758e-40 -5.0017e-41 7.7129e-41 -4.076e-41
-6.6937e-41 -1.02485e-40 -5.866e-41 -7.334e-42 -2.6388e-41 -6.433e-42 -2.3271e-41 -1.2979e-41
1.3699e-41 1.5177e-40 -9.148e-42 6.0826e-41 6.9123e-41 -6.963e-41 1.13717e-40 4.825e-41
3.8729e-41 2.309e-41 -2.8889e-41 6.3389e-41 1.20203e-40 -8.1312e-41 6.2652e-41 -1.05955e-40
9.8693e-41 -1.26448e-40 1.26941e-40 -1.918e-41 2.4334e-41 -7.4521e-41 1.21e-42 -9.2222e-41
1.72179e-40 -1.07809e-40 5.8989e-41 -8.5772e-41 1.57037e-40 -1.64515e-40 9.6458e-41 5.108e-42
-1.24975e-40 -1.19295e-40 1.34918e-40 -6.3794e-41 7.8995e-41 -1.6321e-41 1.19985e-40 1.04287e-40
1.9554e-40 1.20645e-40 -1.1491e-40 1.67974e-40 6.8147e-41 -1.21986e-40 -1.03029e-40 9.9964e-41
-1.00435e-40 1.36788e-40 4.9211e-41 1.753e-41 6.973e-42 8.3262e-41 -2.5581e-41 1.0546e-40
-8.623e-41 3.3427e-41 -1.69456e-40 -1.35916e-40 -9.861e-42 8.7704e-41 -8.3348e-41 -8.3854e-41
7.4036e-41 -6.942e-41 -1.3478e-41 -4.9813e-41 -2.5139e-41 -1.67891e-40 4.8775e-41 1.2456e-40
00000000: caa6 0000 d027 0100 eca8 0080 2350 0100
00000010: 9e6e 0000 2906 0180 6643 0100 5a80 0000
00000020: 2e11 0080 ab46 0100 0b25 0100 1f20 0100
00000030: 75a9 0000 b1e3 0080 b878 0100 994f 0000
00000040: 902d 0180 9e11 0100 1bc4 0000 c542 0080
00000050: 7567 0100 02d8 0080 a637 0080 6f88 0100
00000060: cb31 0000 02fd 0180 0d09 0100 0aad 0180
00000070: 7a18 0080 a1e3 0000 0c50 0100 69cd 0080
00000080: 5679 0000 1106 0100 fc15 0100 872b 0080
00000090: cb29 0100 cec7 0080 364b 0080 ab07 0180
000000a0: 0596 0080 cf20 0180 bd1e 0000 fc62 0180
000000b0: f9c3 0000 3997 0080 11e9 0000 c022 0080
000000c0: 1257 0000 3bdc 0000 7f82 0000 f05f 0000
000000d0: f023 0200 578e 0180 500d 0000 d974 0000
000000e0: c745 0000 c0a2 0180 5a38 0100 4512 0100
000000f0: c99a 0000 0430 0100 713d 0180 9020 0100
00000100: b140 0000 91d6 0000 5b71 0100 02dc 0180
00000110: bdcd 0080 2b61 0100 478c 0100 e3a2 0100
00000120: 4af6 0080 541b 0100 9a26 0080 36cc 0180
00000130: e939 0080 3a84 0100 a849 0100 f8e7 0080
00000140: e56b 0180 748a 0180 c099 0000 c559 0180
00000150: 3c67 0080 0547 0080 92e5 0080 20aa 0080
00000160: 833a 0000 5c23 0100 e754 0000 2cb2 0100
00000170: 5388 0000 1ef2 0080 d7b9 0100 6dfa 0180
00000180: 9845 0080 9a8e 0080 47b2 0080 47fc 0100
00000190: 2389 0000 01e0 0000 120f 0100 2e7a 0080
000001a0: 6201 0080 8b15 0000 8e1c 0180 dc7a 0080
000001b0: 8512 0000 fd78 0080 8374 0000 020b 0080
000001c0: 0088 0080 927b 0000 e684 0100 6d86 0000
000001d0: 1b11 0100 0427 0000 712d 0080 651d 0080
000001e0: 9334 0100 f518 0180 4aa2 0100 a7c6 0180
000001f0: 0146 0180 e94f 0100 0395 0000 9e39 0180
00000200: b547 0100 8d4b 0100 7ca1 0000 e992 0000
00000210: 81bf 0100 f415 0100 2e23 0000 8609 0080
00000220: 0c67 0080 ac52 0100 443f 0000 4c18 0180
00000230: 1ee3 0000 7635 0180 2d52 0080 8813 0100
00000240: 969b 0000 968b 0100 80d0 0080 2104 0100
00000250: c39e 0080 9ba8 0180 ad0f 0280 444d 0000
00000260: fc2d 0080 951c 0100 cefb 0080 8fe7 0180
00000270: b046 0080 9e07 0180 af0e 0180 3aa9 0100
00000280: 5af0 0080 4bdc 0080 c3db 0080 841b 0100
00000290: 8375 0000 8418 0100 1f1b 0000 253a 0080
000002a0: 082a 0000 0130 0000 aa0e 0080 d514 0080
000002b0: 3356 0100 6d8b 0080 01d7 0000 9f71 0080
000002c0: 98ba 0080 b01d 0180 85a3 0080 7214 0080
000002d0: 8f49 0080 ef11 0080 df40 0080 2e24 0080
000002e0: 3026 0000 13a7 0100 8019 0080 8fa9 0000
000002f0: b0c0 0000 1ac2 0080 ff3c 0100 8086 0000
00000300: f66b 0000 5e40 0000 8850 0080 b4b0 0000
00000310: 144f 0100 aae2 0080 a6ae 0000 5c27 0180
00000320: 1e13 0100 7c60 0180 dc61 0100 7735 0080
00000330: d543 0000 bccf 0080 5f03 0000 1401 0180
00000340: f7df 0100 872c 0180 70a4 0000 19ef 0080
00000350: c1b5 0100 9aca 0180 e30c 0100 3d0e 0000
00000360: 615c 0180 8c4c 0180 1978 0100 d5b1 0080
00000370: 35dc 0000 7f2d 0080 784e 0100 b622 0100
00000380: 1621 0200 4f50 0100 5340 0180 3ed4 0100
00000390: f7bd 0000 0c54 0180 341f 0180 a916 0100
000003a0: f917 0180 4f7d 0100 2e89 0000 de30 0000
000003b0: 7013 0000 1ae8 0000 4f47 0080 fb25 0100
000003c0: 60f0 0080 2e5d 0000 60d8 0180 e17a 0180
000003d0: 7d1b 0080 7cf4 0000 57e8 0080 c0e9 0080
000003e0: 62ce 0000 84c1 0080 9225 0080 dc8a 0080
000003f0: 1446 0080 03d4 0180 f787 0000 395b 0100

e_conv3.point_conv.bias f4 [32]
1.62304e-40 1.9883e-41 7.221e-41 -8.1697e-41 -9.7962e-41 7.5084e-41 1.35145e-40 -1.45444e-40
-8.5873e-41 -8.7339e-41 8.458e-42 -8.6384e-41 -8.318e-42 4.1385e-41 2.7548e-41 3.55e-43
2.9168e-41 -2.978e-41 -6.5724e-41 1.00566e-40 5.003e-42 -1.9272e-41 -5.6565e-41 3.2355e-41
-8.8534e-41 1.05177e-40 1.684e-41 7.3701e-41 -7.5901e-41 1.9946e-41 1.04e-42 -4.3739e-41
00000000: 70c4 0100 6d37 0000 4bc9 0000 bde3 0080
00000010: 1411 0180 4ed1 0000 bb78 0100 7095 0180
00000020: 61ef 0080 77f3 0080 9417 0000 cef0 0080
00000030: 3017 0080 5d73 0000 cb4c 0000 fd00 0000
00000040: 4f51 0000 0453 0080 36b7 0080 5618 0100
00000050: f20d 0000 b935 0080 ae9d 0080 315a 0000
00000060: ccf6 0080 3125 0100 f12e 0000 73cd 0000
00000070: 95d3 0080 9a37 0000 e602 0000 ed79 0080

e_conv4.depth_conv.weight f4 [32, 1, 3, 3]
-1.4529e-41 -2.1235e-41 7.9246e-41 -1.345e-42 -9.5665e-41 4.15e-42 -9.869e-41 7.8305e-41
1.64753e-40 8.5814e-41 6.776e-41 -6.23e-42 -1.05668e-40 8.263e-42 9.1683e-41 1.9244e-41
-6.6045e-41 5.569e-41 5.3786e-41 -8.2709e-41 -9.0134e-41 -7.931e-42 -1.0999e-40 -6.8793e-41
4.1144e-41 1.3188e-41 -9.5388e-41 7.88e-42 -5.1e-42 8.0591e-41 -1.46824e-40 9.8707e-41
6.1888e-41 1.28198e-40 1.2296e-41 1.03203e-40 -4.371e-41 1.26722e-40 1.53578e-40 6.912e-41
-1.19849e-40 1.06912e-40 1.07327e-40 9.8146e-41 -4.8238e-41 -7.3885e-41 -3.1357e-41 -5.6775e-41
5.871e-41 -3.306e-41 -1.21141e-40 1.34689e-40 9.995e-41 1.44467e-40 8.695e-42 3.1095e-41
-8.5862e-41 -6.5214e-41 1.0584e-40 -5.7787e-41 -2.0655e-41 -6.4565e-41 1.37225e-40 -8.1762e-41
-1.722e-42 1.74111e-40 1.973e-41 -4.9539e-41 1.39396e-40 -4.7717e-41 7.37e-43 1.22132e-40
1.49785e-40 -1.0232e-41 -3.4905e-41 4.341e-42 -1.81882e-40 -9.3883e-41 -9.8248e-41 -5.8228e-41
-5.0087e-41 7.264e-42 3.215e-42 5.4599e-41 -8.9526e-41 2.096e-41 -8.2656e-41 2.5005e-41
5.304e-41 -9.7488e-41 -4.5594e-41 -1.00467e-40 -1.08979e-40 -6.3483e-41 1.02502e-40 1.30935e-40
1.38706e-40 -2.6316e-41 6.1555e-41 -1.18264e-40 8.4043e-41 -2.2878e-41 4.3034e-41 -9.299e-41
3.809e-42 1.71965e-40 -6.508e-42 3.516e-42 -5.5358e-41 1.0075e-41 6.8585e-41 9.8001e-41
-6.8535e-41 8.3805e-41 4.9614e-41 -6.514e-41 -7.67e-41 -1.0162e-41 -1.42722e-40 7.2364e-41
9.4055e-41 -6.9542e-41 6.3782e-41 4.8322e-41 -6.4153e-41 -1.51203e-40 -6.0462e-41 -3.0174e-41
4.7748e-41 -5.7769e-41 1.70162e-40 3.5728e-41 -1.01897e-40 -2.9195e-41 -8.3447e-41 3.6528e-41
1.07494e-40 -9.7947e-41 7.141e-41 9.9585e-41 2.2037e-41 8.1644e-41 -9.5957e-41 1.1983e-41
-4.0793e-41 5.3406e-41 2.972e-42 -9.1274e-41 1.36495e-40 -1.25053e-40 -1.10614e-40 2.5459e-41
-1.26445e-40 -3.7318e-41 1.17617e-40 -4.758e-41 1.0351e-41 5.9362e-41 1.1356e-40 9.655e-42
8.7099e-41 -1.2269e-40 1.474e-41 3.226e-41 9.92e-43 1.15875e-40 -9.7036e-41 7.2151e-41
-1.07697e-40 -9.3266e-41 1.48182e-40 -9.497e-42 -2.1848e-41 -9.525e-42 9.2004e-41 8.4912e-41
-2.2167e-41 1.0039e-41 1.19179e-40 6.1434e-41 -8.8701e-41 -1.41988e-40 8.8503e-41 -9.1537e-41
7.033e-41 7.9983e-41 -3.1888e-41 -4.3592e-41 1.18008e-40 -9.859e-41 -6.4977e-41 -4.95e-41
-1.6654e-41 -6.077e-42 9.0684e-41 -4.8891e-41 7.5362e-41 -7.5054e-41 -8.0611e-41 -1.4666e-41
1.3092e-41 1.28437e-40 -3.374e-41 7.9853e-41 -1.04007e-40 -3.1469e-41 8.16e-43 9.195e-42
6.108e-41 -1.7048e-41 7.5017e-41 3.7031e-41 1.6893e-41 -7.735e-41 1.2476e-41 3.6846e-41
7.3176e-41 8.3475e-41 9.1606e-41 -1.8e-42 1.4952e-41 6.8507e-41 9.8101e-41 4.9883e-41
-1.39737e-40 -1.06591e-40 -1.07407e-40 -8.4067e-41 3.8527e-41 6.4443e-41 6.1136e-41 6.4719e-41
-2.9656e-41 -1.2965e-40 -2.1464e-41 7.5599e-41 1.9206e-41 -1.13912e-40 1.16966e-40 -2.6393e-41
1.38066e-40 -9.77e-42 -2.7585e-41 -8.8891e-41 -1.0894e-41 1.13397e-40 -6.0214e-41 4.749e-42
3.1285e-41 1.1283e-40 1.8043e-40 7.855e-41 5.457e-41 6.0634e-41 6.4596e-41 -5.907e-41
00000000: 8028 0080 323b 0080 e8dc 0000 c003 0080
00000010: ad0a 0180 920b 0000 1c13 0180 48da 0000
00000020: 44cb 0100 37ef 0000 e3bc 0000 5e11 0080
00000030: 8f26 0180 0917 0000 93ff 0000 a535 0000
00000040: 1bb8 0080 3e9b 0000 ef95 0000 8fe6 0080
00000050: 42fb 0080 1c16 0080 9b32 0180 c4bf 0080
00000060: b172 0000 c324 0000 e709 0180 f715 0000
00000070: 370e 0080 a8e0 0000 4999 0180 2813 0100
00000080: 85ac 0000 5d65 0100 4722 0000 b01f 0100
00000090: d879 0080 4061 0100 1dac 0100 aec0 0000
000000a0: 174e 0180 072a 0100 2f2b 0100 9711 0100
000000b0: 7886 0080 f6cd 0080 6957 0080 449e 0080
000000c0: a9a3 0000 285c 0080 b151 0180 7577 0100
000000d0: 9f16 0100 b792 0100 3d18 0000 ae56 0000
000000e0: 59ef 0080 cab5 0080 0a27 0100 16a1 0080
000000f0: 9439 0080 fbb3 0080 877e 0100 ebe3 0080
00000100: cd04 0080 5ae5 0100 0037 0000 188a 0080
00000110: 9484 0100 0485 0080 0e02 0000 7454 0100
00000120: 8aa1 0100 861c 0080 4d61 0080 1a0c 0000
00000130: 03fb 0180 b505 0180 e011 0180 51a2 0080
00000140: 9f8b 0080 4014 0000 f608 0000 3398 0000
00000150: 90f9 0080 6e3a 0000 69e6 0080 b445 0000
00000160: db93 0000 c20f 0180 197f 0080 1018 0180
00000170: ca2f 0180 f7b0 0080 bc1d 0100 fe6c 0100
00000180: a882 0100 5c49 0080 97ab 0000 ac49 0180
00000190: 47ea 0000 c63f 0080 f677 0000 3803 0180
000001a0: 9e0a 0000 5edf 0100 2412 0080 cd09 0000
000001b0: 519a 0080 161c 0000 30bf 0000 3011 0100
000001c0: 0cbf 0080 9de9 0000 4e8a 0000 95b5 0080
000001d0: cfd5 0080 541c 0080 da8d 0180 b9c9 0000
000001e0: 3006 0100 dbc1 0080 ccb1 0000 b486 0000
000001f0: d5b2 0080 7ea5 0180 8ba8 0080 1d54 0080
00000200: 1a85 0000 09a1 0080 58da 0100 9863 0000
00000210: 0c1c 0180 6251 0080 9ee8 0080 d365 0000
00000220: a62b 0100 0911 0180 10c7 0000 9a15 0100
00000230: 6e3d 0000 97e3 0000 7d0b 0180 6721 0000
00000240: b771 0080 e094 0000 4908 0000 6ffe 0080
00000250: 7e7c 0100 995c 0180 5934 0180 f846 0000
00000260: 7a60 0180 0768 0080 de47 0100 a284 0080
00000270: db1c 0000 7aa5 0000 8f3c 0100 ea1a 0000
00000280: ccf2 0000 0356 0180 1729 0000 ee59 0000
00000290: c402 0000 0343 0100 7f0e 0180 21c9 0000
000002a0: 372c 0180 fd03 0180 129d 0100 791a 0080
000002b0: e73c 0080 8d1a 0080 7800 0100 b3ec 0000
000002c0: cb3d 0080 fc1b 0000 394c 0100 41ab 0000
000002d0: 43f7 0080 ce8b 0180 b6f6 0000 2bff 0080
000002e0: 0dc4 0000 f6de 0000 e458 0080 8479 0080
000002f0: f548 0100 d412 0180 21b5 0080 fc89 0080
00000300: 6d2e 0080 f110 0080 cafc 0000 4a88 0080
00000310: 14d2 0000 38d1 0080 b6e0 0080 e228 0080
00000320: 7f24 0000 0866 0100 0e5e 0080 99de 0000
00000330: ee21 0180 b957 0080 4602 0000 a219 0000
00000340: 44aa 0000 862f 0080 1ed1 0000 3a67 0000
00000350: 172f 0000 9fd7 0080 c722 0000 b666 0000
00000360: fccb 0000 b2e8 0000 5cff 0000 0505 0080
00000370: ae29 0000 f8be 0000 7711 0100 0e8b 0000
00000380: 8885 0180 2229 0180 682b 0180 58ea 0080
00000390: 666b 0000 a4b3 0000 6caa 0000 69b4 0000
000003a0: ab52 0080 6969 0180 d53b 0080 bdd2 0000
000003b0: 8a35 0000 8a3d 0180 0e46 0100 9349 0080
000003c0: df80 0100 3c1b 0080 e54c 0080 cbf7 0080
000003d0: 5e1e 0080 1b3c 0100 daa7 0080 3d0d 0000
000003e0: 3657 0000 863a 0100 f7f6 0100 f7da 0000
000003f0: 1e98 0000 06a9 0000 11b4 0000 aaa4 0080

e_conv4.depth_conv.bias f4 [32]
1.5693e-41 8.6478e-41 -8.362e-41 -3.6966e-41 -1.5487e-41 -2.731e-41 4.6258e-41 5.0166e-41
-4.1753e-41 -5.513e-42 6.7054e-41 -1.05664e-40 -7.6617e-41 7.2356e-41 -6.4873e-41 2.8979e-41
-3.1159e-41 -1.13864e-40 8.7018e-41 1.54454e-40 -2.0672e-41 4.2964e-41 -9.9216e-41 -2.335e-41
2.0498e-41 -7.2137e-41 -7.8162e-41 7.2017e-41 -2.1158e-41 -4.282e-42 -6.0044e-41 7.7448e-41
00000000: bf2b 0000 11f1 0000 19e9 0080 0c67 0080
00000010: 2c2b 0080 214c 0080 f380 0000 d88b 0000
00000020: 6474 0080 5e0f 0080 ebba 0000 8c26 0180
00000030: 94d5 0080 b3c9 0000 d7b4 0080 c850 0000
00000040: dc56 0080 683d 0180 92f2 0000 8eae 0100
00000050: a039 0080 c477 0000 9314 0180 1741 0080
00000060: 2439 0000 17c9 0080 e2d9 0080 c1c8 0000
00000070: fb3a 0080 f00b 0080 61a7 0080 e5d7 0000

e_conv4.point_conv.weight f4 [32, 32, 1, 1]
-8.692e-42 7.7441e-41 5.5896e-41 -1.1468e-41 8.8838e-41 1.35508e-40 8.828e-41 1.6256e-41
-1.27976e-40 1.04334e-40 -9.5847e-41 -7.7797e-41 5.4283e-41 4.3631e-41 7.5178e-41 -6.4492e-41
-5.122e-42 8.5621e-41 -1.70717e-40 1.06674e-40 -9.4257e-41 -3.7147e-41 8.5223e-41 6.642e-42
9.2102e-41 1.0751e-40 1.04744e-40 4.046e-42 1.5692e-41 -1.2157e-40 -2.076e-41 -6.783e-41
4.3948e-41 1.1117e-40 1.86799e-40 6.9444e-41 -6.2188e-41 -3.5922e-41 -7.924e-41 5.5884e-41
1.05373e-40 1.6195e-41 1.84994e-40 -1.49233e-40 -1.22057e-40 -1.12655e-40 -1.9013e-41 1.8035e-41
-1.48291e-40 -6.7208e-41 -8.9769e-41 -1.30475e-40 -1.09338e-40 -3.5782e-41 6.713e-41 -5.7505e-41
1.341e-40 -8.8936e-41 9.1e-41 4.2986e-41 -1.41584e-40 1.31662e-40 3.9043e-41 9.4721e-41
1.7658e-41 1.20514e-40 -1.07785e-40 -7.6116e-41 -1.064e-42 1.13406e-40 -9.8778e-41 -1.23063e-40
1.19047e-40 -2.7215e-41 -9.6917e-41 -1.2633e-41 -9.4509e-41 -1.61919e-40 -7.0518e-41 1.82396e-40
-9.24e-41 7.9378e-41 -1.75741e-40 -1.65622e-40 -5.7099e-41 1.33135e-40 1.02274e-40 3.8894e-41
-8.8191e-41 -3.8903e-41 -9.1042e-41 -5.8532e-41 5.2205e-41 -3.029e-41 -1.26645e-40 1.3823e-40
7.3862e-41 -9.0075e-41 -1.10738e-40 6.9008e-41 1.00915e-40 -6.0734e-41 -6.0923e-41 1.32194e-40
1.025e-41 6.881e-41 -1.08916e-40 -2.5114e-41 1.76807e-40 -1.1798e-40 1.23886e-40 -1.02009e-40
8.9976e-41 1.54398e-40 -1.15464e-40 -2.9545e-41 9.35e-42 -1.44683e-40 1.6541e-41 6.8131e-41
-9.2951e-41 1.21146e-40 1.15564e-40 1.24442e-40 7.6561e-41 -1.3807e-41 3.3981e-41 5.2317e-41
-1.64437e-40 1.693e-41 9.2758e-41 -1.03364e-40 8.9816e-41 1.5753e-41 1.42829e-40 1.06342e-40
-1.15212e-40 -3.5307e-41 -1.48309e-40 9.9093e-41 -9.753e-41 -1.7282e-41 -1.02275e-40 -8.956e-41
-2.7314e-41 9.276e-41 -6.2967e-41 9.4845e-41 -1.41988e-40 -6.3814e-41 -9.3465e-41 3.3271e-41
-1.75777e-40 -5.5913e-41 1.30772e-40 -8.6924e-41 3.9759e-41 -1.52486e-40 -6.6315e-41 -3.192e-41
8.0701e-41 1.48828e-40 1.05755e-40 6.8847e-41 -1.79694e-40 8.4666e-41 1.14255e-40 -4.9609e-41
-1.0231e-41 6.0675e-41 -5.1031e-41 6.2087e-41 1.13399e-40 6.4495e-41 -1.41786e-40 -7.6997e-41
-5.4086e-41 8.2485e-41 6.92e-43 1.12835e-40 -1.6192e-40 -7.5704e-41 -5.6412e-41 -1.14894e-40
1.16332e-40 -7.3514e-41 -6.8402e-41 -6.361e-41 8.2132e-41 7.2695e-41 1.21142e-40 -1.72292e-40
-8.0868e-41 -8.6509e-41 -4.7068e-41 1.04231e-40 1.69501e-40 1.9074e-41 8.2433e-41 9.796e-41
-5.914e-41 1.8124e-41 -9.512e-41 -1.3797e-41 1.1582e-41 -2.622e-42 3.833e-42 -9.7686e-41
1.19081e-40 1.29683e-40 1.88535e-40 -9.934e-41 1.16012e-40 -8.7437e-41 -2.82e-43 8.187e-41
2.8109e-41 -2.2033e-41 6.0644e-41 -1.02834e-40 9.0559e-41 2.5201e-41 1.11044e-40 1.27375e-40
6.4301e-41 -1.2534e-40 -3.3373e-41 -1.06399e-40 1.59375e-40 1.64833e-40 -5.8493e-41 1.0792e-40
1.16323e-40 -5.1104e-41 -8.861e-41 -9.8733e-41 -1.11342e-40 -1.19242e-40 -6.8295e-41 4.8947e-41
-4.0831e-41 -1.03971e-40 -9.633e-41 -9.331e-41 1.84987e-40 5.026e-42 -1.12662e-40 1.55638e-40
2.829e-42 8.269e-41 1.01447e-40 1.28055e-40 -9.9283e-41 -5.4415e-41 3.955e-41 1.19932e-40
00000000: 3b18 0080 e0d7 0000 d19b 0000 f81f 0080
00000010: a5f7 0000 be79 0100 17f6 0000 512d 0000
00000020: bf64 0180 d722 0100 2f0b 0180 ded8 0080
00000030: 5297 0000 a079 0000 91d1 0000 c7b3 0080
00000040: 470e 0080 adee 0000 e4db 0180 5d29 0100
00000050: c006 0180 8d67 0080 91ed 0000 8412 0000
00000060: be00 0100 b22b 0100 fc23 0100 470b 0000
00000070: be2b 0000 e352 0180 df39 0080 15bd 0080
00000080: 827a 0000 e635 0100 b808 0200 95c1 0000
00000090: 5bad 0080 2364 0080 e4dc 0080 c89b 0000
000000a0: bd25 0100 252d 0000 b003 0200 00a0 0180
000000b0: 3f54 0180 093a 0180 0035 0080 4632 0000
000000c0: 609d 0180 59bb 0080 3dfa 0080 b66b 0180
000000d0: ca30 0180 bf63 0080 22bb 0000 4da0 0080
000000e0: d175 0100 ebf7 0080 acfd 0000 d477 0000
000000f0: ae8a 0180 056f 0100 d66c 0000 0b08 0100
00000100: 3931 0000 f24f 0100 762c 0180 2ed4 0080
00000110: f702 0080 213c 0100 5a13 0180 0d57 0180
00000120: db4b 0100 dd4b 0080 2a0e 0180 3723 0080
00000130: 7407 0180 5dc3 0180 93c4 0080 72fc 0100
00000140: 9301 0180 46dd 0000 e5e9 0180 b0cd 0180
00000150: 2b9f 0080 2073 0100 191d 0100 6c6c 0000
00000160: d7f5 0080 726c 0080 cafd 0080 2aa3 0080
00000170: 8791 0000 7054 0080 0961 0180 5481 0100
00000180: e6cd 0000 18fb 0080 b134 0180 5ec0 0000
00000190: 4f19 0100 4da9 0080 d4a9 0080 8170 0100
000001a0: 931c 0000 d0bf 0000 9d2f 0180 0246 0080
000001b0: deec 0100 e148 0180 5859 0100 5c1c 0180
000001c0: d1fa 0000 66ae 0100 de41 0180 5c52 0080
000001d0: 101a 0000 5193 0180 1c2e 0000 ecbd 0000
000001e0: 1c03 0180 b551 0100 2542 0100 e55a 0100
000001f0: 6cd5 0000 7d26 0080 ba5e 0000 d791 0000
00000200: 62ca 0180 322f 0000 9202 0100 2320 0180
00000210: 5ffa 0000 ea2b 0000 268e 0100 7028 0100
00000220: 2a41 0180 6c62 0080 6d9d 0180 3b14 0100
00000230: e00f 0180 2d30 0080 1a1d 0180 a8f9 0080
00000240: 244c 0080 9402 0100 87af 0080 6408 0100
00000250: ce8b 0180 e3b1 0080 8b04 0180 bf5c 0000
00000260: ffe9 0180 dd9b 0080 8a6c 0100 4ff2 0080
00000270: d56e 0000 12a9 0180 dcb8 0080 fb58 0080
00000280: f6e0 0000 df9e 0100 cd26 0100 ebbf 0000
00000290: eaf4 0180 04ec 0000 7f3e 0100 4a8a 0080
000002a0: 851c 0080 23a9 0000 418e 0080 13ad 0000
000002b0: 1c3c 0100 c9b3 0000 3e8b 0180 a3d6 0080
000002c0: c596 0080 efe5 0000 ee01 0000 8a3a 0100
000002d0: 5ec3 0180 08d3 0080 419d 0080 4740 0180
000002e0: 4944 0100 edcc 0080 adbe 0080 52b1 0080
000002f0: f3e4 0000 a5ca 0000 b251 0100 48e0 0180
00000300: 6de1 0080 27f1 0080 3583 0080 8e22 0100
00000310: 80d8 0100 2c35 0000 cae5 0000 1311 0100
00000320: dca4 0080 8632 0000 2809 0180 7626 0080
00000330: 4920 0000 4f07 0080 af0a 0000 4f10 0180
00000340: f34b 0100 8169 0100 8f0d 0200 eb14 0180
00000350: 6543 0100 bdf3 0080 c900 0080 38e4 0000
00000360: 5b4e 0000 6b3d 0080 0da9 0000 a91e 0180
00000370: 71fc 0000 4046 0000 8c35 0100 1263 0100
00000380: 3fb3 0000 665d 0180 085d 0080 9928 0180
00000390: 46bc 0100 7dcb 0100 0ea3 0080 d62c 0100
000003a0: 4344 0100 758e 0080 02f7 0080 3a13 0180
000003b0: 6036 0180 664c 0180 61be 0080 7288 0000
000003c0: d271 0080 d421 0180 870c 0180 1c04 0180
000003d0: ab03 0200 030e 0000 0e3a 0180 dbb1 0100
000003e0: e307 0000 82e6 0000 cb1a 0100 f764 0100
000003f0: c314 0180 b097 0080 406e 0000 524e 0100

e_conv4.point_conv.bias f4 [32]
1.49852e-40 1.5469e-41 5.438e-41 -5.6897e-41 1.22148e-40 8.0398e-41 -3.2278e-41 -4.22e-42
-9.2528e-41 2.0783e-41 9.9484e-41 -1.5077e-41 1.2288e-41 4.8523e-41 -1.1655e-40 8.6527e-41
6.0938e-41 1.48664e-40 4.4816e-41 -8.8342e-41 5.7822e-41 -1.3776e-41 4.5408e-41 -1.5159e-41
-1.71532e-40 -9.5508e-41 -2.5892e-41 -8.577e-41 1.24755e-40 3.1187e-41 -4.8736e-41 -6.1227e-41
00000000: baa1 0100 1f2b 0000 9797 0000 9b9e 0080
00000010: 8054 0100 1ee0 0000 fa59 0080 c30b 0080
00000020: ee01 0180 ef39 0000 5215 0100 072a 0080
00000030: 4122 0000 4387 0000 e544 0180 34f1 0000
00000040: dfa9 0000 6a9e 0100 ee7c 0000 43f6 0080
00000050: 2fa1 0000 6726 0080 947e 0000 422a 0080
00000060: 29de 0180 3d0a 0180 2d48 0080 18ef 0080
00000070: c45b 0100 f056 0000 db87 0080 adaa 0080
