Zero-DCE++/snapshots_Zero_DCE++/Epoch91.pth (torch, 51217 bytes, 28 tensors)

e_conv1.depth_conv.weight f4 [3, 1, 3, 3]
00000000: 5d9f b4be 70b6 3dbe 21e2 19bc a2ec 29be
00000010: 807f bc3d da3a ba3d 6cb7 d9be aed4 3cbe
00000020: fc74 52bd 89d1 4d3e 3831 353e 4d47 b73e
00000030: 1f70 3a3e 5c83 0d3d 1e38 6c3e f05c ab3d
00000040: 3ef0 503d 4ac8 6e3e 9bfc 7f3d f8f6 00bd
00000050: 2587 e8bd ba1e 15bd 8da9 58bd fecc dabd
00000060: 810b fabd defa 2abe 9907 aebe
-0.35277835 -0.18526626 -0.009392292 -0.16594175 0.09204006 0.09093256 -0.42522752 -0.18440506
-0.051381096 0.20099463 0.17694557 0.35796586 0.18206833 0.034549102 0.23068282 0.08367336
0.051010363 0.23318592 0.062496763 -0.031485528 -0.11353902 -0.036406256 -0.05289607 -0.106836304
-0.122092254 -0.1669726 -0.33990172

e_conv1.depth_conv.bias f4 [3]
00000000: 9759 9d3d 3773 9a3e 383e 61bd
0.076831035 0.30166027 -0.054990977

e_conv1.point_conv.weight f4 [32, 3, 1, 1]
00000000: f3a8 6b3c e46b e43d eadc fa3c c76b d986
00000010: 7c27 ada6 487e 2c06 f2a9 0000 2c5a 299e
00000020: e70b 0000 b268 c63d f7d1 fdbe 4b29 2c3e
00000030: c1b6 250b 40c2 b68a 1190 1c09 c8ca f83c
00000040: 223c a03d 428e be3e 2338 013e faaf 9d3e
00000050: 14bf e2bd 59c8 0000 ff14 0080 3a99 0000
00000060: bbe3 783d 89df e1bb 7b54 d23d 8c02 383d
00000070: 5657 0bbc 75c3 b4bd d735 d03e 0d6d 0dbf
00000080: bae4 973e d734 15bc 7bef 00bd 0c49 323d
00000090: 44d8 4c3e 4fc1 bdbe 5532 2ebe fd0d 84bd
000000a0: 5804 21be 1b80 093e 6a36 0100 223d 0180
000000b0: 3b85 0100 8a55 2e3c 67c1 903e 4369 5e3e
000000c0: 5b75 81be b55f b43e 3755 77be c939 0000
000000d0: be10 0000 855d 0080 18e9 7dae 5dec 40b3
000000e0: 6c66 c3aa 9e27 0000 dc0a 0080 a049 0080
000000f0: 32fb 09bf 5f2b 31bd ef9d a5be c00f e995
00000100: b829 ccac d4ff e494 0dd9 e0bb 28ca d43b
00000110: fb9c b03b 4f2b 0000 5e4d b58b b93a 0080
00000120: c39e 0833 aba2 ceb6 b8aa 7831 6302 ac3c
00000130: e9f5 af3b 0fc4 d6bb 1b90 93ba 047a 2f39
00000140: 32b6 4939 a894 923e 6db9 11be e976 6bbe
00000150: cace 693d b561 9e3a 355b e1bb 1032 703a
00000160: aca1 89ba c529 6c3a aeac 663e 5422 373c
00000170: 93d6 91bd 8fbe 5dbe 88ae e73e a626 86be
0.014383542 0.11153391 0.030622918 -8.178469e-35 -1.2014989e-15 3.244238e-35 6.0965e-41 -8.965433e-21
4.27e-42 0.09687938 -0.49574253 0.16812627 3.1915333e-32 -1.7599031e-32 1.8845557e-33 0.030370131
0.078239694 0.3721791 0.1261907 0.30798322 -0.110716015 7.1871e-41 -7.532e-42 5.4967e-41
0.060764056 -0.0068931025 0.102700196 0.044924304 -0.008504709 -0.08826343 0.40666077 -0.55244523
0.29666692 -0.009106836 -0.031478386 0.043526694 0.20004374 -0.37061545 -0.17011388 -0.064479806
-0.15724313 0.13427775 1.11356e-40 -1.13766e-40 1.3963e-40 0.010640511 0.28272554 0.21719842
-0.25284848 0.3522927 -0.241536 2.073e-41 6.006e-42 -3.3548e-41 -5.773257e-11 -4.4918455e-08
-3.4710028e-13 1.4212e-41 -3.896e-42 -2.6412e-41 -0.5389892 -0.043254253 -0.32347056 -9.41328e-26
-5.8026604e-12 -2.3123023e-26 -0.006861812 0.0064938255 0.0053898073 1.5536e-41 -6.9835073e-32 -2.1066e-41
3.180936e-08 -6.1582155e-06 3.6185792e-09 0.020997232 0.005369891 -0.0065541337 -0.0011258157 0.00016734755
0.00019236727 0.2862904 -0.1423089 -0.2299458 0.057081975 0.0012083562 -0.006877328 0.00091627333
-0.0010500452 0.00090089097 0.2252681 0.011177618 -0.07121005 -0.21654724 0.45250344 -0.2620136

e_conv1.point_conv.bias f4 [32]
00000000: 54c1 abbd e931 07a8 2602 c3a5 65bc 113f
00000010: ddc5 848a 2057 a63d 6a37 793e 563d 1180
00000020: 6414 843d b17b 88bc 8f97 cf3e f4df ea3e
00000030: 6085 bb3e 8cf5 9b3e 37aa 0180 f0cb e73e
00000040: f687 0fbb f236 8281 f9fe 28b4 a335 dc96
00000050: 9ad6 cf3e cdcc 82af 915c 953e 63d0 2490
00000060: 5d81 55b7 c878 743b e016 c5b9 d266 923e
00000070: b8ee b73c 2708 21ba 6259 093f a71a 95bd
-0.08386484 -7.504828e-15 -3.3828564e-16 0.5692809 -1.2785566e-32 0.081220865 0.24337545 -1.583207e-39
0.06449202 -0.016660543 0.40545318 0.45873988 0.36625195 0.30460775 -1.52897e-40 0.4527278
-0.0021901107 -4.78333e-38 -1.5738978e-07 -3.5576766e-25 0.40593415 -2.3792382e-10 0.29172185 -3.2503832e-29
-1.2725909e-05 0.0037303437 -0.0003759181 0.2859407 0.022452697 -0.00061428774 0.5365201 -0.07280474

e_conv2.depth_conv.weight f4 [32, 1, 3, 3]
00000000: e9f3 80bb 5ddf 80bb 0231 b8ba 4078 63bc
00000010: 1202 70bc 87cd e6bb ccff 88bc a447 80bc
00000020: 0eb7 eabb cd4c 0080 3022 0080 7d35 0000
00000030: f795 0080 c843 0180 ad33 0100 4c2f 0080
00000040: 5837 0080 8cc9 0000 0d11 0280 c4a2 0100
00000050: c5b8 0100 fcad 0080 efd3 0080 79b0 0100
00000060: 2dba 0180 232d 0180 bb0a 0000 c967 88be
00000070: 3f08 6abe a252 1dbd f629 ebbd 792d 8e3d
00000080: f1b3 543e 5e3a 843e 56de de3b 5364 f23e
00000090: 2eed 000b d5bf 0d0b 36d9 130b 04cb 010b
000000a0: 2ee0 0e0b 8050 160b ca81 000b 407c 0e0b
000000b0: 22ac 160b 75ad 443d 0c08 883d a214 263d
000000c0: c6e4 043d b3ee a93d ac91 2b3d efcd 7dbd
000000d0: 6d32 a4bc 45aa 22be 4655 723d 0308 1dbd
000000e0: 995d 8cbe 53cb 613d fb3f 023e cda0 adbd
000000f0: b900 9abc 3608 dfbb f453 90be ab16 0080
00000100: d561 0080 11af 0080 5f18 0080 3e11 0080
00000110: a9b9 0080 963c 0080 8f5f 0080 6114 0080
00000120: 975d 3d3c d5d6 523b 4905 193a 45fa b33b
00000130: 6810 3339 f2ce 0c3b f758 d23b cf55 353c
00000140: 3b99 d93c 58e6 b93b ef5c 293b 2f71 41bb
00000150: e8d9 c03b cc7a beb8 df47 c5bb 95d6 733b
00000160: 99b0 0ebb 54a1 55bb ea26 a33e 4d15 563e
00000170: 3668 823e 0bcc 583e 136d 87bd 2bfd 823e
00000180: 13ff 963e 51a1 d23d 1c9b 0a3e 61a5 7c3e
00000190: 6943 febd cdbe 453e 8374 993d 0898 42be
000001a0: b7bb b4bd b80b 823e 1550 873d ada5 3e3e
000001b0: 8f6a cd3e 83bf 023e a832 663e 317d 873e
000001c0: 2837 233e a138 b83d 7cb4 7e3e 62a6 e53d
000001d0: 4708 8bbd 6add da3c 2626 6b3d d288 cb3d
000001e0: 9e55 bb3d 595e b5bd 7ac1 313e f5cb 3cbd
000001f0: 9277 8c3d bb53 c13e e424 0000 c7c2 0000
00000200: 93ac 0100 fa13 0080 276b 0080 365c 0080
00000210: 6342 0080 d751 0000 961f 0100 44bd 46bd
00000220: f552 0f3e 1c5c 04be 3d80 ee3d ad8e 423e
00000230: 8fdc 243e abd4 0ebe 3960 88bd f63b bfbd
00000240: f9ea ce3d 6a93 583e 9bd0 b03e e48c bc3d
00000250: 35d8 bf3c 4049 e73d 0c81 0fbe 3c7e aebd
00000260: 0299 58be a106 0100 d33c 0100 a507 0080
00000270: 48cc 0080 2af7 0080 615e 0180 8279 0000
00000280: d064 0180 698f 0100 bb32 0080 2431 0080
00000290: b94d 0180 b094 0100 dcba 0180 128e 0180
000002a0: 9058 0080 f962 0100 ab88 0000 b54f 0100
000002b0: 39be 0080 d420 0100 68d2 0000 304a 0080
000002c0: d834 0180 18dd 0000 4678 0000 8db4 0080
000002d0: 0618 b1bd 5fff 553e 6982 40be deca 9ebe
000002e0: 5b1b 1cbc 9314 3b3d 2837 b7be 45e5 63be
000002f0: a7dd 80be 5e7c 0080 c6d4 0000 4875 0080
00000300: 4629 0080 7aad 0000 72c0 0080 91b4 0000
00000310: dbf4 0000 6320 0000 02ae 89bd 5634 89bd
00000320: f0f9 a83c 95ae 9bbd 130f 61bd ae80 2abb
00000330: a7aa 77bd ac6e 78bd da99 abbc 53f7 0080
00000340: 2554 0080 62ab 0100 d855 0000 3336 0100
00000350: bc19 0180 dc5f 0000 04bc 0180 be35 0180
00000360: 31a0 0080 751d 0000 a85d 0000 d9ce 0000
00000370: 6306 0000 111d 0080 b018 0000 d277 0000
00000380: ef2e 0000 d22c de39 4af5 8539 e3fd 8339
00000390: d4c5 0939 e12a 9138 f7a6 ff38 e94d 7539
000003a0: 592e 9b39 b3c3 c539 c593 abb7 3031 3fb8
000003b0: f397 0ab8 d6f7 39b8 00d3 73b8 d077 5ab8
000003c0: 5636 59b7 39e3 57b7 eed2 11b8 de03 a93e
000003d0: 25f4 13bc 50d7 613d e242 753b 5f58 823c
000003e0: e303 613d 7260 983c 709d 47bb d034 7ebd
000003f0: da3d 9e3a ab29 443a b5c2 63ba ae9c e73a
-0.0039353264 -0.003932877 -0.0014052691 -0.01388365 -0.014648931 -0.0070435437 -0.016723536 -0.01565916
-0.007162935 -2.7551e-41 -1.2264e-41 1.9188e-41 -5.3797e-41 -1.16151e-40 1.10373e-40 -1.6967e-41
-1.9854e-41 7.2301e-41 -1.89788e-40 1.50225e-40 1.58118e-40 -6.2414e-41 -7.6027e-41 1.55142e-40
-1.58623e-40 -1.08027e-40 3.85e-42 -0.26641682 -0.22854708 -0.038408883 -0.11482613 0.06942267
0.20771767 0.2582578 0.006801407 0.47342166 2.4830337e-32 2.729993e-32 2.8474582e-32 2.4997228e-32
2.751686e-32 2.894951e-32 2.4749546e-32 2.744168e-32 2.9018448e-32 0.048016984 0.0664216 0.04054702
0.032444738 0.082974814 0.04188697 -0.06196397 -0.020043576 -0.15885265 0.059163354 -0.03833772
-0.2741516 0.055125546 0.12719719 -0.08477936 -0.018799173 -0.0068063987 -0.2818905 -8.132e-42
-3.5096e-41 -6.2802e-41 -8.743e-42 -6.185e-42 -6.6602e-41 -2.1734e-41 -3.428e-41 -7.31e-42
0.011557958 0.0032171507 0.00058372744 0.005492481 0.00017076882 0.0021485654 0.006419297 0.011067822
0.026562324 0.005673211 0.0025842746 -0.0029516926 0.0058853514 -9.082779e-05 -0.0060205306 0.0037206758
-0.002177274 -0.003259738 0.31865627 0.20906563 0.25470132 0.21171586 -0.06612601 0.25583777
0.2949148 0.10284675 0.13535732 0.24672462 -0.12415201 0.19311066 0.07492926 -0.19003308
-0.08824866 0.25399566 0.06607071 0.18617888 0.4012036 0.12768368 0.22480261 0.264627
0.15939009 0.08995176 0.24873537 0.11213376 -0.06788688 0.026716907 0.057409428 0.09938206
0.091471896 -0.08855886 0.17358962 -0.046092946 0.06858744 0.37759194 1.3234e-41 6.9873e-41
1.53743e-40 -7.166e-42 -3.8439e-41 -3.3079e-41 -2.3815e-41 2.9359e-41 1.03166e-40 -0.04852034
0.1399649 -0.12925762 0.11645553 0.18999739 0.16099761 -0.13948314 -0.06658978 -0.093376085
0.10103411 0.21149984 0.34534153 0.0920656 0.023418525 0.11293268 -0.14014071 -0.08520171
-0.21152118 9.4213e-41 1.13655e-40 -2.742e-42 -7.3282e-41 -8.8666e-41 -1.25692e-40 4.3589e-41
-1.28e-40 1.43281e-40 -1.8199e-41 -1.7628e-41 -1.19717e-40 1.45175e-40 -1.58868e-40 -1.42801e-40
-3.177e-41 1.2734e-40 4.9027e-41 1.20429e-40 -6.8239e-41 1.03612e-40 7.548e-41 -2.6613e-41
-1.10792e-40 7.9313e-41 4.3146e-41 -6.477e-41 -0.0864716 0.20898198 -0.18799748 -0.3101415
-0.009528006 0.045673918 -0.35784268 -0.22255428 -0.25169107 -4.4615e-41 7.6329e-41 -4.2073e-41
-1.4806e-41 6.2232e-41 -6.9036e-41 6.4775e-41 8.7838e-41 1.1618e-41 -0.067226425 -0.066994354
0.020626992 -0.07601658 -0.054946017 -0.002601664 -0.06046548 -0.06065242 -0.020947386 -8.8723e-41
-3.0185e-41 1.53316e-40 3.0795e-41 1.11279e-40 -1.01067e-40 3.4388e-41 -1.59283e-40 -1.11115e-40
-5.7466e-41 1.0567e-41 3.3598e-41 7.4203e-41 2.291e-42 -1.0427e-41 8.856e-42 4.2983e-41
1.6837e-41 0.00042376533 0.0002555049 0.00025175427 0.00013139035 6.9221256e-05 0.00012190447 0.00023394045
0.00029598436 0.00037720575 -2.0453599e-05 -4.5583758e-05 -3.3043278e-05 -4.4338252e-05 -5.8132224e-05 -5.2086834e-05
-1.2946859e-05 -1.2867903e-05 -3.4767138e-05 0.33010763 -0.009030377 0.05513698 0.0037423898 0.01591128
0.054935347 0.018600676 -0.003045883 -0.062062085 0.0012072877 0.00074830157 -0.00086883764 0.0017670596

e_conv2.depth_conv.bias f4 [32]
00000000: 76ef b83d ed7b 9ebd a77b 0735 a03a 5ebd
00000010: 3de7 0cbe ea62 3a3e c535 c43c 6c4b f53d
00000020: 0cbb 733e f143 6ebe 5869 743c 5ff7 bdbd
00000030: 8922 5ebe 4006 53bd 06da f83d 94ca 4e3e
00000040: 1734 1a3e b8f8 f3ba 66df e633 e0c2 193e
00000050: 2c97 853e d0d7 243e 4bdc c4bd 5bc1 193e
00000060: a9d3 8abd 06f2 b0bc 2245 733d 3769 48be
00000070: 98a4 17bd d93d 1ebe 2517 9dbd cdc4 993e
0.090300485 -0.07738481 5.0471357e-07 -0.054255128 -0.13760085 0.18201795 0.02395142 0.11977276
0.23801821 -0.23268105 0.014917694 -0.09275698 -0.21692862 -0.051519632 0.1215096 0.20194465
0.15058933 -0.0018613553 1.07508455e-07 0.15015745 0.26091897 0.16097951 -0.0961233 0.15015166
-0.06778652 -0.02159978 0.059392102 -0.19571386 -0.037022203 -0.1545328 -0.0767043 0.3003296

e_conv2.point_conv.weight f4 [32, 32, 1, 1]
00000000: 957b 38bc bdb8 87bb 45cb 93b5 3546 963d
00000010: 9674 6f3c c5ab 94bd a452 8e3c fc6c bcbc
00000020: e9e5 51bd c1a6 543c c295 843d 69e3 f23c
00000030: 26c8 293e e8e5 fe3c bbae 45bc cb7c fdbd
00000040: 003e 9f3c bdab 843a 8b3a 7134 d46d 2ebd
00000050: f214 983e 2fef 643c 563b 483d a86f 4abd
00000060: 79df 253b be6b 6e3b 94d2 37bc f3a1 403d
00000070: 3884 4e3c b924 d23c b979 14be f1cf 283c
00000080: a0f3 393d dad5 59bd 8c88 48b5 c213 afbc
00000090: fa8b cb3b 175c f23c 9db7 963c d5c8 a83c
000000a0: 151d a53d 921a a3bd f9b6 a53e 2449 703e
000000b0: 548a 873e 433e 1c3e cbd1 19b9 3097 bd3d
000000c0: c9f0 043e cc8a d1b9 32f5 33b4 4fe6 d939
000000d0: 3062 b1bc 6de6 2c3d 054d 85bc f88f b53d
000000e0: ec9e 34bc e5f8 67bb 21e7 72bb 3752 593e
000000f0: 3a06 1abd dfe9 ddbc 9822 93be df68 f13d
00000100: c4d5 8f3c e261 a3bc 86fa 9e35 0bd8 a13e
00000110: ea42 a9bc fbe3 6b3d e1aa f73c 4eca ab3c
00000120: e6d5 f33b 3ff0 60bd 5ac8 00be b516 00be
00000130: 6047 8ebe b0ae dd3b 082d 8b3c c84b 743d
00000140: 4e92 e93c a3ce 58ba 96ba cd34 64b3 093d
00000150: 0e64 eeba b980 f93c dbcc 99bb 376e 5e3d
00000160: 3148 96bc 9dc9 eabb cf86 943c 0cf0 7fbe
00000170: f48d 62bc df99 2abd 3c39 c83d c79f ad3c
00000180: c142 0000 425d 0080 bbb8 0100 a091 0100
00000190: 356f 0080 3f9f 0080 bc4d 0000 8b4c 0100
000001a0: 1311 0100 d74d 0180 9d3e 0100 c443 0100
000001b0: 2bdf 0100 7d91 0080 3cbb 0080 f60f 0100
000001c0: ce8a 0180 5865 0180 b173 0180 14d4 0000
000001d0: f010 0100 21f0 0180 d5b8 0080 e3af 0080
000001e0: 8596 0080 271c 0080 c233 0100 8823 0100
000001f0: d482 0180 16c6 0100 5878 0180 88c9 0080
00000200: 314e 0b3b da58 46ba ca46 f3b4 3985 debc
00000210: 6883 0d3c e206 953d d04e efbd 3d6b 023c
00000220: 76cc e1bb 93b9 f1bc 290e 55bd c5f5 94bc
00000230: f8f0 53bd 6da3 2bbd 0e75 613c 63cd 063e
00000240: ef15 da3c 4b18 f2b9 9e9b c7b3 dfa4 e43c
00000250: 5dde 223c 385d 6b3a 94fd 25bc e752 c2bb
00000260: 52dd 14bc c566 28bb 0820 0c3c 3a86 6abc
00000270: bb50 d4bb dd85 d6bc 074b d53c 3a91 abbd
00000280: ac38 2d3c 4449 23bc 78b9 69b5 690d 8e3c
00000290: cf51 8cbc 3a5d cc3c 6ca9 b73d 4bc4 643c
000002a0: 1ba5 e03c b08a d7bc faf7 2c3d 8871 30bd
000002b0: c593 c53c 5e84 c0bb cfc1 6d3c e3d8 523d
000002c0: 4cf1 c53b b660 5db9 d4a4 7db5 031d 8b3c
000002d0: 17e2 833d b20d 9d3c a715 a9bc 40a4 973c
000002e0: 7a01 e5bb 2510 1ebb afe0 d83b 583e 71bc
000002f0: 4c79 93bb 2bec 8fbc 8ea7 b13c 2286 0e3e
00000300: 101b 8f3b c151 333c a378 7135 26c8 273e
00000310: eb6c 50bb f373 3cbe 491b 053e 6157 f5ba
00000320: 9b8b 9dbb c362 86bc 2907 b13e 53f3 013e
00000330: cba7 2f3e cffd 483e 4156 9bb9 3134 bebd
00000340: 2f74 2a3e 0bd5 4f39 c0b4 9635 873f e93b
00000350: 291f 21bd e493 a03b 9edb cf3c fc14 9c38
00000360: 67b4 8f3b 7355 e63a 51eb 0fbb 7eeb 043e
00000370: 5178 203b d112 6a3c 5f49 2ebe 570f f63d
00000380: 8678 a90d 8c53 938d e805 6702 0ca1 238d
00000390: 36d8 048e 2a13 4e0e 8791 638e 2af4 fb0d
000003a0: be64 880e b0b9 898e 2780 330e 3100 270e
000003b0: 6a4b 918e f691 328d 4afb fb0d 9e09 920e
000003c0: c9df 9d0e a945 388b af47 8201 30ff 100e
000003d0: 93c0 9c8e 8b1e 200e 301e 808e 7412 140e
000003e0: e9dd 548d 27ef 1f8d dffb 440d 3e33 4e8e
000003f0: e190 528d 1ae6 158e f71f ae8e 0466 ce8e
-0.011259933 -0.0041418956 -1.1011513e-06 0.0733761 0.014615199 -0.07259325 0.01737339 -0.023001187
-0.05124465 0.01297921 0.064738765 0.029649453 0.16580257 0.031115487 -0.012065585 -0.12377318
0.019438744 0.0010121983 2.2466172e-07 -0.04258521 0.2970348 0.013973041 0.048884712 -0.04942289
0.0025310202 0.0036380137 -0.011219639 0.047029447 0.012604766 0.025652276 -0.14499559 0.010303483
0.045398355 -0.05318246 -7.470451e-07 -0.021371726 0.006211755 0.029584927 0.0183981 0.020603577
0.080621876 -0.07964052 0.3236616 0.23465401 0.26472723 0.15258126 -0.00014669371 0.09257352
0.12982477 -0.00039966998 -1.6759876e-07 0.0004156106 -0.021653265 0.04221194 -0.016272077 0.088653505
-0.011024218 -0.0035396155 -0.0037064033 0.21222769 -0.037603594 -0.027089057 -0.2873733 0.11787581
0.017557986 -0.019944135 1.1844829e-06 0.3161014 -0.02066179 0.057590466 0.030232849 0.02097049
0.00744127 -0.054916617 -0.12576428 -0.12508662 -0.2778883 0.006765209 0.016989246 0.059642583
0.028512146 -0.00082705374 3.8319985e-07 0.033618346 -0.0018187778 0.030456888 -0.00469361 0.054304328
-0.01834497 -0.0071651475 0.018130688 -0.24993914 -0.01382779 -0.04165065 0.097765416 0.021194352
2.3947e-41 -3.3455e-41 1.58104e-40 1.44076e-40 -3.9894e-41 -5.7127e-41 2.7886e-41 1.19294e-40
9.796e-41 -1.19759e-40 1.14297e-40 1.16145e-40 1.71893e-40 -5.2191e-41 -6.7167e-41 9.7561e-41
-1.41629e-40 -1.28191e-40 -1.33338e-40 7.6079e-41 9.7912e-41 -1.77978e-40 -6.6305e-41 -6.3096e-41
-5.3996e-41 -1.0099e-41 1.10403e-40 1.04582e-40 -1.38768e-40 1.62895e-40 -1.35007e-40 -7.2296e-41
0.0021256323 -0.00075663405 -4.5313783e-07 -0.027163135 0.008637287 0.072767034 -0.11684954 0.007960138
-0.0068908287 -0.029507434 -0.052015457 -0.018183598 -0.051743478 -0.0419039 0.013760818 0.13164286
0.026621787 -0.00046175937 -9.294966e-08 0.027910648 0.009940711 0.0008978429 -0.0101312585 -0.005930293
-0.00908597 -0.002569602 0.008552559 -0.014314229 -0.0064793504 -0.026186878 0.026036752 -0.08377309
0.010572594 -0.009966198 -8.7069157e-07 0.017340379 -0.017128853 0.024946798 0.089678615 0.0139628155
0.027422478 -0.026311249 0.042228676 -0.04307702 0.024118314 -0.0058751544 0.01451154 0.05147637
0.0060407277 -0.0002111223 -9.44897e-07 0.016981607 0.064396076 0.01917157 -0.020640207 0.018510938
-0.0069887014 -0.002411851 0.0066185812 -0.014724337 -0.0045005437 -0.017568668 0.021686342 0.13918355
0.00436724 0.010944785 8.9955046e-07 0.16384944 -0.0031803201 -0.18403606 0.1299869 -0.0018718058
-0.004807902 -0.016404515 0.34575775 0.12690477 0.17153852 0.1962807 -0.00029628168 -0.092872985
0.16645883 0.00019820423 1.1228476e-06 0.0071181688 -0.039336357 0.0049004424 0.025373276 7.442568e-05
0.0043855193 0.0017573073 -0.0021960328 0.12980458 0.0024485777 0.014286713 -0.17020176 0.120146446
1.0444444e-30 -9.079688e-31 1.6972895e-37 -5.0422106e-31 -1.6374358e-30 2.5400688e-30 -2.804998e-30 1.552785e-30
3.36236e-30 -3.3951918e-30 2.2125157e-30 2.0584431e-30 -3.581788e-30 -5.502618e-31 1.5529565e-30 3.600104e-30
3.8918985e-30 -3.5489517e-32 4.785732e-38 1.7872239e-30 -3.864241e-30 1.9736229e-30 -3.1583506e-30 1.8251293e-30
-6.559466e-31 -4.9283527e-31 6.070034e-31 -2.5416133e-30 -6.488564e-31 -1.8476458e-30 -4.2925093e-30 -5.088116e-30

e_conv2.point_conv.bias f4 [32]
00000000: 9029 9f3d 0147 933d 3803 f43d 7e0b 0000
00000010: 296d 163e defd b03d c9a6 85bc f70f c80e
00000020: 6890 973d c1ef 8f3d ef2c 773b 68e3 7dbd
00000030: 3bce 803b 4fb3 0c3e 8b3f 0c3e 1276 0000
00000040: 291e 0080 f7db 453c 329b c33c 66f2 0a2b
00000050: 5129 8abd c955 d0ba b36f 1a3c 8117 56b9
00000060: 4825 5d3d a89d 0494 aa20 293d f2dd c3bd
00000070: 1d4b 0000 901d 0180 4952 5e3d f5ba a63d
0.07771599 0.07191277 0.119146764 4.123e-42 0.14690079 0.08642171 -0.01631488 4.931918e-30
0.0740059 0.07028151 0.0037715991 -0.06198445 0.0039308346 0.13740276 0.13696115 4.2356e-41
-1.082e-41 0.0120763695 0.023877714 4.9363844e-13 -0.06746162 -0.0015894707 0.009426045 -0.00020417386
0.053990632 -6.695389e-27 0.041290917 -0.09563817 2.6946e-41 -1.0244e-40 0.054277692 0.08141128

e_conv3.depth_conv.weight f4 [32, 1, 3, 3]
00000000: cae9 0180 e223 0000 b9ec 0080 24be 0180
00000010: b135 0080 f75b 0000 d2df 0180 ef53 0000
00000020: 7bf6 0080 127b 0080 9f2c 0180 de00 0000
00000030: 6e1f 0100 2feb 0100 568e 0180 7fa0 0100
00000040: ca57 0000 25e2 0000 1800 0000 b810 0100
00000050: 1848 0080 9a01 0100 29e8 0080 bcb1 0100
00000060: 7ede 0080 b853 0080 2f13 0000 4710 0180
00000070: 5079 0100 4329 0180 8336 0100 dce1 0000
00000080: 8b58 0180 b5d5 0000 bcf0 0100 0a74 0000
00000090: 3875 0000 bce0 0000 279c 0180 003f 0180
000000a0: d218 0100 d242 0000 1f6b 0000 e45e 0180
000000b0: ae84 0080 2c05 0080 4ca9 0000 4c50 0180
000000c0: 560e 0080 6291 0180 eb0b 0000 d32f 0000
000000d0: f34f 0180 ddbf 0100 e862 0100 c638 0080
000000e0: e1ff 0100 2926 0180 70ef 0080 a51f 0180
000000f0: 91ee 0000 ad91 0080 6c02 0100 f97a 0100
00000100: 1c57 0000 dd5e 0080 41b3 0000 2f1b 0180
00000110: 04a0 0000 fda3 0100 ee7b 0080 5cb6 0080
00000120: fdd7 0080 2e88 0100 2743 0100 881b 0000
00000130: 3d64 0180 40e5 0100 0886 0100 e0f8 0100
00000140: c502 0080 9e23 0200 14c6 0100 d834 0100
00000150: 765d 0100 6a13 0080 dc3f 0180 db5c 0000
00000160: b603 0100 2764 0180 75b4 0100 ed05 0200
00000170: ddde 0100 648e 0000 c40f 0200 8a24 0000
00000180: 0ecd 0000 eef9 0180 79af 0000 7535 0200
00000190: 3125 0080 4a69 0100 ee95 0180 e607 0180
000001a0: 8d06 0180 7933 0280 c71b 0180 055a 0080
000001b0: 9976 0180 6009 0100 1671 0100 53d9 0000
000001c0: 60b5 0080 6734 0080 ed32 0280 b72b 0000
000001d0: 7463 0100 d809 0280 e7eb 0100 5384 0000
000001e0: 720e 0180 2560 0080 01af 0000 1901 0180
000001f0: f9f0 0000 4679 0100 d35e 0180 4cd5 0000
00000200: 06b7 0100 d0fd 0080 c876 0180 1f4e 0000
00000210: ad67 0080 959e 0180 c5fa 0180 8f9d 0080
00000220: 2e76 0000 d61b 0080 12bc 0000 c9ff 0000
00000230: cb64 0100 f075 0000 d89c 0000 8b4b 0180
00000240: 297c 0080 361d 0180 8210 0180 7410 0100
00000250: 9493 0180 6d0e 0100 5b6c 0080 01d1 0000
00000260: 1f8e 0100 80d4 0000 48bd 0000 f7fc 0180
00000270: 7a92 0180 52e3 0080 8914 0180 e79c 0180
00000280: b3e8 0180 8943 0100 4623 0200 8953 0000
00000290: 4a5c 0080 3d70 0080 8ef7 0080 e842 0100
000002a0: 814b 0000 1721 0200 eac1 0180 ccc1 0000
000002b0: 56a5 0100 75b1 0180 4aa4 0100 2dc8 0000
000002c0: 2b4c 0180 383f 0080 d795 0180 24cd 0080
000002d0: ee17 0180 9df9 0080 2a6e 0180 f8bf 0100
000002e0: 5693 0000 559b 0080 b408 0100 554b 0100
000002f0: 351f 0100 4f1f 0180 ad36 0080 d9af 0080
00000300: d560 0180 44ed 0180 f5f3 0000 48b1 0000
00000310: bcd3 0000 778e 0080 9d39 0100 9f1a 0000
00000320: a3b5 0180 4448 0100 d77f 0080 0c8a 0100
00000330: 7274 0000 1558 0100 4444 0100 00fe 0080
00000340: e6a8 0000 f1c5 0000 578b 0180 e0be 0080
00000350: 1d4f 0000 edde 0100 fa7e 0000 e532 0180
00000360: b49a 0080 4026 0080 afc2 0100 8800 0100
00000370: aaeb 0080 9b6f 0100 d01d 0100 2074 0100
00000380: 070f 0100 98eb 0080 cdfa 0100 914d 0100
00000390: dd16 0080 90cd 0000 8b3c 0100 a820 0180
000003a0: abb4 0080 788d 0000 25f2 0080 d401 0100
000003b0: 34ea 0000 b6ac 0000 af7d 0080 8b0c 0080
000003c0: 0aec 0000 a873 0080 2a11 0180 78d0 0000
000003d0: 1182 0180 02b3 0100 65ae 0080 8f7e 0000
000003e0: a62f 0000 58a9 0080 2a37 0080 d729 0080
000003f0: 7c86 0000 d10f 0000 ba44 0100 e64d 0100
-1.75703e-40 1.2872e-41 -8.492e-41 -1.60045e-40 -1.9261e-41 3.2991e-41 -1.72127e-40 3.011e-41
-8.842e-41 -4.415e-41 -1.07843e-40 3.11e-43 1.0311e-40 1.76203e-40 -1.42896e-40 1.4941e-40
3.1493e-41 8.1125e-41 3.4e-44 9.7833e-41 -2.5862e-41 9.241e-41 -8.3283e-41 1.55595e-40
-7.9815e-41 -3.0033e-41 6.882e-42 -9.7675e-41 1.35354e-40 -1.06637e-40 1.1139e-40 8.1023e-41
-1.23599e-40 7.6664e-41 1.78195e-40 4.1627e-41 4.205e-41 8.062e-41 -1.47852e-40 -1.14436e-40
1.0074e-40 2.397e-41 3.8428e-41 -1.25876e-40 -4.7597e-41 -1.855e-42 6.0732e-41 -1.2064e-40
-5.143e-42 -1.43989e-40 4.275e-42 1.7156e-41 -1.20516e-40 1.60663e-40 1.27316e-40 -2.0366e-41
1.83628e-40 -1.05525e-40 -8.5894e-41 -1.03187e-40 8.5582e-41 -5.2259e-41 9.2704e-41 1.3595e-40
3.1249e-41 -3.403e-41 6.4304e-41 -1.01587e-40 5.7403e-41 1.50663e-40 -4.4458e-41 -6.5418e-41
-7.7482e-41 1.40688e-40 1.15925e-40 9.876e-42 -1.27794e-40 1.74075e-40 1.39917e-40 1.81115e-40
-9.94e-43 1.96448e-40 1.62893e-40 1.10792e-40 1.25363e-40 -6.964e-42 -1.14744e-40 3.331e-41
9.3167e-41 -1.27763e-40 1.56571e-40 1.85797e-40 1.71784e-40 5.108e-41 1.89327e-40 1.3108e-41
7.356e-41 -1.81493e-40 6.2948e-41 2.02848e-40 -1.3342e-41 1.29606e-40 -1.4562e-40 -9.4669e-41
-9.4185e-41 -2.02136e-40 -1.018e-40 -3.2293e-41 -1.3438e-40 9.5199e-41 1.32403e-40 7.7961e-41
-6.5065e-41 -1.8798e-41 -2.0194e-40 1.5682e-41 1.27513e-40 -1.87202e-40 1.76461e-40 4.7469e-41
-9.7017e-41 -3.449e-41 6.278e-41 -9.2229e-41 8.6445e-41 1.3534e-40 -1.25852e-40 7.6517e-41
1.57492e-40 -9.1051e-41 -1.34446e-40 2.8025e-41 -3.7192e-41 -1.48724e-40 -1.81795e-40 -5.6521e-41
4.2395e-41 -9.986e-42 6.7467e-41 9.1758e-41 1.27993e-40 4.2308e-41 5.6265e-41 -1.18935e-40
-4.454e-41 -1.02314e-40 -9.7757e-41 9.7738e-41 -1.44777e-40 9.701e-41 -3.887e-41 7.4976e-41
1.42819e-40 7.623e-41 6.7901e-41 -1.82582e-40 -1.44381e-40 -8.1547e-41 -9.9202e-41 -1.48121e-40
-1.75312e-40 1.16063e-40 1.96325e-40 2.9967e-41 -3.3107e-41 -4.0264e-41 -8.8806e-41 1.15837e-40
2.7086e-41 1.95541e-40 -1.61399e-40 6.9521e-41 1.51147e-40 -1.55495e-40 1.50771e-40 7.181e-41
-1.1916e-40 -2.2679e-41 -1.45588e-40 -7.359e-41 -1.0042e-40 -8.9544e-41 -1.31355e-40 1.60701e-40
5.2854e-41 -5.5723e-41 9.4958e-41 1.1886e-40 1.0303e-40 -1.03067e-40 -1.9614e-41 -6.3082e-41
-1.26572e-40 -1.7695e-40 8.7515e-41 6.3597e-41 7.5956e-41 -5.1107e-41 1.12503e-40 9.55e-42
-1.56994e-40 1.1776e-40 -4.586e-41 1.41357e-40 4.1773e-41 1.23433e-40 1.16325e-40 -9.1118e-41
6.059e-41 7.1008e-41 -1.41821e-40 -6.8473e-41 2.838e-41 1.71806e-40 4.555e-41 -1.10093e-40
-5.5497e-41 -1.3722e-41 1.61675e-40 9.2026e-41 -8.454e-41 1.31872e-40 1.0253e-40 1.33493e-40
9.7226e-41 -8.4515e-41 1.81806e-40 1.19661e-40 -8.202e-42 7.3742e-41 1.13554e-40 -1.0355e-40
-6.4811e-41 5.075e-41 -8.6865e-41 9.2491e-41 8.4016e-41 6.1957e-41 -4.5087e-41 -4.5e-42
8.4675e-41 -4.149e-41 -9.7993e-41 7.4784e-41 -1.38495e-40 1.56051e-40 -6.2561e-41 4.54e-41
1.7093e-41 -6.0749e-41 -1.9789e-41 -1.501e-41 4.8244e-41 5.674e-42 1.1649e-40 1.1978e-40

e_conv3.depth_conv.bias f4 [32]
00000000: c12c 0280 c619 0080 46d0 0000 9e11 0080
00000010: 3568 0100 9f01 0080 1ad5 0080 a32b 0100
00000020: 87ad 0100 258f 0080 5422 0180 8978 0100
00000030: 2632 0100 1a5d 0000 a062 0100 76df 0080
00000040: df21 0180 352e 0280 d3f2 0180 35b7 0180
00000050: 84a8 0180 2c59 0000 5211 0000 f7e1 0080
00000060: 7914 0100 bf0c 0000 1a81 0080 2356 0100
00000070: d011 0080 3c77 0080 aaf1 0000 3cd5 0080
-1.99726e-40 -9.246e-42 7.4714e-41 -6.32e-42 1.29218e-40 -5.82e-43 -7.6446e-41 1.0749e-40
1.54085e-40 -5.135e-41 -1.0415e-40 1.35075e-40 1.09825e-40 3.3399e-41 1.27215e-40 -8.0163e-41
-1.03986e-40 -2.00247e-40 -1.78944e-40 -1.57558e-40 -1.52288e-40 3.1989e-41 6.213e-42 -8.1061e-41
9.918e-41 4.572e-42 -4.6313e-41 1.22736e-40 -6.39e-42 -4.2773e-41 8.6693e-41 -7.6494e-41

e_conv3.point_conv.weight f4 [32, 32, 1, 1]
00000000: 67f4 0000 89c8 0000 161b 0180 f4d3 0080
00000010: 0b25 0000 8b3f 0080 a713 0000 9802 0200
00000020: 6633 0280 497e 0080 5e48 0180 f344 0180
00000030: 7fdb 0000 b2f0 0000 f34d 0080 826f 0180
00000040: 571a 0080 9435 0180 d6f5 0000 8d58 0180
00000050: e9b7 0080 ebf3 0000 55d4 0080 7f8b 0100
00000060: 4ca0 0000 3e12 0080 3bca 0080 e938 0180
00000070: 6bb5 0080 1c07 0100 cf38 0100 711b 0000
00000080: eef5 0100 4c2c 0100 6439 0080 504e 0080
00000090: b4e3 0080 735e 0080 1227 0200 1a5a 0100
000000a0: ccb4 0180 f45c 0080 c677 0080 28ce 0000
000000b0: de3d 0180 f0a8 0080 ba58 0180 ecb9 0000
000000c0: a140 0080 09fb 0180 f0b8 0000 05f2 0080
000000d0: 229a 0080 36de 0180 ca14 0280 5d9f 0000
000000e0: fd7c 0180 5993 0080 2f96 0000 88ee 0180
000000f0: 705b 0100 e921 0180 4ae9 0080 defd 0180
00000100: 9c2e 0080 c2a0 0080 717f 0100 a1bf 0100
00000110: b821 0100 5162 0180 064b 0180 11a3 0180
00000120: 93c4 0000 1158 0180 dde9 0100 9c8e 0080
00000130: 2bb5 0080 c9d5 0180 2d52 0000 7e88 0000
00000140: 3849 0100 37be 0100 074d 0080 6a27 0100
00000150: 5a20 0200 6eaf 0000 0302 0200 4f89 0100
00000160: f831 0100 629b 0100 db30 0100 19a7 0180
00000170: 6c39 0080 1b2e 0180 a0b0 0000 e0ad 0080
00000180: a351 0000 48bb 0000 8819 0100 cc0c 0000
00000190: 3121 0280 d311 0000 572b 0000 eea4 0000
000001a0: 0423 0280 9595 0000 d747 0000 621c 0100
000001b0: 8876 0100 e8fc 0180 ea4b 0180 d329 0280
000001c0: 3d50 0000 70c5 0000 20c4 0180 5ae7 0080
000001d0: de17 0080 525f 0100 f87e 0000 8d28 0080
000001e0: 8f66 0100 9a0f 0000 2b4b 0180 2fa2 0080
000001f0: 826d 0180 4438 0100 9c85 0180 2072 0000
00000200: b8e5 0080 862c 0100 3c66 0000 a881 0180
00000210: 69bc 0180 7ea8 0000 95b4 0080 552d 0100
00000220: 2bf5 0180 9209 0100 b83c 0180 c8f0 0000
00000230: 1915 0080 df07 0000 de74 0080 876f 0080
00000240: c6af 0080 d266 0000 df73 0100 f8af 0180
00000250: bc27 0180 6ddc 0100 4612 0080 1b53 0080
00000260: 6b7d 0100 c57d 0180 ab8e 0000 c778 0100
00000270: 2a3e 0180 2a3e 0100 7c32 0100 44f2 0080
00000280: 3b83 0080 437f 0080 dcbd 0000 0415 0080
00000290: 9d03 0080 cee2 0080 772e 0180 95e8 0080
000002a0: f390 0180 d755 0000 1c13 0200 2b0b 0200
000002b0: 8bf6 0000 b8d1 0080 966d 0180 bb24 0000
000002c0: 85de 0180 5804 0100 fe2e 0100 77bf 0000
000002d0: 5f7d 0080 2c49 0180 1894 0000 7d08 0180
000002e0: ee12 0100 3447 0180 6047 0000 4cc4 0100
000002f0: d982 0000 9b27 0000 1f68 0180 8245 0080
00000300: f928 0080 963c 0100 4e9f 0100 b633 0080
00000310: 5b8b 0180 ab58 0180 9f68 0080 d59b 0080
00000320: 8231 0080 272c 0100 2058 0080 6d8a 0000
00000330: 4b78 0180 b545 0000 7a22 0200 2728 0180
00000340: e1b8 0180 a628 0100 a641 0080 4352 0080
00000350: 01a3 0180 dfc3 0100 29a4 0000 ba11 0280
00000360: 0e23 0080 3e95 0100 e0a0 0000 0d45 0080
00000370: 52c4 0080 c652 0080 4108 0080 09f3 0180
00000380: ca02 0000 b7b8 0180 837c 0000 fb88 0000
00000390: c614 0100 2417 0100 5715 0000 462c 0080
000003a0: e6f9 0080 8cdd 0180 439e 0080 831e 0080
000003b0: b17d 0080 6938 0080 e74c 0100 4309 0180
000003c0: 6ac4 0080 b327 0280 737c 0100 9d32 0080
000003d0: aa80 0000 d9f4 0100 3cd7 0000 f764 0180
000003e0: 45dd 0000 8674 0080 b9a9 0080 cc25 0000
000003f0: a801 0100 3f9f 0000 c0fd 0000 4a34 0080
8.7675e-41 7.1938e-41 -1.01552e-40 -7.6034e-41 1.3289e-41 -2.2795e-41 7.05e-42 1.84601e-40
-2.02109e-40 -4.5303e-41 -1.17796e-40 -1.1657e-40 7.874e-41 8.6345e-41 -2.7963e-41 -1.31837e-40
-9.449e-42 -1.11056e-40 8.819e-41 -1.23602e-40 -6.5975e-41 8.7501e-41 -7.617e-41 1.41877e-40
5.7504e-41 -6.544e-42 -7.2547e-41 -1.12251e-40 -6.508e-41 9.4386e-41 1.12215e-40 9.844e-42
1.80058e-40 1.07726e-40 -2.0588e-41 -2.8093e-41 -8.1684e-41 -3.3882e-41 1.97687e-40 1.24158e-40
-1.56693e-40 -3.3345e-41 -4.2967e-41 7.3955e-41 -1.14029e-40 -6.0603e-41 -1.23665e-40 6.6696e-41
-2.3184e-41 -1.8189e-40 6.6343e-41 -8.682e-41 -5.5292e-41 -1.7155e-40 -1.91129e-40 5.7169e-41
-1.36673e-40 -5.2858e-41 5.3876e-41 -1.77404e-40 1.24637e-40 -1.04e-40 -8.3688e-41 -1.82906e-40
-1.672e-41 -5.7669e-41 1.37553e-40 1.60579e-40 1.03932e-40 -1.27105e-40 -1.18749e-40 -1.50333e-40
7.0518e-41 -1.23428e-40 1.7573e-40 -5.1159e-41 -6.4991e-41 -1.68527e-40 2.9479e-41 4.8964e-41
1.18101e-40 1.60072e-40 -2.7632e-41 1.05975e-40 1.95277e-40 6.2932e-41 1.84393e-40 1.41093e-40
1.09761e-40 1.47576e-40 1.09362e-40 -1.51779e-40 -2.0599e-41 -1.08375e-40 6.3361e-41 -6.2375e-41
2.9286e-41 6.7184e-41 1.00994e-40 4.59e-42 -1.95578e-40 6.394e-42 1.5547e-41 5.9166e-41
-1.96232e-40 5.366e-41 2.5771e-41 1.02017e-40 1.34356e-40 -1.82561e-40 -1.19068e-40 -1.98675e-40
2.8784e-41 7.0827e-41 -1.62192e-40 -8.2993e-41 -8.562e-42 1.2603e-40 4.5548e-41 -1.4547e-41
1.28627e-40 5.597e-42 -1.188e-40 -5.818e-41 -1.3112e-40 1.1202e-40 -1.39766e-40 4.094e-41
-8.2408e-41 1.07807e-40 3.6675e-41 -1.38347e-40 -1.59424e-40 6.0444e-41 -6.478e-41 1.08098e-40
-1.79785e-40 9.5269e-41 -1.13617e-40 8.6376e-41 -7.568e-42 2.824e-42 -4.1924e-41 -4.0008e-41
-6.3056e-41 3.6885e-41 1.33402e-40 -1.54961e-40 -1.0609e-40 1.7091e-40 -6.555e-42 -2.9813e-41
1.36827e-40 -1.36953e-40 5.118e-41 1.35162e-40 -1.14136e-40 1.14136e-40 1.09946e-40 -8.6909e-41
-4.7077e-41 -4.5653e-41 6.8109e-41 -7.539e-42 -1.296e-42 -8.1362e-41 -1.08504e-40 -8.3435e-41
-1.43833e-40 3.0794e-41 1.90526e-40 1.87677e-40 8.8443e-41 -7.5233e-41 -1.31148e-40 1.3176e-41
-1.7166e-40 9.3394e-41 1.08693e-40 6.8685e-41 -4.4975e-41 -1.18085e-40 5.3126e-41 -9.488e-41
9.8626e-41 -1.17378e-40 2.5605e-41 1.62254e-40 4.6939e-41 1.4208e-41 -1.29187e-40 -2.4935e-41
-1.4698e-41 1.1357e-40 1.48983e-40 -1.855e-41 -1.41827e-40 -1.23644e-40 -3.7531e-41 -5.5902e-41
-1.776e-41 1.07674e-40 -3.1613e-41 4.9658e-41 -1.34988e-40 2.5006e-41 1.96039e-40 -1.0624e-40
-1.58158e-40 1.06417e-40 -2.355e-41 -2.951e-41 -1.5031e-40 1.62101e-40 5.889e-41 -1.9003e-40
-1.2575e-41 1.45374e-40 5.7711e-41 -2.4771e-41 -7.0426e-41 -2.9694e-41 -2.961e-42 -1.7902e-40
1e-42 -1.58099e-40 4.4666e-41 4.914e-41 9.9288e-41 1.00137e-40 7.655e-42 -1.5882e-41
-8.9647e-41 -1.71312e-40 -5.6774e-41 -1.0946e-41 -4.509e-41 -2.0236e-41 1.19423e-40 -9.5158e-41
-7.046e-41 -1.97912e-40 1.3648e-40 -1.8157e-41 4.6156e-41 1.7967e-40 7.7212e-41 -1.28055e-40
7.9377e-41 -4.1801e-41 -6.0885e-41 1.3559e-41 9.243e-41 5.7127e-41 9.1028e-41 -1.8758e-41

e_conv3.point_conv.bias f4 [32]
00000000: bc87 0180 31d8 0000 05ed 0080 c33d 0000
00000010: 0fa5 0000 9aa3 0000 3ec3 0000 ecaa 0100
00000020: bcfe 0000 b432 0000 b97d 0000 f03b 0100
00000030: 0707 0100 6bcc 0080 8eb8 0180 f31f 0200
00000040: fa27 0180 fef7 0080 521d 0100 240f 0180
00000050: 1098 0100 d140 0000 8c79 0180 e675 0180
00000060: 1936 0000 cb80 0080 f443 0000 8e31 0100
00000070: 3504 0000 7960 0080 c68d 0080 2f20 0000
-1.40528e-40 7.7555e-41 -8.5027e-41 2.2156e-41 5.9212e-41 5.8689e-41 7.004e-41 1.53151e-40
9.1381e-41 1.8189e-41 4.5101e-41 1.13337e-40 9.4356e-41 -7.3331e-41 -1.58041e-40 1.95132e-40
-1.06176e-40 -8.8963e-41 1.02354e-40 -9.7267e-41 1.46385e-40 2.3252e-41 -1.35438e-40 -1.3413e-40
1.9407e-41 -4.6202e-41 2.4377e-41 1.09612e-40 1.509e-42 -3.4608e-41 -5.0859e-41 1.1545e-41

e_conv4.depth_conv.weight f4 [32, 1, 3, 3]
00000000: 8586 0080 ba5f 0000 441e 0080 7945 0000
00000010: 1436 0180 e12c 0200 15cc 0080 3a1a 0200
00000020: dda9 0080 bd6c 0180 383e 0100 3117 0100
00000030: a285 0000 2609 0280 abf0 0000 c439 0080
00000040: 075a 0100 3b1f 0280 190c 0000 2c44 0100
00000050: b135 0180 8832 0000 ea4a 0180 607b 0100
00000060: 9820 0180 b671 0080 4d47 0100 6393 0180
00000070: 6e20 0080 acf5 0180 7097 0100 efdd 0080
00000080: 7c2e 0180 df0c 0180 dc12 0180 eada 0100
00000090: 0392 0180 a55b 0080 8cbe 0000 fe57 0000
000000a0: 5bf2 0000 e606 0000 adef 0180 b53c 0180
000000b0: 63eb 0180 6d25 0180 f50c 0080 2f4a 0080
000000c0: f52b 0180 3128 0000 5437 0180 dee4 0080
000000d0: 8a1f 0180 8984 0180 1645 0080 f4ff 0080
000000e0: cefb 0080 af65 0100 8c3d 0100 6b5f 0080
000000f0: 3461 0000 aa32 0080 f4dc 0180 92da 0000
00000100: 9b63 0180 43c1 0180 0623 0000 9cfb 0000
00000110: d924 0180 3708 0280 13a0 0180 d9da 0080
00000120: f7d2 0180 0280 0180 7d51 0000 962f 0000
00000130: c365 0000 bd1a 0100 2bb2 0000 9aba 0100
00000140: 97c2 0080 92c6 0000 801a 0180 2458 0180
00000150: 67b5 0080 6c5d 0100 63ad 0080 29ac 0000
00000160: f0da 0000 7ffd 0100 90e7 0080 5ffa 0100
00000170: 4829 0000 b103 0100 feba 0100 c02c 0180
00000180: 55a8 0180 3c18 0080 10d6 0000 cbad 0080
00000190: 72a2 0080 387f 0180 2225 0280 26fb 0100
000001a0: e75f 0000 3144 0180 4f7c 0180 f7a9 0000
000001b0: 7fbd 0180 e062 0100 7210 0100 d393 0180
000001c0: e563 0180 4c14 0180 5bf4 0080 956a 0000
000001d0: 9d30 0080 9e5a 0080 c9c4 0080 ec78 0180
000001e0: 3380 0180 1025 0180 65b7 0180 02dc 0000
000001f0: 4815 0180 769e 0100 55a5 0180 32ea 0000
00000200: 7af3 0080 3fcb 0000 af0c 0080 7948 0180
00000210: 4893 0180 9aa6 0080 e7fa 0100 b56b 0180
00000220: 24b6 0080 0d46 0080 6722 0000 da12 0080
00000230: 7c44 0100 7788 0080 f55b 0080 14e9 0080
00000240: 306d 0080 eec1 0080 7615 0180 98bb 0080
00000250: b9c7 0180 5737 0100 dfa4 0100 4b0e 0080
00000260: a025 0100 3d16 0100 8a20 0000 91e1 0080
00000270: 921f 0000 c299 0080 ed5c 0180 3831 0080
00000280: c4b0 0080 b645 0100 dc6e 0080 1824 0100
00000290: 1658 0180 b319 0000 2724 0100 6606 0100
000002a0: 9d07 0080 9b3a 0180 044b 0100 7969 0180
000002b0: cd18 0100 347a 0100 d90e 0080 e107 0200
000002c0: 3c8f 0080 36e1 0080 281b 0180 62e0 0000
000002d0: f831 0180 e332 0180 4633 0080 3624 0100
000002e0: ab01 0100 1bec 0080 180a 0100 3957 0000
000002f0: 1e81 0000 6c63 0000 fd0d 0180 5140 0000
00000300: 3452 0100 e24f 0180 dda2 0100 bc30 0180
00000310: 4a05 0080 1a12 0100 d910 0080 13e0 0000
00000320: 9da9 0000 1c11 0080 b07b 0000 aa28 0100
00000330: 4d17 0080 35d9 0000 b03a 0100 ebd8 0000
00000340: bdfd 0080 7484 0080 f10b 0000 971c 0280
00000350: 7922 0100 5526 0000 1410 0100 daee 0000
00000360: 0c6f 0000 4b82 0180 fb29 0000 4ca0 0080
00000370: 874e 0180 8e70 0080 618f 0080 bb44 0180
00000380: 65c6 0100 4163 0080 3124 0100 c7a8 0100
00000390: dd62 0180 3e60 0100 204e 0100 0f66 0180
000003a0: 59e8 0180 e535 0100 0843 0080 9e2b 0000
000003b0: d4f5 0000 89e0 0100 cd15 0100 1861 0000
000003c0: d6b9 0180 ab1c 0100 7743 0100 f593 0100
000003d0: aaf1 0080 3c5e 0180 3d38 0180 3ec2 0080
000003e0: 423e 0080 abc1 0080 5b99 0000 7714 0080
000003f0: 93d8 0080 9e1f 0000 77a4 0000 6547 0000
-4.8257e-41 3.434e-41 -1.0857e-41 2.4922e-41 -1.11235e-40 1.9977e-40 -7.3211e-41 1.9308e-40
-6.0935e-41 -1.30843e-40 1.14155e-40 1.00155e-40 4.7938e-41 -1.86953e-40 8.6335e-41 -2.0722e-41
1.24131e-40 -1.94874e-40 4.34e-42 1.16291e-40 -1.11096e-40 1.8127e-41 -1.1871e-40 1.36094e-40
-1.03528e-40 -4.0792e-41 1.17413e-40 -1.44708e-40 -1.1634e-41 -1.79966e-40 1.46161e-40 -7.9615e-41
-1.08511e-40 -9.6453e-41 -9.8601e-41 1.70367e-40 -1.44215e-40 -3.2876e-41 6.8355e-41 3.1566e-41
8.6941e-41 2.475e-42 -1.77815e-40 -1.13613e-40 -1.76276e-40 -1.05261e-40 -4.648e-42 -2.6612e-41
-1.07604e-40 1.4418e-41 -1.11683e-40 -8.2102e-41 -1.0315e-40 -1.3938e-40 -2.4783e-41 -9.1819e-41
-9.033e-41 1.28313e-40 1.13914e-40 -3.423e-41 3.487e-41 -1.8175e-41 -1.71099e-40 7.8408e-41
-1.27567e-40 -1.61165e-40 1.2564e-41 9.026e-41 -1.05054e-40 -1.86618e-40 -1.4926e-40 -7.8508e-41
-1.67515e-40 -1.37756e-40 2.9232e-41 1.707e-41 3.6505e-41 1.01427e-40 6.3915e-41 1.58776e-40
-6.9806e-41 7.1234e-41 -1.01342e-40 -1.23454e-40 -6.5075e-41 1.25349e-40 -6.22e-41 6.176e-41
7.854e-41 1.82773e-40 -8.3069e-41 1.81652e-40 1.4809e-41 9.316e-41 1.58916e-40 -1.07889e-40
-1.52222e-40 -8.694e-42 7.6791e-41 -6.2345e-41 -5.8274e-41 -1.37473e-40 -1.96992e-40 1.8193e-40
3.4403e-41 -1.16298e-40 -1.36429e-40 6.0972e-41 -1.59814e-40 1.27305e-40 9.7735e-41 -1.44865e-40
-1.27671e-40 -9.9117e-41 -8.7658e-41 3.8234e-41 -1.7439e-41 -3.2507e-41 -7.0593e-41 -1.35214e-40
-1.37825e-40 -1.05131e-40 -1.57625e-40 7.8924e-41 -9.947e-41 1.4868e-40 -1.51145e-40 8.4013e-41
-8.7343e-41 7.2911e-41 -4.55e-42 -1.17834e-40 -1.4467e-40 -5.9765e-41 1.81842e-40 -1.30473e-40
-6.534e-41 -2.513e-41 1.2341e-41 -6.763e-42 1.16403e-40 -4.8954e-41 -3.2988e-41 -8.3613e-41
-3.9169e-41 -6.9569e-41 -9.9534e-41 -6.7296e-41 -1.63482e-40 1.11688e-40 1.5098e-40 -5.127e-42
1.05333e-40 9.9813e-41 1.1673e-41 -8.0918e-41 1.1325e-41 -5.5158e-41 -1.25171e-40 -1.7656e-41
-6.3412e-41 1.16843e-40 -3.9769e-41 1.04783e-40 -1.23435e-40 9.219e-42 1.04805e-40 9.4131e-41
-2.731e-42 -1.12859e-40 1.18746e-40 -1.29672e-40 1.00732e-40 1.35674e-40 -5.326e-42 1.86497e-40
-5.1383e-41 -8.079e-41 -1.01577e-40 8.0493e-41 -1.09761e-40 -1.1009e-40 -1.8393e-41 1.04826e-40
9.2434e-41 -8.4699e-41 9.5456e-41 3.129e-41 4.6319e-41 3.5666e-41 -9.6854e-41 2.3072e-41
1.21324e-40 -1.20492e-40 1.5026e-40 -1.09318e-40 -1.897e-42 9.8329e-41 -6.044e-42 8.0383e-41
6.0846e-41 -6.138e-42 4.4371e-41 1.06423e-40 -8.359e-42 7.7919e-41 1.12889e-40 7.7816e-41
-9.1024e-41 -4.7515e-41 4.284e-42 -1.93927e-40 1.04202e-40 1.3751e-41 9.7603e-41 8.5684e-41
3.9836e-41 -1.38576e-40 1.506e-41 -5.7504e-41 -1.20006e-40 -4.0377e-41 -5.1435e-41 -1.16491e-40
1.63006e-40 -3.5606e-41 1.04819e-40 1.52381e-40 -1.27301e-40 1.2636e-40 1.19861e-40 -1.28447e-40
-1.75186e-40 1.11169e-40 -2.4046e-41 1.5647e-41 8.8187e-41 1.72384e-40 9.9656e-41 3.483e-41
-1.58501e-40 1.0212e-40 1.16037e-40 1.44912e-40 -8.6693e-41 -1.2564e-40 -1.1201e-40 -6.9681e-41
-2.2334e-41 -6.9475e-41 5.5014e-41 -7.341e-42 -7.7692e-41 1.1342e-41 5.8999e-41 2.5612e-41

e_conv4.depth_conv.bias f4 [32]
00000000: 3f2d 0000 0d38 0180 7eec 0100 9f9c 0000
00000010: 6724 0000 84fc 0080 70dc 0000 b903 0180
00000020: eb80 0000 d460 0080 e41a 0280 33c8 0100
00000030: c686 0100 275f 0080 5965 0180 9ae1 0100
00000040: 9402 0080 2396 0100 c450 0000 9f18 0000
00000050: 54e4 0180 01cb 0000 5e4f 0180 3387 0180
00000060: c25c 0100 cc3a 0000 51c5 0080 d558 0080
00000070: 6b2f 0100 571f 0100 07cb 0000 7976 0000
1.6231e-41 -1.11943e-40 1.76673e-40 5.6185e-41 1.3059e-41 -9.0586e-41 7.9078e-41 -9.3171e-41
4.6247e-41 -3.4735e-41 -1.93318e-40 1.63653e-40 1.40183e-40 -3.4134e-41 -1.28192e-40 1.72766e-40
-9.25e-43 1.45694e-40 2.8973e-41 8.832e-42 -1.73744e-40 7.2824e-41 -1.20307e-40 -1.40336e-40
1.25111e-40 2.1092e-41 -7.0784e-41 -3.1867e-41 1.08846e-40 1.03078e-40 7.2832e-41 4.25e-41

e_conv4.point_conv.weight f4 [32, 32, 1, 1]
00000000: d459 0180 8599 0100 61fb 0100 4cbf 0080
00000010: af35 0080 c9de 0180 524a 0180 4c4d 0000
00000020: 0709 0100 ebb8 0100 834d 0100 bd97 0080
00000030: 246d 0100 57ac 0080 ee0c 0100 1d0a 0100
00000040: 6e14 0200 f2d7 0080 229a 0080 4e15 0180
00000050: 6fad 0180 af11 0080 03d1 0000 3525 0180
00000060: dd30 0100 a811 0000 f785 0080 4b17 0280
00000070: 6c19 0100 aeee 0000 880a 0180 2b34 0100
00000080: 0223 0280 d49e 0180 95a0 0180 6955 0000
00000090: 9660 0080 af0f 0000 e2d4 0000 04ad 0100
000000a0: cf24 0180 832d 0180 cfad 0000 33d5 0100
000000b0: 4145 0080 f218 0100 9688 0080 020a 0100
000000c0: 1b93 0100 6601 0000 ff85 0100 3355 0180
000000d0: b4fc 0100 da60 0100 002c 0100 4028 0100
000000e0: b648 0180 8602 0000 742e 0180 1232 0100
000000f0: 751e 0100 c65f 0180 9eb9 0000 5a85 0100
00000100: 9b27 0100 6f09 0180 4533 0100 f30b 0000
00000110: dd1b 0200 fb75 0180 fe8f 0180 2490 0100
00000120: fa24 0200 d7b6 0100 cc05 0080 cf22 0000
00000130: eda9 0180 20da 0100 c106 0200 089e 0100
00000140: 6aa8 0180 3e5a 0080 9149 0100 8e7f 0100
00000150: af38 0080 2ff5 0000 793f 0080 542d 0080
00000160: f350 0100 dd27 0080 e691 0100 5d0f 0100
00000170: 0532 0100 35e7 0180 9a0d 0000 1625 0180
00000180: 813f 0080 210e 0180 0843 0100 41cf 0080
00000190: 295b 0180 f622 0080 4975 0100 4b92 0100
000001a0: 540c 0100 7d68 0180 b613 0100 e212 0000
000001b0: 8ca9 0100 1dea 0080 06e9 0000 9236 0180
000001c0: 5760 0100 2d82 0180 3a9b 0180 953d 0000
000001d0: c612 0100 3356 0100 5244 0180 d29c 0000
000001e0: 7805 0280 d9f8 0000 5783 0100 7556 0080
000001f0: b5e9 0080 8370 0000 2a1e 0280 e710 0280
00000200: 44c2 0100 4bb9 0080 7638 0180 3f64 0100
00000210: 8552 0180 c160 0180 9dd7 0000 5304 0280
00000220: f50b 0080 4ede 0000 9606 0200 de33 0180
00000230: ac26 0080 4c64 0000 3c2d 0180 5f41 0080
00000240: 54cc 0080 6cf1 0000 823f 0080 eeed 0180
00000250: 75b5 0100 84b3 0080 3776 0180 ca69 0000
00000260: b831 0100 ac2f 0180 524c 0180 e57d 0080
00000270: 4df1 0000 228d 0000 2073 0080 1c23 0080
00000280: 3e05 0280 64c9 0000 53aa 0080 4f24 0080
00000290: fe8f 0000 1968 0180 6629 0100 dc86 0000
000002a0: 074b 0080 e0e7 0080 7866 0080 7b2d 0080
000002b0: 8c50 0180 561e 0180 2a97 0000 2915 0000
000002c0: ee75 0000 8fe8 0080 3620 0280 b92e 0180
000002d0: b1e2 0100 c762 0080 7a1f 0000 b4b4 0180
000002e0: 8db6 0180 94d1 0000 fb34 0000 1a36 0000
000002f0: 6505 0180 b5a7 0100 ef00 0080 f5b6 0100
00000300: 68a5 0080 b448 0100 6e81 0000 c252 0100
00000310: 318c 0080 c856 0080 3da3 0100 14ee 0180
00000320: e234 0000 2b65 0080 cee1 0000 c103 0100
00000330: 5075 0080 25df 0000 2367 0080 ad12 0000
00000340: 0727 0180 9c66 0080 5e99 0080 7bb9 0000
00000350: 5139 0080 b758 0100 a420 0200 14a6 0180
00000360: 4e39 0180 2921 0000 d717 0100 3b11 0100
00000370: d32c 0180 040d 0180 3728 0100 007c 0080
00000380: 01ff 0080 fdba 0080 e4bd 0000 e629 0100
00000390: 5132 0100 ac92 0080 3a14 0200 574f 0180
000003a0: 7097 0080 c40f 0100 fa1c 0000 4b53 0080
000003b0: 9350 0080 db99 0180 5e81 0100 dece 0080
000003c0: 7cf4 0180 7098 0080 bb8b 0100 793e 0100
000003d0: 2fa3 0080 c4fa 0000 1096 0000 27e3 0180
000003e0: 19e7 0180 1b0b 0100 4718 0000 2762 0100
000003f0: 0d94 0080 d431 0180 0d24 0000 33ad 0180
-1.2406e-40 1.46908e-40 1.82013e-40 -6.8624e-41 -1.9258e-41 -1.71756e-40 -1.18497e-40 2.7729e-41
9.5074e-41 1.58172e-40 1.19641e-40 -5.4433e-41 1.30988e-40 -6.1824e-41 9.6474e-41 9.5463e-41
1.91e-40 -7.7467e-41 -5.5292e-41 -9.9478e-41 -1.54052e-40 -6.344e-42 7.4979e-41 -1.05183e-40
1.09364e-40 6.334e-42 -4.8058e-41 -1.92027e-40 1.00955e-40 8.5622e-41 -9.5613e-41 1.1055e-40
-1.9623e-40 -1.48812e-40 -1.49441e-40 3.064e-41 -3.4649e-41 5.626e-42 7.6368e-41 1.53902e-40
-1.0504e-40 -1.08162e-40 6.2351e-41 1.68317e-40 -2.4844e-41 1.00784e-40 -4.8998e-41 9.5426e-41
1.44607e-40 5.02e-43 1.39904e-40 -1.22399e-40 1.82488e-40 1.26579e-40 1.0762e-40 1.06274e-40
-1.17919e-40 9.05e-43 -1.085e-40 1.09797e-40 1.02761e-40 -1.26193e-40 6.6587e-41 1.39673e-40
1.06043e-40 -9.522e-41 1.10228e-40 4.287e-42 1.93666e-40 -1.34159e-40 -1.4349e-40 1.43543e-40
1.96936e-40 1.57426e-40 -2.08e-42 1.2487e-41 -1.52793e-40 1.70084e-40 1.86094e-40 1.48526e-40
-1.52251e-40 -3.2373e-41 1.18226e-40 1.37593e-40 -2.0334e-41 8.7955e-41 -2.277e-41 -1.626e-41
1.20875e-40 -1.43e-41 1.44174e-40 9.7347e-41 1.09779e-40 -1.74777e-40 4.88e-42 -1.0514e-40
-2.2781e-41 -9.6904e-41 1.15882e-40 -7.4349e-41 -1.24538e-40 -1.2542e-41 1.3391e-40 1.44316e-40
9.6258e-41 -1.29319e-40 9.8906e-41 6.774e-42 1.52657e-40 -8.3984e-41 8.3593e-41 -1.11412e-40
1.26396e-40 -1.38534e-40 -1.4752e-40 2.2091e-41 9.857e-41 1.22758e-40 -1.16344e-40 5.6257e-41
-1.85633e-40 8.927e-41 1.38951e-40 -3.1015e-41 -8.3838e-41 4.0362e-41 -1.94492e-40 -1.89734e-40
1.61525e-40 -6.647e-41 -1.1209e-40 1.27797e-40 -1.21438e-40 -1.26544e-40 7.7347e-41 -1.85222e-40
-4.29e-42 7.9748e-41 1.86034e-40 -1.10442e-40 -1.3873e-41 3.598e-41 -1.08063e-40 -2.3451e-41
-7.3299e-41 8.6606e-41 -2.2782e-41 -1.77189e-40 1.5693e-40 -6.4398e-41 -1.34243e-40 3.795e-41
1.09671e-40 -1.08937e-40 -1.19214e-40 -4.5162e-41 8.6562e-41 5.0629e-41 -4.1299e-41 -1.2595e-41
-1.85552e-40 7.2245e-41 -6.1101e-41 -1.3025e-41 5.1655e-41 -1.29179e-40 1.06686e-40 4.8378e-41
-2.6915e-41 -8.3181e-41 -3.6759e-41 -1.6315e-41 -1.2073e-40 -1.02718e-40 5.4227e-41 7.591e-42
4.2305e-41 -8.3426e-41 -1.95226e-40 -1.08596e-40 1.73157e-40 -3.5435e-41 1.1292e-41 -1.5666e-40
-1.57322e-40 7.5182e-41 1.9006e-41 1.9408e-41 -9.377e-41 1.51997e-40 -3.35e-43 1.57468e-40
-5.9337e-41 1.17916e-40 4.643e-41 1.21523e-40 -5.0291e-41 -3.1131e-41 1.50394e-40 -1.77242e-40
1.8971e-41 -3.6292e-41 8.1003e-41 9.3182e-41 -4.2084e-41 8.0049e-41 -3.6998e-41 6.7e-42
-1.05836e-40 -3.681e-41 -5.5018e-41 6.6538e-41 -2.0561e-41 1.2366e-40 1.9538e-40 -1.51413e-40
-1.12393e-40 1.1896e-41 1.00388e-40 9.8017e-41 -1.07915e-40 -9.6505e-41 1.06262e-40 -4.4483e-41
-9.1478e-41 -6.7079e-41 6.812e-41 1.06866e-40 1.09886e-40 -5.2616e-41 1.90927e-40 -1.20297e-40
-5.4326e-41 9.7491e-41 1.0395e-41 -2.988e-41 -2.8905e-41 -1.47028e-40 1.38244e-40 -7.421e-41
-1.7954e-40 -5.4684e-41 1.41961e-40 1.14246e-40 -5.8539e-41 8.9958e-41 5.3832e-41 -1.73322e-40
-1.74738e-40 9.582e-41 8.709e-42 1.27046e-40 -5.311e-41 -1.0971e-40 1.2933e-41 -1.53968e-40

e_conv4.point_conv.bias f4 [32]
00000000: f2d3 0180 9810 0100 5f48 0100 e3c3 0100
00000010: 13a7 0080 192a 0100 c0ed 0080 4920 0100
00000020: 6733 0100 4953 0080 4e77 0180 3be3 0000
00000030: 53a7 0000 534d 0000 dc94 0080 1072 0100
00000040: 211a 0000 f190 0180 2a05 0100 34ca 0180
00000050: b20e 0080 1aa1 0000 3124 0180 9e11 0180
00000060: 0f8d 0000 bb92 0180 3001 0100 bee1 0080
00000070: c546 0100 d41e 0180 6534 0200 cbe7 0000
-1.67867e-40 9.7788e-41 1.17797e-40 1.62106e-40 -5.9935e-41 1.06937e-40 -8.5289e-41 1.03417e-40
1.10275e-40 -2.9877e-41 -1.34634e-40 8.1515e-41 6.0025e-41 2.7739e-41 -5.34e-41 1.32753e-40
9.373e-42 -1.4383e-40 9.3688e-41 -1.64372e-40 -5.272e-42 5.7792e-41 -1.04819e-40 -9.8155e-41
5.0602e-41 -1.44472e-40 9.2261e-41 -8.0981e-41 1.17223e-40 -1.02895e-40 2.02467e-40 8.3152e-41
