Zero-DCE++/snapshots_Zero_DCE++/Epoch68.pth (torch, 51217 bytes, 28 tensors)

e_conv1.depth_conv.weight f4 [3, 1, 3, 3]
000000 c0 7c b3 be 67 f9 31 be 2b 89 ca 3b ca 74 2a be
       -0.35056114 -0.17380296 0.0061809025 -0.16646114
000010 a5 b7 df 3d 05 33 d8 3d f5 6b d2 be ad ab 2c be
       0.10923699 0.10556606 -0.4109799 -0.16862364
000020 fb 2a 41 bd ef 8a 4e 3e 54 26 2a 3e 54 4d ac 3e
       -0.04716013 0.20170186 0.16616184 0.33652747
000030 9c 59 38 3e 8c d0 c9 3c b8 98 69 3e 32 67 ae 3d
       0.18002933 0.024635576 0.22812164 0.08515777
000040 83 61 a7 3c 47 3b 5b 3e 48 21 21 3d 53 e3 1f bd
       0.02043224 0.21409331 0.03933838 -0.039035153
000050 05 1d 14 be fb 81 04 bd a5 5b 91 bd a9 59 f0 bd
       -0.14464195 -0.03235052 -0.07097558 -0.11735851
000060 55 cd ba bd dd b2 33 be c6 a9 a7 be
       -0.09121195 -0.175487 -0.32746714

e_conv1.depth_conv.bias f4 [3]
000000 d2 5b 99 3d 6f 06 9d 3e 2b 24 4c bd
       0.074882165 0.3066897 -0.04983918

e_conv1.point_conv.weight f4 [32, 3, 1, 1]
000000 7c b1 29 3c 3d 41 3a 3e 3b e0 98 3d 03 e3 4f ba
       0.010357257 0.18188949 0.074646436 -0.0007930251
000010 1e 66 68 ba 7e d9 c1 ba 1a 08 10 28 3f 1e ab a8
       -0.00088653143 -0.0014789549 7.9953625e-15 -1.8997931e-14
000020 77 23 7c 28 3d f4 c0 3d 13 07 03 bf 69 86 1a 3e
       1.39965e-14 0.09421585 -0.5118267 0.15090336
000030 aa 30 e7 97 7e 95 93 18 a8 a9 62 96 6f 18 28 3c
       -1.494031e-24 3.8149558e-24 -1.8309669e-25 0.010259732
000040 cb c3 b4 3d bd 10 cc 3e 92 75 f6 3d af e1 99 3e
       0.08826407 0.3985652 0.120341435 0.30054995
000050 fd 7d 3c be 41 8f 95 a4 9e f3 b3 a5 1b b1 77 a4
       -0.18407436 -6.486113e-17 -3.1216632e-16 -5.37096e-17
000060 f2 41 51 3d 69 31 fd bb 39 65 c5 3d 27 b8 55 3d
       0.05108828 -0.0077268374 0.09638447 0.052177574
000070 0b ae a8 bc b4 32 de bd 3b 07 c7 3e dc fd 0d bf
       -0.020590803 -0.108495146 0.38872704 -0.55465484
000080 4b e2 a9 3e 55 f9 cd bb 05 9e 32 bd 3a 4c 5c 3d
       0.3318046 -0.006285826 -0.04360773 0.053783633
000090 fe d4 41 3e ce 08 c7 be ef 52 2a be c9 09 83 bd
       0.18928906 -0.38873905 -0.16633199 -0.06398351
0000a0 f6 e9 17 be 92 fe 01 3e 92 85 00 00 26 40 00 00
       -0.14835343 0.12694767 4.7916e-41 2.3012e-41
0000b0 34 be 00 80 7e 00 c0 3c e3 9f a2 3e 43 84 87 3e
       -6.8232e-41 0.023437735 0.3176261 0.26468095
0000c0 2f 57 80 be 4c 21 b7 3e 2d 16 91 be bd 43 b3 b6
       -0.25066516 0.3576759 -0.2833723 -5.3425015e-06
0000d0 b1 df 49 b8 ed 95 1a b6 b6 64 c6 bb 7c fb 15 3b
       -4.8130463e-05 -2.3035057e-06 -0.006054486 0.0022885492
0000e0 2e 31 89 bc 64 65 34 b0 92 7b 37 b2 33 7d 36 b1
       -0.016747084 -6.5627703e-10 -1.0680099e-08 -2.6555653e-09
0000f0 2b b9 0f bf f7 a1 82 bd 6b 3c ae be 5c 59 2c b9
       -0.5614192 -0.063785486 -0.3403047 -0.00016436487
000100 0f db 97 ba 82 f1 fb ba a5 dd 33 bc f5 2e be 3b
       -0.001158567 -0.0019221755 -0.010978137 0.0058039376
000110 1b a5 b3 3c 0b 1c e5 39 90 25 d4 ba a2 af ff 39
       0.021929314 0.00043699177 -0.0016185511 0.00048768247
000120 0c d9 00 80 8f 5c 00 00 9e 74 00 80 c2 f7 ca 0d
       -7.7862e-41 3.3204e-41 -4.1834e-41 1.2508857e-30
000130 17 00 dc 8e 59 c6 b9 8d 83 9b d0 98 91 e3 ff 98
       -5.4234274e-30 -1.1449256e-30 -5.3923767e-24 -6.614574e-24
000140 5b 70 31 99 a8 d6 93 3e 4c e3 05 be 89 07 8e be
       -9.1733755e-24 0.28874707 -0.13074988 -0.27740124
000150 8b 1b bf 3c 66 61 1a bd 34 64 a4 3b 0c 0d bb b5
       0.023328563 -0.037690543 0.005016828 -1.3936383e-06
000160 87 75 78 33 f6 dd 5a b2 a1 70 81 3e e0 17 4c 3c
       5.784889e-08 -1.2739738e-08 0.25281242 0.012456864
000170 01 4d 81 bd f0 43 72 be 31 ef de 3e f4 b8 9e be
       -0.063135155 -0.23658729 0.43541864 -0.31000483

e_conv1.point_conv.bias f4 [32]
000000 41 82 06 be db 4b 25 b8 7b 09 24 a9 b8 e7 11 3f
       -0.13135625 -3.940971e-05 -3.6423538e-14 0.569942
000010 3f 04 ae 98 ee d3 a2 3d 54 b4 85 3e de f7 e8 a5
       -4.4982233e-24 0.07950579 0.26114142 -4.0413546e-16
000020 7d 2d 78 3d 9a 32 94 bc 46 33 d1 3e ac 74 ea 3e
       0.060590256 -0.018090535 0.4085943 0.4579214
000030 23 82 b6 3e 33 da 9b 3e 1d f2 00 00 fe cf f8 3e
       0.3564616 0.3043991 8.6854e-41 0.48596185
000040 e0 ae 0a bd 66 20 3c b9 32 8e 39 bc f0 9c b1 b2
       -0.03385818 -0.00017941147 -0.011325406 -2.0676879e-08
000050 91 e7 d1 3e e2 bc c6 39 c6 2f a7 3e b3 df 85 ba
       0.40996984 0.00037906232 0.32653636 -0.0010213762
000060 f4 19 00 80 cc 44 46 8f 7a 72 d4 98 15 0d 9d 3e
       -9.31e-42 -9.7754035e-30 -5.4916307e-24 0.30674043
000070 eb ac 2b 3d 25 00 50 b5 c6 f7 05 3f 58 72 a5 bd
       0.041912954 -7.748625e-07 0.523312 -0.0807845

e_conv2.depth_conv.weight f4 [32, 1, 3, 3]
000000 fe 05 56 bc 96 56 84 bc 63 6a 60 bc 28 8d aa bc
       -0.013062952 -0.016154569 -0.01369724 -0.020819262
000010 04 63 fa bc 2b d2 a7 bc e6 5c 0e bd d8 8b 28 bd
       -0.030564792 -0.020485958 -0.034756564 -0.04114899
000020 93 18 dc bc 8d 66 c2 b8 53 f5 ca b8 85 2d 01 b9
       -0.026867187 -9.2697424e-05 -9.677806e-05 -0.00012319356
000030 d1 fb 54 b7 3d c0 2f b8 f5 27 85 b8 c8 a7 c0 b7
       -1.2694815e-05 -4.1902287e-05 -6.349377e-05 -2.2966313e-05
000040 35 1b 14 b6 b7 dd 57 37 f0 b8 2d a0 78 cd 5b a0
       -2.2069555e-06 1.2866621e-05 -1.4714861e-19 -1.8618005e-19
000050 12 c6 8a a0 64 58 0d 9f 13 9e 1c a0 4b 81 96 a0
       -2.350918e-19 -2.9931026e-20 -1.3266016e-19 -2.5496547e-19
000060 80 8a 09 a0 9f 03 37 20 d8 9f 58 20 86 c5 8e be
       -1.1650177e-19 1.5501901e-19 1.83488e-19 -0.27885073
000070 5b cc 7a be 3b 0c 56 bd dc 89 e5 bd 99 fa c0 3d
       -0.24492018 -0.052257758 -0.11207935 0.09422798
000080 df 05 6e 3e 5d 11 89 3e 2c 22 96 3b af 14 f1 3e
       0.23244427 0.2677106 0.0045817103 0.47086093
000090 af e1 a6 96 6b ce e6 16 7d 4b f6 15 d0 5f 29 14
       -2.6961173e-25 3.7288772e-25 9.947771e-26 8.551215e-27
0000a0 d6 08 3d 16 d9 34 ce 96 08 ef 4a 16 34 84 b4 96
       1.5270087e-25 -3.3314447e-25 1.6392855e-25 -2.9164e-25
0000b0 78 b1 0c 17 c4 9c d0 3c 2f de 81 3d 15 da 23 3c
       4.5460437e-25 0.025465377 0.06341206 0.010000725
0000c0 8f 1d 61 3d 85 af f8 3d 87 5d e2 3c 39 19 52 bd
       0.05495983 0.12142853 0.027632488 -0.051293585
0000d0 8a 2c 12 bc 28 7d 35 be 21 ae 9d 3d 1b 3f dc bc
       -0.008921752 -0.17723525 0.07699228 -0.02688556
0000e0 7e 15 84 be d0 bd 5e 3d 00 0d 0d 3e c5 f1 bf bd
       -0.25797647 0.054380238 0.1377449 -0.09372286
0000f0 59 93 fa bc a3 4e 2d bc cc 2c 9b be e3 77 3d 23
       -0.030587839 -0.0105778305 -0.30307615 1.02710975e-17
000100 0c 01 b7 22 1b ee 03 22 f8 f0 f2 22 f3 d6 68 a3
       4.9603358e-18 1.7879863e-18 6.5849367e-18 -1.26222625e-17
000110 08 d1 0d 23 4f 42 46 22 76 6f 12 23 ec c5 1b 23
       7.687889e-18 2.6869107e-18 7.938279e-18 8.4444784e-18
000120 59 0f 9a 3c ce 36 4a 3b 3d 8e 94 ba b2 ef 17 3c
       0.018806146 0.003085542 -0.0011333894 0.009273456
000130 53 5c 0e 3a 46 4c 36 3b a6 e4 ff 3b cc 7a 5c 3c
       0.00054306275 0.0027816459 0.0078092394 0.013457011
000140 08 0e f4 3c e9 70 19 3c 9e b0 3e 3b 50 f5 aa bb
       0.029791847 0.009365299 0.0029096971 -0.005217232
000150 e8 cb 46 3c a0 74 1e 3b d3 02 ba bb 3b df d1 3b
       0.012133576 0.00241784 -0.005676606 0.006404785
000160 51 0a 59 bb f4 f0 b3 bb b8 2f 9a 3e c4 63 76 3e
       -0.0033117721 -0.0054913703 0.30114532 0.24061495
000170 49 67 76 3e 2f c2 78 3e 85 60 24 bd c7 da 95 3e
       0.24062838 0.24292825 -0.04013111 0.29268476
000180 6a a0 93 3e e0 0d cb 3d 5c 2a cf 3d dd e2 6e 3e
       0.28833324 0.09914756 0.10115501 0.23328729
000190 9d ff 24 be 1b 76 2c 3e a5 fd 9a 3d 3a 29 4e be
       -0.16113134 0.16841929 0.0756791 -0.20132914
0001a0 29 a0 da bd e7 53 85 3e 6c 20 8a 3d 48 7e 35 3e
       -0.106750794 0.26040575 0.06744465 0.17723954
0001b0 38 57 c3 3e 93 d8 00 3e f1 00 5a 3e ad f5 91 3e
       0.3815248 0.12582617 0.21289422 0.28507748
0001c0 82 7c 3e 3e 3d 06 d1 3d f4 3b 84 3e 0a 37 06 3e
       0.18602183 0.10206268 0.2582699 0.13106933
0001d0 18 6e 93 bd a3 58 ac 3c 5a e0 43 3d 99 4e a7 3d
       -0.07198733 0.021038359 0.04782138 0.08169288
0001e0 ac f2 ca 3d 17 54 d5 bd cb 89 3d 3e a1 f9 87 bd
       0.09909567 -0.104164295 0.18509595 -0.0663941
0001f0 47 c3 78 3d 81 a2 c1 3e 05 ee 00 80 99 ff 00 00
       0.060733106 0.37819293 -8.5385e-41 9.1691e-41
000200 78 50 01 80 96 92 00 80 fa 71 01 00 ef da 00 80
       -1.20702e-40 -5.2585e-41 1.32723e-40 -7.8539e-41
000210 0c f4 00 00 f5 76 00 80 c3 2b 00 00 7c fc 69 bd
       8.7548e-41 -4.2674e-41 1.5699e-41 -0.057125553
000220 2b c2 1c 3e 16 67 09 be 77 61 f8 3d b0 88 50 3e
       0.15308444 -0.1341823 0.12127965 0.20364642
000230 a7 a0 36 3e 6b 31 1b be df d3 90 bd 1f ab bb bd
       0.17834722 -0.1515557 -0.07071661 -0.09163498
000240 86 9a ca 3d 3c f1 63 3e fb ac b3 3e 3d 9d e8 3d
       0.09892754 0.22259992 0.3509291 0.11358116
000250 46 8d 37 3d 65 75 fd 3d d4 d4 15 be b9 30 9c bd
       0.044812463 0.12375907 -0.14631969 -0.076264806
000260 0c 84 59 be 40 19 00 80 eb e5 00 80 41 18 01 80
       -0.21241778 -9.058e-42 -8.2479e-41 -1.00536e-40
000270 94 87 00 00 8b 2c 01 80 d1 39 00 00 0e a4 00 80
       4.8636e-41 -1.07815e-40 2.074e-41 -5.8852e-41
000280 96 a7 00 00 d3 9d 00 00 52 26 47 34 36 ad 2e 34
       6.0119e-41 5.6617e-41 1.854726e-07 1.6268027e-07
000290 65 c1 19 34 97 68 6d 34 75 85 6e 34 31 1d 51 34
       1.4319592e-07 2.2110395e-07 2.2214029e-07 1.9475262e-07
0002a0 ee 13 25 34 19 06 40 34 c2 17 2a 34 ae 44 1e 2f
       1.5374073e-07 1.7883612e-07 1.5841127e-07 1.4394416e-10
0002b0 4b e7 94 2f ed 36 70 2f d0 41 1f 2e 03 b5 6b 2f
       2.7085387e-10 2.1847386e-10 3.6210868e-11 2.1437434e-10
0002c0 ef 78 b8 2f 02 8f 97 2e 65 db 92 2f 9d 47 ae 2f
       3.3555334e-10 6.892088e-11 2.6713134e-10 3.17013e-10
0002d0 e6 1e 8f bd 8b 39 6a 3e c1 f5 4e be 92 2b a2 be
       -0.06988315 0.22873513 -0.20210935 -0.31673867
0002e0 31 89 20 bc 0b 09 50 3d 14 1d ac be 18 52 73 be
       -0.009798334 0.050789874 -0.33615935 -0.23761785
0002f0 a4 e3 86 be e2 93 a5 39 2e b6 a5 39 72 8c e3 39
       -0.2634555 0.00031581434 0.00031606987 0.00043401454
000300 0d bf fe 38 d7 8f 3d 39 c7 f0 82 39 c8 52 b5 38
       0.0001214725 0.00018078029 0.00024974925 8.646172e-05
000310 6c 7a cf 38 7d c7 9a b7 5e 8c 8e bd ec 97 bc bd
       9.893332e-05 -1.8451125e-05 -0.06960367 -0.09208664
000320 d7 ab 49 3d b0 bf c2 bd 30 8d aa bd 51 64 d9 3a
       0.049236145 -0.09509218 -0.08327711 0.0016585683
000330 f7 9d 80 bd 46 94 af bd f7 70 a8 bc d5 43 7f 1b
       -0.062801294 -0.08573203 -0.020561678 2.1115023e-22
000340 57 f4 61 9a ab d1 c5 9b 52 a8 c2 1a f0 88 f0 9a
       -4.6726286e-23 -3.272641e-22 8.0508456e-23 -9.948291e-23
000350 4c 04 d4 9b 7d 33 2c 1b 08 2a 8a 1a 42 59 7a 9b
       -3.5075235e-22 1.4244143e-22 5.714337e-23 -2.0708356e-22
000360 9a 72 01 80 f4 39 00 80 f2 15 01 80 5a fd 00 00
       -1.32947e-40 -2.079e-41 -9.9708e-41 9.0885e-41
000370 18 62 00 00 41 14 01 00 6d 19 01 00 19 74 01 00
       3.519e-41 9.9101e-41 1.00957e-40 1.33483e-40
000380 b0 9f 00 00 a8 cc 81 8c 6f 60 89 0c 8e 67 e8 0c
       5.7285e-41 -1.999877e-31 2.116623e-31 3.5807584e-31
000390 5f be e4 8b 2d 97 4f 0c 59 13 c7 8c 73 cc 9b 0c
       -8.8108844e-32 1.5992193e-31 -3.067245e-31 2.400458e-31
0003a0 77 e2 a5 0c f4 ae c3 0c 01 1b d6 96 a4 44 69 96
       2.5558574e-31 3.0149803e-31 -3.4590607e-25 -1.8843249e-25
0003b0 fc f1 92 95 86 54 3c 96 0b 10 be 96 58 8d bb 96
       -5.9350714e-26 -1.521319e-25 -3.070628e-25 -3.030068e-25
0003c0 83 da 41 95 23 cb c8 96 71 12 a2 96 6c 4b a3 3e
       -3.9148415e-26 -3.243994e-25 -2.618415e-25 0.3189348
0003d0 3b a7 21 ba cf f5 67 3d 74 e9 80 bb 8b 8c 00 3d
       -0.0006166582 0.056630906 -0.00393408 0.031384032
0003e0 70 44 66 3d 7e c2 b0 3c f0 12 bb bc 2c e5 08 bd
       0.05621761 0.021577116 -0.022836179 -0.03342168
0003f0 50 bb 9f ba 50 90 de b7 9c 0b 33 bb 70 94 b8 3a
       -0.0012186561 -2.6531663e-05 -0.0027320152 0.0014082324

e_conv2.depth_conv.bias f4 [32]
000000 53 23 c6 3d 81 13 dd bd e5 a5 5b b6 6a 57 60 bd
       0.09674706 -0.10794736 -3.2730106e-06 -0.054770865
000010 69 f7 24 be 3e e6 47 3e c5 a6 93 3c d8 99 0a 3e
       -0.16110004 0.19521424 0.018023858 0.13535249
000020 7a 98 84 3e bd cc 79 be 01 d0 44 3c 87 35 b7 bd
       0.2589758 -0.24394508 0.012012483 -0.089457564
000030 cb 63 64 be 13 7e 52 bd 3d ee 0e 3e 4e d0 54 3e
       -0.22303693 -0.051389765 0.13958068 0.20782587
000040 ce 5a 2d 3e 63 a1 9d bc 39 9f ee b3 0c 71 2a 3e
       0.1692917 -0.019241994 -1.1111701e-07 0.16644686
000050 1d 9b 87 3e cd 28 35 3e 9d 2f dc bd 47 e6 3b 3e
       0.2648553 0.17691346 -0.10751269 0.18349563
000060 28 64 a3 bd 83 13 05 bd ed 02 96 3d 13 80 57 be
       -0.07978088 -0.03248931 0.07324777 -0.2104495
000070 5b 10 8d bd 49 30 29 be 65 10 ae bd f9 bf 99 3e
       -0.06887885 -0.16522326 -0.08499221 0.30029276

e_conv2.point_conv.weight f4 [32, 32, 1, 1]
000000 e7 3b 4a bc a3 9f 0c bc 14 cd 48 b8 e9 1c a4 3d
       -0.012343383 -0.008582982 -4.787471e-05 0.08013327
000010 dc 8c 71 3c 3f e7 8e bd 76 4e 95 3c bc 52 d2 bc
       0.014743056 -0.069777004 0.01822589 -0.025674216
000020 84 06 61 bd 49 1e 41 3c 64 70 5e 3d 69 3b 1a 3d
       -0.054937854 0.011787006 0.054306403 0.037654314
000030 b8 09 2c 3e e0 2a 07 3d d9 ae 44 bc 0d 4f 02 be
       0.16800582 0.032999873 -0.012004578 -0.12725468
000040 0b 1c a7 3c 9b 58 4c 3b 98 91 2e 34 01 88 44 bd
       0.020399114 0.0031180743 1.625798e-07 -0.047981266
000050 43 96 8d 3e dd 49 9f 3c 88 89 54 3d 9b 4a 64 bd
       0.27653703 0.0194444 0.051888973 -0.05573521
000060 fe 76 76 3a 69 08 98 3b a1 2e 5f bc 5b 43 3c 3d
       0.00094018865 0.0046396744 -0.013621957 0.045962673
000070 e4 14 90 3c 06 e2 e2 3c 14 95 18 be 7c be c8 bb
       0.017588086 0.027695667 -0.14900619 -0.006126223
000080 54 f7 70 3d 36 ee 9e bd 02 b6 e6 36 3d 71 a4 bd
       0.05882962 -0.07760279 6.8757226e-06 -0.08029411
000090 94 9b 42 3c 94 83 84 3d d7 f8 72 3c 92 ad c8 3c
       0.011877913 0.06470409 0.014829836 0.024496827
0000a0 b4 9c b7 3d 89 00 ba bd d2 4f 9e 3e f4 9d 53 3e
       0.089654356 -0.09082133 0.30920273 0.20665723
0000b0 74 55 84 3e b3 ac ed 3d b3 ea 83 bb 1c c8 f9 3d
       0.25846446 0.116052054 -0.004025781 0.12196371
0000c0 be d7 f7 3d 36 7c c3 bb de c1 64 35 3b ed 51 bb
       0.121016964 -0.005965735 8.521873e-07 -0.003203227
0000d0 cd 04 ca bb 01 e7 4c 3d d2 aa 82 b8 82 dc de 3d
       -0.006165123 0.05002499 -6.230701e-05 0.10881902
0000e0 a7 09 6b bc e1 08 0a bc 8e a6 34 bc d2 8a 51 3e
       -0.014345563 -0.008424968 -0.011026038 0.20463112
0000f0 40 d3 96 bd 55 0a 00 bd a3 7a 8a be eb da e5 3d
       -0.073645115 -0.031259853 -0.2704669 0.11223396
000100 ee 2e fa 3b df 21 36 bc 05 14 37 37 65 b8 ad 3e
       0.007634989 -0.011116474 1.0912311e-05 0.33929744
000110 3e c7 6b bb 88 b4 34 3d 45 96 14 3d d7 f3 bf 3b
       -0.0035976912 0.04411748 0.03627612 0.0058579254
000120 d9 2a 98 bc 5e fc 47 bd ee 12 fd bd 07 1a a6 bd
       -0.018575119 -0.04882466 -0.12357126 -0.08110433
000130 d7 0f 8c be aa 26 21 3d fc f8 fe ba 0f 36 07 3d
       -0.27355835 0.039343514 -0.0019452865 0.03301054
000140 b8 5c 85 3d e9 05 ba bb 29 21 59 b5 f2 8f cc 3c
       0.06511825 -0.005676974 -8.0887054e-07 0.024970982
000150 b8 48 7e bc ba a0 95 3c b6 d5 ca bb 74 9e 6f 3d
       -0.015520267 0.018265117 -0.006190027 0.058500722
000160 71 c1 50 bc 6d f9 f2 bb 80 f5 83 3c 99 92 6b be
       -0.0127414325 -0.007414988 0.016108274 -0.23005141
000170 58 47 7a bc a1 d4 1c bd 52 7e ac 3d f5 f5 6d 3b
       -0.015275799 -0.038288716 0.08422531 0.0036309932
000180 7d 33 00 80 ea 3d 01 80 a2 3c 00 80 dd 68 00 80
       -1.847e-41 -1.14046e-40 -2.1751e-41 -3.7618e-41
000190 f8 33 00 00 0c ef 00 00 e9 20 01 80 40 00 01 00
       1.8643e-41 8.5754e-41 -1.03641e-40 9.1925e-41
0001a0 27 af 00 00 2e 01 01 80 27 49 01 00 51 2a 00 00
       6.2833e-41 -9.2259e-41 1.18078e-40 1.518e-41
0001b0 b6 41 01 00 28 92 01 80 1b 29 00 80 01 c2 00 80
       1.15408e-40 -1.44266e-40 -1.4746e-41 -6.9595e-41
0001c0 15 12 00 00 95 77 01 80 d5 84 01 00 5b fe 00 80
       6.487e-42 -1.34733e-40 1.39487e-40 -9.1246e-41
0001d0 00 b9 00 00 29 39 00 00 0a 20 01 00 8c 75 00 00
       6.6365e-41 2.0505e-41 1.03329e-40 4.2168e-41
0001e0 23 26 01 00 7e cc 00 80 9e 34 00 00 a2 1d 01 80
       1.05516e-40 -7.3358e-41 1.8875e-41 -1.02466e-40
0001f0 fa bb 00 80 5d e7 00 80 70 25 00 80 5d f5 00 00
       -6.7433e-41 -8.2998e-41 -1.343e-41 8.802e-41
000200 d8 bf aa 3a 15 dd 8d 3b 4c 9d dd 37 7c 4b c2 bc
       0.0013027145 0.0043293335 2.64185e-05 -0.023717634
000210 e7 60 90 3c 51 61 b2 3d 4a 2f 07 be 0d 32 e1 3b
       0.017624332 0.08709968 -0.13201633 0.0068724216
000220 07 2a 57 bc 27 37 05 bd 3a dc 79 bd 1a 15 bd bc
       -0.013132579 -0.0325233 -0.06100104 -0.023081351
000230 d8 60 75 bd 4e 65 39 bd 5b 93 80 3c 7a 32 19 3e
       -0.05990681 -0.045262627 0.015695265 0.14960662
000240 23 ae 9d 3c 7e fc 71 bb 2a 76 49 35 c8 69 0d 3d
       0.019248074 -0.0036924179 7.5050286e-07 0.03452471
000250 de f6 d7 3b 91 22 7d bb a7 fd 17 bc ed 7d 54 bc
       0.006590708 -0.003862534 -0.009276784 -0.012969476
000260 29 02 5f bc 22 73 8b bb cb 71 4f 3c 29 92 89 bb
       -0.013611355 -0.0042556683 0.012661408 -0.004198332
000270 be e0 34 bc 4c e0 02 bd 59 e6 00 3d 87 f8 9c bd
       -0.011039911 -0.031952187 0.031469677 -0.0766459
000280 c5 55 83 3c 47 97 8a bc b3 32 f7 37 50 50 4c bc
       0.016032109 -0.016917838 2.9468303e-05 -0.01247032
000290 82 3a bc bc 37 82 00 3d 31 62 eb 3d 29 a1 99 3c
       -0.022977117 0.031374183 0.11493338 0.018753605
0002a0 37 7f 00 3d c9 11 f6 bc bf 33 9f 3d b1 28 3c bd
       0.03137132 -0.030037777 0.07773542 -0.045937244
0002b0 e4 7f 3c 3d 0f 0c 96 bc ed eb a1 3c 60 de 47 3d
       0.046020404 -0.018316297 0.019765818 0.048796058
0002c0 aa b6 49 3a 6e 3f 55 bb 88 28 a3 34 7a 12 a9 3c
       0.00076947606 -0.0032539028 3.0390606e-07 0.020638693
0002d0 25 79 99 3d 98 c0 c6 3c 29 3b eb bc 5c 27 c1 3c
       0.074938096 0.024261758 -0.028714733 0.023578338
0002e0 31 8a 2b bc c6 61 97 bb 85 31 2b 3c 5c 4e 38 39
       -0.010469959 -0.00461981 0.010448818 0.00017576799
0002f0 12 3d 3b bc 99 33 b2 bc 9f c9 55 3c 78 f8 1b 3e
       -0.0114281345 -0.02175312 0.0130485585 0.15231502
000300 af 85 0f 3c e5 00 84 3c 74 51 bf b7 ca 5f 19 3e
       0.0087599 0.016113708 -2.2806904e-05 0.14977947
000310 61 47 1c bc 50 43 4c be a3 b7 20 3e 51 79 f3 3a
       -0.009538502 -0.19947553 0.15695052 0.0018575584
000320 63 6f 57 bb 94 3f d0 bc 7f 10 b2 3e 45 60 23 3e
       -0.0032872788 -0.025420941 0.3477821 0.15954693
000330 6b 6a 3f 3e 07 a1 57 3e 0b 44 91 3b 86 6a c6 bd
       0.18692939 0.21057521 0.00443316 -0.096882865
000340 d1 c9 31 3e 6d 2e 11 3b 81 70 d6 b4 74 f2 7a 3c
       0.17362143 0.0022152916 -3.9942464e-07 0.015316594
000350 d7 db 43 bd 71 42 40 3c 4b 2d f0 3c d9 44 93 3b
       -0.047817077 0.011734591 0.029318472 0.0044942913
000360 da 63 a1 3b 1d 0b 32 3b 66 54 32 3a c7 c3 e1 3d
       0.0049252333 0.0027167269 0.00068027375 0.1102367
000370 89 75 80 3a 85 2d 88 3c c4 cc 2f be 53 bd 06 3e
       0.0009800653 0.016623268 -0.17167956 0.13158159
000380 99 0c 01 00 48 f3 00 80 72 bd 01 80 15 0e 01 80
       9.6355e-41 -8.7273e-41 -1.59796e-40 -9.6887e-41
000390 94 ec 00 80 33 dd 00 00 ed 05 01 80 61 60 00 80
       -8.4868e-41 7.9351e-41 -9.3961e-41 -3.4574e-41
0003a0 26 29 00 00 aa 80 00 80 79 e2 00 80 b3 07 01 00
       1.4761e-41 -4.6156e-41 -8.1243e-41 9.4597e-41
0003b0 64 2b 01 80 8f 3d 01 00 67 cd 00 00 58 d3 00 80
       -1.07401e-40 1.13919e-40 7.3684e-41 -7.5816e-41
0003c0 b6 ca 00 00 6d 08 01 80 d8 3b 01 80 f4 b6 00 80
       7.2719e-41 -9.4858e-41 -1.13303e-40 -6.5631e-41
0003d0 8e 76 00 80 93 46 00 00 2b 6b 00 00 8f e0 00 80
       -4.253e-41 2.5317e-41 3.8445e-41 -8.0556e-41
0003e0 d0 41 00 00 09 45 01 80 4a 08 01 80 81 54 00 00
       2.3609e-41 -1.166e-40 -9.4809e-41 3.0314e-41
0003f0 0b d0 00 80 77 6b 00 80 fe 1f 00 00 04 09 00 80
       -7.4632e-41 -3.8551e-41 1.1477e-41 -3.234e-42

e_conv2.point_conv.bias f4 [32]
000000 63 34 a9 3d 3d 88 92 3d 2d 18 d4 3d e3 82 00 00
       0.08261945 0.07154892 0.10356174 4.6953e-41
000010 77 b6 1a 3e 8d c2 ae 3d 4f fc 5d bc 0c 66 00 80
       0.15108667 0.08533201 -0.013548925 -3.6608e-41
000020 79 79 92 3d 7d 9d d4 3d e9 90 0c 3c f1 5d 72 bd
       0.07152075 0.10381601 0.008579471 -0.05917162
000030 9b 21 a1 3b 99 cc 1a 3e 2e 00 eb 3d 77 c0 f4 12
       0.004917336 0.1511711 0.11474644 1.5446011e-27
000040 5a 38 3a b7 c0 ce 81 3c 9a c0 f3 3c 37 37 01 00
       -1.1099584e-05 0.015845656 0.029754926 1.11643e-40
000050 36 f2 84 bd 1f d4 97 bb 90 af 79 3c 41 b8 c2 3a
       -0.064915106 -0.004633441 0.015239611 0.0014855937
000060 71 88 5a 3d 1c 32 6f bb 3a 96 2b 3d 45 0c cc bd
       0.053352777 -0.0036498373 0.041891314 -0.09963278
000070 c4 fc 63 a3 85 8b 9e 9a 36 e3 64 3d 2e 81 b5 3d
       -1.235922e-17 -6.5572674e-23 0.055880748 0.0886253

e_conv3.depth_conv.weight f4 [32, 1, 3, 3]
000000 bc 2f 02 00 db e8 00 80 a8 85 00 00 aa 24 01 80
       2.00795e-40 -8.3533e-41 4.7947e-41 -1.04988e-40
000010 e1 94 01 00 cd ca 00 00 80 6d 01 80 a3 54 01 00
       1.45243e-40 7.2751e-41 -1.31117e-40 1.22197e-40
000020 30 d3 00 80 fe 3e 00 00 36 33 00 80 0f 22 01 00
       -7.576e-41 2.2597e-41 -1.8371e-41 1.04053e-40
000030 9c 7f 01 80 5b f3 01 80 26 b0 00 80 72 83 00 80
       -1.37613e-40 -1.79135e-40 -6.319e-41 -4.7154e-41
000040 39 b9 00 00 c0 4e 00 80 9d e5 00 80 f6 16 01 00
       6.6445e-41 -2.825e-41 -8.237e-41 1.00072e-40
000050 4e 85 01 00 b6 01 01 80 c2 41 00 80 82 12 02 80
       1.39656e-40 -9.2449e-41 -2.359e-41 -1.9031e-40
000060 b7 d4 00 80 24 4d 00 00 b9 d4 00 80 7f 01 00 80
       -7.6308e-41 2.7673e-41 -7.631e-41 -5.37e-43
000070 28 02 01 80 92 92 00 00 20 50 01 80 49 27 00 00
       -9.2609e-41 5.258e-41 -1.20579e-40 1.4093e-41
000080 63 59 00 00 68 2a 00 00 7f fd 00 80 b4 21 01 80
       3.2066e-41 1.5212e-41 -9.0937e-41 -1.03926e-40
000090 1e 06 01 00 1c 2e 00 80 a6 57 00 00 8d 0f 01 00
       9.403e-41 -1.6541e-41 3.1442e-41 9.7414e-41
0000a0 41 14 01 00 03 fb 00 80 5f e6 00 00 2c 4c 00 80
       9.9101e-41 -9.0046e-41 8.2642e-41 -2.7325e-41
0000b0 65 33 01 80 04 3c 01 80 e2 dc 01 00 b9 a8 00 80
       -1.10272e-40 -1.13365e-40 1.71073e-40 -6.0526e-41
0000c0 ed fb 00 00 df ad 01 00 3a 35 01 00 d4 2c 00 80
       9.0374e-41 1.54209e-40 1.1093e-40 -1.6081e-41
0000d0 ac 72 00 00 be 89 00 80 c2 03 00 00 65 2f 01 80
       4.1137e-41 -4.9413e-41 1.348e-42 -1.08837e-40
0000e0 05 14 02 80 8f 34 00 80 e7 4c 00 00 6b f1 00 00
       -1.90853e-40 -1.8854e-41 2.7587e-41 8.6604e-41
0000f0 1a 98 00 80 20 aa 01 00 2d 88 00 00 57 68 00 00
       -5.4564e-41 1.52865e-40 4.885e-41 3.743e-41
000100 3a 55 00 80 69 d5 00 00 c4 a3 00 80 98 84 01 80
       -3.0574e-41 7.6557e-41 -5.8748e-41 -1.39401e-40
000110 f5 70 01 00 ca 9e 00 80 30 1d 00 00 f0 f4 00 80
       1.32357e-40 -5.6963e-41 1.047e-41 -8.7867e-41
000120 f9 af 00 80 c3 4d 00 00 a7 dd 00 80 d1 9d 00 00
       -6.3127e-41 2.7896e-41 -7.9514e-41 5.6614e-41
000130 0b b7 00 00 41 f1 01 80 c2 20 00 00 d3 c3 00 80
       6.5663e-41 -1.78381e-40 1.1751e-41 -7.0248e-41
000140 27 33 01 00 b2 5a 01 80 6c f4 00 80 da fa 00 00
       1.10185e-40 -1.24371e-40 -8.7682e-41 8.9989e-41
000150 9f bd 01 00 db 9e 00 00 80 5d 00 80 2c 90 00 00
       1.59859e-40 5.6987e-41 -3.3541e-41 5.1719e-41
000160 48 3a 00 00 17 08 01 80 50 8b 01 80 fb b7 00 80
       2.0907e-41 -9.4738e-41 -1.41811e-40 -6.6e-41
000170 80 88 01 80 b4 15 00 80 b5 ae 01 80 7f 08 01 80
       -1.40802e-40 -7.786e-42 -1.54509e-40 -9.4883e-41
000180 35 1e 00 00 f2 19 01 00 ad 21 00 00 6d 98 01 80
       1.0836e-41 1.01143e-40 1.208e-41 -1.46516e-40
000190 f6 73 01 80 83 a9 00 80 23 01 01 00 96 46 01 80
       -1.33434e-40 -6.081e-41 9.2243e-41 -1.17157e-40
0001a0 37 03 00 00 6d 6b 01 00 0b 19 00 00 7d d2 00 00
       1.153e-42 1.30373e-40 8.984e-42 7.5509e-41
0001b0 b8 0e 01 80 3b 41 00 00 dc 32 00 80 2f 84 00 80
       -9.7116e-41 2.34e-41 -1.8245e-41 -4.7419e-41
0001c0 29 18 00 80 41 0a 01 00 47 ba 01 00 f3 33 01 00
       -8.667e-42 9.5514e-41 1.58659e-40 1.10471e-40
0001d0 25 50 01 00 d8 15 00 00 cf 35 01 80 b9 40 01 80
       1.20586e-40 7.836e-42 -1.11138e-40 -1.15054e-40
0001e0 0e 24 01 00 9a 19 01 00 68 8c 00 00 80 24 00 00
       1.0477e-40 1.0102e-40 5.0368e-41 1.3094e-41
0001f0 27 2f 00 80 b3 52 00 80 7d ab 01 00 44 df 00 00
       -1.6915e-41 -2.9667e-41 1.53354e-40 8.0093e-41
000200 74 4e 00 80 a1 e9 00 00 7e 95 00 00 1e 8f 00 00
       -2.8144e-41 8.381e-41 5.3628e-41 5.1341e-41
000210 8a de 00 00 b1 17 02 00 58 0f 00 80 73 e6 00 80
       7.9832e-41 1.9217e-40 -5.504e-42 -8.267e-41
000220 fb 2a 01 00 41 77 01 80 05 9a 00 00 e4 da 00 00
       1.07254e-40 -1.34616e-40 5.5252e-41 7.8523e-41
000230 03 1c 00 80 4e 5e 01 80 5f 7e 00 00 49 ed 00 80
       -1.0049e-41 -1.25666e-40 4.5333e-41 -8.5122e-41
000240 ed 24 01 00 05 dc 00 80 02 d3 00 80 a9 8e 00 80
       1.05082e-40 -7.8928e-41 -7.5695e-41 -5.1177e-41
000250 04 7f 00 00 c2 31 01 00 43 c8 01 00 92 47 00 80
       4.5565e-41 1.09685e-40 1.63676e-40 -2.5675e-41
000260 7c 0e 01 00 eb fb 00 00 d2 29 00 80 e3 12 02 00
       9.7032e-41 9.0371e-41 -1.5002e-41 1.90446e-40
000270 7d 61 01 80 b3 79 00 00 f0 e6 00 00 91 93 01 00
       -1.26808e-40 4.3657e-41 8.2845e-41 1.44772e-40
000280 ac 39 01 00 4c 9a 00 80 ce 04 01 80 71 40 01 00
       1.12524e-40 -5.5351e-41 -9.3559e-41 1.14953e-40
000290 7e 70 01 00 d7 2f 01 00 6f 18 00 00 b7 8f 00 80
       1.3219e-40 1.08997e-40 8.765e-42 -5.1555e-41
0002a0 6b 6b 01 80 36 11 01 80 78 34 00 00 76 4c 01 80
       -1.3037e-40 -9.801e-41 1.8822e-41 -1.19265e-40
0002b0 c9 84 00 80 dc f4 00 00 b6 0e 01 80 20 bb 00 00
       -4.7634e-41 8.7839e-41 -9.7113e-41 6.7128e-41
0002c0 28 ec 00 80 dc 82 01 80 c4 e7 00 00 f6 62 01 00
       -8.4717e-41 -1.38779e-40 8.3142e-41 1.27336e-40
0002d0 4c 28 00 00 ac e0 00 80 71 09 01 00 87 3b 00 80
       1.4456e-41 -8.0597e-41 9.5222e-41 -2.1354e-41
0002e0 08 2d 01 00 dc 03 00 80 fe df 00 80 71 2d 00 80
       1.0799e-40 -1.384e-42 -8.0353e-41 -1.6301e-41
0002f0 d0 1c 01 80 f4 a2 00 80 14 b7 00 80 5c ee 00 00
       -1.02171e-40 -5.8457e-41 -6.5676e-41 8.5507e-41
000300 29 23 00 80 81 ec 00 00 3f 77 00 80 24 bc 00 80
       -1.2613e-41 8.4842e-41 -4.2777e-41 -6.7492e-41
000310 51 10 01 80 7b 41 01 00 23 25 00 80 f6 ef 00 00
       -9.7689e-41 1.15325e-40 -1.3322e-41 8.6082e-41
000320 0a 8e 00 00 30 3e 00 00 91 8d 01 80 c6 ea 00 80
       5.0954e-41 2.2309e-41 -1.4262e-40 -8.4221e-41
000330 3e 82 01 00 cf 64 00 80 61 c6 00 00 77 e9 00 00
       1.38558e-40 -3.6163e-41 7.1165e-41 8.3751e-41
000340 2f fc 00 80 77 45 00 80 dc 20 00 00 c4 db 00 80
       -9.0466e-41 -2.4919e-41 1.1788e-41 -7.8837e-41
000350 70 75 00 80 b5 51 01 80 25 88 00 80 bd 6a 00 80
       -4.2129e-41 -1.21146e-40 -4.884e-41 -3.829e-41
000360 aa 2e 01 00 86 88 00 80 94 e6 00 80 4d ca 00 00
       1.08575e-40 -4.8975e-41 -8.2716e-41 7.2572e-41
000370 72 79 00 80 bd d5 00 00 ad 43 01 00 d0 3f 01 80
       -4.3566e-41 7.6675e-41 1.16113e-40 -1.14727e-40
000380 0d 13 00 80 20 a7 00 80 06 c7 00 80 45 e3 00 00
       -6.834e-42 -5.9953e-41 -7.1396e-41 8.1529e-41
000390 29 56 01 80 b9 c7 00 00 9a 88 00 80 c7 2e 00 80
       -1.22744e-40 7.1647e-41 -4.9003e-41 -1.678e-41
0003a0 70 46 00 80 2d b9 01 80 0f fb 00 00 5a a4 00 80
       -2.5268e-41 -1.58264e-40 9.0063e-41 -5.8958e-41
0003b0 a6 25 00 00 6b c3 00 80 c1 48 01 00 50 4e 00 00
       1.3506e-41 -7.0103e-41 1.17935e-40 2.8093e-41
0003c0 3e 41 00 80 79 75 00 80 26 a5 00 80 8c 10 01 80
       -2.3404e-41 -4.2141e-41 -5.9244e-41 -9.7771e-41
0003d0 a2 6e 00 80 00 03 02 80 b3 1a 00 00 31 a5 00 00
       -3.9688e-41 -1.84747e-40 9.578e-42 5.926e-41
0003e0 d8 79 00 00 21 6d 01 00 05 b8 01 00 72 f0 00 80
       4.371e-41 1.30984e-40 1.57849e-40 -8.6256e-41
0003f0 67 5c 00 80 95 42 01 00 16 0e 01 00 e3 e6 00 00
       -3.3148e-41 1.1572e-40 9.6889e-41 8.2827e-41

e_conv3.depth_conv.bias f4 [32]
000000 0b 75 01 00 d0 15 01 80 67 2c 00 00 71 5a 00 80
       1.33823e-40 -9.966e-41 1.5929e-41 -3.2444e-41
000010 ee 2a 01 00 2c ff 00 80 6d 29 00 80 79 1c 00 00
       1.07236e-40 -9.1538e-41 -1.4861e-41 1.0214e-41
000020 6e 45 00 80 80 7c 00 80 33 65 01 00 15 aa 00 80
       -2.4907e-41 -4.4662e-41 1.28139e-40 -6.1014e-41
000030 74 5e 00 00 0f d0 00 00 de 8e 00 00 9c c8 00 80
       3.3883e-41 7.4637e-41 5.1251e-41 -7.1965e-41
000040 9e cd 01 00 db 94 01 00 26 2d 01 80 fb 2d 00 80
       1.65597e-40 1.45235e-40 -1.08032e-40 -1.6495e-41
000050 72 b4 01 00 bc ff 00 00 72 f0 00 80 84 ed 00 00
       1.56567e-40 9.174e-41 -8.6256e-41 8.5205e-41
000060 b9 b7 00 00 ae 1e 01 00 dd 36 01 00 61 b3 00 80
       6.5907e-41 1.02841e-40 1.11517e-40 -6.4349e-41
000070 a9 b6 00 80 1a 36 00 00 60 0c 00 80 0f 07 00 00
       -6.5526e-41 1.9408e-41 -4.44e-42 2.532e-42

e_conv3.point_conv.weight f4 [32, 32, 1, 1]
000000 89 4d 00 00 f5 49 01 00 dd 92 00 00 c8 c9 00 80
       2.7814e-41 1.18366e-40 5.2685e-41 -7.2385e-41
000010 8a a7 00 80 23 36 00 80 b4 47 01 80 62 08 01 80
       -6.0102e-41 -1.942e-41 -1.17558e-40 -9.4843e-41
000020 05 95 01 00 63 22 01 00 a2 84 00 80 05 80 00 80
       1.45294e-40 1.04171e-40 -4.758e-41 -4.5925e-41
000030 c6 d6 00 00 81 f0 00 00 36 0c 01 80 72 5a 00 00
       7.7046e-41 8.6277e-41 -9.6216e-41 3.2446e-41
000040 6e 32 01 00 74 6c 00 80 dc 0b 01 80 6e d8 01 00
       1.09926e-40 -3.8906e-41 -9.609e-41 1.69476e-40
000050 14 70 00 00 e8 c9 00 00 25 67 00 00 34 62 01 00
       4.0206e-41 7.243e-41 3.7001e-41 1.27064e-40
000060 a3 35 00 80 9e 3c 01 80 c5 c9 00 80 7b 00 00 80
       -1.9241e-41 -1.13581e-40 -7.2381e-41 -1.72e-43
000070 80 ad 00 80 cc 05 01 80 4c 02 00 00 03 42 01 80
       -6.224e-41 -9.3915e-41 8.24e-43 -1.15516e-40
000080 11 1d 01 80 c4 07 00 80 bb 0b 01 00 f1 1b 00 00
       -1.02263e-40 -2.786e-42 9.6044e-41 1.0023e-41
000090 74 d2 00 80 7c 6e 01 00 e5 69 01 80 89 00 00 80
       -7.5496e-41 1.3147e-40 -1.29823e-40 -1.92e-43
0000a0 00 e1 00 00 25 6b 00 00 c2 76 01 00 e4 ae 01 80
       8.0715e-41 3.8436e-41 1.34438e-40 -1.54574e-40
0000b0 8c aa 00 00 fe ab 00 00 89 06 00 00 af 61 00 00
       6.118e-41 6.1699e-41 2.344e-42 3.5042e-41
0000c0 91 b0 01 00 38 d2 01 00 e6 bd 01 00 d0 e4 00 80
       1.55176e-40 1.67248e-40 1.59958e-40 -8.2082e-41
0000d0 77 af 01 00 90 08 01 00 b3 b1 01 00 61 58 01 00
       1.5478e-40 9.4907e-41 1.55582e-40 1.2354e-40
0000e0 95 4d 00 00 b4 88 00 80 14 79 00 00 82 06 02 00
       2.7831e-41 -4.904e-41 4.3435e-41 1.86006e-40
0000f0 b7 57 00 00 68 5a 00 80 c7 23 00 80 0f 10 02 00
       3.1466e-41 -3.2432e-41 -1.2834e-41 1.89432e-40
000100 d8 17 00 00 36 27 00 80 6a cd 01 80 4b fc 00 80
       8.554e-42 -1.4066e-41 -1.65524e-40 -9.0506e-41
000110 d9 5c 01 80 28 5f 00 80 54 bd 01 00 e8 ae 01 00
       -1.25143e-40 -3.4136e-41 1.59754e-40 1.5458e-40
000120 0d bd 00 00 82 44 00 00 1e 9a 01 00 59 8a 00 80
       6.7819e-41 2.4576e-41 1.47122e-40 -4.963e-41
000130 f6 88 00 80 de 25 00 00 3b 15 01 00 03 1d 01 00
       -4.9132e-41 1.3584e-41 9.9452e-41 1.02243e-40
000140 58 e5 01 80 04 08 02 80 9d 60 01 00 e2 66 01 80
       -1.74109e-40 -1.86546e-40 1.26494e-40 -1.28743e-40
000150 3e a6 01 80 bd 2e 01 80 7a db 01 80 40 3e 01 80
       -1.51472e-40 -1.08602e-40 -1.70569e-40 -1.14167e-40
000160 c6 5d 01 00 db ad 00 80 48 7e 01 80 69 b3 01 00
       1.25475e-40 -6.2368e-41 -1.37137e-40 1.56196e-40
000170 e1 b8 00 00 9d c2 00 00 2e 14 00 00 82 ab 00 80
       6.6322e-41 6.9814e-41 7.239e-42 -6.1525e-41
000180 a7 9e 01 80 30 1d 00 00 9e 6e 00 80 5e 38 01 00
       -1.48749e-40 1.047e-41 -3.9682e-41 1.12056e-40
000190 4b e0 01 00 cd f0 00 80 fb 3c 01 00 a7 09 00 00
       1.72297e-40 -8.6383e-41 1.13711e-40 3.463e-42
0001a0 a6 9b 01 00 cf 25 01 00 62 db 00 80 ed 0b 00 00
       1.47672e-40 1.05399e-40 -7.87e-41 4.278e-42
0001b0 f2 19 00 00 d0 0a 01 00 be 7e 00 00 ba 72 01 00
       9.307e-42 9.5714e-41 4.5467e-41 1.32992e-40
0001c0 65 01 01 00 03 58 01 00 47 8f 01 00 b6 3c 00 80
       9.2336e-41 1.23408e-40 1.43234e-40 -2.1779e-41
0001d0 94 2e 01 00 91 bf 00 80 fd e6 00 00 18 35 01 80
       1.08545e-40 -6.8721e-41 8.2863e-41 -1.10882e-40
0001e0 79 0a 00 00 84 67 01 00 82 c8 01 00 83 9a 00 80
       3.757e-42 1.2897e-40 1.63764e-40 -5.5428e-41
0001f0 1e 5d 01 80 6b 16 01 00 4b 6b 01 80 46 32 01 80
       -1.2524e-40 9.9878e-41 -1.30325e-40 -1.0987e-40
000200 21 b0 00 80 7a 06 00 80 10 34 01 00 7e 89 00 80
       -6.3183e-41 -2.323e-42 1.10512e-40 -4.9323e-41
000210 d4 f7 00 00 37 27 01 80 a5 fb 00 80 7a e1 00 80
       8.8904e-41 -1.05903e-40 -9.0273e-41 -8.0886e-41
000220 33 bd 00 00 df 06 01 80 c5 43 01 00 41 de 00 00
       6.7872e-41 -9.43e-41 1.16147e-40 7.973e-41
000230 35 5b 00 80 28 39 01 00 28 29 01 00 32 22 00 00
       -3.2719e-41 1.12339e-40 1.066e-40 1.2267e-41
000240 4e 85 01 00 b8 34 01 80 70 14 00 00 9b ad 01 00
       1.39656e-40 -1.10747e-40 7.332e-42 1.54113e-40
000250 94 d6 00 00 5b 4b 01 80 72 41 01 80 eb 57 00 80
       7.6976e-41 -1.18868e-40 -1.15313e-40 -3.1539e-41
000260 cd 0a 01 00 ac 69 00 80 ca 1f 01 80 db 89 01 80
       9.571e-41 -3.7908e-41 -1.03239e-40 -1.41289e-40
000270 6e 8e 00 00 e6 74 00 00 61 68 00 00 36 fd 00 00
       5.1094e-41 4.1935e-41 3.7444e-41 9.0835e-41
000280 01 71 00 80 19 ab 00 80 40 9a 00 00 26 4b 00 00
       -4.0538e-41 -6.1378e-41 5.5334e-41 2.6958e-41
000290 d7 f8 00 00 39 03 01 00 27 23 01 00 f1 88 00 00
       8.9267e-41 9.2992e-41 1.04446e-40 4.9125e-41
0002a0 53 ec 00 80 0d 7c 00 00 33 ae 01 80 98 71 01 00
       -8.4777e-41 4.4501e-41 -1.54326e-40 1.32585e-40
0002b0 72 de 00 00 16 06 01 80 96 0c 01 00 49 c9 01 80
       7.9798e-41 -9.4019e-41 9.635e-41 -1.64043e-40
0002c0 9a c1 00 00 f1 2a 01 00 df 5b 00 00 ff c6 00 80
       6.9451e-41 1.0724e-40 3.2957e-41 -7.1386e-41
0002d0 50 bc 00 80 8c c9 00 00 22 5f 00 00 ee 69 00 80
       -6.7554e-41 7.2301e-41 3.4127e-41 -3.8e-41
0002e0 74 3b 00 00 f0 cc 01 00 3c d1 00 80 f2 58 00 00
       2.1328e-41 1.65353e-40 -7.5059e-41 3.1908e-41
0002f0 1f 98 00 80 cf f7 00 80 35 69 01 80 60 fd 00 80
       -5.4571e-41 -8.8897e-41 -1.29577e-40 -9.0894e-41
000300 ab c1 01 00 e0 ef 00 80 f6 8f 01 80 2e b4 00 00
       1.6131e-40 -8.6051e-41 -1.43479e-40 6.4636e-41
000310 31 a8 00 00 57 62 00 00 ec 76 01 00 37 7a 00 80
       6.0336e-41 3.5278e-41 1.34497e-40 -4.3842e-41
000320 1e f7 00 00 61 ed 00 80 7c 11 01 80 9b 01 01 00
       8.8649e-41 -8.5156e-41 -9.8108e-41 9.2411e-41
000330 50 4c 00 00 91 e6 00 80 3e 7b 01 80 a6 0a 00 00
       2.7376e-41 -8.2712e-41 -1.36046e-40 3.82e-42
000340 de 75 01 00 36 95 00 80 e7 25 00 00 17 21 00 00
       1.34118e-40 -5.3527e-41 1.3597e-41 1.187e-41
000350 53 b7 01 00 f6 f4 00 80 36 25 00 00 02 98 01 00
       1.576e-40 -8.7875e-41 1.3349e-41 1.46366e-40
000360 9b 6b 01 00 11 a2 00 80 59 8d 00 00 35 8a 01 00
       1.30437e-40 -5.8138e-41 5.0706e-41 1.41415e-40
000370 da 24 00 00 14 5d 01 80 66 f2 00 00 ef 13 02 00
       1.322e-41 -1.25226e-40 8.6956e-41 1.90822e-40
000380 23 3a 01 00 1c 3a 00 00 a9 84 01 00 67 86 00 00
       1.12691e-40 2.0846e-41 1.39425e-40 4.8214e-41
000390 24 3b 00 80 17 53 00 00 cf e3 01 80 9d 83 00 00
       -2.1216e-41 2.9807e-41 -1.73558e-40 4.7214e-41
0003a0 25 56 00 80 45 1e 00 00 f5 89 00 80 85 17 00 80
       -3.0903e-41 1.0859e-41 -4.949e-41 -8.437e-42
0003b0 79 a2 00 80 1a af 01 80 24 a6 00 00 48 20 00 00
       -5.8284e-41 -1.5465e-40 5.96e-41 1.158e-41
0003c0 1d 23 00 00 fd 99 01 00 b3 7e 00 80 94 b7 01 00
       1.2596e-41 1.47076e-40 -4.5451e-41 1.57691e-40
0003d0 ca 91 01 00 98 ea 00 80 68 d5 01 80 62 3f 00 00
       1.44135e-40 -8.4156e-41 -1.68391e-40 2.2737e-41
0003e0 e7 06 00 80 45 43 01 00 a0 38 01 80 85 0b 01 80
       -2.476e-42 1.15967e-40 -1.12149e-40 -9.5968e-41
0003f0 ca e8 00 00 80 8f 01 80 4d 6d 01 00 72 6b 01 00
       8.3509e-41 -1.43314e-40 1.31045e-40 1.3038e-40

e_conv3.point_conv.bias f4 [32]
000000 c2 ae 00 00 6c b8 00 80 85 e0 00 80 03 c4 00 00
       6.2691e-41 -6.6158e-41 -8.0542e-41 7.0316e-41
000010 ff 45 01 80 1e 72 00 80 92 21 00 00 32 4e 00 80
       -1.16945e-40 -4.0938e-41 1.2043e-41 -2.8051e-41
000020 7a e7 01 80 e2 08 01 00 60 7a 00 80 b0 6e 00 00
       -1.74874e-40 9.5022e-41 -4.39e-41 3.9707e-41
000030 7e 78 00 80 1d 35 01 00 20 26 00 80 c9 7d 01 80
       -4.3224e-41 1.10889e-40 -1.3677e-41 -1.36959e-40
000040 39 8f 01 00 da 6c 00 80 9d a1 01 80 42 ed 00 00
       1.43214e-40 -3.9049e-41 -1.49811e-40 8.5112e-41
000050 b8 70 00 00 24 bf 00 80 bf 2a 01 80 55 2a 00 00
       4.0436e-41 -6.8568e-41 -1.0717e-40 1.5186e-41
000060 92 32 00 00 0b 32 01 80 81 ef 00 80 87 6d 01 00
       1.8141e-41 -1.09788e-40 -8.5918e-41 1.31127e-40
000070 0a 20 01 80 a9 91 01 00 39 07 00 00 94 d6 01 80
       -1.03329e-40 1.44089e-40 2.591e-42 -1.68812e-40

e_conv4.depth_conv.weight f4 [32, 1, 3, 3]
000000 71 de 00 80 81 6e 01 00 88 dd 00 80 00 05 00 80
       -7.9797e-41 1.31477e-40 -7.947e-41 -1.794e-42
000010 4a 83 00 00 e4 8e 01 80 9e 05 01 00 4c 4e 01 80
       4.7098e-41 -1.43095e-40 9.385e-41 -1.19923e-40
000020 8d 85 01 00 c1 53 00 00 56 70 00 00 57 61 01 00
       1.39744e-40 3.0045e-41 4.0299e-41 1.26754e-40
000030 32 39 01 00 60 b8 01 00 a6 9c 00 80 1a 55 01 80
       1.12353e-40 1.57977e-40 -5.6195e-41 -1.22364e-40
000040 35 03 00 80 4e f9 01 00 4d 32 00 00 7f 8f 00 80
       -1.15e-42 1.81269e-40 1.8045e-41 -5.1477e-41
000050 95 02 00 80 c3 19 00 80 63 54 01 00 11 23 00 80
       -9.26e-43 -9.242e-42 1.22108e-40 -1.258e-41
000060 67 10 00 80 2c 78 01 80 9f 66 00 80 1f ba 00 00
       -5.884e-42 -1.34945e-40 -3.6814e-41 6.6768e-41
000070 7e 00 01 80 31 55 01 80 01 60 00 80 26 33 00 00
       -9.2012e-41 -1.22396e-40 -3.444e-41 1.8349e-41
000080 c6 80 01 00 a9 dd 01 00 1d 01 01 00 ed 22 00 80
       1.38031e-40 1.71352e-40 9.2235e-41 -1.2529e-41
000090 a1 70 00 00 e1 15 01 80 7a 92 01 00 ab 74 01 80
       4.0404e-41 -9.9684e-41 1.44381e-40 -1.33688e-40
0000a0 08 2b 00 80 e3 58 01 80 6d 1b 02 00 cf e9 00 80
       -1.5437e-41 -1.23722e-40 1.9351e-40 -8.3875e-41
0000b0 7e 43 01 00 64 33 01 00 50 33 01 80 9e 36 01 80
       1.16047e-40 1.10271e-40 -1.10243e-40 -1.11428e-40
0000c0 96 58 00 80 08 19 01 80 9a f4 01 80 93 ff 00 00
       -3.1779e-41 -1.00815e-40 -1.79582e-40 9.1683e-41
0000d0 c2 49 00 80 a6 63 01 00 0b fe 00 80 39 5b 00 00
       -2.646e-41 1.27583e-40 -9.1133e-41 3.2725e-41
0000e0 b8 9e 00 80 fa 07 00 00 32 7c 00 80 bd e6 00 80
       -5.6938e-41 2.861e-42 -4.4553e-41 -8.2773e-41
0000f0 35 97 01 80 20 e4 00 00 32 3b 01 00 bd 4a 00 80
       -1.46078e-40 8.1836e-41 1.13071e-40 -2.6811e-41
000100 9c 07 00 80 2d fd 00 00 d2 23 00 80 e9 86 00 80
       -2.73e-42 9.0822e-41 -1.285e-41 -4.8397e-41
000110 d2 c9 01 00 01 27 01 00 76 7d 01 00 b9 d3 00 80
       1.64235e-40 1.05827e-40 1.36842e-40 -7.5952e-41
000120 66 df 00 00 7e 22 00 80 f0 d9 00 80 c2 14 00 00
       8.014e-41 -1.2373e-41 -7.8181e-41 7.447e-42
000130 88 5f 01 00 4c 37 00 80 79 3c 01 00 21 32 01 80
       1.26106e-40 -1.9837e-41 1.13529e-40 -1.09818e-40
000140 e4 f9 00 80 60 6a 00 00 8f 03 01 80 e9 2c 00 00
       -8.9644e-41 3.816e-41 -9.3112e-41 1.6111e-41
000150 7c 36 00 80 c5 ab 00 00 eb fb 00 80 d7 ae 00 80
       -1.9545e-41 6.1619e-41 -9.0371e-41 -6.2721e-41
000160 fa 0e 01 80 5f 02 02 80 4f 4a 00 80 d6 09 02 80
       -9.7208e-41 -1.84522e-40 -2.6657e-41 -1.872e-40
000170 40 68 01 00 5a f6 00 00 e4 83 00 80 70 36 00 80
       1.29233e-40 8.8374e-41 -4.7313e-41 -1.9528e-41
000180 6a 0c 02 00 0a 17 01 80 07 10 00 00 cc 95 00 80
       1.88124e-40 -1.001e-40 5.75e-42 -5.3737e-41
000190 dc 17 01 80 d9 a5 01 00 75 c7 01 00 d4 f7 01 80
       -1.00395e-40 1.5133e-40 1.63387e-40 -1.8074e-40
0001a0 85 01 01 80 e2 e8 01 00 93 18 00 80 47 31 01 80
       -9.238e-41 1.75378e-40 -8.816e-42 -1.09513e-40
0001b0 7d 3c 01 00 f2 c8 00 00 e3 33 00 80 e5 39 01 80
       1.13535e-40 7.2086e-41 -1.8613e-41 -1.12604e-40
0001c0 e9 04 01 00 0c e7 00 80 1e 5d 00 80 ce 07 01 00
       9.3597e-41 -8.2884e-41 -3.3404e-41 9.4635e-41
0001d0 84 dc 00 80 e2 6a 00 80 a1 d6 01 80 d3 d3 00 80
       -7.9106e-41 -3.8342e-41 -1.6883e-40 -7.5988e-41
0001e0 68 0a 00 00 00 4e 00 80 1c 8a 01 00 d2 23 00 00
       3.733e-42 -2.7981e-41 1.4138e-40 1.285e-41
0001f0 25 29 01 80 08 5b 00 80 60 7e 01 00 28 ef 00 80
       -1.06595e-40 -3.2656e-41 1.3717e-40 -8.5793e-41
000200 e7 4d 00 00 c6 2c 00 00 9a 1c 01 00 e2 79 00 00
       2.7946e-41 1.6062e-41 1.02096e-40 4.3723e-41
000210 6d af 00 00 88 d5 00 00 bc de 01 80 41 e9 00 00
       6.2931e-41 7.66e-41 -1.71738e-40 8.3676e-41
000220 97 fa 00 00 7a 09 01 00 c3 fb 00 80 ec d6 00 80
       8.9895e-41 9.5235e-41 -9.0315e-41 -7.71e-41
000230 ee 67 01 00 26 0d 00 00 94 3f 01 80 f4 4f 01 00
       1.29118e-40 4.717e-42 -1.14643e-40 1.20517e-40
000240 12 cd 00 80 02 20 01 00 e0 bd 00 80 76 00 00 00
       -7.3565e-41 1.03318e-40 -6.8114e-41 1.65e-43
000250 66 89 01 00 3a aa 01 80 44 d7 01 80 58 0a 00 80
       1.41125e-40 -1.52901e-40 -1.69058e-40 -3.71e-42
000260 6d 11 01 80 dc 12 01 00 82 26 01 80 5c 17 01 00
       -9.8087e-41 9.8601e-41 -1.0565e-40 1.00215e-40
000270 9a bd 00 00 79 c8 00 00 d8 44 00 00 51 af 00 00
       6.8016e-41 7.1916e-41 2.4696e-41 6.2892e-41
000280 3b 7d 00 80 6d 7a 00 80 eb 82 01 00 79 ea 00 80
       -4.4924e-41 -4.3918e-41 1.388e-40 -8.4113e-41
000290 8c 68 00 00 92 3e 01 80 70 38 00 00 c6 0b 01 80
       3.7504e-41 -1.14281e-40 2.0246e-41 -9.6059e-41
0002a0 23 4e 01 00 51 07 00 80 2c 13 00 00 cb ef 00 00
       1.19866e-40 -2.625e-42 6.878e-42 8.6022e-41
0002b0 39 f9 00 80 ba 18 00 00 ae 59 01 80 66 e1 01 00
       -8.9404e-41 8.87e-42 -1.24007e-40 1.72693e-40
0002c0 0a f3 00 00 a8 ff 00 80 a9 56 00 80 f9 30 00 00
       8.7186e-41 -9.1712e-41 -3.1088e-41 1.7568e-41
0002d0 55 0e 01 00 2b 05 00 00 d4 1a 00 80 5a 82 01 80
       9.6977e-41 1.854e-42 -9.624e-42 -1.38597e-40
0002e0 11 d1 00 00 cd ca 01 00 4d 5d 00 80 43 4d 00 80
       7.4999e-41 1.64587e-40 -3.347e-41 -2.7716e-41
0002f0 8a dd 01 00 c4 45 01 80 70 aa 01 80 5f 82 00 80
       1.71309e-40 -1.16863e-40 -1.52977e-40 -4.6768e-41
000300 4b 76 01 00 c6 73 00 80 37 31 00 00 31 e7 00 00
       1.34271e-40 -4.1532e-41 1.7655e-41 8.2936e-41
000310 ab ea 00 80 4d 24 00 00 cc a8 00 00 f9 87 00 00
       -8.4183e-41 1.3022e-41 6.0553e-41 4.8778e-41
000320 eb 34 01 00 b1 f5 00 00 ed 2a 00 00 ea 94 01 80
       1.10819e-40 8.8137e-41 1.5399e-41 -1.45256e-40
000330 70 49 00 80 33 83 00 80 36 e6 00 80 94 28 00 00
       -2.6344e-41 -4.7065e-41 -8.2584e-41 1.4557e-41
000340 4c 80 01 00 60 4d 00 80 97 f1 00 80 0b a3 01 00
       1.3786e-40 -2.7757e-41 -8.6666e-41 1.50324e-40
000350 f2 a1 00 00 4e f8 00 80 6e a3 00 80 32 1a 01 80
       5.8095e-41 -8.9075e-41 -5.8628e-41 -1.01233e-40
000360 23 55 01 80 36 72 00 00 a6 83 00 00 21 74 00 80
       -1.22377e-40 4.0971e-41 4.7227e-41 -4.1659e-41
000370 c6 dd 00 00 54 15 00 80 d8 f8 00 80 c1 8d 00 00
       7.9557e-41 -7.651e-42 -8.9268e-41 5.0852e-41
000380 ff e0 00 80 18 4b 00 00 59 82 00 80 2c 71 01 80
       -8.0713e-41 2.6939e-41 -4.676e-41 -1.32434e-40
000390 dd 6e 00 00 48 2e 00 80 ce 36 00 00 5c e3 00 00
       3.977e-41 -1.6603e-41 1.966e-41 8.1561e-41
0003a0 58 01 01 00 a6 b2 01 80 fd 57 00 00 1c df 00 00
       9.2318e-41 -1.55922e-40 3.1564e-41 8.0037e-41
0003b0 15 81 00 80 68 9e 01 80 88 a0 00 00 e0 be 00 00
       -4.6306e-41 -1.48661e-40 5.7588e-41 6.8473e-41
0003c0 b0 3e 00 00 bd fd 00 80 69 be 00 80 74 e6 00 80
       2.2488e-41 -9.1024e-41 -6.8306e-41 -8.2671e-41
0003d0 c6 ce 00 00 e2 36 00 00 10 26 00 00 65 22 01 80
       7.4176e-41 1.9688e-41 1.3654e-41 -1.04174e-40
0003e0 c3 ad 01 00 48 a9 00 00 26 99 00 00 79 81 00 00
       1.5417e-40 6.0727e-41 5.494e-41 4.6446e-41
0003f0 34 e1 00 80 1c c1 00 80 e8 8f 01 80 5e 7d 00 80
       -8.0788e-41 -6.9275e-41 -1.4346e-40 -4.4973e-41

e_conv4.depth_conv.bias f4 [32]
000000 ef 1a 00 00 75 cd 00 80 90 46 00 80 9b 83 00 00
       9.662e-42 -7.3704e-41 -2.5313e-41 4.7211e-41
000010 38 93 00 80 b4 c1 00 00 fe 6e 00 00 ca 85 00 80
       -5.2812e-41 6.9488e-41 3.9816e-41 -4.7994e-41
000020 a5 0a 01 00 4a d9 00 00 87 ae 00 80 55 31 00 00
       9.5654e-41 7.7949e-41 -6.2609e-41 1.7697e-41
000030 a0 ab 01 80 02 63 00 80 95 f8 00 00 29 11 01 80
       -1.53403e-40 -3.5517e-41 8.9174e-41 -9.7991e-41
000040 e5 ce 00 80 63 88 00 80 fa 7d 01 00 8c 8f 01 00
       -7.422e-41 -4.8926e-41 1.37027e-40 1.4333e-40
000050 97 c6 00 80 2e fa 00 00 1a 66 01 80 21 06 01 00
       -7.124e-41 8.9748e-41 -1.28463e-40 9.4034e-41
000060 2a 24 01 00 4c 3a 01 80 c7 69 01 80 5b 53 01 00
       1.04809e-40 -1.12748e-40 -1.29781e-40 1.21738e-40
000070 df 6a 00 80 0f 59 01 00 b7 f3 00 00 8d 44 00 80
       -3.8338e-41 1.23784e-40 8.7428e-41 -2.4591e-41
