Zero-DCE++/snapshots_Zero_DCE++/Epoch70.pth (torch, 51217 bytes, 28 tensors)

e_conv1.depth_conv.weight f4 [3, 1, 3, 3]
00000000: bcaf b3be 8d79 33be e8e6 973b ac51 2abe
00000010: ba85 dc3d 812c d63d 8cf1 d2be 9e12 2ebe
00000020: 5249 40bd 5562 4e3e 8b2b 2b3e e546 ad3e
00000030: 0f38 383e 95fe cf3c 6f6a 693e 4213 ad3d
00000040: 2eb6 bc3c 0994 5c3e 5b4a 293d a83e 1fbd
00000050: 4342 12be d435 07bd ea6a 8fbd 3842 f0bd
00000060: d6cc c0bd c023 33be 1e72 a8be
-0.35095012 -0.17526837 0.0046356805 -0.16632718 0.10767694 0.10457707 -0.4119991 -0.1699929
-0.046944924 0.20154698 0.16715829 0.3384315 0.17990135 0.025389949 0.22794507 0.08450939
0.023036089 0.21540846 0.041330677 -0.038878113 -0.1428309 -0.03301032 -0.07002814 -0.1173138
-0.09414069 -0.17494106 -0.32899565

e_conv1.depth_conv.bias f4 [3]
00000000: b394 9a3d b188 9c3e a5f5 4dbd
0.075478934 0.30573037 -0.050283093

e_conv1.point_conv.weight f4 [32, 3, 1, 1]
00000000: 8dcb 273c 559b 353e d95d 923d 03ca 1fba
00000010: 0193 2dba 864a a3ba f6e5 0fba 269d b2b9
00000020: 9484 0639 5996 c03d 318f 02bf 2ff0 1b3e
00000030: 831e f51a ba51 461b 5e6a 201b 4c75 633c
00000040: 5362 b13d c2db ca3e 579b f83d 9eb3 9a3e
00000050: 6515 36be 93b3 8e2e a6af f8ae 1820 5e2e
00000060: dbae 553d babd f7bb ef9f c73d 49f7 563d
00000070: 8a2a a3bc 9d20 dabd 225e c73e 6cd8 0dbf
00000080: f8da a73e 8117 d1bb c9a6 2dbd 3505 583d
00000090: d552 423e c7b5 c5be 3ddb 2bbe 6683 81bd
000000a0: 1c1c 19be 1f00 033e 6cc1 0000 6f3b 0080
000000b0: 0c2f 0080 7fc9 b53c 3809 a13e 8c6a 853e
000000c0: 01ea 80be bf23 b73e 616d 8ebe 1185 13b5
000000d0: f458 76b7 99b0 84b4 2e37 c1bb 00b6 fe3a
000000e0: 9fc3 5dbc 5340 722f b98b c8b0 deef 1b2f
000000f0: f57f 0fbf d4a6 7bbd 9da9 adbe 5744 11b9
00000100: 18d3 6eba 4c23 f2ba cc68 2bbc f427 c03b
00000110: 7baf a13c daa8 8b38 b9e0 2bba 0b2a 9538
00000120: 4ad7 c185 0b7a ba86 2f20 9885 f53d 8407
00000130: 08d5 5f88 ef6f ee07 4013 43b8 d5b6 d7b9
00000140: 56b8 79b8 2b06 933e b777 05be aa49 8cbe
00000150: 2256 dd3c 6e03 ffbc 121f fe3a efc9 54b8
00000160: 21f0 9dba 56dc 5838 1f5f 803e 42a8 443c
00000170: 6b48 83bd 30a5 70be fbff df3e 9452 9cbe
0.010241401 0.17735036 0.07146806 -0.0006095471 -0.00066213316 -0.0012458123 -0.0005489284 -0.0003406789
0.00012828625 0.094036765 -0.5099974 0.15228342 1.0137892e-22 1.6404583e-22 1.3269259e-22 0.013882946
0.08661332 0.39620787 0.12139004 0.30215162 -0.17781599 6.489311e-11 -1.1308936e-10 5.050546e-11
0.05216871 -0.007560459 0.09747302 0.052481923 -0.019917745 -0.10650752 0.38939005 -0.5540836
0.32784247 -0.0063809757 -0.042395387 0.05273934 0.1897691 -0.38615248 -0.16782852 -0.063238904
-0.14952129 0.12793015 6.9387e-41 -2.1321e-41 -1.6877e-41 0.022190807 0.31452346 0.2605785
-0.2517853 0.3576946 -0.27817824 -5.4955404e-07 -1.4683454e-05 -2.4715408e-07 -0.0058964705 0.0019432902
-0.013535409 2.2032624e-10 -1.4591627e-09 1.4182386e-10 -0.5605462 -0.061438397 -0.33918467 -0.00013853736
-0.0009110435 -0.0018473654 -0.010461997 0.005864138 0.019736996 6.6594876e-05 -0.00065566186 7.112705e-05
-1.8228717e-35 -7.014475e-35 -1.4305834e-35 1.9897568e-34 -6.735704e-34 3.5876049e-34 -4.650955e-05 -0.00041144216
-5.9537902e-05 0.28715643 -0.13033949 -0.2739995 0.02701861 -0.031129565 0.0019387922 -5.0732804e-05
-0.0012049713 5.1703617e-05 0.25072572 0.012003006 -0.06410297 -0.23500514 0.43749985 -0.30531752

e_conv1.point_conv.bias f4 [32]
00000000: 80a5 02be b8a5 c0b8 9f9a 29ba 0607 123f
00000010: 4ba2 1b9b 0c83 a33d d291 843e b769 25ae
00000020: 16c2 7b3d e147 94bc 8f35 d13e 5cbb ea3e
00000030: ec66 b73e 6e06 9c3e a0f4 0000 b548 f73e
00000040: 1ad0 fabc 5125 54b8 c491 21bc a394 83b0
00000050: 48ab d13e 9f12 d339 849a a53e 74bf e7b9
00000060: b02d 7986 6e5b a987 bb68 e0b9 149c 9c3e
00000070: 1cde 1f3d b199 17bb db6e 063f 5f28 a4bd
-0.12758446 -9.186141e-05 -0.0006469879 0.57041967 -1.2873739e-22 0.079839796 0.25892502 -3.761055e-11
0.06146439 -0.01810068 0.40861174 0.4584607 0.3582071 0.30473655 8.7755e-41 0.4829766
-0.030616809 -5.0579492e-05 -0.009861413 -9.57375e-10 0.4095099 0.0004025893 0.3234445 -0.00044202397
-4.686526e-35 -2.5482031e-34 -0.0004280264 0.30587828 0.03903018 -0.0023132379 0.525129 -0.08015513

e_conv2.depth_conv.weight f4 [32, 1, 3, 3]
00000000: 26e6 44bc b838 76bc c39c 54bc 6457 aebc
00000010: 384e f9bc 4ce5 a8bc 3037 0dbd 5bb6 24bd
00000020: 5fbc d6bc 65c6 a4b8 6ffd 9db8 4fc1 f1b8
00000030: e59e 3fb8 6f2c 89b8 d278 d4b8 1f86 a4b8
00000040: f9e7 96b8 c863 acb8 dc20 de2b 5773 122d
00000050: ecc5 f52c 60a9 3bac c4e7 04ab aa36 ca2c
00000060: 8010 6aab f19a e6ac 70c9 c7ab 78fe 8dbe
00000070: 35e0 78be 58a1 4ebd 50cb e5bd e9a6 bc3d
00000080: bb33 6c3e 5cfd 883e baa9 b73b abd3 f13e
00000090: d1da 8719 ee18 2b99 b789 2d99 1347 2419
000000a0: 49fc 9098 a4a7 3819 3c38 d199 1352 ba19
000000b0: 695b e619 dd66 e33c ba8c 823d 3097 463c
000000c0: 1de9 563d fc0f f03d 8550 ea3c 2e89 59bd
000000d0: 6afa 2cbc cd0e 35be a4ac 9a3d 4451 e5bc
000000e0: 1aef 84be a7b3 5f3d de07 0c3e 2141 bebd
000000f0: 3161 f0bc 77de 27bc a948 9abe 2e11 b32d
00000100: 1bbd b02d 4410 a42d 7bc0 c02d c389 822d
00000110: 0020 ba2d 9fa3 a62d a259 bd2d f9bc bd2d
00000120: cc4a 983c 8c4f 743b 8278 11b9 947c 1a3c
00000130: a160 943a 6ff2 603b 6080 083c b6d9 653c
00000140: e02c f93c 97a0 103c 5a27 253b 8d03 9ebb
00000150: d099 353c dcc6 cd3a cf2f bdbb 6860 be3b
00000160: 763c 70bb fcb7 a8bb afc6 9a3e 5016 733e
00000170: 6e81 773e e980 763e 1d67 2cbd 8567 943e
00000180: 0526 943e 1835 cc3d 2771 d53d eafd 703e
00000190: 3bd7 20be ec8d 2f3e 50f8 9b3d cfc5 4cbe
000001a0: 2712 d6bd 9f56 853e ef96 8a3d 76f7 363e
000001b0: 36cc c43e 5fd2 013e 4acb 5b3e f3b7 913e
000001c0: 3f0a 3d3e 7b88 d03d 7b13 843e 9cbd 043e
000001d0: cb28 92bd b5bf b33c 3b2f 493d b9c4 ab3d
000001e0: ca7c ca3d 5217 d1bd e828 3d3e d794 82bd
000001f0: 2207 7f3d d20d c23e 5167 0080 6856 0180
00000200: 36be 0180 1132 0000 befe 0000 1a4a 0180
00000210: 4605 0000 4569 0100 18af 0080 9152 67bd
00000220: 9869 1b3e 6024 09be 4cf6 f63d adf2 4e3e
00000230: 189d 343e 198c 1abe 1b0a 91bd 822b bdbd
00000240: b74c cb3d 6fb2 623e f15c b33e 6a93 e43d
00000250: 86de 2d3d 704e fa3d 7f52 15be 602f 9fbd
00000260: 8c80 5abe 45a3 0080 3a0e 0100 cacf 0000
00000270: 1715 0180 fa27 0180 6e08 0100 b478 0080
00000280: 58e6 0080 e285 0000 3313 ca35 bb0c 9c35
00000290: 2e2a 6435 d8b7 3136 f13e 2036 2ef3 fb35
000002a0: 4b97 4636 9c49 3736 c0d0 1e36 7867 0cae
000002b0: 2f13 2dae 4119 48ad a39e 11ad 7469 d5ad
000002c0: 5e43 b3ad 98b5 bead 16f2 25ae 9fd5 20ae
000002d0: d460 93bd 230d 683e 1101 4ebe 4a21 a2be
000002e0: cea1 24bc 2ded 4c3d 2f58 adbe 3ce5 71be
000002f0: fd55 86be 4ce0 8a39 72f7 7c39 ec5d b139
00000300: d58b 2638 8958 a438 4136 0339 94b0 ccb7
00000310: 60a1 c6b7 36aa 27b9 b0d5 8ebd a38e b7bd
00000320: c541 3f3d 6ade bfbd bedb a4bd 5f5b b33a
00000330: 52a7 80bd da34 aabd 0ca5 a6bc 30ca 4108
00000340: 2d56 9788 b38b ca88 77eb f387 8815 ac88
00000350: 3d5a d005 15ce 2108 f107 2188 ce28 8788
00000360: 6e35 7903 31d4 2b03 bb52 ff83 22a7 ab03
00000370: dc0e 0f03 e9dc 9203 2f3c b803 456b ae03
00000380: 32ed ae03 2c04 6304 e019 5885 baf2 5385
00000390: 47db e403 94a3 5c85 4dbf c404 bc50 1185
000003a0: b74b 4885 b21a 1385 0e3f ae36 ea25 0937
000003b0: e41d cc36 b38d 1837 d598 f836 a0ce b636
000003c0: 3d7e 2136 04c5 1c37 8ad0 1037 24b7 a43e
000003d0: 2984 5a39 6180 6d3d 5d8f 6fbb 33dc f23c
000003e0: 0a23 663d 3781 b63c 1ebf 9dbc 400c 0fbd
000003f0: 1d4a ceba 55e7 36ba a5ef 56bb b9c4 c93a
-0.012017762 -0.015028171 -0.012976828 -0.021281905 -0.030432805 -0.02061715 -0.03447646 -0.04021297
-0.02621287 -7.857083e-05 -7.533549e-05 -0.00011527782 -4.568593e-05 -6.5409455e-05 -0.00010131452 -7.8451114e-05
-7.195766e-05 -8.220185e-05 1.5783169e-12 8.32475e-12 6.9852926e-12 -2.666832e-12 -4.721746e-13 5.7472542e-12
-8.31564e-13 -6.554195e-12 -1.4195711e-12 -0.27733207 -0.24304278 -0.05044684 -0.112204194 0.09211523
0.23066609 0.26755798 0.00560495 0.47231802 1.4047052e-23 -8.845527e-24 -8.971702e-24 8.4929546e-24
-3.747787e-24 9.546432e-24 -2.1632806e-23 1.9265099e-23 2.3818363e-23 0.02775901 0.06374498 0.012121007
0.052468408 0.11721799 0.028602848 -0.05310934 -0.01055775 -0.17681427 0.0755246 -0.027992852
-0.2596367 0.05461469 0.13674876 -0.09289766 -0.02934322 -0.010245911 -0.3013356 2.0357573e-11
2.0092863e-11 1.8651865e-11 2.1913351e-11 1.4840467e-11 2.1159963e-11 1.8944677e-11 2.1526617e-11 2.1570733e-11
0.018590353 0.003727886 -0.0001387317 0.009429116 0.0011320302 0.003432419 0.008331388 0.014028957
0.030416906 0.00882735 0.0025200457 -0.0048222006 0.011084035 0.0015699524 -0.0057735215 0.0058098324
-0.0036657131 -0.005148886 0.3022971 0.2373898 0.24170467 0.24072613 -0.042090524 0.2898523
0.28935257 0.09971064 0.10421973 0.2353436 -0.15707104 0.17143983 0.07615721 -0.19997333
-0.10452681 0.2604265 0.067670695 0.17867836 0.3843705 0.12677906 0.21464267 0.28460655
0.1846094 0.101822816 0.25796112 0.12962955 -0.07136687 0.021941999 0.049117308 0.08387131
0.09887083 -0.10209526 0.18472636 -0.06376045 0.06226266 0.3790117 -3.7063e-41 -1.22832e-40
-1.6007e-40 1.796e-41 9.1384e-41 -1.18418e-40 1.892e-42 1.29599e-40 -6.2812e-41 -0.056475226
0.15177 -0.13392782 0.12058696 0.20209761 0.17638052 -0.15092506 -0.070820056 -0.09236814
0.099267416 0.2213838 0.35031846 0.111609295 0.042448543 0.12221992 -0.14582251 -0.07772708
-0.21338099 -5.857e-41 9.6939e-41 7.454e-41 -9.9401e-41 -1.06176e-40 9.486e-41 -4.33e-41
-8.2632e-41 4.8028e-41 1.505576e-06 1.1626611e-06 8.4998e-07 2.6482066e-06 2.3878495e-06 1.8771732e-06
2.9592363e-06 2.7311971e-06 2.3665343e-06 -3.1924213e-11 -3.9352684e-11 -1.1374291e-11 -8.27752e-12 -2.4262127e-11
-2.0379861e-11 -2.1681143e-11 -3.7731672e-11 -3.656952e-11 -0.07196203 0.22661261 -0.20117594 -0.31666023
-0.010048343 0.050030876 -0.3385634 -0.23622602 -0.2623748 0.00026488525 0.00024124773 0.00033830048
3.9707713e-05 7.83662e-05 0.00012513345 -2.440092e-05 -2.3678585e-05 -0.0001598977 -0.069743514 -0.08962753
0.046693582 -0.09368594 -0.08049725 0.0013683847 -0.06281914 -0.08310862 -0.020342372 5.8316495e-34
-9.108242e-34 -1.2190276e-33 -3.670097e-34 -1.0356935e-33 1.9593374e-35 4.8691423e-34 -4.845851e-34 -8.13461e-34
7.3235858e-37 5.0495967e-37 -1.5006547e-36 1.00888485e-36 4.204098e-37 8.631827e-37 1.08283655e-36 1.0251429e-36
1.0281258e-36 2.6685637e-36 -1.0161024e-35 -9.965754e-36 1.3450979e-36 -1.0374395e-35 4.625506e-36 -6.832696e-36
-9.4178614e-36 -6.91681e-36 5.1929446e-06 8.174664e-06 6.0831535e-06 9.092898e-06 7.408768e-06 5.448077e-06
2.406435e-06 9.344196e-06 8.631623e-06 0.32170975 0.00020839334 0.05798376 -0.0036553957 0.029646015
0.05618576 0.022278411 -0.01925617 -0.034923792 -0.001573864 -0.000697722 -0.0032796648 0.0015393711

e_conv2.depth_conv.bias f4 [32]
00000000: 283d c53d d496 d7bd e1c9 bcb7 5870 5fbd
00000010: bcbb 22be 5948 463e ddde 9a3c 5c3d 093e
00000020: 1a98 833e 7bed 78be 6c4d 4d3c ae7d b7bd
00000030: 7c94 63be 15a0 51bd ed44 0d3e d4d3 533e
00000040: e1a2 2b3e d2ab 8fbc 1cb7 c1b6 65ef 283e
00000050: b786 873e 17d7 333e 28d9 d9bd 01e0 383e
00000060: e722 a1bd fafa 01bd c0da 933d 78dd 55be
00000070: 2a0b 86bd 9053 28be 5b53 adbd b7df 993e
0.09630805 -0.10526815 -2.2505354e-05 -0.0545505 -0.15891927 0.19363536 0.018905098 0.13402313
0.25701982 -0.24309342 0.012530666 -0.089595184 -0.22224611 -0.051178057 0.13795824 0.20686275
0.16761352 -0.017537985 -5.773165e-06 0.16497572 0.26469967 0.17562519 -0.106371224 0.180542
-0.07867985 -0.03173349 0.072194576 -0.20885265 -0.06545098 -0.16438127 -0.084631644 0.30053493

e_conv2.point_conv.weight f4 [32, 32, 1, 1]
00000000: 5c1d 3cbc f6f6 10bc d650 1cb8 e35b a43d
00000010: 48c2 653c b505 8ebd 15ad 8c3c 1254 cabc
00000020: 199e 5cbd d9fc 363c 84dc 613d b4b1 1a3d
00000030: 06ab 2c3e 1c54 0a3d 901c 39bc ac8a 01be
00000040: fa63 a93c 5ea3 1e3b b4c0 38b6 7873 3fbd
00000050: 7430 8e3e 52e0 a03c 3371 503d 9401 5fbd
00000060: ce56 ce39 3467 7d3b a2b2 4fbc 0a32 393d
00000070: ad50 873c 1146 db3c 8a05 19be 3f0d 81bb
00000080: 9ff8 6c3d 3f08 9abd a219 1137 7785 98bd
00000090: 9001 393c c42d 7a3d 530c 7b3c 9e73 c53c
000000a0: 9ad1 b53d f7b5 b7bd 0a89 9f3e 4597 583e
000000b0: 3efc 853e 2a1d f73d d0ae 6cbb 9877 f33d
000000c0: 0a12 f93d c775 abbb 614f e935 75fd 38bb
000000d0: 5e74 06bc 74ae 493d ecbc 04bb b4db da3d
000000e0: 9e20 65bc 7943 febb 7bb3 26bc 2eff 533e
000000f0: afa5 8fbd a58f fcbc 57a4 8bbe 8e97 e83d
00000100: 9281 0a3c 9c6e 48bc 32ad b135 67e8 ae3e
00000110: af10 aebb ab14 393d cf3b 113d 21ae f33b
00000120: 8098 84bc 14ec 49bd 8849 ffbd 0899 b2bd
00000130: 7a70 8dbe d0aa 123d e0db c937 13c6 103d
00000140: 8e07 803d a5be b3bb 7b8b 91b7 e855 d33c
00000150: dca8 62bc 1931 9f3c ba28 bfbb 6616 6e3d
00000160: 2ecd 5cbc db66 fbbb 96a8 863c 4f67 6fbe
00000170: 596f 7ebc 36e3 1dbd 40e6 af3d 8e91 9c3b
00000180: cb95 0000 3420 0180 c041 0180 bbf7 0080
00000190: bc1b 0100 c842 0000 5862 0000 a962 0100
000001a0: b5c6 0080 0f8e 0080 ca2d 0100 0710 0180
000001b0: 0e01 0180 fd0c 0180 7255 0000 5ba7 0080
000001c0: c34b 0000 9a4a 0180 5cd6 0100 c275 0000
000001d0: 8168 0000 c31c 0100 5f3e 0100 49d4 0000
000001e0: 9e0c 0100 3c38 0180 01a0 0080 a307 0080
000001f0: 52f5 0000 a545 0180 4ea9 0000 2dd5 0000
00000200: 1baf 873a 306d 7f3b 3c20 d636 ecc8 ccbc
00000210: e515 8a3c c276 af3d c0ef 05be 065d e13b
00000220: f589 4fbc 3589 03bd 8bf3 74bd 5e06 bcbc
00000230: f163 73bd 5007 3bbd 344a 7c3c 2d92 173e
00000240: cfaa a33c 2d60 51bb a199 d236 cc4c 0a3d
00000250: 4669 e23b eed4 65bb c743 17bc 4133 4bbc
00000260: 4507 55bc 95f6 80bb 2641 463c 1932 acbb
00000270: ed97 2cbc 5c0a 00bd 1020 ff3c aa68 9fbd
00000280: 9ca8 743c 0040 81bc f9d5 3537 7bac 24bc
00000290: f2b6 b3bc f99f f83c f729 ea3d 827f 913c
000002a0: b9e2 f93c f302 efbc 80ec 983d 71fa 40bd
000002b0: 17ad 323d c573 95bc 8689 993c cf0a 483d
000002c0: 18a2 523a 4a09 1bbb 5e7b 5e36 531b a23c
000002d0: 9e12 993d cc9b be3c 3e59 e1bc 36ab b93c
000002e0: ea3e 1cbc 31f3 75bb c50f 1b3c c247 b1ba
000002f0: 3ede 27bc 7f86 aabc 6347 703c c0a4 1b3e
00000300: 0b26 183c 4b37 783c b1d9 c436 23df 1c3e
00000310: 49b0 19bc d9bc 4abe 6e51 1e3e dbb5 ff3a
00000320: 36bb 3ebb 203e cdbc 07e9 b13e b2ce 213e
00000330: 71c5 3e3e 3f21 593e caff 903b a254 c5bd
00000340: 5c99 313e 65ef d53a 690b d8b6 6059 753c
00000350: d64a 42bd db0b 3d3c 994a e73c 7baa 943b
00000360: df12 903b 0b17 0d3b 48cd 4e3a daf0 e43d
00000370: c1ae 433a 881a 823c 99b1 30be 09cd 063e
00000380: 5c5b 0100 6afc 0080 75fa 0080 e03d 0180
00000390: 64e6 0080 15da 0000 e513 0000 dd6e 0100
000003a0: f8ad 0000 10eb 0000 7ac7 0080 62fd 0000
000003b0: 6014 0180 3a32 0100 b926 0100 9554 0000
000003c0: ea0c 0000 79e9 0000 2125 0280 330c 0180
000003d0: 1f68 0080 6022 0100 cc7c 0000 710f 0100
000003e0: 6d83 0080 f521 0000 903b 0180 1f04 0100
000003f0: aba7 0000 e026 0000 ac27 0000 422a 0000
-0.011481609 -0.008847943 -3.7268583e-05 0.080253385 0.014023371 -0.06934682 0.017172376 -0.024698291
-0.05386171 0.011168682 0.05514194 0.037767127 0.16862115 0.03377162 -0.011298314 -0.12650555
0.020677555 0.002420626 -2.7530305e-06 -0.04674098 0.27771342 0.019638214 0.050889205 -0.054444864
0.00039356056 0.003866625 -0.012676867 0.045213737 0.016517961 0.026766809 -0.14943519 -0.0039383466
0.05785429 -0.07521104 8.648642e-06 -0.074473314 0.011291876 0.0610788 0.015322763 0.024102982
0.08877869 -0.08970254 0.3115924 0.21151455 0.26169008 0.120661095 -0.0036114939 0.11888045
0.12161644 -0.005232546 1.7382955e-06 -0.0028227244 -0.008206455 0.049238637 -0.0020254208 0.10686436
-0.013984827 -0.007759508 -0.010174627 0.20702812 -0.070140235 -0.030830214 -0.2727382 0.11357032
0.0084537435 -0.012233403 1.3237934e-06 0.34161684 -0.0053120474 0.045185726 0.03545743 0.0074365293
-0.016185999 -0.049297407 -0.12465197 -0.08720595 -0.27624875 0.03580743 2.4063454e-05 0.03534515
0.06251441 -0.005485373 -1.7350298e-05 0.0257978 -0.0138342045 0.019432591 -0.0058337124 0.05812683
-0.013476653 -0.0076721734 0.01643781 -0.23379253 -0.015529477 -0.038546763 0.085888386 0.0047780937
5.3736e-41 -1.03388e-40 -1.15422e-40 -8.8869e-41 1.01785e-40 2.3957e-41 3.5279e-41 1.27228e-40
-7.1283e-41 -5.0961e-41 1.08262e-40 -9.7585e-41 -9.2214e-41 -9.6495e-41 3.0652e-41 -6.0036e-41
2.7178e-41 -1.18597e-40 1.68733e-40 4.2244e-41 3.7489e-41 1.02153e-40 1.1421e-40 7.6154e-41
9.6362e-41 -1.12009e-40 -5.7399e-41 -2.74e-42 8.8004e-41 -1.16819e-40 6.0735e-41 7.6473e-41
0.0010351868 0.0038974993 6.3814496e-06 -0.02499815 0.016856143 0.08567573 -0.13079739 0.0068775443
-0.012667169 -0.032113273 -0.059802573 -0.022952255 -0.059421483 -0.04566127 0.015398551 0.14801855
0.019978909 -0.0031948194 6.2763725e-06 0.033764645 0.006909522 -0.0035069543 -0.009232468 -0.012402357
-0.0130022215 -0.003935645 0.012100494 -0.0052549955 -0.010534269 -0.03125988 0.031143218 -0.07783635
0.014932778 -0.015777588 1.083826e-05 -0.010050888 -0.021937821 0.030349718 0.114337854 0.017760996
0.030503618 -0.029176211 0.07466984 -0.04711384 0.043622103 -0.01824368 0.018742334 0.048838433
0.0008035018 -0.002365666 3.3152387e-06 0.01978842 0.07474254 0.02326765 -0.027508374 0.022664648
-0.009536484 -0.0037528987 0.009464209 -0.0013525414 -0.010245858 -0.020816086 0.014665457 0.15199566
0.009286414 0.015149902 5.866598e-06 0.15319495 -0.009380409 -0.19798602 0.1546075 0.0019509153
-0.0029103286 -0.025054038 0.34748098 0.15801504 0.18630005 0.21204089 0.0044250237 -0.09635283
0.17343658 0.0016321955 -6.43863e-06 0.014974922 -0.04743465 0.011538471 0.028233813 0.0045369244
0.004396781 0.0021528627 0.00078888657 0.11178751 0.00074647 0.015881792 -0.17255248 0.13164152
1.24609e-40 -9.0549e-41 -8.9847e-41 -1.14032e-40 -8.2649e-41 7.8233e-41 7.137e-42 1.31606e-40
6.2408e-41 8.4325e-41 -7.1559e-41 9.0897e-41 -9.9145e-41 1.09853e-40 1.05727e-40 3.0342e-41
4.633e-42 8.3754e-41 -1.9699e-40 -9.6212e-41 -3.7352e-41 1.04167e-40 4.4769e-41 9.7375e-41
-4.7147e-41 1.2181e-41 -1.13202e-40 9.3314e-41 6.0148e-41 1.3946e-41 1.4232e-41 1.5159e-41

e_conv2.point_conv.bias f4 [32]
00000000: a7c8 a93d 0399 923d cf8d d63d 6b37 0000
00000010: 7731 1a3e 54cd ad3d 969a 59bc 1f29 0000
00000020: aff0 923d 1dbf cf3d 4874 0b3c 8a25 72bd
00000030: 4288 983b 1845 193e 59b1 f13d 26e5 8585
00000040: c691 6ab8 efad 833c a81b ed3c 3c93 0080
00000050: 5b90 85bd 9df3 8ebb a7b5 733c 5e0b 993a
00000060: b771 5b3d 77a4 0abb 9ec9 2a3d 340c cbbd
00000070: d41f 6914 f8ec ca8c ebf7 633d 513b b43d
0.082902245 0.07158091 0.104762666 1.988e-41 0.15057932 0.08486429 -0.013281485 1.4751e-41
0.07174813 0.10143874 0.00851161 -0.05911783 0.004654915 0.14967763 0.118014045 -1.2591436e-35
-5.592571e-05 0.016074149 0.028943852 -5.2818e-41 -0.06521674 -0.004362537 0.014874852 0.0011676361
0.053575244 -0.0021155158 0.041696183 -0.09914437 1.1769771e-26 -3.1265648e-31 0.055656355 0.08800376

e_conv3.depth_conv.weight f4 [32, 1, 3, 3]
00000000: 2248 0100 0e43 0080 083b 0080 9b5f 0000
00000010: feec 0000 9fca 0000 545b 0100 e544 0100
00000020: 7b40 0180 982a 0100 eb6d 0000 2e25 0180
00000030: 6617 0180 fe29 0180 622e 0180 39cf 0180
00000040: 0949 0000 7afa 0000 1800 0080 b746 0100
00000050: 9613 0100 9953 0080 ffcb 0080 1495 0080
00000060: 0c03 0080 96be 0080 640d 0080 0c8b 0080
00000070: 3518 0000 4731 0080 10f9 0080 f8d3 0000
00000080: 862f 0080 d7b5 0080 37cd 0180 1a0f 0080
00000090: fd31 0100 2cfd 0080 b659 0100 ef10 0080
000000a0: 041e 0080 8597 0000 9031 0100 eae6 0000
000000b0: d95c 0180 f331 0100 5a7a 0000 e953 0080
000000c0: fef1 0000 9cd8 0100 8420 0180 0134 0080
000000d0: 495c 0080 c90f 0280 f3e9 0000 4534 0080
000000e0: 522f 0180 e275 0080 1ca9 0000 8417 0000
000000f0: dacf 0000 e38d 0080 6f27 0100 43ca 0080
00000100: 8f42 0180 ea68 0000 5968 0080 a966 0100
00000110: d6aa 0080 bd1a 0280 0771 0080 624c 0080
00000120: e61b 0180 4cee 0000 b20a 0000 618a 0080
00000130: 473d 0100 a714 0080 fad6 0000 4886 0180
00000140: 6039 0180 a638 0180 0cc5 0080 9867 0080
00000150: bbf8 0000 3404 0100 9f3b 0100 089b 0000
00000160: c500 0000 7890 0080 8e6d 0080 e27a 0180
00000170: dbd9 0180 2359 0100 14fe 0180 4e38 0180
00000180: d464 0080 e0f8 0100 e8a0 0000 c3e6 0180
00000190: 0652 0180 396f 0000 d771 0100 57ec 0080
000001a0: 1137 0080 53bc 0100 a019 0000 4f63 0100
000001b0: 46e6 0000 28fe 0000 5708 0180 6c21 0180
000001c0: 09c0 0100 8c06 0080 7c7b 0100 3e2a 0000
000001d0: 64ff 0080 d1f5 0100 c219 0280 f71c 0180
000001e0: d55f 0100 d50b 0100 c82e 0080 dcde 0000
000001f0: 2731 0080 6d8a 0000 648f 0100 6ecb 0000
00000200: c468 0180 a12a 0000 0a21 0180 5c2d 0100
00000210: cfbf 0000 98a4 0000 06ae 0000 1ac8 0000
00000220: cb53 0100 d583 0180 e943 0100 232c 0080
00000230: 15a9 0080 61e9 0080 1819 0000 a37c 0080
00000240: 0e07 0080 1aa6 0000 590c 0000 5030 0180
00000250: e8ae 0100 6e5e 0080 7454 0080 4d21 0180
00000260: c37e 0180 6e4d 0000 9b74 0080 4530 0100
00000270: 0eb2 0180 2313 0100 f537 0000 fabf 0100
00000280: e01d 0200 1d16 0180 a837 0180 4c4d 0000
00000290: 07ff 0000 a0d2 0000 5bbc 0000 6d57 0000
000002a0: 34ce 0080 9460 0180 873b 0100 1a97 0080
000002b0: 96da 0180 fdad 0100 36cd 0180 e66b 0080
000002c0: d135 0180 7c19 0180 7354 0100 a8b8 0000
000002d0: c8ae 0080 b050 0180 2e7b 0100 8a4c 0180
000002e0: e5dc 0000 d8c3 0000 f626 0180 43d9 0080
000002f0: a409 0080 d424 0000 0c26 0080 6481 0000
00000300: 9598 0000 25b3 0100 f00b 0000 c988 0080
00000310: 820a 0080 86ce 0000 7abc 0000 c50f 0000
00000320: 690b 0200 c326 0100 507f 0080 a139 0100
00000330: d173 0000 99c4 0080 fb17 0000 2318 0180
00000340: 34c5 0080 d0e5 0000 176e 0080 0b42 0180
00000350: 0b2f 0000 bfc6 0180 ba28 0180 ae27 0180
00000360: 2878 0080 d141 0080 9b92 0000 4697 0100
00000370: 6723 0000 dc78 0000 5339 0100 ccf8 0080
00000380: ba14 0080 10ab 0000 5b82 0180 0979 0100
00000390: 9a38 0180 0169 0080 55b7 0000 7995 0000
000003a0: 46d4 0080 b08c 0000 735b 0000 083c 0000
000003b0: cdba 0080 0537 0080 39da 0000 eb09 0100
000003c0: 7cef 0000 a140 0000 151c 0080 5c90 0080
000003d0: 6ac1 0000 1590 0080 2f1c 0100 3931 0180
000003e0: 8ef4 0080 dd9b 0080 dbfb 0000 f93b 0080
000003f0: 2f19 0180 3824 0180 63f4 0000 0631 0000
1.17712e-40 -2.4055e-41 -2.1176e-41 3.4297e-41 8.5017e-41 7.2687e-41 1.24598e-40 1.1655e-40
-1.14967e-40 1.07115e-40 3.9431e-41 -1.05173e-40 -1.00229e-40 -1.069e-40 -1.08475e-40 -1.66173e-40
2.62e-41 8.9854e-41 -3.4e-44 1.17203e-40 9.8862e-41 -2.9989e-41 -7.318e-41 -5.3479e-41
-1.093e-42 -6.837e-41 -4.804e-42 -4.988e-41 8.684e-42 -1.7677e-41 -8.9347e-41 7.604e-41
-1.7048e-41 -6.5232e-41 -1.65453e-40 -5.417e-42 1.09768e-40 -9.0821e-41 1.24018e-40 -6.075e-42
-1.0768e-41 5.4355e-41 1.09615e-40 8.2836e-41 -1.25143e-40 1.09754e-40 4.3891e-41 -3.0101e-41
8.681e-41 1.6954e-40 -1.035e-40 -1.8655e-41 -3.3106e-41 -1.89334e-40 8.3925e-41 -1.8751e-41
-1.08811e-40 -4.2288e-41 6.0665e-41 8.436e-42 7.4563e-41 -5.09e-41 1.05982e-40 -7.2558e-41
-1.15712e-40 3.7636e-41 -3.7433e-41 1.28663e-40 -6.1284e-41 -1.93263e-40 -4.0547e-41 -2.7401e-41
-1.01844e-40 8.5485e-41 3.837e-42 -4.9641e-41 1.13818e-40 -7.409e-42 7.7119e-41 -1.40007e-40
-1.12418e-40 -1.12157e-40 -7.0687e-41 -3.7162e-41 8.9228e-41 9.3343e-41 1.13224e-40 5.5615e-41
2.76e-43 -5.1826e-41 -3.9301e-41 -1.35918e-40 -1.69987e-40 1.23812e-40 -1.82982e-40 -1.12034e-40
-3.617e-41 1.81115e-40 5.7722e-41 -1.74617e-40 -1.2126e-40 3.9899e-41 1.32674e-40 -8.4783e-41
-1.9754e-41 1.59393e-40 9.193e-42 1.27461e-40 8.2607e-41 9.1174e-41 -9.4827e-41 -1.03825e-40
1.60725e-40 -2.349e-42 1.36133e-40 1.5154e-41 -9.1617e-41 1.80018e-40 -1.92911e-40 -1.02226e-40
1.26214e-40 9.608e-41 -1.6782e-41 7.9947e-41 -1.7633e-41 4.9658e-41 1.43274e-40 7.2977e-41
-1.29418e-40 1.5292e-41 -1.03688e-40 1.08107e-40 6.8808e-41 5.9045e-41 6.2428e-41 7.1783e-41
1.21895e-40 -1.39128e-40 1.16197e-40 -1.5833e-41 -6.0655e-41 -8.372e-41 9.002e-42 -4.4711e-41
-2.531e-42 5.9586e-41 4.43e-42 -1.09167e-40 1.5458e-40 -3.3875e-41 -3.0296e-41 -1.03782e-40
-1.37309e-40 2.7777e-41 -4.183e-41 1.09151e-40 -1.5571e-40 9.87e-41 2.0074e-41 1.60704e-40
1.94388e-40 -9.9768e-41 -1.11801e-40 2.7729e-41 9.1487e-41 7.5558e-41 6.7569e-41 3.1362e-41
-7.3972e-41 -1.26481e-40 1.1319e-40 -5.4205e-41 -1.7025e-40 1.54251e-40 -1.65451e-40 -3.8707e-41
-1.11141e-40 -1.00978e-40 1.2213e-40 6.6242e-41 -6.27e-41 -1.20781e-40 1.36024e-40 -1.19293e-40
7.9242e-41 7.0255e-41 -1.05812e-40 -7.7939e-41 -3.458e-42 1.3211e-41 -1.3649e-41 4.6417e-41
5.4736e-41 1.561e-40 4.282e-42 -4.9069e-41 -3.77e-42 7.4087e-41 6.7613e-41 5.657e-42
1.87764e-40 1.0574e-40 -4.5671e-41 1.12509e-40 4.1547e-41 -7.0526e-41 8.603e-42 -1.00494e-40
-7.0743e-41 8.2441e-41 -3.9493e-41 -1.15527e-40 1.6876e-41 -1.63132e-40 -1.06445e-40 -1.0607e-40
-4.3104e-41 -2.361e-41 5.2592e-41 1.46102e-40 1.27e-41 4.3356e-41 1.124e-40 -8.9252e-41
-7.435e-42 6.1366e-41 -1.38598e-40 1.35255e-40 -1.1214e-40 -3.7668e-41 6.5767e-41 5.362e-41
-7.615e-41 5.0469e-41 3.2806e-41 2.1535e-41 -6.7011e-41 -1.9737e-41 7.8284e-41 9.5393e-41
8.5911e-41 2.3184e-41 -1.0074e-41 -5.1786e-41 6.9384e-41 -5.1687e-41 1.01946e-40 -1.09493e-40
-8.773e-41 -5.5913e-41 9.0349e-41 -2.1514e-41 -1.0087e-40 -1.04828e-40 8.767e-41 1.7586e-41

e_conv3.depth_conv.bias f4 [32]
00000000: a74a 0100 97fa 0080 49f6 0000 fdf5 0000
00000010: 2593 0100 f406 0100 aca2 0000 64a9 0100
00000020: b045 0180 b4e9 0080 bb4c 0100 4e4d 0100
00000030: fd0a 0100 6ff9 0000 0c23 0000 1639 0180
00000040: 3614 0000 dc61 0100 8ea1 0000 8253 0100
00000050: 4bbc 0100 f329 0100 29eb 0000 e6c0 0000
00000060: d75a 0000 b60c 0180 1f27 0100 375a 0000
00000070: 121f 0180 56b0 0000 48fe 0000 011b 0100
1.18616e-40 -8.9895e-41 8.835e-41 8.8244e-41 1.44621e-40 9.433e-41 5.8356e-41 1.52601e-40
-1.16835e-40 -8.3837e-41 1.19361e-40 1.19567e-40 9.5777e-41 8.948e-41 1.2572e-41 -1.12314e-40
7.25e-42 1.26941e-40 5.7955e-41 1.21792e-40 1.59382e-40 1.06884e-40 8.436e-41 6.9199e-41
3.2587e-41 -9.6395e-41 1.0587e-40 3.2363e-41 -1.02981e-40 6.3257e-41 9.1219e-41 1.01523e-40

e_conv3.point_conv.weight f4 [32, 32, 1, 1]
00000000: 2cd7 0000 c267 0080 73dc 0100 083d 0180
00000010: f423 0000 0705 0180 ee21 0180 e5e3 0180
00000020: c5e3 0100 e7c4 0000 6147 0180 5141 0180
00000030: 7701 0100 ca47 0080 e333 0180 9f7f 0080
00000040: fd10 0100 3d28 0180 c85e 0080 5f28 0100
00000050: ba9f 0180 4535 0100 a24d 0080 09aa 0080
00000060: 5a38 0080 101b 0100 0d6e 0000 ecfa 0100
00000070: 9218 0080 5751 0080 64ce 0180 28ab 0080
00000080: a5fb 0180 2fb2 0180 955c 0100 5fd9 0000
00000090: 3e44 0180 fbfc 0000 8a43 0180 30c2 0000
000000a0: 4bb7 0100 a1ef 0000 f4ba 0000 2453 0180
000000b0: 9f0a 0080 5f33 0080 46e1 0080 c829 0080
000000c0: 50f3 0000 8911 0100 118c 0100 a3b1 0000
000000d0: fb99 0080 31d5 0100 8c00 0200 4ffa 0000
000000e0: 458d 0080 0d9d 0100 316b 0180 c131 0100
000000f0: 019a 0100 5018 0180 15b6 0000 772e 0100
00000100: 5999 0000 83a4 0000 47a2 0080 6bbe 0180
00000110: 8c46 0180 a67d 0100 1b14 0080 47d7 0100
00000120: 16e1 0080 aa15 0100 61e3 0000 49b1 0100
00000130: 84ed 0080 1237 0100 e6f6 0080 9648 0100
00000140: d7bf 0180 1e89 0080 56c8 0000 448f 0180
00000150: 5972 0180 9e92 0000 b612 0180 b730 0180
00000160: b7ae 0000 7133 0280 2102 0080 9dda 0100
00000170: 097f 0100 6306 0000 79e4 0180 9596 0100
00000180: dce1 0080 bb26 0080 634c 0000 9f21 0180
00000190: 609b 0100 88ce 0080 0769 0100 fb86 0000
000001a0: 08eb 0100 a286 0000 c385 0080 8da0 0000
000001b0: 84eb 0000 38e5 0100 4e5c 0080 bfc3 0100
000001c0: 962a 0100 3e06 0100 6db7 0100 51be 0080
000001d0: 020f 0100 ff26 0000 302a 0000 cc8f 0080
000001e0: c0d8 0000 ca42 0100 d913 0080 9895 0100
000001f0: 9986 0180 b1b1 0000 5d58 0000 28d3 0080
00000200: ce17 0180 fda0 0180 27eb 0000 e444 0000
00000210: dbb6 0100 61b4 0080 5c38 0080 a009 0080
00000220: 747b 0100 eb4f 0080 3709 0080 b54f 0100
00000230: 8fec 0080 791f 0100 c4cc 0000 4660 0080
00000240: 0019 0100 7dd9 0080 03fd 0000 df7a 0000
00000250: e30d 0000 11c0 0180 241f 0100 4e19 0000
00000260: e639 0100 05c3 0000 3ebc 0080 fe8b 0180
00000270: 7e4f 0080 6430 0100 f122 0100 255c 0000
00000280: 1917 0000 de5d 0000 7303 0100 361c 0180
00000290: f008 0100 2e68 0000 8c8a 0000 1100 0000
000002a0: 4d2e 0080 6872 0080 75fd 0180 3cc2 0100
000002b0: a04e 0100 65e8 0080 243c 0100 c20d 0180
000002c0: 0e78 0100 1d1b 0100 3d09 0100 ae5a 0080
000002d0: a5b3 0000 d711 0080 256c 0080 0375 0000
000002e0: f9f0 0080 c30f 0080 6023 0080 5cae 0100
000002f0: 7d5a 0080 9664 0180 844b 0080 6a01 0100
00000300: 0f08 0100 044a 0000 d25b 0180 4433 0080
00000310: de5f 0100 1d61 0080 91c3 0000 1259 0100
00000320: 2265 0100 0b2c 0100 c639 0180 6473 0000
00000330: 6385 0080 648c 0080 2dcc 0180 b7a1 0100
00000340: dcea 0100 5249 0180 9e94 0080 e21b 0180
00000350: 86de 0100 cab5 0180 b7e2 0000 7ee8 0100
00000360: 8a40 0100 855a 0180 9f79 0180 9917 0100
00000370: b971 0000 4d43 0080 340e 0180 0836 0100
00000380: f634 0180 1c3a 0100 197b 0000 31bb 0180
00000390: c28e 0000 7015 0100 fe21 0180 2727 0080
000003a0: a9e5 0080 962f 0100 0f40 0000 b2a2 0000
000003b0: 4727 0080 202d 0080 4848 0100 2d9a 0080
000003c0: dd8e 0000 5f67 0100 e88e 0180 3596 0000
000003d0: 9480 0000 d6b3 0180 ad67 0180 609b 0080
000003e0: 4d83 0080 76db 0000 2a97 0080 f6f1 0080
000003f0: c458 0100 0398 0000 0e0c 0100 8b64 0180
7.7189e-41 -3.7221e-41 1.70918e-40 -1.1373e-40 1.2898e-41 -9.3639e-41 -1.04007e-40 -1.73589e-40
1.73544e-40 7.0635e-41 -1.17441e-40 -1.15267e-40 9.2361e-41 -2.5753e-41 -1.10449e-40 -4.5782e-41
9.793e-41 -1.0627e-40 -3.4001e-41 1.06318e-40 -1.49135e-40 1.10945e-40 -2.785e-41 -6.0997e-41
-2.0215e-41 1.01544e-40 3.9479e-41 1.8185e-40 -8.814e-42 -2.9179e-41 -1.65875e-40 -6.1399e-41
-1.82109e-40 -1.55756e-40 1.25048e-40 7.7978e-41 -1.16316e-40 9.0752e-41 -1.16064e-40 6.9661e-41
1.57589e-40 8.5963e-41 6.7066e-41 -1.21661e-40 -3.81e-42 -1.8428e-41 -8.0813e-41 -1.4988e-41
8.7284e-41 9.8126e-41 1.42082e-40 6.3724e-41 -5.5238e-41 1.68314e-40 1.83867e-40 8.9794e-41
-5.0678e-41 1.48175e-40 -1.30289e-40 1.09684e-40 1.47082e-40 -1.00557e-40 6.5319e-41 1.08504e-40
5.5011e-41 5.9016e-41 -5.8214e-41 -1.60145e-40 -1.17143e-40 1.3691e-40 -7.212e-42 1.69062e-40
-8.0746e-41 9.9607e-41 8.1568e-41 1.55433e-40 -8.5205e-41 1.11591e-40 -8.857e-41 1.17874e-40
-1.60655e-40 -4.9188e-41 7.1867e-41 -1.4323e-40 -1.32856e-40 5.2596e-41 -9.8548e-41 -1.09311e-40
6.2676e-41 -2.02125e-40 -7.64e-43 1.70259e-40 1.37407e-40 2.291e-42 -1.73796e-40 1.45854e-40
-8.1023e-41 -1.3894e-41 2.7402e-41 -1.03896e-40 1.47574e-40 -7.409e-41 1.29512e-40 4.8422e-41
1.76149e-40 4.8297e-41 -4.7985e-41 5.7595e-41 8.4487e-41 1.74064e-40 -3.3113e-41 1.62056e-40
1.07112e-40 9.4075e-41 1.57636e-40 -6.8273e-41 9.7219e-41 1.3989e-41 1.5134e-41 -5.1585e-41
7.7755e-41 1.15795e-40 -7.12e-42 1.455e-40 -1.4012e-40 6.3744e-41 3.1699e-41 -7.5749e-41
-1.00375e-40 -1.49587e-40 8.4357e-41 2.4713e-41 1.57432e-40 -6.4708e-41 -2.0218e-41 -3.453e-42
1.36122e-40 -2.8669e-41 -3.306e-42 1.20429e-40 -8.4861e-41 1.03126e-40 7.3456e-41 -3.4536e-41
1.00804e-40 -7.802e-41 9.0764e-41 4.4078e-41 4.982e-42 -1.60736e-40 1.03007e-40 9.078e-42
1.12606e-40 6.996e-41 -6.7529e-41 -1.42055e-40 -2.8516e-41 1.09195e-40 1.0437e-40 3.3055e-41
8.286e-42 3.3673e-41 9.3073e-41 -1.01956e-40 9.5042e-41 3.7373e-41 4.9701e-41 2.4e-44
-1.661e-41 -4.1041e-41 -1.82759e-40 1.61514e-40 1.20041e-40 -8.3367e-41 1.1341e-40 -9.6771e-41
1.34903e-40 1.01562e-40 9.515e-41 -3.253e-41 6.4444e-41 -6.4e-42 -3.8795e-41 4.1976e-41
-8.6445e-41 -5.654e-42 -1.269e-41 1.54384e-40 -3.2461e-41 -1.27919e-40 -2.709e-41 9.2343e-41
9.4726e-41 2.6552e-41 -1.24774e-40 -1.839e-41 1.26226e-40 -3.4838e-41 7.0156e-41 1.23788e-40
1.28115e-40 1.07635e-40 -1.1256e-40 4.1394e-41 -4.785e-41 -5.0363e-41 -1.6508e-40 1.49848e-40
1.76087e-40 -1.18138e-40 -5.3314e-41 -1.01838e-40 1.71662e-40 -1.57049e-40 8.133e-41 1.75238e-40
1.14988e-40 -1.24308e-40 -1.35465e-40 1.00301e-40 4.0796e-41 -2.4143e-41 -9.693e-41 1.11218e-40
-1.10834e-40 1.12681e-40 4.4159e-41 -1.58987e-40 5.1212e-41 9.9526e-41 -1.0403e-40 -1.4045e-41
-8.2387e-41 1.08906e-40 2.298e-41 5.8364e-41 -1.409e-41 -1.6188e-41 1.17765e-40 -5.5308e-41
5.125e-41 1.28918e-40 -1.431e-40 5.3884e-41 4.6125e-41 -1.56348e-40 -1.29027e-40 -5.5738e-41
-4.7102e-41 7.8728e-41 -5.4227e-41 -8.6799e-41 1.23679e-40 5.4532e-41 9.616e-41 -1.27904e-40

e_conv3.point_conv.bias f4 [32]
00000000: ca05 0180 e421 0180 3547 0000 3b2e 0000
00000010: e372 0180 4b02 0180 f66d 0080 6a5a 0180
00000020: 3834 0180 3f05 0000 f812 0080 d124 0100
00000030: 8080 0000 2a88 0000 c2e4 0080 b5ce 0180
00000040: e35b 0100 1051 0000 7f2c 0180 5d5d 0100
00000050: d09f 0080 df8a 0080 3b1b 0180 a3bd 0000
00000060: 67a8 0080 335b 0180 ae91 0080 8c77 0100
00000070: a5fa 0000 dcd3 0000 3c18 0100 2416 0180
-9.3912e-41 -1.03993e-40 2.5544e-41 1.6584e-41 -1.33049e-40 -9.2658e-41 -3.9447e-41 -1.2427e-40
-1.10568e-40 1.882e-42 -6.805e-42 1.05043e-40 4.6097e-41 4.8846e-41 -8.2063e-41 -1.65988e-40
1.24798e-40 2.908e-41 -1.07798e-40 1.25328e-40 -5.733e-41 -4.9818e-41 -1.01604e-40 6.8029e-41
-6.0411e-41 -1.24552e-40 -5.226e-41 1.34721e-40 8.9914e-41 7.6001e-41 1.00529e-40 -9.9778e-41

e_conv4.depth_conv.weight f4 [32, 1, 3, 3]
00000000: df32 0000 3a5f 0000 9011 0180 6763 0080
00000010: 0276 0180 70de 0180 69a3 0100 e930 0180
00000020: dda2 0080 df77 0080 7725 0100 174f 0100
00000030: 1862 0100 e994 0100 5aa6 0080 62c0 0000
00000040: d7d2 0000 22ad 0100 c368 0000 038d 0000
00000050: b198 0100 d6a7 0080 e806 0100 44aa 0080
00000060: 95a3 0080 e16f 0080 37af 0080 d71c 0100
00000070: f7c0 0080 d03c 0180 fd68 0180 7b0d 0100
00000080: 1016 0100 8a2a 0100 7924 0000 43a4 0000
00000090: 5286 0100 133e 0180 766c 0080 5203 0180
000000a0: 3c0b 0180 0395 0180 5d3b 0100 b60a 0180
000000b0: 182c 0200 c91c 0000 691c 0180 72a7 0080
000000c0: 4905 0180 dc6a 0080 e2ab 0080 a065 0000
000000d0: 1870 0000 606b 0100 6860 0180 9c3a 0080
000000e0: 15b1 0080 e2e1 0000 f947 0000 0aac 0000
000000f0: e7d5 0080 63d2 0000 faae 0100 9e0c 0080
00000100: 62d4 0080 42c0 0100 98e3 0000 1b0f 0000
00000110: 0d11 0000 2c76 0100 4777 0000 9847 0180
00000120: a99d 0100 9efa 0080 3180 0080 4bc5 0000
00000130: f161 0000 a505 0180 a32e 0100 8f82 0180
00000140: 0d0d 0000 7221 0000 e30b 0000 ea01 0100
00000150: d200 0180 55ea 0080 53ab 0080 5f24 0080
00000160: 7c71 0080 1e28 0180 53ca 0080 562d 0180
00000170: e959 0080 5f30 0080 fdf9 0180 26f1 0080
00000180: 749a 0000 57b5 0000 21cb 0080 6800 0180
00000190: a69e 0000 5a7c 0100 d288 0100 3f24 0180
000001a0: 7127 0080 f50b 0080 0494 0000 07a9 0080
000001b0: a8ad 0100 b14c 0100 14e5 0080 0e65 0000
000001c0: deef 0000 774e 0180 17db 0080 cd32 0100
000001d0: d6ac 0080 c5fb 0080 1c23 0080 fe2c 0000
000001e0: 6548 0180 c66c 0000 f72c 0000 a286 0080
000001f0: 3509 0100 f767 0180 caf2 0100 4723 0180
00000200: 3a56 0000 6466 0080 6239 0180 8854 0080
00000210: d866 0000 b140 0000 df17 0180 4960 0000
00000220: 566b 0100 3280 0000 66ae 0080 93c2 0000
00000230: e6af 0000 cf25 0100 f520 0100 53a6 0000
00000240: 3d3a 0080 02d6 0000 0405 0180 de15 0000
00000250: e5b1 0100 d501 0000 a88e 0080 886a 0000
00000260: b784 0180 4aeb 0080 c406 0180 168f 0000
00000270: 31d0 0000 c145 0000 c348 0180 da2f 0080
00000280: 3cbe 0000 aa50 0000 4fc5 0000 c503 0100
00000290: 6363 0080 bd19 0180 53ab 0080 0aec 0080
000002a0: 0b2a 0100 ed96 0100 2fda 0180 8e1f 0100
000002b0: 1960 0180 a2c2 0080 dd38 0180 4a0e 0100
000002c0: fe59 0000 413e 0080 6218 0180 0ea9 0080
000002d0: 8dca 0000 7af5 0100 a6a5 0080 0362 0180
000002e0: b550 0180 fe58 0100 781a 0000 76f1 0000
000002f0: cc79 0000 94e4 0080 39ef 0080 43fc 0080
00000300: e6bf 0080 281c 0180 7396 0080 91bc 0100
00000310: 37d1 0080 28a4 0080 27da 0080 b7ea 0000
00000320: af95 0000 fc20 0180 2db1 0080 94c0 0080
00000330: 3c7e 0100 e421 0080 4202 0000 d143 0180
00000340: 1763 0100 11cc 0000 f3d0 0080 f870 0100
00000350: ba34 0180 0242 0080 4412 0080 4168 0080
00000360: c5e7 0080 4575 0100 4d30 0100 7e37 0100
00000370: 94ed 0000 f045 0000 19e9 0080 1d59 0080
00000380: 809a 0180 7385 0000 1e27 0180 0ae5 0180
00000390: d276 0080 3a12 0180 1ee6 0080 40fb 0000
000003a0: 28cf 0100 3c00 0000 ab33 0000 b548 0180
000003b0: c229 0180 d402 0180 d02d 0080 4a21 0080
000003c0: c649 0100 4e1b 0080 9f0d 0000 9752 0180
000003d0: 4465 0080 42b3 0000 30b9 0080 1c69 0000
000003e0: 62f3 0000 e75b 0100 01b0 0180 34a7 0080
000003f0: 4b0a 0180 5c18 0100 2e07 0180 e523 0180
1.8249e-41 3.4161e-41 -9.8136e-41 -3.5659e-41 -1.34169e-40 -1.71631e-40 1.50456e-40 -1.09381e-40
-5.8424e-41 -4.3002e-41 1.05275e-40 1.20208e-40 1.27025e-40 1.45254e-40 -5.9676e-41 6.9014e-41
7.5635e-41 1.53944e-40 3.7581e-41 5.0585e-41 1.46611e-40 -6.0208e-41 9.4313e-41 -6.108e-41
-5.8682e-41 -4.0135e-41 -6.2855e-41 1.02181e-40 -6.9223e-41 -1.13651e-40 -1.29498e-40 9.6671e-41
9.975e-41 1.07096e-40 1.3084e-41 5.8926e-41 1.4002e-40 -1.14104e-40 -3.8908e-41 -9.3027e-41
-9.5866e-41 -1.45291e-40 1.13131e-40 -9.5678e-41 1.99489e-40 1.0326e-41 -1.02027e-40 -6.0068e-41
-9.3731e-41 -3.8334e-41 -6.166e-41 3.6456e-41 4.0212e-41 1.30354e-40 -1.2642e-40 -2.1025e-41
-6.3525e-41 8.1031e-41 2.5819e-41 6.1716e-41 -7.6734e-41 7.5473e-41 1.54605e-40 -4.526e-42
-7.6189e-41 1.60805e-40 8.1645e-41 5.419e-42 6.117e-42 1.34228e-40 4.2789e-41 -1.17518e-40
1.48393e-40 -8.9905e-41 -4.5986e-41 7.0775e-41 3.5135e-41 -9.386e-41 1.08566e-40 -1.38671e-40
4.682e-42 1.1998e-41 4.264e-42 9.2522e-41 -9.213e-41 -8.4062e-41 -6.146e-41 -1.3047e-41
-4.071e-41 -1.06227e-40 -7.258e-41 -1.08099e-40 -3.2254e-41 -1.7352e-41 -1.81514e-40 -8.6508e-41
5.5407e-41 6.5052e-41 -7.2869e-41 -9.1981e-41 5.6912e-41 1.36444e-40 1.40917e-40 -1.04838e-40
-1.4149e-41 -4.29e-42 5.3098e-41 -6.0636e-41 1.54132e-40 1.19347e-40 -8.2178e-41 3.6252e-41
8.6048e-41 -1.19983e-40 -7.8595e-41 1.1006e-40 -6.2002e-41 -9.0318e-41 -1.2595e-41 1.614e-41
-1.17806e-40 3.902e-41 1.613e-41 -4.8297e-41 9.5138e-41 -1.29131e-40 1.78932e-40 -1.0449e-40
3.0932e-41 -3.6731e-41 -1.1242e-40 -3.0324e-41 3.6893e-41 2.3207e-41 -1.00399e-40 3.454e-41
1.3034e-40 4.5988e-41 -6.2562e-41 6.98e-41 6.31e-41 1.05399e-40 1.03658e-40 5.9666e-41
-2.0892e-41 7.6772e-41 -9.3635e-41 7.844e-42 1.55652e-40 6.57e-43 -5.1175e-41 3.8216e-41
-1.39445e-40 -8.4406e-41 -9.4263e-41 5.133e-41 7.4685e-41 2.5023e-41 -1.17937e-40 -1.7166e-41
6.8243e-41 2.8937e-41 7.0781e-41 9.3188e-41 -3.5653e-41 -1.01069e-40 -6.146e-41 -8.4675e-41
1.06918e-40 1.45977e-40 -1.70105e-40 1.03155e-40 -1.26309e-40 -6.9821e-41 -1.12234e-40 9.6961e-41
3.2283e-41 -2.2332e-41 -1.00582e-40 -6.0645e-41 7.2662e-41 1.79896e-40 -5.9423e-41 -1.26995e-40
-1.20788e-40 1.2376e-40 9.495e-42 8.662e-41 4.3692e-41 -8.1998e-41 -8.5817e-41 -9.0494e-41
-6.884e-41 -1.01936e-40 -5.3971e-41 1.5948e-40 -7.5052e-41 -5.8888e-41 -7.8258e-41 8.42e-41
5.3696e-41 -1.03668e-40 -6.3559e-41 -6.9084e-41 1.3712e-40 -1.2158e-41 8.1e-43 -1.16163e-40
1.27382e-40 7.3205e-41 -7.4957e-41 1.32361e-40 -1.1075e-40 -2.3679e-41 -6.552e-42 -3.7399e-41
-8.3143e-41 1.33904e-40 1.09163e-40 1.11742e-40 8.5227e-41 2.5089e-41 -8.362e-41 -3.1968e-41
-1.4726e-40 4.7873e-41 -1.05868e-40 -1.73999e-40 -4.2625e-41 -9.8374e-41 -8.255e-41 9.0132e-41
1.66149e-40 8.4e-44 1.8535e-41 -1.17918e-40 -1.06815e-40 -9.285e-41 -1.6434e-41 -1.1942e-41
1.183e-40 -9.795e-42 4.886e-42 -1.21463e-40 -3.6327e-41 6.4306e-41 -6.6433e-41 3.7706e-41
8.731e-41 1.24804e-40 -1.54974e-40 -5.9981e-41 -9.5528e-41 1.00574e-40 -9.4411e-41 -1.04712e-40

e_conv4.depth_conv.bias f4 [32]
00000000: aa43 0080 af13 0180 c416 0180 c9ed 0000
00000010: d734 0180 e202 0000 adb3 0000 a322 0000
00000020: 2bff 0000 0f78 0000 0d46 0100 ec07 0100
00000030: 4c7f 0180 1d08 0000 5f28 0100 ece2 0180
00000040: 4616 0180 9230 0180 60f9 0080 3e75 0080
00000050: 7c29 0100 c9e6 0000 a555 0080 fad1 0080
00000060: 58be 0080 ad28 0000 9554 0180 c7f0 0000
00000070: da9d 0000 364a 0100 bd55 0100 f1b1 0080
-2.4273e-41 -9.8897e-41 -1.00002e-40 8.5301e-41 -1.10791e-40 1.034e-42 6.4456e-41 1.2425e-41
9.1537e-41 4.3069e-41 1.16965e-40 9.4677e-41 -1.37501e-40 2.91e-42 1.06318e-40 -1.7324e-40
-9.9826e-41 -1.09259e-40 -8.9459e-41 -4.2059e-41 1.06717e-40 8.279e-41 -3.0723e-41 -7.5325e-41
-6.8282e-41 1.4592e-41 -1.22178e-40 8.6375e-41 5.6626e-41 1.18457e-40 1.22593e-40 -6.3833e-41

e_conv4.point_conv.weight f4 [32, 32, 1, 1]
00000000: c943 0000 3cfd 0180 4c23 0280 b073 0000
00000010: 36aa 0080 a02d 0100 5cd2 0080 4a3f 0000
00000020: 2608 0100 8e01 0280 1246 0100 af47 0000
00000030: 2a15 0100 7f34 0000 3565 0100 c533 0180
00000040: fb08 0280 82d3 0080 26a7 0100 0687 0180
00000050: 7000 0200 ee50 0080 4421 0100 9712 0000
00000060: d9af 0000 5d1c 0180 d361 0180 1103 0200
00000070: 0d41 0080 4f61 0100 d7ad 0080 9836 0180
00000080: 7c8b 0100 bd93 0000 c5e1 0100 1707 0180
00000090: 6a89 0000 fdbf 0080 8d5e 0080 e8d1 0180
000000a0: 766a 0100 3305 0000 6c99 0180 a29b 0180
000000b0: 2323 0180 940f 0100 725f 0000 cf25 0080
000000c0: 436d 0180 b8da 0000 2c04 0180 9085 0100
000000d0: 3735 0180 6572 0000 ad6c 0100 051b 0180
000000e0: 54c4 0100 f523 0100 2517 0180 6442 0100
000000f0: 1a8e 0100 9159 0100 b256 0100 5a69 0000
00000100: a8a4 0000 dc2a 0180 0c2e 0100 aad0 0000
00000110: 26d1 0180 ebd0 0000 c42b 0080 6285 0180
00000120: 7293 0180 c59d 0180 5e21 0100 0d05 0180
00000130: 0aca 0100 3acb 0180 47ff 0080 087f 0080
00000140: d591 0100 9b0f 0180 1b11 0000 9bfd 0180
00000150: 4437 0080 6a38 0080 1265 0100 ac08 0100
00000160: 6d3e 0100 f670 0000 1557 0180 c9ef 0080
00000170: be15 0100 8fd8 0100 1b1b 0100 e3f2 0080
00000180: c56b 0080 224d 0100 04b0 0100 5c5e 0000
00000190: 2251 0180 f626 0180 9f84 0000 2d17 0080
000001a0: 1c66 0100 7a3e 0100 f3eb 0000 e5fe 0080
000001b0: c1be 0180 c90a 0100 a03b 0100 8aa6 0080
000001c0: abf6 0000 dfe3 0100 1bc0 0100 93ed 0080
000001d0: 51ff 0080 7020 0000 240f 0080 4976 0000
000001e0: 3fc8 0100 259e 0080 15bf 0180 ff34 0180
000001f0: 3f97 0000 c6c2 0080 5965 0100 6aa3 0100
00000200: 04dd 0180 b1f0 0000 0b65 0000 57d6 0080
00000210: b854 0080 1448 0180 9a59 0180 562d 0100
00000220: 942b 0100 2275 0080 eba0 0180 2901 0080
00000230: 2025 0080 d861 0000 5941 0080 1262 0180
00000240: b88e 0000 cf90 0080 4b27 0180 d12d 0100
00000250: 8034 0100 b2a7 0080 b5ee 0080 afe2 0000
00000260: 8706 0080 5640 0080 845b 0080 4be1 0000
00000270: dd29 0000 297f 0000 ebd9 0000 f2db 0080
00000280: cb0e 0100 8165 0080 ef30 0000 e223 0080
00000290: 9a8a 0000 1bc2 0080 44dc 0180 955b 0080
000002a0: 1494 0000 ddba 0000 fb26 0000 9d90 0100
000002b0: 6cec 0000 5817 0000 bb86 0000 93f4 0080
000002c0: 4bb0 0080 213e 0000 a0f4 0100 552c 0180
000002d0: 207a 0000 b7d5 0000 0d53 0100 be6e 0000
000002e0: d783 0000 3512 0180 d198 0080 5233 0080
000002f0: 154a 0000 8d94 0180 7a05 0180 8ec5 0180
00000300: e921 0180 271d 0100 0b0b 0180 571c 0000
00000310: 9e83 0080 a6cf 0000 01f7 0180 9931 0100
00000320: 3ffd 0080 aece 0000 fa13 0100 b15e 0000
00000330: b470 0080 4f09 0080 5ce2 0000 c943 0100
00000340: 0d57 0100 9e4f 0180 4097 0080 7e15 0180
00000350: 422d 0080 39c9 0000 83eb 0180 eb9b 0080
00000360: 1a5c 0100 da20 0000 d607 0100 2d7e 0100
00000370: 19ef 0080 4880 0080 6383 0100 abb0 0000
00000380: 1038 0100 da89 0180 d3f5 0000 a00b 0180
00000390: c8fc 0080 5689 0080 30b5 0180 cde8 0000
000003a0: 4447 0000 1496 0000 b248 0100 10de 0180
000003b0: eefb 0000 998c 0000 3a09 0100 40dd 0080
000003c0: a4f0 0100 a8e2 0080 de70 0180 802f 0100
000003d0: 11a1 0080 6213 0000 e27e 0100 bd24 0100
000003e0: 19bc 0100 7e3c 0000 ebac 0080 1b58 0100
000003f0: 6db9 0000 3c08 0180 dd93 0180 6e40 0100
2.4317e-41 -1.82679e-40 -1.96333e-40 4.1501e-41 -6.106e-41 1.08203e-40 -7.5463e-41 2.2704e-41
9.4759e-41 -1.84229e-40 1.16972e-40 2.5715e-41 9.9428e-41 1.8832e-41 1.28142e-40 -1.10407e-40
-1.86893e-40 -7.5875e-41 1.51797e-40 -1.40273e-40 1.83828e-40 -2.9032e-41 1.03769e-40 6.669e-42
6.3082e-41 -1.0201e-40 -1.26928e-40 1.84771e-40 -2.3336e-41 1.26743e-40 -6.2362e-41 -1.1142e-40
1.41873e-40 5.2999e-41 1.72826e-40 -9.4379e-41 4.9295e-41 -6.8872e-41 -3.3918e-41 -1.67136e-40
1.30026e-40 1.865e-42 -1.46873e-40 -1.47666e-40 -1.0444e-40 9.7424e-41 3.424e-41 -1.3563e-41
-1.31031e-40 7.8462e-41 -9.3332e-41 1.39749e-40 -1.10925e-40 4.1037e-41 1.30821e-40 -1.01528e-40
1.62265e-40 1.04734e-40 -1.00138e-40 1.15652e-40 1.42812e-40 1.23966e-40 1.22936e-40 3.7793e-41
5.9068e-41 -1.0721e-40 1.08354e-40 7.4855e-41 -1.66864e-40 7.4946e-41 -1.57e-41 -1.39684e-40
-1.44729e-40 -1.48433e-40 1.03805e-40 -9.3647e-41 1.64313e-40 -1.6474e-40 -9.1576e-41 -4.557e-41
1.4415e-40 -9.7434e-41 6.136e-42 -1.82812e-40 -1.9826e-41 -2.0238e-41 1.28093e-40 9.4946e-41
1.1423e-40 4.0523e-41 -1.23075e-40 -8.6019e-41 9.9635e-41 1.69522e-40 1.01559e-40 -8.7131e-41
-3.866e-41 1.19506e-40 1.54978e-40 3.385e-41 -1.2094e-40 -1.05812e-40 4.7575e-41 -8.314e-42
1.28465e-40 1.14248e-40 8.4643e-41 -9.1439e-41 -1.60265e-40 9.5704e-41 1.13225e-40 -5.9743e-41
8.8488e-41 1.7358e-40 1.6075e-40 -8.5226e-41 -9.159e-41 1.1636e-41 -5.431e-42 4.2433e-41
1.6367e-40 -5.6732e-41 -1.60383e-40 -1.10847e-40 5.4257e-41 -6.9872e-41 1.28192e-40 1.50457e-40
-1.71121e-40 8.6344e-41 3.6247e-41 -7.689e-41 -3.0391e-41 -1.17692e-40 -1.23978e-40 1.08099e-40
1.07468e-40 -4.202e-41 -1.49562e-40 -4.16e-43 -1.3318e-41 3.51e-41 -2.3442e-41 -1.27016e-40
5.1198e-41 -5.1948e-41 -1.05931e-40 1.08271e-40 1.10669e-40 -6.0158e-41 -8.5632e-41 8.1319e-41
-2.342e-42 -2.308e-41 -3.283e-41 8.082e-41 1.5018e-41 4.5616e-41 7.8174e-41 -7.8902e-41
9.7142e-41 -3.6413e-41 1.7554e-41 -1.2872e-41 4.9721e-41 -6.9632e-41 -1.70852e-40 -3.2853e-41
5.312e-41 6.7034e-41 1.3984e-41 1.43713e-40 8.4812e-41 8.374e-42 4.8332e-41 -8.7737e-41
-6.3242e-41 2.2288e-41 1.7959e-40 -1.07739e-40 4.381e-41 7.6666e-41 1.21629e-40 3.9727e-41
4.7295e-41 -9.8367e-41 -5.482e-41 -1.841e-41 2.6576e-41 -1.45125e-40 -9.38e-41 -1.62705e-40
-1.04e-40 1.02293e-40 -9.5797e-41 1.0166e-41 -4.7215e-41 7.449e-41 -1.80444e-40 1.09628e-40
-9.0848e-41 7.4143e-41 9.9002e-41 3.3969e-41 -4.043e-41 -3.339e-42 8.1202e-41 1.16152e-40
1.23063e-40 -1.20397e-40 -5.4258e-41 -9.9545e-41 -1.6235e-41 7.2185e-41 -1.76321e-40 -5.5933e-41
1.24875e-40 1.1785e-41 9.4647e-41 1.37099e-40 -8.5772e-41 -4.6019e-41 1.38968e-40 6.3377e-41
1.11947e-40 -1.41287e-40 8.8185e-41 -9.6006e-41 -9.0681e-41 -4.9267e-41 -1.56833e-40 8.3513e-41
2.5565e-41 5.3838e-41 1.17914e-40 -1.71497e-40 9.0375e-41 5.0437e-41 9.5145e-41 -7.937e-41
1.78161e-40 -8.1309e-41 -1.32325e-40 1.08875e-40 -5.778e-41 6.953e-42 1.37352e-40 1.05015e-40
1.59312e-40 2.17e-41 -6.2031e-41 1.23442e-40 6.6518e-41 -9.479e-41 -1.44879e-40 1.14949e-40

e_conv4.point_conv.bias f4 [32]
00000000: 94c2 0100 8832 0100 1f8a 0180 7412 0080
00000010: 5e91 0080 7cee 0000 a80c 0100 922f 0180
00000020: da30 0180 454e 0080 dc90 0100 b9a9 0080
00000030: 3993 0000 030e 0100 726b 0180 94cd 0080
00000040: fd18 0180 43e0 0100 6aea 0080 0474 0180
00000050: 0a09 0080 f73b 0100 8158 0100 281d 0080
00000060: 1985 0000 235c 0180 a04e 0100 d109 0180
00000070: 95be 0180 5d12 0180 9d99 0180 3439 0100
1.61637e-40 1.09963e-40 -1.41384e-40 -6.62e-42 -5.2148e-41 8.5552e-41 9.6376e-41 -1.089e-40
-1.0936e-40 -2.8078e-41 1.43801e-40 -6.0885e-41 5.2814e-41 9.6862e-41 -1.3038e-40 -7.3748e-41
-1.008e-40 1.72285e-40 -8.4092e-41 -1.33454e-40 -3.243e-42 1.13347e-40 1.23585e-40 -1.0459e-41
4.7746e-41 -1.24888e-40 1.20041e-40 -9.5357e-41 -1.60203e-40 -9.8423e-41 -1.46942e-40 1.12356e-40
