Zero-DCE++/snapshots_Zero_DCE++/Epoch88.pth (torch, 51217 bytes, 28 tensors)

e_conv1.depth_conv.weight f4 [3, 1, 3, 3]
000000 76 97 b4 be 01 d7 3c be d2 3c 02 bc b0 44 2a be
       -0.35271806 -0.18441392 -0.007949071 -0.16627765
000010 81 44 c0 3d f1 c2 bd 3d f3 d4 d8 be 8f 2c 3b be
       0.09388066 0.09265698 -0.42349967 -0.18278717
000020 12 3d 50 bd fa 71 4e 3e ea 3f 34 3e 86 16 b6 3e
       -0.05083949 0.20160666 0.17602506 0.3556406
000030 1d 6d 3a 3e 73 86 09 3d 2a ee 6b 3e 88 d3 ab 3d
       0.18205686 0.033575486 0.23040071 0.08389956
000040 8b ae 42 3d 7b 96 6c 3e a7 ff 73 3d a1 1d 06 bd
       0.04752974 0.23104279 0.05956998 -0.0327431
000050 00 9b f2 bd 1a c4 11 bd 96 c3 61 bd a9 a3 de bd
       -0.1184597 -0.035587408 -0.055118166 -0.108710594
000060 d1 ac f2 bd f4 e7 2b be 02 6c ad be
       -0.11849368 -0.16787702 -0.33871466

e_conv1.depth_conv.bias f4 [3]
000000 d7 7e 9c 3d e7 ed 9a 3e 36 d8 5f bd
       0.0764138 0.3025963 -0.054649554

e_conv1.point_conv.weight f4 [32, 3, 1, 1]
000000 01 88 70 3c ff e8 f8 3d ba f1 19 3d 17 39 12 1d
       0.014680863 0.121538155 0.037584044 1.9352454e-21
000010 f7 8b e1 ad 2e c5 a2 9c b3 dd 6c 8e 30 1c 29 a8
       -2.5641695e-11 -1.077123e-21 -2.919599e-30 -9.387497e-15
000020 83 e2 6b 09 98 2c c8 3d 0f 70 ff be d8 26 2b 3e
       2.8393601e-33 0.097741306 -0.4989018 0.16714036
000030 6d b2 85 81 f9 14 98 98 f1 88 00 00 43 be ec 3c
       -4.911251e-38 -3.9312256e-24 4.9125e-41 0.028899318
000040 25 0e a2 3d d6 28 c0 3e 0f 07 02 3e 91 32 9d 3e
       0.07912854 0.37531155 0.12698005 0.30702642
000050 88 d4 f2 bd 3d 39 00 00 73 32 05 93 5c 4e 00 00
       -0.11856943 2.0533e-41 -1.6811833e-27 2.811e-41
000060 79 31 76 3d 14 90 e6 bb 2b 23 d2 3d 40 44 3a 3d
       0.060105775 -0.0070362184 0.10260614 0.045475245
000070 f9 df 1d bc f1 bf ba bd 04 4e cf 3e f4 7c 0d bf
       -0.009635919 -0.09118641 0.4048921 -0.5526879
000080 ab f0 99 3e c0 8b 18 bc 90 ce 04 bd f0 c6 35 3d
       0.30066428 -0.009310663 -0.032423556 0.044379175
000090 b2 4a 4d 3e aa 39 bf be 0e dd 2d be 0c 89 84 bd
       0.20048025 -0.37348682 -0.16978857 -0.06471452
0000a0 c3 58 1f be 73 a8 07 3e a3 1f 01 00 43 42 00 00
       -0.15561204 0.13247852 1.03185e-40 2.377e-41
0000b0 7f 1e 01 80 fb 4f 45 3c 24 10 93 3e 22 ab 64 3e
       -1.02775e-40 0.012042995 0.28723252 0.22330907
0000c0 0d aa 80 be 9f 9c b4 3e 5b ad 7a be c6 19 00 80
       -0.25129738 0.35275742 -0.24480192 -9.246e-42
0000d0 c2 81 ba 90 2a b1 00 80 68 bb e8 b4 16 46 7c b6
       -7.356399e-29 -6.3554e-41 -4.3349723e-07 -3.7591722e-06
0000e0 fc b4 ce b2 1c 45 00 80 2f f9 65 97 80 6e 00 00
       -2.4063858e-08 -2.4792e-41 -7.4308405e-25 3.964e-41
0000f0 ca d5 0a bf 83 5f 3a bd b1 96 a6 be 5b 0e 73 a5
       -0.54232466 -0.045501243 -0.32536843 -2.1081754e-16
000100 fb 87 05 b2 3b 89 53 a5 27 83 09 bc c6 61 e8 3b
       -7.772537e-09 -1.8347828e-16 -0.008393086 0.0070917336
000110 3f 1b c9 3b 12 08 00 80 70 06 49 9e fb 56 00 80
       0.006137281 -2.895e-42 -1.0642183e-20 -3.1203e-41
000120 69 a3 ef 35 a9 a0 4f b8 f4 47 ac 34 3b b2 06 3c
       1.7854446e-06 -4.9502272e-05 3.208985e-07 0.008221204
000130 43 52 c6 3a 71 16 1b bb 27 e9 d4 ba e0 76 b8 39
       0.0015130717 -0.00236645 -0.0016243801 0.00035183784
000140 35 38 27 b9 3b 77 8f 3e 56 6a 0b be fe f0 75 be
       -0.000159473 0.28020653 -0.13614783 -0.24017712
000150 d3 d3 5f 3d a1 c2 c1 b9 e1 55 b2 bb 2c 97 7e 22
       0.05464537 -0.00036956838 -0.0054423665 3.4503449e-18
000160 23 e2 c0 a3 f7 b7 de 22 04 cb 69 3e 97 5a 3a 3c
       -2.0912454e-17 6.0368e-18 0.2283135 0.011374137
000170 5b b3 90 bd d3 50 60 be 1f b3 e6 3e eb f0 88 be
       -0.07065459 -0.21905832 0.45058534 -0.26746306

e_conv1.point_conv.bias f4 [32]
000000 7a 3a bc bd c9 02 f2 ad 6f d3 07 ad 9a 96 11 3f
       -0.09190841 -2.7513452e-11 -7.720809e-12 0.56870425
000010 f7 a2 f4 91 2b 40 a6 3d 97 97 7b 3e a8 12 7e 96
       -3.8596847e-28 0.08117708 0.24569546 -2.0523843e-25
000020 ef 68 83 3d d1 9d 8b bc 51 cd cf 3e f4 f7 ea 3e
       0.06416499 -0.017043026 0.4058633 0.45892298
000030 c3 b7 ba 3e ce 02 9c 3e 69 db 00 80 43 2b ea 3e
       0.36468324 0.3047089 -7.871e-41 0.4573613
000040 a5 36 b5 bb 86 f7 28 8e 99 5e d8 b7 4e 0f d4 a3
       -0.005530196 -2.0826777e-30 -2.5793257e-05 -2.2991568e-17
000050 fc 41 d0 3e 34 55 6f b3 75 d9 97 3e 0f 0d 4d a0
       0.40675342 -5.5724016e-08 0.29658094 -1.7368496e-19
000060 49 17 c4 b8 69 58 2b 39 5a 8e 55 ba bc 7c 94 3e
       -9.3503455e-05 0.00016340766 -0.0008146517 0.29001415
000070 2d 75 b5 3c 19 1d b1 a3 40 00 09 3f 34 3f 96 bd
       0.0221506 -1.9202702e-17 0.53516006 -0.07336274

e_conv2.depth_conv.weight f4 [32, 1, 3, 3]
000000 aa f1 59 bb 1a a6 63 bb c1 46 8f ba fd 12 77 bc
       -0.0033255615 -0.0034736455 -0.001093112 -0.015080211
000010 e4 de 87 bc 10 af 09 bc 16 00 9b bc 3b 20 96 bc
       -0.016585775 -0.008403555 -0.01892094 -0.018325916
000020 e9 22 0e bc 4a e8 00 00 3b cd 00 00 33 11 00 80
       -0.008675315 8.333e-41 7.3623e-41 -6.17e-42
000030 1a 78 00 80 87 23 01 00 a1 0d 01 80 12 f7 00 00
       -4.3084e-41 1.0458e-40 -9.6725e-41 8.8632e-41
000040 ef 20 01 00 87 ff 00 80 d6 04 00 00 0d 4e 00 80
       1.0365e-40 -9.1666e-41 1.735e-42 -2.8e-41
000050 7c 25 00 80 7d aa 01 00 0f ce 00 80 17 42 00 80
       -1.3447e-41 1.52995e-40 -7.392e-41 -2.3709e-41
000060 f3 5b 01 00 7c ee 01 80 75 29 02 00 ce 47 89 be
       1.2482e-40 -1.77388e-40 1.98543e-40 -0.26812595
000070 b2 4d 6c be 46 f3 24 bd 70 bd eb bd 4c 0a 93 3d
       -0.23076513 -0.040271066 -0.11510742 0.07179698
000080 15 5c 57 3e 21 b5 84 3e d6 43 cf 3b 86 41 f2 3e
       0.2103122 0.2591944 0.0063252253 0.47315615
000090 8b 27 01 00 29 0b 00 00 16 a1 00 80 a3 11 00 80
       1.06021e-40 4.004e-42 -5.7787e-41 -6.327e-42
0000a0 b9 95 00 80 aa 4a 00 00 85 d7 00 00 c1 27 00 00
       -5.371e-41 2.6784e-41 7.7314e-41 1.4261e-41
0000b0 84 c3 00 00 a3 6c 3c 3d 9d 37 89 3d aa 2a 19 3d
       7.0138e-41 0.04600204 0.067000605 0.037394203
0000c0 b7 b3 12 3d 24 e1 b4 3d 75 89 29 3d ab 27 78 bd
       0.03581592 0.08832005 0.041390855 -0.060584705
0000d0 89 20 95 bc 98 e0 24 be 78 4b 78 3d 00 ee 19 bd
       -0.01820399 -0.161013 0.060618848 -0.03758049
0000e0 36 ad 8b be 91 f1 5f 3d 72 53 03 3e af 1e b0 bd
       -0.27280587 0.054673735 0.128248 -0.085996024
0000f0 ef ad a7 bc 5e 6a f2 bb 29 cf 91 be 16 cb 00 80
       -0.02046868 -0.007397934 -0.28478363 -7.2854e-41
000100 7e e4 00 00 6c 67 00 80 11 d3 00 80 0c 1e 00 80
       8.1968e-41 -3.7101e-41 -7.5716e-41 -1.0779e-41
000110 24 2d 00 00 93 d8 00 80 dc f4 00 00 41 35 00 80
       1.6193e-41 -7.7692e-41 8.7839e-41 -1.9104e-41
000120 52 14 46 3c 4c 60 49 3b 2c 32 c4 39 ee e8 b4 3b
       0.012089806 0.0030727563 0.00037421414 0.0055209314
000130 9c a7 51 b8 09 6e 05 3b c3 17 d2 3b 47 c7 37 3c
       -4.998558e-05 0.0020359776 0.006411524 0.011216945
000140 63 fe db 3c 17 e6 c3 3b 4f 53 33 3b 4e 69 21 bb
       0.0268547 0.0059783566 0.0027362888 -0.0024629417
000150 55 08 bf 3b 2e 8a ff 38 af 9e ab bb a7 f5 39 3b
       0.0058298507 0.000121850855 -0.0052374224 0.002837518
000160 c4 84 2e bb 29 97 58 bb b1 fe a1 3e 42 b1 59 3e
       -0.0026629427 -0.0033049083 0.31639627 0.21259025
000170 8b 77 81 3e 85 6d 5d 3e b4 e1 80 bd bf 75 85 3e
       0.25286517 0.2162381 -0.062930495 0.26066396
000180 57 d7 96 3e f6 91 d1 3d 66 ef 05 3e b6 84 7b 3e
       0.29461166 0.10232918 0.13079605 0.24562344
000190 c1 5f 03 be 25 2e 43 3e 7d b8 99 3d 51 31 44 be
       -0.12829496 0.19060571 0.075058915 -0.19159438
0001a0 52 4f b9 bd f4 83 82 3e cc 76 87 3d 5c b5 3d 3e
       -0.09048332 0.25491297 0.066144556 0.18526214
0001b0 07 84 cc 3e 9d a8 02 3e 19 bc 64 3e 7a 2f 89 3e
       0.3994448 0.12759633 0.22337379 0.26794034
0001c0 1f cd 26 3e ce c7 bb 3d 02 8f 7f 3e 93 10 e9 3d
       0.16289185 0.09168969 0.24956897 0.113801144
0001d0 d2 e8 8c bd 3a 0d d3 3c 81 b7 64 3d 89 67 c6 3d
       -0.068803445 0.025763143 0.055839065 0.096877165
0001e0 7e a1 bc 3d 80 d7 b9 bd 7f ea 32 3e 8a ad 47 bd
       0.0921049 -0.090743065 0.17472266 -0.048749484
0001f0 76 08 8a 3d 48 3b c1 3e a6 23 00 80 f5 9c 01 00
       0.06739895 0.3774054 -1.2788e-41 1.48141e-40
000200 e1 f9 00 80 8f ad 00 80 29 68 01 80 1c 6a 01 80
       -8.964e-41 -6.2261e-41 -1.29201e-40 -1.299e-40
000210 8a e4 00 00 94 12 02 80 c1 d0 00 00 8d 8b 49 bd
       8.1984e-41 -1.90336e-40 7.4887e-41 -0.04920535
000220 2c 5a 11 3e 0e c2 04 be 81 69 f0 3d 5d 88 44 3e
       0.14194554 -0.12964651 0.11738873 0.19192643
000230 df 38 27 3e ce 5f 10 be e3 8a 89 bd e8 1f bf bd
       0.16330288 -0.14099047 -0.06715944 -0.093322575
000240 f3 3a cf 3d 2c 0d 5a 3e 4d 5b b1 3e e0 cc c2 3d
       0.101186655 0.21294087 0.3463997 0.09511733
000250 21 4d d6 3c a2 68 ea 3d 97 78 0f be 62 86 ab bd
       0.026159825 0.114457384 -0.14010845 -0.08375241
000260 87 86 58 be 8d 81 01 00 2c 8e 00 00 fd 6c 01 00
       -0.21145068 1.3831e-40 5.1002e-41 1.30933e-40
000270 49 a3 01 80 25 49 00 00 5a 1e 01 80 fc 5a 01 80
       -1.50411e-40 2.624e-41 -1.02724e-40 -1.24475e-40
000280 a0 1e 00 80 52 d2 00 00 0f 18 b1 8d e2 be db 8b
       -1.0986e-41 7.5449e-41 -1.0914259e-30 -8.464294e-32
000290 0b 1a 1d 0c b4 c5 dc 8d 77 59 7c 0d e6 1c 84 8c
       1.2102677e-31 -1.3606142e-30 7.7761185e-31 -2.0355213e-31
0002a0 81 12 f0 0d 57 c4 d3 8d 95 b1 d8 8b b4 a9 00 80
       1.4795597e-30 -1.3051146e-30 -8.346737e-32 -6.0878e-41
0002b0 45 20 00 00 46 b9 00 00 20 4b 00 80 27 03 00 00
       1.1576e-41 6.6464e-41 -2.695e-41 1.131e-42
0002c0 b0 1e 01 80 5a 73 00 00 04 3e 01 80 1a b5 00 00
       -1.02844e-40 4.138e-41 -1.14083e-40 6.4967e-41
0002d0 03 71 ae bd ce 00 58 3e d5 0d 43 be d8 8b 9f be
       -0.08517649 0.21094057 -0.19048245 -0.3116138
0002e0 5f 77 21 bc 21 04 3c 3d 6d 27 b6 be 16 e1 65 be
       -0.00985512 0.045902375 -0.35576954 -0.22449145
0002f0 f1 a6 81 be f2 c0 00 00 86 67 00 80 84 d3 00 80
       -0.2532268 6.9216e-41 -3.7137e-41 -7.5878e-41
000300 92 dc 00 00 7b 4d 00 80 eb d6 00 80 04 2b 00 00
       7.9126e-41 -2.7795e-41 -7.7098e-41 1.5431e-41
000310 ca 24 00 80 e4 8c 00 00 2f 1b 8c bd 3b f2 8f bd
       -1.3197e-41 5.0542e-41 -0.06841122 -0.07028624
000320 8d c5 c3 3c 66 33 a2 bd ed f3 6f bd a5 63 14 bb
       0.02389791 -0.0791996 -0.058582235 -0.00226424
000330 4a 19 7c bd bc a6 82 bd 1f e3 ab bc fc 25 01 00
       -0.061547555 -0.06379458 -0.020982323 1.05462e-40
000340 63 97 01 80 60 fd 00 00 f9 5c 01 00 2b d6 00 80
       -1.46143e-40 9.0894e-41 1.25188e-40 -7.6829e-41
000350 15 0a 01 00 0e a0 00 80 24 82 00 80 0d f1 00 00
       9.5452e-41 -5.7417e-41 -4.6686e-41 8.6473e-41
000360 69 3b 00 00 48 0c 00 80 49 21 00 00 2a 5c 00 80
       2.1312e-41 -4.406e-42 1.194e-41 -3.3062e-41
000370 95 7c 00 00 a2 97 00 00 f4 0f 00 00 97 07 00 80
       4.4692e-41 5.4396e-41 5.723e-42 -2.723e-42
000380 89 0c 00 80 a3 79 a8 b8 b2 16 20 b9 16 95 90 b8
       -4.497e-42 -8.033521e-05 -0.00015267244 -6.8942245e-05
000390 2b 61 d4 b8 e1 af 17 b9 46 86 7a b8 f2 93 15 b9
       -0.00010127047 -0.00014466002 -5.9729697e-05 -0.00014264861
0003a0 5e 95 17 b9 69 1f 61 b8 8c c7 13 39 8c c0 d6 38
       -0.00014456126 -5.3673433e-05 0.0001409335 0.0001024018
0003b0 66 a6 21 39 34 aa a2 38 b3 25 8a 38 94 27 f6 38
       0.00015416145 7.756465e-05 6.587375e-05 0.00011737566
0003c0 12 3b f8 38 76 6f 0e 39 92 27 16 39 c0 28 a7 3e
       0.00011836564 0.00013583698 0.00014319856 0.32648277
0003d0 f8 f9 18 bc 59 dc 5d 3d 54 2f b7 b9 c1 bf 86 3c
       -0.009336941 0.054165218 -0.00034939742 0.016448857
0003e0 3f ad 61 3d 25 c8 8f 3c 6d 41 72 bb fa 26 6c bd
       0.05509686 0.017551491 -0.0036965266 -0.05765436
0003f0 2b 20 50 3a f9 68 6c 39 75 9b bf ba cd d5 c2 3a
       0.0007939364 0.00022545819 -0.0014618473 0.0014864743

e_conv2.depth_conv.bias f4 [32]
000000 74 57 ba 3d fb d4 a5 bd a2 51 c3 38 b5 78 5f bd
       0.090987116 -0.080972634 9.31353e-05 -0.054558475
000010 fc ae 0f be 98 64 3c 3e 56 b8 bc 3c f7 25 f9 3d
       -0.14031595 0.18397748 0.023037117 0.12165444
000020 f3 56 76 3e ad ab 6f be db bc 6b 3c 2a a0 bd bd
       0.24056606 -0.23405333 0.014388288 -0.092590645
000030 0e 27 5f be 41 cf 53 bd cd 10 fd 3d 40 d9 4f 3e
       -0.21792242 -0.051711325 0.1235672 0.20297718
000040 ec 61 1c 3e f1 b5 4d bb 10 9a 39 b6 27 b1 1b 3e
       0.15271729 -0.0031388963 -2.7656824e-06 0.15204297
000050 33 c0 85 3e 40 ae 26 3e 2b 5f c8 bd 41 3f 1f 3e
       0.261232 0.16277409 -0.09783777 0.15551473
000060 b6 9b 8e bd 63 d3 bc bc 8d da 7a 3d 34 73 4a be
       -0.06963293 -0.023050016 0.061243583 -0.19770509
000070 0e 84 25 bd 16 a5 1f be a0 bc 9e bd 2f af 99 3e
       -0.04040914 -0.15590319 -0.07750821 0.30016467

e_conv2.point_conv.weight f4 [32, 32, 1, 1]
000000 a8 55 42 bc c8 59 89 bb ca 57 8a b9 28 16 97 3d
       -0.011861242 -0.004191611 -0.0002638682 0.07377273
000010 a8 ed 77 3c 02 07 95 bd 0e 62 92 3c d8 1b c3 bc
       0.015132345 -0.07276727 0.017869022 -0.023816988
000020 c6 be 55 bd 0f 78 5a 3c 66 49 81 3d bd f4 f6 3c
       -0.05218389 0.013334288 0.06312828 0.030145997
000030 0d ea 2a 3e 98 88 fe 3c 1b c0 4d bc 54 00 00 be
       0.16690846 0.031070992 -0.012558009 -0.12500125
000040 5d 79 97 3c 3a 79 e1 3a 0c 48 91 b4 a4 1d 33 bd
       0.018490488 0.0017202266 -2.7060776e-07 -0.04372944
000050 ac 2f 97 3e 30 70 67 3c 55 c9 4b 3d 5b b9 4f bd
       0.29528558 0.014125869 0.049752552 -0.050713878
000060 dc db 3a 3b 79 a4 8b 3b 2d 7c 44 bc c9 dc 41 3d
       0.0028512394 0.00426155 -0.011992496 0.047329698
000070 0a a3 61 3c de 2e d8 3c f6 92 14 be 13 70 1b 3c
       0.013771782 0.026389536 -0.14509186 0.00948717
000080 2e 09 41 3d 7a f7 64 bd 68 03 7c b9 92 8c d5 bc
       0.047127895 -0.055900075 -0.00024033862 -0.026068006
000090 97 10 e2 3b 8b e4 07 3d 21 ec 93 3c 7e b6 ab 3c
       0.0068989503 0.03317694 0.018056931 0.020961042
0000a0 fe 18 a7 3d c5 7f a5 bd c2 70 a5 3e e8 a7 6e 3e
       0.08159064 -0.08081011 0.3231259 0.23306239
0000b0 04 bc 87 3e 40 b4 18 3e 32 1c 24 ba 4e 19 c4 3d
       0.26510632 0.1491251 -0.0006260305 0.09575139
0000c0 04 c4 04 3e 1d 47 59 ba 8e 2c 38 35 53 c4 44 b8
       0.12965399 -0.000828849 6.8610177e-07 -4.6912883e-05
0000d0 8e 53 a4 bc f2 23 30 3d f5 73 71 bc 54 39 ba 3d
       -0.020059373 0.04300303 -0.014737119 0.09092966
0000e0 74 16 39 bc b4 fc 7e bb 43 0a 92 bb e7 9b 57 3e
       -0.011296857 -0.0038907947 -0.0044567897 0.21055566
0000f0 2e 8b 2a bd 5e 01 e1 bc af 62 92 be 0c b7 ef 3d
       -0.04163664 -0.027466472 -0.28590915 0.11704835
000100 6b 9d 88 3c a0 4d a1 bc 4b 18 3e 39 a2 22 a5 3e
       0.016676625 -0.019690335 0.00018128862 0.32252985
000110 0c 41 9d bc 65 89 66 3d d7 86 fa 3c 73 0b a2 3c
       -0.019196056 0.056283373 0.030581875 0.01978085
000120 3f 82 98 3b 7f 34 5f bd 90 bd 01 be 3d 66 f9 bd
       0.0046541984 -0.054493424 -0.12669969 -0.121777035
000130 e2 25 8f be 1b a7 19 3c b1 14 7c 3c 3f a9 66 3d
       -0.2795859 0.00937822 0.015385793 0.05631375
000140 2a e0 05 3d 0f 70 ce ba f7 f3 98 35 d4 4f 07 3d
       0.032684483 -0.0015749949 1.1395886e-06 0.033035114
000150 b4 2a 7d bb d0 45 f1 3c 36 46 a0 bb c2 90 62 3d
       -0.003863019 0.029452235 -0.0048911823 0.055313833
000160 b2 e8 95 bc 1d 39 ff bb eb 4b 97 3c 91 27 7e be
       -0.018299434 -0.007788791 0.018468818 -0.24819781
000170 9c 98 73 bc 54 71 2a bd bb 78 c5 3d f7 87 99 3c
       -0.014867928 -0.041611984 0.09642168 0.01874159
000180 32 a0 01 80 22 35 01 80 0f 41 00 80 ca a2 00 80
       -1.49303e-40 -1.10896e-40 -2.3339e-41 -5.8398e-41
000190 4e b3 00 80 54 fa 01 80 02 1d 01 00 a2 6b 00 00
       -6.4322e-41 -1.81636e-40 1.02242e-40 3.8611e-41
0001a0 e4 5c 00 00 4a 3a 00 00 b0 37 01 00 f5 5d 00 00
       3.3323e-41 2.091e-41 1.11812e-40 3.3705e-41
0001b0 81 1f 01 00 54 c1 00 00 fd 21 01 80 92 55 01 80
       1.03137e-40 6.9353e-41 -1.04028e-40 -1.22532e-40
0001c0 55 56 01 00 52 63 01 80 20 b3 01 00 c0 72 00 80
       1.22806e-40 -1.27465e-40 1.56093e-40 -4.1165e-41
0001d0 78 41 01 80 22 31 01 80 4c 16 01 80 9b 5a 01 80
       -1.15321e-40 -1.09461e-40 -9.9834e-41 -1.24339e-40
0001e0 47 ba 00 00 80 30 00 00 9a 2f 01 00 a0 9a 01 80
       6.6824e-41 1.7399e-41 1.08912e-40 -1.47304e-40
0001f0 ed 8a 01 00 d7 34 01 80 9d 49 00 80 2c 9a 01 00
       1.41673e-40 -1.10791e-40 -2.6407e-41 1.47142e-40
000200 5f c4 0a 3b a0 7c f2 b9 94 42 c8 39 49 ef d6 bc
       0.0021174175 -0.0004625069 0.00038196577 -0.026237147
000210 ea 96 1a 3c 7f 17 99 3d 97 27 f3 bd 20 80 04 3c
       0.009435395 0.07475185 -0.118727855 0.008087188
000220 cb ba f2 bb a4 97 f6 bc c2 ae 57 bd 13 eb 97 bc
       -0.0074075214 -0.030101605 -0.052656896 -0.01854471
000230 c6 d2 57 bd b6 53 2b bd 46 1e 69 3c 10 7d 09 3e
       -0.052691244 -0.04182788 0.014228409 0.13426614
000240 17 0d d2 3c 46 ca 62 ba 74 bb c4 35 f5 e5 ec 3c
       0.025641007 -0.0008651357 1.4657694e-06 0.028918246
000250 e0 5b 1f 3c 91 62 1b 3a fd dc 27 bc 76 91 d5 bb
       0.009726495 0.00059274683 -0.010245559 -0.0065175844
000260 cc 42 20 bc dd 35 41 bb 17 d8 16 3c b5 e3 55 bc
       -0.009781551 -0.0029481568 0.009206793 -0.013054778
000270 02 c4 ee bb 93 d6 dd bc 2c 72 d8 3c 07 c8 a8 bd
       -0.0072865495 -0.027079856 0.026421629 -0.08241277
000280 45 3a 45 3c c3 f2 3e bc d5 a3 75 3a 86 1c 8e 3c
       0.012037818 -0.011654559 0.0009370421 0.017347585
000290 89 fc 99 bc 1f 69 da 3c 6c be c0 3d 85 1d 7d 3c
       -0.018797176 0.026661454 0.0941132 0.015448933
0002a0 a7 f0 ec 3c 65 75 e3 bc b6 10 42 3d 47 44 33 bd
       0.028923346 -0.027765939 0.047379218 -0.043766286
0002b0 63 fe cc 3c d2 23 da bb 26 8b 83 3c f5 1c 58 3d
       0.025023645 -0.006657102 0.016057562 0.05276199
0002c0 a7 e0 e3 3b 44 b5 7f ba 16 94 06 37 4a b4 96 3c
       0.006954271 -0.0009754489 8.021501e-06 0.018396515
0002d0 0f a8 86 3d 57 f8 a9 3c 0a a7 b8 bc 35 30 a5 3c
       0.065750234 0.0207483 -0.022540588 0.020164588
0002e0 08 14 06 bc 68 b1 62 bb c6 08 01 3c 41 80 79 bc
       -0.008183487 -0.0034590606 0.007875627 -0.015228332
0002f0 45 4f c3 bb 72 c3 9b bc 8a 83 a6 3c 6d e8 10 3e
       -0.0059603774 -0.019014094 0.020326395 0.14151163
000300 a1 d8 9b 3b bc 57 42 3c 8f c6 0d b9 e1 da 24 3e
       0.004756049 0.011861738 -0.00013520777 0.1609912
000310 3b 75 66 bb db 2a 3f be 78 a4 06 3e a3 f1 f0 ba
       -0.003516509 -0.18668692 0.13148677 -0.001838256
000320 7e bc a2 bb de de 8b bc 53 f2 b0 3e 2a de 05 3e
       -0.0049663177 -0.017074045 0.3455988 0.1307303
000330 02 3a 32 3e 6d 06 4b 3e 23 4d 1f b9 e8 60 c1 bd
       0.1740494 0.1982667 -0.00015192157 -0.094423115
000340 d1 a7 2a 3e 07 df 1c 3a e2 ee 67 b6 6e 84 fa 3b
       0.1666558 0.00059841614 -3.456073e-06 0.0076451814
000350 f9 87 2a bd 0a 38 ad 3b e9 94 d5 3c 6f eb 57 39
       -0.04163358 0.0052862214 0.026071982 0.00020591704
000360 b9 3f 9d 3b 1f 9f 0f 3b 7b 73 17 bb 40 89 02 3e
       0.004798856 0.0021914912 -0.0023109603 0.12747669
000370 e0 69 33 3b f4 ac 73 3c 5e 69 2e be 15 cd f7 3d
       0.002737634 0.014872778 -0.17032382 0.12099663
000380 74 e9 09 99 a4 cc d2 18 5a 69 9a 13 be e4 9e 96
       -7.1298795e-24 5.449036e-24 3.897895e-27 -2.5670633e-25
000390 fc 6d 42 19 a5 b2 27 18 92 82 94 99 3e 3b 39 99
       1.0051776e-23 2.1674437e-24 -1.5355578e-23 -9.57624e-24
0003a0 f7 2e d3 97 d9 69 51 98 1b 4d 5b 99 57 a7 29 99
       -1.3647411e-24 -2.7066056e-24 -1.1337606e-23 -8.770889e-24
0003b0 a3 57 57 99 a9 7a 3c 99 d0 81 38 99 bf 17 8b 99
       -1.11329376e-23 -9.744143e-24 -9.5387925e-24 -1.4381854e-23
0003c0 34 c7 df 99 5d f3 f9 96 b1 f9 ca 12 04 75 32 99
       -2.3138117e-23 -4.0381703e-25 1.2809546e-27 -9.2260154e-24
0003d0 8c b5 09 1a 70 ef 01 99 4e 07 7b 98 88 68 0a 99
       2.8477588e-23 -6.717498e-24 -3.2444678e-24 -7.155543e-24
0003e0 7f e5 96 98 bc b0 94 17 e0 fd 18 19 8a 7b 1d 19
       -3.9005823e-24 9.60889e-25 7.9094855e-24 8.141658e-24
0003f0 e2 90 d5 98 a5 36 2b 19 58 32 95 19 4c e2 9c 18
       -5.5205504e-24 8.851528e-24 1.5426573e-23 4.0553556e-24

e_conv2.point_conv.bias f4 [32]
000000 2e 60 9f 3d 64 01 93 3d ea 4f f0 3d c2 5f 01 80
       0.07782017 0.071779996 0.117339924 -1.26187e-40
000010 90 33 17 3e bb b3 b2 3d 5a af 85 bc 67 9a a2 99
       0.14765763 0.08725687 -0.016318966 -1.681277e-23
000020 04 7b 97 3d dc f4 9b 3d 3b c5 9f 3b 06 99 7b bd
       0.0739651 0.076150626 0.0048758066 -0.06142523
000030 40 a1 8a 3b 6e e5 0e 3e 31 2b 0a 3e b3 34 00 00
       0.0042306483 0.13954708 0.13493039 1.8905e-41
000040 ab c1 00 00 98 5f 47 3c 5f 23 cb 3c a3 c1 9f 2f
       6.9475e-41 0.012168787 0.02479714 2.905952e-10
000050 f0 68 89 bd 5f f0 14 bb b5 ea 22 3c 76 17 93 b9
       -0.06709468 -0.002272628 0.009943654 -0.00028055505
000060 ca d0 5e 3d 4d 10 4e a3 e6 d4 29 3d 7c 53 c5 bd
       0.054398336 -1.1170734e-17 0.0414628 -0.09635064
000070 7e 6c 00 00 64 64 00 00 c4 40 5f 3d 9d 49 a8 3d
       3.892e-41 3.6013e-41 0.054505125 0.082171656

e_conv3.depth_conv.weight f4 [32, 1, 3, 3]
000000 e9 ad 00 00 37 b9 01 80 14 e9 00 80 4b ff 00 80
       6.2387e-41 -1.58278e-40 -8.3613e-41 -9.1582e-41
000010 2a c1 01 00 2a 81 00 80 15 d5 00 00 a0 04 01 80
       1.6113e-40 -4.6335e-41 7.644e-41 -9.3495e-41
000020 c2 68 01 80 aa d3 00 00 a8 47 00 80 32 20 02 00
       -1.29416e-40 7.5931e-41 -2.5705e-41 1.9522e-40
000030 69 93 01 00 cd a7 00 80 d0 8c 01 00 cb 9d 01 00
       1.44716e-40 -6.0196e-41 1.4235e-40 1.48441e-40
000040 55 15 01 00 3f 72 00 80 f8 23 01 00 70 0d 01 00
       9.9488e-41 -4.0984e-41 1.04739e-40 9.6656e-41
000050 f5 16 01 00 92 5b 00 80 05 e7 00 80 5e 33 01 80
       1.00071e-40 -3.2849e-41 -8.2874e-41 -1.10263e-40
000060 6c d7 00 80 6b f6 00 00 7a 80 00 80 8a 9b 00 80
       -7.7279e-41 8.8398e-41 -4.6089e-41 -5.5797e-41
000070 8b 04 01 00 a3 04 00 00 8e e3 01 00 d8 a8 01 80
       9.3465e-41 1.663e-42 1.73467e-40 -1.52405e-40
000080 e3 7b 00 80 86 0e 00 80 35 2e 01 00 b2 ca 00 80
       -4.4442e-41 -5.21e-42 1.08411e-40 -7.2713e-41
000090 51 5b 01 00 c9 4b 01 00 2c 5d 00 00 e8 e6 01 80
       1.24594e-40 1.19022e-40 3.3424e-41 -1.74669e-40
0000a0 b4 18 01 00 5f 65 01 80 02 4b 01 00 ad 4d 00 80
       1.00697e-40 -1.282e-40 1.18743e-40 -2.7865e-41
0000b0 82 6d 01 80 cc 27 02 80 a2 91 01 00 4f 69 00 80
       -1.3112e-40 -1.97947e-40 1.44079e-40 -3.7778e-41
0000c0 d8 2c 01 80 26 c6 01 00 93 2c 02 00 87 dd 00 00
       -1.07922e-40 1.62918e-40 1.99661e-40 7.9469e-41
0000d0 16 67 00 80 d2 bf 01 00 ad ed 00 00 33 48 01 80
       -3.698e-41 1.60648e-40 8.5262e-41 -1.17736e-40
0000e0 72 97 00 80 9e 02 00 80 15 67 00 00 82 17 00 00
       -5.4328e-41 -9.39e-43 3.6979e-41 8.433e-42
0000f0 1d 0a 00 00 ce 04 02 00 92 ff 00 00 dd 69 00 00
       3.628e-42 1.85395e-40 9.1681e-41 3.7977e-41
000100 0b f8 00 80 c0 1b 01 80 81 27 00 80 67 d0 01 80
       -8.8981e-41 -1.0179e-40 -1.4171e-41 -1.66596e-40
000110 ab 07 02 00 7d a3 01 00 41 2e 00 80 19 d9 00 80
       1.86422e-40 1.50484e-40 -1.6593e-41 -7.788e-41
000120 ce 49 01 80 a0 f9 00 80 cd 0a 00 00 21 0d 01 80
       -1.18312e-40 -8.9549e-41 3.875e-42 -9.6545e-41
000130 e7 ef 00 80 9e 14 00 80 99 9f 00 00 d7 c5 00 80
       -8.6061e-41 -7.396e-42 5.7253e-41 -7.0972e-41
000140 c3 1f 02 00 02 0d 00 00 c1 32 01 80 28 13 00 00
       1.95065e-40 4.666e-42 -1.10043e-40 6.872e-42
000150 6a 27 00 00 a8 d0 00 00 c3 76 01 00 c2 3c 01 00
       1.4139e-41 7.4852e-41 1.34439e-40 1.13631e-40
000160 3a 91 00 00 d8 83 00 80 9d 21 01 80 03 b9 00 80
       5.2097e-41 -4.7297e-41 -1.03894e-40 -6.637e-41
000170 15 18 00 80 fa b5 00 80 d0 89 00 00 f1 50 01 00
       -8.639e-42 -6.5281e-41 4.9438e-41 1.20872e-40
000180 fd c7 00 00 eb 36 01 80 c8 6c 01 80 ed ae 00 00
       7.1742e-41 -1.11536e-40 -1.30859e-40 6.2752e-41
000190 80 5c 01 80 c4 81 00 00 8d 22 01 00 52 7a 01 80
       -1.25018e-40 4.6551e-41 1.0423e-40 -1.35716e-40
0001a0 6f 92 00 80 fd ae 00 80 a0 19 00 00 88 59 01 80
       -5.253e-41 -6.2774e-41 9.193e-42 -1.23953e-40
0001b0 ea 7c 00 00 08 09 01 00 32 39 00 80 91 74 00 80
       4.4811e-41 9.5075e-41 -2.0518e-41 -4.1816e-41
0001c0 17 29 01 80 69 04 01 80 0f 13 00 80 7f 3c 01 00
       -1.06576e-40 -9.3418e-41 -6.837e-42 1.13537e-40
0001d0 49 7d 00 00 ed b1 00 00 bf 28 01 00 f8 f0 01 00
       4.4944e-41 6.3828e-41 1.06452e-40 1.78279e-40
0001e0 cd ad 00 00 80 f7 00 00 d0 ad 00 00 59 31 00 00
       6.2348e-41 8.8786e-41 6.2352e-41 1.7703e-41
0001f0 be 0b 00 00 a2 8f 00 00 16 d0 01 00 13 3e 01 00
       4.212e-42 5.1526e-41 1.66483e-40 1.14104e-40
000200 6c b1 01 00 a1 48 00 00 93 6a 00 80 39 30 01 00
       1.55482e-40 2.6054e-41 -3.8232e-41 1.09135e-40
000210 c1 19 00 80 3c 45 01 00 1e 3a 01 80 fc 3f 00 00
       -9.239e-42 1.16672e-40 -1.12684e-40 2.2953e-41
000220 8e 5f 01 00 33 0b 01 00 27 e1 00 00 9d fe 00 00
       1.26114e-40 9.5853e-41 8.077e-41 9.1338e-41
000230 06 56 01 80 96 e9 00 80 11 98 00 00 75 48 00 80
       -1.22695e-40 -8.3795e-41 5.4551e-41 -2.5993e-41
000240 96 d8 00 00 86 13 01 80 bb 08 01 80 7b 80 01 00
       7.7696e-41 -9.8839e-41 -9.4967e-41 1.37926e-40
000250 5d 8f 01 80 43 b8 01 00 ba e9 00 00 ef 39 01 00
       -1.43265e-40 1.57936e-40 8.3845e-41 1.12618e-40
000260 c9 87 01 00 df 83 00 80 d0 e3 00 00 0a 9a 00 00
       1.40546e-40 -4.7306e-41 8.1724e-41 5.5259e-41
000270 94 5d 00 00 62 69 00 00 ea 84 01 80 70 b8 01 00
       3.357e-41 3.7804e-41 -1.39516e-40 1.57999e-40
000280 95 25 01 80 00 1d 00 00 76 a8 00 00 30 62 01 00
       -1.05317e-40 1.0403e-41 6.0432e-41 1.27059e-40
000290 ad 02 01 00 fc ea 00 00 59 f1 00 80 b2 58 00 00
       9.2795e-41 8.4297e-41 -8.6579e-41 3.1818e-41
0002a0 0a a9 01 80 3f a3 00 00 2a 38 00 00 47 9c 00 80
       -1.52475e-40 5.8562e-41 2.0148e-41 -5.6062e-41
0002b0 27 a3 01 00 f6 08 01 00 ad 18 01 80 c7 c7 00 00
       1.50364e-40 9.505e-41 -1.00687e-40 7.1667e-41
0002c0 50 a2 01 00 0f 28 01 80 8c 1d 01 00 49 da 01 00
       1.50062e-40 -1.06206e-40 1.02435e-40 1.70141e-40
0002d0 5c 59 00 80 da 6c 01 80 4c 6d 01 80 c7 3b 00 80
       -3.2056e-41 -1.30884e-40 -1.31044e-40 -2.1444e-41
0002e0 49 c5 00 80 95 44 00 00 8a 23 00 80 e9 6e 00 00
       -7.0773e-41 2.4603e-41 -1.2749e-41 3.9787e-41
0002f0 d8 0f 00 80 bd ab 00 80 ab 15 01 80 72 87 00 00
       -5.684e-42 -6.1608e-41 -9.9608e-41 4.8589e-41
000300 6c 2d 00 80 0b 2b 01 80 0d 0c 00 00 9f 63 00 00
       -1.6294e-41 -1.07276e-40 4.323e-42 3.5737e-41
000310 32 d0 00 00 bd d0 00 00 59 c4 00 00 a4 3d 01 00
       7.4686e-41 7.4881e-41 7.0436e-41 1.13948e-40
000320 44 b5 01 80 f2 64 00 00 07 91 01 80 69 2b 01 80
       -1.56861e-40 3.6212e-41 -1.43862e-40 -1.07408e-40
000330 a6 85 01 00 20 79 00 00 18 f7 01 00 e9 4b 00 00
       1.3978e-40 4.3451e-41 1.80476e-40 2.7231e-41
000340 f7 86 01 80 45 8e 00 80 02 84 01 00 98 2d 01 80
       -1.40252e-40 -5.1037e-41 1.39191e-40 -1.08191e-40
000350 1e 4b 01 00 e0 54 01 80 10 32 00 00 94 32 01 80
       1.18782e-40 -1.22283e-40 1.7959e-41 -1.0998e-40
000360 7e e9 01 00 cf f9 00 00 77 a8 00 80 ed fe 00 00
       1.75597e-40 8.9614e-41 -6.0434e-41 9.145e-41
000370 6a a1 01 00 4c 87 00 00 0d 14 00 80 2c ff 00 00
       1.4974e-40 4.8535e-41 -7.193e-42 9.1538e-41
000380 e5 0a 01 00 21 e9 00 80 f8 38 01 00 01 45 00 00
       9.5744e-41 -8.3631e-41 1.12272e-40 2.4754e-41
000390 cb 4c 01 80 61 cd 00 00 c3 74 01 80 f2 38 00 80
       -1.19384e-40 7.3676e-41 -1.33722e-40 -2.0428e-41
0003a0 68 67 00 80 37 0a 02 80 12 69 00 00 e8 35 00 80
       -3.7095e-41 -1.87335e-40 3.7692e-41 -1.9338e-41
0003b0 e3 e9 00 00 19 3c 00 80 d8 e0 00 00 89 23 01 00
       8.3903e-41 -2.1559e-41 8.0659e-41 1.04583e-40
0003c0 86 65 00 80 03 bf 00 80 1e 13 00 00 cf c2 01 80
       -3.642e-41 -6.8522e-41 6.858e-42 -1.6172e-40
0003d0 fe 70 00 80 be 30 01 80 d2 aa 00 80 5f ee 01 00
       -4.0534e-41 -1.09321e-40 -6.1279e-41 1.77347e-40
0003e0 b3 55 01 80 31 e8 01 00 7e c3 01 00 05 3a 01 00
       -1.22579e-40 1.7513e-40 1.61965e-40 1.12649e-40
0003f0 42 bb 00 80 e7 31 02 00 94 17 00 00 4a c1 01 80
       -6.7175e-41 2.01573e-40 8.458e-42 -1.61175e-40

e_conv3.depth_conv.bias f4 [32]
000000 c4 12 00 80 e0 42 01 80 73 82 00 00 81 1b 01 00
       -6.732e-42 -1.15826e-40 4.6796e-41 1.01702e-40
000010 44 a2 01 80 59 1a 02 80 f3 40 01 80 d9 1e 00 00
       -1.50045e-40 -1.93123e-40 -1.15135e-40 1.1066e-41
000020 81 4b 00 80 65 02 01 80 75 95 01 00 71 03 01 00
       -2.7086e-41 -9.2694e-41 1.4545e-40 9.307e-41
000030 95 30 01 00 8f 1c 01 00 fc 30 00 80 df 52 01 80
       1.09263e-40 1.0208e-40 -1.7572e-41 -1.21564e-40
000040 83 bc 01 00 69 11 00 80 4e 32 01 00 77 67 01 00
       1.59461e-40 -6.246e-42 1.09881e-40 1.28952e-40
000050 ab 12 01 00 4c 41 01 00 fb 07 01 80 8b 29 00 80
       9.8532e-41 1.1526e-40 -9.4698e-41 -1.4903e-41
000060 a8 37 00 00 76 29 02 00 39 ef 01 80 ff 6e 00 00
       1.9966e-41 1.98544e-40 -1.77652e-40 3.9818e-41
000070 77 1d 01 00 d7 de 00 00 21 35 00 00 de 7a 00 00
       1.02405e-40 7.994e-41 1.9059e-41 4.4076e-41

e_conv3.point_conv.weight f4 [32, 32, 1, 1]
000000 35 f3 00 00 db ee 00 00 8b 3e 00 00 74 48 01 80
       8.7246e-41 8.5685e-41 2.2436e-41 -1.17827e-40
000010 69 0f 01 80 60 1b 01 00 8a 24 01 80 b8 3f 01 00
       -9.7364e-41 1.01656e-40 -1.04943e-40 1.14693e-40
000020 08 ad 00 80 03 dd 00 00 58 48 01 80 d2 44 01 80
       -6.2072e-41 7.9284e-41 -1.17788e-40 -1.16524e-40
000030 2e da 00 00 b2 f0 00 00 f2 37 01 80 fa 85 00 80
       7.8268e-41 8.6345e-41 -1.11905e-40 -4.8062e-41
000040 b5 1c 01 00 22 35 01 80 36 67 00 80 a4 56 01 80
       1.02134e-40 -1.10896e-40 -3.7025e-41 -1.22916e-40
000050 16 2b 01 80 83 65 01 00 ce 44 01 80 60 a2 00 00
       -1.07292e-40 1.28251e-40 -1.16518e-40 5.8249e-41
000060 8f 45 00 80 fc 32 02 80 36 ca 00 80 30 fc 01 80
       -2.4953e-41 -2.01961e-40 -7.254e-41 -1.82303e-40
000070 06 dc 00 80 d2 56 00 80 4f f9 01 00 10 17 01 80
       -7.893e-41 -3.1145e-41 1.8127e-40 -1.00109e-40
000080 f5 32 01 00 e6 e9 01 00 23 42 01 80 25 09 01 00
       1.10115e-40 1.75742e-40 -1.15561e-40 9.5116e-41
000090 97 57 01 80 8d 00 01 00 a3 0e 00 00 18 e5 00 00
       -1.23257e-40 9.2033e-41 5.25e-42 8.2183e-41
0000a0 f7 75 01 00 a9 88 00 00 cd 82 01 00 f4 e8 01 80
       1.34153e-40 4.9024e-41 1.38758e-40 -1.75403e-40
0000b0 a2 0a 00 80 2e 92 01 80 89 e3 00 80 00 6c 00 00
       -3.814e-42 -1.44275e-40 -8.1624e-41 3.8743e-41
0000c0 2d ba 01 00 61 96 00 00 73 fb 01 80 a7 f1 00 80
       1.58623e-40 5.3946e-41 -1.82038e-40 -8.6689e-41
0000d0 e5 fd 01 00 d0 1b 01 80 8c 8e 00 80 66 bc 00 80
       1.82916e-40 -1.01813e-40 -5.1136e-41 -6.7585e-41
0000e0 64 93 00 80 38 17 02 80 0a 14 02 00 5b a6 00 00
       -5.2874e-41 -1.92e-40 1.9086e-40 5.9677e-41
0000f0 2e 28 00 00 8c 21 01 80 9d e8 00 80 e4 98 00 00
       1.4414e-41 -1.0387e-40 -8.3446e-41 5.4847e-41
000100 0f c7 00 80 43 ba 00 00 98 71 00 00 f1 fe 00 80
       -7.1409e-41 6.6818e-41 4.075e-41 -9.1456e-41
000110 c3 94 01 80 38 60 01 80 82 96 01 00 19 b7 01 00
       -1.45201e-40 -1.26352e-40 1.45828e-40 1.57519e-40
000120 75 76 00 00 c9 56 01 80 cd cb 00 80 25 14 02 80
       4.2494e-41 -1.22968e-40 -7.311e-41 -1.90897e-40
000130 6f d9 00 80 fd 25 00 00 17 0a 01 80 fe 6e 01 00
       -7.8e-41 1.3628e-41 -9.5455e-41 1.31652e-40
000140 67 ea 01 80 08 27 01 80 53 a6 01 00 56 3d 00 00
       -1.75923e-40 -1.05837e-40 1.51501e-40 2.2003e-41
000150 5c 03 00 00 de d8 01 80 db 90 00 80 1f a2 00 00
       1.205e-42 -1.69633e-40 -5.1964e-41 5.8158e-41
000160 d5 bc 00 00 58 9b 01 00 38 a4 01 80 28 b4 01 00
       6.774e-41 1.47562e-40 -1.50746e-40 1.56463e-40
000170 db b4 01 00 38 06 00 00 ad 25 01 00 f5 33 02 80
       1.56714e-40 2.231e-42 1.05351e-40 -2.0231e-40
000180 16 a9 01 80 6e 6d 00 00 a5 58 00 00 c0 2d 02 00
       -1.52492e-40 3.9256e-41 3.18e-41 2.00083e-40
000190 09 00 00 80 76 d7 00 80 92 60 01 00 72 40 00 80
       -1.3e-44 -7.7293e-41 1.26478e-40 -2.3119e-41
0001a0 29 9d 00 80 df 7b 01 00 f1 9d 00 80 59 a7 00 00
       -5.6378e-41 1.36272e-40 -5.6659e-41 6.0033e-41
0001b0 68 01 01 00 0d 3a 01 80 48 62 00 80 77 a5 00 80
       9.234e-41 -1.1266e-40 -3.5257e-41 -5.9358e-41
0001c0 3e 39 01 00 53 94 00 80 3f 96 01 00 97 e5 00 80
       1.1237e-40 -5.3209e-41 1.45734e-40 -8.2361e-41
0001d0 b4 1e 01 00 22 27 00 00 a0 31 00 00 2f 0c 01 00
       1.0285e-40 1.4038e-41 1.7802e-41 9.6206e-41
0001e0 7e f1 00 00 89 47 01 00 96 97 01 00 de 26 02 80
       8.6631e-41 1.17497e-40 1.46214e-40 -1.97614e-40
0001f0 f3 35 00 80 25 c3 00 00 8f c3 01 00 7f e9 00 80
       -1.9353e-41 7.0005e-41 1.61989e-40 -8.3763e-41
000200 fb 55 01 80 d9 e8 01 00 56 19 00 00 b7 98 00 80
       -1.2268e-40 1.75365e-40 9.089e-42 -5.4784e-41
000210 c0 00 01 00 ad b6 00 80 c4 a6 00 00 ae 09 00 80
       9.2105e-41 -6.5532e-41 5.9824e-41 -3.472e-42
000220 a1 c7 00 00 8f 54 00 80 40 09 00 80 94 64 01 00
       7.1613e-41 -3.0334e-41 -3.318e-42 1.27916e-40
000230 81 62 00 80 92 3c 01 00 23 e6 00 00 c6 50 00 00
       -3.5337e-41 1.13564e-40 8.2557e-41 2.8976e-41
000240 f1 97 01 00 f5 f3 00 80 b0 fe 00 00 1e 2a 01 00
       1.46342e-40 -8.7515e-41 9.1365e-41 1.06944e-40
000250 e1 0d 00 00 f7 55 01 80 c1 33 02 80 fc 9d 00 80
       4.979e-42 -1.22674e-40 -2.02237e-40 -5.6674e-41
000260 76 08 01 00 ea 6c 00 80 e3 cd 00 80 2a 82 00 80
       9.4871e-41 -3.9071e-41 -7.3858e-41 -4.6694e-41
000270 7a 54 00 80 a1 3d 01 00 f1 31 01 00 27 69 00 00
       -3.0304e-41 1.13944e-40 1.09751e-40 3.7722e-41
000280 fe cf 00 80 d1 31 00 80 e8 e2 00 00 85 47 01 80
       -7.4614e-41 -1.7871e-41 8.1399e-41 -1.17492e-40
000290 67 df 00 00 aa 77 00 00 70 b9 00 80 08 00 00 80
       8.0142e-41 4.2927e-41 -6.6522e-41 -1.1e-44
0002a0 ee 1b 01 80 e3 8e 00 80 01 8d 00 00 8c af 00 80
       -1.01855e-40 -5.1258e-41 5.0583e-41 -6.2974e-41
0002b0 db 69 01 00 6c 3e 01 80 34 66 01 00 c2 d5 01 80
       1.29809e-40 -1.14228e-40 1.28499e-40 -1.68517e-40
0002c0 96 da 00 00 05 55 00 80 78 2d 01 00 a1 e3 00 00
       7.8414e-41 -3.0499e-41 1.08147e-40 8.1658e-41
0002d0 9c da 00 00 d7 11 00 80 7f 4d 00 80 1b 49 00 80
       7.8422e-41 -6.4e-42 -2.78e-41 -2.6225e-41
0002e0 0b 0f 01 00 9a 9b 01 00 b2 2a 01 00 00 8b 01 80
       9.7232e-41 1.47655e-40 1.07152e-40 -1.417e-40
0002f0 62 35 00 00 8e 0a 01 80 14 81 00 80 d5 21 01 80
       1.915e-41 -9.5622e-41 -4.6305e-41 -1.03972e-40
000300 41 d1 01 00 86 53 00 00 ba 8a 01 80 b6 81 00 80
       1.66902e-40 2.9963e-41 -1.41601e-40 -4.6532e-41
000310 39 16 01 80 8a 70 00 80 77 90 01 00 e6 17 02 80
       -9.9807e-41 -4.0371e-41 1.4366e-40 -1.92244e-40
000320 8b 01 01 00 98 43 00 00 bf 41 01 80 42 6e 01 00
       9.2389e-41 2.4248e-41 -1.15421e-40 1.31389e-40
000330 38 8f 00 80 e4 a0 00 80 10 9e 00 00 1f e4 01 80
       -5.1377e-41 -5.7717e-41 5.6702e-41 -1.7367e-40
000340 a2 7a 01 00 a8 3f 00 00 6a 25 01 80 af 39 01 80
       1.35828e-40 2.2836e-41 -1.05257e-40 -1.12528e-40
000350 38 b8 01 00 27 fa 00 80 96 87 01 00 b3 8c 00 80
       1.57921e-40 -8.9738e-41 1.40475e-40 -5.0473e-41
000360 bc cd 01 00 25 20 01 00 11 22 02 00 1a 1a 01 00
       1.65639e-40 1.03367e-40 1.95892e-40 1.01199e-40
000370 25 eb 00 80 d6 5b 01 80 e2 0f 02 00 44 a3 00 00
       -8.4354e-41 -1.2478e-40 1.89369e-40 5.8569e-41
000380 7d 25 02 00 3d 40 00 00 48 8d 01 00 f8 0e 02 00
       1.97119e-40 2.3044e-41 1.42518e-40 1.89041e-40
000390 fb 86 01 00 0d 17 01 00 42 e6 01 80 4c 79 00 80
       1.40257e-40 1.00105e-40 -1.74436e-40 -4.3513e-41
0003a0 1c f9 00 80 3e 1e 00 00 f1 84 01 80 4f 4f 01 80
       -8.9364e-41 1.0849e-41 -1.39526e-40 -1.20286e-40
0003b0 86 c9 00 80 54 b7 01 00 e7 65 00 00 dc 06 01 80
       -7.2293e-41 1.57601e-40 3.6556e-41 -9.4296e-41
0003c0 4d 98 00 00 0f 0b 00 80 27 7f 00 80 3f 63 01 80
       5.4635e-41 -3.967e-42 -4.5614e-41 -1.27438e-40
0003d0 15 92 01 00 86 32 01 00 e6 e5 01 80 e4 2d 00 80
       1.4424e-40 1.0996e-40 -1.74308e-40 -1.6462e-41
0003e0 9e 08 00 80 d4 e8 00 00 4c 90 01 80 b9 72 00 00
       -3.091e-42 8.3523e-41 -1.436e-40 4.1155e-41
0003f0 e3 74 01 00 83 f5 01 80 79 97 01 00 e9 6b 01 80
       1.33767e-40 -1.79909e-40 1.46174e-40 -1.30546e-40

e_conv3.point_conv.bias f4 [32]
000000 9b 12 01 80 3b 48 01 00 a7 ec 00 80 b0 1d 01 00
       -9.851e-41 1.17747e-40 -8.4895e-41 1.02485e-40
000010 5f b6 00 80 9c 9a 00 00 a5 c2 00 00 16 50 00 80
       -6.5422e-41 5.5463e-41 6.9825e-41 -2.873e-41
000020 61 fd 00 00 75 4c 01 80 56 7c 00 00 10 3b 01 00
       9.0895e-41 -1.19263e-40 4.4603e-41 1.13023e-40
000030 6a 11 00 80 97 90 00 00 2a e1 00 00 87 9b 00 00
       -6.247e-42 5.1869e-41 8.0774e-41 5.5793e-41
000040 fd 00 02 00 f2 61 00 00 c9 a1 01 80 89 26 00 00
       1.84026e-40 3.5136e-41 -1.49873e-40 1.3824e-41
000050 db 9d 00 80 90 a4 00 80 ff 91 00 80 be 93 00 80
       -5.6628e-41 -5.9034e-41 -5.2374e-41 -5.3e-41
000060 74 6c 01 00 e3 69 01 80 40 a3 00 80 dd df 01 80
       1.30741e-40 -1.2982e-40 -5.8563e-41 -1.72143e-40
000070 32 34 01 00 6f 9a 01 00 92 fb 01 80 28 db 01 80
       1.1056e-40 1.47236e-40 -1.82082e-40 -1.70454e-40

e_conv4.depth_conv.weight f4 [32, 1, 3, 3]
000000 07 5c 01 80 fd 70 01 00 b9 3d 01 80 73 79 00 80
       -1.24849e-40 1.32368e-40 -1.13977e-40 -4.3568e-41
000010 f3 df 01 80 1e a7 00 00 43 87 00 00 f4 05 00 00
       -1.72173e-40 5.995e-41 4.8523e-41 2.136e-42
000020 04 eb 01 00 11 84 00 80 42 3d 01 00 3c 1d 00 80
       1.76143e-40 -4.7376e-41 1.1381e-40 -1.0487e-41
000030 b6 6e 01 00 85 29 01 00 5e 65 00 80 b4 12 01 80
       1.31551e-40 1.0673e-40 -3.6364e-41 -9.8545e-41
000040 ee e4 00 00 4c 03 00 00 da cf 00 80 96 cf 00 00
       8.2124e-41 1.183e-42 -7.4563e-41 7.4468e-41
000050 06 f2 01 80 e7 1a 00 80 a6 17 00 80 a3 ab 00 80
       -1.78657e-40 -9.651e-42 -8.483e-42 -6.1572e-41
000060 8c ab 00 80 68 82 01 80 67 d3 00 00 ce 13 01 00
       -6.154e-41 -1.38616e-40 7.5837e-41 9.894e-41
000070 19 4d 01 80 4f 80 00 80 1b 63 00 80 1f c4 01 00
       -1.19493e-40 -4.6028e-41 -3.5552e-41 1.6219e-40
000080 2e 01 00 00 8b 4d 00 00 75 24 00 00 93 35 01 80
       4.23e-43 2.7817e-41 1.3078e-41 -1.11054e-40
000090 23 8c 01 80 62 45 01 80 ad f8 01 80 00 07 01 80
       -1.42107e-40 -1.16725e-40 -1.81044e-40 -9.4347e-41
0000a0 29 b2 01 80 05 2f 01 00 f1 a6 00 00 2f 35 01 80
       -1.55747e-40 1.08703e-40 5.9887e-41 -1.10914e-40
0000b0 16 28 01 80 c6 b0 00 80 9c 40 01 80 f5 97 00 00
       -1.06216e-40 -6.3414e-41 -1.15013e-40 5.4512e-41
0000c0 72 2a 01 80 4c 25 00 80 1f 28 00 80 75 75 00 00
       -1.07062e-40 -1.338e-41 -1.4393e-41 4.2136e-41
0000d0 28 1d 01 80 08 74 00 00 16 93 01 00 20 3d 00 80
       -1.02295e-40 4.1624e-41 1.446e-40 -2.1928e-41
0000e0 73 40 00 80 8a f0 00 00 81 c8 00 00 77 51 01 80
       -2.312e-41 8.6289e-41 7.1927e-41 -1.2106e-40
0000f0 50 9a 01 80 7d 7e 00 80 ff 52 01 00 92 0c 00 80
       -1.47192e-40 -4.5375e-41 1.21609e-40 -4.51e-42
000100 89 ee 00 80 c4 fd 00 00 e8 3c 01 00 af 57 00 80
       -8.557e-41 9.1034e-41 1.13685e-40 -3.1455e-41
000110 75 b9 01 00 93 8a 00 80 c4 30 01 00 80 4f 01 80
       1.58365e-40 -4.9711e-41 1.0933e-40 -1.20355e-40
000120 d1 e9 00 00 da 0a 01 80 07 95 00 80 66 01 01 00
       8.3878e-41 -9.5728e-41 -5.3461e-41 9.2337e-41
000130 6d 75 01 00 ad 40 00 80 98 22 01 00 98 fa 00 80
       1.3396e-40 -2.3201e-41 1.04245e-40 -8.9896e-41
000140 a0 26 01 80 24 09 00 00 38 16 01 80 ea 4e 00 80
       -1.05692e-40 3.279e-42 -9.9806e-41 -2.8309e-41
000150 4d 27 01 80 0e 5d 00 00 89 a9 00 80 72 a9 00 00
       -1.05934e-40 3.3382e-41 -6.0818e-41 6.0786e-41
000160 fa 7f 00 80 41 98 00 80 e3 0c 00 80 b3 9b 00 80
       -4.591e-41 -5.4618e-41 -4.623e-42 -5.5854e-41
000170 22 33 01 00 56 03 01 00 4d ba 01 00 ca b7 00 80
       1.10178e-40 9.3032e-41 1.58668e-40 -6.5931e-41
000180 63 3b 01 00 24 1f 02 80 58 bc 00 80 5f 20 01 80
       1.1314e-40 -1.94842e-40 -6.7565e-41 -1.03448e-40
000190 bc 06 01 80 c9 71 00 80 60 05 00 80 93 99 00 80
       -9.4251e-41 -4.0818e-41 -1.928e-42 -5.5092e-41
0001a0 4e 19 01 00 40 a1 01 00 6f 07 01 80 82 1a 01 00
       1.00913e-40 1.49681e-40 -9.4502e-41 1.01345e-40
0001b0 11 6d 01 00 bc 5e 00 00 6a 45 00 80 fb 2a 01 00
       1.30961e-40 3.3984e-41 -2.4901e-41 1.07254e-40
0001c0 e7 2b 00 00 5f 1d 00 00 5f 15 00 80 e1 51 01 00
       1.5749e-41 1.0536e-41 -7.667e-42 1.21208e-40
0001d0 4e e6 00 80 32 ed 00 00 c7 c3 00 80 7b 04 01 80
       -8.2618e-41 8.509e-41 -7.0232e-41 -9.3443e-41
0001e0 05 2e 01 00 b0 22 01 80 5a 8a 01 00 46 01 00 00
       1.08344e-40 -1.04279e-40 1.41467e-40 4.57e-43
0001f0 f4 0e 01 80 a1 5c 00 80 73 8c 01 00 ac e4 00 00
       -9.72e-41 -3.3229e-41 1.42219e-40 8.2032e-41
000200 79 ef 00 80 c0 f1 00 00 e8 13 02 00 9b 5f 00 80
       -8.5907e-41 8.6724e-41 1.90812e-40 -3.4297e-41
000210 5a 2c 01 00 0a 43 00 00 ad 97 00 80 3e 61 01 80
       1.07746e-40 2.4049e-41 -5.4411e-41 -1.2672e-40
000220 22 29 01 80 e1 10 01 00 c7 fd 00 80 80 1c 02 80
       -1.06591e-40 9.789e-41 -9.1038e-41 -1.93895e-40
000230 6e cf 00 00 f1 f7 01 80 52 ee 00 00 e2 56 01 80
       7.4412e-41 -1.8078e-40 8.5493e-41 -1.23003e-40
000240 1b 3e 01 80 0a 96 00 00 39 10 01 80 e7 92 00 00
       -1.14115e-40 5.3824e-41 -9.7655e-41 5.2699e-41
000250 49 92 01 00 47 a5 01 80 f0 38 01 80 3a f1 00 80
       1.44313e-40 -1.51126e-40 -1.12261e-40 -8.6536e-41
000260 6b b0 00 00 de 84 01 80 10 16 01 80 10 4b 01 80
       6.3287e-41 -1.39499e-40 -9.975e-41 -1.18763e-40
000270 46 2b 00 80 fc 4d 00 00 25 5c 01 80 e4 7e 00 80
       -1.5524e-41 2.7976e-41 -1.24891e-40 -4.552e-41
000280 38 f4 00 80 10 5d 00 00 0d 8c 01 00 05 1d 01 00
       -8.7609e-41 3.3385e-41 1.42076e-40 1.02246e-40
000290 6a 6f 00 80 3e 1e 01 80 25 3a 00 00 81 af 00 80
       -3.9968e-41 -1.02684e-40 2.0858e-41 -6.2959e-41
0002a0 22 30 01 00 34 f7 01 80 65 0d 02 00 56 62 01 00
       1.09102e-40 -1.80515e-40 1.88476e-40 1.27112e-40
0002b0 1f a5 01 80 67 97 00 00 d2 45 01 80 7e b3 00 80
       -1.5107e-40 5.4313e-41 -1.16882e-40 -6.439e-41
0002c0 e6 5a 00 00 a2 b9 00 80 12 1b 01 80 63 03 00 80
       3.2608e-41 -6.6593e-41 -1.01546e-40 -1.215e-42
0002d0 a8 0b 00 80 74 f5 01 80 9e 0b 01 80 e6 97 01 80
       -4.181e-42 -1.79887e-40 -9.6003e-41 -1.46326e-40
0002e0 97 90 00 00 28 d2 01 00 7d 4f 00 00 c9 2f 01 00
       5.1869e-41 1.67225e-40 2.8515e-41 1.08978e-40
0002f0 30 77 01 80 a7 f8 00 80 57 80 01 80 36 15 01 00
       -1.34592e-40 -8.92e-41 -1.37875e-40 9.9445e-41
000300 33 45 00 00 fb 1b 00 80 33 45 00 80 6e f8 01 00
       2.4824e-41 -1.0038e-41 -2.4824e-41 1.80955e-40
000310 11 ec 00 80 38 84 01 00 59 f4 01 00 f7 b7 00 00
       -8.4685e-41 1.39267e-40 1.79491e-40 6.5994e-41
000320 f9 8f 01 00 77 09 02 00 ce 2d 00 00 8d 43 00 00
       1.43483e-40 1.87066e-40 1.6432e-41 2.4233e-41
000330 c1 18 01 00 24 d6 00 00 51 02 00 00 e0 d4 00 00
       1.00716e-40 7.6819e-41 8.31e-43 7.6365e-41
000340 f5 fa 00 80 b0 c7 00 00 02 dd 00 80 1e 00 00 80
       -9.0026e-41 7.1634e-41 -7.9283e-41 -4.2e-44
000350 8f d2 01 00 86 72 00 00 9a 0b 01 00 c1 6e 00 80
       1.6737e-40 4.1083e-41 9.5997e-41 -3.9731e-41
000360 59 ef 00 80 2e 77 00 00 fd 5c 01 00 ae 17 02 80
       -8.5862e-41 4.2754e-41 1.25193e-40 -1.92166e-40
000370 ce 55 01 00 3c 25 00 80 b6 ff 00 80 8e 5a 00 80
       1.22616e-40 -1.3357e-41 -9.1732e-41 -3.2485e-41
000380 48 f4 00 80 87 1a 01 80 97 a7 00 80 77 87 01 80
       -8.7632e-41 -1.01352e-40 -6.012e-41 -1.40431e-40
000390 b9 78 00 80 67 55 00 00 3e 3e 00 00 1d 5a 01 00
       -4.3307e-41 3.0637e-41 2.2328e-41 1.24162e-40
0003a0 e4 25 01 80 9d a7 01 80 57 99 00 00 38 87 01 80
       -1.05428e-40 -1.51964e-40 5.5008e-41 -1.40343e-40
0003b0 76 5b 00 80 6d a8 00 80 05 a2 00 00 8f 17 01 00
       -3.281e-41 -6.042e-41 5.8122e-41 1.00287e-40
0003c0 f1 40 00 00 39 1b 00 80 91 0d 00 00 b5 1e 01 80
       2.3297e-41 -9.766e-42 4.867e-42 -1.02851e-40
0003d0 82 ec 00 80 53 51 00 80 17 c3 00 80 db 74 00 80
       -8.4843e-41 -2.9174e-41 -6.9985e-41 -4.192e-41
0003e0 20 bc 01 00 79 e7 00 80 ec 1f 02 00 20 3d 01 80
       1.59322e-40 -8.3037e-41 1.95122e-40 -1.13763e-40
0003f0 15 b1 00 80 75 fd 00 80 5c 13 02 00 98 2b 01 00
       -6.3525e-41 -9.0923e-41 1.90616e-40 1.07474e-40

e_conv4.depth_conv.bias f4 [32]
000000 72 bf 00 00 77 32 01 80 61 0c 00 80 0c 0f 01 00
       6.8678e-41 -1.09939e-40 -4.441e-42 9.7233e-41
000010 51 54 01 00 2d 42 00 80 b1 da 00 00 b5 2d 00 00
       1.22083e-40 -2.374e-41 7.8452e-41 1.6397e-41
000020 6f 63 01 00 ef 86 00 00 a1 12 00 80 c7 db 00 80
       1.27506e-40 4.8405e-41 -6.683e-42 -7.8841e-41
000030 c8 11 01 00 bc e3 00 00 a2 67 01 00 0b 1f 01 00
       9.8214e-41 8.1696e-41 1.29012e-40 1.02972e-40
000040 e0 24 01 00 f0 a9 00 80 aa 0b 01 80 a0 26 01 00
       1.05064e-40 -6.0962e-41 -9.602e-41 1.05692e-40
000050 d0 cd 00 00 cb ef 00 00 ac 67 00 80 6c 79 01 80
       7.3832e-41 8.6022e-41 -3.719e-41 -1.35393e-40
000060 43 3e 00 80 1f 18 01 00 91 37 01 80 84 03 01 00
       -2.2335e-41 1.00489e-40 -1.11769e-40 9.3097e-41
000070 8b 52 00 00 17 14 00 80 8e 7f 00 80 c1 28 00 00
       2.9611e-41 -7.207e-42 -4.5758e-41 1.462e-41
