Zero-DCE++/snapshots_Zero_DCE++/Epoch38.pth (torch, 51217 bytes, 28 tensors)

e_conv1.depth_conv.weight f4 [3, 1, 3, 3]
00000000: 9327 abbe d5df 14be 3683 213d a03e 30be
00000010: 8c5e fe3d 2864 e13d ecc1 c9be 99fc 11be
00000020: 1dfa 52bd 375d 373e 2e5e 043e be67 973e
00000030: 9d55 353e d1a8 2aba 971e 633e e21c ca3d
00000040: 0a07 bcbc c08d 423e 2c82 7bbc 62d8 5cbd
00000050: 70a3 14be bc41 5bbd c83d cfbd ba52 05be
00000060: 26d1 65bd 3b3e 3ebe 159a abbe
-0.3342863 -0.1453851 0.039431773 -0.1721139 0.12420377 0.110054314 -0.39405763 -0.14256515
-0.051508058 0.17906652 0.12926552 0.29571337 0.1770844 -0.0006510141 0.22179638 0.0986879
-0.022952575 0.18999386 -0.01535086 -0.053917296 -0.14515471 -0.053529486 -0.10119206 -0.13019839
-0.056107663 -0.18578427 -0.33515993

e_conv1.depth_conv.bias f4 [3]
00000000: 3521 973d 76a0 a03e aebd 1ebd
0.073793806 0.31372422 -0.03875511

e_conv1.point_conv.weight f4 [32, 3, 1, 1]
00000000: eb5b 283c f5f8 7d3e bad9 c93d d247 0000
00000010: 27c0 cc90 1f09 b925 2f63 4b30 7d86 1eb9
00000020: d5b2 29b5 e2dc bb3d 4c50 07bf 4605 f03d
00000030: 0f7b 1e38 5261 73b7 d86f 8b36 d5ef adbd
00000040: 11e0 fb3d d34f e43e c271 ab3d 3f46 8b3e
00000050: 6b0b 98be 2d32 0000 85e5 0080 55f5 0000
00000060: 0bd8 bb3c 5b07 8dbc fca9 353d 5e51 973d
00000070: d469 1bbd 1662 03be f823 bd3e 954c 0ebf
00000080: ebeb c83e 003d 6a3c 6724 8ebd 5f87 5c3d
00000090: c25d 233e e1b5 d6be 066d 14be 3e45 93bd
000000a0: b1b5 0dbe 3333 ea3d 2a1f 9834 2b4c 40ad
000000b0: 5ab2 0080 9ec8 1d3d 88f8 b83e e3ed aa3e
000000c0: 959c 68be 7f03 af3e 2bba c4be b874 0080
000000d0: 8c21 0080 d582 c936 e5a2 ebbb 6b95 353c
000000e0: dda2 63bd 6f49 f636 8632 5ab4 c404 89b4
000000f0: 6dbc 15bf 5d5c acbd cfff c2be 71dc 4423
00000100: 45e5 0080 4fe9 0211 53ad 17bc bbda b33b
00000110: 21e6 973d cebf 0080 4869 8936 402d 0080
00000120: fc15 0314 6956 0080 2668 8e2f 85ec 508a
00000130: ab42 b9b6 9ea6 b638 29b6 0080 1f96 5bb9
00000140: 957f 0080 e8bc ac3e 91cc 14be 4ea2 b1be
00000150: 7695 953b 51e2 8cbe 2b2a b8bd 0d02 0180
00000160: f84e ff90 8ced c109 e21d 933e 098f ba3c
00000170: 176c 36bd 129d 89be dac3 c93e 8b7b c2be
0.010275821 0.24802001 0.09855981 2.5764e-41 -8.075987e-29 3.2098565e-16 7.399192e-10 -0.00015118155
-6.321764e-07 0.091729894 -0.528569 0.11719756 3.7784743e-05 -1.4506588e-05 4.155543e-06 -0.0849301
0.12298597 0.4459215 0.08371307 0.2720203 -0.2969621 1.8e-41 -8.2336e-41 8.8009e-41
0.022930166 -0.017215421 0.044351563 0.073885664 -0.037942722 -0.12830386 0.36941504 -0.55585605
0.3924249 0.01429677 -0.06940537 0.053840037 0.15953735 -0.41935638 -0.14494714 -0.07190941
-0.13838841 0.11435547 2.833488e-07 -1.0930849e-11 -6.398e-41 0.0385214 0.36127114 0.33384618
-0.22715981 0.34182355 -0.38423285 -4.1871e-41 -1.2034e-41 6.0054977e-06 -0.0071910494 0.011082987
-0.05557524 7.33992e-06 -2.0321212e-07 -2.5521706e-07 -0.5849064 -0.084160544 -0.3808579 1.06718616e-17
-8.2246e-41 1.0327086e-28 -0.009257632 0.005488721 0.074169405 -6.8807e-41 4.0951745e-06 -1.6233e-41
6.6181455e-27 -3.0998e-41 2.5903651e-10 -1.005932e-32 -5.521191e-06 8.709471e-05 -6.5347e-41 -0.00020941392
-4.5768e-41 0.33737874 -0.14531161 -0.3469414 0.0045649363 -0.27516416 -0.08992418 -9.2571e-41
-1.00701436e-28 4.6686448e-33 0.28733736 0.022773283 -0.044536676 -0.26877648 0.39407235 -0.3798488

e_conv1.point_conv.bias f4 [32]
00000000: 4ad9 22be e11e d099 fd02 0bb7 8f5f 123f
00000010: fae9 72b7 d851 943d 7a77 973e 107b c8b2
00000020: b05f 323d dd2a 82bc 7e57 d43e f60d ec3e
00000030: 29f4 ad3e fa4d 9a3e bd0e 40b7 dfe8 063f
00000040: e74c abbd 2083 16a1 aefb 28bd 3fe1 78b6
00000050: cf3d d23e d08a 64a2 c796 bb3e 4285 13b9
00000060: b56d a6a2 cc38 0000 80ae 2eb9 ade2 a83e
00000070: 413e d43d 5db5 9eb8 f1b3 003f 3a97 c3bd
-0.15903202 -2.1519168e-23 -8.285741e-06 0.5717706 -1.4478801e-05 0.07242173 0.2958334 -2.3339027e-08
0.043548286 -0.01588958 0.41473 0.461044 0.33975342 0.30137616 -1.1447523e-05 0.52699083
-0.08364277 -5.099552e-19 -0.041255645 -3.708599e-06 0.4106278 -3.0973249e-18 0.3663847 -0.00014068655
-4.5110547e-18 2.0375e-41 -0.0001665894 0.3298544 0.103634365 -7.567809e-05 0.5027457 -0.095503286

e_conv2.depth_conv.weight f4 [32, 1, 3, 3]
00000000: a2ce 3dbd 3e77 48bd 54b8 20bd 70a3 cebc
00000010: fcc8 18bd 824c bbbc 3eb5 febc 25d4 30bd
00000020: 80e9 f7bc 1737 0000 ff9b 0080 5e6d 0000
00000030: cf9f 1b94 ac54 0100 4c00 0000 69ca 0000
00000040: 912e 0180 aa6a e31e bd4c 0080 4906 0080
00000050: 9ed4 039a d1c0 b224 1400 341d 84ba 0080
00000060: a84e 0000 5b92 0000 272f 0080 35a3 98be
00000070: b971 8cbe 4090 9fbd 6644 c0bd 0019 143e
00000080: 3503 8f3e 948e 8c3e 48d6 d1bb 5abb e83e
00000090: db90 2832 f762 89b1 baa6 da33 fb29 0a32
000000a0: 25f8 b131 5eaa bb2f 5654 d534 8779 00b1
000000b0: 7992 7a31 625b a1bc 66f9 483d 37c0 5bbd
000000c0: 354c a43d 5f68 473e fcee dcbc 3a44 19bd
000000d0: e1bd b43b 012f 43be 40ca ca3d 2d0f a6bb
000000e0: 5d2e 6dbe bb5f 6d3d 8c88 253e e48c c3bd
000000f0: 0b34 22bd 018f b3bb 4025 a1be 4ac5 b018
00000100: f0b0 e485 0633 0000 13cb a30c 78c4 0000
00000110: ee82 7ca4 dc2f 1400 526c 3c93 dc00 c39f
00000120: 6b7f 863c 455f 1439 b40c c0bb c7f1 aa3b
00000130: 4177 25bb b833 40ba 8f3b 053a 1f2b 7c3b
00000140: 15f4 7b3c bcf6 2a3c 4c08 763b d378 65bc
00000150: f8b7 9a3c 673e 183c 3ef8 e6bb d233 543c
00000160: 9091 543b 131a d7bb be46 9e3e 2155 953e
00000170: 7985 733e bb78 923e cf50 97bc 09fe ae3e
00000180: fae3 903e e9a4 a33d c2c8 803d d2ca 5b3e
00000190: 028b 5dbe 130e 0a3e ed9c 8d3d b848 67be
000001a0: f25a 15be 4840 853e dab7 723d c4db 163e
000001b0: a2e3 b23e 908c eb3d be24 4e3e 3d77 933e
000001c0: 9d2f 553e 18a4 da3d 20f3 913e 3359 323e
000001d0: 9051 8abd 7854 d63b 49ae 033d 43d7 683d
000001e0: 3641 d83d 6f4b 0abe df5d 4a3e 8171 ddbd
000001f0: d7cb 1b3d 919d be3e fbe1 579d f945 a602
00000200: ec2b 0000 567a 0080 9871 6913 2866 0000
00000210: 8165 6f0a 417b 0000 867c 0080 e0f5 a1bd
00000220: 0e38 283e 2d28 1dbe 6f9b fa3d b011 633e
00000230: 2330 543e d5b0 2abe 6a13 90bd a26f 9dbd
00000240: 1240 d63d 0988 813e e22a b63e 8290 083e
00000250: 5898 923d 83f0 0d3e 2b9d 2fbe 0597 69bd
00000260: dba4 3ebe 9bed af86 33e3 0000 3316 0100
00000270: a806 0000 9fbf 0080 7e33 0080 d350 0080
00000280: 8003 0080 3185 661a 8c29 9438 5e60 2f39
00000290: 7f19 0cb9 a9dc a537 83e9 f438 d5b3 8c38
000002a0: 01b5 5a38 4b69 2839 5763 1339 67ea 6c2f
000002b0: 75e9 fbae d1d8 3caf cae8 28b0 9dd9 8aaf
000002c0: e871 75ae 5bcc a0af da65 8fae a538 a52e
000002d0: fdf1 3abd 9525 823e 582b 57be b499 a4be
000002e0: 260a 57bc e038 7c3d 935b 95be c4b8 83be
000002f0: 13df 8ebe 5f8c 0000 48b6 0000 3e9a 80a4
00000300: 439a 0080 dc70 0080 7771 b922 1137 0080
00000310: 0894 0000 845b 0000 8d00 63bd 505d 06be
00000320: 5805 cd3d fd60 d5bd 803c 00be d468 833c
00000330: 5b62 39bd 74b5 f9bd 31cf 53bc 442b 0000
00000340: f9e1 0080 28b8 0000 781c 0000 58e0 5903
00000350: 9042 0080 e17d 0080 54d0 0000 eec2 0000
00000360: 6d08 0000 eac8 0000 8321 0080 23f4 0000
00000370: 46b9 0000 5a29 0080 10b9 0000 53be 0000
00000380: 2cd6 0080 579c aaa4 4f74 0080 0975 0000
00000390: a7b2 4a9d 6a5e 0000 9529 71a4 7c29 0000
000003a0: 3076 0080 851b 0080 8343 0000 a81a 5780
000003b0: 91a2 941d 1f15 ea06 84ad 0000 dc59 0000
000003c0: 0106 a3a0 6752 0080 47ea 0080 34b9 9c3e
000003d0: 6a7a b6bc 0d65 0f3d 2eb1 653c f490 c53d
000003e0: d98a ac3d fdb5 f93c 81bd 34bd 5034 febb
000003f0: 2006 70bb 807b 40bb 9f76 afbb e087 c9ba
-0.04633964 -0.048941843 -0.03923829 -0.025224417 -0.03730105 -0.02286363 -0.031092282 -0.043171067
-0.030262709 1.9763e-41 -5.5961e-41 3.9234e-41 -7.857017e-27 1.2221e-40 1.06e-43 7.2611e-41
-1.0854e-40 2.4078675e-20 -2.7529e-41 -2.255e-42 -2.7261916e-23 7.752184e-17 2.3822842e-21 -6.6909e-41
2.8217e-41 5.2502e-41 -1.6915e-41 -0.29812017 -0.27430514 -0.077911854 -0.09388046 0.14462662
0.27932134 0.27452528 -0.006403718 0.45455438 9.811823e-09 -3.9984758e-09 1.01817434e-07 8.0422025e-09
5.1795888e-09 3.4136155e-10 3.9735704e-07 -1.8695532e-09 3.6463048e-09 -0.019696895 0.04906597 -0.053650107
0.08022348 0.19473408 -0.026969425 -0.03741858 0.0055157994 -0.190609 0.099018574 -0.005067727
-0.23162217 0.057952624 0.1616537 -0.09548357 -0.039600413 -0.005479694 -0.31473732 4.5694145e-24
-2.1506014e-35 1.8304e-41 2.5236347e-31 7.048e-41 -5.475469e-17 1.853879e-39 -2.3782342e-27 -8.2587134e-20
0.01641818 0.0001414987 -0.0058608893 0.0052168104 -0.0025248083 -0.00073319254 0.0005082422 0.003847785
0.015378018 0.010434803 0.0037541566 -0.0140058575 0.018886551 0.009292222 -0.0070486357 0.012951808
0.0032435395 -0.0065643876 0.30913347 0.2916651 0.23781385 0.28607735 -0.01847115 0.34178188
0.28298932 0.079904385 0.062882915 0.21464089 -0.21635059 0.13481931 0.06914697 -0.22586334
-0.14585474 0.26025605 0.059257366 0.14732271 0.34939295 0.115014195 0.20131204 0.2880191
0.20818944 0.1067583 0.28505802 0.1741684 -0.06753838 0.006540831 0.032148633 0.056845915
0.10559313 -0.13505338 0.19762371 -0.10812665 0.038036194 0.3722959 -2.8571842e-21 2.443167e-37
1.5756e-41 -4.3886e-41 2.946474e-27 3.6647e-41 1.1526522e-32 4.4215e-41 -4.467e-41 -0.07908225
0.16427633 -0.15347357 0.12236678 0.22174716 0.20721488 -0.16669019 -0.07034953 -0.07687308
0.10461439 0.252991 0.35579592 0.13336375 0.071579635 0.13861279 -0.17149799 -0.05702879
-0.18617575 -6.6176814e-35 8.1504e-41 9.9799e-41 2.388e-42 -6.874e-41 -1.8472e-41 -2.8994e-41
-1.256e-42 4.7670476e-23 7.064929e-05 0.000167252 -0.00013360938 1.9772286e-05 0.000116783216 6.7092165e-05
5.2143823e-05 0.00016060953 0.0001405602 2.1547351e-10 -1.1455629e-10 -1.7175529e-10 -6.1448857e-10 -2.5256677e-10
-5.580772e-11 -2.9249034e-10 -6.5209796e-11 7.5133934e-11 -0.045640934 0.25419298 -0.21012628 -0.32148516
-0.013124978 0.061577678 -0.29171428 -0.25726902 -0.27904567 5.0356e-41 6.539e-41 -5.577245e-17
-5.5339e-41 -4.0486e-41 5.0264486e-18 -1.9754e-41 5.3104e-41 3.283e-41 -0.055420447 -0.13121533
0.10010785 -0.1041889 -0.12523079 0.016041197 -0.045259815 -0.121928126 -0.012927816 1.5521e-41
-8.1064e-41 6.6063e-41 1.0213e-41 6.4028103e-37 -2.3878e-41 -4.5157e-41 7.4734e-41 6.9928e-41
3.023e-42 7.2074e-41 -1.2022e-41 8.758e-41 6.6464e-41 -1.4834e-41 6.6388e-41 6.8275e-41
-7.683e-41 -7.39906e-17 -4.1724e-41 4.1984e-41 -2.6826838e-21 3.387e-41 -5.2293766e-17 1.4882e-41
-4.2398e-41 -9.872e-42 2.4219e-41 -7.99925e-39 3.9343364e-21 8.805205e-35 6.2246e-41 3.2235e-41
-2.7617247e-19 -2.956e-41 -8.4043e-41 0.3061005 -0.022275168 0.03500848 0.014019294 0.09646788
0.084249206 0.030482287 -0.044126038 -0.007757701 -0.0036624745 -0.0029370487 -0.005354717 -0.0015375577

e_conv2.depth_conv.bias f4 [32]
00000000: cffa d43d 2aba 1abe 9261 953c 4756 5abd
00000010: c43b 48be 62ca 5b3e 0b79 363c 300e 1f3e
00000020: 20bc 923e 5eb4 83be eca9 083c cb64 b1bd
00000030: c19f 6cbe 2817 57bd 51aa 293e 0133 603e
00000040: cb41 473e bcc2 35bd 0aa1 0e38 be85 403e
00000050: 0bdb 8a3e 70bc 493e dce6 f5bd 4b73 653e
00000060: bd72 c0bd f239 2bbd fd39 b83d 1b22 70be
00000070: 463e f1bd e0fc 35be 933c b1bd e3b9 9a3e
0.103994004 -0.15110078 0.018235002 -0.053304937 -0.19554049 0.21463922 0.011137257 0.15532756
0.28659153 -0.25723547 0.008341294 -0.08661803 -0.23107816 -0.052512318 0.16568877 0.21894456
0.19458692 -0.044375166 3.4005418e-05 0.18801019 0.27120242 0.1970079 -0.120069236 0.22407262
-0.093968846 -0.041803308 0.089954354 -0.2345051 -0.11779456 -0.17772245 -0.08654132 0.30219945

e_conv2.point_conv.weight f4 [32, 32, 1, 1]
00000000: 969c a9bc f4ac 8fbc aff1 84bb bd00 cd3d
00000010: b44b 7a3c fba9 85bd 1671 0f3d 5f93 03bd
00000020: 92c6 80bd 282a 273c 4c42 5d3d 934d d23d
00000030: 2816 0f3e d8a5 c73c 2dce 48bc df27 fdbd
00000040: 6794 353d 2667 963b b1a0 a53a 8b4b 76bd
00000050: 6c57 653e 9dd3 f93c cdd9 6c3d 8a69 8bbd
00000060: 99b4 41bb 4327 063c 8dca a4bc aa8f 5e3d
00000070: ef0c d23c a5bf 073d 3202 1dbe 02bb 9abd
00000080: 433a 903d 6bbd e2bd 12f3 443c 4820 41be
00000090: d4fe e03c 7b9f f93d d97d 453c 763c d23c
000000a0: 325d cb3d 794a d5bd 7649 8b3e 17ce 513d
000000b0: c16f 563e 83c7 763d df36 8cbc d891 263e
000000c0: 0f87 c63d fd41 90bc f8b6 3aba f45e 7ebc
000000d0: 5925 9f3d 3745 6d3d 3afe 1b3d 0e15 0a3e
000000e0: c92c 80bc 2d2c babc b89f 10bd 6b04 0d3e
000000f0: f8c1 fbbd 5055 08bd 2f46 72be d12d 013e
00000100: 000f 8bbb 0a48 cc3b 79f4 8bba c1e4 a63e
00000110: c84d af3c 5e1d 043d 4561 483d 51fb 98bc
00000120: e5ee 56bd 3751 4cbd 3e7f 0bbe b360 3b3c
00000130: fd59 7fbe f529 553d 8396 0abd 26c6 803c
00000140: 5a4c bd3d 8a99 5dbb 75b7 dfb9 ac61 8e3c
00000150: 0af9 8abd bc27 903b b8d3 b5bb a719 943d
00000160: ca9e e9ba c9e2 023b 2f98 803c 3238 2abe
00000170: b7db 47bc 586b 2fbd 63d1 a33d 2afb d2bc
00000180: 083d 4baa 0bfa 1629 8e31 91a8 0896 8e28
00000190: 9417 bc2a fc3e 8ba9 88b8 9c29 3976 4eaa
000001a0: 1534 afa9 827f 972a 3162 ffa9 9bea 31a8
000001b0: 7025 3429 8c92 22a9 f31a 9da9 8d2e dea9
000001c0: efa9 0ba9 58e4 c328 3e3e d624 df6e 38aa
000001d0: 225a 222a 1753 7ca9 9368 ac29 4cd4 ffa9
000001e0: a6f5 8529 297e 2a28 89ff 54a9 7158 9628
000001f0: 0fe6 2a29 f96e 3d29 9023 b72a 6bf7 6daa
00000200: 6f27 a23b f27a 8f3c 6bc7 103b 8218 64bd
00000210: a2d1 133d 59bb d93d bec2 1bbe 71a1 d43a
00000220: aebc d2bc f2c6 10bd 9996 bebd c744 0ebd
00000230: 297f 9bbd 10f9 4abd 5a8b 833c 6448 2b3e
00000240: e93f b7b8 4a16 28bc 40d0 d5b9 933f 323d
00000250: 101d de39 8042 78bc c3a2 d9bb c4be e0bc
00000260: bb28 b0bc a7ee d9bb e437 9f3c febc 4c3c
00000270: e2e8 66bc b0d2 24bd 03ca 313d b4f7 6ebd
00000280: d290 973c 6094 abbc e1c6 593b 9979 08be
00000290: 5eb7 d1bc 1e23 073d 7a85 d83d 21d4 ae3c
000002a0: 0312 ff3c 192c f7bc 202f f73d 88fe 18bd
000002b0: 7731 c83d 7f83 01bd 575c b93c 611c 103d
000002c0: 1230 ebbb fca7 eebb db8f d7b8 fd1d a23c
000002d0: a4da ae3d 3a59 db3c 4ff5 04bd 040c c23c
000002e0: 34ee 5fbc 8212 debb 073b 653c 8b2a 413d
000002f0: 2272 87bc 1ec0 c0bc 4215 013a 089d 103e
00000300: 3e90 903b d426 b03c 4764 4db9 9f8b 3d3e
00000310: a10b bebc b668 48be 8383 493e 3926 443c
00000320: ffb0 9f3a 3c67 2cbd bce9 c23e 69fc 6f3e
00000330: 5884 3e3e 0ad1 6e3e dd0a 843c bde4 bdbd
00000340: 5e15 2c3e 4ec3 18ba 1131 8339 d7df 053d
00000350: 6bf3 5bbd 9e32 d83c a6ac 253d 6114 6b3c
00000360: 5c9a 333b f2ae 1dba 5c86 563c 55bb a83d
00000370: af12 89bb 820c 9a3c 1e7f 30be 5d0e 193e
00000380: 6aef d123 ef23 3da3 c821 1b22 3467 9124
00000390: 6b02 b9a3 97c0 8623 4c6c 8723 5735 9423
000003a0: 3b89 9c23 2e8e eaa3 c407 1224 ed55 a023
000003b0: 9131 0024 235c 3e24 bac3 3623 4ec4 6d24
000003c0: 6afb 2c23 e90b 1aa3 a202 be9e f963 9c23
000003d0: 132a 20a5 e752 bb22 80f7 8ca4 e480 d122
000003e0: 68d7 4ca2 2357 d7a1 c88d 2a22 7b4c b6a3
000003f0: f634 88a3 0f2f 0ca3 de10 fba3 e0eb 4724
-0.020704549 -0.017538525 -0.0040571312 0.100099064 0.015276838 -0.06526562 0.035019957 -0.032122966
-0.06287874 0.010202922 0.054018304 0.10268702 0.13973296 0.024371073 -0.012256187 -0.123611204
0.04433098 0.004589933 0.0012636391 -0.060130637 0.2239663 0.030496413 0.0578249 -0.06807239
-0.0029557107 0.008188072 -0.020116115 0.054336227 0.025640933 0.03314175 -0.15332869 -0.075552
0.070423625 -0.11071285 0.012020843 -0.1885997 0.027465262 0.121886216 0.01205393 0.025663596
0.09929885 -0.10414595 0.27204484 0.051221933 0.20941068 0.060248863 -0.017116008 0.16266572
0.09693729 -0.01760959 -0.00071226014 -0.015525568 0.077707954 0.057927337 0.038084246 0.13484594
-0.015646355 -0.022726143 -0.03530857 0.13771217 -0.12292856 -0.033284485 -0.23659585 0.12615134
-0.0042437315 0.0062341737 -0.0010677717 0.325964 0.021399394 0.03225457 0.04892089 -0.018674525
-0.05247392 -0.04988214 -0.13622758 0.011436629 -0.24936672 0.052041966 -0.033834945 0.015719485
0.092430785 -0.003381344 -0.0004267056 0.017380558 -0.06785782 0.004399268 -0.0055489205 0.07231455
-0.0017823812 0.00199716 0.015697567 -0.16623 -0.01219838 -0.04282698 0.07998922 -0.02575453
-1.8051196e-13 3.352357e-14 -1.6119725e-14 1.5830233e-14 3.341187e-13 -6.183766e-14 6.959803e-14 -1.8337492e-13
-7.780596e-14 2.6911465e-13 -1.13413083e-13 -9.876346e-15 4.00005e-14 -3.6098335e-14 -6.9768755e-14 -9.866856e-14
-3.1011594e-14 2.1748377e-14 9.291315e-17 -1.6380949e-13 1.4419762e-13 -5.602731e-14 7.656475e-14 -1.13611025e-13
5.949e-14 9.464252e-15 -4.7295098e-14 1.66917e-14 3.7947127e-14 4.2062684e-14 3.2532007e-13 -2.1135669e-13
0.0049485485 0.01751468 0.0022091519 -0.055687435 0.036088593 0.10631437 -0.15211007 0.001622243
-0.025724735 -0.03534598 -0.09306068 -0.03473356 -0.07592613 -0.04955393 0.016057659 0.16726834
-8.738024e-05 -0.01025922 -0.00040781684 0.04351766 0.00042364793 -0.015152574 -0.006641717 -0.027434714
-0.021503797 -0.006650764 0.01943583 0.012496231 -0.0140936095 -0.04023999 0.043405544 -0.058341697
0.018501673 -0.020944774 0.0033230113 -0.13327636 -0.025600132 0.032992475 0.10572334 0.021341385
0.031136518 -0.030172395 0.12069535 -0.037352115 0.0977506 -0.031619545 0.022627039 0.035183314
-0.0071773613 -0.007283209 -0.00010278794 0.01978969 0.08537796 0.026775945 -0.032460507 0.02368737
-0.013667632 -0.0067771086 0.013991124 0.047159713 -0.016533915 -0.023529109 0.0004924127 0.14122403
0.0044117263 0.02150289 -0.0001958768 0.18510292 -0.023198904 -0.19571194 0.19679074 0.011972004
0.0012183486 -0.04209064 0.3806895 0.2343613 0.18605173 0.2332193 0.016118461 -0.09272144
0.16805026 -0.00058274425 0.00025022824 0.032684173 -0.05369894 0.026391324 0.040447854 0.01434812
0.0027405238 -0.00060151436 0.013093557 0.08238856 -0.0041831355 0.018804792 -0.17235991 0.14946885
2.2761221e-17 -1.025332e-17 2.10243e-18 6.305856e-17 -2.0058764e-17 1.4609874e-17 1.4682595e-17 1.6068782e-17
1.6971673e-17 -2.5430546e-17 3.166528e-17 1.7383626e-17 2.779756e-17 4.1277725e-17 9.9076865e-18 5.155746e-17
9.377378e-18 -8.350879e-18 -2.0118121e-20 1.6955894e-17 -1.3892043e-16 5.0774228e-18 -6.11346e-17 5.678603e-18
-2.776119e-18 -1.4592032e-18 2.3114355e-18 -1.976487e-17 -1.476758e-17 -7.59938e-18 -2.7220618e-17 4.335104e-17

e_conv2.point_conv.bias f4 [32]
00000000: dba3 ba3d 9a02 873d 2ea3 c03d a4ae b3aa
00000010: a70e 1f3e 3538 a33d 7ee4 05bc b4f7 5725
00000020: 2eed 703d f25f fd3d 1ec3 443b 7494 43bd
00000030: 0827 eb3b 1d24 3f3e 35d3 9a3d a383 b421
00000040: 911f 06b4 6d68 af3c 0562 0f3d 9663 01b2
00000050: 6936 8abd b36d edbb 0903 c93c 23f2 caba
00000060: 6d93 4b3d 322c f9bc 68e8 2f3d c511 d9bd
00000070: e510 92b3 a88c 213b a4e6 663d 6e98 c93d
0.09113284 0.06592293 0.09406124 -3.191797e-13 0.15532933 0.07969705 -0.008172153 1.8732202e-16
0.058819942 0.12371816 0.0030023525 -0.047748998 0.0071762837 0.1866612 0.07559816 1.2232118e-18
-1.2491206e-07 0.021412099 0.035005588 -7.5314315e-09 -0.06748659 -0.007245743 0.02453758 -0.0015483539
0.049701143 -0.030416582 0.04294625 -0.105990924 -6.801728e-08 0.0024650488 0.0563723 0.09843527

e_conv3.depth_conv.weight f4 [32, 1, 3, 3]
00000000: cc11 0000 12b0 a30d 6840 0000 0980 9421
00000010: d556 0000 be77 2d0d 016d 0080 7e9a 0000
00000020: 9f5e 0080 9710 2780 5408 0000 d844 0080
00000030: aa15 0000 acc0 0000 c488 1d1f 4832 0000
00000040: 932a 0000 7b4c 0000 1e40 c690 f07f cd00
00000050: cd95 d280 7036 4f00 fed0 6d00 aa76 9e80
00000060: 28fe c4a4 b1a3 7d92 d2a0 bf85 32c4 0080
00000070: 5e10 0080 a217 0000 eeff cf19 67eb a31c
00000080: 69e8 1625 584f 0000 52a9 0000 a2b8 f4a4
00000090: 5a5f 3280 dcdd ab00 2e53 0a80 af67 68a2
000000a0: ae29 0280 8932 5a23 6275 3200 0f77 0780
000000b0: 2894 0900 219c 8a00 3490 1980 7fbc 6200
000000c0: 9cef 019d c534 d980 9078 0d81 64f9 8b23
000000d0: c425 ad00 2a2e 5700 fafb 0000 da78 0280
000000e0: 96b0 0580 7012 20a2 87a6 0600 93ce 0100
000000f0: 8578 0700 2e1c 0800 8ac3 0400 9f46 0100
00000100: a031 0080 6191 0080 7dc2 901e 0201 0080
00000110: e38c 3015 3224 0100 8f3c 0080 420b 0000
00000120: 21c9 fb82 a337 6625 cb29 f582 7614 b682
00000130: df42 5318 02af fb02 74da 0283 28ec ef82
00000140: 098f 0683 554f 5f80 51fb e69e 9cf0 c724
00000150: 6651 b680 a10b 6780 f8a7 ed16 3787 4980
00000160: 4f74 0319 28c8 b119 a511 0080 8619 0080
00000170: 3470 0000 426e 421e 5bf7 0080 377c 0080
00000180: 2ebd f095 29db 0000 a73f 269e c0e6 0080
00000190: 2c3c 0080 7c91 0000 edc4 0080 c7c3 0080
000001a0: df31 0000 721e 0080 b900 0080 3f85 3a09
000001b0: 98a2 c501 e46d 8002 e633 7682 a79a 248d
000001c0: 6293 6182 d2cb 41a5 70fe 8482 d6de 0a03
000001d0: 8858 3102 db54 ca00 9ea8 db83 f6a1 3805
000001e0: a171 a60d 576e fa83 7ca5 c583 5abd cd83
000001f0: 5aa2 8883 0794 c600 bb6b 0080 fd49 f890
00000200: 4b00 0080 1813 aa1f 7404 0080 8410 0000
00000210: 39c8 0080 56ea 0080 b81a 8088 4833 0b13
00000220: c724 0080 0d0a 3a83 9551 0080 d44d 0000
00000230: cf29 3993 5edc 0000 9d53 85a0 66d1 e01d
00000240: f34f 0080 c15a c5a5 3e6f 671d 6103 0080
00000250: 7c97 0000 1ad8 aa1f 3aa5 0000 94d2 2e90
00000260: 5125 0080 911c 0080 e8e7 0080 0bda 0000
00000270: 1c2d 0080 dd89 cd91 bd5a 0080 6c9f 0000
00000280: e3b0 0080 1cf4 329c 58cb 0200 c55b 0000
00000290: 481b 0180 762a 0080 4557 951f 89d7 0000
000002a0: c1b3 0000 a9bc 0080 4404 0100 b0db 0080
000002b0: 399c 0000 7230 0000 18e3 0080 1272 0080
000002c0: 9bc8 eba2 b432 0000 8a66 0080 12a2 0000
000002d0: a1f7 5202 bc00 5882 692b 5982 b1ad 3d03
000002e0: 3d9a e100 df4a 0103 71a5 db83 2b8b 8ca5
000002f0: 8984 cd80 9ca4 0080 e4b2 0080 e0d9 0000
00000300: 0fbe 0000 bc69 0080 80aa 0000 4571 0080
00000310: 607b 0000 aa66 0100 5dcd 1981 e3ac 3193
00000320: 2543 1c81 770b c800 21ef 6d00 5546 c79a
00000330: 956b 5800 794f 101f b712 2305 5705 4f99
00000340: a90e 7c80 3c9d 4080 290a fe24 2be3 9480
00000350: 0842 1416 5ac9 1b80 a116 8d80 6f35 4700
00000360: 605a 0080 b900 109a d662 e41e 005a 0000
00000370: 8d98 9d9a 9b2c 0080 349a 0080 5e75 0080
00000380: 154d 0000 1a4a 0000 4132 0000 5374 6a80
00000390: aa11 0080 93c0 0080 ceca 081c 1aaa 0080
000003a0: e639 0000 8935 0100 2580 0080 e2b8 0080
000003b0: 4f17 0100 e5ce 0000 7449 0080 3860 0080
000003c0: f359 0080 b6a8 0000 da47 c1a0 6e78 af93
000003d0: 0cd6 5d80 6b60 0100 37ac bf91 2191 dc80
000003e0: 288b 0923 1d29 8000 3aeb 5c80 a9eb 60a1
000003f0: 6c64 b221 2364 0180 f00d 0180 9d10 0080
6.384e-42 1.0088038e-30 2.3105e-41 1.0062761e-18 3.115e-41 5.3453875e-31 -3.9103e-41 5.5421e-41
-3.3944e-41 -3.587536e-39 2.988e-42 -2.4696e-41 7.772e-42 6.9118e-41 3.3359173e-20 1.8038e-41
1.5273e-41 2.7436e-41 -7.819602e-29 1.8872172e-38 -1.9339193e-38 7.274533e-39 1.0085041e-38 -1.4552577e-38
-8.543201e-17 -8.003449e-28 -1.802063e-35 -7.0382e-41 -5.871e-42 8.478e-42 2.1506668e-23 1.0847285e-21
1.308917e-16 2.8463e-41 6.074e-41 -1.0613091e-16 -4.62598e-39 1.5783458e-38 -9.48194e-40 -3.1496753e-18
-1.98623e-40 1.1828505e-17 4.633884e-39 -6.85559e-40 8.79668e-40 1.2729307e-38 -2.347618e-39 9.067498e-39
-1.7196883e-21 -1.9947233e-38 -2.598411e-38 1.5176031e-17 1.5901089e-38 8.006249e-39 9.0392e-41 -2.27024e-40
-5.22525e-40 -2.1693804e-18 6.10752e-40 1.6594e-40 6.86083e-40 7.44793e-40 4.37488e-40 1.1717e-40
-1.7802e-41 -5.2152e-41 1.5327032e-20 -3.62e-43 3.5654057e-26 1.0482e-40 -2.1724e-41 4.039e-42
-3.6996578e-37 1.996817e-16 -3.6023502e-37 -2.675424e-37 2.7304872e-24 3.6981585e-37 -3.845434e-37 -3.525344e-37
-3.9543257e-37 -8.752831e-39 -2.445614e-20 8.67101e-17 -1.674326e-38 -9.463228e-39 3.8395418e-25 -6.752497e-39
6.7960296e-24 1.8382214e-23 -6.33e-42 -9.156e-42 4.0251e-41 1.0293075e-20 -8.8734e-41 -4.456e-41
-9.72337e-26 7.862e-41 -8.80113e-21 -8.2778e-41 -2.1586e-41 5.219e-41 -7.0644e-41 -7.0232e-41
1.789e-41 -1.0922e-41 -2.59e-43 2.2451588e-33 7.259968e-38 1.8870984e-37 -1.808812e-37 -5.072256e-31
-1.6572686e-37 -1.6809139e-16 -1.9541697e-37 4.081036e-37 1.3029313e-37 1.858121e-38 -1.2910376e-36 8.681386e-36
1.0257895e-30 -1.4719012e-36 -1.1616613e-36 -1.209229e-36 -8.030636e-37 1.823653e-38 -3.8646e-41 -9.793275e-29
-1.05e-43 7.202939e-20 -1.597e-42 5.925e-42 -7.1826e-41 -8.4064e-41 -7.710001e-34 1.756955e-27
-1.3193e-41 -5.4672025e-37 -2.9266e-41 2.792e-41 -2.3370896e-27 7.9053e-41 -2.2586407e-19 5.950882e-21
-2.868e-41 -3.423555e-16 3.0630106e-21 -1.212e-42 5.4342e-41 7.235531e-20 5.9272e-41 -3.4477673e-29
-1.3387e-41 -1.0248e-41 -8.3192e-41 7.8219e-41 -1.6182e-41 -3.2428262e-28 -3.2551e-41 5.719e-41
-6.3455e-41 -5.9210764e-22 2.56617e-40 3.2921e-41 -1.01622e-40 -1.5232e-41 6.324833e-20 7.732e-41
6.4484e-41 -6.7679e-41 9.3366e-41 -7.8809e-41 5.6042e-41 1.7379e-41 -8.1466e-41 -4.0921e-41
-6.3909277e-18 1.8189e-41 -3.6784e-41 5.814e-41 1.5499429e-37 -1.5869384e-37 -1.59551e-37 5.5741496e-37
2.0718317e-38 3.799564e-37 -1.2909647e-36 -2.4380433e-16 -1.8873821e-38 -5.9051e-41 -6.4174e-41 7.8159e-41
6.818e-41 -3.793e-41 6.1164e-41 -4.0633e-41 4.4259e-41 1.28664e-40 -2.8249003e-38 -2.242578e-27
-2.870085e-38 1.8371212e-38 1.0095852e-38 -8.24181e-23 8.120117e-39 3.0558924e-20 7.6676605e-36 -1.07027275e-23
-1.139286e-38 -5.933877e-39 1.1017215e-16 -1.3673146e-38 1.197618e-25 -2.55179e-39 -1.2956923e-38 6.539489e-39
-3.242e-41 -2.9779086e-23 2.4181317e-20 3.2286e-41 -6.518014e-23 -1.6001e-41 -5.5318e-41 -4.2103e-41
2.7652e-41 2.6583e-41 1.8028e-41 -9.776292e-39 -6.337e-42 -6.9083e-41 4.5260744e-22 -6.1021e-41
2.077e-41 1.1104e-40 -4.597e-41 -6.6323e-41 1.00197e-40 7.422e-41 -2.635e-41 -3.4517e-41
-3.2268e-41 6.0522e-41 -3.274302e-19 -4.4294964e-27 -8.617487e-39 1.26424e-40 -3.0240622e-28 -2.0255872e-38
7.456252e-18 1.1769692e-38 -8.533249e-39 -7.6206046e-19 1.2088331e-18 -1.27758e-40 -9.6835e-41 -5.96e-42

e_conv3.depth_conv.bias f4 [32]
00000000: c3c7 0080 7d6c 0000 3093 4e01 6683 0080
00000010: 496e d706 7b8c 2b80 71dc 0700 06b1 0080
00000020: 4dd6 5003 fe2b 1580 26ba 0080 9458 0080
00000030: 464f 0902 33a0 1684 4f80 559c 0140 0080
00000040: 9bbe 0000 80bd 0000 fc20 0080 cd1a 0080
00000050: e945 9d82 632c 0000 b691 b623 8a0d e3a1
00000060: 8427 1aa1 6b14 0080 79ca 3b83 de4b 1a80
00000070: 2795 0080 9bae 0080 51f3 d608 b4ec 1702
-7.1661e-41 3.8918e-41 3.7941826e-38 -4.7137e-41 8.103606e-35 -3.999321e-39 7.21928e-40 -6.3504e-41
6.137171e-37 -1.944327e-39 -6.6777e-41 -3.1776e-41 1.0087921e-37 -1.7705975e-36 -7.0641623e-22 -2.296e-41
6.8376e-41 6.798e-41 -1.1833e-41 -9.614e-42 -2.3109203e-37 1.5923e-41 1.979419e-17 -1.5385702e-18
-5.222953e-19 -7.325e-42 -5.518679e-37 -2.414939e-39 -5.3506e-41 -6.2637e-41 1.293686e-33 1.1161658e-37

e_conv3.point_conv.weight f4 [32, 32, 1, 1]
00000000: 2041 0000 856c 0000 05c1 0080 d425 0180
00000010: a6a2 0080 baa3 0000 6b77 0180 3618 0000
00000020: 822a 0180 693c 0000 6bd3 0080 8d82 0000
00000030: e5b8 0080 9ddc 0080 496f 0080 209b 0080
00000040: 2ed4 0080 9c20 0080 19c5 0080 0166 0080
00000050: 15c7 0000 7251 0080 bbb9 0000 751d 0080
00000060: 7bb5 0000 16eb 0000 1bf5 0000 6c09 0200
00000070: 1dc4 0080 e9ed 0080 91c3 0080 8728 0000
00000080: f9d5 0000 cc1a 0080 5202 0080 5ebf 0000
00000090: 9874 0080 71be 0000 d410 0080 06b7 0000
000000a0: 96d5 0080 6494 0000 952b 0100 fb5b 0080
000000b0: 422b 0080 54f8 0000 8893 0000 82c5 0000
000000c0: c476 0000 dd88 0080 4a8d 0000 42fc 0080
000000d0: d79b 0180 458b 0080 134b 0180 39b4 0080
000000e0: f1fc 0080 bb43 0080 d8aa 0000 0f27 0000
000000f0: fd3f 0000 4721 0080 a8ca 0000 1f31 0100
00000100: e342 3f80 7d6f 9300 9afe fe84 1f41 0100
00000110: 0002 a103 2f46 0903 9cd8 e082 61c6 0080
00000120: 052a 9707 4995 5786 d241 0080 4f08 0000
00000130: 0d9f 9386 8272 0080 ef5d 0f00 b0c4 0000
00000140: f28a 0080 41fa 0000 ea43 1400 81d0 0000
00000150: 87a5 2886 5ab2 0000 bb98 d384 184b 9985
00000160: 8b84 3782 e3c4 0180 0ff7 2400 95fb f784
00000170: 341f 0080 a949 0000 6902 8d06 58d0 dc07
00000180: b7e6 0080 fa4d 0000 9d2f 0080 9cd4 0080
00000190: 9587 0000 e4db 0000 ea2d 0080 6789 0000
000001a0: cc2b 0180 1fab 0000 a974 0000 3d1a 0080
000001b0: 17b7 0000 4c01 0080 50f4 0000 51d1 0000
000001c0: b168 0080 6c83 0000 228f 0080 9c72 0080
000001d0: dcdd 0080 1545 0000 e01a 0080 2e44 0080
000001e0: e45d 0080 1608 0000 0e0e 0180 2902 0080
000001f0: ad13 0000 aca0 0000 c752 0000 58a1 0080
00000200: 5d6d 0000 14b9 0080 b674 0000 043b 0000
00000210: 04fa 0080 a01e 0000 58c5 0000 8cfa 0080
00000220: ad40 0000 1839 0080 da56 0080 3aa3 0080
00000230: 4d3f 0000 e3d2 0080 7c3b 0000 487d 0080
00000240: a442 0080 f2b3 0080 1aaf 0000 b55c 0000
00000250: a4a8 0080 83df 0000 2b92 0080 ba82 0080
00000260: 638a 0000 2edd 0000 f1c8 0000 6913 0100
00000270: 89af 0000 c3bb 0000 1bc6 0000 584e 0080
00000280: e01b 1b0e 6c73 c78c 3dcd 0012 9f89 0000
00000290: ae7e b590 047a 7b8f f106 bb0e 6906 0000
000002a0: e25a ae92 72c1 4b92 2363 3409 59eb 0000
000002b0: f9d4 ec11 850c 0080 31be fa8b ee52 0000
000002c0: 32b1 e107 7008 b288 1320 f78c 3dce 0000
000002d0: 4ed4 7812 c935 0000 996d b190 9d27 8191
000002e0: 72b9 c90e a644 2488 09ff 4a0c 62b3 0e90
000002f0: 781f 0080 f03b 3384 630e 4392 24bf 6c91
00000300: 5260 0000 7251 0080 eebc 0000 953b 0080
00000310: 565a 0080 07c1 0080 46e6 0080 1390 0080
00000320: eea0 0080 c098 0080 5b9b 0000 d404 0080
00000330: b43d 0080 dbca 0000 f2ad 0000 75bc 0000
00000340: 0b9c 0000 9a16 0080 1c85 0080 0628 0080
00000350: a977 0180 58c4 0080 0c0f 0000 6d04 0000
00000360: bd53 0080 36a5 0080 caa1 0080 5729 0080
00000370: f1f8 0000 fc9c 0000 a376 0000 e929 0180
00000380: 0fb8 0180 f1da 0000 974e 0180 4ba3 0000
00000390: aa53 0000 19a2 0100 eaa6 0100 5fad 0000
000003a0: ca7b 0080 407c 0080 8bcd 0000 e236 0080
000003b0: 257a 0080 c125 0000 939d 0000 b561 0000
000003c0: 84dc 0080 778e 0080 04dc 0080 2e0e 0000
000003d0: 0f21 0180 7588 0000 df4f 0000 58e8 0000
000003e0: 6342 0080 5aaa 0080 d0a7 0080 04bb 0080
000003f0: 0463 0000 89ca 0000 53a5 0000 e404 0100
2.3362e-41 3.893e-41 -6.9242e-41 -1.05406e-40 -5.8347e-41 5.8734e-41 -1.34675e-40 8.685e-42
-1.07084e-40 2.1671e-41 -7.5842e-41 4.6833e-41 -6.6328e-41 -7.9141e-41 -3.9922e-41 -5.5648e-41
-7.6116e-41 -1.1698e-41 -7.0705e-41 -3.6592e-41 7.1417e-41 -2.9217e-41 6.6628e-41 -1.0567e-41
6.5103e-41 8.4333e-41 8.7927e-41 1.87051e-40 -7.0352e-41 -8.5346e-41 -7.0156e-41 1.4538e-41
7.6759e-41 -9.613e-42 -8.32e-43 6.865e-41 -4.1826e-41 6.8318e-41 -6.037e-42 6.5656e-41
-7.662e-41 5.3233e-41 1.0747e-40 -3.2996e-41 -1.5518e-41 8.9083e-41 5.2924e-41 7.0852e-41
4.2605e-41 -4.9097e-41 5.0685e-41 -9.0493e-41 -1.4774e-40 -4.996e-41 -1.18767e-40 -6.4652e-41
-9.0738e-41 -2.4297e-41 6.1287e-41 1.4012e-41 2.2955e-41 -1.1938e-41 7.27e-41 1.09457e-40
-5.80963e-39 1.3539812e-38 -5.9948928e-36 1.15197e-40 9.463189e-37 4.034125e-37 -3.303817e-37 -7.1165e-41
2.2744652e-34 -4.0546683e-35 -2.3612e-41 2.98e-42 -5.552896e-35 -4.1078e-41 1.41123e-39 7.0558e-41
-4.9844e-41 8.9774e-41 1.861073e-39 7.4797e-41 -3.1718898e-35 6.398e-41 -4.9746122e-36 -1.4415636e-35
-1.3482755e-37 -1.62465e-40 3.394706e-39 -5.8300463e-36 -1.1194e-41 2.6424e-41 5.3041847e-35 3.3224374e-34
-8.2765e-41 2.7973e-41 -1.708e-41 -7.627e-41 4.8638e-41 7.8882e-41 -1.6471e-41 4.929e-41
-1.07547e-40 6.1387e-41 4.185e-41 -9.413e-42 6.568e-41 -4.65e-43 8.7643e-41 7.5089e-41
-3.7556e-41 4.7145e-41 -5.1346e-41 -4.1114e-41 -7.9588e-41 2.4782e-41 -9.641e-42 -2.4458e-41
-3.3682e-41 2.9e-42 -9.6877e-41 -7.75e-43 7.058e-42 5.7638e-41 2.9695e-41 -5.7879e-41
3.9232e-41 -6.6394e-41 4.1868e-41 2.1171e-41 -8.9689e-41 1.0986e-41 7.0794e-41 -8.9879e-41
2.3201e-41 -2.0481e-41 -3.1156e-41 -5.8555e-41 2.2708e-41 -7.5652e-41 2.1339e-41 -4.4942e-41
-2.3906e-41 -6.4552e-41 6.2815e-41 3.3257e-41 -6.0497e-41 8.0181e-41 -5.2435e-41 -4.6896e-41
4.9644e-41 7.9344e-41 7.2084e-41 9.8799e-41 6.297e-41 6.7356e-41 7.1067e-41 -2.8104e-41
1.9118646e-30 -3.0730272e-31 4.0642654e-28 4.9369e-41 -7.158709e-29 -1.2398755e-29 4.6105743e-30 2.3e-42
-1.1003348e-27 -6.4293945e-28 2.1713326e-33 8.4427e-41 3.736549e-28 -4.491e-42 -9.6582665e-32 2.975e-41
3.3958383e-34 -1.0714969e-33 -3.807568e-31 7.3984e-41 7.8516688e-28 1.9294e-41 -6.998305e-29 -2.0377025e-28
4.9728903e-30 -4.943265e-34 1.5638261e-31 -2.8142754e-29 -1.1289e-41 -2.106887e-36 -6.1548884e-28 -1.8676017e-28
3.4553e-41 -2.9217e-41 6.7775e-41 -2.1374e-41 -3.2406e-41 -6.9245e-41 -8.2607e-41 -5.1684e-41
-5.773e-41 -5.4796e-41 5.5731e-41 -1.732e-42 -2.2135e-41 7.2771e-41 6.24e-41 6.7606e-41
5.5978e-41 -8.108e-42 -4.775e-41 -1.4358e-41 -1.34761e-40 -7.0435e-41 5.398e-42 1.588e-42
-3.004e-41 -5.9267e-41 -5.8039e-41 -1.483e-41 8.9303e-41 5.6315e-41 4.2559e-41 -1.0687e-40
-1.57863e-40 7.8541e-41 -1.20028e-40 5.8578e-41 3.0013e-41 1.49985e-40 1.51713e-40 6.2194e-41
-4.4407e-41 -4.4573e-41 7.3735e-41 -1.9688e-41 -4.3817e-41 1.3544e-41 5.6527e-41 3.505e-41
-7.9106e-41 -5.1107e-41 -7.8927e-41 5.087e-42 -1.03695e-40 4.8952e-41 2.8652e-41 8.3349e-41
-2.3815e-41 -6.111e-41 -6.02e-41 -6.7089e-41 3.552e-41 7.2656e-41 5.9307e-41 9.359e-41

e_conv3.point_conv.bias f4 [32]
00000000: 4336 160d fbd7 5e08 4e38 32a2 8143 0000
00000010: 0675 7f0a 4650 0431 9ca5 5911 8812 ba97
00000020: 4880 e483 07c2 3426 b7c2 ff21 078a 4114
00000030: 08fb ae2a e1bc b084 be4d bf8e 0ca9 f01a
00000040: c663 fd9c e6a5 ee86 7eff 0100 e33f 0080
00000050: ddf4 a731 5dff 2892 4a9c 998e 6855 928c
00000060: 0104 931d 1af0 f085 18e9 1c93 a95d 0000
00000070: 4586 bf99 f075 f51f 1a98 3d94 8632 729d
4.6287634e-31 6.705958e-34 -2.4153306e-18 2.4216e-41 1.2299813e-32 1.9254158e-09 1.7169314e-28 -1.2024646e-24
-1.34300875e-36 6.2713e-16 1.7331013e-18 9.771231e-27 3.1082797e-13 -4.155086e-36 -4.716e-30 9.9534783e-23
-1.6767926e-21 -8.9769416e-35 1.83489e-40 -2.2918e-41 4.8881774e-09 -5.332621e-28 -3.7867913e-30 -2.2546264e-31
3.8914716e-21 -2.2657691e-35 -1.9804892e-27 3.3599e-41 -1.9803168e-23 1.0395665e-19 -9.572058e-27 -3.2054553e-21

e_conv4.depth_conv.weight f4 [32, 1, 3, 3]
00000000: edaa ce19 f0cb 0180 f70f 2f1b f561 0080
00000010: 0eeb 981f b509 0180 72ba 0080 ff27 0080
00000020: 6d57 0080 b6cf 0080 5679 0000 54bf 0000
00000030: 87f1 0080 0242 0100 64b7 0080 c2d7 9013
00000040: 3063 0080 106c 0000 13a4 870b 8b01 be83
00000050: 28c2 0000 a66f 0080 019e 0000 abfc 7618
00000060: d7bd 0000 d3ad 0080 2a4f 19a2 4b51 0000
00000070: a096 0000 6a00 4e98 aaf6 0000 1a48 0000
00000080: 009a 0080 0783 0000 85aa 0080 6f83 0b80
00000090: ba89 0080 14a0 0080 f4ba 0000 c91e 0180
000000a0: 2c8e 0080 0799 0300 1575 0080 a6a4 0b1c
000000b0: f505 0180 0181 0080 d401 0000 c967 0080
000000c0: 37ae 0000 9b6f 0000 ae4e 0080 8d5a 0000
000000d0: 844b 0000 dc4c 0000 11a6 1517 4e9e 0000
000000e0: b512 8114 6882 0000 01a4 0080 cfd5 9725
000000f0: 1d13 0180 7509 0080 1736 0080 7f3b 0080
00000100: 4d7d 0000 95c1 0080 74a5 14a3 1872 0000
00000110: b68d 0080 d5a2 0000 79a9 0080 bc06 0000
00000120: 6016 0180 a14c 0000 152e 0000 27da de22
00000130: de61 0000 7319 0080 c81a 0080 9042 0080
00000140: ff81 f6a0 ef63 0080 c29c 0000 7d9a 0080
00000150: 263a 0080 2f50 f1a3 06fd ef16 8d27 0000
00000160: 27cc 0000 be59 0080 4081 07a2 0265 0000
00000170: babc 0000 03e0 0000 2712 0100 7840 0000
00000180: 8e09 0180 89a3 0080 e676 9017 c7d3 0000
00000190: 9a3a 04a5 be17 0000 e437 0000 34ce 0000
000001a0: 2ab5 0080 e6ce 0080 a274 0000 7d84 0080
000001b0: 9782 0080 b486 ab9a b99c 0000 1516 cc0e
000001c0: 99bb 75a1 239a 0080 7f7e 0614 2655 0000
000001d0: aa9f 5d8c e821 0d18 8134 0000 0220 3090
000001e0: 7c00 7b20 362a 0080 d02a 0000 912e f521
000001f0: 0b45 9012 5d2e 0080 972b 0180 b498 c91a
00000200: 31ef 0d84 3045 0000 f604 0080 b520 0000
00000210: b3af 340d d7d0 0000 5d5b 0000 6541 84a3
00000220: fc18 0080 f651 0080 644f e719 d662 0080
00000230: 25a8 0000 3258 0f00 a755 fd11 ac5e 0080
00000240: 9394 f8a1 7fc4 0080 6da3 9702 e92c f589
00000250: ac82 0080 0778 0080 5725 0080 461b 0000
00000260: b589 0000 aad1 d606 1b08 0000 8f49 250c
00000270: 7f0c 0000 a996 0080 ec3c 0000 5226 0080
00000280: b165 861d 6d63 0000 3a16 0000 634b d318
00000290: e47e 0080 60a9 0080 1317 0080 6906 d719
000002a0: e7ce 0000 d80b 0000 d831 0080 675c 0000
000002b0: 4fe5 2c0c 4837 a186 7a8f 0000 1a81 0000
000002c0: b8e5 0080 494c 0000 4381 0180 942c 0080
000002d0: dd76 cc9c 8502 0000 1caa 6195 e970 0000
000002e0: 074d e1a0 cc4c 0180 e889 0899 67c1 c610
000002f0: 22de 0080 a74f 0080 cb69 0000 9c11 c29d
00000300: 0186 0000 0f6b 0000 ec30 0300 c446 0080
00000310: 0026 0000 4710 0080 4846 1481 e29d 0080
00000320: bb93 0000 a7bc 0080 cf2d 0000 7d71 0000
00000330: e269 0080 a23a 0080 d658 0180 2848 1f85
00000340: f218 0080 76f9 f00a 5702 0000 f700 0080
00000350: 2412 7991 d31c 0080 b208 0080 eeb6 0000
00000360: cda6 0080 be3d 0000 7f1e 0000 73ba 0000
00000370: b9f1 0ba5 bf30 fa0f 7363 0000 8c53 0000
00000380: 7681 0000 a581 1281 d896 0000 8301 0180
00000390: 87d9 0080 de96 0080 ca71 0000 b832 6b09
000003a0: 0070 0000 f213 0000 fad7 1d91 0b09 2017
000003b0: 4859 0080 7b51 0000 99a2 0000 bb5b e386
000003c0: fb34 0180 9fce 0000 7cab 0080 90b2 0000
000003d0: 928e 0417 a0c2 0080 bd86 0000 4435 0000
000003e0: 9d2d 0100 039a 0080 8802 0280 4200 0080
000003f0: cfcb 0080 1c18 13a0 0d9d e900 4e20 0000
2.1368937e-23 -1.64994e-40 1.4480819e-22 -3.514e-41 6.476337e-20 -9.5318e-41 -6.6884e-41 -1.4348e-41
-3.1362e-41 -7.4513e-41 4.3527e-41 6.8636e-41 -8.6644e-41 1.15515e-40 -6.5788e-41 3.6563464e-27
-3.5582e-41 3.8766e-41 5.224698e-32 -1.1167551e-36 6.965e-41 -4.0052e-41 5.6681e-41 3.192232e-24
6.8102e-41 -6.2356e-41 -2.0777276e-18 2.9162e-41 5.4034e-41 -2.6625085e-24 8.8486e-41 2.5865e-41
-5.5245e-41 4.7004e-41 -6.1171e-41 -1.05734e-39 -4.9407e-41 -5.7425e-41 6.7066e-41 -1.02879e-40
-5.1002e-41 3.30402e-40 -4.2001e-41 4.6204045e-22 -9.3972e-41 -4.6278e-41 6.56e-43 -3.7231e-41
6.2497e-41 4.0036e-41 -2.8225e-41 3.2483e-41 2.709e-41 2.7572e-41 4.83541e-25 5.6789e-41
1.303305e-26 4.6781e-41 -5.8834e-41 2.6339207e-16 -9.8692e-41 -3.393e-42 -1.9404e-41 -2.1343e-41
4.495e-41 -6.9444e-41 -8.058132e-18 4.0929e-41 -5.0836e-41 5.8413e-41 -6.0795e-41 2.416e-42
-9.9862e-41 2.7489e-41 1.6531e-41 6.04042e-18 3.5108e-41 -9.13e-42 -9.607e-42 -2.3878e-41
-4.1760045e-19 -3.585e-41 5.6234e-41 -5.542e-41 -2.086e-41 -2.6163231e-17 3.8772213e-25 1.4188e-41
7.3236e-41 -3.2193e-41 -1.8364336e-18 3.6235e-41 6.7702e-41 8.036e-41 9.8347e-41 2.3127e-41
-9.5263e-41 -5.8665e-41 9.335796e-25 7.5971e-41 -1.146903e-16 8.517e-42 2.005e-41 7.3972e-41
-6.499e-41 -7.4221e-41 4.184e-41 -4.7528e-41 -4.6847e-41 -7.094157e-23 5.6221e-41 5.0311147e-30
-8.325751e-19 -5.5294e-41 6.790218e-27 3.0546e-41 -1.7073268e-31 1.8240941e-24 1.8835e-41 -3.4734538e-29
2.1260687e-19 -1.5142e-41 1.5358e-41 1.6614172e-18 9.104698e-28 -1.6632e-41 -1.07473e-40 8.3378357e-23
-1.6684302e-36 2.482e-41 -1.78e-42 1.1733e-41 5.5678273e-31 7.4918e-41 3.2775e-41 -1.4339164e-17
-8.963e-42 -2.9402e-41 2.3916906e-23 -3.5456e-41 6.0319e-41 1.409171e-39 3.996915e-28 -3.3962e-41
-1.6844461e-18 -7.049e-41 2.2281258e-37 -5.9023838e-33 -4.6876e-41 -4.3058e-41 -1.3395e-41 9.784e-42
4.94e-41 8.0805927e-35 2.908e-42 1.2733273e-31 4.483e-42 -5.4047e-41 2.1855e-41 -1.3747e-41
3.557465e-21 3.5667e-41 7.973e-42 5.4618343e-24 -4.552e-41 -6.076e-41 -8.277e-42 2.2233068e-23
7.4223e-41 4.249e-42 -1.788e-41 3.3148e-41 1.3319403e-31 -6.06427e-35 5.147e-41 4.6313e-41
-8.2408e-41 2.7366e-41 -1.38206e-40 -1.5992e-41 -1.3530313e-21 9.04e-43 -4.557258e-26 4.0505e-41
-3.8167455e-19 -1.19385e-40 -7.058885e-24 7.8395213e-29 -7.9686e-41 -2.8574e-41 3.7951e-41 -5.136958e-21
4.8072e-41 3.8405e-41 2.93056e-40 -2.5386e-41 1.3632e-41 -5.839e-42 -2.723373e-38 -5.6638e-41
5.2996e-41 -6.7676e-41 1.6433e-41 4.0712e-41 -3.7984e-41 -2.1033e-41 -1.23704e-40 -7.489397e-36
-8.949e-42 2.3204996e-32 8.4e-43 -3.46e-43 -1.9648227e-28 -1.034e-41 -3.119e-42 6.5623e-41
-5.9837e-41 2.2149e-41 1.094e-41 6.6885e-41 -1.2138227e-16 2.467068e-29 3.5676e-41 2.9971e-41
4.6442e-41 -2.690898e-38 5.4113e-41 -9.2378e-41 -7.8034e-41 -5.4121e-41 4.082e-41 2.8310944e-33
4.0178e-41 7.155e-42 -1.2451669e-28 5.17102e-25 -3.2028e-41 2.923e-41 5.8329e-41 -8.5522695e-35
-1.10841e-40 7.4122e-41 -6.1517e-41 6.4056e-41 4.283145e-25 -6.9818e-41 4.8335e-41 1.9108e-41
1.08198e-40 -5.5249e-41 -1.84579e-40 -9.2e-44 -7.3113e-41 -1.2459361e-19 2.145401e-38 1.1589e-41

e_conv4.depth_conv.bias f4 [32]
00000000: 787e c088 c4fa 8286 9142 2ba6 9cc1 0000
00000010: 8bb6 0000 ba72 509a a027 0000 eb27 0000
00000020: 1ac3 0000 865e 0080 5612 c593 6b78 0000
00000030: c932 0080 cf13 48a0 5b6e 0080 69c0 0000
00000040: 6379 1b81 627a 0080 db60 0080 bebf 0080
00000050: bc75 0000 15ac 0000 6c24 0000 4e6b 4ea7
00000060: 0329 f386 a3b2 0000 bd8c 0000 79d6 0000
00000070: 5cd4 91a4 aab2 0080 25c9 ad17 028f 0080
-1.1585312e-33 -4.926903e-35 -5.9417757e-16 6.9454e-41 6.5484e-41 -4.3106067e-23 1.4215e-41 1.432e-41
6.9989e-41 -3.3909e-41 -4.9747872e-27 4.3198e-41 -1.8218e-41 -1.6947213e-19 -3.9588e-41 6.9024e-41
-2.8556095e-38 -4.3903e-41 -3.4745e-41 -6.8784e-41 4.2235e-41 6.1731e-41 1.3066e-41 -2.8646413e-15
-9.14667e-35 6.4083e-41 5.0487e-41 7.6938e-41 -6.324348e-17 -6.4093e-41 1.1230639e-24 -5.1302e-41

e_conv4.point_conv.weight f4 [32, 32, 1, 1]
00000000: 9ca2 0000 a2c1 0000 18e3 3d82 62d8 0000
00000010: 322f 0080 da19 0000 bd37 0000 653c 0080
00000020: 1969 0080 46e2 0080 11b4 0080 498c 0000
00000030: 91ed 0080 08c3 0080 64c6 0000 8a7c 0080
00000040: 0725 0180 02f9 0000 a348 0080 070c 0180
00000050: ad44 0080 5c6a 0080 8524 0080 5da9 2482
00000060: 0990 0080 94e8 0000 6aff 0000 8fe2 0000
00000070: 7d83 0d01 ba9c 0100 ba65 0080 e698 0000
00000080: 4301 0080 976b 0000 36b4 0080 2af5 0080
00000090: 679b 0080 e0a9 0000 c8eb 0080 d4ea 0080
000000a0: 3d20 0000 0fc4 0080 1883 0180 8979 0080
000000b0: e560 0080 faad 0080 e795 0080 f9d0 0080
000000c0: 9323 0080 d156 0080 9669 0080 c06b 0080
000000d0: db00 0000 a36d 0000 7966 0080 397a 0080
000000e0: 6db1 0180 3c97 0000 0396 0080 3a3a 0000
000000f0: 4d4c 0080 8a27 0000 130c 0000 186b 0080
00000100: a878 0000 891c 0000 0ff9 0000 3ac8 0080
00000110: c217 0080 7380 0000 96ab 0080 157a 0000
00000120: c95b 0080 eacf 0080 34ed 0000 7f0c 0080
00000130: 5b1b 0080 fa0e 0100 7ad2 0000 fd68 0000
00000140: e424 0080 c952 0000 9a41 0100 ac27 0100
00000150: 1099 0000 aa56 0080 609a 0080 8a04 0100
00000160: 0bc5 0080 2cc1 0080 15c0 0080 1c8d 0000
00000170: c09a 0080 2110 0000 c44c 0080 7420 0000
00000180: fa56 0000 9334 0000 54ec 0710 8dce 0080
00000190: c359 0080 86cb 3483 4a50 0000 ac98 0080
000001a0: 8dcb 0080 e22c 0000 b719 0000 b56f 0000
000001b0: b69a 0000 54f0 420a 1e9d 0080 cf18 0000
000001c0: 570e 0080 2a2e 0080 0302 0000 1a16 0080
000001d0: 7c9a 0080 daaa 0000 227d 0000 c67c fd10
000001e0: d55b 0000 8a06 0000 7c27 0080 dfe7 0000
000001f0: ed2d 8f0e 7425 0100 cf27 0200 17fd 0080
00000200: 48be 0080 bf8e 0080 8e8b 0080 d235 0000
00000210: 41bd 0080 4b6b 0000 57fd 0080 9108 0080
00000220: 9f6e 0080 dfc1 0080 33ea 0000 663e 0000
00000230: b3e9 0080 0501 0180 1b9c 0080 5db9 0080
00000240: 706b 0080 de9e 0080 2a1f 0100 fbde 0080
00000250: 1535 0080 df48 0080 3728 0080 7325 0080
00000260: 4876 0180 ca49 0080 62ed 0080 9be3 0080
00000270: 07bc 0080 29c8 0080 ea1a 0080 fab2 0080
00000280: b5a8 0080 803a 0080 e388 0000 b813 0080
00000290: 609b 0080 a8ab 0080 db64 0080 44c3 0080
000002a0: e380 0080 1c1b 0080 95bf 0080 10a4 0080
000002b0: 138f 0000 681e 0000 ec5e 0000 bd69 0080
000002c0: bcae 0000 be56 0000 8221 0180 123c 0000
000002d0: 09dd 0000 6477 0080 d8b8 0000 7b02 0080
000002e0: b164 0000 4f25 0080 3069 0080 ba4f 0080
000002f0: 9d4b 0000 a8bf 0000 294d 0080 897a 0000
00000300: 2e20 0000 44c6 0000 b440 0000 6a48 0080
00000310: 45e5 0000 eacc 0000 1018 0080 15cd 0080
00000320: 00c7 0080 980e 0100 e3b7 0080 d8a7 0000
00000330: 3afc 0000 898f 0000 1cd2 0000 576c 0000
00000340: f9ad 0000 b9af 0080 fc69 0180 ee74 0000
00000350: 0060 0080 de38 0080 e734 0000 6d8a 0000
00000360: f749 0000 74ce 0080 d5d3 0000 2231 0000
00000370: 5baa 0000 8cc3 0080 26b5 0080 6722 0000
00000380: ccd2 0000 0231 0080 aeeb f003 e8f0 0000
00000390: ee34 0000 67a4 0000 caf0 0080 b68b 0000
000003a0: ddc0 0000 0000 0100 987a 0000 3cb9 0080
000003b0: 478e 0000 b6c7 0000 9333 0180 73b9 0080
000003c0: 48b1 0080 f875 0000 041e 0080 32ca 0080
000003d0: c751 0000 88a7 0000 467a 0000 3d11 3706
000003e0: 9627 0000 ba98 0000 382d 0080 dcea 0080
000003f0: a5a7 2c80 c736 0080 5c7d 0000 b2d7 0000
5.8333e-41 6.9462e-41 -1.39507e-37 7.7624e-41 -1.693e-41 9.274e-42 1.9995e-41 -2.1665e-41
-3.7702e-41 -8.1172e-41 -6.4596e-41 5.0325e-41 -8.5223e-41 -6.9964e-41 7.1169e-41 -4.4676e-41
-1.05118e-40 8.9327e-41 -2.6057e-41 -9.615e-41 -2.4636e-41 -3.8155e-41 -1.3101e-41 -1.2097422e-37
-5.167e-41 8.3433e-41 9.1625e-41 8.1274e-41 2.5991948e-38 1.48058e-40 -3.6493e-41 5.485e-41
-4.53e-43 3.8596e-41 -6.4648e-41 -8.7948e-41 -5.5748e-41 6.094e-41 -8.4582e-41 -8.424e-41
1.1565e-41 -7.0333e-41 -1.38863e-40 -4.3599e-41 -3.4759e-41 -6.2411e-41 -5.3775e-41 -7.4965e-41
-1.2762e-41 -3.1144e-41 -3.7877e-41 -3.8653e-41 3.07e-43 3.933e-41 -3.676e-41 -4.3845e-41
-1.55484e-40 5.4253e-41 -5.3814e-41 2.0888e-41 -2.7372e-41 1.4184e-41 4.331e-42 -3.8418e-41
4.3283e-41 1.0236e-41 8.9345e-41 -7.1828e-41 -8.523e-42 4.6079e-41 -6.1553e-41 4.3795e-41
-3.2926e-41 -7.4586e-41 8.5092e-41 -4.483e-42 -9.813e-42 9.7208e-41 7.5505e-41 3.7663e-41
-1.3234e-41 2.9698e-41 1.15369e-40 1.06067e-40 5.4908e-41 -3.1089e-41 -5.538e-41 9.3464e-41
-7.0686e-41 -6.9297e-41 -6.8906e-41 5.062e-41 -5.5514e-41 5.786e-42 -2.7538e-41 1.1642e-41
3.1201e-41 1.886e-41 2.6806116e-29 -7.4096e-41 -3.22e-41 -5.313088e-37 2.8802e-41 -5.4768e-41
-7.302e-41 1.6101e-41 9.225e-42 4.0073e-41 5.55e-41 9.385961e-33 -5.6363e-41 8.9e-42
-5.144e-42 -1.656e-41 7.22e-43 -7.929e-42 -5.5419e-41 6.129e-41 4.4889e-41 9.998315e-29
3.2943e-41 2.346e-42 -1.4164e-41 8.318e-41 3.5296447e-30 1.05271e-40 1.97952e-40 -9.0792e-41
-6.826e-41 -5.1208e-41 -5.0063e-41 1.9307e-41 -6.7892e-41 3.849e-41 -9.0881e-41 -3.073e-42
-3.9683e-41 -6.9548e-41 8.4015e-41 2.2384e-41 -8.3835e-41 -9.2201e-41 -5.6e-41 -6.6496e-41
-3.8541e-41 -5.6991e-41 1.03015e-40 -7.999e-41 -1.9042e-41 -2.6141e-41 -1.4426e-41 -1.3434e-41
-1.34267e-40 -2.647e-41 -8.5157e-41 -8.165e-41 -6.7452e-41 -7.1804e-41 -9.655e-42 -6.4205e-41
-6.052e-41 -2.0986e-41 4.9106e-41 -7.074e-42 -5.5738e-41 -6.1579e-41 -3.618e-41 -7.0048e-41
-4.6236e-41 -9.725e-42 -6.8727e-41 -5.8855e-41 5.1325e-41 1.0908e-41 3.4052e-41 -3.7932e-41
6.2683e-41 3.1117e-41 -1.03856e-40 2.1549e-41 7.9292e-41 -4.2829e-41 6.631e-41 -8.9e-43
3.6121e-41 -1.3384e-41 -3.7734e-41 -2.86e-41 2.7125e-41 6.8753e-41 -2.768e-41 4.3957e-41
1.1544e-41 7.1124e-41 2.3211e-41 -2.5977e-41 8.2246e-41 7.351e-41 -8.632e-42 -7.357e-41
-7.1388e-41 9.7071e-41 -6.5966e-41 6.0211e-41 9.0482e-41 5.1491e-41 7.5373e-41 3.8865e-41
6.241e-41 -6.3037e-41 -1.29856e-40 4.1946e-41 -3.4438e-41 -2.04e-41 1.8978e-41 4.9658e-41
2.6534e-41 -7.4061e-41 7.5991e-41 1.7626e-41 6.1112e-41 -7.0149e-41 -6.4984e-41 1.2341e-41
7.562e-41 -1.758e-41 1.4160042e-36 8.6421e-41 1.8988e-41 5.8976e-41 -8.6379e-41 5.0119e-41
6.9186e-41 9.1835e-41 4.3978e-41 -6.645e-41 5.104e-41 7.1643e-41 -1.10337e-40 -6.6527e-41
-6.3597e-41 4.2319e-41 -1.0768e-41 -7.2534e-41 2.9336e-41 6.0099e-41 4.3863e-41 3.443114e-35
1.4201e-41 5.4788e-41 -1.6221e-41 -8.4252e-41 -4.100901e-39 -1.965e-41 4.497e-41 7.7377e-41

e_conv4.point_conv.bias f4 [32]
00000000: 49e7 609c 2128 0100 997e 0612 0fa9 aa2d
00000010: 80d2 0080 f34d a997 cd9a 6490 64a3 cf1d
00000020: 4526 d884 dfa5 0d1d fcd6 559e 10d4 c237
00000030: 0c45 0080 30d4 6f0b a9b4 9b1c 5b33 1b97
00000040: 3df2 0080 913f c81b d3e4 9224 141d 191a
00000050: c05c 1f24 bd17 0080 b54e d29d c873 2e21
00000060: a8f7 040b fcf3 a38e a93d 9721 9a48 0080
00000070: 2419 1b1e f4c7 0000 09ea 80a1 826e 8a12
-7.441431e-22 1.06231e-40 4.243899e-28 1.940184e-11 -7.5513e-41 -1.0941046e-24 -4.5084326e-29 5.4961386e-21
-5.08165e-36 1.8746948e-21 -1.1320584e-20 2.3225351e-05 -2.477e-41 4.6189358e-32 1.0303739e-21 -5.014802e-25
-8.6899e-41 3.3128303e-22 6.370505e-17 3.1663148e-23 3.455619e-17 -8.516e-42 -5.566792e-21 5.910673e-19
2.560859e-32 -4.041755e-30 1.0248479e-18 -2.6045e-41 8.210831e-21 7.173e-41 -8.735566e-19 8.736267e-28
