Zero-DCE++/snapshots_Zero_DCE++/Epoch54.pth (torch, 51217 bytes, 28 tensors)

e_conv1.depth_conv.weight f4 [3, 1, 3, 3]
000000 3a 66 b1 be 8f a9 25 be 7e 6f a1 3c ce 9c 2e be
       -0.34648305 -0.16177963 0.019706484 -0.17052004
000010 38 88 ef 3d 15 f6 e0 3d 2c 13 d0 be 56 e9 23 be
       0.116959035 0.109844364 -0.40639627 -0.1600698
000020 63 1e 4c bd 56 21 49 3e a0 28 1d 3e 6c ab a3 3e
       -0.049833667 0.19641623 0.15347528 0.31966722
000030 c2 7b 37 3e 27 2e 86 3c 96 20 69 3e 3b 30 b8 3d
       0.17918304 0.016379429 0.22766337 0.08993574
000040 31 97 98 3a 0f ee 50 3e 35 8f 8f 3c a9 9e 3f bd
       0.0011641738 0.20403312 0.017524341 -0.04678217
000050 97 f9 20 be c5 df 14 bd b8 ee ac bd 1c 63 fc bd
       -0.15720211 -0.036346216 -0.084439695 -0.12323591
000060 de 3d 9a bd 58 20 3c be 9d ef a6 be
       -0.075313315 -0.18371713 -0.32604685

e_conv1.depth_conv.bias f4 [3]
000000 a4 c3 97 3d 9c 93 9e 3e 73 5c 37 bd
       0.07410362 0.30971992 -0.0447659

e_conv1.point_conv.weight f4 [32, 3, 1, 1]
000000 0f 6d 06 3c a2 71 5c 3e 5b fe b5 3d 58 a7 c9 36
       0.0082047125 0.21527722 0.08886405 6.009748e-06
000010 bc f2 37 b8 94 4e 02 38 d2 98 00 00 17 bd ea 8f
       -4.3856664e-05 3.1067597e-05 5.4822e-41 -2.3147016e-29
000020 2f 5f 00 80 96 c9 bf 3d 55 13 05 bf d0 3a 0b 3e
       -3.4145e-41 0.09364621 -0.51982623 0.13596654
000030 b8 4d 7b 19 89 a2 36 99 0a 55 b3 98 f4 ec 8f bc
       1.2992091e-23 -9.442003e-24 -4.6356283e-24 -0.017569043
000040 75 16 cc 3d 57 45 d7 3e bf 13 d9 3d 98 20 95 3e
       0.09965221 0.4204509 0.105994694 0.2912643
000050 1b a6 77 be 28 e7 10 27 a5 0b ef b1 90 72 28 27
       -0.24184458 2.0109324e-15 -6.9571393e-09 2.3376788e-15
000060 b2 64 2e 3d ae 68 19 bc 9f ce aa 3d 7f 6c 72 3d
       0.0425765 -0.0093633365 0.08340191 0.0591855
000070 9f ab ef bc 9a b7 f1 bd 9a a2 c3 3e c8 38 0e bf
       -0.02925664 -0.11802597 0.38209993 -0.5555539
000080 e3 9b b7 3e 1e d4 0c bb 8d 4d 5b bd 4b 5f 6f 3d
       0.3586112 -0.0021488736 -0.053540755 0.058440488
000090 5f 16 39 3e 37 01 ce be f7 61 21 be 93 ac 84 bd
       0.1807494 -0.40235302 -0.15760027 -0.064782284
0000a0 d1 ba 14 be 93 79 ff 3d 6f b5 00 00 2f b3 00 00
       -0.1452439 0.1247436 6.5086e-41 6.4279e-41
0000b0 cf f1 00 80 8d b6 05 3d 4f 62 ad 3e 60 c9 96 3e
       -8.6745e-41 0.032644797 0.33864066 0.29450512
0000c0 0a df 7b be 86 2a b6 3e fd b0 a5 be 19 30 84 25
       -0.24596801 0.35579318 -0.32361594 2.2930942e-16
0000d0 05 94 cc a5 e3 f3 0a 25 12 53 fd bb bf fb 6d 3b
       -3.548866e-16 1.2052224e-16 -0.00773085 0.0036313382
0000e0 0c 48 2c bd dc 2a be 11 fa 04 c0 11 09 12 87 11
       -0.042060897 3.0003129e-28 3.0295326e-28 2.131036e-28
0000f0 09 93 13 bf 01 bd 9b bd 65 cf b5 be 36 cf 44 32
       -0.5764623 -0.07604409 -0.35509792 1.1455816e-08
000100 5c fb ed b2 7e 45 59 32 c9 77 42 bc b4 a6 b1 3b
       -2.7704736e-08 1.2646863e-08 -0.011869379 0.005421484
000110 71 ad 24 3d 71 6d 00 80 6c 8d 00 80 fa 1a 00 80
       0.04020447 -3.926e-41 -5.0733e-41 -9.677e-42
000120 a7 00 64 21 4a 9a 7b b4 e0 ee de 2a 21 7f 00 00
       7.725027e-19 -2.3432327e-07 3.9600875e-13 4.5605e-41
000130 d0 9e 00 80 20 bc 93 0a 44 5b 00 00 a4 16 a2 92
       -5.6971e-41 1.422635e-32 3.274e-41 -1.0229219e-27
000140 47 bb 00 00 41 fd 9d 3e f8 09 0b be 4e 76 9b be
       6.7182e-41 0.3085728 -0.13578022 -0.30363697
000150 a3 49 21 3c 17 e7 e3 bd 2c 50 9f bc 40 b9 01 80
       0.0098442165 -0.11128061 -0.019447409 -1.5829e-40
000160 e6 24 00 80 cc d0 00 00 96 fc 8a 3e 2b b0 77 3c
       -1.3237e-41 7.4902e-41 0.27145833 0.015117685
000170 81 c2 5c bd 9c 4a 80 be 5b c7 d6 3e 79 db b0 be
       -0.05389643 -0.25056922 0.4194897 -0.34542444

e_conv1.point_conv.bias f4 [32]
000000 01 7f 17 be 9d 13 8c b8 98 ac 00 00 82 2e 12 3f
       -0.14794542 -6.6793735e-05 6.1915e-41 0.57102215
000010 bf 9d 37 95 a4 2c 9c 3d a2 93 8c 3e eb 55 8e b2
       -3.7080995e-26 0.07625702 0.27456385 -1.6570047e-08
000020 bf 71 64 3d 4d d7 90 bc 35 a0 d2 3e 3d 81 e9 3e
       0.05577254 -0.017680788 0.41137853 0.45606413
000030 19 a2 b2 3e 98 9b 9a 3e 97 38 00 80 d3 61 01 3f
       0.34889296 0.30196834 -2.03e-41 0.5053989
000040 31 52 6c bd 1a a7 48 a5 f9 7a d3 bc 70 a6 aa 91
       -0.05769557 -1.7403851e-16 -0.025815474 -2.6923846e-28
000050 cf 81 d2 3e 68 37 14 b3 89 1e b1 3e 07 f6 41 8f
       0.4111466 -3.4509327e-08 0.3459361 -9.563018e-30
000060 4e d3 5c b7 17 1f 01 80 43 94 ba 90 6f ac a1 3e
       -1.316222e-05 -1.02988e-40 -7.35925e-29 0.3157687
000070 3b 2b 9d 3d 8c 0f bf 88 f2 62 03 3f 4f 62 b3 bd
       0.07674261 -1.1499049e-33 0.51322854 -0.08758985

e_conv2.depth_conv.weight f4 [32, 1, 3, 3]
000000 5a 88 cf bc 87 9b fc bc cf dc cf bc 80 1f a2 bc
       -0.025333572 -0.03083588 -0.025373844 -0.019790411
000010 06 5c 10 bd 27 3f c3 bc a8 47 0e bd 07 c6 44 bd
       -0.03524401 -0.023833824 -0.034736305 -0.048040416
000020 a9 10 0b bd df 82 18 35 84 45 29 35 6c 34 49 35
       -0.033951435 5.6814855e-07 6.3058565e-07 7.495462e-07
000030 ce 76 15 33 38 61 c7 b5 d0 23 a5 35 d9 70 8c b5
       3.4799818e-08 -1.485495e-06 1.2303881e-06 -1.0463656e-06
000040 ed ef b1 b5 3d 25 96 b4 a2 ae 00 00 1a 91 00 00
       -1.3257355e-06 -2.7966772e-07 6.2646e-41 5.2053e-41
000050 03 4a 00 80 d3 13 00 00 9f ab 00 80 c2 e3 00 80
       -2.655e-41 7.112e-42 -6.1566e-41 -8.1704e-41
000060 e3 4f 00 00 3e a9 00 80 86 f5 00 80 60 15 94 be
       2.8658e-41 -6.0713e-41 -8.8077e-41 -0.28922558
000070 63 1d 84 be a3 39 81 bd 51 91 d9 bd ca 99 eb 3d
       -0.2580367 -0.063098215 -0.1062342 0.11503942
000080 5a 12 81 3e 1a 34 8b 3e b9 2d 41 3a ac 31 ee 3e
       0.25209314 0.27188188 0.0007369179 0.46522272
000090 e3 ba 2e 95 42 82 33 17 00 b4 9b 96 b7 41 57 97
       -3.5286448e-26 5.800243e-25 -2.5155197e-25 -6.955319e-25
0000a0 f5 4c 76 16 60 1d 4f 97 1b e8 34 97 e7 15 df 93
       1.9896005e-25 -6.6922384e-25 -5.8454095e-25 -5.631471e-27
0000b0 52 6c 24 17 e1 60 ac 3b 6a 51 60 3d f2 ed 88 bc
       5.3127977e-25 0.0052605723 0.054765143 -0.016715024
0000c0 dd cc 8c 3d 5e 52 19 3e 6a 7b 06 3c 26 fd 2c bd
       0.06875012 0.14972827 0.008208135 -0.04223361
0000d0 45 17 c4 ba e0 9a 3f be b9 4f b8 3d cd d3 87 bc
       -0.0014960548 -0.18711424 0.08999581 -0.016580487
0000e0 a1 af 7a be 86 de 63 3d c1 a5 16 3e ec 04 c7 bd
       -0.2448106 0.055632137 0.14711668 -0.09717736
0000f0 18 39 13 bd 7a 03 2b bc 5b b7 9f be 67 0b 69 a5
       -0.03594312 -0.010437841 -0.31194577 -2.0213392e-16
000100 9c 11 e6 a4 ee ef 58 a3 d7 8d c2 a3 7c d4 36 25
       -9.977643e-17 -1.17601906e-17 -2.1093594e-17 1.5857976e-16
000110 54 10 b7 24 79 f2 4d 25 28 1a 3d 25 60 6d 2a 24
       7.939126e-17 1.7863069e-16 1.6401999e-16 3.6955518e-17
000120 3c cd bc 3c 59 e4 0a 3b ec e0 85 bb 67 16 39 3c
       0.023047082 0.0021193235 -0.0040856507 0.011296845
000130 10 dd 38 38 bb 2f 12 3b fa 15 e6 3b c7 57 45 3c
       4.40749e-05 0.0022306282 0.007021663 0.0120448535
000140 32 dd e6 3c d9 1e 31 3c 38 af 56 3b 74 ae 06 bc
       0.028181646 0.010810577 0.0032758247 -0.008220304
000150 9a a9 86 3c 8a c8 b9 3b 42 ad ba bb 25 c9 23 3c
       0.016438294 0.005669658 -0.0056969235 0.009996687
000160 5f 68 62 ba 99 f6 cc bb f7 3b 9a 3e f6 3f 88 3e
       -0.00086367683 -0.0062549827 0.30123875 0.26611298
000170 75 d6 73 3e 6a 2a 86 3e 26 06 e0 bc 2f 5e a1 3e
       0.23812278 0.26204234 -0.027346682 0.3151717
000180 00 b9 91 3e a8 0b bf 3d cf c1 a7 3d 4c 09 62 3e
       0.28461456 0.09328395 0.08191263 0.22073859
000190 5f 7d 40 be b0 84 19 3e a6 48 94 3d ae a8 57 be
       -0.18797825 0.14992023 0.07240419 -0.2106044
0001a0 3d 52 fb bd d7 68 85 3e 95 cb 87 3d f4 8d 2a 3e
       -0.12271545 0.2605655 0.06630627 0.16655713
0001b0 56 20 bc 3e 5f 91 fb 3d d2 86 54 3e 1a 72 94 3e
       0.3674342 0.12283587 0.20754555 0.28993303
0001c0 58 56 4a 3e 03 27 d9 3d 18 27 89 3e 18 7d 16 3e
       0.197595 0.10603144 0.2678764 0.14696157
0001d0 3a 30 93 bd dc 67 7d 3c b5 85 29 3d 4b 14 91 3d
       -0.07186933 0.015466657 0.04138728 0.07083949
0001e0 f4 62 d1 3d 5d b8 ef bd ce 24 44 3e f6 a5 ac bd
       0.10223952 -0.117050864 0.19154665 -0.08430092
0001f0 0f 4b 53 3d aa 86 c0 3e 48 10 00 00 82 57 00 80
       0.051585253 0.3760274 5.84e-42 -3.1392e-41
000200 d9 79 00 00 7d 96 00 80 94 63 00 00 c9 db 00 80
       4.3711e-41 -5.3985e-41 3.5722e-41 -7.8844e-41
000210 c3 67 00 80 2e 3b 00 80 72 ee 00 80 c1 01 87 bd
       -3.7223e-41 -2.123e-41 -8.5538e-41 -0.065921314
000220 57 e9 22 3e 40 96 0f be a5 49 fa 3d 5b 23 59 3e
       0.15909325 -0.1402216 0.12221078 0.21204893
000230 26 0a 43 3e b7 78 23 be 05 db 93 bd 3b 21 b4 bd
       0.1904684 -0.15964018 -0.07219509 -0.08795401
000240 e6 15 c9 3d 40 07 6e 3e ed ed b4 3e b1 70 00 3e
       0.0981863 0.23244953 0.35337773 0.12542988
000250 37 bf 72 3d 0a c4 07 3e ff 9c 1e be ce 0c 8c bd
       0.059264388 0.13258377 -0.15489577 -0.0683838
000260 b3 32 52 be 85 f2 0f 22 0d f3 a7 a2 98 59 4a a2
       -0.20527153 1.9508503e-18 -4.552278e-18 -2.7423535e-18
000270 c4 7c 50 a2 49 54 68 a1 e2 12 ab a2 35 a2 5a a1
       -2.8255307e-18 -7.871621e-19 -4.6369636e-18 -7.407595e-19
000280 a5 a7 c1 a0 92 46 0b 22 b0 3c b1 38 f6 3c 2f 37
       -3.280641e-19 1.8875372e-18 8.4513216e-05 1.0445006e-05
000290 3b 57 d7 b7 35 35 15 38 a8 a9 b3 b8 a9 31 86 b8
       -2.5670617e-05 3.557392e-05 -8.566986e-05 -6.398868e-05
0002a0 ed 51 bd 38 98 f5 bd b5 64 7b c4 36 a3 a0 20 91
       9.027482e-05 -1.4153075e-06 5.8556197e-06 -1.2671274e-28
0002b0 bb 7d a5 0e 33 4f 05 91 66 27 2e 91 02 be 28 91
       4.0796714e-30 -1.0516255e-28 -1.373832e-28 -1.3311414e-28
0002c0 50 eb 8c 0e b4 f3 bc 90 d3 96 a9 0f c5 c3 ce 90
       3.4739262e-30 -7.452841e-29 1.6722782e-29 -8.1554304e-29
0002d0 26 5b 6d bd a4 db 76 3e bd ac 54 be d1 76 a3 be
       -0.057948254 0.24107224 -0.2076902 -0.31926587
0002e0 49 58 2e bc 09 46 64 3d 9b 5a a3 be 99 62 7e be
       -0.010641166 0.055730853 -0.31905064 -0.248423
0002f0 e6 e8 8a be 9f 41 ba b0 8a fe a9 b0 29 00 6e 30
       -0.27130812 -1.3551932e-09 -1.2368713e-09 8.6584123e-10
000300 16 31 dc af a5 87 52 b0 43 8c 61 30 d4 dd b1 b0
       -4.0052645e-10 -7.659032e-10 8.2053847e-10 -1.2941492e-09
000310 41 e9 0b b0 5c 7e b6 b0 7f 8c 83 bd 4c 0d e0 bd
       -5.089938e-10 -1.3278156e-09 -0.06423282 -0.10940036
000320 41 a9 8e 3d 7e c4 cd bd 8e a9 d1 bd 1f 12 c2 3b
       0.06965876 -0.100472435 -0.10237418 0.0059225704
000330 9b ae 6a bd b4 84 d3 bd 2f f9 a2 bc c7 47 00 00
       -0.057295423 -0.103280455 -0.01989421 2.5749e-41
000340 b8 20 00 80 cf 47 00 00 dc 1a 00 00 14 d6 00 00
       -1.1737e-41 2.576e-41 9.635e-42 7.6797e-41
000350 fa ee 00 80 88 39 00 00 f0 41 00 80 e3 43 01 00
       -8.5729e-41 2.0638e-41 -2.3654e-41 1.16189e-40
000360 5c 55 37 1c 37 ea 31 1c 6a 81 79 1c 59 10 4c 9c
       6.0659945e-22 5.8867103e-22 8.2554453e-22 -6.7519067e-22
000370 0c 63 a0 1b a5 df 1e 1c cb b1 8e 9c f7 25 23 1c
       2.6533787e-22 5.256687e-22 -9.44273e-22 5.3981244e-22
000380 b6 c4 fc 99 a3 7a 00 00 9f 02 01 00 a9 35 01 00
       -2.613564e-23 4.3994e-41 9.2776e-41 1.11085e-40
000390 09 cb 00 00 b9 31 00 00 d5 54 00 00 5a 53 00 00
       7.2835e-41 1.7837e-41 3.0432e-41 2.9901e-41
0003a0 33 0f 01 00 90 d7 00 00 b1 82 01 80 cc 9e 00 80
       9.7288e-41 7.7329e-41 -1.38719e-40 -5.6966e-41
0003b0 c0 bc 00 80 d3 c3 00 00 84 0e 00 00 27 81 00 80
       -6.7711e-41 7.0248e-41 5.207e-42 -4.6331e-41
0003c0 49 6b 00 80 0a 32 01 00 22 52 01 80 c2 fb 9d 3e
       -3.8487e-41 1.09786e-40 -1.21299e-40 0.30856138
0003d0 89 cd b7 bb 85 7a 53 3d c8 f6 b2 3b df a6 72 3d
       -0.0056092185 0.051630516 0.0054615475 0.059241172
0003e0 c4 70 8c 3d fd 70 db 3c f0 c3 16 bd 7b 1d a2 bc
       0.06857446 0.026787275 -0.036807954 -0.019789448
0003f0 23 56 2c bc 2e 34 d8 bb 6f 1c 42 bc 04 63 aa 3a
       -0.0105185835 -0.006598017 -0.011847599 0.001299948

e_conv2.depth_conv.bias f4 [32]
000000 54 8e cd 3d 32 58 04 be 86 e2 50 3b 9a 91 5f bd
       0.100369126 -0.12924269 0.00318733 -0.054582216
000010 ec 4d 35 be fd 08 51 3e dc cb 64 3c 61 3d 14 3e
       -0.17705506 0.20413585 0.0139646195 0.14476539
000020 57 81 8b 3e 3e 01 80 be c0 f6 1f 3c 6a d3 b2 bd
       0.27247116 -0.25000948 0.00976342 -0.0873173
000030 c4 a4 68 be 6f c9 53 bd 8d 65 1b 3e d0 3e 59 3e
       -0.22719103 -0.051705774 0.15175457 0.21215367
000040 5c f2 39 3e 16 e1 02 bd 2f ad 41 3a a1 23 35 3e
       0.18158859 -0.03195294 0.0007388172 0.17689373
000050 f5 a9 88 3e a3 1d 3f 3e dd 89 e9 bd f7 13 4f 3e
       0.26692167 0.1866365 -0.114032485 0.2022246
000060 24 07 b2 bd 48 41 19 bd e6 d3 a4 3d 64 8d 62 be
       -0.08692768 -0.037415773 0.08048229 -0.22124249
000070 64 8f be bd b1 d3 2e be a4 10 b6 bd 36 a8 99 3e
       -0.09304693 -0.17072941 -0.08889893 0.30011147

e_conv2.point_conv.weight f4 [32, 32, 1, 1]
000000 98 b7 61 bc 3b 7a 44 bc 0d 9a 3b ba ee 2b ac 3d
       -0.013776682 -0.011992033 -0.0007156439 0.084068164
000010 97 7b 73 3c 7d ff 8a bd d5 8e b0 3c 55 74 e4 bc
       0.014861009 -0.06787012 0.021552483 -0.027887503
000020 2a 02 6d bd 76 f8 34 3c 8d af 4f 3d 5b ca 48 3d
       -0.057863392 0.011045566 0.050704528 0.049021106
000030 1f 00 25 3e 75 27 05 3d 4e a6 44 bc e9 66 02 be
       0.16113327 0.032508332 -0.012002541 -0.1273457
000040 73 95 ca 3c 3f 93 74 3b 96 5d c5 38 72 4c 56 bd
       0.024729466 0.003731921 9.411124e-05 -0.052318998
000050 70 28 83 3e 20 8e c1 3c e2 51 5c 3d 8f 3d 77 bd
       0.2561679 0.02362734 0.053789027 -0.06036144
000060 8d 4e ea b9 a6 c8 b3 3b b3 c2 80 bc c5 c8 47 3d
       -0.00044690483 0.0054865656 -0.01571784 0.048775453
000070 e2 ba a9 3c 8d c1 f1 3c 64 24 1b be 1d c5 e3 bc
       0.020718995 0.029511238 -0.151506 -0.027803952
000080 63 81 87 3d 9e 3c c2 bd 35 9d 2b 3b e5 b0 0c be
       0.066164754 -0.09484218 0.0026186232 -0.13739355
000090 37 6f 8b 3c 80 11 be 3d c7 7b 28 3c bc 8c dc 3c
       0.017020805 0.092806816 0.010283417 0.026922576
0000a0 26 2b c4 3d c0 2c ca bd 88 71 96 3e 7c 03 22 3e
       0.095785424 -0.09871817 0.29383492 0.15821642
0000b0 5d 22 78 3e f1 da ae 3d a1 c6 01 bc 7b 02 13 3e
       0.24231859 0.085378535 -0.007920892 0.14356415
0000c0 43 40 df 3d fe 92 4a bc 80 b9 e3 39 4e fb de bb
       0.10900929 -0.012364147 0.00043435022 -0.00680486
0000d0 e0 38 b3 3c 0b 1c 63 3d e2 ba 82 3c ec 8f fb 3d
       0.021877706 0.055446666 0.015958253 0.1228331
0000e0 91 c2 89 bc 64 45 72 bc 69 fe 9b bc a5 e6 3a 3e
       -0.01681641 -0.014787052 -0.01904221 0.18252046
0000f0 fa f2 c9 bd fb 48 0b bd 4a 8c 82 be 72 9c ec 3d
       -0.09860797 -0.034005146 -0.25497657 0.11553277
000100 6b 69 34 3a 6a 9d 1a bb 1f d6 45 3a 54 64 ad 3e
       0.00068821636 -0.0023592361 0.000754686 0.33865607
000110 84 a1 12 3c 97 85 15 3d 57 04 3a 3d d9 29 c6 bb
       0.008949641 0.036504354 0.045414295 -0.006047469
000120 8b 99 11 bd f4 82 3f bd 9a 87 00 be bc 45 2c bd
       -0.03554682 -0.046755746 -0.12551728 -0.04205869
000130 6d 91 86 be 11 fd 5f 3d db da 8a bc 16 2b a0 3c
       -0.26282826 0.054684702 -0.016950062 0.019551795
000140 48 e6 a8 3d b5 9e a0 bb 41 bf 82 b9 77 7b a0 3c
       0.08247048 -0.004901732 -0.00024938027 0.019590123
000150 a9 8b 04 bd 2b 0b 28 3c 47 f7 e2 bb 10 50 7f 3d
       -0.032359753 0.010256569 -0.0069264504 0.062332213
000160 68 81 e1 bb 8f 01 83 bb d2 d4 64 3c fd 56 50 be
       -0.0068818815 -0.0039979885 0.013966756 -0.20345683
000170 40 96 50 bc d6 61 1a bd fc ac a1 3d b6 be 06 bc
       -0.012731135 -0.03769096 0.07894322 -0.00822418
000180 8b b5 34 83 75 00 16 00 b2 d3 5d 81 13 f0 a1 82
       -5.3105647e-37 2.020545e-39 -4.0743173e-38 -2.379462e-37
000190 46 a6 2b 00 40 c8 7a 03 9f aa ad 83 f5 66 00 83
       4.008574e-39 7.3698273e-37 -1.0207199e-36 -3.773401e-37
0001a0 75 a3 68 83 c1 bc a0 83 14 d5 43 82 2f ca e1 00
       -6.836631e-37 -9.447291e-37 -1.4387488e-37 2.0735516e-38
0001b0 9b c0 31 81 ba 26 dc 02 b6 bb e8 82 78 25 a9 03
       -3.2647953e-38 3.2348323e-37 -3.4197077e-37 9.94153e-37
0001c0 c5 e7 82 03 18 3c 25 82 85 96 02 80 15 2f 69 03
       7.693925e-37 -1.2139532e-37 -2.37667e-40 6.8526593e-37
0001d0 49 fb 88 03 b4 d3 78 81 55 86 64 03 0c 0a 27 03
       8.051054e-37 -4.5702296e-38 6.7157384e-37 4.9088422e-37
0001e0 59 c8 e4 82 05 5a 84 82 86 c7 27 02 ae da 7e 82
       -3.3616583e-37 -1.9447325e-37 1.2326483e-37 -1.8723731e-37
0001f0 03 49 26 03 ba 2c 69 03 1d 3b 93 1e d7 ed 09 83
       4.886683e-37 6.852389e-37 1.5588679e-20 -4.053371e-37
000200 23 fd 28 3b 29 8d 17 3c 6f ab 45 3a c1 0e f1 bc
       0.0025785647 0.009249964 0.0007540499 -0.02942598
000210 d1 90 cc 3c a6 f6 c4 3d d6 1b 10 be b1 8c ab 3b
       0.024971398 0.09617357 -0.14073119 0.0052352776
000220 85 2e 94 bc 3e dc 0b bd b5 ef 95 bd 81 ca dc bc
       -0.018088588 -0.034145586 -0.07321111 -0.02695203
000230 45 7e 88 bd b4 5b 40 bd 70 2f 86 3c 90 06 23 3e
       -0.06664709 -0.046962455 0.016380042 0.15920472
000240 66 85 47 3c 06 c1 d7 bb 89 1a 0d b9 9c d8 1e 3d
       0.012177801 -0.0065842895 -0.00013456693 0.038780794
000250 fc bf 6f 3b 93 ef 04 bc f7 04 08 bc f2 4b 99 bc
       0.0036582937 -0.00811376 -0.008301965 -0.018712971
000260 a7 aa 8b bc 41 1a b4 bb 11 d8 80 3c d8 b3 7a 3b
       -0.017049147 -0.005496294 0.015728028 0.0038254168
000270 fe ef 56 bc 62 aa 12 bd f4 dc 13 3d 8a 5b 8e bd
       -0.013118742 -0.03580702 0.03609939 -0.069510534
000280 1f f0 8f 3c 0b 4e 9b bc 74 1f 2e 3a a9 24 78 bd
       0.017570553 -0.018958112 0.000664226 -0.060581837
000290 ed bc c6 bc db e9 04 3d 42 0a ef 3d 5c 7e a2 3c
       -0.024260009 0.032449584 0.116718784 0.019835643
0002a0 93 b3 00 3d 45 95 f6 bc 97 86 c8 3d 62 02 2e bd
       0.031421255 -0.030100474 0.09791296 -0.04248274
0002b0 5b 3f 8c 3d 5d c6 d9 bc 46 47 ac 3c 6a d6 2f 3d
       0.068480216 -0.026583845 0.02103008 0.04292909
0002c0 89 e5 64 bb 8e 12 a7 bb ad 53 05 ba 21 41 a8 3c
       -0.0034926853 -0.0050986474 -0.0005086016 0.020538868
0002d0 52 22 a4 3d c7 4d cf 3c cf bd fd bc f6 30 c4 3c
       0.080143586 0.025305642 -0.030974297 0.023949128
0002e0 d2 42 3d bc 60 8f b1 bb e9 4f 40 3c a5 c8 b4 3c
       -0.011551576 -0.005418703 0.011737802 0.022068331
0002f0 ad 90 69 bc 24 bd b7 bc 36 8c e5 3b d0 71 18 3e
       -0.014255685 -0.022429056 0.00700524 0.14887166
000300 22 2b ff 3b 65 73 99 3c 2f 53 1c ba 8a ae 1f 3e
       0.0077871243 0.018731782 -0.0005963323 0.15593925
000310 23 8d 7b bc f4 59 4f be 59 8d 36 3e 85 32 c3 3b
       -0.015353474 -0.20249158 0.17827357 0.00595695
000320 a2 1d bf ba e7 ec 05 bd b9 fc b8 3e 84 91 40 3e
       -0.0014580975 -0.03269663 0.36130312 0.1880551
000330 79 df 45 3e 0a c9 5f 3e 87 ab 17 3c 0a 0e c5 bd
       0.1932353 0.21854034 0.009257204 -0.09621818
000340 97 e5 32 3e ee ca 01 3b f1 be 23 3a e7 6b b9 3c
       0.17470394 0.0019804793 0.0006246409 0.02263446
000350 b7 eb 50 bd a9 ce 92 3c 8d a9 07 3d 1b 7f 0e 3c
       -0.051006045 0.017920809 0.03312068 0.0086972965
000360 e7 cb 8b 3b 5d 4b 07 3b 27 80 a9 3b 40 3b c5 3d
       0.0042662504 0.0020644285 0.0051727477 0.09630442
000370 ff 9a 92 ba 75 66 90 3c 34 43 30 be 6e 3a 0e 3e
       -0.0011185108 0.01762698 -0.17213136 0.13889477
000380 78 d4 19 00 ed 3b 6e 01 3d 03 83 80 1c f4 a4 01
       2.372107e-39 4.375669e-38 -1.2031612e-38 6.0594365e-38
000390 f9 1a 2c 02 65 05 f8 01 cc c0 1e 82 de fe 4b 02
       1.2644305e-37 9.1108553e-38 -1.1663337e-37 1.4987228e-37
0003a0 da 93 9a 82 d7 05 4a 02 ff 5b 9d 81 df 3f 53 80
       -2.271313e-37 1.4842292e-37 -5.78047e-38 -7.645259e-39
0003b0 ee 63 83 01 6d 08 17 00 5b 92 ea 01 4f eb 35 82
       4.826519e-38 2.115239e-39 8.6168034e-38 -1.336531e-37
0003c0 c0 8b 2c 03 44 4a a7 01 d9 1e 01 00 6c 37 6c 82
       5.070668e-37 6.145268e-38 1.02902e-40 -1.7354447e-37
0003d0 5a bc 44 02 2b 72 1a 82 59 46 99 02 f9 f1 77 82
       1.445386e-37 -1.1346898e-37 2.2521707e-37 -1.8216137e-37
0003e0 26 7d c6 81 ee 88 8d 81 b5 ca 02 82 85 55 e6 81
       -7.291329e-38 -5.1991704e-38 -9.609066e-38 -8.461137e-38
0003f0 8d 0c 28 02 b0 2c 43 82 fe 3f c7 1f ac ad 70 00
       1.2346293e-37 -1.4339162e-37 8.4385644e-20 1.0347877e-38

e_conv2.point_conv.bias f4 [32]
000000 19 35 b0 3d 70 d9 90 3d 1a d1 c5 3d 98 9c 25 9f
       0.086038776 0.07072723 0.096590236 -3.506964e-20
000010 2a 0b 1d 3e 5d 91 a9 3d 70 25 36 bc 76 24 d1 a0
       0.1533629 0.08279679 -0.011117324 -3.5430105e-19
000020 26 c6 8a 3d c0 de ed 3d ba 1e cb 3b c1 50 60 bd
       0.06776075 0.11614752 0.0061987313 -0.054764513
000030 14 07 c7 3b 61 9e 26 3e de 94 c5 3d 21 e6 a5 36
       0.006073842 0.16271354 0.09647535 4.9441737e-06
000040 d2 af 22 8a 02 26 9b 3c 89 93 09 3d 65 c7 00 00
       -7.8330844e-33 0.018939022 0.033587966 7.1529e-41
000050 68 3e 83 bd b2 27 ca bb 6a 4c 9e 3c 31 90 e3 3a
       -0.064083874 -0.006169283 0.019323546 0.0017361698
000060 78 ba 54 3d 77 bb c5 bc d7 eb 2c 3d 4f 37 d2 bd
       0.051935643 -0.024137242 0.042217102 -0.102644555
000070 57 95 9c a7 56 9c 85 b8 8a e9 6a 3d 95 8b be 3d
       -4.3460613e-15 -6.371054e-05 0.057351626 0.09303967

e_conv3.depth_conv.weight f4 [32, 1, 3, 3]
000000 ad 82 00 80 d3 e4 00 00 91 25 00 00 f8 d5 00 00
       -4.6878e-41 8.2087e-41 1.3476e-41 7.6758e-41
000010 e3 17 01 80 a3 1d 00 00 52 16 01 00 82 ff 00 00
       -1.00404e-40 1.0632e-41 9.9843e-41 9.1659e-41
000020 c9 0d 01 00 1e 18 00 80 c0 5e 00 00 83 25 01 00
       9.678e-41 -8.652e-42 3.399e-41 1.05292e-40
000030 b2 75 00 00 bd 48 01 80 0e 6e 00 00 53 f0 00 80
       4.2221e-41 -1.17929e-40 3.948e-41 -8.6212e-41
000040 cd 39 00 00 af b1 00 80 b3 00 00 80 62 b0 00 80
       2.0735e-41 -6.3741e-41 -2.51e-43 -6.3274e-41
000050 85 3e 00 80 60 ca 00 80 1e 49 00 00 a3 04 00 00
       -2.2428e-41 -7.2598e-41 2.623e-41 1.663e-42
000060 8a 72 00 00 f1 2a 00 00 b3 94 00 00 75 e9 00 80
       4.1089e-41 1.5404e-41 5.3343e-41 -8.3749e-41
000070 93 85 00 80 4c b9 00 00 10 72 00 00 ae d1 00 80
       -4.7917e-41 6.6472e-41 4.0918e-41 -7.5219e-41
000080 41 9e 00 00 bc aa 00 00 08 1b 01 00 e7 c9 00 80
       5.6771e-41 6.1248e-41 1.01532e-40 -7.2429e-41
000090 46 6c 00 80 21 0f 00 80 e1 9d 01 80 f7 c7 00 80
       -3.8841e-41 -5.427e-42 -1.48472e-40 -7.1734e-41
0000a0 24 31 01 80 8c c7 00 00 4a 11 01 80 e3 a1 01 00
       -1.09464e-40 7.1584e-41 -9.8038e-41 1.4991e-40
0000b0 e2 53 01 80 7d a5 01 80 a4 17 00 80 53 51 00 00
       -1.21927e-40 -1.51202e-40 -8.48e-42 2.9174e-41
0000c0 d7 b7 00 80 2e 48 00 00 0a 57 01 00 f1 2f 00 80
       -6.595e-41 2.5893e-41 1.23059e-40 -1.7198e-41
0000d0 a2 46 00 00 e8 2d 02 00 84 39 01 00 8e 9a 01 80
       2.5338e-41 2.00139e-40 1.12468e-40 -1.47279e-40
0000e0 8d 91 00 00 19 c1 00 00 56 f4 00 80 81 94 00 80
       5.2214e-41 6.927e-41 -8.7651e-41 -5.3273e-41
0000f0 8c 3c 00 80 ce 0f 01 00 de 5e 00 00 5e 81 01 80
       -2.172e-41 9.7505e-41 3.4032e-41 -1.38244e-40
000100 5d 13 00 00 be 9a 00 00 e0 c3 00 00 8c ac 00 00
       6.946e-42 5.5511e-41 7.0267e-41 6.1898e-41
000110 29 8f 00 80 3f b1 01 00 33 a1 00 80 9a 58 00 80
       -5.1356e-41 1.5542e-40 -5.7827e-41 -3.1784e-41
000120 87 92 00 80 45 d0 00 80 f1 e9 00 00 52 36 00 00
       -5.2564e-41 -7.4713e-41 8.3922e-41 1.9486e-41
000130 88 c5 00 80 b5 85 00 80 e2 fb 00 00 08 2a 01 80
       -7.0861e-41 -4.7965e-41 9.0359e-41 -1.06913e-40
000140 a9 97 01 00 0d f8 00 00 e6 d4 00 80 18 1f 00 00
       1.46241e-40 8.8984e-41 -7.6374e-41 1.1154e-41
000150 29 e8 00 00 32 f4 00 80 e5 d4 00 00 59 05 00 80
       8.3283e-41 -8.7601e-41 7.6372e-41 -1.918e-42
000160 fc dc 00 00 7e 52 00 80 b5 1d 01 00 77 25 01 80
       7.9274e-41 -2.9593e-41 1.02492e-40 -1.05275e-40
000170 c9 42 00 00 80 2e 00 80 59 49 01 00 0c 7a 00 80
       2.3958e-41 -1.6681e-41 1.18148e-40 -4.3782e-41
000180 5e b0 00 00 76 3d 01 80 2f c0 00 00 68 b2 01 00
       6.3269e-41 -1.13884e-40 6.8942e-41 1.55836e-40
000190 e9 f2 00 00 ff 1f 01 00 3d 78 01 00 64 d4 00 00
       8.714e-41 1.03314e-40 1.34969e-40 7.6191e-41
0001a0 e6 44 00 80 e2 3c 01 80 9f df 00 00 e4 e2 00 80
       -2.4716e-41 -1.13676e-40 8.022e-41 -8.1393e-41
0001b0 6a a5 00 00 90 d7 00 80 01 60 00 80 26 a8 00 00
       5.934e-41 -7.7329e-41 -3.444e-41 6.032e-41
0001c0 df 75 01 80 2b 1f 00 00 33 d8 00 80 b6 23 00 00
       -1.3412e-40 1.1181e-41 -7.7558e-41 1.281e-41
0001d0 c6 b7 00 00 87 67 01 80 39 6e 01 00 4d 3d 00 80
       6.5925e-41 -1.28974e-40 1.31376e-40 -2.199e-41
0001e0 d8 d4 00 00 c1 4b 00 80 9d 34 00 80 89 5d 00 00
       7.6354e-41 -2.7175e-41 -1.8874e-41 3.3554e-41
0001f0 35 13 00 80 50 ea 00 80 2c 95 01 80 91 48 00 80
       -6.89e-42 -8.4055e-41 -1.45348e-40 -2.6032e-41
000200 d8 67 00 80 68 18 00 80 d5 20 01 80 42 60 00 00
       -3.7252e-41 -8.755e-42 -1.03613e-40 3.4531e-41
000210 89 82 00 00 d0 0d 00 00 5e 05 00 80 f8 48 00 00
       4.6827e-41 4.955e-42 -1.925e-42 2.6176e-41
000220 db b6 00 00 79 f3 00 80 31 1e 00 00 de 1e 01 00
       6.5596e-41 -8.7342e-41 1.083e-41 1.02909e-40
000230 89 c3 00 80 c0 00 00 00 66 79 00 00 15 ad 00 00
       -7.0145e-41 2.69e-43 4.355e-41 6.209e-41
000240 55 ea 00 80 27 cd 00 80 fa 2a 00 80 6a ea 00 00
       -8.4062e-41 -7.3595e-41 -1.5417e-41 8.4092e-41
000250 03 64 00 00 3e 0f 00 00 db 19 00 00 c9 c5 00 80
       3.5877e-41 5.468e-42 9.275e-42 -7.0952e-41
000260 2f 05 00 80 00 81 00 00 c0 1f 00 80 a0 89 00 80
       -1.86e-42 4.6276e-41 -1.139e-41 -4.937e-41
000270 f4 d8 00 00 88 d1 00 00 d9 6a 00 00 a1 fa 00 00
       7.7828e-41 7.5166e-41 3.833e-41 8.9909e-41
000280 ce 6e 01 80 8f 9b 00 80 74 f2 00 00 4f 77 01 00
       -1.31585e-40 -5.5804e-41 8.6976e-41 1.34635e-40
000290 da 18 00 00 41 5f 00 80 bf 0d 00 80 e2 01 01 00
       8.915e-42 -3.417e-41 -4.931e-42 9.2511e-41
0002a0 fb b9 00 00 1a 7d 00 00 24 ad 01 00 aa 18 01 00
       6.6717e-41 4.4878e-41 1.53947e-40 1.00683e-40
0002b0 db 8b 00 00 fd 2b 01 80 a9 0e 01 00 16 6d 01 80
       5.017e-41 -1.07616e-40 9.7095e-41 -1.30968e-40
0002c0 a7 c9 00 00 2c 79 00 00 8c d3 00 00 c1 6c 00 00
       7.2339e-41 4.3468e-41 7.5889e-41 3.9014e-41
0002d0 a7 0e 00 80 a9 4d 00 80 e4 ae 00 80 f1 95 01 80
       -5.256e-42 -2.7859e-41 -6.2739e-41 -1.45624e-40
0002e0 ce 4c 00 80 af 8f 00 80 b4 a2 00 80 6c 33 00 00
       -2.7552e-41 -5.1544e-41 -5.8367e-41 1.8447e-41
0002f0 30 8d 00 80 2b cf 00 80 73 41 00 80 8f 66 00 80
       -5.0649e-41 -7.4318e-41 -2.3479e-41 -3.6791e-41
000300 14 b6 00 00 4b 11 01 00 dd fc 00 80 9d b8 00 00
       6.5317e-41 9.8039e-41 -9.071e-41 6.6227e-41
000310 1b 79 00 00 6b 19 00 80 84 57 00 80 38 e2 00 80
       4.3444e-41 -9.118e-42 -3.1395e-41 -8.1152e-41
000320 db ce 01 80 56 02 00 80 f4 c3 01 80 52 2d 00 80
       -1.66041e-40 -8.38e-43 -1.6213e-40 -1.6258e-41
000330 b1 6e 01 80 7d 5b 00 00 ae e2 00 00 f9 70 00 00
       -1.31544e-40 3.282e-41 8.1317e-41 4.0527e-41
000340 eb 66 00 00 36 0c 00 00 e0 b0 00 00 60 bd 00 80
       3.692e-41 4.38e-42 6.3451e-41 -6.7935e-41
000350 ea 99 00 80 33 d3 00 80 34 ce 00 00 40 55 00 80
       -5.5214e-41 -7.5764e-41 7.3972e-41 -3.0582e-41
000360 e2 8a 00 80 8b e3 00 80 d1 c2 00 00 16 d8 00 00
       -4.9822e-41 -8.1627e-41 6.9887e-41 7.7517e-41
000370 88 77 00 00 3c 01 01 80 ed 00 01 80 15 64 00 80
       4.288e-41 -9.2278e-41 -9.2168e-41 -3.5903e-41
000380 40 2f 00 00 41 72 00 80 8d 78 00 80 19 4c 00 00
       1.695e-41 -4.0987e-41 -4.3245e-41 2.7299e-41
000390 40 01 01 80 45 00 02 00 63 de 00 00 78 7c 00 00
       -9.2284e-41 1.83768e-40 7.9777e-41 4.4651e-41
0003a0 64 db 00 80 0c 3a 01 80 4f 0e 00 00 5b 45 01 00
       -7.8703e-41 -1.12659e-40 5.133e-42 1.16716e-40
0003b0 1b f0 00 80 73 3d 00 00 d4 08 00 80 ab c7 00 80
       -8.6134e-41 2.2044e-41 -3.167e-42 -7.1627e-41
0003c0 72 81 00 80 23 d4 00 80 82 ca 00 80 1b 6d 00 00
       -4.6436e-41 -7.61e-41 -7.2646e-41 3.914e-41
0003d0 99 ed 01 00 b2 06 00 00 30 a4 00 80 d7 85 00 80
       1.7707e-40 2.402e-42 -5.89e-41 -4.8013e-41
0003e0 ba 73 00 80 ef 3f 01 80 99 14 01 80 09 63 00 00
       -4.1515e-41 -1.1477e-40 -9.9225e-41 3.5527e-41
0003f0 25 81 00 00 9f 93 01 00 08 1d 00 00 5a 4f 00 00
       4.6328e-41 1.44792e-40 1.0414e-41 2.8466e-41

e_conv3.depth_conv.bias f4 [32]
000000 02 25 01 00 01 a9 00 00 42 4a 00 00 e2 d8 00 00
       1.05111e-40 6.0627e-41 2.6639e-41 7.7803e-41
000010 49 cc 00 80 ac fa 00 80 e2 55 00 00 b7 be 00 80
       -7.3284e-41 -8.9924e-41 3.0809e-41 -6.8416e-41
000020 d4 7c 01 00 e0 23 00 80 59 4c 00 80 c7 1e 01 00
       1.36615e-40 -1.287e-41 -2.7388e-41 1.02876e-40
000030 bd 7a 00 00 6f 09 01 00 bb 5c 00 00 0c 87 00 80
       4.403e-41 9.522e-41 3.3265e-41 -4.8446e-41
000040 3d f2 00 00 36 27 01 00 95 87 00 00 e0 1a 01 00
       8.6899e-41 1.05902e-40 4.8638e-41 1.01476e-40
000050 df 48 00 00 cb 59 00 80 f7 85 00 00 a9 51 00 00
       2.6141e-41 -3.2212e-41 4.8058e-41 2.9294e-41
000060 55 22 00 80 d1 08 00 00 cc cb 00 80 bc 1b 00 80
       -1.2316e-41 3.163e-42 -7.3109e-41 -9.949e-42
000070 95 2a 00 80 e2 78 00 00 1f 3c 00 00 89 24 00 80
       -1.5276e-41 4.3365e-41 2.1567e-41 -1.3106e-41

e_conv3.point_conv.weight f4 [32, 32, 1, 1]
000000 7e 2a 00 00 f4 1a 00 00 e2 6c 00 80 ef 23 01 00
       1.5243e-41 9.669e-42 -3.906e-41 1.04726e-40
000010 bf de 00 80 df c9 00 80 d5 59 00 80 62 f7 00 00
       -7.9906e-41 -7.2418e-41 -3.2226e-41 8.8744e-41
000020 5f 96 01 80 86 fa 00 00 69 66 01 80 3e 4e 01 80
       -1.45778e-40 8.9871e-41 -1.28573e-40 -1.19904e-40
000030 ca 00 01 80 6f cc 01 80 93 26 00 00 94 9a 01 00
       -9.2119e-41 -1.65172e-40 1.3838e-41 1.47288e-40
000040 72 44 00 00 4f ab 00 80 8f 95 00 00 de 33 01 00
       2.4554e-41 -6.1454e-41 5.3652e-41 1.10442e-40
000050 2c 07 01 80 51 5d 00 80 74 06 00 00 8b 3c 01 80
       -9.4408e-41 -3.3476e-41 2.315e-42 -1.13554e-40
000060 70 c7 00 00 00 63 01 80 8f ee 01 00 ea 1f 02 80
       7.1545e-41 -1.2735e-40 1.77414e-40 -1.9512e-40
000070 e9 a0 00 00 1e 3f 00 80 3e 45 01 00 25 ef 00 00
       5.7724e-41 -2.2642e-41 1.16675e-40 8.5789e-41
000080 f4 35 01 00 c4 ec 00 00 99 1d 00 00 b8 f1 00 00
       1.1119e-40 8.4936e-41 1.0618e-41 8.6712e-41
000090 3a 9a 00 80 a0 16 00 00 7d fb 00 00 9f 8b 00 80
       -5.5326e-41 8.116e-42 9.0217e-41 -5.0087e-41
0000a0 90 34 00 00 91 f2 00 00 b5 a2 00 00 73 be 00 00
       1.8856e-41 8.7016e-41 5.8368e-41 6.832e-41
0000b0 99 eb 00 00 dc 35 01 80 14 3e 01 80 ef 70 00 80
       8.4517e-41 -1.11157e-40 -1.14105e-40 -4.0513e-41
0000c0 78 25 01 80 7e 4d 00 00 47 10 00 00 7b 5b 00 80
       -1.05277e-40 2.7799e-41 5.839e-42 -3.2817e-41
0000d0 05 39 01 00 3e a5 00 80 6a 6f 01 80 b7 26 00 80
       1.1229e-40 -5.9278e-41 -1.31803e-40 -1.3888e-41
0000e0 a0 b3 00 80 50 54 01 80 65 1b 01 00 bf 60 00 80
       -6.4437e-41 -1.22081e-40 1.01663e-40 -3.4706e-41
0000f0 28 19 01 00 8f 2a 01 00 e2 01 01 00 31 88 00 80
       1.0086e-40 1.07103e-40 9.2511e-41 -4.8856e-41
000100 9b 81 00 00 bd 95 00 00 45 f1 00 80 e2 5c 01 80
       4.6494e-41 5.3716e-41 -8.6551e-41 -1.25156e-40
000110 b1 03 01 00 ca 2d 01 80 cf 51 00 00 9b 4f 00 00
       9.316e-41 -1.08262e-40 2.9347e-41 2.8557e-41
000120 5c 9f 00 00 5b db 00 80 61 22 01 00 29 a3 01 80
       5.7167e-41 -7.869e-41 1.04168e-40 -1.50366e-40
000130 53 75 00 00 85 82 01 00 11 2e 00 00 7e 42 00 00
       4.2088e-41 1.38657e-40 1.6526e-41 2.3853e-41
000140 02 33 00 00 db 10 00 00 d1 46 01 00 43 30 00 80
       1.8298e-41 6.047e-42 1.1724e-40 -1.7313e-41
000150 87 de 00 00 37 21 01 80 ec ab 00 80 61 ea 00 00
       7.9828e-41 -1.03751e-40 -6.1674e-41 8.408e-41
000160 8a b1 00 80 9a 04 02 00 50 01 00 80 ca 53 00 00
       -6.3689e-41 1.85322e-40 -4.71e-43 3.0058e-41
000170 47 52 00 00 83 9f 00 80 02 1f 02 00 c4 e1 01 80
       2.9516e-41 -5.7222e-41 1.94794e-40 -1.72825e-40
000180 25 33 01 00 b3 4c 00 00 09 9f 00 80 8a 64 01 00
       1.10183e-40 2.7514e-41 -5.7051e-41 1.27902e-40
000190 2c eb 00 80 d1 2b 00 80 11 25 01 00 fb 87 00 00
       -8.4364e-41 -1.5718e-41 1.05132e-40 4.878e-41
0001a0 bf 5d 01 80 35 e2 00 80 96 89 00 80 7b 41 00 00
       -1.25465e-40 -8.1148e-41 -4.9357e-41 2.349e-41
0001b0 f5 7a 01 80 d9 77 01 00 e5 4c 01 00 db 8c 01 00
       -1.35944e-40 1.34829e-40 1.1942e-40 1.42365e-40
0001c0 63 91 00 00 61 fa 00 00 e5 2f 00 00 a5 ef 00 00
       5.2155e-41 8.9819e-41 1.7181e-41 8.5968e-41
0001d0 aa 0e 00 80 15 44 00 80 23 c6 00 80 13 e4 00 00
       -5.26e-42 -2.4423e-41 -7.1078e-41 8.1818e-41
0001e0 ce 34 00 80 72 77 00 00 fa 5c 00 00 fb 86 01 80
       -1.8943e-41 4.2849e-41 3.3354e-41 -1.40257e-40
0001f0 64 29 00 80 c4 44 01 80 29 48 00 80 a0 3e 00 80
       -1.4848e-41 -1.16504e-40 -2.5886e-41 -2.2466e-41
000200 84 bc 00 00 f5 2a 01 80 2e cf 00 80 de 54 00 80
       6.7627e-41 -1.07246e-40 -7.4322e-41 -3.0445e-41
000210 08 a8 00 80 78 75 01 00 67 40 00 00 d6 53 00 80
       -6.0278e-41 1.33975e-40 2.3103e-41 -3.0075e-41
000220 52 63 01 80 50 25 00 80 84 f2 00 00 df 13 01 80
       -1.27465e-40 -1.3385e-41 8.6998e-41 -9.8964e-41
000230 9c 6d 00 80 cf b5 00 80 6e 45 01 80 cc d5 00 80
       -3.932e-41 -6.522e-41 -1.16742e-40 -7.6696e-41
000240 8b 87 00 80 a7 b3 00 00 18 61 01 00 ef 84 00 80
       -4.8624e-41 6.4447e-41 1.26666e-40 -4.7688e-41
000250 d6 f4 00 00 13 bb 00 80 54 7f 01 80 cf 0d 01 80
       8.783e-41 -6.711e-41 -1.37512e-40 -9.6789e-41
000260 07 9c 00 80 56 2b 01 80 da 99 00 00 ce f3 00 80
       -5.5972e-41 -1.07382e-40 5.5192e-41 -8.746e-41
000270 31 23 01 80 87 3c 00 00 3c fa 00 80 d3 6a 00 00
       -1.0446e-40 2.1713e-41 -8.9767e-41 3.8321e-41
000280 a0 d9 00 80 f0 16 00 80 03 dd 00 00 68 cb 00 00
       -7.8069e-41 -8.228e-42 7.9284e-41 7.2968e-41
000290 04 ed 00 80 a7 fe 00 00 2b 0e 01 00 8f ab 00 80
       -8.5025e-41 9.1352e-41 9.6918e-41 -6.1544e-41
0002a0 b9 e9 00 00 1c 88 00 00 cd 57 01 00 de 23 01 80
       8.3844e-41 4.8827e-41 1.23332e-40 -1.04702e-40
0002b0 db 8f 00 00 ae 7a 00 80 d8 38 00 80 2e 1f 00 00
       5.1606e-41 -4.4009e-41 -2.0392e-41 1.1185e-41
0002c0 88 43 01 00 62 29 00 00 f9 39 00 80 77 49 00 00
       1.16061e-40 1.4845e-41 -2.0797e-41 2.6354e-41
0002d0 fd ac 00 80 4f b3 00 80 f7 c5 00 00 6e ad 00 00
       -6.2057e-41 -6.4324e-41 7.1016e-41 6.2215e-41
0002e0 84 b0 00 00 5c 61 00 00 1c 35 01 80 99 75 00 00
       6.3322e-41 3.4926e-41 -1.10888e-40 4.2186e-41
0002f0 5e 65 00 80 25 3b 01 00 5b 01 01 80 32 67 00 00
       -3.6364e-41 1.13053e-40 -9.2322e-41 3.702e-41
000300 14 78 01 00 52 09 01 80 a9 ed 00 00 d9 c0 00 80
       1.34911e-40 -9.5179e-41 8.5256e-41 -6.9181e-41
000310 6c 1b 00 80 c6 00 00 00 9a 92 01 00 97 00 00 80
       -9.837e-42 2.77e-43 1.44426e-40 -2.12e-43
000320 8d 50 00 00 ff 0b 01 80 53 0b 01 80 67 86 00 00
       2.8896e-41 -9.6139e-41 -9.5898e-41 4.8214e-41
000330 75 5b 01 80 50 ef 00 80 0f fe 00 00 21 d7 00 80
       -1.24644e-40 -8.5849e-41 9.1139e-41 -7.7174e-41
000340 34 f3 00 00 0e 30 01 80 e1 2b 01 00 69 f1 00 80
       8.7245e-41 -1.09074e-40 1.07576e-40 -8.6602e-41
000350 af 57 00 00 85 43 01 80 0f ce 00 00 9c 0a 01 80
       3.1455e-41 -1.16057e-40 7.392e-41 -9.5641e-41
000360 0f 08 01 80 4f bb 00 80 8c a1 00 80 45 70 01 00
       -9.4726e-41 -6.7194e-41 -5.7952e-41 1.3211e-40
000370 d4 12 01 80 f1 b4 00 80 b2 0b 01 00 ae 75 00 80
       -9.859e-41 -6.491e-41 9.6031e-41 -4.2216e-41
000380 0a a8 01 00 a7 02 01 80 00 f2 01 80 30 ba 01 00
       1.52117e-40 -9.2787e-41 -1.78649e-40 1.58627e-40
000390 a6 da 00 80 7c 2f 01 00 6f fb 01 80 b9 10 00 00
       -7.8436e-41 1.0887e-40 -1.82033e-40 5.999e-42
0003a0 cc 37 00 00 96 7c 01 00 98 15 00 80 49 ff 00 00
       2.0016e-41 1.36529e-40 -7.746e-42 9.1579e-41
0003b0 9f 91 00 80 2f 1b 01 00 90 24 01 80 94 01 00 00
       -5.2239e-41 1.01587e-40 -1.04952e-40 5.66e-43
0003c0 08 59 00 00 4a cf 00 00 cc cf 01 80 7c 38 01 00
       3.1938e-41 7.4361e-41 -1.66379e-40 1.12098e-40
0003d0 2c 79 01 80 17 37 00 00 c6 e9 01 00 0f 09 01 80
       -1.35304e-40 1.9763e-41 1.75698e-40 -9.5085e-41
0003e0 5f 6a 00 80 c9 4d 00 80 f3 45 01 00 2b b1 00 80
       -3.8159e-41 -2.7904e-41 1.16929e-40 -6.3556e-41
0003f0 92 52 00 00 fb dd 00 80 35 a9 00 00 75 35 00 00
       2.962e-41 -7.9632e-41 6.07e-41 1.9177e-41

e_conv3.point_conv.bias f4 [32]
000000 0e 73 01 00 c0 15 01 80 c3 ab 00 00 bc 29 00 80
       1.3311e-40 -9.9638e-41 6.1616e-41 -1.4971e-41
000010 2f f5 00 00 42 c3 00 00 6f 4e 01 80 40 75 01 80
       8.7955e-41 7.0045e-41 -1.19972e-40 -1.33897e-40
000020 15 af 00 00 c0 30 00 00 4a 9e 00 00 11 4a 00 00
       6.2808e-41 1.7488e-41 5.6783e-41 2.657e-41
000030 53 7e 00 00 e6 10 00 00 8a 3e 00 80 ea fb 00 00
       4.5317e-41 6.062e-42 -2.2435e-41 9.037e-41
000040 29 01 01 00 90 b6 00 00 b8 1c 01 00 ea 2b 01 80
       9.2252e-41 6.5491e-41 1.02138e-40 -1.07589e-40
000050 e2 68 00 00 40 f7 00 80 95 a4 00 00 42 70 00 80
       3.7625e-41 -8.8697e-41 5.9041e-41 -4.027e-41
000060 7d 16 01 80 d6 5d 00 80 d6 e4 00 80 4a 7b 00 80
       -9.9903e-41 -3.3662e-41 -8.2091e-41 -4.4228e-41
000070 a4 de 00 00 11 49 01 80 c8 1b 00 80 29 bf 01 80
       7.9868e-41 -1.18047e-40 -9.966e-42 -1.60411e-40

e_conv4.depth_conv.weight f4 [32, 1, 3, 3]
000000 f8 5a 00 00 41 8a 01 80 18 79 00 00 78 a0 00 00
       3.2633e-41 -1.41432e-40 4.344e-41 5.7565e-41
000010 cd 03 00 80 3b 5d 01 00 f8 5f 00 00 91 53 00 00
       -1.363e-42 1.2528e-40 3.4427e-41 2.9978e-41
000020 43 d5 00 00 ea 0a 01 00 7e 18 01 00 8b e9 00 00
       7.6504e-41 9.5751e-41 1.00622e-40 8.378e-41
000030 07 c0 00 00 96 57 01 80 86 3f 00 80 ef 02 00 00
       6.8886e-41 -1.23255e-40 -2.2788e-41 1.052e-42
000040 6a cf 00 80 0a 22 01 80 bf d2 00 80 c9 91 00 00
       -7.4406e-41 -1.04046e-40 -7.5601e-41 5.2298e-41
000050 0a 39 01 80 60 10 00 80 0e 02 01 00 af c6 00 80
       -1.12297e-40 -5.874e-42 9.2573e-41 -7.1274e-41
000060 5d ac 00 80 c4 ee 01 00 5d c1 00 00 3a d5 00 00
       -6.1832e-41 1.77488e-40 6.9366e-41 7.6491e-41
000070 9b 78 00 80 a2 cb 00 00 29 29 01 80 82 f5 00 80
       -4.3265e-41 7.305e-41 -1.06601e-40 -8.8072e-41
000080 44 61 00 00 fa 70 00 80 f2 e7 00 80 4b b0 00 00
       3.4892e-41 -4.0528e-41 -8.3206e-41 6.3242e-41
000090 6c ec 00 80 59 33 01 80 b9 5c 01 80 3b 1d 00 80
       -8.4812e-41 -1.10256e-40 -1.25098e-40 -1.0486e-41
0000a0 cc 5a 00 80 4a af 00 00 bb 76 00 80 b4 cc 00 00
       -3.2572e-41 6.2882e-41 -4.2592e-41 7.3434e-41
0000b0 66 c0 01 80 5f cd 00 80 40 05 00 80 85 9e 00 80
       -1.60855e-40 -7.3673e-41 -1.883e-42 -5.6866e-41
0000c0 ab 03 00 00 33 17 00 80 d4 d5 00 00 a2 19 01 00
       1.316e-42 -8.322e-42 7.6707e-41 1.01031e-40
0000d0 8b 36 01 00 f7 43 00 00 b6 50 00 80 f4 6a 00 80
       1.11402e-40 2.4381e-41 -2.8954e-41 -3.8368e-41
0000e0 78 e3 00 00 d2 4f 00 00 d2 77 00 80 95 26 00 00
       8.16e-41 2.8634e-41 -4.2983e-41 1.384e-41
0000f0 27 62 01 00 7a 09 00 00 58 55 01 00 5a a4 00 80
       1.27046e-40 3.4e-42 1.22451e-40 -5.8958e-41
000100 72 a5 00 00 0a 6e 01 00 32 74 00 00 17 ba 00 80
       5.935e-41 1.3131e-40 4.1683e-41 -6.6756e-41
000110 a0 b0 00 00 c7 c7 00 00 13 2d 00 00 b5 f6 00 80
       6.3361e-41 7.1667e-41 1.617e-41 -8.8502e-41
000120 1f 0f 01 00 c9 5c 00 80 17 84 00 80 44 bb 00 80
       9.726e-41 -3.3285e-41 -4.7385e-41 -6.7178e-41
000130 53 05 01 80 02 f9 00 00 d5 18 01 80 03 06 01 80
       -9.3745e-41 8.9327e-41 -1.00744e-40 -9.3992e-41
000140 ea 44 00 80 0a 9b 00 80 52 4c 00 00 04 53 00 80
       -2.4722e-41 -5.5618e-41 2.7379e-41 -2.978e-41
000150 01 b9 00 80 c1 3f 00 00 89 82 00 00 25 d0 00 00
       -6.6367e-41 2.287e-41 4.6827e-41 7.4668e-41
000160 34 a4 00 80 07 79 00 00 2a c4 00 00 39 7a 00 00
       -5.8905e-41 4.3416e-41 7.037e-41 4.3845e-41
000170 88 b3 00 00 29 49 01 00 a9 9d 01 00 18 ea 00 00
       6.4404e-41 1.1808e-40 1.48393e-40 8.3977e-41
000180 0d 04 00 00 50 07 00 80 45 c4 00 00 ed 9b 00 00
       1.453e-42 -2.623e-42 7.0408e-41 5.5936e-41
000190 71 cc 00 80 c7 e1 00 00 f5 c9 00 80 bc 6b 00 00
       -7.334e-41 8.0994e-41 -7.2449e-41 3.8648e-41
0001a0 9a 70 00 00 8a 84 00 00 49 39 00 00 92 eb 00 00
       4.0394e-41 4.7546e-41 2.055e-41 8.4507e-41
0001b0 03 01 01 00 ea 4f 00 00 e1 cd 00 80 1a 34 00 80
       9.2198e-41 2.8668e-41 -7.3855e-41 -1.869e-41
0001c0 d7 15 00 80 33 61 00 80 a7 91 00 80 ee f0 00 80
       -7.835e-42 -3.4869e-41 -5.225e-41 -8.6429e-41
0001d0 ac 49 00 00 e2 8d 00 00 34 3c 01 00 56 a8 00 00
       2.6428e-41 5.0898e-41 1.13432e-40 6.0388e-41
0001e0 b2 4a 00 80 2e dc 00 80 0c 93 00 00 e9 92 00 80
       -2.6796e-41 -7.8986e-41 5.275e-41 -5.2701e-41
0001f0 d4 eb 00 80 fd 88 01 80 c6 ac 01 80 b6 48 00 00
       -8.4599e-41 -1.40978e-40 -1.53815e-40 2.6084e-41
000200 84 97 00 00 ac 21 00 00 ca 3e 01 00 b4 1d 00 80
       5.4354e-41 1.2079e-41 1.1436e-40 -1.0655e-41
000210 82 cf 00 80 6c af 00 00 f3 b0 00 00 17 54 00 80
       -7.444e-41 6.293e-41 6.3477e-41 -3.0166e-41
000220 2d 1d 01 00 ee cd 00 80 8c c7 00 00 1e 28 00 80
       1.02302e-40 -7.3874e-41 7.1584e-41 -1.4391e-41
000230 9e df 00 00 2a 79 00 80 31 db 00 00 f0 64 00 80
       8.0219e-41 -4.3465e-41 7.8631e-41 -3.621e-41
000240 c7 7b 00 00 c1 02 01 00 6f 0b 00 80 76 00 00 00
       4.4403e-41 9.2823e-41 -4.102e-42 1.65e-43
000250 43 2a 00 00 d1 18 01 80 7a 62 01 80 cc c1 00 00
       1.516e-41 -1.00738e-40 -1.27162e-40 6.9521e-41
000260 95 7d 00 80 c4 76 00 80 d7 66 00 00 0a d3 00 00
       -4.505e-41 -4.2605e-41 3.6892e-41 7.5707e-41
000270 ad 42 00 00 0b 22 01 80 75 43 01 80 c6 52 00 00
       2.3919e-41 -1.04048e-40 -1.16035e-40 2.9694e-41
000280 a4 e1 00 80 0a b7 00 00 e1 54 01 80 45 87 00 00
       -8.0945e-41 6.5662e-41 -1.22284e-40 4.8526e-41
000290 aa b4 00 00 a3 4e 00 80 62 55 01 80 2d 37 00 00
       6.481e-41 -2.821e-41 -1.22465e-40 1.9793e-41
0002a0 ff 5c 00 00 8a 3c 01 00 ce d3 01 00 21 64 00 80
       3.3361e-41 1.13553e-40 1.67817e-40 -3.592e-41
0002b0 5f e3 00 00 f1 71 00 00 b6 41 00 80 58 80 00 80
       8.1565e-41 4.0874e-41 -2.3573e-41 -4.6041e-41
0002c0 66 39 00 80 24 b6 00 00 46 2a 01 80 ba 92 00 80
       -2.059e-41 6.534e-41 -1.07e-40 -5.2636e-41
0002d0 2d 4a 00 80 3a cd 01 80 c9 25 00 80 76 2b 00 00
       -2.6609e-41 -1.65457e-40 -1.3555e-41 1.5591e-41
0002e0 91 85 00 80 63 d6 00 80 db ca 00 80 5d aa 00 00
       -4.7915e-41 -7.6907e-41 -7.2771e-41 6.1115e-41
0002f0 6b 18 00 80 fa 51 01 00 1b 03 01 80 7b 51 00 00
       -8.76e-42 1.21243e-40 -9.295e-41 2.923e-41
000300 8e f6 00 00 87 5f 00 00 61 f5 00 00 8f a4 00 80
       8.8447e-41 3.4269e-41 8.8025e-41 -5.9033e-41
000310 80 14 00 80 40 46 00 80 43 e2 00 80 76 d3 00 80
       -7.354e-42 -2.5201e-41 -8.1167e-41 -7.5858e-41
000320 c3 56 00 80 64 0c 01 00 74 d2 00 80 3b 30 00 00
       -3.1124e-41 9.628e-41 -7.5496e-41 1.7302e-41
000330 24 22 00 80 95 82 00 80 f8 e1 00 00 ea ce 00 80
       -1.2247e-41 -4.6844e-41 8.1062e-41 -7.4227e-41
000340 60 8a 00 00 99 1f 00 00 27 20 01 80 7e d2 00 80
       4.964e-41 1.1335e-41 -1.0337e-40 -7.551e-41
000350 ba c4 00 00 b9 3e 01 00 88 6d 00 80 1e 9e 01 80
       7.0572e-41 1.14336e-40 -3.9292e-41 -1.48557e-40
000360 d8 05 00 80 b0 5a 01 00 0b 13 01 00 29 86 00 80
       -2.096e-42 1.24368e-40 9.8667e-41 -4.8128e-41
000370 18 93 00 00 8a 9c 00 80 d6 ce 00 80 aa 01 01 80
       5.2767e-41 -5.6156e-41 -7.4199e-41 -9.2432e-41
000380 5a 78 01 80 37 7c 00 00 f7 94 00 00 e9 5e 01 80
       -1.3501e-40 4.456e-41 5.3439e-41 -1.25883e-40
000390 2c 17 01 80 7a ef 00 00 45 37 01 80 3a 1f 00 00
       -1.00148e-40 8.5908e-41 -1.11662e-40 1.1202e-41
0003a0 5f 17 01 00 bc 4f 00 00 12 ae 00 00 9e 1b 00 80
       1.0022e-40 2.8603e-41 6.2445e-41 -9.907e-42
0003b0 03 d6 00 80 b3 e2 00 00 95 02 01 80 ed 84 00 00
       -7.6773e-41 8.1324e-41 -9.2762e-41 4.7685e-41
0003c0 2c 5b 01 00 73 a9 00 00 7e de 00 80 af 9e 00 00
       1.24542e-40 6.0787e-41 -7.9815e-41 5.6925e-41
0003d0 4e a7 00 00 4b 1b 00 80 d0 3a 01 80 a6 9a 00 00
       6.0018e-41 -9.791e-42 -1.12933e-40 5.5477e-41
0003e0 bc 10 01 80 31 8f 00 80 3c f4 01 00 8f d7 00 80
       -9.7839e-41 -5.1367e-41 1.7945e-40 -7.7328e-41
0003f0 99 d9 00 80 d0 35 00 80 a5 40 00 00 a5 07 01 80
       -7.806e-41 -1.9304e-41 2.319e-41 -9.4578e-41

e_conv4.depth_conv.bias f4 [32]
000000 67 83 00 80 8d 6d 00 80 f6 bc 00 00 f9 24 00 00
       -4.7138e-41 -3.93e-41 6.7786e-41 1.3263e-41
000010 16 b6 00 80 28 95 00 00 4d 03 01 80 7f 52 00 00
       -6.532e-41 5.3507e-41 -9.302e-41 2.9594e-41
000020 ae fd 00 00 0a 6e 00 00 dc e0 00 00 85 ec 00 00
       9.1003e-41 3.9475e-41 8.0664e-41 8.4847e-41
000030 ad e2 00 00 2b 2c 00 00 00 a1 00 80 68 05 01 80
       8.1316e-41 1.5844e-41 -5.7756e-41 -9.3775e-41
000040 5d 5a 00 00 e4 ec 00 00 84 15 00 80 ea 3b 01 00
       3.2416e-41 8.498e-41 -7.718e-42 1.13329e-40
000050 d5 5e 00 80 eb bb 00 80 6f 04 00 00 cd cd 00 80
       -3.402e-41 -6.7412e-41 1.59e-42 -7.3827e-41
000060 ab 1e 00 00 a0 c4 00 00 3c cd 00 80 e0 b9 00 80
       1.1002e-41 7.0536e-41 -7.3624e-41 -6.668e-41
000070 e4 ce 00 00 48 de 00 80 94 d3 00 00 d9 30 00 80
       7.4218e-41 -7.974e-41 7.59e-41 -1.7523e-41
