Zero-DCE++/snapshots_Zero_DCE++/Epoch44.pth (torch, 51217 bytes, 28 tensors)

e_conv1.depth_conv.weight f4 [3, 1, 3, 3]
00000000: a627 aebe cba5 1bbe 682b fc3c 9451 30be
00000010: 3ea7 f83d 0ed7 e13d 2809 cdbe f1a2 1abe
00000020: 943e 54bd 9fb2 3f3e d539 0f3e 6076 9c3e
00000030: 7a98 353e c929 dc3b bc3c 663e 9e43 c13d
00000040: 08f3 61bc de67 483e d07e 02bb ee4d 53bd
00000050: cddd 1dbe 19a9 39bd 2072 c1bd ade0 01be
00000060: a3de 84bd 7769 3fbe 1431 a9be
-0.34014624 -0.15199964 0.030782416 -0.1721862 0.12141274 0.110273466 -0.40046048 -0.1510122
-0.05181749 0.18720482 0.13986905 0.30559063 0.17733946 0.0067188484 0.22484106 0.09436725
-0.013790853 0.19570872 -0.0019912012 -0.05158799 -0.15416642 -0.04532728 -0.09445596 -0.12683363
-0.06487777 -0.18692575 -0.33045256

e_conv1.depth_conv.bias f4 [3]
00000000: f72f 993d 894f 9f3e f7af 23bd
0.07479852 0.31115368 -0.039962735

e_conv1.point_conv.weight f4 [32, 3, 1, 1]
00000000: 26a8 ee3b 1c3d 723e ae98 c13d 7131 0500
00000010: 988d 0280 f57e 0f00 efae 551e 236f 00b3
00000020: 6f46 0caa 5570 be3d ba3c 06bf 55c8 fd3d
00000030: dc1f 7e31 ae22 08b1 6ca1 962d 05eb 51bd
00000040: b6d2 e63d 6298 df3e fe62 bc3d 30e9 8f3e
00000050: a707 8fbe 0fdd 0000 7c1f 0180 bec8 0080
00000060: 29d5 053d 4d03 4bbc e15f 843d 0a15 8a3d
00000070: fd98 0dbd 94a0 00be 0ee0 bf3e 7407 0ebf
00000080: b87b c13e c1af cb3b 24bc 7ebd fa39 6b3d
00000090: b5e2 2c3e b124 d3be fddf 18be f1cc 8bbd
000000a0: 74a5 10be 5e7e f43d 11d9 ad28 06eb 6496
000000b0: cf8a 0080 d749 1b3d f7b1 b43e 26d3 a23e
000000c0: 0f2c 74be 5757 b33e ed46 b8be 8e34 0000
000000d0: 47a3 0080 f853 be2d 6b7c ddbb d094 e53b
000000e0: 5b02 5dbd adf1 0e2e 7cda 742b 1786 11aa
000000f0: c90f 16bf 8bb4 a7bd 4432 bebe c03f 3010
00000100: 8361 f690 c1d4 6610 a264 3bbc 2207 a73b
00000110: 1131 713d 9303 0080 f83e 212d 50a7 0080
00000120: 89a2 0080 64e1 0080 5bee 6e1c dfa2 0080
00000130: 5041 9dad 7a07 1732 59b0 0000 dc17 84b3
00000140: 4ed9 0080 a128 a73e bffb 10be ffe6 a7be
00000150: 31b6 6b3c 7300 45be 7476 48bd 4571 0100
00000160: 7ba7 0000 ee8d 0080 e1fc 903e d63a 9a3c
00000170: 2be5 3ebd 3104 86be c469 cf3e e3ce bcbe
0.0072832284 0.23656124 0.094529495 4.76914e-40 -2.34465e-40 1.423076e-39 1.13123015e-20 -2.99034e-08
-1.2458934e-13 0.092987694 -0.5243641 0.12391726 3.6979975e-09 -1.9810318e-09 1.7124711e-11 -0.051249523
0.11270659 0.43670946 0.09198569 0.28107595 -0.27935526 7.9301e-41 -1.0313e-40 -7.2013e-41
0.03267399 -0.012390924 0.064636 0.06742294 -0.03456973 -0.12561256 0.37475628 -0.5548012
0.37789702 0.00621602 -0.062191144 0.057428338 0.16883357 -0.4123893 -0.14929195 -0.06826199
-0.14125615 0.11938165 1.9300996e-14 -1.8491854e-25 -4.9795e-41 0.037912216 0.35292026 0.31801718
-0.23844932 0.35027573 -0.35991612 1.8853e-41 -5.8573e-41 2.1637789e-11 -0.0067592165 0.007006265
-0.053957324 3.2501713e-11 8.698942e-13 -1.2925109e-13 -0.58617836 -0.08188733 -0.37147725 3.475899e-29
-9.718013e-29 4.5523402e-29 -0.011437567 0.005097286 0.058884684 -1.282e-42 9.165772e-12 -6.002e-41
-5.8307e-41 -8.0855e-41 7.905566e-22 -5.8427e-41 -1.7877838e-11 8.791057e-09 6.3262e-41 -6.151069e-08
-7.7954e-41 0.32648185 -0.14158534 -0.32793424 0.0143867 -0.19238453 -0.04894109 1.32469e-40
6.008e-41 -5.0915e-41 0.2831793 0.018826883 -0.04660527 -0.26175073 0.4051038 -0.36876592

e_conv1.point_conv.bias f4 [32]
00000000: f954 1ebe ac02 9a82 014c 45ae cd9b 123f
00000010: 9b88 acb0 2022 983d e9a2 923e e45e 74a4
00000020: fb21 4d3d 5201 87bc 0e39 d43e e781 ea3e
00000030: d11d b03e bf7b 9a3e ebed ccae ccd3 043f
00000040: f573 98bd c937 0080 2c4b 0cbd 0498 bfab
00000050: e50c d23e 9ede e690 e49f b73e 60ce dab2
00000060: 6ab9 0000 faf1 0080 133f 1fb3 bf2c a63e
00000070: 159d bd3d 0df3 dcb1 5ade 013f a702 bfbd
-0.15462102 -2.26298e-37 -4.486012e-11 0.57268983 -1.2553473e-09 0.07428384 0.28639916 -5.298944e-17
0.050081234 -0.016480122 0.4144978 0.45802233 0.34397748 0.30172536 -9.319109e-11 0.51885676
-0.07443992 -2.0012e-41 -0.034251377 -1.3613559e-12 0.41025463 -9.1062e-29 0.35864174 -2.5472389e-08
6.6514e-41 -8.6805e-41 -3.7077438e-08 0.32456014 0.09258477 -6.4304744e-09 0.50729907 -0.09326678

e_conv2.depth_conv.weight f4 [32, 1, 3, 3]
00000000: 629b 1ebd b726 34bd 502f 10bd 7c96 b7bc
00000010: cdac 1dbd 0073 c9bc aaea 04bd a0d8 43bd
00000020: a646 0abd 041a 1280 13b1 0f80 5476 0e80
00000030: 474c 0f80 6059 2700 c1f5 1080 0533 0e00
00000040: 7ac5 0380 9a4c 0a80 7f80 0080 c0a1 0080
00000050: 224c 0080 73b9 0080 9a71 0000 757a 0000
00000060: eb4c 0000 acde 0000 c24e 0080 3a2d 97be
00000070: d21b 89be 4c41 92bd 1019 cabd a398 083e
00000080: e1cd 893e 77b6 8c3e 49ab 22bb 7d94 eb3e
00000090: a9fd 9ea8 0b8e b429 0de9 1ba9 5f30 cd28
000000a0: be1b 1229 1ffe be28 6f6e 8128 cd14 dc26
000000b0: f804 23a9 1a95 2bbc 62b0 463d 5eff 25bd
000000c0: 2c1a 9e3d aad9 333e 038c 47bc 7adb 20bd
000000d0: ab08 0c3b 82d7 45be f976 c63d 47ec 16bc
000000e0: b3cb 71be ad58 6b3d 80db 1f3e ed86 c5bd
000000f0: cb87 1cbd 1372 fabb 8be8 a0be f920 0080
00000100: da7a 0080 c75f 0000 ef07 0000 5353 0080
00000110: 9a46 0000 e13f 0080 2b1c 0000 7300 0080
00000120: 8b25 c33c e5df 103b 3fe8 a0bb 1f9d 333c
00000130: a4f5 ebb9 9b97 aa3a 5a9c bf3b 713e 1c3c
00000140: 9e84 c53c 0692 413c b9cc a13b 4b74 40bc
00000150: 3713 a23c f885 1e3c 0958 cbbb a226 583c
00000160: a349 3d3b 1149 c9bb 6ee2 9c3e e555 913e
00000170: 185a 743e b9ff 8d3e b27e aabc d411 aa3e
00000180: d946 913e 9ddb af3d 71f2 8e3d beab 5c3e
00000190: a2b2 52be de4b 0f3e 1b54 8f3d a6a0 60be
000001a0: 6c9b 0bbe f64c 853e ebfc 803d 8e97 1f3e
000001b0: eb4e b73e 74a7 f53d 4675 523e 25f6 943e
000001c0: 2e6f 523e 5bb1 dd3d 20d9 8e3e d86b 273e
000001d0: 7ceb 8cbd 56fa 343c dff3 163d 725a 823d
000001e0: c7b2 d63d 388c 02be 7cfb 483e cc51 c9bd
000001f0: 9266 333d 57c6 bf3e d83f 0080 657e 0080
00000200: 4e88 0080 f8c3 0080 4180 0080 2151 0000
00000210: 3439 0080 a7e2 0000 64aa 0080 fc9e 96bd
00000220: b58f 263e e6f4 16be 13fb fa3d fe99 5f3e
00000230: 2a46 4d3e de9f 28be d0f6 92bd ec53 a9bd
00000240: a4bc cd3d 9f03 793e cbb0 b53e a932 063e
00000250: cd72 8a3d b0cb 0c3e fb46 29be 6e17 80bd
00000260: 156c 48be a524 0080 4c40 0180 6ec0 0080
00000270: d9b4 0000 ce7f 0000 98bd 0000 b893 0000
00000280: 348c 0080 9c80 0000 624a 8eb1 4122 bbb1
00000290: dbc6 b731 1170 99b2 12bc 22b2 19cb 6431
000002a0: 20ea 86b2 53e4 6eb1 29c2 f231 93f8 22aa
000002b0: 4c20 0cab 75ca 38ab fce8 7daa ebb1 5dab
000002c0: c93e e1aa 6aa5 23aa bdf9 1cab a285 06ab
000002d0: 3353 4cbd 6649 7f3e 5d1c 57be 344e a4be
000002e0: 9a39 48bc 0cd1 723d 392d 9bbe f779 82be
000002f0: d98f 8dbe fb35 808d 28be bd8d 6630 f90b
00000300: 7ed6 ee0c 2560 ad8c 5c78 420d 4cba 088d
00000310: cb67 718d a2de 058e 4304 6dbd ba9c fabd
00000320: 7448 b43d 5bb2 d0bd e5d0 edbd 4959 423c
00000330: ee64 4abd 4c56 ebbd d115 85bc 69bd 0180
00000340: 9743 0080 e19f 0000 90dd 0080 9f0e 0000
00000350: 752c 0000 3b69 0000 782e 0000 316d 0180
00000360: 2c10 0000 691f 0000 1bc3 0000 452f 0100
00000370: e7c2 0080 2e01 0180 9d81 0000 5ec3 0080
00000380: d4dd 0080 e493 0000 9e5a 0000 2b34 0180
00000390: 7026 0080 d751 0000 af42 0000 d450 0000
000003a0: bf87 0000 7808 0080 afab 0080 a466 0000
000003b0: 5a26 0080 44b3 0080 95d5 0000 c273 0080
000003c0: 1e7a 0000 0be4 0000 e90d 0100 88c9 9c3e
000003d0: 0f05 7bbc da30 383d 7733 4b3c b56e a93d
000003e0: 403f a43d dcfa f83c d165 2ebd afbb 3dbc
000003f0: 0c93 50bc 46f7 15bc 5d85 55bc fa91 daba
-0.038722403 -0.043982234 -0.03520137 -0.022410624 -0.038494874 -0.02459097 -0.032450356 -0.04781401
-0.03375878 -1.662372e-39 -1.441055e-39 -1.328145e-39 -1.404896e-39 3.613646e-39 -1.557528e-39 1.304e-39
-3.46348e-40 -9.45834e-40 -4.6096e-41 -5.8025e-41 -2.7311e-41 -6.6527e-41 4.0753e-41 4.393e-41
2.7593e-41 7.988e-41 -2.8253e-41 -0.29526693 -0.26779038 -0.07141361 -0.098680615 0.13339476
0.26914886 0.2748296 -0.0024821332 0.46011725 -1.7651531e-14 8.018246e-14 -3.4619053e-14 2.278055e-14
3.2442575e-14 2.1204445e-14 1.436977e-14 1.5271205e-15 -3.619758e-14 -0.01047256 0.048508056 -0.04052674
0.07719836 0.17563501 -0.0121793775 -0.03927181 0.0021367471 -0.19320491 0.09690661 -0.009211606
-0.23612861 0.057457615 0.15611076 -0.09644876 -0.03821544 -0.0076429932 -0.31427416 -1.1828e-41
-4.4071e-41 3.4358e-41 2.846e-42 -2.9891e-41 2.5327e-41 -2.2915e-41 1.0105e-41 -1.61e-43
0.023821613 0.0022106108 -0.0049104984 0.010962754 -0.0004500571 0.0013015153 0.005847496 0.009536372
0.024111088 0.0118146 0.004937735 -0.011746476 0.019784553 0.009675495 -0.006205563 0.0131928045
0.0028883002 -0.0061427434 0.30641502 0.28385845 0.23862493 0.27734163 -0.020812366 0.33216727
0.28374365 0.0858681 0.06979836 0.2154989 -0.20575956 0.13993785 0.06998464 -0.21936283
-0.13633507 0.2603528 0.0629824 0.15585157 0.35802397 0.1199483 0.20552549 0.29094043
0.20550224 0.108248435 0.27900028 0.16349733 -0.068808526 0.011046013 0.036853667 0.06364907
0.10483318 -0.12748802 0.19627184 -0.09830055 0.04379899 0.3745601 -2.2903e-41 -4.5342e-41
-4.8897e-41 -7.03e-41 -4.6009e-41 2.9104e-41 -2.052e-41 8.1308e-41 -6.1125e-41 -0.073545426
0.16265757 -0.14741859 0.1225492 0.21836087 0.20046297 -0.16467234 -0.07175982 -0.0826796
0.10045746 0.24317788 0.35486445 0.13105263 0.06760178 0.13749576 -0.16530983 -0.06254469
-0.1957248 -1.3146e-41 -1.14901e-40 -6.9031e-41 6.4876e-41 4.5848e-41 6.8013e-41 5.2992e-41
-5.0295e-41 4.6136e-41 -4.1412003e-09 -5.4463105e-09 5.3486082e-09 -1.7862506e-08 -9.472403e-09 3.3293814e-09
-1.570612e-08 -3.4763346e-09 7.0652004e-09 -1.4474732e-13 -4.978281e-13 -6.5650897e-13 -2.2551747e-13 -7.8761883e-13
-4.0011595e-13 -1.4534698e-13 -5.5768915e-13 -4.7791816e-13 -0.049884032 0.24930343 -0.21006913 -0.32090914
-0.0122207645 0.059281394 -0.3030794 -0.25483677 -0.2764881 -7.901604e-31 -1.1693803e-30 9.5984133e-32
3.67988e-31 -2.6712735e-31 5.9925743e-31 -4.213248e-31 -7.4388795e-31 -1.650071e-30 -0.057865392 -0.122369245
0.08802882 -0.101902686 -0.11612109 0.011862108 -0.04941266 -0.11491069 -0.016245754 -1.59783e-40
-2.4247e-41 5.7354e-41 -7.9482e-41 5.245e-42 1.5948e-41 3.775e-41 1.667e-41 -1.31006e-40
5.801e-42 1.1268e-41 6.999e-41 1.08793e-40 -6.9918e-41 -9.2259e-41 4.6496e-41 -7.0085e-41
-7.9577e-41 5.3053e-41 3.2507e-41 -1.1055e-40 -1.3789e-41 2.9359e-41 2.3922e-41 2.8996e-41
4.8697e-41 -3.038e-42 -6.1588e-41 3.682e-41 -1.3758e-41 -6.4308e-41 7.6619e-41 -4.1526e-41
4.3807e-41 8.1806e-41 9.6826e-41 0.30622506 -0.01532103 0.044968463 0.012402407 0.08273069
0.080198765 0.030393057 -0.04257757 -0.011580392 -0.012730371 -0.009153193 -0.013032285 -0.0016675584

e_conv2.depth_conv.bias f4 [32]
00000000: 2b1e d33d d685 13be 84af 5b3c 2a26 5cbd
00000010: 4029 41be 4073 573e c1bf 493c a845 1b3e
00000020: 2e2d 903e aa7d 82be 36e6 163c 9a37 b1bd
00000030: cbb7 6abe a27f 54bd 0655 243e 517f 5d3e
00000040: 38a9 423e 38a3 26bd 8903 a4b2 ec98 3c3e
00000050: e02a 8a3e d678 463e 2ccc f0bd 33e4 5c3e
00000060: 22f4 babd 776b 27bd bb98 b03d 43cd 6abe
00000070: 1675 e2bd 7756 33be 7449 b6bd b878 9a3e
0.103084885 -0.14406523 0.013408545 -0.053747334 -0.18863392 0.21040058 0.012313784 0.1516329
0.2815947 -0.254865 0.00921016 -0.08653183 -0.22921674 -0.051879533 0.16048059 0.21630599
0.19009864 -0.040683 -1.909372e-08 0.1841771 0.26985836 0.19382033 -0.11757693 0.21571426
-0.09128596 -0.04087397 0.08622881 -0.22929864 -0.110574886 -0.17513452 -0.08900729 0.30170226

e_conv2.point_conv.weight f4 [32, 32, 1, 1]
00000000: 334a 7fbc e44d 82bc 89a3 d7ba b605 bf3d
00000010: e8b5 6a3c 9aa3 86bd 5f21 e13c 7771 f1bc
00000020: 6b90 75bd a9db 1f3c 6a20 553d 7bf2 963d
00000030: 27c7 1a3e 4565 033d 8739 3abc d771 00be
00000040: 6645 053d 0677 613b 6067 9c32 5f21 65bd
00000050: 61e7 723e 9ae8 e73c 173e 613d af1d 83bd
00000060: 2625 29bb 32dc c33b 9b12 8ebc be98 553d
00000070: 0dcd ba3c 32e5 fb3c 3ad4 1dbe d69b 4cbd
00000080: 78d5 8f3d f75d d9bd 403f 133c 6e90 32be
00000090: 9a4b b83c ca8c e63d 3d55 1e3c 3fa1 df3c
000000a0: 35fe ca3d ba9b d3bd 19a5 8f3e fe4e d33d
000000b0: b62e 673e 958b 8d3d 62c4 4dbc d012 213e
000000c0: 7f5b ce3d 3129 89bc 5121 9db3 ccc4 36bc
000000d0: 91a8 5a3d aa44 6e3d 7f84 ed3c d2db 063e
000000e0: aca0 8dbc eac1 a7bc 325c e4bc 246b 203e
000000f0: 72c7 ebbd 5f23 0ebd 08d6 79be 7576 fb3d
00000100: 2492 73bb 13d8 7e3b 0a3d b839 b2f8 ab3e
00000110: 13c8 903c d57b 053d 7792 4b3d 8cb6 71bc
00000120: 374e 41bd fc75 42bd 67ac 07be a7c0 61bc
00000130: 2c5d 83be e18f 5b3d 549d e7bc 2f81 703c
00000140: dc3d b93d acbe 5bbb 2bb2 2133 6929 8c3c
00000150: a393 53bd 85b0 b53b 6544 b9bb 090e 8a3d
00000160: c1ad 3bbb 2e93 05b9 fae5 633c c1cc 39be
00000170: 866c 3dbc d254 22bd 3621 a33d 96ad a0bc
00000180: da6e 99b3 fab7 0c33 ed36 4fb2 258a 1c32
00000190: 389c 1d34 ea14 3a32 9ecc d233 6e9c 08b4
000001a0: 513f 1eb2 4a17 5634 c005 c0b4 8c6f 1bb1
000001b0: c4bf 10b4 148d d3b2 6567 b1b3 5963 9330
000001c0: 79a7 1034 9963 c632 cf34 d0a7 a877 31b4
000001d0: b7e6 cbb2 c110 0e32 35bf 8fb0 c873 06b4
000001e0: ac34 8033 018a 2e32 8f64 5bb3 ac68 5fb2
000001f0: 3088 d3b1 0ff3 2f32 9d93 8c34 b8cf 6fb4
00000200: 0c40 663b 6be0 6c3c acbf cb3a 7297 31bd
00000210: 1be1 023d 2d5f d13d d37c 16be 7c91 373b
00000220: bd71 bcbc ac8a 0dbd 0b91 afbd 907d 06bd
00000230: 3b29 95bd d397 4abd 505e 823c dc7d 283e
00000240: e217 ab3b b09b 08bc 7312 77b0 a848 293d
00000250: 3962 c53a e1e3 4ebc 1b14 e2bb a1d5 c6bc
00000260: 956d 9ebc 28e8 bcbb f915 903c 4cdf 1f3c
00000270: 8de4 5cbc 3e3d 1cbd ccdf 273d 1806 82bd
00000280: bf8a 963c 0f6c a6bc 0e8a 1f3b 1622 d9bd
00000290: 6f9c cebc 8e47 073d ac9e e63d 0d9d aa3c
000002a0: 17cb 003d bcf8 f7bc f879 e43d f45b 1ebd
000002b0: 88bf b03d 3e94 00bd e913 b53c bae6 1d3d
000002c0: ba71 b1bb 35f1 d4bb d3be 3eb0 5e82 a63c
000002d0: 12bc a83d 1730 d73c ec64 04bd 0711 c53c
000002e0: 98e5 52bc c546 ccbb 3181 563c 5881 1f3d
000002f0: 82d5 81bc 18d1 bdbc e75a 373b 1b10 133e
00000300: a115 bf3b 3353 a53c e8ea 24ba 9290 303e
00000310: b95a a7bc 789b 4cbe a1a7 453e a89e 213c
00000320: 3beb e139 24d4 1ebd adde bf3e 57fe 5e3e
00000330: 43b7 443e 8e15 6a3e e855 603c b01d c1bd
00000340: 22ae 303e b385 e339 7d19 b633 99cc ed3c
00000350: 12f4 51bd 3567 bf3c a781 173d 9dd6 4b3c
00000360: 4e98 4c3b 82c5 da39 7edc 243c c036 b33d
00000370: 2c22 49bb 01ee 933c 5738 31be 385d 153e
00000380: e755 80a4 a7eb a824 b842 10a3 980d 1f23
00000390: 64fa 5224 a42d f2a4 9e91 4525 0558 1a24
000003a0: 02d4 22a5 4e69 3624 952c 5d23 c689 00a4
000003b0: 9f70 0c25 ae96 ffa3 483e baa4 6876 49a5
000003c0: 221d 09a6 a1d8 0e23 8b26 4718 ffcd dfa4
000003d0: 077e ba25 b8ff 97a4 8b4f 4425 9e56 a6a4
000003e0: badd 1e24 2f96 9f23 fc2d 07a4 790d 1ba3
000003f0: 51b6 9d24 1e68 bc24 aa03 c325 d712 a825
-0.015581655 -0.015906282 -0.0016451936 0.09327261 0.014325596 -0.06574173 0.027481733 -0.02947305
-0.05995218 0.009756961 0.052032866 0.07370468 0.15115033 0.032079 -0.011366255 -0.12543426
0.032536887 0.003440322 1.82078e-08 -0.05594003 0.23721077 0.028309155 0.054990854 -0.06402146
-0.0025809496 0.005977177 -0.017342856 0.05214762 0.022802854 0.030748937 -0.1541299 -0.049953304
0.07023138 -0.106136255 0.008987248 -0.17437908 0.022496987 0.11257322 0.009663877 0.027298568
0.099117674 -0.10332437 0.28055647 0.10317801 0.22576413 0.06911389 -0.012559028 0.15729833
0.10076045 -0.016743274 -7.3169424e-08 -0.0111553185 0.053383414 0.058170952 0.028993843 0.13169792
-0.017288528 -0.020478208 -0.027875993 0.15665871 -0.115126505 -0.0347017 -0.24398053 0.12278453
-0.0037165964 0.0038886114 0.00035140692 0.33588177 0.017673528 0.0325888 0.049700227 -0.014752995
-0.047193732 -0.0474758 -0.1324936 -0.013778842 -0.25657022 0.05360401 -0.028273262 0.014679237
0.09045002 -0.0033530397 3.7647776e-08 0.01710959 -0.05165447 0.0055447244 -0.005653905 0.06740958
-0.00286375 -0.00012738697 0.013909811 -0.18144514 -0.011561519 -0.039631672 0.07965319 -0.019614022
-7.1447815e-08 3.2763616e-08 -1.20614745e-08 9.1118055e-09 1.4678596e-07 1.083138e-08 9.816107e-08 -1.2722896e-07
-9.211207e-09 1.9938776e-07 -3.576697e-07 -2.2618876e-09 -1.3480809e-07 -2.4627788e-08 -8.261012e-08 1.0723894e-09
1.3471971e-07 2.3095525e-08 -5.7788852e-15 -1.652794e-07 -2.3737227e-08 8.269297e-09 -1.0458964e-09 -1.2521843e-07
5.9700454e-08 1.01595115e-08 -5.108137e-08 -1.3004108e-08 -6.156391e-09 1.0241606e-08 2.6184435e-07 -2.2334177e-07
0.003513339 0.014457802 0.0015544794 -0.04335732 0.03195296 0.102232315 -0.14696054 0.00280103
-0.023003453 -0.034556076 -0.085725866 -0.03283459 -0.07283255 -0.049461197 0.015914112 0.16454262
0.005221353 -0.0083379 -8.9884294e-10 0.041329056 0.001505918 -0.012627573 -0.0068993694 -0.024271788
-0.019339362 -0.00576498 0.017588602 0.009757828 -0.013482225 -0.038144343 0.040984914 -0.063488185
0.018376706 -0.020315198 0.0024343762 -0.106022045 -0.025221078 0.033027224 0.11260733 0.02082684
0.03144368 -0.030269973 0.11156076 -0.038661912 0.08630282 -0.031391375 0.02210422 0.038550116
-0.0054151686 -0.0064984807 -6.9392775e-10 0.020325836 0.082389966 0.026268048 -0.03232281 0.02405597
-0.012872122 -0.0062340223 0.013092325 0.03894171 -0.015848879 -0.023170993 0.0027977766 0.14361612
0.005831436 0.020181274 -0.0006291107 0.17242649 -0.020429002 -0.19981182 0.19302227 0.009864487
0.00043090605 -0.03877653 0.37474576 0.2177671 0.19210534 0.22859785 0.013692357 -0.094294906
0.17253926 0.00043396428 8.479672e-08 0.029028224 -0.051258154 0.023364643 0.03698888 0.0124413045
0.003121871 0.00041727355 0.010062335 0.08750677 -0.0030690534 0.018057825 -0.17306648 0.14586341
-5.5656675e-17 7.3257597e-17 -7.820384e-18 8.622286e-18 4.574858e-17 -1.0502809e-16 1.7136363e-16 3.3467982e-17
-1.4123091e-16 3.9554156e-17 1.1989875e-17 -2.7872274e-17 1.2181222e-16 -2.771097e-17 -8.077015e-17 -1.7474089e-16
-4.7570906e-16 7.743708e-18 2.5739606e-24 -9.7059805e-17 3.2351256e-16 -6.5919016e-17 1.702724e-16 -7.213776e-17
3.44486e-17 1.730242e-17 -2.931241e-17 -8.40542e-18 6.839675e-17 8.1708385e-17 3.382959e-16 2.915612e-16

e_conv2.point_conv.bias f4 [32]
00000000: 31df b73d 6cd4 8c3d 7a09 c03d 6455 b233
00000010: 9af5 1d3e 860e a63d 0f28 13bc 05f2 4aa6
00000020: 076b 803d a088 f83d 2f75 a83b 4d45 50bd
00000030: 4f7e d63b a373 353e 974c ab3d 525c 989e
00000040: d233 65ac 4318 a73c 60f3 0c3d fc00 3896
00000050: 95f2 86bd 3d01 ccbb cbdf b83c 0485 1239
00000060: eabb 4e3d bd36 ffbc 67cd 313d e7fd d5bd
00000070: 6f7d 63b2 09aa 64b9 c4c6 683d eb78 c73d
0.08978117 0.06876454 0.093768075 8.3043034e-08 0.15425721 0.08108239 -0.008981719 -7.0410826e-16
0.06270414 0.12135434 0.0051409225 -0.05084734 0.006545819 0.17719893 0.08364218 -1.6131809e-20
-3.2571623e-12 0.020397311 0.034411788 -1.4863712e-25 -0.065892376 -0.0062257336 0.02256765 0.00013973197
0.050472178 -0.031154031 0.043408778 -0.10448819 -1.3241659e-08 -0.00021807117 0.056830183 0.0973986

e_conv3.depth_conv.weight f4 [32, 1, 3, 3]
00000000: 2d95 0000 6ba3 0080 a956 0000 44b4 0000
00000010: 1767 0080 f843 0000 fb26 0000 4c0d 0000
00000020: 16f4 0000 8692 0000 8dcd 0080 bd09 0180
00000030: 9914 0000 69ed 0080 e465 0000 8c4a 0000
00000040: 8f36 0080 e222 0080 26bb 0000 f60f 0000
00000050: f81e 0000 f4e1 0080 ab95 0000 d7d2 0080
00000060: 2ab9 0000 77c1 0080 074b 0080 8699 0000
00000070: 1b02 0000 061b 0080 a014 0000 8037 0000
00000080: b65c 0080 2d7c 0080 f797 0000 4c87 0000
00000090: 03ca 0080 f14d 0080 8018 0100 7785 0000
000000a0: 731b 0080 2e2f 0000 0c91 0080 5636 0080
000000b0: c157 0000 bcf0 0180 25e2 0080 837c 0000
000000c0: 81b5 0080 98e2 0000 7407 0000 1d77 0000
000000d0: ac76 0000 feac 0100 26a1 0000 ebfc 0000
000000e0: a26b 0080 e206 0000 9659 0000 2924 0080
000000f0: d68b 0080 91c3 0000 11cc 0080 ec26 0080
00000100: f384 0080 8635 0080 573d 0080 dd0d 0000
00000110: eeb2 0000 7805 0080 a314 0000 5bc2 0080
00000120: 7ba5 0080 e6e1 0100 e158 0080 cb72 0000
00000130: 7d62 0000 6c79 0000 c0c3 0000 e6ad 0100
00000140: b5d2 0100 e811 0000 2553 0080 f5ba 0080
00000150: 0445 0000 ae2d 0000 d181 0080 ff63 0080
00000160: c799 0080 b845 0080 fcd4 0000 b575 0000
00000170: fc2a 0080 ed7b 0080 3133 0100 2061 0000
00000180: 8d10 0000 2ded 0000 568d 0000 6f9e 0000
00000190: 0f12 0080 45de 0000 b6ca 0080 70e0 0000
000001a0: 7950 0000 79e0 0080 0902 0080 beb9 0080
000001b0: 0f70 0000 f1c0 0080 a878 0000 ac84 0000
000001c0: 613e 0080 f161 0080 17c4 0000 b6a7 0080
000001d0: bc60 0080 f2f4 0000 e350 0080 3f78 0000
000001e0: a88a 0080 c63b 0080 7fa6 0080 6963 0080
000001f0: 7f74 0000 99b9 0080 851b 0080 dcb6 0000
00000200: e7b0 0080 c361 0000 8b6a 0000 5626 0080
00000210: 4642 0000 c02f 0100 fc6b 0000 6f88 0080
00000220: f920 0180 b942 0080 1ec6 0080 fb0b 0080
00000230: fe3d 0000 5f72 0000 5ba5 0000 d98f 0080
00000240: bb79 0000 98eb 1480 452b 0000 bada 0000
00000250: 8eb9 0000 fa55 0000 093e 0080 fe38 0000
00000260: ed40 0000 82da 0000 c31a 0100 b063 0000
00000270: 6a07 0080 4340 0080 8b1d 0000 5003 0180
00000280: ef08 0180 031f 0000 2a76 0000 db13 0180
00000290: 65ac 0000 fdfb 0000 fb40 0000 db42 0000
000002a0: 6a91 0000 fc7f 0000 9b1e 0180 fa31 0080
000002b0: 35b5 0080 04a6 0080 0bfc 0000 3e5a 0000
000002c0: 1a68 0000 77aa 0080 53b3 0000 56c2 0000
000002d0: 99b9 0000 687e 0000 0dcf 0000 1aae 0100
000002e0: 11c3 0080 4f03 0000 2e70 0080 a57f 0580
000002f0: b016 0000 244b 0080 1987 0000 6204 0100
00000300: 9f9e 0000 2c4d 0000 4c03 0000 c792 0000
00000310: a440 0000 e665 0180 b214 0000 954a 0000
00000320: d3bd 0080 9b31 0080 ece5 0080 e93f 0080
00000330: 5183 0180 e585 0000 4c69 0080 5090 0000
00000340: d09e 0000 367c 0000 3b90 0080 7267 0000
00000350: d92f 0080 5ccd 0000 9f81 0080 a401 0000
00000360: 2011 0000 a558 0080 5a48 0000 7a25 0000
00000370: 527b 0080 07ce 0000 8e05 0000 e56b 0080
00000380: 8914 0080 4538 0080 8266 0000 bc4d 0000
00000390: 0f46 0000 5288 0180 8943 0080 ae38 0080
000003a0: 2b5a 0000 0cc7 0180 c2e9 0000 8920 0000
000003b0: b0cc 0000 15ec 0000 4345 0080 2bcf 0080
000003c0: fe79 0000 9c0f 0080 0f52 0000 b5a1 0000
000003d0: f385 0180 fe4a 0080 e639 0080 8d7b 0000
000003e0: 3b30 0080 727a 0000 b885 0080 52a7 0080
000003f0: 4ab0 0000 239c 0100 69aa 0080 b9a3 0080
5.3514e-41 -5.8623e-41 3.1088e-41 6.4667e-41 -3.6982e-41 2.4383e-41 1.3984e-41 4.77e-42
8.7562e-41 5.2563e-41 -7.3738e-41 -9.5329e-41 7.389e-42 -8.5167e-41 3.6551e-41 2.6742e-41
-1.9572e-41 -1.2514e-41 6.7136e-41 5.726e-42 1.111e-41 -8.1057e-41 5.3691e-41 -7.5635e-41
6.6424e-41 -6.9402e-41 -2.6915e-41 5.5074e-41 7.55e-43 -9.694e-42 7.399e-42 1.991e-41
-3.3258e-41 -4.4546e-41 5.4515e-41 4.8535e-41 -7.2468e-41 -2.796e-41 1.00624e-40 4.7878e-41
-9.847e-42 1.6925e-41 -5.2033e-41 -1.9492e-41 3.148e-41 -1.78195e-40 -8.1125e-41 4.4666e-41
-6.5111e-41 8.1287e-41 2.674e-42 4.273e-41 4.2571e-41 1.53893e-40 5.7809e-41 9.073e-41
-3.8611e-41 2.469e-42 3.2137e-41 -1.2972e-41 -5.0164e-41 7.0156e-41 -7.3205e-41 -1.3963e-41
-4.7693e-41 -1.92e-41 -2.2005e-41 4.973e-42 6.4188e-41 -1.962e-42 7.403e-42 -6.9722e-41
-5.9363e-41 1.72873e-40 -3.1884e-41 4.118e-41 3.5331e-41 4.3558e-41 7.0222e-41 1.54219e-40
1.67423e-40 6.424e-42 -2.9827e-41 -6.7068e-41 2.4758e-41 1.6387e-41 -4.657e-41 -3.5872e-41
-5.5165e-41 -2.501e-41 7.6404e-41 4.2225e-41 -1.542e-41 -4.4456e-41 1.102e-40 3.4842e-41
5.937e-42 8.5083e-41 5.0702e-41 5.6835e-41 -6.478e-42 7.9735e-41 -7.2719e-41 8.0513e-41
2.8868e-41 -8.0526e-41 -7.3e-43 -6.6632e-41 4.0199e-41 -6.9214e-41 4.3283e-41 4.7594e-41
-2.2377e-41 -3.5135e-41 7.0344e-41 -6.0163e-41 -3.4702e-41 8.787e-41 -2.9017e-41 4.3136e-41
-4.974e-41 -2.1443e-41 -5.9728e-41 -3.5662e-41 4.1791e-41 -6.658e-41 -9.872e-42 6.5598e-41
-6.346e-41 3.507e-41 3.822e-41 -1.3752e-41 2.3774e-41 1.08965e-40 3.8737e-41 -4.8943e-41
-1.03664e-40 -2.3936e-41 -7.1071e-41 -4.298e-42 2.2239e-41 4.1029e-41 5.9318e-41 -5.1603e-41
4.3669e-41 -1.921225e-39 1.5522e-41 7.8464e-41 6.6564e-41 3.0843e-41 -2.2254e-41 2.0445e-41
2.3291e-41 7.8386e-41 1.01436e-40 3.5761e-41 -2.66e-42 -2.3053e-41 1.0598e-41 -9.3024e-41
-9.504e-41 1.1125e-41 4.2389e-41 -9.8958e-41 6.1844e-41 9.0396e-41 2.331e-41 2.3983e-41
5.2165e-41 4.5912e-41 -1.02815e-40 -1.7928e-41 -6.5005e-41 -5.9555e-41 9.0416e-41 3.2373e-41
3.7345e-41 -6.1151e-41 6.433e-41 6.9715e-41 6.658e-41 4.5346e-41 7.4276e-41 1.54291e-40
-6.9977e-41 1.187e-42 -4.0242e-41 -5.04968e-40 8.139e-42 -2.6955e-41 4.8464e-41 9.3408e-41
5.6903e-41 2.7684e-41 1.183e-42 5.2654e-41 2.3189e-41 -1.2839e-40 7.424e-42 2.6755e-41
-6.8096e-41 -1.7795e-41 -8.248e-41 -2.2927e-41 -1.38943e-40 4.8032e-41 -3.7773e-41 5.177e-41
5.6971e-41 4.4558e-41 -5.174e-41 3.7109e-41 -1.7165e-41 7.3669e-41 -4.6499e-41 5.89e-43
6.143e-42 -3.18e-41 2.5955e-41 1.3444e-41 -4.4239e-41 7.3909e-41 1.993e-42 -3.8705e-41
-7.367e-42 -2.0186e-41 3.6773e-41 2.7886e-41 2.5132e-41 -1.40738e-40 -2.4227e-41 -2.0333e-41
3.2346e-41 -1.6324e-40 8.3857e-41 1.1671e-41 7.3428e-41 8.469e-41 -2.4846e-41 -7.4318e-41
4.3763e-41 -5.6e-42 2.9437e-41 5.801e-41 -1.39887e-40 -2.6902e-41 -2.077e-41 4.4322e-41
-1.7302e-41 4.3925e-41 -4.7969e-41 -6.0023e-41 6.324e-41 1.47847e-40 -6.1132e-41 -5.8733e-41

e_conv3.depth_conv.bias f4 [32]
00000000: 7413 0000 2bba 0080 9dc8 0000 4bc8 0000
00000010: c41e 0080 7488 0000 85ac 0000 8b58 0080
00000020: 35bb 0080 1411 0080 e3c5 0000 55ed 0080
00000030: 51c0 0080 0ccb 0080 0d10 0080 f0f5 0000
00000040: 9679 0000 5a57 0000 7279 0000 73b2 0000
00000050: defd 0080 9142 0000 83ba 0000 9438 0080
00000060: 422c 0080 7ee3 0080 a11c 0080 ca99 0000
00000070: 0fc1 0000 4f74 0000 a67e 0080 e550 0080
6.978e-42 -6.6784e-41 7.1966e-41 7.1852e-41 -1.1037e-41 4.895e-41 6.1888e-41 -3.1763e-41
-6.7157e-41 -6.126e-42 7.0988e-41 -8.5139e-41 -6.899e-41 -7.284e-41 -5.758e-42 8.8226e-41
4.3617e-41 3.1336e-41 4.3566e-41 6.4016e-41 -9.107e-41 2.388e-41 6.6908e-41 -2.0296e-41
-1.5877e-41 -8.1609e-41 -1.027e-41 5.5169e-41 6.9256e-41 4.1724e-41 -4.5433e-41 -2.902e-41

e_conv3.point_conv.weight f4 [32, 32, 1, 1]
00000000: a3c1 0000 f3c6 0080 6ba5 0080 aa32 0100
00000010: c6da 0000 04a0 0000 67cd 0000 367f 0000
00000020: d183 0080 9c61 0080 2731 0100 c609 0080
00000030: aee9 0000 c3d3 0100 203a 0080 2d17 0000
00000040: e94b 0100 1a9a 0080 4fd9 0000 5408 0000
00000050: 615e 0080 54e1 0080 7132 0080 10a5 0000
00000060: f6bd 0000 1a70 0180 ed9f 0180 2ef1 0180
00000070: f363 0100 51f9 0000 59b7 0000 bfce 0080
00000080: ba32 0080 35b4 0000 62ac 0080 03bd 0080
00000090: 9bcb 0000 7693 0080 a85e 0080 10cb 0000
000000a0: ab70 0080 1409 0080 111b 0000 d732 0000
000000b0: f59a 0000 299c 0080 72dd 0180 ba70 0000
000000c0: 508a 0100 94ce 0000 5950 0080 6af1 0080
000000d0: 09f5 0100 cd03 0000 825e 0080 941b 0080
000000e0: b729 0080 0a13 0100 237f 0000 0872 0080
000000f0: 43c3 0080 f0e9 0080 f4be 0000 045e 0000
00000100: d41e 0080 75cf 0000 25ab 0080 9888 0180
00000110: 3569 0080 0ee1 0000 0628 0180 a95d 0180
00000120: 02e5 0080 94f1 0000 98de 0080 7146 0180
00000130: 810e 0000 c5cb 0180 c8c8 0080 3999 0080
00000140: f72b 0000 fad1 0080 84cf 0080 b127 0000
00000150: 5f7d 0080 932d 0000 7b2f 0000 dacf 0000
00000160: 466b 0080 fc7b 0100 0d01 0080 2b44 0080
00000170: 7390 0000 cce2 0080 5ec9 0100 e0ac 0180
00000180: 4bf9 0080 d2e1 0000 47ca 0080 f94b 0080
00000190: ba48 0000 6c9a 0000 87d5 0080 aa72 0000
000001a0: 366c 0100 2483 0080 2747 0080 7c29 0080
000001b0: 44f4 0000 dc25 0000 d1e8 0000 5027 0000
000001c0: fe75 0080 c7ac 0080 b60f 0100 1aa3 0080
000001d0: 2008 0100 f41c 0000 1689 0080 a4fa 0080
000001e0: 6b31 0080 48aa 0000 8d0b 0080 5510 0100
000001f0: 641e 0000 69da 0080 d1a1 0000 296f 0000
00000200: 1fe0 0080 413f 0000 9369 0080 4a50 0000
00000210: 831d 0080 7243 0180 ade4 0000 2235 0000
00000220: 2c09 0180 e4a3 0080 4165 0080 f5e4 0080
00000230: 829f 0000 37bd 0080 245b 0080 c5bb 0080
00000240: eaec 0080 4613 0080 2539 0100 28b2 0000
00000250: 5d52 0000 866c 0180 2f1b 0180 21c7 0000
00000260: 3930 0080 0a1b 0100 7a90 0000 6bdc 0000
00000270: 5c41 0000 9aee 0000 883a 0180 1270 0000
00000280: 79dc 0000 5238 0080 31b9 0080 484b 0080
00000290: 1b92 0000 1d36 0080 159d 0080 0b0b 0000
000002a0: 5366 0080 c091 0080 6a38 0180 643c 0080
000002b0: bbfc 0080 cb73 0080 b033 0080 05a1 0080
000002c0: 42e0 0080 746d 0000 b26d 0000 eca3 0080
000002d0: c753 0080 8a9c 0000 404b 0080 e7a8 0000
000002e0: b2a6 0080 42d3 0080 f74a 0000 c2a8 0000
000002f0: b457 0080 d2a3 0000 4347 0080 806d 0000
00000300: f266 0100 233e 0080 9247 0000 27ce 0000
00000310: e53f 0080 2900 0080 e317 0000 4a6b 0000
00000320: ba5a 0000 85cc 0000 76ed 0080 69bb 0000
00000330: a8b5 0000 1c45 0000 9bf3 0080 d17e 0000
00000340: 9021 0100 9f75 0000 eed8 0000 e4e5 0080
00000350: 733f 0080 b459 0180 27c1 0080 6318 0180
00000360: d361 0080 ed11 0000 6ada 0000 433f 0180
00000370: b3d0 0000 5bb5 0080 f983 0080 7457 0000
00000380: 3302 0200 e5e6 0080 f2ac 0000 1681 0100
00000390: 8280 0000 d5b4 0180 b369 0180 5f86 0080
000003a0: 0d9a 0000 19d9 0180 272a 0000 9ccb 0000
000003b0: 7a43 0000 af86 0080 1ec3 0000 dd54 0080
000003c0: 4478 0080 cdde 0000 0c97 0100 6e6d 0000
000003d0: 1dd9 0100 3e91 0000 67cd 0000 9291 0080
000003e0: 882a 0000 b1ee 0000 30f8 0000 4f69 0080
000003f0: 7647 0000 8218 0180 c272 0000 3f7d 0100
6.9464e-41 -7.137e-41 -5.9341e-41 1.1001e-40 7.8481e-41 5.7403e-41 7.3684e-41 4.5635e-41
-4.7287e-41 -3.5016e-41 1.09468e-40 -3.506e-42 8.3828e-41 1.67801e-40 -2.0851e-41 8.314e-42
1.19067e-40 -5.5281e-41 7.7956e-41 2.988e-42 -3.3857e-41 -8.0833e-41 -1.8095e-41 5.9213e-41
6.8145e-41 -1.3205e-40 -1.49206e-40 -1.78354e-40 1.2769e-40 8.9438e-41 6.5773e-41 -7.4167e-41
-1.8197e-41 6.4646e-41 -6.184e-41 -6.7805e-41 7.304e-41 -5.2899e-41 -3.3956e-41 7.2845e-41
-4.0418e-41 -3.257e-42 9.71e-42 1.8238e-41 5.5588e-41 -5.602e-41 -1.71275e-40 4.0439e-41
1.41453e-40 7.4106e-41 -2.8823e-41 -8.6603e-41 1.79738e-40 1.363e-42 -3.3903e-41 -9.893e-42
-1.4964e-41 9.8665e-41 4.5608e-41 -4.0907e-41 -7.0047e-41 -8.3921e-41 6.8501e-41 3.3726e-41
-1.1059e-41 7.4422e-41 -6.1395e-41 -1.40836e-40 -3.7741e-41 8.0734e-41 -1.06193e-40 -1.25434e-40
-8.2153e-41 8.6662e-41 -7.9852e-41 -1.17105e-40 5.203e-42 -1.64934e-40 -7.2027e-41 -5.4966e-41
1.5772e-41 -7.5325e-41 -7.4443e-41 1.4239e-41 -4.4975e-41 1.6349e-41 1.7033e-41 7.4563e-41
-3.8482e-41 1.36313e-40 -3.77e-43 -2.4454e-41 5.1819e-41 -8.136e-41 1.64072e-40 -1.53851e-40
-8.943e-41 8.1009e-41 -7.2563e-41 -2.7254e-41 2.609e-41 5.5396e-41 -7.6599e-41 4.1134e-41
1.30654e-40 -4.7044e-41 -2.5525e-41 -1.4882e-41 8.7626e-41 1.3581e-41 8.3519e-41 1.4103e-41
-4.2328e-41 -6.1981e-41 9.7472e-41 -5.851e-41 9.475e-41 1.0386e-41 -4.9177e-41 -8.9913e-41
-1.7728e-41 6.1085e-41 -4.144e-42 9.7694e-41 1.0902e-41 -7.8351e-41 5.8049e-41 3.9877e-41
-8.04e-41 2.2691e-41 -3.7873e-41 2.8802e-41 -1.0587e-41 -1.1603e-40 8.2033e-41 1.906e-41
-9.5126e-41 -5.8793e-41 -3.6323e-41 -8.2134e-41 5.722e-41 -6.7877e-41 -3.2695e-41 -6.7359e-41
-8.4989e-41 -6.914e-42 1.12335e-40 6.391e-41 2.9546e-41 -1.30766e-40 -1.01587e-40 7.1434e-41
-1.7299e-41 1.01535e-40 5.1828e-41 7.9071e-41 2.3447e-41 8.5594e-41 -1.12833e-40 4.0203e-41
7.909e-41 -2.0204e-41 -6.6434e-41 -2.7006e-41 5.2413e-41 -1.9412e-41 -5.635e-41 3.961e-42
-3.6707e-41 -5.2285e-41 -1.12073e-40 -2.1664e-41 -9.0663e-41 -4.1539e-41 -1.8542e-41 -5.7763e-41
-8.0449e-41 3.9264e-41 3.9351e-41 -5.8804e-41 -3.0054e-41 5.6156e-41 -2.6995e-41 6.0591e-41
-5.9799e-41 -7.5785e-41 2.6892e-41 6.0539e-41 -3.1462e-41 5.8768e-41 -2.5564e-41 3.9281e-41
1.28765e-40 -2.229e-41 2.5675e-41 7.3954e-41 -2.2921e-41 -5.7e-44 8.569e-42 3.8488e-41
3.2547e-41 7.3368e-41 -8.5185e-41 6.723e-41 6.5166e-41 2.4792e-41 -8.7389e-41 4.5493e-41
1.03875e-40 4.2194e-41 7.782e-41 -8.2469e-41 -2.2761e-41 -1.24015e-40 -6.929e-41 -1.00584e-40
-3.5093e-41 6.43e-42 7.8352e-41 -1.1453e-40 7.4867e-41 -6.5058e-41 -4.7343e-41 3.1372e-41
1.8446e-40 -8.283e-41 6.2041e-41 1.38143e-40 4.61e-41 -1.56706e-40 -1.29753e-40 -4.8203e-41
5.5263e-41 -1.69715e-40 1.5121e-41 7.3041e-41 2.4206e-41 -4.8315e-41 6.9995e-41 -3.0443e-41
-4.3143e-41 7.9926e-41 1.46021e-40 3.9256e-41 1.69721e-40 5.2103e-41 7.3684e-41 -5.2221e-41
1.5257e-41 8.5626e-41 8.9033e-41 -3.7778e-41 2.5635e-41 -1.00627e-40 4.1167e-41 1.36765e-40

e_conv3.point_conv.bias f4 [32]
00000000: 4948 0000 26bf 0080 2b22 0000 b2c0 0080
00000010: 7ea4 0000 bf7a b821 f20e 0000 6031 0000
00000020: c55b 0080 7c3c c282 05a2 0300 ff90 0000
00000030: d946 9713 c60c 0100 f7a9 0680 64b2 0080
00000040: fe24 0080 68da 0080 a3b5 0080 29ad 0000
00000050: c8e0 5a22 e4b3 0000 977c 0080 e38b 4784
00000060: db16 0080 95f3 0080 53e4 0080 166c 0080
00000070: 677e 0000 b396 0000 fb4b 0080 9d9c 0180
2.5931e-41 -6.8571e-41 1.2257e-41 -6.9126e-41 5.9009e-41 1.2500816e-18 5.361e-42 1.7712e-41
-3.2921e-41 -2.8540454e-37 3.33628e-40 5.2015e-41 3.818762e-27 9.6418e-41 -6.11985e-40 -6.3994e-41
-1.327e-41 -7.835e-41 -6.5159e-41 6.2118e-41 2.9663507e-18 6.4533e-41 -4.4694e-41 -2.345657e-36
-8.199e-42 -8.7381e-41 -8.1907e-41 -3.8774e-41 4.5345e-41 5.406e-41 -2.7257e-41 -1.48018e-40

e_conv4.depth_conv.weight f4 [32, 1, 3, 3]
00000000: 211b 0000 6086 0100 a72a 0080 6d14 0080
00000010: 4a50 0000 9606 0000 91be 0080 732a 0080
00000020: cff4 0000 c564 0080 7ed9 0000 1ad1 0000
00000030: 5a77 0000 6fac 0080 7f79 0000 c69e 0080
00000040: 05d6 0080 f902 0000 0f8d 0000 352f 0000
00000050: 0b99 0000 e1e0 0080 51cb 0080 0b34 0000
00000060: e0c9 0000 c61c 0000 c906 0000 378d 0080
00000070: cf0c 0080 d024 0080 9fff 0000 e9a1 0080
00000080: 543c 0080 39da 0080 2412 0100 f204 0080
00000090: 8493 0000 8dfe 0000 ed09 0000 e88c 0000
000000a0: 60c4 0000 c48e 0000 f0ab 0080 6b31 0080
000000b0: 7fdb 0080 9304 0000 1c25 0000 f91a 0080
000000c0: 29d9 0000 bd9f 0000 9272 0080 9a79 0000
000000d0: 0fbc 0080 72b7 0000 4b31 0080 a3ce 0000
000000e0: 2016 0000 5dc1 0080 2dea 0000 e8c2 0700
000000f0: 2b19 0180 0f52 0000 6416 0100 330e 0080
00000100: 3a89 0000 383c 0180 4b3b 0000 a22b 0080
00000110: 526d 0080 ecbc 0000 90cd 0080 3409 0000
00000120: 9025 0080 fa18 0000 82c6 0080 726d 0080
00000130: c316 0080 3f6f 0080 2848 0000 7481 0080
00000140: 1421 0000 5d34 0080 259d 0080 7296 0000
00000150: 61ca 0000 587f 0080 37b7 0080 a68f 0000
00000160: 2ff2 0000 9f8f 0080 f427 0080 4ded 0000
00000170: 8697 0000 d649 0180 68d4 0000 2b76 0080
00000180: ea55 0180 e2c8 0080 bf9c 0000 5151 0000
00000190: b574 0000 f41b 0000 bd19 0180 f040 0180
000001a0: 08bf 0000 d442 0100 7ca3 0080 b3dc 0000
000001b0: da92 0080 9487 0080 42bf 0000 63ab 0000
000001c0: 6192 0080 e1cf 0000 cd2f 0080 dba2 0080
000001d0: 8a53 0080 3294 0000 c9ca 0000 ca2a 0000
000001e0: 0dbc 0080 c53f 0080 1365 0080 6018 0000
000001f0: 857b 0000 5aa0 0100 d62b 0180 886d 0000
00000200: ed6b 0000 f5d3 0000 bba0 0080 6ddf 0000
00000210: d8a5 0080 ece6 0080 ba00 0000 617e 0080
00000220: 476b 0080 0cb8 0080 0632 0000 fd69 0000
00000230: 327f 0080 8927 0080 ae4f 0000 a515 0000
00000240: 5442 0080 3f3e 0000 fab8 0000 1580 0000
00000250: 1b81 0100 0ef5 0000 c624 0080 82ab 0000
00000260: d5e1 0000 dc5e 0080 b9ab 0080 a478 0000
00000270: 9204 0080 2a4d 0000 48d2 0080 bddd 0000
00000280: f825 0000 38c2 0080 55b5 0180 f04e 0080
00000290: 25fe 0080 5393 0080 771d 0100 4102 0000
000002a0: 6d2d 0180 412f 0080 cd0e 0000 95cb 0080
000002b0: ba72 0000 b6b1 0000 306c 0080 78a1 0000
000002c0: 5b67 0080 1454 0080 ae5b 0180 4ad0 0080
000002d0: cfb5 0080 4937 0180 fe9f 0080 104e 0080
000002e0: 5c31 0000 64ad 0080 7d86 0000 8cbc 0080
000002f0: ceaf 0080 2519 0080 95f1 0000 7b45 0000
00000300: 5a44 0000 c33e 0000 e2ad 0000 0fa4 0080
00000310: 49e0 0080 31e5 0000 43c4 0080 2f91 0000
00000320: 3c87 0080 2925 0080 d1f2 0000 96bf 0080
00000330: 351a 0000 c006 0000 4762 0080 4361 0000
00000340: 5317 0080 325a 0000 75b9 0000 683a 0000
00000350: 0e22 0000 71d8 0000 e936 0000 ed1a 0080
00000360: 2b38 0000 0310 0100 2bf2 0000 1dcd 0000
00000370: cc73 0000 fd1e 0000 30d0 0080 40fb 0000
00000380: 4015 0000 b509 0000 d659 0000 4b11 0000
00000390: 3541 0180 0905 0080 5af0 0000 4286 0000
000003a0: b2da 0080 c36a 0000 4f73 0000 cd20 0080
000003b0: 262e 0080 8b6f 0080 033a 0000 192d 0000
000003c0: ef84 0000 e7f3 0080 afd8 0000 4a1a 0080
000003d0: b95a 0080 bb55 0000 5ebb 0080 8503 0000
000003e0: 7826 0100 c53f 0080 d80e 0200 b39c 0080
000003f0: e946 0080 dd67 0000 54a3 0000 4c8f 0080
9.732e-42 1.4004e-40 -1.5301e-41 -7.327e-42 2.8802e-41 2.363e-42 -6.8362e-41 -1.5228e-41
8.7821e-41 -3.6149e-41 7.8021e-41 7.5012e-41 4.2815e-41 -6.1858e-41 4.3585e-41 -5.6957e-41
-7.6776e-41 1.066e-42 5.0602e-41 1.6935e-41 5.4901e-41 -8.0671e-41 -7.2936e-41 1.867e-41
7.2419e-41 1.0322e-41 2.434e-42 -5.0658e-41 -4.595e-42 -1.3206e-41 9.17e-41 -5.8082e-41
-2.1642e-41 -7.8284e-41 9.8343e-41 -1.774e-42 5.2919e-41 9.1316e-41 3.56e-42 5.0548e-41
7.0446e-41 5.1215e-41 -6.168e-41 -1.7728e-41 -7.874e-41 1.641e-42 1.3312e-41 -9.676e-42
7.7902e-41 5.7303e-41 -4.11e-41 4.3622e-41 -6.7463e-41 6.5808e-41 -1.7683e-41 7.4127e-41
7.937e-42 -6.9366e-41 8.4006e-41 7.12768e-40 -1.00864e-40 2.9437e-41 9.9868e-41 -5.094e-42
4.9228e-41 -1.13438e-40 2.127e-41 -1.5653e-41 -3.9217e-41 6.7772e-41 -7.3742e-41 3.301e-42
-1.3475e-41 8.96e-42 -7.1211e-41 -3.9262e-41 -8.165e-42 -3.9908e-41 2.5885e-41 -4.6439e-41
1.1866e-41 -1.8784e-41 -5.6373e-41 5.397e-41 7.26e-41 -4.5682e-41 -6.5725e-41 5.1531e-41
8.6879e-41 -5.1522e-41 -1.4332e-41 8.5127e-41 5.4356e-41 -1.18323e-40 7.6197e-41 -4.239e-41
-1.22656e-40 -7.2063e-41 5.623e-41 2.9171e-41 4.1867e-41 1.0028e-41 -1.01069e-40 -1.1513e-40
6.8529e-41 1.15809e-40 -5.8647e-41 7.9172e-41 -5.268e-41 -4.8636e-41 6.861e-41 6.1482e-41
-5.2511e-41 7.4573e-41 -1.7148e-41 -5.8422e-41 -2.9968e-41 5.3162e-41 7.2746e-41 1.535e-41
-6.746e-41 -2.2876e-41 -3.6259e-41 8.744e-42 4.431e-41 1.49359e-40 -1.07561e-40 3.9292e-41
3.8716e-41 7.6036e-41 -5.7659e-41 8.015e-41 -5.9494e-41 -8.2839e-41 2.6e-43 -4.5336e-41
-3.8484e-41 -6.6024e-41 1.7945e-41 3.8021e-41 -4.5629e-41 -1.4183e-41 2.8584e-41 7.765e-42
-2.3794e-41 2.233e-41 6.6357e-41 4.5947e-41 1.3815e-40 8.7909e-41 -1.3192e-41 6.1525e-41
8.1013e-41 -3.4029e-41 -6.1602e-41 4.3278e-41 -1.64e-42 2.7681e-41 -7.5435e-41 7.9545e-41
1.362e-41 -6.9673e-41 -1.56885e-40 -2.8317e-41 -9.117e-41 -5.285e-41 1.02405e-40 8.09e-43
-1.08131e-40 -1.6952e-41 5.31e-42 -7.3031e-41 4.1156e-41 6.375e-41 -3.881e-41 5.7924e-41
-3.7077e-41 -3.0162e-41 -1.24724e-40 -7.472e-41 -6.522e-41 -1.11668e-40 -5.7394e-41 -2.8004e-41
1.7707e-41 -6.2201e-41 4.8245e-41 -6.7638e-41 -6.3067e-41 -9.02e-42 8.6663e-41 2.4925e-41
2.452e-41 2.2515e-41 6.2377e-41 -5.8853e-41 -8.0458e-41 8.2218e-41 -7.0405e-41 5.2082e-41
-4.8513e-41 -1.333e-41 8.7106e-41 -6.8728e-41 9.401e-42 2.421e-42 -3.5255e-41 3.4891e-41
-8.367e-42 3.2356e-41 6.653e-41 2.0952e-41 1.2217e-41 7.7645e-41 1.9698e-41 -9.659e-42
2.0149e-41 9.758e-41 8.6873e-41 7.3581e-41 4.154e-41 1.1117e-41 -7.4684e-41 9.0132e-41
7.623e-42 3.482e-42 3.2227e-41 6.204e-42 -1.15227e-40 -1.806e-42 8.6222e-41 4.8163e-41
-7.8453e-41 3.8299e-41 4.1365e-41 -1.1767e-41 -1.6555e-41 -4.0014e-41 2.081e-41 1.6178e-41
4.7688e-41 -8.7496e-41 7.7731e-41 -9.431e-42 -3.2545e-41 3.0754e-41 -6.7215e-41 1.263e-42
1.05635e-40 -2.2876e-41 1.88996e-40 -5.6213e-41 -2.5438e-41 3.7259e-41 5.8591e-41 -5.1405e-41

e_conv4.depth_conv.bias f4 [32]
00000000: 3562 0000 527b 0000 7c77 6d80 103c 0000
00000010: 7d65 0080 3eb5 0080 7ba2 0000 7d10 0000
00000020: e659 0000 2f0e 0000 4cbb 0000 c7c8 0080
00000030: 0241 0000 75ab 0000 cb3d 0080 b256 0080
00000040: c23d 0080 a762 0000 b57a 0000 0370 0080
00000050: 5fd2 0080 8029 0000 a890 0000 1588 8a03
00000060: 44b9 0000 faa3 0080 c3ce 0080 0849 0000
00000070: c580 0000 4e55 0080 7e9d 0000 339c 0000
3.523e-41 4.4239e-41 -1.0052932e-38 2.1546e-41 -3.6407e-41 -6.5017e-41 5.8287e-41 5.915e-42
3.225e-41 5.088e-42 6.719e-41 -7.2025e-41 2.332e-41 6.1507e-41 -2.2167e-41 -3.11e-41
-2.2155e-41 3.539e-41 4.4019e-41 -4.0182e-41 -7.5467e-41 1.4887e-41 5.1893e-41 8.142154e-37
6.6461e-41 -5.8824e-41 -7.4172e-41 2.6199e-41 4.6194e-41 -3.0602e-41 5.6498e-41 5.6034e-41

e_conv4.point_conv.weight f4 [32, 32, 1, 1]
00000000: b6bd 0080 b2fe 0000 f137 0100 faa1 0080
00000010: 7bb7 0000 c9ad 0000 f269 0100 954b 0000
00000020: d63a 0100 6d3e 0180 0152 0000 acd3 0080
00000030: 328d 0080 4882 0000 a00a 0000 a88c 0000
00000040: 7e85 0000 ee72 0000 6f63 0180 bd1d 0000
00000050: 6eae 0000 ecdc 0000 088e 0080 afe8 0000
00000060: 48b2 0000 b33c 0100 3686 0080 b875 0080
00000070: 67c1 0000 2d20 0180 b1b1 0080 49a5 0000
00000080: aef3 0000 74fd 0000 de29 0180 6b00 0180
00000090: 9e5b 0080 2970 0080 a266 0080 4ec5 0000
000000a0: f856 0080 ecd7 0080 02e7 0100 e9c0 0000
000000b0: c75d 0080 dda9 0000 a569 0000 dce8 0080
000000c0: 7d6d 0000 3100 0000 5883 0000 6235 0080
000000d0: 4883 0080 6e24 0000 06cf 0080 fc9b 0180
000000e0: d163 0000 f317 0100 7910 0000 3924 0000
000000f0: 12c7 0000 dec1 0000 ce6d 0080 0609 0080
00000100: 5e58 0000 ec15 0000 e724 0180 0b58 0000
00000110: 53d9 0080 ab4a 0080 67e1 0080 9a6a 0080
00000120: 6ac8 0000 631a 0080 2b14 0100 0e47 0100
00000130: 350a 0080 76c6 0000 9dd0 0080 553d 0080
00000140: 09e9 0080 83f6 0080 4997 0180 0e8f 0180
00000150: cf26 0100 aaff 0000 3631 0080 7ab0 0180
00000160: e1cf 0000 002d 0000 8015 0080 2556 0000
00000170: 8cc2 0080 eecb 0000 0803 0000 c909 0080
00000180: 2271 0080 6e6a 0000 b481 0080 8e5a 0080
00000190: 07f5 0000 5326 0080 bc22 0000 2436 0080
000001a0: 052e 0000 afc1 0000 b481 0000 7614 0080
000001b0: ac14 0100 7c08 0080 ad61 0000 49cf 0080
000001c0: d809 0000 863d 0100 f84f 0080 649f 0080
000001d0: 6464 0000 31fe 0000 13da 0080 057b 0080
000001e0: 3fee 0080 09cf 0000 fc0f 0000 fc68 0080
000001f0: 7d12 0000 c82f 0180 8db4 0080 8a7c 0000
00000200: 3573 0100 3720 0100 fadc 0000 3b29 0100
00000210: bdc3 0000 5306 0080 c514 0000 4d79 0000
00000220: 70e3 0080 64c6 0080 5ca1 0180 84b8 0000
00000230: ae21 0080 9bfd 0080 d016 0100 b7c1 0000
00000240: b89e 0000 bc21 0000 2897 0080 380f 0180
00000250: 35d9 0000 2f3d 0080 176b 0080 6db7 0000
00000260: 2034 0180 4c2f 0000 b888 0000 277a 0080
00000270: eee6 0000 442e 0080 c1c4 0000 eed5 0080
00000280: d707 0100 8f83 0000 1c21 0080 a09d 0000
00000290: 18a3 0080 17a0 0000 4a32 0080 7033 0080
000002a0: ff1b 0100 a76f 0080 70df 0000 37f7 0000
000002b0: 949f 0080 c5d8 0080 7fea 0080 fba2 0080
000002c0: 3c79 0080 c994 0000 f867 0080 512c 0100
000002d0: c938 0080 0f3d 0000 eea3 0000 3b03 0080
000002e0: fdd7 0000 9a10 0000 c06d 0000 ad9a 0080
000002f0: 20ac 0080 61dc 0000 204c 0080 2069 0100
00000300: 3056 0000 cbdf 0080 f184 0080 f0a9 0000
00000310: 3543 0000 18b2 0080 32f0 0000 1b3f 0180
00000320: 46d4 0000 bba6 0080 2e3c 0000 92e4 0080
00000330: d124 0180 4b24 0000 6c27 0080 ec0a 0000
00000340: 97df 0080 0228 0100 6a70 0100 cf12 0080
00000350: d4d1 0000 3d2a 0080 e730 0100 d60c 0000
00000360: 79f5 0080 4b54 0080 2a36 0100 e848 0100
00000370: 0a06 0000 f023 0000 2e6a 0000 433d 0080
00000380: de68 0080 a8ef 0080 dd0b 0080 d4db 0000
00000390: 0dd2 0000 df72 0000 b70d 0080 e6f8 0080
000003a0: 0a49 0000 b90e 0180 5a7c 0000 93c9 0000
000003b0: f3d9 0080 03ce 0080 4821 0180 d370 0080
000003c0: 37ff 0000 86b0 0080 55cd 0000 f9e3 0000
000003d0: a266 0100 f31e 0000 c7f7 0080 fe85 0100
000003e0: 5f50 0000 fd37 0000 ce0e 0080 47cb 0000
000003f0: d0d7 0000 fd55 0080 e487 0080 970c 0100
-6.8055e-41 9.1367e-41 1.11903e-40 -5.8106e-41 6.582e-41 6.2342e-41 1.29842e-40 2.7114e-41
1.12942e-40 -1.1423e-40 2.9417e-41 -7.5934e-41 -5.0651e-41 4.6736e-41 3.812e-42 5.0458e-41
4.7888e-41 4.1229e-41 -1.27506e-40 1.0668e-41 6.2574e-41 7.9252e-41 -5.0951e-41 8.3471e-41
6.3955e-41 1.1361e-40 -4.8146e-41 -4.223e-41 6.938e-41 -1.03378e-40 -6.3744e-41 5.9293e-41
8.7416e-41 9.0922e-41 -1.06855e-40 -9.1985e-41 -3.2866e-41 -4.0235e-41 -3.6818e-41 7.078e-41
-3.1199e-41 -7.7458e-41 1.74705e-40 6.9203e-41 -3.3641e-41 6.0935e-41 3.7898e-41 -8.3534e-41
3.9277e-41 6.9e-44 4.7117e-41 -1.915e-41 -4.7095e-41 1.3069e-41 -7.4266e-41 -1.47792e-40
3.5807e-41 1.00427e-40 5.909e-42 1.2994e-41 7.1413e-41 6.9546e-41 -3.939e-41 -3.237e-42
3.17e-41 7.864e-42 -1.05074e-40 3.1584e-41 -7.7961e-41 -2.6786e-41 -8.0859e-41 -3.8241e-41
7.1895e-41 -9.466e-42 9.907e-41 1.17325e-40 -3.662e-42 7.1194e-41 -7.4836e-41 -2.2002e-41
-8.3597e-41 -8.8432e-41 -1.46106e-40 -1.43154e-40 1.05757e-40 9.1715e-41 -1.7654e-41 -1.55143e-40
7.4573e-41 1.6143e-41 -7.713e-42 3.0903e-41 -6.979e-41 7.3156e-41 1.087e-42 -3.51e-42
-4.0584e-41 3.818e-41 -4.6529e-41 -3.2485e-41 8.7899e-41 -1.3748e-41 1.246e-41 -1.9422e-41
1.6509e-41 6.948e-41 4.6529e-41 -7.34e-42 9.9251e-41 -3.044e-42 3.504e-41 -7.436e-41
3.531e-42 1.13906e-40 -2.8687e-41 -5.7179e-41 3.6013e-41 9.1187e-41 -7.823e-41 -4.4131e-41
-8.5467e-41 7.427e-41 5.734e-42 -3.7661e-41 6.632e-42 -1.08976e-40 -6.477e-41 4.4676e-41
1.33164e-40 1.03392e-40 7.9271e-41 1.06626e-40 7.0218e-41 -2.269e-42 7.451e-42 4.3515e-41
-8.1589e-41 -7.1169e-41 -1.4972e-40 6.6192e-41 -1.2082e-41 -9.0977e-41 1.00019e-40 6.9492e-41
5.6938e-41 1.2102e-41 -5.4225e-41 -9.7295e-41 7.7919e-41 -2.1949e-41 -3.8417e-41 6.5801e-41
-1.10534e-40 1.6967e-41 4.9045e-41 -4.382e-41 8.2842e-41 -1.6597e-41 7.0582e-41 -7.6744e-41
9.4648e-41 4.7194e-41 -1.1877e-41 5.6545e-41 -5.8507e-41 5.743e-41 -1.804e-41 -1.8452e-41
1.01879e-40 -4.0053e-41 8.0154e-41 8.8684e-41 -5.7246e-41 -7.7762e-41 -8.4121e-41 -5.8466e-41
-4.349e-41 5.3374e-41 -3.7297e-41 1.07733e-40 -2.037e-41 2.1904e-41 5.8807e-41 -1.159e-42
7.7482e-41 5.956e-42 3.9371e-41 -5.5487e-41 -6.1747e-41 7.9057e-41 -2.7309e-41 1.29547e-40
3.0918e-41 -8.0282e-41 -4.769e-41 6.0962e-41 2.411e-41 -6.3888e-41 8.6166e-41 -1.14473e-40
7.615e-41 -5.9812e-41 2.1588e-41 -8.1996e-41 -1.05043e-40 1.302e-41 -1.4142e-41 3.918e-42
-8.0209e-41 1.06188e-40 1.32162e-40 -6.747e-42 7.5272e-41 -1.5152e-41 1.09378e-40 4.605e-42
-8.8059e-41 -3.0239e-41 1.11266e-40 1.1799e-40 2.166e-42 1.2892e-41 3.809e-41 -2.1977e-41
-3.7619e-41 -8.5972e-41 -4.256e-42 7.886e-41 7.5352e-41 4.1208e-41 -4.92e-42 -8.9288e-41
2.6201e-41 -9.7117e-41 4.4609e-41 7.2311e-41 -7.8185e-41 -7.3903e-41 -1.03775e-40 -4.0474e-41
9.1554e-41 -6.3325e-41 7.3659e-41 8.1781e-41 1.28653e-40 1.1102e-41 -8.8886e-41 1.39903e-40
2.8832e-41 2.0085e-41 -5.311e-42 7.2922e-41 7.7419e-41 -3.0847e-41 -4.8748e-41 9.6352e-41

e_conv4.point_conv.bias f4 [32]
00000000: 85c1 0080 f9c7 0080 51ad 0000 d6f2 5118
00000010: 9e6b 0000 6c01 0080 848f 0080 b998 0080
00000020: f6d4 0000 daba 0080 2926 0100 89a3 af30
00000030: 7019 0000 1927 0080 450b 0180 935f 0080
00000040: c60d 0180 ec13 0100 1827 0080 c7ba 0000
00000050: 8628 2500 b7be 0000 3c34 0080 033a 0080
00000060: 5af1 0080 0e84 0080 139e 0000 4e41 0000
00000070: d506 0000 975e 0080 ec11 0000 4812 0000
-6.9422e-41 -7.1737e-41 6.2174e-41 2.7135218e-24 3.8606e-41 -5.1e-43 -5.1484e-41 -5.4787e-41
7.6396e-41 -6.703e-41 1.05525e-40 1.2779405e-09 9.125e-42 -1.4026e-41 -9.5878e-41 -3.4286e-41
-9.6776e-41 9.8982e-41 -1.4024e-41 6.7003e-41 3.41245e-39 6.8416e-41 -1.8738e-41 -2.081e-41
-8.658e-41 -4.7372e-41 5.6706e-41 2.3427e-41 2.451e-42 -3.3932e-41 6.429e-42 6.558e-42
