Zero-DCE++/snapshots_Zero_DCE++/Epoch13.pth (torch, 51217 bytes, 28 tensors)

e_conv1.depth_conv.weight f4 [3, 1, 3, 3]
00000000: 10ff 91be a71d f6bd 0ab3 dc3d cfd0 46be
00000010: 6830 e73d 411f e53d d082 acbe 885c b8bd
00000020: 6f2e 9b3a 0a0f fa3d 4c32 ba3d 94cc 6e3e
00000030: 918f 513e 9321 72bc 91e3 413e 9ec2 eb3d
00000040: 2357 6ebd 4883 033e e2e9 cabd fea7 f1bd
00000050: 9aed e9bc fe3b 2cbe 5b6d 53be 827d f0bd
00000060: 78ee c43c 6613 4fbe 5001 94be
-0.2851491 -0.120173745 0.107763365 -0.19415592 0.1128853 0.11187602 -0.33693552 -0.09002024
0.00118394 0.122099 0.090916246 0.23320228 0.20464922 -0.0147785125 0.18934466 0.1151173
-0.05818857 0.12843049 -0.09907891 -0.1179962 -0.02855568 -0.1681976 -0.20647185 -0.11742689
0.024039492 -0.20222244 -0.2890725

e_conv1.depth_conv.bias f4 [3]
00000000: da5a 923d d2b0 a73e cac4 0bbd
0.07146235 0.3275209 -0.03412322

e_conv1.point_conv.weight f4 [32, 3, 1, 1]
00000000: 7a96 053e ce64 a83e f0ec 0d3e c273 1435
00000010: 0fb9 e1bc d535 873d 430a f63d 0335 7dbe
00000020: 3f0b 2fbe e211 313d a496 0ebf 72c4 e73d
00000030: dbbf 583e abcc 20be 05c9 b13d bd29 9fbe
00000040: bfd3 363e 5f38 f53e 7a6f de3d e879 2d3e
00000050: 2ab9 adbe fb4d 3f86 ec44 c6b0 4c2c 0080
00000060: c670 6e3e 70c5 20be fe82 963d 1a99 f53d
00000070: 4e16 4cbe 370f 97be 8733 9d3e a49e 0bbf
00000080: 04c6 e53e c350 a13d 9d6d dbbd afcc 183b
00000090: 3fc6 e63d 7c43 ecbe d043 dfbd 9a3f 75bd
000000a0: 485c a2bd cc54 073e 5058 273e fef7 cbbd
000000b0: 85ee 35bc ffdf 89bc a636 d23e 2d44 d03e
000000c0: 2a7f 9fbe 8178 853e cb86 dfbe f2f5 773c
000000d0: 6c47 413c ff2a 493e bf30 603e f3c8 603d
000000e0: bc52 90be 168d 283e 7a22 5cbb 450f 243d
000000f0: 39dd fcbe 71c8 b9bd 021a e5be 3ca5 6f3d
00000100: 58a1 432a 2e0f e33c 92a9 9bbc 51c9 5a3d
00000110: 2a26 183e 0f9a c13a c40f 413e 99bd a63b
00000120: 6709 fc3c 1b6a ef33 d3cd ea3d ede8 babc
00000130: 5d14 48be 1b8a 723e af02 703b d5f3 81be
00000140: 86b9 73b9 b950 bf3e b7f9 01be 19b1 dfbe
00000150: 6bb9 be3d 2757 1bbf 3f2b 4dbe 6bd1 8281
00000160: 45ec e2bc b69c b83c 715b a53e 0851 e03b
00000170: d853 1f3d de92 a8be 535a a83e d883 e3be
0.13045684 0.32889408 0.13859916 5.5302746e-07 -0.027554063 0.066020645 0.12013676 -0.24727254
-0.17094134 0.043229945 -0.5569861 0.11316766 0.21166937 -0.15703075 0.086809196 -0.3108653
0.17854212 0.4789457 0.10861106 0.16941035 -0.3393033 -3.5980398e-35 -1.4425985e-09 -1.5891e-41
0.23285207 -0.15700316 0.073492035 0.119920924 -0.19930384 -0.29503796 0.30703375 -0.5453894
0.44877636 0.07876732 -0.107142664 0.002331536 0.11268281 -0.46145236 -0.10901606 -0.05987511
-0.079277575 0.13215941 0.16342282 -0.0995941 -0.011104231 -0.016830442 0.41057318 0.40677014
-0.31151706 0.260685 -0.43657526 0.0151343215 0.011796813 0.19645308 0.21893595 0.05487914
-0.2818812 0.1646007 -0.0033589886 0.040053625 -0.4938753 -0.09071434 -0.44746405 0.05850719
1.7375457e-13 0.0277172 -0.019001756 0.053414647 0.14858308 0.0014770644 0.1885367 0.00508852
0.030766202 1.1148605e-07 0.11465039 -0.022816146 -0.19539018 0.23685496 0.0036622693 -0.25381342
-0.00023243399 0.37366274 -0.12692915 -0.43689802 0.093127094 -0.6067986 -0.20036028 -4.805496e-38
-0.027700553 0.022535663 0.32296327 0.006845597 0.03889832 -0.3292455 0.32881412 -0.44436526

e_conv1.point_conv.bias f4 [32]
00000000: 7261 70be 73a8 1dbd 7390 4dbe 9e7c 0d3f
00000010: c0ea 14bc d41c 7c3d c96e aa3e 8b35 12be
00000020: d9a3 343d 9b95 38be d973 d83e 3313 ff3e
00000030: 2124 a23e 3dd2 9b3e 50e3 51be cce8 0e3f
00000040: 5504 bfbd c818 58bd 50d8 95be ffb5 82bd
00000050: 8e7e d23e 4fa8 65bd 3b39 c83e cb38 7cbe
00000060: 77a1 68bd 2d9c 28b5 0c24 7fbe e7d8 c43e
00000070: d843 413e 51f8 6fbe 10df fb3e 8f87 c2bd
-0.23474672 -0.038490724 -0.20074634 0.55268276 -0.009089172 0.06155093 0.33287647 -0.14278238
0.04410157 -0.1802582 0.42275885 0.49819335 0.3166819 0.30433837 -0.20496869 0.5582397
-0.09326998 -0.05275801 -0.29266596 -0.06382369 0.4111218 -0.056068715 0.39106163 -0.2463104
-0.05679461 -6.281214e-07 -0.24916095 0.38446733 0.18873537 -0.23434569 0.4919362 -0.09498512

e_conv2.depth_conv.weight f4 [32, 1, 3, 3]
00000000: 5fb3 f5bc 7211 0dbb 8338 d2bc 1851 f2ba
00000010: 1402 02bb c288 063d 9a79 a1ba a29c f43b
00000020: 5dbe 21bb b1a9 d03b 7234 84bb 2b35 ff39
00000030: ab2a fdbc 816e 8d0e f44a da3a 594b 0632
00000040: f1ab 0000 e68e 433d 1534 733b 19a7 f33a
00000050: c2c1 1ebd 5176 803d 4ec6 353d b5bf 42ba
00000060: fcfb 1ebc 11ea a32a 03fd a62c ec79 88be
00000070: 25d9 93be ba4d f4bd eb87 86bd a167 4d3e
00000080: 5886 a43e 1a0e 8a3e 6949 e3bc 2b75 d63e
00000090: ff90 ab3c 7446 83a4 dee8 383d 38fe 25b8
000000a0: d98d 0daf 02ad b938 e8f3 853d 2867 113a
000000b0: 1cd5 3e3b 91f2 4fbd 4afb 3c3c 5aca 41be
000000c0: 4e89 95bc 6686 363e fe53 4ebe a352 d9bd
000000d0: 62c3 9abd 6e03 39be 1e3c 983d a873 d3bb
000000e0: e0b8 4fbe 77c1 dd3c 5f66 223e 48f6 a8bd
000000f0: a335 98bd d598 b1bc 43f6 9ebe 83ba 163d
00000100: 9f10 a33c ec46 1ebc ee80 c63c 2692 6a35
00000110: 84ca 7dbd 04b9 833c c577 f5bc 1782 4bbd
00000120: d2e3 31bb f2d8 3cba ed5e 3eba a4da 54ba
00000130: 3c5e 24ba 8818 d2b9 79ea 6cba 8e94 ec39
00000140: d0a0 f1ba b7a1 3b3c 3def c9bc a243 e3b5
00000150: e370 413c d588 993c 74e0 0537 7da0 36b6
00000160: f1b5 33bd d137 733d f6e4 ac3e e526 9a3e
00000170: 0b3d 383e 59f9 b43e 39c1 4dbb 6bdd b03e
00000180: 6318 973e 2e57 463d 999a 84bc c2f9 6f3e
00000190: ecc7 7ebe a4fc 103e 10cc a33d f2ba 7abe
000001a0: 368c 25be 2795 8b3e 7e17 603d b0df 103e
000001b0: 93f6 9d3e b521 9d3d 9025 323e 6524 953e
000001c0: 889e 723e 0fa2 dd3d cd0b a23e 3e12 6a3e
000001d0: 72cb 98bd 02da 78bc 78f4 9a3c d270 4f3c
000001e0: 1b2e 013e 0fc1 0ebe 9e8a 533e 16d0 0dbe
000001f0: 9480 2e3d 9269 bc3e 79cc 36bd 5425 96bc
00000200: c942 1a3c 1b40 4538 6ed1 f63c 8cee 07b6
00000210: 9a56 bb3c 7a00 a139 42e9 e23b 4018 8abd
00000220: 53b4 263e a50b 71be 56fc 273e 6805 663e
00000230: ead7 5e3e ebda 15be 9980 aabd 2e6b 93bd
00000240: 3589 2a3e 46b8 9e3e a1a1 963e a465 1d3e
00000250: a297 1f3d 963f 383d 8d90 5fbe 7a8e 6fbd
00000260: bb1c 33be 55a7 a83c 153a 6f2c f403 0000
00000270: b106 0fb9 d03e 563a df2e 6331 43d3 8b3a
00000280: 23e7 b1ba 5f65 213d e2c1 2f3c 2677 73bd
00000290: 73bc 0f38 a125 193a d594 77bd 4aa2 5d3d
000002a0: 9262 173a 21c7 243d 0e33 45bd bc45 a1b5
000002b0: 479a c139 4804 be2c b7a8 cdb2 747b 6634
000002c0: c46b b5b9 4ece fbb7 088a 053a 140d 9937
000002d0: 93b2 c53a 5459 8e3e 647d 68be 615e 9cbe
000002e0: 7565 c5bc 2558 463d 0b1a 5abe 265b 81be
000002f0: 96f0 94be 3416 40a6 1ce2 0919 b5f4 7dbd
00000300: 9d57 f3bb 53ff 6a3b 417f 693d 540e 0000
00000310: fa8e b2bb a560 8fb9 52e7 ecbc 0860 26be
00000320: 732d 313e 68e5 c9bd 0abf 21be cf07 463d
00000330: afb0 7fbc 6732 17be b2e5 543c 3c5a a433
00000340: bf0f 5933 9067 c331 4106 62b5 6e1b 98bc
00000350: 0c4b e234 15af 2dbb 1f03 b735 f48c 1135
00000360: 3b84 b035 0b25 2cb9 db4c bd3b 59a6 9128
00000370: aa13 89ba 7175 e2b2 1876 1003 cca8 2bb9
00000380: c746 f830 8642 80bd 827c 4336 3536 7915
00000390: b270 36bd 4326 bf30 9260 7dbd 1995 4cbb
000003a0: c7fd f0b5 4ad7 ecb9 c568 1933 73e3 87bc
000003b0: 58a3 383d 676f adbc 2e83 f739 b013 e02e
000003c0: dbbc 53bd 9c8d 8331 5f2f 0000 31a8 933e
000003d0: df3e c3bd c1e4 8dbc b131 c2bc fff2 f53d
000003e0: df14 c33d c342 053d d042 68bd e388 9c3a
000003f0: 3cdb 3839 a8f3 0a3d 5cb0 02bc 6bf3 bbbb
-0.029992757 -0.002152529 -0.025661713 -0.0018487303 -0.0019837664 0.032845266 -0.0012319565 0.007464961
-0.0024680116 0.006367885 -0.0040345723 0.00048677003 -0.030904135 3.4865595e-30 0.0016654418 7.816959e-09
6.1681e-41 0.0477437 0.00371099 0.0018589228 -0.038759 0.06272567 0.04437857 -0.0007429079
-0.009703632 2.9117033e-13 4.7460937e-12 -0.2665552 -0.28876606 -0.11928888 -0.06568893 0.20059063
0.32133746 0.26963884 -0.027744966 0.41886267 0.020943163 -5.6931546e-17 0.045143954 -3.9575825e-05
-1.287427e-10 8.853713e-05 0.06540662 0.00055466825 0.0029118722 -0.05076844 0.011534521 -0.18924847
-0.018253949 0.17824706 -0.20149228 -0.10611465 -0.075567976 -0.18067715 0.074333414 -0.0064529963
-0.20285368 0.02706979 0.15859364 -0.082500994 -0.074321054 -0.021679321 -0.31047258 0.036798965
0.019905386 -0.009660464 0.0242314 8.7384467e-07 -0.061960712 0.016079433 -0.029964337 -0.04968461
-0.0027143848 -0.0007203958 -0.000726207 -0.0008119738 -0.00062701455 -0.00040072598 -0.00090376247 0.0004512411
-0.0018434767 0.01145213 -0.02465021 -1.6932502e-06 0.011806699 0.018742004 7.979677e-06 -2.721353e-06
-0.043874685 0.059379403 0.33768433 0.301078 0.17992036 0.35346487 -0.0031395687 0.34543929
0.29510793 0.048422985 -0.016187 0.23435119 -0.24880952 0.14158875 0.07997906 -0.24485376
-0.16166767 0.27262232 0.054709904 0.1414783 0.30852184 0.07672445 0.17397141 0.2912933
0.23693287 0.10821926 0.31649628 0.22858521 -0.07460679 -0.015188696 0.0189154 0.012661176
0.12615244 -0.13940834 0.20658347 -0.1384891 0.04260309 0.36799294 -0.044628594 -0.018328346
0.009415337 4.7028163e-05 0.03012916 -2.025542e-06 0.022868443 0.00030708668 0.006924779 -0.067429066
0.16279726 -0.23539598 0.16404852 0.22463 0.21762052 -0.14634292 -0.08325309 -0.07198177
0.16653903 0.30999964 0.29420188 0.15370804 0.038962968 0.044982515 -0.21832485 -0.058485486
-0.17491429 0.020587603 3.3996185e-12 1.418e-42 -0.00013640035 0.0008172812 3.305949e-09 0.0010667819
-0.0013572912 0.039403316 0.010727378 -0.0594398 3.4269364e-05 0.0005842094 -0.06044467 0.05410985
0.0005774881 0.040228967 -0.048144393 -1.201573e-06 0.00036926774 5.4006e-12 -2.3941864e-08 2.1465331e-07
-0.00034603302 -3.00176e-05 0.00050941156 1.8245111e-05 0.0015083126 0.27802527 -0.22704083 -0.30540755
-0.02409623 0.048423905 -0.21298997 -0.25264853 -0.29089803 -6.664347e-16 7.1283964e-24 -0.06200095
-0.007426216 0.0035857751 0.057006124 5.14e-42 -0.005449173 -0.0002734709 -0.028918896 -0.1624757
0.17302494 -0.09858209 -0.15795532 0.04834729 -0.0156060895 -0.1476532 0.012994217 7.653259e-08
5.053857e-08 5.6870206e-09 -8.420066e-07 -0.018567767 4.2150384e-07 -0.0026502062 1.3635471e-06 5.4221823e-07
1.3151506e-06 -0.00016416998 0.005776984 1.6170376e-14 -0.0010458131 -2.6363269e-08 4.245336e-37 -0.00016370713
1.8064491e-09 -0.06262688 2.9129737e-06 5.032791e-26 -0.04454107 1.3907954e-09 -0.061859675 -0.0031216799
-1.7955252e-06 -0.0004517383 3.5718376e-08 -0.016587948 0.04507765 -0.021171285 0.00047209248 1.0189838e-10
-0.05169378 3.828701e-09 1.6994e-41 0.28839257 -0.09533476 -0.017320992 -0.023705335 0.120092385
0.09525465 0.032534372 -0.056704342 0.0011942651 0.00017629279 0.033923775 -0.007976618 -0.005735805

e_conv2.depth_conv.bias f4 [32]
00000000: 3c58 d13d d76a 2cbe deaf a53c 89c0 4bbd
00000010: b43c 6dbe bb6e 6f3e 45ec fc3b 178e 2d3e
00000020: 7b18 993e e89c 89be 41c1 d63b 66d4 adbd
00000030: 57c5 70be a43a 6abd 80bf 403e 6348 733e
00000040: c56a 5c3e c15b 45bd 4ec9 fc3a 8000 4c3e
00000050: 3479 903e fdc0 563e 447b 02be 8cfe 7b3e
00000060: d23b cfbd d64d 2ebd 13f8 ec3d e177 80be
00000070: 3026 d5bd 6e68 46be 82dc 86bd 7bcf 9c3e
0.102219075 -0.16837631 0.020225462 -0.049744163 -0.23167688 0.23382084 0.007718595 0.16948734
0.2990149 -0.26877522 0.0065537994 -0.084877774 -0.23512779 -0.05718483 0.18823051 0.23758082
0.21525104 -0.048183206 0.0019286068 0.19922066 0.2821747 0.20972057 -0.12742335 0.2460882
-0.10118832 -0.0425547 0.11570754 -0.2509146 -0.10407674 -0.19375774 -0.06585027 0.30627045

e_conv2.point_conv.weight f4 [32, 32, 1, 1]
00000000: 354d 18bd 4fc1 31bd 9c3b 56bb c8a8 363e
00000010: 256b bc3b fb0a 62bd 336b 673d 9ba7 05bd
00000020: eca4 84bd a809 f0ba 2286 5f3d 1e41 553d
00000030: b608 ee3d d935 c13c feb9 02bb cb98 8fbd
00000040: 1b81 683c 814b 49bc 60d8 a738 ea81 8fbd
00000050: 2c3f 373e 1a8f 703d d75d 863d d3dc 9bbd
00000060: 17c6 c7bc 658a b03b 0fff a9bc 1787 873c
00000070: e500 e83c 0695 033d 85ac 17be 5d82 9cbd
00000080: d772 833d db06 edbd 862b 7b3c 36f7 78be
00000090: 1651 753d 65ea 1b3e 5702 963c 3e1e ba3b
000000a0: ce4e b43d 704c c3bd 8e54 7a3e 9037 b3bd
000000b0: 6b3d 273e 51a0 2fbb 5443 48bd e512 1e3e
000000c0: 46a5 c23c 63ac b7bb cc76 a63b 5c3e 3ebd
000000d0: 86d2 153e f894 343d d005 893d e816 093e
000000e0: 8a2c c43b 8c22 babc 4d52 a6bd 6b00 393d
000000f0: ca33 16be 4d84 6ebc 0be8 5abe b6b3 413e
00000100: 7d96 3d3c 0451 f739 c74d 173c 3369 453e
00000110: 645e af3c 61bd 803d e6b9 28bc a9e0 a5bc
00000120: 9992 71bd bcf3 9abd 5244 01be 2584 80bd
00000130: 59fe 5ebe 9d32 18bc a09d 2dbd 47ca 5f3d
00000140: 8ccb d33d 2ac0 ffbc da98 05b8 e238 0f3d
00000150: f847 12be 1be5 7e3c 954d 833a 06b0 dd3d
00000160: 0c82 73bc 9f9e 59bb f294 2e3d 7c27 0dbe
00000170: 72fc 0bbd 44c8 96bd 9938 ad3d 447b b9bd
00000180: 3fba 0000 72d8 d72b 4eea 0000 f796 cc39
00000190: 429a 0000 cf84 da35 0abc b798 7517 0180
000001a0: d670 f5ba 12a7 6203 ac13 8632 f9e2 a8b7
000001b0: a10f 9b39 8075 cd33 84a9 aba0 ddd1 7eba
000001c0: 97df bfb2 c8e1 c31d 165d 26b9 a241 0100
000001d0: 87e1 50ba ad79 9fb4 eee6 9233 d060 0e1d
000001e0: 4dad 5f17 b4c9 202b a4c5 341c 82ab e235
000001f0: 0b10 93b8 28ea 6131 8265 6328 7451 c59f
00000200: 1984 1e3c 6ca4 2f3d f7aa d43b 1114 06be
00000210: 98cf 853d e08b 013e ad10 1dbe 3d7c 4ebc
00000220: e676 41bd beea 06bd 9b6f 0cbe cfc6 90bb
00000230: 3530 c6bd 1290 bbbd e197 1e3c e0ac 293e
00000240: d362 16bd f55b c1bc 18d8 f63a 7fdf 493d
00000250: f237 5a3b f690 15bd 4e11 e93a 14db 52bd
00000260: abfc f2bc 4c07 2abc 093c c23c 3ca3 d53c
00000270: 1e24 25bc 635d 3abd 7149 833d 3cc0 ebbc
00000280: 452f f63b d44c 23bc 53a6 ee3a 08c1 2bbe
00000290: 16ee 53bc d6f8 fd3c 2cdb e739 38ff 363c
000002a0: 27a6 593c 59f6 79bc b5f2 0b3e 7cfc 74bb
000002b0: 0f5a ea3d ce67 f3bc 0712 413c b5f7 3f3c
000002c0: 9ec0 92bd 5f52 c5bb 633b 1039 dbcd b9bb
000002d0: 7529 223d 2485 943c 04ee 3dbc c59e dd3a
000002e0: 78e3 04bc 119a 6ebb 6f59 103c 048e fa3b
000002f0: 6b1f f2bb aa70 46bc b234 2a3c 81ea 193e
00000300: 2260 e63a 77d8 1a3d 574b ed3a 4da2 8e3e
00000310: 56f6 ccbc fb43 24be 3f0f 963d 853d 3e3c
00000320: 0c43 a1bb 2446 40bd 06c0 aa3e fda4 803e
00000330: 4d58 1d3e e5e2 953e 7981 8a3c 95f6 95bd
00000340: b2fc 9e3d ccbb b33a 8227 b83a ea50 203d
00000350: 2a7f 4a3d 1635 f43c a0ef 553d 9237 4a3c
00000360: 2934 373c 1686 1039 1bfc 983c 5710 7a3c
00000370: 89db a0ba f85f 053d 1970 36be 54a9 9a3e
00000380: d094 e9b1 9b88 a1b7 cdff 02b5 3c75 a334
00000390: 43bf 47ae b718 94b8 aaae 6637 00e4 a82d
000003a0: c74b 17b9 bfab 9f2d a1c9 daba 3a3f 4ab4
000003b0: e9cf 0f38 83e8 2b2b 2f69 6638 79ad 68b4
000003c0: 498c 99b7 0b13 a92c e0b5 e5aa fdb3 d9b7
000003d0: 7a4a 9536 85f3 c93a 32a5 ac33 6936 d23a
000003e0: d9e9 9b3a 9b30 34ba a65d dcba 3b77 6ead
000003f0: 00a0 b936 ff4d d439 14e2 953a 2f63 67b9
-0.037183005 -0.043397244 -0.0032689339 0.17837822 0.0057500773 -0.055186253 0.056498718 -0.032630544
-0.06476769 -0.0018313425 0.05457128 0.052064054 0.11622755 0.023585247 -0.0019947286 -0.07011565
0.014190937 -0.012286068 8.0034835e-05 -0.07007201 0.17895192 0.058730222 0.06560867 -0.07610478
-0.024386449 0.0053875917 -0.020751504 0.016543908 0.028320739 0.03212454 -0.14811905 -0.07642052
0.06418388 -0.11573573 0.015330201 -0.24313053 0.059891783 0.15226133 0.018311663 0.0056798747
0.08804093 -0.09536064 0.24446318 -0.08750832 0.16332023 -0.0026798437 -0.048892334 0.15436895
0.02376045 -0.005605267 0.0050800797 -0.04644619 0.1463109 0.04408738 0.06690562 0.13387644
0.005986755 -0.022721551 -0.081211664 0.045166414 -0.14668193 -0.01455791 -0.2137758 0.1891621
0.011571524 0.00047171873 0.009234852 0.19278412 0.021407314 0.06286121 -0.010298228 -0.020248728
-0.058977697 -0.0756602 -0.12623718 -0.062752046 -0.21776713 -0.009289411 -0.04238665 0.054636266
0.10341558 -0.03121956 -3.1852025e-05 0.034966357 -0.14285266 0.015557553 0.0010017628 0.108245894
-0.014862549 -0.0033206118 0.042622514 -0.13784593 -0.034176297 -0.073624164 0.08458061 -0.09056714
6.6813e-41 1.5336744e-12 8.4053e-41 0.0003902239 5.5337e-41 1.6280918e-06 -4.7494262e-24 -1.0025e-40
-0.0018725644 6.660722e-37 1.5608599e-08 -2.0132853e-05 0.00029575548 9.5674295e-08 -2.9080703e-19 -0.0009720603
-2.2337003e-08 5.1849523e-21 -0.00015865671 1.1538e-40 -0.00079681765 -2.970459e-07 6.840661e-08 1.8843594e-21
7.2273923e-25 5.712334e-13 5.981245e-22 1.6888227e-06 -7.0124945e-05 3.2874912e-09 1.2623042e-14 -8.35675e-20
0.009675049 0.042881414 0.006490107 -0.13093592 0.06533736 0.12651014 -0.15338393 -0.012602863
-0.04723253 -0.03293871 -0.13714449 -0.004418231 -0.096771635 -0.091583386 0.009679765 0.16569853
-0.03671534 -0.023603419 0.0018832712 0.049285408 0.0033297506 -0.0365152 0.0017781646 -0.05147846
-0.029661497 -0.010377716 0.023710268 0.026078813 -0.010079412 -0.045499217 0.06410492 -0.028778188
0.007512959 -0.009967048 0.0018207527 -0.16772854 -0.012935182 0.031002443 0.0004422305 0.011169247
0.013284243 -0.015256488 0.13666804 -0.0037381938 0.114429586 -0.029712584 0.011784083 0.011716773
-0.07165645 -0.0060217823 0.00013755033 -0.005670292 0.039590318 0.018129893 -0.011592392 0.0016908279
-0.008110873 -0.0036407749 0.008810385 0.007646324 -0.007388999 -0.012111822 0.01038854 0.15030862
0.0017576257 0.037804093 0.0018104118 0.278582 -0.025019806 -0.16041557 0.07327127 0.011611347
-0.0049213227 -0.04694189 0.33349627 0.25125876 0.15365715 0.2927467 0.01690744 -0.073224224
0.077630416 0.0013712584 0.001404986 0.039139666 0.04943768 0.02981047 0.052230477 0.012342351
0.01118187 0.00013782861 0.0186749 0.015262685 -0.0012272458 0.032562226 -0.178162 0.30207312
-6.7981105e-09 -1.9256307e-05 -4.8801013e-07 3.0446415e-07 -4.5417236e-11 -7.0617934e-05 1.3749735e-05 1.9200641e-11
-0.00014428711 1.8152478e-11 -0.001669217 -1.8835718e-07 3.428749e-05 6.107408e-13 5.4934233e-05 -2.1669793e-07
-1.8304347e-05 4.805383e-12 -4.0804773e-13 -2.595223e-05 4.4492162e-06 0.0015407657 8.039423e-08 0.0016037944
0.0011895254 -0.0006873698 -0.0016812577 -1.3555208e-11 5.532056e-06 0.00040493903 0.0011435174 -0.00022066825

e_conv2.point_conv.bias f4 [32]
00000000: 3010 e43d be09 313d 382c e13d 1c44 17b7
00000010: 0c32 1e3e 1bcf 703d 7d7f 79bc eb73 84b7
00000020: d2ef e23c a7e5 033e f9df 00bc 1167 14bd
00000030: 6c31 1a3c bca7 373e 5a74 ac3d 0262 55b0
00000040: e11e feb7 76ef 4b3c 5402 093d bd72 0000
00000050: 72fc c4bd 3a11 1ebc 5288 ea3c 74b6 9cbc
00000060: e8c4 4c3d a95b cf3b d8c9 663d 2010 e5bd
00000070: 4f81 05a7 1466 053d 72f4 383d 520c d83d
0.111359 0.04322218 0.10994762 -9.016159e-06 0.15448779 0.05879126 -0.0152281495 -1.5789605e-05
0.027702246 0.12880574 -0.007865899 -0.036231104 0.009411197 0.1793508 0.0842063 -7.7628226e-10
-3.0293539e-05 0.012447229 0.033449486 4.116e-41 -0.096184626 -0.009647662 0.028629456 -0.01912997
0.049992472 0.0063280654 0.056344837 -0.11184716 -1.8527556e-15 0.032568052 0.045154996 0.10549225

e_conv3.depth_conv.weight f4 [32, 1, 3, 3]
00000000: 34f6 4936 1bf5 cb3c 7e60 6b3c 5540 5d3d
00000010: f1ac 7736 0969 c93c c370 d3b8 85f0 dcb9
00000020: 2611 c7b7 a277 88bc 5e94 0cbc 43a7 8d37
00000030: 98ed a4b5 64e7 af36 c302 453d ec2e 2e39
00000040: ce0b 813a f3ec e2bb 08ad e1bc bf3a 723b
00000050: cd3d 2c38 b9fc 4437 18a9 4137 e95b 2538
00000060: 661f 81bd c98f eebc ce77 a23c fce7 4fb7
00000070: ac20 013c bd0c 533c bca7 1d3d e962 313d
00000080: c2e6 823d cdaf b23b 3a6d 7239 1fec 81bd
00000090: 781c d8b7 b380 893c 9e79 7d37 1585 65bd
000000a0: a828 21b7 92c7 703d 019f ce3b d332 09b7
000000b0: fedd 7237 3bde ea36 ce36 5737 f7cd 9eba
000000c0: 0dc0 33bd e138 0637 940b 4f37 ec9e 723d
000000d0: eb44 ad36 5afc 1237 c861 16b7 e372 5ab7
000000e0: d8de 59b7 f66b 63bd ed03 4ebb 6f46 51b7
000000f0: 471c a13b 8089 3cb6 f6c5 0ebb f7e1 5a21
00000100: 04af 7bbc 8a32 fc3a 94c0 403d b919 533c
00000110: cabe 033d 7b93 12a6 7fa6 adb4 ed4c 1c3c
00000120: d3c5 d638 68f0 843d a236 3a37 ed3a 6cbc
00000130: e75c 143d 42ca a136 cc27 26bb 20bd 3436
00000140: e14d 9836 6935 45bb 5407 44bd dfc3 803d
00000150: 1101 2e36 64da a43a e730 0c3d f49f c83b
00000160: 4b7d 183d e6fa 1c3d 5bc7 983a 1040 b9b3
00000170: 47a1 b236 e451 3e3d ad35 adb4 dbe9 c8bb
00000180: b759 07bd 3bbc 5634 7366 3dbd 1baf 7d33
00000190: 5a58 4db4 3db1 ed39 62ce e3b5 6357 a5b7
000001a0: 302e 383b 9de1 82b4 d60c 7537 aa95 b63c
000001b0: 54e2 c439 c96e c5b7 63d7 5bb8 94b4 c9bc
000001c0: d392 a5b7 64a7 84bd 34cc bf36 acc0 e6b6
000001d0: 2670 533b 5854 ecb7 7bbe 04b8 3e07 ad3c
000001e0: 9c7a cc3c 9461 4f3a 7cd5 2b39 d0b9 cc3a
000001f0: 13be 33bb 7eff 72b8 e03a ccb8 64d6 e9bc
00000200: 268a 1dbc cda7 483d 7219 1a3b 67a9 e03a
00000210: 845c ff35 5abd b3b7 c888 b9bc 3194 f33c
00000220: 037c ce24 edc1 973c ae2f 6cb9 fedd 05b8
00000230: e55b f5bc 9521 0180 bf55 52bd 260e 3b3d
00000240: e884 7cbb 0187 87bd 5332 373d 7cf2 b7ba
00000250: 3467 433b 29a2 4a3d 97b7 0ebb d634 ddbc
00000260: d9b9 54bc 2cf7 82ba c64e 97b5 0bdd 27b6
00000270: 226d 2ebb 637c e9bc a108 77ba 41b0 f8b4
00000280: 5c96 9db5 221f 2ebd a05f 853c ab62 e838
00000290: c172 c138 9301 4238 90c3 4b3d 4419 9d38
000002a0: e4cc afb7 45dc c6bb f672 9138 7106 f42b
000002b0: 9ce3 5fb8 af11 9d32 6e6a dba3 7b70 48aa
000002c0: 1f6f 6bbd 3331 c62c facd 8539 f75b b1bb
000002d0: e502 08bc 67b0 c134 143a 3835 9ee2 b534
000002e0: 019f e639 027a 95bc d198 993c d2cc 85bd
000002f0: 0116 163c 37c9 34bc d0dc 233c 0eb9 cfb6
00000300: 7553 293a 34ad bc3a e912 8637 444f 8a3a
00000310: 87f9 5b3c e97b 2db6 dbe0 62b7 44c2 f6bc
00000320: bd4e e9b7 a402 923c e984 9f38 0b69 24bd
00000330: 2313 c738 ba4f 453d 2cc3 9ebc 12dd 19bd
00000340: 9c80 4fbc feb7 f13b 2a73 823d a1aa 69bb
00000350: e052 093d 6c57 5a36 0833 de3a 12ff 8d37
00000360: 3651 44bb 90ba 1ebd b16b 443d c8bf e239
00000370: bfc7 22bd bf21 58b7 c616 27bb 0e49 0d3b
00000380: cce7 15bc aa57 68bb 822c b03b a463 88bc
00000390: 4513 aa35 b619 3e36 4abb 2c3d 8ad0 0fb9
000003a0: 5264 10bc 36b8 6e36 5055 0638 8b35 dab5
000003b0: a21a 3eb6 e49c 61b5 6d4e 88b5 6a91 ac3a
000003c0: 0f9d 61bc f134 3b3a 0df2 54bd eca7 fabc
000003d0: 99ef cab6 9497 44b7 691d eabc a074 7fbc
000003e0: 87bf 6b3d 0a90 23b8 9ce5 a8b7 2305 5dbd
000003f0: 6171 5e3d 6ebf 0000 721b 7dbc 7db4 7abc
3.0094643e-06 0.024897149 0.014366267 0.05401643 3.6906533e-06 0.024586217 -0.000100822675 -0.0004214087
-2.3730634e-05 -0.016658608 -0.008580295 1.6886397e-05 -1.2288101e-06 5.242344e-06 0.048098337 0.00016611413
0.0009845437 -0.006925219 -0.027548328 0.0036961285 4.1065552e-05 1.1741352e-05 1.1543067e-05 3.9424664e-05
-0.06304817 -0.029121296 0.019832518 -1.23921745e-05 0.007881325 0.012881455 0.038490042 0.04330722
0.0639167 0.005453086 0.00023119609 -0.06343865 -2.5762463e-05 0.016785001 1.5108291e-05 -0.05603512
-9.605814e-06 0.058784075 0.006305576 -8.17767e-06 1.4476011e-05 6.9996145e-06 1.2827759e-05 -0.0012115826
-0.043884326 8.000266e-06 1.2340857e-05 0.05923359 5.163825e-06 8.761033e-06 -8.963463e-06 -1.3020562e-05
-1.2986093e-05 -0.05552288 -0.0031435445 -1.247377e-05 0.004916701 -2.8094219e-06 -0.0021785474 7.4160335e-19
-0.015361551 0.0019241136 0.047058657 0.012884551 0.032164373 -5.08538e-16 -3.2344903e-07 0.009539825
0.00010241163 0.06491166 1.1099184e-05 -0.014418346 0.03622141 4.82172e-06 -0.002535331 2.6932175e-06
4.5390193e-06 -0.003009165 -0.04785855 0.062873594 2.5928641e-06 0.0012577293 0.034226324 0.0061225835
0.037228864 0.038325213 0.0011656092 -8.626387e-08 5.3235885e-06 0.046464816 -3.2262815e-07 -0.0061313934
-0.033044543 1.9998781e-07 -0.04624028 5.906541e-08 -1.9124255e-07 0.00045336215 -1.6972883e-06 -1.9710225e-05
0.0028103702 -2.4378542e-07 1.4606127e-05 0.022288162 0.0003755266 -2.3535818e-05 -5.2414263e-05 -0.02462224
-1.9737903e-05 -0.0647724 5.716016e-06 -6.876964e-06 0.003226289 -2.8172668e-05 -3.164865e-05 0.021121617
0.024960808 0.00079109636 0.0001638736 0.0015619341 -0.0027426525 -5.793524e-05 -9.738444e-05 -0.028544612
-0.009615457 0.048988152 0.0023513702 0.001714033 1.9025906e-06 -2.1426637e-05 -0.02264823 0.02973375
8.954834e-17 0.018525088 -0.00022524476 -3.1916417e-05 -0.029951045 -1.03882e-40 -0.051351305 0.04566779
-0.0038531367 -0.06617547 0.044725727 -0.0014034058 0.0029816153 0.049471054 -0.0021776909 -0.027002733
-0.012983763 -0.0009991876 -1.1273303e-06 -2.5013603e-06 -0.0026615341 -0.028501695 -0.0009423588 -4.632184e-07
-1.1741172e-06 -0.04251016 0.01628095 0.000110810004 9.224332e-05 4.625467e-05 0.04974705 7.4910495e-05
-2.0957035e-05 -0.0060687386 6.935552e-05 1.7339031e-12 -5.337932e-05 1.8285247e-08 -2.3789102e-17 -1.7802593e-13
-0.05747902 5.6329607e-12 0.000255212 -0.0054125744 -0.008301471 3.60774e-07 6.8629856e-07 3.3878763e-07
0.00043987486 -0.018246654 0.018749626 -0.06533207 0.00916052 -0.0110343015 0.010001376 -6.190624e-06
0.00064592744 0.001439488 1.598285e-05 0.0010552187 0.013426191 -2.5851134e-06 -1.3523003e-05 -0.03012193
-2.781243e-05 0.017823525 7.606467e-05 -0.04013924 9.492624e-05 0.048171736 -0.019380175 -0.037564345
-0.01266494 0.00737667 0.06369622 -0.0035654681 0.0335263 3.2535418e-06 0.0016952464 1.6927286e-05
-0.0029955632 -0.03875214 0.047954265 0.00043248967 -0.039741274 -1.288246e-05 -0.0025495752 0.0021558437
-0.009149503 -0.0035452642 0.0053763995 -0.016649075 1.2671595e-06 2.8327172e-06 0.0421708 -0.0001371523
-0.008812981 3.5571989e-06 3.2027543e-05 -1.6257849e-06 -2.8327709e-06 -8.404734e-07 -1.0155615e-06 0.0013165895
-0.013770356 0.0007141373 -0.05198865 -0.03059765 -6.047962e-06 -1.1717802e-05 -0.028578477 -0.01559177
0.0575557 -3.8996375e-05 -2.013408e-05 -0.053959977 0.054307345 6.8672e-41 -0.015448438 -0.015301821

e_conv3.depth_conv.bias f4 [32]
00000000: a5f4 f439 fa1e 4f3c 2497 fe37 4085 8cbb
00000010: ce9e aabc 4fc2 9db7 636d 573c c529 983a
00000020: be03 b4b5 e4c7 6fb7 ad7b a436 4da5 3338
00000030: e54f 7d38 cf74 e3b8 2dc3 2ebd 19ce ba33
00000040: cae0 5db5 f568 a4b7 834e 7ab9 fa5f 1c3b
00000050: f4fa 7e36 d6d2 47b6 2128 703d d561 5dbd
00000060: b7ad 59bd 9fe5 3db7 2568 953c 026c 3bba
00000070: 820a f5ba 3b05 aeba 5356 b63c 059c 1d3c
0.0004672158 0.012641663 3.034954e-05 -0.0042883456 -0.020827677 -1.880634e-05 0.013148638 0.0011609128
-1.3412134e-06 -1.4292051e-05 4.9019786e-06 4.2830874e-05 6.0394308e-05 -0.00010845961 -0.042666603 8.698789e-08
-8.2656027e-07 -1.9599198e-05 -0.00023871106 0.0023860917 3.7995023e-06 -2.9776033e-06 0.05863202 -0.054048378
-0.053144183 -1.1318741e-05 0.018238137 -0.00071495783 -0.0018695148 -0.0013276705 0.02225796 0.0096197175

e_conv3.point_conv.weight f4 [32, 32, 1, 1]
00000000: 7332 35b8 1ab9 52b4 0d78 af39 590c 2232
00000010: 668e bdb6 d76b a5b7 d8ee 8eb2 7014 5db5
00000020: b358 83b2 bc08 38b7 a01d 82b1 5163 1b2d
00000030: e310 ebb8 219f dbb1 ecf1 5233 2bbd c02f
00000040: 5ce4 4e2c c432 ac32 73f7 09b5 59ea 59b9
00000050: c1c9 3fb4 7830 2139 3c4e 603a 3751 87b4
00000060: 8eff 413a 6520 b8b1 e234 dcb2 e14a 5c33
00000070: b167 9a31 c08a dd32 9a7b 5ab5 9dce 3639
00000080: 9bf7 cb34 a302 85b9 465f e8ba f3a0 86ba
00000090: cbce f737 338c ba36 6800 c2ba 6805 9939
000000a0: b3d9 ec36 b898 08ba ece5 3436 151c ddb6
000000b0: c922 453a e25f 93b7 017d 4038 8ad8 5835
000000c0: 4603 cb2f 3669 8bb6 d8c7 b538 f55a 01b6
000000d0: 1ce3 a637 ba0b 06ba 4f83 27b8 5c8e 6138
000000e0: ebf1 4738 1e73 b036 7728 5739 684d 4d37
000000f0: c0bf 3eba 3b0d cfb5 a30d 46b8 f7a2 c137
00000100: 4db1 feb9 0007 8db7 35c7 e139 98c9 0080
00000110: ffac 69b7 57c3 cdb9 c2af d4b0 b510 0000
00000120: f17c 649f 4844 f836 1991 8cb8 6ba7 980b
00000130: e35e d5ba 1553 0100 dc05 0c35 5e30 94b7
00000140: e977 0000 fe81 0080 405d b038 06ba 2c06
00000150: 7c32 0138 2b90 82ba 7b97 b034 e6cc 7e3a
00000160: 9127 8631 b045 0000 4224 9cba 99e4 0080
00000170: db6a cbba f221 4839 190d 0080 28b9 0080
00000180: 7bec a335 2559 16b7 d017 eb39 249b 50b4
00000190: 0a01 f4b4 5ebb 0a35 cf6c deb5 a625 a3ba
000001a0: 4e57 9834 da28 c0b7 8093 d639 bdaf 89b2
000001b0: 24f7 58b6 9266 41b3 b318 bdb5 bdc8 9fb4
000001c0: e382 83ae 22e7 95b9 20ba 3535 ee0b 3bba
000001d0: 2a23 fbb4 e430 8f34 69f9 e938 e033 9fb6
000001e0: 4a3e 1d37 5da2 f533 b049 3635 ce39 38b6
000001f0: 2eaa bbb3 3f1a 39b4 db85 62ba 455a 83b6
00000200: b3fa 873a e77a 363a 364b d63a e902 33b5
00000210: 19ae 7935 fc93 6232 fc42 b737 1d3d 07b4
00000220: ed49 33b5 cd91 9bb5 6e20 1bba 6567 b6b1
00000230: b9d4 ea34 7b82 8135 65e2 dc37 1c7f 1db9
00000240: 3b51 b32e b199 d7b7 448b afb3 5ae1 5939
00000250: 3126 0d37 e50c 87b4 4454 7cb6 327e 31bb
00000260: 786e 4f3a e6a6 3fb1 1bb7 17b6 00ed ab34
00000270: 26b7 2b34 31ca 01b2 7e2c 0fb6 a7fd 61b7
00000280: fdd1 3338 96af b1b9 c426 733a 3266 13b9
00000290: 207e feba 230f 1539 6c97 97b8 c0a8 ec36
000002a0: 3d35 253a c398 4aba 6c8a 71b6 f79c 06b7
000002b0: c038 9fb9 99cb 043c 9977 8138 76b3 842f
000002c0: 1602 1d35 eddb e7b9 4235 9d39 ff0f f73a
000002d0: cf21 e639 8d3c f437 6e86 093c 20e3 33bb
000002e0: 77ba 8b3b 29b2 1638 763c 243a 1713 feb9
000002f0: 3cbf 3bb8 b459 7139 741f 3239 de0f 6fbc
00000300: 7897 021f d817 bcb4 49bb ed37 8233 0080
00000310: cffa ad32 4861 d438 8bd6 d6ab b7c9 3e3a
00000320: d54c b2b8 4e60 a9b7 1283 1514 b3cc 3dba
00000330: 7cc9 1635 7027 c2b8 a7aa 8ab4 5b3f 6e3a
00000340: 0725 0080 071f c1b5 56f2 4aba b96b 43b5
00000350: 44c7 0080 00ae a583 8f59 7eba 27a2 2fb1
00000360: 424f fd39 a2dd 2bb2 e877 8436 0c13 0080
00000370: 610a 3983 53ab cb3a 6b12 6039 945d 9fa0
00000380: 16e5 0000 71a8 73b1 2c13 8807 6343 0080
00000390: b695 fe37 4ec6 0080 f4c1 0000 ee25 5536
000003a0: f141 17b5 7f60 0000 6c3b 1b37 688d 533a
000003b0: 1ee6 79b9 79eb 623a bba6 a83a 89a7 4bba
000003c0: f4f3 d6b4 463b 5a38 edd2 0080 2dcd 6fba
000003d0: 2c59 0000 120f 763a 95dc e19c b2aa e1af
000003e0: 45f9 c53a 77e7 4a30 cebb 3937 f2e0 2337
000003f0: 666e c0b4 310c 902b 8012 bd34 e0ee 2515
-4.3200747e-05 -1.9625114e-07 0.00033468046 9.432449e-09 -5.6492163e-06 -1.971975e-05 -1.663959e-08 -8.2358656e-07
-1.5290743e-08 -1.0969288e-05 -3.786866e-09 8.832783e-12 -0.000112088186 -6.3918297e-09 4.9114462e-08 3.5059008e-10
2.9401126e-12 2.004652e-08 -5.1396563e-07 -0.00020782034 -1.7861659e-07 0.00015372213 0.00085565797 -2.52048e-07
0.00074004463 -5.3587876e-09 -2.563542e-08 5.1290844e-08 4.4937782e-09 2.5790882e-08 -8.139119e-07 0.00017433842
3.7991853e-07 -0.000253697 -0.0017728589 -0.0010271355 2.954099e-05 5.5595533e-06 -0.0014801146 0.00029186462
7.0586916e-06 -0.0005210745 2.6955922e-06 -6.5895824e-06 0.0007520137 -1.7568414e-05 4.5892786e-05 8.0781376e-07
3.692781e-10 -4.154771e-06 8.667976e-05 -1.9275442e-06 1.9894498e-05 -0.0005113442 -3.9938193e-05 5.3776763e-05
4.76706e-05 5.25861e-06 0.00020519072 1.2236975e-05 -0.0007276498 -1.5426552e-06 -4.721958e-05 2.308328e-05
-0.00048578755 -1.681177e-05 0.00043063765 -7.2318e-41 -1.3928161e-05 -0.00039246186 -1.5474984e-09 5.993e-42
-4.8384227e-20 7.398925e-06 -6.702747e-05 5.880017e-32 -0.0016278889 1.2164e-40 5.216259e-07 -1.7665498e-05
4.3016e-41 -4.6632e-41 8.409703e-05 3.2486273e-35 3.0803014e-05 -0.0009961178 3.289277e-07 0.00097198633
3.9044115e-09 2.4999e-41 -0.0011912661 -8.2005e-41 -0.0015519516 0.00019086132 -4.699e-42 -6.6422e-41
1.2213271e-06 -8.961452e-06 0.00044840435 -1.942795e-07 -4.5449298e-07 5.168166e-07 -1.6571956e-06 -0.0012447133
2.837573e-07 -2.2907207e-05 0.00040927157 -1.6028816e-08 -3.2330363e-06 -4.50296e-08 -1.4088786e-06 -2.9762114e-07
-5.9804404e-11 -0.00028591702 6.76986e-07 -0.00071352615 -4.6777978e-07 2.6671398e-07 0.00011156762 -4.7446083e-06
9.372432e-06 1.1438235e-07 6.7907513e-07 -2.7451783e-06 -8.7388216e-08 -1.7239016e-07 -0.0008641162 -3.914613e-06
0.0010374397 0.0006961063 0.0016349319 -6.668693e-07 9.3013074e-07 1.3188579e-08 2.1846492e-05 -1.2595088e-07
-6.679027e-07 -1.1590834e-06 -0.0005917613 -5.3086517e-09 4.3740673e-07 9.649224e-07 2.6331467e-05 -0.00015020039
8.154407e-11 -2.5701565e-05 -8.174405e-08 0.00020778683 8.413147e-06 -2.5155092e-07 -3.7599975e-06 -0.0027083275
0.00079128845 -2.7889029e-09 -2.2607335e-06 3.2023672e-07 1.5992245e-07 -7.554761e-09 -2.1334558e-06 -1.3470103e-05
4.2872492e-05 -0.00033890893 0.0009275491 -0.00014057083 -0.001941625 0.00014215386 -7.2284456e-05 7.052993e-06
0.00063021836 -0.0007728452 -3.599237e-06 -8.023569e-06 -0.00030369125 0.008105182 6.173476e-05 2.4138175e-10
5.8490093e-07 -0.0004422361 0.00029985054 0.0018849372 0.00043894208 2.9115263e-05 0.008393867 -0.002744861
0.0042641717 3.592871e-05 0.0006265113 -0.00048460878 -4.4762375e-05 0.00023016968 0.0001698712 -0.014591185
2.7653863e-20 -3.5035077e-07 2.8339813e-05 -1.8478e-41 2.0253905e-08 0.00010127068 -1.5265162e-12 0.00072779827
-8.5020125e-05 -2.0191215e-05 7.548427e-27 -0.00072402804 5.617255e-07 -9.257987e-05 -2.582867e-07 0.000908842
-1.3283e-41 -1.4388651e-06 -0.00077417993 -7.279992e-07 -7.1483e-41 -9.737777e-37 -0.00097026763 -2.5558025e-09
0.00048314972 -1.00039035e-08 3.9478655e-06 -6.833e-42 -5.437853e-37 0.001553873 0.00021369166 -2.6997573e-19
8.218e-41 -3.5456902e-09 2.0474274e-34 -2.4174e-41 3.0348874e-05 -7.1138e-41 6.9577e-41 3.1761551e-06
-5.634784e-07 3.4616e-41 9.252555e-06 0.00080700824 -0.00023832216 0.0008656304 0.0012867072 -0.00077688
-4.0038105e-07 5.2030453e-05 -7.5666e-41 -0.00091477 3.1989e-41 0.0009386401 -1.494627e-21 -4.1048548e-10
0.0015104195 7.3816103e-10 1.1070586e-05 9.767931e-06 -3.5843112e-07 1.0235199e-12 3.5217454e-07 3.3509924e-26

e_conv3.point_conv.bias f4 [32]
00000000: c1c5 84b6 74f2 b539 2032 c6a0 a83c e53b
00000010: 69a1 efb8 97f5 6a3c d4cc 3633 5431 9904
00000020: ee23 02b9 7095 233b d4d7 343c af75 d2b7
00000030: edb2 453b bac4 93b3 b7fb 913c 3c37 a8b7
00000040: 10f4 26b8 94d2 77b9 69a8 0180 8802 1bb8
00000050: 1168 823d b722 79b9 b738 f3b9 3de8 9c3c
00000060: c7d4 24b8 b135 1eab b3de 3339 698c 1a3b
00000070: 58d9 f039 161e 0000 578b 823a 9142 0000
-3.956928e-06 0.00034703652 -3.3575675e-19 0.006995756 -0.00011426473 0.01434078 4.2561467e-08 3.6015428e-36
-0.00012411151 0.0024960898 0.011037786 -2.5088751e-05 0.0030166463 -6.881005e-08 0.017820222 -2.0052881e-05
-3.9804785e-05 -0.00023634202 -1.5225e-40 -3.6957237e-05 0.06367505 -0.00023759423 -0.00046390828 0.019153709
-3.929881e-05 -5.620739e-13 0.00017153732 0.0023582226 0.000459383 1.0793e-41 0.0009959739 2.388e-41

e_conv4.depth_conv.weight f4 [32, 1, 3, 3]
00000000: 26a0 1d3d 4858 a928 14d6 263d ad65 84ba
00000010: 9ce7 493d 3c98 d7ab 993c 14bc 0ab5 c1bb
00000020: a983 e7ac 8c9d 20b7 2ffb 83b4 8820 2139
00000030: 86f3 e4b2 d99b 7fb3 eb8b 713b 2f11 f83c
00000040: db6e f633 3d68 f3b3 9e7a c03c fd72 993c
00000050: 5687 34ba 2812 c434 3bd3 40ba 1c30 153d
00000060: 3b1c c62e 40bd a190 5e8e 62bd 393b fd3b
00000070: a8ff b7bb 8159 14bd b82e 7f32 8276 2f3c
00000080: dbd4 f1bb 39c7 04b9 5d85 6732 d86b 82bc
00000090: bcdd 263c 8460 2dac 8b92 83b6 87c5 20ad
000000a0: 4feb 043c 1141 803c 80df 21ad ffc6 2c3d
000000b0: 29e6 9489 176b 743c c710 9937 c30e d4bb
000000c0: a00d 2bb8 bf10 4db6 e6ae bf35 33ad 11b9
000000d0: 2441 4c3a 35ca 87b6 3075 0d3d 58f8 89a3
000000e0: e446 003d 0a25 b5b1 0010 5eb8 443f 863d
000000f0: 2eaa 0080 9257 7fba 1762 fb2e ab2d 6bb9
00000100: 195f b637 cbca 0080 3c53 6dbd 30c5 183c
00000110: f0e6 4236 92c2 e0bb 2094 86bb 3ed1 f991
00000120: b9cf 8325 1049 0fb3 094b 0039 57fa 6a3d
00000130: 8d31 88ad 83e2 c037 0fbb 66ba 81b5 ce38
00000140: bba9 56bd f72e 10bc c523 26bc d134 5bbc
00000150: d029 adb8 9144 77bd 8c90 0c3d 115f 673c
00000160: cdbb 7e38 25b5 37b1 2986 61bd 4001 75b6
00000170: aa3a 7aba 8fcb 37b6 b82e 52b6 4c71 c2ba
00000180: 1818 5eb6 1d43 703c 5dda 0f3d 4b5e 1638
00000190: 6f48 82bd ad23 473a d2ff 4b32 b569 51af
000001a0: d98c 243c 9cea 8faa 7442 6cbb e8a1 cb3a
000001b0: 20ff 8bb7 aa4d 23bd 8352 843b 99a4 d33c
000001c0: 34ab 5bbd 423a 31bb df31 fc3c c545 bdb5
000001d0: c8f8 c4bc ebd4 123d ad40 f736 f43e ddbc
000001e0: 82ea 513d 5cd3 41ba 906a 8b3b 7ad8 603d
000001f0: 1f90 ef3c 4771 0000 83c9 29b6 bdf2 233d
00000200: 6329 9a3c 15ea 01b6 0b84 2db6 9381 90b6
00000210: ee0b c93c 1995 42b6 a80b 22b6 6a1e 72bd
00000220: 8736 b1b5 c97c b5ba d025 1e3d e03f 31bc
00000230: 6bdf 0739 cc0f 833c 03b1 ea3c 4509 cebb
00000240: 87f3 60bd b555 b43a 9dfb 95bc de4a b9bc
00000250: 3093 0080 c3b5 b837 152e 34b7 73b2 383b
00000260: 6ab9 732b 6b28 aabc b197 d62d 0dcf c33c
00000270: d4e5 533c d40e 51b7 6291 9c31 c883 33a6
00000280: 630e 383d cc4d 42b7 4df4 0280 d380 173d
00000290: 0c89 0e37 4304 0000 5fd1 8595 0acf 1d3d
000002a0: 8efb ff07 bc11 11ba 2ccb 0c1a d027 04bc
000002b0: 2f08 c43c 30d6 ae3c 0e8d aaae 0d24 4530
000002c0: 2ab3 0830 dfcd 2c38 9c6f bf2f 28cf ecbb
000002d0: 8a9c 32bd 0eaa f634 aeaa 04bd e76c 0a35
000002e0: d5f9 55bd 818a 1835 86a8 18bd 929a e13c
000002f0: 4bac eb34 8803 87b5 6f67 dc37 2534 3abd
00000300: b4b2 acba e2c9 b2b9 c510 803c 3828 12b8
00000310: f78e ed37 3a27 42b8 3c33 8dbc 9bbf 33bb
00000320: 6932 bb37 e15d e4b7 fca7 89ae c24f fa3b
00000330: 14b9 ad3a 9c30 10bc 5750 0000 d8b5 9f3c
00000340: 1b2f ad3b 5a9b bd3c c79c 5936 7298 8338
00000350: f4d4 e5bc b2ff ba39 a150 3dbc 5f85 6736
00000360: 5fb9 022c 783d 942e 3725 bcb8 7a4e 853b
00000370: 478c 82bd 747a db3c 9ea1 003b 1d04 ff29
00000380: 5b64 1bb2 971d 91bc 548e 4dba d5f6 c52d
00000390: 4972 0000 8134 db3b f4fe c6b3 374e b73c
000003a0: 079e c4b9 1682 07b7 4d0b e4bc 4cb4 0d3d
000003b0: 0f93 6c3c e2ae 04bb d222 09bc 29ae aa3c
000003c0: c8fb d830 1d09 fb30 58cf 1736 84c6 c539
000003d0: eafb 0c3d 2ec1 bbba ab1c 75b1 0657 e2bb
000003e0: da51 0eb2 990d 9536 c2f9 0cb3 9724 683c
000003f0: bfc6 85b6 1541 4ebd 26f4 8b3c 0ed1 0bba
0.038482808 1.8801055e-14 0.040731505 -0.0010101103 0.049293146 -1.5318922e-12 -0.009047651 -0.005911474
-6.580032e-12 -9.573425e-06 -2.4583412e-07 0.00015366275 -2.6653435e-08 -5.9513557e-08 0.003685708 0.030281631
1.1475432e-07 -1.133453e-07 0.023495968 0.018731588 -0.00068866217 3.6521055e-07 -0.00073556945 0.036422834
9.009012e-11 -6.379489e-29 -0.055311553 0.007728007 -0.0056151934 -0.03621817 1.4853576e-08 0.010709407
-0.0073801107 -0.00012662717 1.3476293e-08 -0.015920565 0.0101847015 -2.4638356e-12 -3.921164e-06 -9.138807e-12
0.008112743 0.015656026 -9.201417e-12 0.042181965 -3.5846146e-33 0.01491811 1.8246834e-05 -0.0064714863
-4.0782266e-05 -3.0557128e-06 1.4281511e-06 -0.000138928 0.0007791689 -4.0468535e-06 0.034535587 -1.4958747e-17
0.031317607 -5.272004e-09 -5.2943826e-05 0.06555036 -6.1049e-41 -0.0009740527 1.1431583e-10 -0.00022428359
2.1740374e-05 -7.2748e-41 -0.057940707 0.009324357 2.9042676e-06 -0.006859132 -0.0041070133 -3.9414229e-28
2.2865636e-16 -3.3361232e-08 0.00012234984 0.05736765 -1.5483415e-11 2.2993661e-05 -0.00088016776 9.856653e-05
-0.05240796 -0.00880026 -0.010140364 -0.013379292 -8.257071e-05 -0.060368124 0.03431754 0.014121787
6.0733222e-05 -2.6732974e-09 -0.055059586 -3.6508573e-06 -0.0009545485 -2.7387612e-06 -3.1319632e-06 -0.001483479
-3.3094602e-06 0.014664439 0.035120357 3.5850604e-05 -0.06361472 0.00075965637 1.1874322e-08 -1.9045994e-10
0.010043346 -2.5564696e-13 -0.0036050351 0.0015535923 -1.6688893e-05 -0.039868988 0.0040381565 0.025835322
-0.05363007 -0.002704278 0.0307855 -1.4101903e-06 -0.02404441 0.035847586 7.368703e-06 -0.027007557
0.051249035 -0.0007393861 0.0042546466 0.05489395 0.029243527 4.0636e-41 -2.5300258e-06 0.040026415
0.018818563 -1.9358752e-06 -2.5855868e-06 -4.306619e-06 0.024541821 -2.899504e-06 -2.4146666e-06 -0.059111036
-1.3203397e-06 -0.0013846393 0.03861028 -0.010818452 0.00012957833 0.015998743 0.028648859 -0.006287726
-0.054919746 0.0013758453 -0.018308455 -0.022618707 -5.2801e-41 2.2019149e-05 -1.0739565e-05 0.0028182536
8.6588256e-13 -0.020771226 2.4396348e-11 0.02390244 0.012933213 -1.2460823e-05 4.5567257e-09 -6.2281697e-16
0.044935595 -1.1581415e-05 -2.7131e-40 0.03698809 8.495768e-06 1.529e-42 -5.40486e-26 0.038527526
3.8515986e-34 -0.00055339537 2.9115442e-23 -0.008066133 0.023929683 0.021342367 -7.755761e-11 7.1719414e-10
4.973112e-10 4.1199728e-05 3.4822e-10 -0.0072268434 -0.04360632 4.5944802e-07 -0.032389335 5.156748e-07
-0.05224021 5.682596e-07 -0.03727009 0.027539525 4.389752e-07 -1.0059312e-06 2.6274209e-05 -0.045459885
-0.0013175816 -0.0003410122 0.015632996 -3.484657e-05 2.8319175e-05 -4.6289737e-05 -0.017236345 -0.0027427438
2.2315611e-05 -2.7223434e-05 -6.259879e-11 0.0076389024 0.001325401 -0.008800652 2.882e-41 0.01949589
0.0052851564 0.023145366 3.2426776e-06 6.274962e-05 -0.028055646 0.00035667192 -0.011554868 3.4499315e-06
1.8577013e-12 6.74118e-11 -8.9714704e-05 0.004068193 -0.06374412 0.026791789 0.0019627581 1.13249884e-13
-9.045006e-09 -0.017714305 -0.0007841338 2.2505922e-11 4.0998e-41 0.0066896086 -9.266469e-08 0.022376163
-0.00037501773 -8.076915e-06 -0.02783742 0.034595773 0.014439358 -0.002024584 -0.008370118 0.020835
1.5787629e-09 1.8265244e-09 2.2621443e-06 0.00037722674 0.03441993 -0.001432454 -3.5668488e-09 -0.0069073467
-8.284099e-09 4.442129e-06 -3.2823444e-08 0.01416888 -3.986846e-06 -0.050355036 0.017084192 -0.0005333581

e_conv4.depth_conv.bias f4 [32]
00000000: 7d0a b1bc 5540 ad3c 1a90 87bd 344c bb37
00000010: 51c2 bfb9 d262 16bd dc9a 19ba b650 353b
00000020: 55df da3a 22a6 c5b6 9a96 e6bc b4cd 49bc
00000030: 6332 83b9 a700 4fbd bf5d 6f3b b467 2a38
00000040: e281 7cbc ea92 c1b8 40b8 3eb6 25bb 1cb7
00000050: 6207 f6b9 97a3 a9b9 2136 7239 fdca 8ebd
00000060: 6ab2 a93c e5c7 6ebc f7c1 abb7 61dc 69b6
00000070: be91 7bbd 9ca9 09b9 e7a2 0a3d 04a7 a6b6
-0.021611447 0.02114884 -0.06619282 2.2327622e-05 -0.00036575136 -0.036715336 -0.00058595627 0.0027666516
0.0016698638 -5.890398e-06 -0.028147984 -0.01231711 -0.00025023808 -0.05053773 0.0036524383 4.062774e-05
-0.015411826 -9.230322e-05 -2.8419454e-06 -9.341898e-06 -0.00046926277 -0.00032356076 0.00023099083 -0.06972311
0.020714957 -0.014574026 -2.047511e-05 -3.4847983e-06 -0.061418287 -0.00013128523 0.033846762 -4.9666287e-06

e_conv4.point_conv.weight f4 [32, 32, 1, 1]
00000000: c42f 9a37 b6b8 bbb5 ae96 0100 3769 07a8
00000010: d9db f1b9 df26 0080 cfa8 0080 2ca0 4eba
00000020: f932 0000 2231 2fa5 adda ca93 f4cd 6bb7
00000030: 5eb0 73a7 1843 f937 077c 5034 9e36 1720
00000040: d427 0000 3392 4c83 6c88 c702 c6ba 0080
00000050: d186 472f 7a58 1a3a caa5 b0b6 7099 db98
00000060: e193 83ae 2ce5 2921 70db 1ea8 de4c 0000
00000070: 4a0e d8a5 3277 0080 2896 25b2 981c a037
00000080: 1434 10b2 83b8 8cb7 ee1b 0180 2d1f 0080
00000090: 3269 0000 bb4e f236 008f b6ac a4e4 07b4
000000a0: 72e9 adb6 2a44 a93a da30 0080 eda7 0ca5
000000b0: 3e30 fba3 edc8 9a1f 6965 1613 1678 cf38
000000c0: 187a 25a1 2fd2 2432 9bf3 0339 430c a036
000000d0: f9a6 0000 4e3b 77a9 c24c d63a 9cc5 a08f
000000e0: 547b 0180 607e 70b2 1f49 88b3 2646 91b9
000000f0: d5b2 0080 7a3d 05ba bfd4 2fba ce30 d837
00000100: fb11 e0b3 0670 5a38 6f9d 0000 037d 4b39
00000110: 34f8 c0b4 86c5 0080 d291 773a 4e2f b430
00000120: 3458 103a e600 9cb5 d5bb 05ae b0d8 3a2d
00000130: 2e8c 0ab6 311f 0000 b144 03b8 fc05 1026
00000140: 86a7 9738 4234 c12c bd33 0080 a14a 0000
00000150: d212 a91b 0a9f d036 e23a 39b7 11b8 0080
00000160: 1855 9bb9 8cbc 8519 547f 9a39 3c9c feba
00000170: 01f2 e2b4 bf00 5139 ef63 4c38 ef3b ccb9
00000180: a800 193b 80a3 afba 0b35 9cba 3212 29b6
00000190: c282 1136 9768 cd38 29d5 1336 9bd4 19b7
000001a0: fe20 c2b6 3fbf 1839 d965 1638 bf3f 0c38
000001b0: b81b 1236 1409 8dba 844c 56b7 4340 b438
000001c0: d2f3 2138 3a54 e034 70c2 7e3a e59a ef31
000001d0: f64e 7eb9 c892 c036 cc82 f0b7 34a0 34bb
000001e0: 3a9f 7bb8 cf28 1038 4252 f7b9 5857 f6b4
000001f0: 9afc 9cb9 1b85 a835 e567 d8b8 3447 1e33
00000200: 3ccf 8884 fe97 0000 96b5 f6b7 460a 15af
00000210: c673 013b 200a c639 904d 11b1 4237 0000
00000220: e463 0000 1036 b5b4 b8dd 0080 e0fb b43a
00000230: 7912 1aaa 32b3 7aa1 08bd 0000 fd2c 79af
00000240: da9d a321 dfe2 ce3a ba25 0000 9e42 a831
00000250: 2d24 b538 a1b0 a931 0a17 7d34 4666 b2b8
00000260: 1881 0000 dc55 82af afeb b131 a9fc 0080
00000270: f380 00b8 08bc 6b35 babb ed32 f763 2b3a
00000280: 6566 53b7 cf22 8137 9860 4b3a 891f d535
00000290: 43d1 1334 5215 09bb 8882 0bb5 fa62 0b36
000002a0: b3c1 4935 46e1 8e34 b83d baba d056 83b8
000002b0: 614d b234 fa93 31b8 1263 d936 4c98 e1b8
000002c0: 6a82 15b7 f4f1 05ba 3c11 27b1 93a4 2133
000002d0: 49e9 6b37 469d 47b9 117d 823a 3460 79ba
000002e0: 6ff1 2137 35bf e2b6 6be5 22b9 b771 ebb9
000002f0: 254e 54b8 5aa9 6a3a 0aef 8c39 1ce9 bc32
00000300: fd72 793a 7d3d b5b8 6cdd b1b6 862a 6c34
00000310: 0d03 2f34 7244 4e37 80ab 5c34 2df7 c3b5
00000320: ef20 33b9 db29 9534 ece9 88ba a387 1638
00000330: 0bea 6e34 242b 9835 73e4 bdb4 ff14 f3b3
00000340: 2bf8 d636 86f0 89b4 3255 1ab1 d082 dfb7
00000350: af95 7539 ddbb c637 adb0 aeb4 4b35 dcba
00000360: 394d e236 1f53 8934 d164 a2b1 a33f 72b4
00000370: 43b0 e9ba bd6c da39 9773 88b7 2f20 e831
00000380: 3d1f 632c 7db8 dc2f 0db5 57b4 5358 87b1
00000390: 22a9 26b5 fd6b 7f30 fc84 0000 968f 5931
000003a0: 78dc cfb7 77f9 04a0 d92c 1fa7 278a 4cba
000003b0: c6fd 2cb3 4572 10ba 8c76 0000 2f31 d1b5
000003c0: d99e 90b5 87e7 7e39 1305 6237 251a a3ac
000003d0: d0c2 0000 80c3 26b9 ecd2 0000 7e02 0080
000003e0: 8582 a33a 38d6 d23a f0b8 64b9 cbd0 1122
000003f0: fb62 8432 f055 aeb8 59f0 8c3a 515b aa33
1.8380473e-05 -1.3986344e-06 1.45889e-40 -7.51682e-15 -0.000461309 -1.3944e-41 -6.0557e-41 -0.0007882144
1.8286e-41 -1.5195477e-16 -5.12076e-27 -1.4055044e-05 -3.3818633e-15 2.9714356e-05 1.941663e-07 1.2808269e-19
1.4288e-41 -6.011804e-37 2.9318724e-37 -6.7002e-41 1.8146841e-10 0.0005887818 -5.264509e-06 -5.6765105e-24
-5.983459e-11 5.7562734e-19 -8.818345e-15 2.7575e-41 -3.747971e-16 -4.2759e-41 -9.638406e-09 1.9086801e-05
-8.393744e-09 -1.677522e-05 -1.01855e-40 -1.1184e-41 3.7737e-41 7.2213275e-06 -5.1886273e-12 -1.2656034e-07
-5.1829784e-06 0.0012913991 -1.7525e-41 -1.219996e-16 -2.7233906e-17 6.555394e-20 1.898266e-27 9.892897e-05
-5.6065764e-19 9.593847e-09 0.00012583884 4.769799e-06 5.9899e-41 -5.4896456e-14 0.001634978 -1.5853334e-29
-1.36077e-40 -1.3998573e-08 -6.346294e-08 -0.0002770882 -6.4153e-41 -0.0005082708 -0.0006707422 2.5771933e-05
-1.04340835e-07 5.207958e-05 5.6477e-41 0.00019406159 -3.5943378e-07 -7.0858e-41 0.0009444031 1.3110169e-09
0.00055063074 -1.1623167e-06 -3.0407527e-11 1.062099e-11 -2.0645198e-06 1.119e-41 -3.1296808e-05 4.9968146e-16
7.231445e-05 5.4911917e-12 -1.856e-41 2.6772e-41 2.7970867e-22 6.2173976e-06 -1.1040569e-05 -6.603e-41
-0.00029627304 1.3828031e-23 0.00029468036 -0.0019425224 -4.227186e-07 0.00019932071 4.873046e-05 -0.00038954566
0.0023346338 -0.0013400167 -0.0011917664 -2.5193553e-06 2.1682795e-06 9.794643e-05 2.2028782e-06 -9.169012e-06
-5.7854913e-06 0.00014567094 3.585764e-05 3.343797e-05 2.177183e-06 -0.0010760152 -1.2773209e-05 8.5950385e-05
3.8612467e-05 4.1784534e-07 0.00097183045 6.973425e-09 -0.00024252743 5.7391335e-06 -2.8671137e-05 -0.0027561309
-5.9991355e-05 3.437028e-05 -0.00047172798 -4.5884622e-07 -0.00029942842 1.2555714e-06 -0.000103190345 3.6852e-08
-3.216376e-36 5.4525e-41 -2.9410043e-05 -1.3555121e-10 0.0019752844 0.00037773047 -2.1144366e-09 1.9823e-41
3.5834e-41 -3.3753213e-07 -7.9538e-41 0.0013807975 -1.3684357e-13 -8.494046e-19 6.7812e-41 -2.2662401e-10
1.1087093e-18 0.0015784166 1.3534e-41 4.897017e-09 8.637491e-05 4.9386277e-09 2.3570843e-07 -8.506751e-05
4.631e-41 -2.370787e-10 5.178172e-09 -9.0637e-41 -3.063767e-05 8.7817943e-07 2.76758e-08 0.0006538028
-1.2600421e-05 1.5394207e-05 0.0007758229 1.5878915e-06 1.3766571e-07 -0.002091725 -5.1971483e-07 2.0770226e-06
7.5160204e-07 2.661347e-07 -0.0014209067 -6.262737e-05 3.3211384e-07 -4.2337902e-05 6.4786373e-06 -0.000107572036
-8.9114565e-06 -0.0005109601 -2.4311495e-09 3.7635413e-08 1.40614075e-05 -0.00019036708 0.0009955486 -0.00095129316
9.652561e-06 -6.7575843e-06 -0.00015534989 -0.00044907417 -5.0617517e-05 0.0008951627 0.0002688098 2.1992086e-08
0.0009515731 -8.642206e-05 -5.300788e-06 2.1994683e-07 1.6299255e-07 1.2294493e-05 2.0551488e-07 -1.460057e-06
-0.00017083039 2.7783867e-07 -0.0010445691 3.588911e-05 2.2250622e-07 1.1337438e-06 -3.5370212e-07 -1.13193884e-07
6.4065875e-06 -2.5693242e-07 -2.2458377e-09 -2.6644586e-05 0.00023420782 2.369092e-05 -3.2538574e-07 -0.001680055
6.7443148e-06 2.5578717e-07 -4.726282e-09 -2.2561157e-07 -0.0017829019 0.00041661217 -1.626629e-05 6.7557475e-09
3.227598e-12 4.0148854e-10 -2.0089301e-07 -3.9390584e-09 -6.208594e-07 9.292192e-10 4.7706e-41 3.1659275e-09
-2.4778987e-05 -1.1263376e-19 -2.2089995e-15 -0.0007802569 -4.0277676e-08 -0.00055101915 4.2527e-41 -1.5586028e-06
-1.0775067e-06 0.00024309578 1.3471831e-05 -4.6356413e-12 6.9886e-41 -0.00015903823 7.5665e-41 -8.94e-43
0.0012474811 0.0016085571 -0.00021812669 1.9761698e-18 1.5411834e-08 -8.312974e-05 0.0010752782 7.932852e-08

e_conv4.point_conv.bias f4 [32]
00000000: 07d6 c424 9172 fdba 75ca d1b7 97f1 553d
00000010: fe30 e3b8 7af2 cd3c dbd9 b63b 6603 23ba
00000020: 622a 5037 73da 9a31 79b6 0080 b024 8d3d
00000030: b69a 99b8 8bd6 aab7 79f0 36b8 dcc6 033c
00000040: ce53 a8b6 72d9 1d22 1e9a cd3c 93c1 df3c
00000050: bd88 643c 3b76 9bba 0627 cebb 2955 8b3c
00000060: 34a8 afad a4b7 6d39 6639 763c ee0c 223b
00000070: 424c 2cb8 9529 32b9 df68 0080 07eb 7636
8.536403e-17 -0.0019336512 -2.5009018e-05 0.05223235 -0.00010833329 0.025140036 0.0055801696 -0.0006218463
1.2407634e-05 4.5068247e-09 -6.5459e-41 0.06891763 -7.324426e-05 -2.0365484e-05 -4.361614e-05 0.008043017
-5.0165463e-06 2.1392582e-18 0.025097903 0.027313983 0.013948617 -0.0011860797 -0.006291273 0.017008381
-1.9969894e-11 0.00022670493 0.015028333 0.0024726945 -4.1079016e-05 -0.00016990893 -3.762e-41 3.679366e-06
