Zero-DCE++/snapshots_Zero_DCE++/Epoch31.pth (torch, 51217 bytes, 28 tensors)

e_conv1.depth_conv.weight f4 [3, 1, 3, 3]
-0.32734102 -0.13982436 0.050219692 -0.17384961 0.12466321 0.107569836 -0.38314477 -0.13029128
-0.048863433 0.16668737 0.11570712 0.28237852 0.17896518 -0.0087710265 0.21722703 0.104577065
-0.032959763 0.18164168 -0.036487356 -0.06229541 -0.1289994 -0.0698355 -0.115723655 -0.13769422
-0.04133615 -0.18347636 -0.3410708
00000000: 3e99 a7be 1e2e 0fbe 2ab3 4d3d a205 32be
00000010: 6d4f ff3d 934d dc3d 8d2b c4be 146b 05be
00000020: 0625 48bd 18b0 2a3e dbf7 ec3d eb93 903e
00000030: a642 373e 5ab4 0fbc c370 5e3e 802c d63d
00000040: d100 07bd 4700 3a3e c473 15bd 7929 7fbd
00000050: 6b18 04be ea05 8fbd 8600 edbd b7ff 0cbe
00000060: 1850 29bd 3ae1 3bbe d5a0 aebe

e_conv1.depth_conv.bias f4 [3]
0.07311946 0.31653503 -0.036871802
00000000: a8bf 953d e110 a23e e306 17bd

e_conv1.point_conv.weight f4 [32, 3, 1, 1]
0.013481813 0.26426807 0.10089492 3.4905e-41 -2.2920497e-11 3.3726627e-07 8.602886e-05 -0.011239506
-0.0012344605 0.09157768 -0.53616387 0.11374906 0.005552664 -0.001076376 0.00016933655 -0.14087375
0.13617304 0.45534387 0.08008513 0.25723055 -0.31374624 5.3799e-41 -8.992e-42 -8.3331e-41
0.07454325 -0.044814795 0.019332219 0.079026155 -0.043762237 -0.1295558 0.3591465 -0.55429476
0.40879685 0.02639796 -0.08236265 0.049064558 0.14682914 -0.42816672 -0.13856149 -0.075315595
-0.13636811 0.11297581 0.0008968493 -1.6875816e-05 -2.760609e-16 0.032723527 0.37080964 0.35428914
-0.22069973 0.3267694 -0.41680261 1.5054183e-14 6.099873e-16 0.0030436025 0.032610767 0.006346915
-0.09150273 0.002921433 -5.1523597e-07 5.474261e-06 -0.5782947 -0.08415858 -0.39572236 9.816322e-08
-2.9092e-41 2.4570153e-11 -0.005433173 0.0069448412 0.09542762 -1.7593e-41 0.0025957047 1.0590546e-22
8.3098646e-11 -6.5058e-41 5.7246023e-05 -2.418981e-12 -0.002942392 0.008976355 4.286319e-23 -0.0128408065
2.8637e-41 0.35180938 -0.14987823 -0.37060618 0.02610124 -0.40640548 -0.14301251 -1.0627e-41
-2.4395893e-11 2.0834179e-12 0.29307035 0.024683602 -0.03778301 -0.27784383 0.37959343 -0.3928134
00000000: d2e2 5c3c 254e 873e ffa1 ce3d 4d61 0000
00000010: 5f9c c9ad 8611 b534 646a b438 e825 38bc
00000020: 9fcd a1ba 148d bb3d 0942 09bf 44f5 e83d
00000030: 1ff3 b53b 2f15 8dba ef8f 3139 3541 10be
00000040: f270 0b3e d522 e93e ac03 a43d b9b3 833e
00000050: 59a3 a0be f895 0000 1119 0080 4be8 0080
00000060: 22aa 983d b88f 37bd 9a5e 9e3c 77d8 a13d
00000070: 0840 33bd 47aa 04be 0de2 b73e 43e6 0dbf
00000080: d24d d13e 8940 d83c c0ad a8bd ebf7 483d
00000090: 615a 163e ab38 dbbe 10e3 0dbe 103f 9abd
000000a0: 15a4 0bbe dd5f e73d 8a1a 6b3a 8a90 8db7
000000b0: 6623 9fa5 1b09 063d c3da bd3e 6365 b53e
000000c0: 1cff 61be 524e a73e 2767 d5be 9598 8728
000000d0: 1ed1 2f26 2d77 473b de92 053d c8f9 cf3b
000000e0: c965 bbbd 8375 3f3b bf4e 0ab5 8baf b736
000000f0: 1f0b 14bf 555b acbd 1f9c cabe cdcd d233
00000100: 1951 0080 111f d82d c208 b2bb 8d91 e33b
00000110: 8e6f c33d 0b31 0080 b31c 2a3b 2708 001b
00000120: 61bc b62e 5bb5 0080 731b 7038 7d38 2aac
00000130: 25d5 40bb 9011 133c 0f46 4f1a 3f62 52bc
00000140: d44f 0000 5c20 b43e ae79 19be 18c0 bdbe
00000150: 45d2 d53c 6114 d0be df71 12be a01d 0080
00000160: ab96 d6ad 859b 122c 510d 963e 4435 ca3c
00000170: 5cc2 1abd 8c41 8ebe 125a c23e d71e c9be

e_conv1.point_conv.bias f4 [32]
-0.16227864 -1.0680411e-09 -0.0034651968 0.5688523 -0.0005284202 0.06866387 0.30759603 -0.00033340725
0.032317277 -0.01907579 0.4169316 0.46548328 0.33480847 0.3007668 -0.0039465614 0.53616184
-0.09117101 -3.3229938e-08 -0.08726407 -0.00052751764 0.41150674 -6.303534e-08 0.37493423 -0.010919028
-7.209512e-08 2.7805e-41 -0.0116937235 0.33737996 0.1283822 -0.008477689 0.4969365 -0.09715565
00000000: 5f2c 26be 5bca 92b0 5b18 63bb 4ea0 113f
00000010: ae85 0aba a59f 8c3d 3a7d 9d3e 2acd aeb9
00000020: 1f5f 043d d544 9cbc 0f78 d53e d353 ee3e
00000030: 046c ab3e 1bfe 993e 2852 81bb e741 093f
00000040: deb7 babd b4b8 0eb3 81b7 b2bd 1c49 0aba
00000050: 03b1 d23e 0b5e 87b3 61f7 bf3e b9e5 32bc
00000060: b6d2 9ab3 824d 0000 0897 3fbc 11bd ac3e
00000070: a076 033e 01e6 0abc 766e fe3e 8bf9 c6bd

e_conv2.depth_conv.weight f4 [32, 1, 3, 3]
-0.05450532 -0.051391184 -0.045890644 -0.030220633 -0.032539707 -0.022217603 -0.02972383 -0.032451227
-0.025713531 1.428777e-19 -1.8635169e-22 1.836092e-39 -8.751829e-11 8.413e-41 8.494895e-29 -4.6564e-41
-4.0102e-41 1.1426279e-08 5.292651e-23 6.2530376e-28 -1.1544193e-09 2.0091926e-07 5.1617866e-09 6.188907e-36
-4.5994763e-17 5.5501e-41 3.8857e-41 -0.29927424 -0.28139842 -0.08598656 -0.08755599 0.15893988
0.29257643 0.27349454 -0.011156419 0.44809845 6.4674146e-06 -3.5680367e-10 -8.683825e-06 -1.2777126e-09
-2.9588863e-11 2.2679536e-10 1.3313318e-05 1.0716713e-09 -4.6149347e-07 -0.03501821 0.05135064 -0.07057146
0.074978866 0.21534562 -0.04931583 -0.040745586 0.005256607 -0.18342155 0.09744075 -0.0019486736
-0.22753644 0.055437595 0.16620347 -0.09473295 -0.043027792 -0.003875428 -0.3148218 6.4431493e-10
4.5964935e-13 -4.3537758e-17 4.986091e-12 -2.7311e-41 -1.7711537e-07 3.236612e-14 -6.11502e-11 -1.7538191e-08
0.0034546098 -0.0011695451 -0.0035082463 -0.0022599632 -0.0035588692 -0.0012430233 -0.0040269154 -0.001498505
0.0052513657 0.004296597 0.00042150542 -0.015929764 0.011835856 0.0056498083 -0.009322823 0.0073065693
0.0010462304 -0.008659796 0.31494233 0.29987845 0.235067 0.29935655 -0.014295602 0.35224345
0.28560117 0.07487775 0.054671966 0.21652548 -0.22735427 0.13155207 0.06906784 -0.23331812
-0.15604849 0.2606869 0.05528528 0.13867526 0.33957216 0.109206334 0.19694674 0.28421283
0.21269536 0.105939366 0.29271808 0.18926202 -0.06465289 0.00028312716 0.026461758 0.047876216
0.10683829 -0.14275609 0.19960137 -0.11958137 0.033171337 0.3707757 -5.4916627e-09 -1.6608276e-13
3.085593e-17 6.41e-41 6.518186e-11 4.4224e-41 2.486738e-12 5.8371e-41 4.6262774e-19 -0.082702436
0.16632588 -0.16348226 0.12534153 0.2251919 0.2148592 -0.16474584 -0.06795835 -0.06866842
0.11328846 0.2673202 0.35419944 0.13310939 0.07114743 0.1325161 -0.1805696 -0.051908787
-0.17536205 6.944168e-13 -3.0027e-41 9.8566e-41 1.3663e-41 -4.1125528e-35 6.6232e-41 5.1043877e-33
-1.56971105e-30 1.3880443e-09 5.1155083e-12 -1.2066673e-07 1.1222248e-11 9.964564e-12 -1.4305864e-07 4.2624293e-08
4.781192e-12 1.3715917e-09 -1.2720738e-08 3.111649e-09 2.3401685e-09 -1.8645179e-09 3.8922123e-09 1.1454611e-08
-2.1843491e-09 1.7184016e-08 3.5581284e-08 -1.6948973e-09 -0.040379744 0.25993994 -0.21013524 -0.32193944
-0.01490245 0.0629191 -0.27718705 -0.2594559 -0.28253576 7.4983e-41 1.785e-41 -1.7830045e-07
-1.2204678e-18 3.1014533e-23 7.493908e-08 9.8947e-41 -1.553627e-20 1.2805e-41 -0.05292373 -0.14150618
0.11638244 -0.10719328 -0.1355497 0.022507254 -0.04031839 -0.12919794 -0.0072065108 -8.858e-42
1.7114e-41 -5.3513e-41 6.8798e-41 -1.9509877e-13 6.0442e-41 -2.6454936e-25 6.6161e-41 -8.832e-42
1.1677e-41 2.6527e-41 3.5897002e-20 -2.5871e-41 -2.7037391e-33 3.0382e-41 3.8007e-41 2.6527e-41
6.347e-41 -1.975545e-07 -1.8358e-41 -2.2837e-41 -5.3749662e-09 6.7118e-41 -1.7418557e-07 -3.593855e-24
1.5026e-41 -5.004e-41 1.5965e-41 -4.78623e-14 6.1258096e-09 -9.766875e-13 6.9694e-40 -4.8048e-41
-2.6771506e-08 -5.4554e-41 -8.6366e-41 0.30712506 -0.030523276 0.021655932 0.01178962 0.110359676
0.08762687 0.028938865 -0.044945307 -0.002569987 0.00075564877 0.00029068423 5.990185e-05 -0.00017197948
00000000: f840 5fbd 907f 52bd d4f7 3bbd 4391 f7bc
00000010: 5b48 05bd b101 b6bc 647f f3bc 94eb 04bd
00000020: 2fa5 d2bc 23ae 2820 0e49 619b 47fe 1300
00000030: 6b74 c0ae 85ea 0000 055f d710 cd81 0080
00000040: ca6f 0080 4e4d 4432 d9ef 7f1a ab2a 4612
00000050: 85a9 9eb0 44bc 5734 8e5b b131 9d9f 0305
00000060: 081d 54a4 b79a 0000 516c 0000 793a 99be
00000070: 7413 90be b919 b0bd 8e50 b3bd 23c1 223e
00000080: 94cc 953e 7a07 8c3e 6ac9 36bc 296d e53e
00000090: ab02 d936 a727 c4af bfb0 11b7 849b afb0
000000a0: 1922 02ae 385d 792f 445c 5f37 154a 9330
000000b0: 2ec3 f7b4 416f 0fbd 0c55 523d c587 90bd
000000c0: 858e 993d 9083 5c3e 65ff 49bd d8e4 26bd
000000d0: 9e3f ac3b dcd2 3bbe 048f c73d a36a ffba
000000e0: 50ff 68be 8812 633d 3e31 2a3e 5903 c2bd
000000f0: e93d 30bd e5fa 7dbb 5330 a1be a21b 3130
00000100: 3a61 012b 50c8 48a4 b76e af2c 224c 0080
00000110: 1a2d 3eb4 99c3 1129 8178 86ae e4a6 96b2
00000120: bc66 623b 6c4b 99ba 9bea 65bb e41b 14bb
00000130: eb3b 69bb f1ec a2ba 37f4 83bb 7c69 c4ba
00000140: a613 ac3b 78ca 8c3b 80fd dc39 237f 82bc
00000150: 2eeb 413c 0722 b93b c1be 18bc f26b ef3b
00000160: ab21 893a d1e1 0dbc 1f40 a13e ab89 993e
00000170: 67b5 703e 4345 993e 1a38 6abc 4159 b43e
00000180: 513a 923e 8159 993d b6ef 5f3d dbb8 5d3e
00000190: 8fcf 68be 96b5 063e 7173 8d3d f2ea 6ebe
000001a0: 2dcb 1fbe c178 853e d172 623d e300 0e3e
000001b0: 67dc ad3e 92a7 df3d 68ac 493e 5884 913e
000001c0: d0cc 593e bdf6 d83d 25df 953e e7cd 413e
000001d0: bc68 84bd af70 9439 54c6 d83c da19 443d
000001e0: 09ce da3d a72e 12be 4d64 4c3e 14e7 f4bd
000001f0: abde 073d 50d6 bd3e 2db1 bcb1 19fe 3aaa
00000200: 414c 0e24 afb2 0000 2056 8f2e 477b 0000
00000210: 17fd 2e2c b7a2 0000 2a8b 0821 e55f a9bd
00000220: 5551 2a3e e567 27be 8859 003e b598 663e
00000230: 0d04 5c3e 22b3 28be bf2d 8bbd 07a2 8cbd
00000240: c803 e83d 31de 883e a159 b53e d44d 083e
00000250: beb5 913d 4db2 073e 3de7 38be 4f9e 54bd
00000260: 1c92 33be 0176 432b b453 0080 c312 0100
00000270: 1626 0000 2ba9 5a86 a1b8 0000 2907 d409
00000280: 3fb3 fe8d 78c5 be30 67fc b32c 9e90 01b4
00000290: 836c 452d 684c 2f2d a99b 19b4 e811 3733
000002a0: 2639 a82c 9882 bc30 668a 5ab2 b5d4 5531
000002b0: aed0 2031 f220 00b1 43bc 8531 e9c9 4432
000002c0: 7a1b 16b1 0d9c 9332 09d2 1833 e6f1 e8b0
000002d0: 3b65 25bd d916 853e b12d 57be 3fd5 a4be
000002e0: 6829 74bc bbdb 803d 76eb 8dbe 67d7 84be
000002f0: 87a8 90be 06d1 0000 c231 0000 db72 3fb4
00000300: f81b b4a1 22fa 151a 32ee a033 d313 0100
00000310: 65bc 929e b223 0000 8ec6 58bd ffe6 10be
00000320: eb59 ee3d 2688 dbbd 8acd 0abe 2261 b83c
00000330: e524 25bd 774c 04be 9824 ecbb b118 0080
00000340: b52f 0000 2c95 0080 c8bf 0000 64a9 5baa
00000350: 7da8 0000 85bf a396 6eb8 0000 9f18 0080
00000360: 8d20 0000 f249 0000 d084 291f 1e48 0080
00000370: 2c9e 6089 b154 0000 f369 0000 f249 0000
00000380: eeb0 0000 5e1f 54b4 2d33 0080 a93f 0080
00000390: b4ae b8b1 19bb 0000 c407 3bb4 d107 8b98
000003a0: e329 0000 7e8b 0080 812c 0000 7a8d 57a9
000003b0: 317b d231 e074 89ab c996 0700 f085 0080
000003c0: 2af7 e5b2 1398 0080 c1f0 0080 7f3f 9d3e
000003d0: f30b fabc c867 b13c 4029 413c 4104 e23d
000003e0: b775 b33d 3311 ed3c 9218 38bd 3a6d 28bb
000003f0: bb16 463a fa66 9839 1f3f 7b38 6455 34b9

e_conv2.depth_conv.bias f4 [32]
0.1039237 -0.15753694 0.021738267 -0.052557476 -0.20221233 0.21932448 0.010195826 0.158621
0.28993505 -0.2595102 0.007441515 -0.08704769 -0.23299898 -0.053593427 0.17062727 0.22257076
0.19873005 -0.046778068 -3.554032e-10 0.19125907 0.27330527 0.20010594 -0.12247231 0.23242764
-0.09725354 -0.041983724 0.094126225 -0.24054739 -0.12163986 -0.18028055 -0.081214935 0.30330974
00000000: f3d5 d43d 5d51 21be 7314 b23c 8246 57bd
00000010: c010 4fbe 9996 603e 650c 273c 8b6d 223e
00000020: 5e72 943e 85de 84be f4d7 f33b 0f46 b2bd
00000030: 4997 6ebe c884 5bbd eab8 2e3e 97e9 633e
00000040: e47f 4b3e 5c9a 3fbd 8e62 c3af 6bd9 433e
00000050: abee 8b3e 92e8 4c3e c3d2 fabd 8301 6e3e
00000060: dd2c c7bd 20f7 2bbd 40c5 c03d 0e52 76be
00000070: 521e f9bd 779b 38be 0454 a6bd 6a4b 9b3e

e_conv2.point_conv.weight f4 [32, 32, 1, 1]
-0.023699159 -0.024282759 -0.003206791 0.11447151 0.012122542 -0.058377985 0.038637597 -0.03125713
-0.062305775 0.006364853 0.056259986 0.123648286 0.12964353 0.015243843 -0.00897782 -0.11291707
0.05188889 0.0012177565 -3.789854e-10 -0.06138947 0.21499884 0.037977625 0.058586538 -0.06904807
-0.00823782 0.00665813 -0.019437524 0.05150999 0.024994055 0.03192346 -0.15514499 -0.09024882
0.0689871 -0.113806926 0.013975068 -0.20074333 0.035048433 0.12964272 0.01893885 0.0217733
0.09766405 -0.10315148 0.2637829 -0.011634836 0.19151668 0.053325985 -0.02431593 0.1643776
0.089646354 -0.016491193 6.862297e-10 -0.022515122 0.106441855 0.055656057 0.048934896 0.13630152
-0.011613706 -0.023827838 -0.046130724 0.115185805 -0.13005996 -0.029683538 -0.22823288 0.13306044
-0.0013674645 0.0060212766 -0.0015315427 0.30399543 0.022755673 0.035843235 0.04042984 -0.020391097
-0.055597045 -0.05588881 -0.13776086 0.03058281 -0.23955408 0.04516815 -0.037509162 0.023175888
0.09329977 -0.0068045263 -2.6110003e-10 0.020869328 -0.089514226 0.0061630653 -0.0067593656 0.08113308
-0.0035725087 0.0023206517 0.021221938 -0.15326297 -0.016029486 -0.049911484 0.08010769 -0.032580722
-5.7052e-41 -3.981e-41 1.56319e-40 -5.1374e-41 8.038e-41 4.1401e-41 7.7586e-41 -4.8537e-41
-7.1632085e-28 -5.885e-42 7.636e-42 -3.9211e-41 3.8054e-41 6.6022e-41 6.0769e-41 3.8325446e-35
4.315e-41 -8.639e-41 5.0225e-41 1.59748e-40 2.6109733e-35 -7.2832e-41 -2.7383e-41 -5.5105e-41
-7.726e-41 4.6037e-41 -3.4173e-41 -5.88e-42 -5.301e-41 4.8527e-41 4.1407e-41 -2.125e-41
0.007497046 0.021293774 0.0035764705 -0.07787196 0.04111388 0.111367844 -0.16030164 0.0002532265
-0.02896797 -0.036515884 -0.103929564 -0.032970916 -0.08146882 -0.05272276 0.016392522 0.16944095
-0.006720445 -0.0134852305 7.823681e-10 0.04648445 -0.0019482608 -0.018197581 -0.0066550043 -0.0312097
-0.024646537 -0.008385541 0.022078387 0.014865179 -0.01490119 -0.043107376 0.046230663 -0.053088423
0.01659424 -0.019426577 0.0023733608 -0.16745172 -0.023700267 0.030906575 0.089015126 0.019784197
0.02801008 -0.027558526 0.12894072 -0.03580882 0.10970454 -0.029615339 0.021040883 0.027799582
-0.011920575 -0.0063664173 9.979618e-10 0.016154526 0.09362092 0.025244478 -0.029792644 0.020351063
-0.01278367 -0.005479643 0.013279502 0.055395246 -0.015195273 -0.021715313 -0.0006921153 0.13880736
0.00339715 0.024076575 5.4528657e-05 0.20753168 -0.025395028 -0.18996403 0.18998325 0.013470978
0.0012236292 -0.044953473 0.38607684 0.23894924 0.17605475 0.24595882 0.01796817 -0.09179662
0.15365876 -0.0011508471 4.1517814e-10 0.035983074 -0.055931754 0.028925387 0.045334533 0.015528343
0.003291709 -0.0012121018 0.015948348 0.07127866 -0.004954265 0.020766601 -0.16989422 0.1624303
9.336163e-25 9.925871e-25 -6.489936e-26 7.956904e-26 7.501588e-25 4.145186e-25 -3.0010966e-25 2.491552e-24
2.9764538e-24 -2.799496e-24 -6.462564e-18 1.0133058e-24 -1.3804893e-24 1.1790855e-24 2.0254775e-24 8.718119e-25
6.047043e-24 1.8050596e-25 2.971525e-31 1.1140592e-24 4.384255e-24 -2.2165828e-17 -1.45428e-24 -4.007034e-17
2.5399142e-19 -5.682723e-22 -1.1714675e-17 8.493766e-25 -2.9763061e-25 -3.3357728e-23 1.428021e-19 3.1655847e-21
00000000: bd24 c2bc a3ec c6bc 0629 52bb 0a70 ea3d
00000010: a09d 463c c11d 6fbd 7542 1e3d 7a07 00bd
00000020: 5734 7fbd 4290 d03b df70 663d 503b fd3d
00000030: 46c1 043e 50c1 793c b517 13bc 1141 e7bd
00000040: 7289 543d 219d 9f3a 7459 d0af 8673 7bbd
00000050: a828 5c3e 6d8e 1b3d 70f8 6f3d 1369 8dbd
00000060: ecf7 06bc 712c da3b 713b 9fbc 24fc 523d
00000070: 55c0 cc3c 2dc2 023d 54de 1ebe 60d4 b8bd
00000080: 1c49 8d3d 9b13 e9bd aff7 643c a98f 4dbe
00000090: f28e 0f3d 10c1 043e a625 9b3c eb5d b23c
000000a0: 1704 c83d 1541 d3bd 8d0e 873e 0aa0 3ebc
000000b0: f31c 443e 596c 5a3d 3432 c7bc 9a52 283e
000000c0: 8298 b73d 8a18 87bc 1fa1 3c30 a271 b8bc
000000d0: 30fe d93d 9bf7 633d f56f 483d a092 0b3e
000000e0: 6a47 3ebc 9932 c3bc 92f3 3cbd 89e6 eb3d
000000f0: 702e 05be e42a f3bc e1b5 69be ff40 083e
00000100: 7f3c b3ba 214e c53b 0cbe c8ba 4aa5 9b3e
00000110: 1b6a ba3c 5bd0 123d c399 253d 3b0b a7bc
00000120: bab9 63bd aaeb 64bd 2f11 0dbe cd88 fa3c
00000130: aa4d 75be 3d02 393d 35a3 19bd 5cdb bd3c
00000140: f313 bf3d 81f8 debb 908a 8faf 27f6 aa3c
00000150: 3c53 b7bd 8af3 c93b ab7d ddbb 1a29 a63d
00000160: c020 6abb 1316 183b a1d9 ad3c f8f0 1cbe
00000170: 4550 83bc fc6f 4cbd 800f a43d 5d73 05bd
00000180: 0a9f 0080 f96e 0080 c1b3 0100 368f 0080
00000190: 11e0 0000 6973 0000 47d8 0000 4d87 0080
000001a0: da02 6392 6810 0080 4915 0000 4e6d 0080
000001b0: 146a 0000 0bb8 0000 66a9 0000 e5c5 4b06
000001c0: 4978 0000 d2f0 0080 028c 0000 50bd 0100
000001d0: bad2 0a06 07cb 0080 554c 0080 9c99 0080
000001e0: 5fd7 0080 5580 0000 435f 0080 6410 0080
000001f0: c593 0080 4687 0000 6d73 0000 3d3b 0080
00000200: c8a9 f53b 4870 ae3c 3863 6a3b 567b 9fbd
00000210: 0767 283d d314 e43d 1d26 24be 7cc3 8439
00000220: 3c4e edbc ae91 15bd 06d9 d4bd 830c 07bd
00000230: 20d9 a6bd d2f3 57bd 9c49 863c ee81 2d3e
00000240: 2e37 dcbb 28f1 5cbc 430e 5730 7b66 3e3d
00000250: c95c ffba 1813 95bc 3912 dabb 7cab ffbc
00000260: 89e7 c9bc 8263 09bc bcdd b43c 148d 733c
00000270: 1f24 74bc 5c91 30bd 5d5c 3d3d 3f73 59bd
00000280: a5f0 873c 7c24 9fbc 638a 1b3b 7778 2bbe
00000290: 1027 c2bc c92f fd3c 904d b63d 7812 a23c
000002a0: 6575 e53c 6bc2 e1bc 0909 043e 45ac 12bd
000002b0: c6ac e03d de9b f2bc ee5d ac3c f3bb e33c
000002c0: 844e 43bc 619d d0bb a928 8930 7f56 843c
000002d0: 53bc bf3d 82cd ce3c b40f f4bc 46b7 a63c
000002e0: 9972 51bc 948e b3bb 4592 593c 20e6 623d
000002f0: 98f5 78bc 50e4 b1bc 126f 35ba 8423 0e3e
00000300: b8a2 5e3b 3d3c c53c b3b5 6438 2f83 543e
00000310: 3c09 d0bc ee85 42be f88a 423e 60b5 5c3c
00000320: 2f62 a03a 2221 38bd ddab c53e 1caf 743e
00000330: b247 343e a1dc 7b3e fc31 933c deff bbbd
00000340: b958 1d3e 05d8 96ba 213f e42f fd62 133d
00000350: b218 65bd eff4 ec3c b4b0 393d 976a 7e3c
00000360: b7b9 573b 63df 9eba 1ca6 823c 8cfa 913d
00000370: 6357 a2bb b81e aa3c c0f8 2dbe 2154 263e
00000380: 5a78 9017 6d98 9917 dbae a095 df00 c515
00000390: b429 6817 8c49 0017 46c2 b996 46c6 4018
000003a0: be4a 6618 bb99 5898 316d eea2 2ecd 9c17
000003b0: d19e d597 6474 b617 b7b6 1c18 07e8 8617
000003c0: 03ef e918 9f74 5f16 eedc c00c 6f64 ac17
000003d0: 8f9b a918 9571 cca3 f709 e197 b5ca 38a4
000003e0: 19ee 9520 f1bf 2b9c fd18 58a3 466f 8317
000003f0: 7439 b896 de4e 219a 4997 2820 502f 6f1d

e_conv2.point_conv.bias f4 [32]
0.09722497 0.06086018 0.09752638 6.2099e-41 0.15682265 0.07513609 -0.00835331 1.971033e-24
0.05370391 0.12566714 0.0001858026 -0.043366767 0.008209364 0.19132182 0.06904011 -3.6264e-41
-5.213e-42 0.023256682 0.033910308 -2.3779e-41 -0.07072895 -0.007857813 0.026332648 -0.0060892324
0.049017146 -0.022193544 0.04500177 -0.1082472 2.6073e-41 0.013248612 0.05539711 0.09944049
00000000: e31d c73d 8648 793d e9bb c73d 1bad 0000
00000010: 1e96 203e f3e0 993d 52dc 08bc 5580 1818
00000020: a2f8 5b3d e3ae 003e 01d4 4239 5aa1 31bd
00000030: 9180 063c dee9 433e e764 8d3d 1765 0080
00000040: 880e 0080 cc84 be3c 89e5 0a3d 4942 0080
00000050: 57da 90bd 0ebe 00bc 91b7 d73c 2f88 c7bb
00000060: 34c6 483d 3ccf b5bc c753 383d b5b0 ddbd
00000070: ae48 0000 b510 593c 14e8 623d 75a7 cb3d

e_conv3.depth_conv.weight f4 [32, 1, 3, 3]
1.725837e-21 7.0312736e-12 8.291124e-15 4.2282736e-08 1.0054526e-21 5.994221e-12 2.7589563e-22 -8.679512e-22
-7.937587e-22 -3.8671194e-14 -6.695281e-18 1.6549557e-21 2.2093176e-21 -5.0139864e-21 1.276969e-08 -1.8110278e-20
-1.8164445e-20 -3.3800577e-19 -2.2719122e-11 5.7218287e-20 1.9344275e-20 -1.4249613e-20 -3.2312498e-21 2.8086982e-20
-2.0834018e-07 -4.4303308e-11 4.3577227e-13 -2.0752e-41 2.766918e-18 1.9122931e-15 1.0678487e-09 3.950914e-09
2.4309244e-07 1.5698266e-20 -2.6312e-41 -2.2523236e-07 -2.521947e-21 5.266738e-14 -1.0326081e-20 -6.3369896e-08
2.9181177e-21 1.01933814e-07 8.297276e-20 2.1769384e-21 -1.26889344e-20 1.7293404e-21 1.1134915e-20 -1.8102832e-20
-4.6166755e-09 1.1017132e-20 1.0895443e-20 1.11420846e-07 9.777322e-22 -8.1208e-21 6.3037423e-21 -6.5960545e-21
-8.1945927e-22 -5.5600808e-08 3.6406697e-20 -2.7197186e-21 2.7589892e-20 1.4809895e-20 2.1175344e-20 -9.0193e-41
-1.8182502e-14 1.1597916e-27 9.774263e-09 1.9183977e-15 1.3886527e-10 -5.922e-42 -4.4162e-41 3.6795842e-17
-2.0908127e-19 2.836037e-07 4.2865184e-19 -7.601356e-15 5.45172e-10 3.1928805e-19 -3.2136329e-19 3.915285e-19
3.569802e-19 -4.1387423e-20 -1.1501275e-08 2.0906704e-07 -2.7306256e-20 -2.7136368e-20 2.9112074e-10 -2.8524824e-22
7.329892e-10 1.0144576e-09 6.6087698e-24 9.007765e-24 5.579884e-25 8.5205185e-09 5.374528e-24 -8.3029146e-20
-1.8947988e-10 2.655323e-24 -8.074181e-09 2.0374247e-27 -3.855206e-28 -9.384288e-28 -6.6937684e-28 -6.1492146e-28
7.1721483e-25 -3.387023e-28 -4.240953e-28 1.8279076e-12 9.857443e-20 1.7102723e-19 -1.1036653e-19 -5.9279647e-12
-6.759739e-20 -2.6697595e-07 -6.5223844e-20 -7.987838e-20 2.453352e-19 1.8131694e-16 1.949149e-16 1.1585239e-12
7.0683277e-12 -2.623396e-17 -1.3072827e-17 -9.08407e-19 5.009725e-18 1.8862553e-16 1.0934304e-20 -2.4768331e-11
-9.548533e-18 1.6620342e-08 -1.165169e-21 1.7298481e-21 8.037081e-21 1.03870716e-22 -1.592736e-12 5.5892544e-11
1.3437e-41 1.8956547e-13 1.1275e-41 -5.667e-41 -6.083464e-11 -1.08355e-40 -2.4944693e-08 7.0584267e-09
-9.2954535e-23 -3.4531203e-07 5.6235523e-09 -3.1066559e-30 1.73865e-24 1.6747226e-08 -9.9406535e-27 -1.8062472e-11
-2.1181677e-15 -9.969706e-23 -2.791483e-22 -3.5968677e-22 1.1299656e-22 -3.4088683e-11 -5.124562e-22 -1.0794447e-22
-1.0925716e-22 -3.2199003e-09 2.2975426e-14 6.837936e-21 8.1812436e-21 2.5370421e-21 1.608184e-08 5.312055e-21
-2.9109887e-21 -1.4617106e-19 -1.0204844e-20 -2.9792e-41 4.3624e-41 7.1772e-41 -2.3397e-41 5.6556e-41
-8.1668276e-08 2.2258e-41 -6.015e-41 -1.4099203e-20 -5.3593574e-18 -3.5069388e-20 -3.2174683e-20 1.1370507e-19
1.0796486e-19 -1.7137673e-13 2.2309166e-13 -3.0491432e-07 1.90563e-17 -2.5655802e-16 7.24124e-17 9.195854e-28
-5.7185916e-28 -8.32659e-28 -1.1058349e-28 -5.4481193e-28 2.877196e-15 -8.0053753e-28 5.526025e-20 -6.040653e-11
2.0796e-20 1.2229414e-13 1.2584952e-19 -1.6667627e-09 1.3130206e-19 1.24221256e-08 -3.4048564e-13 -8.474851e-10
-1.8597267e-15 8.5517354e-19 2.2867468e-07 9.160587e-21 2.0343399e-10 3.906505e-21 6.175065e-21 1.247971e-20
-2.0241717e-21 -1.1862002e-09 1.1474595e-08 2.3698712e-21 -1.5386727e-09 1.6193483e-21 9.1928645e-21 8.925741e-21
-2.1866657e-17 1.281456e-22 1.2715317e-20 -5.0924556e-14 7.5544366e-28 8.961054e-23 2.9416463e-09 -8.987875e-23
-1.2823155e-17 -5.2466505e-23 -8.1966495e-22 -7.693766e-23 -5.64601e-22 -2.0120508e-22 1.6529612e-22 -1.0916569e-21
-4.4786545e-15 1.0604198e-22 -2.842526e-08 -7.3895286e-11 -8.691898e-21 -2.3341526e-21 -3.3515052e-11 -1.9892132e-14
8.610206e-08 -1.4401437e-20 -9.462538e-21 -3.8513154e-08 4.5101498e-08 7.8534e-41 -1.9528778e-14 -1.7308051e-14
00000000: 8b66 021d 1564 f72c 105c 1528 5c9a 3533
00000010: 90f0 971c 25e7 d22c c8c4 a61b 3c29 839c
00000020: 1be6 6f9c da28 2ea9 2403 f7a2 ff16 fa1c
00000030: 6bee 261d 4d6c bd9d b161 5b32 f70b ab9e
00000040: ef8e ab9e fd85 c7a0 ead6 c7ad 551a 871f
00000050: 96b3 b61e 7395 869e 7625 749d 14a3 041f
00000060: 1db4 5fb4 17d9 42ae 6751 f52a d939 0080
00000070: 9a29 4c22 95cb 0927 96c3 9230 9bc0 8731
00000080: 5f82 8234 1444 941e 5949 0080 66d7 71b4
00000090: 8d8d 3e9d 5b31 6d29 dd0d 439e f815 88b3
000000a0: 9b7c 5c1d b5e6 da33 f5e9 c31f 1d7c 241d
000000b0: ecaf 6f9e 4faa 021d 2555 521e f6f9 aa9e
000000c0: b5a0 9eb1 951b 501e 21cf 4d1e 4246 ef33
000000d0: 2fc0 931c c765 199e 0e26 ee1d 2031 f99d
000000e0: 97aa 779c bccd 6eb3 ffec 2b1f 027f 4d9d
000000f0: 224a 021f 21e0 8b1e d7fe c71e 6cfb 0080
00000100: ffc5 a3a8 bdc6 b712 aaeb 2732 313c 0a27
00000110: 19af 182f 8210 0080 1b7b 0080 ddb0 2924
00000120: f0d6 76a0 3242 9834 0908 fd20 11ef 08a8
00000130: 12db 1530 7279 bc20 0cb3 bda0 1d1e e720
00000140: 53b9 d220 5372 439f 2497 45b2 e97b 6034
00000150: 3df3 009f db25 009f 9a0b a02f 076c ac9b
00000160: 887b 4930 0e6d 8b30 16aa ff18 4b3c 2e19
00000170: 65b0 2c17 a361 1232 bfea cf18 0a0c c49f
00000180: d855 50af 1772 4d18 a0b6 0ab2 e26b 2113
00000190: 4b5a f491 32b3 9492 4d22 5492 5be0 4292
000001a0: 9df7 5d17 97ad d691 b366 0692 a8a0 002c
000001b0: 96c0 e81f cfe9 4920 3d4c 02a0 5c92 d0ac
000001c0: 1d9c 9f9f e554 8fb4 6501 9a9f 859b bc9f
000001d0: 02d2 9020 510b 5125 b9b8 6025 390c a32b
000001e0: d6b1 f82c 30f7 f1a3 ae26 71a3 a50e 86a1
000001f0: 84d3 b822 6e78 5925 0d8b 4e1e 53dd d9ad
00000200: ac23 30a3 85c4 8e32 4b13 b09c 21b4 021d
00000210: f0d0 171e dc24 fb1a 5d28 e0ab 69d1 752e
00000220: 7525 0000 876e 552a 6e1f 0000 f99d 0080
00000230: dcc6 85ae 0d2e 0180 f645 d6b2 9486 f231
00000240: 12c0 e09a 5363 b9b4 4a39 c131 b80a 7c8e
00000250: 8385 0618 8adb 8f32 1ae5 4494 12e1 9ead
00000260: 4ca1 18a7 7e0d f19a 1bbc a89b d56a d99b
00000270: be9a 081b 72ec 15ae 61e1 1a9c 327f 029b
00000280: 7415 049b 1645 5db1 baf1 ce28 3b2a 011e
00000290: 118a 1a1e 88b1 3f1d 5724 8a32 0baf c81d
000002a0: b6f2 5b9d 7e91 2ca0 99c3 409e 0c53 0080
000002b0: 9b79 0000 12c8 0000 3941 0080 a89d 0000
000002c0: 9c61 afb3 0c3e 0000 aca7 0080 c829 859e
000002d0: b3b9 c5a2 4a9c 259f cef0 179f 403d 0620
000002e0: c1ec fe1f fbf3 40aa cb2d 7b2a 1bb3 a3b4
000002f0: 6bc3 af23 48e5 93a5 bdf8 a624 d1b6 9112
00000300: ba3a 3592 a9f0 8392 652e 0c91 65a8 2c92
00000310: e652 4f27 52b3 7d92 c67a 821f dad5 84ae
00000320: a569 c41e e3b0 092a af93 1420 0014 e5b0
00000330: 9d03 1b20 1669 5532 27ad bfaa 76f4 68b0
00000340: e701 06a7 1667 7c21 9e89 7534 e109 2d1e
00000350: 94ad 5f2f 6695 931d 9049 e91d 2dbc 6b1e
00000360: 2df1 189d b607 a3b0 cd21 4532 fa0f 331d
00000370: 3c79 d3b0 81b5 f41c f7a5 2d1e 3c9a 281e
00000380: 2faf c9a3 24eb 1a1b 802f 701e 0458 65a9
00000390: df68 6f12 3daa d81a fd25 4a31 4050 d99a
000003a0: a38b 6ca3 63b6 7d9a 81ba 779c 1b06 ba9a
000003b0: e3a3 2a9c f53d 739b acd4 471b 6ef7 a49c
000003c0: 4c5c a1a7 6732 001b cf2b f4b2 597f a2ae
000003d0: 712f 249e 145d 309d 9866 13ae 222c b3a8
000003e0: 1ce7 b833 8a04 889e 07be 329e a969 25b3
000003f0: 9fb5 4133 ecda 0000 4ce6 afa8 a6e5 9ba8

e_conv3.depth_conv.bias f4 [32]
-8.9188455e-21 2.2709627e-15 1.2582788e-19 -2.2990144e-21 -7.763044e-13 5.980961e-21 2.8301808e-15 5.290181e-29
8.4004653e-19 -1.6274574e-19 -3.3788132e-22 -7.64986e-26 1.4285421e-19 8.822131e-19 -3.4149676e-09 -3.5962e-41
6.8552e-41 2.8868452e-22 -1.4928453e-20 1.0307437e-24 -7.917269e-20 3.2310982e-28 1.2126179e-07 -4.8754302e-08
-3.3642223e-08 -8.554934e-22 1.8749095e-13 -3.595017e-20 -2.2283643e-27 -2.1736266e-22 1.6801881e-12 6.0054826e-14
00000000: e478 289e dea3 2327 258d 1420 68b5 2d9d
00000010: a182 5aab 4ef4 e11d 9fef 4b27 3d1f 8610
00000020: 1ff0 7721 e222 40a0 9a3c cc9b c066 bd95
00000030: 09a7 2820 1231 8221 bfac 6ab1 3f64 0080
00000040: 18bf 0000 c47f ae1b c9fe 8c9e f77f 9f17
00000050: f4f0 ba9f 91cb cc11 3034 0234 ec65 51b3
00000060: 047e 10b3 4c47 819c 9618 532a 17c5 299f
00000070: 998c 3093 3e63 839b 2877 ec2b 403b 8729

e_conv3.point_conv.weight f4 [32, 32, 1, 1]
-4.6688767e-23 -1.0057676e-22 8.243282e-22 -2.2715847e-34 -1.2563083e-22 -1.7211742e-22 -3.9168944e-23 -5.0186e-41
-2.1127503e-21 -7.261358e-22 2.1647467e-25 4.458269e-28 1.5965181e-21 -8.9553875e-26 8.437959e-23 3.6277e-41
-7.5754e-41 2.092583e-24 2.9952105e-23 1.505136e-37 2.5318638e-22 -4.650885e-30 -5.3182548e-21 1.1475987e-22
1.4591576e-21 8.896599e-25 3.7266613e-23 3.2743877e-22 -6.3398e-41 -1.7970224e-25 1.8831876e-22 2.3803726e-21
5.3687e-41 -2.2739e-41 -8.170743e-28 -1.9633272e-33 -8.064e-42 -1.7358e-41 -5.5016265e-30 2.2285e-41
-4.3732e-41 -4.466635e-39 4.7479e-41 1.0932e-41 -6.7790115e-36 3.616e-41 -1.09265e-40 1.6975e-41
-1.00409e-40 -6.8128e-41 3.6456e-41 -4.7465e-41 4.1242e-41 -2.763145e-39 7.0862e-41 -6.439e-41
-6.623e-41 -4.8814e-41 -2.97e-43 5.9177e-41 4.439371e-36 -8.1271e-41 -7.305e-42 -8.1626e-41
-3.3877238e-17 -2.9871795e-17 -1.9534323e-16 -3.2417157e-29 4.256695e-18 -1.5953719e-16 1.8666143e-16 -2.0165971e-35
-6.6618845e-16 9.481468e-17 1.4430888e-18 6.2619905e-23 -1.4521858e-16 4.3482678e-20 -3.4548423e-17 -3.0503e-41
7.063e-41 -1.447815e-18 2.0675429e-17 -2.5229973e-33 -2.458352e-17 -3.148884e-24 -1.6039691e-16 5.7011584e-17
4.2898913e-17 2.1402489e-20 -4.5076285e-18 3.385258e-16 -2.2413362e-29 -4.3456445e-19 3.1893215e-16 -6.5868734e-16
-4.1450933e-35 1.2642297e-34 6.715278e-34 -1.9627e-41 2.5449098e-36 -6.5887216e-35 -1.8692205e-34 -2.7752136e-31
-1.8553995e-33 -7.693563e-35 -3.8280488e-37 -3.3251e-41 2.915246e-33 -2.4525192e-38 -5.943845e-36 3.936e-42
-3.6679e-41 6.84413e-37 8.919448e-35 2.9166963e-36 9.852367e-34 -6.6291e-41 -6.4903933e-34 8.67874e-34
6.185423e-35 5.40437e-38 -6.681023e-36 -3.4033954e-35 -5.7327e-41 1.115173e-37 -1.7558142e-33 1.8455136e-33
-2.2687208e-22 -3.2433639e-22 -7.1463094e-22 5.5030074e-35 -1.73777e-22 1.1036794e-21 4.0195661e-22 -2.2125583e-38
2.0365625e-21 1.2500272e-21 -3.5622397e-25 1.730904e-28 -4.679243e-22 -5.712351e-26 -1.1839194e-23 5.6563e-41
7.137e-41 -9.083861e-25 3.3141925e-22 9.96958e-40 6.5892605e-22 -1.275961e-29 -5.9875986e-21 9.188698e-22
1.1476837e-21 2.2862826e-25 1.31974915e-23 -7.5230537e-22 -7.4419e-41 1.0364872e-24 1.0236535e-21 1.7001855e-21
1.24224946e-14 6.178709e-15 4.1695614e-14 6.111073e-28 1.3600458e-15 3.0302007e-14 -2.1495555e-14 8.326235e-34
9.499589e-14 -9.015702e-15 -1.8671477e-16 2.07498e-22 -1.2065663e-13 8.040855e-17 6.3348497e-15 -2.6173e-41
-2.5498e-41 -2.3756688e-16 2.2017836e-15 2.0714719e-27 -5.257357e-14 1.3499856e-21 6.538599e-14 4.857411e-15
-8.338822e-15 1.1006034e-16 3.0119666e-16 -1.9571082e-15 1.66984e-33 7.3364065e-17 -2.5662552e-14 -1.1802198e-13
-5.5293954e-21 -9.061179e-21 9.07532e-21 -5.643433e-33 9.940129e-22 -1.9344596e-20 2.5059049e-20 -2.5290179e-36
-1.129372e-19 -2.3810908e-20 1.246347e-23 -1.0368289e-26 -4.6983303e-20 -8.466462e-24 -6.1658556e-21 -1.7212561e-34
8.4228e-41 3.6010344e-22 -8.339978e-21 1.8707254e-37 -2.53005e-19 -8.176057e-28 -2.2687512e-19 1.198427e-20
5.737197e-20 4.377734e-23 -1.0573015e-21 3.1529747e-20 -8.8741e-41 -9.858612e-23 -1.220207e-19 1.9259606e-19
-5.1084e-41 7.53e-42 -7.6655e-41 7.308e-42 5.6398e-41 9.8262e-41 8.2153e-41 -6.9583e-41
-3.795e-41 1.1337e-41 -5.5842e-41 -3.292756e-35 4.7012e-41 -9.976749e-35 5.094254e-31 1.6020626e-35
6.3902e-41 -3.8045e-41 9.6762e-41 1.739472e-34 1.6953e-41 -1.7847644e-34 8.673e-41 -2.389e-41
1.330411e-29 2.8781e-41 5.0688e-41 -1.7153e-41 1.2865e-41 -3.2649e-41 -1.5933e-41 2.7627e-41
00000000: e5c5 619a 002e f39a 4e23 791c 03f9 9687
00000010: dce0 179b c313 509b ce68 3d9a e68b 0080
00000020: 89a2 1f9d 0976 5b9c c8fd 8516 c649 0d12
00000030: 4d42 f11c 83b9 dd95 7004 cc1a 2065 0000
00000040: 2cd3 0080 e0e7 2118 e9d6 101a 56de 4c02
00000050: b20a 991b 8da9 bc8e 01eb c89d 76bc 0a1b
00000060: 6d80 dc1c 0fab 8917 d535 341a b2ec c51b
00000070: bab0 0080 ea75 5e96 d5a9 631b 1adb 331d
00000080: a895 0000 633f 0080 7978 8192 5a1b 2389
00000090: 7b16 0080 6330 0080 282c df8e 1f3e 0000
000000a0: e879 0080 29a3 3080 5a84 0000 791e 0000
000000b0: 732c 1085 cd64 0000 9630 0180 522f 0000
000000c0: e617 0180 eabd 0080 a065 0000 5084 0080
000000d0: f772 0000 8616 1e80 89c5 0000 7eb3 0080
000000e0: 9fb8 0080 1388 0080 d400 0080 f6a4 0000
000000f0: 78d4 bc04 8de2 0080 5d14 0080 8ae3 0080
00000100: 2f3b 1ca4 64c2 09a4 2537 61a5 e05f 2490
00000110: 590b 9d22 11ef 37a5 bb34 5725 ff70 d685
00000120: 0804 40a6 b5a0 da24 5af6 d421 d867 971a
00000130: f66c 27a5 5557 4d1f 9453 1fa4 0855 0080
00000140: e3c4 0000 e7a8 d5a1 7ab2 be23 389a 5189
00000150: 32be e2a3 13a2 7398 d0ec 38a5 b375 8324
00000160: 19d6 4524 0b24 ca1e 594d a6a2 9725 c325
00000170: 6a4c e38f c342 00a1 14da b725 8cda 3da6
00000180: 1664 5c86 820b 2807 4427 5f08 b636 0080
00000190: 3a7f 5804 8428 af86 4776 7887 251f b48c
000001a0: fc23 1a89 ad87 cc86 0243 0283 b15c 0080
000001b0: 6d30 7209 2187 0581 bed2 fc84 f90a 0000
000001c0: 3f66 0080 c8e4 6803 9e1e ed06 0520 7804
000001d0: 56b3 a308 cbb8 0080 29ae 5788 4733 9008
000001e0: cf6f a406 f61e 9301 f316 0e85 9ef4 3486
000001f0: ce9f 0080 1cca 1702 0ade 1189 bc51 1909
00000200: c122 899b a00c c49b e4fb 579c 874b 9206
00000210: 6015 529b 87c8 a61c c6f7 f21b 20ed f080
00000220: d9e0 191d 16e6 bc1c f17d dc96 0c6b 5b11
00000230: e46b 0d9c 536e 8d95 d900 6599 ad9d 0000
00000240: f3c6 0000 e190 8c97 a554 c81b 1ddb 0a00
00000250: ef25 471c d765 818f 8034 e29d 0edb 8a1c
00000260: dd6e ad1c 9883 8d16 d046 7f19 cf5e 639c
00000270: 73cf 0080 7d63 a017 adb0 9a1c 5f76 001d
00000280: a5c8 5f28 889c de27 c5c7 3b29 eaaa 4112
00000290: d500 c426 d677 0829 609d c1a8 e357 8a08
000002a0: 67e9 d529 9669 22a8 7944 57a5 85d9 7a1b
000002b0: e8d8 07aa d568 b924 ad3c e427 f648 0080
000002c0: 1447 0080 aff2 88a5 bda7 1e27 711e 2413
000002d0: 33c5 6ca9 0a01 cc1c 753c 9329 b501 af27
000002e0: 0738 16a8 28c8 fd24 c8a0 ad25 4606 0da7
000002f0: 92b9 0a09 802a a924 d125 e7a8 85e1 04aa
00000300: 08e5 d09d 2c29 2b9e 8e6d 2b1e 466b ea89
00000310: 0336 961c 5db4 b69e 10ad ec1e 2225 5784
00000320: 2d55 05a0 3ee3 e09e 1d14 7119 795d 4d94
00000330: 54df 5d9f e4c3 2399 7ff0 e89d 4fcb 6487
00000340: cbea 0000 4fab d91b a989 1d9e 44a1 7e02
00000350: 0959 95a0 078e 8192 66ec 85a0 6060 621e
00000360: 3a77 871f b9b1 531a 5fc6 9f9c 20e5 141f
00000370: 60f7 0080 da5d ee9a 7e0e 10a0 9660 6320
00000380: 678e 0080 fe14 0000 afd5 0080 5f14 0000
00000390: 379d 0000 ea11 0100 02e5 0000 f8c1 0080
000003a0: ca69 0080 9a1f 0000 aa9b 0080 ac12 2f86
000003b0: 0d83 0000 1e9d 0487 6851 250d 4b5c aa05
000003c0: 22b2 0000 0e6a 0080 bc0d 0100 2a37 6707
000003d0: 422f 0000 633c 6d87 c5f1 0000 9842 0080
000003e0: 72eb 860f 3b50 0000 4c8d 0000 d12f 0080
000003f0: dd23 0000 035b 0080 6a2c 0080 034d 0000

e_conv3.point_conv.bias f4 [32]
-8.592731e-15 -5.845814e-32 -3.853585e-09 1.7898917e-18 -8.691276e-15 4.6678182e-05 -7.2501467e-13 7.6124e-41
-5.378419e-16 1.3109262e-07 -2.6845798e-11 -8.101226e-14 5.0671457e-07 -2.053293e-15 -8.9512875e-13 1.3966112e-10
5.2807e-41 3.8613e-41 -3.198572e-20 -2.97465e-20 0.00012293716 1.1429282e-12 1.427813e-12 -5.9627596e-13
5.9234745e-10 5.814e-42 -4.4404332e-13 6.7355446e-16 -1.296592e-31 2.5778901e-09 -2.6673468e-15 8.423514e-10
00000000: faca 1aa8 19c4 978b 7e68 84b1 1912 0422
00000010: 7091 1ca8 51c8 4338 d012 4cab 34d4 0000
00000020: ba05 1ba6 77c2 0c34 5d23 ecad 636c b6a9
00000030: 2905 0835 92f4 13a7 d3f4 7bab 1c8f 192f
00000040: 3493 0000 a36b 0000 5d0c 179f 5079 0c9f
00000050: b1e8 0039 54da a02b 62f2 c82b 36d6 27ab
00000060: bfd2 2230 3510 0000 63f9 f9aa 8c23 4226
00000070: a94e 288c b926 3131 dd33 40a7 368b 6730

e_conv4.depth_conv.weight f4 [32, 1, 3, 3]
1.0656035e-09 -6.4594575e-33 2.0075175e-09 -4.0266295e-33 1.6112448e-08 5.3300293e-33 -1.8061236e-17 -4.983987e-20
-8.636205e-34 3.3868e-41 -3.6466e-41 -6.08e-41 5.7867e-41 8.6501e-41 4.7971487e-23 6.9502265e-11
3.588e-41 1.0175e-41 3.4448442e-12 2.1742485e-13 -3.0452984e-22 -1.7666329e-22 -2.7719795e-22 5.737508e-10
-2.5478296e-22 -1.1640164e-22 -5.4674466e-08 2.0828495e-18 -2.4559227e-20 -5.409807e-10 -8.081e-41 1.6963299e-16
-1.1389798e-18 -3.1151e-41 3.0024e-41 -2.859728e-14 8.8447385e-17 8.828e-42 -5.237e-42 9.0614e-41
4.124726e-18 2.3117936e-14 -8.907e-41 2.9612683e-09 6.5481e-41 1.4985432e-14 -1.6575851e-21 -1.6714001e-19
-1.3822128e-21 -4.3311722e-21 -2.4034799e-21 -9.950553e-22 -4.9112274e-22 -4.823606e-21 3.136943e-10 5.2315e-41
1.02043915e-10 -6.3693e-41 4.3524e-41 3.1374358e-07 1.818e-41 1.9442745e-35 -9.739e-42 6.398e-42
1.218e-42 -1.6486e-41 -8.874471e-08 2.7087708e-17 -1.5648e-41 -4.0510144e-19 -2.4353787e-22 -5.5203e-41
7.2803e-41 8.893e-42 -4.0247e-41 8.003547e-08 6.2212e-41 1.4676e-41 1.2297118e-34 -6.7062e-41
-3.0968163e-08 -1.2394538e-17 -8.288486e-17 -3.0995225e-15 7.2737874e-31 -1.3558817e-07 2.9247504e-10 6.2404144e-15
7.522209e-31 -1.6079664e-31 -5.2313855e-08 -4.1551012e-29 -4.7665978e-29 -2.1499087e-29 -2.0724136e-29 8.794124e-27
1.2338099e-29 1.0582748e-14 3.8627282e-10 1.6135604e-36 -2.3167576e-07 -9.905878e-36 2.2357563e-36 -2.1039887e-36
7.312412e-17 8.716453e-37 -3.366763e-23 2.2903242e-29 3.0872879e-30 -1.5832886e-09 1.8819405e-22 1.0701318e-11
-3.9517282e-08 -3.6222885e-25 8.3742714e-11 2.0548773e-30 -4.538419e-12 4.791595e-10 4.272147e-33 -1.8100146e-11
2.442051e-08 7.22044e-32 4.132624e-22 5.0494506e-08 4.6042555e-11 1.344107e-32 -8.4627e-41 1.6695244e-09
2.3619054e-13 4.2476e-41 8.24e-42 -3.4015e-41 6.043594e-12 -2.8207e-41 -1.8943e-41 -1.09162954e-07
-4.5033358e-38 -2.363563e-30 1.1057824e-09 -1.9582297e-16 -8.31831e-39 3.037842e-14 3.6213216e-11 -1.1950265e-19
-5.0742635e-08 2.0752604e-30 -1.6385881e-13 -2.1780349e-12 1.49e-41 1.574e-42 -3.5882e-41 7.066997e-25
-7.6608e-41 -7.739621e-13 -1.5917e-41 4.232567e-12 2.014016e-15 -2.7416e-41 -3.8976e-41 -6.2923e-41
5.918488e-09 -6.7875e-41 8.9484e-41 6.8268063e-10 -5.6244e-41 -9.2872e-41 -1.6821e-41 1.0795564e-09
-1.1488e-41 -2.6096216e-38 -8.3355e-41 -3.786609e-18 4.278677e-12 1.0745504e-12 1.025e-41 -7.1489e-41
8.2751e-41 -3.796e-42 1.00662e-40 -8.333675e-19 -4.2584944e-09 1.6149862e-25 -1.49826e-10 3.528513e-26
-2.9997263e-08 8.2024635e-26 -7.420896e-10 2.2732509e-11 6.1154815e-26 -6.105e-42 -3.9927e-41 -6.71157e-09
-8.279966e-31 -1.8897e-41 2.2731501e-14 4.346e-41 2.161e-41 -5.7904e-41 -7.719663e-14 -4.5539693e-25
-2.9615e-41 -7.92e-42 5.3626e-41 1.8194882e-18 9.43071e-31 -1.2559948e-17 -4.4828e-41 3.4067893e-13
1.0224426e-20 2.879804e-12 -3.5953e-41 3.1426e-41 -2.9439225e-11 4.03e-42 -5.104082e-16 -8.538e-42
7.682047e-32 -7.506156e-33 1.3360728e-32 2.1117964e-22 -2.3650782e-07 1.646505e-11 1.6464532e-27 8.4045383e-32
-4.0272245e-32 -1.088483e-13 1.9192373e-35 3.7604e-41 8.5115e-41 2.846097e-19 -3.3981e-41 1.903424e-12
3.1468e-41 2.9146e-41 -2.5906551e-11 3.2041642e-10 8.345547e-15 -2.9626012e-27 -6.3258757e-18 8.056485e-13
5.127e-42 -6.8486e-41 -6.9504e-41 -2.881e-41 3.018821e-10 -4.6867287e-30 1.6615e-41 -4.46575e-19
6.337e-41 -4.7e-41 -9.7123e-41 6.517299e-15 -6.9282e-41 -2.0248457e-08 6.846202e-14 -1.4712951e-38
00000000: 9774 9230 5e28 068a 9ff4 0931 7842 a789
00000010: a667 8a32 9866 dd09 e395 a6a3 b55c 6b9f
00000020: 5a7e 8f88 695e 0000 a765 0080 7ca9 0080
00000030: 4fa1 0000 21f1 0000 d3f9 671a 4cd6 982e
00000040: 0564 0000 5d1c 0000 cc68 722c 72cc 742a
00000050: b613 b89b a492 559b 4e8e a79b 20b6 1d30
00000060: c101 9a9b 90b8 0c9b 36d3 6ab3 eaaf 1922
00000070: 91f4 e79e 22b4 14b0 44e1 0080 d292 4325
00000080: 7115 a8a1 d656 0080 b253 0000 6bca 00a9
00000090: 1ff2 cb24 9c18 0000 990e 0080 98fc 0000
000000a0: f02c 9822 553a d028 4af8 0080 2f7f 4b31
000000b0: 89b6 0000 0efa 8628 b87c fa9c f852 45a0
000000c0: c5df d09c 87a0 a39d 109a 359d 565e 969c
000000d0: c86e 149c 0e3b b69d 8c74 ac2f d591 0000
000000e0: 9e65 e02e 8db1 0080 5479 0000 9770 a834
000000f0: ae32 0000 30c0 ce05 261b 0080 d611 0000
00000100: 6503 0000 f52d 0080 ec93 beb3 0bd7 f923
00000110: 9f2b 0080 3321 efa0 a935 939b e299 0080
00000120: f2ca 0000 ca18 0000 3170 0080 f7df ab33
00000130: 6cad 0000 e928 0000 ed74 2307 f1ba 0080
00000140: db01 05b3 8da3 64a3 961e bfa4 1958 5fa7
00000150: 430c 6c0d 3196 11b4 34ca a02f aad5 e027
00000160: 111c 740d d9b9 508c b1af 60b3 4cb0 5290
00000170: fab1 7190 d206 da8f ef2a d28f 822f 2e14
00000180: 133f 7a0f 50a4 3e28 115b d42f 3c44 0904
00000190: 8cc2 78b4 bbac 5285 7632 3e04 d1fc 3284
000001a0: dd9c a824 824d 9403 82ce 229a 3744 e80f
000001b0: 7678 7a0e 049b d9b0 3d83 631b 7442 3c2d
000001c0: b6b9 29b3 7435 e096 f526 b82e 22b6 260e
000001d0: 72ae 9fac dab5 0330 4275 b109 e835 9fad
000001e0: 45c5 d132 0e74 bb0b 42cd f91b 4cdf 5833
000001f0: 4f7f 4a2e 7e94 8b0a e8eb 0080 2b75 e530
00000200: a5f6 842a 6876 0000 f816 0000 d25e 0080
00000210: dba3 d42c a14e 0080 ce34 0080 f86c eab3
00000220: 572f 7581 48c1 3f8e 42fa 9730 bdc4 61a5
00000230: 1094 5a80 efcf 0829 7544 1f2e 7615 0da0
00000240: 1ef0 59b3 795d 280e 167d 38aa fd43 19ac
00000250: 8929 0000 6304 0000 0664 0080 85b6 5a17
00000260: 8dd5 0080 d9d9 59ab 5f2c 0080 93eb 942c
00000270: 0a20 1127 6d4c 0080 a66c 0080 67af 0080
00000280: 925b cb31 35bd 0080 72f9 0000 61a7 3b30
00000290: c99c 0080 e402 0180 e42e 0080 845f 9430
000002a0: 0620 0080 d114 0e81 5ce8 0080 83b3 8ba2
000002b0: e58a 962c c23a 972b 931c 0000 48c7 0080
000002c0: ade6 0000 950a 0080 9b18 0100 78f7 75a1
000002d0: 1d52 92b1 f5ec 4716 45bc 24af 37b9 2e15
000002e0: 57d6 00b3 4a15 cb15 eafb 4bb0 0ff5 c72d
000002f0: 7869 9715 0511 0080 4d6f 0080 989b e6b1
00000300: a259 868d ad34 0080 46bf cc28 2679 0000
00000310: 3d3c 0000 6aa1 0080 d4d4 ada9 43f0 0c97
00000320: 8e52 0080 1416 0080 7d95 0000 2941 0622
00000330: a305 990d adb0 67a3 f67c 0080 02c9 bf2a
00000340: 4a22 411e f0a5 4a2c 3964 0080 9a57 0000
00000350: 9f79 01ae 3c0b 0000 7a1d 13a6 cd17 0080
00000360: f66f c70b 92e5 1b8a e8be 8a0a ef4c 7f1b
00000370: c6f2 7db4 ffd3 902d 0a72 0213 bd31 da0b
00000380: ff1a 518b c61a f5a9 9c16 cc05 d368 0000
00000390: 44ed 0000 0001 a820 ba5e 0080 0af1 052c
000003a0: b857 0000 3f51 0000 5ee0 e3ad 9a26 b02f
000003b0: 0b57 1628 b1b8 6a93 3562 e9a2 18c5 622b
000003c0: 4b0e 0000 e9be 0080 c0c1 0080 5050 0080
000003d0: 21f6 a52f c61d be8e 512e 0000 41ce 03a1
000003e0: a6b0 0000 0483 0080 bd0e 0180 79cf ea27
000003f0: 21c1 0080 d4ee adb2 ab29 9a29 b935 a080

e_conv4.depth_conv.bias f4 [32]
-1.6065192e-12 1.0822812e-12 -4.1866113e-07 1.0984841e-36 -1.1265472e-30 -1.2881348e-09 -5.478038e-31 3.3275506e-24
4.0640675e-28 2.4889376e-24 -7.2511754e-11 -1.3150104e-15 5.9860114e-24 -2.2442354e-08 1.8778014e-19 1.4851747e-29
-7.7865564e-14 -3.1666652e-38 5.557961e-38 -1.3094e-41 1.0242342e-21 -6.271336e-32 -1.6977912e-35 -7.430579e-07
8.820891e-13 -1.2113948e-14 -4.81351e-35 9.014903e-35 -1.8552691e-07 -1.0968713e-26 3.9877007e-10 -1.1976406e-28
00000000: f418 e2ab 4a51 982b 59c4 e0b4 bbe5 ba03
00000010: f1ca b68d 370a b1b0 c2c5 318d 77ba 8018
00000020: a2cb 0012 7d92 4018 7d74 9fae 5283 bda6
00000030: 9692 e718 42c7 c0b2 11b1 5d20 579d 960f
00000040: 7156 afa9 df68 2c81 564d 9701 8024 0080
00000050: 24c7 9a1c 2dd0 a28b 468a b485 8d76 47b5
00000060: 3849 782b ba39 5aa8 1aee 7f86 40a8 ef06
00000070: 4035 47b4 fc41 5994 e639 db2f a9d1 1791

e_conv4.point_conv.weight f4 [32, 32, 1, 1]
7.8157234e-23 -3.641882e-23 3.105231e-16 -4.4705017e-38 5.3824928e-33 6.1163756e-19 -6.312298e-30 2.0885173e-33
-2.8895752e-36 -4.999818e-24 -1.01142225e-20 8.537156e-26 -5.2345382e-24 7.267e-19 -6.636148e-30 -5.055827e-29
3.9251292e-23 7.3609e-41 -1.826783e-39 6.618e-42 -2.821044e-22 -1.1560724e-31 -4.0661382e-36 -1.1263663e-16
7.728601e-23 -3.9047293e-24 -1.6590748e-35 8.261296e-35 -3.8591255e-17 1.6506249e-26 6.4502102e-21 -2.7922057e-30
1.279e-41 3.648e-42 -1.19847e-40 2.6015e-41 -5.469e-42 5.4722e-41 -7.4779e-41 3.4564e-41
6.192e-41 5.5091203e-31 2.477e-42 2.2613e-41 6.491e-41 8.3449e-41 7.6189e-41 -3.6762e-41
-5.8567e-41 5.3528e-41 4.388e-41 1.1813e-41 3.2216e-41 -2.7025e-41 6.0201994e-29 -7.9493e-41
-7.9215e-41 6.3709e-41 -1.6395e-41 7.47e-42 9.428e-41 -5.275222e-39 3.2282428e-37 -4.7e-41
-1.0710245e-24 -9.031471e-25 1.0790763e-18 -7.4992e-41 2.6715331e-36 4.9531825e-21 2.7393734e-34 2.8902157e-35
2.2157216e-38 -2.2987838e-26 2.0565374e-22 5.7963978e-27 -2.2781465e-26 8.813615e-20 -1.4924237e-31 9.955399e-30
9.5244434e-26 7.4741e-41 -4.6609e-41 2.8973e-41 3.1908441e-24 3.544585e-33 -1.1976857e-38 3.0871727e-18
-1.629587e-24 7.300819e-27 -3.060157e-39 -1.3719158e-27 -6.80908e-20 5.156121e-29 -2.5677614e-22 4.8618e-41
1.7915512e-20 -1.2863228e-20 2.2587756e-15 1.1991963e-34 1.6720809e-34 -9.138396e-18 -3.4971098e-27 4.3009505e-31
1.0525546e-33 -6.4633646e-23 -5.7344885e-19 -3.6113017e-23 -2.181735e-21 1.4198788e-16 1.25262376e-26 -2.238027e-25
-2.804509e-21 -1.4449e-41 -3.612259e-35 9.149e-42 -8.3516315e-21 -1.7210778e-28 -2.220309e-33 4.117338e-15
8.441003e-21 -3.0110185e-22 8.466182e-34 3.723279e-32 7.3785633e-16 1.32225315e-24 1.7240846e-18 2.3499325e-27
-9.810421e-30 5.5951094e-30 9.643343e-25 -7.7196e-41 1.837563e-27 3.280481e-27 3.8806e-41 5.3388e-41
-2.483e-42 7.4476654e-32 2.209368e-28 2.3899777e-30 1.5774461e-32 3.393065e-27 -1.1671594e-38 -5.0426577e-36
6.197011e-32 3.111926e-29 8.7252e-41 3.0414e-41 9.483139e-30 9.078e-42 -5.8391e-41 1.585757e-24
4.8803986e-30 2.9197005e-32 5.8346e-41 1.0457e-40 4.279879e-25 5.5892e-41 -1.4367996e-27 -7.169837e-38
4.0019704e-22 -2.4769611e-22 3.376101e-17 2.4656617e-38 -1.0892939e-33 1.1664882e-19 8.74243e-30 -2.050534e-33
-9.5914535e-37 5.3845334e-24 6.3903527e-21 1.9437803e-25 6.3053664e-24 3.9224317e-18 -4.34428e-29 8.056896e-28
2.048288e-23 -5.55956e-39 3.4417e-40 -9.9477e-41 1.1381468e-21 5.152798e-31 1.6817409e-34 6.107606e-17
-2.3667163e-22 3.480571e-24 -3.7391844e-35 2.9711274e-35 3.088659e-17 -1.2722535e-27 -4.1772718e-20 5.9993326e-29
3.477517e-33 2.3456e-41 -6.4252e-41 6.2275e-41 7.3226e-41 7.1002e-41 -5.7148e-41 -6.9427e-41
-4.4696e-41 9.149e-41 1.0841529e-33 -5.31e-41 -4.2437e-41 6.863e-41 3.83e-42 -3.1839e-41
5.6447e-41 1.3757e-40 3.8035e-41 3.4518e-41 1.0702e-41 -2.835e-41 -1.0129e-41 1.6696062e-28
6.8196e-41 5.5836e-41 -6.4268e-41 3.5114e-41 2.8621791e-28 -9.6528e-41 5.8534e-41 -7.0574e-41
3.3189345e-22 -1.9262874e-22 5.1881215e-17 -6.15938e-40 2.3046e-41 2.1448552e-19 -8.2387e-41 -7.6584784e-34
1.558031e-39 4.9791733e-24 1.7220645e-20 8.066408e-26 2.9836153e-24 1.3155039e-18 -8.271489e-29 1.1942016e-27
9.352388e-24 -5.6898e-41 -1.8954e-41 -2.8148e-41 1.7252122e-21 3.8711333e-31 -7.2681e-41 2.8163814e-16
-4.9824707e-23 7.1941137e-25 -9.736e-42 -1.5546646e-37 2.6646568e-17 6.110967e-28 -2.1763607e-20 -4.5133e-41
00000000: fcf8 bc1a 511c 309a 1f01 b325 b365 7381
00000010: 7b94 df09 0786 3421 5307 008f da81 2d09
00000020: 60d1 7584 cd6b c198 610d 3f9e a85e d315
00000030: 5b80 ca98 e67b 5621 da98 068f 312e 8090
00000040: bfce 3d1a 31cd 0000 54e4 1380 7312 0000
00000050: 8b85 aa9b 1811 168c 53f4 ac84 77dc 01a5
00000060: b9dd ba1a 910e 9798 506c b085 789f db06
00000070: 83f8 31a4 5078 a314 9bae f31d d887 628e
00000080: a723 0000 2b0a 0000 164e 0180 8548 0000
00000090: 3f0f 0080 8b98 0000 74d0 0080 5a60 0000
000000a0: 9cac 0000 fbc7 320d e806 0000 093f 0000
000000b0: f1b4 0000 9fe8 0000 62d4 0000 7a66 0080
000000c0: 43a3 0080 3795 0000 527a 0000 ee20 0000
000000d0: ce59 0000 564b 0080 54a1 9810 98dd 0080
000000e0: d2dc 0080 98b1 0000 b42d 0080 d314 0000
000000f0: d006 0100 2c71 3980 ecb3 db02 0483 0080
00000100: a7bb a597 58c1 8b97 5a3e 9f21 0cd1 0080
00000110: d744 6304 3e20 bb1d 0610 b607 94ab 1906
00000120: 4e45 f100 18a9 e394 c09e 781b 759e e513
00000130: e09d e194 091b d01f 49ba 418c 63eb 490f
00000140: 55d0 eb15 59d0 0000 ed81 0080 c450 0000
00000150: 2ee1 7618 7e3c 9309 9b6a 8280 0bcb 6322
00000160: 982a fc97 8d9b 1014 7952 2180 8463 d992
00000170: 5dc6 a09f 23b9 8210 2f36 9b9b 8787 0000
00000180: 0d35 a91e c1fa 729e 0ec3 2227 8966 1f07
00000190: f741 5e07 db92 28a3 e888 8a93 e692 0b0d
000001a0: b9e2 ae08 4a46 9c9a 9240 29a1 c0a1 2e9a
000001b0: e4d8 249d 6db3 2325 921b 7814 f486 8a96
000001c0: 18e7 539d 4728 0080 860f 4086 8119 0000
000001d0: 03c2 1d9e 2b2c 5a91 c074 3889 bd57 9427
000001e0: 3072 1f1e 4101 b69b 28ab 8c08 de52 410b
000001f0: 30ac 5426 d89b cc17 136e fe21 4b2e 3a13
00000200: 9efa 468f f0f6 e20e 3839 9517 31d7 0080
00000210: 3596 1113 08f4 8113 2d6c 0000 d394 0000
00000220: ec06 0080 3a5a c10b 0c09 8c11 e5e5 410e
00000230: b6cf a30a c469 8613 a817 7f80 ae7d d684
00000240: 34e2 a00b 1ccb 1d10 39f3 0000 c854 0000
00000250: 4657 400f 4e19 0000 c5a2 0080 4f62 f517
00000260: f5f8 c50e 7a99 170b a5a2 0000 8023 0100
00000270: b274 0417 ce9b 0000 84ab e392 792e c381
00000280: 7ee7 f11b 1eb9 959b f7b1 1b24 4f3e 0601
00000290: 70fd b488 f1b6 0920 4b51 310f 095a 2a89
000002a0: ac30 a383 d64d d018 b36b f11d dba0 7016
000002b0: 53ed f318 52b6 9022 fa47 5c90 4e55 7f12
000002c0: 2819 c619 cb89 3c80 68bf 0300 4d15 0180
000002d0: ecfd ab1c c537 270d ad8a 5f07 f1d4 8c24
000002e0: 290f 8f9b e8a5 8618 24cf 4686 e4f8 1d06
000002f0: 7370 0e24 bc98 c992 1e44 459f e519 9810
00000300: 4e73 9009 6341 0000 1cb3 0080 99ad 0000
00000310: 20cc 0000 edc5 0000 4e9f 0080 89c1 0080
00000320: 987c 0080 09ff 0000 c422 b408 0594 0080
00000330: 4c76 0080 50bf 0000 ad0a 0000 c158 0080
00000340: 5a9d 0000 7d7f 0100 076a 0000 3960 0000
00000350: d51d 0000 074f 0080 3c1c 0080 d2a5 5311
00000360: 1abe 0000 a69b 0000 27b3 0080 e261 0000
00000370: 8369 b511 150d 0180 2ba3 0000 bbc4 0080
00000380: 069e c81b b5df 689b 8742 6f24 fcb4 0680
00000390: 3e40 0000 4538 7d20 a9e5 0080 217f 7e88
000003a0: 28f7 1000 589f c018 f7a4 a21e efb6 c715
000003b0: 97d8 6618 5522 c221 08b5 d190 923a bd12
000003c0: c8e6 3419 9c9e 0080 d634 0080 774e 0080
000003d0: 755a 021d 3c40 fb0c 9bca 0080 745a a225
000003e0: 00f0 709a a4a5 5e17 241b 0080 289c 5382
000003f0: 6ec5 f523 0eaa 4112 2c8d cd9e d07d 0080

e_conv4.point_conv.bias f4 [32]
1.5661084e-10 -1.2657749e-27 -3.2184251e-13 1.3933258e-05 -1.915067e-18 3.1234004e-10 -2.9278704e-15 -5.346595e-11
-4.369764e-16 -1.4089363e-10 -6.7911e-41 0.0032034311 6.4076124e-19 -1.5238372e-13 7.1702984e-11 1.3098908e-10
7.227668e-25 3.921011e-09 1.16680425e-07 1.0256094e-09 2.5345878e-08 -8.194117e-32 -3.5634494e-15 1.6311924e-08
-7.2639e-41 9.756445e-14 -1.7851526e-10 -1.4153342e-24 1.5586966e-09 1.2694e-41 -6.2393e-41 -1.8329064e-12
00000000: 0832 2c2f ee91 c892 652e b5aa e3c2 6937
00000010: 984e 0da2 f4b5 ab2f adf9 52a7 4f25 6bae
00000020: 56e6 fba5 08ea 1aaf 4fbd 0080 a8f0 513b
00000030: 8d1e 3d21 9e91 2baa 31ad 9d2e 2606 102f
00000040: 7caf 5f17 94b9 8631 be91 fa33 6cf5 8c30
00000050: 2db8 d932 40bb d48b 0563 80a7 4d1e 8c32
00000060: 7dca 0080 14b2 db29 9447 44af 2a03 db97
00000070: c339 d630 6323 0000 edad 0080 b5fa 00ac
