Zero-DCE++/snapshots_Zero_DCE++/Epoch33.pth (torch, 51217 bytes, 28 tensors)

e_conv1.depth_conv.weight f4 [3, 1, 3, 3]
0	0xbea89858	-0.3292873
1	0xbe106a0e	-0.14102957
2	0x3d413d80	0.04717779
3	0xbe311b64	-0.17295605
4	0x3e001d3a	0.12511149
5	0x3ddedb57	0.108816795
6	0xbec5dc68	-0.3864472
7	0xbe08d2bd	-0.1336164
8	0xbd4a6d85	-0.049420852
9	0x3e2db0cc	0.16961974
10	0x3df32f38	0.11874241
11	0x3e92324b	0.28553995
12	0x3e3597eb	0.17733733
13	0xbbf05cd5	-0.007335285
14	0x3e5f1c23	0.21788077
15	0x3dd0ad6a	0.10189326
16	0xbcff0602	-0.031130794
17	0x3e3bbf97	0.18334804
18	0xbcfab10c	-0.030602
19	0xbd754f98	-0.05989036
20	0xbe0a87ac	-0.13528317
21	0xbd852552	-0.06501259
22	0xbde3a040	-0.1111455
23	0xbe0b406f	-0.13598798
24	0xbd3f919d	-0.046769727
25	0xbe3cc9e9	-0.18436398
26	0xbeae0fbd	-0.33996382

e_conv1.depth_conv.bias f4 [3]
0	0x3d96b877	0.073594026
1	0x3ea16f62	0.3153029
2	0xbd187b22	-0.037226804

e_conv1.point_conv.weight f4 [32, 3, 1, 1]
0	0x3c49220a	0.012276182
1	0x3e84eb68	0.2596085
2	0x3dcd6444	0.1002889
3	0x8000c310	-6.9975e-41
4	0xa89bf701	-1.7315578e-14
5	0x31cfb2b7	6.0448104e-09
6	0x370f1ec3	8.5306265e-06
7	0xbb9a8715	-0.00471581
8	0xb98e56f5	-0.0002714914
9	0x3db92040	0.09039354
10	0xbf086215	-0.5327466
11	0x3de7f6bc	0.11326358
12	0x3af90e91	0.0019001534
13	0xb9590101	-0.00020695107
14	0x36fef3a1	7.598152e-06
15	0xbdfc1f09	-0.12310607
16	0x3e08014d	0.13281746
17	0x3ee7a7a7	0.45245096
18	0x3da59e0e	0.08086787
19	0x3e85beea	0.26122218
20	0xbe9e43d3	-0.3091112
21	0x0000d77a	7.7298e-41
22	0x80007eb2	-4.545e-41
23	0x0000bf62	6.8655e-41
24	0x3d60e25f	0.054903384
25	0xbd15ee2a	-0.036604084
26	0x3cbde7e8	0.02318187
27	0x3da09756	0.07841365
28	0xbd2b9ec0	-0.041899443
29	0xbe047b7b	-0.12937729
30	0x3eb9b92a	0.3627408
31	0xbf0e1262	-0.554968
32	0x3ecf1d2c	0.40451944
33	0x3cb946fb	0.022616854
34	0xbd9f5234	-0.07779351
35	0x3d4e589f	0.050377484
36	0x3e19396b	0.1496331
37	0xbed96ca2	-0.42465693
38	0xbe10d795	-0.14144738
39	0xbd9942f9	-0.07483477
40	0xbe0bd55c	-0.13655609
41	0x3de6ac1f	0.11263298
42	0x393c1752	0.00017937765
43	0xb588d6c0	-1.019529e-06
44	0x9d620d78	-2.9917814e-21
45	0x3d12abe2	0.03580845
46	0x3ebc3d7c	0.3676566
47	0x3eb252bd	0.3482875
48	0xbe60addf	-0.21941327
49	0x3ea8b753	0.32952365
50	0xbecfb894	-0.4057051
51	0x216a67c6	7.9419627e-19
52	0x1e2c79b9	9.130776e-21
53	0x3a64f657	0.0008734217
54	0x3c9bfc08	0.019041076
55	0x3b7993fe	0.0038082595
56	0xbd8fcf32	-0.07021941
57	0x3a5fb31e	0.00085334654
58	0xb37bb938	-5.8608947e-08
59	0x34b47c8c	3.3618232e-07
60	0xbf14e06e	-0.5815495
61	0xbdacd544	-0.08439115
62	0xbec85d15	-0.39133516
63	0x30a379ee	1.1894465e-09
64	0x80000516	-1.824e-42
65	0x28ab439d	1.9014136e-14
66	0xbbea541b	-0.0071511394
67	0x3bdf1d70	0.006808929
68	0x3db5a7d2	0.088699
69	0x00000e7d	5.197e-42
70	0x3a3ad2ca	0.0007126747
71	0x0cd6e63d	3.311049e-31
72	0x29dc2c3f	9.777638e-14
73	0x8000ac08	-6.1713e-41
74	0x36a84ecd	5.015964e-06
75	0xa66f229d	-8.296669e-16
76	0xba5b28dc	-0.00083602755
77	0x3b67632a	0.003530691
78	0x0be5aebe	8.8470514e-32
79	0xbbb7633e	-0.0055965474
80	0x0000490a	2.6201e-41
81	0x3eb21ea8	0.34789014
82	0xbe182660	-0.14858389
83	0xbeb9d778	-0.36297202
84	0x3c8f87af	0.017520754
85	0xbebd471b	-0.36968312
86	0xbe04536c	-0.12922448
87	0x0000a90b	6.0641e-41
88	0xa8a9a139	-1.8832688e-14
89	0x26434992	6.775392e-16
90	0x3e95145e	0.291171
91	0x3ccd1013	0.025032079
92	0xbd2678ad	-0.04064243
93	0xbe8cdefa	-0.27513868
94	0x3ec476c4	0.3837186
95	0xbec74a78	-0.38924003

e_conv1.point_conv.bias f4 [32]
0	0xbe25148b	-0.16121118
1	0xac5112f8	-2.9711216e-12
2	0xba8762f5	-0.0010329174
3	0x3f1212c3	0.5705988
4	0xb84a2d90	-4.8202986e-05
5	0x3d90d101	0.07071114
6	0x3e9b295e	0.30304998
7	0xb850433a	-4.9653674e-05
8	0x3d0bfbd8	0.034175724
9	0xbc912b89	-0.017720954
10	0x3ed50f8e	0.4161343
11	0x3eede2f2	0.46462208
12	0x3eac76c4	0.3368436
13	0x3e9a60b0	0.30151892
14	0xbaa03377	-0.0012222369
15	0x3f088cbe	0.53339756
16	0xbdbc092f	-0.09181439
17	0xaf9c7416	-2.845872e-10
18	0xbd8836b7	-0.06651061
19	0xb8ed7371	-0.00011322543
20	0x3ed269b6	0.41096276
21	0xb0363fdf	-6.630198e-10
22	0x3ebf20b3	0.37329635
23	0xbb94d9c8	-0.004542563
24	0xb05997fb	-7.916012e-10
25	0x00002184	1.2023e-41
26	0xbba29b64	-0.0049623717
27	0x3eabdd2a	0.33567172
28	0x3df3a56c	0.11896786
29	0xbb56f546	-0.0032800003
30	0x3eff8d7d	0.49912634
31	0xbdc727eb	-0.097244106

e_conv2.depth_conv.weight f4 [32, 1, 3, 3]
0	0xbd595728	-0.053061634
1	0xbd54866d	-0.05188601
2	0xbd363028	-0.04447952
3	0xbcf17ad2	-0.02947751
4	0xbd0f6155	-0.035004932
5	0xbcb99a2a	-0.022656519
6	0xbcfd9f9b	-0.030959895
7	0xbd168328	-0.036746174
8	0xbcdf91f3	-0.027291274
9	0x157eb0dc	5.143441e-26
10	0x8dd23774	-1.2955599e-30
11	0x00000345	1.173e-42
12	0xa9ec05cf	-1.0481513e-13
13	0x0001049e	9.3492e-41
14	0x8000b16b	-6.3646e-41
15	0x80004c5c	-2.7393e-41
16	0x0000b406	6.458e-41
17	0x2e985a10	6.928158e-11
18	0x0c2bdf69	1.3240591e-31
19	0x0026ec53	3.574526e-39
20	0xac67e68f	-3.295506e-12
21	0x31521565	3.0571183e-09
22	0x2dd46c69	2.4149753e-11
23	0x00005778	3.1378e-41
24	0x9b8e6196	-2.3554993e-22
25	0x80003ed3	-2.2537e-41
26	0x800033f8	-1.8643e-41
27	0xbe9958c6	-0.2995054
28	0xbe8f2b2b	-0.27962622
29	0xbdab5693	-0.08366122
30	0xbdb7bd31	-0.08971632
31	0x3e1e2dd3	0.15447168
32	0x3e93b6ec	0.28850496
33	0x3e8c20da	0.27368814
34	0xbc223cda	-0.009902203
35	0x3ee65c96	0.44992512
36	0xb5c5b0a1	-1.472905e-06
37	0x36c596c8	5.8886108e-06
38	0x351c5761	5.824168e-07
39	0xb62e69c7	-2.598959e-06
40	0x36d76139	6.4188175e-06
41	0x362722fa	2.4905298e-06
42	0xb4c68020	-3.6973597e-07
43	0x36963d04	4.4774515e-06
44	0x3604ea5e	1.9805952e-06
45	0xbcf91651	-0.03040615
46	0x3d4c917f	0.049943443
47	0xbd88bad9	-0.06676263
48	0x3d9e633d	0.07733772
49	0x3e5696cc	0.20955962
50	0xbd30bead	-0.043150593
51	0xbd22231d	-0.039584268
52	0x3bbb8d94	0.0057236645
53	0xbe3f3642	-0.18673041
54	0x3dca19c7	0.09868198
55	0xbb10f954	-0.0022121267
56	0xbe698554	-0.22804767
57	0x3d685802	0.056724556
58	0x3e297634	0.16548997
59	0xbdc15b9a	-0.094413
60	0xbd2a6ea6	-0.04160943
61	0xbb7850f0	-0.003789004
62	0xbea0e4a4	-0.3142444
63	0x2bd52383	1.5144417e-12
64	0x24c7fe99	8.67338e-17
65	0x9b83ad6f	-2.178421e-22
66	0x271f3c62	2.2098416e-15
67	0x0000a3c6	5.8751e-41
68	0xb131ee1a	-2.5892235e-09
69	0x22288b40	2.2841964e-18
70	0xa991e187	-6.478416e-14
71	0xaf065c08	-1.2219925e-10
72	0x3b9c603c	0.004772214
73	0xbae9090a	-0.0017779183
74	0xbbb6e056	-0.005580942
75	0xbb4b8387	-0.0031053738
76	0xbb8fd457	-0.0043893266
77	0xbacd926f	-0.0015683899
78	0xbbd2c7b9	-0.0064325
79	0xbb063657	-0.0020479166
80	0x3be45083	0.0069676056
81	0x3bbb3dce	0.005714155
82	0x3aa72992	0.0012753478
83	0xbc854d6b	-0.016272267
84	0x3c64cbab	0.013964574
85	0x3be94ba9	0.007119615
86	0xbc10718b	-0.008816133
87	0x3c0904f1	0.0083629945
88	0x3ae5a817	0.0017521408
89	0xbc08f98c	-0.008360278
90	0x3ea04434	0.31302035
91	0x3e987207	0.29774496
92	0x3e72322f	0.23651956
93	0x3e97289f	0.2952318
94	0xbc7f08fc	-0.015566107
95	0x3eb30a41	0.3496876
96	0x3e91bc17	0.28463814
97	0x3d9c3baf	0.07628571
98	0x3d6b8490	0.05749947
99	0x3e5cf0a6	0.21576175
100	0xbe65b4a1	-0.22432186
101	0x3e07ae3b	0.13250057
102	0x3d8d67a7	0.06904536
103	0xbe6cc579	-0.23122205
104	0xbe1cb970	-0.15305114
105	0x3e857a74	0.26069987
106	0x3d675306	0.05647566
107	0x3e10aa90	0.14127564
108	0x3eaf6db2	0.34263378
109	0x3de3ab44	0.11116651
110	0x3e4b472e	0.19851372
111	0x3e9234f5	0.28556028
112	0x3e5887b0	0.2114551
113	0x3dd9d2c1	0.10635901
114	0x3e94e6b5	0.29082265
115	0x3e3d5c91	0.18492343
116	0xbd85b1ca	-0.06528051
117	0x3b1d4471	0.0023997093
118	0x3ce7e83b	0.028308978
119	0x3d512a40	0.051065683
120	0x3dda69d7	0.106647186
121	0xbe0ff0d2	-0.1405671
122	0x3e4c3745	0.19942959
123	0xbdedacd5	-0.11605231
124	0x3d0d5465	0.034504313
125	0x3ebe40bc	0.37158763
126	0xade6a1fc	-2.6219908e-11
127	0xa3c71396	-2.1583918e-17
128	0x1b210ba8	1.3321374e-22
129	0x800016de	-8.203e-42
130	0x299ef03c	7.0582835e-14
131	0x0000a69f	5.9772e-41
132	0x26784313	8.6133187e-16
133	0x00009192	5.2221e-41
134	0x16b79db9	2.9664782e-25
135	0xbda7a3b0	-0.08185518
136	0x3e29cc09	0.1658174
137	0xbe241869	-0.16024937
138	0x3dfe56a5	0.1241887
139	0x3e65b678	0.22432888
140	0x3e59c107	0.2126504
141	0xbe29cf86	-0.1658307
142	0xbd8cda6b	-0.068775974
143	0xbd922b6a	-0.07137187
144	0x3de19721	0.11015154
145	0x3e868f6e	0.26281303
146	0x3eb5cc90	0.3550763
147	0x3e09075f	0.13381718
148	0x3d93f6bc	0.07224795
149	0x3e0ae396	0.1356338
150	0xbe353705	-0.1769677
151	0xbd5697b1	-0.052390758
152	0xbe35d843	-0.17758279
153	0x252f767c	1.5218974e-16
154	0x0000255f	1.3406e-41
155	0x00005f04	3.4085e-41
156	0x8000bc9f	-6.7664e-41
157	0x80003d87	-2.2072e-41
158	0x80004c37	-2.7341e-41
159	0x8000632d	-3.5578e-41
160	0x8000a567	-5.9335e-41
161	0x2c94367c	4.212462e-12
162	0xaca84b46	-4.783204e-12
163	0xb0d4f4ce	-1.5494608e-09
164	0xadce2245	-2.3434707e-11
165	0x2cee7450	6.77728e-12
166	0xb1059f1c	-1.944449e-09
167	0x2fd8106f	3.9301848e-10
168	0xae63b9b3	-5.177876e-11
169	0xaca5a697	-4.7080772e-12
170	0xaeb97898	-8.434248e-11
171	0xb3492b52	-4.683836e-08
172	0xb2737878	-1.4171853e-08
173	0xb32c1a20	-4.007063e-08
174	0xb31e5cfc	-3.687181e-08
175	0xb2813a78	-1.5044165e-08
176	0xb2eb3ba7	-2.7384727e-08
177	0xb28a408c	-1.6094667e-08
178	0x3290bc66	1.684948e-08
179	0xb325ce01	-3.8604416e-08
180	0xbd2d1fe2	-0.042266734
181	0x3e841356	0.25796002
182	0xbe577f3e	-0.21044633
183	0xbea4dd75	-0.32200208
184	0xbc6cbc8b	-0.014449249
185	0x3d80036f	0.06250655
186	0xbe901d99	-0.2814758
187	0xbe848281	-0.25880817
188	0xbe901ab3	-0.2814537
189	0x80001e66	-1.0905e-41
190	0x000001bd	6.24e-43
191	0xb133803a	-2.6120817e-09
192	0x97bfe7c5	-1.2401593e-24
193	0x0b73b4e3	4.6936182e-32
194	0x3064fdd0	8.3306606e-10
195	0x0000ff97	9.1688e-41
196	0x930a94ab	-1.7491348e-27
197	0x80000bd9	-4.25e-42
198	0xbd5a2b5b	-0.053264003
199	0xbe0dc387	-0.13844119
200	0x3de48f74	0.11160174
201	0xbdd91bd7	-0.10601013
202	0xbe07b7db	-0.13253729
203	0x3ca898b9	0.020580636
204	0xbd297369	-0.04136983
205	0xbe021bb6	-0.12705883
206	0xbc1173ca	-0.008877704
207	0x800095a8	-5.3687e-41
208	0x000039ff	2.0805e-41
209	0x8000ddbb	-7.9542e-41
210	0x80007bb6	-4.4379e-41
211	0xa3f82768	-2.6904903e-17
212	0x80006183	-3.498e-41
213	0x05d410f5	1.9942613e-35
214	0x000056ee	3.1184e-41
215	0x0000b745	6.5745e-41
216	0x8000909b	-5.1875e-41
217	0x0000b025	6.3189e-41
218	0x13fb6917	6.3464934e-27
219	0x0000db46	7.866e-41
220	0x00002d13	1.617e-41
221	0x800098da	-5.4833e-41
222	0x8000881c	-4.8827e-41
223	0x0000b032	6.3207e-41
224	0x80009503	-5.3455e-41
225	0xb14d7524	-2.9898013e-09
226	0x80001205	-6.464e-42
227	0x00000fff	5.738e-42
228	0xade0262b	-2.5482802e-11
229	0x80009b78	-5.5772e-41
230	0xb12e1074	-2.5329685e-09
231	0x86838bd8	-4.9482205e-35
232	0x80008db2	-5.083e-41
233	0x8000b998	-6.6578e-41
234	0x8000b7e5	-6.5969e-41
235	0xa2906962	-3.9142857e-18
236	0x2e05503c	3.031196e-11
237	0xa58b8f80	-2.4209896e-16
238	0x00003a6d	2.0959e-41
239	0x8000189a	-8.825e-42
240	0xaf6b229e	-2.1385424e-10
241	0x0000c60d	7.1047e-41
242	0x80003f43	-2.2694e-41
243	0x3e9dd69f	0.30827805
244	0xbcdfa936	-0.027302366
245	0x3cdb2483	0.026750809
246	0x3c6a6c86	0.014308101
247	0x3ddbd0e3	0.10733201
248	0x3db38d60	0.087671995
249	0x3cfe569a	0.031047154
250	0xbd34a4d5	-0.04410251
251	0xbb5e8712	-0.003395502
252	0x39f7ead1	0.00047286463
253	0x39129b89	0.00013981586
254	0xb997ea5b	-0.00028975573
255	0xb9ceb127	-0.0003942337

e_conv2.depth_conv.bias f4 [32]
0	0x3dd56d6b	0.104212604
1	0xbe2046a7	-0.15651952
2	0x3cabc942	0.02096999
3	0xbd5877bf	-0.052848574
4	0xbe4cc7c0	-0.19998074
5	0x3e5f0653	0.21779756
6	0x3c3024a7	0.010750926
7	0x3e21b895	0.15793069
8	0x3e94138a	0.28921157
9	0xbe84a207	-0.25904867
10	0x3c02b1f4	0.007976998
11	0xbdb1c550	-0.086802125
12	0xbe6dcf7a	-0.23223677
13	0xbd59632e	-0.0530731
14	0x3e2d2eca	0.1691238
15	0x3e62d229	0.22150482
16	0x3e4a288b	0.19742028
17	0xbd3d834f	-0.046267804
18	0xb14d7573	-2.9898188e-09
19	0x3e42d311	0.19025828
20	0x3e8ba2aa	0.2727254
21	0x3e4c285e	0.19937274
22	0xbdf95a8e	-0.12175475
23	0x3e6be92a	0.23038164
24	0xbdc52131	-0.096254714
25	0xbd2c2722	-0.042029507
26	0x3dbe9b7c	0.09307
27	0xbe7407c6	-0.2383109
28	0xbdf86f1e	-0.12130569
29	0xbe380ec5	-0.17974384
30	0xbdaac3c9	-0.08338124
31	0x3e9b3e34	0.30320895

e_conv2.point_conv.weight f4 [32, 32, 1, 1]
0	0xbcbb63a1	-0.022874655
1	0xbcb66b3c	-0.02226793
2	0xbb6a1080	-0.0035715401
3	0x3de20daf	0.11037766
4	0x3c55c861	0.013048262
5	0xbd783563	-0.06059779
6	0x3d18b307	0.03728011
7	0xbd010b16	-0.031504713
8	0xbd7fd71a	-0.062460996
9	0x3bf55031	0.007486366
10	0x3d6589ee	0.056039743
11	0x3dff421f	0.124637835
12	0x3e07749c	0.13228077
13	0x3c96169b	0.018321326
14	0xbc22fd7e	-0.009948133
15	0xbdef3548	-0.116800845
16	0x3d506798	0.050880045
17	0x3b18d59c	0.002332068
18	0x30cd560f	1.4940172e-09
19	0xbd79d708	-0.060996085
20	0x3e5cc5f2	0.21559885
21	0x3d127914	0.03576
22	0x3d6e1426	0.058124684
23	0xbd8ccd02	-0.0687504
24	0xbbd9474d	-0.006630814
25	0x3bea6766	0.0071534393
26	0xbca0f2a3	-0.019646948
27	0x3d56c781	0.052436356
28	0x3cce499e	0.025181588
29	0x3d043006	0.03227236
30	0xbe1ead07	-0.15495692
31	0xbdb42096	-0.08795278
32	0x3d8fdbe7	0.07024365
33	0xbde8ce24	-0.11367443
34	0x3c6679b2	0.0140671
35	0xbe4992e7	-0.19684945
36	0x3d03deef	0.032195028
37	0x3e035290	0.12824464
38	0x3c85b631	0.016322227
39	0x3cc1654d	0.023607874
40	0x3dca6eaa	0.09884389
41	0xbdd551a3	-0.104159616
42	0x3e8881eb	0.2666162
43	0x3c0f5a29	0.008749523
44	0x3e49dc5c	0.19712967
45	0x3d677e71	0.05651707
46	0xbcb098ca	-0.02155723
47	0x3e28bfb1	0.16479374
48	0x3dbd55bc	0.09244868
49	0xbc8fccf8	-0.017553791
50	0x30f152f8	1.7558639e-09
51	0xbca2432d	-0.019807423
52	0x3dca1ab5	0.09868375
53	0x3d699adb	0.057032447
54	0x3d3929ff	0.045206066
55	0x3e0be8a0	0.13662958
56	0xbc5d40eb	-0.013504247
57	0xbcc653eb	-0.024209937
58	0xbd2d5a5a	-0.042322494
59	0x3dfa5fe8	0.12225324
60	0xbe03d8e0	-0.128757
61	0xbd00bf94	-0.031432703
62	0xbe6d1249	-0.23151506
63	0x3e06d2db	0.13166372
64	0xbb455b87	-0.003011437
65	0x3bd75302	0.0065711746
66	0xbaeab607	-0.0017907032
67	0x3e9f4ad5	0.3111178
68	0x3cbb37a1	0.022853674
69	0x3d0bd7ed	0.03414147
70	0x3d328800	0.04358673
71	0xbca6f4bf	-0.020380376
72	0xbd620d03	-0.05518819
73	0xbd5bd1e8	-0.05366698
74	0xbe0d98a3	-0.13827758
75	0x3cc4ddf1	0.024031611
76	0xbe793aa0	-0.2433877
77	0x3d41036e	0.04712241
78	0xbd174529	-0.03693119
79	0x3ca66821	0.020313324
80	0x3dbf9341	0.09354258
81	0xbbaacf3c	-0.0052126925
82	0xb11b4cda	-2.2599154e-09
83	0x3c9e9ed9	0.019362854
84	0xbdab2a7c	-0.083577126
85	0x3ba901b6	0.0051576747
86	0xbbc368c3	-0.0059634163
87	0x3d9ffe3a	0.07812162
88	0xbb26d275	-0.0025455032
89	0x3b30b6a2	0.0026964326
90	0x3c9c6caf	0.019094793
91	0xbe210620	-0.15724993
92	0xbc6bd4bc	-0.014393982
93	0xbd41fd04	-0.047360435
94	0x3da5574a	0.0807329
95	0xbd022a63	-0.031778704
96	0x2d1e5fa1	9.002494e-12
97	0xac90b042	-4.1122947e-12
98	0x2c86146f	3.8107776e-12
99	0x2b2376f1	5.80743e-13
100	0xad48e7a8	-1.1420122e-11
101	0x2c74a197	3.4764186e-12
102	0xad7cc79d	-1.4368865e-11
103	0x2dd44a08	2.4134486e-11
104	0xac4386b5	-2.7785944e-12
105	0xada47981	-1.86986e-11
106	0xac4f695d	-2.9474958e-12
107	0x2ab80424	3.268784e-13
108	0x2c00f853	1.8327742e-12
109	0x2b607d38	7.975456e-13
110	0x2d0c752a	7.984094e-12
111	0xac115cb6	-2.0657204e-12
112	0x2ce3845d	6.4664233e-12
113	0xac2b7e36	-2.4370623e-12
114	0x9ed26d90	-2.2279929e-20
115	0x2e185246	3.4633872e-11
116	0x2cf9a26f	7.0950394e-12
117	0x2c836c08	3.735238e-12
118	0xacc27d68	-5.5277345e-12
119	0x2d5a3348	1.2403252e-11
120	0xacd10860	-5.941067e-12
121	0xaba13bf2	-1.1456376e-12
122	0x2cb5054e	5.1449183e-12
123	0xa796f6b2	-4.190083e-15
124	0xab637b3f	-8.081764e-13
125	0xac87e6e8	-3.8625665e-12
126	0xae232d46	-3.710212e-11
127	0xac344123	-2.5615697e-12
128	0x3bd689dd	0.0065471963
129	0x3ca5d63c	0.020243756
130	0x3b48cae5	0.0030638513
131	0xbd90d5f0	-0.07072055
132	0x3d22aa30	0.039713085
133	0x3de0f799	0.109847255
134	0xbe214422	-0.15748647
135	0x3a1a8524	0.0005894473
136	0xbce626cc	-0.028094672
137	0xbd13dd28	-0.036099583
138	0xbdcd698a	-0.100298956
139	0xbd109486	-0.035297893
140	0xbda28dfe	-0.07937239
141	0xbd53bfc6	-0.05169656
142	0x3c84ee95	0.016227046
143	0x3e2cfa68	0.16892397
144	0xbb9c6bca	-0.0047735916
145	0xbc4b0421	-0.012391121
146	0xb08e28f3	-1.0343498e-09
147	0x3d3a853e	0.045537226
148	0xba8fc0ce	-0.0010967494
149	0xbc8e5305	-0.017373571
150	0xbbd7315a	-0.0065671625
151	0xbcf7361b	-0.030177167
152	0xbcc185fc	-0.023623459
153	0xbbfd9aff	-0.0077394242
154	0x3cadd900	0.021221638
155	0x3c6c155a	0.0144093875
156	0xbc6f0b0a	-0.014590034
157	0xbd2cce2b	-0.042188805
158	0x3d3a7b1c	0.045527562
159	0xbd5f64a1	-0.054539327
160	0x3c991fcf	0.018691925
161	0xbcafc28f	-0.021455077
162	0x3b86e31d	0.0041164295
163	0xbe219717	-0.15780292
164	0xbcd3c043	-0.025848513
165	0x3d074ce6	0.03303232
166	0x3dc22d6b	0.09481319
167	0x3cb2b727	0.02181585
168	0x3cfa8113	0.030579126
169	0xbcf55c33	-0.02995119
170	0x3e028d4f	0.12749217
171	0xbd16f8b4	-0.036858276
172	0x3dd90a42	0.1059766
173	0xbcfa2f2f	-0.030540077
174	0x3cbd18b1	0.023083063
175	0x3d020dd7	0.03175148
176	0xbc07de58	-0.008292757
177	0xbc055f78	-0.008140437
178	0x30f1a336	1.7581445e-09
179	0x3c9b0c79	0.018926846
180	0x3db96878	0.09053129
181	0x3cdf59ea	0.027264554
182	0xbd043640	-0.0322783
183	0x3cbc6cfd	0.023001188
184	0xbc6e7aa6	-0.014555609
185	0xbbf2520f	-0.007395036
186	0x3c758832	0.014986085
187	0x3d576ae7	0.052592184
188	0xbc8c98f6	-0.017162781
189	0xbcc34103	-0.023834711
190	0xbaea3710	-0.0017869193
191	0x3e0e0637	0.13869558
192	0x3b88e38d	0.004177517
193	0x3cba5e62	0.022750083
194	0x39f584cb	0.0004682898
195	0x3e4dd438	0.20100486
196	0xbccfe278	-0.025376543
197	0xbe43f257	-0.19135414
198	0x3e44193d	0.19150253
199	0x3c5f8c43	0.013644281
200	0x3aeea32f	0.0018206591
201	0xbd374b04	-0.044749275
202	0x3ec4f232	0.3846603
203	0x3e7724cf	0.24135135
204	0x3e36d661	0.17855217
205	0x3e795ff8	0.24353015
206	0x3c93ce2f	0.018042652
207	0xbdbbc66d	-0.09168706
208	0x3e2327d1	0.15933158
209	0xbac9e2b2	-0.0015402643
210	0x31727fe0	3.5288323e-09
211	0x3d120850	0.03565246
212	0xbd693a20	-0.056940198
213	0x3cec0bc3	0.028814202
214	0x3d327df3	0.043577146
215	0x3c816b6e	0.015798297
216	0x3b25f183	0.0025320954
217	0xbad10baf	-0.0015948917
218	0x3c80984c	0.01569762
219	0x3d99168c	0.074750036
220	0xbbaeaf8e	-0.0053309863
221	0x3ca09530	0.019602388
222	0xbe2f8df4	-0.17143995
223	0x3e20c036	0.15698323
224	0xad0da496	-8.0514675e-12
225	0xad06e223	-7.6672306e-12
226	0xaa499eba	-1.7907456e-13
227	0x2c6161b5	3.2028661e-12
228	0xadb12783	-2.0140117e-11
229	0x2d4811cd	1.1372636e-11
230	0x2c03a994	1.8710354e-12
231	0xacf5bdc0	-6.9843853e-12
232	0x2d65e76e	1.3068531e-11
233	0xad344035	-1.0246072e-11
234	0xaafed339	-4.526603e-13
235	0x2c05f7cb	1.903799e-12
236	0xacd1430e	-5.947582e-12
237	0x2ca3ecde	4.659036e-12
238	0x2d090ea4	7.790799e-12
239	0xadce291e	-2.3437748e-11
240	0x2d114fab	8.259986e-12
241	0x2bec303f	1.67822e-12
242	0x9f0861d3	-2.888004e-20
243	0x2cc0868c	5.471906e-12
244	0x2de0108f	2.5473205e-11
245	0xad6233dc	-1.2858128e-11
246	0x2dee9085	2.7121647e-11
247	0xad8816bd	-1.5471508e-11
248	0x2c959a90	4.2519946e-12
249	0x2b4d924f	7.3033674e-13
250	0xacd5fd32	-6.0819344e-12
251	0xad42930f	-1.1060277e-11
252	0x2c20e271	2.2863068e-12
253	0xac1c39bc	-2.2200982e-12
254	0x2dd311b1	2.399578e-11
255	0x2c83fef3	3.751549e-12

e_conv2.point_conv.bias f4 [32]
0	0x3dc383d0	0.095466256
1	0x3d810aa1	0.063008554
2	0x3dc4b50a	0.09604843
3	0x2d6554d2	1.3035977e-11
4	0x3e201097	0.15631329
5	0x3da00cf2	0.07814969
6	0xbbfba384	-0.0076794047
7	0x2d84fa63	1.5117857e-11
8	0x3d6172d7	0.05504116
9	0x3e0013c0	0.12507534
10	0x3ae6b6ef	0.0017602126
11	0xbd32f8d4	-0.043694332
12	0x3bfef384	0.007780494
13	0x3e45e60d	0.19326039
14	0x3d91dd07	0.07122236
15	0xa7a1aa07	-4.487082e-15
16	0xb2ab0798	-1.9910473e-08
17	0x3cbda4e3	0.023149913
18	0x3d0a5350	0.03377086
19	0xb3baec6e	-8.704306e-08
20	0xbd8e6d8a	-0.06954487
21	0xbc03125a	-0.007999981
22	0x3cd4a566	0.025957774
23	0xbb8bddc2	-0.004268379
24	0x3d48188a	0.048851527
25	0xbccdef9a	-0.025138665
26	0x3d3622e9	0.044466887
27	0xbddc3477	-0.107521944
28	0xab169937	-5.3503333e-13
29	0x3c0f519f	0.008747487
30	0x3d638957	0.0555509
31	0x3dcbc0da	0.09948893

e_conv3.depth_conv.weight f4 [32, 1, 3, 3]
0	0x16b3320c	2.8950594e-25
1	0x277d96b6	3.5192504e-15
2	0x20cdc0cf	3.485594e-19
3	0x2fd70f2c	3.9119052e-10
4	0x96bf7183	-3.092935e-25
5	0x274c54da	2.8356685e-15
6	0x17101cb0	4.656512e-25
7	0x16af0ee4	2.8282172e-25
8	0x1688d07a	2.2103552e-25
9	0xa2559515	-2.8945806e-18
10	0x99a8134e	-1.737859e-23
11	0x96bce092	-3.0514762e-25
12	0x96adf8fe	-2.8106794e-25
13	0x97ac9065	-1.115169e-24
14	0x2eb0afd6	8.034788e-11
15	0x953a8640	-3.7668305e-26
16	0x97c0f9c7	-1.2470762e-24
17	0x985a6603	-2.8227342e-24
18	0xa89a1a17	-1.710875e-14
19	0x19cc6ae0	2.1136272e-23
20	0x19fe399b	2.6286251e-23
21	0x193e9db0	9.8546145e-24
22	0x19096b5a	7.1044135e-24
23	0x1a04fe14	2.7502203e-23
24	0xb15c40d1	-3.2051057e-09
25	0xa93d4de8	-4.2034003e-14
26	0x24b9dfed	8.0610306e-17
27	0x00000141	4.5e-43
28	0x189ec7d9	4.1043837e-24
29	0x1f55806c	4.5210733e-20
30	0x2c510605	2.9704028e-12
31	0x2d94f2c6	1.6933465e-11
32	0x3186fd9f	3.9287467e-09
33	0x130cd3b7	1.7774868e-27
34	0x800040fc	-2.3312e-41
35	0xb1742caf	-3.5532073e-09
36	0x17b4cbb6	1.1683651e-24
37	0x22a46f1d	4.4569935e-18
38	0x9896b619	-3.8957963e-24
39	0xb0379715	-6.678971e-10
40	0x99917e24	-1.5043596e-23
41	0x30abbf3a	1.2496237e-09
42	0x98cb85ba	-5.26093e-24
43	0x998c9b34	-1.4538347e-23
44	0x98bd5270	-4.8938596e-24
45	0x18d4d256	5.50131e-24
46	0x9826317d	-2.1479982e-24
47	0x174f4348	6.697023e-25
48	0xadb73af0	-2.0830865e-11
49	0x989c0f25	-4.0340347e-24
50	0x98c0b0d5	-4.980939e-24
51	0x30c131bd	1.4056735e-09
52	0x97f8065d	-1.6028231e-24
53	0x18eb02e3	6.074899e-24
54	0x1787f0ec	8.784988e-25
55	0x18036ea4	1.6987212e-24
56	0x969f0d0a	-2.5696064e-25
57	0xb01a4fec	-5.613845e-10
58	0x1823f0ac	2.1188764e-24
59	0x1724f0c4	5.3295147e-25
60	0x1750b8be	6.74416e-25
61	0x186a7513	3.0302899e-24
62	0x976435ef	-7.3738847e-25
63	0x0000c764	7.1528e-41
64	0xa1982410	-1.0309466e-18
65	0x00614627	8.933209e-39
66	0x2e77bd59	5.6329472e-11
67	0x1f5674ce	4.541288e-20
68	0x2a5b1f4e	1.9461968e-13
69	0x80002768	-1.4136e-41
70	0x0000057a	1.965e-42
71	0x1b4f200b	1.7132992e-22
72	0x9b0d14b4	-1.1669936e-22
73	0x31a556ba	4.8119917e-09
74	0x9a3d6669	-3.916701e-23
75	0xa0b5979b	-3.0762917e-19
76	0x2baa991e	1.2121725e-12
77	0x1952fc2a	1.090767e-23
78	0x9ac51acc	-8.152058e-23
79	0x9aebcdba	-9.752609e-23
80	0x9aff0a79	-1.0548245e-22
81	0x99a8099a	-1.7374671e-23
82	0xae99970f	-6.984468e-11
83	0x315d7a17	3.2229133e-09
84	0x98830b90	-3.387438e-24
85	0x99265e7f	-8.601082e-24
86	0x2b13a639	5.245557e-13
87	0x9a0b7e8c	-2.884675e-23
88	0x2bfd206d	1.7985731e-12
89	0x2c4330f3	2.773834e-12
90	0x920c3ea1	-4.4253407e-28
91	0x9382baa3	-3.300065e-27
92	0x91ae3588	-2.748535e-28
93	0x2e4e854a	4.695736e-11
94	0x927999db	-7.876019e-28
95	0x94f57a91	-2.4787022e-26
96	0xaaa61c9c	-2.9507375e-13
97	0x91107b02	-1.1397502e-28
98	0xae404aab	-4.3722064e-11
99	0x8a8f6acc	-1.3810572e-32
100	0x89904001	-3.4726928e-33
101	0x0aaac167	1.6443154e-32
102	0x09ebf520	5.6804707e-33
103	0x0a3ccb6c	9.09013e-33
104	0x0a89af0f	1.325847e-32
105	0x0843d16d	5.8926857e-34
106	0x09c7edc3	4.8131097e-33
107	0x26238814	5.6736406e-16
108	0x1a847d5f	5.479647e-23
109	0x1b5527b2	1.7631773e-22
110	0x9a3fb2cd	-3.9642308e-23
111	0xa749191d	-2.7907967e-15
112	0x1b1983ca	1.2698447e-22
113	0xb19884a7	-4.438863e-09
114	0x1b30a8ca	1.4612917e-22
115	0x1b789113	2.0560955e-22
116	0x1aa121a4	6.664239e-23
117	0x1ec6e147	2.1057238e-20
118	0x1eaa5f29	1.8038807e-20
119	0x25b1468a	3.0752405e-16
120	0x277f46c4	3.542672e-15
121	0x9ca5ccf5	-1.0971764e-21
122	0x1cda6859	1.4453003e-21
123	0x1db44558	4.7717303e-21
124	0x1dd2d74f	5.580916e-21
125	0x1ed5c802	2.2634974e-20
126	0x9735eaba	-5.878052e-25
127	0xa8ab3571	-1.900799e-14
128	0x99c7d0c1	-2.0660433e-23
129	0x2efb0365	1.14147615e-10
130	0x169ee971	2.56736e-25
131	0x17975605	9.779861e-25
132	0x9785dd0b	-8.650723e-25
133	0x98118727	-1.8809045e-24
134	0xa6061f9c	-4.653343e-16
135	0x29814a62	5.741654e-14
136	0x8000000e	-2e-44
137	0x23ee92cf	2.5866188e-17
138	0x80000375	-1.24e-42
139	0x80007d84	-4.5027e-41
140	0xa990deb3	-6.433517e-14
141	0x80011508	-9.938e-41
142	0xaf56266d	-1.9476838e-10
143	0x2e20e3d2	3.6582133e-11
144	0x8cf3b8c8	-3.755129e-31
145	0xb1d63d95	-6.235221e-09
146	0x2dee035c	2.705896e-11
147	0x02024329	9.570166e-38
148	0x87376639	-1.379743e-34
149	0x2efccb3a	1.14957335e-10
150	0x0193466d	5.410033e-38
151	0xa86250eb	-1.25630665e-14
152	0x9f763f7d	-5.2145043e-20
153	0x944037c9	-9.7045245e-27
154	0x13d14bde	5.283383e-27
155	0x94f86f00	-2.5085382e-26
156	0x13bf4bc5	4.8289893e-27
157	0xa90509c2	-2.9540396e-14
158	0x955b94a4	-4.4343955e-26
159	0x14966ca3	1.5188979e-26
160	0x14b40a5b	1.817944e-26
161	0xad62fc58	-1.2902644e-11
162	0x21ce9b2f	1.400018e-18
163	0x97980972	-9.825154e-25
164	0x98488dd8	-2.5921007e-24
165	0x9753b2ed	-6.8403613e-25
166	0x2eeed3d3	1.08606145e-10
167	0x964b1fcc	-1.6408243e-25
168	0x97567410	-6.929362e-25
169	0x98ad79b2	-4.4842333e-24
170	0x98144914	-1.9165447e-24
171	0x02eed3a7	3.509244e-37
172	0x019041d5	5.299171e-38
173	0x023d6ac9	1.3916173e-37
174	0x022bef87	1.2631837e-37
175	0x02e7f19c	3.4081076e-37
176	0xb08040a6	-9.3316e-10
177	0x02f2b36b	3.5661685e-37
178	0x0259382f	1.5958766e-37
179	0x92ee70ce	-1.504772e-27
180	0x1b3caca8	1.5606784e-22
181	0x1a5411a6	4.385483e-23
182	0x1a21a600	3.3428113e-23
183	0x1a0cacfc	2.9091057e-23
184	0x1a0ce6a0	2.913762e-23
185	0xa3d05eb2	-2.259151e-17
186	0x24151ef9	3.233546e-17
187	0xb1b5eafe	-5.294509e-09
188	0x1b4e71e7	1.7076724e-22
189	0x9d4be986	-2.6987555e-21
190	0x1c081dc9	4.503712e-22
191	0x8827bff7	-5.048039e-34
192	0x07611c03	1.693535e-34
193	0x07006d3e	9.661753e-35
194	0x07cb8f66	3.0628327e-34
195	0x0786768e	2.023176e-34
196	0x1fbbed1f	7.9589865e-20
197	0x0770fe49	1.8130321e-34
198	0x968badab	-2.256626e-25
199	0xa98f233e	-6.356589e-14
200	0x195de612	1.14718945e-23
201	0x238319e3	1.4214012e-17
202	0x1801ce6e	1.677708e-24
203	0xacbcf3d6	-5.3703526e-12
204	0x9584df20	-5.3666405e-26
205	0x2eaa1b07	7.735506e-11
206	0xa4850109	-5.768131e-17
207	0xac19cdc6	-2.1856835e-12
208	0x9f4e9cb3	-4.3751815e-20
209	0x191f63b2	8.240241e-24
210	0x3178e7b9	3.6220469e-09
211	0x18015970	1.6718014e-24
212	0x2ab624a1	3.235511e-13
213	0x97f2386e	-1.5653128e-24
214	0x17050820	4.2984873e-25
215	0x97362d72	-5.886473e-25
216	0x1755de26	6.9104403e-25
217	0xac70ac07	-3.4201546e-12
218	0x2e98ff29	6.957485e-11
219	0x162f34be	1.415303e-25
220	0xacaa0cc7	-4.833109e-12
221	0x14fcdd89	2.5532878e-26
222	0x1791fe56	9.434609e-25
223	0x17831dae	8.473169e-25
224	0x9abcdd5d	-7.811261e-23
225	0x1421a3aa	8.1607e-27
226	0x14bd988f	1.9144297e-26
227	0xa29d5fa8	-4.2656215e-18
228	0x92db89e8	-1.385484e-27
229	0x940efb79	-7.218762e-27
230	0x2d49477c	1.14414e-11
231	0x93e1a8ef	-5.6964567e-27
232	0x9a36f151	-3.7831652e-23
233	0x14731581	1.2272606e-26
234	0x94971808	-1.5256582e-26
235	0x156816f0	4.687012e-26
236	0x14e0ed18	2.2711737e-26
237	0x15d5f97e	8.6423644e-26
238	0x15c4d085	7.9492755e-26
239	0x96172544	-1.2209442e-25
240	0xa02e9b00	-1.4789658e-19
241	0x15b04a36	7.120292e-26
242	0xaf7e872f	-2.3149192e-10
243	0xa9bbc5dc	-8.3387914e-14
244	0x180b0e86	1.7972661e-24
245	0x97c7d1d4	-1.2913042e-24
246	0xa901d5b3	-2.882911e-14
247	0xa1abaf09	-1.1633742e-18
248	0x3089ae50	1.0017605e-09
249	0x97c3ba41	-1.2648597e-24
250	0x18244992	2.1233647e-24
251	0xafbd9d9e	-3.4490893e-10
252	0x2fea4214	4.2611303e-10
253	0x8000b083	-6.332e-41
254	0xa1a7e9f3	-1.1378286e-18
255	0xa18e206a	-9.630874e-19

e_conv3.depth_conv.bias f4 [32]
0	0x9804b803	-1.7153502e-24
1	0x1f8980c6	5.8234795e-20
2	0x99553682	-1.102285e-23
3	0x90ea1b0e	-9.233841e-29
4	0xa54bf774	-1.7691284e-16
5	0x99882349	-1.4076322e-23
6	0x1fb93f5e	7.845538e-20
7	0x8939e412	-2.2375803e-33
8	0x1b27807e	1.3855434e-22
9	0x16febd4d	4.115538e-25
10	0x14a56c9f	1.6703586e-26
11	0x8d3eebb6	-5.8831997e-31
12	0x9aeb1879	-9.723326e-23
13	0x9e3fb1d2	-1.0148228e-20
14	0xad7587c1	-1.3956781e-11
15	0x040a8963	1.6284907e-36
16	0x8fd67479	-2.1146893e-29
17	0x15da9b98	8.829498e-26
18	0x979dd712	-1.0200179e-24
19	0x0d523e9a	6.47866e-31
20	0x1a3ef423	3.948829e-23
21	0x8905a8d1	-1.608867e-33
22	0x30d931b9	1.580296e-09
23	0xb0025293	-4.741107e-10
24	0xaf9eb773	-2.887038e-10
25	0x15fe0a59	1.0260611e-25
26	0x23ec59eb	2.5625253e-17
27	0x99267e02	-8.607446e-24
28	0x06b7851f	6.9032553e-35
29	0x948a22bb	-1.3948138e-26
30	0x26118b8d	5.049611e-16
31	0x22fa7ac1	6.7892607e-18

e_conv3.point_conv.weight f4 [32, 32, 1, 1]
0	0x92fdb8e5	-1.6012125e-27
1	0x12a9e5fc	1.0722095e-27
2	0x953276cb	-3.6040525e-26
3	0x80005c01	-3.3005e-41
4	0x1472b38c	1.2253287e-26
5	0x944c7b19	-1.0323645e-26
6	0x128e7418	8.990079e-28
7	0x84653fd9	-2.6948138e-36
8	0x16985edc	2.461679e-25
9	0x1580511e	5.182677e-26
10	0x908d5dd8	-5.575928e-29
11	0x87e49668	-3.4394028e-34
12	0x9613f574	-1.1952017e-25
13	0x8ce3af68	-3.5080457e-31
14	0x934a1370	-2.5505568e-27
15	0x000056ed	3.1183e-41
16	0x876a793d	-1.7639832e-34
17	0x0f916558	1.433714e-29
18	0x14028df7	6.59132e-27
19	0x8924960a	-1.981133e-33
20	0x966d31e2	-1.9160448e-25
21	0x00330875	4.686644e-39
22	0x94d7d1ad	-2.1792155e-26
23	0x9515d935	-3.0261657e-26
24	0x138a4b6c	3.491047e-27
25	0x8fdda82b	-2.1857058e-29
26	0x136703a4	2.9158094e-27
27	0x13d76c9d	5.438073e-27
28	0x802809c6	-3.676926e-39
29	0x0e3d8984	2.336226e-30
30	0x16704cc2	1.9411266e-25
31	0x94abbf6b	-1.7342089e-26
32	0x1114a863	1.172703e-28
33	0x90081753	-2.683924e-29
34	0x12c19e92	1.2219103e-27
35	0x00003019	1.7254e-41
36	0x91cb769b	-3.210085e-28
37	0x921139ff	-4.582542e-28
38	0x915fd924	-1.765851e-28
39	0x00008854	4.8905e-41
40	0x93b112ec	-4.469974e-27
41	0x928a3c41	-8.723878e-28
42	0x0d4f6143	6.3903874e-31
43	0x04c1e346	4.55828e-36
44	0x130a5570	1.7460173e-27
45	0x89a3adbb	-3.9404198e-33
46	0x9116c6dd	-1.1894193e-28
47	0x80000336	-1.152e-42
48	0x05824f40	1.2254253e-35
49	0x0dded22a	1.37324015e-30
50	0x9114b61c	-1.1731258e-28
51	0x019556f5	5.4858733e-38
52	0x940b8837	-7.04457e-27
53	0x800a8366	-9.65492e-40
54	0x920c0a6b	-4.418905e-28
55	0x1285f2eb	8.453364e-28
56	0x124f98ad	6.550587e-28
57	0x8b7b70b2	-4.8425624e-32
58	0x0fc12d99	1.9048833e-29
59	0x8ffc6ec6	-2.4891787e-29
60	0x8000544e	-3.0243e-41
61	0x8c693189	-1.7964574e-31
62	0x93e9bef2	-5.9005756e-27
63	0x115fb250	1.7646545e-28
64	0x9d75de6c	-3.254047e-21
65	0x9d29392e	-2.2396525e-21
66	0x1f65c852	4.8658337e-20
67	0x04753f47	2.8828667e-36
68	0x9da3dd03	-4.337426e-21
69	0x9ea494f4	-1.7425781e-20
70	0x9c85a02f	-8.842608e-22
71	0x0f13dfbc	7.290749e-30
72	0x9f025368	-2.7597563e-20
73	0x9e605a27	-1.1877104e-20
74	0x98daf9f7	-5.660408e-24
75	0x1145ffb1	1.5619351e-28
76	0x200a3eb8	1.1709807e-19
77	0x15b58133	7.330916e-26
78	0x9c4d5017	-6.7932324e-22
79	0x05cd2c33	1.9294344e-35
80	0x936c5500	-2.9829296e-27
81	0x18bcb53c	4.877986e-24
82	0x9d3e3d1f	-2.517789e-21
83	0x12a11e9c	1.0168074e-27
84	0x1fa9d674	7.192907e-20
85	0x8d9f9477	-9.834873e-31
86	0x1ec1052e	2.0436812e-20
87	0x1ee85a56	2.4601318e-20
88	0x1cf2fa87	1.6078976e-21
89	0x1a03cb3c	2.7254336e-23
90	0x1bf9441f	4.1237617e-22
91	0x1ea0e404	1.7034964e-20
92	0x09eeb1a1	5.7463457e-33
93	0x9919e9be	-7.9571185e-24
94	0x20960eed	2.5420865e-19
95	0x9fcc26e9	-8.646173e-20
96	0x00004a5d	2.6677e-41
97	0x00009f9a	5.7254e-41
98	0x0000bd1b	6.7838e-41
99	0x8000cd8c	-7.3736e-41
100	0x0000004d	1.08e-43
101	0x0000b13b	6.3578e-41
102	0x00005fc0	3.4349e-41
103	0x80003654	-1.9489e-41
104	0x80006e11	-3.9484e-41
105	0x000069ca	3.795e-41
106	0x800073fa	-4.1605e-41
107	0x00009cea	5.629e-41
108	0x800076ef	-4.2665e-41
109	0x00005385	2.9961e-41
110	0x80009bd2	-5.5898e-41
111	0x80000e7a	-5.193e-42
112	0x80000689	-2.344e-42
113	0x8000a530	-5.9258e-41
114	0x800144a0	-1.16454e-40
115	0x00001ff0	1.1457e-41
116	0x0000b9bf	6.6633e-41
117	0x80009533	-5.3523e-41
118	0x00000f7b	5.553e-42
119	0x8000a9a2	-6.0853e-41
120	0x00009dd2	5.6615e-41
121	0x00010012	9.1861e-41
122	0x8000ced0	-7.419e-41
123	0x0000a9a7	6.086e-41
124	0x8000ea06	-8.3952e-41
125	0x0000228a	1.239e-41
126	0x00001d28	1.0459e-41
127	0x80001844	-8.705e-42
128	0x914cf105	-1.6167032e-28
129	0x110e5670	1.122846e-28
130	0x94865b29	-1.3566499e-26
131	0x80002a60	-1.5201e-41
132	0x927b0db4	-7.9218525e-28
133	0x131abdf8	1.9531195e-27
134	0x12fdbee5	1.6013604e-27
135	0x02b26e70	2.6218137e-37
136	0x15ba7e36	7.532393e-26
137	0x14ba7073	1.8825554e-26
138	0x0de6b915	1.4219401e-30
139	0x85c50042	-1.8525886e-35
140	0x95407db9	-3.887327e-26
141	0x0bbe4a5d	7.329723e-32
142	0x92851fa9	-8.401285e-28
143	0x80001088	-5.93e-42
144	0x8356d083	-6.3128307e-37
145	0x900caa60	-2.7741384e-29
146	0x91fdc33e	-4.003669e-28
147	0x889209aa	-8.789327e-34
148	0x95ba521e	-7.525436e-26
149	0x8051d742	-7.515895e-39
150	0x15a9c52f	6.856966e-26
151	0x936c1584	-2.9797996e-27
152	0x937ee8e9	-3.217414e-27
153	0x0ea23f8a	3.999727e-30
154	0x920c646b	-4.4299985e-28
155	0x13f4e132	6.181632e-27
156	0x8008463e	-7.59882e-40
157	0x0e020e34	1.6030576e-30
158	0x15cbe4c8	8.2352e-26
159	0x94bfbbd1	-1.9360152e-26
160	0x21ac31a0	1.1668309e-18
161	0xa229e0f7	-2.3022866e-18
162	0x24a005c9	6.939874e-17
163	0x8f8885d6	-1.3462187e-29
164	0xa38ccc30	-1.5265307e-17
165	0x2310e651	7.855027e-18
166	0xa2b2512c	-4.833294e-18
167	0x93ab2e71	-4.3212263e-27
168	0xa3393a37	-1.00411976e-17
169	0xa485acd4	-5.797234e-17
170	0x9f78a82f	-5.265516e-20
171	0x96f672d5	-3.9815913e-25
172	0xa41bb172	-3.376057e-17
173	0x1c846c34	8.762997e-22
174	0x22a4edcf	4.470408e-18
175	0x8d447bc8	-6.054616e-31
176	0x17363a5d	5.8881036e-25
177	0xa050fd70	-1.7702141e-19
178	0xa1c502f9	-1.3350026e-18
179	0x18839e13	3.402232e-24
180	0xa4a63a75	-7.2090054e-17
181	0x939a313b	-3.892361e-27
182	0xa2a0ba80	-4.356555e-18
183	0x233466cd	9.7795885e-18
184	0x22ced7a1	5.6064718e-18
185	0x1f77ba1b	5.2458227e-20
186	0x1efd2923	2.680443e-20
187	0xa36e9105	-1.2932715e-17
188	0x91116b3d	-1.1471528e-28
189	0x1e161b1d	7.946541e-21
190	0xa4b6c7aa	-7.926816e-17
191	0xa4bb8811	-8.132883e-17
192	0x17120686	4.718338e-25
193	0x16277458	1.3526864e-25
194	0x97420269	-6.2687823e-25
195	0x8176a521	-4.5301538e-38
196	0x175e3e3d	7.1810624e-25
197	0x1746bc0b	6.4214594e-25
198	0x97c3e73a	-1.2659949e-24
199	0x86ddd7ec	-8.344823e-35
200	0x1732f937	5.7829455e-25
201	0x1899eb75	3.9787324e-24
202	0x926dd9ff	-7.5052715e-28
203	0x09c9ff6f	4.86292e-33
204	0x990697f2	-6.958323e-24
205	0x0eb31050	4.4142615e-30
206	0x16049cb9	1.0712328e-25
207	0x0000a8de	6.0578e-41
208	0x0a336d10	8.639049e-33
209	0x145435fa	1.071391e-26
210	0x152f99f7	3.5462425e-26
211	0x878268be	-1.9621788e-34
212	0x99bfed16	-1.9844695e-23
213	0x064c745d	3.8453626e-35
214	0x1772b7b1	7.842627e-25
215	0x181b5f67	2.0081446e-24
216	0x964fdec7	-1.6791623e-25
217	0x13da33ae	5.5081897e-27
218	0x958f1df7	-5.7804516e-26
219	0x98165f5d	-1.9435192e-24
220	0x02059b5a	9.81588e-38
221	0x92472bdf	-6.2847403e-28
222	0x9715fc9a	-4.8463325e-25
223	0x18aa2b1b	4.3987495e-24
224	0x990eb52f	-7.377818e-24
225	0x18562b4f	2.7680717e-24
226	0x1aafc27b	7.2692504e-23
227	0x041c9860	1.8407679e-36
228	0x999fbf53	-1.651749e-23
229	0x9a0f7b88	-2.9671495e-23
230	0x19f3a43a	2.5191942e-23
231	0x87bf4905	-2.8781403e-34
232	0x9b31c405	-1.4704434e-22
233	0x9ad648b0	-8.862576e-23
234	0x941378cd	-7.445427e-27
235	0x8d398666	-5.7169303e-31
236	0x1b538184	1.749536e-22
237	0x9187afab	-2.1407508e-28
238	0x17b1b941	1.1485122e-24
239	0x02d0814d	3.0637068e-37
240	0x8d436388	-6.020882e-31
241	0x93860ffb	-3.3842114e-27
242	0x19931ca7	1.5211016e-23
243	0x0e53bc4c	2.609842e-30
244	0x1a8ae08a	5.7438225e-23
245	0x88122d76	-4.3988716e-34
246	0x9a2b6419	-3.544283e-23
247	0x1a3b0e3b	3.868219e-23
248	0x19989d14	1.5779875e-23
249	0x94d67dc3	-2.1658082e-26
250	0x181b249d	2.0051765e-24
251	0x19033128	6.782468e-24
252	0x8628fb7d	-3.1782053e-35
253	0x13c59b5a	4.988298e-27
254	0x9b500ffd	-1.7210523e-22
255	0x1af17c21	9.9875805e-23

e_conv3.point_conv.bias f4 [32]
0	0x24ab5ed2	7.432006e-17
1	0xa13df9f4	-6.43665e-19
2	0xad18b4e2	-8.680364e-12
3	0x182fe35a	2.2733003e-24
4	0x23b291cf	1.9360551e-17
5	0x36d3aeb0	6.3086263e-06
6	0xa6b4741f	-1.2521484e-15
7	0xaa08ce5b	-1.215082e-13
8	0xa1003b65	-4.3446695e-19
9	0x31621c55	3.2903433e-09
10	0xa27fb05c	-3.4652308e-18
11	0xa80310d9	-7.275614e-15
12	0x3300341d	2.984972e-08
13	0xa0f2e5ba	-4.1148415e-19
14	0xa64df441	-7.145469e-16
15	0xaa03d375	-1.1708501e-13
16	0xab10ccf9	-5.1443534e-13
17	0xa0972764	-2.5606462e-19
18	0x94e9c885	-2.3606079e-26
19	0x9419b7a1	-7.7607404e-27
20	0x3789c198	1.6421822e-05
21	0xa57dfa08	-2.2028966e-16
22	0x26474928	6.914114e-16
23	0xa5c1cd1d	-3.3619153e-16
24	0xaaaa18f5	-3.0215384e-13
25	0x211f19f4	5.3905644e-19
26	0x2635a7ad	6.3024233e-16
27	0x1e9c29bf	1.6534408e-20
28	0xa9a36fe1	-7.258062e-14
29	0x2d96e4a6	1.7154566e-11
30	0xa103ac01	-4.461217e-19
31	0xabbad521	-1.327525e-12

e_conv4.depth_conv.weight f4 [32, 1, 3, 3]
0	0x2c506fe3	2.9620687e-12
1	0x800683cc	-5.98293e-40
2	0x2cf2370b	6.8841647e-12
3	0x800006f0	-2.489e-42
4	0x2ef02fb4	1.092241e-10
5	0x8003ab70	-3.37007e-40
6	0x9a9586f7	-6.1843e-23
7	0x944f605e	-1.0469834e-26
8	0x000158f5	1.23747e-40
9	0x80006966	-3.781e-41
10	0x0000c4f6	7.0656e-41
11	0x00007458	4.1736e-41
12	0x8000c947	-7.2205e-41
13	0x800023df	-1.2868e-41
14	0x0c0ea742	1.0989614e-31
15	0x29ad4432	7.694573e-14
16	0x0000ba48	6.6825e-41
17	0x80004fd9	-2.8644e-41
18	0x26c10ebb	1.3396058e-15
19	0x240fe57c	3.1202563e-17
20	0x93c00b7e	-4.8478946e-27
21	0x1426db8a	8.424155e-27
22	0x93baccbd	-4.715489e-27
23	0x2bb6933c	1.2972744e-12
24	0x93e91d20	-5.884619e-27
25	0x9374d8fa	-3.0904107e-27
26	0xb01708b8	-5.494587e-10
27	0x1851be2c	2.710863e-24
28	0x938ca118	-3.549982e-27
29	0xaba8d0c5	-1.1995063e-12
30	0x8000e924	-8.3635e-41
31	0x1ce32b98	1.5032869e-21
32	0x97ad8083	-1.1212304e-24
33	0x80002428	-1.297e-41
34	0x80006798	-3.7162e-41
35	0xa20e1cbd	-1.9259802e-18
36	0x1c349a2e	5.9756277e-22
37	0x0000f423	8.758e-41
38	0x80006eb3	-3.9711e-41
39	0x8000329a	-1.8152e-41
40	0x190de979	7.3366786e-24
41	0x21d3f312	1.4362256e-18
42	0x0000ceaf	7.4144e-41
43	0x2d4b1822	1.1544573e-11
44	0x000107ef	9.4682e-41
45	0x216a4f11	7.9386927e-19
46	0x14ceef49	2.0895066e-26
47	0x96018248	-1.0461647e-25
48	0x14c3a9ad	1.9756893e-26
49	0x141d79d4	7.950501e-27
50	0x1500bbbb	2.5997487e-26
51	0x140c6ecb	7.090044e-27
52	0x13e82986	5.860598e-27
53	0x126427f1	7.1993346e-28
54	0x2b230447	5.791517e-13
55	0x8000f2e8	-8.7138e-41
56	0x2a10fe6b	1.2878038e-13
57	0x00003b27	2.122e-41
58	0x00004c8f	2.7464e-41
59	0x31bcda10	5.496311e-09
60	0x0000f145	8.6551e-41
61	0x80005c47	-3.3103e-41
62	0x80005ecb	-3.4005e-41
63	0x8000148b	-7.37e-42
64	0x00007801	4.3049e-41
65	0x8001557a	-1.22499e-40
66	0xb08f1cb8	-1.0412782e-09
67	0x1b05aa56	1.1056541e-22
68	0x80002029	-1.1537e-41
69	0x9696cd8a	-2.436352e-25
70	0x8e275a1f	-2.0627731e-30
71	0x80001b1f	-9.729e-42
72	0x0000ea59	8.4068e-41
73	0x0000906a	5.1806e-41
74	0x80000495	-1.644e-42
75	0x3079c259	9.0861857e-10
76	0x0000c245	6.9691e-41
77	0x80003f36	-2.2676e-41
78	0x80004eb8	-2.8239e-41
79	0x00009730	5.4236e-41
80	0xaf8e8820	-2.5926372e-10
81	0x9a2e0ae7	-3.5991163e-23
82	0x9c24a559	-5.4476755e-22
83	0x9fd1453a	-8.862947e-20
84	0x83a8caba	-9.920696e-37
85	0xb0fa42bd	-1.8208862e-09
86	0x2b147452	5.274159e-13
87	0x208a714a	2.3453078e-19
88	0x83cb5ed3	-1.1953038e-36
89	0x042c6ec9	2.0269373e-36
90	0xb00e7f7d	-5.184047e-10
91	0x000061ea	3.5125e-41
92	0x8007348c	-6.61699e-40
93	0x80005348	-2.9876e-41
94	0x8000438b	-2.423e-41
95	0x8104cfd4	-2.439368e-38
96	0x00004a76	2.6712e-41
97	0x21102e84	4.885066e-19
98	0x2b57677d	7.6526963e-13
99	0x800042d9	-2.398e-41
100	0xb17d6a2d	-3.68767e-09
101	0x00003f2f	2.2666e-41
102	0x000086b6	4.8325e-41
103	0x8000d695	-7.6978e-41
104	0x1c09cc33	4.559342e-22
105	0x80011af0	-1.01499e-40
106	0x8b8f6aad	-5.5242104e-32
107	0x800077a8	-4.2925e-41
108	0x8586250a	-1.2614905e-35
109	0xacb09a35	-5.0193413e-12
110	0x0dd5d489	1.31783045e-30
111	0x27df7158	6.201782e-15
112	0xafc4b8b8	-3.5783443e-10
113	0x06c34ab9	7.346064e-35
114	0x29de77ad	9.879541e-14
115	0x04495e83	2.3670834e-36
116	0xa70c329e	-1.9456343e-15
117	0x2b8f8b61	1.0199447e-12
118	0x80841368	-1.2129247e-38
119	0xa862f3a9	-1.25983556e-14
120	0x2f5037ac	1.8937268e-10
121	0x803e4c13	-5.721091e-39
122	0x0ece90e9	5.0922464e-30
123	0x3007f993	4.946738e-10
124	0x29474a6d	4.425143e-14
125	0x00cf0547	1.9011841e-38
126	0x0000192c	9.03e-42
127	0x2cbd933d	5.38805e-12
128	0x2421469e	3.4971125e-17
129	0x0000ddfb	7.9632e-41
130	0x0000955a	5.3577e-41
131	0x8000498f	-2.6388e-41
132	0x274ecd8f	2.8699676e-15
133	0x0000ae1b	6.2457e-41
134	0x0000837b	4.7166e-41
135	0xb0bc0dd3	-1.3682729e-09
136	0x800091b1	-5.2264e-41
137	0x80007a3c	-4.385e-41
138	0x2c5af986	3.1118177e-12
139	0x9d0b3326	-1.842294e-21
140	0x800076cb	-4.2615e-41
141	0x221a72be	2.0931636e-18
142	0x29104f42	3.2043168e-14
143	0x9542b5e9	-3.932149e-26
144	0xb008db81	-4.9788446e-10
145	0x000501a4	4.59766e-40
146	0xa3c36f6a	-2.1189128e-17
147	0xa64f6a09	-7.1961256e-16
148	0x00141b4e	1.846505e-39
149	0x80044bde	-3.94558e-40
150	0x0001215d	1.03804e-40
151	0x86bc89d1	-7.0920243e-35
152	0x800d9a55	-1.249225e-39
153	0xa54b6169	-1.7640447e-16
154	0x8000ddc1	-7.955e-41
155	0x26ff241e	1.7703969e-15
156	0x1f658436	4.8602e-20
157	0x800001ba	-6.2e-43
158	0x800038b4	-2.0341e-41
159	0x00003281	1.8117e-41
160	0x2dfeb892	2.8958422e-11
161	0x0000bc1d	6.7482e-41
162	0x8000c60f	-7.105e-41
163	0x2be63c7b	1.635927e-12
164	0x00006d7f	3.928e-41
165	0x8000eb23	-8.4351e-41
166	0x8000b292	-6.4059e-41
167	0x2c54155c	3.0138869e-12
168	0x0000679a	3.7165e-41
169	0x00005a20	3.2331e-41
170	0x8000d74c	-7.7234e-41
171	0x98fa9a24	-6.4779128e-24
172	0x27017148	1.7963756e-15
173	0x259ee6a7	2.7564927e-16
174	0x0000bdea	6.8128e-41
175	0x80008faa	-5.1537e-41
176	0x00013c21	1.13406e-40
177	0x00003be4	2.1485e-41
178	0x8000626a	-3.5304e-41
179	0x975afd86	-7.075959e-25
180	0xada48a64	-1.87061e-11
181	0x8e2d303b	-2.1347118e-30
182	0xaa729062	-2.154401e-13
183	0x0ceb6cc1	3.6272937e-31
184	0xaf88a9ce	-2.485891e-10
185	0x0e736b0b	3.0003602e-30
186	0xac00a9cf	-1.8284157e-12
187	0x289a3be6	1.7123411e-14
188	0x0d0c12ce	4.3163466e-31
189	0x80000696	-2.363e-42
190	0x80009fb2	-5.7288e-41
191	0xae167bef	-3.4216126e-11
192	0x80009564	-5.3591e-41
193	0x00005516	3.0523e-41
194	0x21cf1715	1.4032975e-18
195	0x0000c24e	6.9703e-41
196	0x00003a0e	2.0826e-41
197	0x80007d6b	-4.4991e-41
198	0xa30b4623	-7.550057e-18
199	0x065f4f7f	4.2000043e-35
200	0x00000bcc	4.232e-42
201	0x800009df	-3.541e-42
202	0x8000459f	-2.4975e-41
203	0x182c4ac1	2.226822e-24
204	0x0000afcf	6.3068e-41
205	0x9a31793d	-3.6700678e-23
206	0x8001187e	-1.00622e-40
207	0x2484b553	5.755305e-17
208	0x1290af01	9.130819e-28
209	0x26977450	1.0509256e-15
210	0x00002223	1.2246e-41
211	0x000023e9	1.2882e-41
212	0xa8dab4e9	-2.428132e-14
213	0x800089ad	-4.9389e-41
214	0x9e06b267	-7.130794e-21
215	0x000009d7	3.53e-42
216	0x823dd41e	-1.3946402e-37
217	0x01da02f8	8.008481e-38
218	0x014b0db2	3.7295037e-38
219	0x0e02b7e1	1.6112272e-30
220	0xb18232a0	-3.7892534e-09
221	0x2847c421	1.1089248e-14
222	0x81710c1d	-4.42734e-38
223	0x8167101a	-4.2439552e-38
224	0x0031d375	4.575796e-39
225	0xa35f2db1	-1.209853e-17
226	0x00009954	5.5004e-41
227	0x8000c12d	-6.9298e-41
228	0x8000f62c	-8.831e-41
229	0x16326c4f	1.4412902e-25
230	0x800034e2	-1.8971e-41
231	0x262cbb06	5.992795e-16
232	0x8000302a	-1.7278e-41
233	0x80008c18	-5.0256e-41
234	0xa8b7ee96	-2.0420552e-14
235	0x2b27b58a	5.9582254e-13
236	0x20cf3b99	3.5106602e-19
237	0x81149321	-2.7288867e-38
238	0x9983e475	-1.3637356e-23
239	0x2556d16e	1.8632499e-16
240	0x0000db22	7.861e-41
241	0x0000af4a	6.2882e-41
242	0x80005563	-3.0631e-41
243	0x800097fd	-5.4523e-41
244	0x2b1adca2	5.501798e-13
245	0x80002f84	-1.7045e-41
246	0x8000ea65	-8.4085e-41
247	0x96ae404d	-2.8151796e-25
248	0x80000fc9	-5.663e-42
249	0x80009c00	-5.5962e-41
250	0x8001e749	-1.74805e-40
251	0x20930b21	2.4910133e-19
252	0x0d201f7e	4.9341714e-31
253	0xaf2281ce	-1.477993e-10
254	0x22ec20e8	6.400277e-18
255	0x0e7a4ffb	3.0853388e-30

e_conv4.depth_conv.bias f4 [32]
0	0xa60a9343	-4.8077945e-16
1	0x25a13f61	2.7971995e-16
2	0xb20aa71c	-8.0706535e-09
3	0x0000af52	6.2893e-41
4	0x00089ef4	7.91706e-40
5	0xac88f64c	-3.892697e-12
6	0x87b44c2c	-2.712816e-34
7	0x09f31fe9	5.853013e-33
8	0x81ea33dd	-8.6032445e-38
9	0x90ca5198	-7.9800667e-29
10	0xa9bbf25d	-8.3465116e-14
11	0x9efed442	-2.6981084e-20
12	0x11942e5e	2.3378859e-28
13	0xaf3aa821	-1.6976333e-10
14	0x1609cf51	1.113219e-25
15	0x882d79ab	-5.2203314e-34
16	0xa3135e3f	-7.988843e-18
17	0x8005b18e	-5.22872e-40
18	0x80009082	-5.184e-41
19	0x0000ba34	6.6797e-41
20	0x151986d5	3.1004468e-26
21	0x81be0249	-6.9798256e-38
22	0x8000bd58	-6.7924e-41
23	0xb293c647	-1.7203218e-08
24	0x25745535	2.1192496e-16
25	0xa12ed57a	-5.9236027e-19
26	0x00969efe	1.383236e-38
27	0x000093be	5.3e-41
28	0xb13db261	-2.7604516e-09
29	0x8c1c5883	-1.2044438e-31
30	0x2b63ccd3	8.093085e-13
31	0x0729d5df	1.2776998e-34
