Zero-DCE++/snapshots_Zero_DCE++/Epoch83.pth (torch, 51217 bytes, 28 tensors)

e_conv1.depth_conv.weight f4 [3, 1, 3, 3]
0	0xbeb4a075	-0.3527867
1	0xbe3b5755	-0.18295033
2	0xbbaedb93	-0.005336234
3	0xbe2a8062	-0.16650537
4	0x3dc6de9e	0.097104296
5	0x3dc3bd57	0.09557598
6	0xbed74165	-0.4204208
7	0xbe382a04	-0.17984778
8	0xbd4c66ab	-0.0499026
9	0x3e4f41f3	0.20240001
10	0x3e3289e7	0.17435418
11	0x3eb4044a	0.35159522
12	0x3e3a4d26	0.18193492
13	0x3d02d078	0.031937093
14	0x3e6b9846	0.23007306
15	0x3daccc46	0.084373996
16	0x3d2a2764	0.041541472
17	0x3e68c37b	0.2273082
18	0x3d5b49e3	0.05353726
19	0xbd1240ca	-0.03570632
20	0xbe020858	-0.12698495
21	0xbd1283f4	-0.03577037
22	0xbd76b040	-0.06022668
23	0xbde698a5	-0.112595834
24	0xbde77c77	-0.11303037
25	0xbe2e9dc6	-0.17052373
26	0xbeacbee8	-0.337394

e_conv1.depth_conv.bias f4 [3]
0	0x3d9c81f5	0.07641975
1	0x3e9b43ea	0.30325252
2	0xbd5b3cba	-0.05352471

e_conv1.point_conv.weight f4 [32, 3, 1, 1]
0	0x3c567eb6	0.013091734
1	0x3e0e80ba	0.13916293
2	0x3d41db76	0.047328435
3	0x2e230c13	3.7072633e-11
4	0xb4d281e8	-3.9210067e-07
5	0xadf4ad1a	-2.7816461e-11
6	0xa7881c05	-3.777796e-15
7	0xb19289ed	-4.2648396e-09
8	0x25510485	1.8129392e-16
9	0x3dc7858d	0.0974227
10	0xbf0089a1	-0.50210005
11	0x3e277196	0.16351923
12	0x2f8fba98	2.614413e-10
13	0xb4bc18af	-3.5035688e-07
14	0x252df87f	1.5089552e-16
15	0x3cd3ce8a	0.025855321
16	0x3da60a05	0.0810738
17	0x3ec29782	0.38006216
18	0x3e008b9c	0.12553257
19	0x3e9d3797	0.30706474
20	0xbe0a196a	-0.13486257
21	0x1920caab	8.3127346e-24
22	0xadcee7ed	-2.3522484e-11
23	0x980f0b81	-1.8488125e-24
24	0x3d6dc506	0.058049224
25	0xbbe9268b	-0.0071151904
26	0x3dd03a4d	0.1016737
27	0x3d3f8a6e	0.046762876
28	0xbc4288c3	-0.011873427
29	0xbdc48684	-0.09595969
30	0x3ecd3b43	0.40084276
31	0xbf0d8bce	-0.5529145
32	0x3e9d6b5f	0.3074598
33	0xbbfd5e4a	-0.0077321874
34	0xbd10669a	-0.0352541
35	0x3d41193e	0.047143213
36	0x3e4b21d8	0.19837129
37	0xbec0f10a	-0.37683898
38	0xbe2da390	-0.16956925
39	0xbd813bd5	-0.0631024
40	0xbe1de9d6	-0.15421233
41	0x3e06b2c9	0.13154139
42	0x8001283d	-1.0627e-40
43	0x000148a0	1.17888e-40
44	0x00010547	9.3729e-41
45	0x3c66ba29	0.01408247
46	0x3e97171c	0.2950982
47	0x3e6eac57	0.2330793
48	0xbe81b96d	-0.2533678
49	0x3eb6069c	0.35551918
50	0xbe81c40b	-0.2534488
51	0x91a21d93	-2.557732e-28
52	0xa6983e14	-1.0563945e-15
53	0x91e9c7f8	-3.6884158e-28
54	0xbadcbffe	-0.0016841886
55	0x39b2d685	0.00034110635
56	0xb9e17339	-0.00043001192
57	0x953f4bca	-3.863193e-26
58	0xacc1aa27	-5.5042806e-12
59	0x1b977094	2.5053606e-22
60	0xbf0c3d4f	-0.5478105
61	0xbd4afdc7	-0.049558427
62	0xbea8563e	-0.32878298
63	0xb30146f6	-3.009969e-08
64	0xb71ad3d8	-9.228439e-06
65	0xb37841c9	-5.780183e-08
66	0xbc162960	-0.009165138
67	0x3bdf0751	0.006806292
68	0x3c1924bd	0.009347138
69	0x1c70e194	7.970089e-22
70	0xad934f5b	-1.6747206e-11
71	0x1bb07c2e	2.9197007e-22
72	0x38d26edf	0.00010034232
73	0xb9d4ed4e	-0.00040612597
74	0x37ec9066	2.8200633e-05
75	0x3a741fce	0.00093126006
76	0x38b400c1	8.583209e-05
77	0xb9839ae5	-0.00025101673
78	0x3813e2e8	3.5258854e-05
79	0xb821d180	-3.8580503e-05
80	0x37b7f38d	2.1928712e-05
81	0x3e8d1c77	0.2756078
82	0xbe045642	-0.1292353
83	0xbe82224c	-0.2541679
84	0x3d4590d6	0.04823383
85	0xbb5db6af	-0.0033830812
86	0xbb3b428c	-0.00285736
87	0x0b8c6bfb	5.408851e-32
88	0x0cebf670	3.6355802e-31
89	0x0bd193ad	8.072607e-32
90	0x3e70f77a	0.23531905
91	0x3c3218f3	0.010870206
92	0xbd8c6b6a	-0.06856425
93	0xbe65aa05	-0.22428139
94	0x3ee55fe6	0.44799727
95	0xbe8e5077	-0.27795765

e_conv1.point_conv.bias f4 [32]
0	0xbdd2c7c7	-0.10292011
1	0xb3b3ebf5	-8.3782574e-08
2	0xb406b07f	-1.2543931e-07
3	0x3f11bf79	0.5693279
4	0xb3f116c1	-1.1226576e-07
5	0x3da64664	0.08118895
6	0x3e7f55e5	0.2493511
7	0xae7f08b5	-5.798802e-11
8	0x3d829d27	0.06377631
9	0xbc890a34	-0.016728498
10	0x3ed05b9a	0.40694886
11	0x3eeb0077	0.45898792
12	0x3eb9fc62	0.36325365
13	0x3e9c2247	0.30494902
14	0x000114b3	9.9261e-41
15	0x3eedf0eb	0.46472868
16	0xbc31e13f	-0.0108569255
17	0xa643f8e5	-6.799153e-16
18	0xbaf6ab5c	-0.001881938
19	0xaf976430	-2.7537927e-10
20	0x3ed09181	0.4073601
21	0xb7529f7a	-1.2554106e-05
22	0x3e9b970a	0.3038867
23	0xae3d060e	-4.2979002e-11
24	0xba37ce0b	-0.0007011599
25	0x3985f624	0.00025551126
26	0xb79464a9	-1.7689848e-05
27	0x3e97ed06	0.29673022
28	0x3cba3617	0.02273087
29	0x8d1c11f4	-4.809282e-31
30	0x3f08568e	0.5325707
31	0xbd997c31	-0.07494391

e_conv2.depth_conv.weight f4 [32, 1, 3, 3]
0	0xbb8cfb3a	-0.0043024095
1	0xbba2f3cb	-0.00497291
2	0xbb52ad33	-0.0032146692
3	0xbc8e35d5	-0.017359653
4	0xbca84bfa	-0.020544041
5	0xbc44c87c	-0.01201069
6	0xbcbee2b8	-0.023301467
7	0xbcc43778	-0.02395223
8	0xbc54f088	-0.0129968
9	0x8000dd9e	-7.9501e-41
10	0x00005ed3	3.4017e-41
11	0x80007ec2	-4.5472e-41
12	0x8000e9bd	-8.385e-41
13	0x0000e7a2	8.3094e-41
14	0x8000eda7	-8.5254e-41
15	0x0000f3f0	8.7508e-41
16	0x8000a460	-5.8967e-41
17	0x8000cce5	-7.3502e-41
18	0x00009758	5.4292e-41
19	0x8001bdcf	-1.59926e-40
20	0x8001fb95	-1.82086e-40
21	0x0001a515	1.51056e-40
22	0x00017789	1.34717e-40
23	0x8001b55c	-1.56895e-40
24	0x00014f45	1.20272e-40
25	0x80019e5d	-1.48646e-40
26	0x000225c8	1.97224e-40
27	0xbe8a4277	-0.27003834
28	0xbe6efb00	-0.23337936
29	0xbd2ca9da	-0.04215417
30	0xbde9bfc1	-0.11413527
31	0x3d9eda09	0.07756431
32	0x3e5da3ee	0.21644565
33	0x3e8638d0	0.2621522
34	0x3be883cf	0.007095791
35	0x3ef2d03b	0.47424492
36	0xa4f24a34	-1.05076475e-16
37	0x2422a0d0	3.5264364e-17
38	0x2392cb59	1.5915473e-17
39	0xa4ee0bdc	-1.0323614e-16
40	0x24289978	3.6559186e-17
41	0xa3305771	-9.5594956e-18
42	0x22945893	4.020926e-18
43	0x24977284	6.567981e-17
44	0xa4996835	-6.6529707e-17
45	0x3d27ef22	0.04099954
46	0x3d8697d7	0.0657193
47	0x3cf5288d	0.029926563
48	0x3d22589b	0.039635282
49	0x3dc2815c	0.094973296
50	0x3d1ab9ac	0.037774727
51	0xbd734ffe	-0.05940246
52	0xbc8afae8	-0.016965345
53	0xbe2a421c	-0.16626781
54	0x3d83a666	0.06428222
55	0xbd114576	-0.035466634
56	0xbe8a47be	-0.2700786
57	0x3d6014da	0.054707386
58	0x3e0590f5	0.13043578
59	0xbdb48d69	-0.08816034
60	0xbcba97c4	-0.022777446
61	0xbc07167b	-0.008245106
62	0xbe9464c5	-0.2898313
63	0x0008e911	8.18292e-40
64	0x80083572	-7.53857e-40
65	0x800427e3	-3.8165e-40
66	0x0006b2c6	6.15145e-40
67	0x80098d57	-8.77223e-40
68	0x8008655e	-7.71048e-40
69	0x000976f0	8.69186e-40
70	0x80035e73	-3.09388e-40
71	0x80016c8b	-1.30773e-40
72	0x3c65a708	0.014016874
73	0x3b8252ea	0.0039771693
74	0x3ab9ddd2	0.0014180487
75	0x3be1736c	0.0068802144
76	0x3a7cfd9b	0.0009650827
77	0x3b5d77d8	0.0033793356
78	0x3bf78d16	0.0075546606
79	0x3c52f4b3	0.012875724
80	0x3ced437a	0.02896284
81	0x3be19ad4	0.006884912
82	0x3b15097e	0.0022741253
83	0xbb27c7b1	-0.0025601203
84	0x3bdcfc85	0.00674397
85	0xb9b97b21	-0.00035377688
86	0xbbac50c9	-0.005258654
87	0x3b59ed48	0.0033253003
88	0xbb672503	-0.0035269863
89	0xbb68943a	-0.003548874
90	0x3ea0272a	0.3127988
91	0x3e60e564	0.21962506
92	0x3e803d0a	0.2504657
93	0x3e656c8c	0.22404689
94	0xbd671467	-0.05641594
95	0x3e89f5a6	0.26945227
96	0x3e969b33	0.29415283
97	0x3dd1636e	0.10224043
98	0x3dfd9b63	0.12383153
99	0x3e795bb2	0.24351385
100	0xbe0ab554	-0.13545734
101	0x3e3e844d	0.18605156
102	0x3d9ad3f1	0.07559956
103	0xbe46676a	-0.19375387
104	0xbdc09001	-0.094024666
105	0x3e8365ce	0.25663608
106	0x3d8871bf	0.0666232
107	0x3e3c2b86	0.18375978
108	0x3ecaf9d5	0.39643732
109	0x3e034f28	0.12823164
110	0x3e62e9fe	0.22159573
111	0x3e8c485e	0.27398962
112	0x3e2e1704	0.17000967
113	0x3dc38496	0.09546773
114	0x3e811034	0.25207675
115	0x3df21f25	0.118223466
116	0xbd8dfa4d	-0.06932507
117	0x3ccd5c9e	0.025068577
118	0x3d5ec106	0.0543833
119	0x3dbfe198	0.093692005
120	0x3dc12b16	0.09432046
121	0xbdbeb891	-0.09312547
122	0x3e36299e	0.17789313
123	0xbd557b12	-0.052119322
124	0x3d88bb28	0.06676322
125	0x3ec1b7e3	0.37835607
126	0x00014c9d	1.19319e-40
127	0x0001209e	1.03536e-40
128	0x8000f174	-8.6617e-41
129	0x00016741	1.28876e-40
130	0x00015945	1.2386e-40
131	0x000063f3	3.5855e-41
132	0x00004e04	2.7987e-41
133	0x8001e35a	-1.73394e-40
134	0x80019e99	-1.4873e-40
135	0xbd51717d	-0.05113362
136	0x3e1422c0	0.14466381
137	0xbe05e95b	-0.130773
138	0x3df242ee	0.11829172
139	0x3e474767	0.19460832
140	0x3e2ac99e	0.16678473
141	0xbe133fba	-0.14379779
142	0xbd8bef89	-0.06832797
143	0xbdbef362	-0.09323765
144	0x3dce38c6	0.100694224
145	0x3e5bf768	0.21481097
146	0x3eb1c277	0.34718677
147	0x3dcb6fd9	0.099334426
148	0x3cf46db6	0.02983747
149	0x3decdaeb	0.11565193
150	0xbe115ae5	-0.1419483
151	0xbdaa631d	-0.083196856
152	0xbe5aa0e2	-0.21350434
153	0x0000c232	6.9664e-41
154	0x000100cd	9.2123e-41
155	0x0000ec9c	8.488e-41
156	0x8001998f	-1.46922e-40
157	0x00017d6b	1.36827e-40
158	0x80008718	-4.8463e-41
159	0x800177f6	-1.3487e-40
160	0x00005fbf	3.4347e-41
161	0x000139db	1.1259e-40
162	0xb5088653	-5.0859416e-07
163	0xb481877c	-2.41267e-07
164	0xb54a333f	-7.5325437e-07
165	0xb495d7f1	-2.791053e-07
166	0x34483811	1.8646848e-07
167	0xb4408c58	-1.793245e-07
168	0xb516a60f	-5.6121e-07
169	0xb363a2fe	-5.3000797e-08
170	0xb480747e	-2.3926617e-07
171	0x87de55ac	-3.34532e-34
172	0x062659c6	3.1287085e-35
173	0x87b66e8d	-2.7449292e-34
174	0x88552f82	-6.41532e-34
175	0x0840bb7e	5.7998294e-34
176	0x06e08ec7	8.446923e-35
177	0x871e9d25	-1.193278e-34
178	0x87122b49	-1.099654e-34
179	0x0824d248	4.959914e-34
180	0xbda7efb9	-0.0820002
181	0x3e5c04c4	0.21486193
182	0xbe465318	-0.19367635
183	0xbea056af	-0.31316134
184	0xbc23c1f0	-0.009994969
185	0x3d3ff62e	0.046865635
186	0xbeb3df8c	-0.3513149
187	0xbe68ee83	-0.22747235
188	0xbe82d6f0	-0.2555461
189	0x11a545e8	2.6075493e-28
190	0x122fb20e	5.5439733e-28
191	0x91f7efbf	-3.9117484e-28
192	0x905c28f7	-4.3418908e-29
193	0x11a98e70	2.6751282e-28
194	0x91a16840	-2.546557e-28
195	0x11f550e7	3.8704044e-28
196	0x10ea1d7f	9.234217e-29
197	0x92506043	-6.575188e-28
198	0xbd8e2b6f	-0.06941878
199	0xbd9a88bf	-0.075456135
200	0x3cf5e80e	0.030017879
201	0xbdab6fcd	-0.08370934
202	0xbd83f113	-0.06442466
203	0xbaa2abd7	-0.0012410831
204	0xbd8022f6	-0.06256668
205	0xbd8d2f00	-0.0689373
206	0xbca9e7f4	-0.020740487
207	0x00016b85	1.30406e-40
208	0x800027d9	-1.4295e-41
209	0x0000183e	8.696e-42
210	0x8000196f	-9.124e-42
211	0x0000dffe	8.0353e-41
212	0x00015a10	1.24144e-40
213	0x00015b9c	1.24699e-40
214	0x80012a11	-1.06926e-40
215	0x8000b369	-6.436e-41
216	0x12052e2b	4.2024307e-28
217	0x11dd9c08	3.4963814e-28
218	0x1209285d	4.327933e-28
219	0x0e51126c	2.5770109e-30
220	0x126b46f1	7.4240367e-28
221	0x12372e98	5.780205e-28
222	0x911d1ed8	-1.2394621e-28
223	0x91166c4e	-1.1866288e-28
224	0x916997e3	-1.8427263e-28
225	0x389e60b5	7.55204e-05
226	0x38886e25	6.5055014e-05
227	0x38869c3f	6.418721e-05
228	0x3889212f	6.53885e-05
229	0x38764c9c	5.872232e-05
230	0x387bd9bd	6.0045848e-05
231	0x3870653c	5.731474e-05
232	0x386d1d4b	5.6532484e-05
233	0x387c71e2	6.0187544e-05
234	0x36e97e3f	6.958638e-06
235	0x36d84179	6.4449237e-06
236	0x36ca4f55	6.0293046e-06
237	0x36bbd083	5.5973082e-06
238	0x36b8b823	5.5050637e-06
239	0x36b49f6a	5.3829763e-06
240	0x36a19ed0	4.816662e-06
241	0x36af9b1e	5.2334644e-06
242	0x369c6231	4.6605933e-06
243	0x3ea63e4d	0.32469407
244	0xbbc3762e	-0.005965016
245	0x3d63ef3f	0.055648085
246	0xbb64f304	-0.0034934888
247	0x3c9dbdc5	0.019255528
248	0x3d625aa6	0.05526223
249	0x3c92e3cb	0.017930886
250	0xbbba6dc3	-0.005689354
251	0xbd4f5a2e	-0.05062311
252	0x38f5dc3a	0.00011723531
253	0xba011bfe	-0.00049251306
254	0xbb288b8f	-0.002571795
255	0x3ab1b74a	0.0013558653

e_conv2.depth_conv.bias f4 [32]
0	0x3dbda25a	0.09259482
1	0xbdb206b9	-0.086926885
2	0xb6165104	-2.23989e-06
3	0xbd5f0298	-0.054445833
4	0xbe1530a9	-0.14569344
5	0x3e3ead32	0.18620756
6	0x3cb62fcb	0.022239586
7	0x3e0022ac	0.12513226
8	0x3e7acb90	0.24491715
9	0xbe725960	-0.23666906
10	0x3c65ec05	0.014033322
11	0xbdbc1e38	-0.09185451
12	0xbe6042f1	-0.21900536
13	0xbd52d23f	-0.051470038
14	0x3e02bde9	0.12767757
15	0x3e50ca91	0.20389773
16	0x3e20acf3	0.15690975
17	0xbbedc8ce	-0.007256604
18	0x38d54e0a	0.000101711674
19	0x3e1fa9e4	0.15592152
20	0x3e866ad0	0.26253366
21	0x3e2aa3c8	0.1666404
22	0xbdcd4985	-0.10023788
23	0x3e26c948	0.1628772
24	0xbd93eae9	-0.0722254
25	0xbcd516bc	-0.026011817
26	0x3d83e0f8	0.06439394
27	0xbe4dc726	-0.200955
28	0xbd423e05	-0.047422428
29	0xbe2217b0	-0.15829349
30	0xbda30141	-0.079592235
31	0x3e99e805	0.3005983

e_conv2.point_conv.weight f4 [32, 32, 1, 1]
0	0xbc37bc93	-0.011214393
1	0xbbc0c1a0	-0.005882457
2	0x3785c53d	1.5946682e-05
3	0x3d9ade98	0.07561988
4	0x3c6b0f57	0.014346919
5	0xbd922101	-0.07135201
6	0x3c8d4d50	0.01724878
7	0xbcc0dd6c	-0.023543082
8	0xbd557a39	-0.052118514
9	0x3c48bb1e	0.012251643
10	0x3d7ce8ac	0.06174533
11	0x3d054d5d	0.032544482
12	0x3e2c91c2	0.16852477
13	0x3d0509af	0.032479938
14	0xbc402533	-0.011727619
15	0xbe00256d	-0.12514277
16	0x3c9c72c7	0.019097699
17	0x3aec8e1a	0.0018047721
18	0xb8a4d8c1	-7.860503e-05
19	0xbd34457e	-0.044011585
20	0x3e94be66	0.29051512
21	0x3c83b10e	0.016075637
22	0x3d4b3c32	0.049617954
23	0xbd51f304	-0.05125715
24	0x3ae5a2ba	0.001751981
25	0x3b726f33	0.003699255
26	0xbc3f2bf6	-0.011668196
27	0x3d3cddd4	0.04610999
28	0x3c67f5f7	0.014157764
29	0x3cd4c1d7	0.025971336
30	0xbe165508	-0.14680874
31	0x3bf38f96	0.0074328883
32	0x3d4b46e4	0.049628153
33	0xbd76ee44	-0.06028582
34	0x353b94ea	6.9879627e-07
35	0xbd18c6a8	-0.03729883
36	0x3c0a1cbe	0.008429704
37	0x3d2190b9	0.03944466
38	0x3c94751a	0.018122245
39	0x3cae2875	0.021259526
40	0x3da9d4a9	0.08292515
41	0xbda9009a	-0.08252068
42	0x3ea494a1	0.32144645
43	0x3e6a1f06	0.22863397
44	0x3e8869a9	0.26643112
45	0x3e11cf29	0.14239182
46	0xbaec0694	-0.0018007332
47	0x3dce91fa	0.100864366
48	0x3e02012d	0.12695761
49	0xbab5e58e	-0.0013877617
50	0xb820b405	-3.831463e-05
51	0xba9b392c	-0.00118426
52	0xbc8b9d23	-0.017042702
53	0x3d3477c3	0.044059526
54	0xbc3b1f09	-0.011420974
55	0x3dc1832e	0.09448849
56	0xbc3bbb97	-0.011458299
57	0xbb8ac946	-0.0042354194
58	0xbbca5d43	-0.0061756684
59	0x3e580a79	0.21097745
60	0xbd461353	-0.048358273
61	0xbce3c377	-0.027803166
62	0xbe90b2d0	-0.28261423
63	0x3df04a1c	0.11732885
64	0x3c731c61	0.014838309
65	0xbc978a86	-0.01849867
66	0xb6e085d1	-6.6912985e-06
67	0x3eaa5810	0.3327031
68	0xbc83b4ca	-0.016077418
69	0x3d5ae7fd	0.053443898
70	0x3d0214fc	0.031758294
71	0x3c8c398e	0.017117288
72	0xba064be4	-0.0005123003
73	0xbd5a50aa	-0.053299583
74	0xbe02b3c7	-0.12763892
75	0xbdea145c	-0.114296645
76	0xbe901148	-0.28138185
77	0x3c7dac79	0.015483015
78	0x3c4482fd	0.011994121
79	0x3d50f142	0.05101133
80	0x3d2a9d8f	0.041654166
81	0xbb4a201c	-0.0030841893
82	0xb6774818	-3.6847832e-06
83	0x3d00f397	0.031482305
84	0xbbc12dd1	-0.0058953543
85	0x3cdec05d	0.027191335
86	0xbbaa53ae	-0.0051979637
87	0x3d66f34c	0.05638437
88	0xbc907520	-0.017633975
89	0xbc09a257	-0.008400521
90	0x3c97166a	0.018443305
91	0xbe7c56ab	-0.24642436
92	0xbc823ccc	-0.01589813
93	0xbd28118e	-0.041032366
94	0x3dc0377a	0.09385581
95	0x3c712102	0.014717342
96	0x0000cc41	7.3272e-41
97	0x00001250	6.569e-42
98	0x8001c36b	-1.61938e-40
99	0x80014f11	-1.20199e-40
100	0x000148a9	1.17901e-40
101	0x8001b26e	-1.55844e-40
102	0x80019df4	-1.48498e-40
103	0x8001330a	-1.10145e-40
104	0x0000ec19	8.4696e-41
105	0x00014f51	1.20289e-40
106	0x8000b5d6	-6.523e-41
107	0x80015b7b	-1.24653e-40
108	0x00008674	4.8233e-41
109	0x0000b99b	6.6583e-41
110	0x0000209a	1.1695e-41
111	0x80002300	-1.2556e-41
112	0x0001a240	1.5004e-40
113	0x0000afde	6.3089e-41
114	0x000032a8	1.8172e-41
115	0x800110ba	-9.7836e-41
116	0x800018b9	-8.869e-42
117	0x800098c8	-5.4808e-41
118	0x8000fc60	-9.0535e-41
119	0x0000854f	4.7822e-41
120	0x0000b188	6.3686e-41
121	0x00002fcb	1.7145e-41
122	0x8000d304	-7.5698e-41
123	0x8001cb9a	-1.64874e-40
124	0x00003c20	2.1569e-41
125	0x80011ea7	-1.02831e-40
126	0x00006462	3.601e-41
127	0x80017bd7	-1.36261e-40
128	0x3adcaee8	0.0016836794
129	0x3a0c2cf9	0.00053472776
130	0xb7cd8020	-2.4497567e-05
131	0xbcded746	-0.02720226
132	0x3c38da8a	0.0112825725
133	0x3d9f252b	0.07770761
134	0xbdfae54c	-0.12250766
135	0x3c009c48	0.00784976
136	0xbc0f5eb1	-0.0087506035
137	0xbcfb56ee	-0.0306811
138	0xbd60a447	-0.054844167
139	0xbca0da59	-0.019635366
140	0xbd61a191	-0.055085722
141	0xbd31326e	-0.043260984
142	0x3c6f1687	0.014592773
143	0x3e0d7bd1	0.13816763
144	0x3cc8dffc	0.024520867
145	0xbabf54f1	-0.0014597458
146	0x38a1bee2	7.712633e-05
147	0x3cf796d3	0.030223286
148	0x3c0831cd	0.008312655
149	0xb9d0a373	-0.0003979463
150	0xbc247fc0	-0.010040224
151	0xbc02d718	-0.007985853
152	0xbc2d88eb	-0.010591726
153	0xbb51f39b	-0.003203607
154	0x3c22e720	0.0099428
155	0xbc38d2a1	-0.011280687
156	0xbc06797b	-0.008207674
157	0xbce6fda5	-0.028197119
158	0x3ce2de1c	0.0276938
159	0xbda82e33	-0.08211937
160	0x3c4009e1	0.011721105
161	0xbc4249ec	-0.011858445
162	0xb7c0c9f9	-2.2982234e-05
163	0x3c4076ad	0.0117470445
164	0xbc9994b8	-0.018747672
165	0x3cdb5b6f	0.026776997
166	0x3dd0abc5	0.101890124
167	0x3c777c31	0.015105293
168	0x3ce96102	0.02848864
169	0xbcdf520f	-0.027260808
170	0x3d59ce7e	0.053175442
171	0xbd3db816	-0.046318136
172	0x3ceea7ed	0.029132808
173	0xbc2d0a30	-0.010561511
174	0x3c819ac1	0.015820863
175	0x3d51b64d	0.051199246
176	0x3b9bfa84	0.0047600884
177	0xba409a59	-0.00073472183
178	0x37e13eec	2.685139e-05
179	0x3c925fa7	0.017867876
180	0x3d8d40eb	0.06897148
181	0x3ca80adb	0.020512989
182	0xbcbcfa1f	-0.023068486
183	0x3ca45715	0.020061055
184	0xbbf5258f	-0.007481284
185	0xbb21d2f7	-0.0024692395
186	0x3bec95ca	0.0072200047
187	0xbc4140be	-0.011795221
188	0xbbc6a284	-0.006061854
189	0xbc97f4c2	-0.018549327
190	0x3ca507a0	0.020145237
191	0x3e14e8f1	0.14541985
192	0x3be2cb06	0.006921175
193	0x3c45aaf5	0.012064685
194	0xb82bca8e	-4.095822e-05
195	0x3e23f79b	0.16012423
196	0xbbb8a959	-0.005635422
197	0xbe41df6c	-0.18932885
198	0x3e0d836c	0.13819665
199	0xb983b033	-0.00025117546
200	0xbb74bf09	-0.003734531
201	0xbca210f3	-0.019783473
202	0x3eb12b21	0.34603217
203	0x3e0c5094	0.13702613
204	0x3e366618	0.17812383
205	0x3e4fd01c	0.20294231
206	0x3ad632a0	0.0016341992
207	0xbdc14796	-0.09437482
208	0x3e2d7138	0.16937721
209	0x39d84f5e	0.00041257864
210	0xb81118ad	-3.4593675e-05
211	0x3c25e5a2	0.0101255495
212	0xbd32f96d	-0.043694902
213	0x3bf5ecd3	0.0075050383
214	0x3cd4a8cc	0.025959395
215	0x3afe8488	0.001941816
216	0x3b84844f	0.0040440927
217	0x3ac521e3	0.0015040006
218	0xba7fbd28	-0.00097556645
219	0x3df8ff2a	0.12158044
220	0x3ae434a5	0.0017410709
221	0x3c6c4e23	0.014422926
222	0xbe2f61d0	-0.17127156
223	0x3dff2120	0.1245749
224	0xb3c8e15a	-9.354217e-08
225	0x338c4671	6.532071e-08
226	0x2d91a932	1.655973e-11
227	0x346a84a7	2.1841207e-07
228	0x32959176	1.7412031e-08
229	0x333c6e80	4.387266e-08
230	0x33e09e8c	1.0459652e-07
231	0xb41991e8	-1.4302316e-07
232	0xb359efa5	-5.0742205e-08
233	0x337d93e2	5.904065e-08
234	0x34e3fc2e	4.246553e-07
235	0x3315fb58	3.492036e-08
236	0x350a7264	5.1575466e-07
237	0xb292163e	-1.7006752e-08
238	0xb40a38f7	-1.2872975e-07
239	0x330a0689	3.2136573e-08
240	0x33cfb06c	9.6712796e-08
241	0x32d22135	2.4462318e-08
242	0xaedb4790	-9.971679e-11
243	0x32f4fd25	2.8520455e-08
244	0xb2a7aaba	-1.9518996e-08
245	0x336b2e2b	5.475719e-08
246	0x33959677	6.9657226e-08
247	0x335cf01b	5.1441116e-08
248	0x331d12dc	3.6571564e-08
249	0x33734425	5.6639823e-08
250	0xb3b21e82	-8.29432e-08
251	0x34816392	2.410057e-07
252	0x33fcfbff	1.1780502e-07
253	0xb31f5a92	-3.7102446e-08
254	0x33c7df09	9.3072295e-08
255	0xb25b3de4	-1.276155e-08

e_conv2.point_conv.bias f4 [32]
0	0x3da33470	0.07968986
1	0x3d91e271	0.071232684
2	0x3de96f71	0.11398209
3	0x0000a77d	6.0083e-41
4	0x3e181081	0.14850046
5	0x3daf7579	0.08567328
6	0xbc72eae2	-0.014826508
7	0xb2e9c42d	-2.721398e-08
8	0x3d96bfbd	0.0736079
9	0x3dad05e0	0.08448386
10	0x3be7e1a4	0.007076459
11	0xbd7b0900	-0.06128788
12	0x3b8e7904	0.0043479223
13	0x3e1135f2	0.14180735
14	0x3e06f28a	0.13178459
15	0x800022cb	-1.2481e-41
16	0x80004725	-2.5522e-41
17	0x3c6a794c	0.014311146
18	0x3cd2b43c	0.025720708
19	0x35fa3cf1	1.8644188e-06
20	0xbd887013	-0.066620015
21	0xbb0ec2e7	-0.0021783651
22	0x3c379c69	0.011206725
23	0x39da2d8e	0.0004161414
24	0x3d5e37d6	0.054252468
25	0xb0b4f15e	-1.3165324e-09
26	0x3d2c1d39	0.042020056
27	0xbdc69597	-0.09696501
28	0x00004102	2.332e-41
29	0x00002805	1.4356e-41
30	0x3d616cfd	0.05503558
31	0x3daaefa4	0.08346489

e_conv3.depth_conv.weight f4 [32, 1, 3, 3]
0	0x000149d8	1.18326e-40
1	0x80015c99	-1.25053e-40
2	0x00008360	4.7128e-41
3	0x8000670a	-3.6963e-41
4	0x8000ce09	-7.3911e-41
5	0x80007988	-4.3597e-41
6	0x00018e15	1.42805e-40
7	0x80010043	-9.193e-41
8	0x00006346	3.5613e-41
9	0x0000c9d3	7.2401e-41
10	0x00016d2a	1.30996e-40
11	0x00021d24	1.94125e-40
12	0x80003dba	-2.2143e-41
13	0x80013fc7	-1.14714e-40
14	0x0000cb5c	7.2952e-41
15	0x000125a4	1.05338e-40
16	0x00000b0c	3.963e-42
17	0x800123b4	-1.04643e-40
18	0x00006787	3.7139e-41
19	0x8000fc76	-9.0566e-41
20	0x0001168e	9.9927e-41
21	0x80011adb	-1.0147e-40
22	0x00009778	5.4337e-41
23	0x8001a7c3	-1.52017e-40
24	0x00007b7f	4.4302e-41
25	0x0000ea2c	8.4005e-41
26	0x00007b1f	4.4168e-41
27	0x0000e2d4	8.137e-41
28	0x8000fd04	-9.0765e-41
29	0x0001455f	1.16721e-40
30	0x0001825d	1.38601e-40
31	0x00004820	2.5874e-41
32	0x8000124f	-6.568e-42
33	0x80010d5f	-9.6632e-41
34	0x00009269	5.2522e-41
35	0x8000b92d	-6.6429e-41
36	0x0000014e	4.68e-43
37	0x80006ad8	-3.8328e-41
38	0x0001de76	1.7164e-40
39	0x8001825b	-1.38598e-40
40	0x80017d79	-1.36847e-40
41	0x80002420	-1.2959e-41
42	0x800006ed	-2.485e-42
43	0x0001d395	1.67737e-40
44	0x80000ff8	-5.729e-42
45	0x80022790	-1.97863e-40
46	0x000034b0	1.8901e-41
47	0x000156f1	1.23024e-40
48	0x8000726a	-4.1044e-41
49	0x000102ce	9.2842e-41
50	0x00022a90	1.9894e-40
51	0x8000fa85	-8.987e-41
52	0x00016473	1.2787e-40
53	0x00014a9e	1.18603e-40
54	0x800133a6	-1.10363e-40
55	0x00017031	1.32082e-40
56	0x800132f8	-1.1012e-40
57	0x00012307	1.04401e-40
58	0x00011baf	1.01766e-40
59	0x00017319	1.33125e-40
60	0x8000f51c	-8.7929e-41
61	0x00022a78	1.98906e-40
62	0x00016738	1.28863e-40
63	0x8001b726	-1.57537e-40
64	0x8000ee4b	-8.5483e-41
65	0x80001242	-6.55e-42
66	0x80010c30	-9.6208e-41
67	0x80017569	-1.33954e-40
68	0x0001c7d3	1.63519e-40
69	0x00012dcb	1.08263e-40
70	0x00006b6a	3.8533e-41
71	0x00002a2e	1.5131e-41
72	0x000080d4	4.6215e-41
73	0x8000e38c	-8.1628e-41
74	0x80015455	-1.22088e-40
75	0x80004efa	-2.8331e-41
76	0x0000f7ed	8.8939e-41
77	0x80020b59	-1.87742e-40
78	0x00017992	1.35447e-40
79	0x800188b8	-1.40881e-40
80	0x00021f78	1.9496e-40
81	0x80008606	-4.8079e-41
82	0x80011be7	-1.01845e-40
83	0x00007307	4.1264e-41
84	0x800130a5	-1.09286e-40
85	0x000036d3	1.9667e-41
86	0x0001a2da	1.50256e-40
87	0x8000153c	-7.617e-42
88	0x8000ca11	-7.2488e-41
89	0x00011815	1.00475e-40
90	0x80018a4c	-1.41447e-40
91	0x80017c19	-1.36353e-40
92	0x80001736	-8.327e-42
93	0x80012ed9	-1.08641e-40
94	0x800011f0	-6.435e-42
95	0x0000916b	5.2166e-41
96	0x800099fa	-5.5236e-41
97	0x80009ada	-5.555e-41
98	0x00003c27	2.1579e-41
99	0x000012bf	6.725e-42
100	0x80009981	-5.5067e-41
101	0x800141de	-1.15464e-40
102	0x00011f9d	1.03176e-40
103	0x00005227	2.9471e-41
104	0x0000e19b	8.0932e-41
105	0x8000143d	-7.26e-42
106	0x00016fde	1.31966e-40
107	0x00012ac7	1.07181e-40
108	0x0001f21f	1.78692e-40
109	0x800116b0	-9.9974e-41
110	0x80019126	-1.43905e-40
111	0x80011c4f	-1.01991e-40
112	0x0000a738	5.9987e-41
113	0x0000f24e	8.6923e-41
114	0x000086cc	4.8356e-41
115	0x80018053	-1.3787e-40
116	0x80013e3e	-1.14164e-40
117	0x000171c5	1.32648e-40
118	0x00008c8c	5.0419e-41
119	0x0001b4c0	1.56676e-40
120	0x8001404d	-1.14902e-40
121	0x0000f296	8.7023e-41
122	0x800162cd	-1.27279e-40
123	0x00017e42	1.37128e-40
124	0x8000f5e4	-8.8209e-41
125	0x800140e3	-1.15112e-40
126	0x00004bea	2.7233e-41
127	0x800071b7	-4.0793e-41
128	0x00013685	1.11393e-40
129	0x000109ed	9.5396e-41
130	0x00019aa6	1.47313e-40
131	0x8000249f	-1.3137e-41
132	0x0000804a	4.6021e-41
133	0x0001b87d	1.58017e-40
134	0x80009ff8	-5.7386e-41
135	0x0000c530	7.0738e-41
136	0x00000174	5.21e-43
137	0x00004d92	2.7827e-41
138	0x8000c09f	-6.91e-41
139	0x80018978	-1.4115e-40
140	0x800096d0	-5.4101e-41
141	0x8000e994	-8.3792e-41
142	0x80014037	-1.14871e-40
143	0x00018e46	1.42874e-40
144	0x0000d1f1	7.5313e-41
145	0x0000c364	7.0093e-41
146	0x0000dd80	7.9459e-41
147	0x800044d9	-2.4698e-41
148	0x800115ab	-9.9608e-41
149	0x000154ea	1.22297e-40
150	0x0000e3da	8.1738e-41
151	0x80007641	-4.2422e-41
152	0x00010c28	9.6196e-41
153	0x80013b7d	-1.13176e-40
154	0x8000c69a	-7.1245e-41
155	0x0001354a	1.10952e-40
156	0x0001cbd7	1.6496e-40
157	0x00010f76	9.7382e-41
158	0x0000417f	2.3496e-41
159	0x0000f506	8.7898e-41
160	0x8000896f	-4.9302e-41
161	0x00008065	4.6059e-41
162	0x00001474	7.337e-42
163	0x80015386	-1.21798e-40
164	0x00010248	9.2654e-41
165	0x0000e83d	8.3311e-41
166	0x80014344	-1.15966e-40
167	0x80017b06	-1.35968e-40
168	0x0000e217	8.1106e-41
169	0x00000d0e	4.683e-42
170	0x0001bb4c	1.59025e-40
171	0x80015d06	-1.25206e-40
172	0x00012b89	1.07453e-40
173	0x0001c78c	1.6342e-40
174	0x8001d9bb	-1.69942e-40
175	0x8001cb01	-1.6466e-40
176	0x00003c15	2.1553e-41
177	0x00003584	1.9198e-41
178	0x00011880	1.00624e-40
179	0x800031b7	-1.7834e-41
180	0x0000ede3	8.5338e-41
181	0x00006218	3.519e-41
182	0x0001223b	1.04115e-40
183	0x8001c240	-1.61519e-40
184	0x8000c0e5	-6.9198e-41
185	0x0000cdcc	7.3826e-41
186	0x80002360	-1.269e-41
187	0x800119c4	-1.01078e-40
188	0x800153b7	-1.21867e-40
189	0x0000c002	6.888e-41
190	0x00010f6a	9.7365e-41
191	0x000086bd	4.8335e-41
192	0x000122e6	1.04355e-40
193	0x80008f78	-5.1467e-41
194	0x8000fda0	-9.0984e-41
195	0x8000a318	-5.8507e-41
196	0x80009ced	-5.6294e-41
197	0x0000d089	7.4808e-41
198	0x80015b3b	-1.24563e-40
199	0x0000817c	4.645e-41
200	0x80013fb6	-1.1469e-40
201	0x80014699	-1.17161e-40
202	0x00012d2b	1.08039e-40
203	0x80017db9	-1.36936e-40
204	0x800138ab	-1.12164e-40
205	0x80011bb9	-1.0178e-40
206	0x00019a4e	1.4719e-40
207	0x80012d65	-1.0812e-40
208	0x00003482	1.8836e-41
209	0x80013f51	-1.14549e-40
210	0x0000c353	7.0069e-41
211	0x000093fb	5.3085e-41
212	0x80012dfb	-1.0833e-40
213	0x8001549a	-1.22185e-40
214	0x80016684	-1.28611e-40
215	0x0000ed10	8.5042e-41
216	0x000200c3	1.83944e-40
217	0x00014f85	1.20362e-40
218	0x800122da	-1.04338e-40
219	0x80018246	-1.38569e-40
220	0x800051c7	-2.9336e-41
221	0x800140be	-1.1506e-40
222	0x80015fd1	-1.26208e-40
223	0x80010b87	-9.5971e-41
224	0x8000f7e1	-8.8922e-41
225	0x00018cc1	1.42328e-40
226	0x00009dd3	5.6617e-41
227	0x8001aca5	-1.53769e-40
228	0x80008a40	-4.9595e-41
229	0x8001c87b	-1.63754e-40
230	0x80019d8a	-1.4835e-40
231	0x00018cba	1.42319e-40
232	0x0000dff8	8.0345e-41
233	0x800230f1	-2.01228e-40
234	0x00012529	1.05166e-40
235	0x80019302	-1.44572e-40
236	0x8000e7e4	-8.3187e-41
237	0x8000d569	-7.6557e-41
238	0x0000e02f	8.0422e-41
239	0x000062e3	3.5474e-41
240	0x80011296	-9.8503e-41
241	0x00006f86	4.0007e-41
242	0x00013ab5	1.12896e-40
243	0x00003630	1.9439e-41
244	0x0001af58	1.54737e-40
245	0x8001a3f7	-1.50655e-40
246	0x00014039	1.14874e-40
247	0x0001b451	1.56521e-40
248	0x00008b66	5.0007e-41
249	0x000209d2	1.87194e-40
250	0x8000d25e	-7.5466e-41
251	0x0001870f	1.40285e-40
252	0x80010e7a	-9.7029e-41
253	0x00023120	2.01294e-40
254	0x80012722	-1.05874e-40
255	0x80004bb1	-2.7153e-41

e_conv3.depth_conv.bias f4 [32]
0	0x000082c0	4.6904e-41
1	0x8000847e	-4.7529e-41
2	0x0001890e	1.41001e-40
3	0x00005bd2	3.2939e-41
4	0x80002ed0	-1.6793e-41
5	0x800211cb	-1.90054e-40
6	0x00007809	4.306e-41
7	0x8001e972	-1.7558e-40
8	0x8001cc22	-1.65065e-40
9	0x0000583c	3.1653e-41
10	0x00003974	2.061e-41
11	0x800112ad	-9.8535e-41
12	0x8000e643	-8.2602e-41
13	0x00000fe8	5.706e-42
14	0x80015a7a	-1.24292e-40
15	0x00007c8c	4.4679e-41
16	0x00020473	1.85267e-40
17	0x0000862a	4.8129e-41
18	0x00012b8e	1.0746e-40
19	0x00015e2c	1.25618e-40
20	0x0001d1f4	1.67152e-40
21	0x80001b5c	-9.815e-42
22	0x80004fa9	-2.8577e-41
23	0x8000a86d	-6.042e-41
24	0x800155ee	-1.22661e-40
25	0x0002242b	1.96646e-40
26	0x8001b407	-1.56417e-40
27	0x80015216	-1.21282e-40
28	0x00005d05	3.3369e-41
29	0x0000d903	7.7849e-41
30	0x80010871	-9.4864e-41
31	0x000125db	1.05415e-40

e_conv3.point_conv.weight f4 [32, 32, 1, 1]
0	0x80008afb	-4.9857e-41
1	0x8000bab3	-6.6975e-41
2	0x80011483	-9.9194e-41
3	0x00008a0e	4.9525e-41
4	0x80004d54	-2.774e-41
5	0x800193a8	-1.44805e-40
6	0x80006150	-3.4909e-41
7	0x0000a3bb	5.8735e-41
8	0x80001113	-6.125e-42
9	0x0000da49	7.8306e-41
10	0x0000da3a	7.8285e-41
11	0x0000dd08	7.9291e-41
12	0x8000ee78	-8.5546e-41
13	0x8001a74b	-1.51849e-40
14	0x00002728	1.4047e-41
15	0x00014983	1.18207e-40
16	0x000059ce	3.2216e-41
17	0x0000ea01	8.3945e-41
18	0x80012646	-1.05565e-40
19	0x0000bd8d	6.7998e-41
20	0x0000a3a1	5.8699e-41
21	0x80006486	-3.6061e-41
22	0x000081de	4.6588e-41
23	0x80012a9f	-1.07125e-40
24	0x8000d940	-7.7935e-41
25	0x80023125	-2.01301e-40
26	0x0001cdac	1.65617e-40
27	0x8001ae0f	-1.54276e-40
28	0x0000cf28	7.4314e-41
29	0x8001176a	-1.00235e-40
30	0x0001a864	1.52243e-40
31	0x80005599	-3.0707e-41
32	0x000096e1	5.4125e-41
33	0x00019637	1.45722e-40
34	0x00016002	1.26277e-40
35	0x0001041b	9.3308e-41
36	0x0000794d	4.3515e-41
37	0x0001001f	9.1879e-41
38	0x800085ba	-4.7972e-41
39	0x80012cee	-1.07953e-40
40	0x000171b4	1.32624e-40
41	0x000085a3	4.794e-41
42	0x8001130d	-9.867e-41
43	0x00003226	1.799e-41
44	0x0001453d	1.16674e-40
45	0x8000341b	-1.8692e-41
46	0x00013e6a	1.14225e-40
47	0x8000c755	-7.1507e-41
48	0x8000dc20	-7.8966e-41
49	0x00012d16	1.08009e-40
50	0x00001d09	1.0416e-41
51	0x0000dfb8	8.0255e-41
52	0x000224ec	1.96916e-40
53	0x80008025	-4.597e-41
54	0x00000d52	4.778e-42
55	0x8000b9e8	-6.669e-41
56	0x00013c64	1.135e-40
57	0x8001ed98	-1.77068e-40
58	0x0001e535	1.7406e-40
59	0x00013fe7	1.1476e-40
60	0x800127bc	-1.0609e-40
61	0x0000fea0	9.1342e-41
62	0x0000e713	8.2894e-41
63	0x00013414	1.10518e-40
64	0x80009df8	-5.6669e-41
65	0x0000b765	6.579e-41
66	0x80019c85	-1.47984e-40
67	0x8001c19d	-1.61291e-40
68	0x8000396e	-2.0602e-41
69	0x0000b27f	6.4032e-41
70	0x0001e0d4	1.72489e-40
71	0x0000f3c7	8.7451e-41
72	0x8000c04b	-6.8982e-41
73	0x0000c232	6.9664e-41
74	0x8001859b	-1.39764e-40
75	0x8001ec29	-1.76554e-40
76	0x8000f934	-8.9397e-41
77	0x0001ac88	1.53728e-40
78	0x800107f9	-9.4696e-41
79	0x00001493	7.38e-42
80	0x80006419	-3.5908e-41
81	0x80019b8c	-1.47635e-40
82	0x8000e2b3	-8.1324e-41
83	0x800195ac	-1.45528e-40
84	0x80009472	-5.3252e-41
85	0x8001f332	-1.79078e-40
86	0x800128cf	-1.06475e-40
87	0x80003fe3	-2.2918e-41
88	0x80015fc3	-1.26188e-40
89	0x0001260e	1.05487e-40
90	0x8001e512	-1.7401e-40
91	0x0000f0da	8.6401e-41
92	0x8000cb41	-7.2914e-41
93	0x00015931	1.23831e-40
94	0x8000aeac	-6.266e-41
95	0x80020c4a	-1.8808e-40
96	0x0000ed1e	8.5062e-41
97	0x8000c489	-7.0504e-41
98	0x8000fa17	-8.9715e-41
99	0x00022c1b	1.99493e-40
100	0x00009ad9	5.5549e-41
101	0x80003b82	-2.1347e-41
102	0x00009e37	5.6757e-41
103	0x8000d345	-7.5789e-41
104	0x80000172	-5.18e-43
105	0x0000218e	1.2037e-41
106	0x80009b15	-5.5633e-41
107	0x8000dc0c	-7.8938e-41
108	0x80011785	-1.00273e-40
109	0x80009e28	-5.6736e-41
110	0x00016d8b	1.31132e-40
111	0x80000ac9	-3.869e-42
112	0x80002485	-1.3101e-41
113	0x80014e1a	-1.19853e-40
114	0x0000d2f4	7.5676e-41
115	0x0000946e	5.3247e-41
116	0x00005bf0	3.2981e-41
117	0x8001378c	-1.11762e-40
118	0x800065ff	-3.659e-41
119	0x000049fd	2.6542e-41
120	0x800125f6	-1.05453e-40
121	0x00008452	4.7468e-41
122	0x0001e2e7	1.73233e-40
123	0x8001fdfa	-1.82945e-40
124	0x000126d9	1.05771e-40
125	0x8001580e	-1.23424e-40
126	0x00010034	9.1908e-41
127	0x8000e705	-8.2874e-41
128	0x00007028	4.0234e-41
129	0x000193fe	1.44925e-40
130	0x8000316b	-1.7728e-41
131	0x0001331b	1.10169e-40
132	0x0001c21c	1.61469e-40
133	0x8000b66c	-6.544e-41
134	0x00016319	1.27385e-40
135	0x800164b3	-1.2796e-40
136	0x00018899	1.40838e-40
137	0x800115a3	-9.9597e-41
138	0x0001472c	1.17367e-40
139	0x80006bff	-3.8742e-41
140	0x0000849a	4.7568e-41
141	0x00007a72	4.3925e-41
142	0x0000e344	8.1528e-41
143	0x0000753b	4.2054e-41
144	0x80003aad	-2.1049e-41
145	0x8000f0f3	-8.6436e-41
146	0x8001238b	-1.04586e-40
147	0x000195d3	1.45582e-40
148	0x000164af	1.27954e-40
149	0x80015521	-1.22374e-40
150	0x80023291	-2.01811e-40
151	0x8000751e	-4.2014e-41
152	0x800106bc	-9.4251e-41
153	0x0001b24d	1.55798e-40
154	0x8000cbf3	-7.3163e-41
155	0x800206d1	-1.86116e-40
156	0x00017c5d	1.36449e-40
157	0x8000e162	-8.0852e-41
158	0x8000ec8b	-8.4856e-41
159	0x0001258b	1.05303e-40
160	0x00006394	3.5722e-41
161	0x00006672	3.675e-41
162	0x8000becb	-6.8444e-41
163	0x8000860b	-4.8086e-41
164	0x00004607	2.5121e-41
165	0x000132a3	1.1e-40
166	0x00015a95	1.2433e-40
167	0x00010bb1	9.603e-41
168	0x00011f21	1.03002e-40
169	0x80008b5f	-4.9997e-41
170	0x80000ed2	-5.317e-42
171	0x800014a2	-7.402e-42
172	0x80006548	-3.6333e-41
173	0x00007d47	4.4941e-41
174	0x0000a466	5.8975e-41
175	0x0000c004	6.8882e-41
176	0x000197de	1.46315e-40
177	0x80010e2c	-9.692e-41
178	0x8000e9d6	-8.3885e-41
179	0x8000b8ad	-6.6249e-41
180	0x0000d5e3	7.6728e-41
181	0x00014a13	1.18408e-40
182	0x8000d98f	-7.8045e-41
183	0x0001020d	9.2571e-41
184	0x8000f5b0	-8.8136e-41
185	0x0001e702	1.74705e-40
186	0x80002bb5	-1.5679e-41
187	0x8000c7a3	-7.1616e-41
188	0x0000f200	8.6813e-41
189	0x8000492b	-2.6248e-41
190	0x00013f8c	1.14632e-40
191	0x000093fd	5.3088e-41
192	0x8000c3f0	-7.0289e-41
193	0x80017940	-1.35332e-40
194	0x8001861d	-1.39946e-40
195	0x00001a54	9.445e-42
196	0x0001058e	9.3828e-41
197	0x00015680	1.22866e-40
198	0x800102b1	-9.2801e-41
199	0x8001e7a1	-1.74928e-40
200	0x00003fd6	2.29e-41
201	0x800185d9	-1.39851e-40
202	0x00001cc2	1.0316e-41
203	0x00001734	8.324e-42
204	0x00013d59	1.13843e-40
205	0x80009e8b	-5.6875e-41
206	0x00000354	1.194e-42
207	0x80018ef9	-1.43124e-40
208	0x00017a3e	1.35688e-40
209	0x80018c3d	-1.42144e-40
210	0x80018e8b	-1.4297e-40
211	0x00002208	1.2208e-41
212	0x0000f4ed	8.7863e-41
213	0x8001bc3d	-1.59363e-40
214	0x00017faf	1.3764e-40
215	0x00000e5e	5.154e-42
216	0x8000b6ca	-6.5572e-41
217	0x80016fb2	-1.31904e-40
218	0x0001f61d	1.80124e-40
219	0x000119d2	1.01098e-40
220	0x0000c154	6.9353e-41
221	0x0001475d	1.17436e-40
222	0x000206d6	1.86123e-40
223	0x00013e11	1.14101e-40
224	0x0002255f	1.97077e-40
225	0x0001c0c1	1.60983e-40
226	0x80012f7b	-1.08868e-40
227	0x0001e753	1.74819e-40
228	0x80004501	-2.4754e-41
229	0x80010b5d	-9.5912e-41
230	0x0000b167	6.364e-41
231	0x000020aa	1.1718e-41
232	0x000087f4	4.8771e-41
233	0x0001a4d5	1.50966e-40
234	0x80002a25	-1.5119e-41
235	0x80008e5e	-5.1072e-41
236	0x000066ae	3.6835e-41
237	0x8000cb4a	-7.2926e-41
238	0x80015a56	-1.24242e-40
239	0x000109db	9.5371e-41
240	0x000156d0	1.22978e-40
241	0x00008c72	5.0382e-41
242	0x80020563	-1.85603e-40
243	0x0001b2ab	1.5593e-40
244	0x80012cfc	-1.07973e-40
245	0x000096ff	5.4167e-41
246	0x00003af6	2.1151e-41
247	0x00012d20	1.08023e-40
248	0x80010c15	-9.617e-41
249	0x0000e761	8.3003e-41
250	0x0000af0a	6.2792e-41
251	0x800026e5	-1.3953e-41
252	0x800059fb	-3.2279e-41
253	0x800219df	-1.92952e-40
254	0x800037ed	-2.0062e-41
255	0x8000a8d7	-6.0568e-41

e_conv3.point_conv.bias f4 [32]
0	0x00010aad	9.5665e-41
1	0x80007d30	-4.4909e-41
2	0x0001a64d	1.51493e-40
3	0x80010a22	-9.547e-41
4	0x8000b3b2	-6.4463e-41
5	0x8000f7db	-8.8914e-41
6	0x8001ccba	-1.65278e-40
7	0x8001d4fc	-1.6824e-40
8	0x800187dd	-1.40574e-40
9	0x00008afc	4.9858e-41
10	0x0000c0fa	6.9227e-41
11	0x8000e115	-8.0744e-41
12	0x80000d92	-4.868e-42
13	0x00014fa3	1.20404e-40
14	0x0001816b	1.38262e-40
15	0x000000d3	2.96e-43
16	0x00007f80	4.5738e-41
17	0x00011c04	1.01886e-40
18	0x00008114	4.6305e-41
19	0x00017da5	1.36908e-40
20	0x8000f972	-8.9484e-41
21	0x8000a178	-5.7924e-41
22	0x00013180	1.09593e-40
23	0x0001130a	9.8665e-41
24	0x0000a9ca	6.0909e-41
25	0x80000c1d	-4.345e-42
26	0x8000a145	-5.7853e-41
27	0x80006947	-3.7766e-41
28	0x00007385	4.144e-41
29	0x8000fc06	-9.0409e-41
30	0x8001c013	-1.60739e-40
31	0x0000bc00	6.7442e-41

e_conv4.depth_conv.weight f4 [32, 1, 3, 3]
0	0x800017a7	-8.485e-42
1	0x80014d92	-1.19662e-40
2	0x800129d1	-1.06836e-40
3	0x80009c27	-5.6017e-41
4	0x80017cab	-1.36558e-40
5	0x00000b88	4.137e-42
6	0x0001371c	1.11605e-40
7	0x80008b74	-5.0026e-41
8	0x00020f6c	1.89203e-40
9	0x0001463a	1.17028e-40
10	0x8000de63	-7.9777e-41
11	0x80017086	-1.32201e-40
12	0x000010a3	5.968e-42
13	0x000128b0	1.06431e-40
14	0x8001194b	-1.00909e-40
15	0x0000ff62	9.1614e-41
16	0x800135ef	-1.11183e-40
17	0x00009f41	5.713e-41
18	0x80003976	-2.0613e-41
19	0x800126ca	-1.0575e-40
20	0x80019d2d	-1.4822e-40
21	0x80001a93	-9.533e-42
22	0x00013847	1.12024e-40
23	0x80014aea	-1.1871e-40
24	0x0000d741	7.7219e-41
25	0x00013a0f	1.12663e-40
26	0x800105de	-9.394e-41
27	0x000109d5	9.5363e-41
28	0x80008d7b	-5.0754e-41
29	0x0000102c	5.801e-42
30	0x8001e6d0	-1.74635e-40
31	0x800042d1	-2.3969e-41
32	0x000146b4	1.17199e-40
33	0x00010869	9.4852e-41
34	0x000180b7	1.3801e-40
35	0x800126d2	-1.05762e-40
36	0x800110dc	-9.7884e-41
37	0x00001966	9.111e-42
38	0x00002288	1.2387e-41
39	0x8001069d	-9.4208e-41
40	0x00005719	3.1245e-41
41	0x00007105	4.0544e-41
42	0x00014209	1.15524e-40
43	0x0000b2ee	6.4188e-41
44	0x80008beb	-5.0193e-41
45	0x000146d9	1.17251e-40
46	0x80007eb7	-4.5457e-41
47	0x000092f0	5.2711e-41
48	0x0000ec77	8.4828e-41
49	0x80002511	-1.3297e-41
50	0x0001edad	1.77098e-40
51	0x0001303b	1.09137e-40
52	0x0000f353	8.7288e-41
53	0x0001f3da	1.79313e-40
54	0x8000c71f	-7.1431e-41
55	0x00012029	1.03372e-40
56	0x80017146	-1.3247e-40
57	0x80012beb	-1.0759e-40
58	0x80014d01	-1.19459e-40
59	0x00012b1a	1.07297e-40
60	0x0000fd24	9.081e-41
61	0x8000312d	-1.7641e-41
62	0x00015106	1.20901e-40
63	0x800113f7	-9.8998e-41
64	0x00012841	1.06276e-40
65	0x0001c0f6	1.61057e-40
66	0x00001f10	1.1143e-41
67	0x8001075b	-9.4474e-41
68	0x00020155	1.84149e-40
69	0x00000b55	4.065e-42
70	0x0001958d	1.45484e-40
71	0x000083b5	4.7248e-41
72	0x0001aad5	1.53118e-40
73	0x000110e6	9.7898e-41
74	0x8000929c	-5.2594e-41
75	0x8000faf0	-9.002e-41
76	0x800143b2	-1.1612e-40
77	0x8000fd0c	-9.0776e-41
78	0x00003caf	2.1769e-41
79	0x8001b3f5	-1.56392e-40
80	0x00013f34	1.14509e-40
81	0x00002cb2	1.6034e-41
82	0x0000eb73	8.4463e-41
83	0x0001a651	1.51499e-40
84	0x0000a39c	5.8692e-41
85	0x00005609	3.0864e-41
86	0x00013c86	1.13547e-40
87	0x80014ee5	-1.20138e-40
88	0x80013b87	-1.1319e-40
89	0x80013286	-1.0996e-40
90	0x0000d7a1	7.7353e-41
91	0x8001364f	-1.11318e-40
92	0x800172aa	-1.32969e-40
93	0x80018f69	-1.43281e-40
94	0x00014459	1.16354e-40
95	0x000154b9	1.22228e-40
96	0x0001ae88	1.54446e-40
97	0x800208ea	-1.86869e-40
98	0x0000e861	8.3362e-41
99	0x00003899	2.0303e-41
100	0x00016fde	1.31966e-40
101	0x00019a34	1.47153e-40
102	0x0000947d	5.3268e-41
103	0x80013308	-1.10142e-40
104	0x00001431	7.243e-42
105	0x0001eecc	1.775e-40
106	0x00010055	9.1955e-41
107	0x80003971	-2.0606e-41
108	0x000168c4	1.29418e-40
109	0x80017cee	-1.36652e-40
110	0x8000f90c	-8.9341e-41
111	0x00018342	1.38922e-40
112	0x00014e9c	1.20035e-40
113	0x000168b8	1.29402e-40
114	0x0000da72	7.8363e-41
115	0x800009b2	-3.478e-42
116	0x00001a1c	9.366e-42
117	0x0000dfbf	8.0265e-41
118	0x0001c697	1.63076e-40
119	0x80013b29	-1.13058e-40
120	0x00017bd9	1.36264e-40
121	0x0000ee33	8.545e-41
122	0x0000c736	7.1463e-41
123	0x8000e363	-8.1571e-41
124	0x0000e285	8.126e-41
125	0x8001e1a9	-1.72787e-40
126	0x00018b52	1.41814e-40
127	0x800079af	-4.3652e-41
128	0x00007a49	4.3868e-41
129	0x8000b88c	-6.6203e-41
130	0x000211e6	1.90092e-40
131	0x00016bbb	1.30482e-40
132	0x00018539	1.39627e-40
133	0x0000ddee	7.9613e-41
134	0x80012f59	-1.0882e-40
135	0x80002033	-1.1551e-41
136	0x0000a529	5.9248e-41
137	0x00010b96	9.5992e-41
138	0x0000206e	1.1634e-41
139	0x8002083f	-1.86629e-40
140	0x80014471	-1.16388e-40
141	0x8001bdc5	-1.59912e-40
142	0x0000e20f	8.1095e-41
143	0x000067df	3.7262e-41
144	0x0000003e	8.7e-44
145	0x00014cf4	1.19441e-40
146	0x0000ea0c	8.396e-41
147	0x0000f50f	8.791e-41
148	0x0000cef3	7.424e-41
149	0x8001ebcf	-1.76428e-40
150	0x8001a778	-1.51912e-40
151	0x800057e5	-3.153e-41
152	0x8001209f	-1.03538e-40
153	0x80003726	-1.9784e-41
154	0x80005356	-2.9895e-41
155	0x00006709	3.6962e-41
156	0x0001821c	1.3851e-40
157	0x0000e543	8.2244e-41
158	0x0000c0e9	6.9203e-41
159	0x00001c70	1.0201e-41
160	0x0000ab1f	6.1387e-41
161	0x80016cff	-1.30936e-40
162	0x80010a4a	-9.5527e-41
163	0x8000ced5	-7.4197e-41
164	0x00015af7	1.24468e-40
165	0x80005b25	-3.2696e-41
166	0x80019826	-1.46416e-40
167	0x80014dd8	-1.1976e-40
168	0x00006cfb	3.9095e-41
169	0x8001a29d	-1.5017e-40
170	0x0001be69	1.60142e-40
171	0x0000a136	5.7832e-41
172	0x8001d5eb	-1.68575e-40
173	0x8000415e	-2.345e-41
174	0x800082f8	-4.6983e-41
175	0x800172fb	-1.33083e-40
176	0x0000f690	8.845e-41
177	0x0000ea09	8.3956e-41
178	0x0001070c	9.4363e-41
179	0x800100b8	-9.2093e-41
180	0x000120f5	1.03658e-40
181	0x8001a699	-1.516e-40
182	0x000104b3	9.3521e-41
183	0x800039d9	-2.0752e-41
184	0x000128d7	1.06486e-40
185	0x80004fc5	-2.8616e-41
186	0x8000e563	-8.2288e-41
187	0x80001893	-8.816e-42
188	0x00011aa1	1.01388e-40
189	0x8000f664	-8.8388e-41
190	0x00004bc6	2.7182e-41
191	0x8000f089	-8.6288e-41
192	0x8001c44c	-1.62254e-40
193	0x000135d2	1.11143e-40
194	0x8001a3cc	-1.50595e-40
195	0x000076dd	4.264e-41
196	0x80005122	-2.9105e-41
197	0x80004755	-2.5589e-41
198	0x0001dcf9	1.71106e-40
199	0x8000e1ed	-8.1047e-41
200	0x8000aea1	-6.2645e-41
201	0x00020267	1.84533e-40
202	0x80006cd9	-3.9047e-41
203	0x80010463	-9.3409e-41
204	0x00005810	3.1591e-41
205	0x800074ff	-4.197e-41
206	0x80015cd1	-1.25132e-40
207	0x8000fcdf	-9.0713e-41
208	0x00017749	1.34627e-40
209	0x0000bc65	6.7583e-41
210	0x80004145	-2.3414e-41
211	0x00009747	5.4268e-41
212	0x000173a0	1.33314e-40
213	0x800025b0	-1.352e-41
214	0x8000f48d	-8.7728e-41
215	0x80012ecf	-1.08627e-40
216	0x8000ee81	-8.5559e-41
217	0x0001f8e2	1.81118e-40
218	0x00009b67	5.5748e-41
219	0x8001e38e	-1.73467e-40
220	0x00009996	5.5096e-41
221	0x0000220b	1.2212e-41
222	0x000053a8	3.001e-41
223	0x00017929	1.353e-40
224	0x8001b309	-1.56061e-40
225	0x80001813	-8.636e-42
226	0x80015e7c	-1.2573e-40
227	0x800185a2	-1.39774e-40
228	0x00015a8f	1.24322e-40
229	0x8001a88e	-1.52302e-40
230	0x8001dbbe	-1.70664e-40
231	0x00009a3d	5.533e-41
232	0x80008a3c	-4.9589e-41
233	0x8001eede	-1.77525e-40
234	0x00009144	5.2111e-41
235	0x000027d3	1.4286e-41
236	0x80010827	-9.476e-41
237	0x80013871	-1.12083e-40
238	0x8000cbfa	-7.3173e-41
239	0x00001620	7.937e-42
240	0x0001c577	1.62673e-40
241	0x800178ff	-1.35241e-40
242	0x80014a31	-1.1845e-40
243	0x8001195c	-1.00933e-40
244	0x000074b0	4.186e-41
245	0x0001b7da	1.57789e-40
246	0x00015b98	1.24693e-40
247	0x0000b0be	6.3403e-41
248	0x8000d94a	-7.7949e-41
249	0x0000bea3	6.8388e-41
250	0x0001f8d1	1.81094e-40
251	0x80007ee9	-4.5527e-41
252	0x80001687	-8.081e-42
253	0x80014b96	-1.1895e-40
254	0x0001d8cd	1.69609e-40
255	0x80002bf0	-1.5762e-41

e_conv4.depth_conv.bias f4 [32]
0	0x80003ecf	-2.2531e-41
1	0x0000c528	7.0726e-41
2	0x80008bbe	-5.013e-41
3	0x800049bc	-2.6451e-41
4	0x0000939d	5.2954e-41
5	0x0000f190	8.6656e-41
6	0x80009f73	-5.72e-41
7	0x00015369	1.21757e-40
8	0x00000def	4.998e-42
9	0x00008542	4.7804e-41
10	0x0000766c	4.2482e-41
11	0x800184f8	-1.39536e-40
12	0x8000ff96	-9.1687e-41
13	0x0000d401	7.6053e-41
14	0x0000a661	5.9686e-41
15	0x0000834e	4.7103e-41
16	0x00006713	3.6976e-41
17	0x80016257	-1.27113e-40
18	0x800109a3	-9.5292e-41
19	0x80018cfc	-1.42411e-40
20	0x00018433	1.3926e-40
21	0x8000b05e	-6.3269e-41
22	0x00015c97	1.2505e-40
23	0x8000f8bd	-8.923e-41
24	0x8001763e	-1.34253e-40
25	0x800107b0	-9.4593e-41
26	0x00009468	5.3238e-41
27	0x00010175	9.2358e-41
28	0x80001565	-7.675e-42
29	0x80016469	-1.27856e-40
30	0x8001228d	-1.0423e-40
31	0x80007136	-4.0612e-41

e_conv4.point_conv.weight f4 [32, 32, 1, 1]
0	0x00013199	1.09628e-40
1	0x00012109	1.03686e-40
2	0x00009bd1	5.5896e-41
3	0x0000c526	7.0724e-41
4	0x80007ed4	-4.5497e-41
5	0x0001a35b	1.50436e-40
6	0x00014c9a	1.19315e-40
7	0x80014f44	-1.2027e-40
8	0x80011999	-1.01018e-40
9	0x00014285	1.15698e-40
10	0x8000d385	-7.5879e-41
11	0x0000e73a	8.2948e-41
12	0x800126e9	-1.05794e-40
13	0x00016a18	1.29895e-40
14	0x80004eed	-2.8313e-41
15	0x00006ddb	3.9409e-41
16	0x80000e57	-5.144e-42
17	0x0000adb9	6.232e-41
18	0x8001f7dd	-1.80752e-40
19	0x000049e4	2.6507e-41
20	0x8001365c	-1.11336e-40
21	0x80005c7f	-3.3181e-41
22	0x800089b8	-4.9404e-41
23	0x00017035	1.32088e-40
24	0x8001620c	-1.27008e-40
25	0x800062c1	-3.5426e-41
26	0x80001122	-6.146e-42
27	0x00000b42	4.039e-42
28	0x80010660	-9.4122e-41
29	0x80007092	-4.0383e-41
30	0x00018674	1.40068e-40
31	0x800157dc	-1.23354e-40
32	0x000096b0	5.4056e-41
33	0x0001accb	1.53822e-40
34	0x0001e1d8	1.72853e-40
35	0x80010971	-9.5222e-41
36	0x000089b6	4.9401e-41
37	0x80003c8a	-2.1717e-41
38	0x8001bdb6	-1.59891e-40
39	0x80017df3	-1.37018e-40
40	0x00011bcc	1.01807e-40
41	0x0001535c	1.21739e-40
42	0x00020cc3	1.88249e-40
43	0x8001a8b1	-1.5235e-40
44	0x00002f9b	1.7078e-41
45	0x800107ac	-9.4588e-41
46	0x0000fc96	9.0611e-41
47	0x80010d4f	-9.661e-41
48	0x8001eb16	-1.76168e-40
49	0x00004e5c	2.811e-41
50	0x800128bc	-1.06448e-40
51	0x0000538d	2.9972e-41
52	0x80013700	-1.11566e-40
53	0x800159e3	-1.24081e-40
54	0x80015511	-1.22352e-40
55	0x8001949e	-1.45149e-40
56	0x000064f8	3.6221e-41
57	0x000075e3	4.229e-41
58	0x0000ee7e	8.5555e-41
59	0x80017ab1	-1.35849e-40
60	0x80004077	-2.3126e-41
61	0x00004519	2.4788e-41
62	0x800157b8	-1.23303e-40
63	0x80012c3d	-1.07705e-40
64	0x800168b4	-1.29396e-40
65	0x00010ec7	9.7137e-41
66	0x8000ee51	-8.5492e-41
67	0x0000573a	3.1291e-41
68	0x80000327	-1.131e-42
69	0x0001bcf4	1.59619e-40
70	0x0000f58c	8.8086e-41
71	0x8001286f	-1.0634e-40
72	0x00000ad6	3.887e-42
73	0x8001bf03	-1.60358e-40
74	0x00006e0b	3.9476e-41
75	0x80005117	-2.909e-41
76	0x0001cb4b	1.64763e-40
77	0x8001594d	-1.2387e-40
78	0x80011f2d	-1.03019e-40
79	0x8001dfb5	-1.72086e-40
80	0x0000e31d	8.1473e-41
81	0x80000c56	-4.425e-42
82	0x8001eaac	-1.7602e-40
83	0x800117b0	-1.00333e-40
84	0x00001516	7.564e-42
85	0x80019659	-1.4577e-40
86	0x000118f7	1.00791e-40
87	0x8000c912	-7.213e-41
88	0x80013526	-1.10902e-40
89	0x000025fb	1.3625e-41
90	0x80011c13	-1.01907e-40
91	0x80004534	-2.4825e-41
92	0x800183dc	-1.39138e-40
93	0x800088db	-4.9094e-41
94	0x800204db	-1.85413e-40
95	0x0000efac	8.5978e-41
96	0x0000a023	5.7446e-41
97	0x0000469a	2.5327e-41
98	0x80005e77	-3.3888e-41
99	0x0000b171	6.3654e-41
100	0x0000c55b	7.0798e-41
101	0x00004e14	2.8009e-41
102	0x800142e2	-1.15829e-40
103	0x80019718	-1.46038e-40
104	0x80004fc0	-2.8609e-41
105	0x00003d7a	2.2054e-41
106	0x000077d0	4.298e-41
107	0x80005f24	-3.413e-41
108	0x8001d1f3	-1.67151e-40
109	0x80004e86	-2.8169e-41
110	0x8000720c	-4.0912e-41
111	0x000178e7	1.35207e-40
112	0x8000b99f	-6.6588e-41
113	0x00011158	9.8057e-41
114	0x80011f16	-1.02987e-40
115	0x0000d768	7.7273e-41
116	0x800100ed	-9.2168e-41
117	0x800136b9	-1.11466e-40
118	0x0001467a	1.17118e-40
119	0x00002a7d	1.5242e-41
120	0x8001897d	-1.41157e-40
121	0x8000ad95	-6.227e-41
122	0x8001025e	-9.2685e-41
123	0x00001e6c	1.0913e-41
124	0x0000daca	7.8487e-41
125	0x00010bd7	9.6083e-41
126	0x000093b6	5.2989e-41
127	0x0000a9c4	6.09e-41
128	0x80016fed	-1.31987e-40
129	0x0000cc81	7.3362e-41
130	0x00015309	1.21623e-40
131	0x8001c8df	-1.63894e-40
132	0x00015296	1.21462e-40
133	0x00012487	1.04939e-40
134	0x00003b66	2.1308e-41
135	0x00012f47	1.08795e-40
136	0x0000692d	3.773e-41
137	0x80013cf5	-1.13703e-40
138	0x80012d52	-1.08093e-40
139	0x00014ca6	1.19332e-40
140	0x000026f0	1.3968e-41
141	0x800146bd	-1.17212e-40
142	0x0001905b	1.4362e-40
143	0x00011abf	1.0143e-40
144	0x000153d2	1.21905e-40
145	0x80018c41	-1.42149e-40
146	0x0000359f	1.9236e-41
147	0x00013f19	1.1447e-40
148	0x80016dd9	-1.31241e-40
149	0x00000ed9	5.326e-42
150	0x000119ae	1.01048e-40
151	0x80007b69	-4.4271e-41
152	0x800200a3	-1.839e-40
153	0x000162e8	1.27316e-40
154	0x00016bcf	1.3051e-40
155	0x0000e192	8.092e-41
156	0x8000da50	-7.8316e-41
157	0x80022599	-1.97158e-40
158	0x0000e803	8.323e-41
159	0x80009326	-5.2787e-41
160	0x0001255c	1.05238e-40
161	0x8001c39c	-1.62007e-40
162	0x00016393	1.27556e-40
163	0x000029bf	1.4976e-41
164	0x80022a98	-1.98951e-40
165	0x000117c4	1.00361e-40
166	0x000198dd	1.46673e-40
167	0x8000fa55	-8.9802e-41
168	0x80007101	-4.0538e-41
169	0x0000e98c	8.3781e-41
170	0x0000ea84	8.4128e-41
171	0x8000c393	-7.0159e-41
172	0x0001ddb0	1.71362e-40
173	0x00016e15	1.31325e-40
174	0x8002193c	-1.92723e-40
175	0x80005c1a	-3.304e-41
176	0x80007171	-4.0695e-41
177	0x000199e5	1.47042e-40
178	0x000001e0	6.73e-43
179	0x0000f3a0	8.7396e-41
180	0x80022f18	-2.00565e-40
181	0x0000f2b0	8.706e-41
182	0x80002c20	-1.5829e-41
183	0x00018b32	1.4177e-40
184	0x00019a9e	1.47302e-40
185	0x8000b07c	-6.331e-41
186	0x80019017	-1.43525e-40
187	0x0001159f	9.9592e-41
188	0x00011345	9.8748e-41
189	0x80017436	-1.33524e-40
190	0x00020d81	1.88515e-40
191	0x8001c9f5	-1.64284e-40
192	0x80015b5f	-1.24613e-40
193	0x8000ce5e	-7.403e-41
194	0x80006500	-3.6232e-41
195	0x80013c5d	-1.1349e-40
196	0x00022b84	1.99281e-40
197	0x8000eff2	-8.6076e-41
198	0x00012b06	1.0727e-40
199	0x00014033	1.14866e-40
200	0x00007efd	4.5555e-41
201	0x800100b4	-9.2088e-41
202	0x80007411	-4.1637e-41
203	0x000067cf	3.724e-41
204	0x00013348	1.10232e-40
205	0x800114db	-9.9317e-41
206	0x0000f31a	8.7208e-41
207	0x0000873e	4.8516e-41
208	0x00019154	1.4397e-40
209	0x00000e81	5.203e-42
210	0x00022400	1.96585e-40
211	0x8000c59e	-7.0892e-41
212	0x00016619	1.28461e-40
213	0x800132ff	-1.1013e-40
214	0x800000d3	-2.96e-43
215	0x0001bcc7	1.59556e-40
216	0x00006f84	4.0004e-41
217	0x00009381	5.2914e-41
218	0x80010713	-9.4373e-41
219	0x80004d56	-2.7743e-41
220	0x000178d2	1.35178e-40
221	0x0000e11c	8.0754e-41
222	0x8001907e	-1.4367e-40
223	0x00006c88	3.8934e-41
224	0x800062d0	-3.5447e-41
225	0x0000a1ee	5.809e-41
226	0x8000c3d7	-7.0254e-41
227	0x800167d4	-1.29082e-40
228	0x80007735	-4.2763e-41
229	0x00022462	1.96723e-40
230	0x8000a9cc	-6.0912e-41
231	0x0001dc7b	1.70929e-40
232	0x0000e710	8.289e-41
233	0x8000e9e0	-8.3899e-41
234	0x0000912e	5.208e-41
235	0x0000ffb2	9.1726e-41
236	0x00010a78	9.5591e-41
237	0x0001a86b	1.52252e-40
238	0x80011570	-9.9526e-41
239	0x0000b20d	6.3873e-41
240	0x80009599	-5.3666e-41
241	0x00004cd1	2.7557e-41
242	0x800100b5	-9.2089e-41
243	0x8000e0ba	-8.0617e-41
244	0x00021a2b	1.93058e-40
245	0x8000f45d	-8.7661e-41
246	0x000020dd	1.1789e-41
247	0x00019d98	1.4837e-40
248	0x80008946	-4.9244e-41
249	0x800174bc	-1.33712e-40
250	0x00008934	4.9219e-41
251	0x8000be65	-6.83e-41
252	0x0000c738	7.1466e-41
253	0x0000e5bf	8.2417e-41
254	0x8001778d	-1.34722e-40
255	0x0001ca61	1.64435e-40

e_conv4.point_conv.bias f4 [32]
0	0x00015c59	1.24964e-40
1	0x80016e5c	-1.31425e-40
2	0x80005f73	-3.4241e-41
3	0x8000241d	-1.2955e-41
4	0x000203cc	1.85033e-40
5	0x0000aa10	6.1007e-41
6	0x00010d94	9.6706e-41
7	0x8000f365	-8.7314e-41
8	0x80017cb9	-1.36578e-40
9	0x000154e7	1.22293e-40
10	0x00020995	1.87108e-40
11	0x0000a07e	5.7574e-41
12	0x00003350	1.8407e-41
13	0x800026a9	-1.3869e-41
14	0x80002032	-1.155e-41
15	0x8000ab65	-6.1485e-41
16	0x0000b581	6.5111e-41
17	0x00010464	9.341e-41
18	0x80001953	-9.085e-42
19	0x80007162	-4.0674e-41
20	0x000054f1	3.0471e-41
21	0x00002e09	1.6514e-41
22	0x80017d62	-1.36814e-40
23	0x000156a1	1.22912e-40
24	0x80022b54	-1.99214e-40
25	0x80011927	-1.00858e-40
26	0x800160ba	-1.26534e-40
27	0x00007252	4.101e-41
28	0x0001b632	1.57195e-40
29	0x0000f7a2	8.8834e-41
30	0x80008a5f	-4.9638e-41
31	0x80007308	-4.1265e-41
