Zero-DCE++/snapshots_Zero_DCE++/Epoch99.pth (torch, 51217 bytes, 28 tensors)

e_conv1.depth_conv.weight f4 [3, 1, 3, 3]
0	0xbeb5308b	-0.35388598
1	0xbe4019b2	-0.18759802
2	0xbc5ad5fe	-0.013356684
3	0xbe29f859	-0.16598643
4	0x3db222df	0.086980574
5	0x3db0c065	0.08630446
6	0xbedc552f	-0.4303374
7	0xbe410f5b	-0.18853514
8	0xbd57d9fb	-0.052698117
9	0x3e4d66ba	0.20058718
10	0x3e38fea5	0.18065889
11	0x3ebb4eb8	0.36583495
12	0x3e3bbae5	0.18333013
13	0x3d1d01d8	0.038331836
14	0x3e6f0e08	0.23345196
15	0x3daba6a5	0.08381394
16	0x3d781182	0.06056357
17	0x3e75fc71	0.2402208
18	0x3d8990e3	0.06717088
19	0xbcf99e65	-0.030471036
20	0xbdd5a108	-0.10431105
21	0xbd28eac1	-0.041239504
22	0xbd472754	-0.04862149
23	0xbdd63f60	-0.104613066
24	0xbe08eeac	-0.13372296
25	0xbe2a665d	-0.16640611
26	0xbeb11209	-0.34584072

e_conv1.depth_conv.bias f4 [3]
0	0x3d9fbdc5	0.077998675
1	0x3e996b20	0.29964542
2	0xbd64de4a	-0.055876054

e_conv1.point_conv.weight f4 [32, 3, 1, 1]
0	0x3c66f8c9	0.014097401
1	0x3da300ba	0.07959123
2	0x3c63d7aa	0.013906399
3	0x839e19c2	-9.292319e-37
4	0x05140604	6.9600315e-36
5	0x8410983a	-1.6997018e-36
6	0x0000c74e	7.1497e-41
7	0x0000bee6	6.8481e-41
8	0x000041e4	2.3637e-41
9	0x3dc9405d	0.098267294
10	0xbefaeee1	-0.49010375
11	0x3e31b82c	0.17355412
12	0x9bd6c8d2	-3.5533107e-22
13	0x9d94f3c3	-3.9427318e-21
14	0x9dba8912	-4.9375517e-21
15	0x3d0a8692	0.033819743
16	0x3d9c947a	0.07645507
17	0x3ebafa51	0.365191
18	0x3dfa1f25	0.122129716
19	0x3e9edc3b	0.31027398
20	0xbdbb7405	-0.09152988
21	0x000011f8	6.446e-42
22	0x00007de5	4.5162e-41
23	0x8000273b	-1.4073e-41
24	0x3d831679	0.06400771
25	0xbbbd9d15	-0.005786548
26	0x3dd0c699	0.101941295
27	0x3d2bed26	0.04197421
28	0xbbb106cb	-0.005402421
29	0xbda391eb	-0.07986816
30	0x3ed2e0e7	0.41187212
31	0xbf0d1d28	-0.55122614
32	0x3e9288e6	0.2862007
33	0xbc1e869b	-0.009675647
34	0xbce6b4c0	-0.02816236
35	0x3d24cdf1	0.040235464
36	0x3e50ca9c	0.2038979
37	0xbebb4985	-0.36579528
38	0xbe2c6d83	-0.1683865
39	0xbd844a29	-0.064594574
40	0xbe24d744	-0.16097742
41	0x3e0dca5f	0.1384673
42	0x8001137b	-9.8824e-41
43	0x800176b2	-1.34415e-40
44	0x80012a36	-1.06978e-40
45	0x3bcc42f4	0.0062335674
46	0x3e8a9b03	0.2707139
47	0x3e4e911a	0.2017254
48	0xbe82a43d	-0.2551593
49	0x3eb2fc0c	0.34957922
50	0xbe6e4beb	-0.23271148
51	0x15fbe3d2	1.0173753e-25
52	0x95d2012e	-8.4820186e-26
53	0x15ea01d5	9.451474e-26
54	0x002f8bcc	4.366418e-39
55	0xa019be8b	-1.302265e-19
56	0x80004f0b	-2.8355e-41
57	0x00009946	5.4984e-41
58	0x80004a06	-2.6555e-41
59	0x00009051	5.1771e-41
60	0xbf080880	-0.5313797
61	0xbd1a482b	-0.03766648
62	0xbea316b4	-0.3185326
63	0x0000569f	3.1074e-41
64	0x8953209a	-2.541353e-33
65	0x0000a15b	5.7883e-41
66	0xbbc292ce	-0.0059379106
67	0x3bd61d2b	0.006534239
68	0x3ab49257	0.0013776523
69	0x00002a42	1.5159e-41
70	0x8000cb06	-7.2831e-41
71	0x000003cd	1.363e-42
72	0x21c08923	1.3046726e-18
73	0xae3c83e9	-4.286341e-11
74	0x1e06113f	7.097467e-21
75	0x3d64d658	0.055868477
76	0x3c44fc2f	0.012023016
77	0xbc939a27	-0.018017842
78	0xb9c33bb1	-0.00037237772
79	0xb94a9208	-0.00019318622
80	0x3945cc29	0.0001886344
81	0x3e91349f	0.2836046
82	0xbe133466	-0.14375457
83	0xbe60ca93	-0.21952276
84	0x3d730de2	0.05933941
85	0x3b50a9ca	0.0031839483
86	0xbc0646e1	-0.00819561
87	0x80001074	-5.902e-42
88	0x08046163	3.9836783e-34
89	0x000016bf	8.16e-42
90	0x3e5fe0a0	0.21863031
91	0x3c333f7a	0.010940427
92	0xbd9589c5	-0.07301668
93	0xbe57eb19	-0.21085776
94	0x3eea323a	0.45741445
95	0xbe7dae6c	-0.24773568

e_conv1.point_conv.bias f4 [32]
0	0xbd7ac5c9	-0.06122378
1	0x06112c80	2.7304162e-35
2	0x00000690	2.354e-42
3	0x3f11a7c0	0.5689659
4	0x1db70c97	4.8452714e-21
5	0x3da5e6b3	0.08100643
6	0x3e72cfd4	0.23712093
7	0x80216367	-3.06623e-39
8	0x3d86e7cb	0.0658718
9	0xbc7f421b	-0.015579726
10	0x3ecf670c	0.40508306
11	0x3eeaa7c4	0.4583112
12	0x3ebcde2a	0.36888248
13	0x3e9baa40	0.30403328
14	0x00002aac	1.5308e-41
15	0x3ee133cc	0.4398483
16	0x3bac6f76	0.0052623106
17	0x1467cd2e	1.1702984e-26
18	0x9da4cc71	-4.3621826e-21
19	0x01e20e69	8.3039966e-38
20	0x3ecec6c3	0.40386018
21	0x97188ec3	-4.929404e-25
22	0x3e8eda91	0.27901128
23	0x8330017f	-5.172347e-37
24	0xaf25878d	-1.505482e-10
25	0x3c3c4b02	0.011492493
26	0xb9026e0a	-0.00012438759
27	0x3e90ffe5	0.28320232
28	0x3cc0e712	0.023547683
29	0x98df638e	-5.7744673e-24
30	0x3f0a20ca	0.5395628
31	0xbd918e22	-0.07107188

e_conv2.depth_conv.weight f4 [32, 1, 3, 3]
0	0xbb2771e3	-0.002555006
1	0xbb247d32	-0.0025099036
2	0x389b8955	7.416556e-05
3	0xbc1030d9	-0.008800709
4	0xbc0e760d	-0.008695138
5	0xbb3e8725	-0.0029072252
6	0xbc226fcf	-0.009914353
7	0xbc0c664f	-0.008569314
8	0xbb43cba1	-0.002987601
9	0x0386f0a1	7.931058e-37
10	0x03887c54	8.021906e-37
11	0x03a022b8	9.411926e-37
12	0x03665f49	6.7700307e-37
13	0x0341adbd	5.6917044e-37
14	0x02cb4b1f	2.9871287e-37
15	0x03111072	4.263055e-37
16	0x0304fe8d	3.9083524e-37
17	0x02c03faa	2.8248406e-37
18	0x8001a505	-1.51033e-40
19	0x000024b7	1.3171e-41
20	0x8001a7ee	-1.52077e-40
21	0x8001e6cb	-1.74628e-40
22	0x80006969	-3.7814e-41
23	0x000057e6	3.1532e-41
24	0x80021070	-1.89568e-40
25	0x80001cf4	-1.0386e-41
26	0x8001a221	-1.49996e-40
27	0xbe8643da	-0.26223642
28	0xbe641625	-0.22274072
29	0xbd08d8e4	-0.033409968
30	0xbdea093e	-0.11427544
31	0x3d816a0f	0.06319057
32	0x3e4d7bbc	0.20066732
33	0x3e82bf69	0.2553666
34	0x3bf6f016	0.0075359447
35	0x3ef2722e	0.47352737
36	0x1cd25b45	1.3920227e-21
37	0x1ab2426a	7.372637e-23
38	0x9d132fd5	-1.9480017e-21
39	0x1ce70ff1	1.5290418e-21
40	0x1a041892	2.7316808e-23
41	0x9d29a0b9	-2.2450055e-21
42	0x1b25b885	1.3708102e-22
43	0x9cca2aae	-1.3378271e-21
44	0x9d706540	-3.181608e-21
45	0x3d553ecb	0.052061837
46	0x3d85314d	0.06503544
47	0x3d49260c	0.04910855
48	0x3cc967dc	0.024585657
49	0x3d931bde	0.071830496
50	0x3d37556b	0.044759195
51	0xbd857974	-0.06517306
52	0xbcbf5364	-0.023355193
53	0xbe1c7d14	-0.15282089
54	0x3d6410a4	0.055679932
55	0xbd248db6	-0.04017421
56	0xbe8e279c	-0.27764595
57	0x3d67c348	0.05658272
58	0x3dff5466	0.124672696
59	0xbda6daf5	-0.081472315
60	0xbc630a02	-0.0138573665
61	0xbb975f72	-0.0046195323
62	0xbe8c0366	-0.27346343
63	0x8058f34f	-8.168806e-39
64	0x80593906	-8.193815e-39
65	0x80527ddf	-7.575665e-39
66	0x805a07d8	-8.268008e-39
67	0x805acc63	-8.338515e-39
68	0x8051b640	-7.504054e-39
69	0x8058f6fa	-8.170122e-39
70	0x8059586d	-8.20508e-39
71	0x8051becb	-7.507119e-39
72	0x3c300f78	0.010745876
73	0x3b7a61a8	0.003820518
74	0x3a642621	0.00087031914
75	0x3bafe688	0.0053680576
76	0x3a2460f8	0.0006270553
77	0x3b166760	0.00229498
78	0x3bb8429e	0.0056231758
79	0x3c26164e	0.010137154
80	0x3cd1d4f8	0.025614247
81	0x3b845f13	0.004039654
82	0x3ad1f0cb	0.0016017196
83	0xbb5bc90c	-0.0033536581
84	0x3b73cc11	0.003720049
85	0xbab621a1	-0.001389552
86	0xbbdb9827	-0.0067014876
87	0x3b1aa9ad	0.002359967
88	0xbb291874	-0.0025801929
89	0xbb734b02	-0.0037123566
90	0x3ea6cc9b	0.32577977
91	0x3e4ede59	0.20202006
92	0x3e8534ce	0.2601685
93	0x3e4e7b0e	0.20164129
94	0xbd948497	-0.07251852
95	0x3e7a2bac	0.24430722
96	0x3e981fb1	0.2971168
97	0x3dd8a45e	0.105782256
98	0x3e17b626	0.14815578
99	0x3e7e8c57	0.24858223
100	0xbdea6373	-0.1144475
101	0x3e4b2ca7	0.19841252
102	0x3d9881e6	0.07446651
103	0xbe3e8e3c	-0.18608946
104	0xbda97874	-0.08274928
105	0x3e80ee5f	0.25181863
106	0x3d877747	0.06614547
107	0x3e4122a0	0.18860865
108	0x3ecee375	0.4040791
109	0x3e02b0ea	0.127628
110	0x3e696bab	0.22794978
111	0x3e82ce2b	0.2554792
112	0x3e1a30b1	0.15057637
113	0x3dadc89d	0.084855296
114	0x3e7d162c	0.24715489
115	0x3dde8fb3	0.10867252
116	0xbd86984d	-0.06572018
117	0x3ce94c37	0.028478725
118	0x3d7770fb	0.06041048
119	0x3dd76042	0.105164066
120	0x3db5ea92	0.08882631
121	0xbdaccf32	-0.08437957
122	0x3e2d886c	0.16946572
123	0xbd232d22	-0.039837964
124	0x3d90647c	0.07050416
125	0x3ec16b88	0.37777352
126	0x8001f075	-1.78095e-40
127	0x80012cc3	-1.07893e-40
128	0x8001e9e8	-1.75745e-40
129	0x80020df7	-1.8868e-40
130	0x8000e188	-8.0905e-41
131	0x8000f85b	-8.9093e-41
132	0x8000447d	-2.4569e-41
133	0x0000c71b	7.1426e-41
134	0x8000f839	-8.9046e-41
135	0xbd42007e	-0.04736375
136	0x3e09c23f	0.13453005
137	0xbe0353f5	-0.12824996
138	0x3de87a47	0.113514476
139	0x3e3d66b2	0.18496206
140	0x3e1ee83b	0.15518276
141	0xbe0bb295	-0.13642342
142	0xbd862792	-0.06550516
143	0xbdbfd2f7	-0.0936641
144	0x3dd01aae	0.10161339
145	0x3e561a4f	0.20908473
146	0x3eafff35	0.34374395
147	0x3daf537e	0.08560847
148	0x3c93dc5f	0.018049417
149	0x3de28372	0.110602275
150	0xbe0d976b	-0.13827293
151	0xbdb11b02	-0.086477295
152	0xbe566220	-0.20935869
153	0x0fbc5522	1.8571023e-29
154	0x0fb7a0be	1.8107109e-29
155	0x0faeeaa6	1.7248108e-29
156	0x0fc47e4a	1.9375737e-29
157	0x0fbe7210	1.8779382e-29
158	0x0fba7485	1.8385898e-29
159	0x0fdf1abb	2.1999794e-29
160	0x0fd3a59b	2.0869995e-29
161	0x0fcef7a2	2.0408553e-29
162	0x00014a24	1.18432e-40
163	0x800038cd	-2.0376e-41
164	0x000197fe	1.4636e-40
165	0x8000a683	-5.9733e-41
166	0x800191b6	-1.44107e-40
167	0x8000efb7	-8.5993e-41
168	0x800163c9	-1.27632e-40
169	0x8000cd36	-7.3616e-41
170	0x8001f019	-1.77966e-40
171	0x800adcb8	-9.97534e-40
172	0x8008bb88	-8.01958e-40
173	0x8003ec23	-3.60216e-40
174	0x800ac8cb	-9.90386e-40
175	0x80089d80	-7.91184e-40
176	0x80039659	-3.29441e-40
177	0x8008b5d9	-7.99919e-40
178	0x80061acc	-5.60626e-40
179	0x8001bbb4	-1.5917e-40
180	0xbdb8c0be	-0.09021138
181	0x3e50fc75	0.20408805
182	0xbe394f33	-0.18096618
183	0xbe9d2c78	-0.3069799
184	0xbc0d333a	-0.00861817
185	0x3d3b0aef	0.045664724
186	0xbeba6762	-0.36407
187	0xbe5eb052	-0.21746948
188	0xbe7cd39d	-0.24690099
189	0x8000c13e	-6.9322e-41
190	0x000012eb	6.786e-42
191	0x0000fe89	9.131e-41
192	0x000018ba	8.87e-42
193	0x8000f735	-8.8681e-41
194	0x0000e3ad	8.1675e-41
195	0x0000b45f	6.4705e-41
196	0x800140ac	-1.15035e-40
197	0x80007e73	-4.5361e-41
198	0xbd8432e2	-0.064550176
199	0xbd6fb31c	-0.05852042
200	0x3c4ff15e	0.012691824
201	0xbd8cc665	-0.06873778
202	0xbd3c62d1	-0.045992676
203	0xbb6c418d	-0.0036049813
204	0xbd6d9c4a	-0.058010377
205	0xbd573b74	-0.052546933
206	0xbca8c765	-0.020602891
207	0x8098c3c6	-1.4029226e-38
208	0x80a0513a	-1.4722818e-38
209	0x8095d95c	-1.3761463e-38
210	0x80aa8837	-1.5660899e-38
211	0x80b01719	-1.6171333e-38
212	0x80a70f69	-1.5342056e-38
213	0x80a7440b	-1.5360937e-38
214	0x80af5be6	-1.6104179e-38
215	0x80a6bbb4	-1.5312028e-38
216	0x000006f2	2.492e-42
217	0x0000e8fe	8.3582e-41
218	0x0000b1d6	6.3796e-41
219	0x00009a40	5.5334e-41
220	0x8000d2f5	-7.5677e-41
221	0x0000c5dd	7.098e-41
222	0x8000eb4e	-8.4411e-41
223	0x8000b503	-6.4935e-41
224	0x8000524d	-2.9524e-41
225	0xb900cdc9	-0.00012283692
226	0xb9d6028f	-0.00040819167
227	0xb9cf1b8f	-0.0003950265
228	0xba49fa76	-0.0007704863
229	0xba628f79	-0.0008642595
230	0xba3b5ba4	-0.00071471394
231	0xba0a66ef	-0.00052796205
232	0xb9be094e	-0.00036246557
233	0xb904a33c	-0.0001264931
234	0x3423a00e	1.5238786e-07
235	0xb5223aed	-6.043545e-07
236	0xb523a9b0	-6.096916e-07
237	0x33ed87a8	1.1060848e-07
238	0xb52a6898	-6.348214e-07
239	0xb52a7373	-6.3497936e-07
240	0x33ab42d0	7.974961e-08
241	0xb52cfc83	-6.4442446e-07
242	0xb52abba0	-6.3602965e-07
243	0x3eaea373	0.34109077
244	0xbbdd7a8f	-0.006758995
245	0x3d6bbd00	0.05755329
246	0x3c8f92be	0.017526027
247	0x3c8e6749	0.017383235
248	0x3d5d6cd0	0.05405885
249	0x3cdf1479	0.027231442
250	0x3b210b38	0.0024573337
251	0xbd925096	-0.07144277
252	0x3a921929	0.0011146414
253	0x39f99a5c	0.00047607988
254	0xba83603b	-0.0010023186
255	0x3ab31e33	0.0013665616

e_conv2.depth_conv.bias f4 [32]
0	0x3db4ebae	0.08834015
1	0xbd8bd5a2	-0.068278566
2	0x3874e287	5.8385103e-05
3	0xbd5b317d	-0.053513993
4	0xbe05c689	-0.13064016
5	0x3e3576a4	0.17721039
6	0x3cd476c8	0.025935546
7	0x3deb10ae	0.11477791
8	0x3e6d341d	0.23164411
9	0xbe6a77c9	-0.22897257
10	0x3c83ea32	0.016102884
11	0xbdbea8cf	-0.093095414
12	0xbe5b9008	-0.21441662
13	0xbd513dd5	-0.05108436
14	0x3dee0377	0.116217546
15	0x3e4c31e6	0.1994091
16	0x3e150ab2	0.14554861
17	0xb9975c44	-0.00028869708
18	0x34ff2eb1	4.7531424e-07
19	0x3e149641	0.14510442
20	0x3e850fa7	0.25988504
21	0x3e1fc9a9	0.15604271
22	0xbdbbb6d2	-0.091657296
23	0x3e0a8206	0.13526163
24	0xbd8004c5	-0.0625091
25	0xbc8c295a	-0.017109562
26	0x3d5eaaa7	0.054361966
27	0xbe433485	-0.19063003
28	0xbce7ed87	-0.028311504
29	0xbe1a8fe0	-0.15093946
30	0xbd989cdb	-0.07451793
31	0x3e99ac65	0.3001434

e_conv2.point_conv.weight f4 [32, 32, 1, 1]
0	0xbc2a8f97	-0.010410211
1	0xbb5dcd84	-0.003384442
2	0x3940d592	0.00018390108
3	0x3d94e2b2	0.07269801
4	0x3c641d47	0.013922996
5	0xbd9544e5	-0.07288531
6	0x3c858a68	0.016301349
7	0xbcb07883	-0.02154184
8	0xbd4a99bb	-0.049463015
9	0x3c50e07b	0.012748833
10	0x3d8bca96	0.068257496
11	0x3ce6ffde	0.028198179
12	0x3e274e6d	0.16338511
13	0x3cfd391b	0.03091102
14	0xbc3b8dd7	-0.0114473915
15	0xbdf8da78	-0.121510446
16	0x3ca709bd	0.020390386
17	0x36ebd089	7.0278224e-06
18	0x33987e50	7.101028e-08
19	0xbd24f1a6	-0.040269516
20	0x3e9a640a	0.3015445
21	0x3c531280	0.012882829
22	0x3d40d8f6	0.04708191
23	0xbd3ed602	-0.046590813
24	0x3b16beb9	0.0023001863
25	0x3b2db61c	0.002650625
26	0xbc2160e9	-0.009849765
27	0x3d41ebba	0.047343947
28	0x3c253433	0.010083246
29	0x3cc8003b	0.024414172
30	0xbe139437	-0.14412008
31	0x3c4f918c	0.012668978
32	0x3d295ee8	0.041350275
33	0xbd3ef56a	-0.046620764
34	0x389b5e25	7.408512e-05
35	0xbc411ca4	-0.011786614
36	0x3b84e6eb	0.004055848
37	0x3ca9f00d	0.020744348
38	0x3c9d67f9	0.019214617
39	0x3ca4eef2	0.02013347
40	0x3da0f5d5	0.07859389
41	0xbd9dfacc	-0.07713851
42	0x3ea7a097	0.32739708
43	0x3e719a99	0.2359413
44	0x3e86f24f	0.26356742
45	0x3e25973a	0.1617097
46	0x3ac095a0	0.0014693029
47	0x3dae1b57	0.085013084
48	0x3e032ec7	0.12810813
49	0x36ae5d6f	5.196481e-06
50	0xb4706cde	-2.2391347e-07
51	0x3b03c4dc	0.002010635
52	0xbcb7b368	-0.022424415
53	0x3d2687d6	0.040656887
54	0xbca19412	-0.019723926
55	0x3daa3247	0.08310371
56	0xbc300223	-0.010742697
57	0xbb4227c5	-0.0029625755
58	0xbaccaeb6	-0.0015616033
59	0x3e5edb8d	0.2176344
60	0xbce326a6	-0.02772839
61	0xbcd9e49a	-0.026598264
62	0xbe94d8a9	-0.2907155
63	0x3df99376	0.12186329
64	0x3ca062ee	0.019578423
65	0xbca3da7c	-0.020001642
66	0x388dc72a	6.760501e-05
67	0x3e994c19	0.2994087
68	0xbcc48295	-0.023988048
69	0x3d7a57f4	0.061119035
70	0x3ce9c788	0.028537527
71	0x3cc16768	0.023608878
72	0x3c6b213e	0.014351187
73	0xbd65735f	-0.05601823
74	0xbe00eb4d	-0.1258976
75	0xbe0044d6	-0.12526259
76	0xbe8a8153	-0.27051792
77	0x3bd08ceb	0.006364455
78	0x3ca8a618	0.020587012
79	0x3d8b7a0a	0.068103865
80	0x3cacca38	0.02109252
81	0xb8ff60dc	-0.00012177389
82	0x34e4afdf	4.2596272e-07
83	0x3d0f2c84	0.034954563
84	0x38cad65b	9.6720374e-05
85	0x3d066860	0.032814384
86	0xbbbd6305	-0.0057796263
87	0x3d52c504	0.05145742
88	0xbc94f152	-0.018181477
89	0xbbb9a531	-0.0056654443
90	0x3c8c7009	0.017143266
91	0xbe821a39	-0.2541063
92	0xbc33badf	-0.0109698465
93	0xbd2b03b5	-0.041751582
94	0x3dc93b97	0.09825819
95	0x3ccf8c89	0.025335567
96	0x8001636f	-1.27506e-40
97	0x0000f873	8.9127e-41
98	0x8000dd5f	-7.9413e-41
99	0x800168e1	-1.29459e-40
100	0x00007114	4.0565e-41
101	0x000205ea	1.85793e-40
102	0x80010324	-9.2962e-41
103	0x80013349	-1.10233e-40
104	0x8000c924	-7.2156e-41
105	0x8001606d	-1.26427e-40
106	0x80014273	-1.15673e-40
107	0x80014886	-1.17852e-40
108	0x8001323a	-1.09853e-40
109	0x80001f9a	-1.1337e-41
110	0x0001547e	1.22146e-40
111	0x80002e05	-1.6509e-41
112	0x0001ae45	1.54352e-40
113	0x00012c40	1.0771e-40
114	0x0001b9d2	1.58495e-40
115	0x80007a40	-4.3855e-41
116	0x80014c8f	-1.193e-40
117	0x00011b88	1.01712e-40
118	0x0001493d	1.18108e-40
119	0x0000c3b5	7.0206e-41
120	0x80002522	-1.3321e-41
121	0x00003118	1.7612e-41
122	0x800156be	-1.22953e-40
123	0x00019f30	1.48941e-40
124	0x00010330	9.2979e-41
125	0x800196d3	-1.45941e-40
126	0x0000a9b2	6.0875e-41
127	0x0001a4de	1.50979e-40
128	0x3b1e176e	0.0024122852
129	0xbabd58c3	-0.0014446009
130	0xb8980862	-7.249486e-05
131	0xbcef3b10	-0.029202968
132	0x3bd8280c	0.006596571
133	0x3d8aaab7	0.067708425
134	0xbde3a0c3	-0.11114647
135	0x3bfb40af	0.007667623
136	0xbbb3efc7	-0.00549123
137	0xbce5cbf1	-0.028051348
138	0xbd502f6c	-0.050826475
139	0xbc8fddb0	-0.017561764
140	0xbd4b063c	-0.049566492
141	0xbd29b32c	-0.041430637
142	0x3c4eb9eb	0.0126175685
143	0x3dffbc9a	0.12487145
144	0x3ceb9c21	0.028760972
145	0x3787b939	1.6179505e-05
146	0xb4862536	-2.498652e-07
147	0x3cd03286	0.025414716
148	0x3c3b2f77	0.011424891
149	0x3ae0a730	0.001713967
150	0xbc207653	-0.009793836
151	0xbb8fa2da	-0.004383427
152	0xbbf4cf44	-0.007470997
153	0xbae27728	-0.0017277943
154	0x3be554d7	0.006998639
155	0xbc8cfdfe	-0.017210957
156	0xbb965922	-0.004588262
157	0xbcc48d46	-0.023993146
158	0x3ccd8d93	0.025091922
159	0xbdb0415e	-0.08606218
160	0x3c015c35	0.007895519
161	0xbbd9badc	-0.00664459
162	0xb6e037d6	-6.6822204e-06
163	0x3c8eb74d	0.017421389
164	0xbc6077e4	-0.013700459
165	0x3caf0503	0.021364694
166	0x3d9ddd6a	0.07708247
167	0x3c352a65	0.011057471
168	0x3cc704f0	0.024294347
169	0xbcbf32b9	-0.023339616
170	0x3d0ade18	0.03390321
171	0xbd292912	-0.041298933
172	0x3caa4891	0.020786555
173	0xbb5bfdcb	-0.003356802
174	0x3c3baf95	0.011455436
175	0x3d470127	0.048585083
176	0x3b83fbad	0.004027805
177	0x37a18eb7	1.9259152e-05
178	0x33e389ed	1.05956e-07
179	0x3c680d1b	0.014163281
180	0x3d77a29f	0.060457822
181	0x3c82da4b	0.01597323
182	0xbc84f60d	-0.016230607
183	0x3c742170	0.01490055
184	0xbb9db1b6	-0.0048124446
185	0xba451c7d	-0.00075191987
186	0x3b8e772a	0.0043477016
187	0xbc61a848	-0.0137730315
188	0xbb02a497	-0.001993453
189	0xbc712f9c	-0.014720824
190	0x3cc711ef	0.024300544
191	0x3e075a82	0.1321812
192	0x3b432686	0.00297776
193	0x3c13142f	0.00897698
194	0x37a3d403	1.952984e-05
195	0x3e2db80e	0.16964743
196	0xbb083a7a	-0.0020786808
197	0xbe360810	-0.17776513
198	0x3dffa00e	0.124817
199	0xbb11bb4a	-0.0022236877
200	0xbb9c130d	-0.004763013
201	0xbc6c3135	-0.014416029
202	0x3eb2a3ec	0.34890687
203	0x3df4a7c5	0.11946062
204	0x3e298d7e	0.16557881
205	0x3e430d97	0.19048153
206	0xba706d3d	-0.0009171551
207	0xbdb92f09	-0.09042174
208	0x3e28c806	0.16482553
209	0xb892364a	-6.9719346e-05
210	0xb3edeff7	-1.1079822e-07
211	0x3bb58c62	0.0055404166
212	0xbd0e388b	-0.034721892
213	0x3b6fcd94	0.003659104
214	0x3cc12cdf	0.023580967
215	0xba0fb02b	-0.0005481268
216	0x3b71a1ed	0.0036870197
217	0x3a839337	0.001003838
218	0xbb0a29e5	-0.00210821
219	0x3e09c56d	0.13454218
220	0x3afe49c4	0.0019400646
221	0x3c57aac4	0.013163272
222	0xbe2e206e	-0.17004558
223	0x3defe9c7	0.11714511
224	0x190b2c36	7.19506e-24
225	0x98dabad3	-5.6540323e-24
226	0x927030af	-7.5790654e-28
227	0x9889afd9	-3.559123e-24
228	0x9906e5f6	-6.974078e-24
229	0x18ce12ac	5.3268606e-24
230	0x98cae38c	-5.244554e-24
231	0x191271c2	7.570996e-24
232	0x180115a9	1.6683795e-24
233	0x98406984	-2.486869e-24
234	0x9916d191	-7.79714e-24
235	0x19107511	7.468267e-24
236	0x99463075	-1.0246146e-23
237	0x18a1ba46	4.1805613e-24
238	0x1910c79d	7.484937e-24
239	0x9697d1d8	-2.4527796e-25
240	0x16513dca	1.6902383e-25
241	0x944e3615	-1.0411008e-26
242	0x0f74b982	1.2065856e-29
243	0x19056b5a	6.897618e-24
244	0x98da1c46	-5.638023e-24
245	0x18fa68b3	6.4729205e-24
246	0x983eab21	-2.4643322e-24
247	0x18e11576	5.8182807e-24
248	0x98ce72f0	-5.336581e-24
249	0x979c037a	-1.0082141e-24
250	0x18af9f93	4.539757e-24
251	0x9958c2d1	-1.1206281e-23
252	0x9826cbf7	-2.1557973e-24
253	0x9906990b	-6.9585444e-24
254	0x18793680	3.2210011e-24
255	0x994a425f	-1.0456559e-23

e_conv2.point_conv.bias f4 [32]
0	0x3d9d1cd7	0.076715164
1	0x3d94ffe7	0.07275372
2	0x3dfdf0e9	0.123994656
3	0x80017109	-1.32385e-40
4	0x3e147924	0.14499336
5	0x3dae1fb1	0.085021384
6	0xbc888f43	-0.016669875
7	0x990f6697	-7.4136446e-24
8	0x3d978d1b	0.073999606
9	0x3d5c7171	0.053819124
10	0x39d4c250	0.00040580565
11	0xbd7f5367	-0.062335398
12	0x3b524c08	0.0032088775
13	0x3e067066	0.13128814
14	0x3e110666	0.14162597
15	0x800084d7	-4.7654e-41
16	0xae8c986e	-6.39354e-11
17	0x3c1f1298	0.009709023
18	0x3cb4e0c4	0.022079833
19	0x0d63a01a	7.014249e-31
20	0xbd8c3e6b	-0.06847843
21	0xb9959a9d	-0.0002853469
22	0x3c06db4e	0.008230997
23	0xb9e1880a	-0.000430167
24	0x3d59b7c0	0.053153753
25	0x0001097e	9.524e-41
26	0x3d298719	0.041388605
27	0xbdbff508	-0.09372908
28	0x80014660	-1.17081e-40
29	0x8000f1ea	-8.6782e-41
30	0x3d5ab29b	0.053392988
31	0x3da3a3f2	0.079902545

e_conv3.depth_conv.weight f4 [32, 1, 3, 3]
0	0x80008a74	-4.9668e-41
1	0x8001808b	-1.37948e-40
2	0x00010319	9.2947e-41
3	0x0000b6bd	6.5554e-41
4	0x00017692	1.3437e-40
5	0x00001149	6.201e-42
6	0x00014ce6	1.19421e-40
7	0x80001f69	-1.1268e-41
8	0x000128ab	1.06424e-40
9	0x80000a3f	-3.676e-42
10	0x00015d7e	1.25374e-40
11	0x80022108	-1.9552e-40
12	0x800101dc	-9.2503e-41
13	0x00008ec1	5.121e-41
14	0x0001ce66	1.65877e-40
15	0x8001b298	-1.55903e-40
16	0x8000901e	-5.17e-41
17	0x800075bc	-4.2235e-41
18	0x8000731e	-4.1296e-41
19	0x80017cf3	-1.36659e-40
20	0x00002d02	1.6146e-41
21	0x80005c6c	-3.3155e-41
22	0x00011027	9.763e-41
23	0x00013cdc	1.13668e-40
24	0x00010493	9.3476e-41
25	0x00001bd9	9.99e-42
26	0x8000acc3	-6.1975e-41
27	0x00010ee6	9.718e-41
28	0x800137da	-1.11871e-40
29	0x0000ebf6	8.4647e-41
30	0x8001e234	-1.72982e-40
31	0x80019ef2	-1.48854e-40
32	0x00011cab	1.0212e-40
33	0x8000a94c	-6.0732e-41
34	0x80013aeb	-1.12971e-40
35	0x00000787	2.7e-42
36	0x8000e81e	-8.3268e-41
37	0x80013504	-1.10854e-40
38	0x0000f9a5	8.9556e-41
39	0x8001282f	-1.0625e-40
40	0x00007cc3	4.4756e-41
41	0x80002a18	-1.51e-41
42	0x8000eefb	-8.573e-41
43	0x00004e5d	2.8111e-41
44	0x0000da1c	7.8243e-41
45	0x00021d9f	1.94297e-40
46	0x8000b51f	-6.4974e-41
47	0x00013f14	1.14464e-40
48	0x0000644c	3.598e-41
49	0x0001eec3	1.77487e-40
50	0x80021664	-1.91703e-40
51	0x8000d71e	-7.717e-41
52	0x00014451	1.16343e-40
53	0x80019b6d	-1.47592e-40
54	0x80015b97	-1.24692e-40
55	0x8000d4fc	-7.6404e-41
56	0x0000a0cd	5.7684e-41
57	0x0000e1aa	8.0953e-41
58	0x000069cf	3.7957e-41
59	0x00010189	9.2386e-41
60	0x8000909b	-5.1875e-41
61	0x8001f122	-1.78338e-40
62	0x80018c81	-1.42239e-40
63	0x80003248	-1.8038e-41
64	0x800019dd	-9.278e-42
65	0x000088c4	4.9062e-41
66	0x8000041c	-1.474e-42
67	0x000207f1	1.8652e-40
68	0x80020cfc	-1.88329e-40
69	0x8001b60c	-1.57142e-40
70	0x00006d5d	3.9232e-41
71	0x0000c7fe	7.1744e-41
72	0x00014695	1.17156e-40
73	0x000105b0	9.3876e-41
74	0x8000df87	-8.0187e-41
75	0x00008f28	5.1355e-41
76	0x0001413b	1.15236e-40
77	0x8000b10e	-6.3515e-41
78	0x80010818	-9.4739e-41
79	0x80013b28	-1.13057e-40
80	0x8002258c	-1.9714e-40
81	0x00000d00	4.664e-42
82	0x8001957c	-1.4546e-40
83	0x8000d095	-7.4825e-41
84	0x8000c24a	-6.9698e-41
85	0x80006101	-3.4798e-41
86	0x00018d85	1.42603e-40
87	0x8000fd1e	-9.0801e-41
88	0x80010af4	-9.5765e-41
89	0x00011a5c	1.01291e-40
90	0x00014505	1.16595e-40
91	0x80012e37	-1.08414e-40
92	0x8000b48f	-6.4772e-41
93	0x0000204c	1.1586e-41
94	0x8000adf8	-6.2408e-41
95	0x80004f80	-2.8519e-41
96	0x80011dbd	-1.02504e-40
97	0x000136ac	1.11448e-40
98	0x0000dce7	7.9245e-41
99	0x80008975	-4.931e-41
100	0x00004fda	2.8645e-41
101	0x8001278e	-1.06025e-40
102	0x00012554	1.05226e-40
103	0x00011769	1.00233e-40
104	0x00011413	9.9037e-41
105	0x00008780	4.8608e-41
106	0x0001033b	9.2994e-41
107	0x8000f5ce	-8.8178e-41
108	0x00011983	1.00987e-40
109	0x80018d66	-1.4256e-40
110	0x80019842	-1.46455e-40
111	0x800079f2	-4.3746e-41
112	0x00016ba5	1.30451e-40
113	0x8000a8c7	-6.0546e-41
114	0x8000132f	-6.882e-42
115	0x0000c7ed	7.172e-41
116	0x800129ce	-1.06832e-40
117	0x000127ef	1.06161e-40
118	0x8001465c	-1.17076e-40
119	0x80022bc4	-1.99371e-40
120	0x000044cc	2.468e-41
121	0x000012f9	6.806e-42
122	0x00001552	7.648e-42
123	0x00011a0c	1.0118e-40
124	0x80008f35	-5.1373e-41
125	0x80011d12	-1.02264e-40
126	0x0001d2ba	1.6743e-40
127	0x80013d4b	-1.13823e-40
128	0x00017236	1.32807e-40
129	0x00005027	2.8753e-41
130	0x00002e8e	1.67e-41
131	0x80010d15	-9.6528e-41
132	0x000081d3	4.6572e-41
133	0x80012a42	-1.06995e-40
134	0x00011f53	1.03073e-40
135	0x000043eb	2.4364e-41
136	0x8000e8c5	-8.3502e-41
137	0x80008f51	-5.1412e-41
138	0x8000c6d3	-7.1325e-41
139	0x000065b3	3.6483e-41
140	0x8000a8e8	-6.0592e-41
141	0x000000c1	2.7e-43
142	0x0000a2b4	5.8367e-41
143	0x00004b61	2.7041e-41
144	0x800009bd	-3.493e-42
145	0x00015916	1.23794e-40
146	0x00016d27	1.30992e-40
147	0x80010bc6	-9.6059e-41
148	0x0001ba9c	1.58778e-40
149	0x80020600	-1.85823e-40
150	0x00000668	2.298e-42
151	0x800141b7	-1.1541e-40
152	0x8001b913	-1.58228e-40
153	0x80008624	-4.812e-41
154	0x8000c851	-7.186e-41
155	0x80009e07	-5.669e-41
156	0x0000fa5a	8.9809e-41
157	0x00006f14	3.9847e-41
158	0x00010845	9.4802e-41
159	0x0001e1f6	1.72895e-40
160	0x000149be	1.18289e-40
161	0x8000c82f	-7.1812e-41
162	0x800085ae	-4.7955e-41
163	0x0000efb3	8.5988e-41
164	0x000018c4	8.884e-42
165	0x000003f5	1.42e-42
166	0x800067f3	-3.729e-41
167	0x800154c3	-1.22242e-40
168	0x80016008	-1.26285e-40
169	0x80008da7	-5.0815e-41
170	0x0000d48f	7.6252e-41
171	0x80009cbd	-5.6227e-41
172	0x8001af5d	-1.54744e-40
173	0x00017f71	1.37553e-40
174	0x80018e4b	-1.4288e-40
175	0x00002caa	1.6022e-41
176	0x0001c392	1.61993e-40
177	0x00011f99	1.0317e-40
178	0x00016f99	1.31869e-40
179	0x0001c0a4	1.60942e-40
180	0x0000d93f	7.7933e-41
181	0x000126b1	1.05715e-40
182	0x00012703	1.0583e-40
183	0x8000d804	-7.7492e-41
184	0x00001fec	1.1451e-41
185	0x000047d1	2.5763e-41
186	0x80010a63	-9.5562e-41
187	0x80012976	-1.06709e-40
188	0x8000f778	-8.8775e-41
189	0x8000b166	-6.3639e-41
190	0x0000fd0c	9.0776e-41
191	0x0000d5dc	7.6718e-41
192	0x0000bb8a	6.7276e-41
193	0x00013b25	1.13053e-40
194	0x80008f76	-5.1464e-41
195	0x80003588	-1.9203e-41
196	0x80011c81	-1.02061e-40
197	0x8000195b	-9.096e-42
198	0x80018435	-1.39262e-40
199	0x80005873	-3.173e-41
200	0x0001a49d	1.50888e-40
201	0x80013db0	-1.13965e-40
202	0x80011c13	-1.01907e-40
203	0x00012613	1.05494e-40
204	0x000110bd	9.784e-41
205	0x800122de	-1.04343e-40
206	0x000173bc	1.33353e-40
207	0x00005274	2.9579e-41
208	0x80016f45	-1.31751e-40
209	0x800091ce	-5.2305e-41
210	0x0001ca50	1.64412e-40
211	0x00015bb3	1.24731e-40
212	0x0000eaca	8.4226e-41
213	0x8001a337	-1.50386e-40
214	0x80006840	-3.7398e-41
215	0x000163d8	1.27653e-40
216	0x8001f981	-1.8134e-40
217	0x800098fd	-5.4882e-41
218	0x8000415d	-2.3448e-41
219	0x00006788	3.714e-41
220	0x0001964c	1.45752e-40
221	0x8001231b	-1.04429e-40
222	0x8000fc82	-9.0583e-41
223	0x800140f4	-1.15136e-40
224	0x80017b8c	-1.36156e-40
225	0x8000541a	-3.017e-41
226	0x80012949	-1.06646e-40
227	0x800051fc	-2.941e-41
228	0x00005e1e	3.3763e-41
229	0x000031ac	1.7819e-41
230	0x0001ba3e	1.58647e-40
231	0x00003ad4	2.1104e-41
232	0x0000c9de	7.2416e-41
233	0x0001ed00	1.76855e-40
234	0x00006a72	3.8185e-41
235	0x80012001	-1.03316e-40
236	0x8000e98e	-8.3784e-41
237	0x80003cb6	-2.1779e-41
238	0x800008d1	-3.163e-42
239	0x800080eb	-4.6247e-41
240	0x800069d6	-3.7967e-41
241	0x000073fb	4.1606e-41
242	0x0000f7ad	8.885e-41
243	0x8001b458	-1.5653e-40
244	0x00002ade	1.5378e-41
245	0x00013ea0	1.14301e-40
246	0x800041a7	-2.3552e-41
247	0x80010050	-9.1948e-41
248	0x000187c8	1.40545e-40
249	0x80020895	-1.8675e-40
250	0x00017623	1.34215e-40
251	0x0000487d	2.6004e-41
252	0x0000191b	9.006e-42
253	0x800212db	-1.90435e-40
254	0x8000cf93	-7.4464e-41
255	0x8001d34b	-1.67633e-40

e_conv3.depth_conv.bias f4 [32]
0	0x800012c4	-6.732e-42
1	0x000059de	3.2238e-41
2	0x8000b304	-6.4219e-41
3	0x800085ba	-4.7972e-41
4	0x8001b67c	-1.57299e-40
5	0x00021ea9	1.9467e-40
6	0x000141b8	1.15411e-40
7	0x80007aa8	-4.4001e-41
8	0x8000e7e9	-8.3194e-41
9	0x0000f56d	8.8042e-41
10	0x0001991d	1.46762e-40
11	0x80014161	-1.15289e-40
12	0x80016104	-1.26638e-40
13	0x80008bb5	-5.0117e-41
14	0x00003eaa	2.248e-41
15	0x00014145	1.1525e-40
16	0x8001986e	-1.46517e-40
17	0x80001169	-6.246e-42
18	0x000185df	1.3986e-40
19	0x0001bd43	1.5973e-40
20	0x000188e4	1.40943e-40
21	0x80010520	-9.3674e-41
22	0x00008359	4.7119e-41
23	0x0000b6de	6.56e-41
24	0x80003686	-1.956e-41
25	0x80021490	-1.91047e-40
26	0x00022fe1	2.00847e-40
27	0x80013993	-1.12489e-40
28	0x80008614	-4.8098e-41
29	0x8000047b	-1.607e-42
30	0x8000faf1	-9.0021e-41
31	0x00007f9c	4.5778e-41

e_conv3.point_conv.weight f4 [32, 32, 1, 1]
0	0x800103c0	-9.3181e-41
1	0x8000bce0	-6.7756e-41
2	0x00004061	2.3095e-41
3	0x00014df3	1.19798e-40
4	0x000099e2	5.5203e-41
5	0x00003489	1.8846e-41
6	0x000088d5	4.9086e-41
7	0x80012d01	-1.0798e-40
8	0x00008b1a	4.99e-41
9	0x80000a49	-3.69e-42
10	0x00014f99	1.2039e-40
11	0x000152b6	1.21507e-40
12	0x8000f537	-8.7967e-41
13	0x00005475	3.0297e-41
14	0x00011166	9.8077e-41
15	0x0001266a	1.05616e-40
16	0x80008f65	-5.144e-41
17	0x000160e2	1.2659e-40
18	0x80006815	-3.7338e-41
19	0x00013974	1.12446e-40
20	0x0001687f	1.29322e-40
21	0x80012a60	-1.07037e-40
22	0x00014893	1.1787e-40
23	0x8001093a	-9.5145e-41
24	0x800046f6	-2.5456e-41
25	0x00021014	1.89439e-40
26	0x80002e04	-1.6507e-41
27	0x0001fb63	1.82016e-40
28	0x0000d079	7.4786e-41
29	0x80005770	-3.1367e-41
30	0x8001f83b	-1.80884e-40
31	0x0000900c	5.1674e-41
32	0x80013aa3	-1.1287e-40
33	0x8002013a	-1.84111e-40
34	0x8000d57d	-7.6585e-41
35	0x000024cc	1.32e-41
36	0x00013d78	1.13886e-40
37	0x0000169c	8.111e-42
38	0x00000e9b	5.24e-42
39	0x80015e15	-1.25586e-40
40	0x0001c772	1.63383e-40
41	0x80001016	-5.77e-42
42	0x0001359b	1.11066e-40
43	0x8001c672	-1.63024e-40
44	0x0000de56	7.9759e-41
45	0x0000b610	6.5312e-41
46	0x00016603	1.2843e-40
47	0x8000cac1	-7.2734e-41
48	0x00016cc9	1.3086e-40
49	0x80009f96	-5.7249e-41
50	0x8001da7d	-1.70214e-40
51	0x0000e1a2	8.0942e-41
52	0x8001f9b4	-1.81412e-40
53	0x8001206c	-1.03466e-40
54	0x0000a988	6.0816e-41
55	0x00002b31	1.5494e-41
56	0x000118ee	1.00779e-40
57	0x00022a45	1.98834e-40
58	0x800223ff	-1.96584e-40
59	0x800090ed	-5.199e-41
60	0x8000c0c8	-6.9157e-41
61	0x0001751b	1.33845e-40
62	0x0000e9d8	8.3887e-41
63	0x80009f14	-5.7066e-41
64	0x0000b9eb	6.6695e-41
65	0x80002cda	-1.609e-41
66	0x80002860	-1.4484e-41
67	0x8001744b	-1.33554e-40
68	0x8001990e	-1.46741e-40
69	0x00012f14	1.08724e-40
70	0x80001447	-7.274e-42
71	0x0001deb0	1.71721e-40
72	0x8000c171	-6.9394e-41
73	0x00013c00	1.1336e-40
74	0x80014365	-1.16012e-40
75	0x00022ff7	2.00878e-40
76	0x0000cc3e	7.3268e-41
77	0x0000c23c	6.9678e-41
78	0x8000222a	-1.2256e-41
79	0x8000d501	-7.6411e-41
80	0x8001eaba	-1.7604e-40
81	0x00014952	1.18138e-40
82	0x00015e25	1.25608e-40
83	0x80016ff6	-1.32e-40
84	0x0000035f	1.21e-42
85	0x0000b1d6	6.3796e-41
86	0x0000a59a	5.9407e-41
87	0x80010688	-9.4178e-41
88	0x80018a84	-1.41526e-40
89	0x8001bfd8	-1.60656e-40
90	0x0001a8cf	1.52393e-40
91	0x0001db48	1.70499e-40
92	0x00017030	1.32081e-40
93	0x0000ef69	8.5884e-41
94	0x8001721c	-1.3277e-40
95	0x000210f7	1.89757e-40
96	0x80015bc7	-1.24759e-40
97	0x8000c8d5	-7.2045e-41
98	0x8000dcbd	-7.9186e-41
99	0x80021598	-1.91417e-40
100	0x80000019	-3.5e-44
101	0x00005fd6	3.438e-41
102	0x80004979	-2.6357e-41
103	0x80004201	-2.3678e-41
104	0x00009ac0	5.5514e-41
105	0x8000c7ed	-7.172e-41
106	0x8000050d	-1.812e-42
107	0x8001052e	-9.3694e-41
108	0x8001447d	-1.16404e-40
109	0x0001324d	1.0988e-40
110	0x00014a1e	1.18424e-40
111	0x0000910b	5.2032e-41
112	0x80010eac	-9.7099e-41
113	0x80009624	-5.386e-41
114	0x0001bdb3	1.59887e-40
115	0x00010eda	9.7163e-41
116	0x80008ce6	-5.0545e-41
117	0x8000c32b	-7.0013e-41
118	0x80006957	-3.7789e-41
119	0x80009d49	-5.6423e-41
120	0x800153f7	-1.21956e-40
121	0x8000658a	-3.6425e-41
122	0x0001e743	1.74797e-40
123	0x00021be2	1.93673e-40
124	0x0000b431	6.464e-41
125	0x800183c6	-1.39107e-40
126	0x0001f247	1.78748e-40
127	0x80000223	-7.67e-43
128	0x000136ec	1.11538e-40
129	0x8001ff67	-1.83457e-40
130	0x80008104	-4.6282e-41
131	0x000112c7	9.8572e-41
132	0x00017677	1.34333e-40
133	0x00003360	1.843e-41
134	0x0000a817	6.0299e-41
135	0x8000f3b0	-8.7419e-41
136	0x00013d68	1.13864e-40
137	0x80005510	-3.0515e-41
138	0x0000dfb3	8.0248e-41
139	0x80013065	-1.09196e-40
140	0x000038ad	2.0331e-41
141	0x80006d03	-3.9106e-41
142	0x800000db	-3.07e-43
143	0x800049ca	-2.647e-41
144	0x00003a11	2.083e-41
145	0x80000d25	-4.715e-42
146	0x80014af8	-1.18729e-40
147	0x80013f16	-1.14466e-40
148	0x0000f780	8.8786e-41
149	0x8001a4e0	-1.50982e-40
150	0x00021040	1.895e-40
151	0x00009463	5.3231e-41
152	0x80013993	-1.12489e-40
153	0x00002ee3	1.682e-41
154	0x00001a4b	9.432e-42
155	0x80011e82	-1.0278e-40
156	0x00015835	1.23478e-40
157	0x8001584e	-1.23513e-40
158	0x800163d6	-1.2765e-40
159	0x00006a74	3.8188e-41
160	0x000065df	3.6544e-41
161	0x00006945	3.7764e-41
162	0x8000c507	-7.068e-41
163	0x00005f8a	3.4273e-41
164	0x8000511b	-2.9095e-41
165	0x00007944	4.3502e-41
166	0x00018a95	1.4155e-40
167	0x00009be5	5.5924e-41
168	0x00012854	1.06303e-40
169	0x0000092c	3.29e-42
170	0x8000aaec	-6.1315e-41
171	0x800125c5	-1.05385e-40
172	0x800129de	-1.06855e-40
173	0x0001464d	1.17055e-40
174	0x000037e0	2.0044e-41
175	0x800188a0	-1.40847e-40
176	0x00015157	1.21015e-40
177	0x800056f9	-3.12e-41
178	0x80016462	-1.27846e-40
179	0x8000c1b6	-6.949e-41
180	0x80000a2c	-3.649e-42
181	0x0000d83d	7.7572e-41
182	0x8000503d	-2.8784e-41
183	0x0000ea72	8.4103e-41
184	0x8001788e	-1.35082e-40
185	0x8001bd01	-1.59637e-40
186	0x80011487	-9.92e-41
187	0x8001b73e	-1.5757e-40
188	0x800065d5	-3.653e-41
189	0x00009c43	5.6056e-41
190	0x00012767	1.0597e-40
191	0x000112a6	9.8525e-41
192	0x00018433	1.3926e-40
193	0x8001581c	-1.23443e-40
194	0x8001dc95	-1.70965e-40
195	0x00001a61	9.463e-42
196	0x000130ee	1.09388e-40
197	0x00013998	1.12496e-40
198	0x0001442d	1.16292e-40
199	0x00021d47	1.94174e-40
200	0x8000a623	-5.9599e-41
201	0x80016731	-1.28854e-40
202	0x00010711	9.437e-41
203	0x8000d1be	-7.5241e-41
204	0x00011c68	1.02026e-40
205	0x80000778	-2.679e-42
206	0x80009875	-5.4691e-41
207	0x00020371	1.84906e-40
208	0x0001c90c	1.63958e-40
209	0x80016bbc	-1.30483e-40
210	0x00011a7a	1.01333e-40
211	0x00010bbc	9.6045e-41
212	0x0001df5c	1.71962e-40
213	0x80016fad	-1.31897e-40
214	0x8000b7c4	-6.5923e-41
215	0x0000aa42	6.1077e-41
216	0x00018767	1.40409e-40
217	0x80012752	-1.05941e-40
218	0x80021b36	-1.93432e-40
219	0x0000300a	1.7233e-41
220	0x0000c1fb	6.9587e-41
221	0x8000eecc	-8.5664e-41
222	0x80022859	-1.98145e-40
223	0x80009493	-5.3298e-41
224	0x80022010	-1.95173e-40
225	0x0000dc98	7.9134e-41
226	0x000118b1	1.00693e-40
227	0x800235cb	-2.02968e-40
228	0x80010a59	-9.5548e-41
229	0x800180ba	-1.38014e-40
230	0x80019840	-1.46453e-40
231	0x00002174	1.2001e-41
232	0x0000ff61	9.1613e-41
233	0x0000ba82	6.6906e-41
234	0x0000bf78	6.8686e-41
235	0x000055f9	3.0841e-41
236	0x00006a76	3.8191e-41
237	0x000171b0	1.32619e-40
238	0x8001427d	-1.15687e-40
239	0x0001874c	1.40371e-40
240	0x00009945	5.4983e-41
241	0x80000afc	-3.94e-42
242	0x80011b75	-1.01685e-40
243	0x000041d8	2.362e-41
244	0x00011ce9	1.02207e-40
245	0x80013496	-1.107e-40
246	0x8001bfec	-1.60684e-40
247	0x0000bc06	6.745e-41
248	0x8000a3bd	-5.8738e-41
249	0x00000027	5.5e-44
250	0x0000b3f5	6.4556e-41
251	0x800027b2	-1.424e-41
252	0x80011eb4	-1.0285e-40
253	0x0001feb5	1.83207e-40
254	0x80019725	-1.46056e-40
255	0x000040cd	2.3246e-41

e_conv3.point_conv.bias f4 [32]
0	0x00013534	1.10921e-40
1	0x8001441d	-1.1627e-40
2	0x8000518e	-2.9256e-41
3	0x00003fc5	2.2876e-41
4	0x000030e0	1.7533e-41
5	0x8000e422	-8.1839e-41
6	0x00002816	1.438e-41
7	0x8000ec5c	-8.479e-41
8	0x00006515	3.6261e-41
9	0x80011f06	-1.02965e-40
10	0x80006867	-3.7453e-41
11	0x80015980	-1.23942e-40
12	0x8000f238	-8.6892e-41
13	0x00009182	5.2198e-41
14	0x00015fbd	1.2618e-40
15	0x80009b11	-5.5627e-41
16	0x0002069e	1.86045e-40
17	0x000063ab	3.5754e-41
18	0x80017abd	-1.35866e-40
19	0x0001102b	9.7635e-41
20	0x8000fe08	-9.1129e-41
21	0x80000c0c	-4.322e-42
22	0x00011738	1.00165e-40
23	0x00010d16	9.653e-41
24	0x80003ed2	-2.2536e-41
25	0x0000ddff	7.9637e-41
26	0x80000945	-3.325e-42
27	0x8001f0b7	-1.78188e-40
28	0x8000702f	-4.0244e-41
29	0x00014cef	1.19434e-40
30	0x000222f0	1.96204e-40
31	0x80018d55	-1.42536e-40

e_conv4.depth_conv.weight f4 [32, 1, 3, 3]
0	0x0000cdea	7.3868e-41
1	0x0000fbef	9.0377e-41
2	0x00005477	3.03e-41
3	0x00006cf9	3.9092e-41
4	0x0001de6b	1.71624e-40
5	0x800090ba	-5.1918e-41
6	0x00008b08	4.9875e-41
7	0x000005ec	2.124e-42
8	0x8002095d	-1.8703e-40
9	0x000126dd	1.05777e-40
10	0x800156ee	-1.2302e-40
11	0x80010672	-9.4148e-41
12	0x8000d962	-7.7982e-41
13	0x0001784d	1.34991e-40
14	0x80006858	-3.7431e-41
15	0x8000ae95	-6.2628e-41
16	0x800161d8	-1.26935e-40
17	0x00000353	1.193e-42
18	0x0000590d	3.1945e-41
19	0x800167f8	-1.29132e-40
20	0x0001f65a	1.8021e-40
21	0x80001b3a	-9.767e-42
22	0x0000d141	7.5066e-41
23	0x0000a15f	5.7889e-41
24	0x0001009e	9.2057e-41
25	0x80010ddf	-9.6812e-41
26	0x8001572d	-1.23108e-40
27	0x00018f94	1.43342e-40
28	0x000053ae	3.0019e-41
29	0x0000a96d	6.0779e-41
30	0x8000ff4b	-9.1582e-41
31	0x0001ad79	1.54066e-40
32	0x0000e90a	8.3599e-41
33	0x00004f2b	2.84e-41
34	0x00010e98	9.7071e-41
35	0x8001904b	-1.43598e-40
36	0x0001b6cb	1.57409e-40
37	0x00010396	9.3122e-41
38	0x8001d61a	-1.6864e-40
39	0x80001d0e	-1.0423e-41
40	0x80019a30	-1.47148e-40
41	0x80006cbc	-3.9007e-41
42	0x80009103	-5.202e-41
43	0x000141d7	1.15454e-40
44	0x00014857	1.17786e-40
45	0x0001884c	1.4073e-40
46	0x000067c1	3.722e-41
47	0x000001c9	6.4e-43
48	0x0001672f	1.28851e-40
49	0x8000259a	-1.3489e-41
50	0x000072da	4.1201e-41
51	0x00007710	4.2712e-41
52	0x000170ed	1.32346e-40
53	0x0001107a	9.7746e-41
54	0x00015db3	1.25448e-40
55	0x0000fadd	8.9993e-41
56	0x00011348	9.8752e-41
57	0x800156c5	-1.22963e-40
58	0x80017c29	-1.36376e-40
59	0x8000faae	-8.9927e-41
60	0x80014c5f	-1.19232e-40
61	0x00001a8a	9.52e-42
62	0x0001a292	1.50155e-40
63	0x8000a811	-6.0291e-41
64	0x00015693	1.22892e-40
65	0x000172f7	1.33077e-40
66	0x80004f1c	-2.8379e-41
67	0x80005b86	-3.2832e-41
68	0x80019b59	-1.47564e-40
69	0x0000a61d	5.959e-41
70	0x80013263	-1.09911e-40
71	0x0001475a	1.17432e-40
72	0x00015fc1	1.26186e-40
73	0x00013c2e	1.13424e-40
74	0x0000045b	1.562e-42
75	0x00018786	1.40452e-40
76	0x00010202	9.2556e-41
77	0x800041f8	-2.3665e-41
78	0x80016aa7	-1.30095e-40
79	0x80017257	-1.32853e-40
80	0x00014961	1.18159e-40
81	0x0000091e	3.27e-42
82	0x00016f99	1.31869e-40
83	0x00004865	2.597e-41
84	0x00016945	1.29599e-40
85	0x8000352c	-1.9074e-41
86	0x000031c7	1.7857e-41
87	0x8000aad6	-6.1284e-41
88	0x80008174	-4.6439e-41
89	0x00009f5a	5.7165e-41
90	0x00008b5b	4.9991e-41
91	0x00009bfd	5.5958e-41
92	0x0000c554	7.0788e-41
93	0x00006823	3.7357e-41
94	0x80019e38	-1.48594e-40
95	0x00018926	1.41035e-40
96	0x80013407	-1.105e-40
97	0x80012756	-1.05947e-40
98	0x8000edcc	-8.5305e-41
99	0x0000d619	7.6804e-41
100	0x0000d21c	7.5373e-41
101	0x00002811	1.4373e-41
102	0x80000575	-1.958e-42
103	0x00009dad	5.6563e-41
104	0x8000863e	-4.8157e-41
105	0x8001b977	-1.58368e-40
106	0x0001378c	1.11762e-40
107	0x8000d7f0	-7.7464e-41
108	0x0001beb5	1.60248e-40
109	0x800035ab	-1.9252e-41
110	0x8000486b	-2.5979e-41
111	0x80012c91	-1.07823e-40
112	0x8000b63a	-6.537e-41
113	0x000105d3	9.3925e-41
114	0x000083fb	4.7346e-41
115	0x8000f355	-8.7291e-41
116	0x8000cb65	-7.2964e-41
117	0x0000145e	7.306e-42
118	0x80002a5d	-1.5197e-41
119	0x00013013	1.09081e-40
120	0x80011ee4	-1.02917e-40
121	0x00016b9a	1.30436e-40
122	0x0001bc4e	1.59386e-40
123	0x800096e7	-5.4134e-41
124	0x00016d97	1.31149e-40
125	0x8000f8f7	-8.9312e-41
126	0x0001db79	1.70567e-40
127	0x8000fec5	-9.1394e-41
128	0x0000fb0e	9.0061e-41
129	0x8000ba54	-6.6842e-41
130	0x80022ef4	-2.00515e-40
131	0x00014ba6	1.18973e-40
132	0x80012bce	-1.0755e-40
133	0x0000434d	2.4143e-41
134	0x00009e92	5.6884e-41
135	0x00010b50	9.5894e-41
136	0x00016a03	1.29865e-40
137	0x00002ce9	1.6111e-41
138	0x00009528	5.3507e-41
139	0x00020973	1.87061e-40
140	0x80017482	-1.3363e-40
141	0x00022959	1.98504e-40
142	0x000013b2	7.065e-42
143	0x00013044	1.0915e-40
144	0x0000e49f	8.2014e-41
145	0x00009859	5.4652e-41
146	0x00017152	1.32487e-40
147	0x0000981d	5.4568e-41
148	0x0001b9f7	1.58547e-40
149	0x0001ae1d	1.54296e-40
150	0x000132a1	1.09998e-40
151	0x00003f37	2.2677e-41
152	0x800197c5	-1.4628e-40
153	0x80003c70	-2.1681e-41
154	0x00009578	5.3619e-41
155	0x00013217	1.09804e-40
156	0x80002cb6	-1.6039e-41
157	0x00004eca	2.8264e-41
158	0x000138ad	1.12167e-40
159	0x00001cba	1.0305e-41
160	0x0000c5e3	7.0988e-41
161	0x80014dff	-1.19815e-40
162	0x00013e86	1.14265e-40
163	0x80015c24	-1.2489e-40
164	0x00013b87	1.1319e-40
165	0x00008ee3	5.1258e-41
166	0x0000af53	6.2894e-41
167	0x8001093a	-9.5145e-41
168	0x80007cb7	-4.4739e-41
169	0x0001f1b4	1.78542e-40
170	0x8001e84d	-1.7517e-40
171	0x00019473	1.45089e-40
172	0x00019479	1.45097e-40
173	0x80010a63	-9.5562e-41
174	0x00006624	3.6641e-41
175	0x800129b7	-1.068e-40
176	0x00005af0	3.2622e-41
177	0x0000f006	8.6104e-41
178	0x00017c92	1.36523e-40
179	0x80009dfe	-5.6677e-41
180	0x0000d964	7.7985e-41
181	0x00020092	1.83876e-40
182	0x0000fdea	9.1087e-41
183	0x8000fd47	-9.0859e-41
184	0x80010a33	-9.5494e-41
185	0x0001ab8a	1.53372e-40
186	0x8000de45	-7.9735e-41
187	0x8000fee6	-9.144e-41
188	0x80012ba1	-1.07487e-40
189	0x800010fa	-6.09e-42
190	0x0001113a	9.8015e-41
191	0x00004446	2.4492e-41
192	0x80005465	-3.0275e-41
193	0x0000cd0c	7.3557e-41
194	0x8000e24e	-8.1183e-41
195	0x0001fde5	1.82916e-40
196	0x00004875	2.5993e-41
197	0x80010cee	-9.6474e-41
198	0x80022bf5	-1.9944e-40
199	0x8000edae	-8.5263e-41
200	0x8000b3da	-6.4519e-41
201	0x800231dc	-2.01557e-40
202	0x80006e09	-3.9473e-41
203	0x800161fa	-1.26983e-40
204	0x80008bb8	-5.0122e-41
205	0x8000f1e5	-8.6775e-41
206	0x8000e7fb	-8.3219e-41
207	0x8000ef00	-8.5737e-41
208	0x800066b9	-3.685e-41
209	0x80001455	-7.294e-42
210	0x000059f7	3.2273e-41
211	0x80000014	-2.8e-44
212	0x8001fa4f	-1.8163e-40
213	0x800026e6	-1.3954e-41
214	0x80017966	-1.35385e-40
215	0x80006f74	-3.9982e-41
216	0x800005d2	-2.088e-42
217	0x00011392	9.8856e-41
218	0x80004aac	-2.6787e-41
219	0x00021613	1.9159e-40
220	0x00001cc8	1.0325e-41
221	0x0000727d	4.107e-41
222	0x0000f253	8.693e-41
223	0x000152d9	1.21556e-40
224	0x80016a9e	-1.30083e-40
225	0x0000f4d0	8.7822e-41
226	0x80016bed	-1.30552e-40
227	0x8001d6ef	-1.68939e-40
228	0x00013494	1.10697e-40
229	0x800042f2	-2.4015e-41
230	0x80005d1b	-3.34e-41
231	0x00019106	1.4386e-40
232	0x000142b0	1.15758e-40
233	0x0001ac75	1.53701e-40
234	0x00000768	2.657e-42
235	0x8000473d	-2.5555e-41
236	0x80005fe5	-3.44e-41
237	0x00008a23	4.9554e-41
238	0x80010206	-9.2561e-41
239	0x800036aa	-1.961e-41
240	0x0000dd4c	7.9386e-41
241	0x80010573	-9.379e-41
242	0x8000dc16	-7.8952e-41
243	0x80017118	-1.32406e-40
244	0x0000f8c9	8.9247e-41
245	0x00004840	2.5918e-41
246	0x00018522	1.39595e-40
247	0x0000bced	6.7774e-41
248	0x00016ef4	1.31638e-40
249	0x0000c29e	6.9815e-41
250	0x800225c2	-1.97216e-40
251	0x00005f37	3.4157e-41
252	0x0000f95e	8.9456e-41
253	0x80018092	-1.37958e-40
254	0x80020cfb	-1.88328e-40
255	0x800114e8	-9.9335e-41

e_conv4.depth_conv.bias f4 [32]
0	0x8000b85f	-6.614e-41
1	0x00014d9c	1.19676e-40
2	0x80000c70	-4.462e-42
3	0x8000e74f	-8.2978e-41
4	0x80004ff7	-2.8686e-41
5	0x0000eb4e	8.4411e-41
6	0x800119cd	-1.01091e-40
7	0x00011620	9.9772e-41
8	0x8000da96	-7.8414e-41
9	0x80001380	-6.995e-42
10	0x8000129b	-6.674e-42
11	0x800157e4	-1.23365e-40
12	0x80013118	-1.09447e-40
13	0x00000e73	5.183e-42
14	0x0000ff29	9.1534e-41
15	0x80014ab2	-1.18631e-40
16	0x80007625	-4.2382e-41
17	0x0000fee6	9.144e-41
18	0x800023b5	-1.2809e-41
19	0x0000b4c4	6.4846e-41
20	0x00014654	1.17064e-40
21	0x8000b78c	-6.5844e-41
22	0x000141bb	1.15415e-40
23	0x0001a49e	1.50889e-40
24	0x00003125	1.763e-41
25	0x8000376d	-1.9883e-41
26	0x000159da	1.24068e-40
27	0x00001b7b	9.858e-42
28	0x8001465d	-1.17077e-40
29	0x8000fd08	-9.077e-41
30	0x800085f4	-4.8053e-41
31	0x800072e1	-4.1211e-41

e_conv4.point_conv.weight f4 [32, 32, 1, 1]
0	0x0000c4f8	7.0659e-41
1	0x8001bd43	-1.5973e-40
2	0x800138ef	-1.1226e-40
3	0x0000c683	7.1213e-41
4	0x00001796	8.461e-42
5	0x0000b935	6.644e-41
6	0x0001745d	1.33579e-40
7	0x0000e95b	8.3712e-41
8	0x80018ef4	-1.43117e-40
9	0x8001a0c3	-1.49506e-40
10	0x800149b1	-1.18271e-40
11	0x000050ec	2.9029e-41
12	0x8000b478	-6.474e-41
13	0x0000b0f0	6.3473e-41
14	0x8001138d	-9.8849e-41
15	0x80018cf6	-1.42403e-40
16	0x8000aa9f	-6.1207e-41
17	0x00012360	1.04526e-40
18	0x00022475	1.9675e-40
19	0x00010d49	9.6601e-41
20	0x0001ab33	1.5325e-40
21	0x00003bf7	2.1511e-41
22	0x80014ee0	-1.2013e-40
23	0x0000fcd2	9.0695e-41
24	0x80018c3b	-1.42141e-40
25	0x000086cc	4.8356e-41
26	0x0000d8eb	7.7816e-41
27	0x0000a77e	6.0085e-41
28	0x8000455d	-2.4883e-41
29	0x800133fa	-1.10481e-40
30	0x0001160b	9.9743e-41
31	0x8001861c	-1.39945e-40
32	0x80000342	-1.169e-42
33	0x80012cc1	-1.0789e-40
34	0x000193bb	1.44831e-40
35	0x80001fae	-1.1365e-41
36	0x8000127e	-6.634e-42
37	0x00005d9f	3.3585e-41
38	0x00003986	2.0636e-41
39	0x8001d137	-1.66888e-40
40	0x0001962b	1.45706e-40
41	0x0000edee	8.5353e-41
42	0x80021123	-1.89818e-40
43	0x80015d58	-1.25321e-40
44	0x000119c0	1.01073e-40
45	0x80017e04	-1.37041e-40
46	0x00006178	3.4965e-41
47	0x8001889d	-1.40843e-40
48	0x800103b1	-9.316e-41
49	0x80004c8a	-2.7457e-41
50	0x80010c1e	-9.6182e-41
51	0x0001da8a	1.70233e-40
52	0x00009d63	5.646e-41
53	0x800135b0	-1.11095e-40
54	0x800189a6	-1.41214e-40
55	0x80016ef6	-1.31641e-40
56	0x0001eb97	1.76349e-40
57	0x80007251	-4.1009e-41
58	0x000166df	1.28739e-40
59	0x80015f4f	-1.26026e-40
60	0x800103f9	-9.326e-41
61	0x0001cc41	1.65108e-40
62	0x8000a164	-5.7896e-41
63	0x80010dd7	-9.68e-41
64	0x80019481	-1.45109e-40
65	0x000189a6	1.41214e-40
66	0x8001643a	-1.2779e-40
67	0x800041e3	-2.3636e-41
68	0x80009f11	-5.7062e-41
69	0x0000375e	1.9862e-41
70	0x0001e7d6	1.75003e-40
71	0x8001059f	-9.3852e-41
72	0x8000907f	-5.1835e-41
73	0x800178d9	-1.35187e-40
74	0x80007ac1	-4.4036e-41
75	0x000097c5	5.4445e-41
76	0x0001857f	1.39725e-40
77	0x8001a7fb	-1.52096e-40
78	0x0000abf9	6.1692e-41
79	0x800194a8	-1.45163e-40
80	0x0001d2e8	1.67494e-40
81	0x00008f99	5.1513e-41
82	0x0001bec1	1.60265e-40
83	0x80020265	-1.8453e-40
84	0x0000154b	7.638e-42
85	0x00005ace	3.2575e-41
86	0x0000347b	1.8826e-41
87	0x0001802f	1.37819e-40
88	0x8000cc29	-7.3239e-41
89	0x0000262d	1.3695e-41
90	0x800063c2	-3.5786e-41
91	0x80010c5d	-9.627e-41
92	0x800162b7	-1.27248e-40
93	0x000144a5	1.1646e-40
94	0x00022e2b	2.00233e-40
95	0x00016c4e	1.30688e-40
96	0x00000ce0	4.619e-42
97	0x00010dc8	9.6779e-41
98	0x8001e5cc	-1.74271e-40
99	0x0000b531	6.4999e-41
100	0x00013bc4	1.13275e-40
101	0x80009791	-5.4372e-41
102	0x8001203e	-1.03402e-40
103	0x800018d8	-8.912e-42
104	0x8001145b	-9.9138e-41
105	0x000129ce	1.06832e-40
106	0x80017f50	-1.37507e-40
107	0x000087aa	4.8667e-41
108	0x80018833	-1.40695e-40
109	0x0001a5ca	1.5131e-40
110	0x800136f1	-1.11545e-40
111	0x00015bcf	1.2477e-40
112	0x8001336e	-1.10285e-40
113	0x0001fdb8	1.82853e-40
114	0x0001b5bb	1.57028e-40
115	0x80016f46	-1.31753e-40
116	0x800048d8	-2.6131e-41
117	0x8000c93d	-7.219e-41
118	0x0000da52	7.8319e-41
119	0x8000bdcb	-6.8085e-41
120	0x0001279c	1.06045e-40
121	0x8000d8aa	-7.7724e-41
122	0x8001344a	-1.10593e-40
123	0x000108a0	9.493e-41
124	0x0000e4f7	8.2137e-41
125	0x80013ccd	-1.13647e-40
126	0x800002bc	-9.81e-43
127	0x00000f76	5.546e-42
128	0x8001bf47	-1.60453e-40
129	0x0000ccfa	7.3532e-41
130	0x0001818e	1.38311e-40
131	0x800047c9	-2.5752e-41
132	0x00013c08	1.1337e-40
133	0x0000bc22	6.749e-41
134	0x8001be7b	-1.60167e-40
135	0x8000a507	-5.92e-41
136	0x80008129	-4.6334e-41
137	0x80007f31	-4.5628e-41
138	0x80017bb2	-1.36209e-40
139	0x0000e778	8.3035e-41
140	0x0000273f	1.4079e-41
141	0x0001008a	9.2029e-41
142	0x00016a3a	1.29942e-40
143	0x00003346	1.8393e-41
144	0x0000928d	5.2573e-41
145	0x8000dd15	-7.9309e-41
146	0x00011fe9	1.03283e-40
147	0x800090d5	-5.1956e-41
148	0x8001c568	-1.62652e-40
149	0x000035ad	1.9255e-41
150	0x0001459b	1.16805e-40
151	0x80007eb4	-4.5453e-41
152	0x0001a71e	1.51786e-40
153	0x00018d2e	1.42481e-40
154	0x00014921	1.18069e-40
155	0x800008b6	-3.125e-42
156	0x8000dff7	-8.0343e-41
157	0x0001ec6d	1.76649e-40
158	0x0000014e	4.68e-43
159	0x00005167	2.9202e-41
160	0x8000a8d3	-6.0563e-41
161	0x00002ec1	1.6772e-41
162	0x00012596	1.05319e-40
163	0x000029c5	1.4984e-41
164	0x0001ef72	1.77732e-40
165	0x00014d0c	1.19475e-40
166	0x80020779	-1.86352e-40
167	0x000087a3	4.8657e-41
168	0x00009ead	5.6922e-41
169	0x0000eba9	8.4539e-41
170	0x000080d1	4.621e-41
171	0x00017deb	1.37006e-40
172	0x00005bb4	3.2897e-41
173	0x000100fa	9.2186e-41
174	0x0001f66c	1.80235e-40
175	0x000089c6	4.9424e-41
176	0x8000735b	-4.1382e-41
177	0x80004f7a	-2.8511e-41
178	0x00009e19	5.6715e-41
179	0x00016911	1.29526e-40
180	0x80019bf6	-1.47784e-40
181	0x000010d7	6.041e-42
182	0x80002daa	-1.6381e-41
183	0x800144f6	-1.16574e-40
184	0x8001435f	-1.16004e-40
185	0x8000b35b	-6.434e-41
186	0x80003fa7	-2.2834e-41
187	0x80003e72	-2.2401e-41
188	0x000057a1	3.1435e-41
189	0x8001cfcd	-1.6638e-40
190	0x800220f1	-1.95488e-40
191	0x80017cda	-1.36624e-40
192	0x80003251	-1.805e-41
193	0x800149c5	-1.18299e-40
194	0x80006772	-3.7109e-41
195	0x8000cd43	-7.3634e-41
196	0x8001eba2	-1.76365e-40
197	0x000155ad	1.2257e-40
198	0x8001b3db	-1.56355e-40
199	0x8000907b	-5.183e-41
200	0x80001877	-8.776e-42
201	0x00014849	1.17767e-40
202	0x80013ad5	-1.1294e-40
203	0x80018fd5	-1.43433e-40
204	0x80011192	-9.8139e-41
205	0x8000a506	-5.9199e-41
206	0x00000d53	4.78e-42
207	0x80006267	-3.53e-41
208	0x00016eb5	1.3155e-40
209	0x0000f8e9	8.9292e-41
210	0x8001f8e4	-1.8112e-40
211	0x8000ca41	-7.2555e-41
212	0x8000d563	-7.6549e-41
213	0x8001616b	-1.26782e-40
214	0x80009cff	-5.632e-41
215	0x0001827e	1.38647e-40
216	0x0001f670	1.8024e-40
217	0x8000538a	-2.9968e-41
218	0x80017e52	-1.3715e-40
219	0x800110ff	-9.7933e-41
220	0x000161e4	1.26952e-40
221	0x00011021	9.7621e-41
222	0x80016da7	-1.31171e-40
223	0x00006dae	3.9346e-41
224	0x00019799	1.46218e-40
225	0x00016650	1.28538e-40
226	0x8000c6ff	-7.1386e-41
227	0x800192a8	-1.44446e-40
228	0x8001fe11	-1.82977e-40
229	0x8001f230	-1.78716e-40
230	0x80000e14	-5.05e-42
231	0x00005c6d	3.3156e-41
232	0x00005122	2.9105e-41
233	0x8001123e	-9.838e-41
234	0x8000580a	-3.1582e-41
235	0x00001fe2	1.1437e-41
236	0x000023ee	1.2889e-41
237	0x800129ad	-1.06786e-40
238	0x80013d47	-1.13818e-40
239	0x0000b5a6	6.5163e-41
240	0x00013b28	1.13057e-40
241	0x0000eaee	8.4277e-41
242	0x80012ea5	-1.08568e-40
243	0x800157fa	-1.23396e-40
244	0x800202ba	-1.84649e-40
245	0x80008806	-4.8796e-41
246	0x8000c96d	-7.2258e-41
247	0x0000b45a	6.4698e-41
248	0x000141ae	1.15397e-40
249	0x80011001	-9.7577e-41
250	0x80005c57	-3.3125e-41
251	0x800134cb	-1.10774e-40
252	0x80001fa6	-1.1353e-41
253	0x000160ed	1.26606e-40
254	0x0000c017	6.8909e-41
255	0x0000e78d	8.3065e-41

e_conv4.point_conv.bias f4 [32]
0	0x0001acaa	1.53776e-40
1	0x80010a1e	-9.5465e-41
2	0x8001e671	-1.74502e-40
3	0x80017a2a	-1.3566e-40
4	0x80020643	-1.85917e-40
5	0x80017a66	-1.35744e-40
6	0x00006739	3.703e-41
7	0x8001709e	-1.32235e-40
8	0x80015f3b	-1.25998e-40
9	0x8000ef88	-8.5928e-41
10	0x0001203b	1.03398e-40
11	0x80016b9f	-1.30443e-40
12	0x8000b611	-6.5313e-41
13	0x8001101b	-9.7613e-41
14	0x0000c9db	7.2412e-41
15	0x80010f09	-9.7229e-41
16	0x80019346	-1.44667e-40
17	0x0001f002	1.77934e-40
18	0x8000fffc	-9.183e-41
19	0x0001478b	1.175e-40
20	0x8000813a	-4.6358e-41
21	0x8000bad0	-6.7016e-41
22	0x0001fe4a	1.83057e-40
23	0x000038d9	2.0393e-41
24	0x0001ec88	1.76687e-40
25	0x0000ffb7	9.1733e-41
26	0x00006d51	3.9215e-41
27	0x000139a5	1.12514e-40
28	0x8001ea23	-1.75828e-40
29	0x0001735f	1.33223e-40
30	0x000011bf	6.366e-42
31	0x8001380e	-1.11944e-40
