Zero-DCE++/snapshots_Zero_DCE++/Epoch26.pth (torch, 51217 bytes, 28 tensors)

e_conv1.depth_conv.weight f4 [3, 1, 3, 3]
000000 82 8c a4 be ea 72 0b be e1 70 75 3d 4b d2 34 be
       -0.3213845 -0.13618055 0.059922103 -0.17658345
000010 be 53 fd 3d 2f 4d d8 3d 93 dc be be 60 54 f5 bd
       0.12369488 0.105615966 -0.3727766 -0.11978984
000020 36 4a 32 bd 43 99 20 3e a6 0b db 3d ae 64 8b 3e
       -0.043527804 0.15683465 0.10695581 0.2722525
000030 8d 15 3a 3e 42 de 61 bc 53 de 59 3e 13 4b de 3d
       0.18172283 -0.013785901 0.21276216 0.10854163
000040 78 67 20 bd 63 29 32 3e 2a 51 59 bd b8 bb 90 bd
       -0.039161175 0.173986 -0.05305592 -0.070670545
000050 64 63 e4 bd db 86 ab bd 6a 84 03 be 6a f8 0f be
       -0.1115177 -0.08375331 -0.1284348 -0.14059606
000060 c9 bd ca bc 44 34 39 be 09 bd ae be
       -0.0247487 -0.18086344 -0.34128597

e_conv1.depth_conv.bias f4 [3]
000000 80 a6 95 3d 60 f9 a2 3e d3 c6 11 bd
       0.07307148 0.31830883 -0.035590004

e_conv1.point_conv.weight f4 [32, 3, 1, 1]
000000 50 04 93 3c 36 d6 8d 3e 54 a4 d1 3d 0b 5f 00 00
       0.017946392 0.27702492 0.10236421 3.4095e-41
000010 94 17 d7 b5 ec 35 55 39 40 2c 69 3b e3 52 42 bd
       -1.602561e-06 0.0002033335 0.0035579354 -0.04744233
000020 e1 c6 6b bc e1 b7 b8 3d 9d d3 0a bf bd 86 e8 3d
       -0.014390678 0.09019447 -0.54229146 0.11353824
000030 65 4f 02 3d ce 22 2b bc c2 c9 6d 3a df f6 41 be
       0.031813998 -0.01044531 0.0009070897 -0.1894183
000040 aa 23 17 3e 0e 25 eb 3e 3f eb aa 3d 0f 4b 77 3e
       0.14759699 0.45926708 0.08345651 0.24149726
000050 91 8a a5 be 8b 85 00 00 bc 26 00 80 a9 86 00 00
       -0.3233228 4.7906e-41 -1.3895e-41 4.8307e-41
000060 20 2f 03 3e 95 89 a0 bd dc 8c d1 3c 1e 66 92 3d
       0.12810946 -0.07838742 0.025579862 0.071483836
000070 e4 2c 3d bd eb a5 08 be 38 a5 b3 3e 36 7e 0d bf
       -0.04618539 -0.13344543 0.3508699 -0.5527071
000080 9d c9 d6 3e c5 54 05 3d 05 5b ba bd 17 d6 2d 3d
       0.41950694 0.032551546 -0.09099392 0.0424405
000090 73 52 0d 3e cf 76 de be 12 2e 08 be 26 f4 a0 bd
       0.13800983 -0.4345002 -0.13298824 -0.078590676
0000a0 d6 68 08 be 2d 60 ec 3d d9 35 47 3c b4 2c c8 ba
       -0.13321242 0.115417816 0.012158834 -0.0015272112
0000b0 f9 62 df b1 51 e1 c7 3c 5f e3 c1 3e ae 95 bd 3e
       -6.501406e-09 0.024399431 0.37868783 0.3702826
0000c0 71 75 6a be b9 88 a0 3e 6b 51 e1 be 7b a9 3d 33
       -0.22896363 0.3135431 -0.4400743 4.4159133e-08
0000d0 de dd 22 32 0e a2 be 3c 82 28 9c 3d f2 3f a1 3c
       9.480088e-09 0.023270633 0.07624914 0.019683812
0000e0 50 9a 19 be 4c 92 b1 3c 43 fe d8 b4 f8 77 16 3a
       -0.15000272 0.021676205 -4.0418135e-07 0.00057399226
0000f0 74 5f 11 bf 2c 66 ac bd 53 cc d0 be 50 d9 e2 38
       -0.56786275 -0.08417925 -0.40780887 0.000108169974
000100 4b 01 00 80 0a a6 de 35 ef 64 dc bb b9 fc 2f 3c
       -4.64e-43 1.6588613e-06 -0.0067258994 0.010741406
000110 57 ed e1 3d 24 08 30 1c 5c 51 ae 3c 4f 02 2c 2d
       0.11031597 5.8244037e-22 0.02127903 9.777581e-12
000120 49 35 4c 36 51 66 00 80 20 c0 3c 3b 5f 68 0d b5
       3.0429385e-06 -3.6704e-41 0.002880104 -5.2678473e-07
000130 a6 35 bb bc 5d 84 2b 3d 32 68 b5 2c cb 5b 51 bd
       -0.02285273 0.04187428 5.1558974e-12 -0.05111293
000140 14 99 8a 9e d9 db b8 3e ed 28 1a be 2b 18 c8 be
       -1.467463e-20 0.3610523 -0.15054674 -0.3908094
000150 4e c9 4b 3d f4 fe fa be 8b 91 2d be e8 94 00 80
       0.049752526 -0.4902264 -0.16950051 -5.3417e-41
000160 28 dd dd b5 07 61 03 35 9b 06 98 3e a0 bb c8 3c
       -1.6530148e-06 4.8942496e-07 0.2969254 0.02450353
000170 7f 72 eb bc 9c 17 92 be 53 31 bc 3e 52 c5 cd be
       -0.02874112 -0.28533638 0.3675638 -0.40189606

e_conv1.point_conv.bias f4 [32]
000000 5b 55 29 be 0e 89 37 b7 6e 68 cc bc 0b 0e 11 3f
       -0.16536467 -1.09395605e-05 -0.02495214 0.5666205
000010 3b b5 e3 b7 6b 16 8a 3d ec 3e a1 3e 2c d0 ec bb
       -2.71449e-05 0.06742557 0.31493318 -0.0072269645
000020 3a dc ef 3c 09 b4 c8 bc 4f 5c d6 3e e2 97 f1 3e
       0.029279817 -0.02449991 0.418673 0.4718619
000030 38 e9 a9 3e 33 51 9a 3e f1 31 db bc 07 e7 0a 3f
       0.33185744 0.30140075 -0.026757212 0.5425877
000040 cf 3d c1 bd 2c a0 82 b8 f2 f3 0f be fb f6 d0 bb
       -0.09435617 -6.2287174e-05 -0.14057902 -0.0063770986
000050 e4 c9 d2 3e 54 f9 b4 b8 7a 35 c3 3e c1 49 3f bd
       0.41169655 -8.62951e-05 0.38126737 -0.046701197
000060 4c cc c1 b8 7b 18 00 00 60 aa 46 bd 11 c0 b0 3e
       -9.2410104e-05 8.782e-42 -0.048502326 0.34521535
000070 2c 41 1a 3e e9 30 26 bd c4 8e fd 3e 98 bb c8 bd
       0.15063924 -0.040573988 0.49522984 -0.09801406

e_conv2.depth_conv.weight f4 [32, 1, 3, 3]
000000 07 af 6f bd 3c cc 4c bd 0d c2 51 bd c5 60 04 bd
       -0.05851653 -0.04999946 -0.051210452 -0.03231885
000010 45 68 cf bc e0 dd b1 bc 99 da e3 bc 3b 86 ae bc
       -0.025318274 -0.021712244 -0.027814196 -0.02130424
000020 b6 f9 c3 bc 2f 0e 52 2f 25 f0 2b ad 36 b4 90 22
       -0.023922782 1.9104428e-10 -9.773547e-12 3.9222084e-18
000030 f8 8e 51 b6 0a df 00 00 3d 92 e2 28 c2 8d 00 80
       -3.1226646e-06 8.0011e-41 2.5154461e-14 -5.0853e-41
000040 df 1e 01 00 ce e9 17 38 6e af c6 2c 15 a5 70 29
       1.0291e-40 3.6218953e-05 5.646975e-12 5.343389e-14
000050 97 dc 3e b7 62 8b 23 39 4f 2d cb 37 3d 15 c5 a4
       -1.1376243e-05 0.00015596816 2.4220584e-05 -8.547111e-17
000060 fc 77 3f b1 fc 34 00 80 4b a8 00 00 16 a1 98 be
       -2.7862361e-09 -1.9007e-41 6.0372e-41 -0.298104
000070 48 97 92 be 5b 9a bd bd e8 f7 a8 bd 72 6f 2d 3e
       -0.28631043 -0.092579566 -0.08250409 0.16937044
000080 e5 c1 9a 3e 25 d0 8b 3e 73 9a 6d bc 28 42 e3 3e
       0.30226055 0.2730724 -0.014502156 0.4438641
000090 c4 80 a9 34 90 19 4f 26 e0 5a df 37 d6 64 01 b2
       3.1572392e-07 7.1852196e-16 2.6625989e-05 -7.531716e-09
0000a0 4c 15 20 b2 6c b4 82 af f8 29 4b 39 62 2c 6c b1
       -9.318068e-09 -2.377506e-10 0.00019375223 -3.4367749e-09
0000b0 dc 84 90 2f b3 d1 4b bd 42 8e 66 3d 5e 39 aa bd
       2.628785e-10 -0.04976053 0.05628801 -0.08311723
0000c0 c5 2c 84 3d 10 47 6b 3e c8 ba 8b bd 46 e3 41 bd
       0.064538516 0.22976327 -0.06822735 -0.047335885
0000d0 fb 5e 3a 3b 4b 3e 37 be 5e 22 c2 3d fa 96 d0 b8
       0.002843796 -0.17894857 0.09479211 -9.9463345e-05
0000e0 9b b2 64 be 14 24 54 3d 3a fe 2b 3e dc 83 bf bd
       -0.22333758 0.05179222 0.16796198 -0.09351322
0000f0 d0 cc 3e bd 26 9d 78 bb 77 d5 a0 be 0f 5a 0e 37
       -0.046582043 -0.0037935465 -0.3141286 8.484828e-06
000100 96 2b 7a 34 c9 8b 3a b1 a3 0d 4a 35 77 3b 00 80
       2.3298921e-07 -2.714602e-09 7.527071e-07 -2.1332e-41
000110 17 56 19 b9 14 59 89 33 61 3f 2f b6 31 cd 3c b8
       -0.00014623288 6.395763e-08 -2.6113923e-06 -4.5013792e-05
000120 2d a4 88 3a b2 dd 2c 3a 73 39 d0 3a 29 f1 a5 3a
       0.0010424905 0.00065943145 0.0015886262 0.0012660372
000130 3c bc 79 3a ef 73 05 3b e1 12 c2 3a 4b 9d b0 3a
       0.00095266453 0.0020363291 0.0014806652 0.0013474611
000140 bc a4 32 3b 5a 31 23 3a 4c 9f 35 3b 4f 98 4f bc
       0.0027258834 0.00062253105 0.0027713357 -0.012670591
000150 29 b8 e2 3b 2d 63 ee 3b cf 43 ec bb ad 02 88 3b
       0.0069189263 0.0072750063 -0.007210232 0.0041507096
000160 d1 bd 87 3b 2d 84 c3 bb 49 c7 a4 3e 4b 50 9c 3e
       0.004142501 -0.0059666843 0.32183293 0.3053001
000170 be 8d 6b 3e 9b 3c 9f 3e 2b 2e 36 bc 65 71 b6 3e
       0.23003289 0.31100926 -0.011119406 0.35633388
000180 a0 04 94 3e f6 c1 91 3d c6 dd 37 3d 36 23 61 3e
       0.2890978 0.07117073 0.044889234 0.21986088
000190 9b 4d 6f be 06 d8 06 3e 40 1b 90 3d 76 0e 73 be
       -0.23369448 0.13168344 0.070364475 -0.23735985
0001a0 49 a7 24 be ae c1 86 3e 0c 23 61 3d 28 f8 0b 3e
       -0.16079439 0.2631964 0.054965064 0.13668883
0001b0 3c bc ab 3e a7 0f d8 3d 57 4c 47 3e 64 7f 91 3e
       0.3354205 0.105498604 0.19462715 0.28417504
0001c0 b7 6f 5e 3e 18 6a d9 3d 06 89 99 3e 5c 91 4d 3e
       0.21722303 0.10615939 0.29987353 0.20074981
0001d0 2d a7 80 bd 00 4d 81 bb 28 b6 bb 3c 7a eb 29 3d
       -0.06281886 -0.0039459467 0.022914007 0.041484334
0001e0 2e 02 df 3d b4 dd 15 be 96 e2 4e 3e 45 f0 00 be
       0.108890876 -0.14635354 0.20203623 -0.12591656
0001f0 af f8 05 3d ff 6d be 3e b8 a3 d1 b7 23 1b 18 b4
       0.032707866 0.37193295 -2.4990979e-05 -1.4165975e-07
000200 fa a6 1e 31 5d da f6 14 e8 e9 34 36 14 f5 03 00
       2.3086941e-09 2.4925781e-26 2.6958242e-06 3.63424e-40
000210 a4 58 0f 35 15 f7 12 20 18 fa b3 2f 26 1f aa bd
       5.340064e-07 1.2448434e-19 3.2737613e-10 -0.08306722
000220 4a a9 2b 3e a0 ce 32 be b8 2c 05 3e 53 3d 68 3e
       0.16763797 -0.17461634 0.1300534 0.22679643
000230 0a f7 5f 3e 88 c2 25 be 43 2c 8b bd f5 f8 84 bd
       0.21871582 -0.16187489 -0.06795552 -0.06492797
000240 1b ba fd 3d 66 54 8f 3e 33 92 b3 3e 89 6d 06 3e
       0.123890124 0.27994078 0.3507248 0.13127722
000250 9e bf 87 3d e5 c6 f9 3d 8e 38 42 be bf 14 51 bd
       0.06628345 0.12196139 -0.18966886 -0.051045176
000260 b4 47 2d be f3 1e 99 34 24 1b 00 80 ee 21 00 80
       -0.16921884 2.852099e-07 -9.736e-42 -1.2172e-41
000270 47 d4 82 9b 78 7e 43 25 af 5a 00 80 73 58 a2 26
       -2.1643877e-22 1.6956403e-16 -3.2531e-41 1.1264982e-15
000280 70 99 db a7 1d 6b 51 37 37 0d f1 34 f7 7a fe b8
       -6.0951068e-15 1.248231e-05 4.4899363e-07 -0.00012134568
000290 a1 33 19 33 7b b6 22 34 27 a4 0a b9 08 07 95 38
       3.5670045e-08 1.5153812e-07 -0.00013221857 7.106183e-05
0002a0 c7 58 45 34 10 93 4f 37 be 73 1f b8 ae b0 00 80
       1.8379352e-07 1.2372402e-05 -3.8016347e-05 -6.3381e-41
0002b0 91 5f 11 21 e0 3d 00 00 df 05 00 00 02 83 00 00
       4.925439e-19 2.2197e-41 2.106e-42 4.6997e-41
0002c0 33 73 b3 a0 07 88 ef 91 91 2f c7 22 41 4e 31 0e
       -3.0400012e-19 -3.7791385e-28 5.398942e-18 2.1854612e-30
0002d0 2b ec 0c bd 64 ef 87 3e f2 bf 56 be 2c 5a a4 be
       -0.034404915 0.26549828 -0.20971659 -0.32100046
0002e0 5e 50 80 bc 25 2f 82 3d f0 b4 87 be 5d bd 84 be
       -0.015663322 0.06356648 -0.26505232 -0.25925723
0002f0 b9 76 91 be 28 37 00 00 42 d6 00 00 f4 db 19 b9
       -0.2841089 1.9786e-41 7.6861e-41 -0.00014673156
000300 0c c1 0c b0 2e bc 9d 2c 03 a9 c5 38 8c e5 00 00
       -5.120604e-10 4.4831005e-12 9.425173e-05 8.2346e-41
000310 43 73 99 ae ba a4 72 9f 5b e1 4d bd 48 b1 17 be
       -6.978109e-11 -5.1381752e-20 -0.050263744 -0.14813721
000320 ed 91 04 3e ad a5 de bd 67 d2 11 be 6d ea e4 3c
       0.12946291 -0.10871444 -0.14240418 0.027943814
000330 b5 2a 14 bd 0d e2 08 be aa 57 12 bb 4e e2 00 00
       -0.03617354 -0.13367482 -0.0022330084 8.1183e-41
000340 65 1d 00 00 e5 1e 00 80 4e 9f 00 80 f2 89 24 b4
       1.0545e-41 -1.1083e-41 -5.7148e-41 -1.5323874e-07
000350 0f 2e 00 80 c6 37 28 ab da 5e 00 00 73 5a 01 80
       -1.6523e-41 -5.976299e-13 3.4026e-41 -1.24283e-40
000360 d0 6a 00 00 cf 8b 90 9c ce 10 e0 2e 61 7c 00 00
       3.8317e-41 -9.56526e-22 1.0189326e-10 4.4619e-41
000370 4d 1d 8d a6 e3 57 00 80 87 a0 00 00 b5 54 8d 9c
       -9.791782e-16 -3.1528e-41 5.7586e-41 -9.352494e-22
000380 d5 c1 00 00 bb 24 22 b9 0d 73 62 00 7a 8f 00 00
       6.9534e-41 -0.00015463207 9.041151e-39 5.147e-41
000390 d6 5f cf b7 43 07 00 00 98 08 18 b9 b6 f1 fa ab
       -2.472095e-05 2.605e-42 -0.00014499051 -1.7830657e-12
0003a0 1d 7d 01 00 4c 8b 26 a2 63 3c 00 00 c2 0c a6 b3
       1.36718e-40 -2.2570938e-18 2.1663e-41 -7.732298e-08
0003b0 71 8e dd 37 64 06 b5 b4 0a d1 66 22 63 5f 00 00
       2.6411582e-05 -3.3718527e-07 3.1281477e-18 3.4218e-41
0003c0 0f 0f 6a b8 a3 38 00 00 de d9 00 80 29 ed 9e 3e
       -5.5803972e-05 2.0317e-41 -7.8156e-41 0.31040314
0003d0 7b 79 0f bd a9 f5 4d 3c 47 d6 1b 3c 12 0b f5 3d
       -0.035027962 0.012570777 0.009511537 0.11965002
0003e0 17 db b5 3d 3d 12 f9 3c 6f 04 35 bd 10 ca 1f 3a
       0.08879679 0.030404205 -0.04419368 0.00060954783
0003f0 f6 09 d3 38 60 86 bf 38 a9 de ce 37 a5 b3 c2 b8
       0.000100631194 9.132619e-05 2.4660798e-05 -9.284102e-05

e_conv2.depth_conv.bias f4 [32]
000000 f4 2f d6 3d 7d 35 26 be 17 cb bd 3c e5 19 56 bd
       0.10458365 -0.16231342 0.02316813 -0.05227079
000010 da 82 55 be 16 6a 63 3e 2e 41 26 3c 32 93 25 3e
       -0.20850697 0.22208437 0.010147376 0.16169432
000020 3d 26 96 3e fd 34 86 be c2 c6 f6 3b 97 23 b2 bd
       0.29326048 -0.26212302 0.007531018 -0.086981945
000030 07 40 6f be a7 55 5d bd fd 10 33 3e eb ea 66 3e
       -0.23364268 -0.054036763 0.1748695 0.22550552
000040 89 09 4f 3e 04 7c 45 bd 54 f4 1f 34 a2 5b 46 3e
       0.20218481 -0.048213974 1.4896915e-07 0.19370893
000050 2c 07 8d 3e ee 0b 50 3e af 89 fd bd 05 28 74 3e
       0.27544534 0.20317051 -0.12379777 0.23843391
000060 78 f3 c9 bd 8a 92 2d bd b9 cf c9 3d 9b ba 78 be
       -0.09860891 -0.04237608 0.09854073 -0.24289934
000070 a2 a8 fa bd 44 d4 3b be d1 8b a2 bd e7 e6 9b 3e
       -0.122391954 -0.18342692 -0.07936824 0.30449602

e_conv2.point_conv.weight f4 [32, 32, 1, 1]
000000 fc d5 dc bc 95 3c ea bc 99 dc 45 bb e4 c7 00 3e
       -0.026957504 -0.02859334 -0.00301913 0.12576252
000010 cc b7 2f 3c fc e5 5b bd 1d a8 2c 3d 5c bc 01 bd
       0.010724973 -0.053686127 0.042152513 -0.031673774
000020 30 ff 80 bd 9b 4d 93 3b 82 67 66 3d ef 10 04 3e
       -0.06298673 0.0044953353 0.056251056 0.12897085
000030 b4 4d 01 3e fe 94 34 3c d7 4e f4 bb 21 aa d5 bd
       0.12627298 0.011021851 -0.0074556875 -0.1043284
000040 46 27 4b 3d 5e 8c 84 ba f9 eb 03 35 e2 10 82 bd
       0.049598 -0.0010112633 4.914469e-07 -0.063508764
000050 55 62 58 3e 46 33 2f 3d e8 f7 76 3d 78 1b 91 bd
       0.2113126 0.042773508 0.060295016 -0.070853174
000060 60 42 3e bc 58 e2 d1 3b e7 10 a3 bc 1b a8 45 3d
       -0.011612505 0.006405156 -0.01990552 0.04825602
000070 f9 c5 d1 3c 1e 63 03 3d e2 87 1e be a0 a4 bb bd
       0.025607096 0.032076947 -0.15481523 -0.09162259
000080 9d 0a 8e 3d f5 c9 ee bd 8a 86 85 3c 34 7a 57 be
       0.06935618 -0.11659614 0.016299505 -0.2104271
000090 9d 22 22 3d 08 36 0a 3e a8 77 bf 3c a4 b0 a1 3c
       0.03958379 0.13497174 0.023372486 0.01973755
0000a0 1d 41 c7 3d 5f 70 d3 bd f1 bd 85 3e 75 fe 44 bd
       0.09729216 -0.103241675 0.26121476 -0.04809423
0000b0 85 71 3a 3e 4a 40 4e 3d f0 b2 ea bc 89 a7 28 3e
       0.18207367 0.05035428 -0.028649777 0.1647016
0000c0 72 18 a8 3d be 2b 85 bc 32 95 0d 36 fe 9b da bc
       0.082077876 -0.01625621 2.109748e-06 -0.026685711
0000d0 16 e1 fa 3d ac 6e 60 3d 7c c8 5e 3d 7e 40 0d 3e
       0.12249963 0.054793045 0.054390416 0.13794133
0000e0 b5 65 19 bc 2e 21 d2 bc 4b fd 59 bd ec a5 ca 3d
       -0.009362628 -0.025650587 -0.053220075 0.09894928
0000f0 d3 4c 0b be c4 60 e4 bc e1 2d 66 be cf df 0f 3e
       -0.13603525 -0.027878173 -0.22478439 0.1405022
000100 29 87 54 3a 5e f2 bf 3b 38 d8 f6 ba 7b 73 92 3e
       0.00081072986 0.00585775 -0.0018832749 0.2860373
000110 93 6a c2 3c e1 09 24 3d cf a5 fc 3c d1 9f b1 bc
       0.02373246 0.040048484 0.030840782 -0.021682652
000120 48 0e 6d bd 4d 65 76 bd 34 68 0f be dc 07 f0 3c
       -0.057874948 -0.0601552 -0.14004594 0.029300623
000130 33 27 71 be 8c 80 08 3d 73 af 24 bd 3b e0 f5 3c
       -0.2355011 0.033325717 -0.040206384 0.030014148
000140 b1 2d bf 3d 49 b6 27 bc f6 68 48 35 21 c1 bf 3c
       0.09334887 -0.010236331 7.4658544e-07 0.02340752
000150 6f 23 d8 bd 31 6b f3 3b 04 d1 cf bb 41 fe b2 3d
       -0.105536334 0.0074285497 -0.0063420553 0.08739901
000160 b6 ee a4 bb b3 79 29 3b 43 5e d1 3c 1f c2 17 be
       -0.0050333394 0.0025859892 0.025557643 -0.14820145
000170 e6 24 9c bc e7 b9 61 bd 13 22 a8 3d 4e 9e 20 bd
       -0.019060563 -0.05510893 0.08209624 -0.03921347
000180 b5 24 00 80 39 51 00 00 5e e1 00 80 87 e1 5f 21
       -1.3168e-41 2.9137e-41 -8.0847e-41 7.585382e-19
000190 f9 42 00 80 71 5d 00 80 d5 7c 00 80 ef 06 00 80
       -2.4025e-41 -3.352e-41 -4.4781e-41 -2.487e-42
0001a0 57 7b 7d a9 54 03 00 00 6b 2d 00 80 59 de fc 8e
       -5.6284265e-14 1.194e-42 -1.6293e-41 -6.233691e-30
0001b0 28 c7 dc 1f 2e 02 00 80 73 70 00 80 9b 2e 28 a6
       9.35031e-20 -7.82e-43 -4.0339e-41 -5.834987e-16
0001c0 e3 35 00 00 13 61 00 80 43 2f 5c 9c 45 64 00 80
       1.9331e-41 -3.4824e-41 -7.285298e-22 -3.597e-41
0001d0 1e 02 23 a5 d0 9e 00 00 56 68 00 00 35 02 00 80
       -1.4138714e-16 5.6971e-41 3.7429e-41 -7.92e-43
0001e0 ba 3a 00 80 13 33 00 00 d9 9f 00 00 a5 b7 00 80
       -2.1067e-41 1.8322e-41 5.7343e-41 -6.5879e-41
0001f0 3d f8 82 97 aa 46 00 80 d6 c4 00 00 7c 0e 00 00
       -8.463717e-25 -2.535e-41 7.0611e-41 5.196e-42
000200 f1 f7 17 3c da 5c cb 3c ee 2e 92 3b cc f4 c7 bd
       0.009275422 0.024824549 0.004461161 -0.09763488
000210 00 4d 3a 3d c1 7f eb 3d fa 64 29 be 50 0e b7 ba
       0.04548359 0.114989765 -0.16542426 -0.0013966057
000220 a8 fd 02 bd 7a ea 16 bd 17 4f e6 bd 57 71 fd bc
       -0.031980187 -0.036844708 -0.11245554 -0.030937834
000230 e9 7f b3 bd 34 46 77 bd aa a8 83 3c 62 22 2e 3e
       -0.08764631 -0.060369685 0.016071636 0.17005304
000240 8e 7a 45 bc c1 a7 82 bc a1 72 88 35 31 82 45 3d
       -0.012053145 -0.015949132 1.0166151e-06 0.048219863
000250 11 84 50 bb 9b f4 ac bc c6 4f c6 bb af da 0d bd
       -0.0031817 -0.02111273 -0.00605199 -0.03463238
000260 4f 96 da bc ff c7 1c bc 60 76 c1 3c 74 a1 8b 3c
       -0.026683 -0.009569167 0.023616016 0.01704476
000270 c3 2c 75 bc c8 62 37 bd dd 3e 49 3d 6e 2f 4d bd
       -0.014964285 -0.04477194 0.049132217 -0.05009406
000280 17 70 84 3c fb df 99 bc 96 46 56 3b f1 3f 4a be
       0.01616673 -0.01878356 0.003269588 -0.19750954
000290 71 96 b9 bc 21 f9 01 3d 3c bb 85 3d 23 d0 9d 3c
       -0.022654744 0.03173173 0.06529853 0.019264286
0002a0 a0 af d2 3c a5 01 d4 bc 18 58 0e 3e 09 a9 18 bd
       0.02571851 -0.02587969 0.13900793 -0.03727058
0002b0 20 de ec 3d 5a 8f d7 bc 1b 18 a7 3c da 52 b7 3c
       0.115658045 -0.026313473 0.020397237 0.022378374
0002c0 30 de a1 bc 3f b4 ee bb 1a 9b 82 34 35 7a 54 3c
       -0.019759268 -0.0072846706 2.4327238e-07 0.01296859
0002d0 34 35 c2 3d a9 4a cb 3c 74 72 e1 bc da a7 8f 3c
       0.09482804 0.024815874 -0.027520396 0.017536093
0002e0 a2 14 59 bc b5 94 cd bb 98 e8 63 3c a6 1e 5f 3d
       -0.013249548 -0.006273831 0.013910435 0.054472588
0002f0 da 0a 74 bc 8d 49 ab bc 59 17 f6 ba 68 ed 0c 3e
       -0.014895165 -0.020909095 -0.0018775269 0.13762438
000300 58 53 ae 3b ca 53 c6 3c 7b 8f 24 3b a4 a1 67 3e
       0.005319994 0.024209876 0.0025109935 0.22620255
000310 1a e5 e9 bc a9 3a 3d be c0 ce 2e 3e e2 e7 84 3c
       -0.028551627 -0.18479408 0.17071056 0.016223852
000320 b1 f0 40 3b 42 50 47 bd c9 14 c6 3e af d1 78 3e
       0.0029440338 -0.048660524 0.38687733 0.24298738
000330 6d 89 2c 3e c5 37 87 3e 68 87 ab 3c dc b8 b6 bd
       0.16849299 0.26409736 0.02093859 -0.08921978
000340 32 cb 10 3e 4a 2c 66 bb 12 ba 5d 35 80 c8 23 3d
       0.14140013 -0.0035121613 8.2599684e-07 0.039986134
000350 4a 41 69 bd 69 9e 04 3d 14 d9 3b 3d 5b 63 93 3c
       -0.05694703 0.032377634 0.04586132 0.017991712
000360 93 eb 01 3b 3b 69 71 bb e5 9f a1 3c a3 12 6c 3d
       0.001982425 -0.0036836404 0.019729564 0.05763496
000370 8f 69 ee bb c5 ab a7 3c 14 86 2f be 83 f6 33 3e
       -0.007275767 0.020467648 -0.1714099 0.17574506
000380 2f 21 89 89 b9 f6 1f 1e 06 e7 1f 8b 3d 6b b0 88
       -3.3012756e-33 8.468411e-21 -3.079609e-32 -1.0617826e-33
000390 a6 01 b0 8a 97 a3 c1 9d 18 10 3e 8a 77 0c b5 0a
       -1.6948804e-32 -5.1255823e-21 -9.151194e-33 1.7434355e-32
0003a0 03 6b 10 a1 24 8c 0d 8b 7e 6e e8 a8 51 d1 99 8a
       -4.8930727e-19 -2.7261042e-32 -2.5805093e-14 -1.48121e-32
0003b0 a0 2a a0 96 5a d9 b9 07 65 6a 7d a0 6b ed df 89
       -2.5876294e-25 2.7963454e-34 -2.1465137e-19 -5.3908564e-33
0003c0 8c 97 39 0a 46 32 f9 89 2e 43 64 04 0b 49 bc 15
       8.935929e-33 -5.9991846e-33 2.6832119e-36 7.6047837e-26
0003d0 ab a2 53 8a 28 f7 06 28 17 5d 16 8a be d7 38 28
       -1.0189875e-32 7.492088e-15 -7.2397455e-33 1.02608335e-14
0003e0 68 ee 8c 27 b7 ae cf 24 32 8c 04 a9 6c b3 f4 8a
       3.9116286e-15 9.006792e-17 -2.9431488e-14 -2.3563836e-32
0003f0 4d 0d 57 0c 90 2e 8b 24 69 50 bd 27 fb da fb 23
       1.6567e-31 6.036052e-17 5.254522e-15 2.7306216e-17

e_conv2.point_conv.bias f4 [32]
000000 82 31 ce 3d 0d 51 6e 3d 9e 7f cc 3d 8d 03 24 08
       0.100680366 0.058182765 0.099852785 4.935613e-34
000010 ce 2a 21 3e 04 d5 92 3d 08 6c df bb 61 f8 c6 0b
       0.15738985 0.07169536 -0.0068182983 7.6640545e-32
000020 1b 6d 4a 3d d9 b9 01 3e 44 eb 26 b8 c8 ea 2b bd
       0.049420457 0.12668552 -3.9796592e-05 -0.04197195
000030 34 df 0d 3c ba f7 47 3e 3a a4 8d 3d 23 0b 00 00
       0.008659173 0.19528094 0.06916089 3.995e-42
000040 77 dc 7f 0a 01 03 cd 3c 45 2b 09 3d d1 ea 00 80
       1.2319268e-32 0.025025846 0.03348853 -8.4236e-41
000050 bc 94 9b bd 41 47 15 bc 92 74 df 3c f5 93 1d bc
       -0.07596728 -0.009111227 0.027277265 -0.009617795
000060 bb 47 48 3d 45 b0 88 bc c7 80 40 3d 86 82 df bd
       0.048896533 -0.016685614 0.04699781 -0.10913567
000070 90 af 00 00 ce 17 fb 3c 75 8e 5a 3d 2e 41 d0 3d
       6.298e-41 0.030651 0.053358514 0.10168682

e_conv3.depth_conv.weight f4 [32, 1, 3, 3]
000000 67 05 29 2a 4e 44 6f 35 03 d0 0d 33 80 b8 93 38
       1.501209e-13 8.9133835e-07 3.3018306e-08 7.043872e-05
000010 8a cb 90 28 45 34 5d 35 6f f8 00 2a e9 51 91 29
       1.6075483e-14 8.240498e-07 1.1454876e-13 6.453503e-14
000020 ac 1f 50 29 b0 70 97 b3 5d 5c 9c b0 2a ab f6 29
       4.621275e-14 -7.051983e-08 -1.1376745e-09 1.0954287e-13
000030 03 dc ab 29 d5 32 e5 a8 47 80 20 38 f6 ce f2 26
       7.6320914e-14 -2.5446152e-14 3.826644e-05 1.684822e-15
000040 24 b7 fd a9 64 84 97 af 9d 31 d6 b5 06 a6 b2 2c
       -1.1267227e-13 -2.756081e-10 -1.5958682e-06 5.0774966e-12
000050 32 02 8f a8 e2 14 92 aa 34 59 93 a9 59 29 f2 29
       -1.5877141e-14 -2.59493e-13 -6.5435857e-14 1.07541316e-13
000060 7c bb 26 b9 5f 2e 15 b6 6c e0 73 34 7b a7 91 8a
       -0.00015900837 -2.2229722e-06 2.2712783e-07 -1.4025991e-32
000070 67 ab 4d 30 5f 92 8c 32 e3 84 37 37 f6 7c b1 37
       7.4822143e-10 1.6364707e-08 1.093859e-05 2.1158234e-05
000080 44 4c 34 39 e6 2a 9a 2e 66 fc 84 1e c4 64 2d b9
       0.00017194549 7.0107295e-11 1.4080433e-20 -0.00016536104
000090 11 5b 85 a8 25 5c ae 33 6c f1 0d 29 46 5e b5 b8
       -1.480546e-14 8.1192674e-08 3.151769e-14 -8.648312e-05
0000a0 ff 9a 70 28 8f 61 e7 38 f6 98 31 2f 59 48 0d 28
       1.3356286e-14 0.0001103311 1.6152399e-10 7.84276e-15
0000b0 ad 63 fd 28 2a df 09 2b a9 04 10 2a 3a 36 64 29
       2.813187e-14 4.898188e-13 1.2791386e-13 5.0673204e-14
0000c0 ad ed bf b7 1a 7b c7 29 7d 2b b6 29 a0 03 f2 38
       -2.287965e-05 8.85873e-14 8.0899676e-14 0.000115401344
0000d0 63 4b 58 29 c2 f8 bf 2a b5 e0 de aa 17 d2 76 aa
       4.8027022e-14 3.4101026e-13 -3.9591044e-13 -2.1922079e-13
0000e0 79 04 c3 aa 3c f2 a9 b8 6e 6b db ab 47 20 8c aa
       -3.4642062e-13 -8.103668e-05 -1.5590704e-12 -2.4891393e-13
0000f0 f0 19 31 2e 87 f4 ca aa 33 49 90 aa 18 74 00 00
       4.0268178e-11 -3.6052083e-13 -2.563033e-13 4.1647e-41
000100 b8 c8 4f b3 6e a1 98 29 e0 59 0c 38 27 c9 8c 32
       -4.8378496e-08 6.7781596e-14 3.3462304e-05 1.6389619e-08
000110 f9 f2 83 36 55 bb 00 80 0e aa 00 00 92 58 2c 31
       3.93239e-06 -6.7202e-41 6.1004e-41 2.507964e-09
000120 62 53 aa a9 ff 1f 43 39 2a e4 83 2a 15 cc 08 b3
       -7.563981e-14 0.00018608569 2.3428595e-13 -3.185058e-08
000130 2e d3 02 37 20 48 0f a9 b5 e0 8b ab 67 5a 78 2a
       7.797773e-06 -3.1814937e-14 -9.938913e-13 2.205819e-13
000140 26 1b 77 2a ab f8 d2 ab 26 8d 18 b8 ad c8 26 39
       2.1947426e-13 -1.4990417e-12 -3.637108e-05 0.00015905751
000150 60 1e 74 a9 59 95 76 a9 5c e0 be 36 b7 61 1b 2f
       -5.420523e-14 -5.475251e-14 5.68856e-06 1.4131883e-10
000160 e6 e4 17 37 a4 df 32 37 d0 b1 3e 27 9f 52 08 27
       9.053596e-06 1.0661697e-05 2.646419e-15 1.891858e-15
000170 f5 36 4b 25 3a eb 02 38 b0 83 89 26 54 0c 24 af
       1.7626063e-16 3.1213487e-05 9.541979e-16 -1.4920093e-10
000180 af 21 9a b6 64 e6 df 25 1e d0 fe b7 6e 1a d4 20
       -4.593479e-06 3.8840452e-16 -3.0376072e-05 3.5931687e-19
000190 7e 3a 26 a1 f8 e9 0f 22 6c 16 17 a1 ba 6f 1e a1
       -5.63204e-19 1.9503976e-18 -5.1190465e-19 -5.368035e-19
0001a0 ae 49 7e 2b 97 ad 9c a0 e3 e3 b8 a0 7d 55 f6 34
       9.034118e-13 -2.65423e-19 -3.1321615e-19 4.5883272e-07
0001b0 b3 76 1b aa 57 1f 11 ab 34 f4 2e ab fd 47 5c b5
       -1.3807948e-13 -5.155784e-13 -6.215612e-13 -8.2061143e-07
0001c0 2b ba 9b aa cb 87 3d b9 54 9f 3d aa ff 6b 95 2a
       -2.766271e-13 -0.00018075031 -1.684185e-13 2.6542654e-13
0001d0 5a a9 45 2c 1d 8d 05 2e dd 6f 7f 2e cd c8 c2 34
       2.8089393e-12 3.0366033e-11 5.8079642e-11 3.6281418e-07
0001e0 cd 04 70 35 ed 17 e7 2d 00 af 02 2e 3d 45 ac 2e
       8.9413953e-07 2.6272285e-11 2.971401e-11 7.8339536e-11
0001f0 74 b2 b0 2e 31 5e 40 2e 26 8f b0 2a 94 2f e3 b5
       8.035253e-11 4.3739404e-11 3.136321e-13 -1.6926665e-06
000200 ea 41 c5 b0 dc e1 36 38 12 2c 69 2b 5c 65 37 2b
       -1.435237e-09 4.360253e-05 8.283939e-13 6.5155325e-13
000210 c2 09 0c 2a 7e b7 34 2a 37 e9 e9 b4 da 91 27 36
       1.2437883e-13 1.6050873e-13 -4.3569318e-07 2.4969836e-06
000220 b0 0f 00 00 00 3f 22 34 b9 39 59 9e 4e ca 54 92
       5.628e-42 1.5110345e-07 -1.1499821e-20 -6.7144765e-28
000230 20 cc 2e b6 b6 5a 00 00 cc cc 61 b8 14 08 ee 37
       -2.6046837e-06 3.2541e-41 -5.3834912e-05 2.8375573e-05
000240 8c d8 fd ac 25 cd 57 b9 d5 2b d4 37 39 8c 0a a8
       -7.214734e-12 -0.0002058042 2.529278e-05 -7.690945e-15
000250 d3 a5 b8 2b d7 6d 38 38 a6 84 31 aa 96 19 bf b5
       1.3120012e-12 4.3971315e-05 -1.576678e-13 -1.4238055e-06
000260 ed a0 93 b2 32 08 9f a7 4f 58 b2 a7 ea ec 0a a8
       -1.7186233e-08 -4.414025e-15 -4.950067e-15 -7.711911e-15
000270 5e c5 2c ab d5 01 03 b6 b7 2d 39 a8 f2 86 8c 24
       -6.1380577e-13 -1.9521588e-06 -1.0279476e-14 6.094393e-17
000280 87 f3 04 a7 92 10 a0 b7 fa 1e 6e 33 c5 cc 37 2a
       -1.8450696e-15 -1.9081202e-05 5.5441866e-08 1.6324709e-13
000290 73 b8 51 2a f0 06 57 29 7b 8a 35 38 84 47 b9 29
       1.8626923e-13 4.7745607e-14 4.3282733e-05 8.2280564e-14
0002a0 d0 31 7f 28 32 3b 36 af d3 01 8f 29 2d 8c 00 00
       1.4166145e-14 -1.6573834e-10 6.350792e-14 5.0286e-41
0002b0 d9 5a c0 95 eb a1 00 80 b0 26 00 80 b8 40 00 00
       -7.7691515e-26 -5.8085e-41 -1.3878e-41 2.3217e-41
0002c0 aa 85 ce b8 1f 26 00 80 59 b4 0e 1f 89 e1 92 ae
       -9.847742e-05 -1.3675e-41 3.021885e-20 -6.6793744e-11
0002d0 96 f5 91 b0 10 f6 f8 2a 6e 22 dd 2a 45 2d df aa
       -1.0619938e-09 4.422439e-13 3.9281377e-13 -3.964417e-13
0002e0 32 58 9b 2a f6 e0 19 b4 92 8e 2f 34 89 6e 4a b9
       2.759473e-13 -1.4331076e-07 1.6350012e-07 -0.00019305399
0002f0 65 e8 fc 30 7b ab d7 b1 47 9d 6c 31 95 45 2c 23
       1.8401464e-09 -6.2768186e-09 3.4431922e-09 9.338873e-18
000300 0f f0 2f 24 4f 89 28 28 7e 9c f5 22 fe 9e 59 26
       3.8150414e-17 9.3556475e-15 6.6573076e-18 7.5502473e-16
000310 59 ea ab 32 e5 35 88 23 1f 52 96 ab 85 d5 2e b6
       2.0013589e-08 1.4767975e-17 -1.0680934e-12 -2.6052305e-06
000320 5c 74 d5 aa 44 c0 02 34 73 ed 25 aa 46 e9 65 b7
       -3.791714e-13 1.217714e-07 -1.4737326e-13 -1.3703777e-05
000330 9a e8 07 ab 63 9b 1e 38 24 86 57 b4 95 0e 23 b7
       -4.8284434e-13 3.781485e-05 -2.0072235e-07 -9.718952e-06
000340 52 8f 89 b2 30 b1 ef 2f ec f4 2e 39 08 6d c2 ac
       -1.6014074e-08 4.3599746e-10 0.00016685174 -5.5259165e-12
000350 dc 69 a0 36 4d 07 02 ab 32 38 48 a8 ff 4a 19 aa
       4.7806952e-06 -4.619541e-13 -1.1114416e-14 -1.3615149e-13
000360 1d 98 e6 ab 3f 37 41 b7 f6 8d 18 38 8a fe 4a a7
       -1.6384703e-12 -1.1516559e-05 3.6371835e-05 -2.8171117e-15
000370 93 7c 5c b7 32 41 7d 28 4f 3a 1b aa c9 f6 ba 2a
       -1.3142027e-05 1.4058458e-14 -1.3786995e-13 3.321148e-13
000380 71 d4 06 b1 09 bc 93 ac 97 af 8a 2e 13 f9 aa b3
       -1.9620325e-09 -4.1988674e-12 6.3067045e-11 -7.961548e-08
000390 6e 34 6e 25 26 bf 1d 26 a2 f0 98 37 dd a7 bb a7
       2.0660973e-16 5.472937e-16 1.8231865e-05 -5.2084924e-15
0003a0 10 0c d2 b0 04 2e 43 26 cf 1c 12 a8 16 7c 4e a8
       -1.5282939e-09 6.771658e-16 -8.110875e-15 -1.1462204e-14
0003b0 aa 9e 82 a8 53 30 d4 a7 c9 e6 fa a7 a9 80 cd a7
       -1.4501709e-14 -5.8894214e-15 -6.9639157e-15 -5.7038424e-15
0003c0 0d 8c d3 b2 b8 33 00 a7 ef 4e 71 b8 fe 11 41 b6
       -2.462732e-08 -1.7791605e-15 -5.753239e-05 -2.8769714e-06
0003d0 eb 45 d2 a9 b3 b7 df a9 e0 32 02 b6 61 f9 59 b3
       -9.338002e-14 -9.935056e-14 -1.9401123e-06 -5.075106e-08
0003e0 1c c8 d3 38 1b b1 41 aa 14 8d 40 aa 87 68 8d b8
       0.00010098537 -1.7203289e-13 -1.7101972e-13 -6.742874e-05
0003f0 df 98 98 38 52 ef 00 80 88 16 57 b3 10 e4 4a b3
       7.276399e-05 -8.5852e-41 -5.007908e-08 -4.723921e-08

e_conv3.depth_conv.bias f4 [32]
000000 8f 17 b1 a9 c1 f2 95 32 48 fb 84 2a 73 2e f4 ad
       -7.864466e-14 1.7456275e-08 2.3622272e-13 -2.7760216e-11
000010 20 03 a2 b4 ee 96 1a aa 2b ae a8 32 3f b5 9b 28
       -3.0177125e-07 -1.3730312e-13 1.9636976e-08 1.728706e-14
000020 a3 61 14 ab 33 34 7c aa 3d 0c 12 a7 4a 9c 9e a4
       -5.271566e-13 -2.2400206e-13 -2.0268205e-15 -6.878634e-17
000030 93 3b 80 2a ef df 81 2d 7a cc a4 b7 7d 56 eb 11
       2.2778705e-13 1.4765049e-11 -1.964554e-05 3.7129765e-28
000040 e8 da 0f 13 82 4b c5 27 87 36 89 a9 1f fc 84 2b
       1.8157067e-27 5.476035e-15 -6.093481e-14 9.449142e-13
000050 1a e4 8e 2a a5 36 52 a3 90 92 fa 38 e2 d5 9d b8
       2.5382544e-13 -1.1395694e-17 0.00011948228 -7.526182e-05
000060 4a d6 83 b8 a3 9f 8c 26 5e 1a 20 34 0f 12 ad aa
       -6.286481e-05 9.757721e-16 1.4910754e-07 -3.0743504e-13
000070 2c 8e bc a9 e0 8f ba a9 1c 0c ed 34 73 3a 85 33
       -8.37354e-14 -8.2850176e-14 4.41535e-07 6.203927e-08

e_conv3.point_conv.weight f4 [32, 32, 1, 1]
000000 6b 0d a3 a8 ee 5e 1f a9 91 6c e9 a8 59 47 79 a0
       -1.8102454e-14 -3.538743e-14 -2.591528e-14 -2.1114727e-19
000010 84 20 c8 a8 dd db d8 28 d9 c5 5e a9 6c 48 fe 9a
       -2.2218562e-14 2.4076168e-14 -4.9465508e-14 -1.0516894e-22
000020 ce 9b 8e aa ee 07 d7 a9 ee 6d bc a4 ce e3 a7 a3
       -2.5332378e-13 -9.5492936e-14 -8.171823e-17 -1.8202655e-17
000030 5c 1f 9e 29 6c 52 8d 26 a7 d8 b4 29 4a 0b 00 00
       7.0220495e-14 9.806181e-16 8.031189e-14 4.05e-42
000040 00 47 9f 06 b9 46 ee 26 fc cc 31 a9 cc f2 34 1d
       5.991348e-35 1.6533737e-15 -3.947969e-14 2.3948325e-21
000050 63 d1 20 2a bb 34 23 23 26 35 fa 2a 87 f2 5d 2a
       1.42835e-13 8.847414e-18 4.44458e-13 1.9712887e-13
000060 40 c4 68 aa cf ca a5 27 44 cc e7 28 30 e8 8a 27
       -2.0673827e-13 4.6016585e-15 2.5734738e-14 3.8554433e-15
000070 26 60 6a 9c 41 ea 03 a6 21 8d 95 aa 7b 0e 40 aa
       -7.7548374e-22 -4.576723e-16 -2.6565645e-13 -1.705805e-13
000080 b1 43 00 00 8f 2a ba 9d c1 4e 7e a9 67 25 83 a6
       2.4283e-41 -4.9277795e-21 -5.6467638e-14 -9.100089e-16
000090 3b 81 00 80 bd ad 00 00 3c 2c 2c a8 a7 49 d5 1f
       -4.6359e-41 6.2326e-41 -9.55751e-15 9.0330856e-20
0000a0 f1 b9 53 8d 20 11 c6 a2 8a dd 00 00 30 3f 3e 84
       -6.5243214e-31 -5.368614e-18 7.9473e-41 -2.2363407e-36
0000b0 17 26 ce 24 fa 56 00 00 94 95 00 80 85 95 00 80
       8.9402786e-17 3.1201e-41 -5.3659e-41 -5.3638e-41
0000c0 65 e0 00 80 e9 ed 2e 07 d2 d8 60 17 84 42 00 00
       -8.0498e-41 1.3160221e-34 7.265197e-25 2.3861e-41
0000d0 43 1c 00 80 c8 d0 a6 a2 a0 97 00 00 a6 4f a3 03
       -1.0138e-41 -4.5215446e-18 5.4393e-41 9.598565e-37
0000e0 41 5f 00 00 b5 43 00 00 ab 25 47 1e eb 3e 00 00
       3.417e-41 2.4289e-41 1.0542762e-20 2.2571e-41
0000f0 14 d4 b0 a4 32 67 00 00 79 8c 00 80 76 d9 00 00
       -7.668711e-17 3.702e-41 -5.0392e-41 7.801e-41
000100 03 aa 21 ae e2 18 ee ae 3d 87 24 ae 8d 0f a2 a5
       -3.6758162e-11 -1.0827407e-10 -3.74094e-11 -2.8113058e-16
000110 cf 54 20 2d 0f c2 ce ae 85 27 15 2f c9 5c 1e 20
       9.113778e-12 -9.402267e-11 1.3565511e-10 1.341382e-19
000120 55 fb 17 af 26 dd 9a ad 7a 70 8a 2b 16 9b f9 a7
       -1.3822661e-10 -1.7605983e-11 9.836708e-13 -6.9279528e-15
000130 44 ab b6 ae fa 13 e8 ac af 28 d1 2d 1d ea ec 8d
       -8.306825e-11 -6.5960544e-12 2.3778616e-11 -1.4600984e-30
000140 4c 43 47 0b 8c c1 5a ad a0 26 38 2e 04 d7 65 22
       3.8376634e-32 -1.2434841e-11 4.1871062e-11 3.1149116e-18
000150 69 65 25 2e f5 3c ad a7 04 55 f5 af eb d1 3f 2f
       3.7606727e-11 -4.8083236e-15 -4.4625648e-10 1.7445927e-10
000160 6f eb 84 2f 73 ba f0 ab 4b 58 e3 ad 8c 76 f9 ad
       2.4177946e-10 -1.7104776e-12 -2.5846122e-11 -2.8360668e-11
000170 f7 04 8b a8 a3 5a de ac ee bf 27 30 60 9f 00 b0
       -1.5434253e-14 -6.319682e-12 6.1026995e-10 -4.6792614e-10
000180 aa 1b ae a1 e2 84 96 1d 25 ab fc 9f 59 04 a0 18
       -1.1798021e-18 3.9842067e-21 -1.07009286e-19 4.136342e-24
000190 4d 00 38 a1 36 19 14 a2 c5 15 d3 21 41 1f 78 a7
       -6.2342023e-19 -2.0071087e-18 1.4303678e-18 -3.4433857e-15
0001a0 05 d4 a2 a2 4c d0 b2 21 cc 0e 0a 22 61 60 98 1b
       -4.4134672e-18 1.2116885e-18 1.871032e-18 2.5208574e-22
0001b0 41 21 94 a2 34 4d f9 1e 19 6d 85 a0 43 20 00 80
       -4.015069e-18 2.6395831e-20 -2.260327e-19 -1.1573e-41
0001c0 e0 a4 00 00 a8 0c 56 20 a2 2b 98 a1 52 13 9c a4
       5.9146e-41 1.8130693e-19 -1.031147e-18 -6.7686945e-17
0001d0 76 d5 72 22 7b 5e 9f 9b ca 31 1c a1 49 38 31 a2
       3.291012e-18 -2.63654e-22 -5.292075e-19 -2.401777e-18
0001e0 83 6c 09 a2 e5 8e a8 9f 8e 37 a9 20 99 84 cf 21
       -1.8624408e-18 -7.1387167e-20 2.8666477e-19 1.4061964e-18
0001f0 02 6e 80 14 00 c0 e4 1d db c8 aa a5 b6 e9 87 a1
       1.2968088e-26 6.054962e-21 -2.9626404e-16 -9.209819e-19
000200 34 15 ba 27 9a d0 64 28 c7 91 85 28 a1 f4 24 9f
       5.164836e-15 1.2701776e-14 1.4829187e-14 -3.4930703e-20
000210 3e f7 4a a8 47 ec 00 2a 64 25 ba a8 4b ae 2d 1a
       -1.1266865e-14 1.1450659e-13 -2.0666364e-14 3.5916354e-23
000220 7d d4 2e 2a fa 05 73 29 17 0b 16 a5 bc 5b ed a2
       1.5528026e-13 5.3962023e-14 -1.3014183e-16 -6.4336106e-18
000230 88 83 be a8 5c bf 7f 26 d9 56 68 a8 d1 d4 15 9c
       -2.115128e-14 8.873024e-16 -1.2897419e-14 -4.9575023e-22
000240 c1 32 7d 80 4e 5d e6 a6 c0 18 5a 29 0a 26 17 1e
       -1.1497644e-38 -1.5984746e-15 4.842719e-14 8.00174e-21
000250 36 b2 48 a9 2f 1e 83 23 82 30 2a 2b c3 5f 67 ab
       -4.4563494e-14 1.4215832e-17 6.046345e-13 -8.220058e-13
000260 ba bd 24 a9 42 93 5d 26 d3 a3 05 a4 f4 38 2c 28
       -3.6579877e-14 7.687435e-16 -2.8978542e-17 9.560268e-15
000270 a1 f4 8a 9b 66 ac c5 26 d6 5e ed 29 72 da 80 a9
       -2.2988273e-22 1.371635e-15 1.0541366e-13 -5.722236e-14
000280 57 61 23 31 69 78 98 30 32 97 e2 31 67 71 0f a7
       2.3774953e-09 1.1093678e-09 6.5946546e-09 -1.9906712e-15
000290 6e 0c 9a 30 a0 59 82 31 ae 24 a8 b1 ec 11 23 a1
       1.1208507e-09 3.793687e-09 -4.8936135e-09 -5.525027e-19
0002a0 f4 e6 2d 31 15 d3 c1 ab b4 b6 f4 ae aa 43 36 aa
       2.5306095e-09 -1.3772062e-12 -1.112829e-10 -1.6188323e-13
0002b0 87 18 c2 31 27 c8 59 31 c0 9c 8e 30 01 bb 30 0b
       5.6489315e-09 3.169143e-09 1.0376411e-09 3.4037053e-32
0002c0 c5 a0 ce 8c 78 34 d1 ae 5e e1 ee b0 c8 61 bf 29
       -3.1836085e-31 -9.51354e-11 -1.7380832e-09 8.499066e-14
0002d0 87 23 40 b1 1f aa 22 2b 46 1b ef 32 b2 e3 a9 b1
       -2.7959872e-09 5.779005e-13 2.7835664e-08 -4.9444333e-09
0002e0 61 38 f6 b1 14 a4 68 ae 71 18 6c 2f 15 bc 0c b1
       -7.165952e-09 -5.2896423e-11 2.1472758e-10 -2.0479594e-09
0002f0 e5 bf ab a2 1e 2b 06 2f a4 50 7b b1 0e 6b 82 b3
       -4.655282e-18 1.2202547e-10 -3.6571146e-09 -6.07307e-08
000300 5a cf 00 80 86 08 00 80 12 33 6c 11 57 8c 00 00
       -7.4384e-41 -3.058e-42 1.8632855e-28 5.0344e-41
000310 e5 8f 00 00 83 6b c8 19 ab b0 00 80 07 cd 98 24
       5.162e-41 2.0722939e-23 -6.3377e-41 6.626682e-17
000320 42 c3 b2 98 ad e5 bf 8e 7d db 00 80 cf 2e ae a4
       -4.620908e-24 -4.7306305e-30 -7.8738e-41 -7.553977e-17
000330 5b 33 00 00 9d 92 cf 99 3c 50 00 80 40 e1 d7 25
       1.8423e-41 -2.1462515e-23 -2.8783e-41 3.744919e-16
000340 06 01 01 80 fd 13 00 80 11 2f 01 a5 e5 92 00 00
       -9.2203e-41 -7.17e-42 -1.1204913e-16 5.2696e-41
000350 bf f8 00 00 1b 4c 00 00 ab 0a 64 a6 ca af 00 80
       8.9233e-41 2.7301e-41 -7.911785e-16 -6.3061e-41
000360 c4 92 d5 22 63 20 00 00 7d d8 d7 01 77 f8 00 80
       5.788916e-18 1.1618e-41 7.928917e-38 -8.9132e-41
000370 27 df 00 00 d7 9f 95 28 e3 08 c6 1d 81 a4 00 80
       8.0052e-41 1.6611643e-14 5.2419352e-21 -5.9013e-41
000380 28 47 00 00 28 02 00 80 d4 40 00 00 95 5e 00 80
       2.5526e-41 -7.74e-43 2.3256e-41 -3.393e-41
000390 67 ab 02 12 39 a6 00 00 93 13 01 80 78 bd 0e 01
       4.1232037e-28 5.963e-41 -9.8857e-41 2.6217218e-38
0003a0 d9 4c 00 80 1b 20 01 80 49 39 37 88 ba 8d 32 25
       -2.7568e-41 -1.03353e-40 -5.51369e-34 1.5487058e-16
0003b0 7c 3b a8 9e 72 6a 93 25 52 4e 97 27 0f e8 07 a5
       -1.7812294e-20 2.5572565e-16 4.1995834e-15 -1.1788008e-16
0003c0 aa 31 00 80 9b 1b 99 15 4c 95 00 80 ba 7c da a5
       -1.7816e-41 6.183976e-26 -5.3558e-41 -3.790149e-16
0003d0 7b 68 01 80 1b 34 03 26 bf 9b 00 00 f7 6e 00 80
       -1.29316e-40 4.552037e-16 5.5871e-41 -3.9807e-41
0003e0 74 b9 66 28 2a 1e 00 00 02 9c cf 08 e6 dc 45 88
       1.28077785e-14 1.0821e-41 1.2495037e-33 -5.9542196e-34
0003f0 fa 39 00 00 27 29 00 80 8d 56 00 80 4b 88 00 80
       2.0798e-41 -1.4763e-41 -3.1049e-41 -4.8893e-41

e_conv3.point_conv.bias f4 [32]
000000 19 ea 9a b0 1f 32 67 a5 35 84 7b b6 02 80 1f 30
       -1.1271509e-09 -2.0053038e-16 -3.747887e-06 5.8025773e-10
000010 3f 47 91 30 af 3b 94 3a 1e ad 00 80 65 a0 00 00
       1.0570388e-09 0.0011309291 -6.2103e-41 5.7539e-41
000020 0c 69 ea a1 d0 59 2e 38 c3 f4 2c 37 72 41 db b2
       -1.5884262e-18 4.1568477e-05 1.0308987e-05 -2.5524717e-08
000030 29 bd 4c 38 0e 68 00 80 ee 1d 78 b3 9c 01 c9 b3
       4.881356e-05 -3.7328e-41 -5.776922e-08 -9.3600846e-08
000040 2f 59 d6 93 18 b8 9d 9e 34 ae 01 00 2f 4f 0a a4
       -5.4109137e-27 -1.6699161e-20 1.54328e-40 -2.999105e-17
000050 c5 f6 4d 3b ec cd 66 a3 83 0c 9a a2 5f bd 88 b3
       0.0031427604 -1.2511931e-17 -4.175503e-18 -6.36744e-08
000060 bc 66 96 b3 99 c1 00 00 2d 29 84 b2 d1 39 91 31
       -7.0036066e-08 6.945e-41 -1.5385547e-08 4.2266284e-09
000070 d5 2a 0c a6 26 d0 ac b5 31 05 dc b0 51 7b 00 00
       -4.8630306e-16 -1.2875578e-06 -1.6008582e-09 4.4238e-41

e_conv4.depth_conv.weight f4 [32, 1, 3, 3]
000000 0e 53 37 37 65 c7 02 1f 71 37 7c 37 03 d9 5c a6
       1.0926988e-05 2.7693506e-20 1.5033279e-05 -7.662194e-16
000010 ab d8 34 38 d7 bb a4 1f 79 c5 f6 b0 e5 03 02 af
       4.3117132e-05 6.9767457e-20 -1.7954981e-09 -1.1824815e-10
000020 0b 7c 12 1f c4 56 45 08 da 30 00 80 cb 05 33 1c
       3.101931e-20 5.9384524e-34 -1.7525e-41 5.923362e-22
000030 69 ad 00 00 91 94 00 80 74 5a be 2c 39 c0 3a 36
       6.2208e-41 -5.3296e-41 5.410167e-12 2.7828048e-06
000040 61 b4 00 00 70 e1 00 00 58 56 28 35 66 7a 2d 34
       6.4708e-41 8.0872e-41 6.2710524e-07 1.6156409e-07
000050 96 d1 89 a8 7e 73 09 a8 39 c9 74 a8 69 4b 06 37
       -1.5300949e-14 -7.630071e-15 -1.3588354e-14 8.00458e-06
000060 c1 b7 ef a7 8b bc b1 27 a0 50 a8 b8 ca 62 34 30
       -6.653505e-15 4.9331788e-15 -8.025882e-05 6.5624006e-10
000070 f9 7b bc ae ae 5b 02 b7 a7 cb 0f 8e 87 62 b1 31
       -8.571272e-11 -7.76995e-06 -1.7724166e-30 5.1625793e-09
000080 54 3b 08 b0 30 8e 15 9b be 55 98 8d e3 57 81 b3
       -4.956082e-10 -1.2370934e-22 -9.388365e-31 -6.023017e-08
000090 fe 44 82 31 3a 75 9a 0f 18 a5 1b 0e b8 26 d8 0f
       3.7913415e-09 1.5230726e-29 1.9184715e-30 2.1314158e-29
0000a0 6a 94 77 30 ab 61 69 33 1e aa 66 0f 4e 6c 99 37
       9.0068986e-10 5.433837e-08 1.1372639e-29 1.8289455e-05
0000b0 e8 80 71 0f ff bc 3b 33 2a 01 ab a9 d1 ec 5f af
       1.1907044e-29 4.371122e-08 -7.5941274e-14 -2.0365866e-10
0000c0 3f 0d 7c a9 70 ca 9a a8 3c ad 97 a9 30 92 06 aa
       -5.596673e-14 -1.7185228e-14 -6.7357984e-14 -1.195231e-13
0000d0 46 4d 4e aa bd 00 a9 a9 18 66 c6 36 f2 5e 00 80
       -1.8323285e-13 -7.505236e-14 5.912745e-06 -3.406e-41
0000e0 88 41 62 36 df 44 00 80 e8 08 b3 95 f3 75 4d 39
       3.3714769e-06 -2.4706e-41 -7.2311576e-26 0.00019594263
0000f0 26 24 00 00 2a b9 2a a6 95 0d 00 80 f5 20 52 9e
       1.2968e-41 -5.923154e-16 -4.872e-42 -1.1124123e-20
000100 e7 a8 8f 0f 9d 9a 01 00 53 77 d7 b8 b2 3b 15 31
       1.4165947e-29 1.473e-40 -0.00010274225 2.1716287e-09
000110 6c 8c 5e 00 fd 50 a9 af 52 52 41 ad 91 c3 00 80
       8.68291e-39 -3.0798467e-10 -1.0989059e-11 -7.0156e-41
000120 a5 39 00 80 db 47 00 00 b8 82 d8 1a dc 67 cc 38
       -2.0679e-41 2.5777e-41 8.9546694e-23 9.746823e-05
000130 3c 68 00 00 a7 23 01 10 1f 02 a6 a5 ab fe 91 19
       3.7392e-41 2.546823e-29 -2.8797847e-16 1.5095508e-23
000140 b8 0c 7c b8 7b e5 ce b0 a1 bd 7c b1 54 3f b1 b2
       -6.0093327e-05 -1.5053695e-09 -3.6778618e-09 -2.063431e-08
000150 8e e6 00 1f a1 c3 05 b9 8d 89 bf 36 b7 0c f8 32
       2.7295765e-20 -0.00012756746 5.7082566e-06 2.8876782e-08
000160 1a ad e3 1e a1 98 ce 9c 77 8b a4 b8 67 db 8d a7
       2.4106153e-20 -1.367139e-21 -7.846107e-05 -3.937324e-15
000170 6b 75 90 a7 c4 20 24 a7 ab d6 1e a7 e2 c4 86 a8
       -4.0095334e-15 -2.2777334e-15 -2.2043276e-15 -1.4962373e-14
000180 38 38 87 a7 09 a3 1f 33 46 0b dc 36 27 a1 09 1b
       -3.753098e-15 3.7168352e-08 6.5578233e-06 1.1384446e-22
000190 ed e9 2f b9 9d 5d e7 24 59 de 2c 9a 66 7e 2c 99
       -0.00016776445 1.0033887e-16 -3.5748377e-23 -8.9177175e-24
0001a0 e9 32 6e 31 26 ff 72 9a 87 6c a3 ac 57 36 8c 28
       3.4662497e-09 -5.0250534e-23 -4.6447876e-12 1.5566688e-14
0001b0 d9 65 94 1e 77 c4 5f b7 f8 b3 2c 2d d8 69 93 35
       1.5712233e-20 -1.3337579e-05 9.817029e-12 1.0983158e-06
0001c0 80 aa 8e b8 c5 b7 3f ab 6a fe 4c 36 8d b8 a1 1e
       -6.802846e-05 -6.8111863e-13 3.0546457e-06 1.7122866e-20
0001d0 ef e3 40 b5 e4 5c f5 36 58 81 0d 87 65 4c bf b5
       -7.185726e-07 7.312383e-06 -1.0645672e-34 -1.4252843e-06
0001e0 2e 60 5f 38 e6 73 be a4 46 e0 73 2d af a1 a1 38
       5.3256917e-05 -8.2595705e-17 1.38627495e-11 7.707194e-05
0001f0 10 25 18 36 a2 94 00 80 4f 62 00 80 b0 ba 65 37
       2.2671338e-06 -5.332e-41 -3.5266e-41 1.369293e-05
000200 eb 6d 34 34 24 24 00 00 18 45 00 00 25 24 d5 89
       1.6803794e-07 1.2965e-41 2.4786e-41 -5.1311875e-33
000210 8f cd 5d 35 5c 0c 00 80 b8 33 82 83 dc 7c ef b8
       8.262804e-07 -4.434e-42 -7.652587e-37 -0.00011419665
000220 96 31 88 15 03 50 fc a7 68 c5 3a 37 5b cb bd b1
       5.5008195e-26 -7.00308e-15 1.1132426e-05 -5.523743e-09
000230 2d e6 2c 1b 8d 31 85 33 0a 01 07 36 9d 99 41 af
       1.430188e-22 6.2023084e-08 2.0117172e-06 -1.7607822e-10
000240 6a 09 a2 b8 c4 60 f1 27 07 1c 17 b4 d6 48 06 b5
       -7.7265155e-05 6.699585e-15 -1.4073167e-07 -5.002488e-07
000250 d5 7a 00 80 88 4a a4 0f 17 ee c1 87 68 2d 7d 2b
       -4.4064e-41 1.6200357e-29 -2.917935e-34 8.994667e-13
000260 6c bf 00 80 fb 7c a1 b4 47 42 00 80 bd 58 3a 35
       -6.8669e-41 -3.0079522e-07 -2.3776e-41 6.941953e-07
000270 40 1b 90 32 f4 72 9f 8a 9c bb 00 00 12 ae 00 80
       1.6776198e-08 -1.5354384e-32 6.7302e-41 -6.2445e-41
000280 a4 ba d9 37 7a 5f a6 89 99 f3 00 00 96 8c 12 37
       2.5955327e-05 -4.0052832e-33 8.7386e-41 8.735011e-06
000290 a8 2d e6 87 a9 f0 00 00 13 d0 00 00 36 87 38 37
       -3.4633388e-34 8.6333e-41 7.4643e-41 1.0998736e-05
0002a0 b9 33 00 00 6f ce 39 a3 58 80 00 80 7e fd 6d b0
       1.8555e-41 -1.0072584e-17 -4.6041e-41 -8.658033e-10
0002b0 dc 5e 3b 35 59 bd bd 34 aa 80 00 00 31 b2 00 00
       6.9800967e-07 3.5341762e-07 4.6156e-41 6.3923e-41
0002c0 c7 6d 00 80 26 7c 1d 14 3c 9d 00 80 8d 13 ec af
       -3.938e-41 7.950958e-27 -5.6405e-41 -4.2942042e-10
0002d0 de 58 b8 b7 f4 e4 a2 a4 24 15 89 b6 42 10 c6 a4
       -2.1975891e-05 -7.064416e-17 -4.0853793e-06 -8.5896354e-17
0002e0 28 f9 77 b8 9d 9d 83 a4 03 d7 18 b7 24 3c d6 35
       -5.9121434e-05 -5.70792e-17 -9.109967e-06 1.5961746e-06
0002f0 a1 c5 e2 a3 d5 33 00 80 63 d7 00 11 57 0b e8 b7
       -2.4586668e-17 -1.8594e-41 1.0163791e-28 -2.7661836e-05
000300 e7 7f b1 a7 65 41 a2 a0 d0 77 67 33 7e e1 f0 92
       -4.926604e-15 -2.7487142e-19 5.3892848e-08 -1.52017175e-27
000310 5c 78 89 11 d8 3b cd 94 1d 7b d1 b3 67 d4 52 ab
       2.1688966e-28 -2.0723314e-26 -9.754715e-08 -7.4901755e-13
000320 dc 14 c1 0f be d8 2a 91 78 5c 00 00 00 42 29 30
       1.9039304e-29 -1.3477424e-28 3.3172e-41 6.1575633e-10
000330 6b 47 b9 27 19 13 d0 b0 ca 3a 01 00 0e 7d 58 34
       5.1425246e-15 -1.513942e-09 1.12925e-40 2.0162062e-07
000340 33 1a 7e 2e 13 18 1a 35 29 aa 54 8a ca 01 c5 1b
       5.7776183e-11 5.7404503e-07 -1.0239432e-32 3.2592072e-22
000350 35 28 f3 b5 12 59 76 21 18 ff 14 b2 8e 91 1a 0b
       -1.8116613e-06 8.3465926e-19 -8.672735e-09 2.9768824e-32
000360 94 03 61 1f eb 3a a3 1e 1c 2f 99 9f c5 9c 35 2d
       4.7648563e-20 1.7282664e-20 -6.4875956e-20 1.0323469e-11
000370 26 c8 31 b9 76 84 b6 35 5b df ae 29 d2 6c 53 9f
       -0.00016954597 1.3598608e-06 7.765898e-14 -4.4771002e-20
000380 3b d3 99 9e 17 95 f7 b3 fd 29 11 a5 17 a2 00 80
       -1.6286868e-20 -1.1528953e-07 -1.2590971e-16 -5.8147e-41
000390 7c f3 00 80 96 00 90 2f 2c 36 00 80 3c 5f fb 34
       -8.7346e-41 2.6193864e-10 -1.9433e-41 4.6821685e-07
0003a0 a9 60 28 a1 c1 72 a4 07 a5 90 e4 b5 97 81 c8 36
       -5.7048543e-19 2.4743424e-34 -1.7029421e-06 5.9755507e-06
0003b0 b9 9f 0e 33 68 9b db a9 03 11 97 b0 c5 ad a4 34
       3.320722e-08 -9.7525124e-14 -1.0991531e-09 3.0673814e-07
0003c0 3f d4 f4 0b e7 7b ed 0b 6b d7 14 0b 92 bd 2c 21
       9.4304734e-32 9.1475507e-32 2.8665826e-32 5.852676e-19
0003d0 eb 9e c2 36 ba ba 1f a8 74 df a3 90 04 14 b1 af
       5.800151e-06 -8.866763e-15 -6.463645e-29 -3.2210334e-10
0003e0 76 4b 87 91 51 2e d1 90 d8 01 a6 92 b5 47 fd 32
       -2.134575e-28 -8.2507326e-29 -1.0476527e-27 2.9485685e-08
0003f0 9a c4 b0 82 25 17 4b b8 ac ae c5 33 af 8c 10 a3
       -2.597372e-37 -4.8420527e-05 9.2053e-08 -7.8360466e-18

e_conv4.depth_conv.bias f4 [32]
000000 75 06 e4 b4 d7 17 bd 34 63 76 6c b9 3b 61 80 1b
       -4.2473008e-07 3.522134e-07 -0.00022550816 2.1238657e-22
000010 b1 13 2c a7 fe 94 43 b7 c0 6b 41 a5 f3 79 e2 2b
       -2.388047e-15 -1.1657596e-05 -1.6776589e-16 1.6092114e-12
000020 50 3a 47 29 a6 65 15 26 07 04 38 b6 6b de 68 b2
       4.4237454e-14 5.183252e-16 -2.742048e-06 -1.3554749e-08
000030 28 e0 f8 25 64 32 55 b8 bb 07 21 2f 04 94 14 9f
       4.3173036e-16 -5.0830087e-05 1.4645611e-10 -3.1462655e-20
000040 3e cf c5 b3 82 c0 ff 9f 13 00 b0 1b ae aa 35 9b
       -9.2112245e-08 -1.0831518e-19 2.9116806e-22 -1.5027119e-22
000050 af d0 af 27 5d 23 74 a2 6c 6a bd 20 c7 fc 9d b9
       4.8798513e-15 -3.3086887e-18 3.208827e-19 -0.00030133707
000060 0d de aa 34 81 16 29 b3 aa 76 19 9d ff 7a 0b 9e
       3.182653e-07 -3.9368846e-08 -2.031073e-21 -7.384034e-21
000070 8b 4f 1c b9 a7 b2 5b a3 2a 2e db 36 a0 e5 37 1c
       -0.00014906951 -1.1909845e-17 6.532083e-06 6.0846404e-22
