Zero-DCE++/snapshots_Zero_DCE++/Epoch57.pth (torch, 51217 bytes, 28 tensors)

e_conv1.depth_conv.weight f4 [3, 1, 3, 3]
000000 fd 4d b2 be 2b e6 28 be 18 8d 86 3c eb 5e 2e be
       -0.34825125 -0.16494052 0.0164247 -0.17028396
000010 ab 92 eb 3d 5c 39 df 3d ce df d0 be c6 5c 26 be
       0.11502584 0.10899612 -0.4079575 -0.16246328
000020 92 2a 4a bd 8c 48 4b 3e 62 bf 20 3e 77 be a5 3e
       -0.049357004 0.19851893 0.15698007 0.32371876
000030 7d 36 38 3e 83 43 9a 3c 93 b0 69 3e 0d 6b b6 3d
       0.17989536 0.01883102 0.22821264 0.08907137
000040 2e b9 b4 3b 69 31 53 3e a4 3d b0 3c 4f cb 3c bd
       0.005515239 0.20624317 0.021513768 -0.046092328
000050 a0 62 20 be ba 71 12 bd 2f d0 a8 bd d8 d4 fb bd
       -0.15662622 -0.03575299 -0.08242833 -0.12296456
000060 8d 00 a2 bd 8d 43 3b be 2e 0c a7 be
       -0.07910261 -0.18287487 -0.3262648

e_conv1.depth_conv.bias f4 [3]
000000 f9 14 98 3d ec 3f 9e 3e 2a 28 3c bd
       0.07425875 0.30908144 -0.04593674

e_conv1.point_conv.weight f4 [32, 3, 1, 1]
000000 89 ed 11 3c a7 55 55 3e 42 02 b1 3d 9e 58 8f bb
       0.00890673 0.20833455 0.08643009 -0.0043745777
000010 30 c1 4a 3a e6 79 91 bb d9 84 00 80 96 7c 00 00
       0.00077344757 -0.0044395803 -4.7657e-41 4.4693e-41
000020 d7 b7 00 80 0c 23 c1 3d 1a cc 04 bf 3c b4 0f 3e
       -6.595e-41 0.09430513 -0.51873934 0.14033598
000030 40 dd 75 24 fa 0d 39 a5 20 71 9e 24 c6 79 22 bc
       5.3313312e-17 -1.6050928e-16 6.871322e-17 -0.009916728
000040 b3 5a c5 3d 37 cc d4 3e be 71 e0 3d a6 2c 96 3e
       0.0963644 0.41562054 0.109591946 0.2933094
000050 ba 48 6b be aa fe 3b 1f 53 1d 97 9f 7e 1d 3d 1f
       -0.22976962 3.9809443e-20 -6.39995e-20 4.0046702e-20
000060 12 d7 3a 3d 04 a7 1b bc f9 72 b4 3d 40 0a 6b 3d
       0.045615263 -0.009500269 0.08810992 0.057382822
000070 e5 bc dd bc 0f 0a ee bd 9b a6 c4 3e 4b 30 0e bf
       -0.027067611 -0.11623012 0.3840836 -0.5554244
000080 d6 ba b4 3e 41 56 56 bb c5 3e 53 bd 01 cc 6f 3d
       0.35298795 -0.003270522 -0.051573534 0.058544163
000090 1a 3c 3c 3e d9 82 cc be 91 21 23 be 51 0a 84 bd
       0.18382302 -0.3994358 -0.15930773 -0.0644728
0000a0 fe 77 15 be 47 ff 00 3e 14 72 00 00 a2 8b 00 80
       -0.14596555 0.1259738 4.0924e-41 -5.0091e-41
0000b0 4b 17 01 00 ba 9b fe 3c 4d f7 aa 3e 1a 45 93 3e
       1.00191e-40 0.031080116 0.333918 0.28763658
0000c0 4a c8 7d be 4d 83 b6 3e b5 db a0 be 7c 8e f4 ba
       -0.24783435 0.3564705 -0.31417623 -0.0018658186
0000d0 d0 e7 89 ba 0f 94 3d ba b6 a8 02 bc 53 31 65 3b
       -0.0010521356 -0.000723184 -0.007974794 0.0034972026
0000e0 bd 89 18 bd d5 86 f1 39 3b 7f 76 ba da 32 1c 3a
       -0.037240732 0.0004606756 -0.0009403114 0.0005958505
0000f0 3d d4 12 bf 58 41 97 bd 9a 0c b4 be 20 93 5f 32
       -0.573551 -0.0738551 -0.35165864 1.3013761e-08
000100 3a 2c 4e b3 b7 f5 d1 32 e9 8d 3e bc 71 04 a9 3b
       -4.8003336e-08 2.444254e-08 -0.011630514 0.005158
000110 f9 76 13 3d 6c 26 01 80 c6 b5 00 00 6d dc 00 00
       0.036002133 -1.05619e-40 6.5208e-41 7.9074e-41
000120 79 6e 89 02 05 05 86 aa af bc 74 0e 34 c9 8b b3
       2.019375e-37 -2.3806665e-13 3.016617e-30 -6.5092905e-08
000130 ec 5f a6 b9 fb 49 b4 35 30 9c 00 80 13 23 00 80
       -0.00031733455 1.3432576e-06 -5.603e-41 -1.2582e-41
000140 d4 43 01 80 e2 ed 9b 3e 61 cf 09 be 52 bd 97 be
       -1.16168e-40 0.30454928 -0.13458015 -0.29636627
000150 26 18 3f 3c c7 6f b7 bd 41 e5 16 bc 3e 20 01 00
       0.011663472 -0.08956867 -0.009209932 1.03402e-40
000160 79 4f 00 00 84 6d 00 80 7d 20 89 3e 89 e2 68 3c
       2.851e-41 -3.9287e-41 0.267826 0.014214166
000170 d7 1b 62 bd b1 5e 7d be 5c 86 d8 3e dd 35 ad be
       -0.05520233 -0.24743153 0.42290008 -0.33830157

e_conv1.point_conv.bias f4 [32]
000000 0b 86 14 be 37 3d fc 39 85 2f 7a 80 b6 09 12 3f
       -0.14504258 0.00048110794 -1.1220977e-38 0.5704607
000010 dd 98 56 a5 2b dd 9c 3d e8 c6 8a 3e 32 2c b2 9f
       -1.8613333e-16 0.07659372 0.27104878 -7.545905e-20
000020 ac 4f 67 3d 39 35 8c bc 39 4d d2 3e 8a 4f e9 3e
       0.056472465 -0.017115222 0.4107454 0.45568496
000030 1a 81 b3 3e af ce 9a 3e fc 7f 00 00 7f 3f 00 3f
       0.35059434 0.30235812 4.5912e-41 0.5009689
000040 63 5c 57 bd c3 7b 9d bb ac 3e b8 bc 4d 18 26 ba
       -0.05257834 -0.0048060133 -0.022490822 -0.00063360186
000050 32 5a d2 3e 47 e8 85 b3 f8 db ae 3e c1 e6 9a 81
       0.4108444 -6.235546e-08 0.34152198 -5.690178e-38
000060 c1 bb 9e b1 93 cc d9 b9 48 64 01 80 c7 85 a0 3e
       -4.6197504e-09 -0.00041541885 -1.2781e-40 0.31352064
000070 9b 80 92 3d 71 6d 00 80 a6 e5 03 3f 41 bb b0 bd
       0.07153436 -3.926e-41 0.5152229 -0.08629466

e_conv2.depth_conv.weight f4 [32, 1, 3, 3]
000000 06 f2 af bc e2 da d8 bc 09 80 b4 bc fe 90 9b bc
       -0.02147771 -0.026471559 -0.022033708 -0.018990036
000010 0b 0c 08 bd 33 47 b9 bc e9 98 0c bd d7 90 3c bd
       -0.03321461 -0.022616958 -0.034325514 -0.046036568
000020 5e ee 03 bd 71 b6 0a ba 3f 2e c9 b9 04 94 c7 b9
       -0.032209747 -0.0005291468 -0.00038372164 -0.00038066518
000030 1d 6a a6 b9 c4 e8 99 38 ae f1 0b b9 a6 ae 29 ba
       -0.00031741048 7.3389645e-05 -0.00013346106 -0.0006472863
000040 7e 8c 39 39 7b 40 af 38 2c bd 00 80 09 30 00 80
       0.00017695312 8.356661e-05 -6.7862e-41 -1.7232e-41
000050 04 09 00 80 3b 86 00 80 7d 8e 00 80 b8 e6 00 80
       -3.234e-42 -4.8153e-41 -5.1115e-41 -8.2766e-41
000060 67 89 00 80 1e 00 00 80 61 72 01 80 2a ef 92 be
       -4.929e-41 -4.2e-44 -1.32867e-40 -0.28698093
000070 d9 8f 82 be 28 de 77 bd 7b ba dc bd 04 f9 e1 3d
       -0.25500372 -0.0605146 -0.10777756 0.11033824
000080 66 b7 7d 3e a1 e6 8a 3e ac 73 06 3b d0 15 ef 3e
       0.24776992 0.2712908 0.0020515723 0.4669633
000090 2d ee 1f 24 f0 e1 f2 24 77 f3 c5 23 a7 1e b4 24
       3.4679372e-17 1.05333523e-16 2.1461894e-17 7.8114484e-17
0000a0 52 b4 e2 24 e6 df 93 24 c4 29 bf 23 1b 1c 8f 24
       9.831735e-17 6.4130386e-17 2.072595e-17 6.206398e-17
0000b0 f0 17 5d 24 ce b1 0f 3c 0e 2a 64 3d 40 79 3e bc
       4.7942012e-17 0.008770419 0.05570417 -0.011625588
0000c0 8a 6e 84 3d 0f fa 10 3e 46 2e 40 3c 42 fa 36 bd
       0.06466396 0.1415789 0.011729782 -0.04467226
0000d0 dd 2b 81 bb df 24 3e be b5 17 b3 3d 87 64 99 bc
       -0.0039419965 -0.18568753 0.08744756 -0.018724693
0000e0 0d 41 7d be 98 3a 62 3d 5d 54 14 3e 77 09 c6 bd
       -0.24731846 0.05523166 0.14485307 -0.09669774
0000f0 ae 02 0f bd 6f ec 2e bc 4c df 9e be a6 bf f2 9c
       -0.034914665 -0.010676487 -0.31029737 -1.6063757e-21
000100 8a d3 0e 9d cc 37 23 9d f8 1e 12 9d a0 34 1d 9d
       -1.8902907e-21 -2.1601717e-21 -1.933895e-21 -2.0805983e-21
000110 74 4f 84 9b a7 23 2b 9d 37 48 fc 9c bb fd 2f 9a
       -2.1888914e-22 -2.2650093e-21 -1.6694628e-21 -3.6394114e-23
000120 8d 7f b7 3c 77 5a 29 3b 91 83 42 bb 08 37 3a 3c
       0.022399688 0.0025841275 -0.002968047 0.01136566
000130 41 22 06 3a 5c e4 38 3b cb 3c 00 3c e2 38 52 3c
       0.00051167986 0.0028212285 0.007826994 0.012830945
000140 86 53 ed 3c de 71 28 3c f5 63 33 3b 53 47 01 bc
       0.028970491 0.010281054 0.0027372811 -0.00789054
000150 c6 01 79 3c 2d 02 91 3b c7 ca c9 bb 5d 8e 11 3c
       0.015198177 0.004425308 -0.006158206 0.00888404
000160 f4 d5 f7 ba 0b 5c d2 bb 46 0d 9a 3e df 80 85 3e
       -0.0018908367 -0.006419664 0.30088252 0.26074883
000170 ba 02 74 3e bc 42 84 3e f9 d1 ef bc 85 f1 9e 3e
       0.23829165 0.25832164 -0.029274927 0.3104364
000180 ff 39 92 3e e9 0e c3 3d 07 2b b0 3d 3a 27 64 3e
       0.28559873 0.09524328 0.08601957 0.22280589
000190 31 00 3b be 37 fc 1c 3e d3 a3 95 3d 9c 77 55 be
       -0.18261792 0.15330587 0.073066376 -0.20846409
0001a0 1a e8 f3 bd 3f 5a 85 3e 42 8b 88 3d 6c 19 2d 3e
       -0.11909504 0.26045415 0.06667186 0.16904229
0001b0 64 c6 bd 3e 1e ec fd 3d 8e 9f 55 3e a6 66 94 3e
       0.37065423 0.123985514 0.20861647 0.28984565
0001c0 fd 8e 48 3e 02 7f d8 3d f0 1a 88 3e b9 f7 12 3e
       0.19585796 0.105711 0.26583052 0.14352311
0001d0 a2 10 93 bd fd 12 89 3c 02 12 2f 3d e7 d3 95 3d
       -0.07180907 0.016732687 0.042741783 0.07315808
0001e0 df 22 d0 3d 9d 7f e9 bd be ed 42 3e b1 2f a4 bd
       0.10162901 -0.114012934 0.19036004 -0.08016909
0001f0 5b 9e 5c 3d 9a d7 c0 3e 1f dc 00 80 6a e4 00 80
       0.053861957 0.3766449 -7.8965e-41 -8.194e-41
000200 28 19 01 00 f2 7b 01 00 f4 cb 00 00 d1 39 00 80
       1.0086e-40 1.36299e-40 7.3165e-41 -2.074e-41
000210 91 1a 00 80 9e 02 00 00 80 7a 00 00 17 ec 82 bd
       -9.53e-42 9.39e-43 4.3945e-41 -0.06392687
000220 af a4 21 3e 00 fe 0d be aa e4 f9 3d 7a 35 57 3e
       0.15785478 -0.13866425 0.12201817 0.21016493
000230 a0 31 40 3e 55 b4 21 be 4d 6a 93 bd 75 23 b6 bd
       0.1876893 -0.15791447 -0.0719801 -0.08893482
000240 94 cf c8 3d c0 5d 6b 3e ca 7f b4 3e ad f1 fb 3d
       0.098052174 0.22984982 0.35253745 0.12301955
000250 e6 e6 65 3d 0c 77 05 3e d2 7d 1c be 8d 3d 90 bd
       0.056128405 0.13033694 -0.15282372 -0.0704299
000260 dc c2 54 be e9 3e aa 2b 3d a3 c2 aa d0 b5 36 ab
       -0.20777458 1.2096688e-12 -3.4574592e-13 -6.4911704e-13
000270 19 60 0c 2b a3 91 0d 2a a6 86 f9 aa be f1 d9 aa
       4.9871354e-13 1.2573844e-13 -4.4324716e-13 -3.8714686e-13
000280 e1 14 d6 aa fa 2c 13 aa 1f 04 33 b6 cf 39 d3 b5
       -3.8028524e-13 -1.3071827e-13 -2.6675477e-06 -1.573755e-06
000290 ac 32 20 b6 65 48 f1 b5 eb f6 a9 b5 fe b6 78 b6
       -2.3871353e-06 -1.7976969e-06 -1.2663344e-06 -3.7061395e-06
0002a0 cb b8 53 b6 3d e5 2d b6 d8 f2 9f b6 a4 15 31 b8
       -3.1549014e-06 -2.5912443e-06 -4.76684e-06 -4.2220243e-05
0002b0 83 14 c7 b7 5b 1a 89 b8 a7 9c 4a b8 27 07 52 b8
       -2.37322e-05 -6.537578e-05 -4.8306447e-05 -5.0074563e-05
0002c0 88 49 05 b8 ab e9 27 b8 e6 ae b9 b7 54 57 5b b8
       -3.1778152e-05 -4.0033523e-05 -2.2135162e-05 -5.2295e-05
0002d0 6f 96 77 bd 74 45 74 3e 1e 86 53 be e8 30 a3 be
       -0.0604462 0.2385462 -0.2065663 -0.3187325
0002e0 c1 c0 29 bc 34 fe 5f 3d f2 5f a5 be 5b 26 7c be
       -0.0103608975 0.054685786 -0.32299763 -0.24624006
0002f0 ab 12 8a be ea b7 0e 32 63 f5 13 32 8d 91 62 b1
       -0.26967368 8.307305e-09 8.612321e-09 -3.2970064e-09
000300 a2 f7 5e 30 0f e3 2c 31 d8 af 6e b1 a3 fc 13 32
       8.1115037e-10 2.5158362e-09 -3.4733514e-09 8.613969e-09
000310 a7 52 d1 30 b9 25 c0 31 fe 35 86 bd f8 ba d7 bd
       1.5230243e-09 5.592224e-09 -0.06553267 -0.10533708
000320 cc 35 85 3d 1e ba cb bd dd bf c8 bd 5b 12 9f 3b
       0.065044016 -0.099476084 -0.0980222 0.004854483
000330 ec a6 70 bd 9a 57 cb bd fa e4 a4 bc aa 75 31 00
       -0.05875294 -0.09928818 -0.020128716 4.542149e-39
000340 49 98 32 00 c0 30 30 00 38 b6 13 00 21 76 17 80
       4.646404e-39 4.425592e-39 1.810242e-39 -2.154593e-39
000350 ba 6c 2e 00 88 90 1f 80 0a c3 1a 00 28 b5 2b 00
       4.263437e-39 -2.898748e-39 2.45769e-39 4.013913e-39
000360 ca 19 45 80 77 e7 45 80 a1 c2 26 00 31 c9 3f 80
       -6.3459e-39 -6.419683e-39 3.559569e-39 -5.85781e-39
000370 58 88 37 80 ce ec 3a 00 7e 1a 0c 80 74 81 34 80
       -5.099863e-39 5.411408e-39 -1.11153e-39 -4.821885e-39
000380 48 1f 04 00 cb 27 70 31 b2 62 f3 b1 9d b7 ae 31
       3.78564e-40 3.4947216e-09 -7.083451e-09 5.084941e-09
000390 2b 68 a5 b1 ff bc 8c b0 b7 a3 59 31 5d 34 f3 b1
       -4.8139746e-09 -1.0240057e-09 3.1670717e-09 -7.078184e-09
0003a0 37 dd 09 b2 b0 26 03 32 f8 58 01 00 42 9f 00 00
       -8.024748e-09 7.634e-09 1.23751e-40 5.7131e-41
0003b0 eb ea 00 00 40 a7 00 00 31 35 01 00 51 a6 00 80
       8.4273e-41 5.9998e-41 1.10917e-40 -5.9663e-41
0003c0 9d 77 00 00 3a 89 01 80 4f 43 01 00 1d b4 9e 3e
       4.2909e-41 -1.41063e-40 1.15981e-40 0.3099679
0003d0 10 7c 51 bb 00 22 59 3d 5c d6 6b 3b fa 0e 59 3d
       -0.0031964816 0.05301094 0.0035985922 0.0529928
0003e0 c3 5d 86 3d 1c c8 d3 3c f7 d1 0a bd 5a 16 b4 bc
       0.065608524 0.025852256 -0.033891644 -0.021983314
0003f0 48 9c 24 bc 52 a5 d1 bb 3a b1 3d bc 07 83 0e 37
       -0.010047026 -0.0063978815 -0.011577899 8.494367e-06

e_conv2.depth_conv.bias f4 [32]
000000 9a cb cb 3d bb 72 fe bd 70 b8 c6 3a a0 25 60 bd
       0.09950943 -0.12424227 0.0015161168 -0.054723382
000010 62 9a 31 be 93 ef 4e 3e 26 ae 73 3c 83 0e 12 3e
       -0.17344049 0.20208578 0.014873063 0.14263348
000020 f9 e5 89 3e 90 96 7e be f3 30 28 3c c1 df b3 bd
       0.26933268 -0.24862123 0.010265577 -0.08782912
000030 62 a6 67 be 6f 9c 53 bd be 8b 18 3e 98 42 58 3e
       -0.22622064 -0.05166286 0.14897057 0.21119153
000040 86 30 37 3e af bb ee bc c7 f7 dc 36 3d cc 32 3e
       0.17889604 -0.029142229 6.585356e-06 0.17460723
000050 34 79 88 3e db f9 3c 3e 04 85 e6 bd b8 b2 4a 3e
       0.2665497 0.18454687 -0.112558395 0.19794738
000060 c5 16 af bd 32 25 15 bd ad 43 a1 3d e1 10 60 be
       -0.08549265 -0.036412425 0.07874236 -0.21881439
000070 60 8c b3 bd a6 71 2d be 97 b8 b4 bd 00 bc 99 3e
       -0.08767009 -0.16937885 -0.0882427 0.30026245

e_conv2.point_conv.weight f4 [32, 32, 1, 1]
000000 44 54 55 bc 29 81 3c bc e5 6a a8 b9 c9 a1 ac 3d
       -0.013020579 -0.011505404 -0.000321231 0.084292956
000010 ed 49 6d 3c 2b f3 8a bd 66 4d a5 3c 58 15 dd bc
       0.014482957 -0.06784662 0.020178508 -0.026987717
000020 01 a7 68 bd 10 f9 31 3c f8 a6 54 3d 9c 3a 3c 3d
       -0.056799892 0.010862604 0.051917046 0.04595433
000030 af 7e 27 3e 0a f1 07 3d 0c e5 3e bc e2 17 02 be
       0.1635692 0.033188857 -0.011651289 -0.12704423
000040 63 a3 c2 3c d5 11 57 3b 77 31 9e 35 9e 7e 50 bd
       0.02375955 0.0032817025 1.1786314e-06 -0.050902
000050 55 a5 85 3e 8d 21 bc 3c e5 03 59 3d 3f 4a 71 bd
       0.261027 0.022965217 0.05298223 -0.058908697
000060 0b f0 e3 b9 f0 7e a0 3b 4a 14 73 bc 02 21 42 3d
       -0.0004347566 0.0048979446 -0.01483638 0.04739476
000070 a9 cf a0 3c cd 1e eb 3c 5c f3 1a be 49 e7 b1 bc
       0.01963027 0.02870121 -0.15131897 -0.02171673
000080 d7 ca 83 3d 8e 31 ba bd 18 bd a0 3a 2c ca 00 be
       0.06435173 -0.09091483 0.0012263386 -0.12577122
000090 35 3d 82 3c ff 27 b1 3d f5 c3 3b 3c ad 76 d7 3c
       0.015898326 0.08650207 0.011460294 0.026301706
0000a0 0f 26 c1 3d be 54 c6 bd 4b 09 98 3e 49 80 2e 3e
       0.09431087 -0.09684132 0.2969459 0.17041124
0000b0 c5 dc 7d 3e a2 4e bb 3d 96 b0 e7 bb 84 0b 0e 3e
       0.24791248 0.091458574 -0.007070611 0.1387158
0000c0 90 1a e3 3d 0c 83 2f bc 89 ac 8d b7 5e a9 c5 bb
       0.11089051 -0.010712396 -1.6888853e-05 -0.006032153
0000d0 84 60 7b 3c 76 bc 5d 3d 99 65 4c 3c 71 fd f4 3d
       0.015342835 0.05413481 0.012475395 0.119624026
0000e0 96 74 84 bc 3d 93 54 bc b0 44 8c bc f5 36 41 3e
       -0.016168874 -0.0129745575 -0.017122597 0.1886862
0000f0 4e ac be bd 7f 64 08 bd 30 33 84 be 04 e7 eb 3d
       -0.09310208 -0.033298966 -0.25820303 0.11518672
000100 16 57 06 3b f9 7a 88 bb 5e ad b8 39 b6 a5 ad 3e
       0.0020498685 -0.00416505 0.00035224383 0.3391549
000110 5d 39 d0 3b 9b 8e 1a 3d 96 e0 31 3d ce 0b 68 bb
       0.0063544945 0.037733655 0.043427072 -0.0035407427
000120 94 1e 03 bd 3c 91 3f bd ef 80 fc bd 71 7b 4d bd
       -0.032011583 -0.046769366 -0.1232928 -0.05016655
000130 cc fd 87 be f9 ed 59 3d a0 86 60 bc 8e 31 b3 3c
       -0.2656082 0.053205464 -0.013703972 0.021874215
000140 2f 17 a3 3d 44 3b a7 bb b6 2f b7 34 6f 8a a7 3c
       0.07963406 -0.0051035006 3.412112e-07 0.020451752
000150 94 bd e7 bc 51 61 40 3c c8 87 e2 bb 3a fe 79 3d
       -0.02828864 0.011741952 -0.006913159 0.061033465
000160 a0 65 03 bc 8b b3 9b bb d7 65 67 3c 21 2e 56 be
       -0.008019835 -0.004751628 0.014123402 -0.20916034
000170 3a ad 55 bc 2a 0d 19 bd 15 14 a3 3d 66 f9 bc bb
       -0.013041789 -0.03736607 0.07962815 -0.0057670353
000180 64 3b 06 08 ce 9e b7 07 3b fe 20 05 2d c5 21 88
       4.039397e-34 2.7628117e-34 7.5698586e-36 -4.8680954e-34
000190 d6 df dd 07 1e fb 1b 87 b0 33 de 07 ff 7d 00 88
       3.3383943e-34 -1.1734701e-34 3.3433227e-34 -3.8666707e-34
0001a0 dc e1 c3 07 d7 42 be 87 aa 92 62 08 59 0b 33 86
       2.9473087e-34 -2.8627308e-34 6.8181804e-34 -3.3674495e-35
0001b0 b7 c5 ba 08 4c a6 87 06 ed a1 04 88 e0 98 55 05
       1.124095e-33 5.102571e-35 -3.991265e-34 1.00432906e-35
0001c0 ad 65 84 87 3a 76 e9 86 44 77 02 80 ba 56 ea 87
       -1.9920912e-34 -8.7818577e-35 -2.26455e-40 -3.525938e-34
0001d0 b0 c1 0c 08 d9 ea ca 87 9a 7b a7 87 46 db 45 87
       4.2357396e-34 -3.0531613e-34 -2.5200014e-34 -1.4885071e-34
0001e0 dd 47 d0 87 25 dc fe 86 63 c4 89 07 45 fe a3 06
       -3.13386e-34 -9.5867654e-35 2.0728895e-34 6.16874e-35
0001f0 ff 2b cf 87 bc db fe 07 da 1b 22 08 bf 24 d1 88
       -3.1171757e-34 3.834682e-34 4.878284e-34 -1.2587369e-33
000200 b3 d6 13 3b 9e c8 04 3c a7 46 bd 39 54 6a e4 bc
       0.002255839 0.0081044715 0.0003610153 -0.027882732
000210 73 f0 be 3c 9b d2 c0 3d 76 1a 0e be c5 3f b8 3b
       0.023308014 0.0941517 -0.13877282 0.0056228363
000220 88 29 8b bc 53 5a 0a bd ac cc 90 bd f1 b7 d6 bc
       -0.016987577 -0.033777546 -0.07070288 -0.026210757
000230 fd a1 85 bd 1b f2 3f bd 80 02 85 3c 29 f4 20 3e
       -0.065250374 -0.04686175 0.016236544 0.1571814
000240 0e 16 63 3c dd 9b c0 bb ab e8 5e b5 f0 e8 1a 3d
       0.013860239 -0.0058779554 -8.304002e-07 0.037819803
000250 9a 49 8a 3b 80 16 ea bb a8 d7 0a bc f0 ba 8e bc
       0.0042202 -0.0071437955 -0.008474268 -0.017423123
000260 05 ee 84 bc 75 a2 a9 bb f5 b6 75 3c 47 8e 19 3b
       -0.016226778 -0.005176837 0.014997234 0.0023430751
000270 80 d4 4f bc 2e 0a 0f bd 1f 98 0f 3d 70 17 92 bd
       -0.012684941 -0.034921817 0.035057183 -0.071333766
000280 73 27 8f 3c cd cc 99 bc 5f c2 c3 39 23 0c 4e bd
       0.017474866 -0.018774414 0.00037338116 -0.050304543
000290 f3 44 c6 bc 54 08 05 3d bd e1 ed 3d 48 3c a2 3c
       -0.0242028 0.032478645 0.11615322 0.019804135
0002a0 82 86 01 3d ee 26 f8 bc 38 57 be 3d 36 98 30 bd
       0.031622417 -0.030292 0.092939794 -0.04311391
0002b0 23 33 81 3d 2d 24 ce bc 9f be ab 3c cb 51 35 3d
       0.06308582 -0.025163734 0.020964919 0.044267457
0002c0 dd f2 32 bb 82 47 a0 bb 1d b1 5b 34 be 53 aa 3c
       -0.0027305402 -0.004891337 2.0460398e-07 0.020791885
0002d0 53 32 a0 3d 7c 15 cf 3c 44 e5 fb bc 4d 86 c5 3c
       0.078220986 0.0252788 -0.03074897 0.024111891
0002e0 d4 4e 3c bc 10 b0 b1 bb ad b7 3e 3c da ff 89 3c
       -0.011493403 -0.0054225996 0.011640471 0.016845632
0002f0 a9 a8 63 bc 3c 25 b8 bc e1 0d 04 3c 64 ac 18 3e
       -0.013895192 -0.022478692 0.00805995 0.14909512
000300 71 8d 06 3c 8e f6 94 3c 73 45 9b b9 ce 50 1e 3e
       0.008212433 0.018183973 -0.00029615648 0.15460512
000310 9d eb 65 bc 6e 01 4f be b8 6e 32 3e 39 bc a3 3b
       -0.014033225 -0.20215389 0.17425048 0.004996803
000320 8c 21 f5 ba 5c 8f fe bc 57 2f b7 3e 7f 55 39 3e
       -0.0018702014 -0.031074218 0.35778305 0.1809902
000330 1e 4f 45 3e a6 9b 5e 3e d3 5f 05 3c c9 6d c5 bd
       0.19268462 0.21739063 0.008140522 -0.096400805
000340 de ad 32 3e 57 d0 0b 3b 73 7a a2 b7 ea bc ab 3c
       0.17449138 0.0021333897 -1.9368925e-05 0.020964105
000350 09 32 50 bd fa 3f 87 3c 67 6d 03 3d 02 c9 fd 3b
       -0.050828967 0.016509999 0.032086756 0.0077449093
000360 4b eb 91 3b 00 79 15 3b cb 58 84 3b 41 48 c9 3d
       0.004453098 0.0022807717 0.0040389053 0.098282345
000370 91 52 44 ba 42 99 8e 3c b6 05 30 be d3 3d 0d 3e
       -0.000748911 0.017407063 -0.17189679 0.13793115
000380 53 03 90 87 7b 09 02 08 2d 9f 67 84 b0 87 a1 87
       -2.1668666e-34 3.9131596e-34 -2.722701e-36 -2.4304338e-34
000390 31 be 1f 88 dd dd 74 08 95 6a 1e 88 c9 00 e4 87
       -4.807089e-34 7.368688e-34 -4.767168e-34 -3.4306089e-34
0003a0 d4 74 4e 08 1c 80 74 88 39 3f 32 88 6f 47 83 07
       6.21282e-34 -7.357667e-34 -5.3639244e-34 1.9752674e-34
0003b0 4b 26 51 07 c0 7a d9 07 ac bf 32 87 c7 3d 5c 08
       1.5734666e-34 3.2722677e-34 -1.3447559e-34 6.627646e-34
0003c0 60 ca 5a 08 f8 f7 8e 04 fc 8e 43 80 b6 57 14 08
       6.583988e-34 3.3611763e-36 -6.204271e-39 4.4640234e-34
0003d0 07 1c 9b 88 c8 cf 58 08 5c e5 4c 88 2d df 6f 08
       -9.335312e-34 6.524438e-34 -6.1658628e-34 7.218379e-34
0003e0 fa b8 54 07 89 de 51 86 eb 74 47 87 99 37 e3 07
       1.6003467e-34 -3.9472024e-35 -1.5005455e-34 3.4187841e-34
0003f0 f2 f8 7b 07 34 91 cf 87 69 09 41 09 a9 00 25 07
       1.89563e-34 -3.123124e-34 2.3235955e-33 1.2413414e-34

e_conv2.point_conv.bias f4 [32]
000000 40 46 af 3d 6c 10 91 3d 63 0a c8 3d ac a2 45 88
       0.08558321 0.0708321 0.09767606 -5.947375e-34
000010 4e 86 1c 3e 39 15 ab 3d b0 cf 3e bc ba 0d 3a 89
       0.15285608 0.08353657 -0.011646196 -2.239539e-33
000020 b5 a9 8c 3d bb aa e8 3d c1 56 d5 3b 6d 0d 65 bd
       0.068683065 0.11360689 0.006510586 -0.055921007
000030 6c 13 c0 3b 13 b0 22 3e 04 51 cf 3d bd c6 ac 33
       0.0058616903 0.1588748 0.101228744 8.0455244e-08
000040 38 09 49 80 1b 7e 98 3c 6b 0c 06 3d c9 25 00 80
       -6.707298e-39 0.01861482 0.032726686 -1.3555e-41
000050 68 21 83 bd 66 24 b6 bb be 77 95 3c bb 89 02 3b
       -0.06402856 -0.0055585383 0.018245574 0.001991852
000060 37 ff 55 3d 03 45 a4 bc 50 77 2d 3d 43 07 d1 bd
       0.052245345 -0.020052439 0.042350113 -0.10206463
000070 7c ba 94 ac 8d ab 4f b6 75 48 6a 3d 8d f0 bb 3d
       -4.227117e-12 -3.094526e-06 0.057198007 0.09176741

e_conv3.depth_conv.weight f4 [32, 1, 3, 3]
000000 de fd 01 80 ae aa 00 80 23 e5 00 80 a4 2c 00 80
       -1.82906e-40 -6.1228e-41 -8.2199e-41 -1.6014e-41
000010 86 aa 01 00 be ba 00 80 6d 71 00 00 01 0e 00 80
       1.53008e-40 -6.699e-41 4.069e-41 -5.024e-42
000020 9c 53 01 80 aa ae 00 00 d1 27 01 00 ee eb 00 80
       -1.21829e-40 6.2658e-41 1.06119e-40 -8.4636e-41
000030 e0 3b 01 80 a6 60 01 00 a9 96 00 00 d2 ec 00 80
       -1.13315e-40 1.26506e-40 5.4047e-41 -8.4955e-41
000040 4c e0 00 00 a7 73 00 00 22 35 00 00 38 4a 00 00
       8.0463e-41 4.1488e-41 1.906e-41 2.6625e-41
000050 56 4c 01 00 88 0f 00 00 8a 2c 00 80 3f fb 01 00
       1.1922e-40 5.572e-42 -1.5978e-41 1.81966e-40
000060 97 23 00 80 d1 d3 00 00 a3 3e 00 00 44 d0 00 80
       -1.2767e-41 7.5985e-41 2.247e-41 -7.4712e-41
000070 31 ec 00 00 ba 0b 01 00 a2 19 00 80 fb de 00 80
       8.473e-41 9.6042e-41 -9.195e-42 -7.999e-41
000080 15 cf 00 80 63 80 00 00 0f 49 01 00 ef 05 00 80
       -7.4287e-41 4.6056e-41 1.18044e-40 -2.129e-42
000090 4e 48 01 00 64 ed 00 00 da 44 00 00 93 e9 00 00
       1.17774e-40 8.516e-41 2.4699e-41 8.379e-41
0000a0 f2 ee 01 80 6f 61 00 00 b1 2f 01 80 03 d8 00 80
       -1.77553e-40 3.4953e-41 -1.08944e-40 -7.749e-41
0000b0 89 5e 01 00 98 2c 01 00 82 a6 01 80 f1 91 00 80
       1.25748e-40 1.07833e-40 -1.51567e-40 -5.2354e-41
0000c0 56 17 00 80 a7 bb 01 80 b6 f7 00 80 11 af 00 80
       -8.371e-42 -1.59152e-40 -8.8862e-41 -6.2802e-41
0000d0 a2 2d 01 00 fe ac 00 00 55 da 00 00 e7 6e 01 80
       1.08205e-40 6.2058e-41 7.8323e-41 -1.3162e-40
0000e0 18 01 02 00 da e4 00 80 1c b5 00 80 b4 a1 00 80
       1.84063e-40 -8.2096e-41 -6.497e-41 -5.8008e-41
0000f0 f3 68 00 80 bf 70 01 80 bc 13 00 80 8d f2 00 00
       -3.7649e-41 -1.32281e-40 -7.08e-42 8.7011e-41
000100 4e 78 00 00 91 c4 00 00 0a 68 00 80 61 60 00 00
       4.3157e-41 7.0515e-41 -3.7322e-41 3.4574e-41
000110 48 87 00 00 8e 7d 00 00 02 53 00 80 9a 1c 01 80
       4.853e-41 4.504e-41 -2.9778e-41 -1.02096e-40
000120 69 b0 00 80 90 b8 00 00 9a 5e 01 00 ba 47 00 00
       -6.3284e-41 6.6209e-41 1.25772e-40 2.573e-41
000130 f4 c7 00 80 50 7e 01 00 31 d7 00 00 02 27 00 80
       -7.173e-41 1.37148e-40 7.7196e-41 -1.3993e-41
000140 86 31 01 80 47 e6 00 80 34 63 00 00 08 d7 00 00
       -1.09601e-40 -8.2608e-41 3.5587e-41 7.7139e-41
000150 a0 79 01 80 0e f2 00 80 6b b9 00 00 76 47 00 00
       -1.35466e-40 -8.6833e-41 6.6515e-41 2.5635e-41
000160 ab 4c 00 80 fc 84 00 00 9a 8e 00 00 73 1b 00 80
       -2.7503e-41 4.7706e-41 5.1156e-41 -9.847e-42
000170 cd 7d 01 00 12 09 00 80 66 5f 01 00 6b 0c 00 00
       1.36964e-40 -3.254e-42 1.26058e-40 4.455e-42
000180 c7 95 00 80 a5 dd 00 80 47 46 00 80 ac b6 01 00
       -5.373e-41 -7.9511e-41 -2.5211e-41 1.57366e-40
000190 0c 41 00 00 d3 ac 00 00 d5 70 00 00 ed fb 00 00
       2.3334e-41 6.1998e-41 4.0477e-41 9.0374e-41
0001a0 da b0 00 80 18 37 01 80 32 be 00 80 37 0b 01 80
       -6.3442e-41 -1.116e-40 -6.8229e-41 -9.5859e-41
0001b0 df 39 00 00 42 27 00 80 dd 26 00 00 b2 34 00 00
       2.076e-41 -1.4083e-41 1.3942e-41 1.8904e-41
0001c0 de 17 00 80 2f 5b 00 00 13 7d 01 80 3c 61 01 00
       -8.562e-42 3.271e-41 -1.36704e-40 1.26717e-40
0001d0 ae aa 00 80 24 16 00 00 aa ef 00 00 f4 e0 00 80
       -6.1228e-41 7.943e-42 8.5975e-41 -8.0698e-41
0001e0 35 d2 00 80 7d fa 00 80 ca 8e 00 80 b3 fe 00 80
       -7.5408e-41 -8.9858e-41 -5.1223e-41 -9.1369e-41
0001f0 e4 db 00 80 97 2b 01 00 54 71 01 00 d4 ca 00 80
       -7.8882e-41 1.07473e-40 1.3249e-40 -7.2761e-41
000200 d5 cd 00 00 3a eb 00 80 b0 a0 00 80 9d 7b 00 00
       7.3839e-41 -8.4383e-41 -5.7644e-41 4.4344e-41
000210 cd 42 00 00 dc bc 01 80 a1 c4 00 80 76 67 00 80
       2.3964e-41 -1.59585e-40 -7.0537e-41 -3.7115e-41
000220 49 60 00 80 37 5d 00 00 a5 89 00 80 52 56 01 00
       -3.454e-41 3.3439e-41 -4.9378e-41 1.22801e-40
000230 3a bd 00 80 5b 37 01 00 c7 ce 00 00 72 0e 00 00
       -6.7882e-41 1.11693e-40 7.4178e-41 5.182e-42
000240 98 d2 00 00 ab c8 00 00 09 ca 00 80 e9 74 00 00
       7.5547e-41 7.1986e-41 -7.2477e-41 4.194e-41
000250 53 6e 00 80 83 ea 00 80 3e d6 00 80 61 80 00 00
       -3.9577e-41 -8.4127e-41 -7.6856e-41 4.6054e-41
000260 a2 d6 00 00 c1 e7 00 00 f4 d4 00 00 08 f1 01 80
       7.6996e-41 8.3138e-41 7.6393e-41 -1.78301e-40
000270 85 d9 00 00 d6 4e 00 80 27 04 01 80 de b2 01 80
       7.8031e-41 -2.8281e-41 -9.3325e-41 -1.56001e-40
000280 40 ee 00 80 06 a9 00 80 ba 23 00 80 fe 07 01 80
       -8.5468e-41 -6.0634e-41 -1.2816e-41 -9.4703e-41
000290 cc 05 01 80 37 ce 00 80 a1 c8 00 80 a2 09 01 00
       -9.3915e-41 -7.3976e-41 -7.1972e-41 9.5291e-41
0002a0 59 2b 00 00 e7 d6 00 00 66 2c 01 00 3e 16 01 80
       1.555e-41 7.7092e-41 1.07763e-40 -9.9814e-41
0002b0 00 ff 00 00 f7 92 00 80 df 4c 01 80 ac 58 00 80
       9.1477e-41 -5.2721e-41 -1.19412e-40 -3.181e-41
0002c0 ba 89 00 80 b8 43 01 80 1b 04 01 00 b8 04 01 80
       -4.9407e-41 -1.16128e-40 9.3308e-41 -9.3528e-41
0002d0 bc fc 00 80 f4 40 01 80 88 7b 00 00 df 5f 00 00
       -9.0664e-41 -1.15136e-40 4.4315e-41 3.4392e-41
0002e0 c6 02 01 00 30 31 00 00 e4 6e 00 00 70 72 00 80
       9.283e-41 1.7645e-41 3.978e-41 -4.1052e-41
0002f0 a9 d2 00 80 94 3d 00 00 2b 11 00 80 11 72 00 80
       -7.557e-41 2.209e-41 -6.159e-42 -4.092e-41
000300 06 0d 00 00 75 29 01 00 3c e6 00 00 a0 5f 00 00
       4.672e-42 1.06707e-40 8.2593e-41 3.4304e-41
000310 a6 ca 00 80 30 42 01 80 42 a6 01 80 e9 35 00 80
       -7.2697e-41 -1.15579e-40 -1.51478e-40 -1.934e-41
000320 c9 91 00 80 c4 76 00 00 f6 11 01 80 c1 d5 00 00
       -5.2298e-41 4.2605e-41 -9.8279e-41 7.668e-41
000330 e0 c2 01 00 c7 7c 00 00 c5 bc 00 80 f0 5d 00 00
       1.61743e-40 4.4762e-41 -6.7718e-41 3.3698e-41
000340 4b ed 00 00 75 bc 00 80 58 22 00 80 6b 48 00 80
       8.5125e-41 -6.7606e-41 -1.232e-41 -2.5979e-41
000350 8b 52 00 00 1b d7 00 80 52 dc 00 80 4a 5c 00 80
       2.9611e-41 -7.7165e-41 -7.9036e-41 -3.3107e-41
000360 4e dd 00 00 f7 bd 00 00 df e8 00 80 df 32 01 00
       7.9389e-41 6.8147e-41 -8.3538e-41 1.10085e-40
000370 9a 11 00 80 e9 33 00 80 d0 29 01 80 bc fb 00 80
       -6.314e-42 -1.8622e-41 -1.06835e-40 -9.0305e-41
000380 48 76 00 80 b1 1e 00 80 28 30 00 80 6f bb 00 80
       -4.2431e-41 -1.101e-41 -1.7275e-41 -6.7239e-41
000390 7c 5a 01 80 da 20 01 00 cd e0 00 00 29 1e 00 80
       -1.24295e-40 1.0362e-40 8.0643e-41 -1.082e-41
0003a0 8f 76 00 80 95 92 01 00 70 3b 00 00 1e f3 00 80
       -4.2531e-41 1.44419e-40 2.1322e-41 -8.7214e-41
0003b0 62 40 01 00 4e 7c 00 00 21 15 01 80 de 0b 01 80
       1.14932e-40 4.4592e-41 -9.9415e-41 -9.6093e-41
0003c0 c9 e7 00 00 db e5 00 00 cd 73 00 80 fb 94 00 00
       8.3149e-41 8.2457e-41 -4.1541e-41 5.3444e-41
0003d0 1a ad 00 00 bc d0 01 00 50 0e 00 80 47 5c 00 80
       6.2097e-41 1.66715e-40 -5.134e-42 -3.3103e-41
0003e0 86 6d 00 80 b1 27 01 80 91 b9 01 00 dc c7 00 80
       -3.929e-41 -1.06074e-40 1.58404e-40 -7.1696e-41
0003f0 15 6f 00 80 01 13 01 80 ce 25 00 00 b9 df 00 80
       -3.9849e-41 -9.8653e-41 1.3562e-41 -8.0257e-41

e_conv3.depth_conv.bias f4 [32]
000000 69 53 00 80 b2 1a 00 00 e7 05 01 80 04 2f 00 80
       -2.9922e-41 9.576e-42 -9.3953e-41 -1.6866e-41
000010 3c 3f 00 00 c1 f4 00 80 a8 9d 00 00 88 11 00 00
       2.2684e-41 -8.7801e-41 5.6556e-41 6.289e-42
000020 fd a9 00 80 a3 e6 00 00 28 e9 00 00 80 57 01 00
       -6.098e-41 8.2737e-41 8.3641e-41 1.23225e-40
000030 05 ec 00 00 7f ee 00 80 a0 28 00 00 55 95 01 00
       8.4668e-41 -8.5556e-41 1.4574e-41 1.45406e-40
000040 f4 a3 01 80 7d 25 01 80 bb f0 00 00 fe 5f 00 00
       -1.50651e-40 -1.05284e-40 8.6358e-41 3.4436e-41
000050 f8 97 01 80 cc 64 00 80 3e 94 00 00 5a 3f 00 00
       -1.46352e-40 -3.6159e-41 5.3179e-41 2.2726e-41
000060 75 43 00 80 86 bb 00 80 92 06 00 00 bb ee 00 80
       -2.4199e-41 -6.7271e-41 2.357e-42 -8.564e-41
000070 bd 56 00 00 79 5f 00 80 2c c2 00 00 80 49 00 00
       3.1116e-41 -3.4249e-41 6.9656e-41 2.6367e-41

e_conv3.point_conv.weight f4 [32, 32, 1, 1]
000000 15 a6 00 80 d5 ce 00 00 5b 89 00 80 f4 10 01 80
       -5.9579e-41 7.4197e-41 -4.9274e-41 -9.7917e-41
000010 d0 ef 00 80 df 2d 01 00 59 f3 00 00 f0 d4 00 00
       -8.6029e-41 1.08291e-40 8.7297e-41 7.6388e-41
000020 1c a2 01 80 1c 92 00 80 19 83 00 80 dc 7a 00 80
       -1.4999e-40 -5.2414e-41 -4.7029e-41 -4.4074e-41
000030 91 be 00 80 b6 64 01 00 b2 94 00 00 f0 a3 00 00
       -6.8362e-41 1.27964e-40 5.3342e-41 5.881e-41
000040 03 17 01 80 36 5c 00 80 3e 30 01 00 5e ed 00 00
       -1.0009e-40 -3.3079e-41 1.09142e-40 8.5151e-41
000050 d1 80 00 80 f2 f7 00 00 21 94 00 80 b2 3a 01 80
       -4.621e-41 8.8946e-41 -5.3139e-41 -1.12891e-40
000060 93 1f 00 80 6b f4 00 00 75 3c 01 80 7c 00 00 80
       -1.1327e-41 8.768e-41 -1.13523e-40 -1.74e-43
000070 5f fc 00 80 59 0a 01 00 08 02 00 00 7b 85 00 00
       -9.0534e-41 9.5548e-41 7.29e-43 4.7884e-41
000080 c0 d7 00 00 40 e8 00 00 70 26 00 00 65 bc 00 80
       7.7397e-41 8.3316e-41 1.3789e-41 -6.7583e-41
000090 01 5c 00 00 60 08 01 80 3b cd 00 00 94 e5 00 80
       3.3005e-41 -9.484e-41 7.3623e-41 -8.2357e-41
0000a0 77 f2 00 00 f1 1a 00 80 a6 a4 01 80 b7 8c 01 80
       8.698e-41 -9.665e-42 -1.509e-40 -1.42314e-40
0000b0 c3 64 00 00 72 f7 00 00 31 d7 00 80 8c 50 00 80
       3.6146e-41 8.8767e-41 -7.7196e-41 -2.8895e-41
0000c0 7a b7 01 00 42 4f 01 80 97 3a 01 00 02 f4 00 00
       1.57654e-40 -1.20268e-40 1.12854e-40 8.7534e-41
0000d0 16 aa 01 80 e4 43 01 00 68 7d 01 80 0a 78 00 80
       -1.52851e-40 1.1619e-40 -1.36823e-40 -4.3062e-41
0000e0 f6 4b 01 00 63 7f 00 00 e8 5c 01 00 82 96 01 80
       1.19085e-40 4.5698e-41 1.25164e-40 -1.45828e-40
0000f0 4c e6 00 80 f5 4d 00 80 cb 6e 00 80 98 eb 01 80
       -8.2615e-41 -2.7966e-41 -3.9745e-41 -1.7635e-40
000100 b6 a8 00 80 d2 5e 00 80 0e 5e 00 80 41 5f 00 80
       -6.0522e-41 -3.4015e-41 -3.374e-41 -3.417e-41
000110 1d f1 00 80 1c 4e 01 00 2a 89 01 80 5a 4e 01 00
       -8.6495e-41 1.19856e-40 -1.4104e-40 1.19943e-40
000120 e5 a8 00 00 bc 63 01 00 41 30 01 80 36 99 00 00
       6.0588e-41 1.27613e-40 -1.09146e-40 5.4962e-41
000130 27 b5 00 00 00 76 00 80 15 1f 01 00 81 1c 01 00
       6.4985e-41 -4.233e-41 1.02986e-40 1.02061e-40
000140 75 b0 01 80 16 0e 02 00 24 4e 01 00 e6 05 01 80
       -1.55136e-40 1.88724e-40 1.19867e-40 -9.3951e-41
000150 44 ae 00 80 3b 40 01 00 d6 74 01 00 74 59 01 00
       -6.2515e-41 1.14877e-40 1.33748e-40 1.23925e-40
000160 1a 34 01 00 a5 87 00 00 e7 fb 00 80 38 63 01 00
       1.10526e-40 4.866e-41 -9.0366e-41 1.27428e-40
000170 8a 3a 01 00 16 7a 00 00 27 14 00 00 40 81 00 00
       1.12835e-40 4.3796e-41 7.229e-42 4.6366e-41
000180 14 a3 01 80 9d bb 00 80 d8 8d 00 80 1c fe 00 80
       -1.50337e-40 -6.7303e-41 -5.0884e-41 -9.1157e-41
000190 18 9e 01 80 9c d0 00 00 ae b5 00 00 41 69 00 00
       -1.48549e-40 7.4835e-41 6.5174e-41 3.7758e-41
0001a0 95 73 01 80 97 f8 00 80 2f 72 00 80 f0 0a 01 80
       -1.33299e-40 -8.9177e-41 -4.0961e-41 -9.5759e-41
0001b0 39 33 01 00 47 ca 00 80 d7 c0 00 00 e8 28 01 80
       1.10211e-40 -7.2563e-41 6.9178e-41 -1.0651e-40
0001c0 44 37 01 80 62 f6 00 80 2d 31 01 00 c8 00 00 80
       -1.11661e-40 -8.8385e-41 1.09476e-40 -2.8e-43
0001d0 11 36 01 00 b6 70 01 00 44 a0 00 80 ec 61 00 80
       1.11231e-40 1.32269e-40 -5.7492e-41 -3.5128e-41
0001e0 dd 3e 00 80 85 c7 00 80 23 a6 01 80 cb 79 00 00
       -2.2551e-41 -7.1574e-41 -1.51434e-40 4.3691e-41
0001f0 11 ef 00 80 04 88 00 00 45 e5 00 80 f4 07 01 00
       -8.5761e-41 4.8793e-41 -8.2246e-41 9.4689e-41
000200 5a 53 01 00 eb 42 00 00 87 dc 00 00 f9 f5 00 80
       1.21736e-40 2.4006e-41 7.911e-41 -8.8238e-41
000210 e9 59 00 00 a1 ab 00 80 f1 a4 00 00 cb a7 00 00
       3.2254e-41 -6.1569e-41 5.917e-41 6.0193e-41
000220 4a df 00 80 6e df 01 80 b7 ff 00 80 d3 04 00 00
       -8.0101e-41 -1.71987e-40 -9.1733e-41 1.73e-42
000230 11 0f 00 80 05 97 00 00 0a fa 00 00 6a dd 00 00
       -5.405e-42 5.4176e-41 8.9697e-41 7.9428e-41
000240 1d 53 01 00 94 25 00 00 08 f6 00 00 ae 53 00 80
       1.21651e-40 1.348e-41 8.826e-41 -3.0019e-41
000250 c0 3d 00 80 e7 c5 00 80 dc 04 01 00 e3 67 00 00
       -2.2152e-41 -7.0994e-41 9.3579e-41 3.7268e-41
000260 ee 43 00 00 0b 2d 01 00 a2 de 00 80 6e 99 01 00
       2.4369e-41 1.07994e-40 -7.9866e-41 1.46876e-40
000270 ae 14 01 00 31 64 00 00 1f 56 00 00 31 80 00 00
       9.9254e-41 3.5942e-41 3.0894e-41 4.5986e-41
000280 ca 20 00 80 52 eb 00 00 6a 87 00 00 b7 a7 00 00
       -1.1762e-41 8.4417e-41 4.8577e-41 6.0165e-41
000290 69 f1 00 00 0a 3b 00 80 48 cf 00 00 de c7 00 00
       8.6602e-41 -2.1179e-41 7.4359e-41 7.1699e-41
0002a0 d0 99 00 80 5e 1c 00 80 53 6b 01 00 22 47 01 80
       -5.5178e-41 -1.0176e-41 1.30336e-40 -1.17353e-40
0002b0 ee a3 00 00 b0 f3 00 80 c9 04 01 80 e6 02 02 00
       5.8807e-41 -8.7419e-41 -9.3552e-41 1.84711e-40
0002c0 67 85 01 80 34 a9 00 80 a1 45 00 80 14 dc 00 80
       -1.39691e-40 -6.0699e-41 -2.4978e-41 -7.8949e-41
0002d0 ac f3 00 00 af 0f 00 80 49 16 00 00 7c 38 00 00
       8.7413e-41 -5.626e-42 7.994e-42 2.0263e-41
0002e0 0f 06 01 80 25 a3 01 80 52 20 00 00 20 c8 00 80
       -9.4009e-41 -1.50361e-40 1.1594e-41 -7.1791e-41
0002f0 2d 39 00 80 f0 87 00 00 89 43 01 80 4d c8 00 80
       -2.0511e-41 4.8765e-41 -1.16063e-40 -7.1854e-41
000300 6d a8 00 80 20 3a 00 00 cf 64 01 80 09 19 00 00
       -6.042e-41 2.0851e-41 -1.27999e-40 8.981e-42
000310 83 32 00 00 b4 01 00 00 45 1d 01 00 51 07 01 00
       1.812e-41 6.11e-43 1.02335e-40 9.446e-41
000320 34 1b 01 00 23 0d 01 00 00 84 00 00 9f 09 00 00
       1.01594e-40 9.6548e-41 4.7353e-41 3.451e-42
000330 7b 6f 01 00 ed 0f 01 80 6f 23 01 00 fb d4 00 00
       1.31827e-40 -9.7549e-41 1.04547e-40 7.6403e-41
000340 c3 f8 00 00 dd 20 00 80 2e 30 01 00 99 14 00 00
       8.9239e-41 -1.1789e-41 1.09119e-40 7.389e-42
000350 ae 66 01 00 67 57 00 80 54 51 00 80 94 2c 01 80
       1.2867e-40 -3.1354e-41 -2.9175e-41 -1.07827e-40
000360 69 23 01 80 43 2c 00 80 05 5b 00 80 ba 1b 01 80
       -1.04538e-40 -1.5878e-41 -3.2652e-41 -1.01782e-40
000370 68 22 00 00 b7 22 00 80 5f 5d 01 00 6c cb 01 80
       1.2343e-41 -1.2453e-41 1.25331e-40 -1.6481e-40
000380 ac 31 01 80 7e 69 01 00 02 a8 00 80 79 a5 00 80
       -1.09654e-40 1.29679e-40 -6.027e-41 -5.936e-41
000390 28 05 01 80 92 50 00 00 bc 83 00 80 8a 12 00 00
       -9.3685e-41 2.8903e-41 -4.7257e-41 6.65e-42
0003a0 de 23 01 80 d2 7d 00 80 51 eb 00 80 86 27 00 00
       -1.04702e-40 -4.5136e-41 -8.4416e-41 1.4178e-41
0003b0 a7 65 00 80 d5 b4 00 00 1b 9a 00 80 bd 2b 01 00
       -3.6466e-41 6.487e-41 -5.5283e-41 1.07526e-40
0003c0 50 63 00 00 91 65 01 00 26 1b 00 00 2d f3 00 80
       3.5627e-41 1.2827e-40 9.739e-42 -8.7235e-41
0003d0 c6 de 01 00 9d 02 01 00 e8 a6 01 80 a2 8c 00 00
       1.71752e-40 9.2773e-41 -1.5171e-40 5.045e-41
0003e0 3d 7e 00 00 78 5b 01 80 cf 65 00 80 82 45 00 00
       4.5286e-41 -1.24648e-40 -3.6522e-41 2.4935e-41
0003f0 b1 45 01 00 7f 57 01 00 9a 11 01 00 49 06 01 00
       1.16836e-40 1.23223e-40 9.815e-41 9.409e-41

e_conv3.point_conv.bias f4 [32]
000000 69 56 00 80 e3 77 00 80 f0 1e 01 80 46 60 00 00
       -3.0998e-41 -4.3007e-41 -1.02934e-40 3.4536e-41
000010 e7 f1 00 00 8f 0e 00 00 56 21 00 00 4b 44 00 00
       8.6778e-41 5.223e-42 1.1959e-41 2.4499e-41
000020 fb 85 00 00 4b 54 00 80 22 62 00 00 2f 26 01 80
       4.8063e-41 -3.0239e-41 3.5203e-41 -1.05533e-40
000030 dd 5b 00 80 db 03 01 00 bc 58 00 00 49 21 01 00
       -3.2954e-41 9.3219e-41 3.1832e-41 1.03776e-40
000040 77 f3 00 00 32 de 00 80 18 a1 01 80 43 05 01 00
       8.7339e-41 -7.9709e-41 -1.49625e-40 9.3723e-41
000050 4c 77 00 80 12 5f 00 80 72 7b 00 80 09 ce 00 00
       -4.2796e-41 -3.4105e-41 -4.4284e-41 7.3911e-41
000060 20 80 00 00 d8 69 00 80 15 1c 01 00 18 1e 00 80
       4.5963e-41 -3.797e-41 1.0191e-40 -1.0796e-41
000070 e9 4a 01 00 69 9b 01 00 a3 f9 00 00 97 ed 01 80
       1.18708e-40 1.47586e-40 8.9553e-41 -1.77067e-40

e_conv4.depth_conv.weight f4 [32, 1, 3, 3]
000000 9b 03 00 00 c6 b2 01 00 49 69 00 00 cc c9 00 00
       1.293e-42 1.55967e-40 3.7769e-41 7.2391e-41
000010 e2 e9 00 80 6c 75 01 00 94 ae 00 00 34 25 01 00
       -8.3901e-41 1.33959e-40 6.2627e-41 1.05181e-40
000020 02 64 01 80 b4 db 00 80 7b 04 00 00 80 2c 00 00
       -1.27712e-40 -7.8815e-41 1.607e-42 1.5964e-41
000030 b7 4f 00 80 25 69 01 80 a2 0b 01 80 e1 f9 00 80
       -2.8596e-41 -1.29554e-40 -9.6009e-41 -8.964e-41
000040 0d 9c 00 00 a4 e2 01 80 ab 21 00 80 3f f6 00 00
       5.598e-41 -1.73139e-40 -1.2078e-41 8.8336e-41
000050 d9 3d 01 00 7b e1 00 80 19 25 01 80 0b ad 00 00
       1.14022e-40 -8.0887e-41 -1.05144e-40 6.2076e-41
000060 f0 84 00 80 ff ac 00 00 e5 e4 00 80 2e f6 00 80
       -4.7689e-41 6.206e-41 -8.2112e-41 -8.8313e-41
000070 11 5b 00 80 fd d7 00 00 04 2d 00 00 fe f4 00 00
       -3.2668e-41 7.7482e-41 1.6149e-41 8.7887e-41
000080 92 4b 00 80 98 15 00 00 1b 38 01 00 73 f5 00 80
       -2.711e-41 7.746e-42 1.11962e-40 -8.805e-41
000090 88 05 00 00 23 82 00 00 43 dc 00 00 a1 00 01 00
       1.984e-42 4.6684e-41 7.9015e-41 9.2061e-41
0000a0 ad d6 00 00 cc bb 00 80 89 d4 01 80 e4 ec 00 00
       7.7011e-41 -6.7369e-41 -1.68079e-40 8.498e-41
0000b0 9c 15 01 80 cb 13 00 80 cd ea 00 00 0f 9b 00 80
       -9.9587e-41 -7.1e-42 8.423e-41 -5.5625e-41
0000c0 73 46 00 00 35 da 00 80 79 60 01 80 7c 07 01 00
       2.5272e-41 -7.8278e-41 -1.26443e-40 9.452e-41
0000d0 dc d8 00 00 26 4f 01 80 74 4e 00 80 f5 b3 00 80
       7.7794e-41 -1.20229e-40 -2.8144e-41 -6.4556e-41
0000e0 77 d1 00 00 aa 56 01 00 47 13 01 80 d2 52 00 80
       7.5142e-41 1.22925e-40 -9.8751e-41 -2.971e-41
0000f0 97 b2 01 80 c0 73 00 00 90 42 00 80 c3 54 00 80
       -1.55901e-40 4.1523e-41 -2.3878e-41 -3.0407e-41
000100 8f ce 00 80 a0 60 00 00 00 6e 00 00 8e 88 00 80
       -7.4099e-41 3.4663e-41 3.946e-41 -4.8987e-41
000110 a6 2b 01 80 e5 f8 00 00 77 72 00 00 fe 0e 00 00
       -1.07494e-40 8.9287e-41 4.1062e-41 5.378e-42
000120 76 41 00 00 2e 15 01 00 8f c9 00 80 c2 a3 00 00
       2.3483e-41 9.9433e-41 -7.2306e-41 5.8745e-41
000130 e8 21 01 00 20 ef 00 80 83 16 00 80 a2 c4 00 00
       1.03999e-40 -8.5782e-41 -8.076e-42 7.0539e-41
000140 ea 58 00 00 27 22 00 80 ce 86 00 80 9e 42 00 80
       3.1896e-41 -1.2252e-41 -4.8359e-41 -2.3898e-41
000150 f3 15 01 00 10 40 00 00 38 ce 00 80 13 71 00 80
       9.971e-41 2.2981e-41 -7.3977e-41 -4.0563e-41
000160 00 07 01 80 a5 c1 01 00 c6 54 00 80 07 cb 01 00
       -9.4347e-41 1.61302e-40 -3.0411e-41 1.64668e-40
000170 41 59 00 00 b5 a5 00 80 49 8b 00 00 73 33 00 00
       3.2018e-41 -5.9444e-41 4.9966e-41 1.8457e-41
000180 2f c2 01 80 26 08 00 80 d8 1d 00 00 e7 77 00 00
       -1.61495e-40 -2.923e-42 1.0706e-41 4.3013e-41
000190 7b 60 00 00 f0 77 00 80 8f 6e 01 80 e5 9d 01 00
       3.461e-41 -4.3025e-41 -1.31496e-40 1.48477e-40
0001a0 a9 4e 00 00 25 ed 01 80 d0 8e 00 80 45 29 00 80
       2.8218e-41 -1.76907e-40 -5.1231e-41 -1.4805e-41
0001b0 61 62 01 80 0a 30 00 00 3a c4 00 80 c6 8c 00 80
       -1.27127e-40 1.7233e-41 -7.0393e-41 -5.05e-41
0001c0 d6 ba 00 80 44 21 00 80 43 16 00 80 29 45 00 00
       -6.7024e-41 -1.1933e-41 -7.986e-42 2.481e-41
0001d0 e3 18 00 00 b2 2b 00 80 e3 7b 00 80 83 8d 00 80
       8.928e-42 -1.5675e-41 -4.4442e-41 -5.0765e-41
0001e0 03 4c 00 80 ee 6f 00 00 cd 85 00 00 ff 65 00 00
       -2.7268e-41 4.0153e-41 4.7999e-41 3.659e-41
0001f0 e0 d9 00 80 ce 38 00 00 ce 23 01 80 fe 21 00 80
       -7.8159e-41 2.0378e-41 -1.0468e-40 -1.2194e-41
000200 90 37 00 80 86 cf 00 80 c4 10 01 80 a0 e6 00 80
       -1.9932e-41 -7.4445e-41 -9.785e-41 -8.2733e-41
000210 19 e6 00 00 ed f2 00 80 67 66 01 00 64 98 00 80
       8.2543e-41 -8.7145e-41 1.2857e-40 -5.4667e-41
000220 6c 6a 00 00 aa 4f 00 80 e3 61 00 00 e1 25 00 00
       3.8177e-41 -2.8578e-41 3.5115e-41 1.3588e-41
000230 23 aa 00 00 0a d6 00 00 43 86 00 00 96 4f 00 80
       6.1034e-41 7.6783e-41 4.8164e-41 -2.855e-41
000240 0f 4c 00 80 f9 d4 00 00 36 f7 00 00 1e 26 00 00
       -2.7285e-41 7.64e-41 8.8683e-41 1.3674e-41
000250 6c 27 01 00 b8 25 01 00 87 3f 01 00 fa 6e 00 80
       1.05977e-40 1.05366e-40 1.14625e-40 -3.9811e-41
000260 e2 89 00 80 06 da 00 80 e4 73 00 00 e2 a5 00 00
       -4.9463e-41 -7.8212e-41 4.1574e-41 5.9508e-41
000270 32 c8 00 80 6e 13 01 80 de 1a 00 80 0f 5a 00 00
       -7.1817e-41 -9.8806e-41 -9.638e-42 3.2307e-41
000280 4a 0d 00 80 bc 7c 01 80 65 8b 01 00 c0 b9 00 00
       -4.767e-42 -1.36582e-40 1.41841e-40 6.6635e-41
000290 0c d5 00 00 cf f1 00 00 28 9a 00 00 96 d5 00 00
       7.6427e-41 8.6745e-41 5.5301e-41 7.662e-41
0002a0 3e da 00 80 ce 94 00 80 04 13 00 00 59 12 00 00
       -7.829e-41 -5.3381e-41 6.822e-42 6.582e-42
0002b0 a1 05 00 80 9d 60 00 00 c2 c6 01 00 f0 b0 01 80
       -2.019e-42 3.4658e-41 1.63136e-40 -1.55309e-40
0002c0 74 f1 00 80 8d 28 00 80 7f 52 00 80 84 80 00 80
       -8.6617e-41 -1.4547e-41 -2.9594e-41 -4.6103e-41
0002d0 de 82 00 80 42 05 00 00 3f 90 00 00 60 2a 01 80
       -4.6946e-41 1.886e-42 5.1746e-41 -1.07037e-40
0002e0 be 34 00 80 34 b4 01 00 0e 37 00 00 1f a0 00 00
       -1.892e-41 1.5648e-40 1.975e-41 5.744e-41
0002f0 12 ab 01 80 0c 50 01 80 1e 72 00 00 43 0d 00 00
       -1.53204e-40 -1.20551e-40 4.0938e-41 4.757e-42
000300 87 a3 00 00 cf ef 00 80 73 fb 00 80 25 16 00 80
       5.8663e-41 -8.6027e-41 -9.0203e-41 -7.944e-42
000310 8e 9e 00 80 8d 01 00 00 50 05 01 80 c9 68 00 00
       -5.6879e-41 5.56e-43 -9.3741e-41 3.759e-41
000320 a6 15 01 00 b4 fd 00 00 aa 99 00 00 68 26 00 80
       9.9601e-41 9.1012e-41 5.5124e-41 -1.3778e-41
000330 44 9d 00 00 23 7b 00 80 c1 56 01 00 6d 81 00 80
       5.6416e-41 -4.4173e-41 1.22957e-40 -4.6429e-41
000340 fa 15 01 80 c7 8f 00 80 cf a8 00 80 4d 3e 01 80
       -9.9719e-41 -5.1578e-41 -6.0557e-41 -1.14185e-40
000350 46 e8 00 00 ba f4 00 80 24 1a 00 00 67 3d 00 00
       8.3324e-41 -8.7791e-41 9.377e-42 2.2027e-41
000360 05 00 01 00 72 58 00 00 fa d1 00 00 95 74 00 80
       9.1843e-41 3.1728e-41 7.5325e-41 -4.1822e-41
000370 18 3b 00 80 76 00 00 80 26 f7 00 80 0f 0a 01 80
       -2.1199e-41 -1.65e-43 -8.866e-41 -9.5444e-41
000380 ed 9c 01 00 5f 7d 00 00 df 4b 00 80 b4 59 00 80
       1.4813e-40 4.4975e-41 -2.7217e-41 -3.218e-41
000390 d7 21 01 80 c5 84 00 00 19 2e 00 00 79 0f 00 80
       -1.03975e-40 4.7629e-41 1.6537e-41 -5.55e-42
0003a0 84 20 01 00 0a 31 01 00 46 3e 00 00 a6 39 00 00
       1.035e-40 1.09427e-40 2.234e-41 2.068e-41
0003b0 b9 66 00 00 f3 0f 01 00 96 fd 00 80 c3 79 00 00
       3.685e-41 9.7557e-41 -9.097e-41 4.368e-41
0003c0 f5 51 00 80 3b 19 01 00 cd 8a 00 80 1c fd 00 80
       -2.94e-41 1.00886e-40 -4.9792e-41 -9.0799e-41
0003d0 3f 8c 00 80 ac e6 00 80 06 da 00 00 0d f1 00 00
       -5.0311e-41 -8.275e-41 7.8212e-41 8.6473e-41
0003e0 1a a7 01 00 68 52 01 00 32 9e 00 80 05 9d 00 00
       1.5178e-40 1.21397e-40 -5.675e-41 5.6328e-41
0003f0 6c d0 00 80 9e 99 00 80 f3 24 00 80 7d fc 00 00
       -7.4768e-41 -5.5107e-41 -1.3255e-41 9.0576e-41

e_conv4.depth_conv.bias f4 [32]
000000 6e bf 00 00 1a d9 00 00 39 03 00 80 4c 01 00 00
       6.8672e-41 7.7881e-41 -1.156e-42 4.65e-43
000010 1f 84 00 80 e8 e8 00 80 6b b6 00 80 01 ee 00 00
       -4.7396e-41 -8.3551e-41 -6.5439e-41 8.538e-41
000020 0f 4c 00 80 dd 13 01 00 af 47 00 80 6c 43 00 00
       -2.7285e-41 9.8961e-41 -2.5715e-41 2.4186e-41
000030 c2 11 00 80 ba 4d 00 80 9b 87 00 00 ed 64 01 80
       -6.37e-42 -2.7883e-41 4.8646e-41 -1.28041e-40
000040 3c 00 00 80 f1 8b 00 80 73 09 01 00 0e fb 00 80
       -8.4e-44 -5.0202e-41 9.5225e-41 -9.0061e-41
000050 64 28 01 00 27 cd 00 00 b2 3c 00 00 56 ad 00 80
       1.06325e-40 7.3595e-41 2.1773e-41 -6.2181e-41
000060 2d 75 00 00 84 70 00 00 1a 99 00 00 b0 d8 00 80
       4.2035e-41 4.0363e-41 5.4922e-41 -7.7733e-41
000070 2e 0f 00 00 ee 62 00 00 3f f1 00 00 e6 89 00 80
       5.445e-42 3.5489e-41 8.6543e-41 -4.9469e-41
