Zero-DCE++/snapshots_Zero_DCE++/Epoch22.pth (torch, 51217 bytes, 28 tensors)

e_conv1.depth_conv.weight f4 [3, 1, 3, 3]
0	0xbea082b9	-0.31349733
1	0xbe069594	-0.13142997
2	0x3d928b77	0.07155507
3	0xbe37b852	-0.17941406
4	0x3dfadf79	0.12249655
5	0x3dd81da2	0.10552527
6	0xbeb8f96a	-0.36127788
7	0xbddfad95	-0.1092178
8	0xbd0cf2da	-0.03441129
9	0x3e14ea45	0.14542492
10	0x3dc93543	0.09824612
11	0x3e855081	0.26037982
12	0x3e3b96d2	0.18319252
13	0xbc9c6af9	-0.019093977
14	0x3e527c3f	0.20555209
15	0x3ddf7453	0.10910859
16	0xbd3b3cfe	-0.045712464
17	0x3e278128	0.16357863
18	0xbd8cc6a8	-0.06873828
19	0xbda7a142	-0.08185054
20	0xbdbf04b0	-0.09327066
21	0xbdcb2873	-0.099198245
22	0xbe12e779	-0.14346112
23	0xbe0fd1e6	-0.14044914
24	0xbbd8bd40	-0.0066143572
25	0xbe393f37	-0.18090521
26	0xbeac5fb6	-0.33666772

e_conv1.depth_conv.bias f4 [3]
0	0x3d94fd85	0.072749175
1	0x3ea3da9f	0.32002732
2	0xbd0f0514	-0.034916952

e_conv1.point_conv.weight f4 [32, 3, 1, 1]
0	0x3ccbaa43	0.02486146
1	0x3e940469	0.28909615
2	0x3dcf160a	0.101116255
3	0x198649b9	1.3885052e-23
4	0xb955043a	-0.00020314837
5	0x3b620782	0.0034489338
6	0x3c9a9bb9	0.018873082
7	0xbdc4bc85	-0.0960627
8	0xbd35cb71	-0.04438347
9	0x3da5f57b	0.08103462
10	0xbf0ba99b	-0.5455567
11	0x3de5b196	0.112155125
12	0x3d960eb6	0.07327025
13	0xbd150995	-0.03638609
14	0x3c075a32	0.00826125
15	0xbe6e4934	-0.23270112
16	0x3e220335	0.15821536
17	0x3eeb929d	0.46010295
18	0x3dbb7ee3	0.09155061
19	0x3e65baf4	0.22434598
20	0xbeaa96de	-0.33318228
21	0x8000ce35	-7.3973e-41
22	0x8022537b	-3.152354e-39
23	0x8000d45b	-7.6179e-41
24	0x3e2cfacf	0.16892551
25	0xbdd8ff7d	-0.105956055
26	0x3d2f00ea	0.04272548
27	0x3d1e77c5	0.03868844
28	0xbd6fa7f3	-0.05850978
29	0xbe16c0b3	-0.14721946
30	0x3ead3142	0.33826643
31	0xbf0d1445	-0.55109054
32	0x3edb1c74	0.42795146
33	0x3d1f0ef2	0.038832612
34	0xbdc5b331	-0.09653319
35	0x3d0782a2	0.033083566
36	0x3e0429ca	0.12906566
37	0xbee121a8	-0.4397099
38	0xbe034b5d	-0.12821718
39	0xbdacc335	-0.0843567
40	0xbe015bb9	-0.12632646
41	0x3df8986c	0.12138447
42	0x3d23b6dd	0.039969314
43	0xbc3a7cd4	-0.0113823
44	0xb70ef599	-8.521042e-06
45	0x3c5c5e23	0.013450178
46	0x3ec5e471	0.3865085
47	0x3ec3beb7	0.3823144
48	0xbe7c0e54	-0.24614841
49	0x3e98d289	0.29848126
50	0xbee67e8a	-0.45018417
51	0x37d62e5a	2.5532372e-05
52	0x3731599c	1.0570886e-05
53	0x3d76773f	0.060172316
54	0x3df31b58	0.1187045
55	0x3d035828	0.032066494
56	0xbe49276e	-0.19643947
57	0x3d60fbcd	0.054927636
58	0xb81640c1	-3.5823094e-05
59	0x3b97c513	0.0046316474
60	0xbf0db33b	-0.5535161
61	0xbdab5098	-0.083649814
62	0xbed70f72	-0.4200397
63	0x3b1be473	0.002378729
64	0x800058e5	-3.189e-41
65	0x39595434	0.00020726101
66	0xbc448f69	-0.011997082
67	0x3c8b2c56	0.016988914
68	0x3dfd71b2	0.12375201
69	0x2cad1b59	4.919992e-12
70	0x3d67d59a	0.05660019
71	0x348c85a5	2.617427e-07
72	0x399a976e	0.00029485993
73	0x13846a2a	3.342617e-27
74	0x3c884102	0.01663256
75	0xb8df9293	-0.0001066077
76	0xbd739f1c	-0.05947791
77	0x3db4e9f9	0.08833689
78	0x34220d02	1.5092158e-07
79	0xbdcee9d0	-0.1010319
80	0xac883c13	-3.872022e-12
81	0x3ebb8ff3	0.36633262
82	0xbe17beed	-0.14818926
83	0xbecfaa81	-0.40559772
84	0x3d89d587	0.0673018
85	0xbf0ad859	-0.5423637
86	0xbe3c0404	-0.18360907
87	0x00005981	3.2108e-41
88	0xb958e26f	-0.00020683718
89	0x38d641bc	0.00010216559
90	0x3e997be3	0.2997733
91	0x3cb74bae	0.022374954
92	0xbc7c2c05	-0.015391354
93	0xbe95d5a3	-0.29264554
94	0x3eb5f13a	0.35535604
95	0xbed269c2	-0.41096312

e_conv1.point_conv.bias f4 [32]
0	0xbe2e456e	-0.17018673
1	0xba22e89e	-0.0006214472
2	0xbd80e5f1	-0.06293858
3	0x3f10a3ac	0.56499743
4	0xb9fcb531	-0.00048200184
5	0x3d8a3b3d	0.0674958
6	0x3ea3c12b	0.31983313
7	0xbcedb262	-0.029015724
8	0x3d042122	0.03225816
9	0xbd7723c9	-0.06033686
10	0x3ed6cc01	0.41952518
11	0x3ef5052f	0.47855517
12	0x3ea8819e	0.3291139
13	0x3e9b1c92	0.30295235
14	0xbd86d17d	-0.065829255
15	0x3f0c3950	0.5477495
16	0xbdc28a68	-0.09499055
17	0xbae172dc	-0.0017200368
18	0xbe401424	-0.18757683
19	0xbca07c27	-0.01959045
20	0x3ed30157	0.4121196
21	0xbb0881de	-0.002082936
22	0x3ec58924	0.38581192
23	0xbdc2bc48	-0.09508568
24	0xbb0e1c42	-0.0021684323
25	0x99faa0e5	-2.5914379e-23
26	0xbdc7b0b3	-0.097504996
27	0x3eb55176	0.35413712
28	0x3e29f15d	0.16595979
29	0xbdb125a1	-0.08649755
30	0x3efd339f	0.49453446
31	0xbdc9f075	-0.09860317

e_conv2.depth_conv.weight f4 [32, 1, 3, 3]
0	0xbd5ba567	-0.053624537
1	0xbd309538	-0.043111056
2	0xbd593cb3	-0.053036403
3	0xbce5ab89	-0.028035896
4	0xbc6e88e8	-0.014559008
5	0xbca21ec5	-0.019790063
6	0xbcb2fffc	-0.021850578
7	0xbc0a3a47	-0.008436746
8	0xbcc6fb79	-0.024289833
9	0x359a27f2	1.148552e-06
10	0xb467b551	-2.1579514e-07
11	0x2e9bc820	7.084133e-11
12	0xb99cef3f	-0.0002993289
13	0x0000bccf	6.7732e-41
14	0x320853a9	7.935264e-09
15	0x87b7da35	-2.766303e-34
16	0x800102cc	-9.2839e-41
17	0x3aa40cf5	0.0012516069
18	0x342a73d6	1.5874625e-07
19	0x324e29fc	1.2000324e-08
20	0xba26ac90	-0.0006358111
21	0x3b41561e	0.0029500793
22	0x3a819e51	0.0009889101
23	0xafc86e7c	-3.6458292e-10
24	0xb6b05a57	-5.2557257e-06
25	0x80005c1f	-3.3047e-41
26	0x00004226	2.373e-41
27	0xbe96d636	-0.29460305
28	0xbe949789	-0.29021862
29	0xbdcc0271	-0.09961403
30	0xbd9ea36e	-0.077460155
31	0x3e365587	0.17806064
32	0x3e9e9cf8	0.30979133
33	0x3e8b7067	0.27234194
34	0xbc96c222	-0.018403117
35	0x3ee0a13e	0.43873018
36	0x38a660e1	7.933542e-05
37	0x8000c24d	-6.9702e-41
38	0x3a890028	0.0010452317
39	0xa751a4f5	-2.9094e-15
40	0x00006521	3.6278e-41
41	0x29b413b6	7.997025e-14
42	0x3b5bb14d	0.0033522428
43	0x2f0180bc	1.1778217e-10
44	0x338a6ab1	6.445533e-08
45	0xbd87554c	-0.06608066
46	0x3d6622a2	0.056185372
47	0xbdd0faec	-0.102041095
48	0x3d3edc35	0.046596725
49	0x3e6f5b70	0.23374724
50	0xbdc0e2ae	-0.09418236
51	0xbd67e4c1	-0.05661464
52	0xbb814212	-0.003944644
53	0xbe38c1c4	-0.18042666
54	0x3dbb9db5	0.091609396
55	0x3a14a620	0.00056705065
56	0xbe5f8296	-0.21827158
57	0x3d417a31	0.04723567
58	0x3e2b81d5	0.16748746
59	0xbdbc2ae1	-0.09187866
60	0xbd502280	-0.05081415
61	0xbbb74500	-0.0055929422
62	0xbea04292	-0.3130079
63	0x3a0c7537	0.00053580425
64	0x388b8712	6.653195e-05
65	0xb6adba25	-5.177472e-06
66	0x390970a8	0.00013107306
67	0x1b1ad4ee	1.2807383e-22
68	0xbb3a2510	-0.0028403439
69	0x38047fa4	3.1590127e-05
70	0xb98d7027	-0.00026977176
71	0xbaba5761	-0.0014216715
72	0xba626baf	-0.0008637262
73	0xba2011f1	-0.0006106189
74	0xb904108e	-0.00012594668
75	0x39188871	0.00014546678
76	0x3956f065	0.00020498184
77	0x39521f2c	0.00020038773
78	0xb6f4f436	-7.3001966e-06
79	0xb9986721	-0.00029068536
80	0x380ad833	3.3103115e-05
81	0xbac79b55	-0.0015228788
82	0x3ae72e3f	0.0017637684
83	0xbae48385	-0.0017434215
84	0xba57e293	-0.00082353613
85	0x3b2a8264	0.002601766
86	0xba1622e8	-0.00057272473
87	0xba575936	-0.00082148926
88	0x3a75c0e5	0.0009374752
89	0x3b1b5097	0.0023699158
90	0x3ea7e9c8	0.32795548
91	0x3e9d7fdb	0.30761608
92	0x3e6116e3	0.21981387
93	0x3ea495dc	0.32145584
94	0xbc16f977	-0.0092147505
95	0x3eb56bb2	0.35433728
96	0x3e94d818	0.29071116
97	0x3d862f48	0.06551987
98	0x3cf4239b	0.029802134
99	0x3e64c0e1	0.22339202
100	0xbe73ce35	-0.2380913
101	0x3e08a0fd	0.13342662
102	0x3d93f67e	0.07224749
103	0xbe75730e	-0.23969671
104	0xbe267a7f	-0.16257666
105	0x3e88114b	0.26575693
106	0x3d6350ea	0.055497088
107	0x3e0c741c	0.13716167
108	0x3ea990e7	0.33118364
109	0x3dccd6c8	0.10001904
110	0x3e43518a	0.19074073
111	0x3e91dc4a	0.2848838
112	0x3e61e817	0.22061191
113	0x3dd817f7	0.10551446
114	0x3e9c2b99	0.30502012
115	0x3e55dfe4	0.20886189
116	0xbd8269ff	-0.063678734
117	0xbbfa5929	-0.0076400233
118	0x3ca92848	0.02064909
119	0x3d147aff	0.03625011
120	0x3de412bb	0.11136385
121	0xbe16b82e	-0.14718696
122	0x3e52083b	0.20510952
123	0xbe05a6df	-0.13051938
124	0x3d0cee07	0.034406688
125	0x3ebf5b55	0.37374368
126	0xba840335	-0.0010071757
127	0xb8516eb6	-4.993259e-05
128	0x369e6b2c	4.7212434e-06
129	0x27d68529	5.9541304e-15
130	0x39901410	0.00027480768
131	0x9dfbea19	-6.66812e-21
132	0x38e15727	0.000107450694
133	0x2d4cf7cb	1.16510785e-11
134	0x35d10cdb	1.5575455e-06
135	0xbda80082	-0.08203222
136	0x3e2ba980	0.16763878
137	0xbe40d22b	-0.18830173
138	0x3e0a644d	0.13514824
139	0x3e67b9d4	0.22629482
140	0x3e60286f	0.21890424
141	0xbe2367e1	-0.15957595
142	0xbd908b5b	-0.0705783
143	0xbd85d779	-0.06535239
144	0x3e0d4f74	0.1379984
145	0x3e957149	0.29187992
146	0x3eaff11e	0.34363645
147	0x3e06f096	0.13177714
148	0x3d743e55	0.059629757
149	0x3ddd3081	0.10800267
150	0xbe493cf0	-0.19652152
151	0xbd4fc8c3	-0.05072857
152	0xbe27590c	-0.16342562
153	0x389ccf6e	7.4772965e-05
154	0x00009ca5	5.6193e-41
155	0x8000cd54	-7.3658e-41
156	0xab017c66	-4.6002644e-13
157	0x3010b384	5.2642e-10
158	0x040041ca	1.5076537e-36
159	0x30c8dbcf	1.4614389e-09
160	0xb17b49b6	-3.6567207e-09
161	0x3a2ff3d9	0.00067120563
162	0x382a4254	4.059293e-05
163	0xbb26ee4c	-0.0025471626
164	0x36139160	2.1989326e-06
165	0x378ec098	1.7017403e-05
166	0xbb2f84fd	-0.0026782148
167	0x3af409de	0.0018618663
168	0x37886a5a	1.6261987e-05
169	0x3a324124	0.0006799868
170	0xbaa885fc	-0.0012857313
171	0x9c324b77	-5.8992796e-22
172	0x2dd1e94d	2.3864155e-11
173	0x8000002d	-6.3e-44
174	0x8c5c842a	-1.6987955e-31
175	0x160850d5	1.1011499e-25
176	0xada31fbc	-1.8545047e-11
177	0xa684f445	-9.225549e-16
178	0x2eb8a329	8.396334e-11
179	0x250234e3	1.1293621e-16
180	0xbce29c9a	-0.027662564
181	0x3e8a6b9b	0.2703522
182	0xbe57b606	-0.2106553
183	0xbea3b576	-0.3197438
184	0xbc8b76d5	-0.017024437
185	0x3d7fbdf7	0.062437024
186	0xbe81e207	-0.25367758
187	0xbe844d98	-0.2584045
188	0xbe922c61	-0.28549483
189	0x80000aa3	-3.816e-42
190	0x00003d77	2.205e-41
191	0xbb3a848c	-0.0028460352
192	0xb606aa8a	-2.0066823e-06
193	0x3415e135	1.3958636e-07
194	0x3b0fc4b8	0.0021937322
195	0x00009fde	5.735e-41
196	0xb52eabbe	-6.506997e-07
197	0xad01b4c6	-7.372941e-12
198	0xbd4033cc	-0.046924397
199	0xbe1c7a54	-0.1528104
200	0x3e108752	0.1411412
201	0xbddf7731	-0.10911406
202	0xbe17344d	-0.14766045
203	0x3d060858	0.0327228
204	0xbd0659f0	-0.032800615
205	0xbe0d01b3	-0.1377018
206	0x3abab78c	0.0014245375
207	0x8000d408	-7.6062e-41
208	0x8000826f	-4.6791e-41
209	0x800060e7	-3.4762e-41
210	0x9cdbec76	-1.4553328e-21
211	0xb85b22b6	-5.2245996e-05
212	0x80003a59	-2.0931e-41
213	0xb3435397	-4.5478e-08
214	0x181bcd94	2.013707e-24
215	0x0001925f	1.44344e-40
216	0x1c86e065	8.925381e-22
217	0xab883c44	-9.680108e-13
218	0x355836a4	8.0545783e-07
219	0x0000548d	3.0331e-41
220	0xb0ba2f93	-1.3546803e-09
221	0x8cea42e9	-3.6093679e-31
222	0x8000156e	-7.688e-42
223	0xab86b37e	-9.571092e-13
224	0x019baf05	5.718915e-38
225	0xbb405da9	-0.00293527
226	0x1f2622aa	3.518054e-20
227	0x800076ca	-4.2613e-41
228	0xba832d14	-0.0010007941
229	0x000463a0	4.03081e-40
230	0xbb393652	-0.0028261137
231	0xb3b34e6c	-8.349602e-08
232	0x9d9045a0	-3.8188473e-21
233	0xae68d79e	-5.29422e-11
234	0x0e8784f7	3.340811e-30
235	0xb813c838	-3.5234e-05
236	0x3a885aa2	0.0010402987
237	0xb8acbbc9	-8.236577e-05
238	0x2e8a4267	6.287309e-11
239	0x80000973	-3.39e-42
240	0xbad35e01	-0.0016126038
241	0x041b6dca	1.8270575e-36
242	0x8000e252	-8.1188e-41
243	0x3e9f424b	0.31105265
244	0xbd2fd403	-0.0429268
245	0x3b27e69b	0.002561963
246	0x3b9c7a69	0.0047753346
247	0x3dfc27a8	0.12312251
248	0x3db00411	0.085945256
249	0x3d0295af	0.03188103
250	0xbd3c8e0b	-0.0460339
251	0xba484f82	-0.0007641242
252	0x3930428f	0.00016809463
253	0x39f6e484	0.00047091034
254	0x37b79f7d	2.1889568e-05
255	0x37c54ef5	2.3520997e-05

e_conv2.depth_conv.bias f4 [32]
0	0x3dd6dccd	0.10491333
1	0xbe28cadc	-0.16483635
2	0x3cc5693e	0.024098035
3	0xbd52c691	-0.0514589
4	0xbe5c9998	-0.21542966
5	0x3e65ba5b	0.2243437
6	0x3c21cf74	0.009876121
7	0x3e281974	0.1641596
8	0x3e97843a	0.29593068
9	0xbe874ae9	-0.2642434
10	0x3bf05a5b	0.00733499
11	0xbdb11ef5	-0.08648483
12	0xbe7001f8	-0.23438251
13	0xbd5ecf91	-0.05439717
14	0x3e37acc3	0.17936997
15	0x3e6923fb	0.22767632
16	0x3e536794	0.2064498
17	0xbd4acacc	-0.04950981
18	0x360e19c8	2.1174656e-06
19	0x3e49033b	0.19630139
20	0x3e8ddbd6	0.27706784
21	0x3e52b708	0.20577633
22	0xbe001459	-0.12507762
23	0x3e78fa11	0.24314143
24	0xbdcc33fc	-0.09970853
25	0xbd2e9168	-0.04261914
26	0x3dd27537	0.10276263
27	0xbe7b5adb	-0.24546377
28	0xbdf8aed4	-0.12142721
29	0xbe3ea325	-0.18616922
30	0xbd9ebccd	-0.07750855
31	0x3e9c390d	0.30512276

e_conv2.point_conv.weight f4 [32, 32, 1, 1]
0	0xbcfb1ed8	-0.030654356
1	0xbd02c415	-0.03192528
2	0xbb66ef9a	-0.0035238029
3	0x3e088cf7	0.13335024
4	0x3c23efab	0.010005872
5	0xbd4e54ce	-0.050373845
6	0x3d39355f	0.045216914
7	0xbd056692	-0.03256852
8	0xbd834f9f	-0.06411671
9	0x3b5e0dbc	0.0033882698
10	0x3d606040	0.05477929
11	0x3dfaa9c7	0.12239414
12	0x3dfefccc	0.12450561
13	0x3c0bf8fa	0.008543247
14	0xbbd8fea3	-0.006622152
15	0xbdc4ce43	-0.09609654
16	0x3d313a90	0.04326874
17	0xbb3a05c8	-0.0028384794
18	0x383481a6	4.303609e-05
19	0xbd86fd40	-0.06591272
20	0x3e50cc55	0.20390446
21	0x3d3e6b5c	0.046489105
22	0x3d7fc6d6	0.062445484
23	0xbd95661c	-0.072948664
24	0xbc68fac1	-0.014219941
25	0x3bdc01f9	0.0067141023
26	0xbcaa7308	-0.020806804
27	0x3d30f4d1	0.043202225
28	0x3cdb62ea	0.026780564
29	0x3d06167a	0.03273628
30	0xbe1cc832	-0.15310743
31	0xbdb984fa	-0.090585664
32	0x3d8dbf82	0.06921293
33	0xbdf10a41	-0.11769534
34	0x3c8cfc20	0.017210066
35	0xbe5f5359	-0.21809138
36	0x3d3547fb	0.0442581
37	0x3e0d3ae7	0.13792
38	0x3cde3ffa	0.027130116
39	0x3c8b1d99	0.016981887
40	0x3dc46374	0.09589282
41	0xbdd1610f	-0.102235906
42	0x3e83f342	0.25771528
43	0xbd92b918	-0.0716421
44	0x3e326fb6	0.17425427
45	0x3d3ce059	0.046112392
46	0xbd081354	-0.033221558
47	0x3e26d72d	0.1629302
48	0x3d91a64a	0.07111795
49	0xbc72b149	-0.014812776
50	0x392573b5	0.0001577873
51	0xbcff0810	-0.031131774
52	0x3e0a4f25	0.13506754
53	0x3d5911e9	0.052995596
54	0x3d703a41	0.058649305
55	0x3e0d6a54	0.13810092
56	0xbbcf2f96	-0.0063228114
57	0xbcd63986	-0.026150476
58	0xbd7601ec	-0.060060427
59	0x3dacf46b	0.084450565
60	0xbe0f5812	-0.1399844
61	0xbccf6ea4	-0.025321312
62	0xbe62fd57	-0.22166954
63	0x3e1a7bc6	0.15086278
64	0x3b788fb3	0.0037927448
65	0x3b8a0f1d	0.0042132274
66	0xb8aba720	-8.185045e-05
67	0x3e8798ef	0.26483867
68	0x3cbca962	0.023029987
69	0x3d41a5e9	0.047277365
70	0x3c8a89ab	0.016911348
71	0xbcadf33c	-0.021234147
72	0xbd6e5ab6	-0.058191977
73	0xbd851b02	-0.06499292
74	0xbe0de602	-0.13857272
75	0x3c71d35c	0.014759865
76	0xbe6cdbcc	-0.23130721
77	0x3c8384e3	0.016054576
78	0xbd276fe7	-0.040878203
79	0x3d1bafd9	0.0380095
80	0x3dc33993	0.09532466
81	0xbc7badc9	-0.015361258
82	0xb72d783f	-1.03396005e-05
83	0x3cdcbc15	0.026945153
84	0xbdfadbac	-0.1224893
85	0x3c22c19c	0.009933855
86	0xbbce7f19	-0.0063017723
87	0x3dc0338a	0.0938483
88	0xbc013069	-0.007885077
89	0x3a93ff5a	0.0011291311
90	0x3cfb2783	0.03065849
91	0xbe151710	-0.14559579
92	0xbcbed613	-0.023295438
93	0xbd78f8ed	-0.06078427
94	0x3da9eb39	0.08296818
95	0xbd515ef9	-0.051115964
96	0x8000113c	-6.183e-42
97	0x8000b967	-6.651e-41
98	0x00016362	1.27487e-40
99	0x2e035e02	2.9869447e-11
100	0x000046d9	2.5415e-41
101	0x1d3717f6	2.4232236e-21
102	0x80008cad	-5.0465e-41
103	0x8001078f	-9.4547e-41
104	0xb2541ba3	-1.2346308e-08
105	0x00004345	2.4132e-41
106	0x897a28e2	-3.0111878e-33
107	0xa54394f4	-1.6964021e-16
108	0x2d30bab7	1.0045901e-11
109	0x12e05849	1.4158151e-27
110	0x0000ae81	6.26e-41
111	0xb08cbf66	-1.0240739e-09
112	0x8be18787	-8.6870766e-32
113	0x8000ab1e	-6.1385e-41
114	0xab6d9d1b	-8.441734e-13
115	0x00019441	1.45019e-40
116	0xb0034091	-4.7749277e-10
117	0x973e89e4	-6.1566354e-25
118	0x11809c0e	2.0291015e-28
119	0x0000ba2c	6.6786e-41
120	0x8000122e	-6.522e-42
121	0x00009711	5.4192e-41
122	0x8000a08e	-5.7596e-41
123	0x1d591b55	2.8733841e-21
124	0xa90b0d28	-3.087561e-14
125	0x03fc8549	1.484183e-36
126	0x0000181e	8.652e-42
127	0x800029fb	-1.506e-41
128	0x3c320e24	0.010867629
129	0x3ce74f5a	0.02823608
130	0x3bb3b39f	0.005484059
131	0xbde8c038	-0.11364788
132	0x3d4adff5	0.04952999
133	0x3df359ea	0.11882384
134	0xbe2bdba7	-0.1678301
135	0xbb4d8317	-0.0031358653
136	0xbd0ebdea	-0.034849085
137	0xbd170323	-0.036868226
138	0xbdf2362d	-0.118267395
139	0xbcdbbd1b	-0.026823571
140	0xbdbdb7fd	-0.092636086
141	0xbd92320e	-0.071384534
142	0x3c7e358d	0.015515697
143	0x3e2e1431	0.1699989
144	0xbc8d585a	-0.017254043
145	0xbc95bba4	-0.01827795
146	0x37da0aac	2.5992595e-05
147	0x3d4ab272	0.049486585
148	0xbb1e0d25	-0.0024116721
149	0xbcc42c7a	-0.02394699
150	0xbbb0e181	-0.005397976
151	0xbd1b18a7	-0.037865307
152	0xbce861a1	-0.028366866
153	0xbc2dd62d	-0.0106101455
154	0x3cca822d	0.024720276
155	0x3ca0dc39	0.01963626
156	0xbc71daff	-0.014761685
157	0xbd3c5809	-0.045982394
158	0x3d54ac5f	0.0519222
159	0xbd3e97f1	-0.04653162
160	0x3c6e1180	0.0145305395
161	0xbc88f16b	-0.01671668
162	0x3b61efb0	0.003447514
163	0xbe610428	-0.21974242
164	0xbca600d5	-0.020264069
165	0x3d04f004	0.03245546
166	0x3d2a305d	0.04155003
167	0x3c8e5159	0.017372774
168	0x3cb673b6	0.022271972
169	0xbcbc73c4	-0.02300442
170	0x3e14f906	0.1454812
171	0xbcf1e9a2	-0.02953035
172	0x3dee5a27	0.11638289
173	0xbcc7fa0e	-0.024411228
174	0x3c968b79	0.018377053
175	0x3c86fdad	0.016478384
176	0xbd0d0805	-0.034431476
177	0xbbe8e935	-0.0071078786
178	0xb554a997	-7.922294e-07
179	0x3c064108	0.008194216
180	0x3dacd655	0.08439318
181	0x3cbdafc1	0.023155095
182	0xbcc6269c	-0.024188332
183	0x3c5ac8f7	0.013353578
184	0xbc4b0ec5	-0.012393658
185	0xbbc44547	-0.005989704
186	0x3c56dba7	0.013113893
187	0x3d3ef9a9	0.046624813
188	0xbc582ef4	-0.013194788
189	0xbc99c03d	-0.018768424
190	0xba7fd2ce	-0.00097588904
191	0x3e0cfd06	0.13768396
192	0x3c05d734	0.008168984
193	0x3cc4a419	0.02400403
194	0x3bbcfe77	0.0057676393
195	0x3e747949	0.23874392
196	0xbd00fe6b	-0.031492632
197	0xbe384708	-0.17995846
198	0x3e15daea	0.1463429
199	0x3c9ab5bc	0.018885486
200	0x3b9a23cf	0.0047039757
201	0xbd558351	-0.052127186
202	0x3ec2e6d8	0.38066745
203	0x3e757781	0.23971368
204	0x3e22d72f	0.15902399
205	0x3e90b9f4	0.2826687
206	0x3cc2a703	0.023761278
207	0xbdad2673	-0.08454599
208	0x3e01504b	0.12628286
209	0xbbc96a5b	-0.0061467118
210	0xb71e9410	-9.452007e-06
211	0x3d32ffcb	0.043700974
212	0xbd4d32f9	-0.05009744
213	0x3d11de9e	0.035612695
214	0x3d385e4d	0.045011807
215	0x3ca6efb6	0.020377975
216	0x3a0982e0	0.0005245637
217	0xbbd4a6c6	-0.0064896075
218	0x3cbecdff	0.023291586
219	0x3d2ad8db	0.041710716
220	0xbc1f4e6e	-0.009723289
221	0x3ca30165	0.019898126
222	0xbe327cbd	-0.17430396
223	0x3e48af0f	0.1959803
224	0x3054a368	7.7357365e-10
225	0x313bee56	2.734756e-09
226	0xafc4bb61	-3.5785333e-10
227	0x2dd65c9f	2.4370115e-11
228	0x2fffcc14	4.6529236e-10
229	0xb17c9be5	-3.6759442e-09
230	0x3137a043	2.6721103e-09
231	0xafd130c2	-3.8051523e-10
232	0xb1a9109e	-4.9204365e-09
233	0x30b2801a	1.2987613e-09
234	0xb20b830c	-8.1206615e-09
235	0x30df2696	1.6236352e-09
236	0x3151667b	3.0471756e-09
237	0x2e0ec7d0	3.246453e-11
238	0xb14ce510	-2.9816114e-09
239	0x31206355	2.3339528e-09
240	0xb0930852	-1.0698022e-09
241	0x302bdf86	6.2527084e-10
242	0x2a73a4ab	2.1639866e-13
243	0xb159446f	-3.1616556e-09
244	0x2eb2fcb6	8.139393e-11
245	0x313195ba	2.5842e-09
246	0xb0b9a94e	-1.3508641e-09
247	0x31510c5a	3.0420524e-09
248	0x3186dc14	3.9249333e-09
249	0x30009166	4.677275e-10
250	0xb2280ab8	-9.781324e-09
251	0xafeb43ee	-4.2794518e-10
252	0x30ec61ee	1.7199093e-09
253	0x315b18aa	3.1882714e-09
254	0x3209fe57	8.03228e-09
255	0x2f95ed46	2.7271535e-10

e_conv2.point_conv.bias f4 [32]
0	0x3dd31e7e	0.1030855
1	0x3d614f04	0.055006996
2	0x3dd32763	0.10310247
3	0xa2c589f7	-5.3543033e-18
4	0x3e216a76	0.15763268
5	0x3d8a86e5	0.0676401
6	0xbbaba530	-0.0052381977
7	0xb1e90119	-6.7813173e-09
8	0x3d38ba9f	0.04509985
9	0x3e02b6f6	0.12765107
10	0xbac6f373	-0.0015178755
11	0xbd253803	-0.04033662
12	0x3c1683f7	0.009186736
13	0x3e47fa86	0.19529161
14	0x3d8e796b	0.069567524
15	0x00001b9c	9.904e-42
16	0xae3e30c6	-4.3244318e-11
17	0x3cd58603	0.026064878
18	0x3d0b47b3	0.034003925
19	0x00003071	1.7378e-41
20	0xbda5d22b	-0.08096727
21	0xbc242021	-0.010017426
22	0x3ce6599d	0.028118903
23	0xbc601d25	-0.013678824
24	0x3d44a1a3	0.04800571
25	0xbc3fd258	-0.011707865
26	0x3d451f6b	0.048125666
27	0xbde1097f	-0.10988139
28	0x000001d5	6.57e-43
29	0x3d344bdb	0.044017654
30	0x3d53ed39	0.051739905
31	0x3dd24fad	0.10269103

e_conv3.depth_conv.weight f4 [32, 1, 3, 3]
0	0x2c89b252	3.9135717e-12
1	0x391778c0	0.00014445465
2	0x37b4d21c	2.1555512e-05
3	0x3af26768	0.0018493952
4	0x2d51946a	1.1913229e-11
5	0x3910c9b4	0.0001380805
6	0x2fdd0541	4.02034e-10
7	0x2f9a6935	2.808719e-10
8	0x2f35fcec	1.655171e-10
9	0xb80d7a54	-3.3730947e-05
10	0xb655903f	-3.1823436e-06
11	0x3030af8b	6.427789e-10
12	0x2f860b7d	2.438262e-10
13	0x2f56bde9	1.9530656e-10
14	0x3aa93a2b	0.0012911012
15	0x2f27d616	1.526462e-10
16	0x30d4166a	1.5431401e-09
17	0xb5bfcd4d	-1.4290359e-06
18	0xb95488a4	-0.00020268798
19	0x3421dc05	1.5074336e-07
20	0x2ec982bc	9.163645e-11
21	0xadfcfab9	-2.8760426e-11
22	0x2f3d4034	1.721226e-10
23	0x2f1a4a7d	1.4032682e-10
24	0xbb43abb0	-0.0029856972
25	0xb980bf65	-0.00024556663
26	0x3889900e	6.559501e-05
27	0xa3c414b2	-2.1259127e-17
28	0x3626fba6	2.4882406e-06
29	0x377264dd	1.4447808e-05
30	0x3a22e669	0.00062141434
31	0x3a6f8566	0.00091370044
32	0x3b4cc509	0.0031245372
33	0x352f212f	6.524087e-07
34	0x2c85619f	3.7909255e-12
35	0xbb481dae	-0.0030535269
36	0x2ca8fa4a	4.802635e-12
37	0x38184b05	3.630949e-05
38	0x2f338d85	1.6330233e-10
39	0xbb089f1e	-0.0020846794
40	0x2e9acf43	7.039926e-11
41	0x3b1dc9e7	0.0024076642
42	0x358d5721	1.0530676e-06
43	0x2cd5094a	6.0548554e-12
44	0x2ecc1079	9.279772e-11
45	0xae0ec53d	-3.2462245e-11
46	0xad1d07a3	-8.9261125e-12
47	0xb143dba8	-2.8501095e-09
48	0xba7aa13c	-0.0009560769
49	0xadf837d2	-2.8219125e-11
50	0xae9d0a3d	-7.141352e-11
51	0x3b21f1e7	0.0024710835
52	0xad1c3acc	-8.880629e-12
53	0xaf819a67	-2.3574673e-10
54	0xaf59a231	-1.9793657e-10
55	0xadca26fa	-2.298205e-11
56	0xafa2d63b	-2.9619848e-10
57	0xbb03ad91	-0.0020092467
58	0xb3add36b	-8.094397e-08
59	0xae8fe785	-6.544013e-11
60	0x34fe74a4	4.7396054e-07
61	0xaf1d9fd3	-1.4335848e-10
62	0xb2a67ad9	-1.9380808e-08
63	0x8f342f96	-8.88385e-30
64	0xb7e1b5b0	-2.6906695e-05
65	0x326aeecf	1.3674891e-08
66	0x3a9c9dcf	0.0011948886
67	0x37729aaf	1.4460339e-05
68	0x39b3768e	0.0003422987
69	0x80008bee	-5.0197e-41
70	0x979317ae	-9.50563e-25
71	0x36a610fa	4.949162e-06
72	0x2fcc8968	3.7205017e-10
73	0x3b568c81	0.0032737555
74	0x309f0c88	1.1572334e-09
75	0xb7b1fa1d	-2.1216512e-05
76	0x3a05a62b	0.00050983083
77	0x3005cd4b	4.8676857e-10
78	0xb322bc74	-3.788996e-08
79	0x30209acc	5.842764e-10
80	0x3055d91d	7.7797485e-10
81	0xb39c5019	-7.278886e-08
82	0xbaa49357	-0.0012556118
83	0x3b4376bf	0.0029825417
84	0x2e1dcd97	3.5880268e-11
85	0x31528f38	3.0640432e-09
86	0x39de47a2	0.0004239651
87	0x3582856d	9.724587e-07
88	0x3a11e32a	0.0005565161
89	0x3a2080a5	0.0006122685
90	0x310dd1d9	2.0637485e-09
91	0xab13e6ca	-5.2545175e-13
92	0xaa10366e	-1.2808653e-13
93	0x3a965c8b	0.0011471672
94	0x2ba55320	1.1747027e-12
95	0xb5861a72	-9.991475e-07
96	0xb9c47329	-0.00037469834
97	0x2ad02d70	3.697975e-13
98	0xba93fe32	-0.0011290966
99	0x264c4a2b	7.0877234e-16
100	0xa87d878f	-1.4073716e-14
101	0x2e7d9c66	5.766445e-11
102	0xa7010fdc	-1.7910944e-15
103	0x2801748f	7.186213e-15
104	0x33754e53	5.7114743e-08
105	0x27d16b51	5.8125506e-15
106	0x2886f7be	1.498443e-14
107	0x38ce6275	9.8411845e-05
108	0x2e59e2bd	4.954147e-11
109	0xafa110b3	-2.9297595e-10
110	0xb02f5652	-6.37873e-10
111	0xb91098a2	-0.0001378977
112	0xaf425d56	-1.7677357e-10
113	0xbb533b91	-0.003223155
114	0x2f84c1d0	2.4148372e-10
115	0xaf8b077c	-2.528927e-10
116	0x33e3d14d	1.0608583e-07
117	0x32c9858d	2.3460212e-08
118	0x32d02414	2.4230793e-08
119	0x38b28a96	8.513515e-05
120	0x3917cacc	0.0001447603
121	0x320dac9c	8.246527e-09
122	0x3249202a	1.1707053e-08
123	0x329522f3	1.7361776e-08
124	0xb3500728	-4.8435282e-08
125	0x32cb6c16	2.3681462e-08
126	0x2fb09c15	3.2125116e-10
127	0xb95ee06c	-0.00021255173
128	0xb68072df	-3.82807e-06
129	0x3ab6314c	0.001390019
130	0x33355151	4.2216303e-08
131	0x328773e2	1.5768766e-08
132	0xaf32451e	-1.6213561e-10
133	0xaea648a3	-7.561709e-11
134	0xb8cafbad	-9.678989e-05
135	0x3989cd68	0.00026283716
136	0x00000a86	3.775e-42
137	0x38595f0d	5.1825355e-05
138	0xac7083b9	-3.4179172e-12
139	0xa6aab73d	-1.1845786e-15
140	0xb98d3a1e	-0.00026936916
141	0x8001a069	-1.4938e-40
142	0xbacef5bb	-0.0015789786
143	0x3a8e3363	0.0010849055
144	0xb443855b	-1.8209305e-07
145	0xbb63a4f2	-0.0034735766
146	0x3a84f189	0.0010142784
147	0xb18ea15a	-4.1510875e-09
148	0x33972dbb	7.039804e-08
149	0x3ab7cc78	0.0014022728
150	0xb2bb0652	-2.177254e-08
151	0xb946e2a6	-0.00018967185
152	0xb7794a56	-1.4858864e-05
153	0xb0a2bde1	-1.1841018e-09
154	0xad8304a0	-1.489503e-11
155	0xadaabdf1	-1.9411113e-11
156	0xb3463b41	-4.615436e-08
157	0xb96ee1b1	-0.00022781525
158	0xb089db55	-1.00304e-09
159	0xac7003aa	-3.4108085e-12
160	0xad16030c	-8.527189e-12
161	0xba617b26	-0.00086014194
162	0x37f8c98f	2.9657762e-05
163	0x2fdec6fc	4.0522952e-10
164	0x302daa5e	6.317914e-10
165	0x2e31ae72	4.040008e-11
166	0x3ab6d75c	0.001394968
167	0x302dcdcb	6.322948e-10
168	0xaedea74f	-1.0125111e-10
169	0xb58bdfde	-1.0421461e-06
170	0x2fd384f8	3.8475156e-10
171	0x8000992f	-5.4952e-41
172	0xa8351beb	-1.0053572e-14
173	0x0a18f88e	7.365282e-33
174	0x000099f0	5.5222e-41
175	0x0000814b	4.6382e-41
176	0xbb1385b4	-0.0022510113
177	0x800016b2	-8.142e-42
178	0x2cc55c2e	5.6093108e-12
179	0xb52a6b3a	-6.348597e-07
180	0xb64b8768	-3.0328174e-06
181	0x2e95bb34	6.8089895e-11
182	0x2e06868e	3.058758e-11
183	0xb0839a6a	-9.575392e-10
184	0xae87220c	-6.145137e-11
185	0xb8523022	-5.011273e-05
186	0x38635c07	5.4206725e-05
187	0xbb5b2ef6	-0.003344474
188	0x368bc9e8	4.166028e-06
189	0xb70c133c	-8.349129e-06
190	0x36c69a8e	5.9188524e-06
191	0x2ae0c503	3.9927098e-13
192	0x2f6233ff	2.0573053e-10
193	0x319e6774	4.6101665e-09
194	0x2b22401f	5.764295e-13
195	0x30a49267	1.197418e-09
196	0x37889eb2	1.6286362e-05
197	0x2b683d9a	8.2508447e-13
198	0xafaf5cc4	-3.1898229e-10
199	0xb98daf3b	-0.00027024173
200	0x307c592f	9.1803803e-10
201	0x383fa033	4.5687146e-05
202	0x3113b80f	2.149594e-09
203	0xba39fef8	-0.0007095183
204	0x3114205f	2.1555235e-09
205	0x3aa85a8d	0.0012844369
206	0xb87f99bb	-6.093991e-05
207	0xba17ca39	-0.00057903264
208	0xb76dc3f2	-1.4171923e-05
209	0x35f85dd2	1.8504745e-06
210	0x3b4961f2	0.0030728546
211	0xb4241c1c	-1.5283916e-07
212	0x39c9d027	0.00038492793
213	0x2ee53339	1.0422813e-10
214	0x320801b8	7.916633e-09
215	0xae66942b	-5.2427545e-11
216	0xb39a9c1f	-7.199582e-08
217	0xba27ac26	-0.00063961965
218	0x3aa4be18	0.0012568859
219	0xae11ef43	-3.318169e-11
220	0xba354403	-0.00069147366
221	0xad6297f7	-1.2880356e-11
222	0xb318ff5f	-3.5622516e-08
223	0x32bc3458	2.1909884e-08
224	0xb690382e	-4.2980746e-06
225	0xb41050ed	-1.3440486e-07
226	0x35254d7f	6.158006e-07
227	0xb8162dcb	-3.5805435e-05
228	0x2d06fbd5	7.672936e-12
229	0x2d8c1fcd	1.593028e-11
230	0x3a5b93a0	0.0008376185
231	0x2cc4a193	5.5885934e-12
232	0xb67a66b7	-3.731269e-06
233	0x2dc55566	2.2434232e-11
234	0xadf25053	-2.7547886e-11
235	0xad9e8eb1	-1.8025888e-11
236	0xae04d0e5	-3.019886e-11
237	0xad0c296b	-7.967275e-12
238	0xad1c1b5d	-8.873649e-12
239	0x315c0229	3.2015441e-09
240	0xb7993b47	-1.8266624e-05
241	0x2fa0dffe	2.9262986e-10
242	0xbad73057	-0.0016417605
243	0xb995f06f	-0.00028598632
244	0x2f05be9d	1.2163999e-10
245	0x2f78559a	2.258588e-10
246	0xb96e789b	-0.00022742378
247	0xb7e8d9f0	-2.775804e-05
248	0x3b157d4e	0.0022810283
249	0xb03754c1	-6.6695455e-10
250	0xafab2398	-3.113001e-10
251	0xbaed099c	-0.0018084529
252	0x3af6fe10	0.0018844027
253	0x8000c536	-7.0746e-41
254	0xb7e63beb	-2.7446038e-05
255	0xb7dea3b7	-2.6540698e-05

e_conv3.depth_conv.bias f4 [32]
0	0x2fe841b6	4.2247245e-10
1	0x3777e550	1.4775738e-05
2	0x3065b908	8.357266e-10
3	0xb4c5859c	-3.6791323e-07
4	0xb8a23e6a	-7.7363875e-05
5	0x2f324530	1.6213586e-10
6	0x3785e965	1.5963518e-05
7	0x31bba9cc	5.46172e-09
8	0x306d423b	8.6314217e-10
9	0x2f72b9fc	2.2075847e-10
10	0xad457329	-1.1223724e-11
11	0xab7b4028	-8.926215e-13
12	0x30144190	5.3935256e-10
13	0x32b3c7d4	2.0929214e-08
14	0xba653ffb	-0.00087451906
15	0x1db6ec60	4.8419405e-21
16	0xa480c80f	-5.5850064e-17
17	0xad7401e0	-1.38702105e-11
18	0xb0227635	-5.910324e-10
19	0x3367c351	5.3961518e-08
20	0xb048ab96	-7.3003414e-10
21	0x2bb2358a	1.2662521e-12
22	0x3b241ce0	0.0025041625
23	0xbafaafa7	-0.0019125835
24	0xbae33d19	-0.0017336934
25	0xaec52361	-8.9648074e-11
26	0x38564d56	5.10936e-05
27	0xb10ab5d0	-2.0184991e-09
28	0xb27fbc49	-1.4885765e-08
29	0xb259b903	-1.2673129e-08
30	0x38ca5c41	9.649294e-05
31	0x37c62d60	2.3624569e-05

e_conv3.point_conv.weight f4 [32, 32, 1, 1]
0	0xadd483e1	-2.4160176e-11
1	0xae8c0492	-6.367275e-11
2	0xad523a83	-1.195011e-11
3	0xa824f679	-9.157274e-15
4	0xac3208f3	-2.530029e-12
5	0xad6d1296	-1.3476017e-11
6	0x2e10e982	3.2949206e-11
7	0xa6fde0c6	-1.7616327e-15
8	0x2bccb960	1.4546524e-12
9	0xaf45ffc5	-1.8007913e-10
10	0xab3add44	-6.638754e-13
11	0xa855aad0	-1.1860914e-14
12	0x2f99bd33	2.7964972e-10
13	0x2d9e89e9	1.8023765e-11
14	0x2dd9f959	2.4780776e-11
15	0x93bf9fd3	-4.8372777e-27
16	0x1897e665	3.9265224e-24
17	0x2b0a9f0e	4.924818e-13
18	0xaec93520	-9.1498586e-11
19	0xac1d75b8	-2.237639e-12
20	0x2f308c3a	1.6056925e-10
21	0x2c00336b	1.8218437e-12
22	0x30d0c961	1.5191227e-09
23	0x2fbd29bc	3.4408554e-10
24	0xaf6b6a2e	-2.1410848e-10
25	0x2bb63f82	1.2949505e-12
26	0x2ae4e873	4.066223e-13
27	0x2a74dd20	2.1748272e-13
28	0xa5c9cd3a	-3.500701e-16
29	0xacaec554	-4.9672853e-12
30	0xafcef052	-3.764194e-10
31	0x2f1ada8a	1.4083859e-10
32	0x95510fe6	-4.2219756e-26
33	0xac3710ed	-2.601526e-12
34	0xb24d3ce5	-1.1946416e-08
35	0xb0b214ad	-1.2957081e-09
36	0x8c6f9579	-1.845687e-31
37	0x8001a654	-1.51503e-40
38	0xb1a2bedc	-4.7365187e-09
39	0x2d2c966c	9.810468e-12
40	0xa5952dad	-2.587833e-16
41	0xaebe7b81	-8.6621384e-11
42	0x01760709	4.5188112e-38
43	0xa21749ce	-2.0503388e-18
44	0x2fcf9010	3.7755443e-10
45	0x82aa1146	-2.498917e-37
46	0x82532c3f	-1.551453e-37
47	0x1ad655cd	8.8646944e-23
48	0x00009a9b	5.5462e-41
49	0xa30ad572	-7.526194e-18
50	0x28f6dfae	2.7408492e-14
51	0x00668057	9.41326e-39
52	0x03b96924	1.0897462e-36
53	0xaeaaf0fd	-7.773513e-11
54	0x0147601b	3.661948e-38
55	0x2285613c	3.6152673e-18
56	0x8a1cc984	-7.549028e-33
57	0x0925cfdd	1.995889e-33
58	0x2c596c83	3.089779e-12
59	0x864e2136	-3.8768693e-35
60	0xafbc730e	-3.4278752e-10
61	0x80c227de	-1.7830388e-38
62	0x9111c4fd	-1.1499185e-28
63	0x823c3a21	-1.3828741e-37
64	0x31f1eb67	7.0407853e-09
65	0xb2bf0af0	-2.22403e-08
66	0x3327734b	3.8987576e-08
67	0xad8d4465	-1.6060217e-11
68	0x3225ff29	9.662281e-09
69	0x31c7a309	5.810197e-09
70	0x3270f291	1.4024992e-08
71	0x2a62788e	2.0114658e-13
72	0xb2ef12fa	-2.7831891e-08
73	0xb2bbc493	-2.1859057e-08
74	0x2fb58462	3.3017772e-10
75	0xaa178136	-1.3456323e-13
76	0x326f564d	1.39312535e-08
77	0x30b68723	1.3280651e-09
78	0x3320d44e	3.7445993e-08
79	0xa4e03c8c	-9.7247085e-17
80	0x9d2f4635	-2.3197353e-21
81	0xb09e5b41	-1.1521949e-09
82	0xb258b141	-1.2613158e-08
83	0xaabcc25a	-3.3530367e-13
84	0x332929b3	3.9386304e-08
85	0xb081d621	-9.446844e-10
86	0xb3eba649	-1.0973287e-07
87	0x33951e78	6.9438954e-08
88	0x338bbd6c	6.5071475e-08
89	0xb0ab769e	-1.24756e-09
90	0xb20971ae	-8.000297e-09
91	0x30aab7d2	1.2421373e-09
92	0xb1d09aae	-6.071182e-09
93	0xb1931076	-4.2801345e-09
94	0x335b7d05	5.1103616e-08
95	0xb32ccd01	-4.023332e-08
96	0xabf094ed	-1.7094361e-12
97	0xab9933cd	-1.0885681e-12
98	0x2e3fe3ee	4.3630814e-11
99	0x26d1bbcb	1.455319e-15
100	0x29a32bea	7.246272e-14
101	0xab0df96f	-5.043942e-13
102	0x2b9a76e9	1.0975362e-12
103	0xb137ac48	-2.6727935e-09
104	0xacfb9802	-7.1507253e-12
105	0xabd4cbad	-1.5120037e-12
106	0x2e234793	3.712548e-11
107	0x27c69ebf	5.5128153e-15
108	0x2c90d0b8	4.1158986e-12
109	0xab21968d	-5.740762e-13
110	0x2c662730	3.270672e-12
111	0x973c3a2f	-6.0819514e-25
112	0x16951bb8	2.4089741e-25
113	0xad07e152	-7.723893e-12
114	0xac415770	-2.7475487e-12
115	0xafb024cd	-3.2040362e-10
116	0x2d20fb98	9.150812e-12
117	0xa94a9fe2	-4.4991686e-14
118	0xad52f550	-1.1991588e-11
119	0x2cde1fa9	6.3131345e-12
120	0x2ce0c4c3	6.388308e-12
121	0xaacede10	-3.6747038e-13
122	0x2b8a5f32	9.831912e-13
123	0x2cdfbe46	6.359166e-12
124	0x248604c5	5.8121316e-17
125	0xaa60a90c	-1.9953847e-13
126	0xb042a623	-7.0812883e-10
127	0x2c609d40	3.1919606e-12
128	0x30bb4eb4	1.362841e-09
129	0x2faa89d5	3.1020755e-10
130	0x3200b3ed	7.491491e-09
131	0x259f55e2	2.76403e-16
132	0xa4ceb0ed	-8.963798e-17
133	0x25aef5f3	3.035085e-16
134	0xa898e4e8	-1.6974662e-14
135	0xa01e97ce	-1.3433349e-19
136	0x292a4ecb	3.7815925e-14
137	0x29505b87	4.6264665e-14
138	0xaf25bac9	-1.5073022e-10
139	0x1f7f96d8	5.4123125e-20
140	0x2aa460d6	2.9199446e-13
141	0xa9b9abff	-8.245487e-14
142	0x2b35bcdb	6.4566207e-13
143	0xab4325f9	-6.9330614e-13
144	0x944d8e9d	-1.03779806e-26
145	0xa43f4d6b	-4.14821e-17
146	0xa8620f50	-1.25488405e-14
147	0x2c3c2b45	2.6740426e-12
148	0x28025955	7.2358205e-15
149	0x9d44d92c	-2.605266e-21
150	0xaa188093	-1.354492e-13
151	0xb3626240	-5.2709083e-08
152	0x2fe7e8e3	4.218413e-10
153	0x241dfb76	3.4256944e-17
154	0xa89d6b8c	-1.7477143e-14
155	0xa8ac611d	-1.9137952e-14
156	0xa229445f	-2.2939966e-18
157	0x26d071bc	1.4463727e-15
158	0x298ab119	6.1591526e-14
159	0x2b1ed9de	5.643523e-13
160	0x34c55d24	3.6761878e-07
161	0x349c03a4	2.9059913e-07
162	0x35114938	5.4123257e-07
163	0xb01bba45	-5.6653376e-10
164	0x344c504a	1.902819e-07
165	0x34a5400a	3.078024e-07
166	0xb5069ec3	-5.014992e-07
167	0x2cc73c48	5.6626127e-12
168	0x35b8a984	1.3758404e-06
169	0x352fdd90	6.5514996e-07
170	0xb2dc7925	-2.5666461e-08
171	0xb0170c83	-5.495126e-10
172	0xb57bdf72	-9.382994e-07
173	0x36ad7420	5.1693205e-06
174	0xb5379d87	-6.8402045e-07
175	0x18dd6170	5.7225548e-24
176	0xa00755e2	-1.1463361e-19
177	0x329ea071	1.8466581e-08
178	0x34a3cd26	3.051038e-07
179	0x3283da59	1.53497e-08
180	0xb5a62801	-1.2379606e-06
181	0x30bb5c92	1.3632351e-09
182	0x374d1ffa	1.2226397e-05
183	0xb62792a0	-2.4970286e-06
184	0xb5f32e73	-1.8118429e-06
185	0x32a1eb07	1.8849745e-08
186	0x32d0b185	2.4295113e-08
187	0xb55590ca	-7.955938e-07
188	0xadcd51a5	-2.334206e-11
189	0x33abd76b	8.001992e-08
190	0x35538377	7.879493e-07
191	0xb7ea44ae	-2.7926955e-05
192	0x80007e09	-4.5213e-41
193	0x983a9fde	-2.4120649e-24
194	0x26464f60	6.8802623e-16
195	0x00000694	2.36e-42
196	0x0d548480	6.5487035e-31
197	0x2a219f22	1.4354883e-13
198	0x80004da2	-2.785e-41
199	0x2fb05068	3.2071346e-10
200	0xa99c412e	-6.9390985e-14
201	0xa532f52c	-1.5522106e-16
202	0x800061b7	-3.5053e-41
203	0xafbabd96	-3.3967912e-10
204	0x199ad05a	1.600738e-23
205	0xaa1bb077	-1.3827989e-13
206	0x9632e440	-1.4450748e-25
207	0x305d09ce	8.0413265e-10
208	0x8000dbde	-7.8873e-41
209	0x9cd2f835	-1.3960794e-21
210	0xafe82b23	-4.2231205e-10
211	0x9abf70a7	-7.917775e-23
212	0x80008a12	-4.953e-41
213	0x0000bc67	6.7586e-41
214	0xb0a1fafc	-1.1785626e-09
215	0x8188d393	-5.0262104e-38
216	0x2eb929f4	8.4202784e-11
217	0x08866443	8.088403e-34
218	0x1fd86f8d	9.1664104e-20
219	0x0000b6ef	6.5624e-41
220	0x00009e1d	5.672e-41
221	0x31d82d9e	6.2916135e-09
222	0x2c2587bf	2.3523264e-12
223	0x0000274e	1.41e-41
224	0x00003ae9	2.1133e-41
225	0x8415a52d	-1.759071e-36
226	0x8000c407	-7.0321e-41
227	0x80007343	-4.1348e-41
228	0x268a3836	9.59091e-16
229	0x00004b73	2.7066e-41
230	0x8000ff84	-9.1662e-41
231	0x1f75f16d	5.208047e-20
232	0x99933ceb	-1.5224048e-23
233	0x80010fd2	-9.7511e-41
234	0x22dd1b79	5.9931258e-18
235	0x3009d40c	5.0141646e-10
236	0xac967420	-4.276149e-12
237	0x30347696	6.565214e-10
238	0x314d251a	2.9852516e-09
239	0xafee1c3e	-4.3312015e-10
240	0x98580e7a	-2.7924654e-24
241	0x2822f187	9.045179e-15
242	0x000094af	5.3338e-41
243	0xb05f0c4f	-8.114442e-10
244	0x8000352f	-1.9079e-41
245	0x307632be	8.956639e-10
246	0x80009332	-5.2804e-41
247	0x80003959	-2.0572e-41
248	0x31bc6f8d	5.484202e-09
249	0x80092a8d	-8.41784e-40
250	0x2370e745	1.3059399e-17
251	0x230bf5e1	7.587272e-18
252	0x97f78dea	-1.5997825e-24
253	0x800002cf	-1.008e-42
254	0x17e276ff	1.4634947e-24
255	0x80004f90	-2.8542e-41

e_conv3.point_conv.bias f4 [32]
0	0xb4086e95	-1.2706217e-07
1	0xaf008623	-1.1689187e-10
2	0xb7d8fff6	-2.5868398e-05
3	0x360a9df1	2.0655536e-06
4	0xafec6270	-4.2998094e-10
5	0x3b905e8e	0.004405803
6	0x0b2d3e20	3.3365326e-32
7	0x8000491e	-2.623e-41
8	0xb1aa944a	-4.9645097e-09
9	0x39eea87a	0.00045520422
10	0x39a96a8f	0.00032313584
11	0xad272cdf	-9.502814e-12
12	0x39cb3f82	0.00038766494
13	0x91852884	-2.100867e-28
14	0xb6edb41d	-7.0841184e-06
15	0xb18ee0f4	-4.158318e-09
16	0xa756ac7f	-2.9791976e-15
17	0xac918e90	-4.1369755e-12
18	0x0000eeee	8.5712e-41
19	0xac11d900	-2.0726199e-12
20	0x3c5b8a58	0.013399683
21	0xaeb30c22	-8.142133e-11
22	0xae9c1d91	-7.099311e-11
23	0x37de0096	2.6464735e-05
24	0xb7784305	-1.4797556e-05
25	0x0000be4f	6.827e-41
26	0xae94221b	-6.736319e-11
27	0x363f4797	2.8502889e-06
28	0xaf9f1bfb	-2.8941813e-10
29	0x367e530e	3.7897294e-06
30	0xb50368c7	-4.8953774e-07
31	0x80008cbc	-5.0486e-41

e_conv4.depth_conv.weight f4 [32, 1, 3, 3]
0	0x3a22cc95	0.00062102947
1	0x9f9b77b4	-6.5843086e-20
2	0x3a442475	0.0007482239
3	0xb0a30e97	-1.1863958e-09
4	0x3ab5b274	0.0013862387
5	0x2005c66e	1.1331193e-19
6	0xb6894bd0	-4.091744e-06
7	0xb56b2711	-8.760117e-07
8	0xa099d841	-2.6062313e-19
9	0xa2f58ed1	-6.6558596e-18
10	0x95222e7a	-3.2752303e-26
11	0x2b556b9c	7.582214e-13
12	0x8000558f	-3.0693e-41
13	0x000043fd	2.439e-41
14	0x342663d2	1.5496269e-07
15	0x3992bb8a	0.00027987018
16	0x1579d507	5.04532e-26
17	0x0000f7a6	8.884e-41
18	0x38f74e4d	0.000117924625
19	0x3861ecc8	5.38647e-05
20	0xafba46d4	-3.388353e-10
21	0xadd9e26f	-2.47706e-11
22	0xafdeec14	-4.0549308e-10
23	0x3a07c3be	0.0005179009
24	0x2c3b8a5b	2.66511e-12
25	0xacced041	-5.877993e-12
26	0xbb02d081	-0.0019960704
27	0x361b1515	2.3109071e-06
28	0xb543f50c	-7.299975e-07
29	0xba056781	-0.00050889706
30	0x9ea4955d	-1.742595e-20
31	0x36fabb95	7.472418e-06
32	0xb6041efb	-1.9687566e-06
33	0xaac3824f	-3.4729378e-13
34	0x9eb432f7	-1.907932e-20
35	0xb7fffdf3	-3.0516623e-05
36	0x36d222c3	6.2625345e-06
37	0x114814b1	1.5783594e-28
38	0xa020f9d1	-1.3635184e-19
39	0x9213a86d	-4.659262e-28
40	0x36398035	2.7641775e-06
41	0x37f14b04	2.876437e-05
42	0x127742b8	7.8021695e-28
43	0x3a5bf1cb	0.0008390217
44	0x908f8151	-5.66028e-29
45	0x37d38b59	2.5218049e-05
46	0xb052e862	-7.672779e-10
47	0xb5a049e5	-1.1942435e-06
48	0xb034b3f4	-6.573935e-10
49	0xb00cd496	-5.1233806e-10
50	0xb050a72c	-7.5907525e-10
51	0xb061d429	-8.215602e-10
52	0xb014b3b9	-5.409749e-10
53	0xb03ccdce	-6.868647e-10
54	0x39e393a5	0.00043406818
55	0x00002a9d	1.5287e-41
56	0x39a417cc	0.00031298248
57	0x05844b32	1.2440843e-35
58	0xa82f2b34	-9.72382e-15
59	0x3b5d2736	0.0033745295
60	0x800010e3	-6.058e-42
61	0xb08de31d	-1.032365e-09
62	0x8000420f	-2.3697e-41
63	0xac6c76ef	-3.3603639e-12
64	0x2587775c	2.3499648e-16
65	0x000035af	1.9258e-41
66	0xbb173ea5	-0.002307811
67	0x3698fe2f	4.559544e-06
68	0x1f23e2b4	3.4704117e-20
69	0xb5c9f2d5	-1.504634e-06
70	0xb4776bef	-2.3042934e-07
71	0x00005690	3.1053e-41
72	0x90e3043d	-8.954224e-29
73	0x926df583	-7.508663e-28
74	0x2aa71a78	2.9683526e-13
75	0x3b12a1bc	0.0022374233
76	0x10a4c14d	6.498442e-29
77	0x25abbe79	2.979284e-16
78	0xb040604e	-6.998605e-10
79	0x2a0b55f3	1.23755e-13
80	0xbadcc10b	-0.0016842199
81	0xb6786acf	-3.701705e-06
82	0xb6ce9363	-6.1564365e-06
83	0xb78a7188	-1.6503749e-05
84	0xa985e34e	-5.9458176e-14
85	0xbb2bc605	-0.0026210558
86	0x39def04b	0.00042522172
87	0x37a7d396	2.0006479e-05
88	0x289fead8	1.7754393e-14
89	0xa638096d	-6.38506e-16
90	0xbb011128	-0.0019694064
91	0xae70de1a	-5.4766948e-11
92	0xb09aa337	-1.1251363e-09
93	0xae43699e	-4.4431674e-11
94	0xae463ad9	-4.5072255e-11
95	0xb1b86c26	-5.3674e-09
96	0xae5b8983	-4.991697e-11
97	0x37c1a68c	2.3084947e-05
98	0x39f19285	0.00046076268
99	0x270ac985	1.9260591e-15
100	0xbb49d2a8	-0.0030795727
101	0x2fda68e6	3.9728504e-10
102	0x0e18a043	1.881261e-30
103	0x0da85782	1.0374866e-30
104	0x36c7b1bc	5.951353e-06
105	0x8da8f142	-1.041188e-30
106	0xb418dff9	-1.4237584e-07
107	0x31d1a683	6.1016308e-09
108	0xa5b213e4	-3.0891556e-16
109	0xba36e495	-0.00069768104
110	0x34684f4c	2.1635532e-07
111	0x392b16ba	0.00016316297
112	0xbaed6c2b	-0.0018113902
113	0xb3521d2c	-4.8920967e-08
114	0x399aef3f	0.0002955142
115	0xa5bc48af	-3.2662054e-16
116	0xb905cd35	-0.00012760314
117	0x3a00ca23	0.0004912933
118	0x222375d3	2.2152995e-18
119	0xb947016b	-0.00018978647
120	0x3acda748	0.0015690112
121	0xafc4cb4a	-3.5796638e-10
122	0x348ce70c	2.624514e-07
123	0x3aff79f6	0.0019491303
124	0x3982483c	0.0002484935
125	0x800097bd	-5.4433e-41
126	0x1f1c958d	3.315799e-20
127	0x3a39a83a	0.00070822577
128	0x3866e1be	5.5046512e-05
129	0x218364cc	8.903586e-19
130	0x219a4cc9	1.0455771e-18
131	0xa865a6c4	-1.2748215e-14
132	0x3910d9cc	0.00013814046
133	0xa0c78268	-3.3798207e-19
134	0xa75c4ccd	-3.0572767e-15
135	0xbb20f151	-0.0024557898
136	0x9c8755e6	-8.955755e-22
137	0xb1878688	-3.9443115e-09
138	0x3a249438	0.000627819
139	0xb7024153	-7.763813e-06
140	0x2ad2a1e3	3.7415825e-13
141	0x38022de1	3.1037143e-05
142	0x39731565	0.00023182256
143	0xb593364d	-1.0968157e-06
144	0xbaffda4a	-0.0019520011
145	0x31844a72	3.850169e-09
146	0xb850a406	-4.9743823e-05
147	0xb8d8fc6c	-0.000103467
148	0x8000a2ac	-5.8356e-41
149	0x258efa88	2.480284e-16
150	0xa3533998	-1.1450529e-17
151	0x33752747	5.707923e-08
152	0x000045cf	2.5043e-41
153	0xb8a1b440	-7.7106524e-05
154	0x80001484	-7.36e-42
155	0x390325e0	0.00012507243
156	0x3775ddd8	1.465479e-05
157	0xa3c8cde0	-2.1771235e-17
158	0x838b94f5	-8.203885e-37
159	0x000061e5	3.5118e-41
160	0x3a86f868	0.001029742
161	0xa392663f	-1.5872655e-17
162	0x00002a54	1.5184e-41
163	0x3a0edbfd	0.0005449651
164	0x22986794	4.130935e-18
165	0x80009753	-5.4285e-41
166	0x00006030	3.4506e-41
167	0x3a236c20	0.00062340684
168	0x0000bab1	6.6972e-41
169	0xaf00488d	-1.1667307e-10
170	0x8000b059	-6.3262e-41
171	0xb6356db7	-2.7034964e-06
172	0x3903941f	0.00012548313
173	0x38b181cc	8.464194e-05
174	0x0c8a9841	2.13539e-31
175	0x8f431bf6	-9.619627e-30
176	0x90048f2e	-2.614271e-29
177	0x277e2248	3.5268165e-15
178	0x0dda5b5e	1.3457283e-30
179	0xb5f3cec8	-1.8165092e-06
180	0xba74e5f1	-0.0009342125
181	0xac3bf81b	-2.6712025e-12
182	0xb9b7860f	-0.0003500436
183	0xac0bb894	-1.985555e-12
184	0xbadaa23a	-0.0016680427
185	0xac4d7ae1	-2.9200464e-12
186	0xba126adf	-0.0005585383
187	0x39548a33	0.00020269379
188	0xac3a7a6d	-2.650015e-12
189	0x9b91aa36	-2.4098234e-22
190	0x26180c32	5.275212e-16
191	0xba8c19a1	-0.001068879
192	0xb15fdfc1	-3.257796e-09
193	0xad9aadc0	-1.7584934e-11
194	0x37f0238e	2.8626786e-05
195	0xa6f47be4	-1.6964482e-15
196	0x26516371	7.264621e-16
197	0xa7c5b380	-5.48731e-15
198	0xb828f057	-4.0278155e-05
199	0xb35d7beb	-5.1568275e-08
200	0x259867fc	2.643826e-16
201	0xa62c0b0d	-5.9689464e-16
202	0x80008508	-4.7723e-41
203	0x36157543	2.2270985e-06
204	0x31652375	3.334404e-09
205	0xb6791ce8	-3.7120717e-06
206	0x80003631	-1.944e-41
207	0x38809182	6.1306186e-05
208	0x351d0208	5.8490014e-07
209	0x38eaf5ea	0.000112037946
210	0x2c6c88ff	3.3613665e-12
211	0x2d302475	1.0012537e-11
212	0xb9646753	-0.00021782266
213	0x2e3b0ae9	4.2528567e-11
214	0xb727fc33	-1.0012695e-05
215	0x2ca1ace1	4.5950886e-12
216	0x208603e3	2.2703055e-19
217	0x204430c8	1.6617986e-19
218	0xa9be1901	-8.4420325e-14
219	0x346eea5b	2.2250735e-07
220	0xbb4b150f	-0.0030987894
221	0x3941a70c	0.00018468144
222	0x327d30fb	1.4737675e-08
223	0x20b048d8	2.9863764e-19
224	0x201dc710	1.3364282e-19
225	0xb839fce3	-4.4342956e-05
226	0xaff6b0e7	-4.4872836e-10
227	0x00001fc8	1.1401e-41
228	0x0000cf2d	7.432e-41
229	0x35b849a8	1.3730505e-06
230	0x92bf7d9d	-1.2084761e-27
231	0x38d0df0d	9.959759e-05
232	0xade22512	-2.5709688e-11
233	0xa2792186	-3.376354e-18
234	0xb95ca55a	-0.00021042433
235	0x39e4f85e	0.00043672597
236	0x37b5cb20	2.1671469e-05
237	0xb28f5563	-1.668622e-08
238	0xb64fb35e	-3.094981e-06
239	0x38a38691	7.7975106e-05
240	0x89892984	-3.302059e-33
241	0x88377b0b	-5.5214196e-34
242	0x1e570f1b	1.1385129e-20
243	0x2de57f43	2.6090801e-11
244	0x39e10ae8	0.0004292347
245	0xb19a2554	-4.4862336e-09
246	0xa030af71	-1.4965829e-19
247	0xb5cf237e	-1.5433031e-06
248	0xa12345fc	-5.531917e-19
249	0xa1357a30	-6.14869e-19
250	0x21f28010	1.6432456e-18
251	0x37a9d7c6	2.0246847e-05
252	0xa06b7940	-1.9945393e-19
253	0xbac27ba5	-0.0014837874
254	0x38237308	3.896936e-05
255	0xaee04ec0	-1.02003295e-10

e_conv4.depth_conv.bias f4 [32]
0	0xb8c32e3c	-9.3069364e-05
1	0x38b029ad	8.400097e-05
2	0xbb6ebf59	-0.003642997
3	0xa7f56ff3	-6.8122536e-15
4	0xb0aa327f	-1.238348e-09
5	0xba24beec	-0.0006284553
6	0xafcc31c7	-3.7142753e-10
7	0x33a0790b	7.472598e-08
8	0x32357e0d	1.0564247e-08
9	0x29e063aa	9.964887e-14
10	0xb98d1bb3	-0.00026914253
11	0xb757fa0d	-1.2873218e-05
12	0xad936b97	-1.6759745e-11
13	0xbac77c59	-0.0015219554
14	0x3545b2ac	7.364822e-07
15	0xac6e99e2	-3.3907256e-12
16	0xb81b5a66	-3.703907e-05
17	0xaced27b3	-6.7403526e-12
18	0xaa2ecefb	-1.5526115e-13
19	0x28600fde	1.24379385e-14
20	0xaf9ea34c	-2.8856062e-10
21	0xae66c61d	-5.2471905e-11
22	0x2d841e9d	1.5020258e-11
23	0xbb8d1d66	-0.004306483
24	0x38a5ffa4	7.91543e-05
25	0xb7c6e032	-2.3707838e-05
26	0x2811b0a8	8.087423e-15
27	0xa9cc7547	-9.079764e-14
28	0xbb3b8498	-0.0028612968
29	0xae338f5f	-4.0827227e-11
30	0x39ed07f3	0.00045210085
31	0x2839f653	1.0322976e-14
