Zero-DCE++/snapshots_Zero_DCE++/Epoch82.pth (torch, 51217 bytes, 28 tensors)

e_conv1.depth_conv.weight f4 [3, 1, 3, 3]
000000 63 fb b3 be f1 b9 39 be ed f3 76 bb 61 0c 29 be
       -0.3515273 -0.18137337 -0.0037682012 -0.16508628
000010 8e 2a cb 3d 0d 63 c7 3d 84 47 d6 be 0b 31 36 be
       0.09920226 0.09735689 -0.41851437 -0.17792146
000020 d1 24 47 bd 17 9e 4e 3e c3 5f 31 3e 96 2b b3 3e
       -0.048619095 0.20177494 0.17321686 0.3499419
000030 30 65 39 3e 66 a7 fb 3c e7 96 6a 3e bd 36 ab 3d
       0.18105006 0.03071947 0.22909127 0.0836005
000040 52 94 21 3d b6 11 67 3e da e8 5a 3d b7 ab 10 bd
       0.03944809 0.2256535 0.05344472 -0.03532001
000050 af cd 02 be 9a 34 0f bd 6c 64 77 bd 07 4c e6 bd
       -0.12773775 -0.034962274 -0.060398504 -0.1124497
000060 d0 54 e4 bd bb 9b 2e be 59 38 ac be
       -0.11148989 -0.17051594 -0.3363674

e_conv1.depth_conv.bias f4 [3]
000000 d2 d2 9b 3d 3f 7c 9b 3e 8b 33 5c bd
       0.0760857 0.3036823 -0.053760093

e_conv1.point_conv.weight f4 [32, 3, 1, 1]
000000 50 9e 53 3c c9 c0 11 3e e3 5d 4c 3d f3 b7 40 30
       0.012916163 0.14233698 0.049894225 7.01106e-10
000010 35 df ba b5 89 5d 15 b0 ab ac 69 aa f6 45 c7 b2
       -1.3923042e-06 -5.4338806e-10 -2.0754463e-13 -2.3198464e-08
000020 15 a4 6a 28 90 a8 c5 3d 6d a8 00 bf e0 94 26 3e
       1.3025189e-14 0.09651291 -0.50257 0.16267729
000030 ad 3c 6c 35 7f 0c d7 b7 fe f5 55 ae 41 f8 ca 3c
       8.8005146e-07 -2.5635816e-05 -4.8649078e-11 0.02477658
000040 b5 fc a6 3d b2 2b c3 3e 35 15 02 3e 59 a2 9c 3e
       0.08153669 0.38119274 0.12703402 0.3059261
000050 6e 68 0b be eb f4 22 23 1e 75 d3 b0 68 82 98 21
       -0.13614056 8.833901e-18 -1.5385557e-09 1.0334439e-18
000060 6e bb 68 3d 5c 31 db bb 45 e9 ce 3d f2 90 42 3d
       0.056819372 -0.0066892337 0.101030864 0.047501512
000070 2e dc 50 bc 5a c8 c5 bd 62 81 cc 3e 39 b5 0d bf
       -0.012747807 -0.09657355 0.3994246 -0.5535465
000080 40 81 9e 3e 02 05 05 bc f4 0a 11 bd 75 d8 40 3d
       0.30957985 -0.00811887 -0.035410836 0.04708143
000090 a4 3b 49 3e 6d 0d c1 be cf 1c 2e be 74 9b 82 bd
       0.19651657 -0.37705556 -0.17003177 -0.063773066
0000a0 e0 fd 1c be 3b 79 05 3e c1 e4 00 00 06 1f 01 80
       -0.1533122 0.13034527 8.2061e-41 -1.02965e-40
0000b0 8c a6 00 80 20 c2 76 3c c7 a1 97 3e b1 66 71 3e
       -5.9746e-41 0.015060931 0.29615614 0.2357433
0000c0 71 06 81 be 67 e4 b5 3e 18 a3 82 be 78 c1 ca 97
       -0.25200227 0.3552582 -0.25515056 -1.3102782e-24
0000d0 dc aa 30 a9 fc f4 de 97 f0 f4 fa ba d9 fe a7 39
       -3.9228047e-14 -1.44082565e-24 -0.0019146483 0.00032042598
0000e0 96 02 fa b9 77 e0 08 20 eb 0a 53 af 97 e2 29 23
       -0.00047685642 1.1593917e-19 -1.9194217e-10 9.209491e-18
0000f0 fa 28 0c bf 02 15 50 bd 7b 61 a8 be c3 c0 af b4
       -0.54750025 -0.050801285 -0.32886872 -3.2736543e-07
000100 ca de c5 b7 12 00 39 b5 f3 77 14 bc 1b fd dc 3b
       -2.3587974e-05 -6.891797e-07 -0.009061801 0.0067440397
000110 b7 28 23 3c 93 e4 0b 21 96 f0 83 af 2c a3 7c 20
       0.009958438 4.7397547e-19 -2.3999708e-10 2.1399219e-19
000120 54 51 34 39 c6 43 0d ba f2 09 57 38 eb 6f 61 3a
       0.00017196435 -0.0005388822 5.1269257e-05 0.0008599746
000130 86 0b 2c 39 53 67 ba b9 bf da 0b 2c a0 ac 3d ad
       0.00016407491 -0.00035553667 1.9874517e-12 -1.0781737e-11
000140 78 0c a0 2b 3e 98 8c 3e 3d 53 03 be de 9c 83 be
       1.1372145e-12 0.27459902 -0.12824722 -0.25705618
000150 16 73 3f 3d cd 89 50 bb cd 8c 83 bb d5 c1 0e 10
       0.046740614 -0.0031820417 -0.0040145875 2.8153885e-29
000160 7f fb 30 91 da d9 fa 10 48 e1 70 3e de 13 41 3c
       -1.396145e-28 9.8943267e-29 0.23523438 0.011784522
000170 42 df 8d bd c3 c1 65 be 06 c9 e4 3e 18 db 8e be
       -0.06927349 -0.22437195 0.4468462 -0.2790153

e_conv1.point_conv.bias f4 [32]
000000 ff a6 d7 bd 52 de 81 b4 c3 fc f0 b4 5e bf 11 3f
       -0.10529899 -2.4189882e-07 -4.4887392e-07 0.5693263
000010 9c 18 8b b7 83 67 a6 3d 64 2b 80 3e dd 43 41 b1
       -1.658155e-05 0.08125212 0.25033104 -2.8123772e-09
000020 d3 19 83 3d 0c 3d 8d bc 30 15 d0 3e 09 25 eb 3e
       0.0640141 -0.017241023 0.40641165 0.45926693
000030 f7 cd b9 3e 89 2c 9c 3e d2 25 00 80 bb 6f ee 3e
       0.3628995 0.30502728 -1.3567e-41 0.4656962
000040 ce 12 4f bc 28 55 16 a9 8a 20 07 bb 0e 78 19 b1
       -0.012638761 -3.3380552e-14 -0.002061876 -2.2332673e-09
000050 a3 c6 d0 3e 9f b2 d8 b7 8d ab 9c 3e 40 fa 08 b0
       0.40776548 -2.5832383e-05 0.30599633 -4.983214e-10
000060 88 f9 70 ba b5 51 f0 39 84 f2 06 ad ec 88 98 3e
       -0.00091924565 0.00045837244 -7.670867e-12 0.29791963
000070 d4 54 c5 3c f9 c7 4f 91 54 4e 08 3f 46 22 9a bd
       0.0240883 -1.6391042e-28 0.5324452 -0.075260684

e_conv2.depth_conv.weight f4 [32, 1, 3, 3]
000000 99 0f ad bb b4 20 c0 bb b7 d6 79 bb 10 3d 96 bc
       -0.0052814004 -0.0058632735 -0.0038122365 -0.018339664
000010 54 c5 b1 bc 5b 19 50 bc 78 5a ca bc b4 72 d0 bc
       -0.021700539 -0.012701358 -0.024701342 -0.02544532
000020 2a 2f 63 bc 50 20 00 00 e7 33 00 00 74 d3 00 80
       -0.013866225 1.1592e-41 1.8619e-41 -7.5855e-41
000030 d3 e3 00 80 de b9 00 00 af f0 00 80 c0 6e 00 00
       -8.1728e-41 6.6677e-41 -8.6341e-41 3.973e-41
000040 bd 24 00 00 65 e7 00 00 3b 96 00 00 5d b6 01 00
       1.3179e-41 8.3009e-41 5.3893e-41 1.57255e-40
000050 e6 8a 01 00 a0 76 01 80 cb 1d 01 80 eb c6 01 00
       1.41663e-40 -1.3439e-40 -1.02523e-40 1.63194e-40
000060 d0 7a 01 80 1f 25 02 00 d7 e8 01 80 7c 8d 8a be
       -1.35892e-40 1.96988e-40 -1.75363e-40 -0.2706107
000070 6a e5 6f be 52 e4 30 bd a4 2f ea bd ef f4 9f 3d
       -0.23427358 -0.043186493 -0.11434868 0.07810389
000080 4d f8 5d 3e 24 2e 86 3e 09 a1 ce 3b ce 53 f2 3e
       0.2167675 0.26207078 0.006305818 0.47329563
000090 c5 f5 db aa 0c 2a 49 2e df f3 f7 2d 8b 2e e6 ac
       -3.9072752e-13 4.5739454e-11 2.818895e-11 -6.5421605e-12
0000a0 30 7f 45 2e fb 11 c9 2d a1 50 20 2e 10 fd 2e 2e
       4.490558e-11 2.285904e-11 3.64514e-11 3.9787784e-11
0000b0 f2 90 8c ab 21 dd 26 3d c3 e0 88 3d 67 00 f7 3c
       -9.987829e-13 0.04073823 0.06683495 0.030151559
0000c0 c5 cb 29 3d b7 69 c8 3d cf 41 1e 3d 04 ce 6e bd
       0.041454095 0.097857885 0.03863698 -0.05830194
0000d0 b8 87 7e bc bf 36 2a be 08 c9 84 3d 3d 6a 0f bd
       -0.015535288 -0.16622446 0.06483656 -0.035013426
0000e0 30 e9 89 be d6 9b 5f 3d e4 21 06 3e 3d ea b4 bd
       -0.2693572 0.054591976 0.13098866 -0.0883374
0000f0 b7 cf bf bc 71 f6 08 bc b3 cf 94 be fb a5 03 08
       -0.023414476 -0.008359537 -0.29064712 3.9616488e-34
000100 b7 b8 19 88 7b fc ae 87 99 93 c3 07 b9 55 fe 87
       -4.6258894e-34 -2.6329005e-34 2.942709e-34 -3.8268056e-34
000110 3d 8d 4f 07 35 d4 17 08 10 13 17 88 5f 87 e6 87
       1.5614455e-34 4.568936e-34 -4.5462317e-34 -3.4686118e-34
000120 e1 c1 69 3c 04 ae 74 3b a2 72 5a 3a 75 0d e2 3b
       0.014267416 0.0037335167 0.00083331217 0.006898577
000130 d0 e9 4a 3a e4 98 45 3b 98 b8 f2 3b b1 5d 52 3c
       0.0007740529 0.0030150944 0.007407259 0.012839721
000140 d3 d2 ec 3c d0 3a db 3b 2f a2 0b 3b a6 3a 6d bb
       0.028909123 0.0066903606 0.0021306386 -0.0036198287
000150 ef 63 e0 3b bc df b2 b9 5f 69 c7 bb 46 b1 49 3b
       0.0068478505 -0.000341175 -0.0060855593 0.003077583
000160 f8 47 78 bb d9 74 8b bb 2c 37 9f 3e 10 18 61 3e
       -0.0037884694 -0.0042558727 0.3109678 0.21981835
000170 ec d6 7e 3e 41 c8 65 3e 07 2f 67 bd 4d 46 8a 3e
       0.24886674 0.22439672 -0.056441333 0.2700676
000180 bf 04 96 3e 9d 05 cf 3d 2f be f8 3d 53 10 79 3e
       0.29300496 0.101084925 0.1214565 0.24322633
000190 71 1b 0c be 63 ad 3d 3e cd 34 9b 3d 09 d2 46 be
       -0.13682343 0.18523173 0.0757843 -0.1941606
0001a0 97 ec c1 bd 7e a2 83 3e b6 ce 88 3d 30 f9 3b 3e
       -0.09468954 0.2570991 0.06680052 0.18356776
0001b0 04 2b ca 3e 33 39 02 3e 18 81 61 3e ba 4b 8c 3e
       0.39485943 0.12717132 0.22021902 0.27401525
0001c0 f4 30 2e 3e 7a d6 c2 3d dc cf 80 3e 95 b7 f1 3d
       0.17010862 0.095135644 0.25158584 0.118025936
0001d0 15 e9 8f bd 31 86 cb 3c d7 79 5c 3d c8 b3 bd 3d
       -0.07026879 0.02484426 0.053827133 0.09262806
0001e0 c4 9f c1 3d e8 90 c0 bd e8 48 36 3e f9 8e 59 bd
       0.09454301 -0.09402639 0.17801249 -0.053114865
0001f0 de 90 87 3d 2a 94 c1 3e 1b 48 01 80 43 bc 01 80
       0.06619428 0.37808353 -1.17702e-40 -1.59371e-40
000200 71 84 00 80 cc 1b 01 80 26 4f 01 80 e6 d5 00 00
       -4.7511e-41 -1.01807e-40 -1.20229e-40 7.6732e-41
000210 5d 08 00 00 ff 0f 02 00 c6 32 01 00 14 0c 52 bd
       3e-42 1.8941e-40 1.1005e-40 -0.05128105
000220 5e e2 14 3e 83 0b 06 be 58 28 f3 3d d0 04 48 3e
       0.14539477 -0.13090329 0.11872929 0.19533086
000230 5c 95 2b 3e 72 ae 13 be 2e 4f 8c bd ae 05 bf bd
       0.16756195 -0.14422014 -0.0685104 -0.09327255
000240 6a 1c ce 3d 99 b2 5c 3e 54 26 b2 3e a2 18 ce 3d
       0.10064013 0.21552505 0.34794867 0.10063292
000250 5b 05 00 3d a1 23 ef 3d 5d df 10 be 0b 0b a8 bd
       0.031255107 0.116767175 -0.14147706 -0.08205231
000260 69 e2 59 be 18 da 01 80 63 03 00 00 3d a8 01 80
       -0.21277775 -1.70073e-40 1.215e-42 -1.52188e-40
000270 fd 6d 01 00 1e 6c 01 80 24 4d 01 00 17 18 01 00
       1.31292e-40 -1.3062e-40 1.19508e-40 1.00477e-40
000280 e2 5c 00 00 e3 21 01 80 10 16 dd b2 71 cc fe b2
       3.332e-41 -1.03992e-40 -2.5737819e-08 -2.9662461e-08
000290 76 d3 e1 b2 7c 03 c7 b2 72 2e f1 b2 77 b9 da b2
       -2.6289609e-08 -2.3168234e-08 -2.8077213e-08 -2.546288e-08
0002a0 7b 8f db b2 14 fa 00 b3 7b d8 ec b2 a5 31 d5 90
       -2.5560203e-08 -3.0029767e-08 -2.757246e-08 -8.4090176e-29
0002b0 e6 d5 95 91 7f c8 53 91 a0 54 ab 91 64 4f 81 0f
       -2.363988e-28 -1.6706748e-28 -2.7031197e-28 1.2750962e-29
0002c0 ac e3 b4 91 67 82 c1 91 12 d1 d5 11 9d 6d 52 91
       -2.8539306e-28 -3.0530398e-28 3.3734324e-28 -1.6599856e-28
0002d0 4e 26 a6 bd eb 01 5d 3e 07 12 47 be 34 5d a0 be
       -0.08112775 0.21582763 -0.1944047 -0.31321108
0002e0 cc 53 20 bc 9b c7 40 3d 3e 50 b3 be 5c 53 69 be
       -0.009785604 0.04706536 -0.35022157 -0.22785705
0002f0 72 10 83 be 64 65 8c 1b fa 20 a0 1b a8 eb 89 9b
       -0.25598484 2.322658e-22 2.649109e-22 -2.2817038e-22
000300 43 6f 37 1a 44 f2 41 1b 00 1b 3b 9b 43 dd 10 1b
       3.793339e-23 1.6042866e-22 -1.5477002e-22 1.1982894e-22
000310 d2 a8 f2 99 b3 16 e6 9b 06 18 8f bd f5 4d 9d bd
       -2.50904e-23 -3.8064977e-22 -0.06987004 -0.07680885
000320 a7 e2 fd 3c c5 c5 ad bd 20 f0 86 bd 02 06 a9 ba
       0.030991865 -0.08484987 -0.06588769 -0.0012895467
000330 d1 03 81 bd 56 e6 8f bd 8c af ab bc 9a 4d 00 00
       -0.06299556 -0.07026355 -0.02095773 2.7838e-41
000340 9c 7f 00 00 66 16 00 00 91 17 00 80 35 07 01 80
       4.5778e-41 8.035e-42 -8.454e-42 -9.4421e-41
000350 db 3d 01 80 dd 2c 01 80 31 66 01 00 70 a9 00 80
       -1.14025e-40 -1.0793e-40 1.28495e-40 -6.0783e-41
000360 12 1c 47 9b 2b ff 29 9c 29 55 10 9c 7c a5 2d 1a
       -1.6469964e-22 -5.6247206e-22 -4.775567e-22 3.590924e-23
000370 ce ef 09 9c ed 58 af 9b bd 8e bf 1a 4c 19 c7 1a
       -4.563944e-22 -2.9008788e-22 7.9226355e-23 8.234534e-23
000380 3b 5c fb 1a 71 46 2c b7 04 c4 21 b8 b3 af 47 b8
       1.03960173e-22 -1.02684e-05 -3.8567945e-05 -4.760893e-05
000390 cd 29 09 b8 c0 7d 80 b8 84 6d 89 b8 47 80 35 b8
       -3.2702275e-05 -6.1269384e-05 -6.553068e-05 -4.327323e-05
0003a0 0b 6c 8d b8 19 d8 78 b8 03 7c b0 29 65 b4 8e 29
       -6.7435285e-05 -5.9329064e-05 7.837483e-14 6.33736e-14
0003b0 a0 3f 43 29 16 59 7e 29 b9 c2 94 29 e7 7a 90 29
       4.3353884e-14 5.64766e-14 6.606299e-14 6.416205e-14
0003c0 15 92 1d 29 89 2c 94 29 cd 71 8c 29 14 5c a6 3e
       3.498771e-14 6.580246e-14 6.23699e-14 0.32492125
0003d0 06 8f cb bb 77 ff 61 3d e2 83 92 bb 80 58 94 3c
       -0.006212118 0.05517527 -0.004471288 0.018108606
0003e0 51 ba 5c 3d ff 94 8e 3c 20 ba 02 bc e9 d5 4d bd
       0.053888623 0.017405031 -0.007978946 -0.05025283
0003f0 09 a2 2e 3a 04 3b 7f 3a c9 eb f6 b9 c3 e5 b8 3a
       0.00066617184 0.0009736272 -0.0004709645 0.001410656

e_conv2.depth_conv.bias f4 [32]
000000 af 79 be 3d b8 26 b6 bd 4c 6a 92 b6 cd 10 5f bd
       0.09300553 -0.08894104 -4.3635137e-06 -0.05445938
000010 55 25 16 be 69 7f 3f 3e 61 4e b3 3c 17 13 01 3e
       -0.14662679 0.18700947 0.02188796 0.12604938
000020 76 0f 7c 3e fa 03 73 be 1b cb 63 3c 4f 9c bb bd
       0.24615273 -0.23731986 0.013903405 -0.09160673
000030 95 90 60 be 06 8a 52 bd 16 95 03 3e a7 18 51 3e
       -0.21930154 -0.05140116 0.1284984 0.2041956
000040 87 6f 21 3e 57 28 01 bc b0 ff ae 35 3c 48 20 3e
       0.157652 -0.007883153 1.3038425e-06 0.15652555
000050 fb 64 86 3e c9 41 2b 3e 99 e0 ce bd e2 97 28 3e
       0.26248917 0.16724314 -0.10101432 0.16464189
000060 f8 ad 94 bd 39 d8 d8 bc ad f4 85 3d 79 2e 4e be
       -0.072597444 -0.02647029 0.06540809 -0.20134915
000070 40 f0 44 bd be f5 22 be f7 a1 a3 bd 3c cc 99 3e
       -0.048080683 -0.15914056 -0.07989877 0.3003863

e_conv2.point_conv.weight f4 [32, 32, 1, 1]
000000 08 26 41 bc c2 4f b6 bb 63 18 d5 b7 e6 f3 98 3d
       -0.0117888525 -0.005563707 -2.5402935e-05 0.07468395
000010 13 d0 73 3c f0 08 93 bd e3 8e 91 3c ce 22 c6 bc
       0.014881152 -0.07179439 0.017768329 -0.024186518
000020 45 52 58 bd ec b1 50 3c 42 eb 76 3d 6c 45 04 3d
       -0.052812833 0.012737732 0.060282953 0.03229277
000030 37 e9 2b 3e 3c 19 03 3d f1 c8 48 bc 92 e8 00 be
       0.16788183 0.032006487 -0.012254939 -0.12588719
000040 78 b1 97 3c 54 b7 13 3b a5 20 83 35 1d 65 37 bd
       0.01851724 0.0022539692 9.769761e-07 -0.044774164
000050 88 7b 94 3e f6 3b 81 3c 79 eb 4d 3d 0f 37 55 bd
       0.29000497 0.015775662 0.050273392 -0.05205446
000060 64 69 11 3b 13 0a 8b 3b 0a 59 49 bc 8e 88 3e 3d
       0.0022188062 0.0042431443 -0.012289295 0.046516947
000070 c0 81 73 3c 56 d8 d9 3c c8 ed 15 be 85 15 d0 3b
       0.014862478 0.026592415 -0.14641488 0.0063502216
000080 d1 b2 4f 3d c8 1f 7d bd ca 40 99 b7 28 08 18 bd
       0.050707642 -0.061797887 -1.8269191e-05 -0.037117153
000090 0d 57 05 3c 40 9a 28 3d 01 54 90 3c 64 be b3 3c
       0.00813843 0.04116273 0.017618181 0.021941371
0000a0 63 a7 ab 3d 5a 05 ab bd ea ca a3 3e 47 11 6a 3e
       0.08381536 -0.0835063 0.3199075 0.22858153
0000b0 5e ff 86 3e 09 ef 10 3e fe da bb ba fd 56 d2 3d
       0.26366705 0.14153685 -0.0014332233 0.10270498
0000c0 53 e4 03 3e 95 3e 00 bb 73 4e 4a b5 20 f8 52 ba
       0.12880068 -0.0019568552 -7.536502e-07 -0.0008047838
0000d0 15 d8 94 bc bb ec 37 3d 9e ff 3a bc 31 46 c4 3d
       -0.018169442 0.0449035 -0.011413483 0.095837004
0000e0 8a 4a 46 bc 21 d3 a0 bb 96 a3 c2 bb a3 0b 57 3e
       -0.012102732 -0.004907981 -0.005939911 0.21000533
0000f0 cc 2b 4e bd 4f 77 e9 bc 8c 8a 90 be 0c 06 eb 3d
       -0.050334737 -0.028499274 -0.28230703 0.11475763
000100 bf 52 6d 3c 71 e9 94 bc fc 79 d6 b6 d8 d4 a9 3e
       0.01448506 -0.01817772 -6.391898e-06 0.331702
000110 b7 0b 7c bc f2 9c 59 3d 34 e6 01 3d 39 46 87 3c
       -0.015383652 0.05312819 0.03171368 0.016512977
000120 1a f5 d0 ba 6b 35 59 bd 34 d9 01 be 91 46 e7 bd
       -0.0015942187 -0.05302946 -0.12680513 -0.11292756
000130 ba 2d 8f be 50 ec 84 3c ff 14 38 3c 41 c6 4b 3d
       -0.27964574 0.016225964 0.011235475 0.049749617
000140 c1 76 2c 3d 26 24 5c bb 2f fa 50 35 a2 f5 fe 3c
       0.04210544 -0.0033590882 7.7850103e-07 0.031122986
000150 32 1f c5 bb a3 9e da 3c 8e f0 a8 bb f6 ab 67 3d
       -0.0060156817 0.026686972 -0.0051556295 0.05656048
000160 50 e9 8e bc 84 91 0a bc 47 90 96 3c 5d bf 7b be
       -0.017445236 -0.008457545 0.018379344 -0.24584718
000170 e0 49 83 bc 2f 73 27 bd eb c8 be 3d 99 1f 73 3c
       -0.016026437 -0.040881332 0.09315666 0.014839076
000180 ba 4e 00 80 96 77 00 00 2d dc 01 00 49 78 01 00
       -2.8242e-41 4.29e-41 1.7082e-40 1.34986e-40
000190 59 66 01 80 4d ac 01 00 eb bf 01 00 d4 2d 01 80
       -1.28551e-40 1.53645e-40 1.60683e-40 -1.08276e-40
0001a0 5a f6 00 80 ec 39 01 80 2a f5 00 80 a6 58 01 80
       -8.8374e-41 -1.12614e-40 -8.7948e-41 -1.23637e-40
0001b0 68 6b 01 80 e9 4b 00 00 3a a7 00 80 bf 8a 00 00
       -1.30366e-40 2.7231e-41 -5.999e-41 4.9773e-41
0001c0 92 5d 01 00 d4 7b 00 80 c8 f9 00 80 83 ca 00 80
       1.25402e-40 -4.4421e-41 -8.9605e-41 -7.2648e-41
0001d0 4a 8a 00 00 a3 4c 01 00 44 03 01 00 f8 3b 00 80
       4.9609e-41 1.19328e-40 9.3007e-41 -2.1513e-41
0001e0 4f 63 01 80 89 c4 00 00 e8 17 01 80 ac 0a 01 00
       -1.27461e-40 7.0504e-41 -1.00411e-40 9.5664e-41
0001f0 fe 94 00 80 9c 74 01 00 44 aa 00 00 33 3e 00 00
       -5.3448e-41 1.33667e-40 6.108e-41 2.2313e-41
000200 a9 73 be 3a fa cf 69 3a fe 1a 26 36 62 52 ce bc
       0.0014530319 0.00089192356 2.475164e-06 -0.025185768
000210 02 81 41 3c 4c 15 a0 3d 07 30 fb bd a8 ad fa 3b
       0.011810543 0.07816562 -0.1226502 0.007650096
000220 20 1c 16 bc 68 13 fb bc d1 4f 5e bd d7 32 a3 bc
       -0.009161979 -0.030648902 -0.054275338 -0.019921703
000230 5f bd 60 bd 67 ee 2f bd 23 e3 6d 3c 32 28 0e 3e
       -0.0548681 -0.042951968 0.014519486 0.13882521
000240 e2 f1 c4 3c 94 c2 bf ba c2 2d 63 35 0b 92 f8 3c
       0.02404112 -0.0014630132 8.4630676e-07 0.030343076
000250 c5 4a 10 3c 64 45 45 ba 20 6f 21 bc ee 24 0a bc
       0.008806889 -0.00075252936 -0.009853154 -0.008431656
000260 d0 0b 2e bc 8a f6 4b bb 04 0b 23 3c 04 1e 30 bc
       -0.0106229335 -0.003112229 0.009951357 -0.010749344
000270 54 6d 07 bc 46 a6 e7 bc 53 8a e5 3c c6 32 a6 bd
       -0.008265812 -0.028277528 0.02802006 -0.08115153
000280 63 61 4e 3c 66 57 51 bc 98 5a a0 b7 cb 09 69 3c
       0.012596461 -0.012777185 -1.9115672e-05 0.014223526
000290 fb fc a0 bc 73 d4 e2 3c 64 64 d3 3d 09 ba 82 3c
       -0.01965188 0.027689194 0.10321882 0.01595785
0002a0 ef 47 f0 3c 8b 17 e6 bc e3 dd 66 3d 7c c9 3c bd
       0.029331176 -0.028087398 0.05636395 -0.046090588
0002b0 fb 9b f3 3c ad b2 26 bc 90 c4 88 3c 0f d5 54 3d
       0.029737463 -0.010174436 0.01669529 0.051961
0002c0 fd e8 b7 3b b2 81 96 ba 75 48 00 35 5a 0d 99 3c
       0.005612491 -0.0011482744 4.7789155e-07 0.018683124
0002d0 57 89 8e 3d 8a 36 af 3c ab 09 c5 bc 65 81 ab 3c
       0.06959789 0.021388311 -0.024052462 0.020935724
0002e0 03 63 07 bc 95 18 4b bb e2 f8 02 3c dc 2e 48 bc
       -0.008263352 -0.0030989994 0.007993909 -0.012218203
0002f0 86 ad e2 bb c8 ce 9e bc 4a 97 9d 3c 8a 11 16 3e
       -0.0069176583 -0.01938571 0.01923718 0.14655128
000300 13 d9 cf 3b 29 01 56 3c 05 58 a6 b6 f4 d6 1f 3e
       0.006343016 0.0130618 -4.9574323e-06 0.15609342
000310 4c 9a a6 bb 4c b6 43 be cd f4 0d 3e a2 23 70 ba
       -0.0050843116 -0.1911251 0.13862915 -0.0009160583
000320 e7 af 93 bb b2 67 9e bc ca 5c b0 3e d8 cd 0c 3e
       -0.004507053 -0.019336555 0.34445792 0.13750398
000330 09 11 37 3e 1d 7f 4e 3e 06 88 84 3a 9e 6e c3 bd
       0.17877592 0.20165677 0.0010111339 -0.09542583
000340 2a 71 2d 3e 20 25 8d 3a 50 92 73 34 f1 fe 1d 3c
       0.169377 0.001076851 2.2684367e-07 0.009643302
000350 bb 74 32 bd 8c 51 e4 3b af 93 dc 3c 46 7d ad 3a
       -0.043568354 0.006967729 0.02692589 0.0013236187
000360 93 c1 9f 3b a0 95 18 3b aa 9c db ba bf cf fb 3d
       0.0048753708 0.0023282543 -0.0016755064 0.12295484
000370 b4 a1 1f 3b f1 53 7b 3c 3a d3 2e be e1 bc fd 3d
       0.0024357857 0.015339837 -0.17072764 0.123895414
000380 4d d9 67 39 82 57 73 b9 b8 bc 20 34 ce 0e 15 b9
       0.00022110828 -0.00023206885 1.4969817e-07 -0.00014215262
000390 17 85 a7 b8 1f 1c d3 b8 fb c1 01 39 b5 33 21 39
       -7.9879705e-05 -0.00010066502 0.00012374662 0.00015373419
0003a0 fd a3 9d b9 68 e2 88 39 c2 d4 16 b9 c8 26 fc b8
       -0.00030067554 0.00026108627 -0.00014384373 -0.0001202352
0003b0 bd 73 c6 b9 86 2a 33 b8 ae d8 17 39 ea 14 d9 b9
       -0.00037851735 -4.271653e-05 0.00014481202 -0.00041405048
0003c0 99 61 28 ba 2b f7 07 38 0d 2f a8 b1 26 44 34 38
       -0.00064232346 3.24167e-05 -4.8947926e-09 4.2978812e-05
0003d0 11 7a 69 3a db 62 18 36 91 f9 87 39 a1 5c 3a 37
       0.0008906434 2.2707306e-06 0.00025935148 1.1108031e-05
0003e0 be e0 6b b9 93 b9 2e b7 c4 0e 5d 39 41 68 a1 b9
       -0.0002249507 -1.0414416e-05 0.00021081703 -0.00030785988
0003f0 3e f5 11 b9 b6 03 0d b8 c8 b5 20 3a 38 8e 42 3a
       -0.00013919637 -3.3620476e-05 0.0006130603 0.0007421705

e_conv2.point_conv.bias f4 [32]
000000 d1 86 a2 3d 20 f1 92 3d 12 08 e8 3d 0a 9d 00 00
       0.079358704 0.07174897 0.11329664 5.6335e-41
000010 80 15 18 3e 3c bc b0 3d ca 88 7e bc 86 98 6d ba
       0.14851952 0.08629653 -0.015535543 -0.000906356
000020 71 2b 96 3d 23 58 af 3d e1 a3 f7 3b a7 b4 7a bd
       0.073325045 0.085617326 0.0075573777 -0.06120744
000030 2a 9c 8a 3b d7 ff 11 3e 6f 1f 06 3e ca 1b 00 00
       0.004230042 0.14257751 0.13097928 9.969e-42
000040 8c b1 48 83 6b f5 5d 3c a0 d8 d4 3c a1 90 51 36
       -5.897853e-37 0.013547282 0.025982201 3.1227612e-06
000050 06 ea 87 bd ec 97 4f bb ab ce 3e 3c c1 4d f0 39
       -0.06636433 -0.0031676246 0.011645953 0.00045834298
000060 b6 ec 5d 3d 61 8a 70 b2 23 50 2b 3d 92 bc c6 bd
       0.054180823 -1.4001302e-08 0.04182447 -0.09703936
000070 d4 66 00 00 e2 68 00 00 aa 0a 60 3d b6 6e ac 3d
       3.6888e-41 3.7625e-41 0.05469767 0.08419554

e_conv3.depth_conv.weight f4 [32, 1, 3, 3]
000000 c6 11 00 00 63 a9 00 00 ce c7 00 00 73 7c 01 00
       6.376e-42 6.0765e-41 7.1676e-41 1.3648e-40
000010 56 64 00 00 1a 33 00 80 e1 d3 01 80 45 8f 00 80
       3.5994e-41 -1.8332e-41 -1.67843e-40 -5.1395e-41
000020 46 d4 00 00 75 5e 00 00 99 60 01 80 fc f3 01 80
       7.615e-41 3.3885e-41 -1.26488e-40 -1.7936e-40
000030 27 b1 00 80 20 0d 00 80 01 1f 01 80 8d ed 01 80
       -6.355e-41 -4.708e-42 -1.02958e-40 -1.77053e-40
000040 e1 3e 00 80 15 d9 00 80 0b 00 00 00 64 43 01 80
       -2.2557e-41 -7.7874e-41 1.5e-44 -1.1601e-40
000050 b5 a1 00 00 80 cd 00 80 7d e2 00 00 23 a0 00 00
       5.801e-41 -7.372e-41 8.1249e-41 5.7446e-41
000060 4e b7 00 00 48 7a 01 80 08 56 00 80 eb 07 01 00
       6.5757e-41 -1.35702e-40 -3.0862e-41 9.4676e-41
000070 e6 1d 01 80 6e 1e 01 00 d2 c0 01 80 a3 46 00 00
       -1.02561e-40 1.02752e-40 -1.61006e-40 2.534e-41
000080 aa aa 00 00 00 e7 00 80 e2 9f 01 80 92 56 00 80
       6.1223e-41 -8.2867e-41 -1.4919e-40 -3.1056e-41
000090 03 70 00 80 0e d2 00 80 92 be 01 80 a0 a2 01 00
       -4.0182e-41 -7.5353e-41 -1.60199e-40 1.50174e-40
0000a0 1c 8d 01 00 02 9b 00 00 cd 72 00 80 d0 ab 01 80
       1.42456e-40 5.5606e-41 -4.1183e-41 -1.5347e-40
0000b0 cf 63 00 00 2c f6 01 00 a7 3e 00 80 bd 54 01 00
       3.5805e-41 1.80145e-40 -2.2475e-41 1.22234e-40
0000c0 41 0e 00 80 e4 40 01 80 70 eb 01 80 49 e6 00 00
       -5.113e-42 -1.15114e-40 -1.76295e-40 8.2611e-41
0000d0 6c 63 01 00 67 e9 01 80 67 5a 01 80 0c d2 00 80
       1.27501e-40 -1.75564e-40 -1.24266e-40 -7.535e-41
0000e0 a1 04 00 00 cb fc 00 00 75 d0 00 00 03 4c 01 00
       1.66e-42 9.0685e-41 7.478e-41 1.19103e-40
0000f0 b7 ce 00 80 d3 a0 01 80 f9 78 01 80 f2 c7 01 00
       -7.4155e-41 -1.49528e-40 -1.35232e-40 1.63562e-40
000100 b7 82 00 80 26 37 00 00 ed e0 00 00 9e ff 01 00
       -4.6892e-41 1.9784e-41 8.0688e-41 1.83534e-40
000110 f0 ca 01 80 05 01 02 80 20 6b 00 00 b3 1d 00 80
       -1.64636e-40 -1.84037e-40 3.8429e-41 -1.0654e-41
000120 26 f1 00 00 8d 35 01 00 41 2d 01 80 8b 1b 00 00
       8.6508e-41 1.11046e-40 -1.0807e-40 9.88e-42
000130 7d 14 01 00 75 20 01 00 89 89 01 80 73 f8 01 00
       9.9185e-41 1.03479e-40 -1.41174e-40 1.80962e-40
000140 db fd 01 80 fa 84 00 80 55 73 01 00 ff 08 01 80
       -1.82902e-40 -4.7703e-41 1.33209e-40 -9.5063e-41
000150 8a 09 01 80 73 13 00 80 dd 22 01 80 2f 81 00 80
       -9.5257e-41 -6.977e-42 -1.04342e-40 -4.6342e-41
000160 b7 e7 00 80 a6 17 00 80 42 a2 00 00 b3 05 02 00
       -8.3124e-41 -8.483e-42 5.8207e-41 1.85715e-40
000170 37 47 01 80 53 82 01 00 4c 48 01 80 80 24 00 00
       -1.17383e-40 1.38587e-40 -1.17771e-40 1.3094e-41
000180 c3 da 00 80 14 a5 01 00 03 3b 00 00 73 25 01 80
       -7.8477e-41 1.51054e-40 2.117e-41 -1.0527e-40
000190 39 25 00 80 06 40 01 80 21 69 01 80 51 c3 00 00
       -1.3353e-41 -1.14803e-40 -1.29549e-40 7.0066e-41
0001a0 62 04 01 00 f7 1d 01 00 be 48 01 00 81 dd 00 80
       9.3408e-41 1.02585e-40 1.1793e-40 -7.946e-41
0001b0 30 ca 01 00 dc 63 01 80 8d 91 01 00 d1 d3 00 80
       1.64367e-40 -1.27658e-40 1.44049e-40 -7.5985e-41
0001c0 41 1a 01 00 09 8b 00 80 83 86 00 00 0c c7 00 00
       1.01254e-40 -4.9876e-41 4.8254e-41 7.1405e-41
0001d0 8b 3b 01 80 db 05 02 80 cc b7 01 80 a5 f3 01 80
       -1.13195e-40 -1.85772e-40 -1.5777e-40 -1.79239e-40
0001e0 77 09 01 00 1d 82 00 00 da 19 01 00 70 89 01 80
       9.5231e-41 4.6676e-41 1.01109e-40 -1.41139e-40
0001f0 65 cf 00 80 67 40 01 80 b4 e7 00 80 f4 d5 00 80
       -7.4399e-41 -1.14939e-40 -8.312e-41 -7.6752e-41
000200 b8 b9 01 80 f4 20 01 80 d9 b0 01 80 7b 92 00 80
       -1.58459e-40 -1.03657e-40 -1.55276e-40 -5.2547e-41
000210 0a 80 00 00 08 8d 00 80 3a 66 01 00 4f 7e 00 00
       4.5932e-41 -5.0592e-41 1.28507e-40 4.5311e-41
000220 ba 72 00 80 ee 1b 00 80 b4 b6 00 00 16 6c 01 00
       -4.1156e-41 -1.0019e-41 6.5542e-41 1.3061e-40
000230 d8 00 01 00 68 74 00 80 01 ea 00 00 d0 67 01 80
       9.2138e-41 -4.1759e-41 8.3945e-41 -1.29076e-40
000240 1c 63 00 00 31 fd 00 00 0a af 00 80 a7 b2 00 80
       3.5554e-41 9.0828e-41 -6.2792e-41 -6.4088e-41
000250 c4 ea 01 00 4f db 01 80 4e 74 00 00 b1 da 00 80
       1.76054e-40 -1.70509e-40 4.1722e-41 -7.8452e-41
000260 9b da 01 80 a1 ef 00 80 e1 bb 00 00 f5 01 00 80
       -1.70256e-40 -8.5963e-41 6.7398e-41 -7.02e-43
000270 99 a4 01 80 54 c7 00 00 db af 00 00 0f 4b 01 80
       -1.50882e-40 7.1505e-41 6.3085e-41 -1.18761e-40
000280 28 bb 01 00 81 0c 01 80 66 03 01 80 a8 eb 00 00
       1.58975e-40 -9.6321e-41 -9.3055e-41 8.4538e-41
000290 68 8d 00 00 a3 75 00 00 61 a9 00 00 ec 7a 01 80
       5.0727e-41 4.22e-41 6.0762e-41 -1.35932e-40
0002a0 7c 4d 00 80 c5 12 01 80 e6 e5 01 80 61 0f 01 80
       -2.7796e-41 -9.8569e-41 -1.74308e-40 -9.7352e-41
0002b0 d7 ed 01 80 e3 ab 01 80 a5 a1 01 00 74 3a 01 00
       -1.77156e-40 -1.53497e-40 1.49823e-40 1.12805e-40
0002c0 71 c3 00 80 48 a9 00 00 d8 64 01 80 ee 30 00 80
       -7.0111e-41 6.0727e-41 -1.28011e-40 -1.7553e-41
0002d0 4a eb 00 00 79 d4 00 00 bc 69 01 80 ec e6 01 00
       8.4406e-41 7.6221e-41 -1.29766e-40 1.74675e-40
0002e0 df 4f 00 80 9c 85 00 00 4b ad 00 00 ec 12 01 80
       -2.8652e-41 4.793e-41 6.2166e-41 -9.8623e-41
0002f0 b6 2c 01 80 02 e1 00 00 ac 9d 00 80 36 39 00 00
       -1.07875e-40 8.0718e-41 -5.6562e-41 2.0523e-41
000300 c9 fb 00 00 4a 9a 01 00 ce d6 00 80 e7 85 00 00
       9.0323e-41 1.47184e-40 -7.7057e-41 4.8035e-41
000310 9c e1 00 80 8f 5b 00 00 a5 81 01 80 83 1a 00 00
       -8.0933e-41 3.2845e-41 -1.38343e-40 9.51e-42
000320 e0 ef 01 00 79 42 01 80 bc 1b 01 80 34 78 00 00
       1.77886e-40 -1.15681e-40 -1.01785e-40 4.3121e-41
000330 46 10 01 00 bc 15 01 80 82 cc 01 80 b5 0c 01 00
       9.7673e-41 -9.9632e-41 -1.65199e-40 9.6394e-41
000340 c8 33 00 00 d5 f4 00 80 7a 17 01 80 24 00 01 00
       1.8576e-41 -8.7829e-41 -1.00257e-40 9.1886e-41
000350 3b ce 00 00 65 b7 01 00 79 7b 01 00 3d 3a 01 00
       7.3982e-41 1.57625e-40 1.36129e-40 1.12727e-40
000360 20 93 01 80 3b e9 00 80 0b 1a 00 80 17 69 01 00
       -1.44614e-40 -8.3667e-41 -9.342e-42 1.29535e-40
000370 5f 50 00 80 5b 3f 01 80 b5 38 01 80 ff 2d 01 80
       -2.8832e-41 -1.14563e-40 -1.12178e-40 -1.08336e-40
000380 d4 3c 01 80 0e 4e 01 80 db 80 01 80 9f 7a 01 00
       -1.13657e-40 -1.19836e-40 -1.3806e-40 1.35824e-40
000390 da 16 00 80 62 41 01 00 cb 1c 01 00 16 64 01 80
       -8.198e-42 1.1529e-40 1.02164e-40 -1.2774e-40
0003a0 b7 b9 00 00 74 9e 01 00 69 d8 00 00 ea 6b 01 80
       6.6622e-41 1.48678e-40 7.7633e-41 -1.30548e-40
0003b0 ad 74 00 00 24 88 00 80 a1 6b 00 00 7e 0c 00 80
       4.1855e-41 -4.8838e-41 3.861e-41 -4.481e-42
0003c0 ed c8 00 80 23 df 00 80 61 ae 00 80 ef 34 00 00
       -7.2079e-41 -8.0046e-41 -6.2555e-41 1.8989e-41
0003d0 48 ce 01 80 82 a1 00 00 21 05 01 80 ab 01 02 80
       -1.65835e-40 5.7938e-41 -9.3675e-41 -1.8427e-40
0003e0 99 36 00 80 4c b2 01 80 a6 64 00 00 5b 61 00 80
       -1.9586e-41 -1.55796e-40 3.6106e-41 -3.4925e-41
0003f0 04 77 00 00 62 ea 01 80 39 00 01 80 f0 cc 00 00
       4.2695e-41 -1.75916e-40 -9.1915e-41 7.3518e-41

e_conv3.depth_conv.bias f4 [32]
000000 04 82 00 00 a2 19 00 80 d3 8e 01 80 aa 11 00 80
       4.6641e-41 -9.195e-42 -1.43071e-40 -6.337e-42
000010 14 e6 00 00 9f e6 01 00 4e e0 00 00 8f 1f 02 00
       8.2536e-41 1.74567e-40 8.0465e-41 1.94992e-40
000020 5e cf 01 00 36 a4 00 00 32 ab 00 80 47 37 01 80
       1.66225e-40 5.8908e-41 -6.1413e-41 -1.11665e-40
000030 d9 30 01 80 5f 3b 00 80 91 5d 01 00 2c ef 00 00
       -1.09359e-40 -2.1298e-41 1.25401e-40 8.5799e-41
000040 9b 1c 01 80 a4 85 00 00 16 bf 01 80 29 7e 01 80
       -1.02097e-40 4.7941e-41 -1.60384e-40 -1.37093e-40
000050 eb a3 01 80 78 8e 00 80 9e 10 00 00 03 5b 00 00
       -1.50638e-40 -5.1108e-41 5.961e-42 3.2649e-41
000060 ae 33 01 00 f2 e2 01 80 e1 fa 01 00 fa 4f 01 80
       1.10375e-40 -1.73248e-40 1.81834e-40 -1.20526e-40
000070 d3 11 00 80 68 69 00 00 fc 04 01 80 a8 dc 00 00
       -6.394e-42 3.7813e-41 -9.3624e-41 7.9157e-41

e_conv3.point_conv.weight f4 [32, 32, 1, 1]
000000 e5 d5 00 80 9d c6 00 00 43 fd 01 00 27 fe 00 00
       -7.6731e-41 7.1249e-41 1.82689e-40 9.1173e-41
000010 0f 25 00 00 00 89 01 00 a5 13 00 00 34 99 01 80
       1.3294e-41 1.40982e-40 7.047e-42 -1.46794e-40
000020 7a 26 01 00 ab 67 00 00 48 28 01 00 d9 2a 01 00
       1.05638e-40 3.7189e-41 1.06286e-40 1.07206e-40
000030 d5 64 00 00 dc 65 01 00 04 9c 00 00 e8 48 01 00
       3.6172e-41 1.28376e-40 5.5968e-41 1.1799e-40
000040 65 1a 00 80 01 37 01 00 f3 d8 00 80 60 07 01 00
       -9.469e-42 1.11567e-40 -7.7827e-41 9.4481e-41
000050 eb 15 01 00 99 d4 00 80 5b f0 00 00 bf 29 01 80
       9.9698e-41 -7.6266e-41 8.6223e-41 -1.06811e-40
000060 b5 8d 00 80 77 e5 01 00 4d 3f 01 80 52 22 02 00
       -5.0835e-41 1.74152e-40 -1.14544e-40 1.95983e-40
000070 62 b4 00 80 ca c9 00 80 7f 15 02 80 69 1b 00 00
       -6.4709e-41 -7.2388e-41 -1.91382e-40 9.833e-42
000080 c5 a8 01 80 a7 14 02 80 40 c9 00 80 be 93 00 00
       -1.52379e-40 -1.9108e-40 -7.2195e-41 5.3e-41
000090 9c ec 00 00 5b 8b 00 00 d5 84 00 80 ca 50 01 80
       8.488e-41 4.9991e-41 -4.7651e-41 -1.20817e-40
0000a0 8a 85 01 80 59 3a 00 00 f1 23 00 00 db 31 00 00
       -1.3974e-40 2.0931e-41 1.2893e-41 1.7885e-41
0000b0 23 1e 01 00 11 40 00 00 4b 65 01 00 23 2e 00 80
       1.02647e-40 2.2983e-41 1.28173e-40 -1.6551e-41
0000c0 22 5b 00 00 c9 03 00 80 a7 1c 00 00 5a 7c 00 80
       3.2692e-41 -1.358e-42 1.0279e-41 -4.4609e-41
0000d0 7f ab 01 80 39 af 01 00 a1 44 01 00 07 47 00 80
       -1.53357e-40 1.54694e-40 1.16455e-40 -2.548e-41
0000e0 d3 3b 01 00 c6 23 02 00 08 10 02 80 14 0b 00 00
       1.13296e-40 1.96504e-40 -1.89422e-40 3.974e-42
0000f0 a5 00 01 80 f2 4b 01 00 61 73 00 80 01 03 00 80
       -9.2067e-41 1.1908e-40 -4.139e-41 -1.078e-42
000100 ff b1 00 00 ea 44 00 00 32 bf 01 00 05 bf 01 00
       6.3853e-41 2.4722e-41 1.60423e-40 1.6036e-40
000110 2a aa 00 00 ed fb 00 00 b7 47 01 80 23 54 01 80
       6.1043e-41 9.0374e-41 -1.17562e-40 -1.22018e-40
000120 fe 24 00 80 68 0d 01 00 c7 de 01 00 6c 2d 02 00
       -1.327e-41 9.6645e-41 1.71753e-40 1.99965e-40
000130 76 1c 01 80 ca fc 01 80 c9 94 00 80 0a 5d 00 80
       -1.02045e-40 -1.82519e-40 -5.3374e-41 -3.3376e-41
000140 c9 d3 00 00 ae ac 00 00 7b 4b 00 00 78 95 01 80
       7.5974e-41 6.1946e-41 2.7077e-41 -1.45455e-40
000150 f0 93 00 80 e9 ac 01 00 bc 09 00 00 73 9e 00 00
       -5.307e-41 1.53864e-40 3.492e-42 5.6841e-41
000160 9d 85 01 80 bb 0d 02 80 6f 25 01 00 e2 58 01 80
       -1.39767e-40 -1.88597e-40 1.05264e-40 -1.2372e-40
000170 dd 5c 00 00 18 32 01 00 b0 23 01 80 9d 0f 02 00
       3.3313e-41 1.09806e-40 -1.04638e-40 1.89272e-40
000180 0e 4a 00 80 19 2c 00 80 ab f8 00 80 46 eb 01 80
       -2.6566e-41 -1.5819e-41 -8.9205e-41 -1.76236e-40
000190 b1 9a 00 00 f0 11 00 00 4a 2b 00 00 01 88 00 80
       5.5493e-41 6.435e-42 1.5529e-41 -4.8789e-41
0001a0 ea 34 01 00 fa 4f 00 80 b2 4f 00 80 5d 02 01 80
       1.10817e-40 -2.869e-41 -2.8589e-41 -9.2683e-41
0001b0 aa 3c 01 80 bf 9d 01 00 fd 6c 01 00 19 27 01 00
       -1.13598e-40 1.48424e-40 1.30933e-40 1.05861e-40
0001c0 74 98 00 80 cb 01 01 80 43 75 01 80 c6 dd 00 00
       -5.469e-41 -9.2479e-41 -1.33901e-40 7.9557e-41
0001d0 e4 17 00 80 79 10 01 80 7c 65 00 80 93 28 00 80
       -8.57e-42 -9.7745e-41 -3.6406e-41 -1.4555e-41
0001e0 cb 4a 01 80 a1 0f 00 00 d5 48 01 80 52 17 02 00
       -1.18666e-40 5.607e-42 -1.17963e-40 1.92037e-40
0001f0 c2 ff 00 00 a1 7d 01 80 b7 2c 01 80 35 74 00 80
       9.1749e-41 -1.36903e-40 -1.07876e-40 -4.1687e-41
000200 60 de 00 00 39 0e 02 80 f9 30 00 80 1d 32 01 00
       7.9773e-41 -1.88773e-40 -1.7568e-41 1.09813e-40
000210 04 ba 01 80 73 41 00 80 ae af 00 80 98 3d 01 80
       -1.58565e-40 -2.3479e-41 -6.3022e-41 -1.13931e-40
000220 67 f2 01 80 ee c7 00 80 11 20 01 00 29 df 00 80
       -1.78793e-40 -7.1721e-41 1.03339e-40 -8.0055e-41
000230 e9 d0 00 00 e8 07 00 00 cb 70 00 00 64 21 00 80
       7.4943e-41 2.836e-42 4.0462e-41 -1.1978e-41
000240 99 3a 00 80 a5 7e 00 80 79 4a 01 80 e8 9d 00 80
       -2.1021e-41 -4.5431e-41 -1.18551e-40 -5.6646e-41
000250 8f 3d 01 00 c6 b3 01 00 fb e6 01 00 e9 af 00 00
       1.13919e-40 1.56326e-40 1.74696e-40 6.3105e-41
000260 0d 2a 01 80 4a c9 01 80 92 58 00 80 52 9e 01 00
       -1.0692e-40 -1.64044e-40 -3.1773e-41 1.4863e-40
000270 ea 7b 01 00 59 2e 01 80 67 39 01 80 ba d8 00 00
       1.36287e-40 -1.08462e-40 -1.12428e-40 7.7747e-41
000280 64 cd 00 80 04 66 00 00 78 b8 00 00 04 15 00 80
       -7.368e-41 3.6596e-41 6.6175e-41 -7.539e-42
000290 b0 03 00 80 13 e6 00 00 c0 7e 01 00 cf e4 00 00
       -1.323e-42 8.2535e-41 1.37305e-40 8.2081e-41
0002a0 b4 a5 00 80 98 40 00 80 81 45 01 80 8b 1e 01 00
       -5.9443e-41 -2.3172e-41 -1.16769e-40 1.02792e-40
0002b0 c0 d7 00 80 bb e6 00 00 3a 15 01 80 e9 76 00 80
       -7.7397e-41 8.277e-41 -9.945e-41 -4.2657e-41
0002c0 75 d7 01 80 fc c1 00 80 8f 34 01 80 9e b7 00 00
       -1.69127e-40 -6.9588e-41 -1.1069e-40 6.587e-41
0002d0 37 65 00 00 04 23 01 00 6f 90 00 80 d6 ff 00 00
       3.6309e-41 1.04397e-40 -5.1813e-41 9.1777e-41
0002e0 30 3b 01 80 d4 44 01 80 a2 9a 00 80 dc 6e 01 00
       -1.13068e-40 -1.16526e-40 -5.5472e-41 1.31604e-40
0002f0 ef f0 00 00 ad 27 00 00 63 3d 01 00 a8 11 01 80
       8.643e-41 1.4233e-41 1.13857e-40 -9.817e-41
000300 91 72 00 00 63 78 01 80 77 6f 01 00 82 f6 00 80
       4.1099e-41 -1.35022e-40 1.31822e-40 -8.843e-41
000310 38 2b 01 00 fc 54 01 00 70 32 00 00 5f 05 02 00
       1.0734e-40 1.22322e-40 1.8094e-41 1.85598e-40
000320 97 31 00 80 9f 84 01 80 43 91 00 00 1b 58 00 80
       -1.779e-41 -1.39411e-40 5.211e-41 -3.1606e-41
000330 72 3c 01 00 b5 52 00 80 b9 2e 01 80 4b 11 02 00
       1.13519e-40 -2.967e-41 -1.08596e-40 1.89875e-40
000340 1f 91 01 80 42 8b 01 80 9a 59 01 00 89 94 00 00
       -1.43895e-40 -1.41792e-40 1.23978e-40 5.3284e-41
000350 c2 54 01 80 96 c2 01 00 7f 8b 01 80 0a 42 01 00
       -1.22241e-40 1.6164e-40 -1.41877e-40 1.15526e-40
000360 44 74 00 00 00 91 01 00 b5 0e 02 80 dc a4 00 00
       4.1708e-41 1.43852e-40 -1.88947e-40 5.914e-41
000370 c5 c3 00 80 17 e3 00 80 3f ef 01 80 96 07 00 00
       -7.0229e-41 -8.1464e-41 -1.77661e-40 2.721e-42
000380 bc f8 01 80 7d da 01 80 da 17 01 00 67 34 02 80
       -1.81065e-40 -1.70214e-40 1.00392e-40 -2.0247e-40
000390 f8 b5 00 80 53 59 01 80 cd 86 00 80 de e9 00 80
       -6.5278e-41 -1.23879e-40 -4.8357e-41 -8.3896e-41
0003a0 ef d3 00 00 94 04 02 80 b6 47 00 00 7d 1e 00 80
       7.6027e-41 -1.85313e-40 2.5725e-41 -1.0937e-41
0003b0 aa ea 00 80 85 5e 00 00 25 58 01 80 b2 52 01 00
       -8.4182e-41 3.3907e-41 -1.23456e-40 1.21501e-40
0003c0 98 09 01 00 e6 8b 00 00 2b a3 01 00 31 7b 00 80
       9.5277e-41 5.0186e-41 1.50369e-40 -4.4193e-41
0003d0 e1 1c 01 00 51 95 01 80 e4 3a 00 00 0c 06 01 00
       1.02195e-40 -1.454e-40 2.1126e-41 9.4005e-41
0003e0 80 e5 00 80 8a 73 00 00 29 35 00 80 d7 e2 00 00
       -8.2329e-41 4.1448e-41 -1.907e-41 8.1375e-41
0003f0 56 cc 00 80 5b ac 01 00 c1 37 00 80 3e 34 00 80
       -7.3302e-41 1.53665e-40 -2.0001e-41 -1.8741e-41

e_conv3.point_conv.bias f4 [32]
000000 aa 30 01 00 0e eb 00 80 70 5f 01 80 f8 a5 00 00
       1.09293e-40 -8.4322e-41 -1.26072e-40 5.9538e-41
000010 f9 40 00 80 d1 d0 00 00 8a 33 01 00 67 d0 01 00
       -2.3308e-41 7.4909e-41 1.10324e-40 1.66596e-40
000020 63 69 01 00 67 31 00 80 64 a9 00 80 37 2d 01 80
       1.29641e-40 -1.7722e-41 -6.0766e-41 -1.08056e-40
000030 9c a0 00 00 55 02 01 00 d7 90 01 80 3b 31 01 80
       5.7616e-41 9.2672e-41 -1.43794e-40 -1.09496e-40
000040 fb 7e 00 00 a8 cf 00 00 15 81 00 00 88 56 01 00
       4.5552e-41 7.4493e-41 4.6306e-41 1.22877e-40
000050 18 1f 00 80 51 56 00 80 a5 2f 01 00 9e 34 01 80
       -1.1154e-41 -3.0964e-41 1.08927e-40 -1.10711e-40
000060 13 36 00 00 d1 67 00 00 02 55 00 80 29 b1 00 00
       1.9398e-41 3.7242e-41 -3.0495e-41 6.3553e-41
000070 2a 04 00 00 58 3b 00 00 ee ec 01 00 e9 7b 00 80
       1.494e-42 2.1289e-41 1.7683e-40 -4.445e-41

e_conv4.depth_conv.weight f4 [32, 1, 3, 3]
000000 f8 54 01 00 b1 fb 00 00 7b 6f 01 00 b8 42 00 00
       1.22317e-40 9.029e-41 1.31827e-40 2.3934e-41
000010 dd b3 01 00 77 2a 01 80 df ec 00 00 42 8a 00 80
       1.56358e-40 -1.07069e-40 8.4973e-41 -4.9598e-41
000020 19 b7 01 80 14 45 01 00 59 2a 01 80 6e 49 01 80
       -1.57519e-40 1.16616e-40 -1.07027e-40 -1.18177e-40
000030 77 63 00 80 cb e0 01 80 2d ce 00 80 df 99 00 80
       -3.5681e-41 -1.72476e-40 -7.3962e-41 -5.5199e-41
000040 73 5b 01 80 3b 9f 00 00 1d 0c 00 00 bc 45 01 80
       -1.24641e-40 5.7121e-41 4.345e-42 -1.16851e-40
000050 6a 05 02 00 56 b3 00 80 2d 11 01 00 75 54 01 00
       1.85613e-40 -6.4334e-41 9.7997e-41 1.22133e-40
000060 6a fd 00 00 d7 0c 01 80 25 20 01 80 fe 58 01 80
       9.0908e-41 -9.6442e-41 -1.03367e-40 -1.2376e-40
000070 5d 20 00 80 d4 1a 01 00 fa bb 01 00 e8 41 00 80
       -1.161e-41 1.0146e-40 1.59269e-40 -2.3643e-41
000080 b6 1f 01 00 ed bb 00 00 a3 59 01 00 b0 97 01 00
       1.03211e-40 6.7415e-41 1.23991e-40 1.46251e-40
000090 ae db 01 00 f8 8d 00 00 41 22 00 00 d6 91 00 80
       1.70642e-40 5.0929e-41 1.2288e-41 -5.2316e-41
0000a0 42 56 00 00 d1 06 00 00 35 0b 00 00 38 af 00 00
       3.0943e-41 2.445e-42 4.02e-42 6.2857e-41
0000b0 78 bc 01 00 5e 10 01 80 dd 0c 00 80 b0 49 00 00
       1.59445e-40 -9.7707e-41 -4.614e-42 2.6434e-41
0000c0 15 37 01 00 62 be 00 80 74 7c 01 80 c4 e3 00 00
       1.11595e-40 -6.8296e-41 -1.36481e-40 8.1707e-41
0000d0 16 3c 01 00 c8 a5 01 80 f3 47 00 00 ea 1f 01 00
       1.1339e-40 -1.51307e-40 2.581e-41 1.03284e-40
0000e0 b4 57 01 00 ba 51 01 80 7f 71 01 80 d9 6a 01 80
       1.23297e-40 -1.21153e-40 -1.3255e-40 -1.30165e-40
0000f0 f6 3a 00 80 51 19 00 00 1e b2 01 80 3c ed 00 80
       -2.1151e-41 9.082e-42 -1.55732e-40 -8.5104e-41
000100 fe 4c 01 00 24 c1 01 80 d6 1d 00 00 27 bd 00 80
       1.19455e-40 -1.61121e-40 1.0703e-41 -6.7855e-41
000110 81 1f 01 80 7f 2a 01 00 e8 8d 00 80 2c f8 00 00
       -1.03137e-40 1.0708e-40 -5.0906e-41 8.9027e-41
000120 21 d0 01 80 91 36 01 00 cc 46 00 80 1e 88 00 00
       -1.66498e-40 1.1141e-40 -2.5397e-41 4.883e-41
000130 6b ff 00 00 38 b0 00 80 da a1 00 80 e7 ae 01 00
       9.1627e-41 -6.3215e-41 -5.8061e-41 1.54579e-40
000140 ff 6a 01 80 83 62 00 80 17 30 01 00 a0 87 01 80
       -1.30218e-40 -3.534e-41 1.09087e-40 -1.40489e-40
000150 f7 84 01 00 e2 86 01 80 a3 01 01 80 d8 09 01 00
       1.39534e-40 -1.40222e-40 -9.2423e-41 9.5367e-41
000160 dc ee 00 80 47 03 00 00 b9 b2 00 00 14 00 00 80
       -8.5687e-41 1.176e-42 6.4114e-41 -2.8e-44
000170 a5 ba 00 00 db 75 01 00 6b e7 01 80 86 77 01 00
       6.6955e-41 1.34114e-40 -1.74853e-40 1.34712e-40
000180 b9 96 00 80 2a af 01 00 59 ac 00 80 d8 83 00 00
       -5.4069e-41 1.54673e-40 -6.1827e-41 4.7297e-41
000190 87 2a 01 80 a6 bd 01 80 38 94 00 00 9b 01 00 00
       -1.07091e-40 -1.59869e-40 5.3171e-41 5.76e-43
0001a0 d7 32 00 80 b3 43 01 80 47 22 01 00 8a 82 00 80
       -1.8238e-41 -1.16121e-40 1.04132e-40 -4.6829e-41
0001b0 13 8e 01 80 33 a3 01 00 e1 71 01 00 b7 81 00 80
       -1.42802e-40 1.5038e-40 1.32688e-40 -4.6533e-41
0001c0 e6 59 01 80 a5 41 01 00 da b4 00 00 11 7c 00 80
       -1.24085e-40 1.15384e-40 6.4877e-41 -4.4507e-41
0001d0 9c 5e 00 00 36 78 00 00 5b 32 01 80 e9 71 01 00
       3.394e-41 4.3124e-41 -1.099e-40 1.32699e-40
0001e0 d0 6e 00 80 15 37 01 00 61 5a 01 80 79 be 00 80
       -3.9752e-41 1.11595e-40 -1.24257e-40 -6.8329e-41
0001f0 ea 22 01 00 4b c4 01 00 18 7c 01 80 4e b9 00 80
       1.0436e-40 1.62252e-40 -1.36352e-40 -6.6475e-41
000200 c9 bd 00 00 a7 c9 00 00 2c 04 02 80 ac 6a 01 00
       6.8082e-41 7.2339e-41 -1.85168e-40 1.30102e-40
000210 1c 81 00 80 32 90 00 00 cf 02 00 00 c1 9e 00 00
       -4.6316e-41 5.1728e-41 1.008e-42 5.695e-41
000220 3c 17 01 00 86 9b 00 00 1b a7 00 80 bf b9 01 00
       1.0017e-40 5.5791e-41 -5.9946e-41 1.58469e-40
000230 a3 68 01 80 e6 f6 01 00 30 79 00 00 b8 d2 00 00
       -1.29372e-40 1.80406e-40 4.3474e-41 7.5592e-41
000240 20 60 00 00 3e 01 01 00 b6 2c 01 00 03 ab 00 80
       3.4483e-41 9.2281e-41 1.07875e-40 -6.1347e-41
000250 bf 78 01 80 ba 30 01 00 f7 92 00 00 49 0e 00 80
       -1.35151e-40 1.09315e-40 5.2721e-41 -5.125e-42
000260 58 70 01 00 81 98 00 00 86 20 00 00 49 cc 00 00
       1.32137e-40 5.4708e-41 1.1667e-41 7.3284e-41
000270 af 65 01 80 9f 98 00 00 51 0d 01 00 95 f2 00 80
       -1.28313e-40 5.475e-41 9.6613e-41 -8.7022e-41
000280 1b e0 00 80 d5 6b 01 80 0d 2d 00 00 bc 0d 01 80
       -8.0394e-41 -1.30518e-40 1.6161e-41 -9.6762e-41
000290 cf 59 01 00 ad 19 00 00 ba 70 01 00 91 4e 01 00
       1.24053e-40 9.211e-42 1.32274e-40 1.2002e-40
0002a0 b2 07 00 80 a7 01 02 00 2b 0c 02 80 27 0d 01 80
       -2.76e-42 1.84264e-40 -1.88036e-40 -9.6554e-41
0002b0 bd ff 00 00 01 8e 00 00 e5 0e 00 80 56 03 02 00
       9.1742e-41 5.0941e-41 -5.343e-42 1.84868e-40
0002c0 9a a8 00 00 28 1f 00 80 ee 54 01 00 69 da 00 80
       6.0483e-41 -1.1177e-41 1.22303e-40 -7.8351e-41
0002d0 6d fa 00 00 44 25 02 00 bd 92 00 80 25 ae 00 00
       8.9836e-41 1.9704e-40 -5.264e-41 6.2471e-41
0002e0 b0 60 01 80 bd 4f 00 80 2f e1 00 80 72 7e 00 80
       -1.2652e-40 -2.8605e-41 -8.078e-41 -4.536e-41
0002f0 8a 19 00 80 51 83 00 80 cb bc 00 00 1e 9c 00 00
       -9.162e-42 -4.7107e-41 6.7726e-41 5.6004e-41
000300 0b 8f 01 00 b4 0e 01 00 6e a8 01 00 b0 b7 00 80
       1.4315e-40 9.711e-41 1.52257e-40 -6.5895e-41
000310 32 05 00 80 1c b8 00 80 45 d5 01 80 7b 1f 00 00
       -1.864e-42 -6.6046e-41 -1.68342e-40 1.1293e-41
000320 18 35 00 00 b9 fc 01 80 a9 6c 00 80 9e 1c 00 00
       1.9046e-41 -1.82495e-40 -3.898e-41 1.0266e-41
000330 54 17 00 80 3a 2c 00 80 be 35 01 80 2c 53 01 00
       -8.369e-42 -1.5866e-41 -1.11115e-40 1.21672e-40
000340 40 5e 01 80 72 52 00 00 f1 0b 00 00 ad 96 00 00
       -1.25646e-40 2.9576e-41 4.284e-42 5.4052e-41
000350 37 e2 01 80 cd df 00 00 cd 38 01 80 4a e1 00 80
       -1.72986e-40 8.0285e-41 -1.12212e-40 -8.0818e-41
000360 13 7a 00 80 ff a4 01 80 fe 29 00 00 1b f4 01 00
       -4.3792e-41 -1.51025e-40 1.5064e-41 1.79404e-40
000370 d1 e1 00 80 7d 66 00 80 87 9c 00 00 0a 79 01 00
       -8.1008e-41 -3.6766e-41 5.6151e-41 1.35256e-40
000380 fa c0 01 00 72 2d 00 00 43 89 01 00 32 7e 01 00
       1.61062e-40 1.6303e-41 1.41076e-40 1.37106e-40
000390 81 5a 01 00 6b 95 01 00 1f 96 01 00 69 04 01 80
       1.24302e-40 1.45437e-40 1.45689e-40 -9.3418e-41
0003a0 45 a6 01 00 07 30 01 00 3c 4b 00 00 cc 26 00 00
       1.51482e-40 1.09064e-40 2.6989e-41 1.3918e-41
0003b0 93 be 00 80 e7 10 00 80 7c ed 00 80 de 2e 00 80
       -6.8365e-41 -6.063e-42 -8.5193e-41 -1.6813e-41
0003c0 01 df 01 80 e7 51 01 80 16 23 01 80 5b 62 01 00
       -1.71834e-40 -1.21217e-40 -1.04422e-40 1.27119e-40
0003d0 40 b5 00 00 a9 9a 01 80 d3 81 01 00 c0 1a 01 00
       6.502e-41 -1.47317e-40 1.38408e-40 1.01432e-40
0003e0 61 5d 00 00 38 be 00 80 9b 25 02 80 55 14 00 80
       3.3498e-41 -6.8238e-41 -1.97161e-40 -7.294e-42
0003f0 8b 35 00 00 f3 9f 00 00 6f d9 01 80 8d 9b 00 80
       1.9208e-41 5.7379e-41 -1.69836e-40 -5.5801e-41

e_conv4.depth_conv.bias f4 [32]
000000 ab 06 00 00 29 07 01 00 f6 88 00 80 de 94 00 80
       2.392e-42 9.4404e-41 -4.9132e-41 -5.3403e-41
000010 4d 24 00 00 4a ed 00 00 d4 e8 00 80 10 1b 01 80
       1.3022e-41 8.5123e-41 -8.3523e-41 -1.01544e-40
000020 4c 60 00 80 b4 38 00 00 71 74 00 00 47 aa 01 00
       -3.4545e-41 2.0341e-41 4.1771e-41 1.5292e-40
000030 43 23 01 80 27 6f 00 00 b0 09 01 80 d5 b0 01 80
       -1.04485e-40 3.9874e-41 -9.5311e-41 -1.55271e-40
000040 af 02 00 80 fe 89 01 00 5b 96 00 80 ec af 00 00
       -9.63e-43 1.41338e-40 -5.3937e-41 6.3109e-41
000050 44 d5 01 80 d9 f9 00 80 c7 5a 01 00 99 94 01 00
       -1.68341e-40 -8.9628e-41 1.244e-40 1.45142e-40
000060 0a 63 01 00 ee 9f 00 00 66 05 01 00 37 8e 00 00
       1.27364e-40 5.7372e-41 9.3772e-41 5.1017e-41
000070 10 14 00 80 50 3d 01 80 22 db 00 80 f5 70 00 80
       -7.197e-42 -1.1383e-40 -7.861e-41 -4.0521e-41
