Zero-DCE++/snapshots_Zero_DCE++/Epoch34.pth (torch, 51217 bytes, 28 tensors)

e_conv1.depth_conv.weight f4 [3, 1, 3, 3]
0	0xbea94a76	-0.33064622
1	0xbe11a04d	-0.14221306
2	0x3d394373	0.04523034
3	0xbe315d5b	-0.17320769
4	0x3dfef12f	0.12448346
5	0x3dde6647	0.108593516
6	0xbec6f2ed	-0.38857213
7	0xbe0b49ca	-0.13602367
8	0xbd4eccbc	-0.05048822
9	0x3e310a4d	0.17289086
10	0x3dfa1c75	0.12212459
11	0x3e93f2ae	0.28896087
12	0x3e36f19a	0.17865601
13	0xbb975947	-0.004618797
14	0x3e617ab2	0.22019461
15	0x3dd26ddc	0.1027486
16	0xbce657fd	-0.028118128
17	0x3e3ea3cd	0.18617173
18	0xbce4594b	-0.02787461
19	0xbd71a8e3	-0.058998954
20	0xbe0d32e9	-0.13788952
21	0xbd80fc79	-0.06298155
22	0xbde04c85	-0.10952095
23	0xbe0a888a	-0.13528648
24	0xbd490edc	-0.049086437
25	0xbe3d824e	-0.18506739
26	0xbeadc031	-0.33935693

e_conv1.depth_conv.bias f4 [3]
0	0x3d968fd8	0.07351655
1	0x3ea16ce6	0.31528395
2	0xbd1976c0	-0.037466764

e_conv1.point_conv.weight f4 [32, 3, 1, 1]
0	0x3c3a7f00	0.011382818
1	0x3e83d0a8	0.2574513
2	0x3dcb54e8	0.09928304
3	0x80006799	-3.7164e-41
4	0xa55fb3a2	-1.9403029e-16
5	0x300d6934	5.1445004e-10
6	0x360c8705	2.0940217e-06
7	0xbb370c71	-0.0027931
8	0xb8e37c2a	-0.00010847331
9	0x3dbc811d	0.09204314
10	0xbf08767b	-0.53305787
11	0x3decab56	0.11556117
12	0x3a836af1	0.0010026378
13	0xb8ac31da	-8.210885e-05
14	0x37df63e0	2.663018e-05
15	0xbdecb235	-0.11557428
16	0x3e060d9d	0.1309113
17	0x3ee6e7e8	0.45098805
18	0x3da3ce83	0.07998373
19	0x3e87df68	0.26537633
20	0xbe9e12a8	-0.3087361
21	0x80007943	-4.35e-41
22	0x000004fc	1.788e-42
23	0x00011f61	1.03092e-40
24	0x3d3d56c0	0.04622531
25	0xbd0d9228	-0.034563214
26	0x3cd8139a	0.026376534
27	0x3d9eb0e1	0.07748581
28	0xbd29a37c	-0.041415676
29	0xbe03f683	-0.12887006
30	0x3eba92ad	0.3644003
31	0xbf0e1d72	-0.5551368
32	0x3ecdcb6e	0.40194267
33	0x3cb31438	0.021860227
34	0xbd9d5e6b	-0.076840244
35	0x3d5552ce	0.05208092
36	0x3e1c320e	0.1525347
37	0xbed9492f	-0.42438647
38	0xbe10a9ea	-0.14127317
39	0xbd968538	-0.07349628
40	0xbe0d22fd	-0.13782878
41	0x3de99ffb	0.11407467
42	0x388dd926	6.763851e-05
43	0xb4461b89	-1.8450204e-07
44	0x98031403	-1.6941456e-24
45	0x3d118ef7	0.035536733
46	0x3ebc0696	0.36723775
47	0x3eb0621d	0.34449854
48	0xbe6615a5	-0.22469194
49	0x3eac27db	0.33624157
50	0xbecf4102	-0.40479285
51	0x1cdaa23a	1.4467964e-21
52	0x18ffd678	6.6132513e-24
53	0x39d727da	0.00041037687
54	0x3bcb4fb9	0.006204572
55	0x3c1df4bd	0.00964087
56	0xbd828f41	-0.0637498
57	0x39d47cb2	0.00040528696
58	0x319dc206	4.5913593e-09
59	0x336f4919	5.5713006e-08
60	0xbf14e8ec	-0.5816791
61	0xbdada0bb	-0.084779225
62	0xbec70178	-0.38868308
63	0x2eae2b52	7.920299e-11
64	0x80005a76	-3.2451e-41
65	0x2579923a	2.1646851e-16
66	0xbbc6ec7a	-0.0060706707
67	0x3ba87cee	0.005141846
68	0x3db2765c	0.087139815
69	0x80006060	-3.4573e-41
70	0x39aae510	0.00032595592
71	0x8092622a	-1.3443197e-38
72	0x26d32112	1.465003e-15
73	0x0000b4c1	6.4842e-41
74	0x35992b1d	1.1411936e-06
75	0xa2cae950	-5.499924e-18
76	0xb9ccb3a8	-0.00039043766
77	0x3b03be74	0.0020102533
78	0x01744403	4.4864518e-38
79	0xbb5e59c3	-0.0033928014
80	0x8000b27f	-6.4032e-41
81	0x3eb1a302	0.34694678
82	0xbe184036	-0.14868245
83	0xbeb7753e	-0.35831636
84	0x3c65d691	0.014028207
85	0xbeb3833b	-0.35061058
86	0xbdf99a9a	-0.12187691
87	0x80012183	-1.03857e-40
88	0xa576c9cc	-2.140547e-16
89	0x229fe322	4.3337523e-18
90	0x3e94fe23	0.2910014
91	0x3cc36421	0.023851456
92	0xbd26e440	-0.04074502
93	0xbe8c5c70	-0.27414274
94	0x3ec5be16	0.38621587
95	0xbec6ae30	-0.3880477

e_conv1.point_conv.bias f4 [32]
0	0xbe2477c6	-0.16061315
1	0xa9aefaf7	-7.770688e-14
2	0xba023343	-0.0004966745
3	0x3f11fb98	0.57024527
4	0x389bded6	7.4324824e-05
5	0x3d908b46	0.07057814
6	0x3e9aea1c	0.30256736
7	0xb7832cbe	-1.5637252e-05
8	0x3d08f952	0.033440895
9	0xbc90f935	-0.017696956
10	0x3ed5009d	0.4160203
11	0x3eecfe3e	0.4628772
12	0x3eac853e	0.33695406
13	0x3e9a212d	0.30103436
14	0xba1db108	-0.00060154544
15	0x3f085f61	0.53270537
16	0xbdb0e7f5	-0.08637992
17	0xad85f5c0	-1.5229484e-11
18	0xbd5caaf6	-0.05387398
19	0xb83ad423	-4.4543423e-05
20	0x3ed2407a	0.41064817
21	0xae31a2bb	-4.0389674e-11
22	0x3ebdba5d	0.37056246
23	0xbb2f68de	-0.0026765387
24	0xae59e5d4	-4.9544216e-11
25	0x80009b75	-5.5767e-41
26	0xbb41f5dc	-0.0029596006
27	0x3eaaf338	0.33388686
28	0x3debd139	0.115145154
29	0xbaf253c9	-0.0018488105
30	0x3eff7b1f	0.4989862
31	0xbdc62669	-0.09675295

e_conv2.depth_conv.weight f4 [32, 1, 3, 3]
0	0xbd4fda93	-0.050745558
1	0xbd4f63b6	-0.0506322
2	0xbd2f5a73	-0.04281087
3	0xbce32038	-0.027725324
4	0xbd0f4a21	-0.034982804
5	0xbcb7cd42	-0.022436742
6	0xbcf74ec3	-0.030188924
7	0xbd1a79ed	-0.037713934
8	0xbce34051	-0.02774063
9	0x0dd296a3	1.2978514e-30
10	0x03e6caa6	1.3564711e-36
11	0x000070eb	4.0507e-41
12	0xa6e4f4f6	-1.5887075e-15
13	0x00004f68	2.8486e-41
14	0x00005d10	3.3385e-41
15	0x80002a0b	-1.5082e-41
16	0x000052e3	2.9734e-41
17	0x2c51acec	2.9796677e-12
18	0x0136abca	3.3551373e-38
19	0x00002ae5	1.5388e-41
20	0xa9c5555f	-8.763367e-14
21	0x2f8119dd	2.348334e-10
22	0x2b77ec49	8.807994e-13
23	0x00005c47	3.3103e-41
24	0x95b6dd57	-7.385843e-26
25	0x8000316f	-1.7733e-41
26	0x000096cf	5.41e-41
27	0xbe98a9ba	-0.2981699
28	0xbe8e03a4	-0.27737153
29	0xbda65dc3	-0.081233524
30	0xbdb76faa	-0.08956845
31	0x3e1d2fd8	0.15350282
32	0x3e9345c6	0.2876417
33	0x3e8cb535	0.27482
34	0xbc06cc1a	-0.008227373
35	0x3ee7434c	0.4516853
36	0x37d03887	2.4821855e-05
37	0x38d63226	0.00010213656
38	0x36f6bd62	7.3534184e-06
39	0x38b3a9cd	8.567013e-05
40	0x38d2ad19	0.00010045822
41	0x379f32c4	1.8977917e-05
42	0x37626205	1.3493472e-05
43	0x3802163c	3.1015123e-05
44	0xb758173a	-1.2880011e-05
45	0xbcee6750	-0.029101998
46	0x3d44e8eb	0.04807369
47	0xbd853fee	-0.06506334
48	0x3d9dadd5	0.076991715
49	0x3e51e465	0.20497282
50	0xbd2684d5	-0.040654022
51	0xbd219547	-0.039449003
52	0x3ba5b0b4	0.005056465
53	0xbe40241c	-0.18763775
54	0x3dca6f90	0.0988456
55	0xbb43ced0	-0.0029877909
56	0xbe6b110a	-0.22955719
57	0x3d6a6a1c	0.0572301
58	0x3e28aabd	0.16471381
59	0xbdc31dfc	-0.095272034
60	0xbd282dfb	-0.041059475
61	0xbb8ae1ff	-0.0042383666
62	0xbea14f5b	-0.31505856
63	0x29200e33	3.5539453e-14
64	0x20e289fb	3.8377197e-19
65	0x95a5f5db	-6.703086e-26
66	0x23a0645f	1.7389744e-17
67	0x00003fe4	2.292e-41
68	0xaf5544d5	-1.9396691e-10
69	0x1dc12e28	5.11344e-21
70	0xa6829ead	-9.063571e-16
71	0xacc9f227	-5.739648e-12
72	0x3bd7860d	0.0065772594
73	0xba2791c9	-0.0006392268
74	0xbb9472b0	-0.0045302734
75	0xbadb7edb	-0.001674618
76	0xbb429cca	-0.0029695504
77	0x39075524	0.0001290632
78	0xbba77f9d	-0.0051116482
79	0xb91256ca	-0.00013955976
80	0x3c1d03c9	0.009583422
81	0x3bffff78	0.0078124367
82	0x3ac86232	0.0015288054
83	0xbc79584d	-0.015218806
84	0x3c800b33	0.01563034
85	0x3bdee3b7	0.006802048
86	0xbc0d36fb	-0.008619065
87	0x3c28e40e	0.010308279
88	0x3aba84a5	0.0014230205
89	0xbc05fafd	-0.008177516
90	0x3e9ff12d	0.3123869
91	0x3e98207f	0.29712293
92	0x3e732ca9	0.23747505
93	0x3e966038	0.29370284
94	0xbc7e4774	-0.015519965
95	0x3eb29616	0.3488013
96	0x3e91abea	0.28451473
97	0x3d9eac7a	0.07747741
98	0x3d71f403	0.0590706
99	0x3e5cc414	0.21559173
100	0xbe63e959	-0.22256984
101	0x3e07e7a9	0.13271965
102	0x3d8da968	0.06917077
103	0xbe6b7e66	-0.22997436
104	0xbe1b7a0f	-0.1518328
105	0x3e854710	0.2603078
106	0x3d6882f8	0.056765527
107	0x3e112d68	0.14177477
108	0x3eaff42b	0.34365973
109	0x3de56ec5	0.11202768
110	0x3e4bd85f	0.19906758
111	0x3e928923	0.28620252
112	0x3e584d93	0.21123342
113	0x3ddabf72	0.106810465
114	0x3e944fbf	0.2896709
115	0x3e3b615c	0.18298858
116	0xbd8645de	-0.06556295
117	0x3b61b372	0.0034439233
118	0x3cf0d558	0.029398605
119	0x3d566705	0.05234434
120	0x3dda61a7	0.10663157
121	0xbe0e7e29	-0.13915314
122	0x3e4bf306	0.19916925
123	0xbdea752f	-0.11448132
124	0x3d106ac1	0.03525806
125	0x3ebe374a	0.37151557
126	0xab8856c4	-9.687464e-13
127	0x9fae99aa	-7.394608e-20
128	0x1533f482	3.6341645e-26
129	0x8000c12c	-6.9297e-41
130	0x26905c94	1.0017101e-15
131	0x800089a7	-4.938e-41
132	0x22d40cdf	5.7476343e-18
133	0x00002435	1.2989e-41
134	0x0f903cfd	1.4222988e-29
135	0xbda7293c	-0.08162162
136	0x3e298160	0.16553259
137	0xbe222977	-0.1583613
138	0x3dfd461b	0.12366887
139	0x3e657368	0.22407305
140	0x3e594aee	0.2121999
141	0xbe29e272	-0.16590288
142	0xbd8c69bc	-0.06856105
143	0xbd928e3a	-0.07156034
144	0x3dddb025	0.108246125
145	0x3e8525d9	0.26005438
146	0x3eb575bb	0.35441384
147	0x3e07ece0	0.13273954
148	0x3d91d91f	0.07121491
149	0x3e0a7caf	0.13524126
150	0xbe3598eb	-0.17734115
151	0xbd60cb73	-0.054881524
152	0xbe39643e	-0.18104646
153	0x215c11c2	7.45624e-19
154	0x8000eaad	-8.4186e-41
155	0x800041a2	-2.3545e-41
156	0x0000c15b	6.9363e-41
157	0x8000237f	-1.2734e-41
158	0x0000b0cb	6.3421e-41
159	0x8000baf5	-6.7068e-41
160	0x80002319	-1.259e-41
161	0x2a032bfc	1.1650397e-13
162	0x308a98e1	1.0084272e-09
163	0x2f915de7	2.6442068e-10
164	0x3213704f	8.582062e-09
165	0x329164a1	1.6925982e-08
166	0xaf9681b1	-2.7376992e-10
167	0xb08603f5	-9.750908e-10
168	0x329855f7	1.7734221e-08
169	0xb010f633	-5.2736765e-10
170	0xb0d1d9bf	-1.5268639e-09
171	0xb1cd8398	-5.9812457e-09
172	0x31ccbfeb	5.959e-09
173	0xb2255630	-9.623861e-09
174	0x30b75d39	1.3341498e-09
175	0x3287b171	1.579676e-08
176	0xb25f725d	-1.3006312e-08
177	0x329d6e51	1.8327372e-08
178	0x330c6b09	3.2693638e-08
179	0xb28d9f1d	-1.6486917e-08
180	0xbd2dbef6	-0.042418443
181	0x3e83ff95	0.2578093
182	0xbe56acbd	-0.20964332
183	0xbea48fb6	-0.32140893
184	0xbc5f6d32	-0.013636874
185	0x3d810f04	0.06301692
186	0xbe90ff94	-0.2831999
187	0xbe8434e9	-0.25821617
188	0xbe8fa5ca	-0.28056175
189	0x800063da	-3.582e-41
190	0x000081b9	4.6536e-41
191	0xaf577024	-1.9593976e-10
192	0x90ef05cf	-9.427783e-29
193	0x016a012d	4.2979856e-38
194	0x2e671a5f	5.254674e-11
195	0x0000f735	8.8681e-41
196	0x8a1743c2	-7.2831294e-33
197	0x0000b0c4	6.3412e-41
198	0xbd5b0d44	-0.053479448
199	0xbe0bba44	-0.13645273
200	0x3de0c9b4	0.10975972
201	0xbdd7b4ee	-0.105325565
202	0xbe0591ed	-0.13043948
203	0x3ca5f782	0.020259622
204	0xbd2c535b	-0.04207168
205	0xbe00a6cf	-0.12563632
206	0xbc18d17f	-0.0093272915
207	0x8000e26b	-8.1223e-41
208	0x8000c172	-6.9395e-41
209	0x00007eec	4.5531e-41
210	0x0000bd1e	6.7842e-41
211	0x9fe2bb20	-9.6024295e-20
212	0x0000d1a3	7.5203e-41
213	0x000034b6	1.8909e-41
214	0x000030de	1.753e-41
215	0x0001004f	9.1946e-41
216	0x00003cfc	2.1877e-41
217	0x8000c0e2	-6.9193e-41
218	0x0b9e689a	6.1016773e-32
219	0x00005227	2.9471e-41
220	0x0000870d	4.8447e-41
221	0x0000d975	7.8009e-41
222	0x0000db35	7.8637e-41
223	0x8000c0fd	-6.9231e-41
224	0x8000a735	-5.9983e-41
225	0xaf7bab0c	-2.2889085e-10
226	0x000038e4	2.0409e-41
227	0x000010be	6.006e-42
228	0xab83e9dd	-9.37302e-13
229	0x0000b1b4	6.3748e-41
230	0xaf4ff1fa	-1.8912508e-10
231	0x800fe162	-1.458385e-39
232	0x0000ccb3	7.3432e-41
233	0x80005b14	-3.2673e-41
234	0x00002c44	1.588e-41
235	0x9e379426	-9.718576e-21
236	0x2ba13ea0	1.145712e-12
237	0xa1be480f	-1.2893975e-18
238	0x0000af3f	6.2866e-41
239	0x80006274	-3.5318e-41
240	0xad40aa9d	-1.095182e-11
241	0x800070ee	-4.0512e-41
242	0x0000f183	8.6638e-41
243	0x3e9cab1a	0.3059929
244	0xbcddfa6b	-0.027096948
245	0x3ce249b8	0.027623042
246	0x3c5a0b0a	0.013308296
247	0x3dd77bbb	0.105216466
248	0x3db243b8	0.087043226
249	0x3cf4fe05	0.029906282
250	0xbd34f141	-0.04417539
251	0xbb8a7a9b	-0.0042260415
252	0xb84a2d2b	-4.820262e-05
253	0x393b7a2a	0.0001787922
254	0xb9f1834a	-0.0004606492
255	0xb9ada1f0	-0.00033117784

e_conv2.depth_conv.bias f4 [32]
0	0x3dd50596	0.10401456
1	0xbe1e20f6	-0.15442261
2	0x3ca48d67	0.020086957
3	0xbd58ad73	-0.05289979
4	0xbe4c0e65	-0.19927366
5	0x3e5e0f07	0.2168542
6	0x3c3310bb	0.010929282
7	0x3e20eb15	0.15714677
8	0x3e93a47a	0.28836423
9	0xbe848188	-0.25880075
10	0x3c08a928	0.008341111
11	0xbdb195de	-0.08671163
12	0xbe6d2bd3	-0.23161249
13	0xbd58ddff	-0.052946087
14	0x3e2c44cc	0.16823119
15	0x3e628ef6	0.22124848
16	0x3e49bd9a	0.19701234
17	0xbd3adf95	-0.04562338
18	0x33203cb2	3.7308105e-08
19	0x3e426713	0.18984632
20	0x3e8bbb71	0.27291444
21	0x3e4bf922	0.19919255
22	0xbdf74ecf	-0.120755784
23	0x3e69d6e3	0.22835879
24	0xbdc3c67b	-0.095593415
25	0xbd2cc951	-0.042184178
26	0x3dbc9b0a	0.09209259
27	0xbe732c22	-0.23747304
28	0xbdf710b9	-0.120637365
29	0xbe375b3d	-0.17905898
30	0xbdac8118	-0.0842306
31	0x3e9b60b1	0.30347207

e_conv2.point_conv.weight f4 [32, 32, 1, 1]
0	0xbcb4a5c4	-0.0220517
1	0xbcb2856d	-0.021792138
2	0xbb526b95	-0.003210758
3	0x3ddeffa1	0.10888601
4	0x3c54fbd4	0.012999494
5	0xbd79c8a2	-0.060982354
6	0x3d181b53	0.037135433
7	0xbcfeef76	-0.031120043
8	0xbd7e1709	-0.062033687
9	0x3bf6bf76	0.007530148
10	0x3d69d562	0.057088263
11	0x3df0779b	0.11741563
12	0x3e0904a5	0.13380678
13	0x3c9ecdd3	0.019385254
14	0xbc22764e	-0.009915901
15	0xbdf05a8a	-0.11736019
16	0x3d4f8433	0.050663184
17	0x3b1818af	0.0023208072
18	0xb30f5db5	-3.3380008e-08
19	0xbd76fe64	-0.0603012
20	0x3e5ecc36	0.21757588
21	0x3d101fc1	0.035186533
22	0x3d6c1e43	0.057646047
23	0xbd8b7bcb	-0.06810721
24	0xbbd088cb	-0.0063639632
25	0x3be0713b	0.0068494356
26	0xbc9da2ff	-0.019242762
27	0x3d565ef0	0.052336633
28	0x3ccadcde	0.02476352
29	0x3d02d0c5	0.03193738
30	0xbe1eb5e4	-0.15499073
31	0xbdb02b70	-0.08602035
32	0x3d8edb3f	0.069754116
33	0xbde7046d	-0.11280141
34	0x3c5b3d14	0.013381261
35	0xbe487697	-0.19576488
36	0x3d014326	0.03155818
37	0x3e01d7d7	0.12679993
38	0x3c7b5b0a	0.01534153
39	0x3cc24b71	0.023717614
40	0x3dc9fc1c	0.09862539
41	0xbdd4b1b6	-0.10385458
42	0x3e88d472	0.26724583
43	0x3c4b4476	0.012406459
44	0x3e4b8ff9	0.1987914
45	0x3d6473d0	0.05577451
46	0xbcabd375	-0.020974854
47	0x3e284454	0.16432315
48	0x3dbf1080	0.09329319
49	0xbc8d832c	-0.017274462
50	0xb34aa20f	-4.717918e-08
51	0xbc9dc6ed	-0.019259894
52	0x3dc182cb	0.09448775
53	0x3d691991	0.056909148
54	0x3d359008	0.044326812
55	0x3e0b4130	0.13599086
56	0xbc5f92bc	-0.013645824
57	0xbcc136ec	-0.02358576
58	0xbd28cdc4	-0.04121186
59	0x3dfde1e9	0.123966046
60	0xbe025aa8	-0.12729895
61	0xbd010597	-0.03149947
62	0xbe6d29e5	-0.23160513
63	0x3e04b6ee	0.12960407
64	0xbb6dbe9f	-0.003627695
65	0x3be9ae34	0.0071313623
66	0xbb128edb	-0.002236298
67	0x3ea0b037	0.3138444
68	0x3cbdf40a	0.023187656
69	0x3d073dc9	0.033017907
70	0x3d3d2f79	0.04618785
71	0xbca949e3	-0.020665115
72	0xbd6269aa	-0.05527655
73	0xbd5613a1	-0.052264813
74	0xbe0d0edf	-0.13775204
75	0x3cdb319c	0.026757054
76	0xbe787f06	-0.24267206
77	0x3d491ea6	0.049101494
78	0xbd174698	-0.036932558
79	0x3c97a950	0.018513352
80	0x3dbcc96d	0.092181064
81	0xbb88ed15	-0.004178653
82	0x32e32dcb	2.6447102e-08
83	0x3c961ee3	0.018325275
84	0xbda2157a	-0.079142526
85	0x3b8f2a25	0.0043690377
86	0xbbb5663a	-0.005535868
87	0x3d9c5016	0.07632463
88	0xbae486f8	-0.0017435243
89	0x3b4ffd02	0.0031736498
90	0x3c919609	0.017771738
91	0xbe2020e0	-0.15637541
92	0xbc59d209	-0.013294705
93	0xbd3b9ef4	-0.045805886
94	0x3da4c66b	0.08045658
95	0xbceb260d	-0.028704667
96	0xb1055ff8	-1.94086e-09
97	0xb030aecf	-6.4276845e-10
98	0x2ec365c4	8.8856505e-11
99	0x3018d4b9	5.5599575e-10
100	0x315e5029	3.2350818e-09
101	0xb036a136	-6.644031e-10
102	0xb1808d1f	-3.741334e-09
103	0xafdb1b51	-3.9855277e-10
104	0xb1304f0d	-2.5656306e-09
105	0xb14d34b3	-2.9861382e-09
106	0x2febd25b	4.2895718e-10
107	0xadcc2915	-2.3210359e-11
108	0x31683aa8	3.3793786e-09
109	0x2ea0d05f	7.312972e-11
110	0x31048ad0	1.9287434e-09
111	0xb14d549c	-2.987952e-09
112	0xb01de547	-5.744209e-10
113	0xb01f15b8	-5.787473e-10
114	0x258e2010	2.46548e-16
115	0x307c6b05	9.182915e-10
116	0x31bbf9b3	5.470804e-09
117	0xafd0b075	-3.796036e-10
118	0x2f8b2e1d	2.5316718e-10
119	0x314c17b8	2.969939e-09
120	0xb0bc0e0f	-1.3682796e-09
121	0xaf57b29e	-1.9617594e-10
122	0x30a834ac	1.2238579e-09
123	0x2fd560bc	3.8813208e-10
124	0x3053dba2	7.707347e-10
125	0xaed4121b	-9.64386e-11
126	0xb1ad1132	-5.0369175e-09
127	0xb20f43b1	-8.339087e-09
128	0x3bccaeb6	0.006246413
129	0x3ca109d8	0.019658014
130	0x3b3ca5ab	0.002878527
131	0xbd8b8e04	-0.06814197
132	0x3d1f883f	0.038948294
133	0x3ddf72fa	0.10910602
134	0xbe215649	-0.15755571
135	0x3a58cb10	0.0008270005
136	0xbce1ff1f	-0.027587472
137	0xbd1355cd	-0.035970498
138	0xbdcbd5cd	-0.09952889
139	0xbd0a6602	-0.03378869
140	0xbda28489	-0.07935435
141	0xbd51f417	-0.051258173
142	0x3c84d9fb	0.016217222
143	0x3e2c94bd	0.16853614
144	0xbb5b247d	-0.0033438497
145	0xbc43a97e	-0.011942266
146	0x32883fef	1.5861557e-08
147	0x3d38eb83	0.045146476
148	0xbace3844	-0.0015733321
149	0xbc8a63e1	-0.01689333
150	0xbbd7cf39	-0.006585982
151	0xbcf26f24	-0.029594012
152	0xbcbe0f74	-0.023200728
153	0xbbf61937	-0.00751033
154	0x3caafe87	0.020873321
155	0x3c6715c5	0.014104311
156	0xbc6dba50	-0.014509752
157	0xbd2b42ea	-0.04181186
158	0x3d3846e1	0.04498947
159	0xbd66d0c2	-0.05635143
160	0x3c8a80b9	0.016907083
161	0xbca06b9e	-0.019582566
162	0x3b0cadf1	0.0021465982
163	0xbe1bd10a	-0.15216461
164	0xbcc4e7ea	-0.024036366
165	0x3cfea851	0.031086119
166	0x3dc78a31	0.09743155
167	0x3ca3483f	0.01993191
168	0x3ced01ab	0.02893146
169	0xbce730a6	-0.02822144
170	0x3dfc0336	0.123053
171	0xbd16e3fe	-0.036838524
172	0x3dd4bee5	0.10387973
173	0xbd02b734	-0.031912997
174	0x3cadc83a	0.02121364
175	0x3cf96d07	0.030447496
176	0xbc208dc5	-0.0097994255
177	0xbbc89196	-0.006120871
178	0x329ca16b	1.8234195e-08
179	0x3c8e2ba8	0.017354801
180	0x3db7436e	0.08948408
181	0x3ccfe144	0.02537597
182	0xbcf98053	-0.030456698
183	0x3caf632d	0.021409595
184	0xbc4df9ab	-0.0125717325
185	0xbbb06f73	-0.0053843795
186	0x3c54c06d	0.012985331
187	0x3d585efe	0.052824967
188	0xbc79bd2b	-0.015242855
189	0xbcb41d59	-0.02198665
190	0x39f28706	0.00046258437
191	0x3e0dd291	0.13849856
192	0x3b9b323c	0.004736213
193	0x3cb228dc	0.021747999
194	0x3a8612f4	0.0010229037
195	0x3e4a10d0	0.19732976
196	0xbcd27ede	-0.02569526
197	0xbe43b43c	-0.19111723
198	0x3e48d640	0.1961298
199	0x3c6687a4	0.014070425
200	0x3b211a25	0.0024582234
201	0xbd384435	-0.044986922
202	0x3ec5342c	0.38516366
203	0x3e6fe93d	0.23428817
204	0x3e386bc6	0.18009862
205	0x3e7500a4	0.23926026
206	0x3c96d559	0.018412279
207	0xbdb9b29b	-0.090672694
208	0x3e2570e8	0.16156352
209	0xbb08ad35	-0.0020855193
210	0xb3e83997	-1.08138174e-07
211	0x3d12b977	0.035821404
212	0xbd662824	-0.056190625
213	0x3cee57ed	0.02909466
214	0x3d2d1845	0.042259473
215	0x3c853ada	0.016263414
216	0x3aed81c8	0.0018120343
217	0xbb0ddf7d	-0.0021648102
218	0x3c8260eb	0.015915355
219	0x3d986504	0.07441142
220	0xbbbff5d9	-0.0058581647
221	0x3c9903ce	0.018678572
222	0xbe2f7a01	-0.17136385
223	0x3e1fdff4	0.15612775
224	0x2ea4567e	7.473221e-11
225	0xad06049a	-7.61804e-12
226	0x2c92e03e	4.1744655e-12
227	0x2c18c025	2.170716e-12
228	0xaf07dfd7	-1.2357702e-10
229	0x2d53df0f	1.204349e-11
230	0xae4d8b00	-4.673506e-11
231	0x2f14b736	1.3525611e-10
232	0x2d06a6bc	7.654041e-12
233	0xaf35f087	-1.6547307e-10
234	0xae781fe7	-5.6417006e-11
235	0x2d3d6e1a	1.0767854e-11
236	0xadf2836a	-2.7570574e-11
237	0x2de32df3	2.5827318e-11
238	0x2ca9b733	4.823608e-12
239	0x2f723c23	2.2031137e-10
240	0x2f094be3	1.2487038e-10
241	0xaebc3039	-8.557816e-11
242	0x23c18056	2.0979454e-17
243	0x2dca64c0	2.3009483e-11
244	0xaf8b7cb2	-2.5372554e-10
245	0xacefe3ac	-6.818065e-12
246	0xaf54ac63	-1.9342532e-10
247	0xad10275c	-8.194192e-12
248	0x2c32fbd9	2.5435125e-12
249	0x2b383c43	6.545356e-13
250	0xac622913	-3.2139332e-12
251	0xaf3c8193	-1.7144534e-10
252	0xae013a29	-2.938286e-11
253	0x2b535107	7.5074707e-13
254	0x2e3c4308	4.2805787e-11
255	0xae16cf38	-3.42901e-11

e_conv2.point_conv.bias f4 [32]
0	0x3dc2c510	0.09510243
1	0x3d81965c	0.06327507
2	0x3dc29541	0.09501124
3	0xb19bf79c	-4.5392436e-09
4	0x3e1fe2dc	0.15613884
5	0x3d9d187d	0.076706864
6	0xbbe58d15	-0.0070053437
7	0x2ff760d8	4.499785e-10
8	0x3d63d6a1	0.055624608
9	0x3e0078dc	0.12546104
10	0x3b033c97	0.0020025128
11	0xbd3cdad8	-0.046107143
12	0x3bfc5bbb	0.007701365
13	0x3e40b2c6	0.18818197
14	0x3d95d6ea	0.07316382
15	0xa925d00b	-3.681781e-14
16	0x3584cbf5	9.894126e-07
17	0x3cbaa7cf	0.022785095
18	0x3d0bd01b	0.03413401
19	0x383e0072	4.5299945e-05
20	0xbd8f7795	-0.0700523
21	0xbbde503c	-0.006784467
22	0x3cce6091	0.02519253
23	0xbb8bb9b1	-0.0042640795
24	0x3d4ba61c	0.04971896
25	0xbcda3efe	-0.026641365
26	0x3d360632	0.044439502
27	0xbddb6b7e	-0.10713862
28	0x311abde1	2.2517883e-09
29	0x3bf9b5fa	0.0076205702
30	0x3d63a126	0.055573605
31	0x3dcaea33	0.09907951

e_conv3.depth_conv.weight f4 [32, 1, 3, 3]
0	0x939022e3	-3.638511e-27
1	0x240a7ce3	3.0029763e-17
2	0x1c232301	5.3977417e-22
3	0x2dc155f4	2.197973e-11
4	0x915c695a	-1.7387404e-28
5	0x23d6f4c7	2.3305594e-17
6	0x12e57e4e	1.4483068e-27
7	0x127fb1de	8.068305e-28
8	0x12917a15	9.180882e-28
9	0x9dff2656	-6.7537576e-21
10	0x939e5ee7	-3.997839e-27
11	0x12d4a8fa	1.3420737e-27
12	0x9188ae30	-2.1564368e-28
13	0x1263eeb9	7.192282e-28
14	0x2c78f246	3.5377408e-12
15	0x12f75232	1.5608154e-27
16	0x12106f85	4.5575847e-28
17	0x92ad3b97	-1.0932525e-27
18	0xa55c90d9	-1.9131035e-16
19	0x132e51cf	2.2002222e-27
20	0x14e59b81	2.3184426e-26
21	0x1482f850	1.3224587e-26
22	0x136c2130	2.980375e-27
23	0x14ef6373	2.4172059e-26
24	0xaf88497d	-2.4790472e-10
25	0xa61db049	-5.470923e-16
26	0x20cfb583	3.5187278e-19
27	0x0000801d	4.5958e-41
28	0x120d07d5	4.450141e-28
29	0x1a5eb079	4.6051077e-23
30	0x29aeee49	7.768488e-14
31	0x2b2464c3	5.840434e-13
32	0x2fac4bd1	3.1340489e-10
33	0x0a1baeaf	7.495833e-33
34	0x0000b9e1	6.6681e-41
35	0xaf997cce	-2.7919217e-10
36	0x93a0c4cd	-4.058374e-27
37	0x1e56183a	1.1334076e-20
38	0x932ecc27	-2.2062542e-27
39	0xae332c00	-4.0738968e-11
40	0x12b6eca1	1.1544148e-27
41	0x2eb853ab	8.382214e-11
42	0x930f434a	-1.8082314e-27
43	0x12f62774	1.5534509e-27
44	0x938171f9	-3.2676564e-27
45	0x94d48d23	-2.1462198e-26
46	0x13f32f47	6.1388443e-27
47	0x146b33bf	1.1874673e-26
48	0xab50f884	-7.424133e-13
49	0x94367827	-9.212348e-27
50	0x948ad41a	-1.4018098e-26
51	0x2ed31d5e	9.600386e-11
52	0x1336bda0	2.3065122e-27
53	0x94e88cf6	-2.3481613e-26
54	0x152bf7ce	3.4728658e-26
55	0x12e2cade	1.4312616e-27
56	0x14e6f631	2.332117e-26
57	0xae1294ae	-3.332861e-11
58	0x92963be4	-9.481095e-28
59	0x93b1176d	-4.470418e-27
60	0x9359f246	-2.75087e-27
61	0x150156e7	2.6119896e-26
62	0x94273486	-8.441704e-27
63	0x00010385	9.3098e-41
64	0x9d155ecf	-1.9769e-21
65	0x80002ba4	-1.5655e-41
66	0x2c25114c	2.3457512e-12
67	0x1a5fe504	4.6300316e-23
68	0x276b7bce	3.2679916e-15
69	0x800079b6	-4.3662e-41
70	0x00009e40	5.677e-41
71	0x157636b4	4.9722458e-26
72	0x95857d5d	-5.391606e-26
73	0x2fd98e6a	3.957326e-10
74	0x96bfcac9	-3.098569e-25
75	0x9c0c30de	-4.6385274e-22
76	0x28f7356e	2.744568e-14
77	0x9601b8f0	-1.0478893e-25
78	0x957057c5	-4.8536852e-26
79	0x972f6ccc	-5.668287e-25
80	0x972ab99e	-5.5164244e-25
81	0x944124e6	-9.751287e-27
82	0xac539693	-3.006849e-12
83	0x2f89388a	2.4960328e-10
84	0x94aab807	-1.72382e-26
85	0x941c7ee9	-7.901016e-27
86	0x283ac667	1.0368096e-14
87	0x9493b746	-1.4915495e-26
88	0x29436c4c	4.339263e-14
89	0x29a18fe1	7.174795e-14
90	0x8cff3f6c	-3.9327142e-31
91	0x8ee3cc50	-5.6156566e-30
92	0x8e00e07b	-1.5885302e-30
93	0x2c05c052	1.9007196e-12
94	0x8dfc9e88	-1.5568864e-30
95	0x8d875508	-8.340488e-31
96	0xa7bf2b85	-5.3060333e-15
97	0x8d17c182	-4.6763394e-31
98	0xabf64e02	-1.7501003e-12
99	0x844fc05a	-2.4421057e-36
100	0x8446c9df	-2.3367483e-36
101	0x83317ecd	-5.2161185e-37
102	0x83ec0564	-1.3872071e-36
103	0x83958c96	-8.78971e-37
104	0x826d9f51	-1.7457732e-37
105	0x83805732	-7.543183e-37
106	0x82a60e87	-2.4399846e-37
107	0x2281c12a	3.517004e-18
108	0x1512ed61	2.9671724e-26
109	0x15cad690	8.192567e-26
110	0x15b48f06	7.292707e-26
111	0xa3d2e003	-2.2863118e-17
112	0x16186a0b	1.2311923e-25
113	0xafc62786	-3.6044073e-10
114	0x1620fe1b	1.3004879e-25
115	0x165aff09	1.7690375e-25
116	0x14828dd0	1.318258e-26
117	0x1a01cc5c	2.6841655e-23
118	0x1a62c853	4.6897525e-23
119	0x21fd22b0	1.7153129e-18
120	0x240b8978	3.025726e-17
121	0x1a469be3	4.1071365e-23
122	0x1a817f8c	5.355921e-23
123	0x1a734810	5.0309434e-23
124	0x1a3c61f6	3.895662e-23
125	0x1a305dc2	3.6471684e-23
126	0x119ca632	2.4714886e-28
127	0xa5781f13	-2.15211e-16
128	0x92c7232e	-1.2567338e-27
129	0x2cbaed38	5.3127745e-12
130	0x121ad876	4.886064e-28
131	0x129cb154	9.888699e-28
132	0x91eeff58	-3.7707147e-28
133	0x93370bca	-2.310366e-27
134	0xa24c5737	-2.7693327e-18
135	0x2662e812	7.8724015e-16
136	0x80004c9b	-2.7481e-41
137	0x1fd8644b	9.164548e-20
138	0x80008562	-4.7849e-41
139	0x80002ed4	-1.6799e-41
140	0xa6819041	-8.990273e-16
141	0x8000d265	-7.5475e-41
142	0xad2cf5e4	-9.831667e-12
143	0x2bc86ac4	1.4240488e-12
144	0x03af5c20	1.0306726e-36
145	0xb0128b9f	-5.3312904e-10
146	0x2b8d663d	1.0047029e-12
147	0x02910360	2.1307772e-37
148	0x031ec846	4.666193e-37
149	0x2cbc304a	5.3486425e-12
150	0x0119dc3d	2.8259675e-38
151	0xa519b1f7	-1.3330931e-16
152	0x9a844e91	-5.472085e-23
153	0x8f1b8015	-7.666758e-30
154	0x8ebe40d5	-4.6901047e-30
155	0x8fa32b86	-1.6089806e-29
156	0x8d8070d4	-7.915771e-31
157	0xa5d0d778	-3.6228256e-16
158	0x9001f266	-2.56275e-29
159	0x0f992983	1.5102955e-29
160	0x0f68edd1	1.1484285e-29
161	0xaaeffef3	-4.2631835e-13
162	0x1d557a35	2.8253495e-21
163	0x924f5b2f	-6.5430075e-28
164	0x92b8066b	-1.1613615e-27
165	0x92846f0c	-8.357746e-28
166	0x2caff755	5.0012585e-12
167	0x92277eee	-5.285236e-28
168	0x92db7d50	-1.3851735e-27
169	0x92b63525	-1.1498916e-27
170	0x93430d8b	-2.4619137e-27
171	0x047b9e9b	2.9577736e-36
172	0x06a31c3c	6.135527e-35
173	0x863d12c6	-3.5560742e-35
174	0x87054089	-1.0024773e-34
175	0x85a0578f	-1.5078492e-35
176	0xae83b0ee	-5.988619e-11
177	0x051a36a3	7.2510804e-36
178	0x06129ad7	2.7573306e-35
179	0x89e10d40	-5.417924e-33
180	0x1602738e	1.0537779e-25
181	0x1533779f	3.6243127e-26
182	0x157894b7	5.0200516e-26
183	0x159a5699	6.233673e-26
184	0x1457cff3	1.0895737e-26
185	0x9fb88ea4	-7.816301e-20
186	0x200cfe99	1.19427e-19
187	0xaff2db60	-4.417542e-10
188	0x15f941c4	1.0067406e-25
189	0x97e71d8d	-1.4935485e-24
190	0x164c5f0d	1.6508982e-25
191	0x811223a6	-2.684154e-38
192	0x81496d6f	-3.6996384e-38
193	0x813f56de	-3.5143484e-38
194	0x816c2ea1	-4.337981e-38
195	0x81369349	-3.3533793e-38
196	0x1adbfc65	9.098404e-23
197	0x8117eb2d	-2.790305e-38
198	0x950f035b	-2.8881267e-26
199	0xa67f32ba	-8.8539645e-16
200	0x954389b5	-3.9488568e-26
201	0x1f54e2b0	4.5080258e-20
202	0x92faeae9	-1.5835128e-27
203	0xaa2dc52a	-1.5433892e-13
204	0x132a96e5	2.1531413e-27
205	0x2c6e1a63	3.3836482e-12
206	0xa08bf528	-2.3709747e-19
207	0xa97537a7	-5.44492e-14
208	0x9a56b961	-4.440391e-23
209	0x1437b1cc	9.274203e-27
210	0x2f9cdb04	2.8531855e-10
211	0x1382b892	3.2998614e-27
212	0x27d48185	5.8982246e-15
213	0x94929430	-1.4800682e-26
214	0x137bdc92	3.1789404e-27
215	0x132d9cd4	2.1912992e-27
216	0x12c85af3	1.2644195e-27
217	0xa9ce1cc3	-9.153227e-14
218	0x2c529054	2.9922913e-12
219	0x123c54ee	5.9427024e-28
220	0xaa19db56	-1.3665227e-13
221	0x11bd747d	2.9890734e-28
222	0x91edfdda	-3.7548455e-28
223	0x926348eb	-7.171845e-28
224	0x94d948a6	-2.1940055e-26
225	0x0e75c228	3.0292064e-30
226	0x0f09dca8	6.797118e-30
227	0x9e4b7062	-1.0769971e-20
228	0x8e3af332	-2.3043364e-30
229	0x0d560b65	6.5957557e-31
230	0x2ad0cd5f	3.7090727e-13
231	0x8ec22598	-4.7860894e-30
232	0x9414dcf5	-7.5156666e-27
233	0x0ee76ee8	5.7052695e-30
234	0x9186c1f4	-2.1261005e-28
235	0x8f4646f6	-9.77582e-30
236	0x919f6c4b	-2.5152517e-28
237	0x10af67e7	6.9185416e-29
238	0x11a55d09	2.6089747e-28
239	0x91911077	-2.2887113e-28
240	0x9b68910f	-1.9237461e-22
241	0x8ff5ca0e	-2.4236694e-29
242	0xad531df8	-1.2000616e-11
243	0xa6af3642	-1.2157771e-15
244	0x952d6c44	-3.5022478e-26
245	0x941fdd75	-8.071123e-27
246	0xa5cad336	-3.5184536e-16
247	0x9d2c4db3	-2.280418e-21
248	0x2e8efcde	6.5023306e-11
249	0x145cf34b	1.1155143e-26
250	0x94f97ded	-2.5192244e-26
251	0xada6ffe6	-1.8985657e-11
252	0x2dd56648	2.4260718e-11
253	0x80003984	-2.0633e-41
254	0x9d281251	-2.2244084e-21
255	0x9d09afcb	-1.8222682e-21

e_conv3.depth_conv.bias f4 [32]
0	0x13951828	3.7636708e-27
1	0x1a98462e	6.297911e-23
2	0x159d2114	6.3463983e-26
3	0x0717c3eb	1.1417553e-34
4	0xa18358ab	-8.900376e-19
5	0x1561a007	4.5564627e-26
6	0x1ad92b40	8.981897e-23
7	0x0321ec1e	4.7584697e-37
8	0x973fc855	-6.1968283e-25
9	0x95d3c5b9	-8.553417e-26
10	0x8e13b9f3	-1.820868e-30
11	0x85c18d8c	-1.8201629e-35
12	0x16923725	2.3622373e-25
13	0x1af24917	1.0020694e-22
14	0xab037245	-4.669913e-13
15	0x0000c6c4	7.1304e-41
16	0x0d77bae5	7.6337718e-31
17	0x91317ee3	-1.4001938e-28
18	0x93a6c1a4	-4.2095236e-27
19	0x0d6a9008	7.228019e-31
20	0x168b3c18	2.2494586e-25
21	0x01fab30a	9.2092405e-38
22	0x2ef23a48	1.1015239e-10
23	0xadf1cbbc	-2.7489004e-11
24	0xad881279	-1.5469613e-11
25	0x90bee378	-7.529226e-29
26	0x1fd69e7e	9.089473e-20
27	0x14898141	1.3884447e-26
28	0x05a47c54	1.5468157e-35
29	0x0eae9c1d	4.3044643e-30
30	0x22620182	3.062951e-18
31	0x1ec7725a	2.111724e-20

e_conv3.point_conv.weight f4 [32, 32, 1, 1]
0	0x0e52d974	2.5989198e-30
1	0x0c9591ee	2.3044913e-31
2	0x0eb2a03d	4.403469e-30
3	0x0000f03d	8.6181e-41
4	0x0f6ea7a4	1.1766592e-29
5	0x0fa953a5	1.6696905e-29
6	0x103407ab	3.5504648e-29
7	0x0000024c	8.24e-43
8	0x9128344d	-1.326898e-28
9	0x1084a6d2	5.232185e-29
10	0x8a24355c	-7.9063486e-33
11	0x000552c9	4.88875e-40
12	0x8ff65468	-2.4289985e-29
13	0x85fdfc53	-2.3884695e-35
14	0x8e964ae8	-3.7049987e-30
15	0x80000e2b	-5.083e-42
16	0x0708c6f6	1.0289972e-34
17	0x0a0762c0	6.5185864e-33
18	0x0e0b5618	1.7174525e-30
19	0x8787dcc3	-2.0442294e-34
20	0x914ba3c1	-1.6064337e-28
21	0x00009383	5.2917e-41
22	0x107831c1	4.8947705e-29
23	0x8f004475	-6.3240716e-30
24	0x8f053e2f	-6.5693824e-30
25	0x0abbb6d6	1.807622e-32
26	0x0dcaa3c7	1.2488639e-30
27	0x8f890e62	-1.3514783e-29
28	0x00008d13	5.0608e-41
29	0x099c4182	3.7617237e-33
30	0x10edc8ad	9.378921e-29
31	0x90af2a4e	-6.909051e-29
32	0x89b0afab	-4.2535656e-33
33	0x8a24af22	-7.9292516e-33
34	0x0ca71f39	2.5749216e-31
35	0x00007dda	4.5147e-41
36	0x0b91b199	5.611919e-32
37	0x0b4675f0	3.822214e-32
38	0x8a44afa7	-9.470093e-33
39	0x80005c4d	-3.3111e-41
40	0x89c286c8	-4.683055e-33
41	0x8cbb72b9	-2.8880958e-31
42	0x87a036dd	-2.410637e-34
43	0x0000aa0f	6.1006e-41
44	0x0d13711c	4.5434023e-31
45	0x81adb982	-6.3816354e-38
46	0x06624f04	4.2563927e-35
47	0x8000c8f5	-7.209e-41
48	0x0297920f	2.227129e-37
49	0x8734d73a	-1.3604944e-34
50	0x8a623ffa	-1.0893537e-32
51	0x038275f9	7.6677985e-37
52	0x0dfa6459	1.5431597e-30
53	0x80008322	-4.7042e-41
54	0x8d983c53	-9.382246e-31
55	0x8b4a901a	-3.9012195e-32
56	0x8c11d185	-1.1233444e-31
57	0x856d8d6f	-1.1169664e-35
58	0x078b5af1	2.0967846e-34
59	0x0b4fe121	4.0036118e-32
60	0x8000693b	-3.775e-41
61	0x85559e38	-1.0044272e-35
62	0x0d3bb173	5.783742e-31
63	0x0d83b211	8.116366e-31
64	0x9975b53c	-1.2702803e-23
65	0x9985b64c	-1.3825507e-23
66	0x1b0bf7c4	1.1577868e-22
67	0x8e85bbb4	-3.2967783e-30
68	0x9aad36bb	-7.1639545e-23
69	0x9ae1e40e	-9.342626e-23
70	0x9a2dc198	-3.5931945e-23
71	0x09671a42	2.781796e-33
72	0x1bd6853d	3.5489433e-22
73	0x9be0d461	-3.7194938e-22
74	0x93d96d34	-5.4886184e-27
75	0x8d3ee113	-5.8819194e-31
76	0x1a74f0ef	5.0652642e-23
77	0x923e7ad7	-6.010484e-28
78	0x189ec5de	4.1041838e-24
79	0x800048d8	-2.6131e-41
80	0x1488cf52	1.3814264e-26
81	0x97005be3	-4.147501e-25
82	0x991a72e3	-7.9848146e-24
83	0x92905c0d	-9.11037e-28
84	0x1c6dba9b	7.8657904e-22
85	0x86f05983	-9.040949e-35
86	0x9babdb4d	-2.8431297e-22
87	0x9aabb11e	-7.101009e-23
88	0x9a242143	-3.3941274e-23
89	0x140cef56	7.1153944e-27
90	0x989c87c5	-4.0462147e-24
91	0x9b44cca4	-1.6278863e-22
92	0x8c0035db	-9.876968e-32
93	0x94d79414	-2.1767859e-26
94	0x9b238991	-1.3527494e-22
95	0x9cb061fe	-1.1672033e-21
96	0x8000837b	-4.7166e-41
97	0x0000019e	5.8e-43
98	0x000049cf	2.6478e-41
99	0x800094a4	-5.3322e-41
100	0x0000df2f	8.0063e-41
101	0x00000c08	4.316e-42
102	0x80001d2b	-1.0463e-41
103	0x8000bc58	-6.7565e-41
104	0x0000fb63	9.018e-41
105	0x00008213	4.6662e-41
106	0x00001bc0	9.955e-42
107	0x800047d7	-2.5771e-41
108	0x00006880	3.7488e-41
109	0x80004343	-2.4129e-41
110	0x000085b2	4.7961e-41
111	0x80003f30	-2.2667e-41
112	0x80005b2f	-3.271e-41
113	0x80005c60	-3.3138e-41
114	0x8001078d	-9.4544e-41
115	0x00001d5b	1.0531e-41
116	0x00000dbb	4.926e-42
117	0x80009f89	-5.723e-41
118	0x000013bb	7.078e-42
119	0x00009d48	5.6422e-41
120	0x0000b092	6.3341e-41
121	0x0000f7d0	8.8898e-41
122	0x8000c3fa	-7.0303e-41
123	0x8000e681	-8.2689e-41
124	0x0000e2d3	8.1369e-41
125	0x0000bbf0	6.7419e-41
126	0x80000dba	-4.924e-42
127	0x800032c9	-1.8218e-41
128	0x0cdd7653	3.4121655e-31
129	0x0cc88e15	3.0900392e-31
130	0x8f2a054a	-8.382666e-30
131	0x8000317e	-1.7754e-41
132	0x8dad1077	-1.0665912e-30
133	0x8f643c89	-1.12529265e-29
134	0x8e178045	-1.8673947e-30
135	0x8000afe0	-6.3092e-41
136	0x101d39c9	3.1007307e-29
137	0x0ee0fed6	5.546566e-30
138	0x090ac2e0	1.6702776e-33
139	0x0000bb5d	6.7213e-41
140	0x0c5de20f	1.7093248e-31
141	0x82579efd	-1.5841333e-37
142	0x8afd9e77	-2.4422622e-32
143	0x000001ac	6e-43
144	0x02a01858	2.352386e-37
145	0x8a969de8	-1.4503872e-32
146	0x0c84325f	2.0368136e-31
147	0x866011d4	-4.2142816e-35
148	0x908c1cb3	-5.526448e-29
149	0x8000ec0d	-8.4679e-41
150	0x90271dba	-3.2957843e-29
151	0x8db6bbd7	-1.1261837e-30
152	0x8e4dd864	-2.537239e-30
153	0x08fd4338	1.5242687e-33
154	0x8b65073d	-4.410924e-32
155	0x8ec02298	-4.7364967e-30
156	0x80005034	-2.8771e-41
157	0x87d560c4	-3.2105552e-34
158	0x0fd94a48	2.1426464e-29
159	0x90153a7d	-2.9430126e-29
160	0x1fb4bf26	7.6549194e-20
161	0x1f84ccd8	5.624306e-20
162	0x1fbf80f1	8.110496e-20
163	0x1253dad9	6.684961e-28
164	0x9edf11c4	-2.3618391e-20
165	0x212b2d48	5.7996983e-19
166	0xa0c5eebb	-3.3531077e-19
167	0x8daa9dfa	-1.051509e-30
168	0x228000a3	3.4695144e-18
169	0x20e33bf2	3.8494964e-19
170	0x19e6f29d	2.3879433e-23
171	0x123f9583	6.045326e-28
172	0xa1f91d2c	-1.6880618e-18
173	0x1746712a	6.4120084e-25
174	0x1f5975c5	4.6048954e-20
175	0x08cd42fa	1.2353735e-33
176	0x191eff86	8.220011e-24
177	0x9ccc482f	-1.3518247e-21
178	0x1e8054ae	1.358755e-20
179	0x18cffd75	5.3764172e-24
180	0xa23b37ae	-2.5372702e-18
181	0x8d032627	-4.0413416e-31
182	0x216578b4	7.7747967e-19
183	0x20f49dce	4.1439634e-19
184	0xa03ef34f	-1.617413e-19
185	0x9b344b85	-1.4913653e-22
186	0x1ec907e5	2.1284968e-20
187	0x20ea16f0	3.965632e-19
188	0x9136c779	-1.4418736e-28
189	0x1b213346	1.3334175e-22
190	0x2137d9e1	6.229117e-19
191	0xa1b9012b	-1.2536397e-18
192	0x8fd115ad	-2.061734e-29
193	0x90276fc1	-3.3021035e-29
194	0x128326ed	8.276858e-28
195	0x80fc4503	-2.3167302e-38
196	0x91a2b5eb	-2.567121e-28
197	0x90538f48	-4.1722793e-29
198	0x10d86fa1	8.536897e-29
199	0x00027dc0	2.28782e-40
200	0x934b2771	-2.5641648e-27
201	0x92907434	-9.116324e-28
202	0x8d1eab8c	-4.8894e-31
203	0x026dbdf2	1.7466522e-37
204	0x134939af	2.5398207e-27
205	0x88205d5c	-4.825799e-34
206	0x0e39192c	2.281513e-30
207	0x0000b22c	6.3916e-41
208	0x09c48892	4.7313714e-33
209	0x0d08c0e9	4.2140443e-31
210	0x8f3e8ed3	-9.39523e-30
211	0x8830daca	-5.322026e-34
212	0x138865eb	3.4431725e-27
213	0x8001115a	-9.806e-41
214	0x930d7ea1	-1.7859135e-27
215	0x120ae4a3	4.382694e-28
216	0x11971196	2.3834438e-28
217	0x8c939c20	-2.27429e-31
218	0x0f055806	6.574359e-30
219	0x91a731ef	-2.6378728e-28
220	0x80001d0a	-1.0417e-41
221	0x8b9fbb3d	-6.15263e-32
222	0x9316eca8	-1.9049342e-27
223	0x13973ce1	3.817779e-27
224	0x144f2660	1.04583974e-26
225	0x927da731	-8.0038803e-28
226	0x1508dbcd	2.7638374e-26
227	0x886d60bc	-7.1433304e-34
228	0x943374c2	-9.060217e-27
229	0x12d9d336	1.3746693e-27
230	0x944419b5	-9.900541e-27
231	0x03d6cac0	1.2624339e-36
232	0x964aab2d	-1.6371444e-25
233	0x168da111	2.2881426e-25
234	0x8ec7f950	-4.9297367e-30
235	0x85fdbad8	-2.3860641e-35
236	0x16377113	1.4818302e-25
237	0x8b99a173	-5.917638e-32
238	0x91bdd124	-2.9947835e-28
239	0x00002a4d	1.5175e-41
240	0x8e1568b6	-1.8416084e-30
241	0x8f663537	-1.1350124e-29
242	0x13e89881	5.8715414e-27
243	0x0ef37edc	6.0026286e-30
244	0x9734bd21	-5.839985e-25
245	0x000d7a8c	1.237823e-39
246	0x1588a53b	5.519065e-26
247	0x14088222	6.8919095e-27
248	0x153355a3	3.6216318e-26
249	0x8e9d972f	-3.8849073e-30
250	0x122bddee	5.4231635e-28
251	0x931f39d8	-2.009714e-27
252	0x0615cb5a	2.8173184e-35
253	0x8d1ca727	-4.8272414e-31
254	0x9646ac4c	-1.604868e-25
255	0x95160642	-3.0297195e-26

e_conv3.point_conv.bias f4 [32]
0	0x20ea5773	3.969901e-19
1	0x9d493368	-2.6628705e-21
2	0xa9bc8190	-8.3713527e-14
3	0x118758a0	2.1353864e-28
4	0x2084a701	2.2472184e-19
5	0x35fa2779	1.863794e-06
6	0xa3cc0e88	-2.2123879e-17
7	0xa3fb5c0a	-2.7252455e-17
8	0x9bbf5d09	-3.1658422e-22
9	0x2fb96aa3	3.3727074e-10
10	0x99b9c125	-1.9206562e-23
11	0x2535de09	1.5774476e-16
12	0x31b4267d	5.243065e-09
13	0x9ce22593	-1.4965138e-21
14	0xa3192876	-8.3027146e-18
15	0x286ae6bc	1.3039642e-14
16	0xa6b3a9d8	-1.2466656e-15
17	0x997d7025	-1.3102441e-23
18	0x8e8ba886	-3.4428428e-30
19	0x0e430424	2.40376e-30
20	0x36a21d15	4.831362e-06
21	0xa1f63f1c	-1.6686313e-18
22	0x212c5930	5.8393905e-19
23	0xa2651815	-3.1048036e-18
24	0x29be5b88	8.453573e-14
25	0x1c345959	5.9672483e-22
26	0xa0a1aab1	-2.7387415e-19
27	0x19a4088c	1.6960655e-23
28	0xa4c70fd3	-8.63293e-17
29	0xab12356a	-5.1943747e-13
30	0x9d0958aa	-1.8177637e-21
31	0x2b644b1c	8.1106107e-13

e_conv4.depth_conv.weight f4 [32, 1, 3, 3]
0	0x29ae5c79	7.743194e-14
1	0x00019fca	1.49157e-40
2	0x2a67d2e1	2.0590085e-13
3	0x800014cf	-7.465e-42
4	0x2cb16407	5.041748e-12
5	0x00004b1f	2.6948e-41
6	0x9489e054	-1.3921947e-26
7	0x8c2993d3	-1.3063771e-31
8	0x0000c056	6.8997e-41
9	0x8000a496	-5.9042e-41
10	0x0000d40b	7.6067e-41
11	0x80004eee	-2.8315e-41
12	0x0000dd8e	7.9479e-41
13	0x00011d63	1.02377e-40
14	0x015d2a91	4.062183e-38
15	0x269fab66	1.1079299e-15
16	0x0000bcaf	6.7687e-41
17	0x00017034	1.32086e-40
18	0x233231b5	9.659925e-18
19	0x200720fe	1.1445861e-19
20	0x8dbf67f4	-1.179631e-30
21	0x0dcfe2d5	1.2811968e-30
22	0x8d7d3286	-7.802246e-31
23	0x2905b80f	2.9691578e-14
24	0x0da8d087	1.04040005e-30
25	0x0e38151e	2.2689919e-30
26	0xae0f0ba5	-3.2524778e-11
27	0x11a51e7d	2.60512e-28
28	0x8afca4a6	-2.4328651e-32
29	0xa8f42f8b	-2.711006e-14
30	0x8000eddb	-8.5326e-41
31	0x176173bb	7.2847493e-25
32	0x90d194e1	-8.266535e-29
33	0x00000a24	3.638e-42
34	0x80008f8e	-5.1498e-41
35	0x9d9d99bf	-4.1716524e-21
36	0x1690cf52	2.3395292e-25
37	0x0000d912	7.787e-41
38	0x0000c74b	7.1493e-41
39	0x00003d51	2.1996e-41
40	0x12948e0b	9.375129e-28
41	0x1d5e0487	2.9383796e-21
42	0x800111cb	-9.8218e-41
43	0x2ad2ffc3	3.7480964e-13
44	0x80012ad6	-1.07202e-40
45	0x1cdb3158	1.4504959e-21
46	0x9039f9a4	-3.6677133e-29
47	0x9028d9a5	-3.3299825e-29
48	0x90338189	-3.5401316e-29
49	0x0d3a533e	5.7415874e-31
50	0x90440bb7	-3.866321e-29
51	0x9039378d	-3.6527612e-29
52	0x9019f9cd	-3.036637e-29
53	0x8f2474d7	-8.108327e-30
54	0x28517cff	1.1628935e-14
55	0x800076ed	-4.2663e-41
56	0x271189d1	2.0197503e-15
57	0x8000dbc4	-7.8837e-41
58	0x80008ea7	-5.1174e-41
59	0x2ffd83c9	4.611407e-10
60	0x8001335a	-1.10257e-40
61	0x800013c2	-7.088e-42
62	0x000095d2	5.3745e-41
63	0x8000568b	-3.1046e-41
64	0x000065f1	3.657e-41
65	0x00013ff2	1.14775e-40
66	0xae956bcf	-6.794886e-11
67	0x150e9f7b	2.880248e-26
68	0x0000434c	2.4142e-41
69	0x8f5d82d9	-1.09213416e-29
70	0x045dd336	2.6075408e-36
71	0x00006bab	3.8624e-41
72	0x8000d0a9	-7.4853e-41
73	0x80001213	-6.484e-42
74	0x800019a5	-9.2e-42
75	0x2e7f6a96	5.8074955e-11
76	0x8000b7ce	-6.5937e-41
77	0x80002665	-1.3773e-41
78	0x80007a78	-4.3934e-41
79	0x8000c007	-6.8886e-41
80	0xad709b27	-1.3676871e-11
81	0x940ba655	-7.05051e-27
82	0x968128f8	-2.086693e-25
83	0x9afafbab	-1.0380417e-22
84	0x800009b4	-3.481e-42
85	0xaf0e357b	-1.2933825e-10
86	0x283be3fb	1.0430021e-14
87	0x1bca81a4	3.3501875e-22
88	0x800001b5	-6.12e-43
89	0x8000b974	-6.6528e-41
90	0xae05c5ae	-3.0416274e-11
91	0x80008211	-4.6659e-41
92	0x000019ba	9.229e-42
93	0x8000555c	-3.0621e-41
94	0x00002c2d	1.5847e-41
95	0x0000346c	1.8805e-41
96	0x00004a43	2.664e-41
97	0x1c747f6d	8.089752e-22
98	0x2890dd5a	1.6083207e-14
99	0x8000c37e	-7.013e-41
100	0xafa03092	-2.9138342e-10
101	0x00004049	2.3061e-41
102	0x8000be07	-6.8169e-41
103	0x800043af	-2.428e-41
104	0x164f4e8f	1.6746116e-25
105	0x000145d9	1.16892e-40
106	0x81737418	-4.4715344e-38
107	0x80005a24	-3.2336e-41
108	0x80197886	-2.339123e-39
109	0xaa20bbaf	-1.427597e-13
110	0x83eccb80	-1.3917555e-36
111	0x24867ee7	5.832822e-17
112	0xadae786f	-1.9834993e-11
113	0x80137c3c	-1.789441e-39
114	0x26d5b2cc	1.4828307e-15
115	0x8026e099	-3.57032e-39
116	0xa38a1de0	-1.4974643e-17
117	0x28ca3c84	2.245275e-14
118	0x8000a0f0	-5.7733e-41
119	0xa51a333d	-1.3374731e-16
120	0x2d2770fc	9.5179385e-12
121	0x80004bbb	-2.7167e-41
122	0x852d61ea	-8.152405e-36
123	0x2dfd75ab	2.8815025e-11
124	0x26276ab6	5.8084384e-16
125	0x8000977b	-5.4341e-41
126	0x000088a5	4.9019e-41
127	0x2a2e8687	1.5500978e-13
128	0x201abca1	1.310672e-19
129	0x8000ac2d	-6.1765e-41
130	0x80010006	-9.1844e-41
131	0x00007dc3	4.5115e-41
132	0x23da1c46	2.3647582e-17
133	0x00009b7c	5.5777e-41
134	0x8000657d	-3.6407e-41
135	0xaecca93f	-9.30691e-11
136	0x00001f84	1.1306e-41
137	0x00000da0	4.888e-42
138	0x29b8a12b	8.1991996e-14
139	0x9790b88d	-9.352369e-25
140	0x0000832a	4.7053e-41
141	0x1dae0f65	4.6073334e-21
142	0x25e5a943	3.9839864e-16
143	0x8d90681c	-8.899749e-31
144	0xadff5b6e	-2.9030747e-11
145	0x0000b94a	6.6469e-41
146	0x9faad1a8	-7.234465e-20
147	0xa2aba1a9	-4.6520807e-18
148	0x8000d754	-7.7245e-41
149	0x800061e0	-3.5111e-41
150	0x00005dad	3.3605e-41
151	0x8000c606	-7.1037e-41
152	0x8000033f	-1.164e-42
153	0xa182fb5b	-8.875676e-19
154	0x0000c9cb	7.239e-41
155	0x237741da	1.34038414e-17
156	0x1a730a05	5.0259316e-23
157	0x000065d8	3.6535e-41
158	0x8000130b	-6.831e-42
159	0x8000bdf0	-6.8137e-41
160	0x2b98f1f1	1.0867402e-12
161	0x000060c9	3.472e-41
162	0x80009c0f	-5.5983e-41
163	0x292f0f94	3.8871318e-14
164	0x80005101	-2.9059e-41
165	0x8000de19	-7.9674e-41
166	0x8000fc82	-9.0583e-41
167	0x29b1e7e6	7.900607e-14
168	0x8000ea7c	-8.4117e-41
169	0x0000a56b	5.9341e-41
170	0x00005b63	3.2783e-41
171	0x927d52f8	-7.993499e-28
172	0x237b82f1	1.3634465e-17
173	0x21ddbc85	1.5025443e-18
174	0x0000b628	6.5345e-41
175	0x80003061	-1.7355e-41
176	0x00015401	1.2197e-40
177	0x0000c440	7.0401e-41
178	0x800068f2	-3.7647e-41
179	0x9064d704	-4.5130714e-29
180	0xab38793d	-6.5538184e-13
181	0x08b36a99	1.0798232e-33
182	0xa7848815	-3.67849e-15
183	0x07eb108e	3.53686e-34
184	0xad65382c	-1.3029616e-11
185	0x08c20215	1.167644e-33
186	0xa9473154	-4.4229662e-14
187	0x255ccb19	1.915077e-16
188	0x87717a65	-1.8166793e-34
189	0x80009851	-5.4641e-41
190	0x800068f7	-3.7654e-41
191	0xabb9803e	-1.3180635e-12
192	0x80007932	-4.3477e-41
193	0x800070cf	-4.0468e-41
194	0x1d57f507	2.858169e-21
195	0x00005bc7	3.2924e-41
196	0x00008c2f	5.0288e-41
197	0x000031f1	1.7916e-41
198	0x9ec89cf1	-2.1240733e-20
199	0x000084cb	4.7637e-41
200	0x8000affd	-6.3133e-41
201	0x80005651	-3.0964e-41
202	0x0000d01b	7.4654e-41
203	0x11800f13	2.020413e-28
204	0x000059b1	3.2175e-41
205	0x940f2984	-7.2278425e-27
206	0x0000df5f	8.013e-41
207	0x208b612c	2.361182e-19
208	0x092c69a9	2.0753428e-33
209	0x2305f864	7.262543e-18
210	0x8000cd2d	-7.3603e-41
211	0x8000c738	-7.1466e-41
212	0xa5a62d5e	-2.8827152e-16
213	0x000025c7	1.3552e-41
214	0x98bda338	-4.9020164e-24
215	0x80000ab6	-3.842e-42
216	0x80000a1a	-3.624e-42
217	0x0000d6f4	7.711e-41
218	0x8000b147	-6.3595e-41
219	0x841de0b5	-1.8558442e-36
220	0xafa546e7	-3.0063704e-10
221	0x2504cfeb	1.151962e-16
222	0x0000b3b9	6.4472e-41
223	0x80011e63	-1.02736e-40
224	0x0000c294	6.9801e-41
225	0x9f2fada9	-3.720134e-20
226	0x80000033	-7.1e-44
227	0x0000d7a6	7.736e-41
228	0x8001270f	-1.05847e-40
229	0x0ed9d6ff	5.3701664e-30
230	0x00007d42	4.4934e-41
231	0x228a5f9a	3.7506197e-18
232	0x8000bbf5	-6.7426e-41
233	0x80006bcb	-3.8669e-41
234	0xa587a607	-2.3531271e-16
235	0x28588552	1.2019318e-14
236	0x1c2461fb	5.4389685e-22
237	0x0000a766	6.0051e-41
238	0x9323b0fe	-2.0660756e-27
239	0x218bb954	9.468062e-19
240	0x00001451	7.288e-42
241	0x80007723	-4.2738e-41
242	0x00005adc	3.2594e-41
243	0x80005d58	-3.3485e-41
244	0x2845594c	1.095506e-14
245	0x00006201	3.5157e-41
246	0x8000a275	-5.8279e-41
247	0x8f86776e	-1.3259423e-29
248	0x8000ba66	-6.6867e-41
249	0x0000371f	1.9774e-41
250	0x00017f20	1.3744e-40
251	0x1bd9b89f	3.6018947e-22
252	0x0439a715	2.1823366e-36
253	0xacfb8cbd	-7.149474e-12
254	0x1ea4cbad	1.7448414e-20
255	0x0284b623	1.9500198e-37

e_conv4.depth_conv.bias f4 [32]
0	0xa25691d8	-2.9079617e-18
1	0x21e22759	1.5324771e-18
2	0xb04598ee	-7.188551e-10
3	0x80003355	-1.8414e-41
4	0x8000a4e0	-5.9146e-41
5	0xa9f1c521	-1.07367464e-13
6	0x00262307	3.502314e-39
7	0x8224c89f	-1.2106393e-37
8	0x000087f6	4.8774e-41
9	0x8c5ba0ea	-1.691957e-31
10	0xa6b1a8ed	-1.232763e-15
11	0x99ef53c5	-2.4745855e-23
12	0x8bc95046	-7.7543166e-32
13	0xad13c387	-8.399398e-12
14	0x0ec97178	4.9659592e-30
15	0x8368a293	-6.83653e-37
16	0x9edb75b9	-2.3236216e-20
17	0x0000842b	4.7413e-41
18	0x8000728d	-4.1093e-41
19	0x80005e49	-3.3823e-41
20	0x0f677245	1.1411187e-29
21	0x00004d5b	2.775e-41
22	0x80002255	-1.2316e-41
23	0xb0ec180e	-1.7178097e-09
24	0x21a3141f	1.1050636e-18
25	0x9c9a79c3	-1.022234e-21
26	0x8000c66b	-7.1179e-41
27	0x00003998	2.0661e-41
28	0xaf65e67c	-2.0909313e-10
29	0x0709775c	1.0341811e-34
30	0x289b9b38	1.7275772e-14
31	0x81927010	-5.379273e-38
