Zero-DCE++/snapshots_Zero_DCE++/Epoch51.pth (torch, 51217 bytes, 28 tensors)

e_conv1.depth_conv.weight f4 [3, 1, 3, 3]
0	0xbeb03299	-0.34413603
1	0xbe21be01	-0.15795137
2	0x3cc3e4ba	0.023912776
3	0xbe2e6f8c	-0.1703474
4	0x3df48d73	0.11941042
5	0x3de3f953	0.11131539
6	0xbecee4dc	-0.4040898
7	0xbe207226	-0.15668544
8	0xbd4a43d8	-0.049381107
9	0x3e4570fe	0.19281384
10	0x3e1820e9	0.14856304
11	0x3ea0f24e	0.31434864
12	0x3e3576b3	0.17721061
13	0x3c4cbc49	0.012496063
14	0x3e672fbc	0.22576803
15	0x3db77fd0	0.08959925
16	0xbb972be2	-0.0046133855
17	0x3e4d2404	0.2003327
18	0x3c571b9a	0.013129139
19	0xbd41375a	-0.047171928
20	0xbe2055a7	-0.15657674
21	0xbd18d7d8	-0.03731522
22	0xbdb06a4d	-0.08614025
23	0xbdfc3e97	-0.123166256
24	0xbd92540c	-0.07144937
25	0xbe3c8b2c	-0.18412465
26	0xbea6e0f3	-0.32593498

e_conv1.depth_conv.bias f4 [3]
0	0x3d993095	0.074799694
1	0x3e9e7b06	0.30953234
2	0xbd2f2745	-0.04276206

e_conv1.point_conv.weight f4 [32, 3, 1, 1]
0	0x3c054b65	0.008135651
1	0x3e62c021	0.22143604
2	0x3dba832b	0.091070496
3	0x9a23cebc	-3.387461e-23
4	0x9acaee40	-8.3930156e-23
5	0x1a2d25bd	3.5806046e-23
6	0x800081b8	-4.6534e-41
7	0xa10ad314	-4.703558e-19
8	0x02672e74	1.6984531e-37
9	0x3dbd7b7d	0.09252069
10	0xbf0519e9	-0.5199266
11	0x3e0663a7	0.13123952
12	0x216541a2	7.767508e-19
13	0xa11c5889	-5.297203e-19
14	0xa084bb6e	-2.24857e-19
15	0xbce0fbdc	-0.027463846
16	0x3dd61fa0	0.10455251
17	0x3ed912e3	0.42397222
18	0x3dd2256d	0.10261045
19	0x3e9301f9	0.28712443
20	0xbe81aeaa	-0.2532857
21	0xa6366381	-6.327879e-16
22	0xa67280d6	-8.413522e-16
23	0xa71a7745	-2.143645e-15
24	0x3d21ccd3	0.039501976
25	0xbc1821a0	-0.009285361
26	0x3da03a8e	0.078236684
27	0x3d7ad107	0.0612345
28	0xbcfcf6df	-0.030879436
29	0xbdf6af48	-0.12045151
30	0x3ec1fff2	0.37890583
31	0xbf0e09e1	-0.55483824
32	0x3eba177e	0.36346048
33	0xbab040d5	-0.0013447056
34	0xbd60c53b	-0.054875594
35	0x3d6d057c	0.05786656
36	0x3e351764	0.17684704
37	0xbecf0eff	-0.4044113
38	0xbe1ff9e2	-0.15622666
39	0xbd8733b4	-0.066016585
40	0xbe12d666	-0.14339599
41	0x3dfbb3c4	0.12290147
42	0x00056ee6	4.9896e-40
43	0x8000986d	-5.468e-41
44	0x00003856	2.021e-41
45	0x3d0f3a6f	0.034967836
46	0x3eaf6539	0.34256914
47	0x3e9ab3a5	0.30215183
48	0xbe79b6e8	-0.2438618
49	0x3eb55b54	0.3542124
50	0xbeaafff1	-0.33398393
51	0x8000732a	-4.1313e-41
52	0x0000ccb3	7.3432e-41
53	0x110ccc5d	1.1107027e-28
54	0xbbb7fa86	-0.0056145815
55	0x3b9317ed	0.004488936
56	0xbd3e420f	-0.046449717
57	0x134bb290	2.571024e-27
58	0x11defabc	3.517995e-28
59	0x11300685	1.3885961e-28
60	0xbf1477d6	-0.57995355
61	0xbda171c5	-0.07883028
62	0xbeb7b710	-0.35881853
63	0xb01a7e5d	-5.6204447e-10
64	0xb0b4b35e	-1.3147703e-09
65	0x3159fc8f	3.172122e-09
66	0xbc51cea2	-0.012805613
67	0x3bc116d1	0.0058926125
68	0x3d37140d	0.044696856
69	0x80000552	-1.909e-42
70	0x0ed494e9	5.240543e-30
71	0x8000788b	-4.3243e-41
72	0x39c9692d	0.0003841607
73	0xbac443b8	-0.0014973795
74	0x3abdcf51	0.0014481341
75	0x8000c286	-6.9782e-41
76	0x9090585a	-5.693411e-29
77	0x1e89076a	1.4508506e-20
78	0x00002281	1.2378e-41
79	0xa28246ef	-3.5311674e-18
80	0x8000bd10	-6.7823e-41
81	0x3ea04dd6	0.31309384
82	0xbe0bf8fd	-0.136692
83	0xbe9f4cbb	-0.31113228
84	0x3c81cab0	0.01584372
85	0xbe09c059	-0.13452281
86	0xbccb9314	-0.024850406
87	0x00002360	1.269e-41
88	0x8000bd01	-6.7802e-41
89	0x80001f1a	-1.1157e-41
90	0x3e8c924c	0.27455366
91	0x3c8c1d17	0.017103715
92	0xbd580dc8	-0.052747518
93	0xbe81d1ea	-0.25355464
94	0x3ed46418	0.41482615
95	0xbeb43846	-0.35199183

e_conv1.point_conv.bias f4 [32]
0	0xbe1a6e70	-0.15081191
1	0x9b46ad99	-1.6434269e-22
2	0x92d389e7	-1.3349968e-27
3	0x3f128dae	0.57247436
4	0x20b9dc31	3.148593e-19
5	0x3d9d8b98	0.07692641
6	0x3e8d7ee0	0.2763586
7	0xa732d490	-2.4817693e-15
8	0x3d60e6cc	0.054907605
9	0xbc8fcb95	-0.01755313
10	0x3ed33a23	0.41255292
11	0x3eea2bc0	0.45736504
12	0x3eb228f9	0.34796885
13	0x3e9afdb4	0.30271685
14	0x94932100	-1.4856223e-26
15	0x3f025c6b	0.5092227
16	0xbd82e87a	-0.06391998
17	0x80008ff1	-5.1636e-41
18	0xbce4d27d	-0.0279324
19	0x926fd7bb	-7.568101e-28
20	0x3ed2390d	0.4105915
21	0xb148c886	-2.9217815e-09
22	0x3eb363a9	0.35036972
23	0xa0b08840	-2.9905722e-19
24	0xbb215c35	-0.002462161
25	0x000124ed	1.05082e-40
26	0xa17ddcdb	-8.6012034e-19
27	0x3ea34dea	0.3189538
28	0x3da4ad95	0.08040921
29	0x9dde95f5	-5.8917963e-21
30	0x3f03372b	0.51256055
31	0xbdb825ca	-0.08991583

e_conv2.depth_conv.weight f4 [32, 1, 3, 3]
0	0xbcf32bd1	-0.02968398
1	0xbd10fabf	-0.03539538
2	0xbcecd40f	-0.028909711
3	0xbca6e163	-0.020371145
4	0xbd153b85	-0.036433715
5	0xbcc69b1c	-0.024243884
6	0xbd0a5ab1	-0.033777896
7	0xbd452f19	-0.04814062
8	0xbd0b6bf5	-0.034038503
9	0x95803e0d	-5.179669e-26
10	0x16712b83	1.9481555e-25
11	0x175805f9	6.9800903e-25
12	0x97995e20	-9.911154e-25
13	0x97321b4c	-5.7549355e-25
14	0x1718ffac	4.943655e-25
15	0x17913029	9.382563e-25
16	0x97bd70c6	-1.2242307e-24
17	0x974ee047	-6.684527e-25
18	0x80005e89	-3.3913e-41
19	0x8000ad79	-6.223e-41
20	0x0000662b	3.6651e-41
21	0x80005119	-2.9092e-41
22	0x00007b23	4.4173e-41
23	0x0000d79b	7.7345e-41
24	0x80006643	-3.6685e-41
25	0x000067b0	3.7196e-41
26	0x00004b75	2.7069e-41
27	0xbe9554d0	-0.2916627
28	0xbe85d010	-0.26135302
29	0xbd868e00	-0.06570053
30	0xbdd61d3e	-0.10454796
31	0x3df5eda8	0.1200822
32	0x3e839a0c	0.25703466
33	0x3e8b985f	0.27264687
34	0xb94fc32c	-0.00019813766
35	0x3eed9863	0.46405324
36	0x9d8c187a	-3.7083e-21
37	0x1d9aae67	4.094379e-21
38	0x1ea376e8	1.7307475e-20
39	0x9ea55fc0	-1.7509656e-20
40	0x1e7965d4	1.3203008e-20
41	0x9db0b527	-4.677412e-21
42	0x1e2c8f46	9.1352324e-21
43	0x1e7bd1cd	1.3331215e-20
44	0x1de14428	5.9627476e-21
45	0x3a4a2bcf	0.00077122165
46	0x3d57fc62	0.052730925
47	0xbcc5b600	-0.024134636
48	0x3d928ef9	0.07156176
49	0x3e2089d9	0.15677585
50	0x3b03f5e8	0.0020135585
51	0xbd2b5e09	-0.041837726
52	0xba9c5844	-0.0011928161
53	0xbe432a86	-0.1905919
54	0x3dbeb0e4	0.09311083
55	0xbc5d1611	-0.013494031
56	0xbe76be13	-0.24095945
57	0x3d691a3e	0.056909792
58	0x3e1a1ecb	0.15050809
59	0xbdc4cc54	-0.09609285
60	0xbd131063	-0.0359043
61	0xbc11ca8b	-0.008898388
62	0xbe9fa04e	-0.3117699
63	0xa55157cb	-1.8157606e-16
64	0xa551ad3e	-1.8186557e-16
65	0x24db2687	9.504138e-17
66	0xa5951aa3	-2.586543e-16
67	0x25a3931a	2.8375673e-16
68	0x247dec8e	5.5061e-17
69	0xa5140a72	-1.2840493e-16
70	0xa58ac9b4	-2.4075863e-16
71	0xa444f785	-4.2710382e-17
72	0x3cc650e7	0.0242085
73	0x3b35a9af	0.0027719548
74	0xbb76f5a8	-0.0037683044
75	0x3c442f11	0.011974112
76	0x3a2d9061	0.00066209404
77	0x3b39f98c	0.0028377501
78	0x3bea525d	0.0071509317
79	0x3c45fc07	0.012084014
80	0x3ce5ce7c	0.028052561
81	0x3c1daa3a	0.009623105
82	0x3b4ae3e3	0.0030958585
83	0xbc1b48b5	-0.009477784
84	0x3c80b870	0.015712947
85	0x3bcc3523	0.0062319203
86	0xbbc94cdf	-0.006143197
87	0x3c1b943c	0.009495791
88	0x372b4c09	1.0210098e-05
89	0xbbd75ca9	-0.0065723252
90	0x3e9a9f6f	0.30199763
91	0x3e8ae1f6	0.2712552
92	0x3e7349c6	0.23758611
93	0x3e88488a	0.26617843
94	0xbcd130c5	-0.02553595
95	0x3ea3cb09	0.3199084
96	0x3e9152ee	0.28383583
97	0x3dba4337	0.090948515
98	0x3d9f3986	0.077746436
99	0x3e60d3c3	0.2195578
100	0xbe452ced	-0.19255419
101	0x3e172d23	0.14763312
102	0x3d945042	0.072418705
103	0xbe593f06	-0.21215448
104	0xbe0093e3	-0.12556414
105	0x3e85e011	0.26147512
106	0x3d887711	0.06663335
107	0x3e28d805	0.16488655
108	0x3ebae478	0.36502433
109	0x3dfaa2bd	0.12238071
110	0x3e543a28	0.2072531
111	0x3e94d4e8	0.29068685
112	0x3e4cd0be	0.20001504
113	0x3ddae6ce	0.10688554
114	0x3e8ae001	0.27124026
115	0x3e1b39e0	0.15158796
116	0xbd9182d3	-0.07105031
117	0x3c721c59	0.014777266
118	0x3d26367d	0.040579308
119	0x3d8e52b3	0.069493674
120	0x3dd3e403	0.10346224
121	0xbdf502e7	-0.11963444
122	0x3e4655de	0.19368693
123	0xbdb3b7c8	-0.08775288
124	0x3d4c9011	0.04994208
125	0x3ec0beed	0.37645665
126	0x800015f1	-7.871e-42
127	0x00002e25	1.6554e-41
128	0x80005138	-2.9136e-41
129	0x0000daa7	7.8438e-41
130	0x8000cd11	-7.3564e-41
131	0x00006dcc	3.9388e-41
132	0x8000d803	-7.749e-41
133	0x80010b69	-9.5929e-41
134	0x0000bdb0	6.8047e-41
135	0xbd8cfb02	-0.068838134
136	0x3e233f9b	0.15942232
137	0xbe127040	-0.14300632
138	0x3df8fec0	0.12157965
139	0x3e5a4313	0.2131465
140	0x3e44fba6	0.19236621
141	0xbe2637c9	-0.16232218
142	0xbd962cb4	-0.07332745
143	0xbdb42d18	-0.087976635
144	0x3dcbe43e	0.09955643
145	0x3e71ed71	0.23625733
146	0x3eb5ab80	0.35482407
147	0x3e039f8e	0.12853834
148	0x3d813989	0.06309802
149	0x3e0a8d6b	0.13530509
150	0xbe20510e	-0.1565592
151	0xbd8674cd	-0.06565247
152	0xbe4ec205	-0.201912
153	0x80006490	-3.6075e-41
154	0x00009945	5.4983e-41
155	0x800004e1	-1.75e-42
156	0x000009ae	3.472e-42
157	0x0000d675	7.6933e-41
158	0x8000d3b3	-7.5943e-41
159	0x0000c42a	7.037e-41
160	0x8000120a	-6.471e-42
161	0x800056cd	-3.1138e-41
162	0xb8b07602	-8.414315e-05
163	0xb82a0169	-4.053247e-05
164	0xb9066d65	-0.00012819988
165	0xb880b8f8	-6.137969e-05
166	0xb7d933dd	-2.5892567e-05
167	0xb8af7f02	-8.368307e-05
168	0xb86190cf	-5.3779044e-05
169	0xb85bebc1	-5.243323e-05
170	0xb8a8ff7a	-8.0584505e-05
171	0x909e83e0	-6.25232e-29
172	0x9008b55f	-2.6960994e-29
173	0x910f5e52	-1.1309776e-28
174	0x0f53384c	1.04139456e-29
175	0x8f47f9ae	-9.859544e-30
176	0x90a9dcbd	-6.699885e-29
177	0x108e65ca	5.6165955e-29
178	0x907f5ed6	-5.0362942e-29
179	0x108be943	5.518523e-29
180	0xbd62d107	-0.055375125
181	0x3e79b3fa	0.24385062
182	0xbe554d57	-0.20830284
183	0xbea3a92d	-0.31965008
184	0xbc2ee951	-0.010675744
185	0x3d6a5e22	0.05721868
186	0xbea0f4da	-0.31436807
187	0xbe8007fc	-0.25006092
188	0xbe8b721e	-0.27235502
189	0xb00bc663	-5.084983e-10
190	0xb00ab655	-5.0463217e-10
191	0x3015c282	5.4482296e-10
192	0x2f9c1953	2.839423e-10
193	0x2fad73c6	3.155078e-10
194	0x300a8727	5.039617e-10
195	0xafdf9cf8	-4.0674997e-10
196	0x2fd19874	3.8125203e-10
197	0x2fba9d6e	3.3945063e-10
198	0xbd7f2830	-0.062294185
199	0xbde835a4	-0.11338356
200	0x3d98d726	0.07462911
201	0xbdce8b70	-0.10085189
202	0xbdda59be	-0.10661648
203	0x3bee03b7	0.0072636264
204	0xbd60ef2e	-0.0549156
205	0xbddaf261	-0.10690761
206	0xbc9d40c0	-0.019195914
207	0x00012ef6	1.08682e-40
208	0x0000cfb5	7.4511e-41
209	0x8000e6a5	-8.274e-41
210	0x00001581	7.714e-42
211	0x8000a50d	-5.9209e-41
212	0x80000937	-3.306e-42
213	0x0000e670	8.2665e-41
214	0x0000766a	4.2479e-41
215	0x0000cec5	7.4175e-41
216	0x3885ffba	6.389567e-05
217	0x38df8b8d	0.00010659462
218	0x39091d67	0.00013076291
219	0x37fcb028	3.012277e-05
220	0x38fdb92b	0.0001209847
221	0x382e6465	4.1578332e-05
222	0x37d241d7	2.506461e-05
223	0x38a475fd	7.8421064e-05
224	0x38074a36	3.2255623e-05
225	0x80000b0c	-3.963e-42
226	0x8000d6a0	-7.6993e-41
227	0x80002c89	-1.5976e-41
228	0x8000a625	-5.9601e-41
229	0x8000b29d	-6.4074e-41
230	0x0000b2ca	6.4137e-41
231	0x000085d8	4.8014e-41
232	0x00015b1b	1.24518e-40
233	0x0000a70a	5.9922e-41
234	0x0000c743	7.1482e-41
235	0x8000736e	-4.1408e-41
236	0x0000d378	7.586e-41
237	0x80002cfc	-1.6137e-41
238	0x0000daae	7.8447e-41
239	0x00011cbf	1.02148e-40
240	0x0000c724	7.1438e-41
241	0x0000456f	2.4908e-41
242	0x8000de51	-7.9752e-41
243	0x3e9e6217	0.30934212
244	0xbbf2c325	-0.007408517
245	0x3d4f2229	0.050569687
246	0x3c2129b0	0.009836599
247	0x3d88bdb1	0.06676806
248	0x3d941312	0.072302
249	0x3cf55b55	0.029950777
250	0xbd1e39ed	-0.03862946
251	0xbc8c343c	-0.017114751
252	0xbc3d811c	-0.011566427
253	0xbbff5e58	-0.007793229
254	0xbc500428	-0.012696303
255	0x3a5dc0b1	0.0008459194

e_conv2.depth_conv.bias f4 [32]
0	0x3dd114b4	0.10209027
1	0xbe0a5c75	-0.13511832
2	0x3bd4500b	0.0064792684
3	0xbd5c32a7	-0.053759243
4	0xbe39aa4f	-0.18131374
5	0x3e524a73	0.20536213
6	0x3c656604	0.014001373
7	0x3e1740f0	0.14770865
8	0x3e8d7513	0.27628383
9	0xbe811a96	-0.25215596
10	0x3c24718f	0.01003684
11	0xbdb05d6f	-0.08611571
12	0xbe68fb56	-0.22752127
13	0xbd50c52c	-0.050969288
14	0x3e1eefef	0.15521215
15	0x3e59936e	0.21247646
16	0x3e3d3970	0.18478942
17	0xbd11b329	-0.03557125
18	0xb9a4b668	-0.0003141642
19	0x3e3821eb	0.17981689
20	0x3e892025	0.26782337
21	0x3e421bd2	0.18955925
22	0xbdec276a	-0.11530955
23	0x3e535f39	0.20641793
24	0xbdb3bd7d	-0.087763764
25	0xbd203778	-0.0391154
26	0x3daa0065	0.083008565
27	0xbe64a789	-0.22329535
28	0xbdca6743	-0.09882977
29	0xbe31093d	-0.1728868
30	0xbdb94253	-0.090458535
31	0x3e99fe0d	0.30076638

e_conv2.point_conv.weight f4 [32, 32, 1, 1]
0	0xbc651e9d	-0.01398435
1	0xbc5719f4	-0.013128746
2	0xba81dd94	-0.0009907954
3	0x3db0e6d1	0.08637775
4	0x3c6fd5af	0.0146383485
5	0xbd89c50b	-0.06727036
6	0x3cb6c6d3	0.022311604
7	0xbce736db	-0.0282244
8	0xbd6f010b	-0.058350604
9	0x3c2dc562	0.010606142
10	0x3d4ac22e	0.04950159
11	0x3d646eb4	0.055769637
12	0x3e222396	0.15833887
13	0x3d06dde5	0.03292646
14	0xbc408781	-0.011751057
15	0xbe0245e9	-0.12721981
16	0x3cd765d3	0.02629367
17	0x3b6ca1d4	0.00361072
18	0x39e63627	0.00043909365
19	0xbd59ef29	-0.053206597
20	0x3e7fcb16	0.24979815
21	0x3ccc947a	0.024973143
22	0x3d5ccda9	0.05390707
23	0xbd7b0443	-0.06128336
24	0xba8df2c8	-0.0010829801
25	0x3bb45702	0.005503536
26	0xbc838743	-0.016055709
27	0x3d4bd714	0.04976566
28	0x3cae1262	0.021249
29	0x3cf3b7cb	0.029750725
30	0xbe1c3418	-0.15254247
31	0xbd0af6dc	-0.03392683
32	0x3d8c7c07	0.06859594
33	0xbdcb6991	-0.099322446
34	0x3ba00246	0.0048830835
35	0xbe19cca0	-0.15019464
36	0x3c903cb7	0.017607076
37	0x3dcca91d	0.09993193
38	0x3c1ab172	0.00944172
39	0x3ce6440a	0.028108615
40	0x3dc867a9	0.097853966
41	0xbdcf3486	-0.1011744
42	0x3e94a0f3	0.29029045
43	0x3e155d90	0.14586473
44	0x3e746284	0.23865706
45	0x3da6c118	0.081422985
46	0xbc06f757	-0.008237681
47	0x3e186ce2	0.14885285
48	0x3dd97d95	0.10619656
49	0xbc6fdaac	-0.014639538
50	0xba20d06a	-0.0006134572
51	0xbbe68c65	-0.0070357793
52	0x3cf7744c	0.030206822
53	0x3d6ad6c1	0.05733371
54	0x3c9a8f80	0.018867254
55	0x3e01a181	0.12659265
56	0xbc93a1c3	-0.01802147
57	0xbc8e4559	-0.017367052
58	0xbca81872	-0.020519469
59	0x3e33e837	0.17569052
60	0xbdd63cdf	-0.10460829
61	0xbd1089c9	-0.035287652
62	0xbe816d42	-0.2527867
63	0x3df2ab84	0.1184912
64	0xba7fc983	-0.00097575056
65	0xb9bd2a9e	-0.0003608064
66	0x3a76b9e0	0.0009411853
67	0x3eaddbb8	0.33956695
68	0x3c3fd4d8	0.011708461
69	0x3d0f89c7	0.035043504
70	0x3d3ec3ca	0.046573438
71	0xbc0f790d	-0.008756888
72	0xbd20a2f4	-0.039217904
73	0xbd3f3307	-0.046679523
74	0xbe02c621	-0.12770893
75	0xbd11b797	-0.035575476
76	0xbe862a05	-0.26203933
77	0x3d5bff2f	0.05371016
78	0xbca73b8e	-0.02041414
79	0x3c8f816f	0.017517773
80	0x3db0334e	0.086035356
81	0xbb90505a	-0.00440411
82	0x37980ebb	1.8126671e-05
83	0x3c987f19	0.018615292
84	0xbd1b0428	-0.03784576
85	0x3c0d9853	0.008642274
86	0xbbd5f3ac	-0.006529292
87	0x3d822b4a	0.06355913
88	0xbbb63566	-0.005560565
89	0xbb3e6108	-0.0029049534
90	0x3c606275	0.013695349
91	0xbe4ac08d	-0.19800015
92	0xbc4902a3	-0.012268695
93	0xbd1b7749	-0.037955556
94	0x3da25e2c	0.07928118
95	0xbc4ac8e7	-0.012377
96	0x9f8fc720	-6.089228e-20
97	0x1f9fd02d	6.768352e-20
98	0x1e842016	1.3989314e-20
99	0x9d3ab1b6	-2.470877e-21
100	0x1f419580	4.0993003e-20
101	0x1ffeb65b	1.07874866e-19
102	0x9ff6b8a1	-1.04490495e-19
103	0x1fe8c940	9.858876e-20
104	0x1eb596d2	1.9226498e-20
105	0xa00ffec0	-1.2196861e-19
106	0x1f66ce09	4.8874823e-20
107	0x1f716a78	5.1121804e-20
108	0x1f566ac8	4.540459e-20
109	0x1f733af7	5.1506026e-20
110	0x9fca022e	-8.5553934e-20
111	0xa055210f	-1.805274e-19
112	0xa0916d06	-2.46361e-19
113	0x9f58e563	-4.5929523e-20
114	0x9a5df87b	-4.590245e-23
115	0x1edd8e80	2.3458222e-20
116	0xa0add8c3	-2.945078e-19
117	0xa00f9d9c	-1.216472e-19
118	0x9eac207e	-1.8224647e-20
119	0x200fca4b	1.2179504e-19
120	0x9fb94e5c	-7.848018e-20
121	0x1f609797	4.7559237e-20
122	0x9fb5f23c	-7.7057225e-20
123	0x9faa0bb8	-7.201719e-20
124	0x9f907441	-6.11787e-20
125	0xa009c727	-1.1670245e-19
126	0x311df0c8	2.2983375e-09
127	0x204d7ffd	1.7406523e-19
128	0x3b0cd9a7	0.0021492036
129	0x3c390c42	0.011294426
130	0x3a44797a	0.0007494908
131	0xbd07589b	-0.033043485
132	0x3ce1b05f	0.02754992
133	0x3dc78325	0.09741811
134	0xbe10b326	-0.1413084
135	0x3b81cc90	0.0039611533
136	0xbca49797	-0.020091815
137	0xbd09dee4	-0.03365983
138	0xbd9bc520	-0.07605958
139	0xbcf2c5a1	-0.029635252
140	0xbd8a64e8	-0.067575276
141	0xbd458f47	-0.048232343
142	0x3c805671	0.015666218
143	0x3e244177	0.16040598
144	0x3c1b3c5f	0.009474843
145	0xbbd58acc	-0.00651679
146	0xb8aa1cc6	-8.111591e-05
147	0x3d1f6466	0.038914107
148	0x3b7e3d0f	0.0038793718
149	0xbc23ab24	-0.009989534
150	0xbbee8669	-0.0072792065
151	0xbcab24f7	-0.02089165
152	0xbc8bf7a3	-0.017085856
153	0xbba2dc04	-0.0049700756
154	0x3c8034c5	0.015650162
155	0x3bcc9735	0.006243611
156	0xbc502134	-0.012703229
157	0xbd12e83c	-0.035866007
158	0x3d1c6828	0.03818527
159	0xbd89a84a	-0.06721552
160	0x3c92522f	0.017861454
161	0xbc9ea6d2	-0.019366655
162	0x3a9d2fe1	0.0011992418
163	0xbd9994f3	-0.07499113
164	0xbcc92117	-0.024551911
165	0x3d061108	0.032731086
166	0x3dee25b2	0.116282836
167	0x3ca4c978	0.020115599
168	0x3d00c858	0.031441063
169	0xbcf6f168	-0.030144408
170	0x3dd47897	0.10374563
171	0xbd2d6d91	-0.04234082
172	0x3d9929a2	0.07478644
173	0xbceaac3c	-0.02864658
174	0x3caed7a1	0.021343054
175	0x3d2b7e6c	0.041868612
176	0xbb873413	-0.004126081
177	0xbbb587fa	-0.0055398913
178	0xba3687f5	-0.0006963008
179	0x3ca7f74e	0.020503666
180	0x3da73011	0.08163465
181	0x3cd182de	0.025575098
182	0xbd00843d	-0.031376112
183	0x3cc4a6ab	0.024005255
184	0xbc42ddb9	-0.011893683
185	0xbbb94f00	-0.0056551695
186	0x3c466412	0.01210882
187	0x3ce109a0	0.02747041
188	0xbc71e782	-0.014764668
189	0xbcb9662c	-0.022631727
190	0x3bbc9527	0.005755085
191	0x3e1746b6	0.14773068
192	0x3c030d25	0.007998739
193	0x3c95b68d	0.018275524
194	0xb989854d	-0.00026229993
195	0x3e264771	0.1623819
196	0xbc912241	-0.017716529
197	0xbe4e5350	-0.20148969
198	0x3e3922c9	0.18079676
199	0x3c02a537	0.007973961
200	0x35fcd8ca	1.8838557e-06
201	0xbd10e7c6	-0.035377286
202	0x3ebaeab9	0.36507204
203	0x3e4c8aab	0.19974773
204	0x3e454d80	0.19267845
205	0x3e6489a9	0.22318138
206	0x3c3b31ea	0.011425475
207	0xbdc313db	-0.095252715
208	0x3e347629	0.176232
209	0x3a4ef1c3	0.00078943017
210	0xb886de02	-6.43097e-05
211	0x3ccfe125	0.025375912
212	0xbd58bf4c	-0.05291681
213	0x3ca71368	0.020394996
214	0x3d07cbb9	0.03315327
215	0x3c2ef175	0.010677685
216	0x3b48c531	0.0030635113
217	0x3a4ae0b1	0.000773917
218	0x3bf28890	0.0074015334
219	0x3dbe6e26	0.09298353
220	0xbb23c60a	-0.0024989867
221	0x3c89e22d	0.016831482
222	0xbe32025e	-0.17383716
223	0x3e0e670a	0.13906494
224	0x9ebcf365	-2.000594e-20
225	0x1da93a6f	4.4794346e-21
226	0x1d5b1a25	2.8997925e-21
227	0x9da5b383	-4.3860747e-21
228	0x1e8b6566	1.4759135e-20
229	0x1ef0b7cf	2.548701e-20
230	0x9eecc2c4	-2.5068025e-20
231	0x1ecaf3f3	2.1488477e-20
232	0x1d83ce15	3.4888495e-21
233	0x9e9b391d	-1.6434885e-20
234	0x9d8fcb25	-3.806183e-21
235	0x9e19ece4	-8.14874e-21
236	0x9d7680b4	-3.2624367e-21
237	0x1e242fef	8.692e-21
238	0x9ee925cd	-2.4685469e-20
239	0x9ed93dea	-2.3001376e-20
240	0x1f56c4fb	4.54792e-20
241	0x9e450057	-1.04291634e-20
242	0x1b0ec3f6	1.1809283e-22
243	0x9d5f3eaa	-2.95462e-21
244	0x1ee5cc30	2.4330768e-20
245	0x9e4063e9	-1.0185056e-20
246	0x9d888bf8	-3.6143625e-21
247	0x1db0d4ac	4.680671e-21
248	0x1e8ea2c1	1.5102148e-20
249	0x9c06baac	-4.457815e-22
250	0x9e4a793c	-1.0718862e-20
251	0x1e13eff3	7.8317355e-21
252	0x9e875a42	-1.433101e-20
253	0x9ee366be	-2.4077053e-20
254	0x315f2462	3.2471452e-09
255	0x9d476463	-2.638933e-21

e_conv2.point_conv.bias f4 [32]
0	0x3db27da3	0.087153696
1	0x3d91cf3b	0.07119604
2	0x3dc37dce	0.0954548
3	0xb13b0446	-2.721451e-09
4	0x3e1cb033	0.1530159
5	0x3da88765	0.082289495
6	0xbc1c9994	-0.0095581
7	0xb1896ec4	-3.9998174e-09
8	0x3d86ea4b	0.065876566
9	0x3df13f7c	0.11779687
10	0x3bbc4bcc	0.0057463404
11	0xbd5b2b2e	-0.053507976
12	0x3bba1bbb	0.0056795753
13	0x3e2b4a15	0.16727479
14	0x3dbe50de	0.09292768
15	0x39593a96	0.00020716558
16	0xa7317fca	-2.463296e-15
17	0x3c9d3514	0.019190349
18	0x3d097d1e	0.033566587
19	0x00000bd7	4.247e-42
20	0xbd833c32	-0.06407966
21	0xbbd741ad	-0.0065691085
22	0x3cac96e9	0.021068053
23	0x3b235fa0	0.0024928823
24	0x3d4fe8bc	0.050759062
25	0xbcd9df83	-0.026595837
26	0x3d2896e0	0.04115951
27	0xbdd1f3c5	-0.102515735
28	0xa05a1c73	-1.8474731e-19
29	0xb966322c	-0.000219532
30	0x3d6919d0	0.056909382
31	0x3dc29478	0.095009744

e_conv3.depth_conv.weight f4 [32, 1, 3, 3]
0	0x0001e8f3	1.75402e-40
1	0x00008e1e	5.0982e-41
2	0x00001c37	1.0122e-41
3	0x8000669e	-3.6812e-41
4	0x00003125	1.763e-41
5	0x800038ed	-2.0421e-41
6	0x00004991	2.639e-41
7	0x80004e9f	-2.8204e-41
8	0x80002320	-1.26e-41
9	0x0000bb66	6.7226e-41
10	0x000099aa	5.5124e-41
11	0x0001009a	9.2051e-41
12	0x8000e1c0	-8.0984e-41
13	0x80014b8b	-1.18935e-40
14	0x0000246b	1.3064e-41
15	0x00002dd4	1.644e-41
16	0x80004f1a	-2.8376e-41
17	0x00004891	2.6032e-41
18	0x800061b5	-3.505e-41
19	0x8000fb00	-9.0042e-41
20	0x8001030a	-9.2926e-41
21	0x8000aab2	-6.1234e-41
22	0x0000ed5c	8.5148e-41
23	0x8001c841	-1.63673e-40
24	0x0000501a	2.8735e-41
25	0x80007282	-4.1078e-41
26	0x0000d185	7.5161e-41
27	0x8000dd56	-7.94e-41
28	0x0000c4eb	7.0641e-41
29	0x80003d2f	-2.1949e-41
30	0x0000c69b	7.1246e-41
31	0x000080e1	4.6233e-41
32	0x80009728	-5.4225e-41
33	0x800050f3	-2.9039e-41
34	0x8000ee53	-8.5495e-41
35	0x0000c336	7.0028e-41
36	0x0000f8b0	8.9212e-41
37	0x0000e1c4	8.099e-41
38	0x0000ecd0	8.4952e-41
39	0x80005ea9	-3.3958e-41
40	0x0001500f	1.20555e-40
41	0x0000c34a	7.0057e-41
42	0x800008fa	-3.22e-42
43	0x80012a4b	-1.07007e-40
44	0x8000528f	-2.9616e-41
45	0x80019fbd	-1.49139e-40
46	0x8001436f	-1.16026e-40
47	0x0000ac60	6.1836e-41
48	0x0000cc2c	7.3243e-41
49	0x80008935	-4.922e-41
50	0x000137d7	1.11867e-40
51	0x00004cfc	2.7617e-41
52	0x0000a0a0	5.7621e-41
53	0x00001232	6.527e-42
54	0x000065a5	3.6463e-41
55	0x00013429	1.10547e-40
56	0x8001b093	-1.55178e-40
57	0x80006e9f	-3.9683e-41
58	0x80001cf4	-1.0386e-41
59	0x00009d07	5.6331e-41
60	0x0000ce3b	7.3982e-41
61	0x000195fb	1.45638e-40
62	0x00008117	4.6309e-41
63	0x8000280f	-1.437e-41
64	0x8000b1ea	-6.3824e-41
65	0x8000deb3	-7.989e-41
66	0x80001fbb	-1.1383e-41
67	0x800015b0	-7.78e-42
68	0x8000563b	-3.0934e-41
69	0x80000887	-3.059e-42
70	0x00005af5	3.2629e-41
71	0x0000ebfa	8.4652e-41
72	0x00007ec4	4.5475e-41
73	0x0000a4b0	5.9079e-41
74	0x8000627b	-3.5328e-41
75	0x8000679c	-3.7168e-41
76	0x000078ec	4.3379e-41
77	0x800174be	-1.33715e-40
78	0x00007f45	4.5656e-41
79	0x0001d8fc	1.69675e-40
80	0x00018f72	1.43294e-40
81	0x8000f92a	-8.9383e-41
82	0x80008716	-4.846e-41
83	0x800048f1	-2.6166e-41
84	0x0001299f	1.06766e-40
85	0x0000aecf	6.271e-41
86	0x00001dfa	1.0754e-41
87	0x80005edc	-3.4029e-41
88	0x80006956	-3.7787e-41
89	0x000074ec	4.1944e-41
90	0x8000236b	-1.2706e-41
91	0x0001f560	1.7986e-40
92	0x000075c5	4.2248e-41
93	0x8000c81c	-7.1786e-41
94	0x8000f9ee	-8.9658e-41
95	0x8000daa8	-7.8439e-41
96	0x800072be	-4.1162e-41
97	0x000174e0	1.33762e-40
98	0x800065c7	-3.6511e-41
99	0x800116ea	-1.00056e-40
100	0x80010fd6	-9.7516e-41
101	0x80007a1c	-4.3805e-41
102	0x000124f8	1.05097e-40
103	0x80009695	-5.4019e-41
104	0x00001c80	1.0224e-41
105	0x0000dd0f	7.9301e-41
106	0x8000b018	-6.317e-41
107	0x0000ab9e	6.1565e-41
108	0x0000dcdc	7.923e-41
109	0x00012623	1.05516e-40
110	0x0000d45e	7.6183e-41
111	0x800035f2	-1.9352e-41
112	0x0000f037	8.6173e-41
113	0x80002fad	-1.7103e-41
114	0x80000c22	-4.352e-42
115	0x0001dfd1	1.72126e-40
116	0x0000f988	8.9515e-41
117	0x00014bd6	1.1904e-40
118	0x80007756	-4.281e-41
119	0x8000a7d3	-6.0204e-41
120	0x00009f8f	5.7239e-41
121	0x80001a30	-9.394e-42
122	0x00010d33	9.657e-41
123	0x00001ffc	1.1474e-41
124	0x000090f4	5.2e-41
125	0x80011a2b	-1.01223e-40
126	0x0000d90a	7.7859e-41
127	0x80007e68	-4.5346e-41
128	0x000005fe	2.15e-42
129	0x8000578d	-3.1407e-41
130	0x000099ab	5.5126e-41
131	0x800008f0	-3.206e-42
132	0x0001270d	1.05844e-40
133	0x00019269	1.44358e-40
134	0x800054de	-3.0445e-41
135	0x80008380	-4.7173e-41
136	0x00012e4e	1.08446e-40
137	0x00005df8	3.371e-41
138	0x0000ec81	8.4842e-41
139	0x00009b9b	5.5821e-41
140	0x0000805f	4.6051e-41
141	0x800133b7	-1.10387e-40
142	0x00006a3f	3.8114e-41
143	0x00002504	1.3279e-41
144	0x00001760	8.385e-42
145	0x000045b9	2.5012e-41
146	0x00004f3e	2.8427e-41
147	0x000095f7	5.3797e-41
148	0x80008758	-4.8552e-41
149	0x80003b13	-2.1192e-41
150	0x000038a4	2.0319e-41
151	0x8000563e	-3.0938e-41
152	0x800064bd	-3.6138e-41
153	0x800097dc	-5.4477e-41
154	0x0000610d	3.4815e-41
155	0x00019d7f	1.48334e-40
156	0x00001526	7.587e-42
157	0x0000b791	6.5851e-41
158	0x000091de	5.2327e-41
159	0x00003102	1.758e-41
160	0x00007bf5	4.4467e-41
161	0x800057c3	-3.1483e-41
162	0x0000ce4a	7.4003e-41
163	0x8000fc66	-9.0543e-41
164	0x8001d3fb	-1.6788e-40
165	0x0000ee20	8.5423e-41
166	0x8000343e	-1.8741e-41
167	0x80001c7d	-1.022e-41
168	0x80009720	-5.4213e-41
169	0x0000e3a5	8.1663e-41
170	0x8001b548	-1.56867e-40
171	0x0000e073	8.0517e-41
172	0x800000ec	-3.31e-43
173	0x00015c14	1.24867e-40
174	0x000182f6	1.38815e-40
175	0x00016ea0	1.3152e-40
176	0x0000936b	5.2884e-41
177	0x00006a4e	3.8135e-41
178	0x80001297	-6.669e-42
179	0x0000fb0c	9.0059e-41
180	0x80005e0e	-3.374e-41
181	0x8000e8c2	-8.3498e-41
182	0x80001c21	-1.0091e-41
183	0x0001b873	1.58003e-40
184	0x0000fed1	9.1411e-41
185	0x00007d6b	4.4991e-41
186	0x00006c44	3.8838e-41
187	0x80009863	-5.4666e-41
188	0x00004e36	2.8057e-41
189	0x0000c953	7.2222e-41
190	0x8000664c	-3.6697e-41
191	0x0000428a	2.387e-41
192	0x0000f18e	8.6653e-41
193	0x0000c70d	7.1406e-41
194	0x8000f88a	-8.9159e-41
195	0x00004fc1	2.861e-41
196	0x00005808	3.158e-41
197	0x0000ff5d	9.1607e-41
198	0x000186a9	1.40142e-40
199	0x00007347	4.1354e-41
200	0x8000090b	-3.244e-42
201	0x80000103	-3.63e-43
202	0x0000a831	6.0336e-41
203	0x8000105a	-5.866e-42
204	0x00006e53	3.9577e-41
205	0x000033a9	1.8532e-41
206	0x00007013	4.0205e-41
207	0x0000520e	2.9436e-41
208	0x8000e774	-8.303e-41
209	0x8000d75e	-7.7259e-41
210	0x8000cc0d	-7.32e-41
211	0x000053c1	3.0045e-41
212	0x000009a6	3.461e-42
213	0x0001bafd	1.58914e-40
214	0x80004b50	-2.7017e-41
215	0x0000f617	8.828e-41
216	0x0001053c	9.3713e-41
217	0x80006c30	-3.881e-41
218	0x0000c166	6.9378e-41
219	0x8000ec75	-8.4825e-41
220	0x000065a1	3.6458e-41
221	0x800032cb	-1.8221e-41
222	0x8000cbda	-7.3128e-41
223	0x80009fd3	-5.7334e-41
224	0x8000d75f	-7.726e-41
225	0x00009632	5.388e-41
226	0x000040d3	2.3255e-41
227	0x8000e290	-8.1275e-41
228	0x800035db	-1.932e-41
229	0x0000a6d8	5.9852e-41
230	0x80000d2f	-4.73e-42
231	0x8000139c	-7.035e-42
232	0x80005801	-3.157e-41
233	0x8001ec27	-1.76551e-40
234	0x80012963	-1.06682e-40
235	0x80007a3c	-4.385e-41
236	0x80003925	-2.05e-41
237	0x00009e73	5.6841e-41
238	0x000050cf	2.8989e-41
239	0x8000c11a	-6.9272e-41
240	0x0000e07c	8.053e-41
241	0x8000cfb9	-7.4517e-41
242	0x00003f7c	2.2774e-41
243	0x00007350	4.1366e-41
244	0x0000236d	1.2708e-41
245	0x80017d00	-1.36677e-40
246	0x00007d05	4.4849e-41
247	0x8000795f	-4.354e-41
248	0x80004616	-2.5142e-41
249	0x80000816	-2.9e-42
250	0x0000ce09	7.3911e-41
251	0x80004004	-2.2964e-41
252	0x80006b9e	-3.8606e-41
253	0x00018320	1.38874e-40
254	0x800001dd	-6.68e-43
255	0x0000802f	4.5984e-41

e_conv3.depth_conv.bias f4 [32]
0	0x0000f969	8.9472e-41
1	0x8000295d	-1.4838e-41
2	0x0000d11d	7.5016e-41
3	0x000024e3	1.3232e-41
4	0x800084b1	-4.7601e-41
5	0x00009cc3	5.6236e-41
6	0x800053e5	-3.0096e-41
7	0x00000a02	3.59e-42
8	0x800145f3	-1.16929e-40
9	0x800074a1	-4.1839e-41
10	0x00000768	2.657e-42
11	0x00006154	3.4915e-41
12	0x8000bda1	-6.8026e-41
13	0x80002300	-1.2556e-41
14	0x8000ca1a	-7.25e-41
15	0x800071c2	-4.0809e-41
16	0x0000dac1	7.8474e-41
17	0x80007af9	-4.4114e-41
18	0x00000d42	4.756e-42
19	0x8000e936	-8.366e-41
20	0x800071d7	-4.0838e-41
21	0x80010946	-9.5162e-41
22	0x800057f1	-3.1547e-41
23	0x00005591	3.0695e-41
24	0x00009c7a	5.6133e-41
25	0x8001391a	-1.1232e-40
26	0x00005a87	3.2475e-41
27	0x00003d42	2.1975e-41
28	0x8000e560	-8.2284e-41
29	0x00003713	1.9757e-41
30	0x00007ca3	4.4711e-41
31	0x00006b0a	3.8398e-41

e_conv3.point_conv.weight f4 [32, 32, 1, 1]
0	0x00005bf4	3.2987e-41
1	0x0000a1e8	5.8081e-41
2	0x00003a83	2.099e-41
3	0x80009833	-5.4599e-41
4	0x0001081d	9.4746e-41
5	0x0000cc6c	7.3333e-41
6	0x80012b4b	-1.07366e-40
7	0x80004204	-2.3682e-41
8	0x0000fdea	9.1087e-41
9	0x0000fee6	9.144e-41
10	0x8000f19a	-8.667e-41
11	0x8000daf4	-7.8546e-41
12	0x00009c7b	5.6135e-41
13	0x0000ef21	8.5783e-41
14	0x80015308	-1.21621e-40
15	0x8000ec6a	-8.481e-41
16	0x8001b70f	-1.57505e-40
17	0x0000e74d	8.2975e-41
18	0x0000bb47	6.7182e-41
19	0x8001069c	-9.4206e-41
20	0x00003a19	2.0842e-41
21	0x8000cc10	-7.3204e-41
22	0x0000256a	1.3422e-41
23	0x8000a84c	-6.0374e-41
24	0x00000189	5.51e-43
25	0x800144e7	-1.16553e-40
26	0x8000c5f7	-7.1016e-41
27	0x80009b4d	-5.5711e-41
28	0x00002473	1.3076e-41
29	0x00005aa2	3.2513e-41
30	0x800148f4	-1.18006e-40
31	0x80009109	-5.2029e-41
32	0x00016eb3	1.31547e-40
33	0x80006978	-3.7835e-41
34	0x0000aeb7	6.2676e-41
35	0x00000990	3.43e-42
36	0x00015966	1.23906e-40
37	0x8000aef0	-6.2756e-41
38	0x0000537f	2.9953e-41
39	0x8000cea4	-7.4129e-41
40	0x0000a50c	5.9208e-41
41	0x000033d0	1.8587e-41
42	0x0001cebc	1.65998e-40
43	0x00005b3a	3.2726e-41
44	0x8000d26e	-7.5488e-41
45	0x00007f0c	4.5576e-41
46	0x800061f8	-3.5145e-41
47	0x0000d6b2	7.7018e-41
48	0x800032ea	-1.8265e-41
49	0x800002af	-9.63e-43
50	0x800117e4	-1.00406e-40
51	0x0000acc7	6.1981e-41
52	0x0001fa31	1.81587e-40
53	0x00009214	5.2403e-41
54	0x0001145f	9.9143e-41
55	0x8000ba9e	-6.6946e-41
56	0x000162a9	1.27228e-40
57	0x8000b39e	-6.4435e-41
58	0x8000c96c	-7.2257e-41
59	0x00013d8b	1.13913e-40
60	0x00010fb2	9.7466e-41
61	0x8000f0b3	-8.6347e-41
62	0x00006e4a	3.9564e-41
63	0x00019267	1.44355e-40
64	0x00000884	3.055e-42
65	0x8000ea48	-8.4044e-41
66	0x00007df6	4.5186e-41
67	0x000193bd	1.44834e-40
68	0x000101ba	9.2455e-41
69	0x800022db	-1.2504e-41
70	0x0001682c	1.29205e-40
71	0x80016216	-1.27022e-40
72	0x80011ac7	-1.01441e-40
73	0x800111d7	-9.8235e-41
74	0x8000ba69	-6.6871e-41
75	0x8000ec0b	-8.4676e-41
76	0x00006cac	3.8984e-41
77	0x8001d1a2	-1.67038e-40
78	0x0000969f	5.4033e-41
79	0x000018e7	8.933e-42
80	0x0001294a	1.06647e-40
81	0x8001c803	-1.63586e-40
82	0x000088a9	4.9024e-41
83	0x00012f52	1.08811e-40
84	0x00007838	4.3126e-41
85	0x000116ee	1.00061e-40
86	0x80014d36	-1.19534e-40
87	0x8000f903	-8.9329e-41
88	0x8001053d	-9.3715e-41
89	0x80001226	-6.51e-42
90	0x0001081f	9.4749e-41
91	0x80019f6e	-1.49028e-40
92	0x800103e2	-9.3228e-41
93	0x8000ef78	-8.5905e-41
94	0x0000a698	5.9763e-41
95	0x8001248a	-1.04943e-40
96	0x000042fc	2.403e-41
97	0x0000ff07	9.1487e-41
98	0x0000d593	7.6616e-41
99	0x000147f8	1.17653e-40
100	0x000121d5	1.03972e-40
101	0x8000e08d	-8.0554e-41
102	0x8000cabb	-7.2726e-41
103	0x80009e5e	-5.6811e-41
104	0x0000e7c0	8.3136e-41
105	0x80007a63	-4.3904e-41
106	0x0000ae4d	6.2527e-41
107	0x00009eda	5.6985e-41
108	0x800127e8	-1.06151e-40
109	0x0001245d	1.0488e-40
110	0x00000b04	3.952e-42
111	0x000114e8	9.9335e-41
112	0x8000aee9	-6.2746e-41
113	0x0000d05f	7.475e-41
114	0x80018b51	-1.41813e-40
115	0x8000a3dc	-5.8782e-41
116	0x0000f603	8.8252e-41
117	0x0001368f	1.11407e-40
118	0x0001005e	9.1967e-41
119	0x0000f0e0	8.641e-41
120	0x8000e78e	-8.3066e-41
121	0x00013767	1.1171e-40
122	0x00014b55	1.1886e-40
123	0x8000dba8	-7.8798e-41
124	0x0001049b	9.3488e-41
125	0x0000fc6f	9.0556e-41
126	0x80003726	-1.9784e-41
127	0x800098e8	-5.4852e-41
128	0x8000674a	-3.7053e-41
129	0x8000d19d	-7.5195e-41
130	0x00004b1e	2.6947e-41
131	0x8000aebe	-6.2686e-41
132	0x00014827	1.17719e-40
133	0x80010af5	-9.5766e-41
134	0x000113dd	9.8961e-41
135	0x80011550	-9.9481e-41
136	0x000090f9	5.2006e-41
137	0x800175cc	-1.34093e-40
138	0x8000894b	-4.9251e-41
139	0x0000465f	2.5244e-41
140	0x800033fb	-1.8647e-41
141	0x0000f2bb	8.7075e-41
142	0x0000fab1	8.9931e-41
143	0x8000e999	-8.3799e-41
144	0x80007a53	-4.3882e-41
145	0x0000cdef	7.3875e-41
146	0x000080ad	4.616e-41
147	0x0000617d	3.4972e-41
148	0x8000ec59	-8.4786e-41
149	0x8001bf00	-1.60353e-40
150	0x8001680d	-1.29162e-40
151	0x00007baa	4.4362e-41
152	0x0000e2b7	8.133e-41
153	0x80010d5a	-9.6625e-41
154	0x8000a224	-5.8165e-41
155	0x800180a4	-1.37983e-40
156	0x8000d1ce	-7.5264e-41
157	0x80014579	-1.16758e-40
158	0x00008e03	5.0944e-41
159	0x8000d846	-7.7584e-41
160	0x00006255	3.5275e-41
161	0x0000cae2	7.278e-41
162	0x80005822	-3.1616e-41
163	0x00009f7c	5.7212e-41
164	0x000008fb	3.222e-42
165	0x800124a8	-1.04985e-40
166	0x0000867e	4.8247e-41
167	0x80006a95	-3.8234e-41
168	0x0000b90b	6.6381e-41
169	0x00004023	2.3008e-41
170	0x800100ef	-9.217e-41
171	0x000158df	1.23716e-40
172	0x80011866	-1.00588e-40
173	0x00001094	5.947e-42
174	0x0000b752	6.5763e-41
175	0x80018d35	-1.42491e-40
176	0x8000746b	-4.1763e-41
177	0x8001027f	-9.2731e-41
178	0x8000b3dd	-6.4523e-41
179	0x0000006c	1.51e-43
180	0x0000f8f7	8.9312e-41
181	0x00002685	1.3818e-41
182	0x80000609	-2.165e-42
183	0x80001fc3	-1.1394e-41
184	0x80004530	-2.482e-41
185	0x000150d6	1.20834e-40
186	0x0000712a	4.0596e-41
187	0x800084d6	-4.7653e-41
188	0x00003c92	2.1729e-41
189	0x800019a4	-9.198e-42
190	0x80009321	-5.278e-41
191	0x000062c7	3.5435e-41
192	0x0000c624	7.108e-41
193	0x800046e6	-2.5434e-41
194	0x0000499f	2.641e-41
195	0x8000ba06	-6.6733e-41
196	0x00006203	3.516e-41
197	0x8000a09c	-5.7616e-41
198	0x0000867b	4.8243e-41
199	0x80002c1c	-1.5823e-41
200	0x0000ac18	6.1736e-41
201	0x0000893e	4.9233e-41
202	0x0001288e	1.06384e-40
203	0x000068b3	3.7559e-41
204	0x80007cfc	-4.4836e-41
205	0x80001d00	-1.0403e-41
206	0x00012137	1.03751e-40
207	0x0000043e	1.522e-42
208	0x800184c9	-1.3947e-40
209	0x8001435c	-1.16e-40
210	0x00002401	1.2916e-41
211	0x0000b247	6.3954e-41
212	0x800199b5	-1.46975e-40
213	0x0001735b	1.33217e-40
214	0x80009903	-5.489e-41
215	0x80016b99	-1.30434e-40
216	0x0000d736	7.7203e-41
217	0x0000dc3c	7.9005e-41
218	0x8000c7ed	-7.172e-41
219	0x8000a33e	-5.856e-41
220	0x00006096	3.4649e-41
221	0x80003b74	-2.1328e-41
222	0x80010cf0	-9.6477e-41
223	0x00017c12	1.36344e-40
224	0x0001a45f	1.50801e-40
225	0x000153d7	1.21912e-40
226	0x80001b98	-9.899e-42
227	0x0000fd6e	9.0913e-41
228	0x8001352f	-1.10914e-40
229	0x0000baed	6.7056e-41
230	0x000014c2	7.447e-42
231	0x8000ad2f	-6.2127e-41
232	0x00009ec0	5.6949e-41
233	0x8001dbb8	-1.70656e-40
234	0x0000fec1	9.1388e-41
235	0x00007906	4.3415e-41
236	0x0000e8f6	8.357e-41
237	0x80003b1d	-2.1206e-41
238	0x8000ccaa	-7.342e-41
239	0x000082f4	4.6977e-41
240	0x0000b8fb	6.6358e-41
241	0x8000f735	-8.8681e-41
242	0x0002214d	1.95617e-40
243	0x8000fffc	-9.183e-41
244	0x00008018	4.5951e-41
245	0x80010698	-9.4201e-41
246	0x00002e58	1.6625e-41
247	0x000028d1	1.4642e-41
248	0x00005f5b	3.4207e-41
249	0x0000f6d0	8.854e-41
250	0x0000e85d	8.3356e-41
251	0x8000906d	-5.181e-41
252	0x8000fb77	-9.0209e-41
253	0x800141e2	-1.1547e-40
254	0x00001d7a	1.0574e-41
255	0x80011a32	-1.01233e-40

e_conv3.point_conv.bias f4 [32]
0	0x8000f8dc	-8.9274e-41
1	0x8000f27b	-8.6986e-41
2	0x000099cd	5.5173e-41
3	0x80009e37	-5.6757e-41
4	0x80001c9d	-1.0265e-41
5	0x00005e3e	3.3808e-41
6	0x0000166a	8.04e-42
7	0x00015b46	1.24578e-40
8	0x0001035e	9.3043e-41
9	0x0000b12d	6.3559e-41
10	0x00005757	3.1332e-41
11	0x0000f421	8.7577e-41
12	0x0000ad29	6.2118e-41
13	0x00004a64	2.6686e-41
14	0x0000cd1e	7.3582e-41
15	0x000000e6	3.22e-43
16	0x0000dd34	7.9353e-41
17	0x00004574	2.4915e-41
18	0x00011c60	1.02015e-40
19	0x8000953c	-5.3535e-41
20	0x00003582	1.9195e-41
21	0x0000ceb7	7.4155e-41
22	0x0000dbf5	7.8906e-41
23	0x8000642c	-3.5935e-41
24	0x00006420	3.5918e-41
25	0x000091d8	5.2319e-41
26	0x8000c869	-7.1894e-41
27	0x0000693c	3.7751e-41
28	0x0000d279	7.5503e-41
29	0x800053d4	-3.0072e-41
30	0x0000568e	3.105e-41
31	0x80010025	-9.1887e-41

e_conv4.depth_conv.weight f4 [32, 1, 3, 3]
0	0x0000c9a3	7.2334e-41
1	0x00005b10	3.2667e-41
2	0x0000bfb5	6.8772e-41
3	0x0000137d	6.991e-42
4	0x800048b9	-2.6088e-41
5	0x8000d40f	-7.6072e-41
6	0x8000adb2	-6.231e-41
7	0x00009969	5.5033e-41
8	0x00013ac8	1.12922e-40
9	0x80009770	-5.4326e-41
10	0x800070a4	-4.0408e-41
11	0x00001ccb	1.0329e-41
12	0x00013167	1.09558e-40
13	0x000110d4	9.7872e-41
14	0x000077c2	4.2961e-41
15	0x8000c829	-7.1804e-41
16	0x0000e59b	8.2367e-41
17	0x00018b28	1.41755e-40
18	0x0000c8b5	7.2e-41
19	0x00006b63	3.8523e-41
20	0x8000d1ec	-7.5306e-41
21	0x80011536	-9.9445e-41
22	0x0000bcdc	6.775e-41
23	0x0000946d	5.3245e-41
24	0x0000519c	2.9276e-41
25	0x000022cf	1.2487e-41
26	0x80006eb7	-3.9717e-41
27	0x80002172	-1.1998e-41
28	0x80007894	-4.3255e-41
29	0x8000919b	-5.2233e-41
30	0x00010f47	9.7316e-41
31	0x80000d10	-4.686e-42
32	0x8000804e	-4.6027e-41
33	0x8000261a	-1.3668e-41
34	0x000062d7	3.5457e-41
35	0x00003bc3	2.1438e-41
36	0x00006c03	3.8747e-41
37	0x8001be1b	-1.60032e-40
38	0x00014196	1.15363e-40
39	0x00016c6b	1.30729e-40
40	0x80005f1f	-3.4123e-41
41	0x0000e829	8.3283e-41
42	0x00019273	1.44372e-40
43	0x00001b8a	9.879e-42
44	0x0000996b	5.5036e-41
45	0x8000ad9e	-6.2282e-41
46	0x0001058e	9.3828e-41
47	0x00001e7f	1.094e-41
48	0x8000f317	-8.7204e-41
49	0x800065e7	-3.6556e-41
50	0x80009327	-5.2788e-41
51	0x00004ef6	2.8326e-41
52	0x80005163	-2.9196e-41
53	0x8000f89e	-8.9187e-41
54	0x0000c689	7.1221e-41
55	0x8000626b	-3.5306e-41
56	0x00003661	1.9507e-41
57	0x8000e702	-8.287e-41
58	0x00001fb1	1.1369e-41
59	0x00007a64	4.3905e-41
60	0x00005bd1	3.2938e-41
61	0x8000c9d0	-7.2397e-41
62	0x80003353	-1.8412e-41
63	0x80009a36	-5.532e-41
64	0x8000e4cd	-8.2078e-41
65	0x8001b853	-1.57959e-40
66	0x00002d05	1.615e-41
67	0x8000978e	-5.4368e-41
68	0x0000d7a7	7.7361e-41
69	0x8000f597	-8.8101e-41
70	0x000062bd	3.542e-41
71	0x000100c1	9.2106e-41
72	0x000198a5	1.46594e-40
73	0x00006781	3.713e-41
74	0x8000c547	-7.077e-41
75	0x8000c8ee	-7.208e-41
76	0x00009c37	5.604e-41
77	0x0000d834	7.7559e-41
78	0x000011dc	6.407e-42
79	0x8000c3e2	-7.027e-41
80	0x00000620	2.197e-42
81	0x00004d9b	2.784e-41
82	0x8000d632	-7.6839e-41
83	0x00002354	1.2673e-41
84	0x00006379	3.5684e-41
85	0x0000c4c3	7.0585e-41
86	0x800060b0	-3.4685e-41
87	0x8000c7cf	-7.1678e-41
88	0x0000a498	5.9045e-41
89	0x80015459	-1.22094e-40
90	0x000012df	6.77e-42
91	0x80016941	-1.29593e-40
92	0x8000724b	-4.1e-41
93	0x80013c74	-1.13522e-40
94	0x00000f2b	5.441e-42
95	0x80000825	-2.922e-42
96	0x000181eb	1.38441e-40
97	0x00009fb8	5.7296e-41
98	0x8000b42b	-6.4632e-41
99	0x800033ae	-1.8539e-41
100	0x0000b578	6.5099e-41
101	0x00003762	1.9868e-41
102	0x800002c6	-9.95e-43
103	0x80012a2d	-1.06965e-40
104	0x80001056	-5.86e-42
105	0x0001dd6a	1.71264e-40
106	0x0000db5e	7.8694e-41
107	0x0000d181	7.5156e-41
108	0x8001006e	-9.199e-41
109	0x00004926	2.6241e-41
110	0x000009c9	3.51e-42
111	0x80001317	-6.848e-42
112	0x800010cf	-6.03e-42
113	0x8000020d	-7.36e-43
114	0x00007995	4.3615e-41
115	0x000065fe	3.6588e-41
116	0x00003fa8	2.2836e-41
117	0x800061af	-3.5042e-41
118	0x80009690	-5.4012e-41
119	0x0000c015	6.8906e-41
120	0x80006ac2	-3.8297e-41
121	0x80002737	-1.4068e-41
122	0x000100b7	9.2092e-41
123	0x800000d4	-2.97e-43
124	0x0000a5f5	5.9534e-41
125	0x00015857	1.23526e-40
126	0x000054b6	3.0389e-41
127	0x00006f1b	3.9857e-41
128	0x00006f4b	3.9924e-41
129	0x800075a3	-4.22e-41
130	0x00011fb8	1.03214e-40
131	0x00010825	9.4757e-41
132	0x00003b6b	2.1315e-41
133	0x00003088	1.741e-41
134	0x00013771	1.11724e-40
135	0x80005bb7	-3.2901e-41
136	0x8000892a	-4.9205e-41
137	0x8000e35d	-8.1563e-41
138	0x000093c5	5.301e-41
139	0x8000ccce	-7.347e-41
140	0x0000481d	2.587e-41
141	0x00001a5c	9.456e-42
142	0x8000a7ed	-6.024e-41
143	0x0000ede6	8.5342e-41
144	0x00003f26	2.2653e-41
145	0x0000a84e	6.0376e-41
146	0x00007c23	4.4532e-41
147	0x000027b9	1.425e-41
148	0x8001a091	-1.49436e-40
149	0x8001010c	-9.2211e-41
150	0x8001110d	-9.7952e-41
151	0x800041eb	-2.3647e-41
152	0x000108ae	9.4949e-41
153	0x8000a500	-5.9191e-41
154	0x800033ea	-1.8623e-41
155	0x00000a35	3.662e-42
156	0x00008cf4	5.0564e-41
157	0x8000dbc9	-7.8844e-41
158	0x800015c8	-7.814e-42
159	0x8000decd	-7.9926e-41
160	0x00005132	2.9127e-41
161	0x800027a4	-1.422e-41
162	0x000128b8	1.06443e-40
163	0x00000059	1.25e-43
164	0x00005586	3.068e-41
165	0x80017458	-1.33572e-40
166	0x0000e22e	8.1138e-41
167	0x0000cb97	7.3034e-41
168	0x000113da	9.8957e-41
169	0x0000579f	3.1433e-41
170	0x000089c0	4.9415e-41
171	0x00002cf6	1.6129e-41
172	0x8000521c	-2.9455e-41
173	0x000023d8	1.2858e-41
174	0x00002bd4	1.5723e-41
175	0x80006e2b	-3.9521e-41
176	0x00009406	5.3101e-41
177	0x8000f514	-8.7917e-41
178	0x8000b67c	-6.5463e-41
179	0x8000c356	-7.0073e-41
180	0x000041b7	2.3574e-41
181	0x800077d9	-4.2993e-41
182	0x800009c6	-3.506e-42
183	0x0000c114	6.9263e-41
184	0x80000c7c	-4.479e-42
185	0x8000cd90	-7.3742e-41
186	0x00005db4	3.3614e-41
187	0x0000556e	3.0646e-41
188	0x80006b98	-3.8597e-41
189	0x00014e61	1.19953e-40
190	0x00004cd2	2.7558e-41
191	0x800093e9	-5.306e-41
192	0x0000b320	6.4258e-41
193	0x00012213	1.04059e-40
194	0x0000c4a2	7.0539e-41
195	0x00002b4c	1.5532e-41
196	0x80009713	-5.4195e-41
197	0x8000ab06	-6.1352e-41
198	0x0000c0b4	6.9129e-41
199	0x8000118a	-6.292e-42
200	0x8000a151	-5.787e-41
201	0x8000095e	-3.36e-42
202	0x0000edb7	8.5276e-41
203	0x8000d566	-7.6553e-41
204	0x8000424f	-2.3787e-41
205	0x00002836	1.4425e-41
206	0x80006b6f	-3.854e-41
207	0x000049aa	2.6426e-41
208	0x0000dd21	7.9326e-41
209	0x80001202	-6.46e-42
210	0x00004d81	2.7803e-41
211	0x8000a8da	-6.0573e-41
212	0x80004be3	-2.7223e-41
213	0x0000f8c3	8.9239e-41
214	0x8000772e	-4.2754e-41
215	0x0000e4bc	8.2054e-41
216	0x8000fcc4	-9.0675e-41
217	0x80014d60	-1.19592e-40
218	0x8000d92e	-7.791e-41
219	0x80002250	-1.2309e-41
220	0x00000d59	4.788e-42
221	0x8000629f	-3.5379e-41
222	0x0000c7f8	7.1735e-41
223	0x00001aaa	9.565e-42
224	0x000078a3	4.3276e-41
225	0x8000574b	-3.1315e-41
226	0x8000904a	-5.1761e-41
227	0x00007add	4.4075e-41
228	0x80000379	-1.246e-42
229	0x80009f69	-5.7186e-41
230	0x000133d0	1.10422e-40
231	0x0000900d	5.1676e-41
232	0x8000dbeb	-7.8892e-41
233	0x000081d1	4.657e-41
234	0x8000d52f	-7.6476e-41
235	0x0000caf3	7.2804e-41
236	0x0000b4dc	6.488e-41
237	0x8000dcb5	-7.9175e-41
238	0x8000958c	-5.3647e-41
239	0x00008f8c	5.1495e-41
240	0x0000ac03	6.1706e-41
241	0x800124d9	-1.05054e-40
242	0x800050f8	-2.9046e-41
243	0x8000e67c	-8.2682e-41
244	0x000055b7	3.0749e-41
245	0x00006203	3.516e-41
246	0x0001473e	1.17392e-40
247	0x0000b4b6	6.4827e-41
248	0x000150b0	1.20781e-40
249	0x000011c7	6.377e-42
250	0x0001316f	1.09569e-40
251	0x00009e3a	5.6761e-41
252	0x0000ad93	6.2267e-41
253	0x8000baad	-6.6967e-41
254	0x8000b064	-6.3277e-41
255	0x0000d5e2	7.6727e-41

e_conv4.depth_conv.bias f4 [32]
0	0x0000679c	3.7168e-41
1	0x80004e9c	-2.82e-41
2	0x80000bc7	-4.225e-42
3	0x00003a1d	2.0847e-41
4	0x8000d166	-7.5118e-41
5	0x00009a7f	5.5423e-41
6	0x00008092	4.6122e-41
7	0x8000d68c	-7.6965e-41
8	0x8000e1d7	-8.1016e-41
9	0x00005bbd	3.291e-41
10	0x00004553	2.4869e-41
11	0x80003e2c	-2.2303e-41
12	0x0000f750	8.8719e-41
13	0x00003052	1.7334e-41
14	0x80003695	-1.958e-41
15	0x80012a7d	-1.07077e-40
16	0x800075de	-4.2283e-41
17	0x8000115b	-6.226e-42
18	0x000027cc	1.4276e-41
19	0x00005478	3.0302e-41
20	0x0000fc80	9.058e-41
21	0x8000cb56	-7.2943e-41
22	0x80004339	-2.4115e-41
23	0x80004bab	-2.7145e-41
24	0x0000dbab	7.8802e-41
25	0x8000197e	-9.145e-42
26	0x00001c02	1.0047e-41
27	0x00007d3d	4.4927e-41
28	0x80004ea2	-2.8208e-41
29	0x80002697	-1.3843e-41
30	0x8000c571	-7.0829e-41
31	0x00008d76	5.0747e-41

e_conv4.point_conv.weight f4 [32, 32, 1, 1]
0	0x00001fb7	1.1377e-41
1	0x80009797	-5.438e-41
2	0x80009ca8	-5.6198e-41
3	0x00001ca6	1.0277e-41
4	0x00003611	1.9395e-41
5	0x8001d53f	-1.68334e-40
6	0x80005174	-2.922e-41
7	0x00004035	2.3033e-41
8	0x0000b307	6.4223e-41
9	0x00000c9e	4.526e-42
10	0x0001047d	9.3446e-41
11	0x00001044	5.835e-42
12	0x80007b52	-4.4239e-41
13	0x00007e4c	4.5307e-41
14	0x80006196	-3.5007e-41
15	0x00011546	9.9467e-41
16	0x80013f7f	-1.14614e-40
17	0x80002e34	-1.6575e-41
18	0x8000fe3b	-9.1201e-41
19	0x00019f8f	1.49074e-40
20	0x800001dc	-6.67e-43
21	0x8000982d	-5.459e-41
22	0x00008b41	4.9955e-41
23	0x0001194a	1.00908e-40
24	0x00007270	4.1052e-41
25	0x0000ee6e	8.5532e-41
26	0x00009411	5.3116e-41
27	0x00012a57	1.07024e-40
28	0x800030df	-1.7532e-41
29	0x000124a7	1.04984e-40
30	0x000115c1	9.964e-41
31	0x000103dc	9.322e-41
32	0x80016a3f	-1.2995e-40
33	0x00011ca8	1.02115e-40
34	0x80019fc0	-1.49143e-40
35	0x800130e7	-1.09378e-40
36	0x0000d1eb	7.5304e-41
37	0x00007a01	4.3767e-41
38	0x80003ae9	-2.1133e-41
39	0x0000b07d	6.3312e-41
40	0x0000ad27	6.2115e-41
41	0x800062e0	-3.547e-41
42	0x0001361c	1.11246e-40
43	0x800110d3	-9.7871e-41
44	0x0000fe65	9.126e-41
45	0x000095aa	5.369e-41
46	0x80006857	-3.743e-41
47	0x80003683	-1.9555e-41
48	0x80016318	-1.27384e-40
49	0x0000fe6d	9.1271e-41
50	0x80009089	-5.185e-41
51	0x00011d67	1.02383e-40
52	0x8001d77b	-1.69135e-40
53	0x0001520b	1.21267e-40
54	0x000030f4	1.7561e-41
55	0x00008d4f	5.0692e-41
56	0x800146fa	-1.17297e-40
57	0x80007b8c	-4.432e-41
58	0x0000b84b	6.6112e-41
59	0x00011876	1.0061e-40
60	0x0001568b	1.22881e-40
61	0x00009ea4	5.691e-41
62	0x8000c7ed	-7.172e-41
63	0x80010f8c	-9.7413e-41
64	0x800106ac	-9.4229e-41
65	0x00009d7d	5.6496e-41
66	0x0000be7e	6.8336e-41
67	0x00001238	6.536e-42
68	0x8001411a	-1.1519e-40
69	0x80014cf8	-1.19447e-40
70	0x00009876	5.4693e-41
71	0x8000aa12	-6.101e-41
72	0x8000d253	-7.545e-41
73	0x8000be0f	-6.818e-41
74	0x0001028d	9.275e-41
75	0x80017220	-1.32776e-40
76	0x80013b03	-1.13005e-40
77	0x0001b3ff	1.56406e-40
78	0x00004373	2.4196e-41
79	0x000176b6	1.34421e-40
80	0x800115a7	-9.9603e-41
81	0x00011ca3	1.02108e-40
82	0x80020ee6	-1.89016e-40
83	0x800164ed	-1.28041e-40
84	0x000085cb	4.7996e-41
85	0x00013c73	1.1352e-40
86	0x8000999b	-5.5103e-41
87	0x800024f6	-1.3259e-41
88	0x8000e9aa	-8.3823e-41
89	0x00003d3f	2.1971e-41
90	0x000059e1	3.2242e-41
91	0x8000d86c	-7.7638e-41
92	0x8000bbf9	-6.7432e-41
93	0x00009d61	5.6457e-41
94	0x00007914	4.3435e-41
95	0x0000d83a	7.7567e-41
96	0x8000ff04	-9.1482e-41
97	0x0000ef3b	8.582e-41
98	0x8000fd7f	-9.0937e-41
99	0x8000f76b	-8.8757e-41
100	0x0001ad69	1.54043e-40
101	0x80007fc7	-4.5838e-41
102	0x00014ed8	1.2012e-40
103	0x80000e32	-5.092e-42
104	0x8000db78	-7.873e-41
105	0x0000d9c7	7.8124e-41
106	0x8000e005	-8.0363e-41
107	0x00009341	5.2825e-41
108	0x8000a2af	-5.836e-41
109	0x80003817	-2.0121e-41
110	0x00009bad	5.5846e-41
111	0x000034f2	1.8993e-41
112	0x80004e07	-2.7991e-41
113	0x800078a2	-4.3275e-41
114	0x0000f4a1	8.7756e-41
115	0x80016d0d	-1.30956e-40
116	0x0000a14b	5.7861e-41
117	0x0000e284	8.1258e-41
118	0x0000192c	9.03e-42
119	0x800082c4	-4.691e-41
120	0x00007795	4.2898e-41
121	0x80009fef	-5.7373e-41
122	0x8000692d	-3.773e-41
123	0x00006949	3.7769e-41
124	0x000080b3	4.6169e-41
125	0x0001950e	1.45306e-40
126	0x8001095f	-9.5197e-41
127	0x00000e1f	5.066e-42
128	0x8001301a	-1.09091e-40
129	0x000155b9	1.22587e-40
130	0x000108ba	9.4966e-41
131	0x80012a5c	-1.07031e-40
132	0x8000d6e5	-7.709e-41
133	0x80009b9d	-5.5824e-41
134	0x00015601	1.22688e-40
135	0x0001cc05	1.65024e-40
136	0x00014773	1.17467e-40
137	0x80003ca0	-2.1748e-41
138	0x80022729	-1.97719e-40
139	0x0000639d	3.5735e-41
140	0x0000cd2b	7.36e-41
141	0x80019b41	-1.4753e-40
142	0x0000f171	8.6613e-41
143	0x00001e96	1.0972e-41
144	0x0001125c	9.8422e-41
145	0x8000686a	-3.7457e-41
146	0x00009ef3	5.702e-41
147	0x800165a2	-1.28294e-40
148	0x80005af7	-3.2632e-41
149	0x8000b92e	-6.643e-41
150	0x80000c1a	-4.341e-42
151	0x8000edba	-8.528e-41
152	0x8001d78c	-1.69159e-40
153	0x000101ae	9.2438e-41
154	0x8000cdf1	-7.3878e-41
155	0x00012b6e	1.07415e-40
156	0x800047b1	-2.5718e-41
157	0x80005058	-2.8822e-41
158	0x80007a37	-4.3842e-41
159	0x8000f1ed	-8.6787e-41
160	0x8001578d	-1.23243e-40
161	0x8000768b	-4.2525e-41
162	0x0000f136	8.653e-41
163	0x8000ad79	-6.223e-41
164	0x800172c3	-1.33004e-40
165	0x0000e49e	8.2012e-41
166	0x80016036	-1.2635e-40
167	0x0000c774	7.155e-41
168	0x8000d79b	-7.7345e-41
169	0x8000a7ac	-6.015e-41
170	0x0000479d	2.569e-41
171	0x000060ba	3.4699e-41
172	0x80002b34	-1.5498e-41
173	0x0000ea5f	8.4077e-41
174	0x8000432a	-2.4094e-41
175	0x80007138	-4.0615e-41
176	0x0000bb29	6.714e-41
177	0x0000ef6e	8.5891e-41
178	0x000106b5	9.4242e-41
179	0x8000ce0b	-7.3914e-41
180	0x8000acff	-6.206e-41
181	0x8000937e	-5.291e-41
182	0x8000dce6	-7.9243e-41
183	0x00005032	2.8769e-41
184	0x00009727	5.4223e-41
185	0x8000accd	-6.1989e-41
186	0x8000898a	-4.934e-41
187	0x00003f94	2.2808e-41
188	0x80003b73	-2.1326e-41
189	0x80007307	-4.1264e-41
190	0x0000944d	5.32e-41
191	0x00017e3d	1.37121e-40
192	0x0000d74d	7.7235e-41
193	0x000056b2	3.11e-41
194	0x80002b90	-1.5627e-41
195	0x0000ed87	8.5209e-41
196	0x800192a2	-1.44437e-40
197	0x000133a5	1.10362e-40
198	0x00004505	2.476e-41
199	0x00000acf	3.877e-42
200	0x0000f74e	8.8716e-41
201	0x00002b0b	1.5441e-41
202	0x8000f05a	-8.6222e-41
203	0x80001390	-7.018e-42
204	0x800136a7	-1.11441e-40
205	0x80009104	-5.2022e-41
206	0x80006ad3	-3.8321e-41
207	0x80014463	-1.16368e-40
208	0x800112e3	-9.8611e-41
209	0x800141c7	-1.15432e-40
210	0x0001b806	1.5785e-40
211	0x80010276	-9.2718e-41
212	0x0000fb84	9.0227e-41
213	0x8000c665	-7.117e-41
214	0x8000e319	-8.1467e-41
215	0x8000591d	-3.1968e-41
216	0x8000df4c	-8.0104e-41
217	0x0000d49e	7.6273e-41
218	0x0000f33f	8.726e-41
219	0x80013155	-1.09532e-40
220	0x8000ed08	-8.5031e-41
221	0x8000d1ea	-7.5303e-41
222	0x800061bd	-3.5062e-41
223	0x0000e5e1	8.2465e-41
224	0x80019533	-1.45358e-40
225	0x00012bb3	1.07512e-40
226	0x8000150a	-7.547e-42
227	0x8000df82	-8.018e-41
228	0x800036e5	-1.9692e-41
229	0x80018a7f	-1.41519e-40
230	0x80017e2f	-1.37102e-40
231	0x0001625f	1.27124e-40
232	0x8000e08f	-8.0556e-41
233	0x800039f0	-2.0784e-41
234	0x8000915e	-5.2148e-41
235	0x80008fc8	-5.1579e-41
236	0x80011cad	-1.02122e-40
237	0x0000baa2	6.6951e-41
238	0x80004541	-2.4844e-41
239	0x8000a408	-5.8843e-41
240	0x00004943	2.6281e-41
241	0x000000d6	3e-43
242	0x8001363d	-1.11293e-40
243	0x00004df8	2.797e-41
244	0x0001ae3e	1.54342e-40
245	0x800060a1	-3.4664e-41
246	0x00017092	1.32218e-40
247	0x00009da9	5.6558e-41
248	0x8000e466	-8.1934e-41
249	0x8000c1c2	-6.9507e-41
250	0x8000b412	-6.4597e-41
251	0x80013372	-1.1029e-40
252	0x0000aa08	6.0996e-41
253	0x80002889	-1.4541e-41
254	0x8000e2d5	-8.1372e-41
255	0x80013e4d	-1.14185e-40

e_conv4.point_conv.bias f4 [32]
0	0x80019b59	-1.47564e-40
1	0x800095ba	-5.3712e-41
2	0x80009cb6	-5.6217e-41
3	0x00006fed	4.0151e-41
4	0x000065ef	3.6567e-41
5	0x00009ff9	5.7387e-41
6	0x8000867c	-4.8244e-41
7	0x80008aff	-4.9862e-41
8	0x0000c439	7.0391e-41
9	0x0000d4aa	7.629e-41
10	0x80001669	-8.039e-42
11	0x1b9ce13a	2.5953584e-22
12	0x8000f707	-8.8617e-41
13	0x0000699a	3.7883e-41
14	0x80009fbe	-5.7305e-41
15	0x00001e1c	1.0801e-41
16	0x800064c5	-3.6149e-41
17	0x0000b893	6.6213e-41
18	0x00002997	1.492e-41
19	0x8000bae7	-6.7048e-41
20	0x000081f4	4.6618e-41
21	0x8000e8b3	-8.3477e-41
22	0x8000dfb3	-8.0248e-41
23	0x80005d17	-3.3394e-41
24	0x8001463c	-1.17031e-40
25	0x0000b907	6.6375e-41
26	0x0000a197	5.7968e-41
27	0x8000f3c9	-8.7454e-41
28	0x000056a0	3.1075e-41
29	0x000121b1	1.03922e-40
30	0x800183aa	-1.39068e-40
31	0x000151a8	1.21128e-40
