Zero-DCE++/snapshots_Zero_DCE++/Epoch98.pth (torch, 51217 bytes, 28 tensors)

e_conv1.depth_conv.weight f4 [3, 1, 3, 3]
000000 ff fc b4 be fa b3 3f be ac d6 53 bc 52 b0 29 be
       -0.3534927 -0.18721 -0.0129296 -0.16571167
000010 0c ac b3 3d b8 cc b1 3d 09 e1 db be f3 6b 40 be
       0.0877305 0.08681625 -0.42945126 -0.1879118
000020 8d 66 57 bd 19 8d 4d 3e ed 9f 38 3e 80 dc ba 3e
       -0.052588034 0.20073356 0.18029757 0.36496353
000030 f9 a9 3b 3e 72 88 1b 3d bf cf 6e 3e 6f e6 ab 3d
       0.18326558 0.03797192 0.23321436 0.08393561
000040 6f f1 73 3d fc 42 75 3e 91 80 88 3d ff 77 fa bc
       0.05955642 0.23951334 0.06665147 -0.030574797
000050 e7 c9 d7 bd cb 6a 26 bd df 4a 49 bd 9b a1 d6 bd
       -0.10536557 -0.04062919 -0.04914367 -0.104800425
000060 2e 6c 07 be ae 60 2a be af 9a b0 be
       -0.13224861 -0.16638443 -0.34493014

e_conv1.depth_conv.bias f4 [3]
000000 f4 18 9e 3d 24 e6 99 3e 19 1c 66 bd
       0.07719603 0.30058396 -0.05617914

e_conv1.point_conv.weight f4 [32, 3, 1, 1]
000000 97 9c 69 3c 48 d4 ab 3d dd 8e 81 3c a4 90 00 80
       0.014258525 0.08390099 0.015815193 -5.1887e-41
000010 0b 39 00 80 8e 67 00 00 69 70 00 00 30 45 00 00
       -2.0463e-41 3.7148e-41 4.0325e-41 2.482e-41
000020 eb 65 00 00 be d7 c8 3d 88 8a fb be 7c 98 31 3e
       3.6561e-41 0.098067746 -0.49129128 0.17343324
000030 26 74 8b 15 e4 d2 17 96 21 1a ab 15 45 e2 09 3d
       5.63249e-26 -1.2264228e-25 6.9107574e-26 0.033663053
000040 1c 74 9c 3d 7d 93 bb 3e 23 06 fc 3d 85 95 9e 3e
       0.076393336 0.36635962 0.12305858 0.3097345
000050 2b c6 be bd 64 7c 00 00 b6 9a 00 00 00 60 00 00
       -0.09315141 4.4623e-41 5.55e-41 3.4438e-41
000060 99 3a 82 3d fb a3 c8 bb b0 92 d1 3d 57 11 31 3d
       0.06358833 -0.0061230636 0.102330565 0.043229427
000070 b3 fc cd bb 34 19 a5 bd ca ca d2 3e 2c 52 0d bf
       -0.0062862276 -0.08061448 0.4117034 -0.5520351
000080 e1 94 93 3e 9b cc 22 bc 77 78 e8 bc 95 b9 25 3d
       0.28824523 -0.009936477 -0.028377755 0.040460188
000090 43 7d 50 3e 05 06 bc be 52 b7 2b be 8a d4 84 bd
       0.20360284 -0.36723343 -0.1676915 -0.06485851
0000a0 ee 42 24 be 1b 1d 0d 3e 94 c8 00 80 9a 4f 01 80
       -0.16041157 0.13780634 -7.1954e-41 -1.20391e-40
0000b0 22 03 01 80 e6 90 f0 3b 2d 3d 8b 3e ee c3 50 3e
       -9.296e-41 0.007341492 0.2719511 0.20387241
0000c0 98 35 82 be de 01 b3 3e ad 34 6f be 2b 44 a2 8d
       -0.25431514 0.34962362 -0.23359938 -1.0000432e-30
0000d0 a8 04 5a 8d a7 d3 04 0d d6 ce 80 09 34 78 ef a3
       -6.718204e-31 4.093041e-31 3.1009387e-33 -2.596334e-17
0000e0 99 19 00 00 b7 02 00 00 9b b6 00 00 b1 b7 00 80
       9.183e-42 9.74e-43 6.5506e-41 -6.5896e-41
0000f0 f3 0d 08 bf 3d 6e 1d bd 03 60 a3 be 3e 5e 00 80
       -0.53146285 -0.03843521 -0.3190919 -3.3808e-41
000100 5f ec bf 91 3a a1 00 00 a3 84 cd bb 06 bd d9 3b
       -3.0280162e-28 5.7837e-41 -0.006271915 0.006644848
000110 88 3f ea 3a 96 84 00 00 35 bc 00 80 52 78 00 00
       0.0017871717 4.7563e-41 -6.7516e-41 4.3163e-41
000120 7c e5 28 25 a8 db e2 af 8c 95 e3 21 6b 14 59 3d
       1.464943e-16 -4.1265236e-10 1.5421703e-18 0.052997988
000130 ac d6 38 3c 8a c9 87 bc 92 f9 1c ba 64 d6 95 b9
       0.0112816505 -0.016575594 -0.00059881166 -0.00028579228
000140 6c 76 d6 39 96 24 91 3e c6 21 13 be 81 db 61 be
       0.00040905492 0.28348225 -0.14368352 -0.2205639
000150 d0 85 6f 3d 17 80 55 3b 79 dc 07 bc 5f 75 00 80
       0.058477223 0.0032577568 -0.008292311 -4.2105e-41
000160 1d cc 51 8d 5b 86 00 00 24 d0 5f 3e 0f aa 3a 3c
       -6.464879e-31 4.8198e-41 0.21856743 0.011393084
000170 48 e8 95 bd 39 0d 58 be b8 cb e9 3e e1 4f 7f be
       -0.07319695 -0.21098794 0.45663238 -0.24932815

e_conv1.point_conv.bias f4 [32]
000000 26 a4 83 bd e6 f9 50 87 66 e6 1a 80 63 84 11 3f
       -0.06427793 -1.5721619e-34 -2.470374e-39 0.5684263
000010 a5 db 51 96 12 71 a5 3d 9c 31 74 3e cf 7b 1e 80
       -1.6952193e-25 0.08078207 0.2384705 -2.799479e-39
000020 37 db 85 3d f6 b5 80 bc ed 1b cf 3e 9f 8d ea 3e
       0.065359525 -0.015711766 0.40450993 0.45811173
000030 88 3b bc 3e f4 80 9b 3e 46 1c 00 80 a7 29 e2 3e
       0.3676417 0.3037182 -1.0143e-41 0.44172403
000040 59 6c 93 3b d9 26 f8 8c d0 86 37 a2 f5 03 f3 83
       0.004499 -3.823383e-31 -2.4872494e-18 -1.4283165e-36
000050 6c 1e cf 3e 4f 59 1d 9c 58 b6 8f 3e 0e e0 a0 80
       0.40452898 -5.206237e-22 0.28068805 -1.4774055e-38
000060 fd 8c b3 b0 95 e3 2f 3c bf 79 48 b9 11 cf 90 3e
       -1.3064035e-09 0.010735412 -0.0001911884 0.2828298
000070 41 e8 be 3c 94 56 27 a1 06 f1 09 3f f0 23 91 bd
       0.023304107 -5.6696386e-19 0.538834 -0.07086933

e_conv2.depth_conv.weight f4 [32, 1, 3, 3]
000000 3e 8c 10 bb 58 10 05 bb 3f 74 3a 3a 95 c7 10 bc
       -0.0022056247 -0.002030393 0.0007112659 -0.008836647
000010 8f 62 0e bc 8c b7 27 bb 62 ac 25 bc 2d f3 0d bc
       -0.00869049 -0.002559158 -0.0101119 -0.008663935
000020 ac 02 2b bb d0 7e 00 00 6b 8e 01 00 37 22 00 80
       -0.0026094122 4.5492e-41 1.42925e-40 -1.2274e-41
000030 24 12 01 00 51 42 00 00 3e cb 00 80 b5 9d 00 00
       9.8343e-41 2.379e-41 -7.291e-41 5.6575e-41
000040 24 50 00 80 f7 17 01 80 8f 9f 00 00 9a 24 00 00
       -2.8749e-41 -1.00432e-40 5.7239e-41 1.313e-41
000050 5b 95 00 00 6a 35 01 00 59 c7 00 00 d5 57 00 00
       5.3579e-41 1.10997e-40 7.1512e-41 3.1508e-41
000060 1f b4 01 00 f3 1a 01 00 a5 a6 00 00 8d d4 86 be
       1.56451e-40 1.01503e-40 5.9781e-41 -0.26334038
000070 7f 79 65 be 50 65 0e bd 7a 7f eb bd e6 90 81 3d
       -0.22409628 -0.034764588 -0.114989236 0.06326465
000080 fb 93 4d 3e 45 94 82 3e 10 b6 db 3b d4 02 f2 3e
       0.20075981 0.25503746 0.006705053 0.47267783
000090 d3 f8 b2 94 1f 03 ad 94 06 be a9 94 53 aa b6 94
       -1.807155e-26 -1.7469767e-26 -1.713959e-26 -1.8444485e-26
0000a0 ee f3 b0 94 1f bd a8 94 0b 55 a8 94 0a 9a a6 94
       -1.7867672e-26 -1.703826e-26 -1.6997208e-26 -1.6822474e-26
0000b0 b6 7f a5 94 ff 2a 55 3d 19 8e 86 3d a5 ec 47 3d
       -1.6711115e-26 0.052042957 0.06570072 0.048809666
0000c0 0f 7f d4 3c 5a ca 96 3d 26 fe 38 3d 74 72 83 bd
       0.025939493 0.07362814 0.04516425 -0.064183146
0000d0 58 6e b6 bc fb 46 1c be 61 2d 64 3d ab 09 25 bd
       -0.022269413 -0.15261452 0.05570734 -0.040292423
0000e0 d2 19 8e be 7f 70 65 3d ea 4a ff 3d c6 53 a8 bd
       -0.27754074 0.056015488 0.124654606 -0.082191035
0000f0 94 d5 73 bc b0 e9 ab bb 38 ba 8c be 99 e1 04 80
       -0.014882464 -0.0052463636 -0.27485824 -4.48271e-40
000100 2c 55 04 80 65 59 03 80 7d e8 04 80 60 62 04 80
       -3.97896e-40 -3.07575e-40 -4.50743e-40 -4.02632e-40
000110 11 52 03 80 73 c8 04 80 85 87 04 80 42 17 03 80
       -3.04946e-40 -4.3925e-40 -4.15957e-40 -2.8385e-40
000120 9a 8e 24 3c ea 7a 44 3b 84 5b 3b 38 52 98 97 3b
       0.0100437645 0.002998049 4.4669505e-05 0.0046263123
000130 11 dd 0c b9 bd eb c5 3a a2 d9 a2 3b 29 0b 1c 3c
       -0.00013433794 0.0015100163 0.0049697915 0.009524145
000140 88 10 cc 3c 84 3f 96 3b 5a 57 fc 3a 52 95 40 bb
       0.024910226 0.0045852084 0.0019252107 -0.0029385877
000150 38 d3 92 3b 95 24 68 ba f2 bd c7 bb 96 cb 3c 3b
       0.0044807456 -0.0008855549 -0.0060956413 0.002880787
000160 56 03 1c bb 28 56 58 bb 78 26 a6 3e 72 71 4f 3e
       -0.00238057 -0.0033010338 0.32451224 0.2025812
000170 45 b8 84 3e 16 65 4f 3e 32 92 93 bd 4f 51 7b 3e
       0.25921836 0.20253405 -0.07205619 0.24542736
000180 5d cb 97 3e 24 2a d7 3d 2d aa 15 3e 63 0a 7e 3e
       0.2964734 0.105060846 0.14615698 0.2480865
000190 71 4e ed bd 05 3f 4a 3e 86 fe 97 3d f0 56 3f be
       -0.11587227 0.19750603 0.07421593 -0.18685508
0001a0 e5 73 ab bd 0a e8 80 3e d9 d8 86 3d fd 85 40 3e
       -0.083717145 0.25177032 0.06584329 0.18801112
0001b0 6d 36 ce 3e 1c be 01 3e 4e 31 68 3e c6 e6 82 3e
       0.402759 0.12670177 0.22675058 0.2556669
0001c0 9d 68 1a 3e d4 98 ad 3d 93 4c 7c 3e 86 a5 dd 3d
       0.1507897 0.08476415 0.24638586 0.10822587
0001d0 32 9b 88 bd 9b 8f e2 3c 04 70 73 3d 73 64 d4 3d
       -0.06670226 0.027656367 0.059433 0.10370722
0001e0 99 65 b5 3d 1f 0a af bd 16 55 2d 3e ef ea 28 bd
       0.08857269 -0.08546852 0.16926989 -0.041239675
0001f0 1c a3 8e 3d 33 01 c1 3e e1 14 02 00 9f fa 01 00
       0.069647044 0.37696227 1.91161e-40 1.81741e-40
000200 dd 27 02 00 51 be 01 00 db 5c 01 00 aa 4f 01 00
       1.97971e-40 1.60108e-40 1.25146e-40 1.20414e-40
000210 cd a1 00 00 50 bd 00 80 7f 1e 01 80 d6 f2 40 bd
       5.8043e-41 -6.7913e-41 -1.02775e-40 -0.047106586
000220 c5 d6 0a 3e ab 0e 03 be 2b 10 ea 3d 22 6e 3e 3e
       0.1355849 -0.12798564 0.11428865 0.185967
000230 9b 09 20 3e 2b a9 0b be 10 a4 85 bd bb f9 be bd
       0.15628664 -0.13638751 -0.06525433 -0.09324976
000240 a9 44 d0 3d bd 92 56 3e a1 35 b0 3e 67 62 b1 3d
       0.10169346 0.20954414 0.34415916 0.08661347
000250 1d 0e 9b 3c 93 a5 e3 3d 47 84 0d be 0d 2f b0 bd
       0.018927628 0.11115565 -0.13819991 -0.08602724
000260 45 4e 56 be c1 b3 c0 87 1d 9d f9 87 08 ae 13 88
       -0.20928295 -2.89946e-34 -3.7557699e-34 -4.4440776e-34
000270 d6 a9 c5 87 d7 a5 e9 87 6c de 10 88 9d cd b8 87
       -2.9741086e-34 -3.5155415e-34 -4.359488e-34 -2.7806092e-34
000280 f4 44 c5 87 96 89 10 88 2d 75 01 80 cd 37 00 80
       -2.9681793e-34 -4.3495155e-34 -1.3387e-40 -2.0018e-41
000290 94 e4 01 80 5e 69 01 00 7f 9c 01 00 f3 26 01 00
       -1.73834e-40 1.29634e-40 1.47976e-40 1.05808e-40
0002a0 39 61 01 00 e1 50 00 00 99 d9 01 00 f5 e7 ac 80
       1.26712e-40 2.9014e-41 1.69895e-40 -1.5878916e-38
0002b0 55 90 f6 80 47 e5 b0 80 9a ef a0 80 0d 40 e7 80
       -2.2643309e-38 -1.6245297e-38 -1.4779632e-38 -2.1236977e-38
0002c0 ef de a2 80 b9 66 79 80 54 10 be 80 3f ac 7c 80
       -1.4957324e-38 -1.1148945e-38 -1.7454602e-38 -1.1449392e-38
0002d0 40 06 b8 bd 49 60 51 3e 6c 8f 3a be da 64 9d be
       -0.08985567 0.20446886 -0.18218774 -0.30741006
0002e0 7b 86 11 bc b6 e1 39 3d f7 01 ba be e5 6e 5f be
       -0.00888216 0.04538127 -0.36329624 -0.21819647
0002f0 f8 ac 7d be 6e 78 00 80 cc 49 00 00 30 eb 00 00
       -0.24773014 -4.3202e-41 2.6473e-41 8.437e-41
000300 74 41 00 00 0f e4 00 80 50 6d 00 00 ef a7 00 00
       2.348e-41 -8.1812e-41 3.9214e-41 6.0243e-41
000310 48 29 01 80 02 0f 01 00 62 45 85 bd 23 bc 74 bd
       -1.06644e-40 9.7219e-41 -0.06507374 -0.059749734
000320 89 25 5c 3c 32 eb 8e bd dd 8e 41 bd b9 01 70 bb
       0.013436683 -0.06978454 -0.047255386 -0.003662212
000330 e7 c0 6f bd 2b 32 5c bd bf ff aa bc 8f a8 03 80
       -0.058533575 -0.05375878 -0.020873902 -3.35974e-40
000340 13 f6 02 80 97 3a 03 80 b9 0f 04 80 fc 27 03 80
       -2.71946e-40 -2.96525e-40 -3.72982e-40 -2.8985e-40
000350 0f 33 03 80 92 ad 03 80 1c dd 03 80 6e b1 03 80
       -2.93823e-40 -3.37772e-40 -3.54826e-40 -3.39156e-40
000360 83 6c 00 00 0c ed 00 00 3d 80 00 00 b2 d1 00 00
       3.8927e-41 8.5036e-41 4.6003e-41 7.5225e-41
000370 2c d7 00 00 1b 91 00 00 33 f9 00 80 c0 3c 00 80
       7.7189e-41 5.2054e-41 -8.9396e-41 -2.1793e-41
000380 5b e8 00 80 8e 63 e6 39 39 ff 1d 39 3d ba 43 39
       -8.3353e-41 0.00043943193 0.00015067765 0.00018666028
000390 d2 00 24 b9 07 fd 6b b9 ef 28 12 b8 d2 71 a1 38
       -0.00015640564 -0.00022505606 -3.4847235e-05 7.698279e-05
0003a0 f8 85 7e 39 dc 39 02 3a 1e 5f 83 35 25 14 b6 34
       0.00024273235 0.0004967728 9.787943e-07 3.39148e-07
0003b0 82 e1 19 34 b9 60 79 35 46 9f a6 34 ea cb f9 33
       1.4331275e-07 9.290048e-07 3.1035796e-07 1.1632058e-07
0003c0 41 58 59 35 e9 6c 81 34 33 a0 8a 33 58 44 ad 3e
       8.0967226e-07 2.4107365e-07 6.455266e-08 0.33841205
0003d0 4a 1c 09 bc 59 92 65 3d a0 b6 6c 3c df c6 81 3c
       -0.008368561 0.05604777 0.014447838 0.0158419
0003e0 95 2a 59 3d 13 85 ca 3c e7 c0 03 3a d7 4e 92 bd
       0.053019125 0.024721658 0.0005025998 -0.07143944
0003f0 a4 74 ae 3a 4d 9a 50 3a 4d e8 85 b9 bf ba c2 3a
       0.0013309908 0.0007957563 -0.00025540814 0.001485668

e_conv2.depth_conv.bias f4 [32]
000000 fb d4 b4 3d 63 5b 8d bd 66 59 e7 39 ca 22 5d bd
       0.08829685 -0.06902196 0.0004412636 -0.053988256
000010 4e 62 06 be 9f 9b 36 3e 65 de ce 3c c3 de eb 3d
       -0.13123438 0.17832802 0.02525253 0.11517098
000020 9d ee 6d 3e 71 af 6a be ef a3 7f 3c 86 15 bf bd
       0.23235555 -0.22918488 0.01560305 -0.09330277
000030 bb 3b 5c be 53 cc 52 bd a3 cb ee 3d 65 02 4d 3e
       -0.2150716 -0.05146439 0.11659934 0.20020445
000040 0b 77 15 3e e1 3a 93 b9 85 52 e9 34 f7 fc 14 3e
       0.14596193 -0.00028081893 4.3459673e-07 0.14549623
000050 67 eb 84 3e 4a 00 20 3e 1f 46 bd bd af f6 0c 3e
       0.25960848 0.1562511 -0.0924189 0.13765977
000060 79 bc 81 bd 90 fc 8d bc 89 5d 60 3d fb 02 44 be
       -0.063347764 -0.017332345 0.054776702 -0.19141762
000070 d0 e2 ed bc 1b d8 1a be a5 3e 98 bd dd 7a 99 3e
       -0.029038817 -0.151215 -0.074338235 0.2997655

e_conv2.point_conv.weight f4 [32, 32, 1, 1]
000000 81 24 3c bc 7a 94 27 bb d6 01 8d 39 2c 70 93 3d
       -0.011483313 -0.0025570677 0.00026894984 0.071991295
000010 d9 2c 75 3c 83 27 97 bd bc fd 8e 3c 34 ce b9 bc
       0.014964306 -0.07380583 0.017454974 -0.022681333
000020 f0 73 4f bd a2 42 61 3c 97 d4 89 3d 0c ef df 3c
       -0.050647676 0.013748797 0.067300014 0.027335666
000030 f8 e4 26 3e 62 d1 f5 3c 15 85 4c bc 07 5c fb bd
       0.16298282 0.030007068 -0.012482901 -0.12273412
000040 b8 fa 9d 3c ac 6e 17 39 a2 82 d4 b6 f2 0e 2a bd
       0.019284591 0.0001444171 -6.3333e-06 -0.04151816
000050 da a3 9a 3e 6f 72 45 3c f0 9d 45 3d 58 1a 44 bd
       0.30203134 0.012051209 0.048246324 -0.047876686
000060 89 33 56 3b e9 5c 6f 3b 3c 84 33 bc a7 3c 45 3d
       0.0032684526 0.0036523885 -0.01095682 0.048153546
000070 b0 88 38 3c 8d 2d d1 3c ee ae 12 be 66 c8 4a 3c
       0.011263058 0.025534416 -0.14324543 0.01237688
000080 c3 ea 2a 3d fa da 41 bd 66 71 90 39 3e 5c 51 bc
       0.041727792 -0.047327973 0.0002755031 -0.01277834
000090 db 5e 90 3b 8b a7 b1 3c 7d 44 9a 3c 15 a3 a4 3c
       0.004405839 0.021686336 0.018831486 0.020097295
0000a0 36 42 a1 3d 12 67 9e bd 1e 26 a7 3e b9 41 71 3e
       0.07873957 -0.07734503 0.3264627 0.23560227
0000b0 92 25 86 3e 39 a4 23 3e c2 46 9b 3a 06 01 b0 3d
       0.2620054 0.15980615 0.0011846649 0.08593945
0000c0 0f 3b 04 3e 57 ef 20 b7 15 cd a3 b6 44 5a e2 3a
       0.12913154 -9.592469e-06 -4.8816532e-06 0.0017269333
0000d0 c8 86 bf bc 0c ea 26 3d 84 b1 9d bc 68 6d ab 3d
       -0.023379698 0.04075055 -0.019249685 0.08370477
0000e0 d7 3e 2f bc 5a 7b 41 bb 48 d9 f8 ba 43 33 5d 3e
       -0.0106961345 -0.0029522986 -0.0018985653 0.21601586
0000f0 fc 2f ec bc 19 99 d9 bc c2 7b 94 be 0c 00 f5 3d
       -0.028831474 -0.02656226 -0.2900067 0.119628996
000100 57 85 9b 3c da 4f a1 bc d0 7a e8 37 67 df 99 3e
       0.01898448 -0.019691397 2.7713744e-05 0.30053255
000110 21 67 be bc a9 20 77 3d 44 38 ef 3c fd f8 bb 3c
       -0.023242535 0.06033388 0.029201634 0.022945875
000120 b9 52 57 3c ae 63 63 bd a3 4c 00 be ac 8b 00 be
       0.013142281 -0.055514984 -0.12529235 -0.1255328
000130 64 1f 8a be b6 2d d7 3b c5 4a a2 3c 36 50 88 3d
       -0.26977074 0.0065667285 0.019811044 0.06655924
000140 21 e4 ad 3c f8 14 98 b8 93 a5 68 b4 10 0c 0d 3d
       0.021226944 -7.2518305e-05 -2.1666919e-07 0.03443533
000150 e6 f6 20 3a 55 c5 03 3d 22 b9 ac bb da e4 52 3d
       0.00061403064 0.032170612 -0.005271093 0.05148778
000160 66 3e 92 bc 19 c6 b3 bb be 95 8a 3c 68 64 81 be
       -0.01785202 -0.0054862616 0.016917106 -0.25271916
000170 e4 10 34 bc 33 78 29 bd 9d 81 c9 3d 36 5b d2 3c
       -0.010990355 -0.041374397 0.09839175 0.025678258
000180 90 9e 01 00 65 44 01 00 b4 5a 00 00 52 1b 01 80
       1.48717e-40 1.16371e-40 3.2538e-41 -1.01636e-40
000190 64 e5 00 80 4b fa 01 80 fa 4d 01 80 13 e6 00 80
       -8.229e-41 -1.81624e-40 -1.19808e-40 -8.2535e-41
0001a0 18 7d 00 80 c3 84 01 80 8d 41 01 80 d7 fa 00 80
       -4.4875e-41 -1.39461e-40 -1.1535e-40 -8.9984e-41
0001b0 4f ef 01 00 69 93 00 80 d1 79 01 00 c8 41 00 00
       1.77683e-40 -5.2881e-41 1.35535e-40 2.3598e-41
0001c0 2b a7 01 80 06 2c 01 00 dd ea 01 80 d4 07 00 80
       -1.51804e-40 1.07628e-40 -1.76089e-40 -2.808e-42
0001d0 67 6f 01 80 e1 02 02 80 46 6d 01 00 85 2b 00 00
       -1.31799e-40 -1.84704e-40 1.31035e-40 1.5612e-41
0001e0 b5 98 00 80 61 cc 00 00 34 56 01 80 e0 a0 00 80
       -5.4781e-41 7.3317e-41 -1.2276e-40 -5.7711e-41
0001f0 bd b5 00 00 ca 63 01 00 5f 59 01 80 d9 b6 01 80
       6.5195e-41 1.27633e-40 -1.23896e-40 -1.57429e-40
000200 d0 36 32 3b 2d 76 de ba 82 85 47 b9 7b ca e4 bc
       0.0027193315 -0.0016972475 -0.00019027854 -0.027928581
000210 5e 0e d5 3b 67 96 8c 3d 57 2b e5 bd 8f ca 03 3c
       0.006501957 0.068646245 -0.11189907 0.008043899
000220 77 34 ae bb 8e 09 ea bc 7c eb 4e bd a7 bf 8c bc
       -0.005316313 -0.02856901 -0.050517544 -0.01718123
000230 b9 85 49 bd a4 bf 26 bd ab 88 56 3c 77 09 01 3e
       -0.049199793 -0.040710106 0.013094108 0.12601267
000240 0e bd ea 3c e0 87 33 b8 cf c4 83 36 09 6f d5 3c
       0.028654601 -4.280347e-05 3.9270158e-06 0.026053922
000250 80 c5 39 3c d3 4c 00 3b e3 71 26 bc 53 1e 8b bb
       0.011338592 0.001957704 -0.010158989 -0.0042455583
000260 19 c4 02 bc 8f d6 0c bb 2f 43 f6 3b e7 04 8a bc
       -0.007981324 -0.0021490192 0.007515333 -0.01684804
000270 39 7c a7 bb de 7f c9 bc 14 fe ca 3c cd b3 ae bd
       -0.005111244 -0.024597105 0.024779357 -0.08530388
000280 b6 a0 11 3c 0e 38 fb bb 24 9d de b8 9c 10 99 3c
       0.008888414 -0.0076665943 -0.000106150546 0.018684678
000290 fc 67 72 bc a3 14 b8 3c 6a 1e a0 3d 4c 09 46 3c
       -0.0147953 0.022470778 0.07818301 0.0120871775
0002a0 de f9 cf 3c 27 fa c7 bc a3 6d 12 3d dc 13 27 bd
       0.0253877 -0.024411274 0.03574909 -0.040790424
0002b0 03 70 af 3c 35 87 2f bb 57 d2 4c 3c cf 72 4b 3d
       0.021415716 -0.002678347 0.012501321 0.049670037
0002c0 48 4f a2 3b 1f 44 49 b6 d0 af 1e 33 52 fe 78 3c
       0.0049532987 -2.9990986e-06 3.6947142e-08 0.015197353
0002d0 11 bb 77 3d 02 b5 8b 3c 1f d1 8e bc fa 31 83 3c
       0.060481135 0.017054085 -0.017433701 0.016015042
0002e0 45 4b bb bb 35 fd c3 ba c0 4d ac 3b fb ff 6d bc
       -0.00571576 -0.0014952781 0.005258292 -0.0145263625
0002f0 35 0a 3a bb 5e 1b 81 bc 68 b9 be 3c 30 55 08 3e
       -0.0028387432 -0.01576012 0.023281768 0.13313746
000300 3f d3 23 3b bd ea 20 3c ed f1 4e 39 c6 a6 2b 3e
       0.0024997739 0.009821591 0.00019735815 0.16762838
000310 54 e6 ce ba 7c 74 37 be 4a c6 00 3e df af 38 bb
       -0.0015785196 -0.17915529 0.12575641 -0.0028181
000320 c8 69 b1 bb 1e ab 65 bc 66 50 b2 3e 7b bd f3 3d
       -0.0054142214 -0.014017848 0.34826964 0.11901375
000330 a3 f6 29 3e 4c f0 41 3e f0 e2 c1 ba f1 be ba bd
       0.1659799 0.18939322 -0.0014792364 -0.091184504
000340 c8 9f 28 3e f0 7d 5a b8 79 51 9c b6 4e db a6 3b
       0.16467202 -5.209254e-05 -4.658647e-06 0.005092061
000350 d3 4b 0e bd a3 c9 4f 3b 1d ca c8 3c 8a 42 8f ba
       -0.03474028 0.0031705878 0.024510438 -0.0010929864
000360 d6 fc 8f 3b 0b 77 d8 3a 09 8e 33 bb 9e b8 09 3e
       0.004394154 0.001651497 -0.0027397892 0.13449332
000370 24 3e 29 3b 30 66 64 3c 1a 40 2d be e8 35 f0 3d
       0.0025824392 0.013940379 -0.16918984 0.11729032
000380 67 38 98 94 1c 53 63 14 d4 45 09 11 af aa 68 15
       -1.5370325e-26 1.1476962e-26 1.0828912e-28 4.6986672e-26
000390 7a 1f 53 15 7a 50 be 95 ed e7 fc 15 7b 76 1b 95
       4.263594e-26 -7.686736e-26 1.02147904e-25 -3.1395465e-26
0003a0 4a 82 1c 96 16 b0 14 16 c9 f1 23 15 1c 97 56 95
       -1.2642692e-25 1.2010908e-25 3.3108323e-26 -4.333616e-26
0003b0 36 25 2b 16 65 f7 2c 15 23 78 21 95 9e ec 53 96
       1.3825012e-25 3.4930283e-26 -3.2608462e-26 -1.7119107e-25
0003c0 fa 44 9a 96 fc 64 c2 90 df fa e5 8c d7 fa 7a 95
       -2.4923572e-25 -7.66751e-29 -3.5434024e-31 -5.0684976e-26
0003d0 86 7f c5 16 da 59 90 95 1d 2b fc 15 9f 79 7b 95
       3.1907545e-25 -5.83029e-26 1.0185001e-25 -5.0784988e-26
0003e0 13 65 04 14 a6 91 6e 93 91 20 a2 93 a2 cd 64 15
       6.68423e-27 -3.0111633e-27 -4.0926662e-27 4.620645e-26
0003f0 cf 09 2d 92 5d 85 84 15 70 3c 14 17 90 34 b5 16
       -5.4601265e-28 5.3524786e-26 4.789766e-25 2.9275299e-25

e_conv2.point_conv.bias f4 [32]
000000 b6 5d 9b 3d a8 97 94 3d 17 e7 fb 3d 30 3f 01 00
       0.07586233 0.07255489 0.12299936 1.14503e-40
000010 18 10 15 3e a8 f2 af 3d 64 7f 8d bc 52 0e 18 97
       0.1455692 0.08591205 -0.017272659 -4.9131924e-25
000020 73 37 98 3d 41 fb 65 3d 0f df 1f 3a 24 06 80 bd
       0.07432451 0.056147818 0.0006098607 -0.06251171
000030 ce 83 68 3b 24 8d 07 3e bc ac 0f 3e e6 17 01 00
       0.0035478952 0.13237435 0.14030737 1.00409e-40
000040 a2 be ac a3 25 63 25 3c d5 02 ba 3c e5 67 c6 13
       -1.8729014e-17 0.010094439 0.022706429 5.0084675e-27
000050 b5 bb 8b bd 02 07 45 ba f8 a3 04 3c 43 1b 16 ba
       -0.06822912 -0.0007515998 0.008095734 -0.0005726108
000060 24 5d 5b 3d 22 50 0a 00 65 0c 2a 3d af 02 c1 bd
       0.053555623 9.47101e-40 0.041515727 -0.0942434
000070 34 62 01 00 c4 4a 00 80 e6 4d 5b 3d 9f c4 a3 3d
       1.27064e-40 -2.6821e-41 0.053541087 0.07996487

e_conv3.depth_conv.weight f4 [32, 1, 3, 3]
000000 75 8a 00 80 bd 7e 01 00 a0 02 01 00 28 83 01 80
       -4.9669e-41 1.373e-40 9.2777e-41 -1.38885e-40
000010 84 94 01 80 f1 5d 00 00 26 fa 00 80 0b 55 00 00
       -1.45113e-40 3.37e-41 -8.9736e-41 3.0508e-41
000020 65 4f 01 00 97 7d 00 80 e4 0f 01 00 d4 ad 01 00
       1.20317e-40 -4.5053e-41 9.7536e-41 1.54193e-40
000030 c9 28 01 80 b1 8e 00 00 88 9d 01 80 84 18 02 00
       -1.06466e-40 5.1188e-41 -1.48347e-40 1.92466e-40
000040 84 dd 00 80 c0 01 00 80 b7 e5 00 80 8a 7c 01 80
       -7.9465e-41 -6.28e-43 -8.2406e-41 -1.36512e-40
000050 25 48 00 80 81 18 00 00 04 10 01 00 83 04 00 00
       -2.588e-41 8.79e-42 9.7581e-41 1.618e-42
000060 8d 03 01 00 f9 56 00 80 8e d3 00 00 da e7 00 00
       9.3109e-41 -3.12e-41 7.5892e-41 8.3173e-41
000070 c1 10 01 80 15 78 00 00 2b 25 02 00 3b ce 01 00
       -9.7846e-41 4.3077e-41 1.97004e-40 1.65817e-40
000080 e2 cf 00 00 d3 5b 00 80 dc f4 01 00 f7 78 00 00
       7.4574e-41 -3.294e-41 1.79674e-40 4.3394e-41
000090 c9 35 01 80 e0 5a 01 80 51 3e 00 80 53 cf 01 00
       -1.1113e-40 -1.24435e-40 -2.2355e-41 1.6621e-40
0000a0 93 bb 00 80 8a 47 00 00 e9 3b 01 80 5e 4e 00 00
       -6.7289e-41 2.5663e-41 -1.13327e-40 2.8113e-41
0000b0 10 28 01 00 d2 b2 01 80 03 03 01 80 44 f1 00 00
       1.06207e-40 -1.55984e-40 -9.2916e-41 8.655e-41
0000c0 2f d6 00 00 63 92 01 80 20 b9 01 00 98 7e 00 00
       7.6835e-41 -1.44349e-40 1.58246e-40 4.5413e-41
0000d0 59 f6 00 00 15 35 02 00 89 34 01 80 e3 73 01 00
       8.8373e-41 2.02713e-40 -1.10682e-40 1.33408e-40
0000e0 ca a0 00 00 18 6f 00 00 67 0a 00 80 84 8c 00 00
       5.768e-41 3.9853e-41 -3.732e-42 5.0408e-41
0000f0 1f 43 00 80 9b 42 01 00 2d 8c 01 80 45 32 00 80
       -2.4079e-41 1.15729e-40 -1.42121e-40 -1.8033e-41
000100 85 59 00 00 11 d6 00 00 f8 47 00 00 5f 08 02 80
       3.2114e-41 7.6793e-41 2.5818e-41 -1.86674e-40
000110 95 fc 01 00 a9 19 02 00 50 6d 00 00 d8 b9 00 80
       1.82445e-40 1.92876e-40 3.9214e-41 -6.6668e-41
000120 42 6d 01 00 ee b8 00 00 59 6a 00 80 60 02 01 00
       1.3103e-40 6.634e-41 -3.815e-41 9.2687e-41
000130 23 1a 01 00 05 87 00 00 55 ba 00 80 ab 0e 01 00
       1.01212e-40 4.8436e-41 -6.6843e-41 9.7097e-41
000140 d9 aa 01 00 92 42 01 00 62 64 01 00 3e 5e 00 80
       1.53124e-40 1.15716e-40 1.27846e-40 -3.3808e-41
000150 61 4d 00 80 6f ae 00 80 70 b0 00 80 0f 4a 01 80
       -2.7758e-41 -6.2575e-41 -6.3294e-41 -1.18403e-40
000160 10 e4 00 80 36 cd 00 00 a3 0e 00 00 aa 1b 01 00
       -8.1813e-41 7.3616e-41 5.25e-42 1.0176e-40
000170 dc 82 00 00 70 92 00 00 71 9b 01 00 34 c3 00 80
       4.6943e-41 5.2532e-41 1.47597e-40 -7.0026e-41
000180 0f 1d 01 80 b1 fb 01 80 23 2e 00 80 68 c0 01 00
       -1.0226e-40 -1.82125e-40 -1.6551e-41 1.60858e-40
000190 e7 c4 00 00 b4 d9 00 80 2d 25 01 00 29 3e 01 00
       7.0635e-41 -7.8097e-41 1.05172e-40 1.14134e-40
0001a0 12 ed 00 00 82 87 00 00 55 8e 00 00 1b 4a 01 00
       8.5045e-41 4.8611e-41 5.1059e-41 1.1842e-40
0001b0 25 1d 00 80 59 8d 01 80 32 71 01 80 af 06 00 80
       -1.0455e-41 -1.42541e-40 -1.32442e-40 -2.398e-42
0001c0 8a 92 01 00 85 1d 01 00 ee 4a 01 80 a7 81 01 80
       1.44404e-40 1.02425e-40 -1.18715e-40 -1.38346e-40
0001d0 15 dc 00 80 0c 21 01 80 e6 ec 01 00 6d e1 01 00
       -7.895e-41 -1.0369e-40 1.76819e-40 1.72703e-40
0001e0 71 2e 00 80 5c 61 00 80 97 b0 00 00 97 a5 00 00
       -1.666e-41 -3.4926e-41 6.3348e-41 5.9402e-41
0001f0 a1 41 00 80 02 cf 00 80 da d4 01 80 dd 62 01 80
       -2.3543e-41 -7.426e-41 -1.68192e-40 -1.27301e-40
000200 90 05 02 80 3c 22 00 80 71 2e 00 00 49 5a 01 80
       -1.85666e-40 -1.2281e-41 1.666e-41 -1.24224e-40
000210 cd 81 00 00 e9 0d 00 00 09 07 02 80 ce 08 00 80
       4.6564e-41 4.99e-42 -1.86195e-40 -3.159e-42
000220 c7 36 01 80 57 02 01 80 b0 bd 00 00 72 d1 00 80
       -1.11486e-40 -9.2675e-41 6.8047e-41 -7.5135e-41
000230 07 6f 01 00 f0 75 00 00 44 14 01 00 21 4b 00 00
       1.31665e-40 4.2308e-41 9.9105e-41 2.6951e-41
000240 c1 7d 00 80 c3 57 01 00 19 6c 01 00 38 32 01 80
       -4.5112e-41 1.23318e-40 1.30614e-40 -1.0985e-40
000250 38 0d 02 80 b6 fd 01 00 c9 6d 00 80 4f 67 01 80
       -1.88413e-40 1.8285e-40 -3.9383e-41 -1.28896e-40
000260 13 0a 02 00 ba 11 00 80 ba bd 00 00 06 9e 00 80
       1.87285e-40 -6.359e-42 6.8061e-41 -5.6688e-41
000270 8f 3b 00 80 08 04 00 80 c4 2e 01 00 72 9e 01 80
       -2.1366e-41 -1.446e-42 1.08612e-40 -1.48675e-40
000280 91 e9 01 80 3a 55 00 80 7b bb 01 00 bc 58 01 80
       -1.75623e-40 -3.0574e-41 1.59091e-40 -1.23667e-40
000290 5d 5c 00 80 e2 70 00 80 4d c8 00 00 a4 06 01 80
       -3.3134e-41 -4.0495e-41 7.1854e-41 -9.4218e-41
0002a0 ff a9 01 00 cb b5 01 00 91 63 00 80 b7 27 00 80
       1.52819e-40 1.5705e-40 -3.5718e-41 -1.4247e-41
0002b0 ca 1c 02 00 33 c9 00 80 08 bb 00 00 63 0b 01 80
       1.93999e-40 -7.2177e-41 6.7094e-41 -9.592e-41
0002c0 99 cb 01 80 8d 6d 01 00 34 96 01 00 82 b8 01 80
       -1.64873e-40 1.31135e-40 1.45718e-40 -1.58024e-40
0002d0 c1 8b 00 00 85 4d 01 00 e6 26 01 00 78 60 00 00
       5.0134e-41 1.19644e-40 1.0579e-40 3.4606e-41
0002e0 5d 94 00 00 2c 05 00 80 b2 96 00 80 b1 dc 00 80
       5.3223e-41 -1.855e-42 -5.4059e-41 -7.9169e-41
0002f0 71 83 00 80 f9 16 00 80 30 23 01 00 cf 39 00 00
       -4.7152e-41 -8.241e-42 1.04458e-40 2.0738e-41
000300 f5 46 00 00 eb f2 01 80 9b 41 00 80 9c 65 00 00
       2.5455e-41 -1.78978e-40 -2.3535e-41 3.645e-41
000310 0a 1c 01 80 82 8e 00 80 23 5d 01 80 f4 ca 00 80
       -1.01894e-40 -5.1122e-41 -1.25247e-40 -7.2806e-41
000320 34 2b 02 80 42 f0 00 80 ba 2d 01 00 c3 0b 00 80
       -1.9917e-40 -8.6188e-41 1.08239e-40 -4.22e-42
000330 10 39 01 80 d9 d5 00 80 2c 8d 01 80 56 20 00 80
       -1.12306e-40 -7.6714e-41 -1.42478e-40 -1.16e-41
000340 4f 93 01 00 dc 1d 00 80 39 9d 01 80 03 82 01 00
       1.4468e-40 -1.0712e-41 -1.48236e-40 1.38475e-40
000350 05 53 01 80 df 69 01 00 1d 68 00 80 cb 63 01 00
       -1.21617e-40 1.29815e-40 -3.7349e-41 1.27634e-40
000360 9b 33 01 00 1a 0b 01 80 17 31 00 00 ff ce 00 80
       1.10348e-40 -9.5818e-41 1.761e-41 -7.4256e-41
000370 e5 d7 01 80 2b d5 00 80 23 88 00 80 e5 19 01 80
       -1.69284e-40 -7.647e-41 -4.8837e-41 -1.01125e-40
000380 05 7b 01 80 6a e1 00 00 76 02 02 00 d3 51 00 80
       -1.35967e-40 8.0863e-41 1.84554e-40 -2.9353e-41
000390 02 d3 00 00 a1 06 01 80 70 82 00 80 d1 3a 00 00
       7.5695e-41 -9.4213e-41 -4.6792e-41 2.11e-41
0003a0 50 2f 00 00 2e 47 01 80 49 0a 00 80 ed aa 00 80
       1.6973e-41 -1.1737e-40 -3.69e-42 -6.1317e-41
0003b0 98 75 00 00 43 11 00 00 dc 7d 00 80 12 f5 00 80
       4.2185e-41 6.192e-42 -4.515e-41 -8.7915e-41
0003c0 d3 09 00 00 32 e9 00 80 01 85 00 00 82 bc 01 00
       3.524e-42 -8.3655e-41 4.7713e-41 1.5946e-40
0003d0 da 2a 00 00 73 06 00 00 78 31 00 00 d4 b2 00 80
       1.5372e-41 2.314e-42 1.7746e-41 -6.4151e-41
0003e0 aa 60 01 00 63 29 01 00 96 96 01 80 ef b9 00 00
       1.26512e-40 1.06682e-40 -1.45856e-40 6.67e-41
0003f0 ee 8a 00 00 52 bd 01 00 c5 5b 00 80 a2 c8 01 00
       4.9839e-41 1.59751e-40 -3.2921e-41 1.63809e-40

e_conv3.depth_conv.bias f4 [32]
000000 1e 49 01 80 29 cd 00 00 76 17 00 80 86 f9 00 80
       -1.18065e-40 7.3598e-41 -8.416e-42 -8.9512e-41
000010 a2 e3 01 00 00 ad 01 80 ab 67 01 00 86 7a 00 80
       1.73495e-40 -1.53896e-40 1.29025e-40 -4.3953e-41
000020 fe 4f 00 00 43 1c 01 00 7e 98 01 80 4f 1a 01 80
       2.8696e-41 1.01974e-40 -1.4654e-40 -1.01273e-40
000030 d2 60 01 80 59 d9 00 80 f7 33 00 80 23 68 01 00
       -1.26568e-40 -7.797e-41 -1.8641e-41 1.29193e-40
000040 a9 af 00 00 75 48 01 80 9e 82 01 80 28 49 01 80
       6.3015e-41 -1.17828e-40 -1.38692e-40 -1.18079e-40
000050 f7 bf 00 80 00 53 01 80 8d f4 00 00 74 1e 00 00
       -6.8864e-41 -1.2161e-40 8.7728e-41 1.0925e-41
000060 4d 36 00 80 10 b9 01 00 5e de 01 80 c2 eb 00 80
       -1.948e-41 1.58223e-40 -1.71606e-40 -8.4574e-41
000070 29 fa 00 80 ab 78 00 80 b9 ad 00 80 1a 0c 00 00
       -8.974e-41 -4.3288e-41 -6.232e-41 4.341e-42

e_conv3.point_conv.weight f4 [32, 32, 1, 1]
000000 9a 03 01 80 04 c9 00 00 32 34 00 80 ee 74 01 00
       -9.3127e-41 7.2111e-41 -1.8724e-41 1.33782e-40
000010 96 0e 01 00 32 40 00 80 fe fd 00 00 de 04 02 00
       9.7068e-41 -2.3029e-41 9.1115e-41 1.85417e-40
000020 96 be 01 80 eb 7e 00 80 99 4f 01 00 b1 52 01 00
       -1.60205e-40 -4.553e-41 1.2039e-40 1.215e-40
000030 a5 68 00 00 0a e4 00 80 7d 5f 01 00 69 d8 00 00
       3.754e-41 -8.1805e-41 1.2609e-40 7.7633e-41
000040 5e 04 01 80 d5 60 01 00 d6 0c 00 00 3a 39 01 00
       -9.3402e-41 1.26572e-40 4.605e-42 1.12365e-40
000050 58 8f 01 00 06 51 01 80 18 6f 01 00 35 bb 00 80
       1.43258e-40 -1.20901e-40 1.31688e-40 -6.7157e-41
000060 aa 06 00 00 7a bf 01 80 79 0a 01 00 46 23 02 80
       2.39e-42 -1.60524e-40 9.5592e-41 -1.96325e-40
000070 c0 b5 00 80 95 1d 00 00 b3 23 02 00 86 04 01 00
       -6.52e-41 1.0612e-41 1.96477e-40 9.3458e-41
000080 ad f7 01 00 d4 17 02 00 ad 6f 01 00 81 4f 00 80
       1.80685e-40 1.92219e-40 1.31897e-40 -2.852e-41
000090 67 64 01 00 86 5e 00 80 99 44 01 00 01 37 01 80
       1.27853e-40 -3.3909e-41 1.16444e-40 -1.11567e-40
0000a0 d0 42 01 80 a8 5d 00 80 17 d7 01 80 de b8 01 00
       -1.15803e-40 -3.3598e-41 -1.68995e-40 1.58153e-40
0000b0 c6 69 00 00 13 04 01 00 f3 3e 01 00 f3 2e 00 80
       3.7944e-41 9.3297e-41 1.14417e-40 -1.6842e-41
0000c0 09 a0 01 80 85 9f 00 80 c8 a3 01 00 76 7d 00 80
       -1.49245e-40 -5.7225e-41 1.50589e-40 -4.5007e-41
0000d0 97 3a 01 00 da 25 01 00 1c a0 01 80 f4 9f 00 00
       1.12854e-40 1.05414e-40 -1.49272e-40 5.738e-41
0000e0 e4 ca 00 00 9f f2 01 80 f6 f4 01 00 e5 90 00 80
       7.2783e-41 -1.78872e-40 1.79711e-40 -5.1978e-41
0000f0 3d 4c 00 80 0b 75 01 00 03 75 00 80 12 9f 00 80
       -2.7349e-41 1.33823e-40 -4.1976e-41 -5.7064e-41
000100 80 a3 00 80 81 a1 00 80 4c 28 00 80 7f d5 00 00
       -5.8653e-41 -5.7937e-41 -1.4456e-41 7.6588e-41
000110 19 98 01 00 d0 2e 01 00 44 14 00 80 53 a3 01 80
       1.46398e-40 1.08629e-40 -7.27e-42 -1.50425e-40
000120 52 25 00 80 cf 3b 01 00 e0 03 01 00 0a ee 01 80
       -1.3388e-41 1.13291e-40 9.3226e-41 -1.77228e-40
000130 5d b7 00 80 43 76 00 80 aa 52 00 00 af 22 01 80
       -6.5778e-41 -4.2424e-41 2.9654e-41 -1.04278e-40
000140 85 be 01 00 f2 10 00 00 5f ab 01 80 da 21 01 80
       1.60181e-40 6.079e-42 -1.53312e-40 -1.03979e-40
000150 7b 3a 01 00 92 84 00 80 8c a5 00 00 b5 b8 00 80
       1.12814e-40 -4.7557e-41 5.9387e-41 -6.626e-41
000160 77 63 01 80 a1 10 02 00 ff 9c 00 80 1e a7 01 80
       -1.27517e-40 1.89636e-40 -5.632e-41 -1.51786e-40
000170 f9 96 01 80 b6 7a 00 00 29 99 01 80 5b 0d 02 80
       -1.45994e-40 4.402e-41 -1.46779e-40 -1.88462e-40
000180 ff b0 01 00 1b 2d 00 80 f9 8e 00 80 10 ba 01 00
       1.5533e-40 -1.6181e-41 -5.1289e-41 1.58582e-40
000190 33 38 01 80 d5 ad 00 00 3b be 00 80 95 0b 00 00
       -1.11996e-40 6.2359e-41 -6.8242e-41 4.155e-42
0001a0 a6 ae 01 80 8f 15 01 80 8a 48 00 00 17 de 00 80
       -1.54488e-40 -9.9569e-41 2.6022e-41 -7.9671e-41
0001b0 6d 1d 01 80 61 ff 01 80 15 fc 00 00 3c b7 01 80
       -1.02391e-40 -1.83448e-40 9.043e-41 -1.57568e-40
0001c0 a2 5c 01 80 8d 21 00 80 5f c4 01 80 9f 0e 01 00
       -1.25066e-40 -1.2036e-41 -1.6228e-40 9.708e-41
0001d0 d9 01 01 80 02 4e 00 80 45 69 00 80 04 12 01 80
       -9.2498e-41 -2.7984e-41 -3.7764e-41 -9.8298e-41
0001e0 cd 2c 01 80 aa da 00 80 e3 99 01 80 85 01 02 80
       -1.07907e-40 -7.8442e-41 -1.4704e-40 -1.84216e-40
0001f0 1b 3f 00 00 b7 5c 01 80 0a 8a 01 80 a3 72 00 00
       2.2638e-41 -1.25095e-40 -1.41355e-40 4.1124e-41
000200 6b 5d 01 00 50 18 02 00 e6 80 00 80 cd c4 00 00
       1.25348e-40 1.92393e-40 -4.624e-41 7.0599e-41
000210 ee d2 00 80 88 a8 00 00 62 33 00 00 b8 7e 00 80
       -7.5667e-41 6.0458e-41 1.8433e-41 -4.5458e-41
000220 e6 0b 01 80 fe 1f 00 00 21 6b 00 00 4e 57 01 80
       -9.6104e-41 1.1477e-41 3.843e-41 -1.23155e-40
000230 0e d8 00 80 bd e1 00 80 96 75 00 80 fa 03 00 00
       -7.7506e-41 -8.098e-41 -4.2182e-41 1.427e-42
000240 0a d7 00 80 91 67 00 00 e9 23 01 80 2c 08 00 80
       -7.7141e-41 3.7153e-41 -1.04718e-40 -2.932e-42
000250 9a 82 00 00 cc 67 01 00 ae bf 01 80 28 c8 00 80
       4.6851e-41 1.29071e-40 -1.60597e-40 -7.1803e-41
000260 7c 12 01 80 df 2e 00 00 29 8f 00 00 d3 19 00 00
       -9.8466e-41 1.6814e-41 5.1356e-41 9.264e-42
000270 2c 0a 01 00 3e 58 01 80 c7 63 01 80 51 0a 00 80
       9.5484e-41 -1.23491e-40 -1.27629e-40 -3.701e-42
000280 90 f8 00 80 35 69 00 00 7b bf 00 00 02 d4 00 00
       -8.9167e-41 3.7741e-41 6.869e-41 7.6054e-41
000290 70 9e 00 80 9e 04 00 00 83 63 01 00 f2 4d 00 00
       -5.6837e-41 1.656e-42 1.27534e-40 2.7962e-41
0002a0 40 01 01 00 ac 56 00 00 8a 9e 01 00 e8 22 01 00
       9.2284e-41 3.1092e-41 1.48709e-40 1.04357e-40
0002b0 b4 50 01 80 5f 6c 01 00 0e ac 00 00 0e 84 01 00
       -1.20786e-40 1.30712e-40 6.1722e-41 1.39208e-40
0002c0 ef f6 00 80 87 1d 00 00 2f 64 01 80 c0 c1 00 00
       -8.8583e-41 1.0592e-41 -1.27775e-40 6.9504e-41
0002d0 8b 7e 00 80 31 63 00 00 12 03 00 80 da 9c 00 00
       -4.5395e-41 3.5583e-41 -1.101e-42 5.6268e-41
0002e0 0b 78 01 80 22 8c 00 00 dc 61 01 80 27 c7 01 00
       -1.34899e-40 5.027e-41 -1.26941e-40 1.63278e-40
0002f0 c1 65 00 80 ab 10 01 00 98 d9 00 00 26 5f 01 00
       -3.6502e-41 9.7815e-41 7.8058e-41 1.25968e-40
000300 5b 88 01 80 23 0a 01 80 72 2d 01 00 fc f6 00 80
       -1.4075e-40 -9.5472e-41 1.08138e-40 -8.8601e-41
000310 dc 09 01 00 ad eb 00 00 e4 c7 01 80 81 fa 01 80
       9.5372e-41 8.4545e-41 -1.63543e-40 -1.817e-40
000320 a9 1a 01 80 3d 19 01 80 19 55 01 00 1d 1f 01 80
       -1.014e-40 -1.00889e-40 1.22363e-40 -1.02997e-40
000330 6b ce 00 00 41 46 00 00 e4 af 01 00 fd 13 02 80
       7.4049e-41 2.5202e-41 1.54933e-40 -1.90841e-40
000340 f4 43 01 80 ba 1d 01 80 d8 67 01 00 89 59 01 00
       -1.16212e-40 -1.025e-40 1.29088e-40 1.23955e-40
000350 07 a3 01 80 f4 d9 00 00 1b 05 01 80 82 9e 01 80
       -1.50319e-40 7.8187e-41 -9.3667e-41 -1.48697e-40
000360 f4 80 01 80 41 00 01 80 f1 ff 01 00 1d 45 00 80
       -1.38095e-40 -9.1927e-41 1.8365e-40 -2.4793e-41
000370 72 c4 00 80 8c 56 01 00 06 a3 01 00 8f 94 00 80
       -7.0471e-41 1.22883e-40 1.50317e-40 -5.3293e-41
000380 6e b0 01 00 48 5b 00 80 dc 30 01 80 85 e8 01 00
       1.55127e-40 -3.2746e-41 -1.09363e-40 1.75248e-40
000390 12 31 01 80 ba 80 01 80 e5 74 01 00 03 ef 00 80
       -1.09439e-40 -1.38014e-40 1.3377e-40 -8.5741e-41
0003a0 44 ff 00 00 fe 7d 00 80 1f 0d 01 00 3b ca 00 00
       9.1572e-41 -4.5197e-41 9.6542e-41 7.2547e-41
0003b0 1f f3 00 80 37 96 01 80 b2 f4 00 80 02 87 01 00
       -8.7215e-41 -1.45722e-40 -8.778e-41 1.40267e-40
0003c0 6c 24 00 00 06 42 01 80 ff 1c 00 00 12 b6 00 00
       1.3066e-41 -1.1552e-40 1.0402e-41 6.5315e-41
0003d0 03 2d 01 80 f5 f9 01 00 b8 c1 01 00 0e 47 00 00
       -1.07983e-40 1.81503e-40 1.61329e-40 2.549e-41
0003e0 19 56 00 80 cf 74 00 80 9e 01 01 00 af e8 00 00
       -3.0886e-41 -4.1903e-41 9.2416e-41 8.3471e-41
0003f0 8b 45 01 80 74 34 01 80 07 97 01 80 e1 b5 00 00
       -1.16783e-40 -1.10652e-40 -1.46014e-40 6.5246e-41

e_conv3.point_conv.bias f4 [32]
000000 1e 0e 01 00 93 6a 01 80 8e e6 00 00 58 b3 00 00
       9.69e-41 -1.30067e-40 8.2707e-41 6.4336e-41
000010 ac a5 00 00 78 67 00 00 aa 0f 01 80 f5 4b 00 00
       5.9432e-41 3.7118e-41 -9.7455e-41 2.7248e-41
000020 cb d1 00 80 05 63 01 00 c8 cc 00 00 63 59 01 80
       -7.526e-41 1.27357e-40 7.3462e-41 -1.23901e-40
000030 27 81 00 80 96 1c 00 00 65 df 00 80 42 ad 01 00
       -4.6331e-41 1.0255e-41 -8.0139e-41 1.53989e-40
000040 d6 9e 01 80 ee 10 00 80 b3 07 02 00 50 9b 00 00
       -1.48815e-40 -6.073e-42 1.86433e-40 5.5716e-41
000050 92 b2 00 80 92 41 00 00 5e c9 00 00 c4 bf 00 00
       -6.4059e-41 2.3522e-41 7.2237e-41 6.8793e-41
000060 cb b3 00 80 fc 2b 01 00 84 44 00 00 04 ac 01 00
       -6.4498e-41 1.07614e-40 2.4579e-41 1.53543e-40
000070 58 e4 00 80 e9 bf 01 80 fc ea 01 80 b6 7f 01 00
       -8.1914e-41 -1.6068e-40 -1.76132e-40 1.3765e-40

e_conv4.depth_conv.weight f4 [32, 1, 3, 3]
000000 90 19 01 00 e7 4d 01 80 7f c6 00 00 33 2e 00 80
       1.01006e-40 -1.19782e-40 7.1207e-41 -1.6573e-41
000010 5e 25 02 80 a0 b8 01 00 2d 17 00 00 ea 3a 01 00
       -1.97076e-40 1.58066e-40 8.314e-42 1.1297e-40
000020 d0 29 01 00 fd d8 00 00 cf 56 01 80 c0 91 00 80
       1.06835e-40 7.7841e-41 -1.22977e-40 -5.2285e-41
000030 5f 27 01 80 76 94 01 80 d0 0b 00 00 e0 1c 01 00
       -1.05959e-40 -1.45093e-40 4.238e-42 1.02194e-40
000040 c9 3a 01 80 19 35 01 80 91 a5 00 00 e0 40 01 80
       -1.12924e-40 -1.10883e-40 5.9394e-41 -1.15108e-40
000050 73 21 02 80 fe b6 00 80 b6 5c 00 00 8b 2e 00 00
       -1.9567e-40 -6.5645e-41 3.3258e-41 1.6696e-41
000060 89 d9 00 00 a7 3b 01 00 0e 30 01 80 80 68 01 00
       7.8037e-41 1.13235e-40 -1.09074e-40 1.29323e-40
000070 65 c7 00 00 ae 93 01 80 eb 38 00 00 7b c9 01 80
       7.1529e-41 -1.44813e-40 2.0418e-41 -1.64113e-40
000080 e7 74 00 00 76 25 00 80 8c 99 00 00 8c 71 01 00
       4.1937e-41 -1.3438e-41 5.5082e-41 1.32568e-40
000090 73 0d 02 80 a1 51 01 00 43 a9 01 00 12 58 00 00
       -1.88496e-40 1.21118e-40 1.52555e-40 3.1594e-41
0000a0 c0 dd 01 00 e1 df 00 80 fd 90 00 80 d2 40 01 00
       1.71384e-40 -8.0313e-41 -5.2012e-41 1.15089e-40
0000b0 ae eb 01 80 32 61 01 00 5c dc 00 00 6a 4b 00 80
       -1.76381e-40 1.26703e-40 7.905e-41 -2.7053e-41
0000c0 00 67 01 00 71 c1 00 80 cc 72 00 00 73 02 00 00
       1.28785e-40 -6.9394e-41 4.1181e-41 8.79e-43
0000d0 a0 70 01 00 55 27 00 80 2d 9f 01 80 d0 ac 00 00
       1.32238e-40 -1.411e-41 -1.48937e-40 6.1993e-41
0000e0 fd 9f 00 00 b6 2f 01 80 12 55 01 80 fe 3c 01 00
       5.7393e-41 -1.08951e-40 -1.22353e-40 1.13715e-40
0000f0 bd c0 01 00 ed f4 00 80 50 69 01 80 45 5a 00 80
       1.60977e-40 -8.7863e-41 -1.29615e-40 -3.2383e-41
000100 89 2f 01 00 f2 d6 00 80 62 c0 00 80 55 18 00 00
       1.08888e-40 -7.7108e-41 -6.9014e-41 8.729e-42
000110 b9 ac 00 00 27 9d 01 80 49 03 00 00 59 6e 01 00
       6.1961e-41 -1.48211e-40 1.178e-42 1.31421e-40
000120 90 e9 00 80 1b 15 01 00 0a 52 00 00 54 86 01 00
       -8.3786e-41 9.9407e-41 2.943e-41 1.40023e-40
000130 ff 46 01 80 bf 32 00 00 28 91 01 80 cb d4 00 00
       -1.17304e-40 1.8204e-41 -1.43908e-40 7.6336e-41
000140 57 6e 01 00 44 56 00 00 0c 6f 01 00 43 48 00 00
       1.31418e-40 3.0946e-41 1.31672e-40 2.5923e-41
000150 f5 8f 01 00 e2 34 00 80 d9 40 00 80 98 aa 00 80
       1.43478e-40 -1.8971e-41 -2.3263e-41 -6.1198e-41
000160 c4 0c 00 80 50 9f 00 00 f1 3e 00 00 f9 9b 00 00
       -4.58e-42 5.715e-41 2.2579e-41 5.5952e-41
000170 78 80 01 80 ea cf 00 80 fe 30 02 00 14 62 01 00
       -1.37921e-40 -7.4586e-41 2.01246e-40 1.27019e-40
000180 2a 04 00 00 b0 da 01 00 25 1e 00 00 da fc 00 00
       1.494e-42 1.70286e-40 1.0814e-41 9.0706e-41
000190 0b f7 00 00 fe 27 00 00 25 3d 01 80 a6 9d 00 00
       8.8622e-41 1.4346e-41 -1.1377e-40 5.6554e-41
0001a0 18 d3 00 80 4a 90 00 00 79 10 01 00 7a fe 00 80
       -7.5726e-41 5.1761e-41 9.7745e-41 -9.1289e-41
0001b0 80 4b 01 80 6b 35 00 80 b8 2b 00 00 9a 06 00 00
       -1.1892e-40 -1.9163e-41 1.5683e-41 2.368e-42
0001c0 5a 01 01 80 7c 91 00 00 1c 37 00 00 21 41 01 80
       -9.232e-41 5.219e-41 1.977e-41 -1.152e-40
0001d0 9c 31 00 80 29 5e 00 80 f5 0c 01 00 f9 08 01 00
       -1.7796e-41 -3.3778e-41 9.6484e-41 9.5054e-41
0001e0 eb 11 00 00 54 6b 01 00 74 bd 01 80 87 4a 00 80
       6.428e-42 1.30338e-40 -1.59798e-40 -2.6735e-41
0001f0 c4 6c 01 00 64 3f 00 00 04 31 01 80 05 fe 00 80
       1.30853e-40 2.274e-41 -1.09419e-40 -9.1125e-41
000200 84 fa 00 00 a7 cb 00 00 88 a0 01 00 a1 fd 00 00
       8.9868e-41 7.3057e-41 1.49423e-40 9.0985e-41
000210 7d 07 00 00 c3 0a 00 80 8c 9e 00 00 78 be 00 00
       2.686e-42 -3.86e-42 5.6876e-41 6.8327e-41
000220 d3 90 01 00 5a 47 00 80 48 07 01 00 b5 ba 01 80
       1.43789e-40 -2.5596e-41 9.4448e-41 -1.58813e-40
000230 6b 4d 01 80 d3 e5 01 80 27 5f 00 80 78 56 01 00
       -1.19608e-40 -1.74281e-40 -3.4134e-41 1.22855e-40
000240 b5 2f 01 00 fc 23 00 00 a3 70 01 00 c9 24 00 00
       1.0895e-40 1.2909e-41 1.32242e-40 1.3196e-41
000250 0a c8 01 80 86 99 00 80 c2 04 00 80 86 8c 00 00
       -1.63596e-40 -5.5074e-41 -1.707e-42 5.041e-41
000260 ae 70 01 80 4a 90 01 00 72 0a 01 00 c4 57 01 00
       -1.32257e-40 1.43597e-40 9.5583e-41 1.2332e-40
000270 a4 c6 00 80 ed 00 00 00 97 38 01 00 63 f4 00 80
       -7.1259e-41 3.32e-43 1.12136e-40 -8.767e-41
000280 55 b7 00 80 ed ff 00 80 4e ce 01 80 35 5b 01 80
       -6.5767e-41 -9.1809e-41 -1.65844e-40 -1.24554e-40
000290 ad ed 00 00 fc 03 01 00 39 3a 00 00 86 2e 01 80
       8.5262e-41 9.3265e-41 2.0886e-41 -1.08525e-40
0002a0 d7 f1 00 80 53 26 02 80 84 35 02 00 c0 6f 01 80
       -8.6756e-41 -1.97419e-40 2.02869e-40 -1.31924e-40
0002b0 84 ab 00 80 00 bd 00 80 26 db 00 00 2b 1f 01 00
       -6.1528e-41 -6.78e-41 7.8616e-41 1.03016e-40
0002c0 d8 0c 00 00 4a 20 00 80 8d 7c 01 00 97 50 00 80
       4.607e-42 -1.1583e-41 1.36516e-40 -2.891e-41
0002d0 76 66 00 00 6f 1d 02 80 59 23 01 00 d4 61 00 00
       3.6756e-41 -1.9423e-40 1.04516e-40 3.5094e-41
0002e0 26 2f 01 80 8e d6 01 80 51 91 00 80 ed 4a 01 80
       -1.08749e-40 -1.68803e-40 -5.213e-41 -1.18714e-40
0002f0 18 e0 01 00 d1 63 00 00 e9 37 01 00 1a b6 00 00
       1.72225e-40 3.5807e-41 1.11892e-40 6.5326e-41
000300 4a 54 00 80 61 58 00 00 ce 51 00 00 a2 a7 01 80
       -3.0237e-41 3.1704e-41 2.9346e-41 -1.51971e-40
000310 39 96 00 00 a0 33 01 80 e0 95 01 00 7f 21 00 00
       5.389e-41 -1.10355e-40 1.456e-40 1.2016e-41
000320 89 01 01 80 b4 9a 01 00 05 6e 00 80 58 14 01 80
       -9.2386e-41 1.47333e-40 -3.9468e-41 -9.9133e-41
000330 df ff 00 80 8b 69 00 00 ce 72 00 80 16 6b 00 00
       -9.1789e-41 3.7862e-41 -4.1184e-41 3.8415e-41
000340 6b ce 00 00 63 87 00 80 f0 a7 00 00 0e 37 01 80
       7.4049e-41 -4.8568e-41 6.0245e-41 -1.11585e-40
000350 82 10 02 00 d8 e8 00 00 d2 78 01 80 81 05 00 00
       1.89593e-40 8.3529e-41 -1.35178e-40 1.974e-42
000360 3c 6f 00 00 6d 24 00 80 34 bf 00 80 8a fe 01 80
       3.9903e-41 -1.3067e-41 -6.8591e-41 -1.83147e-40
000370 0e ec 00 80 36 72 00 00 cf 18 01 00 bd 04 01 00
       -8.468e-41 4.0971e-41 1.00735e-40 9.3535e-41
000380 14 de 00 00 a0 18 00 80 1b 1e 01 80 0a 35 01 00
       7.9667e-41 -8.834e-42 -1.02635e-40 1.10862e-40
000390 79 e6 00 00 d4 42 00 80 07 5d 00 80 0a 6f 01 80
       8.2678e-41 -2.3973e-41 -3.3372e-41 -1.31669e-40
0003a0 b8 ec 01 80 68 9b 00 80 29 45 00 80 88 b9 00 80
       -1.76754e-40 -5.5749e-41 -2.481e-41 -6.6556e-41
0003b0 bb 13 00 00 fd 89 00 00 0b db 00 80 1b d0 00 80
       7.078e-42 4.9501e-41 -7.8578e-41 -7.4654e-41
0003c0 fa 5a 00 80 5b 90 00 80 35 67 00 80 18 23 01 00
       -3.2636e-41 -5.1785e-41 -3.7024e-41 1.04425e-40
0003d0 15 f8 00 00 37 48 00 00 16 5e 01 00 3a 22 00 00
       8.8995e-41 2.5906e-41 1.25587e-40 1.2278e-41
0003e0 a5 9d 01 80 a8 c2 00 80 e6 f8 01 00 71 d2 00 00
       -1.48388e-40 -6.983e-41 1.81123e-40 7.5492e-41
0003f0 2e 17 00 80 62 78 01 00 ca 01 02 00 54 62 01 80
       -8.315e-42 1.35021e-40 1.84313e-40 -1.27109e-40

e_conv4.depth_conv.bias f4 [32]
000000 51 a1 00 00 dd 4c 01 00 b8 21 01 00 0f 0e 01 80
       5.787e-41 1.19409e-40 1.03932e-40 -9.6879e-41
000010 19 c4 00 80 64 9e 00 00 97 19 01 80 c9 a1 00 00
       -7.0347e-41 5.682e-41 -1.01015e-40 5.8038e-41
000020 d6 27 01 80 59 61 00 80 a5 44 01 80 4a ea 00 00
       -1.06126e-40 -3.4922e-41 -1.1646e-40 8.4047e-41
000030 01 0a 01 80 84 63 00 80 5c 25 01 00 6d e5 01 00
       -9.5424e-41 -3.57e-41 1.05238e-40 1.74138e-40
000040 33 e9 00 80 81 25 01 00 24 51 00 00 57 93 01 80
       -8.3656e-41 1.0529e-40 2.9108e-41 -1.44691e-40
000050 f5 ff 00 80 c5 cc 00 00 e0 f3 00 00 bc 0b 02 80
       -9.182e-41 7.3457e-41 8.7486e-41 -1.8788e-40
000060 fb 41 00 80 1a 1e 01 80 89 80 01 00 5c 59 00 80
       -2.367e-41 -1.02634e-40 1.37945e-40 -3.2056e-41
000070 99 f9 00 80 71 88 00 80 18 13 00 80 d9 72 00 80
       -8.9539e-41 -4.8946e-41 -6.85e-42 -4.12e-41
