Zero-DCE++/snapshots_Zero_DCE++/Epoch79.pth (torch, 51217 bytes, 28 tensors)

e_conv1.depth_conv.weight f4 [3, 1, 3, 3]
00000000: b675 b4be e25a 39be 5d95 2dbb d148 2abe
00000010: d2a0 cd3d cea6 c93d 94de d5be 3c17 35be
00000020: 8d13 48bd 484b 4f3e b1a6 303e 0009 b23e
00000030: f6ad 393e 4ce2 f63c 12d9 6a3e 898c ac3d
00000040: 1e5a 133d c2ee 643e f47b 493d 3b86 19bd
00000050: 354f 08be 8f25 13bd 020d 84bd 977a ecbd
00000060: 8093 debd df51 31be 6503 acbe
-0.35246056 -0.18101075 -0.0026486733 -0.1662934 0.1004044 0.098462686 -0.41771376 -0.17684644
-0.04884677 0.20243561 0.17251088 0.3477249 0.18132767 0.030137204 0.22934368 0.084252425
0.035974614 0.22356704 0.049190477 -0.037481528 -0.13311465 -0.03592449 -0.064477935 -0.1154682
-0.10867977 -0.17316388 -0.3359634

e_conv1.depth_conv.bias f4 [3]
00000000: fbdd 993d 0a1a 9c3e 9180 5bbd
0.075130425 0.30488616 -0.053589407

e_conv1.point_conv.weight f4 [32, 3, 1, 1]
00000000: 0bda 533c 93a1 1a3e 6897 643d d223 1c35
00000010: 65ca ddb7 6f03 02b5 98be f1b0 fff0 9cb5
00000020: aa0e 572f 45de c23d e02b 01bf 3b4e 243e
00000030: d473 99a3 0396 1ea5 e41f 1225 0759 af3c
00000040: 6481 aa3d 3ed3 c43e efd6 003e 66b5 9c3e
00000050: dd2b 17be 9a8b 6833 adc0 9eb7 2745 1533
00000060: 6852 653d 6405 efbb ed12 cf3d 9566 4a3d
00000070: 26a9 77bc 868b c9bd f19c cb3e 2afb 0dbf
00000080: 274f a13e 4d71 02bc 5622 18bd 9efe 483d
00000090: f5ec 473e 4684 c2be 4f4c 2dbe f25e 82bd
000000a0: f331 1cbe 479f 053e d1c4 0000 2084 0000
000000b0: e29f 0080 f989 8a3c 05ec 993e a2de 773e
000000c0: 3b1a 81be ef95 b63e 50bc 85be a5da 8fa4
000000d0: 3215 1daf abe7 4ca4 5677 4bbb b360 3c3a
000000e0: 1c77 c6ba 6f88 e932 a6b1 23b5 fb5f dc31
000000f0: c037 0dbf 5ad7 56bd 2719 aabe b323 dbb8
00000100: 0ea5 3db9 1261 72b9 0719 28bc aea8 e23b
00000110: c95a 443c 238e 102b 1be3 e6b3 af1c c22a
00000120: 08bd 1e3a a0f5 88ba e12c 5939 532b 6a2c
00000130: ac2b 8829 9e5d 0dab a964 0821 b5f7 a2a1
00000140: cd36 a620 c31d 8e3e a543 04be 2f20 85be
00000150: 24ac 2b3d 4b15 f3bb 4841 2ebb 0f74 6e0c
00000160: bc4b 148c 7d93 760c 8c0f 753e 97d6 373c
00000170: b8ae 89bd ff9b 68be 1018 e43e e0a1 92be
0.012930403 0.15100698 0.055808455 5.8166654e-07 -2.64395e-05 -4.843377e-07 -1.7589228e-09 -1.1693045e-06
1.9559346e-10 0.09515051 -0.5045757 0.16045468 -1.6637348e-17 -1.3755141e-16 1.2674286e-16 0.021404756
0.083254606 0.38442415 0.1258199 0.30607146 -0.14762826 5.4143676e-08 -1.892479e-05 3.475466e-08
0.05598679 -0.007294344 0.10111032 0.049414236 -0.015116012 -0.09841065 0.39768174 -0.5546137
0.315057 -0.007961583 -0.03714212 0.049070947 0.19523986 -0.37991542 -0.1692364 -0.06365766
-0.15253429 0.1304904 7.0604e-41 4.7398e-41 -5.7355e-41 0.016911494 0.3006288 0.24206021
-0.25215325 0.35661265 -0.26120234 -6.238676e-17 -1.4286597e-10 -4.443168e-17 -0.0031046472 0.000718604
-0.0015141699 2.7186813e-08 -6.0980744e-07 6.4137544e-09 -0.5516319 -0.05245147 -0.33222315 -0.00010449383
-0.00018085932 -0.0002311508 -0.010259873 0.006917081 0.0119845355 5.135633e-13 -1.075152e-07 3.4481226e-13
0.00060553895 -0.0010449179 0.00020711451 3.327745e-12 6.047189e-14 -5.0223183e-13 4.6211815e-19 -1.1043115e-18
2.8157758e-19 0.2775708 -0.1291643 -0.26001117 0.041912213 -0.00741831 -0.0026589204 1.8369778e-31
-1.1424296e-31 1.8995534e-31 0.23931712 0.011220596 -0.06722778 -0.22715758 0.44549608 -0.28639126

e_conv1.point_conv.bias f4 [32]
00000000: ffa4 e5bd 1570 3fb6 e691 11b7 33be 113f
00000010: 1a33 7ca5 8e0c a63d cb9f 813e 98fe 98b7
00000020: 05a0 803d 0674 93bc 25f8 cf3e 87e2 ea3e
00000030: 52de b83e ece8 9b3e a729 0180 06cd f03e
00000040: 15d0 83bc 9059 74af a782 49bb 3e9d 95b4
00000050: 4c62 d13e 3446 edb8 efbb 9e3e 3646 15b4
00000060: 1f2a e3ba 0d04 81ac 56df 89a1 c640 993e
00000070: 80c0 d53c 8fd4 348c 64a9 073f 14f1 9abd
-0.11213111 -2.8526458e-06 -8.676643e-06 0.56930846 -2.187483e-16 0.08107863 0.25317225 -1.8238366e-05
0.06280521 -0.01799966 0.40619007 0.45875952 0.36107117 0.30451143 -1.06778e-40 0.4703142
-0.016090432 -2.222349e-10 -0.003074804 -2.7867821e-07 0.40895307 -0.00011314117 0.31002757 -1.3902249e-07
-0.0017331279 -3.6668502e-12 -9.342598e-19 0.2993223 0.026092768 -1.393066e-31 0.52992845 -0.07565513

e_conv2.depth_conv.weight f4 [32, 1, 3, 3]
00000000: aaa2 b2bb fd7a d9bb 0278 9dbb 6dba 93bc
00000010: d341 babc 7df6 5fbc 5c69 d5bc 83ef e4bc
00000020: 24a1 81bc b1d4 e891 6645 3a92 e009 8610
00000030: cd25 b611 f1b0 5d12 c570 c58f f3cc 9692
00000040: 634b 1290 845f f591 b1c4 0180 91d8 0080
00000050: 4dd4 0000 6a5a 0180 fb19 0100 38cf 0080
00000060: 8783 0100 f209 0000 7a26 0180 b891 8bbe
00000070: c483 72be f3d2 39bd 566e eabd fcac a53d
00000080: 4de9 603e cba9 863e e6e3 bc3b 0c06 f23e
00000090: 6721 99a2 22a5 42a2 bb60 a4a2 8cbe 2fa2
000000a0: 62d7 41a2 f64c 4ca2 b2c9 bea2 ffd7 6aa2
000000b0: 3409 6aa2 8a53 1b3d 6142 883d a2f0 d43c
000000c0: 5b9a 353d ae0d d23d 4f1f 153d 9753 69bd
000000d0: 5d14 6bbc 6ebe 2cbe a298 883d fd10 0cbd
000000e0: e62c 89be a90b 5d3d 6bc4 063e 510f b9bd
000000f0: 5905 d1bc 9faa 1dbc 36ab 96be 78e0 93a4
00000100: 5f39 4f24 7c56 0b23 32f2 9ea4 fcfa 1b24
00000110: 8323 2724 a5b2 83a4 b60a 7c24 eef5 ada0
00000120: 9ade 713c 10de 623b 23e7 f239 f785 e53b
00000130: c23c fc39 7536 343b 35ae ed3b 2fe8 4f3c
00000140: 1b0d eb3c 9511 033c 4924 1d3b 6766 5cbb
00000150: 319e 0b3c 8b5a 1039 82ad bcbb 8603 863b
00000160: 8b48 85bb 74fa 97bb 5aaf 9d3e 0e2b 653e
00000170: 61c5 7c3e a7fb 693e 9c00 58bd 92d5 8c3e
00000180: f86c 953e 5cdf cd3d abf5 ee3d b5fa 763e
00000190: 9559 11be f812 3a3e 7bea 9a3d 8f9a 48be
000001a0: 644e c7bd eaee 833e 7392 883d da85 3a3e
000001b0: ea72 c83e a277 013e b413 5f3e 1093 8d3e
000001c0: 4297 313e 6e2e c53d f539 813e 8c08 f63d
000001d0: 8c2e 92bd 3460 c23c f9c0 553d cc4e b83d
000001e0: 16f8 c23d 3e4c c5bd 02a2 373e c92c 65bd
000001f0: 7927 853d 3388 c13e 481c 0000 138b 0000
00000200: 64b3 0000 6938 0080 d801 0100 6644 0100
00000210: d0ba 0080 7d97 0000 e834 0000 cb43 57bd
00000220: b1ac 163e ea9c 06be c82f f43d 0fe3 493e
00000230: a5f1 2d3e fb5e 15be ba35 8dbd d556 bebd
00000240: 8d71 cd3d 9007 5e3e 1274 b23e 9851 d33d
00000250: 3b1a 0a3d fa34 f13d 6f50 12be e32f a7bd
00000260: a3cc 5abe 4baf 0180 1e88 0180 045f 0000
00000270: d84f 0100 d9a5 0080 4bea 0080 a28e 0100
00000280: d18b 0180 5ce0 0000 bcdb a831 8ab4 b82f
00000290: 8a48 f230 240c 1931 e472 a1b1 0e8a 90b1
000002a0: 3ec1 0b32 8497 f32f c626 d82e db59 6b2e
000002b0: c39e 1e2e 9020 31ad 133f 622e e0d6 062e
000002c0: c87c 8ead f996 442e 955e 642d dd37 f4ad
000002d0: 80db a3bd 63c8 5e3e 09b7 49be 635d a1be
000002e0: d9a7 2fbc 641d 403d 8463 b2be f43f 6cbe
000002f0: 7a45 84be 1593 dd37 978f 1638 e071 4e38
00000300: 8d0a fbb5 5a77 6b37 f662 1938 776f 1438
00000310: 3dd5 3338 3298 4d38 f8e7 91bd 3f8e a5bd
00000320: c5f9 0a3d d801 b5bd 290c 90bd 736f c3ba
00000330: 0aba 83bd 780c 98bd cdf6 b0bc f303 0080
00000340: d51c 0180 e245 0100 9d44 0180 2c14 0000
00000350: 8018 0180 c318 0180 b213 0100 1952 0100
00000360: bb08 b7b7 0abd d1b7 bb23 afb7 830a 9fb7
00000370: 5f80 c4b7 bc2f a5b7 ea86 6db7 d9ad 89b7
00000380: 8395 6eb7 63b7 c1a9 ae8d 82a9 dc32 3ca9
00000390: 90c2 aaa9 ab37 58a9 316f 54a9 c3c0 a6a9
000003a0: b749 83a9 5f51 37a9 f60e 0e9f 2730 db9e
000003b0: 6ba8 6f9e cea6 bc9e 3fab 009f 44b4 fd9e
000003c0: 71a8 079e 1a8c e19e fcfb de9e d19d a53e
000003d0: 0d3c 8bbb 04a1 623d 08e7 b0bb 1f8f a13c
000003e0: d398 573d ce35 903c 705f 3ebc fc71 43bd
000003f0: 793c 303a 43d1 893a 701b 9eb9 8d67 e53a
-0.00545152 -0.006636976 -0.004805566 -0.01803323 -0.022736466 -0.013669607 -0.026051216 -0.02794624
-0.015823908 -3.6734227e-28 -5.877679e-28 5.2868895e-29 2.8737833e-28 6.99534e-28 -1.9469137e-29 -9.516855e-28
-2.88515e-29 -3.871305e-28 -1.62395e-40 -7.769e-41 7.6159e-41 -1.2427e-40 1.01156e-40 -7.4336e-41
1.39019e-40 3.568e-42 -1.05638e-40 -0.27259612 -0.23683077 -0.045367192 -0.11446826 0.08089635
0.21963997 0.26301417 0.0057644723 0.47270238 -4.15061e-18 -2.6379323e-18 -4.4554706e-18 -2.3817797e-18
-2.62704e-18 -2.7687898e-18 -5.1713156e-18 -3.182726e-18 -3.1717786e-18 0.037921466 0.06653286 0.025993649
0.044336658 0.102565154 0.03640681 -0.056964483 -0.014348117 -0.16869518 0.066697374 -0.03419589
-0.26792067 0.053966198 0.13160865 -0.090361245 -0.025515245 -0.009623199 -0.294275 -6.413135e-17
4.4934565e-17 7.553519e-18 -6.893187e-17 3.382286e-17 3.6242432e-17 -5.711483e-17 5.4652862e-17 -2.9470083e-19
0.014762545 0.0034617223 0.00046330047 0.0070044952 0.00048110454 0.002749828 0.007253433 0.012689634
0.028692773 0.007999797 0.0023977926 -0.0033630372 0.0085216025 0.0001376664 -0.0057579884 0.0040897755
-0.0040674857 -0.0046380106 0.30797845 0.22379705 0.24684669 0.22849904 -0.052734956 0.2750669
0.291847 0.10052368 0.11667951 0.24119075 -0.14194329 0.18171299 0.07564255 -0.1959021
-0.09731749 0.25768214 0.06668558 0.18215123 0.39150172 0.12643293 0.2178486 0.27651262
0.17342857 0.096279964 0.2523953 0.12013349 -0.07137784 0.023727514 0.052185986 0.08999404
0.09519975 -0.09633683 0.17932895 -0.055950914 0.065016694 0.37799224 1.0145e-41 4.989e-41
6.4353e-41 -2.0236e-41 9.2497e-41 1.16372e-40 -6.7016e-41 5.4344e-41 1.8979e-41 -0.052554887
0.14714314 -0.13145795 0.11923176 0.19715522 0.16986711 -0.14587013 -0.06895013 -0.09293906
0.10031424 0.21682572 0.3485418 0.10318297 0.03371642 0.117776826 -0.14288495 -0.081634305
-0.21367125 -1.54719e-40 -1.40665e-40 3.4085e-41 1.20478e-40 -5.9495e-41 -8.4048e-41 1.43003e-40
-1.41992e-40 8.0485e-41 4.9144244e-09 3.3597686e-10 1.7628434e-09 2.2271331e-09 -4.6987783e-09 -4.2066466e-09
8.134803e-09 4.43091e-10 9.82943e-11 5.351262e-11 3.606605e-11 -1.00685155e-11 5.1442472e-11 3.065892e-11
-1.6198945e-11 4.469933e-11 1.2981301e-11 -2.7764397e-11 -0.08000851 0.21756129 -0.19698729 -0.3151656
-0.01072117 0.04690303 -0.3484155 -0.23071271 -0.25834256 2.6413743e-05 3.5896515e-05 4.922028e-05
-1.8704028e-06 1.403488e-05 3.6570207e-05 3.538976e-05 4.287552e-05 4.901755e-05 -0.07124323 -0.08083772
0.033929605 -0.08838242 -0.07033569 -0.0014910534 -0.064319685 -0.07424253 -0.021602059 -1.417e-42
-1.02178e-40 1.16905e-40 -1.1645e-40 7.236e-42 -1.00624e-40 -1.00718e-40 9.8901e-41 1.21287e-40
-2.1819365e-05 -2.500277e-05 -2.0878264e-05 -1.8959172e-05 -2.3424798e-05 -1.969176e-05 -1.4157713e-05 -1.6412627e-05
-1.4220716e-05 -8.602734e-14 -5.797737e-14 -4.17885e-14 -7.583268e-14 -4.800992e-14 -4.71699e-14 -7.40532e-14
-5.830356e-14 -4.070474e-14 -3.0082045e-20 -2.3207442e-20 -1.2687383e-20 -1.9974263e-20 -2.7246706e-20 -2.6861973e-20
-7.181673e-21 -2.3880746e-20 -2.3609383e-20 0.32346967 -0.004249102 0.055329338 -0.005398635 0.019721566
0.05263598 0.017603781 -0.011619434 -0.047716126 0.00067228783 0.0010514635 -0.0003015655 0.0017502174

e_conv2.depth_conv.bias f4 [32]
00000000: f56e bf3d 093d bdbd 7a87 8ab7 0b2d 61bd
00000010: e06a 19be 2bd7 413e e13d a83c 17e3 023e
00000020: 3db0 7e3e c1f8 73be b9e0 4f3c 445b bbbd
00000030: 8f36 62be 1069 54bd 10fe 053e 8b12 523e
00000040: 5e5f 233e d392 2abc 303b 85b3 e56f 223e
00000050: 2b5c 863e 6806 2d3e a986 d3bd 014a 2d3e
00000060: ebda 98bd 6752 e2bc 651f 893d 051a 51be
00000070: a206 56bd 2a01 24be 9163 a4bd 7b77 993e
0.09347335 -0.09240157 -1.6513968e-05 -0.054974597 -0.14982176 0.18929736 0.020537319 0.1278194
0.24871917 -0.23825361 0.012687855 -0.09148267 -0.22091125 -0.051858008 0.13085198 0.20514886
0.15954348 -0.010410982 -6.204061e-08 0.15862997 0.26242194 0.16896975 -0.10328419 0.16922761
-0.0746363 -0.027627183 0.06695441 -0.20420082 -0.05225242 -0.16016069 -0.08026803 0.2997397

e_conv2.point_conv.weight f4 [32, 32, 1, 1]
00000000: 712c 4cbc 8d0f b8bb 44f1 9038 9b69 9a3d
00000010: 79e0 7c3c 584c 93bd 4930 963c 2b5e cdbc
00000020: 767e 5cbd a207 573c 671e 703d 8103 063d
00000030: 7ff8 2b3e 52f8 013d 657b 51bc 9af0 01be
00000040: 27df 933c 3898 423b 52a7 b033 0b75 3cbd
00000050: e069 933e 1b9a 823c dbb9 513d 0fbc 5abd
00000060: 83f5 263b bc3e a03b e923 57bc e016 403d
00000070: 0529 833c a96d e03c 4aea 15be 86a7 8c3b
00000080: 9109 533d 3b16 83bd 7b91 0bb8 2ab1 3cbd
00000090: 5819 213c d990 373d 2d1f 933c 4bd8 af3c
000000a0: 9201 ac3d 62f1 abbd aca3 a23e d0da 643e
000000b0: 1ecf 863e f120 0b3e 7e03 3ebb 8630 d83d
000000c0: f1da 003e d245 f7ba f356 fb33 0f0b 13bb
000000d0: 5d7f 75bc 3408 383d f4cf 06bc ca9c c73d
000000e0: 0529 3dbc d132 95bb 73fb ffbb 47d5 573e
000000f0: 6cab 5dbd 6ec7 e5bc f2da 8ebe 90ed eb3d
00000100: 65bf 5b3c 0d90 8dbc 3d29 1e38 1ad5 ab3e
00000110: 36e0 5bbc 5bf9 523d 94b9 043d 85b0 723c
00000120: 764d 9abb c4b0 56bd 2cf2 00be 89ab d8bd
00000130: facd 8ebe fb30 b03c 3a64 143c 85b9 3e3d
00000140: 6b8d 453d 7929 91bb cb55 9b33 b578 f73c
00000150: 6620 04bc 6c73 cf3c f39e bebb 1a81 6a3d
00000160: 170b 8bbc bc0b 10bc 8e46 963c 0fdd 79be
00000170: a1c9 86bc 6161 26bd 5208 ba3d 9730 453c
00000180: ad35 0180 672f 0100 ded9 0080 a7f9 0080
00000190: ef74 0000 5066 0000 fb0d 0100 f15e 0080
000001a0: f147 0000 7683 0000 f371 0000 fd7b 0080
000001b0: 45f6 0000 20ef 0080 ed33 0100 0d04 0180
000001c0: 0b8c 0180 b2f5 0100 7aa1 0100 1af8 0080
000001d0: 00a3 0080 2403 0180 a415 0180 a6e6 0080
000001e0: 8f0e 0100 fe76 0000 bc0c 0180 9a9e 0100
000001f0: bd62 0100 9b59 0100 e1e4 0080 044a 0180
00000200: fb55 f43a 7a6f 853a 7058 9537 9ac2 cabc
00000210: 1f9a 4b3c fc08 a53d b95a 00be 7007 043c
00000220: 6e59 1abc 5964 01bd edab 61bd 7950 a4bc
00000230: 55f9 63bd eb40 31bd 09f7 7a3c 9615 113e
00000240: dcf2 bf3c 4b4a 14bb 65ae ff32 7809 023d
00000250: 07f2 ff3b debf 56ba 5a7d 28bc 232a 10bc
00000260: 2c71 40bc e84c 7bbb a35e 343c 5819 1ebc
00000270: ceaf 19bc 2b3b f2bc c75f e63c a7c7 a4bd
00000280: fbff 623c 4bbd 68bc 1c74 1c38 9a94 173c
00000290: 127b abbc 73ff ed3c 624e d83d 9313 8c3c
000002a0: 2694 f83c b033 eebc 28d8 783d 4033 3cbd
000002b0: 0067 043d 5391 3ebc 13a5 923c f88c 543d
000002c0: c23e a13b 7284 03bb 448d e833 8432 a13c
000002d0: 368e 8f3d c1d4 b83c 3cda d1bc 870c b53c
000002e0: 9a51 17bc bfad 80bb 36b8 133c fd71 32bc
000002f0: f782 08bc 5177 a7bc 5be4 8f3c 172c 173e
00000300: 0914 bb3b 6910 753c bfe0 58b7 b387 1f3e
00000310: b8b4 97bb 2523 47be fd85 133e 0e51 e1ba
00000320: 60dc b6bb 2163 9dbc 4d27 b03e 8a3d 103e
00000330: 2332 393e a449 513e 5219 b139 451b c7bd
00000340: a0ec 2d3e 5b9a 1c3b db01 cd34 0333 1a3c
00000350: 9745 31bd 2528 d73b 2989 ea3c 3937 263a
00000360: 54bb cb3b 0f62 733b cd4e 2abb 1858 f73d
00000370: 17a4 603b 1b9a 8a3c 3bc2 2dbe 3671 013e
00000380: bd49 cd91 4f10 c511 3dc3 340a a987 8791
00000390: 64d1 1612 c29a 3892 dae6 5e12 659b 0692
000003a0: f335 5b92 b499 5912 0f91 e591 0a2e 1992
000003b0: c7f2 2012 7198 e191 3b13 0892 f686 7192
000003c0: a285 9092 8224 4010 ca4b 0b87 b71f 2092
000003d0: b173 f612 2c76 2792 e1b2 4b12 929c 2392
000003e0: d91d a611 46f8 fc10 bc25 9591 0417 2912
000003f0: 8524 6711 daf8 2212 5961 8e12 8556 a112
-0.0124617675 -0.005617088 6.911394e-05 0.07539674 0.015434378 -0.07192296 0.018333571 -0.025069317
-0.05383154 0.013124378 0.058622744 0.032718185 0.16794012 0.031730957 -0.012785767 -0.12689438
0.018050743 0.002969278 8.226074e-08 -0.04601006 0.28791714 0.015942624 0.051202636 -0.053402003
0.0025475926 0.004890291 -0.01313112 0.046896815 0.01601077 0.02739604 -0.14640155 0.0042924313
0.051522795 -0.064007245 -3.327567e-05 -0.046067394 0.009832703 0.044815872 0.017959202 0.021465441
0.08398737 -0.083956495 0.31765497 0.22349095 0.26329893 0.13586785 -0.002899378 0.1055613
0.1258352 -0.0018865413 1.1703914e-07 -0.0022437011 -0.014983979 0.044929698 -0.008228291 0.09746702
-0.011545424 -0.004553177 -0.0078119575 0.21077453 -0.05411856 -0.028049197 -0.27901417 0.11519921
0.013412331 -0.017280603 3.770854e-05 0.3356102 -0.013420155 0.051507335 0.032403544 0.014812593
-0.004708941 -0.05241467 -0.12592381 -0.10579593 -0.27891523 0.02150773 0.009057099 0.046563644
0.04823057 -0.0044299928 7.2333556e-08 0.030208925 -0.008064365 0.025323592 -0.005817288 0.057252027
-0.016973061 -0.00879186 0.01834419 -0.24400733 -0.016453566 -0.04062021 0.09083618 0.0120355105
-1.11091e-40 1.0884e-40 -7.8156e-41 -8.9558e-41 4.1948e-41 3.6703e-41 9.6851e-41 -3.4059e-41
2.5808e-41 4.7159e-41 4.0877e-41 -4.4479e-41 8.8345e-41 -8.5782e-41 1.10463e-40 -9.3289e-41
-1.42073e-40 1.79974e-40 1.49762e-40 -8.9002e-41 -5.8473e-41 -9.2962e-41 -9.9599e-41 -8.2741e-41
9.7058e-41 4.2686e-41 -9.6404e-41 1.48731e-40 1.27256e-40 1.2398e-40 -8.2106e-41 -1.18387e-40
0.0018641347 0.0010180317 1.7803366e-05 -0.024750996 0.012426882 0.08058354 -0.12534608 0.008058414
-0.009420736 -0.03158984 -0.0550956 -0.020057904 -0.055657703 -0.0432748 0.015317687 0.1416839
0.023431234 -0.002262729 2.9765213e-08 0.03174731 0.0078108343 -0.00081920426 -0.010283792 -0.008799109
-0.011745732 -0.00383454 0.011008891 -0.009649597 -0.009380294 -0.02956923 0.028121842 -0.08045893
0.013854976 -0.014205287 3.7301434e-05 0.009251738 -0.020932708 0.029052472 0.10561825 0.017099177
0.03034408 -0.02907738 0.060753018 -0.045947313 0.03232479 -0.011631328 0.01790098 0.05189225
0.0049208114 -0.0020067957 1.0829038e-07 0.019677408 0.070095465 0.022562386 -0.025616758 0.0221007
-0.009235764 -0.003926962 0.009016087 -0.010891435 -0.008332006 -0.020442637 0.017564943 0.14762913
0.0057091755 0.014957526 -1.2926931e-05 0.15579109 -0.0046296977 -0.19447 0.14406581 -0.0017190294
-0.00558047 -0.019212307 0.34404984 0.14085975 0.18085532 0.20438248 0.00033778936 -0.09721998
0.16984797 0.0023895714 3.8185576e-07 0.009411576 -0.043279257 0.006566065 0.028629856 0.0006340626
0.0062173996 0.0037137305 -0.002598691 0.120773494 0.0034277493 0.016919186 -0.16968624 0.12640843
-3.2388742e-28 3.109117e-28 8.703405e-33 -2.1382851e-28 4.758975e-28 -5.8250916e-28 7.0335395e-28 -4.2474483e-28
-6.9170713e-28 6.866258e-28 -3.6219229e-28 -4.8335035e-28 5.0786344e-28 -3.559269e-28 -4.2937737e-28 -7.6212543e-28
-9.120621e-28 3.7893448e-29 -1.047947e-34 -5.052619e-28 1.5553303e-27 -5.2841567e-28 6.427599e-28 -5.162672e-28
2.6208577e-28 9.9779e-29 -2.353131e-28 5.3355366e-28 1.823394e-28 5.142492e-28 8.985458e-28 1.0181857e-27

e_conv2.point_conv.bias f4 [32]
00000000: c4b6 a23d fecf 903d 5c42 e43d 5843 0000
00000010: fc35 193e 5f6f b13d 1bd9 86bc 2998 c592
00000020: b50b 973d 4626 b93d c8a1 f83b 16b2 78bd
00000030: fa2b 9d3b d498 133e 5ec5 023e 2825 0000
00000040: dc7f d499 2ac1 693c f80e e03c 3cca 8138
00000050: a8c4 86bd b3ba 83bb 3601 453c 370c 0c3a
00000060: f16e 5e3d d8f2 57b6 29de 2a3d 667e c8bd
00000070: 8b97 0000 d30b 0000 672b 643d 72eb ac3d
0.07945016 0.07070921 0.111454695 2.4158e-41 0.14962 0.086638205 -0.016460946 -1.2469958e-27
0.0737528 0.09040503 0.007587645 -0.06071671 0.004796502 0.14413768 0.12770602 1.3329e-41
-2.1971928e-23 0.014267245 0.027350888 6.1888684e-05 -0.06580478 -0.004020059 0.0120242145 0.00053423963
0.05430502 -3.217885e-06 0.041715775 -0.097897336 5.4363e-41 4.242e-42 0.055705454 0.08443345

e_conv3.depth_conv.weight f4 [32, 1, 3, 3]
00000000: d10f 0280 3ae5 0100 5dbe 0000 9fd0 0080
00000010: 7e6c 0100 af92 0000 483b 0100 77bb 0000
00000020: d240 0100 dbd1 0080 1526 0000 7d31 0180
00000030: 4a6f 0180 2c05 0200 126e 0100 a08b 0000
00000040: 5df1 0080 3666 0000 5400 0180 683a 0180
00000050: 36bc 0080 c58a 0000 28df 0000 5924 0200
00000060: 05a9 0000 8878 0000 1710 0080 2494 0000
00000070: cd89 0000 ab04 0000 fb0e 0000 ba4a 0180
00000080: 0110 0180 8f0e 0080 b321 0100 9b37 0180
00000090: 8e4d 0180 de2b 0180 27f5 0000 a01b 0080
000000a0: 887c 0000 fb25 0180 483f 0180 0b4e 0000
000000b0: 5249 0100 f332 0100 d122 0180 9574 0000
000000c0: 6261 0100 dfe7 0100 9728 0180 a314 0080
000000d0: 937d 0000 58ae 0000 4be5 0080 88d0 0080
000000e0: ee24 0200 895a 0080 7374 0080 8017 0000
000000f0: 1c0a 0000 c39f 0180 ef13 0100 ba31 0080
00000100: bf7d 0080 d0e7 0000 1021 0080 aa12 0000
00000110: ed72 0080 e391 0000 bcb5 0000 2ea6 0080
00000120: 4f5c 0100 be03 0180 ca0a 0000 8d7f 0000
00000130: b0a7 0000 03df 0100 9196 0000 5e3a 0180
00000140: 9e3a 0180 33d9 0100 f3b8 0180 1511 0100
00000150: 6027 0000 5deb 0080 5daf 0180 c84d 0180
00000160: 7f7b 0080 53ce 0080 1f07 0200 de2d 0180
00000170: 8d85 0100 e89d 0080 5b97 0100 287d 0180
00000180: 4cac 0000 8431 0180 6415 0180 b8bf 0100
00000190: 620f 0100 325e 0080 1467 0100 3e30 0100
000001a0: 9992 0000 55b5 0180 8a19 0000 90d2 0080
000001b0: c209 0100 9562 0180 50a9 0080 7d5a 0000
000001c0: eb8a 0100 137f 0080 5002 0280 87c6 0000
000001d0: d35d 0080 ec15 0000 ac25 0100 4594 0080
000001e0: 9539 0000 f9c5 0080 9f38 0000 8a9a 0000
000001f0: cd0b 0000 1b58 0080 ddc8 0100 802a 0180
00000200: 449f 0000 522f 0100 ea27 0000 e564 0180
00000210: 32cb 0000 670e 0280 3119 0180 8348 0080
00000220: b159 0180 3be0 0080 b469 0000 6562 0000
00000230: 734a 0180 03eb 0000 f424 0000 cb3b 0000
00000240: 02dd 0080 e6a8 0080 aaa4 0080 7f19 0180
00000250: 137d 0080 8716 0080 8bcf 0080 882f 0180
00000260: c375 0000 c15a 0000 0d6e 0000 4121 0280
00000270: fee6 0000 e363 0080 e4ab 0000 22d7 0100
00000280: aa22 0180 542b 0100 3483 0100 8ae9 0000
00000290: 5fd0 0080 d4dc 0080 49cc 0100 1391 0080
000002a0: 6c51 0180 978a 0100 9fd1 0000 864b 0000
000002b0: 1191 0000 2277 0100 878a 0180 842b 0000
000002c0: 0db4 0100 f58e 0100 335b 0100 9496 0100
000002d0: 0c36 0000 c843 0100 0f6b 0100 ded7 0080
000002e0: 13fb 0000 4447 0080 fa48 0180 1237 0180
000002f0: bc0f 0080 f670 0000 2997 0080 27ae 0080
00000300: 6940 0000 441a 0180 160c 0000 9e0d 0080
00000310: 66d8 0080 f202 0180 900c 0180 fc65 0180
00000320: b9a3 0080 d96c 0080 931b 0180 1fa4 0100
00000330: 0f10 0100 6ab8 0180 1818 0000 2642 0000
00000340: 1b41 0180 d149 0000 52ae 0180 075e 0180
00000350: cdc1 0000 32a2 0180 6c13 0180 f138 0100
00000360: 6687 0180 261f 0080 1b8c 0100 b262 0000
00000370: a14a 0080 425b 0080 f613 0080 f9b9 0080
00000380: f185 0080 1e4d 0080 0f23 0100 6f47 0080
00000390: db19 0100 1531 0000 6fa4 0100 0c38 0000
000003a0: 2a1c 0080 399e 0100 ff79 0080 ed35 0080
000003b0: 1b27 0000 a35d 0000 b2f0 0080 3b2c 0180
000003c0: a36e 0000 e5b5 0080 e51a 0100 ca6b 0180
000003d0: 752a 0000 ce22 0200 b236 0080 a89d 0080
000003e0: 3fe2 0080 1aae 0180 dc73 0100 3c80 0180
000003f0: d86b 0000 4727 0180 9817 0000 8f95 0180
-1.89345e-40 1.74066e-40 6.829e-41 -7.4839e-41 1.30755e-40 5.262e-41 1.13102e-40 6.725e-41
1.15089e-40 -7.5282e-41 1.3661e-41 -1.09589e-40 -1.31758e-40 1.85526e-40 1.31321e-40 5.0088e-41
-8.6585e-41 3.6666e-41 -9.1953e-41 -1.12788e-40 -6.7517e-41 4.9781e-41 8.0053e-41 1.9671e-40
6.0633e-41 4.3238e-41 -5.772e-42 5.3143e-41 4.9434e-41 1.675e-42 5.374e-42 -1.18642e-40
-9.7577e-41 -5.223e-42 1.03924e-40 -1.11783e-40 -1.19657e-40 -1.07572e-40 8.7944e-41 -9.91e-42
4.4673e-41 -1.0546e-40 -1.14537e-40 2.7997e-41 1.18138e-40 1.10113e-40 -1.04325e-40 4.1822e-41
1.2677e-40 1.75015e-40 -1.06396e-40 -7.403e-42 4.5048e-41 6.2543e-41 -8.2255e-41 -7.4807e-41
1.96919e-40 -3.2478e-41 -4.1774e-41 8.43e-42 3.627e-42 -1.49147e-40 9.8986e-41 -1.7839e-41
-4.5109e-41 8.3159e-41 -1.186e-41 6.695e-42 -4.1228e-41 5.2334e-41 6.5194e-41 -5.9614e-41
1.2495e-40 -9.3178e-41 3.87e-42 4.5757e-41 6.0155e-41 1.71837e-40 5.4013e-41 -1.12774e-40
-1.12863e-40 1.69752e-40 -1.58183e-40 9.7963e-41 1.4125e-41 -8.4432e-41 -1.54744e-40 -1.19738e-40
-4.4302e-41 -7.4015e-41 1.86226e-40 -1.0829e-40 1.39744e-40 -5.6646e-41 1.46132e-40 -1.36733e-40
6.1808e-41 -1.09598e-40 -9.9509e-41 1.60611e-40 9.7354e-41 -3.3791e-41 1.28813e-40 1.09142e-40
5.259e-41 -1.56885e-40 9.162e-42 -7.5536e-41 9.5336e-41 -1.272e-40 -6.0738e-41 3.2461e-41
1.4167e-40 -4.5586e-41 -1.845e-40 7.1218e-41 -3.3658e-41 7.864e-42 1.0535e-40 -5.3189e-41
2.0657e-41 -7.1019e-41 2.0312e-41 5.5438e-41 4.233e-42 -3.1606e-41 1.63892e-40 -1.07082e-40
5.7134e-41 1.08811e-40 1.4318e-41 -1.2803e-40 7.2893e-41 -1.88838e-40 -1.00872e-40 -2.6012e-41
-1.24011e-40 -8.0439e-41 3.7919e-41 3.5297e-41 -1.18543e-40 8.4306e-41 1.3256e-41 2.145e-41
-7.9283e-41 -6.059e-41 -5.907e-41 -1.00982e-40 -4.4868e-41 -8.081e-42 -7.4452e-41 -1.08886e-40
4.2245e-41 3.2556e-41 3.9479e-41 -1.956e-40 8.2864e-41 -3.5833e-41 6.1663e-41 1.6901e-40
-1.0427e-40 1.07379e-40 1.38902e-40 8.3778e-41 -7.475e-41 -7.9218e-41 1.65119e-40 -5.2043e-41
-1.21044e-40 1.41552e-40 7.5198e-41 2.7093e-41 5.204e-41 1.34572e-40 -1.4153e-40 1.561e-41
1.56426e-40 1.43119e-40 1.24552e-40 1.45853e-40 1.9388e-41 1.16151e-40 1.30241e-40 -7.7439e-41
9.0068e-41 -2.5565e-41 -1.18015e-40 -1.11591e-40 -5.644e-42 4.0523e-41 -5.4226e-41 -6.2474e-41
2.3106e-41 -1.01258e-40 4.336e-42 -4.885e-42 -7.7629e-41 -9.2892e-41 -9.6342e-41 -1.2842e-40
-5.8733e-41 -3.9047e-41 -1.01727e-40 1.50711e-40 9.7596e-41 -1.57991e-40 8.643e-42 2.373e-41
-1.15191e-40 2.648e-41 -1.5437e-40 -1.25566e-40 6.9523e-41 -1.5002e-40 -9.8803e-41 1.12262e-40
-1.40407e-40 -1.1174e-41 1.42096e-40 3.5405e-41 -2.6772e-41 -3.2737e-41 -7.16e-42 -6.6714e-41
-4.8049e-41 -2.7664e-41 1.04412e-40 -2.5626e-41 1.0111e-40 1.7607e-41 1.50823e-40 2.0106e-41
-1.0103e-41 1.48595e-40 -4.3764e-41 -1.9345e-41 1.4028e-41 3.359e-41 -8.6345e-41 -1.07702e-40
3.9689e-41 -6.5251e-41 1.01483e-40 -1.30503e-40 1.5231e-41 1.96157e-40 -1.9621e-41 -5.6556e-41
-8.1162e-41 -1.54291e-40 1.33398e-40 -1.37837e-40 3.8687e-41 -1.05926e-40 8.464e-42 -1.45487e-40

e_conv3.depth_conv.bias f4 [32]
00000000: 53eb 0180 bef3 0000 dba2 0000 7d29 0180
00000010: bd57 0000 be25 0100 013c 0100 b61c 0000
00000020: f4e2 0080 8e13 0100 908b 0100 8bc2 0080
00000030: 402c 0180 2ff3 0080 f484 0080 fa5e 0100
00000040: 57d5 0180 9ef4 0180 b76b 0100 f698 0100
00000050: f681 0100 f671 0180 2cbb 0000 8353 0000
00000060: 222a 0080 0e21 0180 5199 0000 7c6f 0080
00000070: 712f 0180 77da 0080 8caf 0000 3f57 0080
-1.76254e-40 8.7438e-41 5.8422e-41 -1.06719e-40 3.1475e-41 1.05375e-40 1.13361e-40 1.03e-41
-8.1415e-41 9.885e-41 1.41901e-40 -6.9789e-41 -1.0771e-40 -8.7238e-41 -4.7695e-41 1.25907e-40
-1.68367e-40 -1.79588e-40 1.30476e-40 1.46708e-40 1.38457e-40 -1.32717e-40 6.7145e-41 2.9958e-41
-1.5114e-41 -1.03693e-40 5.5e-41 -3.9993e-41 -1.08854e-40 -7.837e-41 6.2974e-41 -3.1298e-41

e_conv3.point_conv.weight f4 [32, 32, 1, 1]
00000000: 7fd2 0080 db78 0000 9e7a 0080 0971 0100
00000010: 6e51 0100 acac 0080 2b4b 0100 b438 0100
00000020: d0bc 0180 f0ea 0080 2428 0100 932a 0100
00000030: 2f7a 0080 7454 0000 2785 0100 1c61 0000
00000040: 864e 0180 7e35 0100 e07e 0000 d101 0100
00000050: 0b85 0100 1c3f 0180 d757 0100 3a43 0080
00000060: 454f 0000 9922 0100 f62d 0080 7000 0080
00000070: 7b66 0080 c790 0000 4102 0000 fc41 0100
00000080: 612d 0100 1308 0080 3cc3 0080 d5b3 0080
00000090: da5d 0100 6dd2 0080 6fe1 0100 4ddc 0080
000000a0: c7b6 0100 dea1 0080 1233 0100 6ab7 0180
000000b0: b10a 0080 f826 0100 1ef0 0000 4379 0080
000000c0: ae6a 0100 1b11 0280 77c6 0180 e72e 0080
000000d0: 74ab 0180 f20d 0180 f89d 0180 f30c 0100
000000e0: e953 0000 79a1 0000 e096 0080 500d 0280
000000f0: 4628 0000 e04a 0100 3926 0080 c121 0280
00000100: 49ae 0000 f70c 0180 dc23 0080 2c73 0180
00000110: 1589 0180 daad 0000 9204 0280 65dc 0100
00000120: 2672 0080 9209 0100 2433 0180 7ea8 0000
00000130: 37aa 0080 26c2 0000 abc0 0000 a43b 0180
00000140: 77e9 0180 3d31 0200 584d 0100 f1ab 0080
00000150: 86e7 0100 5ea3 0100 b01b 0200 7483 0180
00000160: 9610 0180 dc89 0000 6ed2 0100 15db 0100
00000170: 0a56 0100 4406 0000 7f98 0180 eb89 0000
00000180: 7959 0180 9176 0080 b23c 0080 5c28 0180
00000190: b1f4 0180 01f9 0000 5303 0180 a153 0000
000001a0: ccaa 0180 3c2e 0180 f78c 0000 b78d 0080
000001b0: d4c7 0080 a632 0180 0785 0000 45ab 0180
000001c0: a97e 0180 7c4c 0000 dabb 0100 c9d8 0000
000001d0: 704a 0180 0e27 0000 cb9e 0000 b455 0180
000001e0: 00d6 0080 1727 0180 5f07 0280 bf93 0000
000001f0: f535 0080 b308 0180 cad2 0100 76df 0000
00000200: 5245 0100 b906 0080 955a 0100 184c 0000
00000210: fa72 0100 fb1c 0100 29ad 0080 a109 0080
00000220: 4f39 0100 8d93 0000 6009 0080 0b50 0180
00000230: ebce 0000 0925 0180 29e1 0080 2db4 0080
00000240: c36d 0100 96d2 0000 5bd5 0080 c30a 0280
00000250: d20d 0000 6fa1 0180 0724 0100 1f70 0080
00000260: bcb5 0080 1d2e 0000 c9fd 0000 d01c 0180
00000270: 7f93 0000 bc2c 0180 af37 0180 477a 0080
00000280: 1c17 0000 6730 0080 8a6b 0000 8311 0100
00000290: bfd8 0080 4f6a 0080 2d0a 0100 0900 0000
000002a0: e0a2 0080 2d99 0000 349b 0100 acb7 0180
000002b0: 4347 0180 a244 0100 2475 0100 f885 0180
000002c0: e146 0100 278b 0000 1730 0180 3b6b 0000
000002d0: f7e3 0080 da11 0080 c440 0000 4f48 0000
000002e0: a430 0180 7103 0280 2b97 0080 02a2 0180
000002f0: 2133 0000 6e4d 0100 0e5d 0000 2e53 0100
00000300: f380 0100 0692 0080 c3fe 0100 55f6 0080
00000310: 44b6 0000 7971 0000 be3e 0100 0a8f 0000
00000320: 7c66 0100 ce9f 0080 5b79 0100 532f 0180
00000330: 2156 0000 5f8c 0000 0da4 0100 ff0a 0000
00000340: 96c7 0100 0516 0180 1d3d 0080 ea75 0100
00000350: 1cdf 0100 976d 0180 629b 0000 a095 0180
00000360: ab71 0100 f61f 0180 7d90 0080 6db9 0080
00000370: b575 0080 57dd 0080 7f2e 0180 6d15 0280
00000380: 7735 0180 a2d7 0000 5617 0100 c0ae 0080
00000390: 6322 0180 2b59 0180 ca97 0180 3ce7 0080
000003a0: a6d1 0000 7aba 0000 0627 0100 5303 0100
000003b0: fae5 0080 205a 0100 f877 0080 d442 0080
000003c0: 2e4d 0080 ceed 0180 0e1b 0180 76e1 0180
000003d0: dc1c 0100 2723 0100 21bc 0180 ed2d 0080
000003e0: 8f08 0080 38e5 0080 0515 0180 e2df 0000
000003f0: 993b 0180 36aa 0100 2269 0100 9101 0100
-7.5512e-41 4.3355e-41 -4.3987e-41 1.32385e-40 1.21047e-40 -6.1943e-41 1.188e-40 1.12177e-40
-1.59569e-40 -8.428e-41 1.06235e-40 1.07108e-40 -4.3831e-41 3.0296e-41 1.39602e-40 3.4836e-41
-1.20004e-40 1.11025e-40 4.5514e-41 9.2487e-41 1.39562e-40 -1.14475e-40 1.23346e-40 -2.4116e-41
2.8437e-41 1.04247e-40 -1.6488e-41 -1.57e-43 -3.6763e-41 5.1936e-41 8.09e-43 1.15506e-40
1.08114e-40 -2.896e-42 -7.0037e-41 -6.4512e-41 1.25503e-40 -7.5487e-41 1.72706e-40 -7.9029e-41
1.57404e-40 -5.8067e-41 1.10156e-40 -1.57632e-40 -3.835e-42 1.05815e-40 8.6138e-41 -4.35e-41
1.30105e-40 -1.89807e-40 -1.63031e-40 -1.6825e-41 -1.53341e-40 -9.6838e-41 -1.48504e-40 9.6481e-41
3.0101e-41 5.7925e-41 -5.4124e-41 -1.88447e-40 1.4447e-41 1.18696e-40 -1.3712e-41 -1.9578e-40
6.2522e-41 -9.6486e-41 -1.2864e-41 -1.33151e-40 -1.41011e-40 6.2366e-41 -1.8531e-40 1.70898e-40
-4.0949e-41 9.5269e-41 -1.10181e-40 6.0444e-41 -6.1062e-41 6.9647e-41 6.9116e-41 -1.1323e-40
-1.75587e-40 2.01334e-40 1.19581e-40 -6.1681e-41 1.7489e-40 1.5044e-40 1.93603e-40 -1.38992e-40
-9.7785e-41 4.9455e-41 1.67323e-40 1.70427e-40 1.227e-40 2.248e-42 -1.46541e-40 4.9476e-41
-1.23932e-40 -4.2534e-41 -2.1773e-41 -1.06314e-40 -1.79614e-40 8.9326e-41 -9.3028e-41 3e-41
-1.53106e-40 -1.08421e-40 5.0569e-41 -5.0838e-41 -7.1685e-41 -1.10005e-40 4.7721e-41 -1.53275e-40
-1.37273e-40 2.7437e-41 1.59224e-40 7.7768e-41 -1.18539e-40 1.401e-41 5.6964e-41 -1.2258e-40
-7.6769e-41 -1.05858e-40 -1.86315e-40 5.3001e-41 -1.9356e-41 -9.4956e-41 1.67452e-40 8.0163e-41
1.16703e-40 -2.412e-42 1.2433e-40 2.7297e-41 1.33081e-40 1.02232e-40 -6.2118e-41 -3.454e-42
1.12394e-40 5.2931e-41 -3.363e-42 -1.2055e-40 7.4228e-41 -1.05121e-40 -8.0772e-41 -6.4635e-41
1.3121e-40 7.5544e-41 -7.6538e-41 -1.87532e-40 4.958e-42 -1.49747e-40 1.0476e-40 -4.0221e-41
-6.5194e-41 1.6542e-41 9.1041e-41 -1.02171e-40 5.2912e-41 -1.07883e-40 -1.11811e-40 -4.3865e-41
8.29e-42 -1.7363e-41 3.8578e-41 9.8118e-41 -7.7754e-41 -3.8136e-41 9.5486e-41 1.3e-44
-5.8429e-41 5.4949e-41 1.47512e-40 -1.57725e-40 -1.174e-40 1.16456e-40 1.33858e-40 -1.39894e-40
1.17262e-40 4.9918e-41 -1.09087e-40 3.8467e-41 -8.1778e-41 -6.404e-42 2.3234e-41 2.594e-41
-1.09284e-40 -1.84906e-40 -5.4229e-41 -1.49953e-40 1.8342e-41 1.19612e-40 3.3382e-41 1.21675e-40
1.38094e-40 -5.2383e-41 1.83227e-40 -8.8367e-41 6.5385e-41 4.0706e-41 1.14343e-40 5.1313e-41
1.286e-40 -5.7327e-41 1.3537e-40 -1.08812e-40 3.0897e-41 5.0356e-41 1.50686e-40 3.945e-42
1.63433e-40 -9.9735e-41 -2.1923e-41 1.34135e-40 1.71872e-40 -1.31149e-40 5.5741e-41 -1.45511e-40
1.32612e-40 -1.03301e-40 -5.1833e-41 -6.6518e-41 -4.2225e-41 -7.9402e-41 -1.08515e-40 -1.91357e-40
-1.11015e-40 7.7354e-41 1.00207e-40 -6.2688e-41 -1.04171e-40 -1.23823e-40 -1.46287e-40 -8.2951e-41
7.5208e-41 6.6895e-41 1.05834e-40 9.3028e-41 -8.25e-41 1.24166e-40 -4.3037e-41 -2.3973e-41
-2.7687e-41 -1.77144e-40 -1.01541e-40 -1.72716e-40 1.02188e-40 1.04446e-40 -1.59323e-40 -1.6475e-41
-3.07e-42 -8.2228e-41 -9.9376e-41 8.0314e-41 -1.13215e-40 1.52896e-40 1.2955e-40 9.2397e-41

e_conv3.point_conv.bias f4 [32]
00000000: a6bb 0000 6951 0180 6c50 0080 e99f 0000
00000010: 1f12 0100 060f 0100 5526 0000 faea 0080
00000020: 0061 0000 6cd5 0080 142d 0000 8b2a 0180
00000030: 813f 0180 8355 0080 7226 0100 a3a1 0100
00000040: adfb 0180 1b7f 0080 ad7a 0180 7626 0000
00000050: 1e59 0180 4285 0000 e74d 0000 b441 0100
00000060: c73c 0080 fd4d 0100 db8b 0000 cee9 0080
00000070: 681b 0180 104b 0100 f58b 0000 828c 0180
6.7316e-41 -1.2104e-40 -2.885e-41 5.7365e-41 9.8336e-41 9.7225e-41 1.3751e-41 -8.4294e-41
3.4797e-41 -7.6561e-41 1.6171e-41 -1.07097e-40 -1.14616e-40 -3.0676e-41 1.05627e-40 1.4982e-40
-1.8212e-40 -4.5597e-41 -1.35843e-40 1.3797e-41 -1.23805e-40 4.7804e-41 2.7946e-41 1.15405e-40
-2.1803e-41 1.19812e-40 5.017e-41 -8.3873e-41 -1.01667e-40 1.18763e-40 5.0207e-41 -1.4224e-40

e_conv4.depth_conv.weight f4 [32, 1, 3, 3]
00000000: 450c 0180 89fb 0000 aed1 0080 5c73 0080
00000010: 1f11 0080 2bb4 0100 8e4f 0080 c9c9 0100
00000020: f6b4 0180 eb5f 0000 7527 0180 3b1d 0080
00000030: 3e4a 0180 3975 0100 a875 0000 d890 0080
00000040: 8fe6 0080 1cf7 0180 e2ce 0000 78d3 0080
00000050: 5302 0080 49d7 0080 a317 0080 0af3 0080
00000060: d488 0000 330c 0180 75b1 0080 1e42 0100
00000070: 32f6 0000 cd46 0180 f9fc 0080 cf7a 0100
00000080: 2a01 0000 3794 0080 6a24 0000 1857 0180
00000090: f679 0080 4c76 0100 39c7 0180 e2cb 0000
000000a0: 506b 0180 f603 0180 e812 0280 6926 0180
000000b0: 4b27 0180 dd3b 0080 141d 0100 e488 0080
000000c0: 8d32 0100 e7e2 0080 ce6f 0000 2b6c 0080
000000d0: 3c35 0100 d70a 0100 2e1f 0100 e85d 0000
000000e0: 8398 0080 c2dc 0080 cdfc 0080 599d 0000
000000f0: c44b 0180 21f2 0000 e89a 0100 920c 0080
00000100: 43d8 0000 c372 0100 8f27 0180 087f 0000
00000110: 27d8 0180 1571 0180 c4e8 0180 be6b 0100
00000120: 905b 0100 a5c1 0000 0e98 0000 bf7c 0000
00000130: 15fe 0000 bdad 0080 cc80 0100 6261 0180
00000140: 6b6c 0000 26b3 0000 a124 0100 983e 0000
00000150: f8ac 0080 e0bc 0000 b335 0080 d334 0000
00000160: a862 0000 7a1e 0200 90d9 0080 491c 0200
00000170: 5ab5 0000 0367 0000 9ba8 0000 7fac 0080
00000180: c617 0280 82f3 0000 a524 0080 45f1 0000
00000190: 52a0 0000 f922 0000 76f4 0180 7519 0200
000001a0: 72da 0080 0706 0280 2845 0000 52ea 0080
000001b0: a8ad 0100 4550 0000 5da9 0080 89bc 0180
000001c0: 297c 0000 661d 0000 5df2 0080 0c5d 0180
000001d0: b468 0080 83cd 0000 9327 0080 f5e3 0080
000001e0: ca8f 0180 6630 0100 1991 0100 6101 0000
000001f0: 18ac 0080 a1f7 0080 06d7 0100 b6ac 0080
00000200: a2b3 0000 da7b 0000 4e41 0180 fe84 0000
00000210: 5ebd 0180 1858 0080 be13 0200 c321 0180
00000220: e785 0100 5f03 0100 2033 0100 21fd 0000
00000230: 03f4 0080 5d93 0000 af0c 0180 3033 0100
00000240: cf09 0100 c047 0080 5e4c 0080 d3a2 0080
00000250: 71b7 0100 18e7 0100 6207 0200 6ec6 0000
00000260: 9d6b 0180 b35a 0180 3f53 0100 9222 0100
00000270: b0a3 0000 e349 0080 010b 0100 9df1 0080
00000280: 6cd9 0000 c686 0080 b43c 0100 b2fc 0080
00000290: 9574 0000 8850 0100 3b3a 0080 cdf5 0080
000002a0: f83d 0180 0b07 0080 2413 0000 f167 0100
000002b0: 5793 0100 4364 0180 ba24 0100 0623 0180
000002c0: e940 0080 ca2b 0000 a454 0100 6a03 0080
000002d0: 491d 0180 2e05 0000 6e89 0080 c093 0180
000002e0: 1bd0 0000 f8a9 0100 b836 0080 9f16 0080
000002f0: 6024 0180 9ad1 0000 6329 0100 a191 0000
00000300: bc4e 0080 fd1b 0080 40c3 0080 b4e9 0100
00000310: 6bda 0000 3224 0180 311a 0180 08f4 0000
00000320: 2814 0100 503b 0180 95b8 0080 1cff 0100
00000330: 0337 0180 2ea4 0000 4a02 0000 622e 0180
00000340: fc5e 0080 824d 0000 caf1 0000 5be2 0180
00000350: 8b07 0080 55db 0000 ef82 0080 6078 0000
00000360: b0e1 0000 7f0f 0100 13fe 0080 c884 0000
00000370: 2b37 0100 8800 0100 bd03 0100 358f 0000
00000380: b762 0180 8ede 0080 e40b 0180 c6cf 0180
00000390: ce70 0000 dc3a 0080 165b 0080 9153 0100
000003a0: 9318 0180 a3e7 0100 b178 0080 0b35 0180
000003b0: 5a78 0000 e7e2 0100 ef7c 0080 36fb 0000
000003c0: 79db 0000 491b 0080 a60d 0000 6e5b 0180
000003d0: 0d51 0080 9242 0000 bc0c 0100 bb64 0000
000003e0: ff6b 0100 d270 0080 0d9f 0080 edf7 0000
000003f0: 7ff0 0000 bec1 0100 b376 0080 2506 0180
-9.6237e-41 9.0234e-41 -7.5219e-41 -4.1383e-41 -6.142e-42 1.56468e-40 -2.8539e-41 1.64222e-40
-1.56752e-40 3.4409e-41 -1.0599e-40 -1.0486e-41 -1.18469e-40 1.33887e-40 4.2207e-41 -5.196e-41
-8.2709e-41 -1.80482e-40 7.4216e-41 -7.586e-41 -8.34e-43 -7.723e-41 -8.479e-42 -8.7186e-41
4.9085e-41 -9.6212e-41 -6.366e-41 1.15554e-40 8.8318e-41 -1.17234e-40 -9.075e-41 1.35891e-40
4.18e-43 -5.317e-41 1.3063e-41 -1.23079e-40 -4.3751e-41 1.34272e-40 -1.63303e-40 7.314e-41
-1.30332e-40 -9.3256e-41 -1.90453e-40 -1.05614e-40 -1.05931e-40 -2.1475e-41 1.02267e-40 -4.9107e-41
1.0997e-40 -8.1397e-41 4.0108e-41 -3.8803e-41 1.10932e-40 9.5724e-41 1.0302e-40 3.3687e-41
-5.4711e-41 -7.9193e-41 -9.0688e-41 5.6446e-41 -1.19015e-40 8.686e-41 1.47405e-40 -4.51e-42
7.758e-41 1.33004e-40 -1.06026e-40 4.557e-41 -1.69376e-40 -1.32402e-40 -1.75336e-40 1.30486e-40
1.24682e-40 6.9467e-41 5.4547e-41 4.475e-41 9.1147e-41 -6.2326e-41 1.38039e-40 -1.2677e-40
3.8893e-41 6.4266e-41 1.04975e-40 2.2454e-41 -6.205e-41 6.7756e-41 -1.9264e-41 1.895e-41
3.5391e-41 1.94604e-40 -7.8047e-41 1.93818e-40 6.5057e-41 3.6954e-41 6.0484e-41 -6.188e-41
-1.92199e-40 8.7354e-41 -1.3146e-41 8.6551e-41 5.7512e-41 1.2546e-41 -1.79532e-40 1.92803e-40
-7.8363e-41 -1.85833e-40 2.4809e-41 -8.4058e-41 1.54132e-40 2.8795e-41 -6.0756e-41 -1.59469e-40
4.454e-41 1.0546e-41 -8.6944e-41 -1.25214e-40 -3.756e-41 7.3724e-41 -1.4197e-41 -8.1776e-41
-1.43417e-40 1.09198e-40 1.43887e-40 4.95e-43 -6.1736e-41 -8.8833e-41 1.68971e-40 -6.1957e-41
6.444e-41 4.443e-41 -1.15262e-40 4.7709e-41 -1.59768e-40 -3.1602e-41 1.90753e-40 -1.03947e-40
1.3987e-40 9.3045e-41 1.10176e-40 9.0806e-41 -8.7535e-41 5.2864e-41 -9.6386e-41 1.10198e-40
9.5354e-41 -2.5739e-41 -2.7395e-41 -5.841e-41 1.57642e-40 1.74736e-40 1.8632e-40 7.1183e-41
-1.3044e-40 -1.24372e-40 1.21699e-40 1.04237e-40 5.872e-41 -2.6506e-41 9.5783e-41 -8.6675e-41
7.7996e-41 -4.8348e-41 1.13612e-40 -9.065e-41 4.1822e-41 1.20725e-40 -2.0889e-41 -8.8177e-41
-1.14066e-40 -2.527e-42 6.866e-42 1.29123e-40 1.44691e-40 -1.27803e-40 1.0501e-40 -1.044e-40
-2.3285e-41 1.5709e-41 1.22199e-40 -1.225e-42 -1.02341e-40 1.858e-42 -4.93e-41 -1.44838e-40
7.4654e-41 1.52809e-40 -1.963e-41 -8.115e-42 -1.04884e-40 7.5191e-41 1.06682e-40 5.2242e-41
-2.8245e-41 -1.004e-41 -7.0043e-41 1.75672e-40 7.8354e-41 -1.0482e-40 -1.01231e-40 8.7542e-41
9.9066e-41 -1.13113e-40 -6.6216e-41 1.83351e-40 -1.1157e-40 5.8897e-41 8.21e-43 -1.08475e-40
-3.4074e-41 2.7805e-41 8.6738e-41 -1.73037e-40 -2.706e-42 7.8682e-41 -4.697e-41 4.3182e-41
8.0961e-41 9.7394e-41 -9.1145e-41 4.7633e-41 1.11626e-40 9.2026e-41 9.3177e-41 5.1373e-41
-1.27248e-40 -7.9838e-41 -9.6101e-41 -1.6637e-40 4.0467e-41 -2.1115e-41 -3.2675e-41 1.21813e-40
-1.00651e-40 1.74931e-40 -4.3296e-41 -1.10864e-40 4.3174e-41 1.73233e-40 -4.4818e-41 9.0118e-41
7.8732e-41 -9.788e-42 4.896e-42 -1.24634e-40 -2.9076e-41 2.3881e-41 9.6404e-41 3.6135e-41
1.30577e-40 -4.0472e-41 -5.7057e-41 8.8939e-41 8.6274e-41 1.61337e-40 -4.2581e-41 -9.404e-41

e_conv4.depth_conv.bias f4 [32]
00000000: 979c 0080 fbf8 0000 1065 0100 f701 0180
00000010: 0cfb 0080 7d43 0000 e3e3 0080 b93e 0080
00000020: fe33 0180 c0a9 0080 2aaf 0180 872c 0180
00000030: 38be 0100 b05a 0180 a36e 0100 9713 0100
00000040: cf0b 0180 4210 0180 a3bf 0000 7c87 0180
00000050: 6130 0100 821a 0080 a678 0000 0b6c 0080
00000060: 659a 0080 b898 0000 dd71 0100 94c7 0080
00000070: 472d 0100 0b14 0080 d446 0100 04bc 0080
-5.6174e-41 8.9317e-41 1.2809e-40 -9.254e-41 -9.0059e-41 2.421e-41 -8.175e-41 -2.25e-41
-1.10487e-40 -6.0895e-41 -1.54673e-40 -1.07809e-40 1.60073e-40 -1.24368e-40 1.31524e-40 9.8863e-41
-9.6072e-41 -9.7668e-41 6.8746e-41 -1.40438e-40 1.0919e-40 -9.509e-42 4.328e-41 -3.8759e-41
-5.5386e-41 5.4785e-41 1.32682e-40 -7.1595e-41 1.08078e-40 -7.19e-42 1.17244e-40 -6.7447e-41

e_conv4.point_conv.weight f4 [32, 32, 1, 1]
00000000: 8e24 0080 fb85 0000 1138 0100 1370 0080
00000010: efa8 0000 07b9 0000 58fe 0000 e6d9 0000
00000020: 8667 0180 aba6 0000 3720 0180 c747 0080
00000030: be35 0000 5636 0080 f130 0180 cc88 0180
00000040: 0f9f 0100 07fb 0000 359d 0000 5a33 0100
00000050: c49a 0080 83c8 0000 3c69 0180 a112 0000
00000060: 0113 0180 b046 0100 6b49 0100 41a1 0180
00000070: 59a3 0000 455a 0180 282c 0000 c707 0180
00000080: 9af2 0180 7700 0280 b693 0100 a6c9 0000
00000090: 91ae 0080 b1f0 0000 3038 0000 e6c5 0180
000000a0: 7f62 0100 1b05 0000 598a 0080 7059 0180
000000b0: e58a 0100 ff53 0180 353a 0080 7352 0180
000000c0: 4901 0180 2ee3 0080 dd43 0080 06ca 0100
000000d0: c222 0200 f170 0080 28ac 0000 07ab 0080
000000e0: 88eb 0100 1c2e 0180 eb37 0100 6e96 0080
000000f0: 5829 0180 8baf 0100 a287 0100 6d46 0080
00000100: 4720 0100 a354 0100 653b 0180 d1d0 0080
00000110: 299d 0100 3937 0000 e7c7 0100 3640 0080
00000120: 3a9b 0100 dc6d 0180 7538 0180 bd55 0100
00000130: 0e7a 0100 cda6 0180 da19 0200 6490 0180
00000140: ebbc 0100 4f00 0100 d80c 0200 fa00 0280
00000150: a93b 0000 fc57 0000 285f 0100 387f 0100
00000160: fb1c 0000 47e7 0000 805e 0180 f85f 0180
00000170: 8e9c 0080 6718 0180 d536 0100 0c33 0100
00000180: 0a81 0080 5785 0100 b8be 0180 f932 0080
00000190: 9411 0100 b449 0180 cf5a 0080 d403 0280
000001a0: 3632 0180 2088 0100 ca69 0180 b13d 0100
000001b0: 2582 0180 aa83 0100 5452 0180 b593 0000
000001c0: bd00 0180 89f5 0100 a285 0080 3f69 0180
000001d0: d299 0000 8320 0000 320f 0080 5bfb 0000
000001e0: 7e16 0000 ad7f 0000 88b1 0080 037a 0100
000001f0: d327 0080 913a 0180 b7e0 0180 10e2 0180
00000200: 9ebc 0180 567e 0000 e502 0100 5e46 0080
00000210: 1271 0000 a175 0180 99b5 0180 5c2a 0280
00000220: 1444 0180 3767 0000 2d7b 0180 4e01 0080
00000230: 93e6 0080 1ffe 0000 7ea6 0000 52b2 0080
00000240: 6356 0080 f63c 0080 6994 0100 c30a 0280
00000250: dbb0 0180 8c63 0080 48ca 0000 05c3 0080
00000260: b9f2 0100 e813 0100 c683 0000 0bf3 0080
00000270: a72e 0000 7e91 0100 d2e2 0080 84ff 0000
00000280: bb1e 0280 4a2c 0000 c633 0080 e7e6 0080
00000290: a69c 0100 4dc6 0000 ee0c 0080 8737 0000
000002a0: 8702 0000 c724 0080 2919 0080 146e 0100
000002b0: 875a 0000 3d17 0000 eb98 0100 d33c 0100
000002c0: bebb 0080 a84a 0080 4aa9 0180 5f41 0100
000002d0: 6e8c 0100 1acc 0080 b586 0100 c408 0280
000002e0: 011f 0280 30f3 0000 a33b 0080 7ca7 0080
000002f0: a28d 0080 c5b2 0180 9126 0180 647b 0180
00000300: a908 0180 4513 0180 1fee 0000 731c 0000
00000310: c495 0180 784d 0100 e68f 0000 7a0c 0280
00000320: 29c5 0000 2846 0100 4b49 0180 877c 0180
00000330: e80c 0180 4909 0080 d1d5 0080 8823 0180
00000340: 521b 0100 976d 0100 f3a8 0180 a677 0080
00000350: 71c8 0080 ebe2 0080 08a8 0100 d767 0100
00000360: 44e6 0100 310b 0180 0052 0180 7b35 0180
00000370: fa5e 0180 4492 0000 fb94 0100 3ab8 0000
00000380: cf90 0100 6a86 0100 bc75 0080 b818 0180
00000390: 23f0 0180 919b 0180 53eb 0100 b25a 0000
000003a0: 6147 0080 9a9b 0080 4017 0180 99b9 0080
000003b0: 26c0 0080 99f0 0180 37c7 0080 9520 0100
000003c0: 7b2a 0180 9d02 0100 cbb0 0080 ea2b 0180
000003d0: c1b2 0180 7813 0000 373e 0180 82b3 0000
000003e0: 9a14 0180 3627 0080 b20d 0180 880a 0180
000003f0: f703 0180 1a2b 0100 a3af 0000 7fe1 0000
-1.3113e-41 4.8063e-41 1.11948e-40 -4.0205e-41 6.0602e-41 6.6375e-41 9.1241e-41 7.8167e-41
-1.28973e-40 5.9789e-41 -1.03392e-40 -2.5749e-41 1.9279e-41 -1.9492e-41 -1.09392e-40 -1.40909e-40
1.48895e-40 9.0052e-41 5.6395e-41 1.10257e-40 -5.552e-41 7.193e-41 -1.29586e-40 6.683e-42
-9.8653e-41 1.17193e-40 1.18173e-40 -1.49682e-40 5.8598e-41 -1.24218e-40 1.584e-41 -9.4625e-41
-1.78865e-40 -1.83838e-40 1.44824e-40 7.2338e-41 -6.2623e-41 8.6344e-41 2.0156e-41 -1.62828e-40
1.27169e-40 1.831e-42 -4.963e-41 -1.2392e-40 1.41661e-40 -1.21968e-40 -2.0881e-41 -1.21413e-40
-9.2297e-41 -8.1497e-41 -2.4345e-41 1.64308e-40 1.9614e-40 -4.0516e-41 6.1758e-41 -6.1353e-41
1.76328e-40 -1.08376e-40 1.11895e-40 -5.3964e-41 -1.06667e-40 1.54808e-40 1.40491e-40 -2.5264e-41
1.03414e-40 1.22197e-40 -1.13142e-40 -7.4909e-41 1.48214e-40 1.981e-41 1.63547e-40 -2.3035e-41
1.4752e-40 -1.31246e-40 -1.12088e-40 1.22593e-40 1.3562e-40 -1.51672e-40 1.92945e-40 -1.43633e-40
1.59606e-40 9.1946e-41 1.88278e-40 -1.84021e-40 2.1402e-41 3.1563e-41 1.25971e-40 1.37473e-40
1.0396e-41 8.2967e-41 -1.25736e-40 -1.26263e-40 -5.6161e-41 -1.0059e-40 1.11506e-40 1.10148e-40
-4.629e-41 1.39669e-40 -1.60252e-40 -1.8286e-41 9.8141e-41 -1.18275e-40 -3.2576e-41 -1.85044e-40
-1.09848e-40 1.40668e-40 -1.29785e-40 1.13966e-40 -1.38523e-40 1.39068e-40 -1.21369e-40 5.2987e-41
-9.21e-41 1.79917e-40 -4.7938e-41 -1.2959e-40 5.518e-41 1.1663e-41 -5.451e-42 9.017e-41
8.069e-42 4.5801e-41 -6.3686e-41 1.35605e-40 -1.4286e-41 -1.12845e-40 -1.72448e-40 -1.72931e-40
-1.59499e-40 4.5321e-41 9.2874e-41 -2.5243e-41 4.0562e-41 -1.34033e-40 -1.5698e-40 -1.98867e-40
-1.16257e-40 3.7027e-41 -1.36023e-40 -4.68e-43 -8.2714e-41 9.1161e-41 5.9726e-41 -6.3969e-41
-3.099e-41 -2.1869e-41 1.45075e-40 -1.87532e-40 -1.55279e-40 -3.571e-41 7.2565e-41 -6.996e-41
1.78908e-40 9.8977e-41 4.7271e-41 -8.7187e-41 1.6736e-41 1.44028e-40 -8.1368e-41 9.1662e-41
-1.94695e-40 1.5888e-41 -1.8573e-41 -8.2832e-41 1.4803e-40 7.1137e-41 -4.638e-42 1.992e-41
9.07e-43 -1.3193e-41 -9.026e-42 1.31324e-40 3.2475e-41 8.336e-42 1.46692e-40 1.13655e-40
-6.7349e-41 -2.6782e-41 -1.52565e-40 1.15286e-40 1.42212e-40 -7.3218e-41 1.40159e-40 -1.86816e-40
-1.94793e-40 8.7239e-41 -2.1394e-41 -6.0082e-41 -5.0808e-41 -1.55966e-40 -1.0567e-40 -1.361e-40
-9.4942e-41 -9.8748e-41 8.5422e-41 1.0206e-41 -1.45561e-40 1.19626e-40 5.1621e-41 -1.88147e-40
7.0728e-41 1.17003e-40 -1.18128e-40 -1.36507e-40 -9.6465e-41 -3.331e-42 -7.6703e-41 -1.04582e-40
1.01636e-40 1.31149e-40 -1.52443e-40 -4.2922e-41 -7.1905e-41 -8.1403e-41 1.52114e-40 1.29086e-40
1.74439e-40 -9.585e-41 -1.21252e-40 -1.1102e-40 -1.25907e-40 5.247e-41 1.4528e-40 6.6088e-41
1.43783e-40 1.40054e-40 -4.2235e-41 -1.00703e-40 -1.7798e-40 -1.47642e-40 1.76254e-40 3.2535e-41
-2.5606e-41 -5.582e-41 -1.00176e-40 -6.658e-41 -6.893e-41 -1.78146e-40 -7.1465e-41 1.03524e-40
-1.07075e-40 9.2773e-41 -6.3421e-41 -1.07589e-40 -1.5596e-40 6.984e-42 -1.14154e-40 6.4395e-41
-9.9226e-41 -1.4066e-41 -9.6748e-41 -9.5613e-41 -9.3258e-41 1.07297e-40 6.3007e-41 8.0893e-41

e_conv4.point_conv.bias f4 [32]
00000000: cea7 0100 a821 0080 1ad3 0180 c70d 0100
00000010: 2da3 0180 b6d5 0080 b96f 0080 f635 0180
00000020: 5b97 0080 6dea 0080 711f 0100 39dc 0000
00000030: e311 0100 2676 0180 8738 0100 62dc 0000
00000040: d990 0180 0aeb 0100 fc16 0180 ade1 0080
00000050: a340 0100 da4c 0100 4b09 0000 162c 0000
00000060: 4497 0100 705d 0180 dba5 0100 d043 0100
00000070: 7310 0000 2f3c 0100 8f0c 0200 de52 0180
1.52032e-40 -1.2074e-41 -1.67564e-40 9.6778e-41 -1.50372e-40 -7.6665e-41 -4.0079e-41 -1.11193e-40
-5.4296e-41 -8.4096e-41 1.03115e-40 7.9001e-41 9.8252e-41 -1.34219e-40 1.12114e-40 7.9058e-41
-1.43797e-40 1.76152e-40 -1.00081e-40 -8.0957e-41 1.15023e-40 1.19405e-40 3.334e-42 1.5815e-41
1.461e-40 -1.25355e-40 1.51333e-40 1.16162e-40 5.901e-42 1.13425e-40 1.88176e-40 -1.21563e-40
