Zero-DCE++/snapshots_Zero_DCE++/Epoch30.pth (torch, 51217 bytes, 28 tensors)

e_conv1.depth_conv.weight f4 [3, 1, 3, 3]
-0.32628727 -0.13904443 0.052045994 -0.17425844 0.12463795 0.107264824 -0.38133305 -0.12835293
-0.048081383 0.16517061 0.11428993 0.28090504 0.17971557 -0.009454155 0.21690868 0.10569044
-0.033863347 0.18076187 -0.0393726 -0.06367285 -0.12610571 -0.07219745 -0.118048795 -0.13868871
-0.038553488 -0.18320878 -0.3418146
00000000: 200f a7be aa61 0ebe 2e2e 553d ce70 32be
00000010: 2e42 ff3d a9ad db3d 163e c3be f36e 03be
00000020: fcf0 44bd 7c22 293e d710 ea3d c9d2 8f3e
00000030: 5c07 383e 9ae5 1abc 4f1d 5e3e 3b74 d83d
00000040: 4bb4 0abd a419 393e 2a45 21bd e966 82bd
00000050: db21 01be 42dc 93bd 91c3 f1bd 6a04 0ebe
00000060: 43ea 1dbd 159b 3bbe 5302 afbe

e_conv1.depth_conv.bias f4 [3]
0.07290654 0.31713527 -0.036815494
00000000: 0650 953d 8e5f a23e d8cb 16bd

e_conv1.point_conv.weight f4 [32, 3, 1, 1]
0.013349103 0.2675148 0.100574225 6.1328e-41 -4.1086123e-10 1.7369057e-06 0.00022200482 -0.016105609
-0.0023018355 0.0921744 -0.5379144 0.11413257 0.00862212 -0.0014325975 0.000231844 -0.14944609
0.13772179 0.4571103 0.080451496 0.25508112 -0.3165378 -2.0123e-41 5.4101e-41 1.9956e-41
0.085043 -0.048928376 0.017103296 0.07738181 -0.04325079 -0.13118502 0.3580131 -0.55421036
0.41098014 0.028554212 -0.084718816 0.048578396 0.14524147 -0.42959425 -0.13760726 -0.075707935
-0.13645771 0.11370237 0.0017384744 -5.3254993e-05 -2.397216e-14 0.031616468 0.3721704 0.3576041
-0.2217151 0.32550716 -0.42335853 7.374189e-13 4.7213305e-14 0.0050904644 0.04002223 0.008760849
-0.10310244 0.004850592 -4.3239964e-07 1.7558745e-05 -0.57618827 -0.08446758 -0.39730766 5.912431e-07
-5.6554e-41 4.3635703e-10 -0.0046142335 0.006729648 0.09911641 -5.0227e-41 0.0044204392 1.0147376e-19
1.2547209e-09 3.2869e-41 0.00015534989 -5.87092e-11 -0.0049412004 0.01320368 4.4551428e-20 -0.018119384
-6.108909e-39 0.35351723 -0.15017597 -0.3749606 0.030693347 -0.42437777 -0.14918087 7.4293e-41
-4.3367554e-10 5.1601393e-11 0.29355577 0.024946813 -0.03660368 -0.27921435 0.3774719 -0.39443538
00000000: 32b6 5a3c b3f7 883e dcf9 cd3d f5aa 0000
00000010: 94df e1af a01f e935 f7c9 6839 e9ef 83bc
00000020: 64da 16bb efc5 bc3d c2b4 09bf 56be e93d
00000030: cb43 0d3c ffc5 bbba 261b 7339 6508 19be
00000040: f106 0d3e 5c0a ea3e c1c3 a43d fe99 823e
00000050: 3e11 a2be 1838 0080 d096 0000 a137 0000
00000060: 062b ae3d 1f69 48bd 361c 8c3c 5b7a 9e3d
00000070: be27 31bd 5e55 06be 7e4d b73e bbe0 0dbf
00000080: fd6b d23e 86ea e93c 0f81 adbd 24fa 463d
00000090: 2eba 143e c7f3 dbbe ebe8 0cbe c30c 9bbd
000000a0: 92bb 0bbe cadc e83d 85dd e33a 1d5e 5fb8
000000b0: 0aec d7a8 4580 013d 1e8d be3e e217 b73e
000000c0: 4809 63be e0a8 a63e 73c2 d8be a290 4f2b
000000d0: 3ca1 5429 e9cd a63b 5aee 233d aa89 0f3c
000000e0: 5f27 d3bd b7f1 9e3b 8e24 e8b4 1e4b 9337
000000f0: 1381 13bf 57fd acbd e96b cbbe ebb5 1e35
00000100: a69d 0080 cbe3 ef2f ff32 97bb 6184 dc3b
00000110: 8bfd ca3d 038c 0080 55d9 903b 2099 ef1f
00000120: 9172 ac30 a05b 0000 6be5 2239 571a 81ae
00000130: cbe9 a1bb 3f54 583c 5f63 521f 1a6f 94bc
00000140: 2785 4280 3600 b53e bbc7 19be d6fa bfbe
00000150: 9d70 fb3c 0b48 d9be dfc2 18be 19cf 0000
00000160: 686a eeaf 01f2 622e f14c 963e 425d cc3c
00000170: beed 15bd 2ff5 8ebe ff43 c13e 6ff3 c9be

e_conv1.point_conv.bias f4 [32]
-0.16210367 -1.1522736e-08 -0.005706349 0.56807435 0.0008428905 0.06800556 0.30933312 -0.0007289951
0.032325692 -0.01896938 0.4171032 0.46623173 0.33398965 0.30059525 -0.006398441 0.53736156
-0.09129987 -2.2983427e-07 -0.0976085 -0.0009933364 0.41168144 -4.017174e-07 0.37573755 -0.015700366
-4.5164995e-07 -1.2167e-41 -0.016679753 0.33850273 0.13294514 -0.0125539 0.49637315 -0.09720947
00000000: 81fe 25be 87f5 45b2 53fc babb 526d 113f
00000010: 6df5 5c3a 8046 8b3d e960 9e3e 081a 3fba
00000020: f267 043d ac65 9bbc 8d8e d53e edb5 ee3e
00000030: b100 ab3e 9fe7 993e 03aa d1bb 8790 093f
00000040: 6dfb babd 5dc8 76b4 f7e6 c7bd d732 82ba
00000050: e9c7 d23e 9eab d7b4 ac60 c03e 0e9e 80bc
00000060: 4c7a f2b4 eb21 0080 faa3 88bc 3b50 ad3e
00000070: c522 083e dfae 4dbc 9f24 fe3e c215 c7bd

e_conv2.depth_conv.weight f4 [32, 1, 3, 3]
-0.055727255 -0.05166978 -0.04723996 -0.030866837 -0.03160985 -0.022412835 -0.029384911 -0.030582797
-0.025412742 3.8875566e-17 -1.5023085e-19 -1.7186443e-35 -1.3124033e-09 8.2423e-41 1.2379877e-24 2.0612e-41
2.7552e-41 9.0645436e-08 5.3016568e-20 5.7394932e-24 -1.2328805e-08 1.1048618e-06 4.537403e-08 -4.3890917e-30
-5.195834e-15 6.2655e-41 -3.7176e-41 -0.29934862 -0.2823875 -0.08714364 -0.08671617 0.16099618
0.29457578 0.2733229 -0.011780875 0.44742694 0.00013880208 -0.0007135605 -1.7655724e-05 0.00019523394
-0.00018876066 -0.00022554424 5.012898e-05 -4.1124556e-05 -0.00036610494 -0.037394583 0.05261928 -0.072742224
0.07392299 0.21880236 -0.052781403 -0.041459076 0.0050295633 -0.1828421 0.0969238 -0.0016981594
-0.22710937 0.054871023 0.16663831 -0.094717816 -0.04361213 -0.0038061189 -0.31495094 7.4264284e-09
1.3995341e-11 -4.9581154e-15 1.0972045e-10 1.1648e-41 -9.896809e-07 1.4238145e-12 -9.617006e-10 -1.3166765e-07
0.0029771065 -0.0009969545 -0.0025512837 -0.0015960458 -0.0029509033 -0.0007508558 -0.0026538502 -0.0008801978
0.004956208 0.0026292007 0.00014245453 -0.014899275 0.009667183 0.0050659413 -0.008798982 0.0055288556
0.00095104997 -0.008286996 0.31591558 0.30084902 0.2343211 0.301321 -0.013821323 0.35333326
0.28609952 0.074128464 0.053118207 0.21703303 -0.22877797 0.13133793 0.06916589 -0.23430696
-0.15728348 0.26094446 0.05494069 0.1378793 0.3385355 0.108400926 0.19632319 0.28390476
0.21341442 0.10578711 0.29388058 0.19138372 -0.06442335 -0.0006293538 0.02569064 0.04659884
0.10705989 -0.14368238 0.19998746 -0.12110013 0.03279093 0.3708621 -4.7888044e-08 -5.8186845e-12
3.6979315e-15 4.5912e-41 1.0164432e-09 2.018e-42 6.012781e-11 -4.1168008e-38 1.0480755e-16 -0.08278407
0.1669034 -0.16505821 0.126278 0.22589204 0.21607442 -0.16411029 -0.0675561 -0.06749028
0.1146008 0.2692876 0.35343945 0.13227947 0.06999952 0.13035591 -0.18291244 -0.052268703
-0.17495227 1.9980293e-11 4.5925e-41 -4.0006e-41 -3.688e-41 2.2960218e-29 3.464e-42 1.7169361e-27
-6.5071386e-26 1.4471565e-08 1.7748657e-10 -7.101621e-07 2.6351544e-11 3.2062308e-11 -8.236224e-07 2.8601784e-07
5.823317e-11 1.4249624e-08 -9.9328474e-08 5.0038e-41 -1.2789234e-35 -7.5097e-41 5.153161e-10 5.0819757e-09
3.4818786e-36 5.7835483e-09 1.13137055e-08 2.9468e-41 -0.039291676 0.26116666 -0.20978184 -0.32175002
-0.014843499 0.06337115 -0.27492246 -0.25938448 -0.2826867 -7.565e-41 5.264e-41 -9.954589e-07
-2.3810266e-16 3.411767e-20 4.6715655e-07 5.1386e-41 -6.0150105e-18 -6.5867905e-38 -0.052571785 -0.142906
0.11888134 -0.10761653 -0.13693617 0.023563731 -0.03960626 -0.1301253 -0.0062559214 -5.874e-41
7.613e-42 1.4191e-41 2.2997e-41 -6.684741e-12 6.7157e-41 -6.9694177e-22 5.9146e-41 1.68767e-40
-6.75e-41 5.7215e-41 1.2152324e-17 -4.4666e-41 -1.2600404e-27 -5.5664e-41 4.4871e-41 5.7237e-41
2.7842e-41 -1.0886984e-06 4.2265e-41 3.6934e-41 -4.7000917e-08 1.8267e-41 -9.753707e-07 -5.814526e-21
-6.7248e-41 2.0383462e-34 -5.9013e-41 -1.993412e-12 5.2668177e-08 -2.6820941e-11 -1.92045e-34 5.359e-42
-1.9036388e-07 5.642e-41 5.164e-42 0.30821759 -0.031184437 0.019760028 0.0118896905 0.11258718
0.088022545 0.029433949 -0.044565655 -0.001738712 0.0005726788 0.00021545641 0.0001388959 -0.00010084076
00000000: 4342 64bd b1a3 53bd b07e 41bd 73dc fcbc
00000010: 5479 01bd 1f9b b7bc a0b8 f0bc c688 fabc
00000020: 622e d0bc 2b48 3324 7d5c 31a0 f3c1 b685
00000030: 1660 b4b0 c3e5 0000 bf91 bf17 7539 0000
00000040: ce4c 0000 dba8 c233 195d 7a1f 3009 de18
00000050: a8ce 53b2 c34a 9435 46e1 4233 ef0a b28e
00000060: 1c33 bba7 a8ae 0000 a267 0080 3944 99be
00000070: 1895 90be 5d78 b2bd 3f98 b1bd 2fdc 243e
00000080: a3d2 963e fbf0 8b3e 9204 41bc 2515 e53e
00000090: 668b 1139 3c0e 3bba 611b 94b7 b6b7 4c39
000000a0: 0eee 45b9 1280 6cb9 9541 5238 287d 2cb8
000000b0: c6f1 bfb9 102b 19bd 5087 573d e0f9 94bd
000000c0: f064 973d ba0d 603e 5031 58bd fed0 29bd
000000d0: 09cf a43b f63a 3bbe fc7f c63d c694 deba
000000e0: 5c8f 68be 70c0 603d 3ca3 2a3e 6afb c1bd
000000f0: a2a2 32bd 1470 79bb 4041 a1be 8e2b ff31
00000100: 6a35 762d 8ba2 b2a7 1f47 f12e 7820 0000
00000110: 2dd5 84b5 5362 c82b d52c 84b0 8760 0db4
00000120: 8f1b 433b 3eac 82ba 7033 27bb 6932 d1ba
00000130: f163 41bb 14d5 44ba 38ec 2dbb 13bd 66ba
00000140: b067 a23b ab4e 2c3b d95f 1539 171c 74bc
00000150: 1b63 1e3c 3200 a63b 9b29 10bc 672b b53b
00000160: e24f 793a 2ec6 07bc b0bf a13e e208 9a3e
00000170: dff1 6f3e bf46 9a3e d572 62bc 19e8 b43e
00000180: a37b 923e aad0 973d 7a92 593d e83d 5e3e
00000190: c644 6abe 737d 063e d9a6 8d3d 2aee 6fbe
000001a0: ec0e 21be 839a 853e 7d09 613d 3b30 0d3e
000001b0: 8654 ad3e 4e01 de3d f208 493e f75b 913e
000001c0: 4f89 5a3e eaa6 d83d 8477 963e 18fa 433e
000001d0: 64f0 83bd 38fb 24ba 2d75 d23c 6dde 3e3d
000001e0: 3742 db3d 7921 13be 83c9 4c3e 5803 f8bd
000001f0: c84f 063d a3e1 bd3e 76ad 4db3 0dba ccac
00000200: 663b 8527 fc7f 0000 eab2 8b30 a005 0000
00000210: f338 842e d423 6081 75ab f124 b28a a9bd
00000220: bae8 2a3e 0505 29be 054f 013e 3e50 673e
00000230: 9d42 5d3e 870c 28be da5a 8abd 5838 8abd
00000240: d3b3 ea3d 10e0 893e 04f6 b43e 4574 073e
00000250: e95b 8f3d 057c 053e 664d 3bbe b517 56bd
00000260: b026 33be 9fbf af2d 0580 0000 856f 0080
00000270: ce66 0080 22d8 e80f a809 0000 9a07 0813
00000280: e41b a195 9e9e 7832 0726 432f f8a1 3eb5
00000290: 67ca e72d f302 0d2e e616 5db5 fe8d 9934
000002a0: 5c0e 802e 82ce 7432 684e d5b3 7c8b 0000
000002b0: 9bff 8785 57d1 0080 26a6 0d30 889d ae31
000002c0: 4d1a 9404 a1b8 c631 345e 4232 2552 0000
000002d0: 4ff0 20bd a3b7 853e 0dd1 56be 6bbc a4be
000002e0: 2632 73bc bcc8 813d a3c2 8cbe 0bce 84be
000002f0: 50bc 90be e2d2 0080 bd92 0000 b59b 85b5
00000300: c041 89a5 bb1d 211f 82cd fa34 3e8f 0000
00000310: 2bea dda2 3b4f b381 8355 57bd f355 12be
00000320: 0f78 f33d 0e66 dcbd ff38 0cbe ba08 c13c
00000330: 2c3a 22bd 913f 05be 79fe ccbb bea3 0080
00000340: 3915 0000 8f27 0000 1b40 0000 cb32 ebac
00000350: 35bb 0000 42a3 529c e0a4 0000 74d6 0100
00000360: 2abc 0080 7e9f 0000 ba2b 6023 837c 0080
00000370: 50a9 c792 2b9b 0080 157d 0000 8e9f 0000
00000380: 9d4d 0000 641f 92b5 d175 0000 f566 0000
00000390: 0ede 49b3 ec32 0000 7be9 82b5 a5aa db9d
000003a0: 76bb 0080 aa78 8707 81a4 0080 1e46 0cac
000003b0: 4635 6233 64eb ebad 8745 7f87 f00e 0000
000003c0: d366 4cb4 479d 0000 650e 0000 b2ce 9d3e
000003d0: 8176 ffbc c8df a13c facc 423c 1c94 e63d
000003e0: 2a45 b43d 771f f13c 7a8a 36bd 7ee5 e3ba
000003f0: d31f 163a 24ec 6139 96a4 1139 797a d3b8

e_conv2.depth_conv.bias f4 [32]
0.10386096 -0.15860286 0.022035131 -0.052810322 -0.20297411 0.22005439 0.010129075 0.15903544
0.29036313 -0.2599016 0.007468057 -0.087189935 -0.23312029 -0.05381355 0.17104718 0.22336666
0.19891664 -0.046789687 -1.6275344e-09 0.19142735 0.27362725 0.20049888 -0.122663595 0.2337938
-0.09767044 -0.04189107 0.09475721 -0.24079968 -0.12198644 -0.18067135 -0.0807244 0.30359957
00000000: 0eb5 d43d ca68 22be 0583 b43c a34f 58bd
00000010: 72d8 4fbe f055 613e 6bf4 253c 30da 223e
00000020: 7aaa 943e d311 85be 9ab6 f43b a390 b2bd
00000030: 16b7 6ebe 996b 5cbd fe26 2f3e 3bba 643e
00000040: ceb0 4b3e 8ba6 3fbd c7af dfb0 8805 443e
00000050: df18 8c3e 944f 4d3e 0d37 fbbd a467 6f3e
00000060: 7107 c8bd f895 2bbd 1110 c23d 3194 76be
00000070: 07d4 f9bd e901 39be d652 a5bd 6771 9b3e

e_conv2.point_conv.weight f4 [32, 32, 1, 1]
-0.024427148 -0.024989948 -0.0033004906 0.116626516 0.011972202 -0.057650086 0.039424736 -0.031454593
-0.06255255 0.0061213877 0.056060445 0.12460334 0.12879856 0.013998246 -0.008805402 -0.11147357
0.05174206 0.0009462252 4.426766e-09 -0.061914388 0.21477352 0.038779803 0.059061937 -0.06951499
-0.008749679 0.0067309123 -0.01964585 0.051233023 0.025223924 0.03207039 -0.15500487 -0.09093608
0.06903866 -0.11452064 0.014561915 -0.20306861 0.035821896 0.13089508 0.01963842 0.021512631
0.09773835 -0.10331561 0.26328167 -0.020606887 0.18920997 0.05254999 -0.025043232 0.16474435
0.089005716 -0.016592484 2.9671046e-09 -0.023207584 0.10942988 0.055629697 0.05003652 0.13678731
-0.011323308 -0.024314813 -0.047405664 0.11197513 -0.13139293 -0.02946836 -0.2275031 0.13327515
-0.00097608677 0.006217494 -0.001847236 0.30160192 0.023177646 0.036339484 0.039260652 -0.020876389
-0.05628667 -0.05652205 -0.13828394 0.031919423 -0.23815358 0.043782055 -0.038275886 0.024194632
0.0924525 -0.007196872 2.3018261e-10 0.02114968 -0.09186142 0.006188926 -0.0066004614 0.08216948
-0.0036178222 0.002604856 0.021851987 -0.15210673 -0.016379535 -0.0507239 0.08055076 -0.03211124
-1.8281e-41 7.3781e-41 -1.64804e-40 -3.4857595e-35 5.2863e-41 2.993e-41 -2.6667e-41 1.2134e-40
-6.3777763e-24 1.677e-42 7.434e-42 2.6643e-41 6.883656e-38 3.6319e-41 2.7685e-41 -3.970126e-28
-1.0904e-41 -2.5286e-41 3.6083e-41 -1.75769e-40 -1.48942e-29 -7.0924e-41 -5.5867e-41 -1.128e-42
-6.4548e-41 -4.28e-41 5.8168e-41 6.2379e-41 -4.473e-41 2.4397e-41 1.563e-41 -2.8402e-41
0.0079413 0.021825781 0.0038607696 -0.08161775 0.041813843 0.11221495 -0.16171417 8.438647e-05
-0.029405147 -0.03672632 -0.10538697 -0.03232086 -0.082586594 -0.053836673 0.016479407 0.16974774
-0.007559063 -0.014072482 8.134712e-10 0.046966255 -0.0023231516 -0.018611228 -0.0066950666 -0.031727515
-0.025171459 -0.008736196 0.02251713 0.015062299 -0.015058762 -0.04357365 0.046623874 -0.052544262
0.016555622 -0.019405479 0.0024625966 -0.1739384 -0.023611365 0.031008398 0.08526622 0.019777045
0.02770467 -0.027355926 0.13111365 -0.037648957 0.1114579 -0.02922963 0.02101739 0.026978953
-0.0130861765 -0.0065211635 1.3132255e-11 0.015718753 0.09475495 0.025250636 -0.02945828 0.019971095
-0.012917376 -0.0055906763 0.013444293 0.055862237 -0.015229514 -0.021660876 -0.0009768064 0.1389548
0.003759245 0.023979533 0.00060608156 0.2114638 -0.026148383 -0.18895002 0.18775816 0.014143079
0.0016923295 -0.04581865 0.38676143 0.23933691 0.17476925 0.24932015 0.018681917 -0.09117286
0.15189378 -0.001721089 8.0139584e-10 0.036905125 -0.056480084 0.029739216 0.045451254 0.016144313
0.0029082596 -0.0018099555 0.016816324 0.06919319 -0.0055406955 0.02058356 -0.17012388 0.16440764
7.319255e-19 -8.1859065e-19 4.1098834e-20 7.6018034e-20 -5.6220855e-19 1.0062155e-18 -7.956952e-20 9.749344e-19
-1.8557952e-18 9.198186e-19 -9.385327e-14 -4.1437664e-19 -6.666835e-19 -6.9992947e-19 -1.1555055e-18 2.8462485e-18
-5.202178e-19 3.7498051e-19 1.1907004e-25 6.549073e-19 2.5366192e-18 -3.6613014e-13 4.4827895e-19 -5.325027e-13
3.421886e-14 6.2555125e-16 -1.8417391e-13 -1.3045367e-19 -3.241285e-20 -2.1504792e-17 1.3719767e-13 2.1614053e-15
00000000: 711b c8bc b8b7 ccbc 0b4d 58bb e2d9 ee3d
00000010: 0e27 443c 7f22 6cbd d57b 213d 88d6 00bd
00000020: 8d1b 80bd ec95 c83b a39f 653d 0930 ff3d
00000030: c5e3 033e e658 653c 8844 10bc 414c e4bd
00000040: 7bef 533d 190c 783a 3f1a 9831 f199 7dbd
00000050: 97ed 5b3e 92d7 1e3d eeea 713d e05d 8ebd
00000060: d05a 0fbc fc8e dc3b 55f0 a0bc b8d9 513d
00000070: 67a2 ce3c 3e5c 033d 99b9 1ebe b23c babd
00000080: 2464 8d3d cc89 eabd 1995 6e3c 38f1 4fbe
00000090: fbb9 123d 5c09 063e c0e0 a03c 423b b03c
000000a0: 0b2b c83d 2297 d3bd dbcc 863e c6cf a8bc
000000b0: 42c0 413e a93e 573d 7727 cdbc beb2 283e
000000c0: a148 b63d f6ec 87bc dbe5 4b31 d51d bebc
000000d0: c61c e03d f7db 633d 18f3 4c3d f911 0c3e
000000e0: 6585 39bc dc2f c7bc 712c 42bd 3853 e53d
000000f0: de8b 06be a167 f1bc 93f6 68be 4879 083e
00000100: 13e0 7fba 1fbc cb3b f41e f2ba 916b 9a3e
00000110: 0cdf bd3c b6d8 143d c7cf 203d f604 abbc
00000120: da8c 66bd aa83 67bd 4e9a 0dbe f1bd 023d
00000130: 88de 73be d054 333d 2dc7 1cbd d233 c63c
00000140: bc57 bd3d bdd3 ebbb a516 7d2f 1842 ad3c
00000150: d721 bcbd 79cc ca3b af48 d8bb 7948 a83d
00000160: fc18 6dbb 3bb6 2a3b f002 b33c dec1 1bbe
00000170: 602e 86bc ddc3 4fbd ccf7 a43d 1387 03bd
00000180: f632 0080 accd 0000 68cb 0180 b355 3986
00000190: 5c93 0000 6f53 0000 564a 0080 3f52 0100
000001a0: 70ba f698 ad04 0000 b914 0000 454a 0000
000001b0: 1564 bb01 3e65 0000 2d4d 0000 faa2 fb91
000001c0: 651e 0080 7d46 0080 9664 0000 f9e9 0180
000001d0: 8e0b 978f b5c5 0080 bc9b 0080 2503 0080
000001e0: efb3 0080 4f77 0080 26a2 0000 e3ad 0000
000001f0: b07c 0080 0244 0000 922b 0000 2c4f 0080
00000200: 3a1c 023c fbcb b23c f704 7d3b 3527 a7bd
00000210: fe44 2b3d f4d0 e53d 6698 25be a4f8 b038
00000220: 10e3 f0bc 566e 16bd 20d5 d7bd e162 04bd
00000230: 2923 a9bd d883 5cbd d2ff 863c 5ad2 2d3e
00000240: 04b2 f7bb 4490 66bc f29a 5f30 b05f 403d
00000250: 0440 18bb 9376 98bc 4a62 dbbb b6f4 01bd
00000260: 6034 cebc 4322 0fbc d875 b83c dcc7 763c
00000270: 07b9 76bc 497a 32bd adf8 3e3d a738 57bd
00000280: a89f 873c 3df8 9ebc 8463 213b e81c 32be
00000290: 9f6c c1bc 5305 fe3c 0ea0 ae3d 7803 a23c
000002a0: e7f4 e23c 8919 e0bc a842 063e cb35 1abd
000002b0: 0a44 e43d fa72 efbc a92c ac3c f702 dd3c
000002c0: 6767 56bc 7caf d5bb 6b06 672d 9dc4 803c
000002d0: e20e c23d 6cda ce3c 7e52 f1bc 6c9a a33c
000002e0: 67a3 53bc fe31 b7bb 7445 5c3c cdcf 643d
000002f0: 3685 79bc 2672 b1bc 2f08 80ba 2b4a 0e3e
00000300: aa5d 763b ba70 c43c 72e1 1e3a f789 583e
00000310: 2235 d6bc 1d7c 41be ad43 403e 5fb8 673c
00000320: 28d1 dd3a 56ac 3bbd 9805 c63e bc14 753e
00000330: b6f6 323e c84d 7f3e d20a 993c d6b8 babd
00000340: 0b8a 1b3e 2a96 e1ba 3849 5c30 d429 173d
00000350: a957 67bd a89f f33c 182b 3a3d 1441 843c
00000360: 8098 3e3b 073c edba 63c2 893c 29b5 8d3d
00000370: b98e b5bb db9e a83c f434 2ebe 7a5a 283e
00000380: ba06 5821 f69a 71a1 7115 421f 157e b31f
00000390: 47ef 25a1 bf7d 9421 d3e0 bb9f fbdf 8f21
000003a0: fbee 08a2 c4bd 8721 ba56 d3a9 d49a f4a0
000003b0: 2ec5 44a1 2d95 4ea1 c385 aaa1 1d04 5222
000003c0: 8c8a 19a1 7459 dd20 cd66 1316 664b 4121
000003d0: 622b 3b22 ea1c ceaa 004f 0421 dde2 15ab
000003e0: a91b 1a29 894d 3426 845c 4faa 3403 1aa0
000003f0: bb10 199f c158 c6a3 8978 1a2a e4be 1b27

e_conv2.point_conv.bias f4 [32]
0.097781464 0.060464334 0.09777284 -4.8894e-41 0.15707998 0.07460656 -0.007919916 -1.1077065e-18
0.053102855 0.12607805 0.0010579409 -0.04403777 0.008431465 0.19139543 0.06927379 6.263e-41
1.933e-41 0.023123102 0.03369954 3.2862e-41 -0.07216126 -0.0082145035 0.026370173 -0.006169478
0.0497868 -0.02123145 0.04537493 -0.10863494 -7.29e-41 0.015713824 0.055045318 0.099772036
00000000: a641 c83d 73a9 773d 203d c83d 4c88 0080
00000010: 93d9 203e 53cb 983d 89c2 01bc f877 a3a1
00000020: 6182 593d 9b1a 013e 9baa 8a3a f360 34bd
00000030: 2124 0a3c 2afd 433e 6bdf 8d3d 96ae 0000
00000040: e235 0000 a96c bd3c 8708 0a3d 9b5b 0000
00000050: 48c9 93bd 2096 06bc 4306 d83c 5529 cabb
00000060: 3eed 4b3d 94ed adbc 10db 393d ff7b debd
00000070: 37cb 0080 47ba 803c 3377 613d 4855 cc3d

e_conv3.depth_conv.weight f4 [32, 1, 3, 3]
9.389176e-20 1.4767791e-10 4.4147447e-13 2.835956e-07 5.8505134e-20 1.2864969e-10 1.8090287e-19 9.649215e-20
7.148812e-20 -1.6644653e-12 -1.0096753e-15 -1.6951998e-19 -2.525031e-19 -3.0676867e-19 9.98266e-08 -2.0222559e-19
-5.9680326e-19 -7.698145e-17 -4.0775325e-10 8.203182e-19 -1.1003902e-18 3.513585e-19 8.202634e-19 -8.2411526e-20
-1.1406358e-06 -7.2718664e-10 1.336823e-11 6.8068e-41 4.76392e-16 1.2557053e-13 1.1520947e-08 3.5953448e-08
1.3048883e-06 6.067548e-18 5.513896e-39 -1.2207664e-06 3.0798005e-20 2.1658398e-12 3.0763555e-19 -4.0352205e-07
-4.560046e-19 6.1110165e-07 2.7608298e-17 -4.6228333e-19 2.733678e-19 3.5210602e-19 5.507036e-19 1.0657123e-19
-4.116742e-08 4.436406e-19 5.1247194e-19 6.60368e-07 2.3425918e-19 -5.6748343e-19 -9.54242e-19 -4.621913e-19
-8.846185e-19 -3.6016274e-07 6.654613e-19 -5.478468e-19 2.2109845e-18 -9.941537e-19 1.919414e-19 -7.0837803e-37
-8.672955e-13 9.281516e-24 7.9116376e-08 1.2591348e-13 1.958882e-09 -3.244633e-37 1.1611178e-37 4.296098e-15
-4.7533917e-18 1.4929672e-06 -3.9241262e-18 -4.1040343e-13 6.4219665e-09 -9.603221e-18 -5.41921e-18 -3.0039786e-18
-5.452977e-18 -1.4828141e-18 -9.1184155e-08 1.1436728e-06 -4.9576067e-19 -8.797296e-19 3.7232915e-09 1.9180633e-17
8.307225e-09 1.1018996e-08 9.164974e-22 -2.3526304e-22 7.9929896e-22 7.020011e-08 1.0946675e-21 -2.4609426e-17
-2.565325e-09 9.27446e-22 -6.69874e-08 -3.0716895e-25 -9.1937554e-26 -7.844912e-26 -1.1357514e-25 -7.247661e-26
1.5642017e-21 -5.695665e-26 -3.081148e-26 4.6084112e-11 7.379306e-19 -1.4891624e-18 -1.3705929e-18 -1.2746343e-10
1.3056323e-18 -1.4169044e-06 2.3571413e-18 4.2234395e-18 2.6777418e-18 -3.3821212e-15 -2.2445418e-15 3.0995387e-11
1.4837588e-10 -1.2279806e-15 -1.000464e-15 -2.5618466e-16 -5.170314e-16 -2.8510682e-15 4.8996255e-19 -4.4129836e-10
-1.3927749e-15 1.2549248e-07 1.785615e-19 3.1806922e-19 3.7636746e-19 4.09621e-19 -4.1090988e-11 8.89586e-10
-1.8283e-41 6.521053e-12 -3.155333e-39 -1.5476e-41 -9.573994e-10 -9.4518e-41 -1.7898951e-07 5.9585147e-08
-8.4452614e-20 -1.7730451e-06 4.888787e-08 -1.061269e-25 3.2140814e-21 1.2647745e-07 -5.032856e-23 -3.3426914e-10
-1.3706798e-13 -6.6265726e-21 -9.591879e-21 -1.4242517e-20 2.5102102e-21 -5.795005e-10 -2.3190104e-20 -1.6158682e-21
-5.8697156e-21 -3.008944e-08 1.0671506e-12 -2.8696013e-20 9.867526e-19 -1.5854197e-19 1.222402e-07 3.7649423e-19
-1.9549696e-19 -3.2087712e-17 -1.6372587e-19 7.6015e-41 5.4191e-41 -5.9796e-41 7.6312e-41 6.3833e-41
-5.0355465e-07 -2.848e-41 2.940655e-38 -5.544688e-18 -8.8574696e-16 9.561658e-18 9.83055e-18 6.897073e-18
5.3957413e-18 -5.972144e-12 7.5023e-12 -1.590362e-06 2.4407333e-15 -2.2515305e-14 7.645143e-15 2.3571738e-25
2.888146e-26 1.1299995e-25 6.3755147e-26 2.791808e-26 1.784778e-13 8.2371765e-26 -2.212816e-18 -9.524945e-10
7.617351e-20 4.4675834e-12 5.1128083e-18 -1.697307e-08 4.623865e-18 9.7509364e-08 -1.0797358e-11 -9.419058e-09
-1.223283e-13 1.7547538e-16 1.2374327e-06 9.491608e-19 2.7317053e-09 2.6215357e-19 5.603181e-19 5.288142e-19
1.305098e-19 -1.2618706e-08 9.102849e-08 1.5820478e-19 -1.5826318e-08 9.1524336e-20 3.0979522e-19 2.2444163e-19
-2.7592998e-15 -1.8114606e-20 4.9911346e-18 -2.1021596e-12 3.1229107e-21 -3.7966362e-21 2.7814371e-08 -4.8300514e-21
-1.7514286e-15 -9.58028e-21 -4.9717313e-20 -7.14152e-20 -8.467793e-20 -4.8261223e-20 -5.3960688e-20 -7.204662e-20
-2.6047957e-13 -1.8066308e-20 -2.0057743e-07 -1.1340184e-09 -4.163456e-19 -3.6176023e-19 -5.7138283e-10 -9.380575e-13
5.270786e-07 -4.0593827e-19 -5.562237e-19 -2.6168001e-07 2.9998532e-07 2.688e-42 -9.222047e-13 -8.3132893e-13
00000000: 16b2 dd1f a35f 222f 2d87 f82a 1541 9834
00000010: 2f24 8a1f ab73 0d2f 8a92 5520 edd5 e31f
00000020: ebcb a81f af40 eaab 7282 91a6 4522 48a0
00000030: 310d 95a0 9215 b5a0 4160 d633 efbe 6ea0
00000040: 2e25 30a1 d481 b1a4 2b2a e0af 7e1d 7221
00000050: 9163 a2a1 cc67 cf20 5a19 7221 b696 c29f
00000060: f317 99b5 36e3 47b0 282d 6b2d bfbd 0000
00000070: 864f 0926 3e61 0d2a a9ed 4532 3c6b 1a33
00000080: 9f23 af35 5fda df22 800a 3c00 37d9 a3b5
00000090: 8170 111f 4d68 182c 9298 b520 a6a3 d8b4
000000a0: bc96 06a1 960a 2435 40a4 fe23 2471 08a1
000000b0: 2d5e a120 c2d8 cf20 fd89 2221 5ba2 fb1f
000000c0: 0fd0 30b3 89f0 0221 4941 1721 2544 3135
000000d0: 3f48 8a20 d67d 27a1 3ed2 8ca1 306a 08a1
000000e0: f18b 82a1 645c c1b4 d668 4421 22b2 21a1
000000f0: 5124 2322 11b6 92a1 bb9a 6220 6e0c 7183
00000100: 3a1f 74ab d787 3319 b0e6 a933 17c4 0d2a
00000110: 049d 0631 7bd1 dc82 0d0b 1e02 83c8 9a27
00000120: 845e afa2 f661 c835 53c6 90a2 5e09 e7aa
00000130: 37a8 dc31 ee25 31a3 feee c7a2 8da7 5da2
00000140: e92d c9a2 22d3 daa1 05d1 c3b3 4c80 9935
00000150: 9e52 12a1 3fd3 81a1 d6dc 7f31 fde8 b023
00000160: 90b7 0e32 0f4e 3d32 477f 8a1c 3135 8e9b
00000170: c392 711c ebc0 9633 e66b a51c 5dfb e2a3
00000180: ad49 30b1 d426 8c1c b6da 8fb3 dd20 be96
00000190: 59a0 e395 093b c295 6699 0c96 8271 b395
000001a0: 1f60 ec1c 9104 8d95 3192 1895 19ae 4a2e
000001b0: 76cc 5921 f7c2 dba1 8943 caa1 c425 0caf
000001c0: 65ad c021 772c beb5 24ed 2d22 42d1 9b22
000001d0: 1d95 4522 20b5 73a7 7dbc 21a7 b451 082e
000001e0: 1924 232f 7df8 b0a6 9b2e 90a6 2fae 93a5
000001f0: 2f06 15a6 ed70 4da7 869c 1021 399b f2af
00000200: 53b8 c8a6 1cbf 0634 e7ce 5220 43c1 bb20
00000210: 0b2b de20 2dcc f120 57b8 34ae 0d87 7430
00000220: f732 0080 6c70 e52c c95b 2280 242b 0080
00000230: 7f95 83b0 7a07 0180 4330 40b4 90ea 7f33
00000240: 7968 c79f 5ef9 edb5 c8f8 5133 f560 0396
00000250: 60d9 721d dbcd 0734 bd5f 739a 33c4 b7af
00000260: 2853 1aaa 4758 fa9d 7b2f 359e 4b84 869e
00000270: 87aa 3d1d b94a 1fb0 3b06 db9e e02e f49c
00000280: 68c0 dd9d b03b 01b3 2730 962b 5a83 079f
00000290: 769e 9121 5f2c 3ba0 2141 0334 333e de20
000002a0: 55cd 66a0 7cfa 13a4 1c4b 41a0 e6d3 0000
000002b0: 1097 0000 b0a6 0080 bad4 0000 f1b1 0000
000002c0: 032c 07b5 644f 0080 c01a 2001 1990 cca2
000002d0: 974c 7fa6 a761 3023 7657 3523 0375 fe22
000002e0: 5611 c722 4a20 d2ac 5bfb 032d 6c74 d5b5
000002f0: 95df 2f27 c2cc caa8 00b9 0928 e9e6 9116
00000300: 9a03 0f15 1de3 0b16 a0d9 9d15 5f3e 0a15
00000310: b9f2 482a 4ff1 cb15 ea46 23a2 ece8 82b0
00000320: 10dc b31f 6a30 9d2c 1ca1 bc22 2dcc 91b2
00000330: 2c97 aa22 5766 d133 faf2 3dad 75d1 21b2
00000340: bbba 09aa 314f 4a25 dd15 a635 4812 8c21
00000350: abb8 3b31 87bf 9a20 7060 2521 1214 1c21
00000360: 2b14 1a20 a8c9 58b2 717b c333 76c6 3a20
00000370: 71f2 87b2 111b d81f eede b620 a97c 8420
00000380: 19d4 46a7 6e16 ab9e ef23 b822 24ed 13ac
00000390: e1f5 6b1d d06e 8f9d 73ec ee32 6479 b69d
000003a0: 4f68 fca6 64f7 349e 8bc8 6a9f d79f a89f
000003b0: abf0 c79f 3de8 639f 78d2 7e9f 821d aa9f
000003c0: 10a3 92aa a7a1 aa9e 4e5e 57b4 badb 9bb0
000003d0: 5ec4 f5a0 a98b d5a0 7e0f 1db0 1505 84ab
000003e0: 917c 0d35 a89f efa0 132b 24a1 077d 8cb4
000003f0: ab0d a134 7e07 0000 edc9 81ab 90ff 69ab

e_conv3.depth_conv.bias f4 [32]
-1.6385815e-19 1.4478792e-13 5.7057587e-18 -1.1919339e-18 -2.2008508e-11 -4.049771e-19 1.7544038e-13 7.7958627e-25
-3.1361742e-17 -3.4651123e-18 8.6026065e-21 -2.3118299e-24 1.5063179e-17 -2.3396441e-15 -3.1665028e-08 -6.2854e-41
-2.2552e-41 4.5886478e-20 -1.0865064e-18 2.0278405e-21 2.0810337e-17 -2.244985e-25 7.0943463e-07 -3.205754e-07
-2.3249802e-07 2.93593e-20 6.445697e-12 -7.591693e-19 -1.5239286e-23 -1.921589e-20 4.2883395e-11 2.2160503e-12
00000000: 1673 41a0 4704 232a 5e81 d222 fde5 afa1
00000010: c196 c1ad 690e efa0 3f87 452a 3045 7117
00000020: 69a1 10a4 1fae 7fa2 a77f 221e 82de 3298
00000030: edee 8a23 d196 28a7 1100 08b3 36af 0080
00000040: de3e 0080 59b1 581f 0d57 a0a1 2438 191d
00000050: 05f1 bf23 35f5 8a96 fa6f 3e35 8c1b acb4
00000060: 92a4 79b4 37a5 0a1f adc9 e22c 3611 60a1
00000070: a562 9399 2c7d b59e 699a 3c2e d0f0 1b2c

e_conv3.point_conv.weight f4 [32, 32, 1, 1]
1.2737166e-21 4.6113784e-20 -5.379448e-21 -2.7150322e-30 3.7803637e-20 2.9808694e-20 -1.1006014e-19 -2.6891083e-37
1.752586e-18 1.35442e-19 -2.5850299e-21 -2.4894922e-26 -9.587786e-20 5.409922e-22 -7.880842e-20 4.7686e-41
-5.5414e-41 -5.625543e-22 4.1494624e-20 -5.7303226e-35 -4.3633333e-19 6.0968232e-27 -2.0686853e-19 -1.8388785e-19
6.1504045e-20 1.3809545e-21 -4.16272e-20 -6.1097764e-20 3.0904682e-36 4.5428427e-22 5.845324e-19 -8.877803e-20
3.5126e-41 1.92196e-40 -6.945091e-24 -1.0852633e-27 -2.08e-42 3.0303e-41 -1.619747e-25 7.1416274e-38
-4.9663e-41 -6.0087345e-34 5.5068e-41 -1.79e-41 4.73816e-30 1.677e-42 -9.0913e-41 -4.0626e-41
5.6534e-41 5.4412e-41 2.5736e-41 -6.8648e-41 -1.49866e-40 -1.7087052e-34 7.6107e-41 3.1979e-41
5.3946e-41 -5.4822e-41 3.04992e-39 3.1172e-41 -3.3948856e-30 -3.2544e-41 -7.3972e-41 -8.9808e-41
-3.1556445e-16 -4.547496e-16 3.470111e-15 9.959062e-26 -5.853971e-16 -8.6337793e-16 -5.238037e-16 -8.030891e-30
-1.0826106e-15 -2.8327734e-15 2.5124027e-18 -2.1122604e-21 8.209327e-15 -1.1359426e-18 4.3003127e-16 -4.2675e-41
-1.09335e-40 -1.8860858e-17 -5.7374084e-16 -2.3324913e-29 6.1360528e-15 1.5056898e-23 -8.464821e-15 4.886862e-15
2.113158e-15 -2.8177914e-17 2.5631076e-17 2.1376687e-15 -4.533867e-25 -6.3619214e-18 -3.993938e-14 5.8058103e-15
-2.461712e-30 2.4040609e-31 1.5471302e-29 -2.68e-41 1.0681338e-30 -6.0663066e-30 3.919815e-30 -1.9488487e-26
5.215579e-30 2.9221371e-30 3.8880625e-31 4.1694704e-36 -2.447085e-29 5.2747664e-33 -3.294945e-30 6.7e-44
2.6943e-41 7.6793177e-32 -9.777457e-30 -2.4929706e-30 -3.0478825e-29 -6.486863e-37 -1.529617e-29 -1.1836306e-29
-5.0870742e-30 -1.3634265e-31 -5.467667e-31 -2.3542947e-31 1.0578e-41 8.2851046e-35 -1.2643714e-28 -9.05218e-30
7.693924e-21 -9.631898e-21 1.6820685e-19 1.26154665e-30 -2.4944848e-20 -3.757548e-20 -3.1797866e-20 9.456177e-33
-3.6442734e-19 -2.6019305e-19 -6.0547707e-22 -6.1348815e-25 7.7335675e-19 -1.0243362e-22 3.3216135e-20 5.188e-42
-2.9405e-41 -2.1995243e-21 1.06425335e-19 -1.7343793e-33 3.7679416e-19 -1.8736807e-26 -2.8399217e-20 1.8059529e-19
1.2767502e-19 -6.4520315e-22 1.4109763e-20 -2.2995967e-20 -6.51377e-37 -9.380659e-23 -6.9856556e-19 2.4583875e-19
2.6460764e-13 5.3334676e-14 1.5177618e-12 7.8892244e-25 -2.8162572e-14 6.5338907e-13 -5.5434585e-13 3.8203965e-28
-7.330898e-13 -5.5312455e-13 -3.802172e-15 -1.8226683e-18 3.968871e-12 7.652842e-15 1.920785e-13 -4.6372e-41
-6.5945e-41 -6.6088916e-15 -3.1254011e-13 1.4626532e-23 3.6420373e-13 2.1177044e-19 7.8832784e-13 3.1790827e-13
-2.9536462e-14 -8.500793e-15 5.750984e-14 -6.649158e-14 2.617076e-29 2.6760386e-15 -1.527382e-12 -2.3721945e-12
4.968e-42 4.5839e-41 5.9408e-41 7.0476e-41 5.978e-42 -4.3698e-41 -3.3718e-41 2.2714886e-30
1.0381e-41 1.0543e-41 -8.6135e-41 -3.281167e-30 5.6001e-41 5.1236e-41 6.8756e-41 1.4619708e-28
9.7854e-41 -2.307e-42 -8.4572135e-30 6.232e-42 -6.9796e-41 7.297e-41 -8.36832e-28 -3.3958e-41
1.7206609e-33 3.068e-41 9.886e-42 8.5335e-41 8.2231e-41 5.332527e-25 -1.2082e-41 7.2887e-41
1.00456e-40 -6.6214e-41 2.1242e-41 8.9453e-41 4.5797e-41 -7.6549e-41 -9.3014e-41 6.2351e-41
-6.3912e-41 -2.831e-41 5.4299e-41 1.8511754e-29 -9.813645e-39 6.022175e-29 2.9568263e-26 -9.6188766e-30
6.887e-41 -4.48e-41 -9.3146e-41 -1.491889e-28 -5.99e-41 2.2648358e-28 4.6852e-41 6.2669e-41
3.0766325e-25 -5.968e-41 -1.404e-42 5.9543e-41 7.903e-42 -4.151e-41 -3.622e-42 2.77e-43
00000000: 867a c01c 25c4 591f d43a cb9d 0345 5c8e
00000010: cb85 321f 80c4 0c1f a3ef 01a0 e002 b782
00000020: 6a51 0122 d5e6 1f20 c051 439d 208c f694
00000030: 9c62 e29f 3e81 231c c414 ba9f ee84 0000
00000040: 799a 0080 8805 2a9c ecf3 431f 8e56 9886
00000050: 6ac8 00a1 2285 f113 2d3a 74a0 b118 59a0
00000060: ea38 911f 17af d01c 3294 449f 5543 909f
00000070: 3874 8304 8b4c 091c 0586 2c21 079f d19f
00000080: eb61 0000 c417 0200 6d56 0699 82f7 ab92
00000090: cc05 0080 7954 0000 d583 4896 e169 c201
000000a0: 718a 0080 a9ac 4788 8299 0000 e631 0080
000000b0: de33 c00e ad04 0000 6efd 0080 4071 0080
000000c0: 989d 0000 ae97 0000 be47 0000 5dbf 0080
000000d0: c4a1 0180 3a20 6387 28d4 0000 2559 0000
000000e0: 6196 0000 d298 0080 f035 2100 e556 0000
000000f0: 82b6 898e b85a 0080 34ce 0080 59fa 0080
00000100: 18e9 b5a5 9912 03a6 400c 7a27 0e93 f615
00000110: afba 28a6 0cda 78a6 e4f9 16a6 c5e2 228f
00000120: 4805 9ca6 721f 4ca7 f261 3922 0f99 1f9d
00000130: d7e2 1328 b3a2 a7a1 6ae5 f725 f676 0080
00000140: c830 0180 f1f5 ada3 9a5e 25a6 f08a ec8f
00000150: 1913 dd27 139f 9119 197d 18a8 5911 b027
00000160: e344 1827 9cf2 01a4 ab67 ec23 0709 1a27
00000170: ff50 0c97 a6b6 eaa2 f8de 33a9 262d d127
00000180: c2b7 478e 5008 9c0c cce5 9c0f b54a 0080
00000190: 8b50 ad0d 2114 f68e b001 9f0e 2f01 c194
000001a0: ab91 d30e 6a12 6d0e 8559 fc0c 8359 b104
000001b0: f529 f88f f01a db09 aaa8 858e 3000 0000
000001c0: 1b4b 0000 d25d c70b 764f 468f f940 4a8e
000001d0: c78b 1a90 8cbc 5c83 211f 9b8f 9d11 708f
000001e0: 335b ce8e 9efb 308c 9a6f 318d 6ecd 988c
000001f0: 7d1d 0000 8041 dc06 3347 2091 9b99 378f
00000200: 8955 111e 00f1 359e 6795 4620 99b2 cc0d
00000210: f198 eb9e f871 319f 4329 169f a965 440a
00000220: b41e d7a0 4397 99a0 85fe 369c 8add 3d97
00000230: 2f41 6421 57ab f79a d8db 1c1f 760e 0000
00000240: f851 0080 fd30 269d 2b4a fb1f 2b16 1089
00000250: 866b de20 738f b994 8c1c 069f 9435 5520
00000260: 68bb 1620 2d00 439c 5043 851e d630 d99e
00000270: f1a6 5d83 78cf e29a 1f2e 4ea1 1a1e 9120
00000280: fbf5 942a b232 7029 229b d52b e028 7417
00000290: 78aa fda8 a5e9 372b d408 1cab 7a25 f211
000002a0: b058 4eab d3b0 1bab d9fc 88a7 3b7d 06a2
000002b0: 69a4 8b2c 81dc 0928 dc42 582a 4481 0080
000002c0: d4b7 0080 441c eea7 c7f1 afaa 8a75 8d19
000002d0: 4a07 cd2a b003 7a20 02e5 5d2b 69f7 b22a
000002e0: 3905 05a9 fd22 19a8 2a80 8129 c9b9 95a9
000002f0: 97b3 0410 33d4 4027 bcf5 d6ab a8ed 26ac
00000300: d90d 0000 c87f 0000 9ba5 0000 75c4 0000
00000310: aa10 0000 d079 0080 fe5d 0080 f948 380e
00000320: f01c 0000 641d 0000 1cf0 0080 9619 858e
00000330: 1c9c 0000 d38e 0000 aabf 0000 aa53 3911
00000340: c710 0100 6e06 0080 5d88 2b8f 5f11 0000
00000350: 90c2 0080 69cb 0000 f099 8492 a95e 0080
00000360: 69f2 0e09 8655 0000 8f1b 0000 e1ed 0000
00000370: 3ae5 0000 a208 2517 ae21 0080 2ecb 0000
00000380: 0818 0100 94b8 0080 373b 0000 5cf9 0000
00000390: aa7f 0000 63d5 0080 4903 0180 cfad 0000
000003a0: 29b2 0080 eb4e 0080 5d97 0000 43bb bb0f
000003b0: 73dc 6a80 27ae 9810 3a6a 1215 1018 438f
000003c0: fbbf 0000 e27c 0080 a703 0180 911e 3d91
000003d0: faa6 0080 108d 8f11 9b82 0000 b2ae 0000
000003e0: 306f be16 5da6 0080 ea03 0080 fba5 0000
000003f0: 0816 0000 b773 0080 190a 0080 c600 0000

e_conv3.point_conv.bias f4 [32]
1.182313e-12 -2.2963598e-27 -1.5949805e-09 3.2446126e-16 -6.3267436e-13 0.00010554262 -4.0744e-41 -7.3663e-41
-8.645455e-15 5.8068736e-07 -9.982232e-09 8.691815e-11 1.5969408e-06 5.5929e-41 -1.570776e-11 -1.8286814e-10
2.199e-41 -8.411255e-39 8.6449465e-18 -1.18886404e-20 0.00028042815 -1.5716964e-31 -2.0462661e-34 -1.196375e-11
-3.3051075e-09 6.4945e-41 1.9868036e-13 4.3440332e-14 -5.294431e-27 3.0296217e-08 -8.4995135e-14 6.1703e-41
00000000: 5165 a62b b6ef 3593 6336 dbb0 080a bb25
00000010: fe14 32ab c356 dd38 9471 0080 58cd 0080
00000020: 20be 1ba8 88e0 1b35 527e 2bb2 9222 bf2e
00000030: 7856 d635 e89b 0000 bb2a 8aad ce10 49af
00000040: 4d3d 0000 2897 5b80 9b78 1f23 f091 609e
00000050: 6e06 9339 9204 4c8c 6aff 8787 f177 52ad
00000060: 1120 63b1 0ab5 0000 b7b1 5f2a 4ba3 4329
00000070: e9bb d193 0b1f 0233 5c64 bfa9 01ac 0000

e_conv4.depth_conv.weight f4 [32, 1, 3, 3]
1.1499894e-08 3.3554398e-30 1.994772e-08 -7.5376897e-28 1.222895e-07 9.382072e-32 -2.3442003e-15 -1.601389e-17
2.4599933e-30 -6.076e-41 -6.5704e-41 -3.0115e-41 -6.2356e-41 6.9276e-41 4.888043e-20 1.0745449e-09
6.649e-42 7.5275e-41 7.9693446e-11 7.3390495e-12 -2.5330496e-21 -1.381772e-21 -1.6744709e-21 6.7143895e-09
9.256881e-22 -6.3108075e-22 -3.548223e-07 3.745239e-16 -8.831185e-18 -6.3795507e-09 -3.2213e-41 1.5816895e-14
-2.2452628e-16 -6.6242e-41 7.2038e-41 -1.2800109e-12 9.071839e-15 2.0463e-41 2.9244e-41 1.5496e-41
6.6840233e-16 1.0661154e-12 6.6375e-41 2.7974252e-08 -1.03665e-40 7.329266e-13 6.692766e-20 -4.376708e-17
6.772085e-20 1.9010488e-19 7.658419e-20 -8.909103e-21 -4.554269e-20 1.2891051e-19 3.9740415e-09 -8.2712e-41
1.4993983e-09 5.5539e-41 5.4104e-41 1.6306118e-06 1.7515e-41 -4.106768e-28 2.8755e-41 -2.850352e-39
-6.5184e-41 7.1297e-41 -5.414245e-07 3.3097618e-15 3.8645e-41 -9.368303e-17 -1.8756721e-19 -8.6752e-41
-7.9133e-41 3.2768e-41 -6.3015e-41 4.947596e-07 -1.3349e-41 6.8082e-41 -7.9318955e-29 -4.5786e-41
-2.1613397e-07 -1.7019195e-15 -8.5836184e-15 -1.8996772e-13 2.7671335e-28 -7.83785e-07 3.739448e-09 3.4620028e-13
2.7188575e-28 6.016959e-28 -3.4140723e-07 -1.2088668e-24 1.0781199e-22 -5.567198e-24 -5.3249756e-24 2.1766987e-22
-1.4627516e-23 5.444888e-13 4.760392e-09 -1.0884098e-33 -1.2512072e-06 6.505175e-30 -1.7678491e-33 -1.9871317e-33
7.713583e-15 -6.408712e-33 -3.6505823e-20 4.609105e-25 7.910057e-28 -1.6226243e-08 1.5146717e-19 2.1245487e-10
-2.673239e-07 -8.988146e-22 1.2631471e-09 1.0429312e-27 -1.01148916e-10 5.7415375e-09 -5.2571e-41 -3.348733e-10
1.7570619e-07 -4.0337034e-30 2.9097536e-19 3.310421e-07 7.5196677e-10 5.5466e-41 -1.0478e-41 1.6990272e-08
7.879448e-12 -4.6241e-41 -2.5061e-41 6.7349e-41 1.2951945e-10 -6.9911e-41 -6.6214e-41 -6.486672e-07
3.874165e-36 -8.7170683e-26 1.1875949e-08 -1.7877648e-14 -3.5743975e-36 1.3482915e-12 6.1066774e-10 -3.3440963e-17
-3.3246096e-07 7.9412415e-26 -5.7514896e-12 -5.3620258e-11 -3.1577e-41 -6.4739e-41 -1.1646e-41 1.545119e-21
2.4098e-41 -2.1940868e-11 -3.7412e-41 9.522491e-11 1.3127262e-13 6.5808e-41 -5.8573e-41 4.8058e-41
5.1112625e-08 3.1859e-41 1.886e-41 7.8092475e-09 1.9278e-41 -9.167e-42 -3.6885e-41 1.16306715e-08
-4.8761e-41 -1.1810018e-32 7.0885e-41 -6.2166395e-16 9.612489e-11 2.9126916e-11 -5.0643e-41 -7.544e-41
-5.939e-41 2.1607e-41 6.0189e-41 -1.724064e-16 -3.837803e-08 -1.1746219e-23 -2.0924795e-09 1.3669044e-23
-2.1020821e-07 -3.2488795e-23 -8.396803e-09 4.079514e-10 1.529053e-23 -6.5752e-41 1.4593e-41 -5.7027673e-08
-4.1451987e-26 2.5727931e-36 1.0507562e-12 6.6113e-41 6.7505e-41 -6.8365e-41 -3.007964e-12 -1.0818457e-21
-5.6024e-41 -6.2145e-41 -7.1287e-41 3.338899e-16 4.5406787e-26 -1.7209561e-15 4.34e-43 1.0814856e-11
4.2347007e-18 6.825855e-11 6.5865e-41 2.9982e-41 -5.101144e-10 -1.2984505e-35 -4.0492068e-14 -2.2722e-41
-1.780779e-29 -2.870951e-29 -2.2009383e-29 1.6664693e-19 -1.273966e-06 3.0851127e-10 1.220559e-23 4.685648e-29
-2.7195894e-29 -4.043397e-12 -1.1273561e-29 -7.0555e-41 4.3955e-41 6.9533484e-17 -6.1046e-41 4.7728533e-11
1.8368856e-35 5.119e-42 -4.568341e-10 4.0478327e-09 4.4427073e-13 -1.9336945e-23 -9.609297e-16 2.2713316e-11
-2.9504e-41 8.5217e-41 4.1935e-41 -1.9434024e-35 3.84378e-09 -1.4297338e-25 7.7021e-41 -1.01725805e-16
-5.544e-41 6.0455e-41 -1.022e-42 3.5933864e-13 6.7774e-41 -1.4923341e-07 2.7128896e-12 -4.871783e-33
00000000: 1291 4532 e11c 880e 8059 ab32 01e1 6e92
00000010: af4e 0334 9092 f30b ddea 28a7 bbb3 93a3
00000020: 1094 470e 60a9 0080 28b7 0080 f353 0080
00000030: d3ad 0080 1dc1 0000 d0d4 661f 30af 9330
00000040: 8912 0000 d6d1 0000 6c3f af2e 241c 012d
00000050: 4e64 3f9d b7ce d09c f509 fd9c 65b4 e631
00000060: d3e2 8b1c 82bb 3e9c 687e beb4 f9e5 d725
00000070: 18e8 22a3 1f33 dbb1 cc59 0080 4777 8e28
00000080: 3b6e 81a5 a8b8 0080 d0c8 0000 4125 b4ab
00000090: 796c 2328 0b39 0000 8551 0000 322b 0000
000000a0: 63a7 4026 db0a 962b 07b9 0000 084c f032
000000b0: fa20 0180 ed4c 4e2b 4a07 9e1f 0cd7 49a4
000000c0: bee6 9f1f ad6f 6020 4dd4 b41f c749 289e
000000d0: bc11 579f d030 1820 0a8c 8831 91e6 0080
000000e0: 6313 ce30 d29a 0000 d296 0000 65db da35
000000f0: d330 0000 0f26 0292 2850 0000 9f09 1f80
00000100: b5b5 0080 bfc6 0000 6956 11b5 547e 6e27
00000110: ba6b 0000 b304 d8a4 b670 5da0 d4f1 0080
00000120: 97dc 0080 585b 0000 a9af 0080 9fcf 0435
00000130: 3625 0080 c9bd 0000 f218 c990 a27f 0080
00000140: 7412 68b4 bf45 f5a6 f4a0 1aa8 78e2 55aa
00000150: 4f63 af11 4c65 52b5 887c 8031 b8e4 c22a
00000160: fc53 ac11 5faf 3e12 a74a b7b4 2610 bb97
00000170: 3256 021b dc5e d798 0100 ce98 c892 831b
00000180: fa77 8d99 8e42 192b da90 a331 d5d7 b488
00000190: 27ef a7b5 cdf0 030f fedd 1289 9e15 2589
000001a0: 9ff4 0a28 8f1a 058a d564 2c9f 18a5 0e17
000001b0: 02ae 7a12 e361 8bb2 25d2 3220 bb98 692f
000001c0: b884 8fb4 35d3 879c 0a9b ad30 5142 a512
000001d0: c76d deae 1947 c531 8c92 0080 3a19 b8af
000001e0: c0a9 3c34 5fa0 a38e f4c2 ab20 14ba b134
000001f0: f5b2 4e30 9e9a 0000 351d 0080 01f2 9132
00000200: e19d 0a2d e780 0080 dc45 0080 bebb 0000
00000210: 7c68 0e2f e2c2 0080 94b8 0080 1220 2eb5
00000220: ecc9 a404 fcd2 d795 fa06 4c32 0d07 a1a8
00000230: be09 9884 52c1 bd2b ecdb 2730 1f38 1aa4
00000240: 167d b2b4 999d c415 d05c caac 0bd3 6bae
00000250: 0658 0080 77b4 0080 7720 0080 e57d e91c
00000260: 2d43 0000 71fe c0ad 4a68 0080 dc66 d12e
00000270: c2cc 132a 72b7 0000 47a3 0080 f785 0000
00000280: ed86 5b33 cf58 0000 9334 0000 6f29 0632
00000290: bd35 0000 8e19 0080 d266 0080 3cd0 4732
000002a0: ed87 0080 d448 758a 99c5 0000 b42e 33a6
000002b0: 8161 d32e fe19 002e 2c8d 0080 4cd2 0080
000002c0: 8ea5 0080 3b3c 0000 c8a7 0000 63c5 46a5
000002d0: 17d5 24b3 7634 6399 4acb 0fb1 ea32 8419
000002e0: 98b5 61b4 2e1b 1d9a 8841 10b2 0e46 e02f
000002f0: 85e1 9319 4ab7 0080 ae28 0000 97ee 74b3
00000300: a342 4d95 79de 5a04 7be1 932b 4cb8 0000
00000310: 2dbc 0000 93be 0080 aaaa 53ac e17b a39c
00000320: 2c9c 0080 3cad 0080 b8c6 0080 7479 c025
00000330: f1d7 6015 1304 f8a6 3601 0000 c841 3e2d
00000340: 9e3b 9c22 261a 962e 9bb7 0000 9453 0000
00000350: 1c38 0cb0 2f13 8a85 2d5c 36a9 573f 0080
00000360: ab97 b48f 1393 1190 a033 df8f f2bd 4420
00000370: 23fd aab5 1a9b a92f 2717 6c19 3097 6d10
00000380: 4ae6 0990 af43 8eac ada7 648f aec4 0080
00000390: 877a 0000 5355 a024 2caa 0080 8de9 512e
000003a0: c854 c305 450e 0000 af25 fbaf 1d15 8b31
000003b0: 291a fa2a f503 bb99 0c7c 8aa6 d7c9 c72d
000003c0: 3f52 0080 8ded 0000 e674 0000 72a8 ce85
000003d0: 3f12 8431 13fe 3096 b4d6 0000 5190 eaa4
000003e0: 8b9a 0080 86a8 0000 d902 0080 284a ca2a
000003f0: edbc 0000 f83c 20b4 13e7 3e2c af5d ca89

e_conv4.depth_conv.bias f4 [32]
-4.1069297e-11 2.925314e-11 -2.0940156e-06 2.4431205e-33 -3.5563544e-26 -1.3452355e-08 -2.901993e-28 5.3402425e-21
4.0772875e-24 6.341876e-22 -1.104251e-09 -9.0885144e-14 4.594079e-22 -1.6307513e-07 4.3711952e-17 3.0950002e-26
-2.980315e-12 2.0971947e-33 -2.2980437e-34 -3.6023374e-36 4.7250767e-20 -4.515922e-34 -1.0952059e-35 -3.4530951e-06
2.4511896e-11 -6.1020877e-13 1.07729304e-32 -4.8158236e-31 -1.0293935e-06 1.0874892e-24 4.8682787e-09 -4.7888854e-35
00000000: eb9f 34ae 1ca8 002e ea86 0cb6 6df7 4a09
00000010: 261a 3095 151c 67b2 87ef b791 a8bf c91d
00000020: 80bb 9d18 e4ab 3f1c 61c4 97b0 b8a7 cca9
00000030: f7d8 0a1c c019 2fb4 f795 4924 ca41 1915
00000040: 95b8 51ac 663a 2e09 30bb 9887 fb39 9984
00000050: ac22 5f1f 3711 1688 aeec 6885 b9bb 67b6
00000060: e29b d72d 2dc2 2bab b9be 5f0a 4c48 1c8d
00000070: b129 8ab5 e347 a817 d545 a731 ee9e 7e86

e_conv4.point_conv.weight f4 [32, 32, 1, 1]
1.8568633e-20 -1.287428e-20 2.4657315e-15 -1.5684065e-33 -8.819081e-31 1.2828035e-18 9.6952635e-37 -1.7124217e-29
1.1745507e-30 5.360151e-23 3.0841132e-19 4.345649e-23 3.6404577e-23 6.791614e-17 -2.3050281e-26 8.775415e-27
-1.8711253e-22 1.9289e-41 -8.958344e-37 -1.5767e-41 1.731227e-20 4.9188223e-32 -5.737e-41 7.904287e-16
-5.306114e-21 1.6281522e-22 7.189314e-32 3.4577905e-31 1.3571347e-16 6.946634e-26 -1.6195101e-18 3.62e-43
1.0866e-41 -6.862e-41 -1.05819e-40 -7.0223e-41 -5.054e-42 -6.5501e-41 7.739e-41 6.7492e-41
-5.153e-41 3.121173e-26 -9.7879e-41 -2.828e-41 5.2075e-41 8.439e-41 -2.076e-41 -6.6618e-41
-8.3857e-41 -6.5256e-41 5.4167e-41 -1.732e-42 -5.2333e-41 -4.4996e-41 9.534173e-25 -6.3077e-41
2.5675e-41 -7.0277e-41 5.9704e-41 -7.3195374e-38 -3.2406e-41 -9.08833e-34 -6.7689145e-31 3.62e-42
7.10456e-21 -2.693901e-21 -2.85816e-16 -6.0310547e-34 -2.0269536e-31 -3.551062e-18 2.499638e-28 -1.5381971e-30
1.1976191e-32 6.823897e-23 2.0357751e-19 1.9259406e-23 6.339803e-23 -3.6944768e-17 -4.8539956e-27 5.484668e-28
2.6009224e-22 -7.5705e-41 1.0917543e-37 5.092e-42 3.5078137e-21 -4.97e-43 8.852e-42 -8.6737095e-16
-1.508815e-21 2.0850165e-23 7.3023126e-38 -1.05823355e-23 1.4428367e-16 2.0373511e-25 -4.3777567e-19 3.388979e-35
3.2061363e-18 -1.6505751e-18 8.024315e-14 3.21155e-31 -1.4873512e-28 5.1157905e-16 6.486155e-35 -9.137435e-28
-4.9671184e-29 1.8173048e-20 4.529459e-17 7.132591e-21 4.96803e-20 6.352628e-15 -5.538314e-24 2.1800526e-24
2.4890175e-19 -7.547e-41 3.9689198e-28 -8.584311e-38 2.0397395e-18 5.88209e-40 4.8327e-41 1.5992603e-13
-1.1487839e-18 4.422101e-20 3.5594736e-30 4.738553e-30 3.2065188e-14 -7.6844276e-22 -1.7247745e-16 2.0285e-41
6.301e-41 6.515e-42 -6.512e-41 -5.0543e-41 1.3300758e-23 -2.2148671e-35 -2.6632e-41 -1.18505e-40
-5.8485e-41 -1.9718e-41 -1.41674e-40 8.756456e-26 -7.0937e-41 5.5476e-41 -1.5127e-41 -4.7124e-41
-7.8757e-41 5.7979595e-25 -9.0167e-41 -7.4064e-41 -1.3862e-41 -5.4571e-41 -4.1366e-41 -1.568e-42
6.7332e-41 -6.8975e-41 -6.0367e-41 9.0756e-41 -2.8842e-41 4.2703e-41 3.9281e-41 4.066519e-31
-3.351741e-20 2.119413e-20 5.3655376e-16 2.590674e-32 1.4752147e-30 8.382801e-18 3.0992843e-37 6.899399e-30
5.990983e-31 -3.1657778e-22 6.0542073e-19 -2.8933452e-23 -2.5911142e-22 -7.8554775e-17 3.3719995e-26 -2.7335664e-26
-2.6260363e-21 -9.933429e-34 -2.5948827e-34 -1.06018e-40 -6.280886e-20 1.61365e-40 5.2387317e-28 7.0593753e-16
2.26926e-20 -6.340053e-22 9.236182e-33 -1.9312487e-31 -4.548076e-16 -1.6707407e-24 -3.2544972e-20 -9.1882e-41
1.9053924e-27 -1.4406e-40 6.8343e-41 6.9996e-41 4.8507e-41 -7.1082e-41 -6.8305e-41 -1.5638e-41
1.38779e-40 1.9229e-41 6.408225e-28 -6.66e-41 -3.318e-42 -5.274e-42 -7.07e-42 -4.0825e-41
-3.8254e-41 -1.08053e-40 -9.0129e-41 -1.9425e-41 6.6964004e-37 3.0114e-41 -5.3437e-41 2.4294664e-24
-5.2972e-41 -6.729e-41 -1.373e-42 -4.9111e-41 3.0088498e-24 -9.632374e-35 7.0387e-41 -4.3289e-41
2.73e-41 9.243e-42 5.1083e-41 -4.3764e-41 -1.6394e-41 4.7426e-41 3.8041e-41 -6.22e-43
1.2002e-41 -4.8336e-41 -5.395e-41 -1.133214e-29 -1.6324e-41 -1.332125e-32 -4.2622e-41 -2.514e-41
-1.9224e-41 1.3759246e-38 -3.8062e-41 3.4702e-41 3.2278e-41 3.811e-41 3.2342e-41 8.6038e-41
2.011376e-26 7.28727e-25 -1.391645e-39 7.8659e-41 2.0064e-41 -7.107e-42 2.1095042e-27 2.5163e-41
00000000: 3360 af1e 3330 739e b8ac 3127 514c 0289
00000010: 0719 8f8d f24e bd21 d4f4 a403 02a9 ad8f
00000020: ed94 be0d ba99 811a cd0d b620 8724 521a
00000030: af0a 301a 9d9a 9c24 6847 e494 a4d0 2d14
00000040: 8634 629b c535 0000 176b 9883 f42b 0080
00000050: 8082 a31e 5d66 7f0b ed9f 0080 58d3 6326
00000060: 9675 c89d dfd4 441b 30a5 ba0b 666c e00c
00000070: 8c77 1c25 86fd ab15 5dff eea1 0201 0000
00000080: 4a1e 0000 49bf 0080 fb26 0180 c1c3 0080
00000090: 170e 0080 97b6 0080 bbd7 0000 24bc 0000
000000a0: a58f 0080 918d 1a15 d910 0180 d54e 0080
000000b0: 2a91 0000 3feb 0000 df39 0080 b4b9 0080
000000c0: c2e9 0080 e8b5 0080 ff96 0000 d404 0080
000000d0: e291 0080 6e7d 0080 c088 9317 d5af 0080
000000e0: 9247 0000 e7c3 0080 6ea6 0000 bb41 c781
000000f0: 565a 0080 7b01 9788 f1a9 5b8d 170a 0000
00000100: 8b33 061e a08b 4b9d ffc2 a4a5 8a6a 4888
00000110: 8b8e 838c d502 83a2 f26e 9e11 3596 f98d
00000120: 5abc 780a e0fd a41a 8757 7020 fb43 ba19
00000130: 7b49 991a af60 2aa4 5d49 c093 ead0 2d12
00000140: 5337 9d1b 09d3 0080 169a 1402 320e 0000
00000150: 7e85 841d 6301 0080 ad18 0000 ae00 7aa6
00000160: 7401 e49c 82a6 c919 b1c9 c601 30b1 4c99
00000170: 0659 2625 3c36 7c16 6535 01a1 6430 3406
00000180: 3492 6c22 f794 f3a1 07b1 b429 0771 d00c
00000190: 4e8b 3c91 df73 1326 7c6e ac06 d7c9 9092
000001a0: e2dc 7b90 bca3 ab1e 6ae2 5024 18bb 061e
000001b0: cc9b 6a1f a7e0 e427 ce40 d698 64ac 2818
000001c0: f8ec 9220 61d2 0080 688f fb11 ebaf e981
000001d0: 9781 1622 b067 0600 b786 0000 8a0f 342a
000001e0: d487 a9a1 ecd3 501f b063 900e f337 c00e
000001f0: a568 1029 613f 689c 5cda 46a5 8c38 0000
00000200: a5af 0000 2912 0000 87b5 0080 e58c 0080
00000210: 15a3 8019 6b86 eb85 3d4a 0080 584a 0180
00000220: 08a3 0080 f736 0080 ee8a 0180 a2cc d815
00000230: bec5 0080 a59a 0000 2b2a 0080 5d83 0080
00000240: 8bdb 0080 2b70 3317 59fb 0080 76ce 0080
00000250: a426 0080 1f98 0080 5073 0080 5f04 0080
00000260: b2bb 0000 46c0 0080 47a8 0080 fefc 0000
00000270: 6650 0080 0a77 0000 806d 0000 51f7 030d
00000280: 1048 1e9f 432c c81e aea6 1a26 f783 060b
00000290: 055e ef0d a9a2 1a23 26ed d202 baef 0b0f
000002a0: 246b 420d 0a5c bf9b 4cb0 3221 e1e9 0b9a
000002b0: 8d9f 9c9b 8e22 b5a4 2cf9 2615 125c 0795
000002c0: ee6a 469d 220c a588 a475 ac87 8927 0180
000002d0: a04d 949f d2c1 0100 a405 2612 ff78 4b26
000002e0: 5753 d61e c99d 3f9c f7d3 3f0a bfb0 7a8c
000002f0: e116 03a6 6e44 0198 75b0 199f 2100 0180
00000300: f3f5 1613 9591 0180 83be 0000 1fc3 0000
00000310: 3887 0000 26c6 0080 68be 0080 982b 0080
00000320: dc82 0100 9a35 0000 b315 4b12 a7b9 0080
00000330: 4009 0080 b40e 0080 b513 0080 ce71 0080
00000340: a36a 0080 352d 0180 3efb 0080 2636 0080
00000350: e0dd 6303 f253 0000 f694 0080 8af8 3b18
00000360: aa93 0080 94bb 0080 d403 0080 e788 0080
00000370: 69cc 6818 4509 0087 36c4 0000 ac78 0080
00000380: 1a4c 0000 c419 0000 668e 0000 ff79 0080
00000390: b32d 0080 3484 0000 0b6a 0000 bc01 0080
000003a0: 7521 0000 be86 0080 6496 0080 d6d7 658f
000003b0: 812d 0080 f555 8a8a d076 0080 1546 0080
000003c0: 9735 0080 2ed3 9500 1a6a 0080 bc60 0000
000003d0: fa59 0000 3c6a 0000 285a 0000 d7ef 0000
000003e0: 7132 c714 b487 6117 5727 0f80 45db 0000
000003f0: ee37 0000 d013 0080 d421 2713 2546 0000

e_conv4.point_conv.bias f4 [32]
-1.4176625e-10 -9.937089e-24 -8.564373e-11 4.141757e-05 1.031e-42 4.489716e-09 -1.09787315e-13 -1.7034012e-31
-7.72498e-17 -3.1135e-41 3.7757e-41 0.0048149982 1.04579385e-19 -3.677e-41 3.6509487e-10 1.1748414e-09
1.5562547e-22 9.023698e-09 6.239821e-07 1.0787265e-08 1.270293e-07 -8.7221e-27 -1.9041234e-13 1.0626923e-07
4.2284e-41 -1.8319528e-12 1.1356799e-09 -4.8933315e-21 -7.623874e-09 6.9207e-41 7.8512e-41 -2.1532e-41
00000000: a7df 1baf 1536 4099 2255 bcae c7b7 2d38
00000010: e002 0000 f643 9a31 1438 f7a9 371d 5d8c
00000020: 3c20 b2a4 cb56 0080 4069 0000 22c7 9d3b
00000030: 5cee f61f 8066 0080 89b6 c82f 0f78 a130
00000040: c023 3c1b a506 1b32 b97f 2735 e552 3932
00000050: 8c65 0834 4dc2 2c94 9f62 56aa 2136 e433
00000060: df75 0000 87e9 00ac 2f16 9c30 66dd b89d
00000070: 27fa 02b2 ecc0 0000 dcda 0000 063c 0080
