Zero-DCE++/snapshots_Zero_DCE++/Epoch42.pth (torch, 51217 bytes, 28 tensors)

e_conv1.depth_conv.weight f4 [3, 1, 3, 3]
0	0xbeacfafc	-0.33785236
1	0xbe18f262	-0.14936212
2	0x3d0ac90f	0.03388315
3	0xbe300fef	-0.17193578
4	0x3dfb0845	0.12257437
5	0x3de202c6	0.11035685
6	0xbecbe73a	-0.3982485
7	0xbe17c798	-0.14822233
8	0xbd5481ac	-0.051881477
9	0x3e3cf38e	0.18452284
10	0x3e0b7724	0.13619667
11	0x3e9aaa97	0.30208275
12	0x3e3546f7	0.17702852
13	0x3b854726	0.0040673194
14	0x3e65148c	0.2237112
15	0x3dc40947	0.09572082
16	0xbc8c49ac	-0.017124973
17	0x3e464cd3	0.19365244
18	0xbbce6be3	-0.006299482
19	0xbd5577f3	-0.052116346
20	0xbe1ada32	-0.15122297
21	0xbd441259	-0.04786906
22	0xbdc602a5	-0.09668473
23	0xbe02cf75	-0.12774451
24	0xbd7de922	-0.06198991
25	0xbe3f3e38	-0.18676078
26	0xbea9e559	-0.3318279

e_conv1.depth_conv.bias f4 [3]
0	0x3d95e7ea	0.07319625
1	0x3ea073b1	0.31338266
2	0xbd276b6e	-0.040873937

e_conv1.point_conv.weight f4 [32, 3, 1, 1]
0	0x3c01702b	0.007900278
1	0x3e766b34	0.24064332
2	0x3dc3b5d1	0.09556163
3	0x0000cd91	7.3743e-41
4	0x8000b9cf	-6.6656e-41
5	0x11b59371	2.8647633e-28
6	0x263a60de	6.4662993e-16
7	0xb596179e	-1.1182744e-06
8	0xaed12d15	-9.512228e-11
9	0x3dbd4dbf	0.092433445
10	0xbf06b62a	-0.5262171
11	0x3df9aedd	0.12191556
12	0x344c5e75	1.9033344e-07
13	0xb386c4fc	-6.2756925e-08
14	0x3006a16c	4.897831e-10
15	0xbd7db044	-0.061935678
16	0x3ded1fd4	0.11578336
17	0x3ee12f94	0.43981612
18	0x3db607f4	0.08888236
19	0x3e8ec064	0.27881157
20	0xbe924fae	-0.28576416
21	0x80004891	-2.6032e-41
22	0x00003c2d	2.1587e-41
23	0x0000e36c	8.1584e-41
24	0x3cee78dd	0.029110366
25	0xbc6139b7	-0.01374667
26	0x3d6fabbe	0.058513395
27	0x3d8e0a2f	0.06935536
28	0xbd12ff3f	-0.035887953
29	0xbe0153df	-0.1262965
30	0x3ebe80fb	0.3720778
31	0xbf0e7021	-0.55639845
32	0x3ec484d4	0.3838259
33	0x3c172d00	0.009227037
34	0xbd848e3d	-0.06472442
35	0x3d67a92b	0.056557816
36	0x3e295cbb	0.1653928
37	0xbed4ac64	-0.41537774
38	0xbe172832	-0.14761427
39	0xbd8def81	-0.06930447
40	0xbe0fd80e	-0.14047262
41	0x3df1287f	0.11775302
42	0x2dcfd618	2.3628252e-11
43	0xa0accbd2	-2.927281e-19
44	0x8000a5cf	-5.9481e-41
45	0x3d1afd65	0.037839312
46	0x3eb64e4a	0.35606605
47	0x3ea56c00	0.3230896
48	0xbe727be8	-0.23680079
49	0x3eb313dc	0.3497609
50	0xbebcbb30	-0.36861563
51	0x800052cf	-2.9706e-41
52	0x80006e46	-3.9559e-41
53	0x319df7a8	4.5974566e-09
54	0xbbf85c60	-0.0075793713
55	0x3c0d4148	0.008621521
56	0xbd5fbc94	-0.0546232
57	0x31d6da8d	6.253066e-09
58	0x2d13b1ab	8.395433e-12
59	0xac4fc574	-2.9526078e-12
60	0xbf158b38	-0.58415556
61	0xbdaaa148	-0.08331543
62	0xbebf5589	-0.37369946
63	0x0bcf21e0	7.978447e-32
64	0x895addbb	-2.6345053e-33
65	0x89b02998	-4.2409573e-33
66	0xbc1c459b	-0.00953808
67	0x3b93e5a6	0.00451346
68	0x3d832d2e	0.06405102
69	0x0000ae0a	6.2433e-41
70	0x3124d69d	2.3987135e-09
71	0x0000a968	6.0772e-41
72	0x00005fa4	3.431e-41
73	0x00002b16	1.5456e-41
74	0x24dffd8a	9.7140346e-17
75	0x00009e76	5.6845e-41
76	0xb188c241	-3.980205e-09
77	0x34ebdaff	4.3931502e-07
78	0x8000005c	-1.29e-43
79	0xb60239f7	-1.940525e-06
80	0x800023ee	-1.2889e-41
81	0x3ea8a0f0	0.32935286
82	0xbe11fecd	-0.14257355
83	0xbeab678b	-0.33477435
84	0x3c1f872e	0.009736819
85	0xbe5ad924	-0.21371895
86	0xbd799b07	-0.06093886
87	0x00016669	1.28573e-40
88	0x800096b6	-5.4065e-41
89	0x8000a0a9	-5.7634e-41
90	0x3e919fbb	0.28442177
91	0x3ca3a958	0.01997821
92	0xbd3c0fb6	-0.04591342
93	0xbe86d664	-0.26335442
94	0x3ecd8e0d	0.4014744
95	0xbebea259	-0.37233236

e_conv1.point_conv.bias f4 [32]
0	0xbe1f728f	-0.15571044
1	0x00004250	2.3788e-41
2	0xb2090fe0	-7.978059e-09
3	0x3f124a50	0.5714464
4	0xb2a23fd3	-1.8888306e-08
5	0x3d95b99c	0.07310793
6	0x3e953b85	0.29146972
7	0xaaa8b656	-2.9969316e-13
8	0x3d42c06f	0.0475468
9	0xbc874f37	-0.016517265
10	0x3ed37f45	0.41308036
11	0x3eea7e8f	0.45799682
12	0x3eaecb2d	0.34139386
13	0x3e99f119	0.30066755
14	0xb26e5464	-1.38726115e-08
15	0x3f0596a8	0.5218301
16	0xbd98587b	-0.07438751
17	0x0657dbb0	4.0598407e-35
18	0xbd127a7e	-0.03576135
19	0xb00181cc	-4.711438e-10
20	0x3ed25a5e	0.4108457
21	0x8b2d143e	-3.3333817e-32
22	0x3eb885be	0.36039537
23	0xb584d012	-9.895323e-07
24	0x8a16d467	-7.262186e-33
25	0x0000bf2e	6.8582e-41
26	0xb5b0e333	-1.3179146e-06
27	0x3ea67e72	0.32518345
28	0x3dc748c8	0.09730679
29	0xb4b9d50b	-3.4613944e-07
30	0x3f012c9e	0.50458705
31	0xbdbe7423	-0.09299495

e_conv2.depth_conv.weight f4 [32, 1, 3, 3]
0	0xbd23005f	-0.039795276
1	0xbd366e18	-0.044538587
2	0xbd1129ec	-0.03544037
3	0xbcb3a2bb	-0.021928182
4	0xbd183382	-0.037158497
5	0xbcbf31af	-0.02333912
6	0xbcfb3d81	-0.030668976
7	0xbd3a318c	-0.045457408
8	0xbd02fdac	-0.0319802
9	0x00000876	3.035e-42
10	0x00008585	4.7898e-41
11	0x8000326f	-1.8092e-41
12	0x8000ad45	-6.2157e-41
13	0x0000384f	2.02e-41
14	0x80000be3	-4.264e-42
15	0x80009e37	-5.6757e-41
16	0x8000ef43	-8.5831e-41
17	0x01192613	2.812898e-38
18	0x0000adb1	6.2309e-41
19	0x0000c921	7.2151e-41
20	0x00000747	2.61e-42
21	0x0f6becbc	1.1631988e-29
22	0x00028acd	2.33463e-40
23	0x8000bf03	-6.8522e-41
24	0x800099cd	-5.5173e-41
25	0x80005726	-3.1263e-41
26	0x800041a6	-2.355e-41
27	0xbe9799b9	-0.2960947
28	0xbe8a1eab	-0.26976523
29	0xbd968d13	-0.073511265
30	0xbdc6f46c	-0.097145885
31	0x3e0c4bbf	0.1370077
32	0x3e8b5956	0.27216595
33	0x3e8c95d7	0.2745807
34	0xbb853ee6	-0.004066336
35	0x3eea4966	0.45759124
36	0x2618eadf	5.3053903e-16
37	0xa697066e	-1.0479473e-15
38	0xa6b435d6	-1.2504601e-15
39	0x26855c72	9.253786e-16
40	0xa4e7fb69	-1.00606186e-16
41	0xa6182ae7	-5.2793737e-16
42	0xab7731b2	-8.7820994e-13
43	0xa63a23d5	-6.4580275e-16
44	0xa5995758	-2.6600456e-16
45	0xbc5781dc	-0.0131535195
46	0x3d459ae2	0.04824341
47	0xbd34e358	-0.044162124
48	0x3da0ebb7	0.07857459
49	0x3e399e13	0.18126707
50	0xbc8711da	-0.016488004
51	0xbd1a4160	-0.037660003
52	0x3b632514	0.0034659551
53	0xbe44145f	-0.19148396
54	0x3dc84a89	0.097798415
55	0xbc021315	-0.00793912
56	0xbe70fa2f	-0.23532937
57	0x3d6d9a95	0.05800875
58	0x3e21e623	0.15810446
59	0xbdc61b2e	-0.09673153
60	0xbd1d5507	-0.038411167
61	0xbbe21fe0	-0.0069007725
62	0xbea15875	-0.315128
63	0x8000249c	-1.3133e-41
64	0x8000ba4f	-6.6835e-41
65	0x80007785	-4.2876e-41
66	0x0000b89e	6.6228e-41
67	0x80008908	-4.9158e-41
68	0x8ed10c5e	-5.1534387e-30
69	0x000025fb	1.3625e-41
70	0x00003805	2.0096e-41
71	0x033e0be1	5.584962e-37
72	0x3ca8aded	0.020590747
73	0x39e8ef00	0.00044428557
74	0xbbc79603	-0.006090881
75	0x3c04d39b	0.008107091
76	0xbb29579c	-0.0025839573
77	0xba3d2695	-0.0007215527
78	0x3b5fe34a	0.0034162574
79	0x3bd10703	0.0063790097
80	0x3ca34590	0.01993063
81	0x3c3da4c4	0.011574928
82	0x3b92f35b	0.0044845766
83	0xbc4b83de	-0.012421576
84	0x3c9c5a12	0.019085918
85	0x3c102462	0.008797737
86	0xbbef68a3	-0.007306175
87	0x3c51e194	0.01281013
88	0x3b106c3a	0.0022037164
89	0xbbf5fe00	-0.007507086
90	0x3e9c3bb1	0.3051429
91	0x3e91d41f	0.28482148
92	0x3e7225a4	0.23647171
93	0x3e8e78e2	0.278266
94	0xbcb18413	-0.021669423
95	0x3eaacf7f	0.33361432
96	0x3e8ff4ac	0.28116357
97	0x3da7b796	0.08189313
98	0x3d85e754	0.06538263
99	0x3e5be114	0.21472579
100	0xbe567eee	-0.20946857
101	0x3e0cb962	0.13742593
102	0x3d8e124e	0.06937085
103	0xbe62ebb4	-0.22160226
104	0xbe0f82d2	-0.14014748
105	0x3e84f590	0.259686
106	0x3d7b30f7	0.061325993
107	0x3e1ba2df	0.15198849
108	0x3eb491a1	0.35267356
109	0x3dee623b	0.1163983
110	0x3e4eee18	0.20208013
111	0x3e93810f	0.288094
112	0x3e51cfc8	0.20489419
113	0x3dd99c29	0.10625488
114	0x3e8ec823	0.27887067
115	0x3e2947e7	0.16531335
116	0xbd8f7c30	-0.07006109
117	0x3c153257	0.00910624
118	0x3d0f2d6f	0.03495544
119	0x3d77fcad	0.060543705
120	0x3dd61553	0.10453286
121	0xbe058ba8	-0.13041556
122	0x3e4881ee	0.19580814
123	0xbdd18b15	-0.10231606
124	0x3d28b15a	0.04118476
125	0x3ebeb766	0.37249297
126	0x80052606	-4.72818e-40
127	0x80003ca0	-2.1748e-41
128	0x800014c7	-7.454e-42
129	0x00001f62	1.1258e-41
130	0x00001cf1	1.0382e-41
131	0x800076a0	-4.2555e-41
132	0x800090d2	-5.1952e-41
133	0x8000c5a5	-7.0901e-41
134	0x80005001	-2.87e-41
135	0xbd9c3132	-0.07626571
136	0x3e2661b8	0.16248214
137	0xbe19393a	-0.14963236
138	0x3df946ec	0.121717304
139	0x3e603039	0.21893395
140	0x3e4f56d2	0.20247963
141	0xbe29e788	-0.16592228
142	0xbd92c5ae	-0.07166611
143	0xbda573d4	-0.08078733
144	0x3dcfdedb	0.10149928
145	0x3e7bf8ea	0.24606672
146	0x3eb5b73b	0.35491356
147	0x3e06c9ef	0.13162969
148	0x3d8d1143	0.06888058
149	0x3e0d2832	0.13784865
150	0xbe2c1cd3	-0.1680787
151	0xbd7b4f96	-0.061355196
152	0xbe45cabb	-0.19315617
153	0x80000e7f	-5.2e-42
154	0x800103e0	-9.3226e-41
155	0x80010e64	-9.6998e-41
156	0x00000a0d	3.606e-42
157	0x80009a34	-5.5318e-41
158	0x80008fb6	-5.1554e-41
159	0x80004d09	-2.7635e-41
160	0x0000a890	6.0469e-41
161	0x00002d3b	1.6226e-41
162	0x340504f6	1.2388395e-07
163	0xb38653c9	-6.255102e-08
164	0xb48daf27	-2.6390737e-07
165	0xb4e3702c	-4.236366e-07
166	0xb4427405	-1.8109866e-07
167	0xb40bfe3e	-1.3037877e-07
168	0xb4c508d7	-3.670054e-07
169	0xb4188fcc	-1.4208416e-07
170	0xb3b9c885	-8.651208e-08
171	0xac6f3b87	-3.3996987e-12
172	0x2b127215	5.202794e-13
173	0xaae241ba	-4.0191272e-13
174	0xac8a9f0e	-3.9398545e-12
175	0x2c33ab73	2.5532603e-12
176	0xac9f9607	-4.535708e-12
177	0xaca4bc82	-4.682089e-12
178	0xab298b35	-6.023405e-13
179	0xac110b61	-2.0612056e-12
180	0xbd448e35	-0.04798718
181	0x3e80a864	0.25128472
182	0xbe56c8b5	-0.20975001
183	0xbea4441b	-0.3208321
184	0xbc4accde	-0.012377946
185	0x3d771e16	0.060331427
186	0xbe992b4c	-0.29915845
187	0xbe830348	-0.2558844
188	0xbe8e0aea	-0.27742702
189	0x026348cf	1.6698221e-37
190	0x81b6dab3	-6.717006e-38
191	0x8eda5676	-5.3824408e-30
192	0x82bf9749	-2.815176e-37
193	0x81d65515	-7.873327e-38
194	0x0a53014a	1.0159523e-32
195	0x8347c6ec	-5.8709195e-37
196	0x80bbc6b1	-1.7244515e-38
197	0x82803d60	-1.8843137e-37
198	0xbd6c7ccc	-0.057736203
199	0xbe00ad53	-0.12566118
200	0x3dbbad2d	0.0916389
201	0xbdd38d64	-0.103297025
202	0xbdf4b10a	-0.1194783
203	0x3c5398f5	0.012914886
204	0xbd485937	-0.048913207
205	0xbdf1491f	-0.11781525
206	0xbc80a3b9	-0.015703069
207	0x80014e43	-1.1991e-40
208	0x80008baf	-5.0109e-41
209	0x800101a5	-9.2425e-41
210	0x800017e4	-8.57e-42
211	0x8000af81	-6.2959e-41
212	0x00007e53	4.5317e-41
213	0x0000c860	7.1881e-41
214	0x0000bd03	6.7805e-41
215	0x8000f9a6	-8.9557e-41
216	0x0000cc36	7.3257e-41
217	0x80003c95	-2.1733e-41
218	0x0000ba73	6.6885e-41
219	0x000114cd	9.9297e-41
220	0x80004f78	-2.8508e-41
221	0x800012cf	-6.747e-42
222	0x00004785	2.5656e-41
223	0x800011c6	-6.376e-42
224	0x80008d0e	-5.0601e-41
225	0x8f53b127	-1.04372215e-29
226	0x8000b089	-6.3329e-41
227	0x8000feef	-9.1453e-41
228	0x80043a35	-3.88223e-40
229	0x00004517	2.4785e-41
230	0x8ebb7fed	-4.6222247e-30
231	0x0000a9d7	6.0927e-41
232	0x00006fcf	4.011e-41
233	0x80005172	-2.9217e-41
234	0x0000e737	8.2944e-41
235	0x8000ab75	-6.1507e-41
236	0x000d6cb8	1.232862e-39
237	0x8000bcd9	-6.7746e-41
238	0x0000ccb1	7.343e-41
239	0x00005b09	3.2657e-41
240	0x05886e39	1.2829868e-35
241	0x00000249	8.2e-43
242	0x80006033	-3.451e-41
243	0x3e9aa022	0.30200297
244	0xbca3c2db	-0.019990375
245	0x3d23a971	0.039956514
246	0x3c2594d4	0.010106284
247	0x3db02c5f	0.08602213
248	0x3da57f08	0.0808087
249	0x3cdfeded	0.027335132
250	0xbd36ffe1	-0.04467762
251	0xbc3485b9	-0.01101821
252	0xbc1440c3	-0.0090486435
253	0xbbcbefa4	-0.0062236357
254	0xbc13fbb3	-0.009032178
255	0x39c51f6b	0.00037598176

e_conv2.depth_conv.bias f4 [32]
0	0x3dd32f6f	0.103117816
1	0xbe15187f	-0.14560126
2	0x3c755bd6	0.014975509
3	0xbd5b97e9	-0.05361167
4	0xbe43db42	-0.19126609
5	0x3e58a703	0.2115746
6	0x3c3e2977	0.011606566
7	0x3e1c5705	0.1526757
8	0x3e90f971	0.2831531
9	0xbe82c337	-0.25539562
10	0x3c0aac16	0.00846388
11	0xbdb16978	-0.08662695
12	0xbe6bd386	-0.23029909
13	0xbd5611ff	-0.052263256
14	0x3e2647cb	0.16238324
15	0x3e5dbc25	0.21653803
16	0x3e443c4e	0.1916363
17	0xbd2add7b	-0.041715126
18	0x34c8d44c	3.740737e-07
19	0x3e3dc97b	0.1853389
20	0x3e8a45a2	0.2700625
21	0x3e477319	0.194775
22	0xbdf32eb8	-0.11874145
23	0x3e5f4137	0.21802221
24	0xbdbce498	-0.09223288
25	0xbd27a880	-0.04093218
26	0x3db3301e	0.08749412
27	0xbe6d18b0	-0.23153949
28	0xbde402c6	-0.111333415
29	0xbe3417af	-0.1758716
30	0xbdb48ae7	-0.08815556
31	0x3e9a3a34	0.3012253

e_conv2.point_conv.weight f4 [32, 32, 1, 1]
0	0xbc8a832a	-0.016908247
1	0xbc86ac88	-0.016439691
2	0xbb1373a1	-0.002249934
3	0x3dbfd529	0.09366829
4	0x3c6f3755	0.0146005945
5	0xbd861b16	-0.06548135
6	0x3cf85f94	0.030319013
7	0xbcf807df	-0.03027719
8	0xbd794881	-0.06086016
9	0x3c21b39a	0.0098694805
10	0x3d5320e1	0.051545028
11	0x3d9df3f4	0.07712546
12	0x3e150313	0.14551954
13	0x3cefce6b	0.029273232
14	0xbc3e67b5	-0.011621405
15	0xbdfe9b79	-0.12431998
16	0x3d1466be	0.036230795
17	0x3b76e54f	0.00376733
18	0x331910f7	3.5638518e-08
19	0xbd6a673e	-0.057227366
20	0x3e6f5975	0.23373969
21	0x3cedbb02	0.029019836
22	0x3d653edc	0.05596815
23	0xbd85aedc	-0.065274924
24	0xbb32d992	-0.0027290327
25	0x3bd82b5e	0.0065969666
26	0xbc94e971	-0.01817772
27	0x3d57413d	0.05255245
28	0x3cc1efff	0.02367401
29	0x3d00e9ec	0.031473085
30	0xbe1d5c93	-0.15367346
31	0xbd6e2b56	-0.058146797
32	0x3d8d52ff	0.06900596
33	0xbddac819	-0.10682697
34	0x3c16e1ac	0.009209078
35	0xbe391f77	-0.18078409
36	0x3ccd521c	0.025063567
37	0x3deb9173	0.115023516
38	0x3c29198f	0.010321035
39	0x3cd3d3f5	0.025857905
40	0x3dc93af9	0.09825701
41	0xbdd256bd	-0.1027045
42	0x3e8c3759	0.27385977
43	0x3da43e0e	0.080196485
44	0x3e5da261	0.21643974
45	0x3d7e971e	0.062155835
46	0xbc757c1b	-0.014983202
47	0x3e22833f	0.15870379
48	0x3dcc34b0	0.09970987
49	0xbc847ee9	-0.016173797
50	0xb4d77680	-4.013309e-07
51	0xbc5da097	-0.013527057
52	0x3d785793	0.060630392
53	0x3d6a431a	0.0571929
54	0x3d086fb3	0.03330965
55	0x3e071100	0.13190079
56	0xbc81ee48	-0.015860692
57	0xbca6217e	-0.020279642
58	0xbcffd07a	-0.031227339
59	0x3e17fb2f	0.14841913
60	0xbdef52cf	-0.11685716
61	0xbd088155	-0.033326466
62	0xbe753319	-0.23945273
63	0x3df77c7c	0.120842904
64	0xbb4da80d	-0.0031380684
65	0x3b91ef47	0.004453573
66	0x398d083c	0.0002689975
67	0x3eaa0d44	0.33213246
68	0x3c993484	0.0187018
69	0x3d05a14f	0.03262454
70	0x3d4fc199	0.05072174
71	0xbc81a873	-0.015827393
72	0xbd479b93	-0.04873235
73	0xbd46872d	-0.048468757
74	0xbe05458e	-0.13014814
75	0x3a65dd51	0.00087686355
76	0xbe80186f	-0.2501864
77	0x3d658a69	0.0560402
78	0xbcf4e0ea	-0.029892404
79	0x3c71b576	0.014752736
80	0x3db8ec12	0.09029402
81	0xbb6b6e50	-0.0035923906
82	0x34cb6bfd	3.7890268e-07
83	0x3c8e8ef9	0.017402159
84	0xbd63aac2	-0.05558277
85	0x3bb0009f	0.005371168
86	0xbbcce87d	-0.0062533007
87	0x3d8dce2d	0.069240905
88	0xbb32b78d	-0.002727005
89	0x3981f277	0.00024785448
90	0x3c70a205	0.014687066
91	0xbe31f087	-0.1737691
92	0xbc44f140	-0.012020409
93	0xbd27717a	-0.040879704
94	0x3da035c6	0.078227565
95	0xbc9d8ef2	-0.0192332
96	0x2e188651	3.4680096e-11
97	0xadcaf93d	-2.3075425e-11
98	0x2c0709b4	1.919004e-12
99	0x2cd6512c	6.0912577e-12
100	0xae96fdf0	-6.8663186e-11
101	0x2df12866	2.7416468e-11
102	0xae877cfc	-6.161291e-11
103	0x2dc3a8f6	2.2243967e-11
104	0x2c3ad0bc	2.654806e-12
105	0xaed31b16	-9.5999805e-11
106	0xac23d14f	-2.3279883e-12
107	0x2c7bb51d	3.5769783e-12
108	0xac6eac0d	-3.3917342e-12
109	0x2d050bd3	7.5628e-12
110	0x2e3565a6	4.1244917e-11
111	0x2d307a5f	1.00316136e-11
112	0x2e653724	5.2117546e-11
113	0xad4aeb68	-1.1534641e-11
114	0x239f00ac	1.7239099e-17
115	0x2dcdf994	2.3416637e-11
116	0x2c76956c	3.5041648e-12
117	0x2de59be4	2.6103515e-11
118	0xae2d2e30	-3.937667e-11
119	0x2e871cad	6.144183e-11
120	0xadff037f	-2.8991696e-11
121	0xaceb5061	-6.6880256e-12
122	0x2ddd1dcb	2.5138022e-11
123	0xad760866	-1.3985346e-11
124	0xad2fead0	-9.999737e-12
125	0xadd5ee36	-2.4321083e-11
126	0xaf3c58e3	-1.7130079e-10
127	0xaeae4385	-7.924598e-11
128	0x3b89dc3c	0.004207162
129	0x3c79c6b5	0.015245129
130	0x3afae618	0.001914206
131	0xbd3a3c82	-0.04546786
132	0x3d0791de	0.033098094
133	0x3dd4774f	0.10374319
134	0xbe18d09a	-0.14923325
135	0x3b2c29b6	0.002626998
136	0xbcc1fcde	-0.023680147
137	0xbd0f6faf	-0.03501862
138	0xbdb1f27b	-0.086888276
139	0xbd012327	-0.031527665
140	0xbd953369	-0.07285196
141	0xbd44b337	-0.048022475
142	0x3c846ffa	0.016166676
143	0x3e2987ba	0.16555682
144	0x3b627100	0.0034552217
145	0xbc159281	-0.009129168
146	0x343cbdc0	1.7577895e-07
147	0x3d2d09c7	0.042245653
148	0x3a867adc	0.0010260004
149	0xbc58f263	-0.013241383
150	0xbbe5bf5f	-0.0070113386
151	0xbccdaf2a	-0.025107939
152	0xbca5a326	-0.020219397
153	0xbbcc73d4	-0.0062393937
154	0x3c96972d	0.018382633
155	0x3c303dc0	0.01075691
156	0xbc63c8f2	-0.01390289
157	0xbd1fdca8	-0.039028794
158	0x3d297c8f	0.041378554
159	0xbd7b5abb	-0.061365824
160	0x3c86b46d	0.016443456
161	0xbc984055	-0.018585363
162	0x3a77c210	0.000945122
163	0xbde51354	-0.11185327
164	0xbcbfaf97	-0.023399157
165	0x3cfda2f1	0.030961486
166	0x3de4c2d2	0.111699715
167	0x3c9bdf10	0.019027263
168	0x3cf0cd9c	0.029394917
169	0xbce79003	-0.028266912
170	0x3de72d4d	0.11287937
171	0xbd1b6cef	-0.037945684
172	0x3db97a95	0.09056584
173	0xbd02ed42	-0.031964548
174	0x3ca67232	0.020318124
175	0x3d105225	0.03523459
176	0xbc04cfcc	-0.008106183
177	0xbb9dfe2f	-0.004821561
178	0x35337865	6.6857893e-07
179	0x3c952944	0.018208154
180	0x3dac4e77	0.084134035
181	0x3cc85bfb	0.024457922
182	0xbcf91b96	-0.030408662
183	0x3cb44899	0.022007274
184	0xbc36755b	-0.011136378
185	0xbb90a297	-0.0044139135
186	0x3c3b1a73	0.01141988
187	0x3d312839	0.04325125
188	0xbc678114	-0.014129896
189	0xbcae9acc	-0.021314047
190	0x3b7fbd9b	0.0039022926
191	0x3e12dda8	0.14342368
192	0x3baa5437	0.0051980275
193	0x3ca69bcc	0.020337962
194	0xb9904ce8	-0.0002752312
195	0x3e30ea9f	0.17277001
196	0xbcb153eb	-0.02164646
197	0xbe4aac98	-0.19792402
198	0x3e4a1921	0.19736148
199	0x3c31db1e	0.010855464
200	0x3a7c0126	0.0009613208
201	0xbd2496b1	-0.040182773
202	0x3ebfe554	0.3747965
203	0x3e5c801c	0.21533245
204	0x3e405621	0.18782856
205	0x3e657f63	0.22411875
206	0x3c7256a6	0.014791166
207	0xbdbdffbb	-0.09277292
208	0x3e307bb2	0.17234686
209	0xb9286a33	-0.00016061291
210	0xb4525cc5	-1.9591523e-07
211	0x3cfa2f3e	0.030540105
212	0xbd532d0e	-0.05155664
213	0x3cca11ec	0.024666749
214	0x3d1b7344	0.037951723
215	0x3c5b0d26	0.013369834
216	0x3b310fcb	0.002701747
217	0xb945aaff	-0.00018851085
218	0x3c39ba1b	0.011335875
219	0x3dab10d2	0.083528176
220	0xbb6f01bd	-0.0036469542
221	0x3c938a06	0.01801015
222	0xbe2fa737	-0.17153631
223	0x3e150d0a	0.14555755
224	0xa186a4fe	-9.123866e-19
225	0x214d613c	6.958539e-19
226	0x9f6852cd	-4.9196402e-20
227	0x219c05de	1.0572524e-18
228	0x225f6e64	3.0280576e-18
229	0xa193dcd2	-1.0019558e-18
230	0x2110951c	4.898644e-19
231	0xa26b9330	-3.192636e-18
232	0xa1d1c2b7	-1.4213931e-18
233	0x229f0e70	4.3112323e-18
234	0xa08ad2ad	-2.3517523e-19
235	0xa02f44cc	-1.484584e-19
236	0x21c9612d	1.3646012e-18
237	0xa17cd865	-8.5667317e-19
238	0xa16f87ec	-8.115624e-19
239	0xa211d69f	-1.9764784e-18
240	0xa285b3f5	-3.624026e-18
241	0x216b55c1	7.973459e-19
242	0x9928db46	-8.729678e-24
243	0xa15df078	-7.519597e-19
244	0x22850a31	3.6060513e-18
245	0xa19765e8	-1.0259132e-18
246	0x22114c5a	1.9691585e-18
247	0xa1a9503c	-1.1473123e-18
248	0x2110fb7f	4.912195e-19
249	0x20811a19	2.187072e-19
250	0xa1080673	-4.608713e-19
251	0x2238bbe9	2.5036129e-18
252	0x20c06ee3	3.2599444e-19
253	0x2189c6b8	9.336082e-19
254	0x22b56bcb	4.917428e-18
255	0x21c85932	1.3576137e-18

e_conv2.point_conv.bias f4 [32]
0	0x3db8d019	0.090240665
1	0x3d88fabf	0.06688451
2	0x3dc0a3a6	0.094062135
3	0x2f00cd1e	1.1714404e-10
4	0x3e1e8792	0.15481403
5	0x3da11871	0.0786599
6	0xbc09c204	-0.008408073
7	0xa2185c27	-2.0648626e-18
8	0x3d7bafa5	0.061446805
9	0x3dfbb138	0.12289661
10	0x3b9362e8	0.0044978745
11	0xbd4d956f	-0.05019134
12	0x3be6a475	0.007038648
13	0x3e348407	0.1762849
14	0x3da5237d	0.080634095
15	0x1dd42396	5.6152728e-21
16	0xacfa819a	-7.119816e-12
17	0x3ca94cb1	0.020666452
18	0x3d1087e5	0.03528585
19	0xa02b56c4	-1.4512972e-19
20	0xbd878c4b	-0.06618556
21	0xbbe7f622	-0.007078902
22	0x3cbcb48f	0.023035316
23	0xb9c19b6e	-0.00036927633
24	0x3d502400	0.050815582
25	0xbcf9c132	-0.03048763
26	0x3d30a4f5	0.043126065
27	0xbdd71c46	-0.105034396
28	0xb9295a35	-0.000161507
29	0x39cfaa7c	0.00039609137
30	0x3d69405a	0.056946136
31	0x3dc70181	0.09717084

e_conv3.depth_conv.weight f4 [32, 1, 3, 3]
0	0x80014902	-1.18026e-40
1	0x80000a28	-3.643e-42
2	0x000017c0	8.52e-42
3	0x86d58821	-8.032172e-35
4	0x8000dc92	-7.9126e-41
5	0x0000ab6b	6.1493e-41
6	0x8000daac	-7.8445e-41
7	0x0000c9f1	7.2443e-41
8	0x80007621	-4.2377e-41
9	0x800067b6	-3.7204e-41
10	0x0000bf41	6.8609e-41
11	0x800063ce	-3.5803e-41
12	0x80012e18	-1.08371e-40
13	0x8000e9cb	-8.3869e-41
14	0x00d1973a	1.9247869e-38
15	0x000026c4	1.3906e-41
16	0x0000cb1a	7.2859e-41
17	0x8000c138	-6.9314e-41
18	0x8000bb93	-6.7289e-41
19	0x8000b12e	-6.356e-41
20	0x80007ba7	-4.4358e-41
21	0x80007513	-4.1998e-41
22	0x80003f6b	-2.275e-41
23	0x0000caac	7.2705e-41
24	0x8f937230	-1.4539303e-29
25	0x000096bf	5.4078e-41
26	0x80009673	-5.3971e-41
27	0x0000e6fe	8.2864e-41
28	0x80005a39	-3.2366e-41
29	0x0000791d	4.3447e-41
30	0x80003dec	-2.2213e-41
31	0x8000a419	-5.8867e-41
32	0x10442f19	3.8690467e-29
33	0x800050ea	-2.9026e-41
34	0x00003c20	2.1569e-41
35	0x8ff34dec	-2.3991664e-29
36	0x00002581	1.3454e-41
37	0x00009e7e	5.6856e-41
38	0x80011710	-1.00109e-40
39	0x8935373b	-2.1813052e-33
40	0x000049b3	2.6438e-41
41	0x0c13be80	1.1381795e-31
42	0x8000b5b6	-6.5186e-41
43	0x00009772	5.4328e-41
44	0x80000596	-2.004e-42
45	0x80008d94	-5.0789e-41
46	0x00002470	1.3071e-41
47	0x000063ed	3.5847e-41
48	0x80004c2e	-2.7328e-41
49	0x00011a35	1.01237e-40
50	0x80011497	-9.9222e-41
51	0x0c8e21cb	2.1898903e-31
52	0x0000617a	3.4968e-41
53	0x0001f187	1.78479e-40
54	0x00013d97	1.1393e-40
55	0x8000d713	-7.7154e-41
56	0x0001239f	1.04614e-40
57	0x8817f8e3	-4.5732475e-34
58	0x80000832	-2.94e-42
59	0x00004974	2.635e-41
60	0x00006403	3.5877e-41
61	0x80017021	-1.3206e-40
62	0x0000bded	6.8133e-41
63	0x0000a045	5.7494e-41
64	0x000098b6	5.4782e-41
65	0x0000027b	8.9e-43
66	0x00cfb703	1.90756e-38
67	0x00008746	4.8527e-41
68	0x80001c8d	-1.0242e-41
69	0x00013b90	1.13202e-40
70	0x8000253e	-1.336e-41
71	0x00002b76	1.5591e-41
72	0x80003177	-1.7745e-41
73	0x10fdbc0f	1.00080655e-28
74	0x00006a66	3.8169e-41
75	0x8000b72b	-6.5708e-41
76	0x0000374c	1.9837e-41
77	0x8000b627	-6.5344e-41
78	0x00001626	7.945e-42
79	0x00005cb9	3.3263e-41
80	0x00007e05	4.5207e-41
81	0x80002705	-1.3998e-41
82	0x8119db23	-2.8258885e-38
83	0x0f993075	1.510563e-29
84	0x80008ba5	-5.0095e-41
85	0x000004d6	1.735e-42
86	0x80001487	-7.364e-42
87	0x800038ca	-2.0372e-41
88	0x800083e1	-4.7309e-41
89	0x80006eab	-3.97e-41
90	0x000082ca	4.6918e-41
91	0x80019b37	-1.47516e-40
92	0x800041be	-2.3584e-41
93	0x00701c85	1.0295806e-38
94	0x8000a1da	-5.8061e-41
95	0x00006331	3.5583e-41
96	0x0000a9eb	6.0955e-41
97	0x80007da4	-4.5071e-41
98	0x8054016c	-7.714692e-39
99	0x0001ecfe	1.76852e-40
100	0x8000a806	-6.0275e-41
101	0x0000dca5	7.9152e-41
102	0x00001d08	1.0414e-41
103	0x800042ad	-2.3919e-41
104	0x000090fc	5.201e-41
105	0x80002d10	-1.6165e-41
106	0x0000d3b3	7.5943e-41
107	0x8000594f	-3.2038e-41
108	0x80001636	-7.968e-42
109	0x80014cf9	-1.19448e-40
110	0x8000d181	-7.5156e-41
111	0x80004bf4	-2.7247e-41
112	0x800009ab	-3.468e-42
113	0x90abb1a2	-6.7721294e-29
114	0x000024ac	1.3155e-41
115	0x800138e9	-1.12251e-40
116	0x8000a695	-5.9758e-41
117	0x80011943	-1.00898e-40
118	0x00010fdd	9.7526e-41
119	0x00007c4a	4.4587e-41
120	0x800011fc	-6.452e-42
121	0x8000511e	-2.91e-41
122	0x00004fa9	2.8577e-41
123	0x80009a97	-5.5456e-41
124	0x80006843	-3.7402e-41
125	0x00003360	1.843e-41
126	0x80004384	-2.422e-41
127	0x8000960b	-5.3825e-41
128	0x0000c097	6.9088e-41
129	0x82f26f12	-3.5622455e-37
130	0x00008ad8	4.9808e-41
131	0x80009d73	-5.6482e-41
132	0x0000dd2e	7.9344e-41
133	0x00004dcb	2.7907e-41
134	0x00001a88	9.518e-42
135	0x00008ee6	5.1262e-41
136	0x000032e9	1.8263e-41
137	0x0000766c	4.2482e-41
138	0x0000c3b0	7.02e-41
139	0x0000d7be	7.7394e-41
140	0x00004174	2.348e-41
141	0x00012d1b	1.08016e-40
142	0x053005e2	8.276561e-36
143	0x00255c2d	3.43098e-39
144	0x000007c0	2.78e-42
145	0x91d12d8e	-3.300246e-28
146	0x000665e5	5.87566e-40
147	0x0000b669	6.5436e-41
148	0x00009340	5.2823e-41
149	0x82f08941	-3.534361e-37
150	0x0000bda7	6.8034e-41
151	0x80008159	-4.6401e-41
152	0x80004907	-2.6197e-41
153	0x000006e2	2.469e-42
154	0x0000ab2a	6.1402e-41
155	0x800100a1	-9.2061e-41
156	0x0000671c	3.6989e-41
157	0x00002c40	1.5874e-41
158	0x0000ae96	6.263e-41
159	0x8000b8ff	-6.6364e-41
160	0x0000f9e4	8.9644e-41
161	0x0000a4b0	5.9079e-41
162	0x800073e4	-4.1574e-41
163	0x0001052b	9.369e-41
164	0x800024e7	-1.3238e-41
165	0x0000c058	6.9e-41
166	0x828abdfa	-2.0386319e-37
167	0x0000e5f9	8.2499e-41
168	0x8000ac46	-6.18e-41
169	0x0000bb40	6.7173e-41
170	0x8000e6da	-8.2814e-41
171	0x0000b524	6.4981e-41
172	0x8000e83c	-8.331e-41
173	0x8000d3a6	-7.5925e-41
174	0x80011374	-9.8814e-41
175	0x00008984	4.9331e-41
176	0x8ad7af00	-2.0769575e-32
177	0x8000f32b	-8.7232e-41
178	0x800026cc	-1.3918e-41
179	0x000058c8	3.1849e-41
180	0x8000937c	-5.2907e-41
181	0x0000e5e7	8.2473e-41
182	0x8000e6f9	-8.2857e-41
183	0x0001ce28	1.6579e-40
184	0x00001fe9	1.1447e-41
185	0x8000bb9b	-6.73e-41
186	0x80006b65	-3.8526e-41
187	0x9145fe5d	-1.5618942e-28
188	0x00005923	3.1976e-41
189	0x80008658	-4.8193e-41
190	0x00004f5d	2.847e-41
191	0x800036f3	-1.9712e-41
192	0x800055e5	-3.0813e-41
193	0x80005c81	-3.3184e-41
194	0x80001835	-8.684e-42
195	0x0000661c	3.663e-41
196	0x80009fc4	-5.7313e-41
197	0x800114dc	-9.9318e-41
198	0x80010b7f	-9.596e-41
199	0x000029f6	1.5053e-41
200	0x8000f948	-8.9425e-41
201	0x80008f9d	-5.1519e-41
202	0x80018ef5	-1.43119e-40
203	0x8000babc	-6.6988e-41
204	0x8001af98	-1.54827e-40
205	0x0106903b	2.4715393e-38
206	0x000026a0	1.3856e-41
207	0x0000b49a	6.4788e-41
208	0x00008591	4.7915e-41
209	0x80008841	-4.8879e-41
210	0x10041615	2.604942e-29
211	0x0000448a	2.4587e-41
212	0x8000b990	-6.6567e-41
213	0x00015fad	1.26157e-40
214	0x0000885e	4.892e-41
215	0x0000e852	8.3341e-41
216	0x0000434b	2.414e-41
217	0x800018c1	-8.88e-42
218	0x0119d617	2.8255264e-38
219	0x0000b3e1	6.4528e-41
220	0x8000a6b8	-5.9807e-41
221	0x0000e357	8.1554e-41
222	0x0000ce5a	7.4025e-41
223	0x80002cc8	-1.6064e-41
224	0x80006b18	-3.8418e-41
225	0x0000c8f4	7.2088e-41
226	0x0000c260	6.9729e-41
227	0x80009ef3	-5.702e-41
228	0x00003af3	2.1147e-41
229	0x80017c43	-1.36412e-40
230	0x8000776a	-4.2838e-41
231	0x8000d30c	-7.571e-41
232	0x8000b4af	-6.4817e-41
233	0x80000e8a	-5.216e-42
234	0x80009349	-5.2836e-41
235	0x0000859a	4.7927e-41
236	0x00006fa6	4.0052e-41
237	0x80007057	-4.03e-41
238	0x00003476	1.882e-41
239	0x8000ccbd	-7.3446e-41
240	0x000044b1	2.4642e-41
241	0x0000b24b	6.396e-41
242	0x05c175a5	1.8192849e-35
243	0x80001ba5	-9.917e-42
244	0x80014a60	-1.18516e-40
245	0x0001395f	1.12416e-40
246	0x00001732	8.321e-42
247	0x80009fd4	-5.7336e-41
248	0x0b28d4c4	3.251569e-32
249	0x0000414b	2.3423e-41
250	0x00003785	1.9917e-41
251	0x06b8675c	6.936498e-35
252	0x86b21da1	-6.6999694e-35
253	0x000078bb	4.331e-41
254	0x00009e3c	5.6764e-41
255	0x0000b33e	6.43e-41

e_conv3.depth_conv.bias f4 [32]
0	0x0000bd94	6.8008e-41
1	0x800018db	-8.916e-42
2	0x8000b59b	-6.5148e-41
3	0x80002cef	-1.6119e-41
4	0x800026f9	-1.3981e-41
5	0x8000c0c5	-6.9153e-41
6	0x8000054c	-1.9e-42
7	0x0000c37b	7.0125e-41
8	0x0000ee22	8.5426e-41
9	0x000032a5	1.8168e-41
10	0x0000dac1	7.8474e-41
11	0x80005571	-3.065e-41
12	0x80006ac5	-3.8302e-41
13	0x0000d258	7.5457e-41
14	0x0000bc18	6.7475e-41
15	0x80010ce6	-9.6463e-41
16	0x80001ac4	-9.602e-42
17	0x80001bd9	-9.99e-42
18	0x00006163	3.4936e-41
19	0x0000ca3f	7.2552e-41
20	0x8000efb3	-8.5988e-41
21	0x0000ff6e	9.1631e-41
22	0x0d0fdb34	4.4329133e-31
23	0x85f0f852	-2.266071e-35
24	0x065f7511	4.2027645e-35
25	0x80001e8a	-1.0955e-41
26	0x000094a0	5.3317e-41
27	0x800069b7	-3.7923e-41
28	0x8000c50b	-7.0686e-41
29	0x8000c4db	-7.0618e-41
30	0x8000297b	-1.488e-41
31	0x800049af	-2.6433e-41

e_conv3.point_conv.weight f4 [32, 32, 1, 1]
0	0x00007e37	4.5277e-41
1	0x80005f7b	-3.4252e-41
2	0x0000cc1c	7.322e-41
3	0x80005da5	-3.3593e-41
4	0x8000d225	-7.5386e-41
5	0x80000bcd	-4.233e-42
6	0x80011b1c	-1.0156e-40
7	0x80008585	-4.7898e-41
8	0x8001852c	-1.39609e-40
9	0x8000e6e6	-8.2831e-41
10	0x0000c0e6	6.9199e-41
11	0x00004b19	2.694e-41
12	0x800054b8	-3.0391e-41
13	0x00015ed7	1.25858e-40
14	0x8000d947	-7.7944e-41
15	0x80007e9b	-4.5417e-41
16	0x00010182	9.2376e-41
17	0x800058a1	-3.1794e-41
18	0x00005bf1	3.2982e-41
19	0x0000ad33	6.2132e-41
20	0x80002a7c	-1.524e-41
21	0x80009693	-5.4016e-41
22	0x00004f11	2.8364e-41
23	0x000088a3	4.9016e-41
24	0x80003b1c	-2.1204e-41
25	0x00007fda	4.5864e-41
26	0x80012bc7	-1.0754e-40
27	0x8001a21d	-1.49991e-40
28	0x8000837c	-4.7168e-41
29	0x000082d1	4.6928e-41
30	0x00000158	4.82e-43
31	0x8000ac6b	-6.1852e-41
32	0x80002a6a	-1.5215e-41
33	0x00003d07	2.1892e-41
34	0x0000aa92	6.1189e-41
35	0x8000467c	-2.5285e-41
36	0x8000a90c	-6.0643e-41
37	0x0000a18c	5.7952e-41
38	0x8000ce51	-7.4012e-41
39	0x00001e50	1.0874e-41
40	0x8000249a	-1.313e-41
41	0x8000b9d1	-6.6658e-41
42	0x0000c19a	6.9451e-41
43	0x00000a43	3.681e-42
44	0x8000431f	-2.4079e-41
45	0x8000cb5e	-7.2954e-41
46	0x0001c984	1.64126e-40
47	0x80009377	-5.29e-41
48	0x00017f94	1.37602e-40
49	0x8000df23	-8.0046e-41
50	0x0000d516	7.6441e-41
51	0x0000bd6e	6.7955e-41
52	0x00000218	7.51e-43
53	0x00002787	1.418e-41
54	0x80014ca5	-1.1933e-40
55	0x8000e282	-8.1256e-41
56	0x00000e2c	5.084e-42
57	0x0000cffc	7.4611e-41
58	0x00005128	2.9113e-41
59	0x80011686	-9.9915e-41
60	0x000086a2	4.8297e-41
61	0x00001c3c	1.0129e-41
62	0x000017a9	8.488e-42
63	0x800001ac	-6e-43
64	0x00000c28	4.361e-42
65	0x8000740d	-4.1631e-41
66	0x800018da	-8.915e-42
67	0x80004959	-2.6312e-41
68	0x00005061	2.8835e-41
69	0x8000215d	-1.1968e-41
70	0x00005445	3.023e-41
71	0x80018cbd	-1.42323e-40
72	0x8001392e	-1.12348e-40
73	0x800014cf	-7.465e-42
74	0x800036ff	-1.9729e-41
75	0x00013cac	1.136e-40
76	0x8000b78d	-6.5846e-41
77	0x8001eed8	-1.77516e-40
78	0x8000606c	-3.459e-41
79	0x00009295	5.2584e-41
80	0x0001af26	1.54667e-40
81	0x0000e347	8.1532e-41
82	0x0000977b	5.4341e-41
83	0x8001473b	-1.17388e-40
84	0x000019e5	9.289e-42
85	0x8000caf7	-7.281e-41
86	0x0000e51c	8.2189e-41
87	0x80006a18	-3.8059e-41
88	0x0000e8bd	8.3491e-41
89	0x0001baa2	1.58787e-40
90	0x00005ee8	3.4046e-41
91	0x80014662	-1.17084e-40
92	0x80004360	-2.417e-41
93	0x80009c8e	-5.6161e-41
94	0x000177d7	1.34826e-40
95	0x8000ecdd	-8.497e-41
96	0x800153ca	-1.21893e-40
97	0x00005c1b	3.3041e-41
98	0x80006fd4	-4.0116e-41
99	0x00015263	1.2139e-40
100	0x80011a6b	-1.01312e-40
101	0x000102bc	9.2816e-41
102	0x80008c9b	-5.044e-41
103	0x00007b89	4.4316e-41
104	0x8000004b	-1.05e-43
105	0x80001a92	-9.532e-42
106	0x8000000b	-1.5e-44
107	0x00004dcb	2.7907e-41
108	0x00005ace	3.2575e-41
109	0x800020ff	-1.1837e-41
110	0x0000797e	4.3583e-41
111	0x8000b9d2	-6.666e-41
112	0x0000cf04	7.4263e-41
113	0x000045ba	2.5013e-41
114	0x0000fd9a	9.0975e-41
115	0x00001afc	9.68e-42
116	0x8000ca0d	-7.2482e-41
117	0x0000bd49	6.7903e-41
118	0x0000d101	7.4976e-41
119	0x8000ed97	-8.5231e-41
120	0x8000cffe	-7.4614e-41
121	0x80008ab2	-4.9755e-41
122	0x00002fb2	1.711e-41
123	0x8000f337	-8.7249e-41
124	0x00011234	9.8366e-41
125	0x80004394	-2.4242e-41
126	0x8000d74e	-7.7237e-41
127	0x8000d075	-7.478e-41
128	0x8000294b	-1.4813e-41
129	0x8000ae79	-6.2589e-41
130	0x80008077	-4.6085e-41
131	0x8000b406	-6.458e-41
132	0x0000c10d	6.9254e-41
133	0x800113eb	-9.8981e-41
134	0x8000e374	-8.1595e-41
135	0x80010ba6	-9.6014e-41
136	0x00010fb8	9.7474e-41
137	0x8000508a	-2.8892e-41
138	0x0000627c	3.533e-41
139	0x0000e7dc	8.3175e-41
140	0x8000d65f	-7.6902e-41
141	0x8000e1e6	-8.1037e-41
142	0x0000c7f7	7.1734e-41
143	0x000014f0	7.511e-42
144	0x0000ad7e	6.2237e-41
145	0x00007478	4.1781e-41
146	0x8000a965	-6.0767e-41
147	0x00007a9b	4.3983e-41
148	0x0000b090	6.3339e-41
149	0x800107cd	-9.4634e-41
150	0x800063cd	-3.5802e-41
151	0x0000a970	6.0783e-41
152	0x0000963c	5.3894e-41
153	0x00001657	8.014e-42
154	0x0000fcb1	9.0649e-41
155	0x00013433	1.10561e-40
156	0x0000bbe2	6.74e-41
157	0x00005948	3.2028e-41
158	0x800094e6	-5.3415e-41
159	0x80002a7a	-1.5238e-41
160	0x0000e5c1	8.242e-41
161	0x80007b99	-4.4338e-41
162	0x000066a0	3.6815e-41
163	0x80003cb0	-2.177e-41
164	0x00001a5e	9.459e-42
165	0x8000165b	-8.02e-42
166	0x80003d2d	-2.1946e-41
167	0x8000a604	-5.9555e-41
168	0x0000d29a	7.555e-41
169	0x80009401	-5.3094e-41
170	0x80005ade	-3.2597e-41
171	0x00010ffc	9.757e-41
172	0x8000c920	-7.215e-41
173	0x000079f9	4.3756e-41
174	0x00001dfc	1.0756e-41
175	0x000015ca	7.816e-42
176	0x000031f9	1.7927e-41
177	0x0000ce62	7.4036e-41
178	0x8000d471	-7.621e-41
179	0x00003900	2.0448e-41
180	0x800053a9	-3.0012e-41
181	0x0000e737	8.2944e-41
182	0x80004dc2	-2.7894e-41
183	0x8000c4a4	-7.0541e-41
184	0x00000693	2.358e-42
185	0x80007ab5	-4.4019e-41
186	0x0000d74e	7.7237e-41
187	0x0000b9c8	6.6646e-41
188	0x8000163a	-7.973e-42
189	0x800070fe	-4.0534e-41
190	0x8000997b	-5.5058e-41
191	0x80005a84	-3.2471e-41
192	0x80016778	-1.28953e-40
193	0x00005b8c	3.2841e-41
194	0x80007c65	-4.4624e-41
195	0x00011875	1.00609e-40
196	0x0000c0da	6.9182e-41
197	0x00007dbd	4.5106e-41
198	0x000081fe	4.6632e-41
199	0x8000da7b	-7.8376e-41
200	0x80002b1c	-1.5465e-41
201	0x8000caa5	-7.2695e-41
202	0x00008c49	5.0325e-41
203	0x80006ef2	-3.98e-41
204	0x8000fb5b	-9.017e-41
205	0x800094a5	-5.3324e-41
206	0x8000b7aa	-6.5886e-41
207	0x0000131b	6.854e-42
208	0x0001450c	1.16605e-40
209	0x8000a681	-5.973e-41
210	0x8000af4f	-6.2889e-41
211	0x0000b1a4	6.3725e-41
212	0x80013e79	-1.14246e-40
213	0x8001832b	-1.3889e-40
214	0x00004680	2.529e-41
215	0x0000629d	3.5376e-41
216	0x800097cf	-5.4459e-41
217	0x8000c803	-7.175e-41
218	0x80007ab7	-4.4022e-41
219	0x8000d812	-7.7511e-41
220	0x0000a7df	6.0221e-41
221	0x80006281	-3.5337e-41
222	0x8000dce4	-7.924e-41
223	0x00011888	1.00636e-40
224	0x0000921f	5.2418e-41
225	0x0000fe50	9.123e-41
226	0x00013cc2	1.13631e-40
227	0x0000c399	7.0167e-41
228	0x8000b3cf	-6.4503e-41
229	0x80005dab	-3.3602e-41
230	0x8001a157	-1.49713e-40
231	0x0000c96f	7.2261e-41
232	0x8000efd1	-8.603e-41
233	0x8001fe5e	-1.83085e-40
234	0x0000158f	7.734e-42
235	0x8000be87	-6.8348e-41
236	0x8000bef1	-6.8497e-41
237	0x0000b3cb	6.4498e-41
238	0x0000bbb7	6.734e-41
239	0x00009a88	5.5435e-41
240	0x8000fab6	-8.9938e-41
241	0x0000e00e	8.0376e-41
242	0x80006c80	-3.8922e-41
243	0x8000c135	-6.931e-41
244	0x000117f7	1.00432e-40
245	0x000000ff	3.57e-43
246	0x00001c70	1.0201e-41
247	0x0000d876	7.7652e-41
248	0x0000cdb3	7.3791e-41
249	0x00002346	1.2654e-41
250	0x0000d944	7.794e-41
251	0x0000aaeb	6.1314e-41
252	0x0000712a	4.0596e-41
253	0x8000e2a5	-8.1305e-41
254	0x0001001a	9.1872e-41
255	0x80016114	-1.2666e-40

e_conv3.point_conv.bias f4 [32]
0	0x80008468	-4.7498e-41
1	0x80005a39	-3.2366e-41
2	0x8cd12ea2	-3.2229615e-31
3	0x00002cbc	1.6048e-41
4	0x8000e2fa	-8.1424e-41
5	0x285fcf21	1.2423901e-14
6	0x00000c16	4.336e-42
7	0x0000e334	8.1505e-41
8	0x8000ba39	-6.6804e-41
9	0x1420a4d8	8.110445e-27
10	0x0eb82e78	4.540425e-30
11	0x0000b4a3	6.48e-41
12	0x1e04613e	7.008131e-21
13	0x8000f7fb	-8.8959e-41
14	0x8f741262	-1.2033669e-29
15	0x800162ec	-1.27322e-40
16	0x8512e242	-6.906444e-36
17	0x80002f5b	-1.6988e-41
18	0x00008021	4.5964e-41
19	0x80007e6a	-4.5349e-41
20	0x29090bb9	3.043028e-14
21	0x80004410	-2.4416e-41
22	0x800088ff	-4.9145e-41
23	0x12d0e7f3	1.3183825e-27
24	0x8398c7f9	-8.9796685e-37
25	0x000081a3	4.6505e-41
26	0x0000e5cc	8.2436e-41
27	0x00002765	1.4132e-41
28	0x00004572	2.4912e-41
29	0x07fe032f	3.8219543e-34
30	0x8000c022	-6.8924e-41
31	0x03c52e02	1.1589182e-36

e_conv4.depth_conv.weight f4 [32, 1, 3, 3]
0	0x80002dbc	-1.6406e-41
1	0x0000d599	7.6624e-41
2	0x0000600a	3.4452e-41
3	0x000010e5	6.06e-42
4	0x829d8c41	-2.3149578e-37
5	0x000130e9	1.09381e-40
6	0x00007d38	4.492e-41
7	0x80003896	-2.0299e-41
8	0x8000071e	-2.553e-42
9	0x0000591c	3.1966e-41
10	0x00001ea7	1.0996e-41
11	0x00002d1e	1.6185e-41
12	0x8000ec22	-8.4708e-41
13	0x000011c2	6.37e-42
14	0x00001ff6	1.1465e-41
15	0x00002a9c	1.5285e-41
16	0x8000e971	-8.3743e-41
17	0x80018433	-1.3926e-40
18	0x00000b7d	4.121e-42
19	0x0000bcc5	6.7718e-41
20	0x000021f5	1.2181e-41
21	0x80009f90	-5.724e-41
22	0x0000c910	7.2128e-41
23	0x00001e2e	1.0826e-41
24	0x8000521f	-2.946e-41
25	0x800090ba	-5.1918e-41
26	0x87f53d43	-3.689951e-34
27	0x0000430d	2.4053e-41
28	0x80004e67	-2.8125e-41
29	0x800011fe	-6.454e-42
30	0x8000f3a2	-8.7399e-41
31	0x80002258	-1.232e-41
32	0x8000635e	-3.5646e-41
33	0x00001b90	9.888e-42
34	0x800077fa	-4.304e-41
35	0x000016fd	8.247e-42
36	0x800037ac	-1.9971e-41
37	0x00003834	2.0162e-41
38	0x800090a7	-5.1891e-41
39	0x800011a8	-6.334e-42
40	0x80009ecd	-5.6967e-41
41	0x800080b3	-4.6169e-41
42	0x80004b2c	-2.6967e-41
43	0x80008965	-4.9288e-41
44	0x800170ac	-1.32255e-40
45	0x800034e1	-1.897e-41
46	0x800096a7	-5.4044e-41
47	0x00002cce	1.6073e-41
48	0x00002de6	1.6465e-41
49	0x8000d72b	-7.7188e-41
50	0x000013e7	7.14e-42
51	0x0000b9e9	6.6692e-41
52	0x0000c966	7.2248e-41
53	0x0000474e	2.558e-41
54	0x00002afa	1.5417e-41
55	0x80003d29	-2.194e-41
56	0x00008887	4.8977e-41
57	0x8000ce97	-7.411e-41
58	0x0000ca92	7.2669e-41
59	0x116ad20d	1.8524072e-28
60	0x00019225	1.44262e-40
61	0x000041fd	2.3672e-41
62	0x00004823	2.5878e-41
63	0x8000a6d6	-5.985e-41
64	0x8000b43b	-6.4655e-41
65	0x8001a651	-1.51499e-40
66	0x8b508c98	-4.0165114e-32
67	0x80006967	-3.7811e-41
68	0x8000e6cb	-8.2793e-41
69	0x00002057	1.1601e-41
70	0x0000a17e	5.7932e-41
71	0x0000ee4a	8.5482e-41
72	0x00013c86	1.13547e-40
73	0x0000eaa3	8.4172e-41
74	0x8000a0e6	-5.772e-41
75	0x0ab6eb26	1.7614416e-32
76	0x00005886	3.1756e-41
77	0x00005f7b	3.4252e-41
78	0x8000a21e	-5.8157e-41
79	0x000063c0	3.5784e-41
80	0x06197aa4	2.8866204e-35
81	0x80000d29	-4.721e-42
82	0x0000096c	3.38e-42
83	0x00005afd	3.264e-41
84	0x8000db8e	-7.8761e-41
85	0x8d8ca4d4	-8.667847e-31
86	0x00001eee	1.1095e-41
87	0x00001109	6.111e-42
88	0x00002dc1	1.6413e-41
89	0x00011d94	1.02446e-40
90	0x8766289e	-1.7315213e-34
91	0x80012624	-1.05518e-40
92	0x8000b1ae	-6.374e-41
93	0x8000ef89	-8.5929e-41
94	0x00010dc3	9.6772e-41
95	0x000059a1	3.2153e-41
96	0x000087ca	4.8712e-41
97	0x00006d49	3.9204e-41
98	0x0000b05c	6.3266e-41
99	0x0000e7d8	8.317e-41
100	0x90113ed3	-2.8644606e-29
101	0x00000414	1.463e-42
102	0x0000a846	6.0365e-41
103	0x000032fa	1.8287e-41
104	0x00003547	1.9112e-41
105	0x80007ebf	-4.5468e-41
106	0x00007cec	4.4814e-41
107	0x00001030	5.807e-42
108	0x8000c92a	-7.2164e-41
109	0x8000a567	-5.9335e-41
110	0x8000b62e	-6.5354e-41
111	0x80008817	-4.882e-41
112	0x06c6ff9c	7.4854906e-35
113	0x00005eec	3.4052e-41
114	0x00008c53	5.0339e-41
115	0x000081de	4.6588e-41
116	0x80008d2e	-5.0646e-41
117	0x00007531	4.204e-41
118	0x00004f5e	2.8472e-41
119	0x8000675f	-3.7083e-41
120	0x85196faf	-7.2145385e-36
121	0x80002095	-1.1688e-41
122	0x00004d8d	2.782e-41
123	0x06b9caa7	6.9887036e-35
124	0x8000ba2d	-6.6787e-41
125	0x000133d6	1.10431e-40
126	0x00012ea8	1.08573e-40
127	0x00009b13	5.563e-41
128	0x00009b69	5.575e-41
129	0x0000627f	3.5334e-41
130	0x8000d0d1	-7.4909e-41
131	0x000070d8	4.0481e-41
132	0x00004d25	2.7674e-41
133	0x8000061b	-2.19e-42
134	0x800065e4	-3.6551e-41
135	0x8c756b28	-1.890636e-31
136	0x8000407c	-2.3133e-41
137	0x00004b20	2.695e-41
138	0x800010dd	-6.05e-42
139	0x800009cc	-3.514e-42
140	0x80006716	-3.698e-41
141	0x000007a7	2.745e-42
142	0x80002cd1	-1.6077e-41
143	0x000053ce	3.0063e-41
144	0x86d91120	-8.165149e-35
145	0x80002bc0	-1.5695e-41
146	0x8000190e	-8.988e-42
147	0x0000b34b	6.4318e-41
148	0x0000e5e8	8.2475e-41
149	0x80006ab6	-3.828e-41
150	0x80001e6c	-1.0913e-41
151	0x000051b9	2.9317e-41
152	0x0000dea9	7.9875e-41
153	0x8000590d	-3.1945e-41
154	0x0000f831	8.9034e-41
155	0x000064b4	3.6125e-41
156	0x00008a81	4.9686e-41
157	0x80003f30	-2.2667e-41
158	0x8000b0ad	-6.338e-41
159	0x0000b016	6.3168e-41
160	0x000a07e5	9.21187e-40
161	0x800066ed	-3.6923e-41
162	0x80014923	-1.18072e-40
163	0x800048e1	-2.6144e-41
164	0x800014b1	-7.423e-42
165	0x80003c1b	-2.1562e-41
166	0x000098f1	5.4865e-41
167	0x80003653	-1.9488e-41
168	0x8000478a	-2.5663e-41
169	0x800092ec	-5.2706e-41
170	0x800142db	-1.15819e-40
171	0x0000c500	7.067e-41
172	0x00008a0b	4.952e-41
173	0x0000bb39	6.7163e-41
174	0x8000d3f7	-7.6039e-41
175	0x0000ddf9	7.9629e-41
176	0x0000a6b0	5.9796e-41
177	0x80008fa4	-5.1529e-41
178	0x80012c5f	-1.07753e-40
179	0x000020f1	1.1817e-41
180	0x00003504	1.9018e-41
181	0x0000b343	6.4307e-41
182	0x00001ef6	1.1107e-41
183	0x000125d1	1.05401e-40
184	0x06021fa4	2.4473528e-35
185	0x80015c2c	-1.249e-40
186	0x000068e4	3.7628e-41
187	0x0000bad5	6.7023e-41
188	0x000081f0	4.6613e-41
189	0x0000cff8	7.4605e-41
190	0x8000dd21	-7.9326e-41
191	0x801a73f7	-2.429323e-39
192	0x0000564a	3.0955e-41
193	0x8000a4bd	-5.9097e-41
194	0x800099bd	-5.5151e-41
195	0x80006cc8	-3.9023e-41
196	0x0000bb5c	6.7212e-41
197	0x0000c6ff	7.1386e-41
198	0x00004617	2.5143e-41
199	0x00003df5	2.2226e-41
200	0x00004438	2.4472e-41
201	0x000030fe	1.7575e-41
202	0x8000f2e2	-8.713e-41
203	0x000076a6	4.2563e-41
204	0x80000a77	-3.754e-42
205	0x80002e9f	-1.6724e-41
206	0x000062c6	3.5433e-41
207	0x80000ecd	-5.31e-42
208	0x80009df9	-5.667e-41
209	0x80003963	-2.0586e-41
210	0x0000ea6b	8.4093e-41
211	0x8000c051	-6.899e-41
212	0x80002200	-1.2197e-41
213	0x80001798	-8.464e-42
214	0x00003d71	2.2041e-41
215	0x000115fd	9.9723e-41
216	0x00002ed3	1.6797e-41
217	0x800074e3	-4.1931e-41
218	0x8000c99e	-7.2327e-41
219	0x8000ca3d	-7.255e-41
220	0x902548d7	-3.2596626e-29
221	0x00001cde	1.0356e-41
222	0x0000ba6e	6.6878e-41
223	0x00006197	3.5009e-41
224	0x80004400	-2.4394e-41
225	0x00009fb1	5.7286e-41
226	0x80009fd8	-5.7341e-41
227	0x00012f9c	1.08915e-40
228	0x80004b1f	-2.6948e-41
229	0x000068d2	3.7602e-41
230	0x80008b1f	-4.9907e-41
231	0x80006c00	-3.8743e-41
232	0x0000747b	4.1785e-41
233	0x80009041	-5.1749e-41
234	0x80007181	-4.0718e-41
235	0x000037e4	2.005e-41
236	0x0000b84e	6.6116e-41
237	0x00009d32	5.6391e-41
238	0x800017d0	-8.542e-42
239	0x00004071	2.3117e-41
240	0x800030ba	-1.748e-41
241	0x800038bb	-2.0351e-41
242	0x0000e26e	8.1228e-41
243	0x800067da	-3.7255e-41
244	0x00000a43	3.681e-42
245	0x80001843	-8.703e-42
246	0x00009180	5.2196e-41
247	0x00006a5d	3.8156e-41
248	0x00007d4f	4.4952e-41
249	0x00006289	3.5348e-41
250	0x00012922	1.06591e-40
251	0x00004dbf	2.789e-41
252	0x0000d8a9	7.7723e-41
253	0x0421e253	1.9029382e-36
254	0x80002653	-1.3748e-41
255	0x8000bc0b	-6.7457e-41

e_conv4.depth_conv.bias f4 [32]
0	0x000012f2	6.796e-42
1	0x00009bca	5.5887e-41
2	0x92b07aa6	-1.1137397e-27
3	0x00000cf4	4.647e-42
4	0x00000bbf	4.214e-42
5	0x8000579f	-3.1433e-41
6	0x8000b58d	-6.5128e-41
7	0x80004201	-2.3678e-41
8	0x80000374	-1.239e-42
9	0x0000a501	5.9192e-41
10	0x80003790	-1.9932e-41
11	0x80005ceb	-3.3333e-41
12	0x0000bb50	6.7195e-41
13	0x04b5325c	4.2599143e-36
14	0x00007bfb	4.4476e-41
15	0x0000e467	8.1935e-41
16	0x0000b91d	6.6406e-41
17	0x00001689	8.084e-42
18	0x0000b8bf	6.6274e-41
19	0x8000e966	-8.3728e-41
20	0x80009ac5	-5.5521e-41
21	0x00004682	2.5293e-41
22	0x0000ae05	6.2426e-41
23	0x951ae7d4	-3.1282932e-26
24	0x0000a1fb	5.8108e-41
25	0x0000baca	6.7007e-41
26	0x80005bfd	-3.2999e-41
27	0x00001774	8.413e-42
28	0x8f148c58	-7.3239926e-30
29	0x0000912e	5.208e-41
30	0x0000a570	5.9348e-41
31	0x0000dd49	7.9382e-41

e_conv4.point_conv.weight f4 [32, 32, 1, 1]
0	0x0000d95d	7.7975e-41
1	0x00001d1c	1.0442e-41
2	0x0002222a	1.95927e-40
3	0x80002daa	-1.6381e-41
4	0x00006911	3.7691e-41
5	0x8001775a	-1.34651e-40
6	0x80015534	-1.224e-40
7	0x80001a0b	-9.342e-42
8	0x8000feac	-9.1359e-41
9	0x0000070f	2.532e-42
10	0x8000eb32	-8.4372e-41
11	0x8000751d	-4.2012e-41
12	0x8000ba40	-6.6814e-41
13	0x800049f1	-2.6525e-41
14	0x80008bf2	-5.0203e-41
15	0x80015f08	-1.25926e-40
16	0x0001ef06	1.77581e-40
17	0x80007e46	-4.5298e-41
18	0x8000b7a9	-6.5885e-41
19	0x80015993	-1.23969e-40
20	0x8000ed37	-8.5097e-41
21	0x00008846	4.8886e-41
22	0x00009937	5.4963e-41
23	0x00013397	1.10342e-40
24	0x00010c34	9.6213e-41
25	0x8001281e	-1.06227e-40
26	0x8000b24e	-6.3964e-41
27	0x8001a234	-1.50023e-40
28	0x80004e71	-2.814e-41
29	0x8000f3b8	-8.743e-41
30	0x8000f59a	-8.8105e-41
31	0x8000587f	-3.1746e-41
32	0x8000ae4f	-6.253e-41
33	0x00003892	2.0294e-41
34	0x80019e19	-1.4855e-40
35	0x800108e1	-9.502e-41
36	0x8000ea7d	-8.4119e-41
37	0x0000c92b	7.2165e-41
38	0x00001511	7.557e-42
39	0x8000cf44	-7.4353e-41
40	0x00004de6	2.7945e-41
41	0x8000cc62	-7.3319e-41
42	0x00011352	9.8766e-41
43	0x000021b2	1.2088e-41
44	0x8000ecc0	-8.493e-41
45	0x0000291c	1.4747e-41
46	0x00000a9c	3.806e-42
47	0x0000cca0	7.3406e-41
48	0x0000a8fc	6.062e-41
49	0x00002bfe	1.5781e-41
50	0x80002007	-1.1489e-41
51	0x00006aaa	3.8264e-41
52	0x00015e58	1.2568e-40
53	0x000098fc	5.488e-41
54	0x00005f02	3.4082e-41
55	0x800135a7	-1.11082e-40
56	0x8000cfca	-7.454e-41
57	0x0000b5ad	6.5173e-41
58	0x0000339a	1.8511e-41
59	0x80006df3	-3.9442e-41
60	0x000101d2	9.2489e-41
61	0x0000c0c5	6.9153e-41
62	0x0000d751	7.7241e-41
63	0x0000139e	7.037e-42
64	0x00009fc2	5.731e-41
65	0x00001202	6.46e-42
66	0x800002a7	-9.51e-43
67	0x00009af6	5.559e-41
68	0x00006b70	3.8541e-41
69	0x00015bfb	1.24832e-40
70	0x00004c6c	2.7415e-41
71	0x0000d4c5	7.6327e-41
72	0x0000cdf6	7.3885e-41
73	0x8000e712	-8.2892e-41
74	0x8000ed95	-8.5228e-41
75	0x00010b85	9.5968e-41
76	0x80000812	-2.895e-42
77	0x0001562b	1.22747e-40
78	0x00006a52	3.814e-41
79	0x8000e922	-8.3632e-41
80	0x80003a94	-2.1014e-41
81	0x80008082	-4.61e-41
82	0x0000aaf1	6.1322e-41
83	0x80005694	-3.1058e-41
84	0x0000cbbf	7.309e-41
85	0x8000d47e	-7.6228e-41
86	0x000048bc	2.6092e-41
87	0x80015f87	-1.26104e-40
88	0x000011e3	6.417e-42
89	0x80004d8a	-2.7816e-41
90	0x00000186	5.47e-43
91	0x00009214	5.2403e-41
92	0x8000f0f3	-8.6436e-41
93	0x000055b2	3.0742e-41
94	0x0000336d	1.8448e-41
95	0x0000d453	7.6168e-41
96	0x8000ab5c	-6.1472e-41
97	0x8000cb86	-7.301e-41
98	0x8000cde7	-7.3864e-41
99	0x8000aa45	-6.1081e-41
100	0x00005ba8	3.288e-41
101	0x800049c9	-2.6469e-41
102	0x80010469	-9.3418e-41
103	0x00001cc8	1.0325e-41
104	0x0000cbe4	7.3142e-41
105	0x80003d10	-2.1905e-41
106	0x0000ac0f	6.1723e-41
107	0x0000f088	8.6286e-41
108	0x80005b1b	-3.2682e-41
109	0x80006c2b	-3.8803e-41
110	0x00009037	5.1735e-41
111	0x00004a22	2.6594e-41
112	0x00000803	2.874e-42
113	0x800102f8	-9.29e-41
114	0x800072e6	-4.1218e-41
115	0x8000e42b	-8.1851e-41
116	0x80005062	-2.8836e-41
117	0x8000eb16	-8.4333e-41
118	0x000071a8	4.0772e-41
119	0x0000873e	4.8516e-41
120	0x0000cfda	7.4563e-41
121	0x800046ef	-2.5446e-41
122	0x00005707	3.122e-41
123	0x80009221	-5.2421e-41
124	0x8000c619	-7.1064e-41
125	0x8000749f	-4.1836e-41
126	0x00001542	7.626e-42
127	0x0000cced	7.3514e-41
128	0x00016777	1.28952e-40
129	0x00003d1c	2.1922e-41
130	0x800054ed	-3.0466e-41
131	0x00007ec5	4.5476e-41
132	0x8000c715	-7.1417e-41
133	0x80002185	-1.2025e-41
134	0x8000d1e8	-7.53e-41
135	0x80015e86	-1.25744e-40
136	0x800147fd	-1.1766e-40
137	0x8000dadd	-7.8513e-41
138	0x000071df	4.0849e-41
139	0x0000c965	7.2247e-41
140	0x0000c212	6.962e-41
141	0x0001284a	1.06288e-40
142	0x0000e713	8.2894e-41
143	0x800124ed	-1.05082e-40
144	0x80014489	-1.16421e-40
145	0x000010ce	6.028e-42
146	0x00002b1d	1.5466e-41
147	0x0000ec6c	8.4812e-41
148	0x800099d2	-5.518e-41
149	0x00006801	3.731e-41
150	0x00008410	4.7375e-41
151	0x8000b032	-6.3207e-41
152	0x00005f14	3.4108e-41
153	0x00008a6a	4.9654e-41
154	0x00010d28	9.6555e-41
155	0x8001346d	-1.10642e-40
156	0x8000a03a	-5.7478e-41
157	0x80000322	-1.124e-42
158	0x0000a463	5.8971e-41
159	0x000047c3	2.5743e-41
160	0x80006f67	-3.9964e-41
161	0x0001002a	9.1894e-41
162	0x000066a0	3.6815e-41
163	0x80001837	-8.687e-42
164	0x8000d476	-7.6217e-41
165	0x8000cdea	-7.3868e-41
166	0x800073dd	-4.1564e-41
167	0x00009834	5.46e-41
168	0x80010102	-9.2197e-41
169	0x0000473c	2.5554e-41
170	0x00005d2a	3.3421e-41
171	0x0000e1be	8.0981e-41
172	0x80001765	-8.392e-42
173	0x000068f9	3.7657e-41
174	0x000056de	3.1162e-41
175	0x80009573	-5.3612e-41
176	0x80002e34	-1.6575e-41
177	0x00009ca5	5.6193e-41
178	0x800150e5	-1.20855e-40
179	0x8000af6d	-6.2931e-41
180	0x8000069b	-2.37e-42
181	0x8000cb8c	-7.3019e-41
182	0x00008334	4.7067e-41
183	0x00007357	4.1376e-41
184	0x8000c54b	-7.0775e-41
185	0x8000914f	-5.2127e-41
186	0x0000c439	7.0391e-41
187	0x80003235	-1.8011e-41
188	0x80008d04	-5.0587e-41
189	0x80005f2b	-3.414e-41
190	0x800027d3	-1.4286e-41
191	0x00018a09	1.41353e-40
192	0x8000a060	-5.7532e-41
193	0x00004fb7	2.8596e-41
194	0x0000e70b	8.2883e-41
195	0x00008d36	5.0657e-41
196	0x80002adb	-1.5374e-41
197	0x0000678f	3.715e-41
198	0x80008e81	-5.1121e-41
199	0x80010f1a	-9.7253e-41
200	0x0000d611	7.6793e-41
201	0x0000240d	1.2933e-41
202	0x0000c032	6.8947e-41
203	0x8000c5ce	-7.0959e-41
204	0x800119aa	-1.01042e-40
205	0x8000adec	-6.2391e-41
206	0x0000e2b2	8.1323e-41
207	0x8000e2f4	-8.1415e-41
208	0x80007897	-4.326e-41
209	0x0001426b	1.15662e-40
210	0x0000028b	9.12e-43
211	0x0000c2a7	6.9828e-41
212	0x80006d64	-3.9242e-41
213	0x80000757	-2.633e-42
214	0x00004777	2.5637e-41
215	0x8000cb14	-7.2851e-41
216	0x0000cde6	7.3862e-41
217	0x00008cfa	5.0573e-41
218	0x80012a29	-1.0696e-40
219	0x000095f4	5.3793e-41
220	0x00002fd2	1.7155e-41
221	0x800054a9	-3.037e-41
222	0x8000d857	-7.7608e-41
223	0x0000313e	1.7665e-41
224	0x8000c9fc	-7.2458e-41
225	0x000079ef	4.3742e-41
226	0x00006552	3.6347e-41
227	0x8000199d	-9.188e-42
228	0x8000fc1b	-9.0438e-41
229	0x8000f356	-8.7292e-41
230	0x0001413c	1.15237e-40
231	0x000105db	9.3936e-41
232	0x000028c2	1.4621e-41
233	0x8001023e	-9.264e-41
234	0x0000ea6d	8.4096e-41
235	0x8000c6a7	-7.1263e-41
236	0x00008216	4.6666e-41
237	0x8000a071	-5.7556e-41
238	0x800089b0	-4.9393e-41
239	0x00006765	3.7091e-41
240	0x8000e17f	-8.0893e-41
241	0x0000b86c	6.6158e-41
242	0x0000f443	8.7625e-41
243	0x00000283	9.01e-43
244	0x80000764	-2.651e-42
245	0x800052d9	-2.972e-41
246	0x80011302	-9.8654e-41
247	0x00013689	1.11399e-40
248	0x00003fe2	2.2917e-41
249	0x8000c0e4	-6.9196e-41
250	0x000040b6	2.3214e-41
251	0x0000473f	2.5558e-41
252	0x8000e61d	-8.2549e-41
253	0x00009e0b	5.6695e-41
254	0x8000bee4	-6.8479e-41
255	0x800014ac	-7.416e-42

e_conv4.point_conv.bias f4 [32]
0	0x80a6a09d	-1.530231e-38
1	0x0000c4ef	7.0646e-41
2	0x800092c6	-5.2652e-41
3	0x21dbceff	1.4894809e-18
4	0x0000149a	7.39e-42
5	0x84583869	-2.541658e-36
6	0x80000bce	-4.235e-42
7	0x8433e608	-2.1146974e-36
8	0x000052a9	2.9653e-41
9	0x067bb0ed	4.7337838e-35
10	0x8673559d	-4.576612e-35
11	0x33b23337	8.298087e-08
12	0x000062a7	3.539e-41
13	0x8000072a	-2.57e-42
14	0x838b81ad	-8.199458e-37
15	0x8006a5e6	-6.10526e-40
16	0x8001640e	-1.27728e-40
17	0x8b1c1108	-3.005732e-32
18	0x0fc2600b	1.9166871e-29
19	0x000062a8	3.5391e-41
20	0x8febaff5	-2.3240565e-29
21	0x000078f2	4.3387e-41
22	0x05c5d892	1.8605346e-35
23	0x06c4bd51	7.400518e-35
24	0x0000f585	8.8076e-41
25	0x0000e62b	8.2569e-41
26	0x8c97c21d	-2.3382061e-31
27	0x0000c32b	7.0013e-41
28	0x02d06001	3.0617957e-37
29	0x80007750	-4.2801e-41
30	0x0d9ed243	9.78812e-31
31	0x8000ef0f	-8.5758e-41
