Zero-DCE++/snapshots_Zero_DCE++/Epoch65.pth (torch, 51217 bytes, 28 tensors)

e_conv1.depth_conv.weight f4 [3, 1, 3, 3]
0	0xbeb38e7b	-0.3506964
1	0xbe300a34	-0.17191392
2	0x3c105520	0.008809358
3	0xbe2bc5e8	-0.16774714
4	0x3de305e9	0.11085112
5	0x3ddb0cef	0.10695826
6	0xbed2496e	-0.41071647
7	0xbe2b5cf0	-0.16734672
8	0xbd4327aa	-0.04764525
9	0x3e4e41ec	0.20142335
10	0x3e2862b1	0.16443898
11	0x3eaad3c9	0.33364704
12	0x3e38676e	0.18008205
13	0x3cc0a2a4	0.023515053
14	0x3e69ee3d	0.22844787
15	0x3db02d1f	0.08602356
16	0x3c8808d2	0.016605768
17	0x3e593e92	0.21215275
18	0x3d0fa5a6	0.035070084
19	0xbd281e29	-0.041044388
20	0xbe18cdc5	-0.14922245
21	0xbd066057	-0.03280672
22	0xbd98593a	-0.074388936
23	0xbdf53e56	-0.1197478
24	0xbdb4b8d9	-0.088243194
25	0xbe36b838	-0.17843711
26	0xbea7edb9	-0.32798555

e_conv1.depth_conv.bias f4 [3]
0	0x3d98dd3e	0.074640736
1	0x3e9d5047	0.3072531
2	0xbd490ae5	-0.049082655

e_conv1.point_conv.weight f4 [32, 3, 1, 1]
0	0x3c184b60	0.009295315
1	0x3e424d74	0.18974859
2	0x3d9fcf2e	0.07803188
3	0xbaa3b165	-0.0012488781
4	0xba82f611	-0.0009991546
5	0xbafb3880	-0.0019166619
6	0x800008cd	-3.157e-42
7	0x00002dce	1.6432e-41
8	0x00003632	1.9442e-41
9	0x3dbf97e5	0.093551435
10	0xbf036e0b	-0.5133979
11	0x3e1739f4	0.14768201
12	0x22ac922f	4.677547e-18
13	0xa3ba6e7f	-2.0212957e-17
14	0xa202ffea	-1.7753765e-18
15	0x3bcf1a47	0.006320271
16	0x3db81c67	0.08989792
17	0x3ece8065	0.40332332
18	0x3dee66ca	0.11640699
19	0x3e9a1bff	0.30099484
20	0xbe4bbca8	-0.19896185
21	0x12c778ff	1.2588493e-27
22	0x933f7c1b	-2.4168778e-27
23	0x122e52b5	5.5006663e-28
24	0x3d485cce	0.04891663
25	0xbbec4904	-0.0072108526
26	0x3dc01eda	0.093808845
27	0x3d594a7f	0.05304956
28	0xbcb40eef	-0.021979777
29	0xbde39ee8	-0.11114293
30	0x3ec6b104	0.38806927
31	0xbf0e1c1d	-0.5551165
32	0x3eacec46	0.33774012
33	0xbbb3fcd2	-0.005492785
34	0xbd3a6748	-0.045508653
35	0x3d627799	0.05528984
36	0x3e40a1d8	0.18811738
37	0xbec85cb3	-0.39133224
38	0xbe28f717	-0.16500507
39	0xbd820d17	-0.06350153
40	0xbe1783fe	-0.14796445
41	0x3e02541d	0.12727399
42	0x800036a8	-1.9607e-41
43	0x80009c61	-5.6098e-41
44	0x0000ff85	9.1663e-41
45	0x3cd35472	0.025797103
46	0x3ea4acd6	0.32163113
47	0x3e8adeae	0.27123016
48	0xbe80a05f	-0.25122353
49	0x3eb7b13a	0.358774
50	0xbe95a225	-0.2922527
51	0xb884e9a5	-6.33777e-05
52	0xb938d794	-0.00017627917
53	0xb7db1239	-2.611532e-05
54	0xbbd0e07b	-0.0063744164
55	0x3b32bd6c	0.0027273549
56	0xbcbe796a	-0.023251254
57	0x36858878	3.979596e-06
58	0x373f87cc	1.1416105e-05
59	0x3816deed	3.5970403e-05
60	0xbf10b2ca	-0.5652281
61	0xbd888171	-0.06665314
62	0xbeafaffd	-0.34313956
63	0xb9e1496c	-0.00042970048
64	0xbaa22837	-0.0012371604
65	0xbb1a485f	-0.0023541672
66	0xbc34319e	-0.010998158
67	0x3baf441c	0.0053486954
68	0x3ccfaa34	0.025349714
69	0x3b5e27a5	0.0033898142
70	0xbb8e7a4f	-0.0043480764
71	0x3b81fec9	0.0039671403
72	0x8a0458f9	-6.372303e-33
73	0x0c309db6	1.3606006e-31
74	0x0b91b2f0	5.6121204e-32
75	0x8000abfb	-6.1695e-41
76	0x0f63921b	1.1220103e-29
77	0x800029bb	-1.497e-41
78	0x060b5c74	2.6210918e-35
79	0x86b0b176	-6.64646e-35
80	0x064a0ea6	3.800274e-35
81	0x3e965d98	0.2936828
82	0xbe0715fe	-0.13191983
83	0xbe905be1	-0.28195098
84	0x3cc14277	0.023591263
85	0xbd4583f8	-0.04822156
86	0x3bf73397	0.007543992
87	0x8001e567	-1.7413e-40
88	0x8000ef50	-8.5849e-41
89	0x00004e3c	2.8065e-41
90	0x3e83d52d	0.25748578
91	0x3c53dc86	0.012930995
92	0xbd7ac1fe	-0.06122016
93	0xbe75a74d	-0.23989601
94	0x3edd9f5b	0.4328564
95	0xbea2bbf4	-0.31784022

e_conv1.point_conv.bias f4 [32]
0	0xbe0a6a78	-0.13517177
1	0xb8ad1c46	-8.254549e-05
2	0x8264c944	-1.6808555e-37
3	0x3f1203c6	0.5703701
4	0xaea4ae22	-7.488789e-11
5	0x3da11e8c	0.078671545
6	0x3e8724aa	0.2639516
7	0x91bddb89	-2.995424e-28
8	0x3d7728d1	0.06034166
9	0xbc8e9901	-0.017406942
10	0x3ed17518	0.40909648
11	0x3eea7274	0.45790446
12	0x3eb5d015	0.35510316
13	0x3e9bb54c	0.30411756
14	0x000052eb	2.9745e-41
15	0x3efa9f82	0.4894982
16	0xbd1ca9ca	-0.03824786
17	0xba3bafba	-0.0007159669
18	0xbc748389	-0.014923939
19	0xb7882225	-1.6228363e-05
20	0x3ed23cac	0.41061914
21	0x3a07f459	0.0005186252
22	0x3ea92f60	0.33043957
23	0xbb273a15	-0.0025516797
24	0x8c82359b	-2.0061934e-31
25	0x9d9a9173	-4.091385e-21
26	0x86bd3cc5	-7.118319e-35
27	0x3e9df2b6	0.30849236
28	0x3d41c325	0.047305245
29	0x00009e97	5.6891e-41
30	0x3f058c59	0.5216728
31	0xbda7d530	-0.08194959

e_conv2.depth_conv.weight f4 [32, 1, 3, 3]
0	0xbc758c7a	-0.0149871055
1	0xbc9c2a37	-0.019063098
2	0xbc85fb3b	-0.016355148
3	0xbca53505	-0.020166883
4	0xbd01ec74	-0.03171964
5	0xbcb16a7e	-0.021657225
6	0xbd0f89d0	-0.035043538
7	0xbd31b282	-0.04338313
8	0xbcefe555	-0.029284159
9	0xb8e79d2c	-0.00011044214
10	0xb8bbb82f	-8.951162e-05
11	0xb8eb9bb7	-0.000112346774
12	0x380dd8f6	3.381908e-05
13	0x3814ed19	3.5506764e-05
14	0x379b82a1	1.8538269e-05
15	0xb80eeedd	-3.4077897e-05
16	0x384e5f56	4.9203016e-05
17	0x389982f2	7.319999e-05
18	0x80016ca5	-1.3081e-40
19	0x000066dc	3.6899e-41
20	0x00000ea8	5.258e-42
21	0x00011e7e	1.02774e-40
22	0x00006907	3.7677e-41
23	0x8000a184	-5.7941e-41
24	0x8001363c	-1.11291e-40
25	0x0000d665	7.691e-41
26	0x00013af7	1.12988e-40
27	0xbe90053f	-0.28129002
28	0xbe7d92bb	-0.24763004
29	0xbd5de8c1	-0.05417705
30	0xbde43545	-0.11142973
31	0x3dc92545	0.09821562
32	0x3e724e5f	0.23662709
33	0x3e899af5	0.26876035
34	0x3b8bffdb	0.0042724437
35	0x3ef0fc2d	0.47067395
36	0x20a9553b	2.8686114e-19
37	0xa0d0320f	-3.5269697e-19
38	0xa0a1f08c	-2.7433641e-19
39	0xa0e59d9b	-3.8898404e-19
40	0x208686e2	2.278974e-19
41	0x2021a33f	1.3691244e-19
42	0x20a1d87a	2.7417713e-19
43	0xa01310e7	-1.2456977e-19
44	0xa0cfd96f	-3.521105e-19
45	0x3cb2ab01	0.021810057
46	0x3d7e27cd	0.062049676
47	0x3b8b2dd3	0.004247406
48	0x3d6dba38	0.05803892
49	0x3e01b525	0.12666757
50	0x3cbe25f8	0.023211464
51	0xbd4d309f	-0.050095197
52	0xbc0b2770	-0.008493289
53	0xbe39c045	-0.18139751
54	0x3da4270b	0.08015259
55	0xbccc5613	-0.024943387
56	0xbe82fc39	-0.25583056
57	0x3d60b67d	0.054861534
58	0x3e0eb944	0.1393786
59	0xbdc33d09	-0.09533126
60	0xbd0153a7	-0.031573918
61	0xbc336bf9	-0.010951036
62	0xbe9cab46	-0.3059942
63	0x9148f6f3	-1.5853315e-28
64	0x918b4b21	-2.1976635e-28
65	0x90b167b6	-6.997398e-29
66	0x91899f15	-2.171283e-28
67	0x11abf447	2.712959e-28
68	0x10c985b1	7.9486505e-29
69	0x915d1128	-1.7439113e-28
70	0x91878e68	-2.138701e-28
71	0x907b1ec8	-4.9524735e-29
72	0x3ca65d8b	0.020308277
73	0x3b5a8e23	0.003334888
74	0xba862dc9	-0.0010237034
75	0x3c2548f6	0.010088196
76	0x3a6573f7	0.0008752937
77	0x3b656676	0.0035003698
78	0x3c02cab2	0.007982897
79	0x3c62855a	0.013825739
80	0x3cfb0865	0.030643651
81	0x3c2e5797	0.010641
82	0x3b4ce5a6	0.003126481
83	0xbba48255	-0.0050204196
84	0x3c5f1736	0.013616374
85	0x3b443d6e	0.0029943842
86	0xbba59f61	-0.0050544
87	0x3c050d02	0.008120777
88	0xbb236364	-0.0024931068
89	0xbb9ac210	-0.004722841
90	0x3e9a25c8	0.3010695
91	0x3e7c4f28	0.2463957
92	0x3e761c3a	0.24034205
93	0x3e7d7c8c	0.24754542
94	0xbd14ef8b	-0.03636126
95	0x3e9898fd	0.2980422
96	0x3e939b69	0.28829506
97	0x3dcb2e38	0.09920925
98	0x3dc87228	0.097873986
99	0x3e6cc9f3	0.23123913
100	0xbe2a406e	-0.1662614
101	0x3e28e476	0.16493401
102	0x3d9b987d	0.07597444
103	0xbe4f3c98	-0.20237958
104	0xbddf81c7	-0.10913425
105	0x3e85e162	0.26148516
106	0x3d8baa32	0.068195716
107	0x3e34560c	0.1761095
108	0x3ec2211b	0.37915882
109	0x3e00a803	0.12564091
110	0x3e58a7ac	0.21157712
111	0x3e92ec34	0.28695834
112	0x3e414d4f	0.18877147
113	0x3dd2b3db	0.10288211
114	0x3e854e3d	0.26036254
115	0x3e0950cb	0.13409726
116	0xbd9420d6	-0.072328255
117	0x3ca547bd	0.020175809
118	0x3d3fb22a	0.04680077
119	0x3da38304	0.079839736
120	0x3dccdf86	0.10003571
121	0xbdd9bbd9	-0.10631532
122	0x3e3f9541	0.1870928
123	0xbd8e5c5b	-0.06951209
124	0x3d7463f0	0.05966562
125	0x3ec1e259	0.37868002
126	0x800118eb	-1.00774e-40
127	0x0000e797	8.3079e-41
128	0x00001dab	1.0643e-41
129	0x00013bbf	1.13268e-40
130	0x00011f42	1.03049e-40
131	0x000051d7	2.9359e-41
132	0x00011249	9.8395e-41
133	0x0001739b	1.33307e-40
134	0x80012a25	-1.06954e-40
135	0xbd745cc4	-0.05965878
136	0x3e1d8ad8	0.15384996
137	0xbe0aff8a	-0.13574043
138	0x3df7689d	0.120805
139	0x3e51c5b5	0.20485575
140	0x3e38aaf3	0.18033962
141	0xbe1dbb71	-0.15403534
142	0xbd92d0b0	-0.0716871
143	0xbdbb6445	-0.09149984
144	0x3dcaebbc	0.09908244
145	0x3e663068	0.22479403
146	0x3eb41876	0.35174912
147	0x3deee4fe	0.116647705
148	0x3d454870	0.048164785
149	0x3e0093f3	0.12556438
150	0xbe175a24	-0.1478048
151	0xbd997a52	-0.07494034
152	0xbe591fdf	-0.21203564
153	0x8000fd08	-9.077e-41
154	0x8000e4c9	-8.2073e-41
155	0x80009dbf	-5.6589e-41
156	0x0001015c	9.2323e-41
157	0x8000f6bd	-8.8513e-41
158	0x800002de	-1.029e-42
159	0x8000af75	-6.2942e-41
160	0x0000533f	2.9863e-41
161	0x000078e7	4.3372e-41
162	0x34d42207	3.9512835e-07
163	0x33f22e22	1.1277395e-07
164	0xb507f97d	-5.065447e-07
165	0x3551ca5b	7.8153033e-07
166	0x33b19eb2	8.271071e-08
167	0x3484cf50	2.4737756e-07
168	0x334a9976	4.7171362e-08
169	0xb4353d41	-1.6879223e-07
170	0xb417f946	-1.4153656e-07
171	0x37a04f65	1.9110457e-05
172	0x378c3e88	1.6718419e-05
173	0x37db56bb	2.6147221e-05
174	0x37a53a6e	1.9696741e-05
175	0x37bb108e	2.2299846e-05
176	0x379e11b9	1.884332e-05
177	0x37940039	1.7643079e-05
178	0x378965e8	1.6379126e-05
179	0x37ca5256	2.4118617e-05
180	0xbd8af2a5	-0.06784562
181	0x3e6cf0c2	0.23138717
182	0xbe502c6e	-0.20329449
183	0xbea2bf13	-0.31786403
184	0xbc22dd6f	-0.009940489
185	0x3d54f4c3	0.051991235
186	0xbeaac4c7	-0.33353254
187	0xbe75f118	-0.24017751
188	0xbe87b9f2	-0.26509053
189	0x39b40dfc	0.00034342695
190	0x39b646ab	0.00034766397
191	0x3a02f7d0	0.00049960334
192	0x37fa06ae	2.9805433e-05
193	0x38caeb19	9.675901e-05
194	0x394b0949	0.00019363048
195	0xb69cfa4e	-4.6783016e-06
196	0xb825f21e	-3.9564555e-05
197	0xb96e9ed6	-0.0002275662
198	0xbd8e1f5b	-0.06939574
199	0xbdc451b9	-0.095859
200	0x3d593f31	0.05303878
201	0xbdc708a8	-0.09718448
202	0xbdb334be	-0.08750294
203	0x3b08bd67	0.0020864846
204	0xbd8011e5	-0.06253413
205	0xbdb75427	-0.08951598
206	0xbca9a5f0	-0.020709008
207	0x35cd98a0	1.531811e-06
208	0xb79ca664	-1.867413e-05
209	0xb8195f19	-3.656661e-05
210	0x35fce249	1.8841321e-06
211	0xb75ebea9	-1.3276623e-05
212	0xb7e0032e	-2.6704362e-05
213	0x37c523d0	2.3500907e-05
214	0x368cfafc	4.2015436e-06
215	0xb717b9bf	-9.043549e-06
216	0x0a05c389	6.440493e-33
217	0x87bf3cb6	-2.8774169e-34
218	0x8a73bcea	-1.1735555e-32
219	0x0a2e00f0	8.3779716e-33
220	0x8a15d3c5	-7.2139185e-33
221	0x0a33163f	8.6227205e-33
222	0x0a1f6d5d	7.6761405e-33
223	0x8711b249	-1.0960981e-34
224	0x0a273e27	8.052447e-33
225	0x00002483	1.3098e-41
226	0x0001b4b1	1.56655e-40
227	0x00006185	3.4983e-41
228	0x80008870	-4.8945e-41
229	0x8001a576	-1.51192e-40
230	0x00001622	7.94e-42
231	0x0001715a	1.32498e-40
232	0x0001144b	9.9115e-41
233	0x8000287e	-1.4526e-41
234	0x041f8de9	1.8755522e-36
235	0x82af6ccd	-2.5776388e-37
236	0x83b1c05a	-1.0447287e-36
237	0x832c51e9	-5.0640285e-37
238	0x04120cb3	1.7168049e-36
239	0x0418bde3	1.7954706e-36
240	0x83d48d0d	-1.2492624e-36
241	0x0426f08f	1.9623665e-36
242	0x03e51747	1.34647545e-36
243	0x3ea2f635	0.31828466
244	0x39c709f0	0.00037963642
245	0x3d62ce77	0.05537268
246	0xba28c26d	-0.0006437663
247	0x3d185df5	0.03719898
248	0x3d6bb0e9	0.05754176
249	0x3cc27313	0.023736512
250	0xbcd34e41	-0.02579415
251	0xbcfcc901	-0.030857565
252	0xbb53fd80	-0.0032347143
253	0xbaebb855	-0.0017984012
254	0xbbb573e3	-0.0055374964
255	0x3aa44ec6	0.0012535683

e_conv2.depth_conv.bias f4 [32]
0	0x3dc86ac7	0.09785991
1	0xbde6f175	-0.11276523
2	0x398931d3	0.00026167798
3	0xbd5f5bc0	-0.05453086
4	0xbe290052	-0.16504028
5	0x3e499379	0.19685163
6	0x3c8bffc4	0.017089732
7	0x3e0d0ddf	0.13774823
8	0x3e866afa	0.26253492
9	0xbe7b5e5a	-0.24547711
10	0x3c3d41c7	0.011551327
11	0xbdb4e027	-0.08831816
12	0xbe655e90	-0.22399354
13	0xbd512d2b	-0.051068466
14	0x3e121e45	0.1426936
15	0x3e5518c8	0.20810235
16	0x3e3095e3	0.17244677
17	0xbcb4f5b8	-0.022089824
18	0xb86ab86d	-5.5961707e-05
19	0x3e2d23e2	0.1690822
20	0x3e87ab53	0.26497898
21	0x3e378533	0.17921905
22	0xbddfaa1a	-0.10921116
23	0x3e401a02	0.18759921
24	0xbda632b2	-0.08115138
25	0xbd0a00c9	-0.033692155
26	0x3d99e5b3	0.07514515
27	0xbe59830c	-0.21241397
28	0xbd971629	-0.073772736
29	0xbe2ac08a	-0.1667501
30	0xbdb21ffe	-0.08697508
31	0x3e999046	0.29992884

e_conv2.point_conv.weight f4 [32, 32, 1, 1]
0	0xbc51b44b	-0.012799333
1	0xbc13e4bb	-0.009026702
2	0xb954600b	-0.00020253674
3	0x3da739fe	0.08165358
4	0x3c754d71	0.014972077
5	0xbd8e938b	-0.06961735
6	0x3c9920c7	0.018692387
7	0xbcd76af3	-0.026296115
8	0xbd6425db	-0.055700164
9	0x3c4218fc	0.011846777
10	0x3d59eec7	0.05320623
11	0x3d1ff4fd	0.039052
12	0x3e2ae349	0.16688265
13	0x3d060eec	0.032729074
14	0xbc48103b	-0.012210901
15	0xbe02a413	-0.12757902
16	0x3caf44ce	0.021395113
17	0x3b63f336	0.0034782416
18	0x38b70ab5	8.728114e-05
19	0xbd48b7aa	-0.04900328
20	0x3e8bf788	0.2733729
21	0x3ca415ab	0.020029863
22	0x3d56e194	0.05246122
23	0xbd68c4c4	-0.056828275
24	0x3a695e3c	0.00089022866
25	0x3ba44a35	0.005013729
26	0xbc68f53c	-0.014218625
27	0x3d3d9b97	0.04629096
28	0x3c96baa4	0.018399544
29	0x3ce753e6	0.028238248
30	0xbe18e340	-0.14930439
31	0xbc3082b9	-0.010773354
32	0x3d798c67	0.060924914
33	0xbda7325e	-0.08163904
34	0x38b430fe	8.592194e-05
35	0xbdc0d042	-0.09414722
36	0x3c4bd0ab	0.012439887
37	0x3d914393	0.07092967
38	0x3c5ee330	0.01360397
39	0x3cd09b50	0.025464684
40	0x3dbb2a4d	0.091389276
41	0xbdbe46be	-0.09290837
42	0x3e9dfa62	0.3085509
43	0x3e4b29d8	0.19840181
44	0x3e84413b	0.25831017
45	0x3de033a5	0.109473504
46	0xbb8d9f3c	-0.0043219607
47	0x3e01f4e8	0.1269108
48	0x3df0f1e1	0.11764885
49	0xbbf6e833	-0.0075350045
50	0xb5e648ba	-1.7157502e-06
51	0xbb61c167	-0.0034447552
52	0xba0e3e12	-0.00054261193
53	0x3d535f27	0.051604416
54	0x3b386448	0.0028135944
55	0x3de5c9bf	0.11220121
56	0xbc7ab201	-0.0153012285
57	0xbc227753	-0.009916144
58	0xbc458e16	-0.012057802
59	0x3e4efd7c	0.20213884
60	0xbda29497	-0.079384975
61	0xbd043ffd	-0.032287586
62	0xbe891cbb	-0.26779732
63	0x3de8b1e5	0.11362056
64	0x3bb88821	0.005631462
65	0xbc10ff19	-0.0088498825
66	0x385a22ea	5.2007766e-05
67	0x3eb013a3	0.34389982
68	0xb9e45c4f	-0.00043556324
69	0x3d2b2744	0.041785493
70	0x3d1ed83d	0.03878044
71	0x3b3d08c9	0.0028844348
72	0xbcba672e	-0.022754278
73	0xbd4340d4	-0.047669247
74	0xbdff331e	-0.12460922
75	0xbd94362a	-0.072368935
76	0xbe8b9ebd	-0.27269545
77	0x3d39048e	0.04517036
78	0xbbb5778c	-0.0055379327
79	0x3cef886d	0.029239858
80	0x3d8f82b5	0.07007352
81	0xbbb11d49	-0.0054051024
82	0xb824e5f3	-3.9314804e-05
83	0x3cbe2eba	0.02321564
84	0xbc96fa0e	-0.018429782
85	0x3c82e7db	0.015979698
86	0xbbcbea80	-0.006223023
87	0x3d701c8f	0.058620986
88	0xbc351b45	-0.011053865
89	0xbbd3bb72	-0.006461554
90	0x3c778189	0.015106567
91	0xbe66601a	-0.22497597
92	0xbc6a568e	-0.014302863
93	0xbd1964ae	-0.03744953
94	0x3da9cd0b	0.08291062
95	0x3aa0e346	0.0012274764
96	0x0000fd8c	9.0955e-41
97	0x8000a228	-5.8171e-41
98	0x80013414	-1.10518e-40
99	0x80011541	-9.946e-41
100	0x8000e4ba	-8.2052e-41
101	0x0000f1f3	8.6795e-41
102	0x0000dfba	8.0258e-41
103	0x800142d3	-1.15808e-40
104	0x000067a7	3.7183e-41
105	0x0000b604	6.5295e-41
106	0x0000aa3a	6.1066e-41
107	0x80013b11	-1.13025e-40
108	0x0000e59c	8.2368e-41
109	0x00007595	4.218e-41
110	0x80010ad2	-9.5717e-41
111	0x80004590	-2.4954e-41
112	0x0000d3b3	7.5943e-41
113	0x8000c7d5	-7.1686e-41
114	0x000168f6	1.29488e-40
115	0x00007f18	4.5593e-41
116	0x800006e2	-2.469e-42
117	0x00011a9e	1.01384e-40
118	0x800062a7	-3.539e-41
119	0x0000ee13	8.5405e-41
120	0x80003f6b	-2.275e-41
121	0x8000118a	-6.292e-42
122	0x800113e5	-9.8972e-41
123	0x8000dbd7	-7.8864e-41
124	0x0000e13d	8.08e-41
125	0x00012b1e	1.07303e-40
126	0x80000ad4	-3.884e-42
127	0x80005feb	-3.4409e-41
128	0x3aaef33d	0.0013347637
129	0x3baece9b	0.005334688
130	0x38865ebc	6.4072636e-05
131	0xbccd8de8	-0.02509208
132	0x3c9cef9d	0.019157225
133	0x3db64821	0.08900476
134	0xbe09932b	-0.13435046
135	0x3bd55b01	0.0065110927
136	0xbc68997c	-0.01419675
137	0xbd065c04	-0.032802597
138	0xbd817b1c	-0.063223094
139	0xbcc4e689	-0.024035709
140	0xbd78e77e	-0.060767643
141	0xbd3d36f8	-0.046195
142	0x3c81696c	0.01579734
143	0x3e1b5788	0.1517011
144	0x3c91d290	0.0178006
145	0xbb8944c8	-0.0041891076
146	0x36dc96ac	6.5740514e-06
147	0x3d10c0b3	0.035340022
148	0x3bc19372	0.0059074694
149	0xbb9c1133	-0.0047627925
150	0xbc1323ce	-0.0089807045
151	0xbc6871ec	-0.014187317
152	0xbc68ecb9	-0.014216595
153	0xbb913ebc	-0.0044325273
154	0x3c58547b	0.013203735
155	0xbb1ba5a1	-0.0023749846
156	0xbc3bbef7	-0.011459104
157	0xbd05d46a	-0.032673277
158	0x3d04f48c	0.03245978
159	0xbd9b0b27	-0.075704865
160	0x3c7a4abc	0.015276607
161	0xbc85a613	-0.016314542
162	0xb769356a	-1.3900319e-05
163	0xbcbbeac3	-0.022939092
164	0xbcb56e03	-0.022147184
165	0x3cfa9753	0.030589735
166	0x3defc1d2	0.1170689
167	0x3c924141	0.017853381
168	0x3cf7d6a4	0.030253716
169	0xbcecbccb	-0.028898617
170	0x3da91f89	0.08257968
171	0xbd404b82	-0.04694701
172	0x3d5534f4	0.052052453
173	0xbcb0ca22	-0.02158076
174	0x3c9af5c7	0.018916024
175	0x3d3dea36	0.04636594
176	0xbb0abbfc	-0.0021169176
177	0xbb2ff786	-0.0026850416
178	0x37fea050	3.035381e-05
179	0x3c9fc84d	0.01950469
180	0x3d9f06d3	0.077649735
181	0x3cbf3e79	0.023345219
182	0xbce604ef	-0.028078524
183	0x3cb8ce34	0.022559263
184	0xbc1c08dd	-0.009523598
185	0xbb71290e	-0.0036798152
186	0x3c1d2992	0.009592431
187	0x3bc33ad2	0.0059579397
188	0xbc342c0d	-0.010996831
189	0xbca9f126	-0.020744871
190	0x3c5372c2	0.012905778
191	0x3e1d5d11	0.15367533
192	0x3c1d67da	0.00960728
193	0x3c82701c	0.015922599
194	0x3794b556	1.7727416e-05
195	0x3e1ce9c9	0.15323557
196	0xbc3c2aa1	-0.011484773
197	0xbe4cecb7	-0.20012175
198	0x3e270c63	0.16313319
199	0x3b616f5c	0.003439865
200	0xbb09e07d	-0.0021038346
201	0xbce2f9a5	-0.02770693
202	0x3eb43426	0.35196036
203	0x3e2ab090	0.16668916
204	0x3e415c9d	0.18882985
205	0x3e5b6f3f	0.21429156
206	0x3bc9f90d	0.0061637224
207	0xbdc5635a	-0.096380904
208	0x3e33467e	0.1750736
209	0x3acdb7b4	0.0015695007
210	0x37c39e04	2.3319393e-05
211	0x3c8fe1c8	0.017563716
212	0xbd49b0ab	-0.04924075
213	0x3c616e89	0.013759264
214	0x3ced3949	0.02895798
215	0x3bc87208	0.006117109
216	0x3b84550f	0.00403846
217	0x3af49d47	0.0018662595
218	0x3b13dfbd	0.0022563778
219	0x3dda164f	0.10648786
220	0xb98894d8	-0.0002605084
221	0x3c835457	0.016031427
222	0xbe30ca22	-0.17264608
223	0x3e08dd7b	0.13365738
224	0x80013dd8	-1.14021e-40
225	0x80008702	-4.8432e-41
226	0x8000630a	-3.5529e-41
227	0x800075f8	-4.2319e-41
228	0x80004e53	-2.8097e-41
229	0x8000cdae	-7.3784e-41
230	0x0001073a	9.4428e-41
231	0x80004fd8	-2.8643e-41
232	0x000073c0	4.1523e-41
233	0x8000be55	-6.8278e-41
234	0x000052d1	2.9709e-41
235	0x00009f6c	5.719e-41
236	0x00008fa0	5.1523e-41
237	0x8000149c	-7.393e-42
238	0x8000f152	-8.657e-41
239	0x0000c2e8	6.9919e-41
240	0x800069a2	-3.7894e-41
241	0x000118db	1.00752e-40
242	0x8001fb0d	-1.81896e-40
243	0x0000d695	7.6978e-41
244	0x800029e8	-1.5033e-41
245	0x800120f6	-1.0366e-40
246	0x80005551	-3.0606e-41
247	0x8000afff	-6.3136e-41
248	0x8001344c	-1.10596e-40
249	0x00001eb3	1.1013e-41
250	0x0000581b	3.1606e-41
251	0x80000118	-3.92e-43
252	0x000102f4	9.2895e-41
253	0x80008e85	-5.1126e-41
254	0x8000ca6b	-7.2614e-41
255	0x8000aee2	-6.2736e-41

e_conv2.point_conv.bias f4 [32]
0	0x3daa2738	0.08308262
1	0x3d9329a5	0.071856774
2	0x3dcf7727	0.101301484
3	0x80004cd4	-2.7561e-41
4	0x3e1b2469	0.15150608
5	0x3dab36b6	0.08360045
6	0xbc486892	-0.012231963
7	0x00006aa5	3.8257e-41
8	0x3d9190d7	0.07107704
9	0x3ddad6dc	0.106855124
10	0x3c03a8ab	0.008035819
11	0xbd708add	-0.05872618
12	0x3ba246f5	0.0049523064
13	0x3e1c568c	0.1526739
14	0x3de323f2	0.110908404
15	0x22065e96	1.821046e-18
16	0x972aaee2	-5.5150696e-25
17	0x3c879487	0.016550316
18	0x3cfdaab6	0.03096519
19	0x8000cb88	-7.3013e-41
20	0xbd838c7d	-0.064232804
21	0xbbb3c62b	-0.00548627
22	0x3c873210	0.016503364
23	0x3b22e7ee	0.002485748
24	0x3d5a96df	0.053366538
25	0xbbe6e05e	-0.0070457896
26	0x3d27a620	0.040929914
27	0xbdccc8a6	-0.09999208
28	0xb5b9466d	-1.3804071e-06
29	0xa7168de0	-2.0893592e-15
30	0x3d667728	0.05626598
31	0x3db805a6	0.08985452

e_conv3.depth_conv.weight f4 [32, 1, 3, 3]
0	0x0000ac07	6.1712e-41
1	0x0000a0a5	5.7628e-41
2	0x0000d4ff	7.6409e-41
3	0x0000d989	7.8037e-41
4	0x0001a273	1.50111e-40
5	0x0000b9f3	6.6706e-41
6	0x0000a404	5.8838e-41
7	0x800068ae	-3.7552e-41
8	0x8000c33f	-7.0041e-41
9	0x00015880	1.23583e-40
10	0x00009a31	5.5313e-41
11	0x80017fa6	-1.37627e-40
12	0x000103ad	9.3154e-41
13	0x80009162	-5.2154e-41
14	0x8000f237	-8.689e-41
15	0x80019584	-1.45472e-40
16	0x000007d7	2.812e-42
17	0x0000f547	8.7989e-41
18	0x8001021a	-9.259e-41
19	0x8000a38a	-5.8667e-41
20	0x0001105f	9.7708e-41
21	0x8000f5c2	-8.8161e-41
22	0x0000797d	4.3582e-41
23	0x00000480	1.614e-42
24	0x0000241e	1.2956e-41
25	0x80008c5d	-5.0353e-41
26	0x0000772a	4.2748e-41
27	0x0000b93d	6.6451e-41
28	0x00005732	3.128e-41
29	0x80012e03	-1.08341e-40
30	0x8000ff51	-9.159e-41
31	0x00005ad7	3.2587e-41
32	0x0000aa5b	6.1112e-41
33	0x000051dc	2.9366e-41
34	0x80017763	-1.34663e-40
35	0x00010c90	9.6342e-41
36	0x00000135	4.33e-43
37	0x8000c212	-6.962e-41
38	0x000148f7	1.1801e-40
39	0x8000e2c6	-8.1351e-41
40	0x8001979c	-1.46223e-40
41	0x8000ee20	-8.5423e-41
42	0x0000c79b	7.1605e-41
43	0x0001a12c	1.49653e-40
44	0x80000fea	-5.709e-42
45	0x0001a510	1.51049e-40
46	0x80001754	-8.369e-42
47	0x0000535b	2.9902e-41
48	0x800005e6	-2.116e-42
49	0x80002cca	-1.6067e-41
50	0x800183d9	-1.39134e-40
51	0x80008c66	-5.0365e-41
52	0x00012d61	1.08114e-40
53	0x80020ee5	-1.89014e-40
54	0x80012a83	-1.07086e-40
55	0x0001b6fb	1.57477e-40
56	0x80009362	-5.2871e-41
57	0x8000cbab	-7.3062e-41
58	0x8001122f	-9.8359e-41
59	0x0001541e	1.22011e-40
60	0x800083ec	-4.7325e-41
61	0x80011f7e	-1.03133e-40
62	0x000079c1	4.3677e-41
63	0x800183af	-1.39075e-40
64	0x80000cdd	-4.614e-42
65	0x80003ffa	-2.295e-41
66	0x000029b4	1.496e-41
67	0x8000e8ca	-8.3509e-41
68	0x00011ea8	1.02833e-40
69	0x80020cd6	-1.88276e-40
70	0x800025ed	-1.3605e-41
71	0x000098e5	5.4848e-41
72	0x0000f755	8.8726e-41
73	0x00008941	4.9237e-41
74	0x80015084	-1.20719e-40
75	0x80002d48	-1.6244e-41
76	0x000056e9	3.1177e-41
77	0x000079ef	4.3742e-41
78	0x0000b0af	6.3382e-41
79	0x8000c2e5	-6.9915e-41
80	0x8001ab85	-1.53365e-40
81	0x8000b689	-6.5481e-41
82	0x0000210a	1.1852e-41
83	0x80006caa	-3.8981e-41
84	0x000060e9	3.4765e-41
85	0x00008e9d	5.116e-41
86	0x80008f7f	-5.1477e-41
87	0x8000d89c	-7.7705e-41
88	0x00000035	7.4e-44
89	0x0000ff84	9.1662e-41
90	0x00000e69	5.17e-42
91	0x8000b787	-6.5837e-41
92	0x80017275	-1.32895e-40
93	0x00010239	9.2633e-41
94	0x8001a77d	-1.51919e-40
95	0x00001621	7.938e-42
96	0x80002852	-1.4464e-41
97	0x0001b7c7	1.57762e-40
98	0x00001b1e	9.728e-42
99	0x80019755	-1.46123e-40
100	0x8000924d	-5.2483e-41
101	0x0000af19	6.2813e-41
102	0x0000315e	1.771e-41
103	0x0000fb53	9.0158e-41
104	0x00012a15	1.06932e-40
105	0x000159a7	1.23997e-40
106	0x0000cfbf	7.4525e-41
107	0x00012dce	1.08267e-40
108	0x000116e4	1.00047e-40
109	0x80009a03	-5.5249e-41
110	0x8000f3e4	-8.7491e-41
111	0x0000674f	3.706e-41
112	0x0001c6f9	1.63213e-40
113	0x8000f458	-8.7654e-41
114	0x0000fd8a	9.0953e-41
115	0x8001e4f5	-1.7397e-40
116	0x00004fae	2.8584e-41
117	0x0002030f	1.84768e-40
118	0x8001e2db	-1.73216e-40
119	0x80009c8b	-5.6157e-41
120	0x80011f8d	-1.03154e-40
121	0x000130ea	1.09383e-40
122	0x80012536	-1.05184e-40
123	0x0000ba3c	6.6808e-41
124	0x8000d514	-7.6438e-41
125	0x800124fb	-1.05102e-40
126	0x8000cf3c	-7.4342e-41
127	0x0000974e	5.4278e-41
128	0x000129e1	1.06859e-40
129	0x00012cbb	1.07882e-40
130	0x800105b0	-9.3876e-41
131	0x0000ca86	7.2652e-41
132	0x00002af4	1.5409e-41
133	0x00000e06	5.03e-42
134	0x8000e71e	-8.2909e-41
135	0x8000ac8f	-6.1902e-41
136	0x00000157	4.8e-43
137	0x0000af2e	6.2843e-41
138	0x00008e05	5.0947e-41
139	0x00016135	1.26707e-40
140	0x8001134e	-9.8761e-41
141	0x8000e925	-8.3636e-41
142	0x000064b4	3.6125e-41
143	0x00001d61	1.0539e-41
144	0x80004d5d	-2.7753e-41
145	0x00006467	3.6018e-41
146	0x000060e0	3.4752e-41
147	0x800080bb	-4.618e-41
148	0x00016697	1.28638e-40
149	0x00012df6	1.08323e-40
150	0x8001426d	-1.15665e-40
151	0x0000fd40	9.0849e-41
152	0x800009bc	-3.492e-42
153	0x8001b30d	-1.56067e-40
154	0x0000f4ca	8.7814e-41
155	0x0000948e	5.3291e-41
156	0x0000ffb2	9.1726e-41
157	0x8000ce3b	-7.3982e-41
158	0x80010e6e	-9.7012e-41
159	0x800035ad	-1.9255e-41
160	0x0001e793	1.74909e-40
161	0x00000bb1	4.194e-42
162	0x0000a981	6.0807e-41
163	0x80018acd	-1.41628e-40
164	0x0000fb9b	9.0259e-41
165	0x0000bf34	6.8591e-41
166	0x000012cf	6.747e-42
167	0x8001740b	-1.33464e-40
168	0x00014f6f	1.20331e-40
169	0x0000651f	3.6275e-41
170	0x00012fbf	1.08964e-40
171	0x00018375	1.38993e-40
172	0x8001a7cf	-1.52034e-40
173	0x0001b5c8	1.57046e-40
174	0x8001088d	-9.4903e-41
175	0x8001cf09	-1.66106e-40
176	0x80001bbb	-9.948e-42
177	0x000105db	9.3936e-41
178	0x00002906	1.4716e-41
179	0x80016410	-1.27731e-40
180	0x00002214	1.2225e-41
181	0x00005201	2.9417e-41
182	0x00003486	1.8842e-41
183	0x80014bff	-1.19098e-40
184	0x8000e4c1	-8.2061e-41
185	0x8000c08b	-6.9071e-41
186	0x80001084	-5.925e-42
187	0x00006685	3.6777e-41
188	0x000036be	1.9638e-41
189	0x800109ca	-9.5347e-41
190	0x0000df8f	8.0198e-41
191	0x00007c09	4.4495e-41
192	0x00010c76	9.6306e-41
193	0x000155b3	1.22579e-40
194	0x00000b55	4.065e-42
195	0x0000102e	5.804e-42
196	0x8000e7c7	-8.3146e-41
197	0x0000cc74	7.3344e-41
198	0x80014865	-1.17806e-40
199	0x000060b7	3.4695e-41
200	0x0001ff37	1.8339e-40
201	0x0000a7c7	6.0187e-41
202	0x00019b7f	1.47617e-40
203	0x8000ed6d	-8.5172e-41
204	0x8001a763	-1.51883e-40
205	0x8000c471	-7.047e-41
206	0x80010ac4	-9.5697e-41
207	0x00007f47	4.5659e-41
208	0x0000fa9a	8.9899e-41
209	0x00010eb7	9.7114e-41
210	0x80007e62	-4.5338e-41
211	0x000016af	8.137e-42
212	0x800133ff	-1.10488e-40
213	0x80004294	-2.3884e-41
214	0x800079f3	-4.3747e-41
215	0x0000de5e	7.977e-41
216	0x8000c522	-7.0718e-41
217	0x80006bed	-3.8716e-41
218	0x8000e400	-8.1791e-41
219	0x00013eb6	1.14332e-40
220	0x000100ff	9.2193e-41
221	0x00000fed	5.713e-42
222	0x000181df	1.38424e-40
223	0x80003ace	-2.1095e-41
224	0x8000530d	-2.9793e-41
225	0x800093cb	-5.3018e-41
226	0x0000677f	3.7127e-41
227	0x00002494	1.3122e-41
228	0x80007d04	-4.4847e-41
229	0x8001df7d	-1.72008e-40
230	0x00000c2a	4.364e-42
231	0x0001155c	9.9498e-41
232	0x8000bdc8	-6.808e-41
233	0x00012673	1.05628e-40
234	0x00010808	9.4717e-41
235	0x0001832e	1.38894e-40
236	0x00006d3a	3.9183e-41
237	0x8000bac1	-6.6995e-41
238	0x0000d439	7.6131e-41
239	0x800055c9	-3.0774e-41
240	0x00007e15	4.523e-41
241	0x00012d41	1.0807e-40
242	0x8000e4fd	-8.2146e-41
243	0x800026b3	-1.3883e-41
244	0x000176be	1.34432e-40
245	0x0000066d	2.305e-42
246	0x8000eac3	-8.4217e-41
247	0x0000dcfa	7.9271e-41
248	0x8000171c	-8.29e-42
249	0x80011411	-9.9034e-41
250	0x800184ce	-1.39477e-40
251	0x0000dbd6	7.8862e-41
252	0x80009b1b	-5.5641e-41
253	0x8001927b	-1.44383e-40
254	0x0000e433	8.1862e-41
255	0x80013d5b	-1.13846e-40

e_conv3.depth_conv.bias f4 [32]
0	0x0000c7c2	7.166e-41
1	0x0000e4f5	8.2134e-41
2	0x0000d9b6	7.81e-41
3	0x80012224	-1.04083e-40
4	0x0000fb31	9.011e-41
5	0x00013f39	1.14516e-40
6	0x00010d4c	9.6606e-41
7	0x00018372	1.38989e-40
8	0x80013337	-1.10208e-40
9	0x00004c3b	2.7346e-41
10	0x80009039	-5.1737e-41
11	0x00016364	1.2749e-40
12	0x8000b7e9	-6.5975e-41
13	0x800068c4	-3.7583e-41
14	0x0001178b	1.00281e-40
15	0x00006da6	3.9334e-41
16	0x80006bea	-3.8712e-41
17	0x0000e00e	8.0376e-41
18	0x0000fe9f	9.1341e-41
19	0x00009cb3	5.6213e-41
20	0x8000a952	-6.074e-41
21	0x80001b6b	-9.836e-42
22	0x8000d899	-7.77e-41
23	0x00010ddd	9.6809e-41
24	0x800013de	-7.127e-42
25	0x8001577e	-1.23222e-40
26	0x8001481d	-1.17705e-40
27	0x8001a934	-1.52534e-40
28	0x0000d89d	7.7706e-41
29	0x800149a0	-1.18247e-40
30	0x0000e340	8.1522e-41
31	0x00003fb0	2.2847e-41

e_conv3.point_conv.weight f4 [32, 32, 1, 1]
0	0x8000e645	-8.2605e-41
1	0x80004046	-2.3057e-41
2	0x0001a150	1.49704e-40
3	0x00008312	4.7019e-41
4	0x00013c05	1.13366e-40
5	0x8000ebb4	-8.4554e-41
6	0x80005f74	-3.4242e-41
7	0x80019d34	-1.4823e-40
8	0x000191af	1.44097e-40
9	0x0000b19d	6.3716e-41
10	0x0000d8cb	7.777e-41
11	0x0000d859	7.7611e-41
12	0x80002565	-1.3415e-41
13	0x8001cdec	-1.65706e-40
14	0x0000270d	1.4009e-41
15	0x0001275b	1.05954e-40
16	0x000051d5	2.9356e-41
17	0x0000d8c9	7.7768e-41
18	0x8000ff59	-9.1601e-41
19	0x00009549	5.3553e-41
20	0x8001c40a	-1.62161e-40
21	0x00006000	3.4438e-41
22	0x80009600	-5.381e-41
23	0x800123ed	-1.04723e-40
24	0x8000674d	-3.7057e-41
25	0x00017f7a	1.37565e-40
26	0x0001f328	1.79064e-40
27	0x0002217d	1.95684e-40
28	0x800117ad	-1.00329e-40
29	0x8000fd12	-9.0785e-41
30	0x8001cf85	-1.6628e-40
31	0x0000fb25	9.0094e-41
32	0x8001ba07	-1.5857e-40
33	0x80019a86	-1.47268e-40
34	0x0001865c	1.40035e-40
35	0x0000b606	6.5298e-41
36	0x00006e09	3.9473e-41
37	0x0000f997	8.9536e-41
38	0x8000c0da	-6.9182e-41
39	0x00005454	3.0251e-41
40	0x00016b3c	1.30304e-40
41	0x0000628b	3.535e-41
42	0x8001c4a3	-1.62375e-40
43	0x0001865e	1.40037e-40
44	0x80014a54	-1.185e-40
45	0x8001782e	-1.34948e-40
46	0x000138a3	1.12153e-40
47	0x800109f3	-9.5405e-41
48	0x80019108	-1.43863e-40
49	0x00007a7c	4.3939e-41
50	0x000109f7	9.541e-41
51	0x800072b1	-4.1144e-41
52	0x800135ec	-1.11179e-40
53	0x00017c54	1.36436e-40
54	0x0001ad9a	1.54112e-40
55	0x8000fb94	-9.0249e-41
56	0x00011bf6	1.01866e-40
57	0x0001cfb7	1.6635e-40
58	0x8001776a	-1.34673e-40
59	0x00009788	5.4359e-41
60	0x00015a91	1.24325e-40
61	0x0000f1ec	8.6785e-41
62	0x800021f8	-1.2186e-41
63	0x000092d5	5.2673e-41
64	0x00008365	4.7135e-41
65	0x00012ffd	1.0905e-40
66	0x800021e1	-1.2153e-41
67	0x8000fafa	-9.0033e-41
68	0x00008b68	5.001e-41
69	0x00018645	1.40002e-40
70	0x80009e08	-5.6691e-41
71	0x800041a6	-2.355e-41
72	0x0000de61	7.9775e-41
73	0x0000fe03	9.1122e-41
74	0x00004e93	2.8187e-41
75	0x0001f3fa	1.79358e-40
76	0x00002006	1.1488e-41
77	0x000136bb	1.11469e-40
78	0x0000434f	2.4146e-41
79	0x80004aae	-2.679e-41
80	0x0000d043	7.471e-41
81	0x000010dd	6.05e-42
82	0x800145bc	-1.16851e-40
83	0x00003aa0	2.103e-41
84	0x8000f0bb	-8.6358e-41
85	0x0000ea0e	8.3963e-41
86	0x80007a43	-4.3859e-41
87	0x00006fa4	4.0049e-41
88	0x80013ab0	-1.12889e-40
89	0x800231ff	-2.01606e-40
90	0x000066c2	3.6863e-41
91	0x80004735	-2.5544e-41
92	0x8000f7c7	-8.8886e-41
93	0x8001c939	-1.6402e-40
94	0x80020871	-1.86699e-40
95	0x0001de67	1.71618e-40
96	0x0001a0dd	1.49542e-40
97	0x8000df02	-8e-41
98	0x0000e6d0	8.28e-41
99	0x80018787	-1.40454e-40
100	0x0001207b	1.03487e-40
101	0x80003635	-1.9446e-41
102	0x80003ccf	-2.1814e-41
103	0x0000d968	7.799e-41
104	0x0001948c	1.45124e-40
105	0x80013661	-1.11343e-40
106	0x0000a3e2	5.879e-41
107	0x8000c9e5	-7.2426e-41
108	0x00013724	1.11616e-40
109	0x00019ca6	1.4803e-40
110	0x00014d83	1.19641e-40
111	0x00016054	1.26392e-40
112	0x8000248f	-1.3115e-41
113	0x8000c1af	-6.948e-41
114	0x800062f2	-3.5495e-41
115	0x000050bb	2.896e-41
116	0x0000517a	2.9228e-41
117	0x80013038	-1.09133e-40
118	0x80013b4c	-1.13107e-40
119	0x00013e19	1.14112e-40
120	0x8000ee64	-8.5518e-41
121	0x00008116	4.6307e-41
122	0x8000a252	-5.823e-41
123	0x0001cf97	1.66305e-40
124	0x000039f7	2.0794e-41
125	0x0000421c	2.3716e-41
126	0x0000b0c8	6.3417e-41
127	0x8000c106	-6.9244e-41
128	0x0001582d	1.23467e-40
129	0x80018135	-1.38186e-40
130	0x8000ba66	-6.6867e-41
131	0x00016351	1.27464e-40
132	0x0000f38b	8.7367e-41
133	0x8000b22d	-6.3917e-41
134	0x00013c53	1.13476e-40
135	0x80014206	-1.1552e-40
136	0x0000b84c	6.6113e-41
137	0x8000ff81	-9.1658e-41
138	0x8001325c	-1.09901e-40
139	0x80005fd3	-3.4375e-41
140	0x00007159	4.0661e-41
141	0x000067e7	3.7273e-41
142	0x0000b8cb	6.6291e-41
143	0x8000c879	-7.1916e-41
144	0x800110c6	-9.7853e-41
145	0x80015c2d	-1.24902e-40
146	0x80011f9d	-1.03176e-40
147	0x800007f0	-2.847e-42
148	0x80014bcd	-1.19028e-40
149	0x800041d0	-2.3609e-41
150	0x0001895a	1.41108e-40
151	0x00005ecf	3.4011e-41
152	0x800039a1	-2.0673e-41
153	0x000172e8	1.33056e-40
154	0x80015448	-1.2207e-40
155	0x000143b4	1.16123e-40
156	0x0001621f	1.27035e-40
157	0x8000cf72	-7.4417e-41
158	0x8000d8c0	-7.7755e-41
159	0x80011e4e	-1.02707e-40
160	0x80006a5b	-3.8153e-41
161	0x800025e3	-1.3591e-41
162	0x00001ac1	9.597e-42
163	0x8000f62c	-8.831e-41
164	0x80000299	-9.32e-43
165	0x00005b63	3.2783e-41
166	0x8001205c	-1.03444e-40
167	0x0000e2b8	8.1331e-41
168	0x000139ff	1.1264e-40
169	0x000006b4	2.405e-42
170	0x8001a807	-1.52112e-40
171	0x00016204	1.26997e-40
172	0x800055a1	-3.0718e-41
173	0x8000750f	-4.1993e-41
174	0x8000280b	-1.4365e-41
175	0x000170f1	1.32351e-40
176	0x0000b6cd	6.5577e-41
177	0x800092b9	-5.2634e-41
178	0x8000bce1	-6.7757e-41
179	0x0000b11b	6.3533e-41
180	0x8000a8af	-6.0512e-41
181	0x00012de7	1.08302e-40
182	0x0000665e	3.6722e-41
183	0x00008e9e	5.1161e-41
184	0x0000f84b	8.9071e-41
185	0x80009e70	-5.6837e-41
186	0x00012097	1.03527e-40
187	0x00017b58	1.36083e-40
188	0x800013f7	-7.162e-42
189	0x800038cc	-2.0375e-41
190	0x00014e1c	1.19856e-40
191	0x8000fd5d	-9.089e-41
192	0x8001707d	-1.32189e-40
193	0x00016ce1	1.30894e-40
194	0x8000da52	-7.8319e-41
195	0x00006662	3.6728e-41
196	0x0000a152	5.7871e-41
197	0x80015ef9	-1.25905e-40
198	0x8001a0fb	-1.49584e-40
199	0x00015d72	1.25357e-40
200	0x00003316	1.8326e-41
201	0x00016d88	1.31128e-40
202	0x00001ccc	1.033e-41
203	0x80011b62	-1.01659e-40
204	0x80011f8e	-1.03155e-40
205	0x8000b6c6	-6.5567e-41
206	0x8001691c	-1.29542e-40
207	0x0001803f	1.37842e-40
208	0x000067ef	3.7284e-41
209	0x80008cbb	-5.0485e-41
210	0x800106ab	-9.4228e-41
211	0x80014800	-1.17664e-40
212	0x80004312	-2.406e-41
213	0x8000f266	-8.6956e-41
214	0x0000bf82	6.87e-41
215	0x00018994	1.41189e-40
216	0x0000bdb4	6.8053e-41
217	0x80009b89	-5.5796e-41
218	0x8001986f	-1.46518e-40
219	0x00011533	9.944e-41
220	0x800026fa	-1.3982e-41
221	0x00014b59	1.18865e-40
222	0x800143e9	-1.16197e-40
223	0x00009aac	5.5486e-41
224	0x8001a8e4	-1.52422e-40
225	0x0001275f	1.05959e-40
226	0x800193bf	-1.44837e-40
227	0x80020283	-1.84572e-40
228	0x0001176b	1.00236e-40
229	0x80010903	-9.5068e-41
230	0x000232d3	2.01903e-40
231	0x00007aa6	4.3998e-41
232	0x000071d6	4.0837e-41
233	0x00012f76	1.08861e-40
234	0x00015504	1.22333e-40
235	0x00011453	9.9126e-41
236	0x0000dd7d	7.9455e-41
237	0x0001b682	1.57307e-40
238	0x8000a3f2	-5.8812e-41
239	0x80010c2a	-9.6199e-41
240	0x8001491c	-1.18062e-40
241	0x0000e574	8.2312e-41
242	0x80018d70	-1.42574e-40
243	0x00001910	8.991e-42
244	0x8001a1ab	-1.49831e-40
245	0x80015859	-1.23529e-40
246	0x00013978	1.12451e-40
247	0x800140a7	-1.15028e-40
248	0x800039ee	-2.0781e-41
249	0x0000cfd5	7.4556e-41
250	0x00012c27	1.07674e-40
251	0x00005d59	3.3487e-41
252	0x800172e6	-1.33053e-40
253	0x0001205d	1.03445e-40
254	0x8000f576	-8.8055e-41
255	0x8000330f	-1.8316e-41

e_conv3.point_conv.bias f4 [32]
0	0x8001a55c	-1.51155e-40
1	0x000093b1	5.2982e-41
2	0x0001ab77	1.53345e-40
3	0x8000a1db	-5.8063e-41
4	0x0000282c	1.4411e-41
5	0x80007319	-4.1289e-41
6	0x8001b8e8	-1.58167e-40
7	0x8001543c	-1.22053e-40
8	0x8000a045	-5.7494e-41
9	0x80002c29	-1.5842e-41
10	0x0000d56c	7.6561e-41
11	0x8000c438	-7.039e-41
12	0x80003e87	-2.243e-41
13	0x800111f1	-9.8272e-41
14	0x00015909	1.23775e-40
15	0x80016baf	-1.30465e-40
16	0x0000da3e	7.829e-41
17	0x00014ad5	1.1868e-40
18	0x0001924b	1.44316e-40
19	0x00002045	1.1576e-41
20	0x0000af6b	6.2928e-41
21	0x80007538	-4.205e-41
22	0x0000909f	5.188e-41
23	0x8001174a	-1.0019e-40
24	0x80014dbf	-1.19726e-40
25	0x80000c13	-4.331e-42
26	0x0000ec2e	8.4725e-41
27	0x8000dbce	-7.8851e-41
28	0x00009ddb	5.6628e-41
29	0x8001b262	-1.55827e-40
30	0x00011ddc	1.02547e-40
31	0x0001786f	1.35039e-40

e_conv4.depth_conv.weight f4 [32, 1, 3, 3]
0	0x0000df23	8.0046e-41
1	0x8001be1b	-1.60032e-40
2	0x8000682c	-3.737e-41
3	0x8000d858	-7.761e-41
4	0x000130c4	1.0933e-40
5	0x800186b4	-1.40158e-40
6	0x000036cc	1.9657e-41
7	0x8000b045	-6.3234e-41
8	0x80012bb1	-1.07509e-40
9	0x80006d6f	-3.9257e-41
10	0x8000bf97	-6.873e-41
11	0x80006c9f	-3.8966e-41
12	0x000010a7	5.974e-42
13	0x0001b2fd	1.56044e-40
14	0x00016e7e	1.31473e-40
15	0x80012799	-1.0604e-40
16	0x80010c73	-9.6301e-41
17	0x0001369e	1.11428e-40
18	0x0000efb2	8.5986e-41
19	0x80003ea8	-2.2477e-41
20	0x0001792b	1.35302e-40
21	0x8000ff99	-9.1691e-41
22	0x8000b05d	-6.3267e-41
23	0x8000aa99	-6.1199e-41
24	0x0000c1ad	6.9478e-41
25	0x00019bcc	1.47725e-40
26	0x8000a27d	-5.829e-41
27	0x00010f44	9.7312e-41
28	0x0000e82d	8.3289e-41
29	0x800103d4	-9.3209e-41
30	0x80015f44	-1.2601e-40
31	0x0000d420	7.6096e-41
32	0x80014aef	-1.18717e-40
33	0x00009695	5.4019e-41
34	0x000166b7	1.28683e-40
35	0x000109c2	9.5336e-41
36	0x00011b35	1.01596e-40
37	0x00001979	9.138e-42
38	0x8000dfa2	-8.0224e-41
39	0x8000ffc5	-9.1753e-41
40	0x8000d328	-7.5749e-41
41	0x000078ab	4.3288e-41
42	0x00009fd2	5.7333e-41
43	0x8000632c	-3.5576e-41
44	0x00020023	1.8372e-40
45	0x000103bc	9.3175e-41
46	0x8000c234	-6.9667e-41
47	0x800042c2	-2.3948e-41
48	0x00000840	2.96e-42
49	0x0000a9d7	6.0927e-41
50	0x80002223	-1.2246e-41
51	0x00003bb0	2.1412e-41
52	0x800094e3	-5.341e-41
53	0x80012f76	-1.08861e-40
54	0x00011375	9.8815e-41
55	0x00011034	9.7648e-41
56	0x8000e59d	-8.237e-41
57	0x800109c4	-9.5339e-41
58	0x000150c1	1.20805e-40
59	0x000076fc	4.2684e-41
60	0x0001bb64	1.59059e-40
61	0x80005814	-3.1596e-41
62	0x00003b90	2.1367e-41
63	0x0000f7a8	8.8842e-41
64	0x0000ee35	8.5453e-41
65	0x0000fcd1	9.0693e-41
66	0x8000bbe3	-6.7401e-41
67	0x8000dcf7	-7.9267e-41
68	0x80006ee9	-3.9787e-41
69	0x80004fba	-2.86e-41
70	0x0000034d	1.184e-42
71	0x00007ed2	4.5495e-41
72	0x0000da77	7.837e-41
73	0x80015023	-1.20583e-40
74	0x00007899	4.3262e-41
75	0x00008824	4.8838e-41
76	0x80018f34	-1.43207e-40
77	0x8000ebf3	-8.4643e-41
78	0x800073a0	-4.1478e-41
79	0x80011747	-1.00186e-40
80	0x80007420	-4.1658e-41
81	0x00001ab4	9.579e-42
82	0x00004b4a	2.7009e-41
83	0x0000c799	7.1602e-41
84	0x8000e471	-8.195e-41
85	0x80007b34	-4.4197e-41
86	0x0000a658	5.9673e-41
87	0x800093f9	-5.3083e-41
88	0x00013e7c	1.1425e-40
89	0x80008d36	-5.0657e-41
90	0x8000d0c1	-7.4887e-41
91	0x8000921b	-5.2413e-41
92	0x8000b1a3	-6.3724e-41
93	0x80019292	-1.44415e-40
94	0x8001e54a	-1.74089e-40
95	0x8000cca8	-7.3417e-41
96	0x0000043c	1.519e-42
97	0x80015fd3	-1.26211e-40
98	0x800012e4	-6.777e-42
99	0x80001001	-5.741e-42
100	0x00011eab	1.02837e-40
101	0x0000f988	8.9515e-41
102	0x00010adb	9.573e-41
103	0x80008a0f	-4.9526e-41
104	0x00004dc1	2.7893e-41
105	0x8000a51b	-5.9229e-41
106	0x80005e02	-3.3724e-41
107	0x0000f208	8.6824e-41
108	0x8001df12	-1.71858e-40
109	0x0000a18e	5.7955e-41
110	0x0000619f	3.502e-41
111	0x800125d8	-1.05411e-40
112	0x80006b59	-3.8509e-41
113	0x8000fda8	-9.0995e-41
114	0x00009d14	5.6349e-41
115	0x800009c9	-3.51e-42
116	0x80001686	-8.08e-42
117	0x0000c7bf	7.1655e-41
118	0x00005a93	3.2492e-41
119	0x000055be	3.0759e-41
120	0x00003f43	2.2694e-41
121	0x00014c9e	1.1932e-40
122	0x80009771	-5.4327e-41
123	0x800085b5	-4.7965e-41
124	0x00003b46	2.1263e-41
125	0x8001629e	-1.27213e-40
126	0x0001c037	1.60789e-40
127	0x0000fb94	9.0249e-41
128	0x00004096	2.3169e-41
129	0x0000dbb1	7.881e-41
130	0x80019cb7	-1.48054e-40
131	0x80010c83	-9.6324e-41
132	0x00004b1e	2.6947e-41
133	0x0000d131	7.5044e-41
134	0x80007fb5	-4.5813e-41
135	0x0000e028	8.0412e-41
136	0x00002a66	1.521e-41
137	0x800100fa	-9.2186e-41
138	0x00003d2d	2.1946e-41
139	0x00009b8d	5.5801e-41
140	0x80006865	-3.745e-41
141	0x80009400	-5.3092e-41
142	0x80012a8d	-1.071e-40
143	0x80016bc0	-1.30489e-40
144	0x80005139	-2.9137e-41
145	0x8000d3ca	-7.5976e-41
146	0x0000ee40	8.5468e-41
147	0x000048e2	2.6145e-41
148	0x8000661d	-3.6631e-41
149	0x00007ca5	4.4714e-41
150	0x800004f0	-1.771e-42
151	0x80000a57	-3.709e-42
152	0x800033f1	-1.8633e-41
153	0x8000e874	-8.3388e-41
154	0x80004908	-2.6199e-41
155	0x80011e41	-1.02689e-40
156	0x80005396	-2.9985e-41
157	0x0000bbb0	6.733e-41
158	0x00011028	9.7631e-41
159	0x000118cb	1.0073e-40
160	0x0000ee71	8.5537e-41
161	0x0001825a	1.38597e-40
162	0x8001c00c	-1.60729e-40
163	0x8000ee18	-8.5412e-41
164	0x00011e87	1.02787e-40
165	0x80005802	-3.1571e-41
166	0x80016155	-1.26752e-40
167	0x000010dc	6.048e-42
168	0x000068c2	3.758e-41
169	0x000178eb	1.35213e-40
170	0x8001f332	-1.79078e-40
171	0x0000e487	8.198e-41
172	0x00012465	1.04891e-40
173	0x8000c955	-7.2224e-41
174	0x80007a3e	-4.3852e-41
175	0x0000743a	4.1694e-41
176	0x0000f119	8.649e-41
177	0x000131c5	1.0969e-40
178	0x00010324	9.2962e-41
179	0x80005af4	-3.2628e-41
180	0x00008ff0	5.1635e-41
181	0x00021151	1.89883e-40
182	0x000111c2	9.8206e-41
183	0x0000a192	5.796e-41
184	0x000123b0	1.04638e-40
185	0x8001588a	-1.23597e-40
186	0x80007acc	-4.4051e-41
187	0x80003e06	-2.225e-41
188	0x8000181b	-8.647e-42
189	0x8000d3eb	-7.6022e-41
190	0x80005963	-3.2066e-41
191	0x0000e7ba	8.3128e-41
192	0x00014f4b	1.2028e-40
193	0x8000675b	-3.7077e-41
194	0x8000fc8b	-9.0595e-41
195	0x00016cfe	1.30935e-40
196	0x80004236	-2.3752e-41
197	0x80012aab	-1.07142e-40
198	0x80012a96	-1.07112e-40
199	0x00005fe1	3.4395e-41
200	0x800127a6	-1.06059e-40
201	0x80016111	-1.26656e-40
202	0x0000d7f2	7.7467e-41
203	0x00006d58	3.9225e-41
204	0x00002845	1.4446e-41
205	0x80009bf5	-5.5947e-41
206	0x80015928	-1.23819e-40
207	0x8000be2c	-6.8221e-41
208	0x8001661b	-1.28464e-40
209	0x0000504f	2.8809e-41
210	0x80003a1a	-2.0843e-41
211	0x0000eef3	8.5719e-41
212	0x0000c90b	7.212e-41
213	0x000114c0	9.9279e-41
214	0x0000e703	8.2871e-41
215	0x80011012	-9.76e-41
216	0x8000e0c0	-8.0625e-41
217	0x80020a4f	-1.87369e-40
218	0x0000786c	4.3199e-41
219	0x00012c79	1.07789e-40
220	0x80008116	-4.6307e-41
221	0x8000686c	-3.746e-41
222	0x00009ef3	5.702e-41
223	0x00017185	1.32559e-40
224	0x8000d855	-7.7605e-41
225	0x8000a621	-5.9596e-41
226	0x800074ff	-4.197e-41
227	0x00020bb3	1.87868e-40
228	0x00015079	1.20704e-40
229	0x8000db13	-7.8589e-41
230	0x80017e98	-1.37249e-40
231	0x8000f6be	-8.8514e-41
232	0x00017775	1.34689e-40
233	0x00007dca	4.5125e-41
234	0x8000ed66	-8.5163e-41
235	0x0000e399	8.1647e-41
236	0x000081af	4.6522e-41
237	0x8000760d	-4.2349e-41
238	0x800022f6	-1.2542e-41
239	0x00009f4d	5.7146e-41
240	0x00014258	1.15635e-40
241	0x800169bd	-1.29767e-40
242	0x8001134a	-9.8755e-41
243	0x800029fd	-1.5063e-41
244	0x00003800	2.0089e-41
245	0x0000316f	1.7733e-41
246	0x000143ee	1.16204e-40
247	0x000012d2	6.751e-42
248	0x8001878e	-1.40463e-40
249	0x0000a02f	5.7463e-41
250	0x8001fd87	-1.82784e-40
251	0x800082c4	-4.691e-41
252	0x80005502	-3.0495e-41
253	0x80009a45	-5.5341e-41
254	0x00005526	3.0546e-41
255	0x80007079	-4.0348e-41

e_conv4.depth_conv.bias f4 [32]
0	0x0000a7a3	6.0137e-41
1	0x8000aaa5	-6.1216e-41
2	0x0000bfa2	6.8745e-41
3	0x80003a36	-2.0882e-41
4	0x80008531	-4.778e-41
5	0x80005a70	-3.2443e-41
6	0x80000749	-2.613e-42
7	0x8000f050	-8.6208e-41
8	0x000139e4	1.12603e-40
9	0x8000f1ac	-8.6696e-41
10	0x8000d41a	-7.6088e-41
11	0x0000cdf5	7.3883e-41
12	0x8000fc86	-9.0588e-41
13	0x8000f78d	-8.8804e-41
14	0x800114fb	-9.9362e-41
15	0x80018f2b	-1.43194e-40
16	0x00011e9c	1.02816e-40
17	0x80007bea	-4.4452e-41
18	0x800083ad	-4.7236e-41
19	0x8000eb57	-8.4424e-41
20	0x000157fe	1.23401e-40
21	0x80004b7c	-2.7079e-41
22	0x00010236	9.2629e-41
23	0x0000015a	4.85e-43
24	0x80008eef	-5.1275e-41
25	0x0000f8be	8.9232e-41
26	0x0000773f	4.2777e-41
27	0x8000aba5	-6.1574e-41
28	0x0000df72	8.0157e-41
29	0x80010187	-9.2383e-41
30	0x0001385e	1.12056e-40
31	0x00012ff8	1.09043e-40

e_conv4.point_conv.weight f4 [32, 32, 1, 1]
0	0x80013366	-1.10274e-40
1	0x8001d5d5	-1.68544e-40
2	0x8001fc39	-1.82316e-40
3	0x80002090	-1.1681e-41
4	0x0000807e	4.6094e-41
5	0x00012cff	1.07977e-40
6	0x000145ee	1.16922e-40
7	0x80015d72	-1.25357e-40
8	0x80011850	-1.00557e-40
9	0x8001f09c	-1.7815e-40
10	0x8000c9a4	-7.2335e-41
11	0x0000bd33	6.7872e-41
12	0x800112d5	-9.8591e-41
13	0x000141b1	1.15401e-40
14	0x00012a24	1.06953e-40
15	0x00016ae5	1.30182e-40
16	0x8001ba3f	-1.58648e-40
17	0x0000a8bb	6.0529e-41
18	0x0001eb4e	1.76247e-40
19	0x000047d2	2.5764e-41
20	0x0001e6de	1.74655e-40
21	0x8000b0c9	-6.3419e-41
22	0x80007415	-4.1642e-41
23	0x0001602f	1.2634e-40
24	0x800093ca	-5.3017e-41
25	0x80005c5b	-3.3131e-41
26	0x8000112d	-6.162e-42
27	0x0001b290	1.55892e-40
28	0x8001612d	-1.26696e-40
29	0x80006f0e	-3.9839e-41
30	0x000138d5	1.12223e-40
31	0x000098f9	5.4876e-41
32	0x00010d97	9.671e-41
33	0x00000acc	3.873e-42
34	0x00011e79	1.02767e-40
35	0x80010486	-9.3458e-41
36	0x00008925	4.9198e-41
37	0x80010bf7	-9.6128e-41
38	0x8001bd7d	-1.59811e-40
39	0x80018f00	-1.43134e-40
40	0x00002d3d	1.6228e-41
41	0x000189e3	1.413e-40
42	0x8001e44a	-1.7373e-40
43	0x8000d86b	-7.7636e-41
44	0x00002e77	1.6668e-41
45	0x8000fb61	-9.0178e-41
46	0x0000f2ac	8.7054e-41
47	0x00014163	1.15292e-40
48	0x80016381	-1.27531e-40
49	0x00004577	2.4919e-41
50	0x8000e6d7	-8.281e-41
51	0x8000b729	-6.5705e-41
52	0x8000991e	-5.4928e-41
53	0x800140b7	-1.15051e-40
54	0x00016a51	1.29975e-40
55	0x00011ae2	1.01479e-40
56	0x8000d35a	-7.5819e-41
57	0x00006874	3.7471e-41
58	0x0000d156	7.5096e-41
59	0x00008cfe	5.0578e-41
60	0x8000af28	-6.2834e-41
61	0x0000a2be	5.8381e-41
62	0x80001e8e	-1.0961e-41
63	0x80001ebb	-1.1024e-41
64	0x80013974	-1.12446e-40
65	0x8001680e	-1.29163e-40
66	0x8000e75b	-8.2995e-41
67	0x80003033	-1.729e-41
68	0x80016d78	-1.31105e-40
69	0x00018d6b	1.42567e-40
70	0x80018471	-1.39347e-40
71	0x800039cc	-2.0734e-41
72	0x80012333	-1.04463e-40
73	0x0001ceb0	1.65981e-40
74	0x000063aa	3.5753e-41
75	0x80004713	-2.5497e-41
76	0x0001a18f	1.49792e-40
77	0x8000473a	-2.5551e-41
78	0x800069a2	-3.7894e-41
79	0x80010b3b	-9.5864e-41
80	0x80003b74	-2.1328e-41
81	0x80000c5b	-4.432e-42
82	0x0000ad3c	6.2145e-41
83	0x00001ec8	1.1042e-41
84	0x80018278	-1.38639e-40
85	0x80016daa	-1.31176e-40
86	0x00002a47	1.5166e-41
87	0x80018452	-1.39303e-40
88	0x800040c0	-2.3228e-41
89	0x8000ba2c	-6.6786e-41
90	0x80002ca1	-1.601e-41
91	0x0000b179	6.3665e-41
92	0x8000eaf7	-8.429e-41
93	0x00018351	1.38943e-40
94	0x00015888	1.23595e-40
95	0x00010425	9.3322e-41
96	0x00000927	3.283e-42
97	0x800018de	-8.92e-42
98	0x80014b44	-1.18836e-40
99	0x00009773	5.433e-41
100	0x0000b86c	6.6158e-41
101	0x00009407	5.3102e-41
102	0x80011cbb	-1.02142e-40
103	0x80009b9f	-5.5826e-41
104	0x00014dee	1.19791e-40
105	0x80007e0a	-4.5214e-41
106	0x0000581d	3.1609e-41
107	0x8001053c	-9.3713e-41
108	0x8000f9f0	-8.966e-41
109	0x8000fe14	-9.1146e-41
110	0x80005fb9	-3.4339e-41
111	0x8001294b	-1.06649e-40
112	0x0000de73	7.98e-41
113	0x8001a0e1	-1.49548e-40
114	0x00017efd	1.3739e-40
115	0x00017291	1.32934e-40
116	0x8000e014	-8.0384e-41
117	0x000176b5	1.3442e-40
118	0x0000aa66	6.1127e-41
119	0x000060af	3.4684e-41
120	0x0001b4f8	1.56755e-40
121	0x000049e3	2.6506e-41
122	0x8001a211	-1.49974e-40
123	0x00001e77	1.0929e-41
124	0x80008470	-4.751e-41
125	0x0001bf13	1.6038e-40
126	0x0000e2c3	8.1347e-41
127	0x000126bc	1.05731e-40
128	0x80005d07	-3.3372e-41
129	0x8000d9f8	-7.8192e-41
130	0x800022e2	-1.2514e-41
131	0x80017a24	-1.35651e-40
132	0x80009410	-5.3115e-41
133	0x0000344e	1.8763e-41
134	0x0001243d	1.04835e-40
135	0x0000913c	5.21e-41
136	0x00006896	3.7518e-41
137	0x8001120e	-9.8312e-41
138	0x80001b80	-9.865e-42
139	0x00018508	1.39558e-40
140	0x00006ba0	3.8609e-41
141	0x8001a179	-1.49761e-40
142	0x000186c7	1.40184e-40
143	0x00009778	5.4337e-41
144	0x0001428a	1.15705e-40
145	0x8000fb66	-9.0185e-41
146	0x000035aa	1.9251e-41
147	0x00009429	5.315e-41
148	0x0000a00c	5.7414e-41
149	0x00005153	2.9174e-41
150	0x00004af3	2.6887e-41
151	0x8000f5ca	-8.8173e-41
152	0x00009128	5.2072e-41
153	0x8001773e	-1.34612e-40
154	0x00014563	1.16727e-40
155	0x0000e0fb	8.0708e-41
156	0x000136d4	1.11504e-40
157	0x0000f660	8.8383e-41
158	0x0000cc36	7.3257e-41
159	0x0000dd9d	7.95e-41
160	0x0000767a	4.2501e-41
161	0x80005b36	-3.272e-41
162	0x000116be	9.9994e-41
163	0x000075b1	4.222e-41
164	0x000117a8	1.00322e-40
165	0x8000ebfa	-8.4652e-41
166	0x8001dc88	-1.70947e-40
167	0x8000daee	-7.8537e-41
168	0x00015957	1.23885e-40
169	0x800068c5	-3.7584e-41
170	0x00008993	4.9352e-41
171	0x00017fbc	1.37658e-40
172	0x000194d5	1.45226e-40
173	0x8001e284	-1.73094e-40
174	0x0000f842	8.9058e-41
175	0x0000681a	3.7345e-41
176	0x0000e734	8.294e-41
177	0x0001b7e7	1.57807e-40
178	0x0001a170	1.49748e-40
179	0x0000f08b	8.629e-41
180	0x0000f6d6	8.8548e-41
181	0x8000f736	-8.8683e-41
182	0x80001c9b	-1.0262e-41
183	0x80000e5f	-5.155e-42
184	0x80000b6c	-4.097e-42
185	0x800016ac	-8.133e-42
186	0x800117da	-1.00392e-40
187	0x00011f9b	1.03173e-40
188	0x800076b1	-4.2578e-41
189	0x80013940	-1.12373e-40
190	0x800139e4	-1.12603e-40
191	0x80010225	-9.2605e-41
192	0x800070ea	-4.0506e-41
193	0x000114a0	9.9234e-41
194	0x8000d3c4	-7.5967e-41
195	0x00007d4c	4.4948e-41
196	0x8001080e	-9.4725e-41
197	0x80017e8b	-1.3723e-40
198	0x8001d1a0	-1.67035e-40
199	0x00009773	5.433e-41
200	0x8000133b	-6.899e-42
201	0x8001b5d0	-1.57058e-40
202	0x0000eb85	8.4488e-41
203	0x0000c860	7.1881e-41
204	0x80015cb9	-1.25098e-40
205	0x8000eb0f	-8.4323e-41
206	0x0000d28c	7.553e-41
207	0x000082c3	4.6908e-41
208	0x000097c6	5.4446e-41
209	0x00000e6a	5.171e-42
210	0x80012d4f	-1.08089e-40
211	0x8000fb9c	-9.026e-41
212	0x80009ee4	-5.6999e-41
213	0x8000f844	-8.9061e-41
214	0x80019419	-1.44963e-40
215	0x800086db	-4.8377e-41
216	0x0000dba8	7.8798e-41
217	0x80015f1c	-1.25954e-40
218	0x8000f284	-8.6998e-41
219	0x80004898	-2.6042e-41
220	0x0000b42f	6.4638e-41
221	0x0000a736	5.9984e-41
222	0x8000304a	-1.7323e-41
223	0x0000a887	6.0456e-41
224	0x800154f8	-1.22317e-40
225	0x80003d54	-2.2e-41
226	0x0000a301	5.8475e-41
227	0x8000fc04	-9.0406e-41
228	0x8001495d	-1.18153e-40
229	0x80010be3	-9.61e-41
230	0x80013dc4	-1.13993e-40
231	0x0001880d	1.40641e-40
232	0x0000bae5	6.7045e-41
233	0x8000dd7b	-7.9452e-41
234	0x00008978	4.9314e-41
235	0x80019e46	-1.48613e-40
236	0x80010d5f	-9.6632e-41
237	0x00000d44	4.759e-42
238	0x80010e4d	-9.6966e-41
239	0x0000d954	7.7963e-41
240	0x0001a952	1.52576e-40
241	0x00010143	9.2288e-41
242	0x00002674	1.3794e-41
243	0x8000cd78	-7.3708e-41
244	0x8001372e	-1.1163e-40
245	0x800063ed	-3.5847e-41
246	0x000020c8	1.176e-41
247	0x8001fd86	-1.82783e-40
248	0x00015f54	1.26033e-40
249	0x00011c5a	1.02006e-40
250	0x80012990	-1.06745e-40
251	0x8000b14a	-6.36e-41
252	0x0000474e	2.558e-41
253	0x0000ef96	8.5947e-41
254	0x80015226	-1.21305e-40
255	0x00012ac8	1.07183e-40

e_conv4.point_conv.bias f4 [32]
0	0x00004838	2.5907e-41
1	0x000102a6	9.2786e-41
2	0x80004ccc	-2.755e-41
3	0x8001010c	-9.2211e-41
4	0x8000f73c	-8.8691e-41
5	0x80006ab6	-3.828e-41
6	0x00011979	1.00973e-40
7	0x0000e9e4	8.3904e-41
8	0x8000786d	-4.32e-41
9	0x0001956b	1.45437e-40
10	0x80022bc6	-1.99374e-40
11	0x000067b8	3.7207e-41
12	0x80012700	-1.05826e-40
13	0x8000d653	-7.6885e-41
14	0x8000204a	-1.1583e-41
15	0x80010bd8	-9.6084e-41
16	0x8001ced4	-1.66031e-40
17	0x80002d92	-1.6348e-41
18	0x8000e0bd	-8.0621e-41
19	0x8000ea8b	-8.4138e-41
20	0x0000d4dd	7.6361e-41
21	0x00001ddb	1.071e-41
22	0x80014ce4	-1.19419e-40
23	0x8000d206	-7.5342e-41
24	0x00010b60	9.5916e-41
25	0x800029d1	-1.5001e-41
26	0x80006091	-3.4641e-41
27	0x0000973f	5.4257e-41
28	0x8001bea1	-1.6022e-40
29	0x0000bd27	6.7855e-41
30	0x8001239b	-1.04608e-40
31	0x80006021	-3.4485e-41
